gail/save_model/0/SUB002_ckpt_20.pth.tar (torch_old, 154733 bytes, 16 tensors)

fc1.weight f4 [100, 22]
00000000: 0bda fbbd 2d3d 2ebd 6715 df3d 848d b0bd
00000010: 1cfe 88be eae0 163e f70c 44bd 3ce5 373e
00000020: 7c8f 623e 4c25 023e 003e 8ebc 3886 2e3e
00000030: 4eb4 d8bd 184a e23c 9825 4dbe c06f 223d
00000040: 7025 723d 4033 0fbc 78f1 333d bc58 cd3d
00000050: dc39 e33d 2212 293e b3ca 103e 53f5 66bb
00000060: 321d 5cbe ff05 413e 6a78 e23c 880e 0fbf
00000070: 7b11 f0be e965 95be ea0d 01bf 60a0 82bc
00000080: 80ca d93d 428d 403e 8245 3fbe 08aa 563d
00000090: c87c 253e 885d 423d e0f2 743d 8098 4abe
000000a0: 60d8 13bd e859 d7bd 4c4c 0a3e c495 50be
000000b0: b375 813e 77bb 97be a2d0 8dbd dfd8 3cbe
000000c0: 930d 57be 015a 2bbe 133b c4be 206d 85be
000000d0: 7ae5 75bd f4e6 823d 80e2 423d e2fd 343e
000000e0: 2aac 90bd e061 00bd 386a f13d f2de 593e
000000f0: b48a 903d 702e 3f3d 2bd9 cdbd 00e4 5a3c
00000100: 0899 e8bc 707d b63c b9cd 2b3e 58ce 38be
00000110: 013b fcbd 18ac f5bd f174 f0be 4dbe 22be
00000120: 2acd 363e 8005 01bc 4f45 be3b 01da dabd
00000130: 33e9 1abe c8ad 403d 1ac7 463e 45c5 ebbd
00000140: 808b c0bd b850 243e 7c20 8a3d 961e 3c3e
00000150: 3081 b13c 5c39 07be 3e95 283e c202 4d3e
00000160: 0623 c9bd 5345 f5bc fa6c aebd 1507 36be
00000170: 480e 7cbc 9925 093e 8d1f cf3d efc8 14be
00000180: 2238 403e 24fa f9bd 820d 0b3e e06a ae3b
00000190: 20b2 ac3d 888f b9bc 6854 bc3d 7659 283e
000001a0: edcf 41be 04e5 043e 28a2 423e 8c7a fa3d
000001b0: b053 d03d 2465 3abd 78a3 d3be ac75 08be
000001c0: a875 663e 1dd0 28be b2bd 3f3e db50 fd3e
000001d0: fad4 563e c4b4 f03e ea2c c73e 0c99 f63d
000001e0: 487b 25bd ba00 a4bd a8b9 24bd a814 703d
000001f0: 902a 173d 588b 543e 0467 453e dc31 033d
00000200: b850 0abd 94d6 07bd 8032 6ebd b81f ed3d
00000210: 43a8 51be dbf7 263e c363 bebd c72a 4d3d
00000220: 480f b3bd fb5a d93d df46 433e 7c57 e33d
00000230: 2c29 a43e 8093 c03a 4cbd b63d 342d bd3d
00000240: 50d3 b03d c7cf 02be 12a7 093e 00fa 77bd
00000250: 2c53 57bd d054 a33c 2a1e 173e 3e4a 1c3e
00000260: c89a 9cbd 403c 893b 43ed 15be 4d6f 98be
00000270: e209 d73e 2c4e 2a3e a5fc 9d3e dd1c b1bd
00000280: 9429 383e 91d8 113e f09f 95bc 2045 303c
00000290: 6469 d23d d4ac 13bd cb67 e9bd a4c0 a73d
000002a0: b056 dc3d 96a3 0f3e 90b3 243d cb31 e2bd
000002b0: 58ee 69bd b0e6 093e 9c95 ae3d b4a8 54bd
000002c0: d0d9 1a3b 2890 8abd a2b8 393d ca50 4d3e
000002d0: b4f1 d9bd 3d28 453e 8f55 21be 079c 443e
000002e0: 095b 3a3e 5890 033e ec6e 443e c08f 013b
000002f0: 27be 2cbe d8c9 973c b9b8 58be 08d4 063d
00000300: dec1 0fbe 045e f63d c46a e23d 14c8 41bd
00000310: d033 e9bd 9783 fcbd 732e efbd f5a0 143f
00000320: 06a0 883e 6d25 953e 031e adbd 4154 ad3e
00000330: be62 453e f833 823e 57de d33d 38ec 2dbe
00000340: 1c9c 4d3e 3869 b5bd 3408 413e 73e1 31be
00000350: 30c1 1c3d 4c28 493e ced6 56be 86ef 38be
00000360: 415d 1cbe 881b fbbc f030 533d f635 48be
00000370: 3756 3dbd f8d8 023c 39a0 523e 9981 ea3d
00000380: 0213 7e3e f739 babc d623 edbd 4b50 5bbd
00000390: a3cc cdbc 986b 91bd 6d15 38be 947b 213e
000003a0: 6840 af3c 6ca1 f83d cc89 0b3e 4ca5 473e
000003b0: 051b 31be ff48 c4bd a8a7 6c3d a843 29bd
000003c0: 8868 ef3d 202c 83bc 156c 80bd 6f93 7abe
000003d0: 236a 30bc aef3 583e 41b1 ff3d be17 8b3e
000003e0: cfa2 9d3c 1b68 803d c631 b13d f475 8c3d
000003f0: 52f6 4bbe 921a 0f3e 50b4 403d 14b5 073d
-0.12297448 -0.04253881 0.10892754 -0.08620742 -0.2675637 0.14734235 -0.047863927 0.1795854
0.22125047 0.1270954 -0.017363548 0.17043388 -0.105812654 0.027623221 -0.20033872 0.039657354
0.059117734 -0.008740246 0.043931454 0.1002669 0.1109502 0.16510823 0.14139824 -0.003524144
-0.21495512 0.18849944 0.027645309 -0.5588155 -0.46888337 -0.29179314 -0.50411856 -0.015945613
0.10634327 0.18803886 -0.18678859 0.05240825 0.16160882 0.04745248 0.059801936 -0.19784737
-0.036095023 -0.10515195 0.13505667 -0.20369631 0.2528511 -0.29635212 -0.06924559 -0.18442105
-0.21001272 -0.16733553 -0.3832632 -0.26059818 -0.0600333 0.06391707 0.04757929 0.17674974
-0.07064088 -0.03134334 0.11787838 0.21276453 0.070577055 0.046675146 -0.10051187 0.0133600235
-0.028393283 0.02227661 0.16777696 -0.18047464 -0.123159416 -0.11995715 -0.4696422 -0.15892906
0.17851701 -0.007874846 0.005806602 -0.10686112 -0.15128021 0.04704073 0.19411889 -0.115122356
-0.094016075 0.16046417 0.06744477 0.18371043 0.021668047 -0.13205475 0.16463181 0.20020583
-0.09821133 -0.029940283 -0.085168794 -0.17776139 -0.015384264 0.13393249 0.1011344 -0.14529775
0.18771413 -0.12205914 0.13579372 0.005322799 0.08432412 -0.022651449 0.09195787 0.16440377
-0.18926974 0.12977988 0.1900717 0.12230405 0.10172212 -0.04550661 -0.41335654 -0.13326138
0.2250582 -0.16485639 0.18724707 0.4947575 0.20979682 0.47012913 0.38901454 0.1204091
-0.040400773 -0.08007951 -0.040216118 0.05861345 0.036905825 0.2075628 0.19277579 0.03202997
-0.033768386 -0.033163622 -0.05815363 0.115783155 -0.20474343 0.16305487 -0.09296372 0.050089624
-0.08743149 0.10613056 0.19070004 0.11100671 0.32062662 0.0014692396 0.08922824 0.092371374
0.08634055 -0.12774573 0.13442639 -0.060541153 -0.052569553 0.019937903 0.147576 0.15262696
-0.0764671 0.0041880906 -0.1464129 -0.29772416 0.41999727 0.16631383 0.30856815 -0.08648083
0.17984611 0.1424277 -0.01826474 0.010758668 0.10274008 -0.036053494 -0.1139675 0.0819104
0.10758722 0.14027247 0.040210307 -0.110446535 -0.057112068 0.13466907 0.085246295 -0.0519187
0.0023628362 -0.06765777 0.045342095 0.2005035 -0.10641804 0.19253631 -0.15755294 0.19200145
0.1819879 0.12848032 0.19182938 0.001976952 -0.16869412 0.018528864 -0.21164216 0.032917053
-0.14038798 0.12029651 0.1105552 -0.04730995 -0.113868356 -0.12329786 -0.11678781 0.580581
0.26684588 0.29130116 -0.0845299 0.33853343 0.19275948 0.25430274 0.10345142 -0.16984642
0.20079082 -0.088579595 0.18850785 -0.17371158 0.038270175 0.19644278 -0.20980379 -0.18060121
-0.15269949 -0.030652776 0.051560342 -0.19551834 -0.0462248 0.0079863 0.20568933 0.114505
0.24811938 -0.022732718 -0.11579101 -0.05354337 -0.025121992 -0.071006 -0.17976923 0.15769798
0.021393016 0.12140164 0.13626784 0.1949665 -0.17295463 -0.095842354 0.057777077 -0.041324288
0.1168986 -0.016012251 -0.06270615 -0.24470304 -0.0107674925 0.21186706 0.124849804 0.2716655
0.019242672 0.062698565 0.08652072 0.06858435 -0.19918182 0.1397498 0.04704696 0.033131674

fc1.bias f4 [100]
00000000: ff21 38bd deaa df3e 2327 a63e bf83 0dbe
00000010: 1d30 8dbb 3007 04bf 9bd4 a7be d6ef 943d
00000020: 8d05 f8bd 9ccb 37be cf25 c23d 55b7 89be
00000030: e721 c33d 7aad c53d 69fa 833d 7b8e b43d
00000040: 1f49 52bd 7c43 a0bd 473e cc3e 7c41 01bf
00000050: 77c4 413e a9bf f1be 01ae 213e 4641 53bd
00000060: 4d96 a23e 6855 20be 176b a53d f84a 07bf
00000070: f689 343f 8770 f33c 0fe4 f1bd 2432 533e
00000080: 3fa6 61be 669b 383e f5af 02be ee6a 513e
00000090: 5679 6ebd 312e 9dbd 4f27 a63c dfb8 c03e
000000a0: 8b6b 103f 261e 073e cdb7 0dbe a33b 63be
000000b0: 2e6c cc3e 2a5a 8ebd 7d8e d3be 5c31 09be
000000c0: b355 e73e 864b eebe fdf2 9e3c dbcd 0f3f
000000d0: 903b fabe 59cc 01bf 27bf 763e 8f2a 313e
000000e0: e6a5 18be 007d 15bf 60da 003e 8352 953d
000000f0: 3a7e d2be 299e b9be ebf6 d8be 2d85 823e
00000100: 93fb a2be 7d36 91bd 8b73 513e 01f3 ac3e
00000110: 06ac 0b3d e23f 243e ed5f 6fbe 69b8 a0bd
00000120: 60a2 8dbd 2be0 463e aa41 b9bc af88 213d
00000130: 4a88 8f3e ae52 d5bc 0583 0d3f da36 9abe
00000140: 3ca8 1b3c 0c76 9b3c a3bd ae3d b8b7 a43e
00000150: b828 2cbe f5d4 553e 1091 143d f879 1d3e
00000160: 9937 0c3e efe1 d63d 6724 1abe 3b15 bcbd
00000170: 150d 3cbc a0c6 f63e b818 afbe f647 b7bd
00000180: 857b 64be dd3f 59be 6cea 283f 0cf8 853d
-0.044954296 0.4368505 0.32451734 -0.13819788 -0.004308714 -0.5157347 -0.32779393 0.072723076
-0.12110434 -0.17948765 0.09479868 -0.26897684 0.09527951 0.09652229 0.06444246 0.088162385
-0.051339265 -0.078253716 0.39891264 -0.50490546 0.18922602 -0.47216538 0.15789033 -0.05157592
0.31755295 -0.1565758 0.080770664 -0.5284877 0.7052301 0.029716743 -0.11811077 0.20624596
-0.22036074 0.1802803 -0.12762435 0.20450947 -0.058221184 -0.07674826 0.020282416 0.37641045
0.564141 0.13195094 -0.13839646 -0.22190718 0.39926285 -0.06950791 -0.41319647 -0.13397735
0.4518257 -0.46541995 0.019402975 0.56173486 -0.48873568 -0.50702435 0.24096356 0.17301391
-0.14907035 -0.5839386 0.12583303 0.072911285 -0.41111928 -0.3625348 -0.42375883 0.2549223
-0.3183256 -0.07090471 0.20454232 0.33779147 0.0340996 0.16039994 -0.23376437 -0.078476734
-0.06915736 0.19421451 -0.022614319 0.039436992 0.28033668 -0.026040401 0.55278045 -0.30119973
0.009500559 0.018977188 0.08532264 0.32171416 -0.16812408 0.20882018 0.036271155 0.15378559
0.13693084 0.10492312 -0.15052949 -0.09183737 -0.011477728 0.48198414 -0.34198546 -0.08949272
-0.22312744 -0.21215768 0.659827 0.06541452

fc2.weight f4 [100, 100]
00000000: ed89 e6be 5678 f33e 5d30 d43d d62e 01bf
00000010: 2712 09bf 9f9d 00bf 40e2 c8be 18cc 9dbe
00000020: a8f0 07bf 29d2 203e 9942 c23e a649 0cbf
00000030: 1511 9f3e 6af3 163f d205 153f 3ef5 c63e
00000040: e08c 0cbf ebf6 bf3e 8964 143f 3d5a 0abf
00000050: 6c26 cf3e be52 10bf 3e33 0e3e 38ab fcbc
00000060: 9fef 033f fd23 223e ed1a e0bd e48f 23bf
00000070: efab f33d a62c 283f 7b03 efbe 4865 803e
00000080: 7ff8 25bf a58b e53e d297 05be ad16 ae3d
00000090: 2c17 19be 5807 193e 8a5d a63e f648 273f
000000a0: 5b39 753e 7a41 703e 79ba d5be ac75 86be
000000b0: ab98 133f 5b2c 283d b4e7 02bd 1baa 23bf
000000c0: 3137 593e e04a c4be bb39 0a3d 17e2 603e
000000d0: 6adf 81bd 5b3a e0bd 97b8 173f 163d 873d
000000e0: 43bd 04bf 9d53 0abe 74ea a73e 42c1 f4bd
000000f0: d42c 5dbe 67c8 19be dc6a 06bf 2ec8 283e
00000100: afdd 07be bb16 753e 4a7c 2b3c a188 133e
00000110: 0ed5 793d 7d5e 3abe e443 2dbf e09b 12be
00000120: 8cd8 7f3e 5738 063e 8297 ad3d 2688 fa3e
00000130: b1b3 853e d962 b63e d8cc 6b3e aba3 b5bd
00000140: 7b1c e43e 1d3d 923b 6cde 143f 5bc9 113f
00000150: 0323 13bf 2340 77bd d9f8 8ebd f1cd eb3e
00000160: 7ae5 f33e a6ea db3e bfc6 eebe f13e 143d
00000170: eddb 40be c6cf 293f 7ca4 2abd 4c97 6b3d
00000180: bbfc 2a3d 0fbf b33e 8164 c83e f844 063f
00000190: 4ef6 ccbe dfd0 da3e 0a38 1d3e ef3b 11bf
000001a0: 18c4 edbe 510f 00bf 4d3e b7be 39fd a5be
000001b0: 6ea2 0abf f7b4 583e ae89 9e3e f23e 1fbf
000001c0: 6c44 cd3e 284a 143f 8f54 eb3e ffe3 923e
000001d0: 0106 34bf 3f80 e63e eaf3 313f 5194 27bf
000001e0: 2906 1c3f 354f fabe 7a23 473e 0164 b6bd
000001f0: d380 f23e 6821 2c3e ed7a 69be 8eac 11bf
00000200: 3cba 1b3e a619 333f 9745 f2be 18b7 7b3e
00000210: ad5e 1ebf 3f0b 003f 6550 6fbd c00f 223e
00000220: cbd6 d5bd 2f90 303e d685 a03e bb90 163f
00000230: 1d26 313e c37d 963e 1d2e bebe 45b6 a0be
00000240: d44c 083f dad3 bebd 7cae 623d 4fd0 3dbf
00000250: ed28 bd3d cdee b7be 787f a73d ea26 ed3d
00000260: c7cd 40be decd d1bd 7207 043f 7821 c53d
00000270: 1785 07bf e5f3 c6bd 6d99 853e 24ca b8bd
00000280: d997 9abd c647 ecbd 4648 0ebf ecb8 283e
00000290: e0f0 2abe 772c 983e 1c78 103e 241b 4f3e
000002a0: 6555 973d 5ac0 cdbd 88e2 13bf b9f2 f0bd
000002b0: 0a86 a43e fb3c a63d bcb7 273e f6d2 e53e
000002c0: 7302 1f3e 9144 d43e c057 c03e dd26 80be
000002d0: 33b4 f53e e429 123a 3888 063f c30b 103f
000002e0: cd17 09bf 7ad7 0ebd fdc1 bcbd dc37 b53e
000002f0: 1e61 263f 86e8 e83e d92e 0ebf 6058 1b3a
00000300: 1915 04be 3cdb 1c3f 62a2 38be 8d21 bd3d
00000310: 606d 99bc 6be7 703e e27c ed3e a5f3 043f
00000320: a5fd b8be cf08 f63e 0a91 ca3d f596 11bf
00000330: 3e66 1bbf e0c9 04bf e007 c3be d6bf a2be
00000340: f6c2 00bf 1ae6 8d3e cf96 e23e bec8 f9be
00000350: 09d0 b43e 98a6 103f bc3f 0d3f 87b0 d53e
00000360: fbaf 32bf 4bf6 b93e 3f50 103f 24da 14bf
00000370: cb18 123f 9d76 fbbe cbe1 3a3e 3091 f8bb
00000380: 3187 f53e 4c07 873e f0f0 3bbe ed4a 01bf
00000390: fae9 3b3e 555d 203f d1ed 0dbf 4e98 843e
000003a0: 4337 27bf 0d61 e63e abf9 c3bd dbc4 cd3d
000003b0: c6ed 8fbd f922 fc3d 8af5 e13e c30d 213f
000003c0: b68d 543e 2cf4 ce3e 36bd a1be 2599 c3be
000003d0: 5c79 343f 0ffc 60bc 42b4 99bc 89c3 2cbf
000003e0: cfc0 243e c69a a9be d00c 8c3d b5c8 023e
000003f0: 1826 5fbe 443d 05bd 2e21 0f3f dd7e 67bd
-0.45027104 0.47552747 0.10360787 -0.5046209 -0.53543323 -0.5024051 -0.39235115 -0.30819774
-0.5310159 0.1570517 0.37941435 -0.5479988 0.3106772 0.5896517 0.58212006 0.3885898
-0.5490246 0.3749307 0.57965904 -0.5404394 0.40459 -0.56376255 0.13886735 -0.030843362
0.5153751 0.15834041 -0.10942636 -0.63891435 0.11898028 0.6569313 -0.46682343 0.2507727
-0.648323 0.44833103 -0.13046196 0.08500419 -0.14950246 0.14944208 0.3249324 0.65345705
0.2394766 0.23462477 -0.4174383 -0.26261652 0.5765483 0.041057926 -0.03195925 -0.63931435
0.2121246 -0.38338375 0.033746462 0.21961246 -0.06341441 -0.109486304 0.59266037 0.06603448
-0.5185129 -0.13508458 0.3279606 -0.119509235 -0.21599132 -0.15017854 -0.52506804 0.16482612
-0.1326816 0.23934452 0.010466645 0.14407589 0.0609942 -0.18200107 -0.6768172 -0.14317274
0.2498495 0.1310743 0.084761634 0.48931998 0.26113656 0.3562229 0.2302736 -0.08869108
0.4455298 0.0044628517 0.5815189 0.5694787 -0.574753 -0.0603639 -0.06981058 0.46055558
0.47636014 0.4295246 -0.46636006 0.036192838 -0.18833895 0.6633266 -0.04166077 0.057517335
0.04174493 0.35106704 0.39139178 0.5244899 -0.40031666 0.4273748 0.15353408 -0.56732076
-0.4643867 -0.5002337 -0.3578972 -0.32419756 -0.541541 0.21162783 0.30964416 -0.6220542
0.40091264 0.57925653 0.4596295 0.28689572 -0.7032166 0.4501972 0.6951281 -0.6546069
0.609469 -0.48888555 0.19447127 -0.08905793 0.4736391 0.16809618 -0.22800799 -0.5690392
0.15207762 0.6996101 -0.47318718 0.24581563 -0.61863214 0.5001716 -0.05842628 0.1582632
-0.10441359 0.17242502 0.3135211 0.5881459 0.17299695 0.29392824 -0.37144557 -0.3138906
0.5324223 -0.09317751 0.055342183 -0.7414598 0.092363216 -0.35924378 0.081786096 0.11579688
-0.18828498 -0.10244344 0.5157386 0.09625524 -0.52937454 -0.09714488 0.26093617 -0.0902293
-0.07548494 -0.11537127 -0.5557903 0.16476792 -0.16693449 0.29721424 0.14108318 0.20225197
0.073893346 -0.10046454 -0.57767534 -0.11765046 0.32133514 0.081171 0.16378683 0.44887513
0.15528278 0.41458562 0.37566948 -0.2502965 0.47989044 0.00055757 0.52551603 0.56267947
-0.5355194 -0.034873463 -0.09216688 0.3539418 0.6499194 0.454899 -0.55540234 0.00059259497
-0.12898673 0.61272025 -0.18030694 0.09234915 -0.018728912 0.23525779 0.4638434 0.5193427
-0.36131015 0.48053595 0.09890945 -0.5687097 -0.60702884 -0.51870537 -0.38091946 -0.31786984
-0.50297487 0.27714616 0.44255683 -0.48785967 0.35314968 0.565042 0.55175376 0.41736242
-0.69799775 0.3632072 0.56372446 -0.58145356 0.5706908 -0.49113932 0.18250196 -0.007585667
0.47954705 0.26372755 -0.18353629 -0.5050495 0.18350974 0.62642413 -0.55441004 0.2589745
-0.653187 0.4499592 -0.09569105 0.10047313 -0.070277736 0.12311358 0.44132644 0.62911624
0.20757183 0.40420663 -0.3158967 -0.38202778 0.7049768 -0.01373197 -0.018762711 -0.6748586
0.16089176 -0.33125895 0.06838381 0.12771876 -0.21791875 -0.03252913 0.55910003 -0.05651747

fc2.bias f4 [100]
00000000: 1ec9 273f 2f0d 1e3f 1be0 193f 1bc8 9f3e
00000010: cdfa 6dbc b27c 153f e98f 32bf 720c 403e
00000020: 29df 053e 021d 49bd 5eb7 1c3f 7042 06bc
00000030: d1a6 1b3f acce 3c3f 7243 463f 5989 383f
00000040: 3960 393f 2228 25bf 8d3b 3fbf 6e76 28bf
00000050: 9bf3 cebe 4bea 103f e33c ce3e ea2d 32bf
00000060: 7c0d 41bf c754 2b3f 438a d13d 892e 273f
00000070: c58d 423f 00d2 573d efb9 293f f67d 443f
00000080: 531e bd3e 2667 10be 5ef9 3abf 537f 3c3f
00000090: f9a0 263f b68f 313f 59e8 dcbc d3dc 383f
000000a0: 2ba5 18bf db72 41bf 319b ab3d 580e 26bf
000000b0: 7d08 393f 266e 8fbd a367 313f 0eda ff3e
000000c0: 7c04 8ebe c527 36bf 807c 3bbf 2209 3cbf
000000d0: 0ab4 2abf 4fec 253f cde1 343f 2d7e c13e
000000e0: 26d0 cabd 9936 a4be 8371 2fbf 2584 21bf
000000f0: a537 1c3f 7c4d 403f 5b14 61be 2e18 3f3f
00000100: ce48 2a3f a7e1 17bf 44b9 39bf 75ce 4cbe
00000110: 0dc7 3dbd dfa4 633e 8901 7e3d 47f8 973d
00000120: f617 373f 3f6f d83d 3314 40bf 7703 b93c
00000130: 271a 45bf 2495 63bb 88ce 233d 8b03 433f
00000140: 8c2a 35bf 462d 29bf b649 32be 3b1c 453f
00000150: 6861 56bb 4fd1 483d 2c97 1ebf d2d0 3dbf
00000160: eaa1 0e3f 876b 15bf 2178 503e cdd7 28bf
00000170: d461 41bd aa9d 3bbf 179a 0fbe 48d0 40bf
00000180: fcdc 1d3f 4779 3cbf 9546 553d 09d0 183f
0.65541255 0.61738867 0.6010758 0.31207356 -0.014525128 0.58393395 -0.6975084 0.18754748
0.1307341 -0.04909993 0.61217296 -0.008194551 0.60801417 0.73752856 0.77446663 0.72084576
0.7241245 -0.6451436 -0.7470024 -0.6580571 -0.4042023 0.566075 0.40280828 -0.6960131
-0.754112 0.66926235 0.102314495 0.6530538 0.75997573 0.052690506 0.6629934 0.767547
0.36937198 -0.14101848 -0.73036754 0.7363178 0.65089375 0.6935991 -0.02696626 0.7221195
-0.59627026 -0.7556588 0.0837921 -0.64865637 0.7227858 -0.07003431 0.6929876 0.4997105
-0.27737796 -0.71154433 -0.73236847 -0.73451436 -0.6668097 0.64813703 0.70657045 0.37791577
-0.099029824 -0.32072905 -0.6853258 -0.6309226 0.61022407 0.7511823 -0.21980421 0.7464627
0.6651734 -0.59328693 -0.7254832 -0.20000632 -0.046332408 0.22230862 0.062013183 0.07420402
0.71520936 0.105680935 -0.7503082 0.02258466 -0.7699303 -0.0034726346 0.039991885 0.7617728
-0.70768046 -0.66084707 -0.17410931 0.769962 -0.0032711867 0.049027737 -0.6194942 -0.7414676
0.5571581 -0.583672 0.20358326 -0.65954286 -0.047212437 -0.7328745 -0.14023624 -0.7531781
0.6166532 -0.73622555 0.052069265 0.59692436

fc3.weight f4 [2, 100]
00000000: 2a41 0e3f 34d5 0c3f 86f8 083f 1c2b f8be
00000010: 6310 efbe faa2 203f 0055 0abf d4f5 69be
00000020: 2c64 cb3e c35d edbe 3073 3c3f 5fde cfbe
00000030: c25f 013f ec99 f03e 061b 123f f84c 0c3f
00000040: 56e0 1a3f e24c 24bf 1c1d 16bf 3217 cbbe
00000050: ccb4 3cbf 752f 333f f848 fcbe 54ae 11bf
00000060: 3e78 0dbf ce03 f23e a5f6 553f ca3d 173f
00000070: 4837 063f a66a f2be 24fa 143f 3f91 fe3e
00000080: 9a60 433f 26b1 db3e 0f6c 00bf 2e62 183f
00000090: 1c49 1a3f 0ce1 103f 39ef f6be 687f f03e
000000a0: 7267 1abf b68f 0ebf 38ed cb3e f52b 2cbf
000000b0: b690 1b3f 2b15 4cbf 2c35 0f3f 8846 303f
000000c0: 14a1 38bf 90f8 13bf 1a47 f3be a8c2 f4be
000000d0: bc1b 0ebf c11c 273f 1047 f33e 7d65 743f
000000e0: bbf5 d4be 6e08 76bf b828 0ebf 6e46 1ebf
000000f0: 8673 ff3e 6c54 093f ac62 6cbf 168b 0a3f
00000100: 0eca 1c3f 20d3 1fbf ac32 1cbf 5d70 79bf
00000110: d0e6 f53e ef76 18bf 111e 80bf 243c d93e
00000120: 1881 0c3f d7ab 01bf 94e5 09bf dbc9 603f
00000130: 9f31 d8be 7878 e23e 5d25 c63e 6b28 293f
00000140: 0a39 17bf 0664 01bf ea64 603e c642 153f
00000150: a87e efbe 4fe7 6ebf 449f f2be 8e92 17bf
00000160: 6619 0f3f a091 1bbf 84c1 433f 7c3a 0cbf
00000170: 7e62 dbbe 1a3a 24bf ab8b e13e 9093 0ebf
00000180: 7a2f 0e3f 7e4d 11bf b472 c93e 8328 2c3f
00000190: 5fa8 4bbf a1a2 4bbf 6913 4fbf fbd6 313f
000001a0: 56ae 153f d104 57bf 53e9 473f 8679 763f
000001b0: c151 10bf e207 493f 7c3c 56bf 1180 a13e
000001c0: 6511 41bf dd4c 2fbf 91ce 4bbf 93a9 48bf
000001d0: 99bb 58bf 0b57 553f 51d4 523f b2e0 223f
000001e0: 06b1 593f 4e2d 52bf 37bf 3e3f 09b4 4d3f
000001f0: afc9 483f eb17 23bf 9a37 5fbf 9b80 4bbf
00000200: 2581 49bf fbb0 163f d5c2 51bf 9940 40bf
00000210: 582d 4cbf 3b6b 0dbf 8fe2 423f 2d10 5abf
00000220: 2f3f 58bf 0740 4dbf e74b 0f3f ff59 25bf
00000230: df60 573f 29a7 4b3f 255d 03bf fafb 4a3f
00000240: 9734 58bf ac1d be3e 99ee 4dbf 4b8d 4bbf
00000250: 0663 5d3f d11c 563f 5b92 353f 6530 393f
00000260: f70e 4f3f 48a5 55bf 6d30 38bf 6ec3 75bf
00000270: cc04 003f 5bc5 853f 69be 533f 4d13 583f
00000280: e7e2 41bf 036f 49bf 7ef5 5d3f afd1 49bf
00000290: 77ff 5cbf 910a 573f 47c8 583f 8815 943f
000002a0: 8991 0dbf 918e 853f b495 a23f add9 debe
000002b0: 0535 50bf a2f5 0b3f 19b2 4c3f f1a4 64bf
000002c0: ceb6 223f f44f 18bf a2a2 f0be ca4e 4fbf
000002d0: 273d 593f 7f17 413f da8b 71bf 81dc 4bbf
000002e0: 65af 493f ec6c 5d3f c185 263f a13e 533f
000002f0: c359 50bf 05ed 573f f008 2abf a72f 4d3f
00000300: e039 103f 5431 4e3f 17cc 0abf 2b10 4a3f
00000310: 73b6 49bf 7145 4c3f f01e 16bf a594 4bbf
0.5556818 0.5501282 0.53504217 -0.4847039 -0.4669219 0.6274868 -0.5403595 -0.22847682
0.39724863 -0.46360597 0.7361326 -0.40599343 0.5053674 0.46992433 0.57072484 0.54804945
0.6049856 -0.64179814 -0.5863817 -0.39666134 -0.73713374 0.6999429 -0.4927442 -0.5690663
-0.552616 0.47268528 0.83579475 0.5907866 0.524281 -0.4734699 0.58194184 0.4972019
0.7631928 0.4290859 -0.50164884 0.5952481 0.60267806 0.56593394 -0.48229387 0.46972203
-0.60314095 -0.55688035 0.3982942 -0.67254573 0.60767686 -0.797198 0.5594051 0.6885762
-0.72120786 -0.5780115 -0.47515184 -0.4780476 -0.5551107 0.6527825 0.47515154 0.9546736
-0.41593727 -0.9610661 -0.5553088 -0.6182622 0.49892825 0.5364444 -0.9233806 0.5411848
0.6124581 -0.62431526 -0.6101482 -0.9743708 0.48027658 -0.5955648 -1.0009176 0.42428696
0.5488448 -0.5065283 -0.53865933 0.87808007 -0.42225358 0.44232535 0.3870038 0.660773
-0.5907141 -0.5054325 0.21913496 0.58305013 -0.4677632 -0.933217 -0.47387135 -0.59208
0.5589813 -0.6076908 0.76467156 -0.5477674 -0.4284858 -0.64151156 0.4405187 -0.5569391
0.55541193 -0.5675887 0.39345324 0.67249316 -0.7955379 -0.79545027 -0.8088899 0.6946866
0.5846914 -0.83991724 0.780904 0.9627918 -0.56374747 0.78527653 -0.8368604 0.3154302
-0.75417167 -0.6847666 -0.7961207 -0.7838375 -0.8466125 0.8333594 0.8235522 0.6362411
0.8503574 -0.8210038 0.7451052 0.80352837 0.78432745 -0.6370837 -0.87194216 -0.7949311
-0.78712684 0.588638 -0.81937915 -0.7509857 -0.7975669 -0.55241746 0.7612695 -0.8518093
-0.8447141 -0.8017582 0.5597519 -0.6459045 0.8413219 0.7955194 -0.51314 0.79290736
-0.84455246 0.37132013 -0.80442196 -0.7951247 0.8647922 0.8363772 0.70926446 0.7233947
0.8088221 -0.83455324 -0.7194889 -0.9600133 0.5000732 1.0450853 0.8271242 0.8440445
-0.7573685 -0.78685015 0.86702716 -0.78835577 -0.8632731 0.840005 0.846806 1.1569071
-0.55300194 1.0434133 1.2701936 -0.43525448 -0.813309 0.5467168 0.79959255 -0.8931418
0.6356019 -0.59497 -0.4699908 -0.809796 0.84858936 0.7542648 -0.9435402 -0.7963334
0.78783256 0.86494327 0.6504784 0.8251744 -0.81386966 0.8434604 -0.6641989 0.80150837
0.5633831 0.8054402 -0.54217666 0.7893092 -0.7879402 0.7979346 -0.58640957 -0.7952369

fc3.bias f4 [2]
00000000: fc85 1c3f 387e 18bf
0.61141944 -0.59567595

fc1.weight f4 [100, 22]
00000000: 7cc9 9137 f931 30b7 9f6e ad37 63bc 9eb8
00000010: 76a3 edb7 15c7 9f37 2d78 a037 e798 9c37
00000020: 16d3 9e37 bb9c 0080 096d 0200 1f1b 0800
00000030: f147 0400 5f36 0c80 340d 0900 7aba 1280
00000040: 2b2d 0800 0c35 0580 5db2 0980 ecd6 1680
00000050: 8d1b 0a80 2008 b600 64be c43a 1cf5 00bb
00000060: 0228 2f3b 82f6 abbb 0158 51bb d873 b43a
00000070: 17a1 b53a 1c27 af3a a5d6 b23a 588e 0100
00000080: 2e89 0e80 9e8a 1100 f242 1200 e243 0200
00000090: 7572 0a80 86a3 0d00 54ed 0b80 1442 1080
000000a0: 1148 0b80 dc98 1080 a430 1380 0f55 0c80
000000b0: d1ea 8433 394b 0136 3e12 9134 cda7 5236
000000c0: 6e27 3036 5f73 33b5 57b1 5bb5 b204 f7b4
000000d0: fc9a 12b5 8e48 1300 ac53 0080 b08b 1100
000000e0: da70 0a80 81a0 0780 a024 0180 89b5 0680
000000f0: ee23 0180 9845 0e00 7eb8 0080 bd0d 0c00
00000100: 2c11 1400 2b38 0800 2845 c230 19fd e52f
00000110: c42d c52e 88f0 c130 c4d4 3330 9474 c5ae
00000120: b8d2 f3ae 7069 88ae 20fc a0ae 4186 0580
00000130: f2c1 0900 3d41 0e00 c91a 1580 c855 0500
00000140: 794d 0c80 89ec 0700 1fd1 0e00 9bb5 0400
00000150: 3c34 1500 4e87 0800 5488 0280 9773 0780
00000160: d0ec a3b5 0a3e f335 0448 0cb3 9b33 d136
00000170: 96f4 4636 b0fa 4db5 b939 4cb5 e4a5 57b5
00000180: ae97 50b5 633b 0580 f87f 0f00 2d3a 0580
00000190: d05e 1700 3211 0100 d6cc 0300 8b25 1880
000001a0: 6537 1600 f754 0580 6b3d 0980 5339 1600
000001b0: 0503 0f00 b23c 1080 eee8 fbb3 38e6 b433
000001c0: 5eef 21b2 0b14 b934 8e02 3f34 d7d0 87b3
000001d0: 2d89 85b3 84fa 93b3 ec27 8bb3 063f 0a80
000001e0: 79b7 0980 cae2 0580 18e6 1500 7b69 0100
000001f0: b377 1280 c28a 0900 ec72 1300 4726 1980
00000200: 4682 0200 c262 1680 e292 1300 2e94 1480
00000210: 4f47 b1b6 b4a0 e736 e70a 5836 5abb 6c37
00000220: 2e7e 5a37 8a36 5cb6 ec75 59b6 8c31 6bb6
00000230: 2f49 60b6 2de8 1380 146d 0900 820d 0500
00000240: 5cae 1000 4ab1 0080 b106 0300 a8d0 0380
00000250: 6b3b 0480 bb68 0a00 3625 0b80 506d 0800
00000260: 5791 0880 d43a e902 7a1f f1bd 198d 343b
00000270: 3872 713b 7e90 013c dbc8 dc3b 5301 4e3d
00000280: c344 6a3d aa76 f13c 9917 2e3d 08de 1400
00000290: 3344 1000 4737 1100 7fc7 0e80 8c8e 1200
000002a0: d6de 0880 400e 0600 c9bb 0080 fa29 0600
000002b0: e551 1200 0822 0100 20d6 0780 b177 0b00
000002c0: a24b 1937 1850 02b7 c4db 7937 9aff 22b8
000002d0: c676 93b7 fe7f f236 dc50 f336 9ba4 ef36
000002e0: 5a78 f136 c6f4 0100 8267 0b80 1943 0e80
000002f0: faa4 0e80 fdbf 1380 8151 1500 7da7 0b80
00000300: 3412 0f00 43ba 0f80 8ae0 1480 1aab 1480
00000310: 321a 0b80 ff50 0d80 821f f1bd 128d 343b
00000320: 3472 713b 7990 013c d6c8 dc3b 5701 4e3d
00000330: c544 6a3d ad76 f13c 9e17 2e3d 24eb 0080
00000340: 06b0 1580 ae2c 0580 a214 0e80 5ab0 1580
00000350: e3f2 0600 9f07 0500 eaf9 0e00 1e67 0780
00000360: 742e 0180 0cf4 0900 9f8e 0b00 54dd 0a80
00000370: 8c1f f13d f88c 34bb 4372 71bb 6b90 01bc
00000380: d9c8 dcbb 5c01 4ebd ce44 6abd b676 f1bc
00000390: a217 2ebd d1b1 0600 174c 0900 e133 0580
000003a0: a12b 0280 c3b0 0500 2745 1600 4b27 0580
000003b0: dca2 0a00 4644 1100 5bb4 1780 a791 1500
000003c0: 985f 0080 988c 0300 871f f13d fd8c 34bb
000003d0: 3772 71bb 7590 01bc d5c8 dcbb 5901 4ebd
000003e0: ca44 6abd af76 f1bc 9d17 2ebd e051 0280
000003f0: 37ee 0c80 1853 0100 03a4 0a00 2cd1 0600
1.737917e-05 -1.0502053e-05 2.0674719e-05 -7.569117e-05 -2.8328719e-05 1.9046982e-05 1.9129448e-05 1.866785e-05
1.8933362e-05 -5.6224e-41 2.22785e-40 7.44413e-40 3.9315e-40 -1.12153e-39 8.31256e-40 -1.719934e-39
7.50887e-40 -4.78207e-40 -8.90504e-40 -2.09748e-39 -9.28238e-40 1.6716975e-38 0.0015010354 -0.0019677347
0.0026726727 -0.005247892 -0.0031943324 0.0013767434 0.0013857213 0.0013363096 0.0013644291 1.42899e-40
-1.334908e-39 1.61093e-39 1.677054e-39 2.08023e-40 -9.59414e-40 1.252523e-39 -1.095328e-39 -1.493072e-39
-1.036043e-39 -1.524204e-39 -1.762323e-39 -1.132539e-39 6.189442e-08 1.9266283e-06 2.7021628e-07 3.1390111e-06
2.6248995e-06 -6.6850583e-07 -8.184192e-07 -4.6010751e-07 -5.461477e-07 1.770902e-39 -3.0016e-41 1.611314e-39
-9.58838e-40 -7.00426e-40 -1.04974e-40 -6.16136e-40 -1.04725e-40 1.310662e-39 -6.6183e-41 1.106954e-39
1.84287e-39 7.54833e-40 1.4135013e-09 4.1834694e-10 8.9666524e-11 1.4110961e-09 6.542218e-10 -8.979231e-11
-1.1087792e-10 -6.2032934e-11 -7.320744e-11 -5.07339e-40 8.96094e-40 1.3091e-39 -1.938154e-39 4.8995e-40
-1.129818e-39 7.27701e-40 1.360715e-39 4.3249e-40 1.947284e-39 7.83222e-40 -2.32576e-40 -6.84314e-40
-1.2213368e-06 1.8122967e-06 -3.2661788e-08 6.234693e-06 2.9646667e-06 -7.673325e-07 -7.607992e-07 -8.0335144e-07
-7.770676e-07 -4.80481e-40 1.423439e-39 -4.80047e-40 2.146229e-39 9.8004e-41 3.48988e-40 -2.21752e-39
2.040253e-39 -4.89657e-40 -8.48552e-40 2.040945e-39 1.378616e-39 -1.491141e-39 -1.1730468e-07 8.42378e-08
-9.425859e-09 3.4473518e-07 1.778919e-07 -6.324415e-08 -6.218247e-08 -6.8907895e-08 -6.4799536e-08 -9.40964e-40
-8.92337e-40 -5.40534e-40 2.011088e-39 1.29675e-40 -1.695979e-39 8.76296e-40 1.7861e-39 -2.309619e-39
2.30404e-40 -2.055809e-39 1.797566e-39 -1.889867e-39 -5.2833125e-06 6.903045e-06 3.2192854e-06 1.4110317e-05
1.3023191e-05 -3.28143e-06 -3.240416e-06 -3.504657e-06 -3.34212e-06 -1.828163e-39 8.6565e-40 4.64023e-40
1.531916e-39 -6.36e-41 2.77907e-40 -3.50358e-40 -3.88657e-40 9.55925e-40 -1.023539e-39 7.73898e-40
-7.86822e-40 3.4270039e-37 -0.11773582 0.002754992 0.0036841761 0.007907985 0.006737811 0.05029423
0.057194483 0.029475529 0.042502973 1.91636e-39 1.493833e-39 1.581033e-39 -1.357263e-39 1.704175e-39
-8.14622e-40 5.56125e-40 -6.7365e-41 5.66071e-40 1.682417e-39 1.04044e-40 -7.19662e-40 1.053128e-39
9.13712e-06 -7.767252e-06 1.4892725e-05 -3.8861857e-05 -1.7579074e-05 7.2270623e-06 7.2513776e-06 7.1419176e-06
7.1963705e-06 1.79644e-40 -1.047322e-39 -1.309767e-39 -1.34488e-39 -1.813747e-39 1.957784e-39 -1.070274e-39
1.384062e-39 -1.44435e-39 -1.91726e-39 -1.89809e-39 -1.019588e-39 -1.222917e-39 -0.11773588 0.0027549905
0.0036841752 0.00790798 0.0067378087 0.050294247 0.05719449 0.029475534 0.04250299 -8.4353e-41
-1.991691e-39 -4.75206e-40 -1.293099e-39 -1.991808e-39 6.38144e-40 4.61911e-40 1.375349e-39 -6.7984e-40
-1.085e-40 9.14067e-40 1.061353e-39 -9.97753e-40 0.11773595 -0.0027549844 -0.0036841787 -0.007907967
-0.00673781 -0.050294265 -0.057194524 -0.029475551 -0.042503007 6.14801e-40 8.53815e-40 -4.77788e-40
-1.99322e-40 5.22588e-40 2.045188e-39 -4.73273e-40 9.76778e-40 1.585695e-39 -2.176916e-39 1.980796e-39
-3.4293e-41 3.25942e-40 0.117735915 -0.0027549856 -0.003684176 -0.007907976 -0.006737808 -0.050294254
-0.05719451 -0.029475538 -0.042502988 -2.13042e-40 -1.187481e-39 1.21644e-40 9.77191e-40 6.2605e-40

fc1.bias f4 [100]
00000000: 5064 a4b7 1877 bcba 6865 c6b5 8bf8 b2b0
00000010: dbdd 4335 b276 7433 d617 4c36 4033 1bbe
00000020: 977c f8b6 4533 1bbe 4a33 1b3e 4633 1b3e
00000030: 1c0e 9139 4633 1b3e 4633 1bbe 4933 1b3e
00000040: 4a33 1bbe 4633 1bbe 80b9 afb7 4933 1bbe
00000050: 33bb 9437 7319 1634 6537 0833 b4db 7d3a
00000060: 4f50 ec36 235a 0bb7 989f 5eb9 4633 1bbe
00000070: 3c5b 6fb9 4a33 1b3e 9667 263a acae c0ba
00000080: 9446 8c30 4833 1b3e ac97 10bb 8a18 6db6
00000090: 755d 0b31 e025 b5ba 2726 3038 44e9 4537
000000a0: e8d7 bcb7 74d6 27b1 c75a 8fb3 94f3 3b38
000000b0: 4233 1b3e a41a 393b 4533 1b3e 4433 1bbe
000000c0: 28c8 f835 4733 1bbe 9d7f b8b8 4533 1bbe
000000d0: 4633 1b3e badf d2ba 3382 9e3a 4633 1bbe
000000e0: 1675 8bb0 ce3d aa33 4933 1b3e 9c11 ea39
000000f0: 4633 1b3e 4fec 2ab9 4533 1b3e b3fa 07b8
00000100: 4333 1b3e 2464 23b0 4f6d 3337 4633 1bbe
00000110: 4533 1b3e 702e 2736 cc92 4738 4733 1b3e
00000120: b10d 5e36 4833 1bbe 4233 1bbe 4633 1b3e
00000130: 4733 1b3e 4b33 1bbe 1178 e736 58ad 1ab8
00000140: 14c8 0032 9b6f b731 f861 853a 8b3f 0eb2
00000150: 4495 2732 4633 1b3e 436b 89b6 0eda 21b6
00000160: 4633 1b3e 9cf6 dd37 be80 c930 cf08 a538
00000170: d66f c337 4933 1b3e 4433 1bbe 4333 1b3e
00000180: 9f06 1d3b 1286 db37 3e11 5133 4933 1bbe
-1.9597035e-05 -0.0014378754 -1.4781663e-06 -1.3021845e-09 7.2966003e-07 5.691863e-08 3.0412243e-06 -0.15156269
-7.40548e-06 -0.15156277 0.15156284 0.15156278 0.00027667067 0.15156278 -0.15156278 0.15156282
-0.15156284 -0.15156278 -2.0948006e-05 -0.15156282 1.7730146e-05 1.3979097e-07 3.171535e-08 0.00096839224
7.0426972e-06 -8.306032e-06 -0.00021231023 -0.15156278 -0.00022826804 0.15156284 0.0006347833 -0.0014700494
1.02064e-09 0.15156281 -0.002206306 -3.5330036e-06 2.0280286e-09 -0.0013820492 4.1997202e-05 1.1796426e-05
-2.2511886e-05 -2.44236e-09 -6.675469e-08 4.4811124e-05 0.15156272 0.0028244639 0.15156277 -0.15156275
1.8535693e-06 -0.1515628 -8.7975735e-05 -0.15156277 0.15156278 -0.0016088404 0.0012093246 -0.15156278
-1.0146859e-09 7.927484e-08 0.15156282 0.00044645078 0.15156278 -0.00016300495 0.15156277 -3.241999e-05
0.15156274 -5.9441363e-10 1.0694682e-05 -0.15156278 0.15156277 2.491197e-06 4.7582012e-05 0.1515628
3.3088547e-06 -0.15156281 -0.15156272 0.15156278 0.1515628 -0.15156285 6.898314e-06 -3.68779e-05
7.496073e-09 5.338689e-09 0.0010176292 -8.279936e-09 9.7546184e-09 0.15156278 -4.095405e-06 -2.4117794e-06
0.15156278 2.646009e-05 1.4661266e-09 7.869454e-05 2.329789e-05 0.15156282 -0.15156275 0.15156274
0.0023960245 2.6169266e-05 4.8677286e-08 -0.15156282

fc2.weight f4 [100, 100]
00000000: 4c5d 39b6 b3bf e13a 040f 3c35 398b 3d2e
00000010: d4d5 7b35 6b93 1c33 144b 9836 ca92 be3c
00000020: a829 49b5 cd92 be3c d292 bebc d092 bebc
00000030: b37b fa3a cf92 bebc ce92 be3c d192 bebc
00000040: d492 be3c cf92 be3c a507 0136 d192 be3c
00000050: 4d99 8435 e19a 8634 73da f132 2a62 5aba
00000060: ac0f 0436 648d eb35 10b0 1437 ce92 be3c
00000070: 6047 6238 d092 bebc e6e4 41ba 0dbb c33a
00000080: 0c92 d730 d192 bebc f011 f8b9 6aa1 f8b6
00000090: bc3f 95ae 83ec dc39 9213 2639 b96a 6eb5
000000a0: 8a4e 2737 a219 4a2f 4435 7731 8299 eeb5
000000b0: ca92 bebc 56ba 6aba d092 bebc ce92 be3c
000000c0: baac 42b6 d192 be3c c4c5 32b9 cd92 be3c
000000d0: d092 bebc f62c 3138 5605 b6b9 d192 be3c
000000e0: 190d 162f 3efb 69b1 d192 bebc 1e0c 423a
000000f0: cf92 bebc 3090 6039 cf92 bebc a0e6 2db6
00000100: cd92 bebc d32b 33b0 0087 0f33 cf92 be3c
00000110: ce92 bebc 7770 bd35 61f3 3638 d092 bebc
00000120: 7c20 beb4 d192 be3c cb92 be3c ce92 bebc
00000130: ce92 bebc d292 be3c 4abd 3437 8ed6 3d36
00000140: 9ced c530 460e 7faf 7451 9f3a 8b99 6030
00000150: aa69 2232 cf92 bebc 2303 adb7 9c1d f533
00000160: cf92 bebc 4c28 1f38 7d5f 31ae 00a6 a335
00000170: 0854 eab5 cf92 bebc cf92 be3c cb92 bebc
00000180: c0f1 6cba 8129 ae37 3d83 1cb1 d192 be3c
00000190: 6c5f 39b6 8ebf e13a 150f 3c35 b68b 3d2e
000001a0: 25d6 7b35 d093 1c33 2b4b 9836 4092 be3c
000001b0: 482d 49b5 3f92 be3c 4692 bebc 4492 bebc
000001c0: ca7b fa3a 4292 bebc 4492 be3c 4592 bebc
000001d0: 4792 be3c 4492 be3c ae07 0136 4792 be3c
000001e0: 7699 8435 f19a 8634 e7da f132 9661 5aba
000001f0: 7410 0436 888d eb35 b0a9 1437 4492 be3c
00000200: 7047 6238 4592 bebc 46e5 41ba f6ba c33a
00000210: 3692 d730 4792 bebc 7b14 f8b9 5ea1 f8b6
00000220: 1c40 95ae 51ec dc39 9e13 2639 386a 6eb5
00000230: ae4e 2737 c019 4a2f be35 7731 6c99 eeb5
00000240: 3f92 bebc 4dba 6aba 4392 bebc 4392 be3c
00000250: a0ac 42b6 4592 be3c f4c5 32b9 4392 be3c
00000260: 4592 bebc 5026 3138 9904 b6b9 4592 be3c
00000270: 1a0d 162f f1fb 69b1 4692 bebc 390c 423a
00000280: 4492 bebc ee8f 6039 4292 bebc 28ec 2db6
00000290: 3e92 bebc 0c2c 33b0 00dc 0f33 4492 be3c
000002a0: 4092 bebc fa70 bd35 a5f3 3638 4592 bebc
000002b0: 2d21 beb4 4492 be3c 3e92 be3c 4292 bebc
000002c0: 4492 bebc 4a92 be3c 60bd 3437 aad6 3d36
000002d0: 58ef c530 020f 7faf be51 9f3a b299 6030
000002e0: b569 2232 4492 bebc 5003 adb7 c51d f533
000002f0: 4592 bebc 5a28 1f38 e95f 31ae c0be a335
00000300: 4854 eab5 4692 bebc 4292 be3c 3f92 bebc
00000310: caf1 6cba 9229 ae37 b483 1cb1 4792 be3c
00000320: 945e 39b6 9abf e13a 0b0f 3c35 7e8b 3d2e
00000330: f7d5 7b35 a793 1c33 244b 9836 7592 be3c
00000340: e82b 49b5 7892 be3c 7d92 bebc 7892 bebc
00000350: c37b fa3a 7992 bebc 7892 be3c 7c92 bebc
00000360: 7b92 be3c 7892 be3c b007 0136 7c92 be3c
00000370: 4a99 8435 e79a 8634 cada f132 d361 5aba
00000380: 1610 0436 758d eb35 10ac 1437 7792 be3c
00000390: e846 6238 7c92 bebc 22e5 41ba 04bb c33a
000003a0: 2292 d730 7a92 bebc 8e13 f8b9 59a1 f8b6
000003b0: e73f 95ae 68ec dc39 9a13 2639 6c6a 6eb5
000003c0: a44e 2737 b219 4a2f 9635 7731 9299 eeb5
000003d0: 7592 bebc 58ba 6aba 7992 bebc 7792 be3c
000003e0: 7eac 42b6 7892 be3c e4c5 32b9 7992 be3c
000003f0: 7992 bebc 2529 3138 dc04 b6b9 7992 be3c
-2.7621454e-06 0.0017223269 7.005731e-07 4.309728e-11 9.381595e-07 3.6455656e-08 4.5386932e-06 0.023263354
-7.493895e-07 0.02326336 -0.023263369 -0.023263365 0.0019110352 -0.023263363 0.023263361 -0.023263367
0.023263372 0.023263363 1.9226948e-06 0.023263367 9.879383e-07 2.5072134e-07 2.8155432e-08 -0.00083306676
1.9678655e-06 1.7550014e-06 8.86248e-06 0.023263361 5.3949072e-05 -0.023263365 -0.0007396474 0.0014933065
1.5684818e-09 -0.023263367 -0.0004731561 -7.409767e-06 -6.787057e-11 0.00042137885 0.00015838284 -8.881721e-07
9.972262e-06 1.83809e-10 3.5973509e-09 -1.7777058e-06 -0.023263354 -0.0008954158 -0.023263365 0.023263361
-2.9008793e-06 0.023263367 -0.00017049076 0.02326336 -0.023263365 4.224196e-05 -0.0003471772 0.023263367
1.3647074e-10 -3.4048777e-09 -0.023263367 0.00074023183 -0.023263363 0.00021416019 -0.023263363 -2.591325e-06
-0.02326336 -6.51821e-10 3.3417564e-08 0.023263363 -0.023263361 1.4114329e-06 4.3618846e-05 -0.023263365
-3.5413893e-07 0.023263367 0.023263356 -0.023263361 -0.023263361 0.023263369 1.0772908e-05 2.8288082e-06
1.4401169e-09 -2.3197186e-10 0.0012155012 8.1708923e-10 9.453666e-09 -0.023263363 -2.0624668e-05 1.14140875e-07
-0.023263363 3.7946083e-05 -4.032995e-11 1.2192759e-06 -1.7458815e-06 -0.023263363 0.023263363 -0.023263356
-0.0009038709 2.0761743e-05 -2.2775588e-09 0.023263367 -2.762269e-06 0.0017223225 7.0057405e-07 4.3097713e-11
9.381641e-07 3.6456015e-08 4.5387037e-06 0.023263097 -7.494423e-07 0.023263095 -0.023263108 -0.023263104
0.0019110378 -0.0232631 0.023263104 -0.023263106 0.02326311 0.023263104 1.9226968e-06 0.02326311
9.879429e-07 2.507218e-07 2.8155638e-08 -0.00083305815 1.967911e-06 1.7550055e-06 8.860996e-06 0.023263104
5.394913e-05 -0.023263106 -0.000739653 0.0014933038 1.5684865e-09 -0.02326311 -0.00047317505 -7.4097616e-06
-6.7871236e-11 0.0004213774 0.00015838302 -8.881648e-07 9.972295e-06 1.8380941e-10 3.597378e-09 -1.7777033e-06
-0.023263095 -0.00089541526 -0.023263102 0.023263102 -2.9008734e-06 0.023263106 -0.00017049146 0.023263102
-0.023263106 4.223577e-05 -0.0003471717 0.023263106 1.3647075e-10 -3.4049175e-09 -0.023263108 0.0007402334
-0.023263104 0.00021415923 -0.0232631 -2.591647e-06 -0.023263093 -6.5182415e-10 3.349487e-08 0.023263104
-0.023263097 1.4114478e-06 4.3619093e-05 -0.023263106 -3.5414396e-07 0.023263104 0.023263093 -0.0232631
-0.023263104 0.023263115 1.0772928e-05 2.8288146e-06 1.4401662e-09 -2.3197447e-10 0.0012155098 8.170914e-10
9.453676e-09 -0.023263104 -2.062475e-05 1.14141166e-07 -0.023263106 3.7946134e-05 -4.0330326e-11 1.2199962e-06
-1.7458888e-06 -0.023263108 0.0232631 -0.023263095 -0.0009038715 2.0761774e-05 -2.2775852e-09 0.02326311
-2.76222e-06 0.0017223239 7.005735e-07 4.309752e-11 9.3816146e-07 3.645587e-08 4.5387005e-06 0.023263196
-7.4942227e-07 0.023263201 -0.02326321 -0.023263201 0.001911037 -0.023263203 0.023263201 -0.023263209
0.023263207 0.023263201 1.9226973e-06 0.023263209 9.879379e-07 2.507215e-07 2.8155586e-08 -0.0008330617
1.9678896e-06 1.7550034e-06 8.861549e-06 0.0232632 5.3948635e-05 -0.023263209 -0.0007396509 0.0014933054
1.5684842e-09 -0.023263205 -0.00047316815 -7.4097593e-06 -6.787087e-11 0.00042137806 0.00015838296 -8.8816773e-07
9.972286e-06 1.8380922e-10 3.597369e-09 -1.7777077e-06 -0.023263196 -0.0008954159 -0.023263203 0.0232632
-2.9008656e-06 0.023263201 -0.00017049123 0.023263203 -0.023263203 4.2238407e-05 -0.00034717366 0.023263203

fc2.bias f4 [100]
00000000: d4cf a3bd 4fcf a3bd 82cf a3bd 5bcf a33d
00000010: 93cf a33d 9dcf a3bd 52cf a33d 74cf a33d
00000020: a5cf a3bd 80cf a3bd 74cf a3bd 75cf a33d
00000030: 6bcf a33d 67cf a33d 6ccf a3bd 7ccf a3bd
00000040: 62cf a3bd becf a3bd 7ccf a33d 64cf a33d
00000050: 53cf a3bd 91fe af9e 02cf a3bd 7dcf a3bd
00000060: a3b7 5234 f3c2 f221 7bcf a33d 86cf a3bd
00000070: 7ccf a33d 6ccf a3bd becf a3bd 62cf a33d
00000080: 51cf a33d 75cf a3bd 87cf a3bd 7ccf a3bd
00000090: 92cf a3bd 6ccf a33d 80cf a33d 28cf a33d
000000a0: 75cf a33d 9ccf a33d 6dcf a3bd 28cf a3bd
000000b0: b1cf a3bd 08cf a3bd 53cf a33d 48cf a33d
000000c0: 86cf a33d 79cf a33d 66cf a33d 96cf a3bd
000000d0: 73cf a33d 9ecf a33d 9ecf a33d 7ccf a3bd
000000e0: 6acf a33d 1bcf a3bd 38cf a33d 75cf a33d
000000f0: 25cf a3bd a2cf a3bd 6ccf a33d 7bcf a3bd
00000100: 8acf a33d 74cf a3bd 50cf a3bd 92cf a33d
00000110: 7ccf a3bd c9cf a3bd 82cf a33d 28cf a3bd
00000120: 51cf a33d 44cf a3bd 4ecf a3bd 9acf a3bd
00000130: 4acf a33d 4fcf a3bd 53cf a33d 84cf a33d
00000140: 8930 6935 76cf a33d a2cf a33d 7ccf a33d
00000150: 3ecf a33d 21cf a33d 75cf a3bd 04ef 7cbb
00000160: 63cf a33d 89cf a3bd 89cf a3bd 36ff b41d
00000170: 4ccf a33d 73cf a33d 98cf a33d 7ecf a33d
00000180: b9cf a3bd a7cf a33d 49cf a3bd 6709 c6a0
-0.079986244 -0.07998525 -0.07998563 0.07998534 0.07998576 -0.079985835 0.079985276 0.07998553
-0.079985894 -0.07998562 -0.07998553 0.07998554 0.07998546 0.07998543 -0.07998547 -0.07998559
-0.079985395 -0.07998608 0.07998559 0.07998541 -0.07998528 -1.8634132e-20 -0.07998468 -0.079985596
1.9624581e-07 1.645016e-18 0.07998558 -0.07998566 0.07998559 -0.07998547 -0.07998608 0.079985395
0.07998527 -0.07998554 -0.07998567 -0.07998559 -0.07998575 0.07998547 0.07998562 0.07998496
0.07998554 0.07998583 -0.07998548 -0.07998496 -0.07998598 -0.079984725 0.07998528 0.0799852
0.07998566 0.07998557 0.079985425 -0.07998578 0.07998552 0.07998584 0.07998584 -0.07998559
0.079985455 -0.079984866 0.07998508 0.07998554 -0.07998494 -0.07998587 0.07998547 -0.07998558
0.07998569 -0.07998553 -0.07998526 0.07998575 -0.07998559 -0.07998616 0.07998563 -0.07998496
0.07998527 -0.07998517 -0.079985246 -0.07998581 0.079985216 -0.07998525 0.07998528 0.07998565
8.686989e-07 0.079985544 0.07998587 0.07998559 0.07998513 0.07998491 -0.07998554 -0.0038594613
0.0799854 -0.079985686 -0.079985686 4.7909485e-21 0.07998523 0.07998552 0.0799858 0.0799856
-0.07998604 0.07998591 -0.07998521 -3.3548727e-19

fc3.weight f4 [1, 100]
00000000: c0ee 2dbe 20ee 2dbe 5dee 2dbe 2bee 2d3e
00000010: 70ee 2d3e 7bee 2dbe 23ee 2d3e 4aee 2d3e
00000020: 84ee 2dbe 59ee 2dbe 4aee 2dbe 4dee 2d3e
00000030: 40ee 2d3e 3cee 2d3e 41ee 2dbe 53ee 2dbe
00000040: 35ee 2dbe a1ee 2dbe 53ee 2d3e 36ee 2d3e
00000050: 23ee 2dbe ca76 c69e c2ed 2dbe 56ee 2dbe
00000060: 6919 5335 4698 c321 52ee 2d3e 62ee 2dbe
00000070: 55ee 2d3e 43ee 2dbe a4ee 2dbe 34ee 2d3e
00000080: 20ee 2d3e 4cee 2dbe 62ee 2dbe 53ee 2dbe
00000090: 6cee 2dbe 43ee 2d3e 59ee 2d3e eeed 2d3e
000000a0: 4bee 2d3e 7bee 2d3e 42ee 2dbe eeed 2dbe
000000b0: 90ee 2dbe cded 2dbe 23ee 2d3e 19ee 2d3e
000000c0: 5fee 2d3e 4fee 2d3e 3bee 2d3e 72ee 2dbe
000000d0: 4aee 2d3e 79ee 2d3e 7cee 2d3e 52ee 2dbe
000000e0: 42ee 2d3e e4ed 2dbe 03ee 2d3e 4eee 2d3e
000000f0: eded 2dbe 80ee 2dbe 41ee 2d3e 52ee 2dbe
00000100: 65ee 2d3e 4aee 2dbe 20ee 2dbe 6cee 2d3e
00000110: 52ee 2dbe b2ee 2dbe 5aee 2d3e eeed 2dbe
00000120: 20ee 2d3e 14ee 2dbe 20ee 2dbe 75ee 2dbe
00000130: 1aee 2d3e 20ee 2dbe 23ee 2d3e 5dee 2d3e
00000140: bd4f 2bb6 4cee 2d3e 82ee 2d3e 52ee 2d3e
00000150: 08ee 2d3e ebed 2d3e 4cee 2dbe 02ca bfbb
00000160: 37ee 2d3e 64ee 2dbe 63ee 2dbe faaf 681c
00000170: 1cee 2d3e 4aee 2d3e 75ee 2d3e 57ee 2d3e
00000180: 9cee 2dbe 87ee 2d3e 16ee 2dbe 5877 2b20
-0.16985607 -0.16985369 -0.1698546 0.16985385 0.16985488 -0.16985504 0.16985373 0.16985431
-0.16985518 -0.16985454 -0.16985431 0.16985436 0.16985416 0.1698541 -0.16985418 -0.16985445
-0.169854 -0.16985561 0.16985445 0.16985402 -0.16985373 -2.1013195e-20 -0.16985229 -0.16985449
7.86406e-07 1.325402e-18 0.16985443 -0.16985467 0.16985448 -0.16985421 -0.16985565 0.16985399
0.16985369 -0.16985434 -0.16985467 -0.16985445 -0.16985482 0.16985421 0.16985454 0.16985294
0.16985433 0.16985504 -0.1698542 -0.16985294 -0.16985536 -0.16985245 0.16985373 0.16985358
0.16985463 0.16985439 0.16985409 -0.16985491 0.16985431 0.16985501 0.16985506 -0.16985443
0.1698542 -0.1698528 0.16985326 0.16985437 -0.16985293 -0.16985512 0.16985418 -0.16985443
0.16985472 -0.16985431 -0.16985369 0.16985482 -0.16985443 -0.16985586 0.16985455 -0.16985294
0.16985369 -0.16985351 -0.16985369 -0.16985495 0.1698536 -0.16985369 0.16985373 0.1698546
-2.55274e-06 0.16985434 0.16985515 0.16985443 0.16985333 0.1698529 -0.16985434 -0.0058529386
0.16985403 -0.1698547 -0.16985469 7.6989805e-22 0.16985363 0.16985431 0.16985495 0.1698545
-0.16985554 0.16985522 -0.16985354 1.4523751e-19

fc1.weight f4 [100, 24]
00000000: 03a6 bd3c adc0 6a3e fcc5 243d 64ee e2bd
00000010: 9b8c a93d c7f4 7e3c 010f 603e db5a 68bd
00000020: e4c0 0dbd 3646 4f3e d66f 13be c078 1fbb
00000030: d018 11be 60ef 15bc a842 10be 3864 803d
00000040: 85bf 0bbe e51f 22be 6ee4 0dbe 500e d23d
00000050: 6670 0dbe 6b50 ee3d 1e11 263d 25c6 573e
00000060: b13b 8f3d 3ca4 783d a024 623d 85d3 22be
00000070: e2fa 2abe 0ddc 42be 3322 86be b662 86be
00000080: 008e 06be c23f 093e 12d7 0c3e f8aa 8c3c
00000090: 84da 97bd 7280 04be f88a 873d 00d5 c73a
000000a0: 4caa 1e3e d805 95bc 68e6 58bd 060f 21be
000000b0: b01d e4bd db59 e13c 85f1 303e c975 bfbd
000000c0: e081 6c3e 6a6d 6cbc d306 0dbe 5d46 863d
000000d0: 6e68 5b3e bcdd 89bb 07cc 2ebd 17c2 d03c
000000e0: 7b8e 103e 5b37 4dbe 646a 053d 7021 fabc
000000f0: e0a3 6b3c f417 28bd 701a 94bd dc44 31bd
00000100: 9cab 66bd 4cd6 09be 5828 31be d6de 4fbe
00000110: a498 abbd e88e 22be c0fc 14be abb9 a83d
00000120: 8e42 a23d 4452 3abe 0a92 993a a6bb 3abe
00000130: 84c1 fbbc 8e5f c33d a91e 47be b7c7 18be
00000140: 4a12 dabd 2a86 30be 92d2 243e 8a49 3f3e
00000150: 420b 4bbe b4d3 d93d b676 323e a833 4cbd
00000160: d038 c4bc cca6 8c3d 2420 c23d 7cc5 153e
00000170: 8860 933d 29e9 b1bc e170 09be 6198 73bd
00000180: 2a10 81bd ec38 4cbc 12f5 8bbc 7cea 733c
00000190: 8c79 24be b46f 0bbe b070 8abd 8ffa 5abe
000001a0: ca19 f9bd e119 29be 208f 45be 1072 f1bc
000001b0: 24b7 303e 50bd 64bc 80ee c2ba 900d 0ebc
000001c0: 6055 d6bb b641 1e3e f8f3 88bd 1ecd e0bd
000001d0: e2c7 3c3e d2db 76bc 50d0 e43c e447 4b3e
000001e0: fbcf 29be 24e5 d7bd 6a93 2dbe 1a8f 43be
000001f0: 339a 6abc 312c 89be 8432 e6bd a43c a0bd
00000200: 4266 02bd 108b 973d 8494 303e be9a 9ebd
00000210: a2ae 30be 803c ce3c 942d 193e 68b3 ddbc
00000220: 526a 243e a6a4 c5bd 408c 94bd 58ea 81bd
00000230: 1cd3 83bd 7fe0 3d3e 82be 283d 142a 9fbb
00000240: de01 7cbe 6090 ebbc 67ab 0dbe 8309 54be
00000250: 54f7 6dbc 5b6e 013e 497e 2dbe 5e39 3cbe
00000260: 3e91 903d 684c 3b3e a3f9 45be aa91 0ebe
00000270: d44a 4d3e f621 1e3e 909f ee3c a4c4 df3d
00000280: 2859 b23c c539 f1bd 04ce f0bd c634 313e
00000290: 908c 253c 5e52 a23d 7338 9a3d 9ed4 883d
000002a0: a1b3 0f3e 078f 033e 9cf9 cfbd 40ef 373d
000002b0: 5934 4e3e 23a1 743d 4a71 443e 2356 543e
000002c0: 0c2a be3d 9b4b e8bd f885 963d 604e a73d
000002d0: a043 39bc 7cf7 273e d515 a3bd 008e 043d
000002e0: cbbe 1bbe 88f0 eebd 3da5 b2bd a065 5bbd
000002f0: e795 32be 407d 2d3d 0af4 87bd 85ce 0dbe
00000300: 01c4 023c 717d 1d3e 0cc0 fa3d 57e1 ab3d
00000310: a0d8 c23d 9b82 d63d cea4 d23c 0ad4 e13d
00000320: 0091 ae3d aef8 393e f278 323e a881 463d
00000330: 602b 35bd 2f14 39be 9c00 08bd de6b 503e
00000340: 8085 223e 9a43 243e c4f6 99bd b82f fabc
00000350: 8856 003e 4c11 18bd 7c22 8f3d 9e5d c0bd
00000360: 1028 93bd 6bf2 ae3d 960f b43c 0802 353e
00000370: 6f76 20be 3984 cb3d 6920 ff3d 0989 113e
00000380: 0317 d0bc 9834 00bd 00b7 423e 091f fcbd
00000390: e807 ba3d df23 41be 8086 ed3b b035 473d
000003a0: 80b3 573d 6f94 05be da8c efbd 38d9 ad3d
000003b0: aaa7 103e 6665 cabb 9841 063d 6b9e 39be
000003c0: e23c 1abe a897 82bc acf7 3cbc 8eeb 9e3d
000003d0: e4d0 2fbe 965e 6ebe d7f9 42be b89b 96be
000003e0: 7ce3 3ebe bcfe 7cbd 98b2 ba3c 02d9 bbbd
000003f0: c023 7c3c 08b2 053e 10d3 6e3d acf2 2dbd
0.02315045 0.22925062 0.040227875 -0.11080626 0.082787715 0.015561289 0.21880724 -0.05672727
-0.034607783 0.20241627 -0.14398131 -0.0024333447 -0.14169621 -0.00915131 -0.14087927 0.06269115
-0.13647278 -0.1583248 -0.1385667 0.10256636 -0.13812408 0.11636432 0.040543668 0.2107168
0.06993807 0.0607035 0.05521071 -0.15901001 -0.16697267 -0.19029255 -0.26197967 -0.26247185
-0.13140106 0.13403228 0.13753918 0.017171368 -0.074147254 -0.12939623 0.06618303 0.0015245974
0.1549465 -0.018191263 -0.052954108 -0.15728387 -0.11138475 0.027508667 0.17279632 -0.093486376
0.23096418 -0.014430383 -0.13772134 0.065563895 0.21426556 -0.004207341 -0.042675044 0.025483174
0.14116852 -0.20040648 0.032572165 -0.030533522 0.014382333 -0.04103847 -0.07231605 -0.04327856
-0.056316003 -0.13460654 -0.17300546 -0.20299849 -0.08378723 -0.15874827 -0.14549541 0.08238538
0.079228505 -0.18195444 0.0011716497 -0.18235645 -0.030731924 0.0953971 -0.1944529 -0.14919935
-0.106480196 -0.1723868 0.16095951 0.18680397 -0.19828513 0.10636082 0.17428097 -0.04985395
-0.023952872 0.068677515 0.094787866 0.14626116 0.07196146 -0.021717625 -0.13421966 -0.05947149
-0.06301911 -0.012464743 -0.017084632 0.014887448 -0.16061991 -0.1361683 -0.06759775 -0.21384643
-0.12163122 -0.16513778 -0.19292879 -0.029473335 0.17257363 -0.013961151 -0.0014872104 -0.008670226
-0.006540939 0.15454754 -0.06687158 -0.10976623 0.18435624 -0.015067058 0.027931362 0.19851643
-0.16583245 -0.10541752 -0.16950765 -0.19097558 -0.0143189905 -0.26791528 -0.11240104 -0.07824066
-0.031835802 0.07399571 0.17244154 -0.077443585 -0.17254117 0.025175333 0.14958793 -0.027063087
0.16056183 -0.09650545 -0.07253313 -0.06343526 -0.0643675 0.1854267 0.041197307 -0.004857311
-0.24610087 -0.028755367 -0.13834916 -0.20706753 -0.0145243 0.12639754 -0.16942705 -0.18381259
0.07058953 0.18290865 -0.1933351 -0.13922754 0.20048076 0.15442643 0.02912882 0.10926178
0.021771029 -0.11778597 -0.11758044 0.17305288 0.0101043135 0.079258665 0.07530298 0.066811785
0.14033367 0.1284753 -0.10155031 0.0449059 0.20137157 0.059723984 0.19183841 0.20735984
0.092853636 -0.113425456 0.07349771 0.08169246 -0.011307627 0.16403002 -0.079631485 0.032361984
-0.152095 -0.116669714 -0.08722923 -0.053563714 -0.17439996 0.042355776 -0.06638344 -0.13848312
0.007981301 0.15379883 0.12243661 0.083925895 0.09513974 0.1047413 0.02571335 0.11026771
0.0852375 0.1816127 0.1742895 0.048463494 -0.04423082 -0.18074106 -0.033203706 0.20353648
0.15871239 0.16041413 -0.0751777 -0.030540332 0.12533009 -0.03712587 0.06988999 -0.09392856
-0.07185376 0.08542331 0.021980088 0.17676556 -0.15670179 0.09937329 0.124573536 0.14212431
-0.025401598 -0.031300157 0.19015121 -0.12310607 0.09083539 -0.1886134 0.0072486997 0.048635185
0.05266142 -0.13044904 -0.11696787 0.08488697 0.14126459 -0.0061766384 0.0327774 -0.18126838
-0.15062287 -0.015941456 -0.011533659 0.07759772 -0.17169529 -0.23278269 -0.19040619 -0.2941568
-0.18641466 -0.06176637 0.022790238 -0.0917225 0.015389383 0.13056195 0.058306754 -0.042467758
