gail/save_model/0/SUB076_ckpt_19.pth.tar (torch_old, 154727 bytes, 16 tensors)

fc1.weight f4 [100, 22]
-0.0832243 -0.16751485 0.029339973 0.1038362 -0.3364995 0.20022601 0.0033474828 0.23813783
0.27671185 0.1270954 -0.017363548 0.17043388 -0.105812654 0.027623221 -0.20033872 0.039657354
0.059117734 -0.008740246 0.043931454 0.1002669 0.1109502 0.16510823 0.24914446 0.16450077
0.027759334 -0.10559244 0.3376101 -0.27014643 -0.1857171 0.001234167 -0.21584788 -0.015945613
0.10634327 0.18803886 -0.18678859 0.05240825 0.16160882 0.04745248 0.059801936 -0.19784737
-0.036095023 -0.10515195 0.13505667 -0.20369631 0.031615324 0.030264024 -0.12114589 0.18302362
-0.2796587 -0.14840737 -0.35857028 -0.23588921 -0.034010883 0.06391707 0.04757929 0.17674974
-0.07064088 -0.03134334 0.11787838 0.21276453 0.070577055 0.046675146 -0.10051187 0.0133600235
-0.028393283 0.02227661 0.14532568 -0.7963201 -0.17590661 0.31848 -0.5909538 -0.54137623
-0.2026366 -0.39084238 -0.3768818 -0.10686112 -0.15128021 0.04704073 0.19411889 -0.115122356
-0.094016075 0.16046417 0.06744477 0.18371043 0.021668047 -0.13205475 0.16463181 0.20020583
0.12333114 -0.2671623 -0.033470523 -0.09703041 0.041581698 0.031296793 0.004936729 -0.23969369
0.09415756 -0.12205914 0.13579372 0.005322799 0.08432412 -0.022651449 0.09195787 0.16440377
-0.18926974 0.12977988 0.1900717 0.12230405 0.10172212 -0.04550661 -0.29266855 -0.035442848
0.08540883 -0.266109 0.023661593 0.2566233 -0.03186167 0.23448236 0.153131 0.1204091
-0.040400773 -0.08007951 -0.040216118 0.05861345 0.036905825 0.2075628 0.19277579 0.03202997
-0.033768386 -0.033163622 -0.05815363 0.115783155 0.1464195 0.1646079 -0.3594368 -0.15203874
-0.2415174 0.015206299 0.10602769 0.01283566 0.22800454 0.0014692396 0.08922824 0.092371374
0.08634055 -0.12774573 0.13442639 -0.060541153 -0.052569553 0.019937903 0.147576 0.15262696
-0.0764671 0.0041880906 -0.23346953 0.2783262 0.31102067 -0.042046163 0.30137116 0.2312489
0.48947293 0.45725527 0.29366097 0.010758668 0.10274008 -0.036053494 -0.1139675 0.0819104
0.10758722 0.14027247 0.040210307 -0.110446535 -0.057112068 0.13466907 0.085246295 -0.0519187
-0.06329878 -0.12259641 0.10714744 0.14201678 0.12347609 0.2683443 -0.081616886 0.27098027
0.25858518 0.12848032 0.19182938 0.001976952 -0.16869412 0.018528864 -0.21164216 0.032917053
-0.14038798 0.12029651 0.1105552 -0.04730995 -0.113868356 -0.12329786 0.22788745 0.44810864
0.014081636 0.030073784 -0.28833213 0.106086224 -0.0369189 0.022996832 -0.1255557 -0.16984642
0.20079082 -0.088579595 0.18850785 -0.17371158 0.038270175 0.19644278 -0.20980379 -0.18060121
-0.15269949 -0.030652776 0.051560342 -0.19551834 -0.10422789 0.20640124 0.17404382 0.16977693
0.35211194 0.35592157 0.25481874 0.3182453 0.3452421 -0.071006 -0.17976923 0.15769798
0.021393016 0.12140164 0.13626784 0.1949665 -0.17295463 -0.095842354 0.057777077 -0.041324288
0.1168986 -0.016012251 -0.074627936 -0.2398715 0.5022709 0.31914863 0.46431875 0.047704097
-0.20723331 -0.15952796 -0.14006588 0.06858435 -0.19918182 0.1397498 0.04704696 0.033131674
00000000: 8071 aabd 0389 2bbe 625a f03c 13a8 d43d
00000010: aa49 acbe 0c08 4d3e 7161 5b3b 67da 733e
00000020: 2dad 8d3e 4c25 023e 003e 8ebc 3886 2e3e
00000030: 4eb4 d8bd 184a e23c 9825 4dbe c06f 223d
00000040: 7025 723d 4033 0fbc 78f1 333d bc58 cd3d
00000050: dc39 e33d 2212 293e ba1f 7f3e e472 283e
00000060: 8b67 e33c d940 d8bd 3bdb ac3e a250 8abe
00000070: a02c 3ebe c6c3 a13a 3a07 5dbe 60a0 82bc
00000080: 80ca d93d 428d 403e 8245 3fbe 08aa 563d
00000090: c87c 253e 885d 423d e0f2 743d 8098 4abe
000000a0: 60d8 13bd e859 d7bd 4c4c 0a3e c495 50be
000000b0: 127f 013d 42ec f73c 561b f8bd 8b6a 3b3e
000000c0: 6d2f 8fbe 1af8 17be 8696 b7be f18c 71be
000000d0: ff4e 0bbd f4e6 823d 80e2 423d e2fd 343e
000000e0: 2aac 90bd e061 00bd 386a f13d f2de 593e
000000f0: b48a 903d 702e 3f3d 2bd9 cdbd 00e4 5a3c
00000100: 0899 e8bc 707d b63c 41d0 143e a2db 4bbf
00000110: dd20 34be d00f a33e c048 17bf a297 0abf
00000120: f87f 4fbe 7e1c c8be a7f6 c0be 01da dabd
00000130: 33e9 1abe c8ad 403d 1ac7 463e 45c5 ebbd
00000140: 808b c0bd b850 243e 7c20 8a3d 961e 3c3e
00000150: 3081 b13c 5c39 07be 3e95 283e c202 4d3e
00000160: 0995 fc3d 7fc9 88be 6318 09bd e1b7 c6bd
00000170: 9251 2a3d 1131 003d 49c4 a13b 4372 75be
00000180: aed5 c03d 24fa f9bd 820d 0b3e e06a ae3b
00000190: 20b2 ac3d 888f b9bc 6854 bc3d 7659 283e
000001a0: edcf 41be 04e5 043e 28a2 423e 8c7a fa3d
000001b0: b053 d03d 2465 3abd a7d8 95be 852c 11bd
000001c0: d3ea ae3d 703f 88be f5d5 c13c 2164 833e
000001d0: 6281 02bd 251c 703e 5fce 1c3e 0c99 f63d
000001e0: 487b 25bd ba00 a4bd a8b9 24bd a814 703d
000001f0: 902a 173d 588b 543e 0467 453e dc31 033d
00000200: b850 0abd 94d6 07bd 8032 6ebd b81f ed3d
00000210: feee 153e f98e 283e 1a08 b8be 0bb0 1bbe
00000220: 5650 77be d723 793c 0c25 d93d a94c 523c
00000230: 067a 693e 8093 c03a 4cbd b63d 342d bd3d
00000240: 50d3 b03d c7cf 02be 12a7 093e 00fa 77bd
00000250: 2c53 57bd d054 a33c 2a1e 173e 3e4a 1c3e
00000260: c89a 9cbd 403c 893b a312 6fbe c680 8e3e
00000270: 1a3e 9f3e 9938 2cbd 524d 9a3e 83cc 6c3e
00000280: 329c fa3e 5d1d ea3e bb5a 963e 2045 303c
00000290: 6469 d23d d4ac 13bd cb67 e9bd a4c0 a73d
000002a0: b056 dc3d 96a3 0f3e 90b3 243d cb31 e2bd
000002b0: 58ee 69bd b0e6 093e 9c95 ae3d b4a8 54bd
000002c0: caa2 81bd d413 fbbd 1e70 db3d d96c 113e
000002d0: 08e1 fc3d 6d64 893e c126 a7bd edbd 8a3e
000002e0: 4765 843e 5890 033e ec6e 443e c08f 013b
000002f0: 27be 2cbe d8c9 973c b9b8 58be 08d4 063d
00000300: dec1 0fbe 045e f63d c46a e23d 14c8 41bd
00000310: d033 e9bd 9783 fcbd 545b 693e 7f6e e53e
00000320: aab6 663c 4c5d f63c 45a0 93be bc43 d93d
00000330: 4638 17bd da63 bc3c ac91 00be 38ec 2dbe
00000340: 1c9c 4d3e 3869 b5bd 3408 413e 73e1 31be
00000350: 30c1 1c3d 4c28 493e ced6 56be 86ef 38be
00000360: 415d 1cbe 881b fbbc f030 533d f635 48be
00000370: 6f75 d5bd d95a 533e 8b38 323e 01da 2d3e
00000380: 0448 b43e 5a3b b63e 9a77 823e 0cf1 a23e
00000390: 93c3 b03e 986b 91bd 6d15 38be 947b 213e
000003a0: 6840 af3c 6ca1 f83d cc89 0b3e 4ca5 473e
000003b0: 051b 31be ff48 c4bd a8a7 6c3d a843 29bd
000003c0: 8868 ef3d 202c 83bc 88d6 98bd e0a0 75be
000003d0: d394 003f 7367 a33e 30bb ed3e 5f65 433d
000003e0: f834 54be 4c5b 23be 6e6d 0fbe f475 8c3d
000003f0: 52f6 4bbe 921a 0f3e 50b4 403d 14b5 073d

fc1.bias f4 [100]
-0.09947795 0.14960146 0.29767966 0.2433081 0.08938205 -0.27842364 -0.23633179 -0.23787552
-0.1969514 0.04816132 -0.27489936 -0.041808657 -0.19263798 0.23054974 0.39048836 -0.08497345
0.13447395 -0.19715871 0.42895368 -0.2876827 -0.16968928 -0.49667925 -0.2853561 0.29155496
0.34558254 -0.4948295 0.06974825 -0.054194156 0.5182025 -0.33462462 0.08791495 0.085892275
0.043930247 -0.22402154 0.3585405 -0.40132678 -0.20609872 -0.3053718 -0.7290906 0.17655075
-0.58048147 -0.09075128 -0.079233505 0.121535525 0.29796892 -0.1766822 -0.38111317 -0.046041798
0.17367034 -0.20939475 0.2934786 0.21054879 -0.3040134 0.15211575 0.15501697 -0.060047667
-0.08666734 -0.47794586 -0.14108042 -0.022335576 -0.42924982 -0.13084 0.094590105 -0.07142181
-0.28981155 -0.12390042 0.42604205 0.29553965 0.4553668 0.45565662 -0.06616845 -0.22483419
-0.11368611 0.39610064 0.12133991 0.016507173 0.26565793 0.24602015 -0.015663246 -0.42269447
0.17424169 0.19622514 -0.23651844 0.40208453 0.28620815 -0.0083792675 -0.03769917 0.090270616
-0.16795684 0.19233263 -0.106281266 -0.49767086 0.05058009 0.42890736 0.12391209 -0.08347743
-0.23457278 0.23671696 0.41101328 0.0045261616
00000000: 18bb cbbd 2031 193e 7869 983e c225 793e
00000010: f00d b73d 8b8d 8ebe f600 72be a495 73be
00000020: a1ad 49be ce44 453d 9cbf 8cbe 8e3f 2bbd
00000030: e442 45be 3b15 6c3e 17ee c73e 8f06 aebd
00000040: 8ab3 093e f9e3 49be d19f db3e 264b 93be
00000050: 07c3 2dbe be4c febe 321a 92be b146 953e
00000060: 32f0 b03e 4b5a fdbe 2cd8 8e3d b1fa 5dbd
00000070: eba8 043f eb53 abbe c10c b43d 4ae8 af3d
00000080: 34f0 333d e765 65be 9f92 b73e b47a cdbe
00000090: 8b0b 53be b159 9cbe aea5 3abf b8c9 343e
000000a0: 6f9a 14bf cfdb b9bd 2d45 a2bd 9ee7 f83d
000000b0: 628f 983e 2eec 34be 4421 c3be 5396 3cbd
000000c0: a3d6 313e 946b 56be d442 963e 1a9a 573e
000000d0: a5a7 9bbe 3bc4 1b3e c5bc 1e3e 8bf4 75bd
000000e0: a57e b1bd 52b5 f4be 6377 10be 19f9 b6bc
000000f0: a2c6 dbbe ecfa 05be 75b8 c13d 9945 92bd
00000100: 2e62 94be 81bf fdbd 2f22 da3e f950 973e
00000110: d625 e93e d34b e93e 5383 87bd ef3a 66be
00000120: 43d4 e8bd b4cd ca3e 0f81 f83d 0d3a 873c
00000130: 5104 883e b5ec 7b3e 3550 80bc 696b d8be
00000140: 6a6c 323e 3eef 483e e431 72be 06de cd3e
00000150: e089 923e 3249 09bc 726a 1abd cddf b83d
00000160: e1fc 2bbe d8f2 443e fea9 d9bd b7ce febe
00000170: 122d 4f3d bf99 db3e 9fc5 fd3d 37f6 aabd
00000180: d933 70be ee65 723e 5570 d23e 3250 943b

fc2.weight f4 [100, 100]
-0.44700402 0.3728418 0.414181 -0.0386164 -0.27879694 -0.37893543 -0.11687505 0.08636084
-0.4415286 0.1254864 -0.09483058 0.1330534 -0.44230446 0.57716984 0.43954498 0.4688843
-0.20022982 0.24074332 0.40621918 -0.24167725 -0.4991672 -0.62660956 0.07737998 0.5217481
0.5649266 -0.14799024 0.0007118204 -0.08239994 0.29439253 -0.16965018 -0.21249266 0.34733027
-0.32386348 -0.055148587 0.17658603 -0.5591305 -0.12305205 0.018724477 -0.2961163 0.39470157
-0.37320867 -0.34927365 -0.39174524 -0.3720685 0.42436102 0.08411265 -0.13331135 -0.15853782
0.2491846 -0.6050579 0.24086086 0.27162808 -0.28735906 -0.052266557 0.49869603 0.05633005
-0.4462766 -0.54546666 0.28944716 -0.25672597 -0.24725094 -0.42117456 0.24240519 -0.05687018
-0.16806245 -0.038967773 0.16761705 0.18602455 0.15205045 0.42013723 -0.37969452 -0.2871897
0.14586756 0.3324786 -0.0078153685 0.35137534 0.3559569 0.35123816 -0.08894625 -0.35251674
0.36815956 -0.043310188 0.048974544 0.4948423 0.243415 0.084157616 -0.4475401 0.37960842
-0.2407357 0.25313592 -0.16835773 -0.05045095 -0.0395463 0.48808607 -0.24803214 0.044476602
-0.24507487 0.20162204 0.18519324 0.2935486 -0.38815048 0.34205228 0.46037695 -0.09354771
-0.21813889 -0.3532264 -0.08968959 0.0699816 -0.44362584 0.18315063 -0.15531117 0.098064214
-0.33771756 0.55722463 0.31811884 0.3749073 -0.31304258 0.3093096 0.52841216 -0.35770276
-0.33899003 -0.5392831 0.12697738 0.45576376 0.56387764 -0.15576598 -0.03735431 0.0045291125
0.32358304 -0.14181565 -0.22050712 0.3760131 -0.26097655 -0.0009570986 0.25225645 -0.47002324
-0.07734401 0.06720902 -0.29747334 0.28420988 -0.45448163 -0.277031 -0.3974844 -0.43464646
0.36669025 -0.051037453 -0.08439108 -0.2521963 0.15653752 -0.5402 0.31298035 0.193985
-0.4239702 -0.046726324 0.42806056 0.17953432 -0.4593551 -0.47884452 0.22820063 -0.27067134
-0.12101164 -0.40080538 0.24463126 0.0040087504 -0.20730817 -0.030808274 0.27703956 0.26236302
0.18576406 0.50103724 -0.29286417 -0.26001537 0.21744697 0.269159 0.059818912 0.32487863
0.24440072 0.4195009 0.063832864 -0.46603906 0.30883858 -0.054665323 -0.023494076 0.4456781
0.33416256 0.17139894 -0.4718291 0.30084333 -0.10639739 0.22613947 -0.26064235 -0.08512852
0.020432623 0.46045735 -0.41128394 0.099397965 -0.33331257 0.07739267 0.24904932 0.30517596
-0.35831672 0.4212974 0.4554303 -0.050421916 -0.2805645 -0.37683126 -0.13748333 0.059987947
-0.42192736 0.28637207 0.011292681 0.30229664 -0.36251062 0.50003225 0.44789028 0.4618029
-0.27531996 0.15658857 0.40617585 -0.31079355 -0.3374135 -0.5414197 0.13713837 0.47847015
0.56529677 -0.051541455 0.05118132 -0.0019849464 0.35935652 -0.23640676 -0.23100887 0.44793618
-0.23779461 -0.10938499 0.19127809 -0.5432313 0.037294477 0.03823466 -0.18379648 0.34052637
-0.46427247 -0.14479637 -0.28034264 -0.4524869 0.55472434 0.05102922 -0.15119463 -0.1690115
0.23189864 -0.5741413 0.28532553 0.1806239 -0.45068204 0.009483599 0.43803114 0.005248617
00000000: b6dd e4be 1fe5 be3e 880f d43e 3b2c 1ebd
00000010: 79be 8ebe d303 c2be 305c efbd f4dd b03d
00000020: 0910 e2be 827f 003e 8936 c2bd 273f 083e
00000030: bb75 e2be 67c1 133f 0a0c e13e 9a11 f03e
00000040: 0c09 4dbe 6b85 763e f6fb cf3e 3e7a 77be
00000050: d892 ffbe 7c69 20bf 6579 9e3d 4991 053f
00000060: 089f 103f c18a 17be 7599 3a3a 4dc1 a8bd
00000070: 9eba 963e c7b8 2dbe ad97 59be 46d5 b13e
00000080: 6fd1 a5be 7ce3 61bd f8d2 343e 2d23 0fbf
00000090: b702 fcbd 1364 993c 8e9c 97be 5316 ca3e
000000a0: 3515 bfbe ffd3 b2be d592 c8be c37f bebe
000000b0: d945 d93e 4143 ac3d c582 08be bd57 22be
000000c0: 3f2a 7f3e 13e5 1abf 3ba4 763e d612 8b3e
000000d0: ba20 93be 7515 56bd 1655 ff3e 57ba 663d
000000e0: 5e7e e4be b4a3 0bbf 6b32 943e 9671 83be
000000f0: 5a2f 7dbe 31a4 d7be 1139 783e b5f0 68bd
00000100: 9018 2cbe ac9c 1fbd cea3 2b3e 387d 3e3e
00000110: 1db3 1b3e 3a1c d73e 5267 c2be 870a 93be
00000120: 4e5e 153e a33a aa3e 080c 00bc 78e7 b33e
00000130: fc3f b63e 7dd5 b33e 7429 b6bd 137d b4be
00000140: 697f bc3e 0666 31bd 8899 483d f85b fd3e
00000150: c841 793e d45a ac3d fa23 e5be 095c c23e
00000160: 6b83 76be 089b 813e f865 2cbe a8a5 4ebd
00000170: 4dfb 21bd 6be6 f93e 23fc 7dbe 192d 363d
00000180: e8f4 7abe 0276 4e3e 4ca3 3d3e 014c 963e
00000190: a9bb c6be 7a21 af3e 87b6 eb3e f195 bfbd
000001a0: cd5f 5fbe 17da b4be 2daf b7bd 8352 8f3d
000001b0: ed22 e3be d78b 3b3e e409 1fbe e4d5 c83d
000001c0: 51e9 acbe 46a6 0e3f 79e0 a23e daf3 bf3e
000001d0: 1e47 a0be d45d 9e3e 0546 073f d124 b7be
000001e0: 1a90 adbe 750e 0abf 5c06 023e de59 e93e
000001f0: 495a 103f 1e81 1fbe d500 19bd f368 943b
00000200: adac a53e 1f38 11be 9ecc 61be ca84 c03e
00000210: b89e 85be cde5 7aba c227 813e e3a6 f0be
00000220: 8966 9ebd e2a4 893d 6d4e 98be f583 913e
00000230: d1b1 e8be 02d7 8dbe 1383 cbbe fb89 debe
00000240: d3be bb3e a60c 51bd 3bd5 acbd e01f 81be
00000250: 5f4b 203e 8c4a 0abf f63e a03e 01a4 463e
00000260: 9f12 d9be 1a64 3fbd c12a db3e d8d7 373e
00000270: 9730 ebbe 1c2b f5be 6dad 693e 6f95 8abe
00000280: f3d4 f7bd 5d36 cdbe 9e80 7a3e d65b 833b
00000290: 9848 54be a261 fcbc 21d8 8d3e 7254 863e
000002a0: ef38 3e3e fa43 003f 4bf2 95be bc20 85be
000002b0: 6baa 5e3e 35cf 893e ad04 753d 7e56 a63e
000002c0: 2f44 7a3e d2c8 d63e ceba 823d ac9c eebe
000002d0: 1720 9e3e bfe8 5fbd a676 c0bc ec2f e43e
000002e0: 5b17 ab3e 3483 2f3e 9593 f1be 2308 9a3e
000002f0: e0e6 d9bd 1b91 673e ea72 85be dd57 aebd
00000300: 5162 a73c 11c1 eb3e cf93 d2be 2991 cb3d
00000310: f2a7 aabe 0c80 9e3d c906 7f3e 0640 9c3e
00000320: 4a75 b7be 4bb4 d73e 292e e93e 3687 4ebd
00000330: 26a6 8fbe 07f0 c0be 6ec8 0cbe ecb5 753d
00000340: dd06 d8be 5c9f 923e f004 393c a0c6 9a3e
00000350: fe9a b9be 1d02 003f e051 e53e 6e71 ec3e
00000360: bdf6 8cbe c158 203e 48f6 cf3e 5520 9fbe
00000370: 76c1 acbe 7b9a 0abf 006e 0c3e 0afa f43e
00000380: 4ab7 103f 221d 53bd 81a3 513d e015 02bb
00000390: 94fd b73e 9d14 72be 978d 6cbe e457 e53e
000003a0: 6e80 73be 3d05 e0bd 67de 433e 3511 0bbf
000003b0: 18c2 183d f29b 1c3d 2535 3cbe 7959 ae3e
000003c0: 1fb5 edbe 8045 14be 1289 8fbe 5dac e7be
000003d0: 6a02 0e3f 0404 513d c4d2 1abe 5a11 2dbe
000003e0: d676 6d3e edfa 12bf 3016 923e 79f5 383e
000003f0: ccbf e6be 1961 1b3c 9e45 e03e 97fc ab3b

fc2.bias f4 [100]
0.47981688 0.46344715 0.45158407 -0.59085006 0.020043032 0.14933306 0.09320754 -0.25375706
-0.46478388 -0.49747035 0.597503 0.43171647 -0.14060897 0.012156652 0.6346951 0.52464515
-0.023080612 -0.43802702 -0.5566517 -0.47427496 -0.066028506 0.17407106 -0.05311492 -0.4600184
0.12350275 -0.07088936 -0.2510698 -0.08972143 0.58509284 -0.45207146 0.34234378 0.61035293
0.24160698 -0.5241647 -0.58011955 0.28105164 0.4398526 0.5319064 -0.4514015 0.012330738
-0.40137586 -0.56716317 -0.56223875 -0.19074294 -0.029830934 0.2329918 0.5300876 -0.48826846
-0.43006322 -0.50315136 0.01684729 -0.017660215 -0.41002616 0.45944673 0.23622316 0.5251305
0.392502 0.04281339 -0.5024004 -0.49494103 0.42827657 0.5865446 -0.054341864 0.57541555
0.011828825 -0.39630932 -0.57954204 0.093213506 0.19302137 0.53344804 -0.38844782 0.011150183
0.54100925 0.5342082 -0.55190325 -0.044736046 -0.04278852 -0.02486456 -0.40841565 0.5249135
-0.54253924 -0.10949764 -0.19243757 -0.41446158 -0.5541835 -0.060193654 -0.41320443 -0.05233259
0.4003439 -0.0041781445 -0.6050573 -0.4175193 0.55599284 -0.579042 0.03625602 -0.5602477
0.494309 -0.03591114 -0.5553697 0.02224169
00000000: 8faa f53e f248 ed3e 0736 e73e f341 17bf
00000010: 4931 a43c c4ea 183e 98e3 be3d 72ec 81be
00000020: 27f8 edbe 6fb4 febe f5f5 183f f109 dd3e
00000030: ccfb 0fbe b22c 473c 617b 223f 254f 063f
00000040: 8d13 bdbc 1445 e0be ba80 0ebf 2bd4 f2be
00000050: f439 87bd af3f 323e 088f 59bd 8887 ebbe
00000060: 03ef fc3d 712e 91bd 398c 80be debf b7bd
00000070: a5c8 153f e975 e7be af47 af3e 1740 1c3f
00000080: d267 773e a82f 06bf b782 14bf 00e6 8f3e
00000090: 5c34 e13e 052b 083f 191e e7be dd06 4a3c
000000a0: 2381 cdbe 9b31 11bf e1ee 0fbf 1e52 43be
000000b0: 0160 f4bc 6795 6e3e d2b3 073f 53fe f9be
000000c0: 3f31 dcbe 87ce 00bf 5403 8a3c 28ac 90bc
000000d0: f3ee d1be 9a3c eb3e 7ce4 713e f46e 063f
000000e0: 06f6 c83e 185d 2f3d 509d 00bf e968 fdbe
000000f0: 1147 db3e c927 163f 9395 5ebd 6f4e 133f
00000100: b0cd 413c 0ee9 cabe de5c 14bf b9e6 be3d
00000110: 65a7 453e 0d90 083f a2e2 c6be 42af 363c
00000120: 957f 0a3f dec1 083f 8849 0dbf 253d 37bd
00000130: 0443 2fbd c3b0 cbbc db1b d1be bb60 063f
00000140: dae3 0abf 4c40 e0bd 5b0e 45be 4f34 d4be
00000150: f8de 0dbf 9f8d 76bd 888f d3be b35a 56bd
00000160: e0f9 cc3e d1e8 88bb 09e5 1abf 17c5 d5be
00000170: 8c55 0e3f 193c 14bf 3181 143d 656c 0fbf
00000180: 1216 fd3e 8f17 13bd b52c 0ebf 3434 b63c

fc3.weight f4 [2, 100]
0.43224335 0.461659 0.33319613 -0.34374776 -0.56996477 0.35303745 0.96444136 -0.44603765
-0.39600426 -0.35433173 0.4281238 0.39550284 -0.3837145 -0.6199477 0.41040036 0.34956753
-0.4849522 -0.38044015 -0.3820291 -0.36458108 -0.22607294 0.42511538 -0.287954 -0.5074098
0.13853551 -0.43814683 -0.25503075 -0.42844412 0.36376983 -0.406667 0.37030283 0.32734698
-0.6992201 -0.35151315 -0.3283487 0.11267534 0.4290136 0.3732057 -0.42789114 -0.44463626
-0.36878735 -0.38950822 -0.4216186 -0.42376652 -0.544346 0.2802125 0.41614273 0.17498851
-0.32278806 -0.37482995 0.244632 -0.049528085 -0.31026107 0.42192364 0.7426107 0.3510352
0.37000096 -0.898144 -0.35726416 -0.3321246 0.33199242 0.32775393 -1.0963058 0.35934764
-0.49545 -0.38708857 -0.34637573 0.68573326 0.63041013 0.31784415 -0.42804658 -0.553932
0.3640065 0.32653877 -0.40069458 -0.42904755 0.057476178 0.3616898 -0.5112799 0.34030566
-0.3499249 -0.05854164 -0.87336224 -0.32239538 -0.39741898 -0.5096817 -0.38969758 0.35620636
0.4283627 -0.22270055 -0.37838975 0.22742474 0.3459992 -0.3465685 0.55683553 -0.35069436
0.37167826 0.8225823 -0.34355655 -0.48158273 -0.7976011 -0.78992945 -0.7025384 0.8156351
0.87593955 -0.84337795 -0.352581 0.6948877 0.82597476 0.8065057 -0.79050905 -0.7897243
0.73253065 0.90446216 -0.78686225 -0.7879585 0.88642675 0.78179425 0.7949807 0.7605468
0.8343421 -0.7744309 0.79585373 0.7890577 -0.8011464 0.7371567 0.7915261 0.6917766
-0.7720903 0.77492213 -0.7045737 -0.716634 0.8005226 0.79767203 0.68958044 -0.8614223
-0.7522437 -0.8050356 0.76530135 0.74433076 0.8180188 0.790104 0.7921938 0.78668106
-0.12504822 -0.8207269 -0.78678936 -0.8942031 0.7790142 0.80930895 -0.93515927 -0.7262172
0.8162324 -0.77417755 -0.82793844 -0.7991058 -0.7277595 1.2792019 0.7754096 0.7281345
-0.69123 -0.69725084 0.080079414 -0.75314313 0.8435538 0.79208076 0.7279442 -0.6899259
-1.1608495 -0.8034806 0.8229486 0.7433764 -0.7655934 -0.7969429 0.7934884 0.7192546
-0.76282996 -0.8107458 0.7696623 -0.8037668 0.7805152 -0.8071792 0.89811265 0.7465486
0.8177802 0.7092842 0.79336977 -0.8261169 -0.79471457 0.744124 0.7678058 -0.9369646
-0.7792716 0.72463125 -0.8637752 0.81910115 -0.7938686 -0.29524767 0.79712176 0.8819695
00000000: 004f dd3e 925e ec3e af98 aa3e b5ff afbe
00000010: 36e9 11bf 53c1 b43e a1e5 763f 0c5f e4be
00000020: 12c1 cabe f86a b5be 0b33 db3e 597f ca3e
00000030: 3a76 c4be e4b4 1ebf ff1f d23e 84fa b23e
00000040: a84b f8be 0dc9 c2be 5199 c3be 5faa babe
00000050: aa7f 67be b9a8 d93e b56e 93be 9ce5 01bf
00000060: 41dc 0d3e c854 e0be 6493 82be 075d dbbe
00000070: 0a40 ba3e a836 d0be 5598 bd3e 069a a73e
00000080: 1700 33bf 88f9 b3be 521d a8be 54c2 e63d
00000090: aca7 db3e d114 bf3e 8c14 dbbe 5da7 e3be
000000a0: b2d1 bcbe 9f6d c7be 65de d7be edf7 d8be
000000b0: 425a 0bbf 0378 8f3e a910 d53e 3030 333e
000000c0: 7a44 a5be b6e9 bfbe d080 7a3e f6dd 4abd
000000d0: 8ada 9ebe 6006 d83e bc1b 3e3f e3ba b33e
000000e0: c470 bd3e c4ec 65bf 54eb b6be 3c0c aabe
000000f0: e9fa a93e 5dcf a73e c053 8cbf 6afc b73e
00000100: 9fab fdbe 7930 c6be 2958 b1be 378c 2f3f
00000110: 8f62 213f 78bc a23e ec28 dbbe 7dce 0dbf
00000120: 0f5f ba3e 1730 a73e d727 cdbe 1fac dbbe
00000130: 246c 6b3d 682f b93e 3de3 02bf 8b3c ae3e
00000140: 5b29 b3be 5cc9 6fbd ab94 5fbf 0211 a5be
00000150: 807a cbbe 807a 02bf 7186 c7be ae60 b63e
00000160: 5b52 db3e 9d0b 64be 4dbc c1be 08e2 683e
00000170: cf26 b13e 6d71 b1be c68c 0e3f 368e b3be
00000180: 9d4c be3e c194 523f a5e6 afbe 0392 f6be
00000190: 962f 4cbf d138 4abf 8ed9 33bf 76cd 503f
000001a0: 933d 603f 9ee7 57bf 7f85 b4be 29e4 313f
000001b0: 1573 533f 2877 4e3f cd5e 4abf 5f2b 4abf
000001c0: 2187 3b3f d58a 673f ce6f 49bf a6b7 49bf
000001d0: ddec 623f ab23 483f db83 4b3f 32b3 423f
000001e0: 7297 553f 1a41 46bf 12bd 4b3f afff 493f
000001f0: ee17 4dbf 4db6 3c3f 74a1 4a3f 4518 313f
00000200: b6a7 45bf 4c61 463f f15e 34bf 5375 37bf
00000210: 0def 4c3f 3c34 4c3f 5888 303f 2c86 5cbf
00000220: 0b93 40bf d016 4ebf caea 433f 768c 3e3f
00000230: ae69 513f 4144 4a3f 36cd 4a3f ee63 493f
00000240: a40c 00be 281b 52bf 076b 49bf 7fea 64bf
00000250: 7a6d 473f df2e 4f3f 9966 6fbf 5fe9 39bf
00000260: 9bf4 503f 8030 46bf c6f3 53bf 3392 4cbf
00000270: 724e 3abf e3bc a33f 3e81 463f 0667 3a3f
00000280: 73f4 30bf 087f 32bf ad00 a43d fdcd 40bf
00000290: 24f3 573f cec5 4a3f 8d5a 3a3f fc9e 30bf
000002a0: b796 94bf e8b0 4dbf c2ac 523f ea4d 3e3f
000002b0: eefd 43bf 7304 4cbf 0e22 4b3f 1221 383f
000002c0: d348 43bf 098d 4fbf 9708 453f a9c3 4dbf
000002d0: d8cf 473f 4ca3 4ebf b6ea 653f cf1d 3f3f
000002e0: 0b5a 513f a693 353f 481a 4b3f 667c 53bf
000002f0: 6a72 4bbf e97e 3e3f ec8e 443f e9dc 6fbf
00000300: 587e 47bf 6f81 393f 5f20 5dbf 9db0 513f
00000310: f93a 4bbf b42a 97be 2c10 4c3f c1c8 613f

fc3.bias f4 [2]
0.4312487 -0.56066185
00000000: a1cc dc3e 8987 0fbf

fc1.weight f4 [100, 22]
3.4805307e-06 -5.1614785e-07 -1.4762857e-06 -4.2927686e-06 -2.3788448e-06 -1.651901e-06 -1.653955e-06 -1.6548621e-06
-1.6522602e-06 -5.6224e-41 2.22785e-40 7.44413e-40 3.9315e-40 -1.12153e-39 8.31256e-40 -1.719934e-39
7.50887e-40 -4.78207e-40 -8.90504e-40 -2.09748e-39 -9.28238e-40 1.6716975e-38 -6.8252193e-06 -7.3286566e-07
-1.4877518e-06 -5.103566e-06 -1.6068951e-06 2.4551011e-06 1.5103393e-06 1.3716973e-06 2.0623731e-06 1.42899e-40
-1.334908e-39 1.61093e-39 1.677054e-39 2.08023e-40 -9.59414e-40 1.252523e-39 -1.095328e-39 -1.493072e-39
-1.036043e-39 -1.524204e-39 -1.762323e-39 -1.132539e-39 7.5759606e-05 -3.1966694e-05 -1.2921943e-06 3.6678735e-05
-7.059859e-06 -2.426238e-05 -1.4175782e-05 -8.481888e-06 -2.3942062e-05 1.770902e-39 -3.0016e-41 1.611314e-39
-9.58838e-40 -7.00426e-40 -1.04974e-40 -6.16136e-40 -1.04725e-40 1.310662e-39 -6.6183e-41 1.106954e-39
1.84287e-39 7.54833e-40 -0.10297556 0.0050138836 0.005162144 0.006897474 0.005541307 0.045188557
0.034177534 0.03210042 0.041133735 -5.07339e-40 8.96094e-40 1.3091e-39 -1.938154e-39 4.8995e-40
-1.129818e-39 7.27701e-40 1.360715e-39 4.3249e-40 1.947284e-39 7.83222e-40 -2.32576e-40 -6.84314e-40
1.344641e-17 1.6022375e-16 7.687044e-16 2.1379273e-15 4.1697664e-16 -1.1939841e-15 -1.1754044e-15 -1.1743087e-15
-1.1853589e-15 -4.80481e-40 1.423439e-39 -4.80047e-40 2.146229e-39 9.8004e-41 3.48988e-40 -2.21752e-39
2.040253e-39 -4.89657e-40 -8.48552e-40 2.040945e-39 1.378616e-39 -1.491141e-39 -1.9062805e-06 -2.1934657e-07
-3.2696067e-07 -1.1511517e-06 -3.6973736e-07 4.6195194e-07 3.1177737e-07 2.8870505e-07 4.0370753e-07 -9.40964e-40
-8.92337e-40 -5.40534e-40 2.011088e-39 1.29675e-40 -1.695979e-39 8.76296e-40 1.7861e-39 -2.309619e-39
2.30404e-40 -2.055809e-39 1.797566e-39 -1.889867e-39 8.28128e-10 4.9825066e-10 2.412705e-09 5.904528e-09
2.2219266e-09 -3.782139e-09 -3.8003827e-09 -3.807105e-09 -3.78639e-09 -1.828163e-39 8.6565e-40 4.64023e-40
1.531916e-39 -6.36e-41 2.77907e-40 -3.50358e-40 -3.88657e-40 9.55925e-40 -1.023539e-39 7.73898e-40
-7.86822e-40 3.4270039e-37 1.8124998e-11 -3.2741608e-11 -8.2245516e-11 -2.6888505e-10 -8.556078e-11 7.316497e-11
7.259483e-11 7.240743e-11 7.301166e-11 1.91636e-39 1.493833e-39 1.581033e-39 -1.357263e-39 1.704175e-39
-8.14622e-40 5.56125e-40 -6.7365e-41 5.66071e-40 1.682417e-39 1.04044e-40 -7.19662e-40 1.053128e-39
0.00042820215 -0.00039885225 -0.003299015 -0.0027031864 -0.00268666 0.0009840927 0.0010414547 0.0010548169
0.0010029944 1.79644e-40 -1.047322e-39 -1.309767e-39 -1.34488e-39 -1.813747e-39 1.957784e-39 -1.070274e-39
1.384062e-39 -1.44435e-39 -1.91726e-39 -1.89809e-39 -1.019588e-39 -1.222917e-39 -0.102975644 0.005013883
0.0051621464 0.006897473 0.0055413083 0.045188587 0.03417755 0.03210044 0.041133765 -8.4353e-41
-1.991691e-39 -4.75206e-40 -1.293099e-39 -1.991808e-39 6.38144e-40 4.61911e-40 1.375349e-39 -6.7984e-40
-1.085e-40 9.14067e-40 1.061353e-39 -9.97753e-40 0.10297565 -0.005013886 -0.0051621483 -0.0068974765
-0.0055413116 -0.045188583 -0.03417754 -0.032100435 -0.041133758 6.14801e-40 8.53815e-40 -4.77788e-40
-1.99322e-40 5.22588e-40 2.045188e-39 -4.73273e-40 9.76778e-40 1.585695e-39 -2.176916e-39 1.980796e-39
-3.4293e-41 3.25942e-40 0.10297565 -0.0050138854 -0.0051621487 -0.0068974737 -0.005541311 -0.04518859
-0.034177545 -0.03210044 -0.04113376 -2.13042e-40 -1.187481e-39 1.21644e-40 9.77191e-40 6.2605e-40
00000000: 1093 6936 698d 0ab5 ca24 c6b5 9a0a 90b6
00000010: 3ea4 1fb6 e3b6 ddb5 76fd ddb5 a11c deb5
00000020: 3ac3 ddb5 bb9c 0080 096d 0200 1f1b 0800
00000030: f147 0400 5f36 0c80 340d 0900 7aba 1280
00000040: 2b2d 0800 0c35 0580 5db2 0980 ecd6 1680
00000050: 8d1b 0a80 2008 b600 3004 e5b6 25ba 44b5
00000060: c3ae c7b5 4c3f abb6 7fac d7b5 51c2 2436
00000070: ddb6 ca35 291b b835 4d67 0a36 588e 0100
00000080: 2e89 0e80 9e8a 1100 f242 1200 e243 0200
00000090: 7572 0a80 86a3 0d00 54ed 0b80 1442 1080
000000a0: 1148 0b80 dc98 1080 a430 1380 0f55 0c80
000000b0: 21e1 9e38 fa13 06b8 756f adb5 7ed7 1938
000000c0: bae3 ecb6 1087 cbb7 85d4 6db7 6e4d 0eb7
000000d0: 30d7 c8b7 8e48 1300 ac53 0080 b08b 1100
000000e0: da70 0a80 81a0 0780 a024 0180 89b5 0680
000000f0: ee23 0180 9845 0e00 7eb8 0080 bd0d 0c00
00000100: 2c11 1400 2b38 0800 dae4 d2bd 814b a43b
00000110: 3427 a93b 3504 e23b da93 b53b a317 393d
00000120: befd 0b3d bb7b 033d d97b 283d 4186 0580
00000130: f2c1 0900 3d41 0e00 c91a 1580 c855 0500
00000140: 794d 0c80 89ec 0700 1fd1 0e00 9bb5 0400
00000150: 3c34 1500 4e87 0800 5488 0280 9773 0780
00000160: e00a 7823 b4b9 3825 6090 5d26 cc0d 1a27
00000170: e45e f025 3d12 aca6 c564 a9a6 583c a9a6
00000180: 06d4 aaa6 633b 0580 f87f 0f00 2d3a 0580
00000190: d05e 1700 3211 0100 d6cc 0300 8b25 1880
000001a0: 6537 1600 f754 0580 6b3d 0980 5339 1600
000001b0: 0503 0f00 b23c 1080 4ddb ffb5 8785 6bb4
000001c0: 2289 afb4 4581 9ab5 5180 c6b4 3102 f834
000001d0: 5b62 a734 52ff 9a34 24bd d834 063f 0a80
000001e0: 79b7 0980 cae2 0580 18e6 1500 7b69 0100
000001f0: b377 1280 c28a 0900 ec72 1300 4726 1980
00000200: 4682 0200 c262 1680 e292 1300 2e94 1480
00000210: 54a2 6330 46f5 0830 c1cc 2531 c7e0 ca31
00000220: 8cb0 1831 0cf4 81b1 8594 82b1 a6cf 82b1
00000230: 7019 82b1 2de8 1380 146d 0900 820d 0500
00000240: 5cae 1000 4ab1 0080 b106 0300 a8d0 0380
00000250: 6b3b 0480 bb68 0a00 3625 0b80 506d 0800
00000260: 5791 0880 d43a e902 de6d 9f2d c6ff 0fae
00000270: 1cdc b4ae 35d2 93af 7026 bcae 37e4 a02e
00000280: 42a3 9f2e c239 9f2e e98d a02e 08de 1400
00000290: 3344 1000 4737 1100 7fc7 0e80 8c8e 1200
000002a0: d6de 0880 400e 0600 c9bb 0080 fa29 0600
000002b0: e551 1200 0822 0100 20d6 0780 b177 0b00
000002c0: 5280 e039 0b1d d1b9 4a34 58bb f127 31bb
000002d0: ad12 30bb acfc 803a 6c81 883a c841 8a3a
000002e0: e876 833a c6f4 0100 8267 0b80 1943 0e80
000002f0: faa4 0e80 fdbf 1380 8151 1500 7da7 0b80
00000300: 3412 0f00 43ba 0f80 8ae0 1480 1aab 1480
00000310: 321a 0b80 ff50 0d80 e5e4 d2bd 804b a43b
00000320: 3927 a93b 3204 e23b dd93 b53b ab17 393d
00000330: c2fd 0b3d c07b 033d e17b 283d 24eb 0080
00000340: 06b0 1580 ae2c 0580 a214 0e80 5ab0 1580
00000350: e3f2 0600 9f07 0500 eaf9 0e00 1e67 0780
00000360: 742e 0180 0cf4 0900 9f8e 0b00 54dd 0a80
00000370: e6e4 d23d 864b a4bb 3d27 a9bb 3a04 e2bb
00000380: e493 b5bb aa17 39bd c0fd 0bbd bf7b 03bd
00000390: df7b 28bd d1b1 0600 174c 0900 e133 0580
000003a0: a12b 0280 c3b0 0500 2745 1600 4b27 0580
000003b0: dca2 0a00 4644 1100 5bb4 1780 a791 1500
000003c0: 985f 0080 988c 0300 e6e4 d23d 854b a4bb
000003d0: 3e27 a9bb 3404 e2bb e393 b5bb ac17 39bd
000003e0: c1fd 0bbd c07b 03bd e07b 28bd e051 0280
000003f0: 37ee 0c80 1853 0100 03a4 0a00 2cd1 0600

fc1.bias f4 [100]
1.6591166e-06 7.910348e-06 -0.00010947972 -0.12708902 1.3603702e-15 2.0150799e-06 3.808994e-09 -7.39632e-11
-0.00081587856 -0.12708914 0.1270891 0.12708911 -0.0018502333 0.12708913 -0.12708914 0.12708917
-0.12708913 -0.1270891 1.6192402e-05 -0.12708917 4.4268742e-07 -1.3275184e-07 0.0012935168 -3.1101452e-05
1.8303119e-10 -8.75771e-11 -0.12708893 -0.12708914 1.969247e-13 0.12708916 1.2274763e-05 0.00043844624
0.00011025122 0.1270891 1.2480702e-07 8.411012e-07 2.7666144e-06 -6.1474344e-07 -2.4867084e-06 -0.12708905
1.0364233e-06 0.0009872109 7.7303936e-05 -1.6829796e-05 -5.2051755e-06 2.8562385e-05 0.12708907 -0.12708914
2.5598825e-09 -0.12708917 -0.1270891 -0.12708908 0.1270891 0.0016743384 -0.12708907 -0.12708911
-1.9333966e-06 0.12708905 0.12708914 -9.577732e-08 0.12708913 2.3301748e-06 0.1270891 -3.654862e-05
0.12708916 -0.00043639832 -6.49094e-05 -0.12708916 0.12708908 -8.23286e-12 -0.00062853366 0.12708913
0.1270891 -0.12708911 -0.12708904 0.1270891 0.12708911 -0.12708911 5.068362e-12 0.12708905
2.2394536e-07 -0.000121929654 2.4552182e-05 0.12708905 3.790873e-08 0.12708913 9.711837e-07 8.3639506e-10
0.1270891 -7.83516e-08 9.792686e-07 -1.2468556e-06 -1.09714364e-07 0.12708914 -0.12708911 0.1270891
5.268209e-05 0.00015854412 9.670749e-05 -0.12708913
00000000: d0ae de35 b0b6 0437 7a98 e5b8 a023 02be
00000010: cd0c c426 cf3a 0736 44e0 8231 94a5 a2ae
00000020: afe0 55ba a823 02be a523 023e a623 023e
00000030: 8783 f2ba a723 023e a823 02be aa23 023e
00000040: a723 02be a523 02be ebd4 8737 aa23 02be
00000050: 7faa ed34 8c8a 0eb4 398b a93a ee72 02b8
00000060: b33e 492f 8695 c0ae 9a23 02be a823 02be
00000070: aeb7 5d2a a923 023e b5ef 4d37 42df e539
00000080: ac36 e738 a523 023e b102 0634 09c8 6135
00000090: 13aa 3936 d904 25b5 53e1 26b6 a223 02be
000000a0: 3c1b 8b35 4d65 813a 3c1e a238 b62d 8db7
000000b0: 1ea8 aeb6 4199 ef37 a323 023e a823 02be
000000c0: eee9 2f31 aa23 02be a523 02be a423 02be
000000d0: a523 023e 7975 db3a a323 02be a623 02be
000000e0: 80bf 01b6 a223 023e a823 023e 23ae cdb3
000000f0: a723 023e 1960 1c36 a523 023e c84b 19b8
00000100: a923 023e 64cc e4b9 f81f 88b8 a923 02be
00000110: a423 023e 81d5 10ad 2ec4 24ba a723 023e
00000120: a523 023e a623 02be a123 02be a523 023e
00000130: a623 023e a623 02be bf53 b22c a223 023e
00000140: a275 7034 7cb4 ffb8 69f5 cd37 a223 023e
00000150: 17d1 2233 a723 023e 9e59 8235 12e8 6530
00000160: a523 023e 3f42 a8b3 6a6f 8335 a259 a7b5
00000170: 1c9c ebb3 a823 023e a623 02be a523 023e
00000180: f7f6 5c38 dd3e 2639 70cf ca38 a723 02be

fc2.weight f4 [100, 100]
-2.0424686e-06 -9.571249e-09 -3.4914865e-06 0.019212037 -2.4911287e-16 -1.1702329e-08 -1.1222697e-09 -4.4197694e-11
-0.00016987917 0.019212056 -0.019212054 -0.019212056 0.0012949967 -0.019212056 0.019212062 -0.01921206
0.019212058 0.019212058 -3.3209773e-05 0.019212058 -1.17592606e-07 1.9818142e-08 -0.0004931852 3.4077507e-07
-1.5305879e-10 6.5543286e-11 0.019212028 0.019212058 1.4325674e-13 -0.01921206 -4.8837273e-06 8.9637415e-06
-8.5532076e-05 -0.019212056 -1.75342e-07 1.2438887e-09 -1.08375765e-07 4.4191433e-09 1.6218806e-07 0.01921205
-3.647265e-07 -0.0012653844 -5.2375945e-05 1.21169605e-05 1.0449057e-06 -3.967984e-07 -0.01921205 0.019212058
-6.832268e-11 0.01921206 0.019212056 0.019212052 -0.019212052 -0.0010391703 0.01921205 0.019212054
5.4122614e-07 -0.019212045 -0.019212058 3.8660075e-09 -0.01921206 -4.285816e-07 -0.019212056 1.3395083e-05
-0.019212058 -1.230605e-05 2.1582982e-05 0.01921206 -0.019212054 2.437395e-13 -5.4299453e-06 -0.019212058
-0.01921205 0.019212058 0.019212041 -0.019212058 -0.019212056 0.019212058 -4.791888e-12 -0.019212045
-2.087693e-07 3.3278457e-06 -1.04624805e-05 -0.019212045 -8.149735e-09 -0.019212056 -7.0276065e-09 -4.0111917e-10
-0.019212056 3.9846833e-09 -2.9733275e-08 2.9288455e-07 1.15484326e-07 -0.019212056 0.019212056 -0.019212058
-7.1605878e-06 -6.733146e-05 7.0382866e-06 0.019212056 -2.0424695e-06 -9.567625e-09 -3.4915765e-06 0.019211715
-2.4911194e-16 -1.17015935e-08 -1.1222678e-09 -4.4198045e-11 -0.00016988206 0.019211732 -0.019211728 -0.019211728
0.0012949976 -0.019211734 0.019211732 -0.019211732 0.01921173 0.019211728 -3.32098e-05 0.019211734
-1.17592876e-07 1.981817e-08 -0.00049318833 3.407641e-07 -1.5305882e-10 6.554334e-11 0.0192117 0.019211736
1.4325749e-13 -0.019211732 -4.8837232e-06 8.9638015e-06 -8.553212e-05 -0.019211728 -1.7534249e-07 1.2442675e-09
-1.083749e-07 4.4189292e-09 1.6218786e-07 0.019211724 -3.6472562e-07 -0.0012653868 -5.2376243e-05 1.2116966e-05
1.0448997e-06 -3.9679108e-07 -0.019211728 0.019211736 -6.831491e-11 0.019211732 0.019211728 0.019211726
-0.019211728 -0.0010391726 0.019211724 0.019211728 5.412243e-07 -0.01921172 -0.019211732 3.865991e-09
-0.01921173 -4.285822e-07 -0.019211726 1.3395176e-05 -0.019211736 -1.2306402e-05 2.1583252e-05 0.019211732
-0.019211726 2.4378367e-13 -5.4309057e-06 -0.01921173 -0.01921173 0.019211728 0.019211719 -0.019211726
-0.019211728 0.019211728 -4.7918973e-12 -0.019211719 -2.0876932e-07 3.3276692e-06 -1.0462463e-05 -0.019211717
-8.1497555e-09 -0.019211728 -7.0272432e-09 -4.0111955e-10 -0.019211728 3.984673e-09 -2.9732934e-08 2.928848e-07
1.15484625e-07 -0.019211732 0.01921173 -0.019211728 -7.1607096e-06 -6.7331304e-05 7.0383107e-06 0.019211736
-2.0424684e-06 -9.570169e-09 -3.491551e-06 0.019211909 -2.491125e-16 -1.170203e-08 -1.1222685e-09 -4.4197836e-11
-0.0001698801 0.019211927 -0.019211926 -0.019211926 0.0012949968 -0.019211927 0.019211931 -0.019211931
0.01921193 0.019211927 -3.320978e-05 0.019211931 -1.1759276e-07 1.981815e-08 -0.0004931869 3.4077001e-07
-1.5305879e-10 6.554328e-11 0.019211896 0.019211933 1.4325697e-13 -0.019211933 -4.883724e-06 8.963776e-06
-8.553205e-05 -0.019211926 -1.753422e-07 1.2440295e-09 -1.0837534e-07 4.419049e-09 1.6218794e-07 0.019211918
-3.6472608e-07 -0.0012653854 -5.2376097e-05 1.21169505e-05 1.044903e-06 -3.967955e-07 -0.01921192 0.019211931
-6.831968e-11 0.019211933 0.019211924 0.019211922 -0.019211926 -0.0010391711 0.01921192 0.019211927
00000000: 5811 09b6 cc6e 24b2 484f 6ab6 9062 9d3c
00000010: 929a 8fa5 630b 49b2 5b3e 9ab0 2e62 42ae
00000020: 9821 32b9 9a62 9d3c 9962 9dbc 9a62 9dbc
00000030: e1bc a93a 9a62 9dbc 9d62 9d3c 9c62 9dbc
00000040: 9b62 9d3c 9b62 9d3c b94a 0bb8 9b62 9d3c
00000050: 3887 fcb3 8e3c aa32 1949 01ba c5f3 b634
00000060: 384a 28af 9721 902e 8b62 9d3c 9b62 9d3c
00000070: f24a 212a 9c62 9dbc e6de a3b6 fa62 1637
00000080: af5f b3b8 9a62 9dbc a445 3cb4 71f5 aa30
00000090: 35bc e8b3 32d7 9731 ea25 2e34 9762 9d3c
000000a0: a1cf c3b4 41db a5ba 3eae 5bb8 f349 4b37
000000b0: b03e 8c35 8f07 d5b4 9762 9dbc 9b62 9d3c
000000c0: 403e 96ae 9c62 9d3c 9a62 9d3c 9862 9d3c
000000d0: 9862 9dbc c534 88ba 9762 9d3c 9962 9d3c
000000e0: c748 1135 9462 9dbc 9b62 9dbc c3d5 8431
000000f0: 9c62 9dbc ce17 e6b4 9a62 9dbc 72bb 6037
00000100: 9b62 9dbc 1576 4eb7 1a0d b537 9c62 9d3c
00000110: 9962 9dbc 9036 892a e032 b6b6 9b62 9dbc
00000120: 9762 9dbc 9b62 9d3c 9262 9d3c 9b62 9dbc
00000130: 9a62 9dbc 9b62 9d3c 7d99 a8ac 9462 9dbc
00000140: 112a 60b4 f453 5f36 0388 2fb7 9462 9dbc
00000150: ea02 0cb2 9a62 9dbc 7b77 f1b1 8184 dcaf
00000160: 9a62 9dbc a5e9 8831 2a68 ffb2 bf3d 9d34
00000170: 2e00 f833 9a62 9dbc 9a62 9d3c 9b62 9dbc
00000180: fb44 f0b6 4d34 8db8 6c2a ec36 9a62 9d3c
00000190: 5c11 09b6 dc5e 24b2 d450 6ab6 e361 9d3c
000001a0: 6f9a 8fa5 2708 49b2 4a3e 9ab0 9362 42ae
000001b0: 5e22 32b9 ec61 9d3c ea61 9dbc ea61 9dbc
000001c0: e9bc a93a ed61 9dbc ec61 9d3c ec61 9dbc
000001d0: eb61 9d3c ea61 9d3c c04a 0bb8 ed61 9d3c
000001e0: 5e87 fcb3 9e3c aa32 4f49 01ba 43f2 b634
000001f0: 3a4a 28af 9f21 902e db61 9d3c ee61 9d3c
00000200: 294b 212a ec61 9dbc ddde a3b6 3c63 1637
00000210: b55f b3b8 ea61 9dbc c745 3cb4 c502 ab30
00000220: bbbb e8b3 50d5 9731 dc25 2e34 e861 9d3c
00000230: 82cf c3b4 56db a5ba 90ae 5bb8 f949 4b37
00000240: 7b3e 8c35 8d06 d5b4 ea61 9dbc ee61 9d3c
00000250: e039 96ae ec61 9d3c ea61 9d3c e961 9d3c
00000260: ea61 9dbc d934 88ba e861 9d3c ea61 9d3c
00000270: a748 1135 e661 9dbc ec61 9dbc 9ed5 8431
00000280: eb61 9dbc e417 e6b4 e961 9dbc d8bb 6037
00000290: ee61 9dbc 9877 4eb7 ae0d b537 ec61 9d3c
000002a0: e961 9dbc ee3c 892a 203b b6b6 eb61 9dbc
000002b0: eb61 9dbc ea61 9d3c e561 9d3c e961 9dbc
000002c0: ea61 9dbc ea61 9d3c 9399 a8ac e561 9dbc
000002d0: 132a 60b4 ec50 5f36 f087 2fb7 e461 9dbc
000002e0: 0103 0cb2 ea61 9dbc 4974 f1b1 8f84 dcaf
000002f0: ea61 9dbc 8ee9 8831 6a67 ffb2 c83d 9d34
00000300: 5800 f833 ec61 9dbc eb61 9d3c ea61 9dbc
00000310: 0746 f0b6 3834 8db8 a12a ec36 ee61 9d3c
00000320: 5711 09b6 0c6a 24b2 6450 6ab6 4b62 9d3c
00000330: 849a 8fa5 120a 49b2 503e 9ab0 5762 42ae
00000340: d821 32b9 5562 9d3c 5462 9dbc 5462 9dbc
00000350: e2bc a93a 5562 9dbc 5762 9d3c 5762 9dbc
00000360: 5662 9d3c 5562 9d3c bb4a 0bb8 5762 9d3c
00000370: 4e87 fcb3 933c aa32 3649 01ba 13f3 b634
00000380: 384a 28af 9621 902e 4462 9d3c 5862 9d3c
00000390: 034b 212a 5862 9dbc dfde a3b6 2063 1637
000003a0: ab5f b3b8 5462 9dbc b245 3cb4 66fa aa30
000003b0: f9bb e8b3 5ed6 9731 e225 2e34 5062 9d3c
000003c0: 92cf c3b4 4adb a5ba 68ae 5bb8 e849 4b37
000003d0: 983e 8c35 2907 d5b4 5162 9dbc 5762 9d3c
000003e0: 903c 96ae 5862 9d3c 5362 9d3c 5262 9d3c
000003f0: 5462 9dbc cc34 88ba 5162 9d3c 5562 9d3c

fc2.bias f4 [100]
-0.076031834 -0.07603043 -0.076031275 0.0760308 0.07603145 -0.0760316 0.07603052 0.07603115
-0.07603107 -0.07603126 -0.076031104 0.07603106 0.07603084 0.076030806 -0.076030895 -0.07603112
-0.07603164 -0.07603197 0.07603112 0.07603093 -0.07603054 0.07603045 -0.07602919 -0.0760312
0.07602826 -0.076029696 0.076031186 -0.076031275 0.07603103 -0.07603071 -0.07603173 0.07603062
0.07603051 -0.0760311 -0.07603129 -0.07603104 -0.0760313 0.07603092 0.0760311 0.07602997
0.07603094 0.07603157 -0.07603096 -0.076029986 -0.07603178 -0.076029696 0.07603052 0.07603043
0.0760311 0.07603119 0.076030925 -0.076031275 0.076031044 0.07603117 0.07603156 -0.076031186
0.07603073 -0.07602594 0.07603026 0.07603115 -0.076029845 -0.07603166 0.07603084 -0.07603112
0.07603127 -0.076030925 -0.076030605 0.076031454 -0.07603074 -0.07603069 0.07603116 0.076028734
0.076030545 -0.076030314 -0.076030515 -0.07603141 0.07603049 -0.07603044 0.07603059 0.076031245
-1.235553e-39 0.07603093 0.07603167 0.07603105 0.07603033 2.6743535e-05 -0.07603115 0.07602732
0.07603081 -0.0760312 -0.07603156 -3.0879262e-19 0.07603043 0.0760308 0.0760314 0.07603099
-0.07603176 0.076031625 -0.07603036 0.07603034
00000000: 94b6 9bbd d8b5 9bbd 49b6 9bbd 09b6 9b3d
00000010: 60b6 9b3d 75b6 9bbd e4b5 9b3d 38b6 9b3d
00000020: 2db6 9bbd 47b6 9bbd 32b6 9bbd 2cb6 9b3d
00000030: 0fb6 9b3d 0ab6 9b3d 16b6 9bbd 34b6 9bbd
00000040: 7ab6 9bbd a6b6 9bbd 34b6 9b3d 1bb6 9b3d
00000050: e6b5 9bbd dab5 9b3d 31b5 9bbd 3fb6 9bbd
00000060: b4b4 9b3d 75b5 9bbd 3db6 9b3d 49b6 9bbd
00000070: 28b6 9b3d fdb5 9bbd 86b6 9bbd f1b5 9b3d
00000080: e2b5 9b3d 31b6 9bbd 4bb6 9bbd 29b6 9bbd
00000090: 4cb6 9bbd 19b6 9b3d 31b6 9b3d 9ab5 9b3d
000000a0: 1cb6 9b3d 71b6 9b3d 1fb6 9bbd 9cb5 9bbd
000000b0: 8db6 9bbd 75b5 9bbd e4b5 9b3d d8b5 9b3d
000000c0: 31b6 9b3d 3eb6 9b3d 1ab6 9b3d 49b6 9bbd
000000d0: 2ab6 9b3d 3bb6 9b3d 6fb6 9b3d 3db6 9bbd
000000e0: 00b6 9b3d 7db3 9bbd c1b5 9b3d 38b6 9b3d
000000f0: 89b5 9bbd 7db6 9bbd 0fb6 9b3d 34b6 9bbd
00000100: 48b6 9b3d 1ab6 9bbd efb5 9bbd 61b6 9b3d
00000110: 01b6 9bbd fab5 9bbd 3ab6 9b3d f4b4 9b3d
00000120: e7b5 9b3d c8b5 9bbd e3b5 9bbd 5bb6 9bbd
00000130: e0b5 9b3d d9b5 9bbd edb5 9b3d 45b6 9b3d
00000140: 3874 0d80 1bb6 9b3d 7eb6 9b3d 2bb6 9b3d
00000150: cab5 9b3d 4e57 e037 38b6 9bbd 36b4 9b3d
00000160: 0bb6 9b3d 3fb6 9bbd 6fb6 9bbd 6c47 b6a0
00000170: d8b5 9b3d 09b6 9b3d 5ab6 9b3d 23b6 9b3d
00000180: 8ab6 9bbd 78b6 9b3d ceb5 9bbd cbb5 9b3d

fc3.weight f4 [1, 100]
-0.15283388 -0.15283085 -0.15283261 0.15283161 0.15283304 -0.15283339 0.15283108 0.15283236
-0.15283222 -0.1528326 -0.15283234 0.1528322 0.15283169 0.1528316 -0.15283184 -0.15283234
-0.15283348 -0.15283419 0.15283234 0.1528319 -0.15283108 0.15283087 -0.15282817 -0.15283248
0.15282616 -0.15282923 0.15283246 -0.15283266 0.15283209 -0.15283142 -0.15283366 0.15283124
0.15283102 -0.15283227 -0.15283269 -0.15283215 -0.15283267 0.15283187 0.15283228 0.15282984
0.15283187 0.15283328 -0.15283199 -0.15282987 -0.1528338 -0.15282924 0.15283103 0.15283084
0.15283227 0.1528325 0.15283188 -0.15283269 0.15283215 0.15283242 0.15283327 -0.15283246
0.15283147 -0.15282112 0.1528305 0.15283237 -0.15282956 -0.15283352 0.15283169 -0.15283236
0.15283263 -0.15283188 -0.15283121 0.15283306 -0.15283145 -0.15283139 0.1528324 0.15282726
0.15283115 -0.15283059 -0.15283105 -0.152833 0.152831 -0.15283087 0.15283118 0.15283255
-6.8488e-41 0.15283193 0.15283355 0.15283217 0.15283063 5.1700623e-05 -0.15283239 0.15282412
0.15283161 -0.15283248 -0.15283327 2.4851176e-17 0.15283084 0.15283161 0.15283296 0.15283203
-0.15283367 0.15283345 -0.15283069 0.15283065
00000000: 7c80 1cbe b17f 1cbe 2780 1cbe e47f 1c3e
00000010: 4480 1c3e 5b80 1cbe c07f 1c3e 1680 1c3e
00000020: 0d80 1cbe 2680 1cbe 1580 1cbe 0b80 1c3e
00000030: e97f 1c3e e37f 1c3e f37f 1cbe 1580 1cbe
00000040: 6180 1cbe 9180 1cbe 1580 1c3e f77f 1c3e
00000050: c07f 1cbe b27f 1c3e fd7e 1cbe 1e80 1cbe
00000060: 767e 1c3e 447f 1cbe 1d80 1c3e 2a80 1cbe
00000070: 0480 1c3e d77f 1cbe 6d80 1cbe cb7f 1c3e
00000080: bc7f 1c3e 1080 1cbe 2c80 1cbe 0880 1cbe
00000090: 2b80 1cbe f57f 1c3e 1180 1c3e 6d7f 1c3e
000000a0: f57f 1c3e 5480 1c3e fd7f 1cbe 6f7f 1cbe
000000b0: 7780 1cbe 457f 1cbe bd7f 1c3e b07f 1c3e
000000c0: 1080 1c3e 1f80 1c3e f67f 1c3e 2c80 1cbe
000000d0: 0880 1c3e 1a80 1c3e 5380 1c3e 1d80 1cbe
000000e0: da7f 1c3e 247d 1cbe 997f 1c3e 1780 1c3e
000000f0: 5a7f 1cbe 6480 1cbe e97f 1c3e 1680 1cbe
00000100: 2880 1c3e f67f 1cbe c97f 1cbe 4580 1c3e
00000110: d97f 1cbe d57f 1cbe 1980 1c3e c07e 1c3e
00000120: c57f 1c3e 9f7f 1cbe be7f 1cbe 4180 1cbe
00000130: bb7f 1c3e b27f 1cbe c77f 1c3e 2380 1c3e
00000140: ebbe 0080 f97f 1c3e 6680 1c3e 0980 1c3e
00000150: a27f 1c3e 1fd9 5838 1880 1cbe ed7d 1c3e
00000160: e47f 1c3e 1e80 1cbe 5380 1cbe 2e36 e523
00000170: b07f 1c3e e47f 1c3e 3e80 1c3e 0080 1c3e
00000180: 6e80 1cbe 5f80 1c3e a67f 1cbe a37f 1c3e

fc1.weight f4 [100, 24]
0.0078084045 0.23167011 -0.028460672 -0.11235335 0.06964944 0.013880514 0.21714465 -0.058416266
-0.036283188 0.20241627 -0.14398131 -0.0024333447 -0.14169621 -0.00915131 -0.14087927 0.06269115
-0.13647278 -0.1583248 -0.1385667 0.10256636 -0.13812408 0.1122479 0.04487349 0.21209762
0.07099186 0.05962736 0.06512758 -0.15670344 -0.14417517 -0.18270208 -0.25439936 -0.2548659
-0.12381702 0.13403228 0.13753918 0.017171368 -0.074147254 -0.12939623 0.06618303 0.0015245974
0.1549465 -0.018191263 -0.052954108 -0.15728387 -0.11138475 0.02932149 0.1750012 -0.09461272
0.18140134 -0.020291595 -0.13710707 0.05319717 0.20278706 -0.015998283 -0.05448356 0.013725967
0.12938163 -0.20040648 0.032572165 -0.030533522 0.014382333 -0.04103847 -0.07231605 -0.04327856
-0.056316003 -0.13460654 -0.17300546 -0.20299849 -0.08378723 -0.15387535 -0.14786102 0.08359451
0.08495047 -0.196974 0.04426218 -0.16270873 -0.00863035 0.096933715 -0.1929497 -0.1476469
-0.104952425 -0.1723868 0.16095951 0.18680397 -0.19828513 0.10636082 0.17428097 -0.04985395
-0.023952872 0.068677515 0.094787866 0.14626116 0.07196146 -0.027812766 -0.1338009 -0.057186488
-0.058394514 0.001627519 -0.02610226 0.017600672 -0.15903202 -0.13081305 -0.06214428 -0.20849328
-0.11625603 -0.16513778 -0.19292879 -0.029473335 0.17257363 -0.013961151 -0.0014872104 -0.008670226
-0.006540939 0.15454754 -0.06687158 -0.10976623 0.18435624 -0.017116288 0.033142228 0.18996008
-0.14935768 -0.10813607 -0.119385086 -0.17956613 -0.005438383 -0.2561492 -0.10062263 -0.066451415
-0.02006808 0.07399571 0.17244154 -0.077443585 -0.17254117 0.025175333 0.14958793 -0.027063087
0.16056183 -0.09650545 -0.07253313 -0.06343526 -0.0643675 0.18371433 0.043655198 -0.011479339
-0.21692714 -0.015753945 -0.10033351 -0.21022251 -0.004660823 0.14623018 -0.14978573 -0.16386828
0.09039215 0.18290865 -0.1933351 -0.13922754 0.20048076 0.15442643 0.02912882 0.10926178
0.021771029 -0.11778597 -0.11758044 0.17305288 0.0101043135 0.0793384 0.07235145 0.062858246
0.13322264 0.15819956 -0.10941925 0.0349893 0.18814796 0.05206248 0.18423034 0.19965537
0.08520221 -0.113425456 0.07349771 0.08169246 -0.011307627 0.16403002 -0.079631485 0.032361984
-0.152095 -0.116669714 -0.08722923 -0.053563714 -0.17439996 0.0453409 -0.06827412 -0.1369938
0.017337482 0.16305247 0.094623655 0.08285094 0.09893993 0.11208454 0.033071037 0.11750367
0.09256478 0.1816127 0.1742895 0.048463494 -0.04423082 -0.18074106 -0.033203706 0.20353648
0.15871239 0.16041413 -0.0751777 -0.030540332 0.12533009 -0.037849896 0.05899683 -0.10143016
-0.066296436 0.10105194 0.009550218 0.1799888 -0.15547788 0.10117676 0.12640046 0.143808
-0.02361358 -0.031300157 0.19015121 -0.12310607 0.09083539 -0.1886134 0.0072486997 0.048635185
0.05266142 -0.13044904 -0.11696787 0.08488697 0.14126459 0.0036196318 0.023905698 -0.17827256
-0.13541988 -0.01885923 0.0033958927 0.08857581 -0.14930813 -0.22618039 -0.18389224 -0.28751624
-0.17983289 -0.06176637 0.022790238 -0.0917225 0.015389383 0.13056195 0.058306754 -0.042467758
00000000: a5dd ff3b ee3a 6d3e 5b26 e9bc 8319 e6bd
00000010: 5ea4 8e3d 186b 633c 2b5b 5e3e e545 6fbd
00000020: ae9d 14bd 3646 4f3e d66f 13be c078 1fbb
00000030: d018 11be 60ef 15bc a842 10be 3864 803d
00000040: 85bf 0bbe e51f 22be 6ee4 0dbe 500e d23d
00000050: 6670 0dbe 3ae2 e53d 44cd 373d 1e30 593e
00000060: 2e64 913d d23b 743d 9c61 853d de76 20be
00000070: a8a2 13be 4116 3bbe a240 82be c97d 82be
00000080: c793 fdbd c23f 093e 12d7 0c3e f8aa 8c3c
00000090: 84da 97bd 7280 04be f88a 873d 00d5 c73a
000000a0: 4caa 1e3e d805 95bc 68e6 58bd 060f 21be
000000b0: b01d e4bd 9f33 f03c 8433 333e 50c4 c1bd
000000c0: 46c1 393e 8f3a a6bc cc65 0cbe 47e5 593d
000000d0: 69a7 4f3e d50e 83bc 272a 5fbd e1e2 603c
000000e0: 9e7c 043e 5b37 4dbe 646a 053d 7021 fabc
000000f0: e0a3 6b3c f417 28bd 701a 94bd dc44 31bd
00000100: 9cab 66bd 4cd6 09be 5828 31be d6de 4fbe
00000110: a498 abbd 8091 1dbe e168 17be 9933 ab3d
00000120: 83fa ad3d 8db3 49be 424c 353d 1e9d 26be
00000130: 5066 0dbc 2f85 c63d 9b94 45be c030 17be
00000140: 4cf1 d6bd 2a86 30be 92d2 243e 8a49 3f3e
00000150: 420b 4bbe b4d3 d93d b676 323e a833 4cbd
00000160: d038 c4bc cca6 8c3d 2420 c23d 7cc5 153e
00000170: 8860 933d 99d7 e3bc 1a03 09be 613c 6abd
00000180: 162f 6fbd 7a52 d53a 68d4 d5bc 492f 903c
00000190: 4ad9 22be dbf3 05be 008b 7ebd 437f 55be
000001a0: a417 eebd e119 29be 208f 45be 1072 f1bc
000001b0: 24b7 303e 50bd 64bc 80ee c2ba 900d 0ebc
000001c0: 6055 d6bb b641 1e3e f8f3 88bd 1ecd e0bd
000001d0: e2c7 3c3e 7537 8cbc 25c0 073d e584 423e
000001e0: 38f1 18be 7276 ddbd 2b80 f4bd 2fe0 37be
000001f0: 7734 b2bb fd25 83be 3d13 cebd ae17 88bd
00000200: d065 a4bc 108b 973d 8494 303e be9a 9ebd
00000210: a2ae 30be 803c ce3c 942d 193e 68b3 ddbc
00000220: 526a 243e a6a4 c5bd 408c 94bd 58ea 81bd
00000230: 1cd3 83bd 9c1f 3c3e cbcf 323d d613 3cbc
00000240: 2622 5ebe 6b0e 81bc a87b cdbd 9244 57be
00000250: d1b9 98bb 5dbd 153e 6e61 19be 16cd 27be
00000260: 851f b93d 684c 3b3e a3f9 45be aa91 0ebe
00000270: d44a 4d3e f621 1e3e 909f ee3c a4c4 df3d
00000280: 2859 b23c c539 f1bd 04ce f0bd c634 313e
00000290: 908c 253c 2c7c a23d ff2c 943d d3bb 803d
000002a0: 846b 083e 11ff 213e 3317 e0bd f150 0f3d
000002b0: dca9 403e 783f 553d e1a6 3c3e 7572 4c3e
000002c0: 7f7e ae3d 9b4b e8bd f885 963d 604e a73d
000002d0: a043 39bc 7cf7 273e d515 a3bd 008e 043d
000002e0: cbbe 1bbe 88f0 eebd 3da5 b2bd a065 5bbd
000002f0: e795 32be 61b7 393d 4dd3 8bbd 1a48 0cbe
00000300: 5607 8e3c 3af7 263e 0cca c13d c1ad a93d
00000310: 05a1 ca3d 948c e53d 7f75 073d c4a5 f03d
00000320: 9a92 bd3d aef8 393e f278 323e a881 463d
00000330: 602b 35bd 2f14 39be 9c00 08bd de6b 503e
00000340: 8085 223e 9a43 243e c4f6 99bd b82f fabc
00000350: 8856 003e 7e08 1bbd a9a6 713d 9eba cfbd
00000360: 6dc6 87bd 52f4 ce3d 8478 1c3c fc4e 383e
00000370: 9835 1fbe c335 cf3d 1f6f 013e 6842 133e
00000380: 4471 c1bc 9834 00bd 00b7 423e 091f fcbd
00000390: e807 ba3d df23 41be 8086 ed3b b035 473d
000003a0: 80b3 573d 6f94 05be da8c efbd 38d9 ad3d
000003b0: aaa7 103e 5837 6d3b e2d5 c33c 158d 36be
000003c0: 82ab 0abe ac7e 9abc a08d 5e3b 3c67 b53d
000003d0: 3be4 18be d59b 67be 3f4e 3cbe 5435 93be
000003e0: 1d26 38be bcfe 7cbd 98b2 ba3c 02d9 bbbd
000003f0: c023 7c3c 08b2 053e 10d3 6e3d acf2 2dbd
