gail/save_model/0/SUB036_ckpt_20.pth.tar (torch_old, 154721 bytes, 16 tensors)

fc1.weight f4 [100, 22]
000000 0d fa b4 bd 51 29 82 be e9 1e a1 bd b3 e9 5a 3d
       -0.08836756 -0.25422147 -0.07867224 0.05344553
000010 97 ce 1c be 37 e2 5e 3e 71 76 c7 3c fc 10 83 3e
       -0.15313183 0.21765982 0.02434847 0.25598896
000020 3e 27 96 3e 4c 25 02 3e 00 3e 8e bc 38 86 2e 3e
       0.29326814 0.1270954 -0.017363548 0.17043388
000030 4e b4 d8 bd 18 4a e2 3c 98 25 4d be c0 6f 22 3d
       -0.105812654 0.027623221 -0.20033872 0.039657354
000040 70 25 72 3d 40 33 0f bc 78 f1 33 3d bc 58 cd 3d
       0.059117734 -0.008740246 0.043931454 0.1002669
000050 dc 39 e3 3d 22 12 29 3e fd 5c 54 3e 1e 01 13 3d
       0.1109502 0.16510823 0.20738597 0.035889737
000060 14 1f 34 be 86 9b 1a 3e 29 a1 36 3e 0d 2f 9d be
       -0.1758998 0.1509839 0.17834915 -0.3069996
000070 99 9e 60 be 17 d4 0d bd 00 b8 81 be 60 a0 82 bc
       -0.219355 -0.034626093 -0.25335693 -0.015945613
000080 80 ca d9 3d 42 8d 40 3e 82 45 3f be 08 aa 56 3d
       0.10634327 0.18803886 -0.18678859 0.05240825
000090 c8 7c 25 3e 88 5d 42 3d e0 f2 74 3d 80 98 4a be
       0.16160882 0.04745248 0.059801936 -0.19784737
0000a0 60 d8 13 bd e8 59 d7 bd 4c 4c 0a 3e c4 95 50 be
       -0.036095023 -0.10515195 0.13505667 -0.20369631
0000b0 cc 82 a6 3e e7 fa bf bd 5f 23 e8 3e 54 93 84 be
       0.32521665 -0.09374028 0.45339486 -0.25893652
0000c0 d7 a2 d2 3e 45 7c f0 3d f1 92 b0 bd 39 99 e7 3c
       0.41139862 0.117424525 -0.08621777 0.028271304
0000d0 bf 64 69 3e f4 e6 82 3d 80 e2 42 3d e2 fd 34 3e
       0.22792338 0.06391707 0.04757929 0.17674974
0000e0 2a ac 90 bd e0 61 00 bd 38 6a f1 3d f2 de 59 3e
       -0.07064088 -0.03134334 0.11787838 0.21276453
0000f0 b4 8a 90 3d 70 2e 3f 3d 2b d9 cd bd 00 e4 5a 3c
       0.070577055 0.046675146 -0.10051187 0.0133600235
000100 08 99 e8 bc 70 7d b6 3c 93 d8 63 3e cf 56 9b 3b
       -0.028393283 0.02227661 0.22250585 0.004740573
000110 d5 47 5b be ce a0 c7 bd 53 e5 3b be ca ec 88 bd
       -0.2141412 -0.09747468 -0.18349199 -0.06685789
000120 92 1b 89 3e 94 0b a6 3d a2 b4 cc 3d 01 da da bd
       0.26778847 0.08107677 0.099953905 -0.10686112
000130 33 e9 1a be c8 ad 40 3d 1a c7 46 3e 45 c5 eb bd
       -0.15128021 0.04704073 0.19411889 -0.115122356
000140 80 8b c0 bd b8 50 24 3e 7c 20 8a 3d 96 1e 3c 3e
       -0.094016075 0.16046417 0.06744477 0.18371043
000150 30 81 b1 3c 5c 39 07 be 3e 95 28 3e c2 02 4d 3e
       0.021668047 -0.13205475 0.16463181 0.20020583
000160 10 da 4f 3e b9 f2 b1 be e5 34 f4 3d 81 3b e9 be
       0.20298028 -0.34755495 0.11924151 -0.4555321
000170 07 01 2f 3e 00 5c 5d 3e d3 15 47 3e cb 9c 6c bd
       0.17090236 0.21617126 0.19441919 -0.057766717
000180 00 72 8c 3e 24 fa f9 bd 82 0d 0b 3e e0 6a ae 3b
       0.27430725 -0.12205914 0.13579372 0.005322799
000190 20 b2 ac 3d 88 8f b9 bc 68 54 bc 3d 76 59 28 3e
       0.08432412 -0.022651449 0.09195787 0.16440377
0001a0 ed cf 41 be 04 e5 04 3e 28 a2 42 3e 8c 7a fa 3d
       -0.18926974 0.12977988 0.1900717 0.12230405
0001b0 b0 53 d0 3d 24 65 3a bd 35 34 89 be 5c 3c 92 3d
       0.10172212 -0.04550661 -0.26797643 0.07140419
0001c0 35 5e 52 3c b5 68 42 be d2 43 e6 bd 86 ea 92 3e
       0.0128398435 -0.18985255 -0.112434044 0.28694552
0001d0 2c ae 8f 3b 0e 94 87 3e 12 95 37 3e 0c 99 f6 3d
       0.0043847766 0.26480144 0.1792796 0.1204091
0001e0 48 7b 25 bd ba 00 a4 bd a8 b9 24 bd a8 14 70 3d
       -0.040400773 -0.08007951 -0.040216118 0.05861345
0001f0 90 2a 17 3d 58 8b 54 3e 04 67 45 3e dc 31 03 3d
       0.036905825 0.2075628 0.19277579 0.03202997
000200 b8 50 0a bd 94 d6 07 bd 80 32 6e bd b8 1f ed 3d
       -0.033768386 -0.033163622 -0.05815363 0.115783155
000210 c5 30 60 3e 13 73 43 3e 83 df de 3d 35 a8 0b be
       0.21893604 0.19086866 0.10882475 -0.13638385
000220 ca 25 cb 3e 53 2e ba bd f2 8e 71 ba 7a db b5 bd
       0.39677268 -0.09090867 -0.0009214721 -0.088797525
000230 e2 d9 f7 3d 80 93 c0 3a 4c bd b6 3d 34 2d bd 3d
       0.12102105 0.0014692396 0.08922824 0.092371374
000240 50 d3 b0 3d c7 cf 02 be 12 a7 09 3e 00 fa 77 bd
       0.08634055 -0.12774573 0.13442639 -0.060541153
000250 2c 53 57 bd d0 54 a3 3c 2a 1e 17 3e 3e 4a 1c 3e
       -0.052569553 0.019937903 0.147576 0.15262696
000260 c8 9a 9c bd 40 3c 89 3b c7 bf 95 be 21 84 56 3e
       -0.0764671 0.0041880906 -0.29247877 0.2094884
000270 06 08 8b 3b 43 a1 53 3d 6a 38 65 3e 4c 2b 4e be
       0.0042429 0.051667463 0.22384802 -0.20133704
000280 dc a2 5c 3d 3c e0 cf 3c 43 9f 0d be 20 45 30 3c
       0.053866252 0.025375478 -0.13830285 0.010758668
000290 64 69 d2 3d d4 ac 13 bd cb 67 e9 bd a4 c0 a7 3d
       0.10274008 -0.036053494 -0.1139675 0.0819104
0002a0 b0 56 dc 3d 96 a3 0f 3e 90 b3 24 3d cb 31 e2 bd
       0.10758722 0.14027247 0.040210307 -0.110446535
0002b0 58 ee 69 bd b0 e6 09 3e 9c 95 ae 3d b4 a8 54 bd
       -0.057112068 0.13466907 0.085246295 -0.0519187
0002c0 bb 5f 20 be 7f 79 89 3d ae d4 ae 3c e1 6d 1a 3e
       -0.15661518 0.06712627 0.021341648 0.15080978
0002d0 83 a1 29 3e 02 6c 8d 3e ce ce 9b bd 86 c9 8e 3e
       0.16565518 0.27621466 -0.07607804 0.27888125
0002e0 ff df 89 3e 58 90 03 3e ec 6e 44 3e c0 8f 01 3b
       0.26928708 0.12848032 0.19182938 0.001976952
0002f0 27 be 2c be d8 c9 97 3c b9 b8 58 be 08 d4 06 3d
       -0.16869412 0.018528864 -0.21164216 0.032917053
000300 de c1 0f be 04 5e f6 3d c4 6a e2 3d 14 c8 41 bd
       -0.14038798 0.12029651 0.1105552 -0.04730995
000310 d0 33 e9 bd 97 83 fc bd 7f 09 a7 3e f7 36 5c 3d
       -0.113868356 -0.12329786 0.32624432 0.053763356
000320 53 59 40 bc 32 30 d5 3d 3e 74 cb bd c9 c6 58 bd
       -0.011740047 0.10409583 -0.09934281 -0.05292395
000330 10 03 45 be 13 64 0f be 6d aa 93 be 38 ec 2d be
       -0.1923945 -0.14003019 -0.28840962 -0.16984642
000340 1c 9c 4d 3e 38 69 b5 bd 34 08 41 3e 73 e1 31 be
       0.20079082 -0.088579595 0.18850785 -0.17371158
000350 30 c1 1c 3d 4c 28 49 3e ce d6 56 be 86 ef 38 be
       0.038270175 0.19644278 -0.20980379 -0.18060121
000360 41 5d 1c be 88 1b fb bc f0 30 53 3d f6 35 48 be
       -0.15269949 -0.030652776 0.051560342 -0.19551834
000370 0c db 9d be 83 91 04 3e f5 42 5b 3e 0c ce 54 3e
       -0.30831182 0.12946133 0.21412261 0.20781726
000380 c3 2f e9 3d 58 02 8a be 60 5f bf be 2e c3 9b be
       0.11386063 -0.26954913 -0.37377453 -0.30422348
000390 7a 99 8e be 98 6b 91 bd 6d 15 38 be 94 7b 21 3e
       -0.27851468 -0.071006 -0.17976923 0.15769798
0003a0 68 40 af 3c 6c a1 f8 3d cc 89 0b 3e 4c a5 47 3e
       0.021393016 0.12140164 0.13626784 0.1949665
0003b0 05 1b 31 be ff 48 c4 bd a8 a7 6c 3d a8 43 29 bd
       -0.17295463 -0.095842354 0.057777077 -0.041324288
0003c0 88 68 ef 3d 20 2c 83 bc d9 dd 80 ba bd c8 90 be
       0.1168986 -0.016012251 -0.0009831741 -0.2827815
0003d0 20 ce 9c 3d 1d 0a 10 3e bd 9d 6a 3e cb df 7c 3e
       0.07656503 0.14066358 0.22911735 0.24694745
0003e0 d7 fd 0d bc 13 c6 2b 3d a8 a8 76 3d f4 75 8c 3d
       -0.008666477 0.041936945 0.060219437 0.06858435
0003f0 52 f6 4b be 92 1a 0f 3e 50 b4 40 3d 14 b5 07 3d
       -0.19918182 0.1397498 0.04704696 0.033131674

fc1.bias f4 [100]
000000 82 a2 ef bd f2 22 3e 3e 99 58 0a 3d fa 97 6b be
       -0.11700918 0.18568018 0.0337759 -0.23007193
000010 5a 3e bd bd 27 f8 9d be a8 f8 06 be 61 85 46 3e
       -0.09240408 -0.30853388 -0.13180792 0.19386818
000020 64 86 52 be 38 4d 57 3e df 59 b2 3e 71 0b 79 be
       -0.20559078 0.2102555 0.3483419 -0.24320771
000030 67 9b a1 3c ae fe 07 3e 0e 97 40 3e 2a 82 31 3e
       0.019727422 0.13280746 0.18807623 0.1733481
000040 ec 3a 79 bd 16 d6 6d be 6d 6d fe bd d5 81 92 bd
       -0.060847208 -0.23226199 -0.12423215 -0.0715367
000050 7d 0b cc 3e 9d b5 4c be 63 89 a2 3c 45 b6 1f 3e
       0.39852515 -0.19991155 0.019840902 0.15596874
000060 6f f6 92 3e ce 26 bd 3c 3b d9 ba 3d 46 d1 de be
       0.2870364 0.023089793 0.09123465 -0.43519038
000070 9c 2a 98 3e e7 09 83 3d 08 2c fb bd cd 4c 12 3e
       0.29720008 0.06398373 -0.12264258 0.1428711
000080 f0 2b a5 be 26 75 a3 3d 5b fc 9d 3e 5b 35 93 be
       -0.32260084 0.07981329 0.30856594 -0.28751644
000090 7b 64 4b 3e 8c 64 d8 3d 93 c8 84 bd 81 0c 05 3e
       0.19862549 0.10566053 -0.06483569 0.12993051
0000a0 ef ea 65 3d 83 55 26 3d 62 78 7a be 40 07 a5 3d
       0.056132253 0.040608894 -0.24459985 0.080580235
0000b0 95 00 c4 3e b2 d4 9c 3d bf 02 85 3d 34 02 37 3b
       0.38281694 0.07657756 0.064946644 0.0027924897
0000c0 ff 9d 15 3d 7d 5e 91 be b8 b6 d6 bd 96 d6 96 3d
       0.03652763 -0.283924 -0.104840696 0.07365148
0000d0 93 03 9c be 79 c2 1e be a3 a9 4d 3d d6 75 ad bc
       -0.30471477 -0.15503873 0.050210606 -0.021174353
0000e0 84 7f a7 3d 5d ef cf bd fd 49 b7 3e dc bd 9b 3c
       0.081786186 -0.10153077 0.35798636 0.01901143
0000f0 c3 8d 8b 3e 04 0a 48 3e b8 3e 61 be 0b 25 31 be
       0.27256593 0.1953507 -0.21996582 -0.17299287
000100 e0 f4 b7 be a1 21 5b 3e 5b e8 82 bd 2f 65 5d bd
       -0.35929012 0.21399547 -0.063919745 -0.054051574
000110 59 ff 42 bc 6e cb 3c 3e fa fe 63 be 60 77 13 bd
       -0.0119017 0.18436977 -0.22265235 -0.036002517
000120 60 2d 4e 3e 26 ff 68 3e fd f8 0f 3c b3 b8 c0 3d
       0.20134497 0.22753581 0.008787391 0.094102286
000130 83 20 88 bc d6 88 ca 3d 5e 5c a7 3d dd fe 74 be
       -0.016617065 0.09889381 0.081719145 -0.23925348
000140 99 92 40 be 47 45 81 be 3f 77 a8 3d 77 b3 37 bc
       -0.18805923 -0.25248167 0.082258694 -0.011212221
000150 93 37 2e be a9 82 fd bb 7a 97 32 3e 0e 38 89 3e
       -0.17013387 -0.007736523 0.17440596 0.2680058
000160 31 0d dd 3d 30 85 44 3e 15 21 56 be 74 79 7c bd
       0.10793532 0.19191432 -0.20911057 -0.061639264
000170 92 2a a9 be a2 01 88 3e de f5 45 3e 21 71 7b 3e
       -0.3304029 0.26563746 0.19332072 0.24554874
000180 3a 3f 3f 3e 99 1c d2 3d 0e 2c 09 3e ad d8 04 3e
       0.18676463 0.10259361 0.13395712 0.1297328

fc2.weight f4 [100, 100]
000000 b6 80 aa bd 01 2c b0 bd a3 93 88 3d f3 b9 b3 3e
       -0.08325331 -0.08602143 0.066687845 0.35102805
000010 aa 02 9a 3d 83 db 02 bd 14 6d 44 3c 79 91 54 be
       0.075200394 -0.031947624 0.011988897 -0.20758618
000020 96 7b ab bd f7 bf 21 3e 56 38 66 be 19 d1 1f be
       -0.083731815 0.15795885 -0.22482428 -0.15607108
000030 f8 75 b6 3d b6 61 be be 48 d3 fd bc a3 8b 22 3e
       0.089092195 -0.37183923 -0.030984536 0.1587358
000040 f8 a3 03 3f 49 d4 e6 3d f3 37 08 bd 8c e2 97 3d
       0.5142207 0.11270959 -0.033256482 0.07416257
000050 14 dc d7 be ad 72 72 be f5 fd 9d be 8e cc f8 bd
       -0.42160094 -0.23676558 -0.30857816 -0.12148391
000060 df 1c 5c 3d 14 90 5a bd 2e 67 e3 3d fe 0b 87 be
       0.05373847 -0.05336006 0.11103664 -0.26376337
000070 03 ba 9e 3d 6f 7a 63 3d 23 9e a6 3e 37 39 e1 3c
       0.07750323 0.055536684 0.32542524 0.027493102
000080 35 b2 5f bb ad 5f b2 be d9 ef dc bd 3c 30 11 be
       -0.003413332 -0.3483862 -0.10787935 -0.14178556
000090 1d ef 03 bf 07 3f 97 be ed 75 56 be 62 8c f5 3b
       -0.5153673 -0.29540274 -0.20943423 0.0074935416
0000a0 38 ec 55 3e eb 81 95 bd 46 ad eb 3d b4 70 1f 3e
       0.20890892 -0.073001705 0.11507659 0.15570337
0000b0 d1 06 0b bb 8a ed b4 be 01 cd f2 3d 1b 80 f4 bb
       -0.002121378 -0.35337478 0.11855508 -0.0074615604
0000c0 96 58 fb bd f4 96 c3 bd 0c df e6 bd 5b 4d cc 3d
       -0.12272756 -0.095502764 -0.112730116 0.09975692
0000d0 f0 67 34 bd 3c 7f 03 bd 95 04 e7 3e e1 36 8e 3d
       -0.044044435 -0.032103762 0.45120683 0.06944061
0000e0 25 22 aa 3d 60 5c b5 be c3 d6 3d be bf b1 8e 3d
       0.08307294 -0.3542204 -0.18538956 0.06967496
0000f0 fb b3 cd 3d b8 6c fd 3d 5b 9f 85 be 7b 76 71 be
       0.10044094 0.12374252 -0.2609814 -0.23580353
000100 54 36 32 be fd 1c 7f 3e 20 de b7 3e 3e 7a a8 bd
       -0.17403537 0.24913402 0.35911655 -0.08226441
000110 fa 7e 82 3e ad e3 e2 bd 7e dc 93 bd 11 13 8d bd
       0.254875 -0.11078582 -0.0721979 -0.06888402
000120 66 c4 28 bd 55 c9 8f 3d 49 74 80 be 79 d8 6f 3d
       -0.041202925 0.07020823 -0.2508872 0.058556054
000130 4a 4a 96 3e 6a 04 97 bc 65 10 a3 3d 8e 41 60 3d
       0.29353553 -0.018434722 0.079621114 0.054750018
000140 eb d7 11 bd 16 23 f5 bd 65 ff ee be 14 76 3e 3e
       -0.035606306 -0.11969583 -0.46679226 0.1859973
000150 9b fd 63 bc b0 2d 9a be bd 03 31 3e 74 45 af be
       -0.013915445 -0.30112982 0.17286582 -0.34232676
000160 e0 a0 98 be d0 19 ba 3c d6 bb 47 be 02 e3 b1 be
       -0.29810238 0.022717386 -0.19505247 -0.34743506
000170 35 2e 9b 3e 08 c3 f9 3d 86 ae a3 3e 38 06 98 be
       0.3030869 0.121954024 0.31969088 -0.29692245
000180 aa 5a 49 3d ee 08 92 3e 94 71 b0 3c 35 ad 18 bd
       0.04915873 0.28522438 0.021538533 -0.037274558
000190 d5 fe 01 bf 26 01 f2 3e 0a 75 85 3e a2 f0 bc be
       -0.5077947 0.472665 0.26065856 -0.36902338
0001a0 9c 87 13 be be 23 fe be 6f 43 ae 3e ff d6 91 3e
       -0.144072 -0.49636644 0.34035823 0.28484342
0001b0 f7 20 c8 be 30 02 ba 3e 84 bf c4 3e 89 11 53 be
       -0.3908765 0.36329794 0.38427365 -0.20612158
0001c0 2b 68 8c 3e 66 39 8f 3e a5 77 d1 3e ab 1d 0b 3f
       0.27423224 0.2797348 0.40911594 0.54342145
0001d0 66 f6 bd be 80 ee db bd d3 66 88 3e 7d ef f5 be
       -0.3710205 -0.1073885 0.2664095 -0.48034278
0001e0 6c ea cc 3e 5e ba 1a be f7 1a 6c 3e 2e 73 79 3d
       0.400226 -0.15110156 0.23057161 0.06090086
0001f0 e2 da f5 3e e2 8f 0d 3f d9 a6 d1 3d 7d d8 bb be
       0.48018557 0.5529767 0.10236902 -0.36688605
000200 ee 26 85 3e 73 f9 62 be be 69 d6 be 1f 3e a1 3e
       0.26006263 -0.2216547 -0.4187755 0.31492707
000210 e7 39 03 bf 80 79 a8 3d 5b 5c f8 3e 02 ff 8d be
       -0.51260227 0.08226299 0.48507962 -0.27733618
000220 3b 38 a3 3e d8 7e 99 3e 3a a5 a0 bc 10 e6 b7 3d
       0.31878838 0.29979587 -0.019610036 0.08979428
000230 05 bb a2 be 2d 1d 84 3e 0e e3 1d be 20 c2 01 bc
       -0.3178331 0.2580351 -0.15418646 -0.007919818
000240 ab 92 da 3e 92 5a 54 3d 8e 75 9f 3e f3 66 6b be
       0.42690024 0.051844187 0.31144375 -0.22988491
000250 df b1 c1 bc 5b 94 f7 be 2a 3c 43 be 31 fe 69 3d
       -0.023644386 -0.48355374 -0.1906592 0.05712718
000260 e0 3c d5 be 7c ef 68 be 61 d0 5e bd 47 d1 9b 3e
       -0.41648006 -0.22747606 -0.054397944 0.30433103
000270 a8 cd 97 bd 86 79 e5 3d f3 fd c7 3e 8f 31 2e bc
       -0.07412273 0.112048194 0.39060935 -0.010631933
000280 43 bb ce 3e b2 29 c4 3e 02 5e a5 bd cb cb 08 3d
       0.40377244 0.3831306 -0.08074571 0.033397477
000290 e4 e6 9a be c7 38 cd 3e 6f 1b 1c be 23 6a 8a be
       -0.3025428 0.4008238 -0.1524484 -0.270341
0002a0 39 62 86 3d 48 d7 06 3f 34 c1 de be 7d db ad be
       0.06561703 0.52672243 -0.43506777 -0.3395652
0002b0 c5 0e 49 3f 90 f0 ea 3d cb 32 11 be 8d ae 90 3e
       0.7853816 0.11471665 -0.14179532 0.28258172
0002c0 f9 7c a9 3d 1c 29 d5 3e 77 42 58 be 1a db e1 be
       0.0827579 0.41632926 -0.21119104 -0.44112474
0002d0 92 56 ad be c9 5f 1e bf f3 c1 85 3e 87 8f 68 3e
       -0.3385511 -0.61864907 0.26124534 0.22711001
0002e0 94 12 8a be b4 d7 e3 3c f5 a4 7d 3e 72 80 98 3e
       -0.269673 0.027812816 0.24769957 0.29785496
0002f0 33 d4 e6 bc b8 c6 69 3e e1 a3 5f be 5b cc 30 3e
       -0.028177356 0.22829711 -0.21839859 0.17265455
000300 78 87 9d be e9 26 c3 3e f7 fe e5 3d 03 36 aa 3e
       -0.30767417 0.38115624 0.11230271 0.33244333
000310 eb a0 aa 3e cd 39 b9 3c b1 08 e6 3d 40 51 a1 3e
       0.33325896 0.02261057 0.112321265 0.315073
000320 83 18 48 be 34 e3 98 3e f8 13 9c 3d 96 fd 4c be
       -0.195406 0.29860842 0.07620996 -0.2001861
000330 f5 57 b5 bd 0e 2b a6 be f6 e8 c4 3d 0d 94 5a 3e
       -0.08854667 -0.32454723 0.09614746 0.2134554
000340 8b ce 53 be 5f e9 ab 3e a5 ae b7 3e 80 cf fd ba
       -0.20684259 0.33576486 0.3587543 -0.0019364208
000350 f6 1f 8c 3d a0 91 4b 3e 4d 94 a2 3e e3 3d 02 3f
       0.068420336 0.1987977 0.3175377 0.5087568
000360 46 4b 8d be 7c 90 42 be d4 1e 6b 3c f6 c1 41 be
       -0.27596492 -0.19000429 0.014350612 -0.18921646
000370 2d fe 91 3e 88 60 06 be 92 32 0c 3e 09 32 22 bc
       0.28514233 -0.13122761 0.13691166 -0.009899625
000380 3d c7 91 3e 10 1e 15 3e 81 a1 a2 3d 05 a5 3b be
       0.2847232 0.14562249 0.07940961 -0.18324669
000390 ce ac 5b 3e 5f 4c 84 bd 66 dc 42 be 3b ec 95 3e
       0.21452639 -0.06459879 -0.19029388 0.29281792
0003a0 68 01 b4 be 12 f0 72 3d ca 6e 5e 3e b0 64 2e be
       -0.35157323 0.05931098 0.2172195 -0.17030597
0003b0 0d dc 8e 3e e4 33 0d 3e 2c 26 ae 3d c1 e1 82 3d
       0.2790226 0.13789326 0.085033745 0.063907154
0003c0 04 db c9 bc 22 2c c9 3d 78 cc 6e bd cd 63 ab bd
       -0.024640568 0.09822871 -0.058300465 -0.08368645
0003d0 8c 9b f2 3e 51 82 a5 3d 56 b2 80 3e 7d 7e 29 3d
       0.47384298 0.080814965 0.2513606 0.041380394
0003e0 64 8c 71 bd d7 91 57 be 41 96 cd bd fb 31 10 bd
       -0.058971778 -0.21051727 -0.10038424 -0.035203915
0003f0 d9 44 a3 be 65 57 26 bd 78 9c 1a 3c 0a 06 ca 3d
       -0.31888464 -0.04061069 0.009436719 0.09864433

fc2.bias f4 [100]
000000 cb 63 4f bd 6c 0e 10 3f 21 05 a1 3e fb c5 2a bf
       -0.05063228 0.56272006 0.31449226 -0.66708344
000010 02 ca 95 3e 11 c1 12 3d 02 0e 1c bf 5f b0 25 3f
       0.29255682 0.035828654 -0.60958874 0.64722246
000020 ba ca 0a be 47 0b 89 3e 91 f6 25 3f a0 dc 00 3f
       -0.13553897 0.26766416 0.64829355 0.5033665
000030 7a 86 db 3d db a2 2c 3f c6 55 35 3f 97 7b 97 3d
       0.10719009 0.67436 0.70834005 0.0739662
000040 c2 b9 f3 3d 46 b2 22 3e 16 68 2a bf c2 28 85 3e
       0.11900665 0.15888318 -0.6656507 0.26007658
000050 f9 2b 31 be 26 29 14 bf 73 0f 39 be c5 94 15 bf
       -0.1730193 -0.5787529 -0.180723 -0.5843013
000060 2f 06 0b 3f 31 d9 f6 3e 0b 22 19 bf 64 cb 1e bf
       0.5430631 0.4821258 -0.5981757 -0.620291
000070 b8 3b 33 3f ab 50 08 be 46 8b 12 3f 43 7a 2b 3f
       0.70013 -0.13312022 0.57243764 0.6698343
000080 a5 ae 2b 3f b2 32 2a bf cc 58 cd be 90 a6 95 3e
       0.6706336 -0.66483605 -0.4010681 0.2922864
000090 e4 b6 0a 3f d6 3c 1e 3f 7c 29 dd 3e b9 de 27 3f
       0.5418532 0.6181158 0.43195713 0.6557422
0000a0 08 80 f8 be d9 92 19 be 89 08 16 3f 30 25 44 be
       -0.4853518 -0.14997424 0.58606774 -0.19154811
0000b0 74 d3 be 3e 10 41 18 bf 42 0f 14 3f d9 86 89 3e
       0.372707 -0.5947428 0.5783578 0.26860693
0000c0 70 44 08 3f d5 eb 21 bf 18 73 30 bf 7e fb 2b bf
       0.5322943 -0.63250476 -0.6892562 -0.6718062
0000d0 8c ab 18 bf 55 37 a5 be 68 b6 12 3f 04 88 0d 3e
       -0.5963676 -0.32268777 0.5730958 0.13821417
0000e0 e8 99 28 bf 45 a9 85 be 45 eb 15 bf e7 a4 f6 be
       -0.6585984 -0.26105705 -0.5856212 -0.48172686
0000f0 a1 57 91 3e 12 50 36 3f 5f ee 58 be a2 cc 2e 3f
       0.28387168 0.7121593 -0.21184681 0.68280995
000100 20 64 ff be 89 6f fc be 73 1a fc 3e e4 dc 7a 3e
       -0.49881077 -0.49303845 0.4923893 0.24498326
000110 56 1d 4f 3e a2 3c 2c 3e d9 0d 32 be aa f1 b2 3b
       0.20226035 0.16820005 -0.17388095 0.0054609375
000120 04 9b 20 3f 5f 17 80 bc 70 59 20 bf 44 f7 09 bf
       0.62736535 -0.015636144 -0.6263647 -0.5389292
000130 24 ad 7a 3d 3d 8d 29 bf be 29 14 3f ec d2 2d 3f
       0.061200276 -0.6623114 0.57876194 0.67899966
000140 da 3d 5d 3d cf 58 24 bd 05 dd 76 be e2 60 2d be
       0.054014064 -0.040123757 -0.2410775 -0.16931489
000150 82 64 a1 be c9 54 21 3f 01 20 5d 3e 99 17 c0 be
       -0.31521994 0.63019997 0.2159424 -0.37518004
000160 5f 08 f8 3e 01 5e c0 be 86 c2 0b 3f c2 c8 0a bf
       0.48443887 -0.3757172 0.54593694 -0.5421258
000170 a0 2f 21 3f 48 2f 20 bf 7f bc 20 bf 3b af 28 bf
       0.62963295 -0.62572145 -0.6278762 -0.6589238
000180 a2 41 11 3f 6a 75 2e bf 58 9b 0a 3e ce a0 18 bf
       0.5674077 -0.6814791 0.13535821 -0.5962037

fc3.weight f4 [2, 100]
000000 0c d6 3a 3f 35 21 0a 3f d6 de da 3f 91 b0 12 bf
       0.7298286 0.5395692 1.7099254 -0.5730067
000010 75 fc 14 bf 82 a2 ce be 35 79 14 bf b8 2e 01 3f
       -0.5819772 -0.4035836 -0.5799745 0.5046191
000020 e1 22 ce 3e cc b9 51 bf 4e 7f 00 3f d6 4a 05 3f
       0.40260985 -0.8192413 0.5019425 0.52067316
000030 d8 83 4c 3f 6b c3 03 3f ab f0 05 3f 2b a9 29 3f
       0.7988868 0.5147006 0.52320355 0.66273755
000040 96 12 fd be 0e c2 eb be 07 5f 09 bf 00 7a 89 3f
       -0.49428242 -0.4604649 -0.53660625 1.0740356
000050 43 0d 11 bf 08 82 fe be 39 72 80 bf 05 86 12 bf
       -0.5666086 -0.4970858 -1.0034858 -0.5723575
000060 b5 19 0c 3f ab 5b 0f 3f 8f 94 01 bf 6d 85 0c bf
       0.54726726 0.5599925 -0.5061731 -0.5489109
000070 25 64 08 3f 50 cf 46 bf 5f 09 01 3f ad 34 01 3f
       0.5327781 -0.77660084 0.50404924 0.50471
000080 73 12 02 3f 93 73 06 bf 15 64 06 bf 86 29 27 bf
       0.508094 -0.525201 -0.52496463 -0.65297735
000090 f3 0d 17 3f cd 21 09 3f c8 0f 81 3f 83 e6 06 3f
       0.5900566 0.535672 1.0082941 0.5269548
0000a0 55 bc 11 bf bc cc e2 3e 27 48 02 3f a4 e4 86 bf
       -0.56927997 0.44296825 0.50891346 -1.0538526
0000b0 d0 50 3c bf d7 88 0e bf aa d1 f6 3e ae 9a 7a 3f
       -0.7356081 -0.5567755 0.48206836 0.9789227
0000c0 6b 4d 1f 3f fb b4 12 bf cb e4 07 bf 08 c5 ff be
       0.62227505 -0.57307404 -0.53083485 -0.4995501
0000d0 3f 28 06 bf c1 83 3e 3f 92 86 08 3f 45 69 d2 be
       -0.5240516 0.7441979 0.5333034 -0.4109594
0000e0 9f cb 0e bf f2 e9 69 bf 5a 33 fe be 67 b5 28 bf
       -0.5577945 -0.913726 -0.49648553 -0.659018
0000f0 f1 65 f5 3e d9 d0 08 3f 04 8f 90 bf d7 a9 09 3f
       0.47929338 0.53443676 -1.1293645 0.5377478
000100 2f 49 17 bf ad ab 24 bf 62 7c 17 3f 27 1c 3d 3f
       -0.59096044 -0.64324456 0.5917417 0.7387108
000110 ff b0 75 3f a2 69 fc be 07 e2 20 3f 8c fa 31 bf
       0.959732 -0.4929934 0.6284489 -0.6952293
000120 6d 13 11 3f 03 f5 71 bf 8f 10 13 bf cb 39 07 bf
       0.56670266 -0.94514483 -0.5744714 -0.5282256
000130 16 f7 8a 3f e1 06 03 bf 05 49 1c 3f 01 d2 03 3f
       1.0856655 -0.5118237 0.6104892 0.51492316
000140 0e d3 5a 3f 67 ae c4 3e e7 a3 80 bf aa 8e 0b 3f
       0.85478294 0.38414308 -1.0050019 0.54514563
000150 95 6c 06 3f 1e b4 ff 3e f3 cd ba 3f ba f2 91 bf
       0.52509433 0.49942106 1.4594101 -1.1402199
000160 4f 86 11 3f 2b 0e 20 bf 8b 2d 08 3f 42 47 17 bf
       0.56845564 -0.6252162 0.53194493 -0.59093106
000170 cc d7 09 3f a9 f8 12 bf 43 70 04 bf 76 00 0a bf
       0.53844905 -0.57410675 -0.517338 -0.53906953
000180 f9 93 09 3f bb 5d 04 bf 2f 23 72 3f 2e 67 04 bf
       0.53741413 -0.5170552 0.94584936 -0.5171994
000190 db 13 70 bf da eb 5a bf 03 05 0f c0 c7 12 62 3f
       -0.937803 -0.8551613 -2.234681 0.883099
0001a0 86 ad 42 3f 96 b0 5c 3f 81 24 59 3f f8 1d 50 bf
       0.76046026 0.8620695 0.84821326 -0.8129573
0001b0 72 4d 6c bf fc 0c 64 3f ff 03 4b bf 0b f3 58 bf
       -0.9230567 0.8908231 -0.7930297 -0.84745854
0001c0 d1 81 4a bf 6a 99 5a bf 52 55 58 bf 9b 6c 60 bf
       -0.79104334 -0.8539034 -0.8450519 -0.8766572
0001d0 ab 9e f0 3e a9 7b 21 3f 9d 8b 5c 3f 1f a6 63 be
       0.46996054 0.63079315 0.8615053 -0.22231339
0001e0 87 4f 67 3f 3d a3 40 3f eb c2 6d 3f b6 d1 58 3f
       0.90355724 0.7524908 0.92875546 0.84694993
0001f0 c2 d1 61 bf 8d 62 35 bf e7 88 54 3f 6a ac 5b 3f
       -0.8821069 -0.708535 0.83021396 0.8580996
000200 74 e9 5a bf 90 e7 55 3f 2d 21 42 bf 1f 06 57 bf
       -0.8551247 0.8355646 -0.7583187 -0.83993715
000210 08 b5 66 bf d8 b2 5a 3f b2 b6 44 3f 35 18 62 3c
       -0.9011998 0.85429144 0.7684127 0.013799717
000220 4c f7 58 bf 30 14 5d bf 05 4f 96 bf 63 48 38 bf
       -0.84752345 -0.8635893 -1.1742865 -0.71985453
000230 ca 3c 5c 3f 0a d5 5d bf 84 ff 56 bf 6b f6 74 3f
       0.86030257 -0.86653197 -0.83983636 0.95688504
000240 bf c6 50 3f 3b 79 5a 3f a4 7b 4a bf d8 0c 6c bf
       0.8155326 0.85341233 -0.7909491 -0.922071
000250 b4 6d 3b bf 15 9f 5d 3f f2 71 59 3f d2 b9 4d 3f
       -0.7321427 0.86570865 0.8493949 0.80361664
000260 3b 50 5b 3f 86 5a 54 bf 44 b1 39 bf 83 7f 6a 3f
       0.85669297 -0.8295063 -0.7253611 0.9160082
000270 aa 08 58 3f 01 2d 68 3f de 11 40 3f 2f 8a 47 3f
       0.8438822 0.9069367 0.75027263 0.77945226
000280 fa ef 50 bf 23 64 5b bf 6e 46 79 3e bc a5 5a bf
       -0.81616175 -0.8569967 0.24343273 -0.8540914
000290 0c 22 3a 3f 96 64 5e 3f d6 d7 57 bf a9 9f 68 bf
       0.727082 0.8687223 -0.84313715 -0.9086862
0002a0 97 d7 60 bf 61 b8 00 3f dd c2 94 bf 25 e7 45 3f
       -0.87828964 0.5028134 -1.1621968 0.77305824
0002b0 42 c9 58 bf 33 84 cb bc 79 f5 55 3f 6d f2 5a 3f
       -0.84682095 -0.024843311 0.83577687 0.8552616
0002c0 83 6c 6d be 9c ab 54 3f 4f 11 63 bf ae 58 57 bf
       -0.23185925 0.83074355 -0.88698286 -0.8411969
0002d0 88 8f 80 bf e7 7e 7c bf 5d 25 8b 3f a0 c9 37 bf
       -1.0043802 -0.9863114 1.0870777 -0.7179203
0002e0 40 f4 41 bf b4 8e 51 bf 58 1f a1 bf ea a7 9e 3f
       -0.7576332 -0.8185837 -1.258769 1.2394993
0002f0 84 85 5b bf 27 cd 58 3f c4 12 5c bf ba 03 3b 3f
       -0.85750604 0.8468804 -0.85966134 0.7305256
000300 8f 21 35 bf db b3 5a 3f 80 b8 5a 3f 1c e9 5b 3f
       -0.7075433 0.8543069 0.85437775 0.8590257
000310 c3 49 5c bf 23 12 57 3f 1b dd 54 bf c4 a5 58 3f
       -0.8605005 0.8401205 -0.8314988 0.8462794

fc3.bias f4 [2]
000000 46 b3 1f 3f 10 03 31 bf
       0.62382925 -0.691453

fc1.weight f4 [100, 22]
000000 c7 5d b8 a1 f6 62 40 23 41 79 4b 22 15 f6 91 21
       -1.2493148e-18 1.0429297e-17 2.7575821e-18 9.89072e-19
000010 4c 58 bb 22 79 52 43 a2 55 3c 51 a2 74 69 1b a2
       5.077994e-18 -2.6471089e-18 -2.8356721e-18 -2.1062244e-18
000020 a9 a7 34 a2 bb 9c 00 80 09 6d 02 00 1f 1b 08 00
       -2.4483307e-18 -5.6224e-41 2.22785e-40 7.44413e-40
000030 f1 47 04 00 5f 36 0c 80 34 0d 09 00 7a ba 12 80
       3.9315e-40 -1.12153e-39 8.31256e-40 -1.719934e-39
000040 2b 2d 08 00 0c 35 05 80 5d b2 09 80 ec d6 16 80
       7.50887e-40 -4.78207e-40 -8.90504e-40 -2.09748e-39
000050 8d 1b 0a 80 1c fb 27 82 b4 01 8c a5 cb df 2b a5
       -9.28238e-40 -1.2341287e-37 -2.4287283e-16 -1.490771e-16
000060 d6 43 a0 a4 61 99 9a a4 b0 1d 08 a5 c8 a6 fb 24
       -6.950386e-17 -6.704669e-17 -1.1806178e-16 1.09136437e-16
000070 67 d8 35 25 b7 e0 1b 24 ae 2c b9 24 58 8e 01 00
       1.5772567e-16 3.3800608e-17 8.030665e-17 1.42899e-40
000080 2e 89 0e 80 9e 8a 11 00 f2 42 12 00 e2 43 02 00
       -1.334908e-39 1.61093e-39 1.677054e-39 2.08023e-40
000090 75 72 0a 80 86 a3 0d 00 54 ed 0b 80 14 42 10 80
       -9.59414e-40 1.252523e-39 -1.095328e-39 -1.493072e-39
0000a0 11 48 0b 80 dc 98 10 80 a4 30 13 80 0f 55 0c 80
       -1.036043e-39 -1.524204e-39 -1.762323e-39 -1.132539e-39
0000b0 07 f8 9d a2 ea 37 46 a2 b4 ff c9 a1 70 f4 09 a1
       -4.2817544e-18 -2.6863604e-18 -1.3687974e-18 -4.6740916e-19
0000c0 95 d3 2a 22 c0 ba f9 21 6a ff 49 22 55 79 0c 21
       2.3151307e-18 1.6922329e-18 2.7375795e-18 4.7594427e-19
0000d0 bd f9 cf 21 8e 48 13 00 ac 53 00 80 b0 8b 11 00
       1.4092971e-18 1.770902e-39 -3.0016e-41 1.611314e-39
0000e0 da 70 0a 80 81 a0 07 80 a0 24 01 80 89 b5 06 80
       -9.58838e-40 -7.00426e-40 -1.04974e-40 -6.16136e-40
0000f0 ee 23 01 80 98 45 0e 00 7e b8 00 80 bd 0d 0c 00
       -1.04725e-40 1.310662e-39 -6.6183e-41 1.106954e-39
000100 2c 11 14 00 2b 38 08 00 ae 36 d9 bd 5e ff 54 3b
       1.84287e-39 7.54833e-40 -0.106061324 0.0032500844
000110 8b c0 30 3b 5b 30 ad 3b c9 4a 92 3b b7 7f 36 3d
       0.0026970233 0.0052853054 0.0044644815 0.044555392
000120 47 11 62 3d 4d ab d0 3c f1 64 13 3d 41 86 05 80
       0.05519226 0.025472308 0.035984937 -5.07339e-40
000130 f2 c1 09 00 3d 41 0e 00 c9 1a 15 80 c8 55 05 00
       8.96094e-40 1.3091e-39 -1.938154e-39 4.8995e-40
000140 79 4d 0c 80 89 ec 07 00 1f d1 0e 00 9b b5 04 00
       -1.129818e-39 7.27701e-40 1.360715e-39 4.3249e-40
000150 3c 34 15 00 4e 87 08 00 54 88 02 80 97 73 07 80
       1.947284e-39 7.83222e-40 -2.32576e-40 -6.84314e-40
000160 33 23 aa 30 63 2b 12 b1 d2 8d 69 b0 c5 38 ab 30
       1.2379132e-09 -2.1270459e-09 -8.4966445e-10 1.2458022e-09
000170 cc 90 9a 2f 5c d0 80 b0 ac 68 6b b0 b0 2c a8 b0
       2.811532e-10 -9.372445e-10 -8.564125e-10 -1.223631e-09
000180 fb 20 8e b0 63 3b 05 80 f8 7f 0f 00 2d 3a 05 80
       -1.0341233e-09 -4.80481e-40 1.423439e-39 -4.80047e-40
000190 d0 5e 17 00 32 11 01 00 d6 cc 03 00 8b 25 18 80
       2.146229e-39 9.8004e-41 3.48988e-40 -2.21752e-39
0001a0 65 37 16 00 f7 54 05 80 6b 3d 09 80 53 39 16 00
       2.040253e-39 -4.89657e-40 -8.48552e-40 2.040945e-39
0001b0 05 03 0f 00 b2 3c 10 80 49 65 ed b7 58 22 3b 38
       1.378616e-39 -1.491141e-39 -2.8299766e-05 4.461626e-05
0001c0 6d 60 c2 37 8b 7b 32 b8 8f a2 1f b7 4e 92 05 38
       2.3171504e-05 -4.2553565e-05 -9.514987e-06 3.1845928e-05
0001d0 38 73 f7 37 62 6e 2c 38 75 e4 11 38 06 3f 0a 80
       2.9498347e-05 4.1110798e-05 3.478346e-05 -9.40964e-40
0001e0 79 b7 09 80 ca e2 05 80 18 e6 15 00 7b 69 01 00
       -8.92337e-40 -5.40534e-40 2.011088e-39 1.29675e-40
0001f0 b3 77 12 80 c2 8a 09 00 ec 72 13 00 47 26 19 80
       -1.695979e-39 8.76296e-40 1.7861e-39 -2.309619e-39
000200 46 82 02 00 c2 62 16 80 e2 92 13 00 2e 94 14 80
       2.30404e-40 -2.055809e-39 1.797566e-39 -1.889867e-39
000210 b6 0e c3 2d ce 56 a6 ae 0b 3b 36 ae 04 68 b1 2d
       2.2175466e-11 -7.5642256e-11 -4.143445e-11 2.0168762e-11
000220 53 80 f7 2d fc 75 89 2d da fd 69 2d 9c 10 87 2d
       2.8137636e-11 1.5627492e-11 1.3300883e-11 1.53551e-11
000230 ad 4a 92 2d 2d e8 13 80 14 6d 09 00 82 0d 05 00
       1.6631441e-11 -1.828163e-39 8.6565e-40 4.64023e-40
000240 5c ae 10 00 4a b1 00 80 b1 06 03 00 a8 d0 03 80
       1.531916e-39 -6.36e-41 2.77907e-40 -3.50358e-40
000250 6b 3b 04 80 bb 68 0a 00 36 25 0b 80 50 6d 08 00
       -3.88657e-40 9.55925e-40 -1.023539e-39 7.73898e-40
000260 57 91 08 80 d4 3a e9 02 f4 11 34 26 4e 31 43 a7
       -7.86822e-40 3.4270039e-37 6.2474376e-16 -2.7088414e-15
000270 29 f5 49 a6 f4 85 34 24 c1 d3 d9 a6 1e 1b c6 25
       -7.006814e-16 3.914474e-17 -1.5114796e-15 3.43659e-16
000280 9f cb cb 25 3b aa 6a 25 7c 72 ae 25 08 de 14 00
       3.5352866e-16 2.0353941e-16 3.0261766e-16 1.91636e-39
000290 33 44 10 00 47 37 11 00 7f c7 0e 80 8c 8e 12 00
       1.493833e-39 1.581033e-39 -1.357263e-39 1.704175e-39
0002a0 d6 de 08 80 40 0e 06 00 c9 bb 00 80 fa 29 06 00
       -8.14622e-40 5.56125e-40 -6.7365e-41 5.66071e-40
0002b0 e5 51 12 00 08 22 01 00 20 d6 07 80 b1 77 0b 00
       1.682417e-39 1.04044e-40 -7.19662e-40 1.053128e-39
0002c0 fb f0 52 36 81 a2 80 35 c1 d2 82 b5 de e6 b0 35
       3.1432708e-06 9.584038e-07 -9.747092e-07 1.3180213e-06
0002d0 15 c0 ab 35 93 68 92 b5 77 2b c9 b5 c6 84 3e b5
       1.2796396e-06 -1.0908283e-06 -1.4988317e-06 -7.0973726e-07
0002e0 74 ee a7 b5 c6 f4 01 00 82 67 0b 80 19 43 0e 80
       -1.2511869e-06 1.79644e-40 -1.047322e-39 -1.309767e-39
0002f0 fa a4 0e 80 fd bf 13 80 81 51 15 00 7d a7 0b 80
       -1.34488e-39 -1.813747e-39 1.957784e-39 -1.070274e-39
000300 34 12 0f 00 43 ba 0f 80 8a e0 14 80 1a ab 14 80
       1.384062e-39 -1.44435e-39 -1.91726e-39 -1.89809e-39
000310 32 1a 0b 80 ff 50 0d 80 df 36 d9 bd 45 ff 54 3b
       -1.019588e-39 -1.222917e-39 -0.10606169 0.0032500785
000320 82 c0 30 3b 4e 30 ad 3b bd 4a 92 3b db 7f 36 3d
       0.0026970212 0.0052852994 0.004464476 0.044555526
000330 78 11 62 3d 71 ab d0 3c 0f 65 13 3d 24 eb 00 80
       0.05519244 0.025472375 0.03598505 -8.4353e-41
000340 06 b0 15 80 ae 2c 05 80 a2 14 0e 80 5a b0 15 80
       -1.991691e-39 -4.75206e-40 -1.293099e-39 -1.991808e-39
000350 e3 f2 06 00 9f 07 05 00 ea f9 0e 00 1e 67 07 80
       6.38144e-40 4.61911e-40 1.375349e-39 -6.7984e-40
000360 74 2e 01 80 0c f4 09 00 9f 8e 0b 00 54 dd 0a 80
       -1.085e-40 9.14067e-40 1.061353e-39 -9.97753e-40
000370 f0 36 d9 3d 30 ff 54 bb 6c c0 30 bb 48 30 ad bb
       0.106061816 -0.0032500736 -0.002697016 -0.0052852966
000380 bb 4a 92 bb e8 7f 36 bd 89 11 62 bd 83 ab d0 bc
       -0.004464475 -0.044555575 -0.055192504 -0.025472408
000390 1b 65 13 bd d1 b1 06 00 17 4c 09 00 e1 33 05 80
       -0.035985094 6.14801e-40 8.53815e-40 -4.77788e-40
0003a0 a1 2b 02 80 c3 b0 05 00 27 45 16 00 4b 27 05 80
       -1.99322e-40 5.22588e-40 2.045188e-39 -4.73273e-40
0003b0 dc a2 0a 00 46 44 11 00 5b b4 17 80 a7 91 15 00
       9.76778e-40 1.585695e-39 -2.176916e-39 1.980796e-39
0003c0 98 5f 00 80 98 8c 03 00 eb 36 d9 3d 3c ff 54 bb
       -3.4293e-41 3.25942e-40 0.10606178 -0.0032500764
0003d0 6f c0 30 bb 4a 30 ad bb b1 4a 92 bb e4 7f 36 bd
       -0.0026970168 -0.0052852975 -0.0044644703 -0.04455556
0003e0 84 11 62 bd 7c ab d0 bc 19 65 13 bd e0 51 02 80
       -0.055192485 -0.025472395 -0.035985086 -2.13042e-40
0003f0 37 ee 0c 80 18 53 01 00 03 a4 0a 00 2c d1 06 00
       -1.187481e-39 1.21644e-40 9.77191e-40 6.2605e-40

fc1.bias f4 [100]
000000 d9 0b 0f 22 6d 28 ae 25 3c 3d d7 22 17 18 0c be
       1.9386386e-18 3.0211582e-16 5.83407e-18 -0.13681065
000010 be c9 32 30 5e 41 c6 b7 4e 65 3d ae 0d 81 20 a6
       6.5042716e-10 -2.3633878e-05 -4.30636e-11 -5.568605e-16
000020 1d 57 42 b6 36 18 0c be 44 18 0c 3e 40 18 0c 3e
       -2.895896e-06 -0.1368111 0.13681132 0.13681126
000030 73 e5 4b 27 40 18 0c 3e 44 18 0c be 43 18 0c 3e
       2.8296294e-15 0.13681126 -0.13681132 0.1368113
000040 45 18 0c be 45 18 0c be c8 d7 ed 24 44 18 0c be
       -0.13681133 -0.13681133 1.03147914e-16 -0.13681132
000050 4e 3e bc 2b e3 7d bf a1 a3 4d 61 a4 00 d9 c3 ad
       1.3375496e-12 -1.2975985e-18 -4.885486e-17 -2.22653e-11
000060 40 cd e4 29 ee 80 54 b6 32 18 0c be 3e 18 0c be
       1.0160839e-13 -3.1665509e-06 -0.13681105 -0.13681123
000070 66 31 ba 22 47 18 0c 3e 67 b0 81 36 64 fa 20 ae
       5.0467704e-18 0.13681136 3.8650355e-06 -3.660218e-11
000080 30 e0 17 2c 40 18 0c 3e 67 e8 45 b2 cb 9a 0f b0
       2.158284e-12 0.13681126 -1.1519751e-08 -5.224307e-10
000090 4a 51 28 2b 57 9a 38 a5 f1 3f 43 aa 21 18 0c be
       5.97984e-13 -1.6011748e-16 -1.7341663e-13 -0.1368108
0000a0 ac 74 3c b5 39 db 17 36 32 33 4f 24 59 e8 02 25
       -7.020524e-07 2.2628358e-06 4.4929334e-17 1.1354425e-16
0000b0 f8 04 22 26 ea 90 2a b8 38 18 0c 3e 3f 18 0c be
       5.6211775e-16 -4.066612e-05 0.13681114 -0.13681124
0000c0 9c 39 b6 32 44 18 0c be 35 18 0c be 3b 18 0c be
       2.1213786e-08 -0.13681132 -0.13681109 -0.13681118
0000d0 41 18 0c 3e 01 dd 1b 2c 28 18 0c be 3e 18 0c be
       0.13681127 2.2149507e-12 -0.1368109 -0.13681123
0000e0 70 90 74 2f 32 18 0c 3e 40 18 0c 3e a0 9b 20 ac
       2.2242985e-10 0.13681105 0.13681126 -2.2823757e-12
0000f0 45 18 0c 3e 14 bf 1d a3 38 18 0c 3e 3c 8c 85 ad
       0.13681133 -8.5514494e-18 0.13681114 -1.5182626e-11
000100 41 18 0c 3e 29 3d 28 b6 bb ca 96 20 41 18 0c be
       0.13681127 -2.506955e-06 2.5545144e-19 -0.13681127
000110 35 18 0c 3e 24 18 0c 3e 90 99 18 35 41 18 0c 3e
       0.13681109 0.13681084 5.6847875e-07 0.13681127
000120 2f 18 0c 3e 45 18 0c be 37 18 0c be 3e 18 0c 3e
       0.136811 -0.13681133 -0.13681112 0.13681123
000130 3e 18 0c 3e 45 18 0c be b8 53 0a 26 31 18 0c 3e
       0.13681123 -0.13681133 4.799183e-16 0.13681103
000140 80 81 49 27 e5 e6 c4 b2 10 3f 23 2f 31 18 0c 3e
       2.7964556e-15 -2.2922402e-08 1.4847168e-10 0.13681103
000150 36 18 0c be 3f 18 0c 3e df cd 5e 32 26 18 0c 3e
       -0.1368111 0.13681124 1.296891e-08 0.13681087
000160 40 18 0c 3e d8 07 b3 36 b1 d0 1c b5 d8 c6 e9 b1
       0.13681126 5.335529e-06 -5.8418215e-07 -6.8037984e-09
000170 10 c3 09 37 44 18 0c 3e 3a 18 0c be 36 18 0c 3e
       8.211253e-06 0.13681132 -0.13681117 0.1368111
000180 02 0f 5b 33 4e 24 c2 a4 b5 ad a0 a7 43 18 0c be
       5.100356e-08 -8.419559e-17 -4.4597255e-15 -0.1368113

fc2.weight f4 [100, 100]
000000 40 4d 14 9e 4c 32 40 23 77 3c 4a a1 32 9d a8 bc
       -7.85103e-21 1.0418992e-17 -6.8520287e-19 -0.020582769
000010 c1 c4 b7 30 eb e0 24 37 74 fa 00 2c a4 86 b0 23
       1.3370923e-09 9.8275295e-06 1.8328923e-12 1.913898e-17
000020 54 76 01 35 57 9d a8 bc 65 9d a8 3c 5f 9d a8 3c
       4.8228435e-07 -0.020582838 0.020582864 0.020582853
000030 31 fd e5 27 5f 9d a8 3c 63 9d a8 bc 65 9d a8 3c
       6.383478e-15 0.020582853 -0.02058286 0.020582864
000040 65 9d a8 bc 66 9d a8 bc 2a 35 ad 22 65 9d a8 bc
       -0.020582864 -0.020582866 4.6948034e-18 -0.020582864
000050 b8 db a2 2a 7a 63 17 21 2c 3d 76 24 d4 84 63 30
       2.892944e-13 5.1292446e-19 5.339456e-17 8.277088e-10
000060 dc fb 26 27 ca 41 d2 b4 53 9d a8 bc 5e 9d a8 bc
       2.317366e-15 -3.9163416e-07 -0.02058283 -0.020582851
000070 78 64 ae 22 69 9d a8 3c 10 97 ff 32 ca a0 95 a9
       4.726917e-18 0.020582872 2.9754602e-08 -6.644822e-14
000080 5b 39 0b 2a 5e 9d a8 3c fd 8e 02 af b3 b5 f2 ac
       1.2365579e-13 0.020582851 -1.1874231e-10 -6.8982263e-12
000090 c3 e5 ea 29 4f 9a 12 a4 6e ea af a9 3d 9d a8 bc
       1.0431545e-13 -3.1789408e-17 -7.812228e-14 -0.02058279
0000a0 4c b7 a2 35 a2 f8 95 31 69 d0 b0 a4 4b 1f 05 26
       1.2123287e-06 4.364737e-09 -7.6680893e-17 4.6186054e-16
0000b0 04 e1 08 22 cc 6f 5a b6 58 9d a8 3c 5e 9d a8 bc
       1.855056e-18 -3.2549606e-06 0.02058284 -0.020582851
0000c0 5c 09 dd 30 63 9d a8 bc 57 9d a8 bc 5c 9d a8 bc
       1.6082526e-09 -0.02058286 -0.020582838 -0.020582847
0000d0 5f 9d a8 3c 54 7f 25 2b 46 9d a8 bc 5d 9d a8 bc
       0.020582853 5.879648e-13 -0.020582806 -0.02058285
0000e0 1e e5 8f b1 51 9d a8 3c 5d 9d a8 3c 8b 49 36 ab
       -4.1878954e-09 0.020582827 0.02058285 -6.476145e-13
0000f0 65 9d a8 3c 80 3b 71 25 58 9d a8 3c ac 21 45 af
       0.020582864 2.0923577e-16 0.02058284 -1.7929008e-10
000100 5e 9d a8 3c 0a d5 39 b1 4c 0e f2 1f 61 9d a8 bc
       0.020582851 -2.7042142e-09 1.0251464e-19 -0.020582857
000110 56 9d a8 3c 3f 9d a8 3c 22 ba 80 37 60 9d a8 3c
       0.020582836 0.020582793 1.5345464e-05 0.020582855
000120 4d 9d a8 3c 65 9d a8 bc 59 9d a8 bc 5e 9d a8 3c
       0.02058282 -0.020582864 -0.020582842 0.020582851
000130 5e 9d a8 3c 65 9d a8 bc 98 b2 ba 25 51 9d a8 3c
       0.020582851 -0.020582864 3.2386876e-16 0.020582827
000140 36 0a d3 28 a4 c4 00 b2 d8 bb 24 2d 52 9d a8 3c
       2.3430134e-14 -7.4952915e-09 9.36403e-12 0.020582829
000150 58 9d a8 bc 5e 9d a8 3c 06 1a b0 32 42 9d a8 3c
       -0.02058284 0.020582851 2.050093e-08 0.020582799
000160 5f 9d a8 3c 53 e6 81 b8 0a 9e 82 b0 b6 8b e1 ae
       0.020582853 -6.1941006e-05 -9.503662e-10 -1.0256633e-10
000170 22 e0 5c 33 66 9d a8 3c 5b 9d a8 bc 57 9d a8 3c
       5.142659e-08 0.020582866 -0.020582845 0.020582838
000180 ca 94 bc 32 b4 71 08 a2 3b 9b b5 a5 62 9d a8 bc
       2.1953742e-08 -1.849163e-18 -3.1503683e-16 -0.020582858
000190 c0 07 15 1e db 32 40 a3 56 3d 4a 21 c6 9c a8 3c
       7.889597e-21 -1.041911e-17 6.852144e-19 0.020582568
0001a0 46 c5 b7 b0 0b e0 24 b7 ec ff 00 ac f4 9e b0 a3
       -1.3371071e-09 -9.827326e-06 -1.833196e-12 -1.9149278e-17
0001b0 44 76 01 b5 eb 9c a8 3c f8 9c a8 bc f4 9c a8 bc
       -4.8228344e-07 0.020582637 -0.020582661 -0.020582654
0001c0 d2 fd e5 a7 f5 9c a8 bc f9 9c a8 3c f8 9c a8 bc
       -6.383546e-15 -0.020582655 0.020582663 -0.020582661
0001d0 fa 9c a8 3c fa 9c a8 3c 70 35 ad a2 fa 9c a8 3c
       0.020582665 0.020582665 -4.6948323e-18 0.020582665
0001e0 d9 da a2 aa a2 6a 17 a1 32 3b 76 a4 74 85 63 b0
       -2.8928837e-13 -5.1301917e-19 -5.3392887e-17 -8.2771767e-10
0001f0 f1 fb 26 a7 a2 40 d2 34 e5 9c a8 3c f2 9c a8 3c
       -2.3173705e-15 3.9162575e-07 0.020582626 0.02058265
000200 0d 69 ae a2 fd 9c a8 bc a7 96 ff b2 77 a0 95 29
       -4.727402e-18 -0.02058267 -2.9754416e-08 6.6447654e-14
000210 6a 39 0b aa f3 9c a8 bc b6 8e 02 2f 78 b5 f2 2c
       -1.23656e-13 -0.020582652 1.1874132e-10 6.8982008e-12
000220 64 e5 ea a9 18 95 12 24 a9 e9 af 29 d4 9c a8 3c
       -1.04314804e-13 3.178499e-17 7.812095e-14 0.020582594
000230 2b b7 a2 b5 0e f8 95 b1 4a d0 b0 24 96 1f 05 a6
       -1.212325e-06 -4.3646713e-09 7.668069e-17 -4.618645e-16
000240 d0 e4 08 a2 cc 6a 5a 36 ed 9c a8 bc f3 9c a8 3c
       -1.855257e-18 3.2546695e-06 -0.02058264 0.020582652
000250 7c 09 dd b0 f9 9c a8 3c eb 9c a8 3c ef 9c a8 3c
       -1.6082562e-09 0.020582663 0.020582637 0.020582644
000260 f4 9c a8 bc 0b 7e 25 ab db 9c a8 3c f2 9c a8 3c
       -0.020582654 -5.8794695e-13 0.020582607 0.02058265
000270 62 e6 8f 31 e6 9c a8 bc f4 9c a8 bc fb 46 36 2b
       4.1880392e-09 -0.020582628 -0.020582654 6.4757894e-13
000280 f9 9c a8 bc 69 3c 71 a5 ed 9c a8 bc e0 21 45 2f
       -0.020582663 -2.0923886e-16 -0.02058264 1.792908e-10
000290 f4 9c a8 bc 13 d4 39 31 cd 0d f2 9f f5 9c a8 3c
       -0.020582654 2.7041593e-09 -1.0251382e-19 0.020582655
0002a0 eb 9c a8 bc d5 9c a8 bc 26 ba 80 b7 f5 9c a8 bc
       -0.020582637 -0.020582596 -1.5345471e-05 -0.020582655
0002b0 e3 9c a8 bc f9 9c a8 3c ed 9c a8 3c f2 9c a8 bc
       -0.020582622 0.020582663 0.02058264 -0.02058265
0002c0 f3 9c a8 bc f9 9c a8 3c ec b0 ba a5 e5 9c a8 bc
       -0.020582652 0.020582663 -3.2385744e-16 -0.020582626
0002d0 9e 0a d3 a8 a8 c5 00 32 c0 b7 24 ad e5 9c a8 bc
       -2.343031e-14 7.495522e-09 -9.363121e-12 -0.020582626
0002e0 ea 9c a8 3c f1 9c a8 bc 83 1a b0 b2 d9 9c a8 bc
       0.020582635 -0.020582648 -2.0501153e-08 -0.020582603
0002f0 f5 9c a8 bc 9d e6 81 38 79 9d 82 30 4a 8b e1 2e
       -0.020582655 6.1941544e-05 9.503501e-10 1.0256558e-10
000300 fd df 5c b3 f7 9c a8 bc ed 9c a8 3c eb 9c a8 bc
       -5.1426458e-08 -0.02058266 0.02058264 -0.020582637
000310 56 91 bc b2 43 72 08 22 45 9b b5 25 f6 9c a8 3c
       -2.1952172e-08 1.8491927e-18 3.150371e-16 0.020582657
000320 80 b5 14 1e a2 32 40 a3 ec 3c 4a 21 fc 9c a8 3c
       7.872588e-21 -1.0419063e-17 6.852089e-19 0.020582668
000330 18 c5 b7 b0 84 e0 24 b7 58 fd 00 ac 28 92 b0 a3
       -1.337102e-09 -9.827436e-06 -1.8330528e-12 -1.9143858e-17
000340 40 76 01 b5 1d 9d a8 3c 2d 9d a8 bc 29 9d a8 bc
       -4.822832e-07 0.02058273 -0.02058276 -0.020582752
000350 8a fd e5 a7 29 9d a8 bc 2c 9d a8 3c 2c 9d a8 bc
       -6.3835156e-15 -0.020582752 0.020582758 -0.020582758
000360 2e 9d a8 3c 2c 9d a8 3c 53 35 ad a2 2f 9d a8 3c
       0.020582762 0.020582758 -4.6948203e-18 0.020582763
000370 40 db a2 aa b6 67 17 a1 3e 3c 76 a4 2e 85 63 b0
       -2.8929116e-13 -5.129805e-19 -5.3393774e-17 -8.277138e-10
000380 e5 fb 26 a7 2c 41 d2 34 1b 9d a8 3c 28 9d a8 3c
       -2.317368e-15 3.9162967e-07 0.020582726 0.02058275
000390 84 66 ae a2 31 9d a8 bc ea 96 ff b2 09 a1 95 29
       -4.7271337e-18 -0.020582767 -2.9754535e-08 6.6448644e-14
0003a0 71 39 0b aa 29 9d a8 bc cc 8e 02 2f a5 b5 f2 2c
       -1.2365609e-13 -0.020582752 1.1874163e-10 6.8982203e-12
0003b0 94 e5 ea a9 a8 97 12 24 0e ea af 29 06 9d a8 3c
       -1.0431513e-13 3.178716e-17 7.812163e-14 0.020582687
0003c0 41 b7 a2 b5 59 f8 95 b1 5f d0 b0 24 6f 1f 05 a6
       -1.2123274e-06 -4.3647046e-09 7.668083e-17 -4.6186245e-16
0003d0 00 e3 08 a2 0c 6d 5a 36 1f 9d a8 bc 27 9d a8 3c
       -1.855161e-18 3.2548005e-06 -0.020582734 0.020582749
0003e0 76 09 dd b0 2d 9d a8 3c 1d 9d a8 3c 21 9d a8 3c
       -1.6082555e-09 0.02058276 0.02058273 0.020582737
0003f0 2a 9d a8 bc 99 7e 25 ab 0d 9d a8 3c 27 9d a8 3c
       -0.020582754 -5.8795465e-13 0.0205827 0.020582749

fc2.bias f4 [100]
000000 47 53 9f 3d d4 52 9f bd 0e 53 9f bd e3 52 9f 3d
       0.07779556 -0.0777947 -0.07779513 0.07779481
000010 1a 53 9f 3d 25 53 9f bd da 52 9f 3d 00 53 9f 3d
       0.07779522 -0.077795304 0.077794746 0.07779503
000020 2a 53 9f bd 08 53 9f bd f7 52 9f bd fe 52 9f 3d
       -0.07779534 -0.07779509 -0.07779496 0.077795014
000030 01 53 9f 3d e7 52 9f 3d eb 52 9f bd 04 53 9f bd
       0.077795036 0.07779484 -0.07779487 -0.07779506
000040 d9 52 9f bd 30 53 9f bd 05 53 9f 3d e8 52 9f 3d
       -0.07779474 -0.07779539 0.077795066 0.07779485
000050 dc 52 9f bd 6c 08 1d 16 81 52 9f bd 04 53 9f bd
       -0.07779476 1.2685016e-25 -0.07779408 -0.07779506
000060 6a 52 9f 3d 81 71 08 00 02 53 9f 3d 0c 53 9f bd
       0.07779391 7.75401e-40 0.07779504 -0.07779512
000070 03 53 9f 3d eb 52 9f bd 49 53 9f bd df 52 9f 3d
       0.07779505 -0.07779487 -0.07779557 0.07779478
000080 d8 52 9f 3d 02 53 9f bd 09 53 9f bd 02 53 9f bd
       0.07779473 -0.07779504 -0.077795096 -0.07779504
000090 18 53 9f bd f4 52 9f 3d 0c 53 9f 3d b9 52 9f 3d
       -0.07779521 0.07779494 0.07779512 0.0777945
0000a0 fc 52 9f 3d 25 53 9f 3d f4 52 9f bd b2 52 9f bd
       0.077795 0.077795304 -0.07779494 -0.07779445
0000b0 38 53 9f bd 98 52 9f bd d9 52 9f 3d d0 52 9f 3d
       -0.077795446 -0.077794254 0.07779474 0.07779467
0000c0 0c 53 9f 3d 04 53 9f 3d eb 52 9f 3d 19 53 9f bd
       0.07779512 0.07779506 0.07779487 -0.077795215
0000d0 f9 52 9f 3d 16 53 9f 3d 22 53 9f 3d 06 53 9f bd
       0.07779498 0.07779519 0.07779528 -0.07779507
0000e0 ea 52 9f 3d b9 52 9f bd c4 52 9f 3d fa 52 9f 3d
       0.077794865 -0.0777945 0.07779458 0.077794984
0000f0 ac 52 9f bd 2b 53 9f bd f2 52 9f 3d 02 53 9f bd
       -0.0777944 -0.07779535 0.077794924 -0.07779504
000100 15 53 9f 3d f4 52 9f bd db 52 9f bd 1e 53 9f 3d
       0.077795185 -0.07779494 -0.07779475 0.07779525
000110 ff 52 9f bd 43 53 9f bd 0f 53 9f 3d ca 52 9f bd
       -0.07779502 -0.07779553 0.07779514 -0.07779463
000120 d9 52 9f 3d ce 52 9f bd d4 52 9f bd 26 53 9f bd
       0.07779474 -0.077794656 -0.0777947 -0.07779531
000130 d5 52 9f 3d ce 52 9f bd da 52 9f 3d 0a 53 9f 3d
       0.07779471 -0.077794656 0.077794746 0.0777951
000140 a4 d4 8e b2 04 53 9f 3d 27 53 9f 3d 01 53 9f 3d
       -1.6627673e-08 0.07779506 0.07779532 0.077795036
000150 c8 52 9f 3d b5 52 9f 3d 04 53 9f bd f9 af 2f 07
       0.07779461 0.07779447 -0.07779506 1.321725e-34
000160 e4 52 9f 3d 14 53 9f bd 25 53 9f bd 72 52 9f 3d
       0.07779482 -0.07779518 -0.077795304 0.07779397
000170 cd 52 9f 3d f4 52 9f 3d 17 53 9f 3d 01 53 9f 3d
       0.07779465 0.07779494 0.0777952 0.077795036
000180 30 53 9f bd 2b 53 9f 3d ce 52 9f bd d0 51 cd af
       -0.07779539 0.07779535 -0.077794656 -3.7347414e-10

fc3.weight f4 [1, 100]
000000 fa 87 2c 3e 70 87 2c be b3 87 2c be 86 87 2c 3e
       0.16848746 -0.1684854 -0.1684864 0.16848573
000010 be 87 2c 3e cb 87 2c be 76 87 2c 3e a3 87 2c 3e
       0.16848657 -0.16848676 0.16848549 0.16848616
000020 d5 87 2c be ab 87 2c be 96 87 2c be a2 87 2c 3e
       -0.16848691 -0.16848628 -0.16848597 0.16848615
000030 a5 87 2c 3e 8a 87 2c 3e 8c 87 2c be a8 87 2c be
       0.1684862 0.16848579 -0.16848582 -0.16848624
000040 73 87 2c be da 87 2c be a9 87 2c 3e 8a 87 2c 3e
       -0.16848545 -0.16848698 0.16848625 0.16848579
000050 78 87 2c be 2c 55 d4 15 0f 87 2c be a8 87 2c be
       -0.16848552 8.5760496e-26 -0.16848396 -0.16848624
000060 f5 86 2c 3e 79 f5 04 80 a8 87 2c 3e b1 87 2c be
       0.16848357 -4.55401e-40 0.16848624 -0.16848637
000070 a9 87 2c 3e 8d 87 2c be fb 87 2c be 7e 87 2c 3e
       0.16848625 -0.16848584 -0.16848747 0.16848561
000080 73 87 2c 3e a4 87 2c be ad 87 2c be a8 87 2c be
       0.16848545 -0.16848618 -0.16848631 -0.16848624
000090 bd 87 2c be 95 87 2c 3e b1 87 2c 3e 50 87 2c 3e
       -0.16848655 0.16848595 0.16848637 0.16848493
0000a0 9e 87 2c 3e cc 87 2c 3e 97 87 2c be 48 87 2c be
       0.16848609 0.16848677 -0.16848598 -0.1684848
0000b0 e4 87 2c be 2c 87 2c be 75 87 2c 3e 69 87 2c 3e
       -0.16848713 -0.16848439 0.16848548 0.1684853
0000c0 b0 87 2c 3e a9 87 2c 3e 8d 87 2c 3e bf 87 2c be
       0.16848636 0.16848625 0.16848584 -0.16848658
0000d0 9d 87 2c 3e bb 87 2c 3e c9 87 2c 3e a8 87 2c be
       0.16848607 0.16848652 0.16848673 -0.16848624
0000e0 8a 87 2c 3e 50 87 2c be 5e 87 2c 3e 9d 87 2c 3e
       0.16848579 -0.16848493 0.16848513 0.16848607
0000f0 40 87 2c be d4 87 2c be 93 87 2c 3e a5 87 2c be
       -0.16848469 -0.1684869 0.16848592 -0.1684862
000100 bb 87 2c 3e 95 87 2c be 76 87 2c be c4 87 2c 3e
       0.16848652 -0.16848595 -0.16848549 0.16848665
000110 a3 87 2c be f0 87 2c be b5 87 2c 3e 64 87 2c be
       -0.16848616 -0.16848731 0.16848643 -0.16848522
000120 75 87 2c 3e 69 87 2c be 6f 87 2c be cd 87 2c be
       0.16848548 -0.1684853 -0.16848539 -0.16848679
000130 71 87 2c 3e 69 87 2c be 74 87 2c 3e b0 87 2c 3e
       0.16848542 -0.1684853 0.16848546 0.16848636
000140 26 ad af 32 a9 87 2c 3e d0 87 2c 3e a5 87 2c 3e
       2.045142e-08 0.16848625 0.16848683 0.1684862
000150 5f 87 2c 3e 4a 87 2c 3e a9 87 2c be 23 c2 82 06
       0.16848515 0.16848484 -0.16848625 4.9185823e-35
000160 87 87 2c 3e b8 87 2c be cc 87 2c be fb 86 2c 3e
       0.16848575 -0.16848648 -0.16848677 0.16848366
000170 68 87 2c 3e 95 87 2c 3e ba 87 2c 3e a5 87 2c 3e
       0.16848528 0.16848595 0.1684865 0.1684862
000180 d9 87 2c be d6 87 2c 3e 68 87 2c be d7 64 9a af
       -0.16848697 0.16848692 -0.16848528 -2.8084088e-10
