gail/save_model/0/SUB003_ckpt_21.pth.tar (torch_old, 154736 bytes, 16 tensors)

fc1.weight f4 [100, 22]
0.44114292 -0.20458202 -0.25353637 -0.12054542 0.44746923 0.09980685 -0.09095855 0.1388101
0.17680119 0.1270954 -0.017363548 0.17043388 -0.105812654 0.027623221 -0.20033872 0.039657354
0.059117734 -0.008740246 0.043931454 0.1002669 0.1109502 0.16510823 0.33802187 -0.14477126
-0.49065107 0.12837914 -0.031450044 -0.12719233 -0.03376978 0.14678395 -0.06929821 -0.015945613
0.10634327 0.18803886 -0.18678859 0.05240825 0.16160882 0.04745248 0.059801936 -0.19784737
-0.036095023 -0.10515195 0.13505667 -0.20369631 0.22911772 0.039858103 0.16399947 -0.018415915
-0.36838204 0.057137754 -0.15062006 -0.036425583 0.16783713 0.06391707 0.04757929 0.17674974
-0.07064088 -0.03134334 0.11787838 0.21276453 0.070577055 0.046675146 -0.10051187 0.0133600235
-0.028393283 0.02227661 0.4348175 -0.34702843 0.006320792 -0.12770829 -0.20996559 -0.029001752
0.30423436 0.11778241 0.13149627 -0.10686112 -0.15128021 0.04704073 0.19411889 -0.115122356
-0.094016075 0.16046417 0.06744477 0.18371043 0.021668047 -0.13205475 0.16463181 0.20020583
-0.039627045 -0.20662299 -0.11618709 -0.13285409 -0.28910568 0.23327745 0.21334161 -0.041000754
0.29444444 -0.12205914 0.13579372 0.005322799 0.08432412 -0.022651449 0.09195787 0.16440377
-0.18926974 0.12977988 0.1900717 0.12230405 0.10172212 -0.04550661 -0.2572955 -0.01714918
-0.025892692 -0.1858309 -0.24465911 0.1713782 -0.11330054 0.14586172 0.06570004 0.1204091
-0.040400773 -0.08007951 -0.040216118 0.05861345 0.036905825 0.2075628 0.19277579 0.03202997
-0.033768386 -0.033163622 -0.05815363 0.115783155 -0.27669314 0.694121 0.0049056234 0.0013339828
0.5630883 0.25628838 0.34367535 0.2583221 0.47169018 0.0014692396 0.08922824 0.092371374
0.08634055 -0.12774573 0.13442639 -0.060541153 -0.052569553 0.019937903 0.147576 0.15262696
-0.0764671 0.0041880906 -0.5834726 -0.16747889 0.21387768 0.16350788 0.08550863 -0.3071626
-0.053155795 -0.079618685 -0.24429162 0.010758668 0.10274008 -0.036053494 -0.1139675 0.0819104
0.10758722 0.14027247 0.040210307 -0.110446535 -0.057112068 0.13466907 0.085246295 -0.0519187
-0.047357313 -0.16952676 0.024205573 0.09585678 -0.009601937 0.21311891 -0.14113836 0.21299246
0.20101513 0.12848032 0.19182938 0.001976952 -0.16869412 0.018528864 -0.21164216 0.032917053
-0.14038798 0.12029651 0.1105552 -0.04730995 -0.113868356 -0.12329786 -0.061724022 -0.10861886
0.22022901 -0.029793058 -0.38184735 0.24343249 0.09811209 0.15446758 0.006952007 -0.16984642
0.20079082 -0.088579595 0.18850785 -0.17371158 0.038270175 0.19644278 -0.20980379 -0.18060121
-0.15269949 -0.030652776 0.051560342 -0.19551834 -0.3198188 0.15787758 0.048951205 0.127837
0.109632656 -0.22935432 -0.33257136 -0.26138958 -0.23623317 -0.071006 -0.17976923 0.15769798
0.021393016 0.12140164 0.13626784 0.1949665 -0.17295463 -0.095842354 0.057777077 -0.041324288
0.1168986 -0.016012251 -0.15354244 -0.21380062 0.09503625 -0.13645461 0.30952018 0.16050681
-0.09553311 -0.046274103 -0.025542287 0.06858435 -0.19918182 0.1397498 0.04704696 0.033131674
00000000: 7cdd e13e f37d 51be 85cf 81be 84e0 f6bd
00000010: b01a e53e 8967 cc3d 7a48 babd 3c24 0e3e
00000020: 5f0b 353e 4c25 023e 003e 8ebc 3886 2e3e
00000030: 4eb4 d8bd 184a e23c 9825 4dbe c06f 223d
00000040: 7025 723d 4033 0fbc 78f1 333d bc58 cd3d
00000050: dc39 e33d 2212 293e 3411 ad3e eb3e 14be
00000060: 9e36 fbbe d275 033e c3d1 00bd b53e 02be
00000070: 2e52 0abd 884e 163e 38ec 8dbd 60a0 82bc
00000080: 80ca d93d 428d 403e 8245 3fbe 08aa 563d
00000090: c87c 253e 885d 423d e0f2 743d 8098 4abe
000000a0: 60d8 13bd e859 d7bd 4c4c 0a3e c495 50be
000000b0: d69d 6a3e 4042 233d 7aef 273e f9dc 96bc
000000c0: 929c bcbe 4709 6a3d 253c 1abe fe32 15bd
000000d0: 7fdd 2b3e f4e6 823d 80e2 423d e2fd 343e
000000e0: 2aac 90bd e061 00bd 386a f13d f2de 593e
000000f0: b48a 903d 702e 3f3d 2bd9 cdbd 00e4 5a3c
00000100: 0899 e8bc 707d b63c 66a0 de3e b6ad b1be
00000110: a51e cf3b f6c5 02be 3801 57be 1595 edbc
00000120: 9bc4 9b3e e737 f13d f5a6 063e 01da dabd
00000130: 33e9 1abe c8ad 403d 1ac7 463e 45c5 ebbd
00000140: 808b c0bd b850 243e 7c20 8a3d 961e 3c3e
00000150: 3081 b13c 5c39 07be 3e95 283e c202 4d3e
00000160: f84f 22bd fa94 53be 7ff3 edbd e70a 08be
00000170: a905 94be 49e0 6e3e 3976 5a3e 68f0 27bd
00000180: 6cc1 963e 24fa f9bd 820d 0b3e e06a ae3b
00000190: 20b2 ac3d 888f b9bc 6854 bc3d 7659 283e
000001a0: edcf 41be 04e5 043e 28a2 423e 8c7a fa3d
000001b0: b053 d03d 2465 3abd 3cbc 83be 707c 8cbc
000001c0: e91c d4bc 754a 3ebe eb87 7abe c47d 2f3e
000001d0: 1d0a e8bd c65c 153e be8d 863d 0c99 f63d
000001e0: 487b 25bd ba00 a4bd a8b9 24bd a814 703d
000001f0: 902a 173d 588b 543e 0467 453e dc31 033d
00000200: b850 0abd 94d6 07bd 8032 6ebd b81f ed3d
00000210: b9aa 8dbe eab1 313f 5abf a03b 09d9 ae3a
00000220: 8e26 103f 3b38 833e 37f6 af3e cb42 843e
00000230: 6081 f13e 8093 c03a 4cbd b63d 342d bd3d
00000240: 50d3 b03d c7cf 02be 12a7 093e 00fa 77bd
00000250: 2c53 57bd d054 a33c 2a1e 173e 3e4a 1c3e
00000260: c89a 9cbd 403c 893b 765e 15bf 967f 2bbe
00000270: c002 5b3e 9c6e 273e 261f af3d 6b44 9dbe
00000280: e4b9 59bd 1f0f a3bd 9527 7abe 2045 303c
00000290: 6469 d23d d4ac 13bd cb67 e9bd a4c0 a73d
000002a0: b056 dc3d 96a3 0f3e 90b3 243d cb31 e2bd
000002b0: 58ee 69bd b0e6 093e 9c95 ae3d b4a8 54bd
000002c0: bef9 41bd 6c98 2dbe c44a c63c 8f50 c43d
000002d0: 7151 1dbc d83b 5a3e 9386 10be b21a 5a3e
000002e0: e9d6 4d3e 5890 033e ec6e 443e c08f 013b
000002f0: 27be 2cbe d8c9 973c b9b8 58be 08d4 063d
00000300: dec1 0fbe 045e f63d c46a e23d 14c8 41bd
00000310: d033 e9bd 9783 fcbd 54d2 7cbd 9173 debd
00000320: b783 613e 9210 f4bc 7f81 c3be 5e46 793e
00000330: feee c83d c02c 1e3e a9cd e33b 38ec 2dbe
00000340: 1c9c 4d3e 3869 b5bd 3408 413e 73e1 31be
00000350: 30c1 1c3d 4c28 493e ced6 56be 86ef 38be
00000360: 415d 1cbe 881b fbbc f030 533d f635 48be
00000370: 4abf a3be a9aa 213e 0f81 483d b4e7 023e
00000380: 1687 e03d dcdb 6abe cb46 aabe dbd4 85be
00000390: 1ce7 71be 986b 91bd 6d15 38be 947b 213e
000003a0: 6840 af3c 6ca1 f83d cc89 0b3e 4ca5 473e
000003b0: 051b 31be ff48 c4bd a8a7 6c3d a843 29bd
000003c0: 8868 ef3d 202c 83bc 3b3a 1dbe 8dee 5abe
000003d0: 5ea2 c23d c2ba 0bbe 6e79 9e3e e65b 243e
000003e0: dda6 c3bd ea89 3dbd 0f3e d1bc f475 8c3d
000003f0: 52f6 4bbe 921a 0f3e 50b4 403d 14b5 073d

fc1.bias f4 [100]
-0.000975627 0.0026565362 0.09503348 -0.2663914 -0.11154576 -0.19344927 -0.47801775 0.30078018
-0.1404874 -0.083814666 0.30788243 -0.15690923 0.30845246 0.103715025 0.13277985 0.08192042
-0.016721785 0.12000882 0.077626064 -0.0797694 0.45046553 0.10531097 0.0229711 0.23831445
0.11051438 0.102410756 0.11707076 0.021240676 0.21748067 0.22316363 0.026734449 0.11408348
-0.15155506 0.33468485 0.33062136 -0.19411716 0.4867997 0.36068156 -0.0013435152 0.18935345
0.5079555 0.0941495 -0.16515894 -0.047295183 0.19851634 -0.027046578 -0.19306117 -0.1080391
-0.0051401663 0.03309847 -0.14696133 0.3417147 -0.24205399 -0.4603032 0.26390287 -0.35478005
0.087042764 -0.1046576 0.3901681 -0.34218824 0.15699182 -0.14777775 -0.11629917 -0.2920789
-0.23953539 -0.037204936 -0.121235825 0.1458545 0.023688622 0.0155181 -0.341465 0.34871516
0.1478327 0.035462644 0.15813819 0.013682882 0.086248495 0.18922125 0.26274425 -0.22734901
-0.20149185 -0.024713822 0.2458621 -0.21309753 -0.3421571 0.011631326 0.12806506 0.3193919
-0.25979874 0.1741743 -0.28801066 0.26864958 -0.18138945 0.2815347 -0.08821655 0.28052902
0.15961927 0.2339972 0.12030453 0.055345517
00000000: 38c1 7fba 4819 2e3b eaa0 c23d 7464 88be
00000010: 1a72 e4bd 9117 46be bebe f4be dcff 993e
00000020: eedb 0fbe 06a7 abbd c4a2 9d3e d0ac 20be
00000030: 7bed 9d3e 8b68 d43d 71f7 073e e5c5 a73d
00000040: 20fc 88bc 2fc7 f53d 6afa 9e3d 245e a3bd
00000050: 6ba3 e63e 47ad d73d e32d bc3c b408 743e
00000060: 5d55 e23d bbbc d13d cbc2 ef3d ed00 ae3c
00000070: 41b3 5e3e 0285 643e 3402 db3c 99a4 e93d
00000080: 4031 1bbe d05b ab3e 3447 a93e a6c6 46be
00000090: cf3d f93e 41ab b83e e418 b0ba dfe5 413e
000000a0: 5f09 023f 74d1 c03d 6d1f 29be 98b8 41bd
000000b0: de47 4b3e c990 ddbc d4b1 45be 9b43 ddbd
000000c0: d76e a8bb 4392 073d 087d 16be 3bf5 ae3e
000000d0: 00dd 77be dcac ebbe 471e 873e bba5 b5be
000000e0: 7a43 b23d b956 d6bd 1dc4 c73e 4c33 afbe
000000f0: 77c2 203e 0d53 17be 422e eebd 5e8b 95be
00000100: c448 75be 3464 18bd 7d4a f8bd e25a 153e
00000110: a40e c23c a13f 7e3c 80d4 aebe cb8a b23e
00000120: 7561 173e 4741 113d faee 213e 2b2e 603c
00000130: 0da3 b03d 37c3 413e 6a86 863e 2ece 68be
00000140: e153 4ebe a474 cabc 46c3 7b3e 3d36 5abe
00000150: 372f afbe 5191 3e3c 7d23 033e 5687 a33e
00000160: 5704 85be bf5a 323e 2276 93be 708c 893e
00000170: 28be 39be 5125 903e e1aa b4bd 80a1 8f3e
00000180: 3c73 233e f69c 6f3e 3962 f63d fbb1 623d

fc2.weight f4 [100, 100]
-0.31116223 -0.37420768 -0.1185575 0.08005876 0.21816874 0.3208608 0.057157174 0.32544613
0.26262036 0.58998245 -0.11461634 0.51077294 -0.42796627 0.054151326 0.06533899 -0.20491429
0.4456489 -0.26442114 -0.3486439 0.33988723 -0.034276184 0.260208 0.22809115 0.0957103
-0.4948159 0.23042186 -0.008104556 0.16156884 -0.27406338 -0.2543817 0.5011091 -0.32598865
0.5859422 -0.34375077 -0.15079463 -0.0003004918 -0.4477583 0.0469217 0.17899244 -0.21438107
0.31160605 -0.45144194 0.60306346 0.33706474 -0.19274963 -0.033551794 0.22103107 0.31334966
-0.18912502 -0.35668886 0.28029525 -0.3479812 0.32442483 0.20258497 -0.22351952 0.30429965
-0.008575974 0.22571345 0.18126005 0.07678228 0.0938577 0.077701196 0.15818532 0.1565693
-0.10903518 0.22072971 0.03683345 0.25008744 -0.07642933 -0.4010357 0.36352327 -0.41527516
-0.75589883 -0.33331743 -0.39408964 -0.2877252 -0.043258656 -0.36720872 0.21030357 0.38047296
0.5528848 -0.0158528 -0.344447 0.008704298 0.30621934 0.22622956 -0.5398146 -0.21800432
-0.010463122 -0.5161153 0.2671013 0.116008796 0.3576895 -0.20262995 0.56264883 -0.022483524
-0.068275765 -0.17818348 -0.477591 -0.49812022 -0.23358224 -0.41193205 -0.052219052 0.0325892
0.30401102 0.3379925 0.086030416 0.30286708 0.27381757 0.66222453 -0.22235885 0.4226479
-0.34022108 0.035883334 -0.074885905 -0.31795225 0.29454017 -0.20830011 -0.2490267 0.23505935
0.13033317 0.34798247 0.27149904 0.021375809 -0.531636 0.22035865 -0.08367431 0.21438457
-0.2471839 -0.23497973 0.50391155 -0.34771264 0.6306146 -0.3074348 -0.05530433 0.07434066
-0.40308875 0.06387481 0.17360848 -0.28706673 0.2421252 -0.37955216 0.66150063 0.2635995
-0.23076381 -0.15788296 0.28790653 0.20666958 -0.2946379 -0.3116935 0.32164446 -0.4344315
0.18891212 0.17946151 -0.3072598 0.3301832 0.0041740425 0.2492414 0.10737918 0.08683296
0.22676352 0.10574846 0.09648986 0.121483 -0.13504295 0.24622364 0.16667955 0.29126993
-0.03889 -0.31433752 0.44271883 -0.3445335 -0.72680634 -0.3831462 -0.27023545 -0.34019887
-0.1476073 -0.31191632 0.34484226 0.2335936 0.5354639 0.0019225951 -0.40528286 -0.024344726
0.33678785 0.29987946 -0.5374314 -0.32206097 0.11114374 -0.5113948 0.17869282 0.057093725
0.42798933 -0.23851568 0.40576148 0.0033238598 -0.11143172 -0.27074313 -0.3999414 -0.53057593
-0.22729719 -0.2590019 -0.081805706 0.027439525 0.14619368 0.25336722 0.050456192 0.26363248
0.24903062 0.6188846 -0.07437422 0.44279423 -0.35301346 -0.009153669 0.009488113 -0.15027039
0.23042262 -0.34635726 -0.34161562 0.30761677 0.050226763 0.30930045 0.24442495 0.055068318
-0.43086162 0.25317395 -0.02055437 0.21121475 -0.18765886 -0.30251074 0.35283208 -0.23562941
0.51082224 -0.35344428 -0.12707318 0.005645282 -0.2364877 -0.019672751 0.23628299 -0.2055944
0.23409355 -0.23920427 0.67467463 0.18525337 -0.0660647 -0.05633756 0.1859844 0.24387184
-0.17314671 -0.29527715 0.27708048 -0.4233642 0.12288488 0.21731763 -0.27667254 0.22699459
00000000: a850 9fbe 2698 bfbe 46ce f2bd d9f5 a33d
00000010: a067 5f3e de47 a43e a41d 6a3d e0a0 a63e
00000020: 2d76 863e 1709 173f f9bb eabd 04c2 023f
00000030: 651e dbbe c8cd 5d3d 73d0 853d 0dd5 51be
00000040: 182c e43e 3562 87be 7481 b2be b305 ae3e
00000050: 2f65 0cbd fc39 853e ba90 693e c303 c43d
00000060: 8258 fdbe b5f3 6b3e f9c8 04bc 4d72 253e
00000070: 0952 8cbe 513e 82be b048 003f fce7 a6be
00000080: 4f00 163f 1a00 b0be e869 1abe 548b 9db9
00000090: 9340 e5be f830 403d cb49 373e b686 5bbe
000000a0: d48a 9f3e 6623 e7be 5e62 1a3f c093 ac3e
000000b0: 2960 45be 9b6d 09bd f855 623e 5e6f a03e
000000c0: fda9 41be ec9f b6be dc82 8f3e 982a b2be
000000d0: 031b a63e 6f72 4f3e 4de2 64be 2acd 9b3e
000000e0: 3e82 0cbc 6d21 673e 3c9c 393e 0740 9d3d
000000f0: 7738 c03d ce21 9f3d 55fb 213e b453 203e
00000100: d64d dfbd f806 623e acde 163d 760b 803e
00000110: fb86 9cbd 8d54 cdbe b91f ba3e f29e d4be
00000120: 9682 41bf 95a8 aabe 1ec6 c9be b850 93be
00000130: fd2f 31bd c802 bcbe d259 573e 5acd c23e
00000140: dc89 0d3f bbdd 81bc 5b5b b0be 799c 0e3c
00000150: c8c8 9c3e b9a8 673e 4a31 0abf 863c 5fbe
00000160: 846d 2bbc 2220 04bf 80c1 883e 0596 ed3d
00000170: 1423 b73e 3a7e 4fbe c109 103f 5e2f b8bc
00000180: 2ad4 8bbd bb75 36be cf86 f4be 9d09 ffbe
00000190: 2f30 6fbe c2e8 d2be a5e3 55bd 417c 053d
000001a0: 55a7 9b3e 5a0d ad3e b730 b03d 6511 9b3e
000001b0: d131 8c3e 8c87 293f 0ab2 63be 4e65 d83e
000001c0: 7531 aebe 67fa 123d c85d 99bd a3ca a2be
000001d0: f8cd 963e a04c 55be db00 7fbe 66b3 703e
000001e0: 0f76 053e c22a b23e ec01 8b3e 521c af3c
000001f0: 4c19 08bf b3a5 613e 705d abbd a187 5b3e
00000200: c71d 7dbe 879e 70be 5900 013f 6407 b2be
00000210: f56f 213f 1868 9dbe cb86 62bd ea3f 983d
00000220: a661 cebe ccd0 823d 6cc6 313e 69fa 92be
00000230: abef 773e a954 c2be 1b58 293f 83f6 863e
00000240: 594d 6cbe 12ac 21be 7c68 933e 31a1 533e
00000250: c7da 96be 4a96 9fbe 95ae a43e ce6d debe
00000260: 2e72 413e c2c4 373e 2851 9dbe c60d a93e
00000270: 68c6 883b 2339 7f3e 9ee9 db3d 7bd5 b13d
00000280: b234 683e a692 d83d 7a9c c53d 14cc f83d
00000290: b348 0abe 0d22 7c3e 0bae 2a3e 5521 953e
000002a0: 1f4b 1fbd d9f0 a0be 0bac e23e b266 b0be
000002b0: fb0f 3abf bd2b c4be 4d5c 8abe 8c2e aebe
000002c0: 5e26 17be 7fb3 9fbe 2a8f b03e 2933 6f3e
000002d0: 2a14 093f 96ff fb3a 3c81 cfbe 976e c7bc
000002e0: 756f ac3e cd89 993e 1b95 09bf 2de5 a4be
000002f0: 549f e33d c5ea 02bf 40fb 363e 1cdb 693d
00000300: 6b21 db3e 743d 74be f8bf cf3e 1dd5 593b
00000310: 5036 e4bd d89e 8abe 1fc5 ccbe d3d3 07bf
00000320: 98c0 68be e69b 84be c089 a7bd dbc8 e03c
00000330: ccb3 153e 59b9 813e 27ab 4e3d d6fa 863e
00000340: e201 7f3e 396f 1e3f 8351 98bd edb5 e23e
00000350: 2ebe b4be 45f9 15bc 0874 1b3c 7be0 19be
00000360: e8f3 6b3e bd55 b1be 3ee8 aebe f27f 9d3e
00000370: 94ba 4d3d a15c 9e3e 894a 7a3e 518f 613d
00000380: e599 dcbe 04a0 813e a361 a8bc ae48 583e
00000390: a529 40be b0e2 9abe 68a6 b43e d648 71be
000003a0: 3fc5 023f a6f6 b4be 791f 02be 0ffc b83b
000003b0: d529 72be c028 a1bc 2bf4 713e 5787 52be
000003c0: 38b6 6f3e f7f1 74be 7ab7 2c3f 0fb3 3d3e
000003d0: ee4c 87bd 37c2 66bd b272 3e3e 8ab9 793e
000003e0: 5f4d 31be 912e 97be 7edd 8d3e 31c3 d8be
000003f0: 11ab fb3d 8388 5e3e 06a8 8dbe 4571 683e

fc2.bias f4 [100]
-0.21367833 -0.24559332 -0.27736804 -0.25205 0.20827232 -0.28221527 0.30604932 -0.15708983
0.18138394 -0.19885199 -0.13328671 -0.2605007 -0.25769162 -0.37166652 -0.09545091 -0.12943263
0.11489977 0.19444863 0.12155391 0.2032797 -0.16692252 0.18339708 -0.04666221 0.17377944
-0.22635062 0.21917607 0.16773151 -0.20573434 -0.10404305 -0.09693505 -0.41909298 -0.09231947
0.1923661 0.11832441 0.011156616 0.2490702 -0.20008266 -0.16541772 0.19159853 -0.084419586
0.23733258 0.118932225 -0.20674165 -0.13665895 0.2527889 0.4593583 -0.19322304 0.045849267
0.337455 0.14379507 -0.69074935 0.11577385 0.18624733 -0.20372204 -0.17123745 -0.54831654
0.38742882 0.26084676 0.17165738 0.22040616 -0.04861705 -0.0925013 -0.077833116 -0.12265665
0.13921219 0.26681042 0.14898057 0.26157558 0.16507939 0.13855316 -0.049721062 0.2509953
-0.12999439 -0.22720174 0.12470597 -0.14459147 0.12508255 -0.30794218 0.14729585 -0.00227158
0.1399582 0.1362231 0.16455609 -0.13538079 -0.20155399 -0.15183328 0.4816927 0.13540556
-0.27007544 0.23859201 0.13867165 0.20697565 -0.17079651 0.16137484 0.1571605 0.11009073
-0.2252455 0.39548418 -0.20224279 0.18177302
00000000: 7ece 5abe d17c 7bbe 2f03 8ebe b30c 81be
00000010: 5745 553e 857e 90be 7fb2 9c3e 28dc 20be
00000020: b6bc 393e db9f 4bbe 507c 08be 5960 85be
00000030: 28f0 83be 134b bebe c47b c3bd fd89 04be
00000040: 9250 eb3d 8b1d 473e 42f1 f83d 8e28 503e
00000050: bded 2abe 72cc 3b3e e020 3fbd 3df3 313e
00000060: 75c8 67be b16f 603e cfc1 2b3e 06ac 52be
00000070: 8614 d5bd e285 c6bd 5b93 d6be fe11 bdbd
00000080: 9efb 443e 1154 f23d 3dca 363c 420c 7f3e
00000090: 78e2 4cbe 4363 29be 6832 443e 2de4 acbd
000000a0: 5007 733e bd92 f33d 15b4 53be 53f0 0bbe
000000b0: 8c6d 813e 0331 eb3e 43dc 45be 71cc 3b3d
000000c0: e7c6 ac3e 043f 133e f3d4 30bf d71a ed3d
000000d0: 9fb7 3e3e 839c 50be df58 2fbe 795e 0cbf
000000e0: 125d c63e b58d 853e f4c6 2f3e 27b2 613e
000000f0: ac22 47bd 5271 bdbd f866 9fbd 6933 fbbd
00000100: a48d 0e3e 609b 883e 5d8e 183e 3ced 853e
00000110: 920a 293e e1e0 0d3e 50a8 4bbd 7582 803e
00000120: 401d 05be 93a7 68be d865 ff3d c90f 14be
00000130: a415 003e 99aa 9dbe b9d4 163e cade 14bb
00000140: 3451 0f3e 117e 0b3e 6481 283e 43a1 0abe
00000150: 2b64 4ebe 2f7a 1bbe 6da0 f63e c1a7 0a3e
00000160: 5447 8abe 7751 743e f1ff 0d3e 6df1 533e
00000170: 48e5 2ebe 723f 253e afee 203e 4077 e13d
00000180: c2a6 66be e77c ca3e bc18 4fbe b522 3a3e

fc3.weight f4 [2, 100]
-0.97237843 -0.9788532 -0.95471835 -0.98722565 -1.1613721 -1.0614904 1.1695756 -0.95044106
-0.9926307 -0.9037343 -0.9112358 -0.912956 -0.9183766 -1.285647 -0.9706258 -1.0026366
-0.93818986 1.0702496 0.981752 0.93513286 1.0466601 0.91143054 0.94169205 0.9786999
-0.7954186 1.16473 0.9154389 -0.93724626 -0.9553521 1.0795798 -0.94279945 -0.9334707
-0.9901394 0.9804879 -0.78967977 0.9876068 -1.0618562 -0.9938574 1.350045 -0.90900594
1.0678538 1.015271 -0.9835062 1.2724924 -0.3483193 1.9251133 -1.0244846 -2.2028742
1.1715195 1.0251827 -1.9167475 0.94474924 1.0041548 -1.0081543 -0.93627834 -2.1430025
1.322797 1.1625063 0.9388824 0.9696188 1.0860019 -0.9497555 -0.9539115 -0.9319951
-0.80315965 0.99109066 0.9951849 0.9896194 -1.4185203 -1.0167986 1.2011186 0.95254415
-1.0093606 -0.95084655 0.97985905 -0.93335515 0.9129106 -1.0922277 0.99492174 -0.96155113
1.0477428 -1.7624793 1.0486034 -0.9703575 1.1524119 -0.9415285 0.94300914 0.98697984
-0.9589257 -1.1562371 1.0031029 0.9074368 -0.95731324 0.9633977 0.99765754 1.008991
-0.9654846 0.90572304 -0.91958314 0.9431741 -0.6949079 -0.69304645 -0.66117424 -0.79378486
-0.7440918 -0.80764204 0.8424102 -0.6722558 -0.5970618 -0.6587861 -0.6690145 -0.6714599
-0.6651403 -0.8889372 -0.6791148 -0.76669836 -0.15057313 0.7990543 0.6911158 0.660613
0.68119913 0.6636227 1.3569083 0.72120076 -1.2638029 0.9798501 0.66681516 -0.6615908
-0.66948444 0.787541 -0.6706019 -0.6574547 -0.56914127 0.68808824 -1.2012789 0.7908207
-0.8083042 -0.73436445 1.1059527 -0.66016865 0.8027225 0.78947306 -0.69332623 0.9879285
0.8969057 1.4152479 -0.75440705 -1.7294824 1.4789882 0.77575374 -1.528194 0.66639584
0.764196 -0.78370875 -0.66840404 -1.6948062 0.90994346 0.98480946 0.660214 0.6660384
1.5321786 -0.6659727 -0.6126604 -0.6719283 -1.231679 0.78676707 0.7864673 0.7761503
-1.1126225 -0.7301448 0.90992826 0.662268 -0.76876414 -0.6479099 0.7117795 -0.66680866
0.6601016 -0.94265425 0.79973984 -0.54492384 0.78062135 -1.8829119 0.8021251 -0.8023621
0.75954884 -0.6597814 0.6616643 0.72305703 -0.6771653 -0.7674041 0.7425585 0.6685858
-0.66815937 0.68669754 0.7276398 0.7470288 -0.68546873 0.64671844 -0.66279525 0.6638028
00000000: cbed 78bf 2096 7abf 6c68 74bf d2ba 7cbf
00000010: d7a7 94bf ebde 87bf a7b4 953f 1b50 73bf
00000020: 0c1d 7ebf 225b 67bf c046 69bf 7cb7 69bf
00000030: bb1a 6bbf 1590 a4bf ef7a 78bf 6556 80bf
00000040: 362d 70bf f0fd 883f 1954 7b3f de64 6f3f
00000050: f5f8 853f 8353 693f bb12 713f 148c 7a3f
00000060: 8ea0 4bbf df15 953f 345a 6a3f 5fef 6fbf
00000070: f591 74bf ac2f 8a3f 4e5b 71bf f0f7 6ebf
00000080: c779 7dbf 4101 7b3f 7428 4abf cdd3 7c3f
00000090: e7ea 87bf 706d 7ebf 46ce ac3f 9db4 68bf
000000a0: 6faf 883f 66f4 813f 10c7 7bbf 08e1 a23f
000000b0: e856 b2be 1d6a f63f 5022 83bf e4fb 0cc0
000000c0: 5af4 953f 3039 833f fb57 f5bf 16db 713f
000000d0: 2588 803f 330b 81bf f0af 6fbf f426 09c0
000000e0: 6951 a93f 02cd 943f 995a 703f f038 783f
000000f0: 1c02 8b3f 2d23 73bf 8b33 74bf 3b97 6ebf
00000100: df9b 4dbf 1eb8 7d3f 70c4 7e3f b257 7d3f
00000110: 1392 b5bf 7526 82bf 41be 993f efd9 733f
00000120: ba32 81bf ae6a 73bf 0bd8 7a3f 5df0 6ebf
00000130: 82b4 693f 1ece 8bbf 31b3 7e3f 3728 76bf
00000140: 701c 863f ec98 e1bf a338 863f 5969 78bf
00000150: 3c82 933f 0308 71bf 0c69 713f b6aa 7c3f
00000160: 287c 75bf 94ff 93bf ad65 803f c74d 683f
00000170: 7b12 75bf 3ba1 763f 7c66 7f3f 9e26 813f
00000180: 002a 77bf 77dd 673f cd69 6bbf dc73 713f
00000190: 7ce5 31bf 7e6b 31bf b742 29bf 7c35 4bbf
000001a0: cd7c 3ebf a1c1 4ebf 32a8 573f f518 2cbf
000001b0: 0bd9 18bf 35a6 28bf 8944 2bbf cce4 2bbf
000001c0: a246 2abf 6391 63bf 78da 2dbf 5846 44bf
000001d0: d82f 1abe d38e 4c3f f7ec 303f ef1d 293f
000001e0: 1163 2e3f 2de3 293f 2caf ad3f 9da0 383f
000001f0: 4bc4 a1bf 75d7 7a3f 66b4 2a3f 045e 29bf
00000200: 5563 2bbf 499c 493f 91ac 2bbf f44e 28bf
00000210: 3eb3 11bf 8d26 303f 82c3 99bf 3a73 4a3f
00000220: 06ed 4ebf 4fff 3bbf dc8f 8d3f d000 29bf
00000230: 397f 4d3f e81a 4a3f d47d 31bf e2e8 7c3f
00000240: 9d9b 653f d826 b53f d220 41bf ae5f ddbf
00000250: 7c4f bd3f cc97 463f dc9b c3bf eb98 2a3f
00000260: 59a2 433f 23a1 48bf 871c 2bbf 69ef d8bf
00000270: 0ef2 683f 791c 7c3f c903 293f 7e81 2a3f
00000280: 6e1e c43f 307d 2abf 50d7 1cbf 7e03 2cbf
00000290: a8a7 9dbf 9169 493f ec55 493f c9b1 463f
000002a0: 6a6a 8ebf c5ea 3abf 0ff1 683f 658a 293f
000002b0: bacd 44bf 6cdd 25bf 2e37 363f f9b3 2abf
000002c0: 6bfc 283f ca51 71bf c0bb 4c3f 2180 0bbf
000002d0: cdd6 473f 4203 f1bf 1258 4d3f 9a67 4dbf
000002e0: cb71 423f 6fe7 28bf d562 293f 441a 393f
000002f0: b55a 2dbf 9874 44bf 5018 3e3f 7028 2b3f
00000300: 7e0c 2bbf 69cb 2f3f 9a46 3a3f 483d 3f3f
00000310: e17a 2fbf 578f 253f f3ac 29bf fbee 293f

fc3.bias f4 [2]
0.9174958 0.72862273
00000000: 01e1 6a3f 0587 3a3f

fc1.weight f4 [100, 22]
2.7843831e-05 -6.297138e-06 -2.6345268e-05 -4.4569597e-06 2.0182662e-05 -2.4192726e-05 -2.4491943e-05 -1.09513185e-05
-2.3200364e-05 -5.6224e-41 2.22785e-40 7.44413e-40 3.9315e-40 -1.12153e-39 8.31256e-40 -1.719934e-39
7.50887e-40 -4.78207e-40 -8.90504e-40 -2.09748e-39 -9.28238e-40 1.6716975e-38 -0.0001339506 -1.2466175e-05
0.00010360043 -2.7752729e-05 -9.746781e-05 1.3494285e-05 1.7032156e-05 1.967439e-05 2.4828807e-05 1.42899e-40
-1.334908e-39 1.61093e-39 1.677054e-39 2.08023e-40 -9.59414e-40 1.252523e-39 -1.095328e-39 -1.493072e-39
-1.036043e-39 -1.524204e-39 -1.762323e-39 -1.132539e-39 -6.002662e-06 0.0001522854 -0.00032255708 0.00033605486
-0.00060448964 0.00012359119 0.00012327956 0.00011363005 0.00012247213 1.770902e-39 -3.0016e-41 1.611314e-39
-9.58838e-40 -7.00426e-40 -1.04974e-40 -6.16136e-40 -1.04725e-40 1.310662e-39 -6.6183e-41 1.106954e-39
1.84287e-39 7.54833e-40 -0.07062566 0.002293729 0.03169855 0.006035843 0.0039643086 0.02211348
0.020945584 0.009426825 0.017358262 -5.07339e-40 8.96094e-40 1.3091e-39 -1.938154e-39 4.8995e-40
-1.129818e-39 7.27701e-40 1.360715e-39 4.3249e-40 1.947284e-39 7.83222e-40 -2.32576e-40 -6.84314e-40
-0.00027427715 0.0001799124 0.0009219338 -0.00028749113 0.00074752496 -0.0002453659 -0.00022976 -1.5754278e-05
-0.00017411058 -4.80481e-40 1.423439e-39 -4.80047e-40 2.146229e-39 9.8004e-41 3.48988e-40 -2.21752e-39
2.040253e-39 -4.89657e-40 -8.48552e-40 2.040945e-39 1.378616e-39 -1.491141e-39 0.00011736779 -0.0001606503
-3.776709e-05 -0.0002870694 0.00035303485 -7.0543916e-05 -7.456103e-05 -0.00010038695 -8.673965e-05 -9.40964e-40
-8.92337e-40 -5.40534e-40 2.011088e-39 1.29675e-40 -1.695979e-39 8.76296e-40 1.7861e-39 -2.309619e-39
2.30404e-40 -2.055809e-39 1.797566e-39 -1.889867e-39 8.077743e-05 -3.635807e-05 -0.00027831053 9.959712e-07
-0.00010174834 4.3115335e-05 3.621831e-05 -2.3474495e-05 1.4437148e-05 -1.828163e-39 8.6565e-40 4.64023e-40
1.531916e-39 -6.36e-41 2.77907e-40 -3.50358e-40 -3.88657e-40 9.55925e-40 -1.023539e-39 7.73898e-40
-7.86822e-40 3.4270039e-37 -8.498718e-05 0.0007067757 -0.00056249334 0.001184814 -0.0029353744 0.00010690681
9.42285e-05 -0.00013065769 4.601488e-05 1.91636e-39 1.493833e-39 1.581033e-39 -1.357263e-39 1.704175e-39
-8.14622e-40 5.56125e-40 -6.7365e-41 5.66071e-40 1.682417e-39 1.04044e-40 -7.19662e-40 1.053128e-39
0.00020690965 -0.0005903322 0.00062687276 -0.0016209276 0.0031536245 -0.000116502 -0.000104111095 9.814309e-05
-5.789054e-05 1.79644e-40 -1.047322e-39 -1.309767e-39 -1.34488e-39 -1.813747e-39 1.957784e-39 -1.070274e-39
1.384062e-39 -1.44435e-39 -1.91726e-39 -1.89809e-39 -1.019588e-39 -1.222917e-39 -0.088869296 0.0042569004
0.04247494 0.008871493 0.0063733165 0.030941725 0.029400053 0.013747073 0.024616778 -8.4353e-41
-1.991691e-39 -4.75206e-40 -1.293099e-39 -1.991808e-39 6.38144e-40 4.61911e-40 1.375349e-39 -6.7984e-40
-1.085e-40 9.14067e-40 1.061353e-39 -9.97753e-40 0.10217989 -0.0055410364 -0.050120097 -0.010625315
-0.007908921 -0.037212785 -0.035397716 -0.016763607 -0.029743794 6.14801e-40 8.53815e-40 -4.77788e-40
-1.99322e-40 5.22588e-40 2.045188e-39 -4.73273e-40 9.76778e-40 1.585695e-39 -2.176916e-39 1.980796e-39
-3.4293e-41 3.25942e-40 0.096409015 -0.005001744 -0.04683103 -0.009901992 -0.00726918 -0.03451475
-0.03281833 -0.015471962 -0.02754155 -2.13042e-40 -1.187481e-39 1.21644e-40 9.77191e-40 6.2605e-40
00000000: 2c92 e937 014c d3b6 0800 ddb7 fe8c 95b6
00000010: f04d a937 7cf1 cab7 0c74 cdb7 8ebb 37b7
00000020: 679e c2b7 bb9c 0080 096d 0200 1f1b 0800
00000030: f147 0400 5f36 0c80 340d 0900 7aba 1280
00000040: 2b2d 0800 0c35 0580 5db2 0980 ecd6 1680
00000050: 8d1b 0a80 2008 b600 1775 0cb9 d025 51b7
00000060: 0f44 d938 88ce e8b7 a267 ccb8 8365 6237
00000070: 47e0 8e37 6e0a a537 7547 d037 588e 0100
00000080: 2e89 0e80 9e8a 1100 f242 1200 e243 0200
00000090: 7572 0a80 86a3 0d00 54ed 0b80 1442 1080
000000a0: 1148 0b80 dc98 1080 a430 1380 0f55 0c80
000000b0: 796a c9b6 cdae 1f39 e11c a9b9 8530 b039
000000c0: 9d76 1eba 4298 0139 9b44 0139 ab4c ee38
000000d0: dd6b 0039 8e48 1300 ac53 0080 b08b 1100
000000e0: da70 0a80 81a0 0780 a024 0180 89b5 0680
000000f0: ee23 0180 9845 0e00 7eb8 0080 bd0d 0c00
00000100: 2c11 1400 2b38 0800 30a4 90bd 6352 163b
00000110: 57d6 013d 52c8 c53b 08e7 813b 5427 b53c
00000120: 1396 ab3c f872 1a3c ea32 8e3c 4186 0580
00000130: f2c1 0900 3d41 0e00 c91a 1580 c855 0500
00000140: 794d 0c80 89ec 0700 1fd1 0e00 9bb5 0400
00000150: 3c34 1500 4e87 0800 5488 0280 9773 0780
00000160: dbcc 8fb9 dea6 3c39 eead 713a 68ba 96b9
00000170: 8df5 433a 74a4 80b9 bbeb 70b9 0e28 84b7
00000180: 7491 36b9 633b 0580 f87f 0f00 2d3a 0580
00000190: d05e 1700 3211 0100 d6cc 0300 8b25 1880
000001a0: 6537 1600 f754 0580 6b3d 0980 5339 1600
000001b0: 0503 0f00 b23c 1080 5a23 f638 3d74 28b9
000001c0: 1b68 1eb8 cd81 96b9 8917 b939 faf0 93b8
000001d0: a65d 9cb8 d586 d2b8 ffe7 b5b8 063f 0a80
000001e0: 79b7 0980 cae2 0580 18e6 1500 7b69 0100
000001f0: b377 1280 c28a 0900 ec72 1300 4726 1980
00000200: 4682 0200 c262 1680 e292 1300 2e94 1480
00000210: 0d67 a938 2e7f 18b8 35ea 91b9 4fad 8535
00000220: b961 d5b8 bdd6 3438 1de9 1738 18eb c4b7
00000230: 1437 7237 2de8 1380 146d 0900 820d 0500
00000240: 5cae 1000 4ab1 0080 b106 0300 a8d0 0380
00000250: 6b3b 0480 bb68 0a00 3625 0b80 506d 0800
00000260: 5791 0880 d43a e902 253b b2b8 ea46 393a
00000270: 4a74 13ba c34b 9b3a 695f 40bb 2833 e038
00000280: 8a9c c538 2801 09b9 1a00 4138 08de 1400
00000290: 3344 1000 4737 1100 7fc7 0e80 8c8e 1200
000002a0: d6de 0880 400e 0600 c9bb 0080 fa29 0600
000002b0: e551 1200 0822 0100 20d6 0780 b177 0b00
000002c0: e3f5 5839 86c0 1aba b854 243a 4e75 d4ba
000002d0: 0aad 4e3b 8952 f4b8 3856 dab8 2cd2 cd38
000002e0: 7ecf 72b8 c6f4 0100 8267 0b80 1943 0e80
000002f0: faa4 0e80 fdbf 1380 8151 1500 7da7 0b80
00000300: 3412 0f00 43ba 0f80 8ae0 1480 1aab 1480
00000310: 321a 0b80 ff50 0d80 1b01 b6bd 787d 8b3b
00000320: 34fa 2d3d bd59 113c 41d7 d03b 8079 fd3c
00000330: 61d8 f03c 673b 613c 20a9 c93c 24eb 0080
00000340: 06b0 1580 ae2c 0580 a214 0e80 5ab0 1580
00000350: e3f2 0600 9f07 0500 eaf9 0e00 1e67 0780
00000360: 742e 0180 0cf4 0900 9f8e 0b00 54dd 0a80
00000370: b143 d13d 9591 b5bb bb4a 4dbd cd15 2ebc
00000380: 6b94 01bc 6f6c 18bd 32fd 10bd d553 89bc
00000390: 42a9 f3bc d1b1 0600 174c 0900 e133 0580
000003a0: a12b 0280 c3b0 0500 2745 1600 4b27 0580
000003b0: dca2 0a00 4644 1100 5bb4 1780 a791 1500
000003c0: 985f 0080 988c 0300 1772 c53d abe5 a3bb
000003d0: e5d1 3fbd f73b 22bc 4d32 eebb 575f 0dbd
000003e0: 836c 06bd 1d7e 7dbc d19e e1bc e051 0280
000003f0: 37ee 0c80 1853 0100 03a4 0a00 2cd1 0600

fc1.bias f4 [100]
-5.0997565e-05 0.00017162549 -0.00016354717 -0.06561394 0.00045954448 2.2322667e-05 -0.00015035005 -0.00019720334
0.00016463276 -0.084857896 0.09896242 0.092839845 -1.8024213e-05 0.095475204 -0.099027775 0.09818717
-0.100643426 -0.10001183 0.0005030662 -0.104470246 -0.0001740123 3.9236915e-05 5.182974e-05 3.935007e-05
0.000108426684 0.00018520719 -0.077032425 -0.09305766 7.966242e-05 0.1029602 0.00029142734 -0.00029374956
-6.5461514e-05 0.09399249 -0.03625691 7.344268e-05 0.0005381068 -1.38954665e-05 -0.00010898594 0.00012742946
-0.00012376117 2.661728e-05 -0.00016774921 6.622848e-05 -4.982515e-05 -4.1949945e-05 0.08831911 -0.082999535
0.00016956989 -0.09919848 -0.07538539 -0.08938453 0.09276208 -0.00012557856 0.00029980246 -0.09570443
-9.4603725e-05 0.07023822 0.09534048 8.052329e-05 0.0981576 -0.00014835918 0.08678694 0.00010993841
0.09692365 0.00028593926 0.037648585 -0.09614041 0.08323665 6.216065e-05 -0.00038258958 0.09582659
0.07015833 -0.09770004 -0.07890019 0.0938293 0.094974056 -0.10118124 0.00011436257 0.06152008
-0.00016968316 -0.00029597472 0.0004978905 0.080176316 -0.075055525 0.09081227 0.0005832885 0.05113752
0.097546354 -5.3278673e-05 -6.280656e-05 7.932117e-05 9.013309e-05 0.099950284 -0.08933333 0.081864834
-0.00015104288 -1.0810485e-05 2.7631128e-05 -0.09678178
00000000: 38e6 55b8 5ef6 3339 dc7d 2bb9 9a60 86bd
00000010: 04ef f039 9041 bb37 49a7 1db9 5ec8 4eb9
00000020: 45a1 2c39 fac9 adbd cfac ca3d d122 be3d
00000030: b432 97b7 8188 c33d 13cf cabd 5b16 c93d
00000040: 241e cebd 01d3 ccbd 34e0 033a 7ff4 d5bd
00000050: 1277 36b9 5192 2438 c263 5938 d10b 2538
00000060: 2263 e338 2d34 4239 2dc3 9dbd 0495 bebd
00000070: 7010 a738 ccdc d23d b7ca 9839 6602 9ab9
00000080: 6248 89b8 227f c03d 2082 14bd 3d05 9a38
00000090: bc0f 0d3a 9320 69b7 628f e4b8 969e 0539
000000a0: e3c5 01b9 2c48 df37 d6e5 2fb9 25e4 8a38
000000b0: 59fb 50b8 69f3 2fb8 a6e0 b43d a9fb a9bd
000000c0: 92ce 3139 9328 cbbd a863 9abd 3d0f b7bd
000000d0: 0cfa bd3d bdad 03b9 ce2e 9d39 af00 c4bd
000000e0: fd65 c6b8 0ed9 8f3d df41 c33d 9dde a838
000000f0: da06 c93d dd90 1bb9 5abd b13d bc8e e638
00000100: e87f c63d 1eea 9539 6735 1a3d 43e5 c4bd
00000110: fa77 aa3d 3f5c 8238 4e96 c8b9 bb40 c43d
00000120: 2caf 8f3d f516 c8bd 6c96 a1bd 9329 c03d
00000130: c281 c23d 1c38 cfbd f0d5 ef38 7bfc 7b3d
00000140: faec 31b9 0e2d 9bb9 de84 023a 7b33 a43d
00000150: b6b6 99bd c9fb b93d d4e7 183a 9375 513d
00000160: 62c6 c73d 8a77 5fb8 04b7 83b8 3b59 a638
00000170: d605 bd38 bcb2 cc3d 65f4 b6bd c0a8 a73d
00000180: 4461 1eb9 ae5e 35b7 65c9 e737 8735 c6bd

fc2.weight f4 [100, 100]
-8.44771e-07 -1.1143436e-06 1.4779635e-06 0.013712877 8.853413e-06 -1.7953025e-05 -4.956432e-06 -5.7543817e-05
5.704035e-05 0.01783965 -0.020809555 -0.019526808 4.2379423e-05 -0.020080186 0.020823121 -0.020647798
0.021159943 0.02102828 1.0467436e-05 0.02195463 -3.5295263e-06 -2.3588647e-05 5.870129e-07 4.8456525e-07
-5.837861e-07 -4.4602202e-05 0.016170857 0.019572549 8.774085e-07 -0.021641469 -3.2234704e-05 0.0005326982
0.00012619139 -0.019769028 0.007311448 1.2026205e-06 -0.00010260853 -3.5204846e-07 0.00024164525 -3.892765e-05
-2.157093e-06 -1.129875e-06 -6.179938e-06 4.509625e-07 -6.75352e-07 -7.397101e-07 -0.018573212 0.017444745
-1.0427425e-06 0.020858763 0.015818005 0.01879847 -0.019510498 7.07017e-07 2.9672642e-06 0.020128256
-8.227839e-08 -0.014711338 -0.020051936 8.6957954e-07 -0.020641547 3.2544478e-05 -0.018248955 1.7174749e-07
-0.020383544 -0.00011345731 -0.0076157986 0.020219564 -0.017495148 8.9581107e-07 7.869995e-05 -0.020153863
-0.014694174 0.020545937 0.016570542 -0.019734733 -0.019975046 0.021271829 7.1943e-07 -0.0128258215
-7.01611e-05 7.182507e-05 1.0684624e-05 -0.016843025 0.015747253 -0.019099755 -2.4222129e-05 -0.010565395
-0.02051375 -6.2699587e-07 -7.5496894e-07 8.161167e-07 -3.7056694e-07 -0.02101542 0.018787656 -0.017203128
-8.5608226e-05 3.633119e-05 -4.696809e-05 0.020353789 -8.179382e-07 -1.1705306e-06 1.4173802e-06 0.012621469
8.410662e-06 -1.7508246e-05 -4.7806398e-06 -5.5580407e-05 5.7125806e-05 0.016456727 -0.019215714 -0.018024188
4.1491192e-05 -0.018538235 0.019228311 -0.019065458 0.019541115 0.019418871 1.0016764e-05 0.020279113
-3.3657634e-06 -2.3582486e-05 5.6123537e-07 4.6253433e-07 -6.211761e-07 -4.35993e-05 0.0149059845 0.018066647
8.422419e-07 -0.01998826 -3.106032e-05 0.00052583695 0.0001244471 -0.018249251 0.0066729556 1.1643604e-06
-0.000100340054 -3.3249967e-07 0.00023898996 -3.8005077e-05 -2.074705e-06 -1.1433938e-06 -5.984634e-06 4.0774353e-07
-6.530275e-07 -7.166162e-07 -0.017138323 0.016089778 -1.0977277e-06 0.019261431 0.014578041 0.017347591
-0.018009055 7.483593e-07 2.7448036e-06 0.018582867 -4.9329262e-08 -0.013549525 -0.018512018 8.34151e-07
-0.019059671 3.1743424e-05 -0.016837046 1.3159858e-07 -0.018819991 -0.000111201494 -0.0069555575 0.018667703
-0.016136674 8.6442276e-07 7.691026e-05 -0.018606737 -0.013533542 0.01897087 0.015277421 -0.018217405
-0.018440628 0.019644996 6.7850726e-07 -0.011797002 -6.955394e-05 7.0105794e-05 1.0240147e-05 -0.01553067
0.014512287 -0.017627517 -2.652206e-05 -0.009696054 -0.018941013 -5.8774367e-07 -7.144481e-07 7.823818e-07
-4.0604382e-07 -0.01940699 0.01733743 -0.015865253 -8.322031e-05 3.5912162e-05 -4.648541e-05 0.01879244
-8.277618e-07 -1.1509779e-06 1.4458792e-06 0.013013156 8.564294e-06 -1.7675648e-05 -4.842608e-06 -5.6271565e-05
5.7082405e-05 0.016953383 -0.019788157 -0.018563902 4.1821382e-05 -0.01909202 0.01980119 -0.019633854
0.02012256 0.019996997 1.0173029e-05 0.020880956 -3.4228128e-06 -2.3442823e-05 5.7080223e-07 4.7080403e-07
-6.081427e-07 -4.3968605e-05 0.015360176 0.01860752 8.5491797e-07 -0.020582177 -3.1481497e-05 0.0005284084
0.00012494918 -0.018795097 0.006901441 1.1784892e-06 -0.00010116426 -3.3989738e-07 0.00023995577 -3.8350474e-05
-2.1049098e-06 -1.1380284e-06 -6.05315e-06 4.2391457e-07 -6.6124574e-07 -7.251159e-07 -0.017653657 0.016576352
-1.0784634e-06 0.019835224 0.01502324 0.017868657 -0.018548353 7.339407e-07 2.821399e-06 0.019137954
00000000: 39c4 62b5 8e90 95b5 705e c635 faab 603c
00000010: 1f89 1437 d499 96b7 6d4f a6b6 345b 71b8
00000020: 9c3e 6f38 7524 923c cd78 aabc aff6 9fbc
00000030: 8fc0 3138 347f a4bc 4095 aa3c 9225 a9bc
00000040: 9e57 ad3c 8043 ac3c 4c9d 2f37 32da b33c
00000050: cddc 6cb6 3ce0 c5b7 3893 1d35 1213 0235
00000060: 7ab5 1cb5 4013 3bb8 bf78 843c 9c56 a03c
00000070: 0e87 6b35 7349 b1bc c033 07b8 c5a4 0b3a
00000080: 3e52 0439 a8f2 a1bc df94 ef3b ba69 a135
00000090: 892f d7b8 2c01 bdb4 2762 7d39 3f46 23b8
000000a0: 93c2 10b6 36a6 97b5 435d cfb6 d01b f234
000000b0: d649 35b5 7e90 46b5 d926 98bc 48e8 8e3c
000000c0: 5cf4 8bb5 ffdf aa3c c394 813c 40ff 993c
000000d0: 7bd4 9fbc d7c9 3d35 3621 4736 03e4 a43c
000000e0: 06b1 b0b3 d307 71bc f543 a4bc 0d6d 6935
000000f0: 7618 a9bc 5e80 0838 d57e 95bc 9769 3834
00000100: 64fb a6bc eeef edb8 f38d f9bb 80a3 a53c
00000110: fc51 8fbc ab77 7035 b70b a538 b719 a5bc
00000120: d5bf 70bc f44f a83c f2be 873c bcaa a1bc
00000130: b5a2 a3bc 4242 ae3c da1e 4135 6523 52bc
00000140: 7423 93b8 caa0 9638 1c42 3337 62fa 89bc
00000150: 6200 813c 1777 9cbc a030 cbb7 7a1a 2dbc
00000160: 740c a8bc d44e 28b5 12a9 4ab5 1d13 5b35
00000170: 55f2 c6b4 8828 acbc 92e8 993c 93ed 8cbc
00000180: 9188 b3b8 5162 1838 9aff 44b8 fdbc a63c
00000190: 4990 5bb5 201b 9db5 d03c be35 47ca 4e3c
000001a0: 851b 0d37 acde 92b7 6269 a0b6 021f 69b8
000001b0: 5e9a 6f38 42d0 863c 466a 9dbc 76a7 93bc
000001c0: d406 2e38 7fdd 97bc b184 9d3c 2a2f 9cbc
000001d0: b014 a03c 5314 9f3c ac0d 2837 6220 a63c
000001e0: 60df 61b6 01d3 c5b7 cda7 1635 3c52 f834
000001f0: e6be 26b5 64de 36b8 3b38 743c 8100 943c
00000200: 6c16 6235 6bbe a3bc c446 02b8 52d8 093a
00000210: 047e 0239 747f 95bc cfa8 da3b 1e47 9c35
00000220: a86d d2b8 6882 b2b4 6199 7a39 a467 1fb8
00000230: 293b 0bb6 b676 99b5 9dcf c8b6 d8e7 da34
00000240: b54b 2fb5 7e5d 40b5 ab65 8cbc b6ce 833c
00000250: a355 93b5 26ca 9d3c bcd8 6e3c 891c 8e3c
00000260: ba87 93bc dce2 4835 5e33 3836 193b 983c
00000270: 19de 53b3 d4fe 5dbc 84a6 97bc 6cea 5f35
00000280: 0723 9cbc 3e24 0538 d8ed 89bc 8b4d 0d34
00000290: 622c 9abc d934 e9b8 72eb e3bb 03ed 983c
000002a0: 0f31 84bc ae0a 6835 e24a a138 286d 98bc
000002b0: cabb 5dbc cc68 9b3c 264e 7a3c ab3c 95bc
000002c0: cd10 97bc 8bee a03c aa22 3635 3648 41bc
000002d0: 7ddd 91b8 c305 9338 19cd 2b37 5a74 7ebc
000002e0: f2c4 6d3c 9567 90bc b17b deb7 33dc 1ebc
000002f0: 2f2a 9bbc 70c5 1db5 80c8 3fb5 de04 5235
00000300: 3dfe d9b4 68fb 9ebc 3a07 8e3c d9f7 81bc
00000310: 9086 aeb8 64a0 1638 54f9 42b8 9af2 993c
00000320: 5c33 5eb5 4d7b 9ab5 0810 c235 2235 553c
00000330: 5daf 0f37 2a46 94b7 b07d a2b6 2205 6cb8
00000340: c46b 6f38 d2e1 8a3c c61a a2bc 5313 98bc
00000350: 5e69 2f38 de66 9cbc 1b36 a23c 2dd7 a0bc
00000360: 11d8 a43c bed0 a33c d4ac 2a37 8a0e ab3c
00000370: 7ab3 65b6 14a7 c4b7 3b39 1935 d0c2 fc34
00000380: 403f 23b5 ee6a 38b8 3fa9 7b3c cc6e 983c
00000390: 847d 6535 f49b a8bc 000b 04b8 e384 0a3a
000003a0: ca04 0339 2df8 99bc 7c25 e23b 952c 9e35
000003b0: 2628 d4b8 247b b6b4 a39c 7b39 82da 20b8
000003c0: 1342 0db6 5cbe 98b5 2a1c cbb6 6096 e334
000003d0: 7680 31b5 96a5 42b5 679e 90bc 21cb 873c
000003e0: b8bf 90b5 7b7d a23c 0924 763c 4a61 923c
000003f0: b7f2 97bc 0504 4535 4457 3d36 33c7 9c3c

fc2.bias f4 [100]
-0.08703873 -0.080715254 -0.08297878 0.08147802 0.08387268 -0.084403746 0.081020296 0.082432345
-0.084867425 -0.082831435 -0.08225729 0.08251186 0.08192445 0.08209088 -0.08199373 -0.08277784
-0.0840635 0.083573215 0.08255271 0.08149738 -0.08132916 -8.57975e-05 -0.0766654 -0.08302472
0.07466873 -0.070221536 0.082710706 -0.08426463 0.08271276 -0.08145113 -0.086122505 0.08108319
0.08052159 -0.08242133 -0.08339671 -0.08262392 -0.083770685 0.081975915 0.08276227 0.07897375
0.08186326 0.0841917 -0.08203757 -0.078710295 -0.08551333 -0.07777293 0.08044801 0.08033532
0.08310556 0.08256288 0.08161915 -0.08383486 0.08240781 0.08353301 0.08437102 -0.08287766
0.081467 -0.07941595 0.07969516 0.082562946 -0.07827205 -0.08443144 0.081751354 -0.08273653
0.08332115 -0.08233742 -0.081425145 0.084110565 -0.082258046 0.08598049 0.08319327 2.4491962e-07
0.08064331 -0.08003728 -0.08064408 -0.084374756 0.08072489 -0.08032119 0.08081425 0.08331569
4.7158994e-07 0.08228019 0.08474401 0.08221694 0.07982911 0.07431888 -0.08286212 -0.071545824
0.08129359 -0.0834183 -0.084714085 0.07549286 0.08061986 0.081926696 0.08409272 0.08286234
-0.085465826 0.084841266 -0.08011927 -0.00055593863
00000000: 5d41 b2bd 0a4e a5bd c7f0 a9bd f3dd a63d
00000010: 71c5 ab3d dfdb acbd f8ed a53d 4ad2 a83d
00000020: f9ce adbd 87a3 a9bd 8376 a8bd fafb a83d
00000030: 02c8 a73d 431f a83d 54ec a7bd 6e87 a9bd
00000040: 7c29 acbd 6f28 ab3d 6511 a93d 19e8 a63d
00000050: e78f a6bd 2fee b3b8 c002 9dbd dd08 aabd
00000060: ebeb 983d 4fd0 8fbd 3b64 a93d ef92 acbd
00000070: 4f65 a93d dacf a6bd ff60 b0bd f20e a63d
00000080: 81e8 a43d 84cc a8bd e5cb aabd bb36 a9bd
00000090: f78f abbd fde2 a73d 447f a93d fdbc a13d
000000a0: eda7 a73d b36c ac3d 5003 a8bd dd32 a1bd
000000b0: 9d21 afbd 6a47 9fbd edc1 a43d d886 a43d
000000c0: 3f33 aa3d ba16 a93d f127 a73d 9cb1 abbd
000000d0: 6dc5 a83d 5b13 ab3d b7ca ac3d c3bb a9bd
000000e0: 2cd8 a63d d4a4 a2bd 3737 a33d c316 a93d
000000f0: 194d a0bd 64ea acbd 416d a73d c571 a9bd
00000100: 47a4 aa3d 85a0 a8bd 3ac2 a6bd 2942 ac3d
00000110: e876 a8bd 8a16 b03d 3c61 aa3d 7f7d 8334
00000120: 5228 a53d 96ea a3bd b928 a5bd accc acbd
00000130: 1753 a53d 707f a4bd f181 a53d 6ba1 aa3d
00000140: d42e fd34 8482 a83d 448e ad3d 5b61 a83d
00000150: 727d a33d 7f34 983d 9db3 a9bd 9e86 92bd
00000160: 417d a63d 37d7 aabd 947e adbd 009c 9a3d
00000170: 061c a53d 2fc9 a73d ce38 ac3d bbb3 a93d
00000180: b508 afbd 42c1 ad3d 9215 a4bd 69bc 11ba

fc3.weight f4 [1, 100]
-0.1374052 -0.12608822 -0.13012344 0.12744734 0.13172396 -0.13267517 0.12663093 0.12914868
-0.13350521 -0.12986185 -0.12883632 0.12929092 0.12824228 0.12853989 -0.12836683 -0.12976651
-0.13206542 0.13118735 0.12936382 0.1274817 -0.1271815 2.2475999e-05 -0.11890263 -0.13020653
0.11537721 -0.10756245 0.12964697 -0.13242513 0.12965065 -0.12739897 -0.13575798 0.12674333
0.12574306 -0.12912929 -0.13087238 -0.1294912 -0.13154083 0.12833503 0.12973893 0.12299237
0.12813315 0.13229486 -0.1284445 -0.122524545 -0.13466412 -0.12086273 0.12561224 0.12541196
0.13035099 0.12938195 0.12769763 -0.13165571 0.12910531 0.13111544 0.13261628 -0.12994346
0.12742746 -0.12377731 0.12427369 0.12938203 -0.121747546 -0.13272473 0.12793395 -0.12969314
0.13073757 -0.12898007 -0.1273519 0.13214953 -0.12883769 0.13550225 0.13050862 4.0002824e-08
0.12596007 -0.12488141 -0.12596142 -0.13262309 0.12610528 -0.12538683 0.12626484 0.13072789
3.1906388e-06 0.12887755 0.13328499 0.12876411 0.12451147 0.11476073 -0.12991601 -0.109883964
0.12711805 -0.13091117 -0.13323152 0.116830714 0.12591816 0.12824638 0.13211744 0.12991643
-0.13457842 0.13345887 -0.12502709 -4.575638e-06
00000000: f3b3 0cbe 451d 01be 143f 05be 8e81 023e
00000010: a5e2 063e 00dc 07be 8aab 013e 8d3f 043e
00000020: 97b5 08be 81fa 04be abed 03be d764 043e
00000030: f251 033e f69f 033e 9872 03be 83e1 04be
00000040: 283c 07be fa55 063e f377 043e 908a 023e
00000050: de3b 02be d78a bc37 3983 f3bd dc54 05be
00000060: e34a ec3d b449 dcbd 2dc2 043e 749a 07be
00000070: 24c3 043e e074 02be 2404 0bbe 01c9 013e
00000080: cac2 003e 783a 04be 6903 06be 5799 04be
00000090: a4b2 06be 426a 033e 48da 043e 6ce3 fb3d
000000a0: 5635 033e 4e78 073e f486 03be 26ee fabd
000000b0: 64e5 09be e186 f7bd 7fa0 003e fe6b 003e
000000c0: bb7a 053e b47c 043e 2bc3 023e c1d0 06be
000000d0: 2f34 043e 2043 063e 90cc 073e e60f 05be
000000e0: 587c 023e f57e fdbd 3483 fe3d b97c 043e
000000f0: c756 f9bd fee8 07be 1e01 033e 47ce 04be
00000100: 12e0 053e 5a13 04be 8968 02be 3552 073e
00000110: 07ee 03be 1ac1 0a3e 0da4 053e 92cf 2b33
00000120: adfb 003e d3c1 ffbd 08fc 00be 59ce 07be
00000130: be21 013e 6865 00be 924b 013e 88dd 053e
00000140: c21e 5636 7af8 033e dc7b 083e bdda 033e
00000150: dfff fe3d ac07 eb3d b408 05be d80a e1bd
00000160: 3c2b 023e 940d 06be d86d 08be f144 ef3d
00000170: b1f0 003e 0553 033e cb49 073e d008 053e
00000180: edce 09be 71a9 083e 1a07 00be 6e88 99b6

fc1.weight f4 [100, 24]
-0.024308152 0.22243224 0.0033739863 -0.1370308 0.04569498 -0.029073896 0.1742315 -0.101305835
-0.07922501 0.20241627 -0.14398131 -0.0024333447 -0.14169621 -0.00915131 -0.14087927 0.06269115
-0.13647278 -0.1583248 -0.1385667 0.10256636 -0.13812408 0.16694278 0.06677338 0.211716
0.12964496 0.12133155 0.107964605 -0.110188015 -0.14119542 -0.13614891 -0.20791197 -0.2084189
-0.077287555 0.13403228 0.13753918 0.017171368 -0.074147254 -0.12939623 0.06618303 0.0015245974
0.1549465 -0.018191263 -0.052954108 -0.15728387 -0.11138475 0.0063914526 0.14846328 -0.1322055
0.17818223 -0.060045365 -0.17649423 0.0047594174 0.20855491 -0.051731776 -0.09021399 -0.022063876
0.0936465 -0.20040648 0.032572165 -0.030533522 0.014382333 -0.04103847 -0.07231605 -0.04327856
-0.056316003 -0.13460654 -0.17300546 -0.20299849 -0.08378723 -0.10165913 -0.10990481 0.11775636
0.09244037 -0.14338365 0.018914009 -0.14567873 0.00394804 0.13287076 -0.1570688 -0.11181872
-0.06903428 -0.1723868 0.16095951 0.18680397 -0.19828513 0.10636082 0.17428097 -0.04985395
-0.023952872 0.068677515 0.094787866 0.14626116 0.07196146 -0.045110464 -0.15738022 -0.047572915
-0.03761314 0.05016069 0.027753655 0.06675501 -0.11548088 -0.11508779 -0.04644122 -0.19272305
-0.10053375 -0.16513778 -0.19292879 -0.029473335 0.17257363 -0.013961151 -0.0014872104 -0.008670226
-0.006540939 0.15454754 -0.06687158 -0.10976623 0.18435624 -0.034838412 0.069434755 0.14864632
-0.12055855 -0.10455054 -0.16248226 -0.18799087 0.05436769 -0.20340544 -0.04793782 -0.013784142
0.03265222 0.07399571 0.17244154 -0.077443585 -0.17254117 0.025175333 0.14958793 -0.027063087
0.16056183 -0.09650545 -0.07253313 -0.06343526 -0.0643675 0.10581439 0.021235773 -0.038158834
-0.22124735 0.020945776 -0.104105435 -0.17011009 0.023381026 0.15998141 -0.13612512 -0.15050524
0.10409496 0.18290865 -0.1933351 -0.13922754 0.20048076 0.15442643 0.02912882 0.10926178
0.021771029 -0.11778597 -0.11758044 0.17305288 0.0101043135 0.060138624 0.08599494 0.00067250675
0.10171917 0.10404172 -0.15672432 -0.011519478 0.15616165 0.012485244 0.14472729 0.16025598
0.045654546 -0.113425456 0.07349771 0.08169246 -0.011307627 0.16403002 -0.079631485 0.032361984
-0.152095 -0.116669714 -0.08722923 -0.053563714 -0.17439996 0.07516541 -0.07887361 -0.10432548
-0.0112026455 0.10763345 0.071107134 0.040851716 0.058440987 0.10369457 0.02468352 0.10933958
0.0841802 0.1816127 0.1742895 0.048463494 -0.04423082 -0.18074106 -0.033203706 0.20353648
0.15871239 0.16041413 -0.0751777 -0.030540332 0.12533009 2.2175125e-05 0.024731642 -0.09124672
-0.080131024 0.05875483 0.026624836 0.13478579 -0.16287851 0.11646143 0.14169839 0.15935871
-0.008317946 -0.031300157 0.19015121 -0.12310607 0.09083539 -0.1886134 0.0072486997 0.048635185
0.05266142 -0.13044904 -0.11696787 0.08488697 0.14126459 0.027061723 -0.011593529 -0.1691669
-0.108769365 0.025539257 0.061504133 0.14100921 -0.13361552 -0.17421612 -0.13196504 -0.23571792
-0.12789075 -0.06176637 0.022790238 -0.0917225 0.015389383 0.13056195 0.058306754 -0.042467758
00000000: e421 c7bc 47c5 633e 191e 5d3b cd51 0cbe
00000010: a92a 3b3d 612c eebc be69 323e 6f79 cfbd
00000020: b940 a2bd 3646 4f3e d66f 13be c078 1fbb
00000030: d018 11be 60ef 15bc a842 10be 3864 803d
00000040: 85bf 0bbe e51f 22be 6ee4 0dbe 500e d23d
00000050: 6670 0dbe 0cf3 2a3e 7bc0 883d 14cc 583e
00000060: a6c1 043e ad7c f83d 8c1c dd3d 41aa e1bd
00000070: 8895 10be 9f6a 0bbe e0e6 54be c46b 55be
00000080: f048 9ebd c23f 093e 12d7 0c3e f8aa 8c3c
00000090: 84da 97bd 7280 04be f88a 873d 00d5 c73a
000000a0: 4caa 1e3e d805 95bc 68e6 58bd 060f 21be
000000b0: b01d e4bd 646f d13b c206 183e e160 07be
000000c0: 6775 363e 21f2 75bd e7ba 34be e3f4 9b3b
000000d0: 6b8f 553e b3e4 53bd 1dc2 b8bd 4dbf b4bc
000000e0: bcc9 bf3d 5b37 4dbe 646a 053d 7021 fabc
000000f0: e0a3 6b3c f417 28bd 701a 94bd dc44 31bd
00000100: 9cab 66bd 4cd6 09be 5828 31be d6de 4fbe
00000110: a498 abbd a932 d0bd c615 e1bd 3f2a f13d
00000120: 6051 bd3d 2ad3 12be 8df1 9a3c ce2c 15be
00000130: 8f5e 813b 460f 083e a5d6 20be 3701 e5bd
00000140: d861 8dbd 2a86 30be 92d2 243e 8a49 3f3e
00000150: 420b 4bbe b4d3 d93d b676 323e a833 4cbd
00000160: d038 c4bc cca6 8c3d 2420 c23d 7cc5 153e
00000170: 8860 933d c0c5 38bd 4828 21be d1db 42bd
00000180: 3c10 1abd 4c75 4d3d a25b e33c dab6 883d
00000190: 3d81 ecbd 26b3 ebbd 2639 3ebd 3159 45be
000001a0: a4e4 cdbd e119 29be 208f 45be 1072 f1bc
000001b0: 24b7 303e 50bd 64bc 80ee c2ba 900d 0ebc
000001c0: 6055 d6bb b641 1e3e f8f3 88bd 1ecd e0bd
000001d0: e2c7 3c3e b9b2 0ebd cf33 8e3d be36 183e
000001e0: 67e7 f6bd 981e d6bd c061 26be ae80 40be
000001f0: a8b0 5e3d 8449 50be 735a 44bd e2d6 61bc
00000200: 56be 053d 108b 973d 8494 303e be9a 9ebd
00000210: a2ae 30be 803c ce3c 942d 193e 68b3 ddbc
00000220: 526a 243e a6a4 c5bd 408c 94bd 58ea 81bd
00000230: 1cd3 83bd 37b5 d83d a5f6 ad3c 704c 1cbd
00000240: aa8e 62be 7a96 ab3c 3b35 d5bd 5731 2ebe
00000250: 9189 bf3c 2bd2 233e 6264 0bbe 0c1e 1abe
00000260: bd2f d53d 684c 3b3e a3f9 45be aa91 0ebe
00000270: d44a 4d3e f621 1e3e 909f ee3c a4c4 df3d
00000280: 2859 b23c c539 f1bd 04ce f0bd c634 313e
00000290: 908c 253c eb53 763d 1d1e b03d 2a4b 303a
000002a0: 2452 d03d d313 d53d 577c 20be 31bc 3cbc
000002b0: d7e8 1f3e e98e 4c3c 6433 143e 251a 243e
000002c0: 4300 3b3d 9b4b e8bd f885 963d 604e a73d
000002d0: a043 39bc 7cf7 273e d515 a3bd 008e 043d
000002e0: cbbe 1bbe 88f0 eebd 3da5 b2bd a065 5bbd
000002f0: e795 32be 53f0 993d 7d88 a1bd 99a8 d5bd
00000300: 4d8b 37bc ed6e dc3d 9ea0 913d 2154 273d
00000310: d15f 6f3d d25d d43d 1835 ca3c 6eed df3d
00000320: ab66 ac3d aef8 393e f278 323e a881 463d
00000330: 602b 35bd 2f14 39be 9c00 08bd de6b 503e
00000340: 8085 223e 9a43 243e c4f6 99bd b82f fabc
00000350: 8856 003e b804 ba37 039a ca3c 8fdf babd
00000360: bc1b a4bd e8a8 703d 541c da3c 4905 0a3e
00000370: a0c9 26be 5583 ee3d 6219 113e ee2e 233e
00000380: ff47 08bc 9834 00bd 00b7 423e 091f fcbd
00000390: e807 ba3d df23 41be 8086 ed3b b035 473d
000003a0: 80b3 573d 6f94 05be da8c efbd 38d9 ad3d
000003b0: aaa7 103e 8cb0 dd3c c9f2 3dbc 163a 2dbe
000003c0: 79c2 debd b437 d13c c2eb 7b3d b864 103e
000003d0: 82d2 08be b665 32be d821 07be 0a60 71be
000003e0: cbf5 02be bcfe 7cbd 98b2 ba3c 02d9 bbbd
000003f0: c023 7c3c 08b2 053e 10d3 6e3d acf2 2dbd
