gail/save_model/0/SUB069_ckpt_19.pth.tar (torch_old, 154735 bytes, 16 tensors)

fc1.weight f4 [100, 22]
0	0x3e0bcace	0.13651583
1	0xbecfe49b	-0.406041
2	0xbe367450	-0.17817807
3	0x3e614361	0.2199836
4	0x3eaa363b	0.332445
5	0x3c9d1070	0.019172877
6	0xbe36865f	-0.17824696
7	0x3d5bae2e	0.053632908
8	0x3dc7d471	0.09757317
9	0x3e02254c	0.1270954
10	0xbc8e3e00	-0.017363548
11	0x3e2e8638	0.17043388
12	0xbdd8b44e	-0.105812654
13	0x3ce24a18	0.027623221
14	0xbe4d2598	-0.20033872
15	0x3d226fc0	0.039657354
16	0x3d722570	0.059117734
17	0xbc0f3340	-0.008740246
18	0x3d33f178	0.043931454
19	0x3dcd58bc	0.1002669
20	0x3de339dc	0.1109502
21	0x3e291222	0.16510823
22	0x3e8b1a89	0.27168682
23	0x3e02bdcc	0.12767714
24	0xbeb5c755	-0.3550364
25	0x3dec8427	0.115486436
26	0x3edf2497	0.43582603
27	0xbdff9041	-0.12478686
28	0xbd2bd78e	-0.041953616
29	0x3e1391fc	0.14411157
30	0xbd96a467	-0.07355576
31	0xbc82a060	-0.015945613
32	0x3dd9ca80	0.10634327
33	0x3e408d42	0.18803886
34	0xbe3f4582	-0.18678859
35	0x3d56aa08	0.05240825
36	0x3e257cc8	0.16160882
37	0x3d425d88	0.04745248
38	0x3d74f2e0	0.059801936
39	0xbe4a9880	-0.19784737
40	0xbd13d860	-0.036095023
41	0xbdd759e8	-0.10515195
42	0x3e0a4c4c	0.13505667
43	0xbe5095c4	-0.20369631
44	0x3e080a56	0.13285193
45	0x3c0eda47	0.008719034
46	0x3e1c004d	0.1523449
47	0xb9b8b07c	-0.00035226706
48	0xbb0fea59	-0.002195975
49	0x3d514892	0.0510946
50	0xbe21dafa	-0.15806189
51	0xbd34b897	-0.04412135
52	0x3e2bc5ca	0.1677467
53	0x3d82e6f4	0.06391707
54	0x3d42e280	0.04757929
55	0x3e34fde2	0.17674974
56	0xbd90ac2a	-0.07064088
57	0xbd0061e0	-0.03134334
58	0x3df16a38	0.11787838
59	0x3e59def2	0.21276453
60	0x3d908ab4	0.070577055
61	0x3d3f2e70	0.046675146
62	0xbdcdd92b	-0.10051187
63	0x3c5ae400	0.0133600235
64	0xbce89908	-0.028393283
65	0x3cb67d70	0.02227661
66	0x3e046af0	0.12931418
67	0xbe14d256	-0.14533362
68	0x3e5f4d0d	0.21806736
69	0x3dd03ba7	0.10167628
70	0x3d88349b	0.06650659
71	0x3d9a9c63	0.0754936
72	0x3ed4fd70	0.41599607
73	0x3e67eaa4	0.22648102
74	0x3e78601a	0.2425541
75	0xbddada01	-0.10686112
76	0xbe1ae933	-0.15128021
77	0x3d40adc8	0.04704073
78	0x3e46c71a	0.19411889
79	0xbdebc545	-0.115122356
80	0xbdc08b80	-0.094016075
81	0x3e2450b8	0.16046417
82	0x3d8a207c	0.06744477
83	0x3e3c1e96	0.18371043
84	0x3cb18130	0.021668047
85	0xbe07395c	-0.13205475
86	0x3e28953e	0.16463181
87	0x3e4d02c2	0.20020583
88	0xbc86395b	-0.016384771
89	0x3cf8df23	0.030379837
90	0xbde7b20b	-0.11313256
91	0xbeccc0af	-0.39990756
92	0xbe883d8d	-0.2660946
93	0x3db849d9	0.0899846
94	0x3d83c528	0.06434089
95	0xbe407f42	-0.18798545
96	0x3e1cea15	0.1532367
97	0xbdf9fa24	-0.12205914
98	0x3e0b0d82	0.13579372
99	0x3bae6ae0	0.005322799
100	0x3dacb220	0.08432412
101	0xbcb98f88	-0.022651449
102	0x3dbc5468	0.09195787
103	0x3e285976	0.16440377
104	0xbe41cfed	-0.18926974
105	0x3e04e504	0.12977988
106	0x3e42a228	0.1900717
107	0x3dfa7a8c	0.12230405
108	0x3dd053b0	0.10172212
109	0xbd3a6524	-0.04550661
110	0xbebc6c3e	-0.36801332
111	0x3e0174d9	0.1264223
112	0x3e512d37	0.20427404
113	0xbe68c564	-0.22731549
114	0xbe48e3cf	-0.19618152
115	0x3e8d1999	0.27558592
116	0xbc486317	-0.012230656
117	0x3e7e339a	0.24824372
118	0x3e316274	0.17322713
119	0x3df6990c	0.1204091
120	0xbd257b48	-0.040400773
121	0xbda400ba	-0.08007951
122	0xbd24b9a8	-0.040216118
123	0x3d7014a8	0.05861345
124	0x3d172a90	0.036905825
125	0x3e548b58	0.2075628
126	0x3e456704	0.19277579
127	0x3d0331dc	0.03202997
128	0xbd0a50b8	-0.033768386
129	0xbd07d694	-0.033163622
130	0xbd6e3280	-0.05815363
131	0x3ded1fb8	0.115783155
132	0xbe82cd1b	-0.25547108
133	0x3e8006bc	0.25005138
134	0x3dee438e	0.11633979
135	0xbca08808	-0.019596115
136	0x3e503f9a	0.20336762
137	0x3e118c72	0.14213732
138	0x3e6d61bb	0.23181812
139	0x3e14fb04	0.1454888
140	0x3eb405cd	0.35160676
141	0x3ac09380	0.0014692396
142	0x3db6bd4c	0.08922824
143	0x3dbd2d34	0.092371374
144	0x3db0d350	0.08634055
145	0xbe02cfc7	-0.12774573
146	0x3e09a712	0.13442639
147	0xbd77fa00	-0.060541153
148	0xbd57532c	-0.052569553
149	0x3ca354d0	0.019937903
150	0x3e171e2a	0.147576
151	0x3e1c4a3e	0.15262696
152	0xbd9c9ac8	-0.0764671
153	0x3b893c40	0.0041880906
154	0xbe7c939c	-0.24665684
155	0xbd0b65ec	-0.034032747
156	0x3de76115	0.11297814
157	0x3d946f71	0.07247818
158	0x3e0ff57a	0.14058486
159	0x3d444deb	0.04792587
160	0x3e9b6605	0.30351272
161	0x3e8dee3f	0.2772083
162	0x3ddb03a2	0.10694052
163	0x3c304520	0.010758668
164	0x3dd26964	0.10274008
165	0xbd13acd4	-0.036053494
166	0xbde967cb	-0.1139675
167	0x3da7c0a4	0.0819104
168	0x3ddc56b0	0.10758722
169	0x3e0fa396	0.14027247
170	0x3d24b390	0.040210307
171	0xbde231cb	-0.110446535
172	0xbd69ee58	-0.057112068
173	0x3e09e6b0	0.13466907
174	0x3dae959c	0.085246295
175	0xbd54a8b4	-0.0519187
176	0x3d70d936	0.0588009
177	0xbf28e0dd	-0.65968114
178	0xbef20d42	-0.4727574
179	0x3eb1c6be	0.3472194
180	0x3d96915e	0.07351945
181	0xbd70bf7b	-0.05877636
182	0xbed16507	-0.4089739
183	0xbd63f892	-0.055656977
184	0xbd8f0c05	-0.069847144
185	0x3e039058	0.12848032
186	0x3e446eec	0.19182938
187	0x3b018fc0	0.001976952
188	0xbe2cbe27	-0.16869412
189	0x3c97c9d8	0.018528864
190	0xbe58b8b9	-0.21164216
191	0x3d06d408	0.032917053
192	0xbe0fc1de	-0.14038798
193	0x3df65e04	0.12029651
194	0x3de26ac4	0.1105552
195	0xbd41c814	-0.04730995
196	0xbde933d0	-0.113868356
197	0xbdfc8397	-0.12329786
198	0x3e8f81b9	0.28028658
199	0x3d9f92db	0.07791682
200	0x3d9f6c66	0.07784347
201	0x3def69d1	0.11690105
202	0x3da36883	0.079789184
203	0x3e095f28	0.13415205
204	0xbbe06f15	-0.0068491795
205	0x3d3ae987	0.045632865
206	0xbdc1e16a	-0.094668224
207	0xbe2dec38	-0.16984642
208	0x3e4d9c1c	0.20079082
209	0xbdb56938	-0.088579595
210	0x3e410834	0.18850785
211	0xbe31e173	-0.17371158
212	0x3d1cc130	0.038270175
213	0x3e49284c	0.19644278
214	0xbe56d6ce	-0.20980379
215	0xbe38ef86	-0.18060121
216	0xbe1c5d41	-0.15269949
217	0xbcfb1b88	-0.030652776
218	0x3d5330f0	0.051560342
219	0xbe4835f6	-0.19551834
220	0x3d3bdc77	0.04586455
221	0xbe858fcd	-0.26086274
222	0xbe8cc6b0	-0.27495337
223	0x3e9e6ee8	0.3094399
224	0x3e65915a	0.22418728
225	0x3d3d6971	0.046243135
226	0xbd6a1236	-0.057146274
227	0x3c6fd964	0.014639232
228	0x3d06d6e2	0.032919772
229	0xbd916b98	-0.071006
230	0xbe38156d	-0.17976923
231	0x3e217b94	0.15769798
232	0x3caf4068	0.021393016
233	0x3df8a16c	0.12140164
234	0x3e0b89cc	0.13626784
235	0x3e47a54c	0.1949665
236	0xbe311b05	-0.17295463
237	0xbdc448ff	-0.095842354
238	0x3d6ca7a8	0.057777077
239	0xbd2943a8	-0.041324288
240	0x3def6888	0.1168986
241	0xbc832c20	-0.016012251
242	0x3d757637	0.05992719
243	0xbe9c46f5	-0.30522886
244	0x3d622661	0.055212382
245	0x3f1078f1	0.5643454
246	0x3ef3b343	0.47597703
247	0x3e07f9b5	0.1327885
248	0xbe017abc	-0.12644476
249	0xbd9a0fd5	-0.07522551
250	0xbd6dc438	-0.058048457
251	0x3d8c75f4	0.06858435
252	0xbe4bf652	-0.19918182
253	0x3e0f1a92	0.1397498
254	0x3d40b450	0.04704696
255	0x3d07b514	0.033131674

fc1.bias f4 [100]
0	0x3daa8448	0.08326012
1	0x3be797f5	0.0070676752
2	0x3dce3c5b	0.10070106
3	0xbec024d6	-0.37528104
4	0x3d0d1067	0.03443947
5	0xbe97ace2	-0.29624087
6	0xbebab6be	-0.36467546
7	0xbd5ef403	-0.054431926
8	0x3e0558f9	0.13022222
9	0x3caf664a	0.02141108
10	0x3d0731dd	0.033006538
11	0xbe0086bf	-0.12551402
12	0x3ebb8494	0.36624587
13	0xbe441e40	-0.19152164
14	0xbe4baf79	-0.19891156
15	0xbcf4e93e	-0.029896375
16	0x3daf30f5	0.0855426
17	0xbdd50702	-0.10401727
18	0x3e852fcd	0.26013032
19	0xbe463616	-0.1935657
20	0x3c9580cc	0.018249892
21	0xbe7293ab	-0.23689143
22	0xbdb6cd17	-0.089258365
23	0x3df3b7b6	0.119002745
24	0x3d77f117	0.060532656
25	0xbe8b1d24	-0.2717067
26	0x3e822da7	0.25425455
27	0xbe220e24	-0.15825707
28	0x3e5e0769	0.21682514
29	0xbeaa27ab	-0.3323339
30	0xbcdf6029	-0.027267532
31	0x3d7ff3d4	0.062488392
32	0xbdc335fb	-0.0953178
33	0xbdd6be46	-0.104855105
34	0x3e616ee8	0.22014964
35	0xbe9684b4	-0.2939812
36	0x3e4dbe36	0.20092091
37	0x3df64b3e	0.1202607
38	0xbe9c52e4	-0.3053199
39	0x3e675808	0.22592175
40	0xbd94945d	-0.072548606
41	0xbe9689fa	-0.29402143
42	0xbe0e0326	-0.13868389
43	0x3de21db2	0.1104082
44	0x3e447fe5	0.19189413
45	0xbed510f7	-0.41614506
46	0xbe0c0413	-0.13673429
47	0x3e619f9c	0.22033542
48	0x3e4623bc	0.19349569
49	0xbdb2266b	-0.08698734
50	0xbd39dcba	-0.045376517
51	0x3e638ecd	0.22222443
52	0xbe304223	-0.17212729
53	0xbd3e8e77	-0.046522584
54	0x3dd86241	0.105656154
55	0xbe87715a	-0.26453668
56	0x3ea7363a	0.3265856
57	0xbe4ec083	-0.20190625
58	0xbdd3c8bb	-0.10341021
59	0x3e460d68	0.19341052
60	0xbee4e065	-0.4470245
61	0x3e60bd3d	0.21947189
62	0x3e9a7c48	0.30172944
63	0xbe428f39	-0.18999948
64	0xbe3914bf	-0.1807432
65	0x3d9ec5ef	0.077525966
66	0x3cef69af	0.029225199
67	0xbca01d42	-0.019545201
68	0x3e44a713	0.19204359
69	0x3d732641	0.059362654
70	0xbe362e8a	-0.1779119
71	0xbe8048e1	-0.25055602
72	0x3d77f251	0.060533825
73	0x3e4aeb5f	0.1981635
74	0x3e32c229	0.17456879
75	0xbd571eb6	-0.052519523
76	0xbb90ce63	-0.0044191345
77	0x3e2dd5c4	0.16976076
78	0x3db9b16a	0.09067042
79	0xbe453d2d	-0.19261618
80	0xbe836b60	-0.25667858
81	0x3e4103e2	0.18849137
82	0x3d06b5f8	0.032888383
83	0x3e9c06d1	0.3047395
84	0x3ed58cbc	0.41708934
85	0xbe9b42f8	-0.3032453
86	0x3e004c5b	0.12529127
87	0x3c454cbb	0.01204222
88	0x3d7f8d7e	0.062390797
89	0x3e9235a3	0.28556547
90	0x3eb0475d	0.34429446
91	0xbd3e70f5	-0.046494443
92	0xbe8ce68f	-0.27519652
93	0x3e2e537e	0.17024037
94	0xbdc4fbc9	-0.09618337
95	0x3e3ecfb3	0.18633918
96	0xbe2d718d	-0.16937847
97	0xbe0e940d	-0.13923664
98	0x3e9cdfd4	0.30639517
99	0x3d0d3535	0.03447457

fc2.weight f4 [100, 100]
0	0xbe1fba94	-0.15598518
1	0x3df00f1e	0.117216334
2	0x3f52f69b	0.8240754
3	0xbefe978b	-0.49724993
4	0xbf5eea4a	-0.87076247
5	0xbf1d5c5d	-0.6146906
6	0xbe2dd966	-0.16977462
7	0xbebfdddc	-0.37473953
8	0xbe2e68c9	-0.1703216
9	0x3f1737b4	0.5906937
10	0xbec855ee	-0.3912806
11	0xbe8f6c00	-0.28012085
12	0x3dcde137	0.10052722
13	0x3e29c167	0.16577683
14	0x3d04b000	0.03239441
15	0x3f6759d7	0.9037146
16	0xbe6271c1	-0.22113706
17	0x3ecd9833	0.4015518
18	0x3effed77	0.4998586
19	0xbe4c30a4	-0.1994043
20	0x3e3bc5bf	0.18337153
21	0xbefc4e08	-0.49278283
22	0xbf18689a	-0.5953461
23	0xbcddb395	-0.02706317
24	0x3d983fa0	0.074340105
25	0x3e2fddaf	0.1717441
26	0x3f0c7e55	0.5488027
27	0xbe74fbf2	-0.23924235
28	0x3e69cafa	0.22831336
29	0xbcc67ef1	-0.024230452
30	0xbf84e063	-1.0380977
31	0x3e208397	0.15675198
32	0xbe999960	-0.29999828
33	0xbd989392	-0.07450022
34	0x3e94a146	0.29029292
35	0xbf3e8f0f	-0.7443704
36	0x3e15a85e	0.14615008
37	0x3f7741bc	0.9658468
38	0xbd8cef85	-0.06881622
39	0x3eeb82a1	0.459981
40	0xbed88f9b	-0.42297062
41	0xbe50f041	-0.2040415
42	0xbf0d488b	-0.55188817
43	0xbedca918	-0.43097758
44	0x3e9a7e5c	0.3017453
45	0x3cb9f37e	0.022699114
46	0xbec560e5	-0.38550487
47	0xbe88da4f	-0.26729056
48	0xbca8aa50	-0.020589024
49	0xbf20ff6b	-0.62889737
50	0xbeb957ee	-0.36199898
51	0x3ee31fcc	0.44360197
52	0xbfd2c59a	-1.6466553
53	0xbf4b7403	-0.79473895
54	0x3f81fde0	1.0155602
55	0xbf47a211	-0.7798167
56	0x3e2877bf	0.1645193
57	0xbf64a9ea	-0.8932177
58	0x3e2311e5	0.15924795
59	0xbe97acc8	-0.2962401
60	0xbd91f75b	-0.071272574
61	0x3e5d9a3c	0.21640867
62	0x3e20734f	0.15668987
63	0xbdaf3c30	-0.08556402
64	0xbec9fd6d	-0.3945116
65	0x3f18f1b8	0.59743834
66	0xbf1213dd	-0.5706156
67	0xbf39709f	-0.7243747
68	0x3d149eab	0.03628413
69	0xbd833535	-0.06406633
70	0xbe8e836e	-0.27834648
71	0xbdb3cfb3	-0.0877985
72	0x3f1534d6	0.58283746
73	0x3e3bf069	0.18353428
74	0x3ed9c49c	0.42532814
75	0xbe7b1599	-0.24519958
76	0x3eb3175f	0.34978768
77	0x3ed0ea23	0.40803632
78	0x3eafe27c	0.3435248
79	0xbe4c9ac5	-0.19980915
80	0xbeabadcd	-0.33531037
81	0xbdb3796d	-0.087633945
82	0x3f5fd49e	0.87433803
83	0x3f054c41	0.5206948
84	0x3e075342	0.13215354
85	0xbf2ee13d	-0.68312436
86	0x3f1a8e73	0.6037361
87	0x3f15c850	0.5850878
88	0xbf24399c	-0.64150405
89	0x3f06d894	0.5267422
90	0x3d6ed1a0	0.058305383
91	0xbde841f9	-0.11340708
92	0xbf2a19e3	-0.6644575
93	0x3f962f78	1.1733236
94	0xbe570ea7	-0.21001683
95	0x3ed4b4fd	0.41544333
96	0x3e00fa3a	0.12595454
97	0x3c0957bd	0.008382735
98	0x3e33fb1a	0.17576256
99	0x3f764d23	0.9621145
100	0x3e8c4994	0.27399886
101	0x3ebd4def	0.3697352
102	0x3e02e2f8	0.12781894
103	0xbbda9256	-0.0066702766
104	0xbd5a4ece	-0.05329781
105	0xbeb79b3b	-0.3586062
106	0xbe6f07c9	-0.23342814
107	0xbd861838	-0.06547588
108	0x3dc97fdd	0.09838841
109	0x3e156c1e	0.14592025
110	0x3db0da0a	0.08635338
111	0xbca0644d	-0.019579077
112	0x3eaa41c5	0.33253303
113	0xbe3f1323	-0.18659644
114	0xbed54f4c	-0.4166206
115	0x3d989cb6	0.07451765
116	0x3e236f7c	0.15960497
117	0x3e145142	0.14484122
118	0x3ed0f8a2	0.40814692
119	0xbee8c51e	-0.45462888
120	0xbde61d60	-0.112360716
121	0xbe5ca406	-0.21546945
122	0xbd024dad	-0.03181236
123	0xbea84e7c	-0.3287238
124	0x3f1728d0	0.5904665
125	0xbe08640d	-0.13319416
126	0x3e6dce2c	0.2322318
127	0x3eb1a59e	0.34696668
128	0x3ec91a64	0.39277947
129	0xbe8d419d	-0.2758912
130	0xbd2b2c87	-0.04179051
131	0x3eeb0691	0.45903447
132	0xbe790894	-0.24319679
133	0xbc82dd66	-0.015974712
134	0x3e70e030	0.2352302
135	0xbe38942c	-0.18025273
136	0xbe4472e3	-0.19184451
137	0xbd4c5e38	-0.04989454
138	0xbe996dd3	-0.29966602
139	0x3eb17b58	0.34664416
140	0xbe354f60	-0.1770606
141	0xbe8c91f7	-0.27455112
142	0xbda95aac	-0.082692474
143	0xbe143ed0	-0.14477086
144	0x3e7dff68	0.24804461
145	0xbec847c0	-0.3911724
146	0xbee2d1f7	-0.44300815
147	0x3cdc4867	0.026889993
148	0x3e8e4dc9	0.2779372
149	0xbe80d685	-0.25163665
150	0x3e589eb2	0.21154287
151	0x3e8f2390	0.2795682
152	0xbee6683a	-0.45001394
153	0xbe00f610	-0.12593865
154	0x3dd56ff3	0.10421743
155	0xbca8442d	-0.020540321
156	0x3df225dc	0.11823627
157	0xbde8d9dd	-0.11369679
158	0xbe5e4266	-0.21705016
159	0xbc858eb4	-0.016303398
160	0xbe51db91	-0.20493914
161	0x3d5ab00c	0.053390548
162	0x3ee0721d	0.43837062
163	0x3f2b99ac	0.6703136
164	0xbed2d9c1	-0.41181758
165	0xbd509f2e	-0.050933056
166	0x3e97e486	0.29666537
167	0x3e323314	0.17402297
168	0x3ea4ad9e	0.3216371
169	0x3e8cc385	0.2749292
170	0xbef13307	-0.47109243
171	0xbec19740	-0.37810707
172	0x3e41c8cd	0.18924256
173	0x3e7dcc89	0.24785055
174	0xbe679f20	-0.22619295
175	0x3d5e36a9	0.054251347
176	0x3e89d3c5	0.2691938
177	0x3eae77a5	0.34075657
178	0x3d94270e	0.072340116
179	0xbe898f89	-0.2686732
180	0xbeb940de	-0.36182302
181	0x3e7babe2	0.24577287
182	0xbd00f13e	-0.031480066
183	0x3ec96d11	0.39341024
184	0x3ef972db	0.4872044
185	0x3e3d6841	0.18496801
186	0xbe9139fe	-0.28364557
187	0xbc6adeba	-0.014335329
188	0x3de2165d	0.11039422
189	0x3e609e8c	0.21935481
190	0x3e8c2709	0.2737353
191	0xbd13db9f	-0.03609812
192	0x3d66249e	0.056187265
193	0x3e3ae384	0.18250853
194	0xbefe1528	-0.49625516
195	0x3de414d8	0.11136788
196	0xbe9c4348	-0.30520082
197	0xbec24487	-0.37942907
198	0x3ed7107b	0.4200476
199	0x3c81f725	0.015864918
200	0xbd1aad68	-0.03776303
201	0x3d770d19	0.060315225
202	0x3f62ccce	0.8859376
203	0xbf0195c0	-0.50619125
204	0xbf7de4e4	-0.99177384
205	0xbf391549	-0.72298104
206	0xbe36c526	-0.17848644
207	0xbeef0194	-0.46680892
208	0xbe94f544	-0.29093373
209	0x3f48515e	0.78249156
210	0xbe8a73a6	-0.27041358
211	0xbda2f4ab	-0.07956823
212	0x3e39e8ba	0.18155184
213	0x3e7f25c0	0.24916744
214	0x3db5501c	0.0885317
215	0x3f846541	1.03434
216	0xbf065ce8	-0.52485514
217	0x3ea11416	0.31460637
218	0x3f03bef8	0.5146327
219	0xbe55196b	-0.20810477
220	0x3ef0b82f	0.4701552
221	0xbef1b513	-0.4720846
222	0xbf1b37fd	-0.60632306
223	0xbd9f12d4	-0.07767263
224	0x3d864524	0.06556156
225	0x3e212d45	0.15739925
226	0x3f253cbd	0.64545804
227	0xbe4bf353	-0.1991704
228	0x3ebff4bd	0.37491408
229	0xbdb8e812	-0.09028639
230	0xbf89b0cf	-1.0757083
231	0x3e4537a7	0.19259511
232	0xbe959fb2	-0.292234
233	0x3d56c05c	0.052429542
234	0x3ebe5086	0.3717081
235	0xbf4319ce	-0.7621125
236	0x3e8db91d	0.27680293
237	0x3f8555c0	1.0416794
238	0x3c0b899f	0.008516698
239	0x3eec1cd2	0.46115738
240	0xbf04d4ea	-0.5188738
241	0xbdba7d10	-0.09105885
242	0xbf03a4c5	-0.51423293
243	0xbf21bf0c	-0.6318214
244	0x3f0638f6	0.52430665
245	0xbcf117ec	-0.029430352
246	0xbf18cafb	-0.59684724
247	0xbebac0c7	-0.36475202
248	0xbdf420a4	-0.11920288
249	0xbf21fb7b	-0.63274354
250	0xbe9f0ad5	-0.31062952
251	0x3ee61f8a	0.44945937
252	0xbfb9e6af	-1.4523524
253	0xbf3ce31b	-0.73784035
254	0x3f7bbcf3	0.9833519
255	0xbf623471	-0.8836127

fc2.bias f4 [100]
0	0x3f94acdf	1.1615256
1	0x3e624127	0.22095166
2	0x3f95077d	1.164291
3	0xbfaadad7	-1.3348035
4	0x3fa7f262	1.3120844
5	0x3efc0f7c	0.49230564
6	0x3e4abb2a	0.1979796
7	0x3e8833a2	0.26601893
8	0xbf00af1e	-0.5026721
9	0x3f565393	0.83721274
10	0xbe58bf6c	-0.21166772
11	0x3f9107c5	1.1330496
12	0x3f7d4f5f	0.98949236
13	0x3ee95d6a	0.45579082
14	0xbf8be9fa	-1.0930779
15	0x3f96b4c7	1.1773919
16	0xbe6faef6	-0.23406586
17	0x3e687ef0	0.22704673
18	0xbfa73456	-1.3062847
19	0xbf9b55e5	-1.2135588
20	0x3ef1f1ed	0.47254887
21	0xbf6d9aab	-0.9281413
22	0x3e706ae1	0.23478271
23	0x3ef74bb1	0.48299935
24	0x3e0666ca	0.13125148
25	0x3f9cb7a8	1.2243547
26	0x3f9e528d	1.2368942
27	0x3f8cba0e	1.0994279
28	0x3fa5359c	1.2906985
29	0x3cdf8ec9	0.027289765
30	0xbe5abd85	-0.21361358
31	0x3fab7b18	1.339694
32	0x3f9c1d7d	1.2196499
33	0xbfa36c92	-1.2767508
34	0xbfa802d4	-1.3125863
35	0xbe339825	-0.17538507
36	0xbe536007	-0.206421
37	0x3fa09ea2	1.2548411
38	0xbe84786a	-0.2587312
39	0x3fa51361	1.2896539
40	0xbdc5d83c	-0.09660384
41	0xbe826965	-0.25471035
42	0xbe6ed974	-0.2332514
43	0x3f130f2d	0.5744503
44	0x3e76a1d6	0.24085173
45	0x3e34b0bc	0.17645544
46	0x3e91cf1d	0.28478327
47	0x3fa2f14a	1.2729886
48	0x3eb60f0a	0.3555835
49	0xbfa47a3f	-1.2849807
50	0xbeaed4e6	-0.34146804
51	0xbfa5b49f	-1.2945746
52	0xbe4c474f	-0.19949077
53	0x3eb0c63b	0.34526238
54	0x3f89469f	1.0724677
55	0x3f33be05	0.7021182
56	0xbe866e2b	-0.26255926
57	0x3f92840d	1.1446549
58	0xbf9f2246	-1.2432334
59	0xbf9b60a8	-1.2138872
60	0x3f9a9d1a	1.2079194
61	0x3fa82498	1.3136168
62	0x3fa1cd06	1.2640693
63	0x3fa1b5a4	1.2633557
64	0x3e73c1f7	0.2380446
65	0xbf0e2172	-0.55519783
66	0xbe2301b8	-0.15918624
67	0xbf8ddc0a	-1.1082776
68	0xbe55d35a	-0.20881405
69	0xbeda178a	-0.42596084
70	0xbf91ea79	-1.139968
71	0xbf8a1fe2	-1.079098
72	0x3fa5465b	1.2912096
73	0x3f9fce20	1.2484779
74	0xbfa29904	-1.2702947
75	0x3e5f7982	0.21823695
76	0xbf9b4030	-1.2128963
77	0xbf8ce58f	-1.1007556
78	0x3e734ed6	0.23760542
79	0xbe77f926	-0.24216136
80	0xbfa117f8	-1.258544
81	0xbe060a64	-0.13089901
82	0x3e46e896	0.19424662
83	0xbdf5a3c9	-0.1199413
84	0xbf91251e	-1.1339452
85	0x3f9f43bd	1.2442547
86	0x3de4e664	0.11176756
87	0xbf98dabf	-1.1941756
88	0x3f9021d5	1.1260325
89	0x3ea0e330	0.3142333
90	0x3f9b05e7	1.2111176
91	0xbf89420d	-1.0723282
92	0x3fa2b84b	1.2712492
93	0xbe8f7dcf	-0.28025672
94	0xbf9c1690	-1.2194386
95	0xbfaac7b6	-1.3342197
96	0x3f97e110	1.1865559
97	0xbfa0ffa5	-1.2578017
98	0xbfa47e5c	-1.2851062
99	0xbf794fbd	-0.97387296

fc3.weight f4 [2, 100]
0	0xbfc7718d	-1.5581528
1	0xbfca9e34	-1.582953
2	0xbfd24528	-1.6427355
3	0x3fd073dc	1.6285357
4	0xbfd13270	-1.6343517
5	0xbfca3f62	-1.5800593
6	0xbebcddd2	-0.36887985
7	0xbfa06a7e	-1.2532499
8	0x402fb576	2.7454505
9	0xbfccfd55	-1.6014811
10	0x3ed39bf2	0.41329914
11	0xbfd47e92	-1.6601126
12	0xbfcd3f53	-1.603495
13	0xbfd31554	-1.6490884
14	0x3fc73528	1.5563097
15	0xbfdb68b1	-1.7141324
16	0x3ebeaa32	0.37239224
17	0xbfe93d7a	-1.8221886
18	0x3fd27341	1.6441423
19	0x3fd18e7e	1.637161
20	0xc0675b92	-3.614964
21	0x3fcca672	1.5988295
22	0xbfe0d15c	-1.7563891
23	0xc0155904	-2.333558
24	0xbfc73e92	-1.556597
25	0xbfd17356	-1.6363323
26	0xbfcfad86	-1.622483
27	0xbfcbcf65	-1.5922667
28	0xbfcbd605	-1.5924689
29	0x3fac28aa	1.344991
30	0x3ec2c0d2	0.38037735
31	0xbfd33ed4	-1.6503549
32	0xbfd5107c	-1.6645656
33	0x3fd3d9ca	1.6550839
34	0x3fd1edc6	1.6400688
35	0x3ecec13c	0.403818
36	0x3f3c8ce2	0.7365247
37	0xbfd2eeea	-1.6479161
38	0x3fc965be	1.5734174
39	0xbfd2573a	-1.643287
40	0x3fc42d8e	1.5326402
41	0x3fc1ba58	1.5134993
42	0x3ef3ff12	0.4765554
43	0xbfd1f8e9	-1.6404086
44	0x3fc4b4b6	1.5367649
45	0x3fc13142	1.5093157
46	0xbfd10e32	-1.6332457
47	0xbfd1f7f6	-1.6403797
48	0x3ffa4332	1.9551756
49	0x3fd3408a	1.6504071
50	0x3fc801c4	1.5625539
51	0x3fd1917c	1.6372523
52	0xbfc5316c	-1.5405707
53	0xc014c1f7	-2.3243387
54	0xbfcebb14	-1.6150842
55	0xc05542d2	-3.3322034
56	0xbfc1f81a	-1.515384
57	0xbfd02e1e	-1.6264074
58	0x3fd8aeb4	1.6928315
59	0x3fd2d75c	1.6471972
60	0xbfd1d1b4	-1.6392121
61	0xbfd261c6	-1.6436088
62	0xbfd9a0dc	-1.7002215
63	0xbfc8fcf1	-1.5702192
64	0x3fb8134a	1.4380887
65	0x402f6525	2.7405484
66	0xc04389bd	-3.0552819
67	0x3fcacbac	1.5843406
68	0x3fd24e4e	1.6430147
69	0x4015a24a	2.3380303
70	0x3fd2d644	1.6471639
71	0x3fce495f	1.6116141
72	0xbfcda3d0	-1.6065617
73	0xbfd9deaa	-1.7021077
74	0x3fc92e7f	1.5717314
75	0x3fc0ffec	1.5078101
76	0x3fd22b3d	1.6419445
77	0x3fce2c33	1.6107239
78	0xbeae6ee4	-0.34068978
79	0xc03cc06c	-2.9492445
80	0x3fd40372	1.6563551
81	0xbfc4ad02	-1.5365298
82	0xbeafe2f4	-0.3435284
83	0x3feb2964	1.8372006
84	0x3fceda33	1.6160339
85	0xbfd2f522	-1.6481059
86	0xbe85e713	-0.26152858
87	0x3fd015cc	1.6256652
88	0xbfc9ca84	-1.5764928
89	0xbfbf1020	-1.4926796
90	0xbfcd2fb2	-1.603018
91	0x3fcb109f	1.5864447
92	0xbfd08db4	-1.6293244
93	0x3fcb37ba	1.5876381
94	0x3fd9b408	1.7008066
95	0x3fd2bdfa	1.6464226
96	0xbfd371d6	-1.6519115
97	0x3fcea7ab	1.6144918
98	0x3fd58bce	1.668329
99	0x3fcc58dd	1.5964619
100	0xbfc87658	-1.5661116
101	0xbfd6629d	-1.6748844
102	0xbfc69657	-1.551463
103	0x3fceb389	1.614854
104	0xbfcb3ba2	-1.5877573
105	0xbfd1cfe5	-1.6391569
106	0xc01dac01	-2.4636233
107	0xc0005b0a	-2.0055566
108	0x4007ea8d	2.1236908
109	0xbfba7be1	-1.4569055
110	0x400fe151	2.2481272
111	0xbfcfc725	-1.6232649
112	0xbfba8b26	-1.4573715
113	0xbfbb0eda	-1.4613907
114	0x3fca557a	1.5807335
115	0xbfc24cc5	-1.5179678
116	0x401abca3	2.4177635
117	0xc00ba2c6	-2.18181
118	0x3fcf593d	1.6199108
119	0x3fcf426d	1.6192147
120	0xc02c1edd	-2.6893837
121	0x3fba82bf	1.457115
122	0xbfc6709c	-1.5503116
123	0xbfe8ea39	-1.8196479
124	0xbfea7f05	-1.8320013
125	0xbfcdaf99	-1.6069213
126	0xbfcf797e	-1.6208951
127	0xbfbc46bc	-1.4709086
128	0xbfcd1df9	-1.6024772
129	0x4032160c	2.7825956
130	0x40205bf3	2.5056121
131	0xbfd03dd3	-1.6268867
132	0xbfc01d81	-1.5009004
133	0x3fce97d7	1.6140088
134	0x3fd06fbb	1.6284097
135	0x40103551	2.2532542
136	0x4029204d	2.6425965
137	0xbfce8e6f	-1.6137217
138	0x3fe9caae	1.8264978
139	0xbfc4ace7	-1.5365266
140	0x3feb941b	1.8404573
141	0x3fe99d11	1.8251058
142	0x4035dd89	2.8416464
143	0xbfb85aa9	-1.4402667
144	0x401950b1	2.39555
145	0x401ae5d9	2.4202788
146	0xbfbebebc	-1.4901958
147	0xbfcf87a5	-1.621327
148	0x400c2037	2.1894662
149	0x3fcdc541	1.6075822
150	0x3fdcd7e1	1.7253381
151	0x3fc5f385	1.5464941
152	0xc01abaa9	-2.4176428
153	0xbfde7496	-1.7379329
154	0xbfbc2640	-1.4699173
155	0xc02be93c	-2.6861105
156	0xc019bf47	-2.4022996
157	0xbfbd5b76	-1.4793537
158	0x3fcb8618	1.5900297
159	0x3fc8bdef	1.5682963
160	0xbfcfbcaa	-1.6229451
161	0xbfcfff79	-1.6249839
162	0xbfc9c1fa	-1.5762322
163	0xbfc9e734	-1.5773683
164	0x4019a51d	2.4007027
165	0x400e3e68	2.222559
166	0xbf61ec8b	-0.8825156
167	0x3fc6b9f7	1.5525502
168	0x3fc17e4d	1.5116669
169	0x3fe5cbdc	1.7952838
170	0x3fc79a51	1.5593969
171	0x3fbc97c0	1.473381
172	0xbfc5f219	-1.5464507
173	0xbfc99cb9	-1.5750953
174	0x3fc993bd	1.5748211
175	0x40140425	2.312753
176	0x3fbf7878	1.4958639
177	0x3fbac014	1.4589868
178	0xbfe167cf	-1.7609805
179	0xc025268f	-2.5804784
180	0x3fcef1fb	1.6167597
181	0xc013af25	-2.307565
182	0xc024ff5b	-2.5780857
183	0x400696bc	2.10295
184	0x3fc78c4c	1.558969
185	0xbfcfb179	-1.6226035
186	0xc0247913	-2.5698898
187	0x3fbd3578	1.4781942
188	0xbfc67958	-1.5505781
189	0xbfd9b823	-1.7009319
190	0xbfd09c2b	-1.6297659
191	0x3fbd5a05	1.4793097
192	0xbfd2fd45	-1.6483542
193	0x3fdbd40a	1.7174084
194	0x3fc27248	1.5191126
195	0x3fce5eb5	1.6122652
196	0xbfd01625	-1.6256758
197	0x3fd2cf70	1.6469555
198	0x3fce268d	1.6105515
199	0x3fbbb8bc	1.4665751

fc3.bias f4 [2]
0	0xbfb98cff	-1.4496154
1	0xbfba4f87	-1.455552

fc1.weight f4 [100, 22]
0	0x36a5c8e7	4.9407713e-06
1	0x3517752e	5.64224e-07
2	0x344f237f	1.929129e-07
3	0x368a9fc6	4.1313206e-06
4	0x35aa5f3d	1.2693705e-06
5	0xb5df2ffe	-1.6628762e-06
6	0xb6587585	-3.2254914e-06
7	0xb58a7b47	-1.031768e-06
8	0xb5c776a1	-1.4861181e-06
9	0x80009cbb	-5.6224e-41
10	0x00026d09	2.22785e-40
11	0x00081b1f	7.44413e-40
12	0x000447f1	3.9315e-40
13	0x800c365f	-1.12153e-39
14	0x00090d34	8.31256e-40
15	0x8012ba7a	-1.719934e-39
16	0x00082d2b	7.50887e-40
17	0x8005350c	-4.78207e-40
18	0x8009b25d	-8.90504e-40
19	0x8016d6ec	-2.09748e-39
20	0x800a1b8d	-9.28238e-40
21	0x00b60820	1.6716975e-38
22	0x39022382	0.00012410994
23	0xb9bb5955	-0.00035733977
24	0xb918bedd	-0.00014566952
25	0x390d9897	0.00013503652
26	0x3a042e1c	0.0005042271
27	0x399b53b3	0.00029626265
28	0x39e0ed91	0.0004290161
29	0x3950b942	0.0001990544
30	0x398fe97a	0.0002744904
31	0x00018e58	1.42899e-40
32	0x800e892e	-1.334908e-39
33	0x00118a9e	1.61093e-39
34	0x001242f2	1.677054e-39
35	0x000243e2	2.08023e-40
36	0x800a7275	-9.59414e-40
37	0x000da386	1.252523e-39
38	0x800bed54	-1.095328e-39
39	0x80104214	-1.493072e-39
40	0x800b4811	-1.036043e-39
41	0x801098dc	-1.524204e-39
42	0x801330a4	-1.762323e-39
43	0x800c550f	-1.132539e-39
44	0xb5010dba	-4.807622e-07
45	0xb4a46d32	-3.062683e-07
46	0x3616763c	2.2420563e-06
47	0xb560b44c	-8.370887e-07
48	0xb55a05d3	-8.1219804e-07
49	0x36083ae1	2.0299851e-06
50	0x36020913	1.9376791e-06
51	0x3607d9d8	2.024337e-06
52	0x36086ad2	2.0327757e-06
53	0x0013488e	1.770902e-39
54	0x800053ac	-3.0016e-41
55	0x00118bb0	1.611314e-39
56	0x800a70da	-9.58838e-40
57	0x8007a081	-7.00426e-40
58	0x800124a0	-1.04974e-40
59	0x8006b589	-6.16136e-40
60	0x800123ee	-1.04725e-40
61	0x000e4598	1.310662e-39
62	0x8000b87e	-6.6183e-41
63	0x000c0dbd	1.106954e-39
64	0x0014112c	1.84287e-39
65	0x0008382b	7.54833e-40
66	0x3614ce77	2.2173897e-06
67	0x34ca3f77	3.767161e-07
68	0x341a0423	1.4343873e-07
69	0x35fec3b5	1.8981433e-06
70	0x35298ccd	6.31623e-07
71	0xb3cfaea4	-9.6709556e-08
72	0x34840ebe	2.4597642e-07
73	0xb414a1b4	-1.3842401e-07
74	0xb3fecc32	-1.18649396e-07
75	0x80058641	-5.07339e-40
76	0x0009c1f2	8.96094e-40
77	0x000e413d	1.3091e-39
78	0x80151ac9	-1.938154e-39
79	0x000555c8	4.8995e-40
80	0x800c4d79	-1.129818e-39
81	0x0007ec89	7.27701e-40
82	0x000ed11f	1.360715e-39
83	0x0004b59b	4.3249e-40
84	0x0015343c	1.947284e-39
85	0x0008874e	7.83222e-40
86	0x80028854	-2.32576e-40
87	0x80077397	-6.84314e-40
88	0x37b7ead0	2.1924643e-05
89	0xb70c9e64	-8.3815285e-06
90	0x374fa5f7	1.2376803e-05
91	0xb6b0732e	-5.2586174e-06
92	0xb7260e6f	-9.897732e-06
93	0x37e4be4e	2.7268336e-05
94	0x37e02c7a	2.6723592e-05
95	0x37e4ae1c	2.7260794e-05
96	0x37e507d5	2.7302574e-05
97	0x80053b63	-4.80481e-40
98	0x000f7ff8	1.423439e-39
99	0x80053a2d	-4.80047e-40
100	0x00175ed0	2.146229e-39
101	0x00011132	9.8004e-41
102	0x0003ccd6	3.48988e-40
103	0x8018258b	-2.21752e-39
104	0x00163765	2.040253e-39
105	0x800554f7	-4.89657e-40
106	0x80093d6b	-8.48552e-40
107	0x00163953	2.040945e-39
108	0x000f0305	1.378616e-39
109	0x80103cb2	-1.491141e-39
110	0xb6e14c2c	-6.71439e-06
111	0xb43f0120	-1.778867e-07
112	0x372c5fcb	1.0274302e-05
113	0xb63caef6	-2.8116024e-06
114	0xb613b422	-2.2009558e-06
115	0x372e9b2c	1.0407337e-05
116	0x373507ed	1.0790286e-05
117	0x372893d8	1.0048003e-05
118	0x372d64b8	1.0335054e-05
119	0x800a3f06	-9.40964e-40
120	0x8009b779	-8.92337e-40
121	0x8005e2ca	-5.40534e-40
122	0x0015e618	2.011088e-39
123	0x0001697b	1.29675e-40
124	0x801277b3	-1.695979e-39
125	0x00098ac2	8.76296e-40
126	0x001372ec	1.7861e-39
127	0x80192647	-2.309619e-39
128	0x00028246	2.30404e-40
129	0x801662c2	-2.055809e-39
130	0x001392e2	1.797566e-39
131	0x8014942e	-1.889867e-39
132	0xb74733c9	-1.18733815e-05
133	0xb5b8dd01	-1.3773389e-06
134	0xb4fd7511	-4.72101e-07
135	0xb719ed96	-9.174828e-06
136	0xb66aea8c	-3.5005241e-06
137	0x3630912d	2.6310547e-06
138	0x366f84b7	3.5691025e-06
139	0x35fb8f8a	1.8742733e-06
140	0x3623c41b	2.4403041e-06
141	0x8013e82d	-1.828163e-39
142	0x00096d14	8.6565e-40
143	0x00050d82	4.64023e-40
144	0x0010ae5c	1.531916e-39
145	0x8000b14a	-6.36e-41
146	0x000306b1	2.77907e-40
147	0x8003d0a8	-3.50358e-40
148	0x80043b6b	-3.88657e-40
149	0x000a68bb	9.55925e-40
150	0x800b2536	-1.023539e-39
151	0x00086d50	7.73898e-40
152	0x80089157	-7.86822e-40
153	0x02e93ad4	3.4270039e-37
154	0x36f174b4	7.1959457e-06
155	0x359df4f2	1.17687e-06
156	0x352bc4dd	6.398894e-07
157	0x36d301aa	6.2884837e-06
158	0x36059c5d	1.990956e-06
159	0xb5e94a4c	-1.7381476e-06
160	0xb67e51c5	-3.7896546e-06
161	0xb58b7deb	-1.0392954e-06
162	0xb5cfa48e	-1.5470594e-06
163	0x0014de08	1.91636e-39
164	0x00104433	1.493833e-39
165	0x00113747	1.581033e-39
166	0x800ec77f	-1.357263e-39
167	0x00128e8c	1.704175e-39
168	0x8008ded6	-8.14622e-40
169	0x00060e40	5.56125e-40
170	0x8000bbc9	-6.7365e-41
171	0x000629fa	5.66071e-40
172	0x001251e5	1.682417e-39
173	0x00012208	1.04044e-40
174	0x8007d620	-7.19662e-40
175	0x000b77b1	1.053128e-39
176	0xbb9ca5d4	-0.0047805104
177	0x3ac6112e	0.0015111321
178	0xb987a4e2	-0.00025872054
179	0xbaebc897	-0.0017988858
180	0x3bdd8db9	0.0067612794
181	0x3b856547	0.004070911
182	0x3b8cad67	0.004293132
183	0x3b7d63ab	0.0038664143
184	0x3b840ad5	0.0040296116
185	0x0001f4c6	1.79644e-40
186	0x800b6782	-1.047322e-39
187	0x800e4319	-1.309767e-39
188	0x800ea4fa	-1.34488e-39
189	0x8013bffd	-1.813747e-39
190	0x00155181	1.957784e-39
191	0x800ba77d	-1.070274e-39
192	0x000f1234	1.384062e-39
193	0x800fba43	-1.44435e-39
194	0x8014e08a	-1.91726e-39
195	0x8014ab1a	-1.89809e-39
196	0x800b1a32	-1.019588e-39
197	0x800d50ff	-1.222917e-39
198	0xbde6bc31	-0.112663634
199	0x3c079825	0.00827602
200	0x3bd379b8	0.006453719
201	0x3be1411c	0.0068742167
202	0x3bb0963b	0.0053890026
203	0x3d20bd11	0.039242808
204	0x3d7744be	0.060368292
205	0x3cf12b41	0.02943957
206	0x3d16b7a4	0.036796227
207	0x8000eb24	-8.4353e-41
208	0x8015b006	-1.991691e-39
209	0x80052cae	-4.75206e-40
210	0x800e14a2	-1.293099e-39
211	0x8015b05a	-1.991808e-39
212	0x0006f2e3	6.38144e-40
213	0x0005079f	4.61911e-40
214	0x000ef9ea	1.375349e-39
215	0x8007671e	-6.7984e-40
216	0x80012e74	-1.085e-40
217	0x0009f40c	9.14067e-40
218	0x000b8e9f	1.061353e-39
219	0x800add54	-9.97753e-40
220	0x3de6c846	0.11268668
221	0xbc079b77	-0.008276812
222	0xbbd380b0	-0.0064545497
223	0xbbe13a76	-0.006873424
224	0xbbb094c0	-0.005388826
225	0xbd20c562	-0.03925074
226	0xbd7751f7	-0.060380902
227	0xbcf1378f	-0.029445438
228	0xbd16bf59	-0.036803577
229	0x0006b1d1	6.14801e-40
230	0x00094c17	8.53815e-40
231	0x800533e1	-4.77788e-40
232	0x80022ba1	-1.99322e-40
233	0x0005b0c3	5.22588e-40
234	0x00164527	2.045188e-39
235	0x8005274b	-4.73273e-40
236	0x000aa2dc	9.76778e-40
237	0x00114446	1.585695e-39
238	0x8017b45b	-2.176916e-39
239	0x001591a7	1.980796e-39
240	0x80005f98	-3.4293e-41
241	0x00038c98	3.25942e-40
242	0x3de6c525	0.11268071
243	0xbc079a86	-0.008276587
244	0xbbd37ecc	-0.0064543243
245	0xbbe13c25	-0.006873625
246	0xbbb09533	-0.0053888797
247	0xbd20c33f	-0.0392487
248	0xbd774e88	-0.060377628
249	0xbcf1345a	-0.029443908
250	0xbd16bd5e	-0.03680169
251	0x800251e0	-2.13042e-40
252	0x800cee37	-1.187481e-39
253	0x00015318	1.21644e-40
254	0x000aa403	9.77191e-40
255	0x0006d12c	6.2605e-40

fc1.bias f4 [100]
0	0xb6d80dda	-6.438914e-06
1	0xba1c7170	-0.0005967831
2	0xb646e510	-2.963763e-06
3	0xb5e29b5b	-1.6883527e-06
4	0xb8478a03	-4.757383e-05
5	0xb73b588d	-1.1166686e-05
6	0x375867ce	1.2898772e-05
7	0xb711d1d6	-8.69153e-06
8	0xbb94b9d5	-0.0045387545
9	0xbe0fca54	-0.14042026
10	0x3e0fd320	0.14045382
11	0x3e0fd0da	0.14044514
12	0x32bc64aa	2.1931857e-08
13	0x3e0fd1d7	0.14044891
14	0xbe0fd488	-0.14045918
15	0x3e0fd3ab	0.14045589
16	0xbe0fd57c	-0.14046282
17	0xbe0fd5b7	-0.1404637
18	0x384293d0	4.6390865e-05
19	0xbe0fd750	-0.14046979
20	0x3b54f519	0.0032494722
21	0xb62539b2	-2.46205e-06
22	0xb9590444	-0.00020696322
23	0xb24e63a2	-1.2013432e-08
24	0xbb91c431	-0.0044484367
25	0x3464c39e	2.130532e-07
26	0xb8442733	-4.676655e-05
27	0xbe0fd16e	-0.14044735
28	0x367d0316	3.7701734e-06
29	0x3e0fd6e1	0.14046814
30	0xb5850f37	-9.9137e-07
31	0xb6524cf0	-3.1337222e-06
32	0x38013e76	3.0814168e-05
33	0x3e0fd21d	0.14044996
34	0xb7af4660	-2.0894397e-05
35	0xb9461178	-0.00018889259
36	0x36fa8eb6	7.4671943e-06
37	0x39663fd6	0.0002195829
38	0xb4025cda	-1.2140973e-07
39	0xb7026a87	-7.773407e-06
40	0x358c9ae6	1.0475894e-06
41	0x3694f36c	4.4390817e-06
42	0x36ee0bee	7.0943415e-06
43	0xb87d2244	-6.0351813e-05
44	0x36badef5	5.5691876e-06
45	0xb54663d2	-7.3906006e-07
46	0x3e0fcd98	0.14043272
47	0xbe0fcf35	-0.14043887
48	0xb6e8d97b	-6.939457e-06
49	0xbe0fd41a	-0.14045754
50	0xbe0fc4bb	-0.1403989
51	0xbe0fce23	-0.14043479
52	0x3e0fd24f	0.1404507
53	0x38033281	3.127987e-05
54	0xbaa91d5e	-0.0012902429
55	0xbe0fd1ca	-0.14044872
56	0x37579458	1.2849538e-05
57	0xb780f7aa	-1.5374117e-05
58	0x3e0fd2ac	0.14045209
59	0xbb001b85	-0.0019547653
60	0x3e0fd2dd	0.14045282
61	0x3b6f1290	0.003647957
62	0x3e0fc68e	0.14040586
63	0x33448f0b	4.5764903e-08
64	0x3e0fd27e	0.1404514
65	0x36fe4a70	7.5784556e-06
66	0xbb8147a8	-0.0039453097
67	0xbe0fd365	-0.14045484
68	0x3e0fbe44	0.14037424
69	0x36f051e3	7.1620902e-06
70	0x37751d68	1.4609985e-05
71	0x3e0fd2af	0.14045213
72	0xb627092d	-2.489028e-06
73	0xbe0fd42c	-0.14045781
74	0xbe0fca56	-0.14042029
75	0x3e0fd0a6	0.14044437
76	0x3e0fd1b6	0.14044842
77	0xbe0fd603	-0.14046483
78	0xb71165e9	-8.666401e-06
79	0xb8b4f772	-8.629159e-05
80	0xb830a953	-4.2119365e-05
81	0x380558ed	3.179249e-05
82	0xb872d867	-5.7898837e-05
83	0xb7191a17	-9.125585e-06
84	0xbe0fc811	-0.14041163
85	0x3e0fcfd9	0.14044131
86	0x34b536f4	3.375386e-07
87	0xb688ea03	-4.0803584e-06
88	0x3e0fd243	0.14045052
89	0x3820c4ae	3.8330145e-05
90	0x34d52a27	3.9705012e-07
91	0x37201061	9.540557e-06
92	0x384239dd	4.6307094e-05
93	0x3e0fd45c	0.14045852
94	0xbe0fcde3	-0.14043383
95	0x3e0fca05	0.14041908
96	0x3589aa2f	1.0256825e-06
97	0x34e55b37	4.2720941e-07
98	0x365ab0b8	3.2587395e-06
99	0xbe0fd320	-0.14045382

fc2.weight f4 [100, 100]
0	0xb3272674	-3.891769e-08
1	0xb88f88a0	-6.84422e-05
2	0xb600f1c8	-1.9214222e-06
3	0xb258aa68	-1.2611601e-08
4	0xb7a89ecf	-2.0101112e-05
5	0xb7251d22	-9.841549e-06
6	0x33f39f91	1.1344594e-07
7	0xb43a4226	-1.7346665e-07
8	0xba5b55cc	-0.0008366972
9	0xbcb56727	-0.022143913
10	0x3cb5712e	0.022148695
11	0x3cb56e9e	0.022147473
12	0xb13d08e4	-2.7508174e-09
13	0x3cb56fbd	0.022148008
14	0xbcb572c7	-0.022149457
15	0x3cb571c8	0.022148982
16	0xbcb573e0	-0.02214998
17	0xbcb5741f	-0.022150097
18	0x3841c795	4.620066e-05
19	0xbcb575f1	-0.022150965
20	0x3aa1e2ce	0.0012350918
21	0xb419de4a	-1.4330104e-07
22	0xb94b3099	-0.00019377693
23	0xb204960b	-7.717527e-09
24	0xba01f238	-0.0004957053
25	0xb2bf6d78	-2.2285107e-08
26	0xb501cae4	-4.835149e-07
27	0xbcb56f45	-0.022147784
28	0x361faf98	2.3795055e-06
29	0x3cb57571	0.022150727
30	0xb4784849	-2.3123097e-07
31	0xb5f0c20f	-1.7937872e-06
32	0x34a20f23	3.0185865e-07
33	0x3cb5700b	0.022148153
34	0xb7700119	-1.430537e-05
35	0xb950a34f	-0.00019897263
36	0x3602cf6a	1.949224e-06
37	0x3871ca0c	5.764705e-05
38	0xb385cbee	-6.23039e-08
39	0xb359d459	-5.071738e-08
40	0xb334f4c0	-4.2132115e-08
41	0x32f786ea	2.8815936e-08
42	0x36db571e	6.5368504e-06
43	0xb7a9760f	-2.0201345e-05
44	0x33523502	4.8942645e-08
45	0xb40561bf	-1.242215e-07
46	0x3cb56ae1	0.02214569
47	0xbcb56cb8	-0.022146568
48	0xb4527242	-1.9599341e-07
49	0xbcb5723f	-0.022149203
50	0xbcb560c9	-0.022140877
51	0xbcb56b7e	-0.022145983
52	0x3cb57044	0.022148259
53	0x349ebf33	2.956891e-07
54	0xba89a657	-0.0010501844
55	0xbcb56fae	-0.02214798
56	0x33b04d50	8.209702e-08
57	0xb3e89498	-1.0830371e-07
58	0x3cb570af	0.022148458
59	0xbada7638	-0.0016667312
60	0x3cb570e3	0.022148555
61	0x3a8ad775	0.0010592776
62	0x3cb562e7	0.022141887
63	0x32e2fc76	2.6424669e-08
64	0x3cb57078	0.022148356
65	0x33905fbe	6.722938e-08
66	0xba042684	-0.00050411397
67	0xbcb5717d	-0.022148842
68	0x3cb55961	0.022137346
69	0x360a1279	2.0574355e-06
70	0x376f54d2	1.4265259e-05
71	0x3cb570b3	0.022148466
72	0xb2768388	-1.4348991e-08
73	0xbcb57253	-0.02214924
74	0xbcb56728	-0.022143915
75	0x3cb56e68	0.022147372
76	0x3cb56f9a	0.022147942
77	0xbcb5747c	-0.02215027
78	0xb419cd01	-1.4323815e-07
79	0xb8949406	-7.0847615e-05
80	0xb80cdcc8	-3.358422e-05
81	0x37181353	9.064405e-06
82	0xb8cae997	-9.67562e-05
83	0xb4a7997a	-3.1217843e-07
84	0xbcb56492	-0.022142682
85	0x3cb56d77	0.022146923
86	0xb21dda58	-9.188248e-09
87	0xb52e824a	-6.5009647e-07
88	0x3cb57034	0.02214823
89	0x381e8422	3.7793194e-05
90	0x34413a94	1.7995836e-07
91	0x36d7fb76	6.436773e-06
92	0x37208a0b	9.568884e-06
93	0x3cb5728d	0.022149349
94	0xbcb56b3a	-0.022145856
95	0x3cb566cb	0.022143742
96	0x3568e71f	8.676306e-07
97	0x349c001b	2.905734e-07
98	0x360cf749	2.1005565e-06
99	0xbcb57130	-0.022148699
100	0x3326db47	3.884932e-08
101	0x388f91bc	6.8459165e-05
102	0x3600ff64	1.9222143e-06
103	0x32582776	1.2581827e-08
104	0x37a8b0ed	2.0109548e-05
105	0x37251e39	9.841803e-06
106	0xb3f32116	-1.13215876e-07
107	0x343a4244	1.7346707e-07
108	0x3a5a7d90	0.00083347503
109	0x3cb502d7	0.02209608
110	0xbcb50cd0	-0.022100836
111	0xbcb50a41	-0.022099616
112	0x313e5ae4	2.7700304e-09
113	0xbcb50b59	-0.022100138
114	0x3cb50e66	0.022101592
115	0xbcb50d6f	-0.022101132
116	0x3cb50f87	0.02210213
117	0x3cb50fc8	0.022102252
118	0xb841d962	-4.621724e-05
119	0x3cb511a1	0.022103133
120	0xbaa20f90	-0.0012364257
121	0x3419f03b	1.4336631e-07
122	0x394b3965	0.0001938097
123	0x3204993a	7.718251e-09
124	0x3a01967e	0.00049433846
125	0x32c32d00	2.2721451e-08
126	0x35018e8e	4.826369e-07
127	0x3cb50ae1	0.022099914
128	0xb61fc1ac	-2.3805578e-06
129	0xbcb51121	-0.022102894
130	0x34786f49	2.3137285e-07
131	0x35f0deb4	1.7946209e-06
132	0xb4a1c320	-3.013056e-07
133	0xbcb50bae	-0.022100296
134	0x377007d2	1.4306936e-05
135	0x3950b7c1	0.0001990488
136	0xb602e1b2	-1.9502882e-06
137	0xb871b6dd	-5.7629182e-05
138	0x3385d960	6.2328354e-08
139	0x335976e7	5.063239e-08
140	0x333f74e0	4.457695e-08
141	0xb2f74b1a	-2.8788737e-08
142	0xb6db5fa9	-6.537845e-06
143	0x37a98bed	2.0211528e-05
144	0xb3521764	-4.891571e-08
145	0x34057687	1.242971e-07
146	0xbcb5068b	-0.022097846
147	0x3cb5085f	0.022098718
148	0x34527405	1.9599982e-07
149	0x3cb50de5	0.022101352
150	0x3cb4fc8f	0.022093086
151	0x3cb50729	0.02209814
152	0xbcb50be1	-0.02210039
153	0xb49e7282	-2.951311e-07
154	0x3a89a6ba	0.0010501959
155	0x3cb50b4b	0.022100111
156	0xb3b008ea	-8.19726e-08
157	0x33e85533	1.08188395e-07
158	0xbcb50c4c	-0.02210059
159	0x3ada7c6b	0.001666916
160	0xbcb50c80	-0.022100687
161	0xba8a96bd	-0.0010573488
162	0xbcb4fe9e	-0.022094067
163	0xb2e31207	-2.6434476e-08
164	0xbcb50c16	-0.02210049
165	0xb3909020	-6.731739e-08
166	0x3a0400c2	0.00050355133
167	0x3cb50d1f	0.022100983
168	0xbcb4f512	-0.022089515
169	0xb60a2457	-2.0584755e-06
170	0xb76f5ce5	-1.4267139e-05
171	0xbcb50c52	-0.022100601
172	0x327606e5	1.4320652e-08
173	0x3cb50df8	0.022101387
174	0x3cb502da	0.022096086
175	0xbcb50a07	-0.022099508
176	0xbcb50b38	-0.022100076
177	0x3cb51025	0.022102425
178	0x3419cbf0	1.4323427e-07
179	0x389496fe	7.0853144e-05
180	0x380cda5f	3.3581975e-05
181	0xb718280f	-9.069233e-06
182	0x38cb0efe	9.682587e-05
183	0x34a7a255	3.1224286e-07
184	0x3cb5004c	0.022094868
185	0xbcb5091c	-0.02209907
186	0x321e29de	9.20633e-09
187	0x352e9c58	6.504756e-07
188	0xbcb50bd4	-0.022100367
189	0xb81e8981	-3.7798196e-05
190	0xb4415093	-1.8003838e-07
191	0xb6d8046c	-6.4378164e-06
192	0xb720a365	-9.574786e-06
193	0xbcb50e36	-0.022101503
194	0x3cb506de	0.022098001
195	0xbcb50280	-0.022095919
196	0xb568fdea	-8.679623e-07
197	0xb49bfcde	-2.9054985e-07
198	0xb60cfc27	-2.1008398e-06
199	0x3cb50ccf	0.022100834
200	0x3326fbd6	3.887893e-08
201	0x388f8da4	6.845154e-05
202	0x3600f97f	1.9218712e-06
203	0x3258601b	1.2594707e-08
204	0x37a8a92d	2.010594e-05
205	0x37251dbf	9.841692e-06
206	0xb3f357fc	-1.13315735e-07
207	0x343a423b	1.7346694e-07
208	0x3a5adb72	0.000834874
209	0x3cb52e5e	0.022116836
210	0xbcb5386f	-0.022121636
211	0xbcb535cd	-0.02212038
212	0x313dc7c0	2.7616665e-09
213	0xbcb536ee	-0.02212092
214	0x3cb53a08	0.022122398
215	0xbcb5390b	-0.022121927
216	0x3cb53b21	0.022122921
217	0x3cb53b61	0.02212304
218	0xb841d1ae	-4.6210065e-05
219	0x3cb53d35	0.022123912
220	0xbaa1fc24	-0.0012358469
221	0x3419e882	1.4333821e-07
222	0x394b3595	0.0001937955
223	0x320497e8	7.717951e-09
224	0x3a01be50	0.0004949318
225	0x32c18cb8	2.2532149e-08
226	0x3501a8b3	4.8301735e-07
227	0x3cb53672	0.022120688
228	0xb61fb9cb	-2.3800992e-06
229	0xbcb53cb9	-0.022123681
230	0x34785e70	2.3131156e-07
231	0x35f0d261	1.7942622e-06
232	0xb4a1e422	-3.0154575e-07
233	0xbcb5373f	-0.02212107
234	0x377004ee	1.43062625e-05
235	0x3950aef5	0.00019901602
236	0xb602d9c5	-1.9498268e-06
237	0xb871bf39	-5.7636968e-05
238	0x3385d384	6.2317696e-08
239	0x33599f59	5.0669176e-08
240	0x333ae5c0	4.3515456e-08
241	0xb2f764f4	-2.8800493e-08
242	0xb6db5c05	-6.537421e-06
243	0x37a98280	2.0207139e-05
244	0xb352242a	-4.8927326e-08
245	0x34056d85	1.2426433e-07
246	0xbcb53219	-0.022118615
247	0x3cb533ef	0.02211949
248	0x34527344	1.9599707e-07
249	0x3cb53988	0.02212216
250	0x3cb52812	0.022113834
251	0x3cb532b7	0.02211891
252	0xbcb53775	-0.02212117
253	0xb49e93cb	-2.9537327e-07
254	0x3a89a6a0	0.0010501929
255	0x3cb536df	0.022120891

fc2.bias f4 [100]
0	0x3da59568	0.080851376
1	0xbda53128	-0.080660164
2	0xbda55c95	-0.08074299
3	0x3da53bb4	0.08068028
4	0x3da5665a	0.08076163
5	0xbda56cd4	-0.08077398
6	0x3da533ea	0.080665424
7	0x3da54e1d	0.080715396
8	0xbda57957	-0.08079784
9	0xbda553c8	-0.08072621
10	0xbda54dd8	-0.08071488
11	0x3da54f5b	0.080717765
12	0x3da55296	0.08072393
13	0x3da544e1	0.08069778
14	0xbda542d0	-0.08069384
15	0xbda55666	-0.0807312
16	0xbda53953	-0.08067574
17	0xbda57404	-0.08078769
18	0x3da5527e	0.08072375
19	0x3da5407c	0.0806894
20	0xbda5376f	-0.08067214
21	0x9fa52c35	-6.995335e-20
22	0xbda4b0b4	-0.08041516
23	0xbda5562f	-0.08073079
24	0x3da429dd	0.08015797
25	0xabec1833	-1.6775525e-12
26	0x3da54ef7	0.08071702
27	0xbda5646b	-0.08075794
28	0x3da55497	0.08072775
29	0xbda544a1	-0.080697306
30	0xbda58df3	-0.08083715
31	0x3da53975	0.080676
32	0x3da53316	0.080663845
33	0xbda54f6b	-0.080717884
34	0xbda5596a	-0.08073695
35	0xbda55414	-0.08072677
36	0xbda5666a	-0.080761746
37	0x3da54335	0.08069459
38	0x3da55a56	0.08073871
39	0x3da50fe3	0.08059671
40	0x3da54d08	0.08071333
41	0x3da56c4b	0.08077296
42	0xbda54997	-0.08070677
43	0xbda50688	-0.08057886
44	0xbda582d6	-0.080815956
45	0xbda4fa8c	-0.080556005
46	0x3da5330e	0.080663785
47	0x3da52c97	0.080651455
48	0x3da55d42	0.08074428
49	0x3da55c7f	0.08074283
50	0x3da542d8	0.0806939
51	0xbda563d3	-0.080756806
52	0x3da54ebc	0.08071658
53	0x3da560cd	0.08075104
54	0x3da56c01	0.08077241
55	0xbda55643	-0.08073094
56	0x3da54193	0.08069148
57	0xbda51156	-0.08059947
58	0x3da51d70	0.080622554
59	0x3da55228	0.08072311
60	0xbda50219	-0.08057041
61	0xbda57416	-0.08078782
62	0x3da544ad	0.080697395
63	0xbda55323	-0.08072498
64	0x3da562f8	0.080755174
65	0xbda54a8e	-0.08070861
66	0xbda53924	-0.08067539
67	0x3da569c7	0.08076816
68	0xbda5555a	-0.0807292
69	0xbda58da7	-0.08083659
70	0x3da55f71	0.08074845
71	0xbda50f2e	-0.08059536
72	0x3da5324f	0.08066236
73	0xbda52661	-0.08063961
74	0xbda52ffa	-0.080657914
75	0xbda56be3	-0.080772184
76	0x3da52ee6	0.08065586
77	0xbda52c3e	-0.08065079
78	0x3da5333f	0.08066415
79	0x3da55a53	0.080738686
80	0x1e1058d3	7.641665e-21
81	0x3da5515b	0.08072158
82	0x3da57458	0.080788314
83	0x3da55087	0.08072
84	0x3da5187b	0.0806131
85	0x2569fcea	2.0295219e-16
86	0xbda55cd5	-0.08074347
87	0x1b62fd17	1.877606e-22
88	0x3da53d57	0.0806834
89	0xbda5616a	-0.08075221
90	0xbda57228	-0.08078414
91	0x237c978f	1.3693041e-17
92	0x3da5281f	0.08064293
93	0x3da5491a	0.08070584
94	0x3da5673b	0.0807633
95	0x3da556b7	0.0807318
96	0xbda58019	-0.08081073
97	0x3da57610	0.08079159
98	0xbda527da	-0.08064242
99	0x057d8d09	1.1921907e-35

fc3.weight f4 [1, 100]
0	0x3e239723	0.15975623
1	0xbe232a5e	-0.1593413
2	0xbe23598d	-0.1595213
3	0x3e2335ba	0.15938464
4	0x3e236428	0.15956175
5	0xbe236b2a	-0.15958849
6	0x3e232d5a	0.15935269
7	0x3e2349b4	0.15946084
8	0xbe2378ba	-0.15964022
9	0xbe234ff4	-0.15948468
10	0xbe23496e	-0.1594598
11	0x3e234b18	0.15946615
12	0x3e234ea4	0.15947968
13	0x3e233fa5	0.15942247
14	0xbe233d6a	-0.15941396
15	0xbe2352cb	-0.15949552
16	0xbe23331e	-0.15937468
17	0xbe2372fb	-0.1596183
18	0x3e234e85	0.15947922
19	0x3e233ade	0.15940425
20	0xbe233121	-0.1593671
21	0x9f3e9496	-4.0356972e-20
22	0xbe229f20	-0.15881014
23	0xbe23528e	-0.15949461
24	0x3e220ce9	0.15825237
25	0x2c36ee3d	2.5996004e-12
26	0x3e234aa8	0.15946448
27	0xbe23621d	-0.15955396
28	0x3e2350ce	0.15948793
29	0xbe233f5d	-0.1594214
30	0xbe238f10	-0.15972543
31	0x3e233342	0.15937522
32	0x3e232c72	0.15934923
33	0xbe234b26	-0.15946636
34	0xbe23561d	-0.15950818
35	0xbe235040	-0.15948582
36	0xbe23643c	-0.15956205
37	0x3e233dd5	0.15941556
38	0x3e23571a	0.15951195
39	0x3e23065b	0.15920393
40	0x3e234882	0.15945628
41	0x3e236a95	0.15958627
42	0xbe2344c2	-0.15944198
43	0xbe22fc39	-0.15916528
44	0xbe238304	-0.15967947
45	0xbe22ef2f	-0.15911554
46	0x3e232c68	0.15934908
47	0x3e232560	0.15932226
48	0x3e235a4a	0.15952411
49	0x3e235977	0.15952097
50	0x3e233d70	0.15941405
51	0xbe23617b	-0.15955155
52	0x3e234a64	0.15946347
53	0x3e235e34	0.15953904
54	0x3e236a43	0.15958504
55	0xbe2352a1	-0.15949489
56	0x3e233c10	0.15940881
57	0xbe2307ee	-0.15920994
58	0x3e2314f3	0.1592596
59	0x3e234e2d	0.1594779
60	0xbe22f75f	-0.15914677
61	0xbe23730e	-0.15961859
62	0x3e233f70	0.15942168
63	0xbe234f3e	-0.15948197
64	0x3e236086	0.1595479
65	0xbe2345d4	-0.15944606
66	0xbe2332ed	-0.15937395
67	0x3e2367d5	0.15957578
68	0xbe2351a0	-0.15949106
69	0xbe238ebd	-0.15972419
70	0x3e235cb5	0.15953334
71	0xbe23058e	-0.15920088
72	0x3e232b9e	0.15934607
73	0xbe231ebf	-0.15929697
74	0xbe232915	-0.1593364
75	0xbe236a1d	-0.15958448
76	0x3e2327e9	0.15933193
77	0xbe232504	-0.15932089
78	0x3e232c9f	0.1593499
79	0x3e235718	0.15951192
80	0x9e1fe266	-8.464208e-21
81	0x3e234d47	0.15947448
82	0x3e237358	0.15961969
83	0x3e234c5f	0.15947102
84	0x3e230fa2	0.15923932
85	0x2489e8ff	5.980899e-17
86	0xbe2359d6	-0.15952238
87	0x9a6bcbe0	-4.876155e-23
88	0x3e23377f	0.15939139
89	0xbe235ed4	-0.15954143
90	0xbe2370e9	-0.1596104
91	0x2351624f	1.135073e-17
92	0x3e2320a1	0.15930416
93	0x3e234438	0.15943992
94	0x3e236523	0.1595655
95	0x3e235326	0.15949687
96	0xbe23800e	-0.15966818
97	0x3e237536	0.15962681
98	0xbe232058	-0.15930307
99	0x8365ced0	-6.753446e-37
