gail/save_model/0/SUB058_ckpt_20.pth.tar (torch_old, 154740 bytes, 16 tensors)

fc1.weight f4 [100, 22]
00000000: 6398 583e dfd0 c0be d4d6 55be 4a6e 463c
00000010: 4f27 d13e de63 a3bc 5b1f 59be b396 a13c
00000020: ea13 663d 4c25 023e 003e 8ebc 3886 2e3e
00000030: 4eb4 d8bd 184a e23c 9825 4dbe c06f 223d
00000040: 7025 723d 4033 0fbc 78f1 333d bc58 cd3d
00000050: dc39 e33d 2212 293e ec86 803e 0e62 7ebe
00000060: e445 f6be c017 7f3e 18c8 a93e 7649 a9be
00000070: a1af 79be 9ab0 75bd 9cb1 8dbe 60a0 82bc
00000080: 80ca d93d 428d 403e 8245 3fbe 08aa 563d
00000090: c87c 253e 885d 423d e0f2 743d 8098 4abe
000000a0: 60d8 13bd e859 d7bd 4c4c 0a3e c495 50be
000000b0: 69df bf3d 547d fd3c e89f 243d 1ba1 57bd
000000c0: 7bad f93d d5d7 15be 36cb b4be daf2 73be
000000d0: 20a0 10bd f4e6 823d 80e2 423d e2fd 343e
000000e0: 2aac 90bd e061 00bd 386a f13d f2de 593e
000000f0: b48a 903d 702e 3f3d 2bd9 cdbd 00e4 5a3c
00000100: 0899 e8bc 707d b63c c60b cd3d 4e49 0dbe
00000110: 5361 683e 97c5 86bc 0654 a1be cd7e 66be
00000120: 67c0 ef3d 9a39 95bd 5744 68bd 01da dabd
00000130: 33e9 1abe c8ad 403d 1ac7 463e 45c5 ebbd
00000140: 808b c0bd b850 243e 7c20 8a3d 961e 3c3e
00000150: 3081 b13c 5c39 07be 3e95 283e c202 4d3e
00000160: 7590 343e d78e 32bd e652 4fbe c8f6 e2be
00000170: 37f0 40be bbd8 9a3d d05a 593d ed9d 4bbe
00000180: 03ab 093e 24fa f9bd 820d 0b3e e06a ae3b
00000190: 20b2 ac3d 888f b9bc 6854 bc3d 7659 283e
000001a0: edcf 41be 04e5 043e 28a2 423e 8c7a fa3d
000001b0: b053 d03d 2465 3abd 09ef 46be d17b d83d
000001c0: 26fa 273e 1db8 fcbe 0ef7 c2bd 332e 993e
000001d0: f3fa 513c 4c6c 8c3e 46fb 433e 0c99 f63d
000001e0: 487b 25bd ba00 a4bd a8b9 24bd a814 703d
000001f0: 902a 173d 588b 543e 0467 453e dc31 033d
00000200: b850 0abd 94d6 07bd 8032 6ebd b81f ed3d
00000210: fa5b 4dbe adc0 c53e d112 a13e ec93 08bc
00000220: 6866 c7be bda7 b6bd 45c5 8bbb 0348 b9bd
00000230: 7da7 fc3d 8093 c03a 4cbd b63d 342d bd3d
00000240: 50d3 b03d c7cf 02be 12a7 093e 00fa 77bd
00000250: 2c53 57bd d054 a33c 2a1e 173e 3e4a 1c3e
00000260: c89a 9cbd 403c 893b c65d f1bc e8b4 9ebe
00000270: 558c bbbd 726a 5f3c 02ab 863e 7d34 b63a
00000280: b0c5 823e 51fc 683e bc97 823d 2045 303c
00000290: 6469 d23d d4ac 13bd cb67 e9bd a4c0 a73d
000002a0: b056 dc3d 96a3 0f3e 90b3 243d cb31 e2bd
000002b0: 58ee 69bd b0e6 093e 9c95 ae3d b4a8 54bd
000002c0: 7c6e 193e cdc5 03be 1850 7c3d 561a 9cbd
000002d0: f19e 793c 639b ab3e 57bb 41bc b5bc ad3e
000002e0: c55c a83e 5890 033e ec6e 443e c08f 013b
000002f0: 27be 2cbe d8c9 973c b9b8 58be 08d4 063d
00000300: dec1 0fbe 045e f63d c46a e23d 14c8 41bd
00000310: d033 e9bd 9783 fcbd b5ed 0c3e ad9d 2c3e
00000320: 0af1 353e 4f41 463b acd1 4a3e 2879 063d
00000330: 2620 e2bd 0aba 61bd ba02 51be 38ec 2dbe
00000340: 1c9c 4d3e 3869 b5bd 3408 413e 73e1 31be
00000350: 30c1 1c3d 4c28 493e ced6 56be 86ef 38be
00000360: 415d 1cbe 881b fbbc f030 533d f635 48be
00000370: 02d1 4fbd 572e a6be 1c0a 5dbe a5bd fc3d
00000380: db31 d63e 33b4 043e 55da c03c 942a c13d
00000390: 0638 f53d 986b 91bd 6d15 38be 947b 213e
000003a0: 6840 af3c 6ca1 f83d cc89 0b3e 4ca5 473e
000003b0: 051b 31be ff48 c4bd a8a7 6c3d a843 29bd
000003c0: 8868 ef3d 202c 83bc 9f48 f93d c36c 38bd
000003d0: 7f9a 253e b52d fcbd 9197 e63e 5f04 b63e
000003e0: 95fe c93d 6da8 173e aef5 2b3e f475 8c3d
000003f0: 52f6 4bbe 921a 0f3e 50b4 403d 14b5 073d
0.21151881 -0.37659356 -0.20882732 0.012111256 0.40850303 -0.019945081 -0.21203367 0.01972518
0.056171335 0.1270954 -0.017363548 0.17043388 -0.105812654 0.027623221 -0.20033872 0.039657354
0.059117734 -0.008740246 0.043931454 0.1002669 0.1109502 0.16510823 0.25102937 -0.24842092
-0.48100197 0.24911404 0.33160472 -0.3306386 -0.24383403 -0.059982873 -0.27674568 -0.015945613
0.10634327 0.18803886 -0.18678859 0.05240825 0.16160882 0.04745248 0.059801936 -0.19784737
-0.036095023 -0.10515195 0.13505667 -0.20369631 0.09368784 0.03094355 0.04019156 -0.052643877
0.12191292 -0.14633115 -0.35311288 -0.2382311 -0.035308957 0.06391707 0.04757929 0.17674974
-0.07064088 -0.03134334 0.11787838 0.21276453 0.070577055 0.046675146 -0.10051187 0.0133600235
-0.028393283 0.02227661 0.10012011 -0.13797495 0.22693376 -0.01645164 -0.31509417 -0.22509308
0.1170662 -0.07286377 -0.0567058 -0.10686112 -0.15128021 0.04704073 0.19411889 -0.115122356
-0.094016075 0.16046417 0.06744477 0.18371043 0.021668047 -0.13205475 0.16463181 0.20020583
0.17633231 -0.043593254 -0.20246467 -0.44328904 -0.18841635 0.07560869 0.05306512 -0.19884463
0.13444142 -0.12205914 0.13579372 0.005322799 0.08432412 -0.022651449 0.09195787 0.16440377
-0.18926974 0.12977988 0.1900717 0.12230405 0.10172212 -0.04550661 -0.19427122 0.10570491
0.16404018 -0.49359217 -0.09519778 0.2991806 0.012816179 0.27426374 0.19138822 0.1204091
-0.040400773 -0.08007951 -0.040216118 0.05861345 0.036905825 0.2075628 0.19277579 0.03202997
-0.033768386 -0.033163622 -0.05815363 0.115783155 -0.20054618 0.38623562 0.31459668 -0.008336049
-0.38945317 -0.08918712 -0.0042654597 -0.09046938 0.12336633 0.0014692396 0.08922824 0.092371374
0.08634055 -0.12774573 0.13442639 -0.060541153 -0.052569553 0.019937903 0.147576 0.15262696
-0.0764671 0.0041880906 -0.02946366 -0.30997396 -0.091576256 0.013636218 0.26302344 0.0013901141
0.2554145 0.22752501 0.06376597 0.010758668 0.10274008 -0.036053494 -0.1139675 0.0819104
0.10758722 0.14027247 0.040210307 -0.110446535 -0.057112068 0.13466907 0.085246295 -0.0519187
0.14983553 -0.12868424 0.06159982 -0.07622211 0.0152356485 0.33516988 -0.01182445 0.33933035
0.32883278 0.12848032 0.19182938 0.001976952 -0.16869412 0.018528864 -0.21164216 0.032917053
-0.14038798 0.12029651 0.1105552 -0.04730995 -0.113868356 -0.12329786 0.13762553 0.16857024
0.1776773 0.003025133 0.19806546 0.032830387 -0.11041288 -0.05510906 -0.20411196 -0.16984642
0.20079082 -0.088579595 0.18850785 -0.17371158 0.038270175 0.19644278 -0.20980379 -0.18060121
-0.15269949 -0.030652776 0.051560342 -0.19551834 -0.050736435 -0.3245723 -0.21585888 0.12340859
0.41834912 0.12959366 0.023541609 0.09431949 0.11973576 -0.071006 -0.17976923 0.15769798
0.021393016 0.12140164 0.13626784 0.1949665 -0.17295463 -0.095842354 0.057777077 -0.041324288
0.1168986 -0.016012251 0.121720545 -0.0450256 0.16172217 -0.123134054 0.4503751 0.3555021
0.09863011 0.14810343 0.16792938 0.06858435 -0.19918182 0.1397498 0.04704696 0.033131674

fc1.bias f4 [100]
00000000: 5ba4 f53d 52d3 563e 27ff 983e 3826 9cbd
00000010: 070c 463d b92e a3be 5d72 06be 2770 02bc
00000020: a4b7 88be 457b 013e bd48 4bbd dc4b b3be
00000030: 7c8c c6bd e611 28be f645 8e3e 7dc8 37bd
00000040: c13c 123e 43e9 28be 5216 2b3e 0337 8ebe
00000050: 3a46 293d e7e6 c7be 7df1 0dbe 4ec5 babd
00000060: 6195 bf3d eeb6 86be 3f8c 363e 93b2 9bbe
00000070: cae9 af3e 35c6 88be 6036 6a3d 8598 99bc
00000080: 91c3 03be 47de b2bd b7a3 c73e a879 02bf
00000090: 7c88 ab3d 48f1 89bd 3972 2abd 5d9c 053e
000000a0: 4e27 99be 9e2e de3b aff5 a5bd 0565 c43d
000000b0: c13d 903e d29c 03be 3d7c 60be 0533 c1bd
000000c0: d1fd 7f3e 6cf1 3ebe a09b e1bd 0aa5 e13d
000000d0: 69b0 79be e900 81be b8bd ac3d 283d cfbd
000000e0: 17fe 2c3e 405d b9be ce18 7f3d 48f3 b4bc
000000f0: f5c4 80be 57a9 893c b673 3bbe 81bd 8b3e
00000100: 38da 02bf 7b5b cbbb 947c 413e 42b5 85be
00000110: 76b6 0b3e 74e1 b33e 4ac2 b1bd ba8b b6bc
00000120: 14ad cfbd 859c 883e ce3e 93be 63c6 9fbd
00000130: c00a 4d3e 2223 913e adbf c73d 8062 7bbe
00000140: 2457 98be f85b 633e 0006 da3b 4a72 763e
00000150: a8f3 48bd 844d 30bd 8030 25bd d2c4 d63d
00000160: 253f 773d 4bcf e73d 9ab0 91bd bfab 6dbe
00000170: 58fe 263a 55ca 8b3e 9642 c2bd 1f44 9cbc
00000180: 48b1 57be f082 523e 075d ca3d 7f08 aebb
0.11994239 0.2097905 0.29882166 -0.07624477 0.048351314 -0.31871584 -0.13129564 -0.0079613095
-0.26702607 0.1264468 -0.049629916 -0.35018814 -0.09694764 -0.16413078 0.2778775 -0.044868935
0.14280988 -0.16495232 0.16707733 -0.27776346 0.04132674 -0.39043352 -0.13861652 -0.09119664
0.09354664 -0.2631144 0.17826937 -0.3040968 0.34358054 -0.2671372 0.057180762 -0.018749485
-0.12867571 -0.08733802 0.38992092 -0.5096688 0.08375642 -0.06735474 -0.041612837 0.13047929
-0.299128 0.0067804595 -0.08103501 0.095895804 0.28172114 -0.12852791 -0.21922393 -0.09433559
0.24999167 -0.18646783 -0.11016011 0.11017807 -0.24383701 -0.25196007 0.084346235 -0.101190865
0.16893803 -0.36203957 0.062279515 -0.022088662 -0.25150266 0.01680438 -0.18305859 0.27293018
-0.51114225 -0.0062059737 0.18895179 -0.2611485 0.13643822 0.35132945 -0.08679636 -0.022283424
-0.10140434 0.26681915 -0.28758854 -0.07801511 0.20023632 0.28347117 0.09753356 -0.24549294
-0.29753983 0.22203052 0.0066535473 0.24067035 -0.049060494 -0.043042675 -0.040329456 0.10486759
0.060362954 0.11318835 -0.07113762 -0.23210047 0.00063702976 0.27302805 -0.094853565 -0.019075451
-0.21063721 0.20557761 0.09881025 -0.0053110714

fc2.weight f4 [100, 100]
00000000: bc26 f3be 931f edbe c1fb 46be 9959 c7bc
00000010: 506b 1bbe 2489 9b3e a467 993e 0727 c33d
00000020: 8637 363d c284 84bd d0aa 33be a0a6 9b3e
00000030: 59a9 8d3a 8fdf 8a3e 9599 aa3d b260 523e
00000040: 686b ad3d b6d7 be3a c84f 84be 57ea cc3e
00000050: d6a8 a6bd c681 173e a89c 453d 8999 f43e
00000060: 41be a5be 43f4 c0bd 5531 1e3c a635 e4bd
00000070: 60a6 90be 909d 0c3f 3bfb 97bd e33a 50be
00000080: 10f7 ba3e 9b73 b0be 09a3 8cbe a919 0b3e
00000090: e499 38bc 376f 893b a6e8 9dbe 8568 a3bd
000000a0: 4139 c23e aad2 853e 1c8f ee3e a3ab 0b3f
000000b0: fb58 60be 6098 a33e 5f2e e03e e13a 153e
000000c0: 009f 9abe e829 e73d f5f9 24be 7171 d9be
000000d0: 4ba0 0c3e 658e a13e 96ed 233c 012e 33be
000000e0: 4649 f1be 935c b43d 3453 943e 0e0d f63e
000000f0: 3e53 bf3e 4fc7 b23e 1749 743c f482 e9be
00000100: b1da 473e a775 ea3e 3c1d fd3b 2f42 3a3e
00000110: cc9b 80be 9118 74be cdd6 27be e84a 9b3e
00000120: 707a 90bd ad5d dbbe a16a d13e 598d aabe
00000130: 6cc4 10be c779 3abe 79b4 34bb ff7c 033f
00000140: ea16 c03e 095e 88be 065f e33d b418 97bd
00000150: 1c51 6cbd 4cc6 163e af81 46bd d508 0d3e
00000160: 6a69 1e3d 8925 aebe 98a1 3c3d 9987 6d3e
00000170: b13a e43d 564f 723a 38f2 283f d086 bd3c
00000180: 9fec 063f 2bdd 78be 978c 0ebe 9fc7 953e
00000190: fd43 543e 8655 b13d 93f6 2c3f ae25 503e
000001a0: d01c 94be a42b e6be 9fcd 2cbe 49e2 98be
000001b0: 6166 21bf f223 193f b41b d4be 1be8 1abe
000001c0: 75ce b1be 3540 903d 2cb2 193f cf58 a53e
000001d0: 2e8e f43d 1b70 babd 44a9 e93e f44b 80be
000001e0: 8a02 82be 3c5b 19bf 1b1c 7cbe a87f 13be
000001f0: 268b 983e ecd5 94be 7968 343e f0f5 c5be
00000200: ce4e 163f bbdf 443d f377 92be 8240 7e3e
00000210: ed84 79be 901c b6be 2ba8 253f 5dc5 eebe
00000220: 473d a8be 2711 02be 7016 bdbe 76ef 8a3e
00000230: fa9d c6be ef26 ec3d a6fe c23c a2f3 16bd
00000240: ea14 133f 2ccc cdbd 1948 313d da84 e5be
00000250: e6b3 3d3d 8e67 34bf fafc f2be 8377 a73c
00000260: d604 dfbe bc25 0ebf 969c e43e 59c7 32be
00000270: c348 24be c5ab efbe ed02 033e 5f7c 5bbd
00000280: e5f1 84bd cd2f 013d ff7d 94be a7f2 0f3e
00000290: b937 37bf e9c6 ee3d d5a1 973e b885 cebe
000002a0: b242 313e d7b7 153f 306d 90be 9194 1abe
000002b0: 0417 30be e685 653d d9ba 7fbd 6ab7 84be
000002c0: 9e8d f63e 0adb 033f 6fb9 0d3e 1139 16be
000002d0: 4513 22bf 1404 0c3e 829b a73e 6adf 0a3f
000002e0: 1f6b b0be 09c6 713e 34ee 73be 85eb 003e
000002f0: db17 bcbe 118b 233e c852 4bbf f1df 0fbf
00000300: 00cb be3e 42e0 d03e 5b78 3cbe ef2b 99be
00000310: 2e69 45be 9883 e03d f9b3 cd3e e8c4 983e
00000320: 6f50 5d3e 7797 293e bbf2 1f3f f2e2 523e
00000330: eb8c d7be 0674 c8be bab2 2dbe 7852 a5be
00000340: 5e3e 16bf d7eb 243f 6512 50be 1f11 80bd
00000350: be51 88be 8807 b33d 24c0 233f 4d34 ff3e
00000360: e243 96ba f76a 18be 00e9 b03e 87a4 64be
00000370: d750 8abe f737 1bbf fee2 78be 6bca e1bd
00000380: ca55 b03e e752 8abe 143f b23e 5ad7 b1be
00000390: 0b17 0d3f 3a7a 5abd 10f2 b1be 2adf 9a3e
000003a0: 4cf9 aabe f864 9dbe 80b0 193f 5d18 f5be
000003b0: f95c 22be 38f1 15be 103d 1bbe 9d8f a63e
000003c0: be46 b0be a8fe 233e 881b 093e b3a2 d6bd
000003d0: 383a 443f cd73 1dbd 7998 d3bd 0aa7 cfbe
000003e0: 7801 113e 3c2a 2dbf ae60 f9be 3239 0abc
000003f0: 61d7 03bf 31ae 08bf 91dc ff3e 17a4 a9be
-0.4749049 -0.46313152 -0.19431974 -0.024334716 -0.15177655 0.30378067 0.29961884 0.09528928
0.044486545 -0.06470634 -0.17545629 0.30400562 0.0010807916 0.27123687 0.08330075 0.20544699
0.08467752 0.0014560136 -0.25842118 0.40022537 -0.08137672 0.14795598 0.048245102 0.47773388
-0.32371715 -0.09421589 0.009655316 -0.11143045 -0.28251934 0.5492792 -0.07420965 -0.20334964
0.3651662 -0.344632 -0.27468136 0.13584007 -0.011267159 0.004194166 -0.3084156 -0.0797892
0.37934306 0.26137286 0.4659356 0.5455877 -0.21908943 0.3195219 0.43785378 0.14573242
-0.30199432 0.1128729 -0.16110976 -0.4246936 0.13733022 0.3155395 0.010005375 -0.17498018
-0.47126216 0.0880672 0.2896973 0.48056835 0.37368196 0.34917685 0.014910004 -0.45607722
0.19517018 0.45792887 0.0077244323 0.1818931 -0.25118864 -0.23837496 -0.16390534 0.30330586
-0.07054603 -0.42844906 0.40901664 -0.33310965 -0.14137429 -0.18210517 -0.002757339 0.51362604
0.37517482 -0.26634243 0.11102109 -0.073777586 -0.05769454 0.14724082 -0.04846352 0.137729
0.03867475 -0.34013012 0.046052545 0.23196258 0.11144007 0.00092433894 0.65994596 0.023135573
0.52704805 -0.24303119 -0.13920818 0.2925386 0.2072906 0.086588904 0.6756374 0.20326874
-0.28928232 -0.4495517 -0.16875313 -0.29860142 -0.6304684 0.59820473 -0.41427386 -0.15127604
-0.34727827 0.070434965 0.60037494 0.32294318 0.11941181 -0.09103414 0.45636952 -0.25057948
-0.25392562 -0.5990484 -0.24620096 -0.14404166 0.29793662 -0.2906946 0.17617978 -0.38664198
0.58713996 0.04806493 -0.2860714 0.24829295 -0.24367113 -0.35568666 0.6470973 -0.4663495
-0.3285925 -0.12701856 -0.3693118 0.2713582 -0.38792402 0.115308635 0.023803066 -0.03685344
0.5745379 -0.10048708 0.04328165 -0.4482792 0.046314143 -0.7047051 -0.4745863 0.02044273
-0.43558377 -0.5552633 0.44650716 -0.17458858 -0.16043381 -0.46810737 0.12794085 -0.053585406
-0.0649145 0.031539727 -0.29002377 0.14057408 -0.715694 0.11659033 0.29615656 -0.40336394
0.17310598 0.5848364 -0.28208303 -0.15095736 -0.1719628 0.0560359 -0.06243405 -0.25921184
0.4815492 0.515061 0.13840269 -0.14670207 -0.6331065 0.1367343 0.3273583 0.5424715
-0.34456727 0.236107 -0.23821336 0.12589844 -0.3673695 0.15971018 -0.7942319 -0.5620108
0.37264252 0.40796095 -0.18405287 -0.2991633 -0.19278404 0.109625995 0.4017637 0.29837728
0.21612714 0.16561686 0.6247975 0.20594385 -0.420997 -0.3915102 -0.1696271 -0.3228948
-0.58688915 0.64422363 -0.20319517 -0.062532656 -0.26624864 0.08741671 0.6396506 0.4984459
-0.0011464322 -0.14884554 0.34552765 -0.22328387 -0.270148 -0.6063227 -0.2430534 -0.11024936
0.34440452 -0.27016374 0.3481375 -0.34734613 0.55113286 -0.05333922 -0.34754992 0.30248386
-0.33393323 -0.30741096 0.6003494 -0.4787015 -0.15855779 -0.14642799 -0.15160012 0.32531443
-0.34428972 0.16015112 0.13389409 -0.10480251 0.76651335 -0.038440514 -0.10331816 -0.40557128
0.14160717 -0.6764257 -0.48706573 -0.008436488 -0.5150052 -0.53390795 0.49972966 -0.33133003

fc2.bias f4 [100]
00000000: d7fc 87be cb52 273f e8e2 1d3f 6977 38be
00000010: 767c 753e 6ff9 1b3f 25f7 2dbf 996f 383f
00000020: bca7 ac3e b86f 233f 7670 413f 739d 143f
00000030: 6726 2a3f 9f9a 3c3f 127f 463f 4fa2 3d3f
00000040: 1d1e 2e3f c18c c03d 08ab 41bf 8339 26bf
00000050: 4404 61be 080f 32bf 77bc 3c3f e625 853e
00000060: 7abf c7be 278a 283f bf7b 09bf 5ef7 27bf
00000070: 38ab 463f d631 3a3f 7b83 f63e f362 433f
00000080: 9639 e2bd 030f 41bf 23c0 3ebf ab67 d33d
00000090: 8fbf adbe 75fb 2d3f be09 10be a9d1 423f
000000a0: f9f6 0fbf 9153 acbe 4f1c 243f f35d 283f
000000b0: 7447 683e ca0c 2ebf 8a0f 2b3f c250 46bd
000000c0: ffcf a93e 5ce7 32bf cd03 18bf b852 43bf
000000d0: b540 27bf 07a7 fcbd 779a f9bd 0f21 033e
000000e0: a57f 9abe df3d 323f 9183 32bf dd94 22bf
000000f0: 31ed 203f af51 4a3f 2a87 353f aae1 903e
00000100: 8636 2fbf 6e9d e8bd 3376 9fbe ab0c a9be
00000110: 817b 2ebf d57c 2fbf 31b5 fcbb b40d 54be
00000120: 6ea5 353f bbee 343f 8d8e d1bd 2d8e c73e
00000130: 7be6 3fbf 6688 3ebf 5aa7 3d3d 32df 423f
00000140: 5472 aebe c22d 263f 06d7 883e 279b ce3e
00000150: 74e5 a13e bdf2 353f d48e 1ebf 0e65 433e
00000160: 7a35 183f 3c74 c93e 57a8 44bf 2e9d 8e3d
00000170: 6ea4 353f 6921 03bf c3f5 2dbf 1a99 3ebf
00000180: 7473 243f ef13 44bf 81b0 1bbe 2e88 13bf
-0.2656009 0.6536071 0.61674356 -0.18014301 0.2397326 0.6092748 -0.6795524 0.72045285
0.3372172 0.63842344 0.75562227 0.5805275 0.6646485 0.73673433 0.77537644 0.7407579
0.680147 0.09401847 -0.756516 -0.64931506 -0.21974283 -0.69554186 0.73725075 0.26005477
-0.39013273 0.65835804 -0.53704447 -0.6561183 0.7760501 0.72732294 0.48147187 0.7632286
-0.1104614 -0.7541353 -0.7451193 0.103225075 -0.3393521 0.6796182 -0.14066216 0.76101166
-0.56236225 -0.33657506 0.64105695 0.65768355 0.22683507 -0.67988265 0.66820586 -0.04841686
0.331665 -0.69884276 -0.593808 -0.76298094 -0.6533311 -0.123365454 -0.12187665 0.1280558
-0.3017551 0.6962566 -0.69732004 -0.635084 0.62861925 0.7903089 0.7090937 0.28297168
-0.6844257 -0.11358152 -0.31144866 -0.33017477 -0.681572 -0.68549854 -0.0077120294 -0.20708352
0.7095555 0.70676774 -0.102322675 0.3897566 -0.7496106 -0.7442688 0.046302177 0.7612182
-0.340716 0.6491357 0.2672655 0.40352747 0.3162037 0.71073514 -0.6193669 0.19081518
0.594566 0.39346492 -0.76819366 0.069635734 0.70954025 -0.51222855 -0.6795313 -0.74452364
0.6423867 -0.76592916 -0.1520405 -0.5762967

fc3.weight f4 [2, 100]
00000000: 887d 8e3f 5b11 a8bf 1db5 aabf 54b3 bfbf
00000010: 6957 a6bf d963 b0bf cdf9 b33f d9c1 b0bf
00000020: 8b2d 77be d529 b0bf 9f27 b1bf bd3b b5bf
00000030: 713d a9bf 6eff babf 71db b5bf cbc0 a7bf
00000040: 7b6e abbf a9a6 c23f efcd b43f 9cd7 ab3f
00000050: 0c91 04c0 751e b03f 7f4d a8bf 32d3 8ebf
00000060: 9611 1c3c a015 aebf 0a8f ad3f 6f70 b53f
00000070: 898c b2bf 8993 a4bf d329 adbf 990f b6bf
00000080: d8fe 0d3b b59d b13f c9a0 b13f 9e0b 153f
00000090: 28d1 e23e 767b b4bf c622 c23f 3be7 b0bf
000000a0: 03b9 ab3f 1246 28c0 75f5 b7bf 6cd5 afbf
000000b0: a43a a0bf 1fde ae3f d594 b5bf 61b3 37bf
000000c0: 24d0 c13f a8e7 b03f 6aff a63f 97f8 b03f
000000d0: 0c2f ba3f 580e c5bf e90d a43f 2f40 c1bf
000000e0: 0248 af3f 41c4 adbf c3ce b23f 7724 b23f
000000f0: 5317 b1bf fb29 b3bf f858 b1bf 96f5 a3bf
00000100: 9133 b03f c7f3 a73f 30d8 973e f05b aebf
00000110: 17ce a83f 6987 a33f c587 c43f 6e1f 993f
00000120: 1045 b0bf 0167 b7bf edb2 37bf db7b 05be
00000130: e6f2 ae3f 062f af3f 96a7 c8bf 8fac b7bf
00000140: 287f 0f3f c2ad b4bf 385f b0be af09 e3bd
00000150: d300 82bb e172 b3bf 2c46 b13f 6188 33c0
00000160: dd0a a8bf 6f65 0fbe 0e9f b23f b43a ae3d
00000170: c052 b5bf ef7e bebf 6891 b93f 962d b23f
00000180: 9382 b5bf 053e b13f a0f3 be3f 198b b03f
00000190: 8f1a c63f aa09 a3bf 2373 98bf a598 8bbf
000001a0: 188a c0bf dd7d 98bf f828 af3f 437b adbf
000001b0: baeb 00c0 f3f6 9dbf 2e02 adbf f7f6 aabf
000001c0: bf0c 99bf 1f0d a2bf 4bed a9bf d16d 9fbf
000001d0: cc08 a5bf 487a 8a3f 8da6 ab3f b6a0 993f
000001e0: ccae cfbf ceca 9e3f b6f8 96bf d4ab cbbf
000001f0: 135a 4440 7d28 9bbf ee9a ae3f 7de6 a63f
00000200: 53bf aabf f558 95bf d078 aebf bff1 a5bf
00000210: 1980 4740 48ca a93f a3fe a33f 88b4 fb3f
00000220: 63d9 f83f a523 aabf 05aa 8c3f e706 9ebf
00000230: c98b a73f cadd 0fc0 99ad a9bf ab25 9ebf
00000240: 342b cabf cf94 ac3f 3b95 a9bf 7ea6 d6bf
00000250: ce5d 8e3f bf74 a93f 9b7c a53f 530c a03f
00000260: 28fa aa3f 5b88 59bf 4634 b53f e390 83bf
00000270: af95 ac3f ff26 9abf df64 9d3f 2d85 a33f
00000280: 850b 9fbf ad94 abbf ee57 9dbf 933b bdbf
00000290: 93bd a03f 9791 b13f 8aea e53f 25dc c5bf
000002a0: be46 973f d95c 973f 5f55 8f3f ea5b b83f
000002b0: 45db a6bf 2b51 a3bf 1c63 e4bf 6869 1ac0
000002c0: 5df5 9b3f 412d 9c3f 3439 89bf 7a78 aabf
000002d0: 82c5 f03f 3c8f afbf 530d eabf 9d56 12c0
000002e0: d3d7 1ec0 5da3 a4bf 792c 9e3f e4d8 33c0
000002f0: 0b6b a3bf b7c8 16c0 40ab a93f 6d6a 1fc0
00000300: a125 a2bf 3c9e b3bf 7f8b aa3f 951e a83f
00000310: 4c61 abbf 5490 ab3f 2713 8c3f 4c47 ae3f
1.1132059 -1.3130296 -1.3336521 -1.4976602 -1.2995425 -1.3780471 1.4060608 -1.3809158
-0.24138467 -1.3762766 -1.3840216 -1.4158856 -1.3221875 -1.4609201 -1.4207593 -1.3105711
-1.3393091 1.5207111 1.4125346 1.3425174 -2.071353 1.3759295 -1.314865 -1.1158202
0.009525677 -1.360035 1.3559277 1.4174937 -1.3949138 -1.2857524 -1.3528389 -1.422351
0.0021666791 1.3876253 1.3877193 0.5822085 0.443002 -1.4100177 1.5166862 -1.3820566
1.3415836 -2.6292768 -1.4371783 -1.3737006 -1.2517896 1.3661536 -1.4186045 -0.71758085
1.5141644 1.3820696 1.3046696 1.3825864 1.4545608 -1.5395002 1.2816745 -1.5097712
1.369385 -1.3575517 1.3969349 1.3917378 -1.3835243 -1.3997186 -1.3855276 -1.2809322
1.3765737 1.312127 0.29657125 -1.3621807 1.3187894 1.2775699 1.5353934 1.1962717
-1.3771076 -1.4328309 -0.71757394 -0.13035528 1.3667877 1.3686225 -1.5676143 -1.4349536
0.560534 -1.4115527 -0.34447646 -0.110858314 -0.0039673834 -1.4019433 1.384954 -2.805199
-1.3128315 -0.14003538 1.395479 0.085072905 -1.4165878 -1.4882487 1.44975 1.3920162
-1.4180473 1.3847052 1.4918098 1.3792449 1.5476855 -1.2737324 -1.1910137 -1.0905958
-1.5042143 -1.191341 1.3684378 -1.3553241 -2.0143876 -1.2340988 -1.351629 -1.3356618
-1.1957015 -1.2660254 -1.3275541 -1.2455388 -1.289331 1.0818567 1.3410202 1.200217
-1.6225219 1.2405641 -1.179465 -1.5911813 3.0679977 -1.2121731 1.3641031 1.303909
-1.3339638 -1.1667773 -1.3630619 -1.29644 3.1171935 1.3264856 1.2812084 1.9664469
1.9441341 -1.3292128 1.0989386 -1.2345856 1.3089534 -2.247912 -1.3256103 -1.2355245
-1.5794435 1.3482913 -1.3248667 -1.6769559 1.1122377 1.3238753 1.2928652 1.2503761
1.3357592 -0.84973687 1.4156578 -1.0278591 1.348318 -1.2043151 1.2296408 1.2775017
-1.242539 -1.3404747 -1.2292459 -1.4783806 1.2557853 1.3872555 1.7962201 -1.5457808
1.1818464 1.182521 1.1197928 1.440305 -1.3035666 -1.2759145 -1.7842746 -2.4126835
1.2184254 1.220131 -1.0720582 -1.3318017 1.8810275 -1.3715587 -1.8285316 -2.2865365
-2.4819229 -1.2862355 1.2357322 -2.810113 -1.2767042 -2.3560007 1.3255386 -2.4908707
-1.2667733 -1.4032664 1.3323821 1.3134333 -1.3389068 1.340342 1.0943345 1.3615508

fc3.bias f4 [2]
00000000: aaa2 9dbf 8fb3 9bbf
-1.2315266 -1.2164172

fc1.weight f4 [100, 22]
00000000: 07c1 1ab8 b550 7539 ea19 da38 d593 5039
00000010: 86de 5d39 f6d1 9136 087f ac35 c971 ae37
00000020: 4d67 6137 bb9c 0080 096d 0200 1f1b 0800
00000030: f147 0400 5f36 0c80 340d 0900 7aba 1280
00000040: 2b2d 0800 0c35 0580 5db2 0980 ecd6 1680
00000050: 8d1b 0a80 1cfb 2782 1eec 7fb0 855e bfae
00000060: 8b2c e6ae 5816 05b0 bbfa 93af 4ecc 602f
00000070: 257b 2730 b0d1 ea2e 5693 192f 588e 0100
00000080: 2e89 0e80 9e8a 1100 f242 1200 e243 0200
00000090: 7572 0a80 86a3 0d00 54ed 0b80 1442 1080
000000a0: 1148 0b80 dc98 1080 a430 1380 0f55 0c80
000000b0: 8a06 5bb5 24af 5b35 ffe7 2e35 a2e1 fd35
000000c0: 1ef3 4635 7e0c 69b4 b8f1 85b4 eef7 e4b2
000000d0: 5e85 e8b3 8e48 1300 ac53 0080 b08b 1100
000000e0: da70 0a80 81a0 0780 a024 0180 89b5 0680
000000f0: ee23 0180 9845 0e00 7eb8 0080 bd0d 0c00
00000100: 2c11 1400 2b38 0800 bed2 c9bd cb16 a63b
00000110: fae7 a13b 3713 d63b c691 a43b 15da 113d
00000120: c60e 623d f4ad d43c 5802 f33c 4186 0580
00000130: f2c1 0900 3d41 0e00 c91a 1580 c855 0500
00000140: 794d 0c80 89ec 0700 1fd1 0e00 9bb5 0400
00000150: 3c34 1500 4e87 0800 5488 0280 9773 0780
00000160: f436 b9b4 9827 44b3 570b 10b3 2770 26b4
00000170: ef1e adb3 9ed2 9133 4be4 6f34 3165 1533
00000180: 32e4 4233 633b 0580 f87f 0f00 2d3a 0580
00000190: d05e 1700 3211 0100 d6cc 0300 8b25 1880
000001a0: 6537 1600 f754 0580 6b3d 0980 5339 1600
000001b0: 0503 0f00 b23c 1080 8cb2 2c36 3739 0238
000001c0: 1791 d437 f419 2c37 d6fb b437 a240 22b6
000001d0: a063 2135 b030 62b6 c060 5ab6 063f 0a80
000001e0: 79b7 0980 cae2 0580 18e6 1500 7b69 0100
000001f0: b377 1280 c28a 0900 ec72 1300 4726 1980
00000200: 4682 0200 c262 1680 e292 1300 2e94 1480
00000210: 60d3 8b33 18d0 b0b2 98b8 7db2 c5ed cd32
00000220: 7e4a bbb2 4c92 3e32 37d6 45b2 3104 0933
00000230: ddc7 c232 2de8 1380 146d 0900 820d 0500
00000240: 5cae 1000 4ab1 0080 b106 0300 a8d0 0380
00000250: 6b3b 0480 bb68 0a00 3625 0b80 506d 0800
00000260: 5791 0880 d43a e902 cb5d a130 f88e 382f
00000270: 284a d42e 7898 2b30 7db7 aa2f 6f3f 4faf
00000280: e0be 16b0 7ede b6ae 6ba6 04af 08de 1400
00000290: 3344 1000 4737 1100 7fc7 0e80 8c8e 1200
000002a0: d6de 0880 400e 0600 c9bb 0080 fa29 0600
000002b0: e551 1200 0822 0100 20d6 0780 b177 0b00
000002c0: a71e 0a30 80ee 2bb0 08ac f3ad c69f fc2f
000002d0: 2f6c de2e 9cf6 a2af 84a3 8baf 4c1d fdaf
000002e0: d845 d5af c6f4 0100 8267 0b80 1943 0e80
000002f0: faa4 0e80 fdbf 1380 8151 1500 7da7 0b80
00000300: 3412 0f00 43ba 0f80 8ae0 1480 1aab 1480
00000310: 321a 0b80 ff50 0d80 3bf3 c9bd dd21 a63b
00000320: 3dfa a13b 350e d63b af94 a43b 48f1 113d
00000330: 0a34 623d 70cf d43c db28 f33c 24eb 0080
00000340: 06b0 1580 ae2c 0580 a214 0e80 5ab0 1580
00000350: e3f2 0600 9f07 0500 eaf9 0e00 1e67 0780
00000360: 742e 0180 0cf4 0900 9f8e 0b00 54dd 0a80
00000370: 64f9 c93d 0024 a6bb c7fd a1bb 200d d6bb
00000380: 3b95 a4bb b9f5 11bd 203b 62bd cfd5 d4bc
00000390: 3c30 f3bc d1b1 0600 174c 0900 e133 0580
000003a0: a12b 0280 c3b0 0500 2745 1600 4b27 0580
000003b0: dca2 0a00 4644 1100 5bb4 1780 a791 1500
000003c0: 985f 0080 988c 0300 7df7 c93d 6123 a6bb
000003d0: b2fc a1bb 7b0d d6bb 1095 a4bb 51f4 11bd
000003e0: ec38 62bd dbd3 d4bc f52d f3bc e051 0280
000003f0: 37ee 0c80 1853 0100 03a4 0a00 2cd1 0600
-3.6896232e-05 0.00023395086 0.00010399877 0.00019891498 0.00021159099 4.3457794e-06 1.285197e-06 2.0795402e-05
1.3435097e-05 -5.6224e-41 2.22785e-40 7.44413e-40 3.9315e-40 -1.12153e-39 8.31256e-40 -1.719934e-39
7.50887e-40 -4.78207e-40 -8.90504e-40 -2.09748e-39 -9.28238e-40 -1.2341287e-37 -9.3104e-10 -8.7024644e-11
-1.04671015e-10 -4.841687e-10 -2.69173e-10 2.0445265e-10 6.0929245e-10 1.0678336e-10 1.3967613e-10 1.42899e-40
-1.334908e-39 1.61093e-39 1.677054e-39 2.08023e-40 -9.59414e-40 1.252523e-39 -1.095328e-39 -1.493072e-39
-1.036043e-39 -1.524204e-39 -1.762323e-39 -1.132539e-39 -8.1593373e-07 8.183872e-07 6.515765e-07 1.8915637e-06
7.411453e-07 -2.170436e-07 -2.4949054e-07 -2.6655439e-08 -1.0827601e-07 1.770902e-39 -3.0016e-41 1.611314e-39
-9.58838e-40 -7.00426e-40 -1.04974e-40 -6.16136e-40 -1.04725e-40 1.310662e-39 -6.6183e-41 1.106954e-39
1.84287e-39 7.54833e-40 -0.09854649 0.005068635 0.004940984 0.0065330523 0.0050222604 0.03560837
0.05518987 0.025961854 0.029664204 -5.07339e-40 8.96094e-40 1.3091e-39 -1.938154e-39 4.8995e-40
-1.129818e-39 7.27701e-40 1.360715e-39 4.3249e-40 1.947284e-39 7.83222e-40 -2.32576e-40 -6.84314e-40
-3.449892e-07 -4.5670816e-08 -3.3537926e-08 -1.5500756e-07 -8.061567e-08 6.7904e-08 2.2341662e-07 3.47838e-08
4.5376687e-08 -4.80481e-40 1.423439e-39 -4.80047e-40 2.146229e-39 9.8004e-41 3.48988e-40 -2.21752e-39
2.040253e-39 -4.89657e-40 -8.48552e-40 2.040945e-39 1.378616e-39 -1.491141e-39 2.5733925e-06 3.10477e-05
2.5339932e-05 1.0258042e-05 2.1574942e-05 -2.4177502e-06 6.012215e-07 -3.3704964e-06 -3.2540847e-06 -9.40964e-40
-8.92337e-40 -5.40534e-40 2.011088e-39 1.29675e-40 -1.695979e-39 8.76296e-40 1.7861e-39 -2.309619e-39
2.30404e-40 -2.055809e-39 1.797566e-39 -1.889867e-39 6.511141e-08 -2.0583727e-08 -1.476851e-08 2.3973266e-08
-2.180354e-08 1.109272e-08 -1.1515616e-08 3.190161e-08 2.267546e-08 -1.828163e-39 8.6565e-40 4.64023e-40
1.531916e-39 -6.36e-41 2.77907e-40 -3.50358e-40 -3.88657e-40 9.55925e-40 -1.023539e-39 7.73898e-40
-7.86822e-40 3.4270039e-37 1.1740949e-09 1.6785495e-10 9.6538166e-11 6.242611e-10 3.1053196e-10 -1.8849076e-10
-5.484093e-10 -8.315924e-11 -1.2064454e-10 1.91636e-39 1.493833e-39 1.581033e-39 -1.357263e-39 1.704175e-39
-8.14622e-40 5.56125e-40 -6.7365e-41 5.66071e-40 1.682417e-39 1.04044e-40 -7.19662e-40 1.053128e-39
5.0247667e-10 -6.2548366e-10 -2.7702299e-11 4.595206e-10 1.01146085e-10 -2.9642855e-10 -2.5400138e-10 -4.6041249e-10
-3.87941e-10 1.79644e-40 -1.047322e-39 -1.309767e-39 -1.34488e-39 -1.813747e-39 1.957784e-39 -1.070274e-39
1.384062e-39 -1.44435e-39 -1.91726e-39 -1.89809e-39 -1.019588e-39 -1.222917e-39 -0.09860846 0.005069955
0.004943161 0.0065324553 0.0050226073 0.035630494 0.05522541 0.02597782 0.029682567 -8.4353e-41
-1.991691e-39 -4.75206e-40 -1.293099e-39 -1.991808e-39 6.38144e-40 4.61911e-40 1.375349e-39 -6.7984e-40
-1.085e-40 9.14067e-40 1.061353e-39 -9.97753e-40 0.098620206 -0.0050702095 -0.0049435827 -0.0065323263
-0.0050226725 -0.03563473 -0.055232167 -0.025980858 -0.029686086 6.14801e-40 8.53815e-40 -4.77788e-40
-1.99322e-40 5.22588e-40 2.045188e-39 -4.73273e-40 9.76778e-40 1.585695e-39 -2.176916e-39 1.980796e-39
-3.4293e-41 3.25942e-40 0.09861658 -0.0050701355 -0.0049434537 -0.0065323687 -0.0050226524 -0.03563339
-0.055230066 -0.025979927 -0.029685 -2.13042e-40 -1.187481e-39 1.21644e-40 9.77191e-40 6.2605e-40

fc1.bias f4 [100]
00000000: 3889 74b8 b887 ad30 7099 0db5 38b1 ffbd
00000010: c24e 0535 bf21 67b6 185e 2bb2 d1e4 a9b0
00000020: 113b 8fb0 58e0 ffbd 61e9 ff3d a7e6 ff3d
00000030: a8b8 43b8 fde6 ff3d e6eb ffbd a7ea ff3d
00000040: f0ec ffbd d6ed ffbd 8e6a f236 c3f0 ffbd
00000050: c81d 0932 44fe 1f32 33ca ffbd ab8f 3e38
00000060: 7669 77b4 89c1 e334 4dd7 ffbd fde6 ffbd
00000070: 3270 f633 d7ef ff3d 5eae 1a31 172a a0b7
00000080: 570c bdb9 12e8 ff3d 695f ffbd b792 41b1
00000090: 8418 65b8 7a94 7638 f810 70b8 dae7 86b5
000000a0: 92dd beb1 12de f2b6 0195 98b8 a43b d1b2
000000b0: e7ac 97b8 ef36 9ab4 bae2 ff3d 73e5 ffbd
000000c0: 88f4 ce36 c5ea ffbd 0cde ffbd 71e4 ffbd
000000d0: e1e8 ff3d 5552 2630 d0d9 ffbd 98e7 ffbd
000000e0: ea63 8b2e acd8 ff3d 6be9 ff3d 7870 89b4
000000f0: 19e9 ff3d 7aca 3caf 8ce0 ff3d 872e 17b5
00000100: 98e8 ff3d be03 7237 e4d2 ff3d c9ea ffbd
00000110: c9db ff3d 5cd4 ff3d 2524 9e39 8de9 ff3d
00000120: 5ed4 ff3d 8ceb ffbd aee0 ffbd 03e7 ff3d
00000130: 0ee8 ff3d 45ee ffbd 80b9 c2b0 7ddb ff3d
00000140: 7e8f a3b7 4b60 0c2f 7903 e7b3 bfdb ff3d
00000150: 34e0 ffbd 99e5 ff3d 45a9 1236 e4d3 ff3d
00000160: 0de9 ff3d 6b45 16b4 583b f6b0 491d 4a35
00000170: a6ad 93b0 b2eb ff3d 00e4 ffbd 1ce0 ff3d
00000180: ca2b 5bb2 e868 1133 f420 b335 10ea ffbd
-5.830193e-05 1.262598e-09 -5.2749874e-07 -0.12484974 4.966097e-07 -3.4441325e-06 -9.9749045e-09 -1.2361402e-09
-1.0421407e-09 -0.12493962 0.12495685 0.12495165 -4.6663597e-05 0.124952294 -0.12496166 0.12495928
-0.12496364 -0.124965355 7.2245666e-06 -0.124970935 7.981221e-09 9.312831e-09 -0.12489738 4.543333e-05
-2.3042034e-07 4.242286e-07 -0.12492237 -0.124952294 1.1475676e-07 0.12496918 2.2509066e-09 -1.9093086e-05
-0.00036058083 0.12495436 -0.1246937 -2.8168594e-09 -5.4620687e-05 5.878925e-05 -5.7236262e-05 -1.0051256e-06
-5.5549174e-09 -7.2380144e-06 -7.275679e-05 -2.4357924e-08 -7.232447e-05 -2.8724705e-07 0.124944165 -0.12494936
6.1677456e-06 -0.124959506 -0.12493524 -0.124947436 0.1249559 6.050745e-10 -0.12492716 -0.12495345
6.3387365e-11 0.12492499 0.12495693 -2.560007e-07 0.12495632 -1.7170435e-10 0.12494001 -5.631959e-07
0.124955356 1.4425195e-05 0.12491396 -0.124959536 0.124930926 0.12491676 0.00030163038 0.12495718
0.12491678 -0.12496099 -0.12494026 0.12495234 0.12495433 -0.12496618 -1.416808e-09 0.12493036
-1.9497933e-05 1.2767136e-10 -1.07574074e-07 0.12493085 -0.12493935 0.12494964 2.1854223e-06 0.12491587
0.12495623 -1.3995093e-07 -1.7915722e-09 7.529348e-07 -1.0745012e-09 0.12496127 -0.124946594 0.12493917
-1.2757434e-08 3.3855855e-08 1.334613e-06 -0.12495816

fc2.weight f4 [100, 100]
00000000: 0011 f337 b95f 052e 4ca7 10b5 934a 9bbc
00000010: 4afb 5132 1a29 c7b5 704f 6fb0 b4fb caad
00000020: 820e afae cc64 9bbc d369 9b3c 4968 9b3c
00000030: 94b6 54b5 7d68 9b3c 3d6b 9bbc 876a 9b3c
00000040: d66b 9bbc 536c 9bbc 0085 2834 f56d 9bbc
00000050: 7d36 602f 6882 4a2f 7d58 9bbc 6b8c db36
00000060: 22cd 4ab2 3356 2c32 c35f 9bbc 7d68 9bbc
00000070: 3be4 3332 6f6d 9b3c 345d 44ae 406b ce34
00000080: dc02 7138 1569 9b3c 271d 9bbc e42c 9dae
00000090: e58a 4ab7 e299 b7b7 b641 49b7 e601 d9b6
000000a0: a8fb 18af 6ed2 03b4 8744 a3b7 8e45 18b0
000000b0: a46c 8fb7 938a 9ab2 1966 9b3c a067 9bbc
000000c0: 91a0 db33 986a 9bbc 8663 9bbc 0e67 9bbc
000000d0: 8969 9b3c 5267 4030 2d61 9bbc d368 9bbc
000000e0: d2b6 dcae 8c60 9b3c d869 9b3c b70e 4cb2
000000f0: a769 9b3c 6a7c d1ac e764 9b3c 1426 a8b4
00000100: 6469 9b3c 7e4c 37b8 505d 9b3c 996a 9bbc
00000110: 4562 9b3c 1b5e 9b3c 4a80 5538 ec69 9b3c
00000120: 1d5e 9b3c 096b 9bbc fb64 9bbc 8068 9b3c
00000130: 1369 9b3c 8e6c 9bbc 9ecd 14ae 1c62 9b3c
00000140: 43d7 aab4 eca0 8d2d c8f0 17b2 4062 9b3c
00000150: ba64 9bbc b367 9b3c 9e0c 2033 d75d 9b3c
00000160: a269 9b3c e7cb 1fb1 b8e2 d7b2 e5c4 9132
00000170: 1f23 afad 1f6b 9b3c d166 9bbc ab64 9b3c
00000180: 3d79 77af 89e9 12b4 d590 68b7 346a 9bbc
00000190: 1c4f f3b7 5a57 05ae 99d7 1035 f431 9b3c
000001a0: 65e6 51b2 4365 c735 22bf 7330 e3ed ca2d
000001b0: d82d af2e 224c 9b3c 2551 9bbc 9f4f 9bbc
000001c0: 7db1 5435 d04f 9bbc 9052 9b3c d751 9bbc
000001d0: 2453 9b3c a153 9b3c d77c 28b4 4355 9b3c
000001e0: ba1f 60af 9f78 4aaf d73f 9b3c 499c dbb6
000001f0: 42a8 4c32 5146 2cb2 1a47 9b3c cf4f 9b3c
00000200: 28f6 33b2 be54 9bbc a744 442e f049 d1b4
00000210: 285d 71b8 6450 9bbc 7604 9b3c 622e 9d2e
00000220: 599a 4a37 a6b3 b737 c586 4937 5a44 d936
00000230: d9eb 182f 25cf 0334 7624 a337 0b44 1830
00000240: 8fa9 8f37 9687 9a32 764d 9bbc f64e 9b3c
00000250: 0798 dbb3 e751 9b3c d34a 9b3c 664e 9b3c
00000260: da50 9bbc b3ad 40b0 7c48 9b3c 2150 9b3c
00000270: 4e59 dd2e db47 9bbc 2b51 9bbc ecdf 4b32
00000280: f750 9bbc 36ec d12c 3d4c 9bbc a66c a834
00000290: ae50 9bbc 278f 3738 a744 9bbc ea51 9b3c
000002a0: 9449 9bbc 7545 9bbc b179 55b8 4051 9bbc
000002b0: 7745 9bbc 5952 9b3c 504c 9b3c d24f 9bbc
000002c0: 6250 9bbc df53 9b3c b0c2 142e 6749 9bbc
000002d0: 0ad2 aa34 4706 8ead d5fb 1732 8f49 9bbc
000002e0: 0d4c 9b3c 094f 9bbc fb08 20b3 3445 9bbc
000002f0: ed50 9bbc 2bc5 1f31 dc27 d832 b2b9 91b2
00000300: 8d17 af2d 6f52 9bbc 2c4e 9b3c ff4b 9bbc
00000310: 1c6f 772f 9015 1334 9ad2 6837 8651 9b3c
00000320: 4234 f3b7 f65a 05ae b8c2 1035 963c 9b3c
00000330: 76ef 51b2 154b c735 d2d2 7130 f6f3 ca2d
00000340: 5420 af2e c656 9b3c c95b 9bbc 465a 9bbc
00000350: c3b3 5435 765a 9bbc 405d 9b3c 855c 9bbc
00000360: d95d 9b3c 545e 9b3c 6280 28b4 ee5f 9b3c
00000370: 9029 60af d17c 4aaf 7f4a 9b3c 6795 dbb6
00000380: 18da 4b32 374d 2cb2 c351 9b3c 765a 9b3c
00000390: 7fee 33b2 6e5f 9bbc 044f 442e 900a d0b4
000003a0: 2436 71b8 0f5b 9bbc 210f 9b3c ce2d 9d2e
000003b0: 9c93 4a37 54a8 b737 dc68 4937 b927 d936
000003c0: adf2 182f 9fd0 0334 5532 a337 bd44 1830
000003d0: 408f 8f37 fc88 9a32 1858 9bbc 9b59 9b3c
000003e0: c49b dbb3 965c 9b3c 7e55 9b3c 1059 9b3c
000003f0: 815b 9bbc 258f 40b0 2953 9b3c cd5a 9b3c
2.8975774e-05 3.0325718e-11 -5.388763e-07 -0.018956458 1.2222538e-08 -1.4838618e-06 -8.706058e-10 -2.307652e-11
-7.960656e-11 -0.018968962 0.01897136 0.018970625 -7.924184e-07 0.018970722 -0.018972034 0.018971695
-0.018972319 -0.018972551 1.5694604e-07 -0.01897333 2.039204e-10 1.8418123e-10 -0.018963093 6.5430554e-06
-1.1804589e-08 1.0031317e-08 -0.018966561 -0.018970722 1.0471065e-08 0.01897308 -4.464802e-11 3.8448525e-07
5.746154e-05 0.018971005 -0.0189348 -7.1475076e-11 -1.2072477e-05 -2.1886957e-05 -1.1995833e-05 -6.467325e-06
-1.3913726e-10 -1.227688e-07 -1.9463025e-05 -5.539612e-10 -1.7097518e-05 -1.7990976e-08 0.018969582 -0.01897031
1.0227189e-07 -0.018971726 -0.018968355 -0.018970039 0.018971222 6.999602e-10 -0.018967235 -0.018970883
-1.0036917e-10 0.018966936 0.018971369 -1.1877709e-08 0.018971277 -5.95395e-12 0.018969012 -3.1320144e-07
0.018971153 -4.370184e-05 0.018965393 -0.018971728 0.018967757 0.018965771 5.0902636e-05 0.018971406
0.018965775 -0.018971937 -0.01896905 0.018970728 0.018971002 -0.018972661 -3.383393e-11 0.01896768
-3.182159e-07 1.6101308e-11 -8.844104e-09 0.018967748 -0.018968929 0.018970346 3.726438e-08 0.018965645
0.018971268 -2.325345e-09 -2.5132394e-08 1.6969759e-08 -1.9910794e-11 0.018971978 -0.018969925 0.0189689
-2.2507592e-10 -1.3682269e-07 -1.3861999e-05 -0.01897154 -2.9004696e-05 -3.0318283e-11 5.3957916e-07 0.018944718
-1.2217787e-08 1.4856126e-06 8.86745e-10 2.3070384e-11 7.966222e-11 0.018957201 -0.018959591 -0.018958865
7.9234434e-07 -0.018958956 0.018960267 -0.018959923 0.018960543 0.018960776 -1.5691636e-07 0.018961554
-2.0383953e-10 -1.8414646e-10 0.01895134 -6.5449026e-06 1.191262e-08 -1.0027706e-08 0.018954802 0.018958954
-1.0475141e-08 -0.018961307 4.4626216e-11 -3.898308e-07 -5.7545636e-05 -0.018959232 0.018923026 7.1477727e-11
1.2076075e-05 2.1898955e-05 1.2011912e-05 6.475061e-06 1.390811e-10 1.2275684e-07 1.9448093e-05 5.539397e-10
1.7125885e-05 1.7989617e-08 -0.018957835 0.01895855 -1.0225636e-07 0.018959953 0.018956577 0.018958282
-0.018959451 -7.0096035e-10 0.018955462 0.018959107 1.006578e-10 -0.018955162 -0.018959602 1.1867069e-08
-0.018959505 5.966362e-12 -0.018957252 3.137149e-07 -0.01895937 4.376392e-05 -0.018953634 0.018959958
-0.018955983 -0.018954018 -5.089649e-05 -0.018959641 -0.018954022 0.018960165 0.018957287 -0.01895896
-0.018959228 0.018960891 3.382422e-11 -0.0189559 3.181779e-07 -1.6146319e-11 8.846617e-09 -0.018955974
0.018957162 -0.018958585 -3.726107e-08 -0.018953897 -0.018959487 2.3249622e-09 2.5163835e-08 -1.6964666e-08
1.9905655e-11 -0.018960206 0.018958174 -0.018957136 2.2503993e-10 1.3698286e-07 1.3877312e-05 0.018959772
-2.8992192e-05 -3.032149e-11 5.3927533e-07 0.018949788 -1.2219848e-08 1.4848507e-06 8.7974883e-10 2.3073082e-11
7.963821e-11 0.018962275 -0.018964665 -0.018963944 7.923774e-07 -0.018964034 0.018965364 -0.018965015
0.018965648 0.018965878 -1.5692925e-07 0.018966641 -2.0387447e-10 -1.8416137e-10 0.018956421 -6.5441013e-06
1.1865744e-08 -1.0029274e-08 0.018959885 0.018964034 -1.0473399e-08 -0.018966403 4.463542e-11 -3.8750704e-07
-5.75093e-05 -0.018964319 0.018928112 7.14767e-11 1.2074506e-05 2.1893684e-05 1.2004948e-05 6.4717283e-06
1.3910535e-10 1.2276222e-07 1.9454552e-05 5.539496e-10 1.7113634e-05 1.7990253e-08 -0.018962905 0.018963626
-1.0226316e-07 0.018965047 0.018961664 0.018963367 -0.01896453 -7.0052614e-10 0.018960552 0.018964196

fc2.bias f4 [100]
00000000: 1afc 9e3d dadf 9ebd 25ec 9ebd 9ce3 9e3d
00000010: dcef 9e3d 77f1 9ebd 2ce1 9e3d 22e8 9e3d
00000020: 5cf5 9ebd 0bea 9ebd 63e7 9ebd 9ae8 9e3d
00000030: 85e8 9e3d ece4 9e3d 46e5 9ebd d2ea 9ebd
00000040: c1e0 9ebd a0f4 9ebd 22ea 9e3d 40e4 9e3d
00000050: c2e1 9ebd ce5c 8134 dabe 9ebd c4ea 9ebd
00000060: e9c1 9e3d 7a9b 722e 83e8 9e3d a8ee 9ebd
00000070: edea 9e3d 8fe5 9ebd 21fd 9ebd 90e2 9e3d
00000080: b4e0 9e3d 6fe8 9ebd c7e9 9ebd 7fea 9ebd
00000090: 39ef 9ebd 42e5 9e3d 3cec 9e3d 38d9 9e3d
000000a0: 48e9 9e3d a6f1 9e3d c3e6 9ebd e2d6 9ebd
000000b0: 2ef8 9ebd 49d2 9ebd d0e0 9e3d 4ddf 9e3d
000000c0: 63ed 9e3d 23e9 9e3d 0fe5 9e3d 37ef 9ebd
000000d0: f9e7 9e3d 23ee 9e3d 9cf1 9e3d 70ea 9ebd
000000e0: b2e5 9e3d a7d9 9ebd 21db 9e3d 23e9 9e3d
000000f0: 28d6 9ebd faf3 9ebd 98e5 9e3d 18e9 9ebd
00000100: e4ee 9e3d 07e7 9ebd fae1 9ebd c7f0 9e3d
00000110: bbe9 9ebd 8ffb 9ebd 68ed 9e3d 3fdd 9ebd
00000120: a4e0 9e3d dedd 9ebd 54e0 9ebd 2df2 9ebd
00000130: afdf 9e3d b4df 9ebd c3e0 9e3d f7eb 9e3d
00000140: d78f e2af 45e9 9e3d dbf3 9e3d 8de9 9e3d
00000150: dadb 9e3d e9ce 9e3d e1e9 9ebd ec3c 1ab1
00000160: a7e3 9e3d fded 9ebd 83f1 9ebd cdc6 9e3d
00000170: 45de 9e3d 8ce7 9e3d f2ef 9e3d c6e9 9e3d
00000180: 55f7 9ebd 4af4 9e3d 8cde 9ebd d2f8 e4a8
0.07762928 -0.0775754 -0.07759885 0.07758257 0.07760593 -0.077608995 0.07757792 0.077591196
-0.07761642 -0.07759484 -0.07758977 0.07759209 0.07759193 0.07758507 -0.07758574 -0.07759632
-0.07757712 -0.07761502 0.07759501 0.07758379 -0.07757904 2.4095647e-07 -0.07751246 -0.07759622
0.07751829 5.516252e-11 0.07759192 -0.07760364 0.07759652 -0.077586286 -0.07763124 0.07758057
0.077577025 -0.07759177 -0.07759433 -0.0775957 -0.07760472 0.07758571 0.07759902 0.07756275
0.077593386 0.077609345 -0.07758858 -0.077558294 -0.0776218 -0.077549525 0.07757723 0.07757435
0.07760122 0.07759311 0.07758533 -0.0776047 0.07759089 0.07760265 0.07760927 -0.07759559
0.07758655 -0.07756358 0.07756639 0.07759311 -0.07755691 -0.077613786 0.07758635 -0.07759303
0.077604085 -0.07758909 -0.07757945 0.077607684 -0.07759424 -0.07762825 0.077601254 -0.07757043
0.077576905 -0.077571616 -0.07757631 -0.07761035 0.07757508 -0.07757512 0.07757714 0.077598505
-4.1211365e-10 0.077593364 0.077613555 0.0775939 0.07756777 0.07754309 -0.077594526 -2.244458e-09
0.07758265 -0.077602364 -0.077609085 0.07752762 0.07757238 0.07759008 0.0776061 0.077594325
-0.077620186 0.07761438 -0.07757291 -2.5420994e-14

fc3.weight f4 [1, 100]
00000000: e340 223e bf21 22be 382f 22be eb25 223e
00000010: 5133 223e 1835 22be 3323 223e ce2a 223e
00000020: 6839 22be eb2c 22be 022a 22be 542b 223e
00000030: 3e2b 223e 5427 223e b427 22be c12d 22be
00000040: be22 22be 9438 22be 032d 223e 9a26 223e
00000050: e123 22be 5e91 a1b4 e6fc 21be b12d 22be
00000060: 4700 223e 39ce 33ae 392b 223e fe31 22be
00000070: e22d 223e ff27 22be 0642 22be c524 223e
00000080: b322 223e 242b 22be 9f2c 22be 662d 22be
00000090: a332 22be af27 223e 532f 223e 6b1a 223e
000000a0: 172c 223e 4935 223e 5229 22be d217 22be
000000b0: 8c3c 22be b412 22be cc22 223e 2421 223e
000000c0: 9730 223e ea2b 223e 7827 223e 9e32 22be
000000d0: a12a 223e 6d31 223e 4235 223e 582d 22be
000000e0: 2628 223e e51a 22be 861c 223e ea2b 223e
000000f0: 0417 22be dc37 22be 0a28 223e df2b 22be
00000100: 4132 223e 9c29 22be 2224 22be 5134 223e
00000110: 962c 22be 4540 22be 9c30 223e dc1e 22be
00000120: 9e22 223e 8a1f 22be 4722 22be e035 22be
00000130: 8f21 223e 9421 22be bf22 223e 0a2f 223e
00000140: 9066 942f 132c 223e bd37 223e 5e2c 223e
00000150: 501d 223e ea0e 223e bb2c 22be 979c f7b0
00000160: f525 223e 3e31 22be 2435 22be ca05 223e
00000170: 0120 223e 2f2a 223e 6833 223e 9c2c 223e
00000180: 9f3b 22be 3738 223e 5420 22be 5df0 44a9
0.15845065 -0.15833186 -0.15838325 0.15834777 0.15839888 -0.15840566 0.1583374 0.15836641
-0.15842211 -0.15837447 -0.15836337 0.15836841 0.15836808 0.15835315 -0.15835458 -0.15837766
-0.15833566 -0.15841895 0.15837483 0.15835038 -0.15833999 -3.0094355e-07 -0.1581913 -0.15837742
0.15820418 -4.088305e-11 0.158368 -0.15839383 0.15837815 -0.1583557 -0.15845498 0.15834339
0.15833549 -0.1583677 -0.15837334 -0.1583763 -0.15839629 0.1583545 0.15838365 0.1583039
0.15837131 0.15840639 -0.15836075 -0.15829399 -0.1584341 -0.15827447 0.15833586 0.15832955
0.15838848 0.15837064 0.15835369 -0.15839621 0.15836574 0.15839167 0.15840629 -0.1583761
0.15835628 -0.15830572 0.15831193 0.15837064 -0.15829092 -0.15841621 0.15835586 -0.15837048
0.15839483 -0.15836185 -0.15834096 0.1584027 -0.1583732 -0.1584483 0.15838856 -0.15832084
0.15833518 -0.15832344 -0.15833388 -0.15840864 0.15833114 -0.15833122 0.15833567 0.15838256
2.6993918e-10 0.15837125 0.15841575 0.15837237 0.15831494 0.15826002 -0.15837376 -1.8016121e-09
0.15834792 -0.15839097 -0.15840584 0.15822521 0.15832521 0.15836404 0.15839922 0.1583733
-0.15843056 0.15841757 -0.15832645 -4.3729224e-14

fc1.weight f4 [100, 24]
00000000: d1d2 5fbb 8411 693e ef27 353d 8b9e c5bd
00000010: 1c0a b63d 6275 6d3c 070d 5f3e c477 6cbd
00000020: 5007 12bd 3646 4f3e d66f 13be c078 1fbb
00000030: d018 11be 60ef 15bc a842 10be 3864 803d
00000040: 85bf 0bbe e51f 22be 6ee4 0dbe 500e d23d
00000050: 6670 0dbe 707d 023e de11 2b3d fbcb 523e
00000060: d1a2 933d 995f 913d 376f 833d 04d0 2bbe
00000070: 452f 39be 4120 39be 3352 81be 0e91 81be
00000080: 01ba f9bd c23f 093e 12d7 0c3e f8aa 8c3c
00000090: 84da 97bd 7280 04be f88a 873d 00d5 c73a
000000a0: 4caa 1e3e d805 95bc 68e6 58bd 060f 21be
000000b0: b01d e4bd d311 413c 3441 393e b5f9 c0bd
000000c0: 3ec5 2b3e acae c7bc f128 1cbe 6c7d f63c
000000d0: 686d 583e 8a89 e2bc 518e 87bd eaea 023b
000000e0: d512 f13d 5b37 4dbe 646a 053d 7021 fabc
000000f0: e0a3 6b3c f417 28bd 701a 94bd dc44 31bd
00000100: 9cab 66bd 4cd6 09be 5828 31be d6de 4fbe
00000110: a498 abbd ada6 09be a51e 17be bb3a 9a3d
00000120: e7f1 a23d 7cae 3fbe 7402 cbbc 24fd 3fbe
00000130: e957 2dbd 2ceb b33d e2fc 4ebe 1d9d 20be
00000140: 2c9c e9bd 2a86 30be 92d2 243e 8a49 3f3e
00000150: 420b 4bbe b4d3 d93d b676 323e a833 4cbd
00000160: d038 c4bc cca6 8c3d 2420 c23d 7cc5 153e
00000170: 8860 933d a309 cebc a46c 0bbe d297 2ebd
00000180: 148b 66bd 640f 7d3c 90da be3c b9d4 403d
00000190: c63d 0abe aa7e d5bd 1a7b 11bd 262c 3abe
000001a0: 91a9 b7bd e119 29be 208f 45be 1072 f1bc
000001b0: 24b7 303e 50bd 64bc 80ee c2ba 900d 0ebc
000001c0: 6055 d6bb b641 1e3e f8f3 88bd 1ecd e0bd
000001d0: e2c7 3c3e 24cd ccbc 3d3c 1e3d 3ff7 3d3e
000001e0: 20bb 16be 8e68 f3bd 3447 42be 8f63 71be
000001f0: 3038 edbb 3889 84be b2c4 d3bd e9cc 8dbd
00000200: d9d5 babc 108b 973d 8494 303e be9a 9ebd
00000210: a2ae 30be 803c ce3c 942d 193e 68b3 ddbc
00000220: 526a 243e a6a4 c5bd 408c 94bd 58ea 81bd
00000230: 1cd3 83bd 980c 303e f796 583d 42a1 39bc
00000240: 182e 6ebe 514d afbc c906 0cbe c191 59be
00000250: 0073 d8bc a0fa f13d 6178 36be 5b03 45be
00000260: aec5 7e3d 684c 3b3e a3f9 45be aa91 0ebe
00000270: d44a 4d3e f621 1e3e 909f ee3c a4c4 df3d
00000280: 2859 b23c c539 f1bd 04ce f0bd c634 313e
00000290: 908c 253c 7414 7a3d 436b cb3d 3caa 3d3d
000002a0: 30cc 103e c679 f23d f048 ecbd eaba 1f3d
000002b0: a3c7 453e 605d 413d 66d8 373e faac 473e
000002c0: 3eaa a43d 9b4b e8bd f885 963d 604e a73d
000002d0: a043 39bc 7cf7 273e d515 a3bd 008e 043d
000002e0: cbbe 1bbe 88f0 eebd 3da5 b2bd a065 5bbd
000002f0: e795 32be 9d36 533d dec6 aabd ed8c 00be
00000300: ee99 2ebb 93fa fb3d f562 be3d bef7 2c3d
00000310: b5ae ac3d 64fd b93d 3421 443c fa89 c53d
00000320: d423 923d aef8 393e f278 323e a881 463d
00000330: 602b 35bd 2f14 39be 9c00 08bd de6b 503e
00000340: 8085 223e 9a43 243e c4f6 99bd b82f fabc
00000350: 8856 003e 4dfa d3bc 5b8c 5f3d f01c b3bd
00000360: b8c9 8abd 61e4 7b3d 8602 c83b 7392 103e
00000370: dcf0 18be ed3b c93d a74c fd3d a089 103e
00000380: 65bf d8bc 9834 00bd 00b7 423e 091f fcbd
00000390: e807 ba3d df23 41be 8086 ed3b b035 473d
000003a0: 80b3 573d 6f94 05be da8c efbd 38d9 ad3d
000003b0: aaa7 103e 3834 af3b 0706 9c3c 0782 39be
000003c0: ecf1 0ebe fba8 9dbc 08e9 953b 74c2 b33d
000003d0: 2877 29be 979f 61be 1b79 36be 7e52 90be
000003e0: ea37 32be bcfe 7cbd 98b2 ba3c 02d9 bbbd
000003f0: c023 7c3c 08b2 053e 10d3 6e3d acf2 2dbd
-0.0034152756 0.22760588 0.044227537 -0.0964938 0.08888647 0.014493318 0.21782313 -0.057731405
-0.035651505 0.20241627 -0.14398131 -0.0024333447 -0.14169621 -0.00915131 -0.14087927 0.06269115
-0.13647278 -0.1583248 -0.1385667 0.10256636 -0.13812408 0.12743163 0.041765086 0.20585625
0.07208789 0.07098312 0.06417697 -0.1677857 -0.18084438 -0.1807871 -0.25258026 -0.2530598
-0.121936806 0.13403228 0.13753918 0.017171368 -0.074147254 -0.12939623 0.06618303 0.0015245974
0.1549465 -0.018191263 -0.052954108 -0.15728387 -0.11138475 0.011784035 0.1809128 -0.09422628
0.1677446 -0.024375282 -0.15249993 0.030089103 0.21135485 -0.027653474 -0.066189416 0.0019976445
0.1177117 -0.20040648 0.032572165 -0.030533522 0.014382333 -0.04103847 -0.07231605 -0.04327856
-0.056316003 -0.13460654 -0.17300546 -0.20299849 -0.08378723 -0.13442488 -0.14757784 0.07530733
0.079562955 -0.18718904 -0.024781443 -0.18748909 -0.042320166 0.0878509 -0.20213655 -0.15684934
-0.114067405 -0.1723868 0.16095951 0.18680397 -0.19828513 0.10636082 0.17428097 -0.04985395
-0.023952872 0.068677515 0.094787866 0.14626116 0.07196146 -0.02515108 -0.13615662 -0.042625256
-0.05628498 0.015445564 0.023297578 0.047077868 -0.13500127 -0.1042455 -0.03551779 -0.18180904
-0.08967889 -0.16513778 -0.19292879 -0.029473335 0.17257363 -0.013961151 -0.0014872104 -0.008670226
-0.006540939 0.15454754 -0.06687158 -0.10976623 0.18435624 -0.025000162 0.038631666 0.18551348
-0.1471982 -0.118851766 -0.18972474 -0.23573135 -0.007239364 -0.2588594 -0.10340251 -0.06923849
-0.022807049 0.07399571 0.17244154 -0.077443585 -0.17254117 0.025175333 0.14958793 -0.027063087
0.16056183 -0.09650545 -0.07253313 -0.06343526 -0.0643675 0.17192304 0.052878346 -0.011329951
-0.23259771 -0.021399172 -0.13674463 -0.21247007 -0.026422024 0.11815381 -0.17819358 -0.19239561
0.06220024 0.18290865 -0.1933351 -0.13922754 0.20048076 0.15442643 0.02912882 0.10926178
0.021771029 -0.11778597 -0.11758044 0.17305288 0.0101043135 0.061054662 0.09932568 0.046304926
0.14140391 0.11839633 -0.11537349 0.038996615 0.19314437 0.04720819 0.17953643 0.19499579
0.080402836 -0.113425456 0.07349771 0.08169246 -0.011307627 0.16403002 -0.079631485 0.032361984
-0.152095 -0.116669714 -0.08722923 -0.053563714 -0.17439996 0.051565755 -0.08338712 -0.12553759
-0.0026642042 0.123036526 0.09296218 0.042228453 0.0843176 0.090815336 0.011970807 0.096454576
0.0713574 0.1816127 0.1742895 0.048463494 -0.04423082 -0.18074106 -0.033203706 0.20353648
0.15871239 0.16041413 -0.0751777 -0.030540332 0.12533009 -0.025876189 0.054577213 -0.08745754
-0.06776756 0.061497096 0.0061038164 0.14118366 -0.1493563 0.09825883 0.12368136 0.14115
-0.026458452 -0.031300157 0.19015121 -0.12310607 0.09083539 -0.1886134 0.0072486997 0.048635185
0.05266142 -0.13044904 -0.11696787 0.08488697 0.14126459 0.005346801 0.019045843 -0.18116008
-0.13959473 -0.019245615 0.0045748986 0.08777323 -0.16549361 -0.22033535 -0.17819636 -0.28187937
-0.17404142 -0.06176637 0.022790238 -0.0917225 0.015389383 0.13056195 0.058306754 -0.042467758
