gail/save_model/0/SUB064_ckpt_20.pth.tar (torch_old, 154732 bytes, 16 tensors)

fc1.weight f4 [100, 22]
000000 0f 91 06 be 24 fb c9 be a4 27 46 3d ac 8a 8a bc
       -0.13141273 -0.39449418 0.048377648 -0.016911827
000010 0f e1 ac 3d d5 8a 97 3e 9f 67 c9 3d f2 1f a9 3e
       0.08441364 0.29598108 0.09834217 0.33032185
000020 47 39 bf 3e 4c 25 02 3e 00 3e 8e bc 38 86 2e 3e
       0.37348387 0.1270954 -0.017363548 0.17043388
000030 4e b4 d8 bd 18 4a e2 3c 98 25 4d be c0 6f 22 3d
       -0.105812654 0.027623221 -0.20033872 0.039657354
000040 70 25 72 3d 40 33 0f bc 78 f1 33 3d bc 58 cd 3d
       0.059117734 -0.008740246 0.043931454 0.1002669
000050 dc 39 e3 3d 22 12 29 3e df 4d 3e 3e 23 6b 43 3e
       0.1109502 0.16510823 0.18584393 0.19083838
000060 63 04 dd be 83 8f cb 3d cb 56 6a be bd d1 fe be
       -0.4316741 0.09939482 -0.22884671 -0.49769393
000070 bd b0 d2 be aa d6 69 be d1 03 e4 be 60 a0 82 bc
       -0.41150466 -0.22835794 -0.44534162 -0.015945613
000080 80 ca d9 3d 42 8d 40 3e 82 45 3f be 08 aa 56 3d
       0.10634327 0.18803886 -0.18678859 0.05240825
000090 c8 7c 25 3e 88 5d 42 3d e0 f2 74 3d 80 98 4a be
       0.16160882 0.04745248 0.059801936 -0.19784737
0000a0 60 d8 13 bd e8 59 d7 bd 4c 4c 0a 3e c4 95 50 be
       -0.036095023 -0.10515195 0.13505667 -0.20369631
0000b0 25 57 22 3e 71 12 7e 3e 40 96 5e be 36 e2 47 be
       0.15853556 0.24811722 -0.21737003 -0.19519886
0000c0 ce 80 96 be a0 ba e0 3e a9 8f 67 3e b4 58 af 3e
       -0.29395145 0.43892384 0.22613396 0.34247363
0000d0 37 06 0e 3f f4 e6 82 3d 80 e2 42 3d e2 fd 34 3e
       0.55478233 0.06391707 0.04757929 0.17674974
0000e0 2a ac 90 bd e0 61 00 bd 38 6a f1 3d f2 de 59 3e
       -0.07064088 -0.03134334 0.11787838 0.21276453
0000f0 b4 8a 90 3d 70 2e 3f 3d 2b d9 cd bd 00 e4 5a 3c
       0.070577055 0.046675146 -0.10051187 0.0133600235
000100 08 99 e8 bc 70 7d b6 3c e6 0c c7 3d fe 79 fd be
       -0.028393283 0.02227661 0.09719257 -0.49507135
000110 38 db 6f 3e 1b d9 82 bd 4b 51 7a be 7b a9 1e be
       0.23423469 -0.06389066 -0.24445073 -0.15494339
000120 c5 a6 3b 3e 54 70 83 bb c0 51 17 3c 01 da da bd
       0.18325336 -0.0040111933 0.009235799 -0.10686112
000130 33 e9 1a be c8 ad 40 3d 1a c7 46 3e 45 c5 eb bd
       -0.15128021 0.04704073 0.19411889 -0.115122356
000140 80 8b c0 bd b8 50 24 3e 7c 20 8a 3d 96 1e 3c 3e
       -0.094016075 0.16046417 0.06744477 0.18371043
000150 30 81 b1 3c 5c 39 07 be 3e 95 28 3e c2 02 4d 3e
       0.021668047 -0.13205475 0.16463181 0.20020583
000160 83 04 ba 3e a1 28 55 be 74 6e 9e be e9 4d bf be
       0.36331567 -0.2081628 -0.30943644 -0.37364128
000170 0b cd 9b bd 4f d1 96 3e 49 a9 88 3e e2 cb 82 3c
       -0.07607468 0.29456565 0.26691654 0.01596636
000180 c9 4e b7 3e 24 fa f9 bd 82 0d 0b 3e e0 6a ae 3b
       0.35802296 -0.12205914 0.13579372 0.005322799
000190 20 b2 ac 3d 88 8f b9 bc 68 54 bc 3d 76 59 28 3e
       0.08432412 -0.022651449 0.09195787 0.16440377
0001a0 ed cf 41 be 04 e5 04 3e 28 a2 42 3e 8c 7a fa 3d
       -0.18926974 0.12977988 0.1900717 0.12230405
0001b0 b0 53 d0 3d 24 65 3a bd ef 8b 49 be 9d 1e e7 bc
       0.10172212 -0.04550661 -0.19682287 -0.02821284
0001c0 3c 8d 1a be 33 e6 0b bf fd 97 a4 3e d9 2c 5a 3e
       -0.15092939 -0.5464813 0.32147208 0.2130617
0001d0 ee 9b 9c bd 54 6f 3d 3e 65 86 e0 3d 0c 99 f6 3d
       -0.07646929 0.184995 0.10963134 0.1204091
0001e0 48 7b 25 bd ba 00 a4 bd a8 b9 24 bd a8 14 70 3d
       -0.040400773 -0.08007951 -0.040216118 0.05861345
0001f0 90 2a 17 3d 58 8b 54 3e 04 67 45 3e dc 31 03 3d
       0.036905825 0.2075628 0.19277579 0.03202997
000200 b8 50 0a bd 94 d6 07 bd 80 32 6e bd b8 1f ed 3d
       -0.033768386 -0.033163622 -0.05815363 0.115783155
000210 96 9c 41 3d 85 0c 61 3e 6b db 14 bf 9d e2 e7 bd
       0.047268473 0.21977432 -0.58147305 -0.1132252
000220 35 75 38 be ed 24 1b be 1c af 6f bd e5 2b 16 be
       -0.18013461 -0.15150805 -0.058516607 -0.14665182
000230 f3 c8 77 3d 80 93 c0 3a 4c bd b6 3d 34 2d bd 3d
       0.060494374 0.0014692396 0.08922824 0.092371374
000240 50 d3 b0 3d c7 cf 02 be 12 a7 09 3e 00 fa 77 bd
       0.08634055 -0.12774573 0.13442639 -0.060541153
000250 2c 53 57 bd d0 54 a3 3c 2a 1e 17 3e 3e 4a 1c 3e
       -0.052569553 0.019937903 0.147576 0.15262696
000260 c8 9a 9c bd 40 3c 89 3b db 33 92 be 04 78 9e 3b
       -0.0764671 0.0041880906 -0.28555188 0.0048360843
000270 0a ce af 3e 8f d4 57 3e cf 3c c7 3d f7 bd a1 bd
       0.34336883 0.21077178 0.09728395 -0.07897561
000280 18 16 38 3e 53 cd 19 3e 01 87 9e bc 20 45 30 3c
       0.17977178 0.15019731 -0.019351484 0.010758668
000290 64 69 d2 3d d4 ac 13 bd cb 67 e9 bd a4 c0 a7 3d
       0.10274008 -0.036053494 -0.1139675 0.0819104
0002a0 b0 56 dc 3d 96 a3 0f 3e 90 b3 24 3d cb 31 e2 bd
       0.10758722 0.14027247 0.040210307 -0.110446535
0002b0 58 ee 69 bd b0 e6 09 3e 9c 95 ae 3d b4 a8 54 bd
       -0.057112068 0.13466907 0.085246295 -0.0519187
0002c0 9f e6 c1 bd f4 d1 cc 3d d5 3c f8 bd cc 3c 3e 3e
       -0.094678156 0.10000983 -0.12120978 0.1857788
0002d0 1e 60 3f 3e 9d ae 30 3e 71 96 36 be 6a 52 32 3e
       0.1868901 0.1725411 -0.17830826 0.17414251
0002e0 73 ac 27 3e 58 90 03 3e ec 6e 44 3e c0 8f 01 3b
       0.16374378 0.12848032 0.19182938 0.001976952
0002f0 27 be 2c be d8 c9 97 3c b9 b8 58 be 08 d4 06 3d
       -0.16869412 0.018528864 -0.21164216 0.032917053
000300 de c1 0f be 04 5e f6 3d c4 6a e2 3d 14 c8 41 bd
       -0.14038798 0.12029651 0.1105552 -0.04730995
000310 d0 33 e9 bd 97 83 fc bd bf a5 05 3f e8 20 cb 3e
       -0.113868356 -0.12329786 0.52206033 0.39673543
000320 4c 09 08 3e 34 65 22 be b9 65 92 be 78 63 7c 3e
       0.13284796 -0.15858918 -0.28593233 0.2464732
000330 48 31 ce 3d 08 a8 1f 3e 13 64 84 3c 38 ec 2d be
       0.100679934 0.15591443 0.016161 -0.16984642
000340 1c 9c 4d 3e 38 69 b5 bd 34 08 41 3e 73 e1 31 be
       0.20079082 -0.088579595 0.18850785 -0.17371158
000350 30 c1 1c 3d 4c 28 49 3e ce d6 56 be 86 ef 38 be
       0.038270175 0.19644278 -0.20980379 -0.18060121
000360 41 5d 1c be 88 1b fb bc f0 30 53 3d f6 35 48 be
       -0.15269949 -0.030652776 0.051560342 -0.19551834
000370 5d 04 7c bd ec 86 93 3d c3 db 10 3e df e4 b1 3e
       -0.0615276 0.07203469 0.14146332 0.34744927
000380 7e f7 3e be a1 ec 00 3e a3 42 e0 3c 4b 16 c5 3d
       -0.18649098 0.12590267 0.027375525 0.09623393
000390 3d 0c e8 3d 98 6b 91 bd 6d 15 38 be 94 7b 21 3e
       0.11330459 -0.071006 -0.17976923 0.15769798
0003a0 68 40 af 3c 6c a1 f8 3d cc 89 0b 3e 4c a5 47 3e
       0.021393016 0.12140164 0.13626784 0.1949665
0003b0 05 1b 31 be ff 48 c4 bd a8 a7 6c 3d a8 43 29 bd
       -0.17295463 -0.095842354 0.057777077 -0.041324288
0003c0 88 68 ef 3d 20 2c 83 bc a0 b4 96 3d 11 0d 98 be
       0.1168986 -0.016012251 0.0735867 -0.2969747
0003d0 89 ec 07 3f f8 38 2e 3e ee c7 ad 3e 20 72 09 be
       0.530953 0.1701392 0.33941597 -0.13422441
0003e0 0b 7b c6 be 24 ed ad be c0 e6 a5 be f4 75 8c 3d
       -0.3876575 -0.33969986 -0.3240261 0.06858435
0003f0 52 f6 4b be 92 1a 0f 3e 50 b4 40 3d 14 b5 07 3d
       -0.19918182 0.1397498 0.04704696 0.033131674

fc1.bias f4 [100]
000000 06 9d 46 be 55 a8 c1 3e e3 68 92 be 26 35 12 be
       -0.19395837 0.3782374 -0.28595647 -0.14278087
000010 0c 5b 2e be 9b b8 6e be 22 cd 93 bd d0 ff 91 3d
       -0.17026919 -0.23312609 -0.0721686 0.071288705
000020 ad 77 d0 bd fa 90 b6 bd 1d 07 44 bd b9 5a 0e 3e
       -0.10179076 -0.08914371 -0.047858346 0.13901795
000030 5b 6d fe 3d e7 21 5a be ff d6 34 3e ad 94 54 3e
       0.12423202 -0.21301995 0.1766014 0.2075984
000040 72 95 52 3d 64 49 f0 bd 88 db 27 3e 3a 83 93 be
       0.051412053 -0.11732748 0.16392338 -0.28811055
000050 66 e5 23 3d 67 90 b6 be a7 45 94 3c b8 48 6c bd
       0.040013693 -0.35657045 0.01809962 -0.057686538
000060 33 2e f9 3e 0a f2 da be 00 7f 3c bd 17 30 ee 3d
       0.4866806 -0.42762786 -0.046019554 0.11630266
000070 a1 b3 bd 3e 40 48 64 be a4 21 3b 3e 6f 7d 71 3e
       0.37051108 -0.22293186 0.18274552 0.23583005
000080 fe 82 9f be 25 36 28 3e 89 ca 61 3e f5 53 89 be
       -0.31154627 0.16426904 0.22049917 -0.26821867
000090 f5 03 2b 3d 81 67 b7 bc d3 b2 60 be de ed af 3e
       0.04175182 -0.022388222 -0.21943216 0.34361166
0000a0 c1 68 16 be 3c c2 90 be 7e 51 ad be 00 41 ca 3d
       -0.14688398 -0.2827319 -0.33851236 0.09875679
0000b0 73 1b 2d 3e 6e a1 77 3d 59 e3 89 be 1f bb f3 bd
       0.16905002 0.060456686 -0.26931265 -0.11900925
0000c0 ef 54 1b 3e 67 3a 87 be ef e6 0e 3d 5b fa 27 3e
       0.15169118 -0.26411745 0.034888204 0.16404097
0000d0 43 be 7b be 5f 68 15 bb 6e 64 0b 3e 65 3b 84 3e
       -0.24584298 -0.0022797806 0.1361253 0.25826564
0000e0 06 de c0 be 2d 70 83 be 3d 71 5f 3d 95 f2 fb 3d
       -0.3766939 -0.2567152 0.05455135 0.12302128
0000f0 ea ee 8f be 80 33 45 be ec 91 43 3e 86 2c 5b 3e
       -0.28111964 -0.19257927 0.19098634 0.21403703
000100 77 e7 b9 be 6d a6 86 3e 71 37 a0 3e 8e 8c 8e 3e
       -0.36309406 0.26298848 0.31292298 0.2784161
000110 d1 2c 56 be 0a 3a 92 3e 77 51 ae be aa 48 58 be
       -0.20915534 0.28559905 -0.34046528 -0.21121469
000120 46 77 2f 3e c3 a8 d1 3e e9 9f 7b bd 05 f9 29 3e
       0.17135343 0.40949067 -0.0614318 0.165989
000130 ab dd 2f 3e 91 a2 77 3e da dd 0b 3e 27 7d 8c be
       0.17174403 0.24183108 0.13658848 -0.27439234
000140 df a1 dc bd b9 ae 17 3e 08 bc 7a 3e f1 3d 8a 3e
       -0.10773062 0.14812745 0.2448579 0.27000383
000150 0c c4 af 3c 68 a0 5b 3e 31 bc c3 3d e9 d7 a5 3e
       0.021455787 0.21447909 0.09557379 0.3239129
000160 4d be 05 3e 1b d0 cd 3e 0a ef c4 3d ad 07 92 3d
       0.13060875 0.40197834 0.096159056 0.0713037
000170 4d f5 2c be ef c7 47 3e 33 de 9a be d5 ce 6f 3d
       -0.1689045 0.19509862 -0.3024765 0.05854686
000180 7e 40 e7 be d8 e2 8e be f3 a0 ed 3e 66 4b 3d 3e
       -0.4516639 -0.27907443 0.46411857 0.18485793

fc2.weight f4 [100, 100]
000000 bb b4 f4 be 40 b7 b2 3e ed c7 aa be 13 b4 9a bd
       -0.47794136 0.34905434 -0.33355656 -0.07553878
000010 68 95 ff be 30 e5 af be 94 b9 51 be 0f 16 61 3e
       -0.49918675 -0.34354544 -0.20480949 0.21981071
000020 39 b3 89 be 65 fb 49 3c de db 78 3e 93 f5 54 3e
       -0.2689455 0.0123280035 0.24302623 0.20796804
000030 91 6f df 3d f8 d6 2a 3e d9 84 ab 3e d7 22 07 3f
       0.109099515 0.16683567 0.33499792 0.52787536
000040 a3 0c af be 36 e9 c7 3e a9 91 75 3e 73 83 4e be
       -0.3418933 0.39045113 0.23981346 -0.20167331
000050 39 3e 7f 3e c2 6f c0 be 38 c9 46 3d 19 a0 78 be
       0.2492608 -0.37585264 0.04853174 -0.24279822
000060 e5 1b f4 3e 7e 11 91 be 70 b5 f4 be 48 cd 63 3e
       0.47677532 -0.28333658 -0.47794676 0.22246277
000070 57 03 44 3e da 6d ae 3e 6d 2c 5c be 41 b7 c0 3e
       0.19141899 0.34068185 -0.21501322 0.37639812
000080 22 06 eb be b9 88 a0 3e bf 73 72 3e 71 80 c1 be
       -0.45903116 0.3135431 0.23676966 -0.37793306
000090 aa 2b 77 be 60 ad 73 3e 91 a3 88 be 2c fe 77 3e
       -0.2413775 0.23796606 -0.2668729 0.24218053
0000a0 a4 11 1d be bc 38 0f be 40 7a 08 bf 30 9f f5 bd
       -0.1533876 -0.13986486 -0.5331154 -0.11993253
0000b0 4b e2 af 3e 34 b7 82 3c 2f 2b 74 be e5 69 d2 3d
       0.34352335 0.015956499 -0.23844598 0.10274104
0000c0 38 83 07 3f cf c0 ce be 10 7e 11 3f ca ee 6c 3e
       0.529346 -0.40381476 0.5683298 0.23137966
0000d0 bf a0 21 be 87 be bc 3e 12 9f cf 3e 04 15 1a 3f
       -0.15783976 0.3686411 0.4055105 0.6018832
0000e0 d1 2f 0e bf be 0a 90 be 08 a2 b5 3e 44 64 bf be
       -0.5554171 -0.28133196 0.35475183 -0.37381184
0000f0 42 3d 71 be 2c 39 a5 be df a7 44 3e b6 d7 d3 3e
       -0.23558524 -0.3227018 0.19204663 0.41375512
000100 8d 48 6f be 18 5a b1 3e d6 b6 c1 3d b5 85 8d 3e
       -0.2336752 0.3463905 0.09458701 0.27641073
000110 7d 38 00 bf 70 43 95 3e 94 b9 c0 be 50 99 98 be
       -0.50086194 0.29153013 -0.37641585 -0.29804468
000120 11 57 14 3f 2f eb 85 3e bf fc d1 be 50 51 11 3f
       0.5794535 0.26155993 -0.41013142 0.567647
000130 c8 15 99 3e be b2 79 3e 7c e3 93 3e 59 83 33 be
       0.2989943 0.24384591 0.28884494 -0.17530574
000140 61 3b d3 3e 6a 87 c9 3d ae bc ce 3d 28 e7 94 3e
       0.4125624 0.09840281 0.100945815 0.29082608
000150 40 17 5b 3e a8 9e a1 bd b8 80 bc be 91 d8 05 3f
       0.21395588 -0.078915894 -0.36816955 0.5228358
000160 df d0 81 3e 47 8f be 3e ba 72 04 3a 7a 71 15 bd
       0.25354668 0.37218687 0.0005052496 -0.036485173
000170 c9 ab 8a be da 47 b0 3e 8e bc a1 be 91 67 b8 3d
       -0.27084187 0.34429818 -0.31589168 0.09004129
000180 5e 7f 49 be 76 b9 25 be c9 19 01 3e d3 ab c4 3e
       -0.19677493 -0.16184029 0.12607493 0.3841234
000190 6f af e9 be 0f 71 80 3e 20 7c 96 be 92 10 ec bd
       -0.45641658 0.25086257 -0.29391575 -0.11526598
0001a0 b3 6d f0 be 98 6d 96 be a6 83 36 be 80 7a 1f 3e
       -0.46958694 -0.29380488 -0.17823657 0.15574074
0001b0 89 e5 7f be 97 0c a6 3d 5c 29 6c 3d 8f 1d 3f 3e
       -0.24989904 0.0810787 0.05765663 0.1866362
0001c0 ef 36 5b 3e 78 9f 11 3e e6 9d 43 3e 1d 79 d6 3e
       0.21407674 0.14220989 0.19103202 0.41889277
0001d0 78 a3 06 bf 57 82 fd 3e 84 0d a0 3e 63 23 91 be
       -0.52593184 0.49513504 0.31260312 -0.2834731
0001e0 02 5d 8f 3e 64 21 85 be ad 9c a7 3d 88 2b 9d be
       0.28000647 -0.26002038 0.081841804 -0.30697274
0001f0 4f c3 c2 3e e9 b9 8f be 20 b6 10 bf 8c 1b a5 3e
       0.38039634 -0.28071526 -0.565279 0.3224758
000200 5e 04 76 3e 39 cd b0 3e 21 a7 30 be 44 69 a4 3e
       0.24025103 0.34531572 -0.17251255 0.3211156
000210 66 7e ec be c8 62 be 3e 1d b5 9c 3e 25 0b 92 be
       -0.46190184 0.3718474 0.30606928 -0.28524128
000220 86 67 6c be bb d5 3b 3e 92 6e 9d be 73 14 32 3e
       -0.23086366 0.1834325 -0.3074842 0.17390613
000230 f0 4a 57 be 33 ce f2 bd 06 06 01 bf b1 9b 42 be
       -0.2102468 -0.11855736 -0.50399816 -0.19004704
000240 46 73 86 3e 2e 3c 0d be 70 f4 2d be 6e 49 a7 3d
       0.26259822 -0.13792488 -0.16987777 0.081683025
000250 44 60 ef 3e ff cd b0 be 79 8b 2a 3f 3a e0 ec 3d
       0.46753132 -0.34532163 0.6661907 0.11566205
000260 1e d8 85 be 2e 2c ea 3e 91 c2 b5 3e d5 71 30 3f
       -0.26141447 0.4573683 0.35500005 0.68923694
000270 6c 59 19 bf ff f3 59 be 5b d3 80 3e 55 19 b1 be
       -0.5990207 -0.21284483 0.2516125 -0.3458964
000280 9a 2b aa bd 48 a7 84 be c1 cb 04 3e 0b 95 e4 3e
       -0.083090976 -0.25908875 0.12968351 0.4464496
000290 96 29 95 be 27 3a f4 3e 07 0c 88 3e f8 71 c2 3e
       -0.2913329 0.47700617 0.26571676 0.37977576
0002a0 1b e4 fd be 04 8a c8 3e a6 8c 7a be 86 6a 60 be
       -0.49588093 0.39167798 -0.24467716 -0.21915635
0002b0 d3 2e 21 3f 16 4b 6a 3e bb 4e bd be 13 bd 0d 3f
       0.62962073 0.22880206 -0.3697413 0.5536663
0002c0 d5 ee 41 3e c2 30 8f 3e ff c3 bb 3e a8 2c 90 be
       0.18938763 0.27966887 0.3667297 -0.2815907
0002d0 a7 da fa 3e 5d 82 ad 3d d5 d4 11 bd 01 fb 95 3e
       0.48994943 0.084721304 -0.035603363 0.29293063
0002e0 2f d0 86 3e 4f 85 67 bc f4 59 8d be 5b f9 ef 3e
       0.26330706 -0.014130904 -0.2760769 0.4686993
0002f0 9c 5b c2 3e f5 ab af 3e d7 dc 0f be a6 b4 a9 bd
       0.37960517 0.3431088 -0.14049087 -0.08286409
000300 a0 85 18 be 0f 6a 89 3e f4 e7 cb be 69 5e a4 3d
       -0.14894724 0.2683873 -0.39825404 0.0802582
000310 ce be 98 be 24 4c 86 be 6f 5b 1d 3e 9b 25 c8 3e
       -0.29833072 -0.26229966 0.1536691 0.3909119
000320 51 59 b4 be 92 f5 a9 3e 3a 26 ab be 5f 14 f7 bd
       -0.35224393 0.33195168 -0.33427602 -0.12064432
000330 10 22 0f bf 3f d1 ad be 1e 05 5e be a1 c4 19 3e
       -0.5591135 -0.33948705 -0.2168164 0.15016414
000340 df a1 59 be 77 59 e6 3d 4d 7b 85 3e 8b 8d b4 3e
       -0.21253155 0.11247533 0.26070634 0.3526424
000350 d9 40 17 3e 10 18 0d 3e 69 60 8c 3e 6d 56 10 3f
       0.14770831 0.1377871 0.27417305 0.56381875
000360 4f 55 f0 be 56 1c b3 3e 56 fd 3a 3e 38 9c 82 be
       -0.46940085 0.34982556 0.18260702 -0.2550981
000370 81 e8 98 3e 6e 35 89 be 97 d9 f1 3d e3 ae 89 be
       0.29864886 -0.26798576 0.1180908 -0.2689124
000380 ea 7e d8 3e 24 85 57 be 1d d3 d0 be 14 6b be 3e
       0.42284328 -0.21046883 -0.40786067 0.3719107
000390 c7 25 8e 3e 0b bf 75 3e cd b7 ad be 36 16 b8 3e
       0.27763197 0.23998658 -0.3392929 0.35954446
0003a0 17 dd eb be 3b 5e 69 3e 62 ab 6e 3e 3b 50 9f be
       -0.46067116 0.22789852 0.23307565 -0.31115898
0003b0 ed 41 25 be 6b 9d 64 3e d3 2a 0e be 8b 67 2b 3e
       -0.1613843 0.22325675 -0.13883524 0.16738717
0003c0 5b 65 4c be e5 99 01 bd c8 42 07 bf 9d a1 74 be
       -0.19960539 -0.031640906 -0.52836275 -0.23889776
0003d0 0f 25 e8 3e 00 8e fa bc 10 24 92 be 3b d1 69 3e
       0.45340773 -0.030585289 -0.28543139 0.22833721
0003e0 70 e7 05 3f 48 83 a4 be 60 61 21 3f c6 a5 03 3e
       0.5230627 -0.3213141 0.6303921 0.12856206
0003f0 4e ea 97 be 97 dc 04 3f 75 c7 af 3e cf 45 13 3f
       -0.29670948 0.51899093 0.3433186 0.57528394

fc2.bias f4 [100]
000000 a4 8b e3 3e 4a 0a c1 3e 73 14 c2 3e f5 04 05 bf
       0.44442475 0.37703162 0.37906227 -0.5196069
000010 6c b1 06 3f b1 f9 b5 3e 6f 5f c0 be 8d eb 55 3c
       0.52614474 0.35542062 -0.3757281 0.013056648
000020 83 23 a5 be 77 12 f7 be 3b 21 f7 3e f6 90 ac 3e
       -0.32253656 -0.48256275 0.4826754 0.33704346
000030 ee 36 1f 3e d0 aa b0 bd 0a 81 41 3d a0 b9 04 3f
       0.15548298 -0.0862633 0.047242202 0.5184574
000040 63 46 56 3e d6 f9 c7 be 4e 57 05 bf bf 8a d0 be
       0.20925288 -0.39057797 -0.5208634 -0.40730855
000050 59 bd db be cc d8 b1 3e 89 68 3c bd 61 be f1 be
       -0.42917898 0.34735715 -0.04599813 -0.4721556
000060 cc bd 23 3e 14 ef de 3e 72 ea d1 3e 50 66 d8 3e
       0.1599037 0.43541777 0.4099918 0.42265558
000070 70 d9 09 3f d2 7d e6 bc f5 01 fb 3d cc 6f 5b be
       0.5384741 -0.028136168 0.12256233 -0.21429366
000080 43 77 92 3e c0 3a 04 bf fa c8 f3 be 86 b4 be 3d
       0.28606614 -0.51652145 -0.4761427 0.09311776
000090 e8 63 d3 3e e6 48 ee 3e 22 86 22 3e 17 e2 05 3f
       0.4128716 0.46539992 0.1587148 0.5229811
0000a0 7c 8c 2e 3e b6 d6 03 bf b9 e0 ed be 5a 95 ae be
       0.17045778 -0.514995 -0.46460512 -0.3409832
0000b0 d9 d8 f6 3e af ac 9c 3d 1e 6f 33 3e 87 43 25 be
       0.48212317 0.07650124 0.17522857 -0.16139041
0000c0 c3 ce 8d be 24 62 fa be a0 0e 04 bf ef 55 07 bf
       -0.2769681 -0.48903 -0.51584816 -0.528655
0000d0 b5 ad a4 3e 93 be bd be 3f 00 a7 3e dc db d0 3e
       0.32163778 -0.3705946 0.32617375 0.4079274
0000e0 85 86 02 bf fe 1f 85 bd b6 b1 ef be 96 1a d5 be
       -0.5098651 -0.06500243 -0.4681527 -0.41621846
0000f0 d5 c7 c5 3e 01 21 08 3f 7f 73 f9 3e f2 20 05 3f
       0.38629022 0.5317536 0.4872093 0.52003396
000100 3f c7 d2 3c c0 af f4 3d 11 7d fb be f3 c5 a8 be
       0.025729774 0.11947584 -0.49118856 -0.32963523
000110 c5 0f 40 bd 1e 25 d0 3e 06 86 7e be 7c 21 c4 3e
       -0.04689004 0.40653318 -0.24855813 0.38306797
000120 08 94 f7 3e 32 c8 03 3f 29 38 07 bf 42 1a 9a 3e
       0.48355126 0.5147735 -0.5282007 0.30098158
000130 0e 2a 21 be 95 c8 06 3c d4 b3 89 3e d9 b7 03 3f
       -0.15738699 0.008226533 0.2689501 0.51452404
000140 05 de f9 be b7 3d 3c be be de f3 be 21 eb 76 be
       -0.488022 -0.18382917 -0.47630876 -0.24113132
000150 e8 0a e5 be b1 59 6c 3e 3a e6 c5 be 5c 10 ff be
       -0.44734883 0.2308109 -0.3865221 -0.4981717
000160 55 bc b1 3e 41 65 4a be 14 3f b9 3e 5e 4e da be
       0.34713998 -0.19765188 0.36180937 -0.42637914
000170 3b ea c7 3e 11 e4 92 3e 97 91 ef be d4 a0 06 bf
       0.3904589 0.28689626 -0.46790764 -0.52589154
000180 5a 54 d2 3e 90 7c 03 bf fc 27 fa be de ea a7 3e
       0.4107998 -0.5136194 -0.4885863 0.32796377

fc3.weight f4 [2, 100]
000000 8a ff ae 3e c8 52 98 3e 39 f6 77 3e ba 32 57 be
       0.34179336 0.29750657 0.2421502 -0.21015444
000010 0e 55 84 3e 5a 99 a5 3e 32 09 c8 be 0e 4a 8b 3c
       0.25846142 0.3234356 -0.39069515 0.017003085
000020 c4 ae 0e bf 3c 24 90 3e 66 f1 95 3e 0e 86 9b 3e
       -0.5573542 0.28152645 0.29285735 0.30375713
000030 78 10 df be 6d ce 31 bf e0 23 f5 bd 6f fd 7c 3e
       -0.43567252 -0.69455606 -0.11969733 0.24706052
000040 65 40 52 bf 04 07 a7 be d6 85 97 be 48 e6 4e be
       -0.8212951 -0.3262254 -0.29594296 -0.20205033
000050 72 54 b0 be a0 6a 0a 3f 97 88 8f be 8a d4 a4 be
       -0.34439427 0.54068947 -0.28033897 -0.32193404
000060 d8 4f 13 3e 28 20 8f 3e 39 58 44 3e d0 b6 99 3e
       0.14385927 0.2795422 0.1917428 0.30022287
000070 00 1a 91 3e d0 11 9c be f9 b2 88 3d b4 2f 87 be
       0.2834015 -0.3048234 0.06674761 -0.26403582
000080 73 4a 57 be 03 0f 80 be 4a 4b 58 be bf da c3 bc
       -0.21024494 -0.25011453 -0.2112247 -0.023908017
000090 64 8a 9d 3e b0 39 8a 3e 9b 8a 60 be 99 85 5e 3e
       0.30769646 0.26997137 -0.21927874 0.21730651
0000a0 32 e6 12 3f 12 6f 9a be 92 dc a0 be a2 81 db be
       0.573825 -0.30162865 -0.31418282 -0.4287234
0000b0 de e8 95 3e 34 d7 c3 bd 30 cb 49 be 96 7c 49 3e
       0.29279226 -0.09562531 -0.19706416 0.19676432
0000c0 62 13 cf be 90 11 98 be 1c 5b 65 be 58 83 94 be
       -0.40444475 -0.297009 -0.22398037 -0.29006457
0000d0 30 98 16 3e 3e f3 fe be 3f fb a3 be 6c 2f 64 3e
       0.14706492 -0.49794954 -0.32027623 0.22283715
0000e0 a0 d7 98 be 3a db c6 be da 0d 95 be 5a fd 83 be
       -0.2985201 -0.38839132 -0.2911213 -0.2577923
0000f0 86 29 95 3e fb 7b 68 3e 7c 4d 8e 3e 38 7d 90 3e
       0.29133242 0.22703545 0.2779349 0.28220534
000100 72 aa 06 bf bf 27 56 3f 74 64 92 be e8 d7 a7 be
       -0.5260383 0.836544 -0.28592265 -0.3278191
000110 04 43 0e 3e a6 c4 c5 3e 15 b5 30 bf 36 86 91 3e
       0.13892752 0.38626593 -0.6902631 0.28422707
000120 58 d9 97 3e 4c a7 86 3e 30 02 a2 be 86 e2 f3 be
       0.29658008 0.26299512 -0.31642294 -0.4763376
000130 4b 33 b1 3e 46 33 d3 bd 17 ba c2 3e a0 d0 8c 3e
       0.34609446 -0.10312514 0.380326 0.27502918
000140 3e 18 88 be 19 82 95 3b 32 e7 98 be 34 03 32 be
       -0.26580995 0.004562628 -0.29863888 -0.17384034
000150 3e e8 96 be 9b 75 9b be d7 ed a7 be 26 cf 97 be
       -0.29474062 -0.30363163 -0.32798645 -0.2965023
000160 a4 3c a0 3e 24 14 d5 be f4 e1 9c be 8e 98 97 be
       0.31296265 -0.4161693 -0.3064114 -0.29608577
000170 bc 41 02 3f 06 6e 31 3e a0 5d 99 be 96 6c 91 be
       0.5088155 0.17327127 -0.29954243 -0.28403157
000180 58 62 87 3e 12 86 98 be a4 90 53 be 64 e7 35 3f
       0.26442218 -0.29789788 -0.20660645 0.710562
000190 c2 31 1d bf a5 54 1e bf 70 bc 11 bf a6 83 0c 3f
       -0.6140405 -0.6184791 -0.5692816 0.5488838
0001a0 1f a4 1b bf dc 88 23 bf 7a ee 18 3f ec de e2 3e
       -0.60797304 -0.63880706 0.59738886 0.443107
0001b0 cc d0 5d 3f e2 71 01 bf e4 31 1a bf 39 c3 1b bf
       0.86646724 -0.50564396 -0.6023238 -0.6084476
0001c0 60 7d f3 3e a8 70 79 3f 75 43 05 3f ab 9d 15 bf
       0.4755659 0.97437525 0.52056056 -0.5844371
0001d0 73 c0 50 3d 98 6c 1b 3f 7e 9f 1c 3f 0f 8a 06 3f
       0.050964784 0.60712576 0.61180866 0.5255441
0001e0 35 a0 1e 3f fe 3a 5a bf 7d e3 21 3f e5 37 1b 3f
       0.61963207 -0.85246265 0.63237745 0.60632163
0001f0 cb 2f 1a bf de 6b 1b bf 8b f2 fb be 22 63 18 bf
       -0.60229176 -0.6071147 -0.49208483 -0.59526265
000200 0a 6f 1b bf cf 38 1f 3f 58 f8 a0 3e 0c b3 e4 3e
       -0.6071631 0.6219606 0.3143947 0.44667852
000210 5e f5 30 bf 59 9c 13 3f 8d 80 0f 3f 7a 24 d9 3e
       -0.691244 0.5766044 0.5605553 0.42410642
000220 e7 40 22 bf cc f1 1b bf 43 74 1f 3f 88 30 15 bf
       -0.63380283 -0.6091583 0.62286776 -0.5827718
000230 b3 40 07 3d 9e 86 1b 3f 1c e8 1a 3f 14 c9 3f 3f
       0.033020686 0.60752285 0.6051042 0.74916196
000240 be 28 20 bf 7b 09 21 bf bc a2 30 3f 96 9a 2d bf
       -0.6256217 -0.6290509 0.6899831 -0.67814004
000250 08 af 29 3f 83 ca 1f 3f 6e 2e 0e 3f 4b 42 19 3f
       0.662827 0.62418383 0.55539596 0.5986678
000260 b9 87 db be e6 cb 3c 3f 8a f6 0d 3f a0 e5 22 bf
       -0.42876986 0.73748624 0.55454314 -0.6363163
000270 86 a7 21 3f 71 b3 33 3f f3 0a 22 3f ca c6 14 3f
       0.63146245 0.7019568 0.6329796 0.5811583
000280 fe fb 18 bf 72 c2 10 bf 28 ed 1e bf c2 17 18 bf
       -0.5975951 -0.565467 -0.6208062 -0.5941125
000290 4f 3a 3a 3d 8c ca 8c be 9c 28 2c 3f 90 eb 17 3f
       0.045465764 -0.2749828 0.67249465 0.59343815
0002a0 a1 b0 02 bf 6d 68 03 bf 7e 45 7a 3f 24 3f 10 bf
       -0.51050764 -0.51331216 0.97762287 -0.56346345
0002b0 17 9c 1d bf 18 1b 1d bf 66 b6 1b 3f 9e 10 1c 3f
       -0.615663 -0.61369467 0.6082519 0.60962856
0002c0 9c 49 0f bf de f5 88 be 0f 34 d0 be 30 35 2a bf
       -0.55971694 -0.26750082 -0.40664718 -0.6648741
0002d0 0e e9 15 3f d1 ca fe be f6 53 1a 3f 98 9f d5 3e
       0.5855874 -0.49764112 0.60284364 0.41723323
0002e0 1f 42 1c 3f 09 47 0c 3f 72 2f 2b 3f a6 b6 1a 3f
       0.6103839 0.5479589 0.6686927 0.6043495
0002f0 9a c2 1c bf 9e c6 21 3f bf 2e f8 3e d5 c8 18 3f
       -0.6123444 0.6319369 0.48473164 0.59681445
000300 0e 38 4e bf f8 21 c3 be ee 5a 1f 3f 92 83 18 3f
       -0.8055428 -0.38111854 0.6224812 0.5957576
000310 75 43 17 bf d9 08 1a 3f a8 a8 0d 3f 48 4e 7e bf
       -0.59087306 0.6016975 0.55335474 -0.993382

fc3.bias f4 [2]
000000 3f da a2 3e 93 9f c4 be
       0.31807134 -0.38402995

fc1.weight f4 [100, 22]
000000 83 d0 06 ab 2b 41 2e ad 32 76 69 ab cb ba fb 2c
       -4.789573e-13 -9.905225e-12 -8.294226e-13 7.1545873e-12
000010 7e 69 05 2d 26 5e b7 ab 12 37 f6 ab 15 92 50 ac
       7.583599e-12 -1.3029064e-12 -1.7494636e-12 -2.963967e-12
000020 d0 ef fa ab bb 9c 00 80 09 6d 02 00 1f 1b 08 00
       -1.783013e-12 -5.6224e-41 2.22785e-40 7.44413e-40
000030 f1 47 04 00 5f 36 0c 80 34 0d 09 00 7a ba 12 80
       3.9315e-40 -1.12153e-39 8.31256e-40 -1.719934e-39
000040 2b 2d 08 00 0c 35 05 80 5d b2 09 80 ec d6 16 80
       7.50887e-40 -4.78207e-40 -8.90504e-40 -2.09748e-39
000050 8d 1b 0a 80 20 08 b6 00 94 05 99 b6 ac 52 5b b9
       -9.28238e-40 1.6716975e-38 -4.5604047e-06 -0.00020916265
000060 6b 01 bc 38 32 47 9e 38 c8 a1 96 39 9c a4 37 38
       8.964803e-05 7.547288e-05 0.00028730766 4.3783904e-05
000070 96 07 11 38 54 30 41 38 8b 8f 0f 38 58 8e 01 00
       3.457776e-05 4.6059795e-05 3.422754e-05 1.42899e-40
000080 2e 89 0e 80 9e 8a 11 00 f2 42 12 00 e2 43 02 00
       -1.334908e-39 1.61093e-39 1.677054e-39 2.08023e-40
000090 75 72 0a 80 86 a3 0d 00 54 ed 0b 80 14 42 10 80
       -9.59414e-40 1.252523e-39 -1.095328e-39 -1.493072e-39
0000a0 11 48 0b 80 dc 98 10 80 a4 30 13 80 0f 55 0c 80
       -1.036043e-39 -1.524204e-39 -1.762323e-39 -1.132539e-39
0000b0 03 34 11 b3 9a 05 4a b1 0f a0 1f 31 5b e0 e5 b1
       -3.3807748e-08 -2.9398053e-09 2.3228528e-09 -6.6902834e-09
0000c0 7e 93 e3 b1 c6 d3 a6 32 c7 f5 71 32 23 14 f2 31
       -6.6233374e-09 1.9421247e-08 1.408393e-08 7.0454163e-09
0000d0 f0 90 6c 32 8e 48 13 00 ac 53 00 80 b0 8b 11 00
       1.3769963e-08 1.770902e-39 -3.0016e-41 1.611314e-39
0000e0 da 70 0a 80 81 a0 07 80 a0 24 01 80 89 b5 06 80
       -9.58838e-40 -7.00426e-40 -1.04974e-40 -6.16136e-40
0000f0 ee 23 01 80 98 45 0e 00 7e b8 00 80 bd 0d 0c 00
       -1.04725e-40 1.310662e-39 -6.6183e-41 1.106954e-39
000100 2c 11 14 00 2b 38 08 00 67 f7 e3 bd cd 64 6d 3b
       1.84287e-39 7.54833e-40 -0.111311726 0.0036223412
000110 d9 b1 9e 3b 7a 8f 04 3c 7f 50 de 3b e5 f8 4d 3d
       0.0048429784 0.008090848 0.006784498 0.050286192
000120 e5 05 33 3d 95 4c f7 3c 98 32 31 3d 41 86 05 80
       0.043706793 0.030187884 0.04326114 -5.07339e-40
000130 f2 c1 09 00 3d 41 0e 00 c9 1a 15 80 c8 55 05 00
       8.96094e-40 1.3091e-39 -1.938154e-39 4.8995e-40
000140 79 4d 0c 80 89 ec 07 00 1f d1 0e 00 9b b5 04 00
       -1.129818e-39 7.27701e-40 1.360715e-39 4.3249e-40
000150 3c 34 15 00 4e 87 08 00 54 88 02 80 97 73 07 80
       1.947284e-39 7.83222e-40 -2.32576e-40 -6.84314e-40
000160 f9 b7 d6 b6 7c fb b2 38 a1 ee 80 38 1b 3b 12 b9
       -6.399114e-06 8.534544e-05 6.147964e-05 -0.00013945664
000170 2c 81 8e 38 f4 1a 11 b7 12 ce 37 b7 c5 c3 ab b7
       6.795148e-05 -8.648949e-06 -1.09556295e-05 -2.047595e-05
000180 73 d1 3b b7 63 3b 05 80 f8 7f 0f 00 2d 3a 05 80
       -1.1194835e-05 -4.80481e-40 1.423439e-39 -4.80047e-40
000190 d0 5e 17 00 32 11 01 00 d6 cc 03 00 8b 25 18 80
       2.146229e-39 9.8004e-41 3.48988e-40 -2.21752e-39
0001a0 65 37 16 00 f7 54 05 80 6b 3d 09 80 53 39 16 00
       2.040253e-39 -4.89657e-40 -8.48552e-40 2.040945e-39
0001b0 05 03 0f 00 b2 3c 10 80 34 4b 71 30 3e e8 e5 2f
       1.378616e-39 -1.491141e-39 8.778216e-10 4.1819875e-10
0001c0 ea 31 1c 2f a8 47 5c 2f 8f bf 69 2f 20 29 14 b0
       1.420585e-10 2.0034341e-10 2.1259282e-10 -5.390053e-10
0001d0 10 56 dc af b3 80 65 af bb c9 d7 af 06 3f 0a 80
       -4.0078918e-10 -2.0873152e-10 -3.925161e-10 -9.40964e-40
0001e0 79 b7 09 80 ca e2 05 80 18 e6 15 00 7b 69 01 00
       -8.92337e-40 -5.40534e-40 2.011088e-39 1.29675e-40
0001f0 b3 77 12 80 c2 8a 09 00 ec 72 13 00 47 26 19 80
       -1.695979e-39 8.76296e-40 1.7861e-39 -2.309619e-39
000200 46 82 02 00 c2 62 16 80 e2 92 13 00 2e 94 14 80
       2.30404e-40 -2.055809e-39 1.797566e-39 -1.889867e-39
000210 07 cf d1 37 cc 3e 1d 37 72 25 98 b4 9a 09 d3 36
       2.5011146e-05 9.37255e-06 -2.833945e-07 6.289408e-06
000220 6e 7c 38 36 6f 59 f9 b6 aa 3d c8 b6 1e fd 6c b6
       2.7490564e-06 -7.4311897e-06 -5.967643e-06 -3.5314074e-06
000230 f1 08 c5 b6 2d e8 13 80 14 6d 09 00 82 0d 05 00
       -5.8720984e-06 -1.828163e-39 8.6565e-40 4.64023e-40
000240 5c ae 10 00 4a b1 00 80 b1 06 03 00 a8 d0 03 80
       1.531916e-39 -6.36e-41 2.77907e-40 -3.50358e-40
000250 6b 3b 04 80 bb 68 0a 00 36 25 0b 80 50 6d 08 00
       -3.88657e-40 9.55925e-40 -1.023539e-39 7.73898e-40
000260 57 91 08 80 d4 3a e9 02 b2 03 85 b4 b2 85 d5 b3
       -7.86822e-40 3.4270039e-37 -2.477587e-07 -9.9429045e-08
000270 66 96 ad 31 77 7e 59 b3 8e cb 18 b3 bd ff bd 33
       5.052061e-09 -5.063927e-08 -3.557539e-08 8.847517e-08
000280 06 87 8f 33 38 cf 1b 33 8c c4 8c 33 08 de 14 00
       6.683517e-08 3.6277214e-08 6.55501e-08 1.91636e-39
000290 33 44 10 00 47 37 11 00 7f c7 0e 80 8c 8e 12 00
       1.493833e-39 1.581033e-39 -1.357263e-39 1.704175e-39
0002a0 d6 de 08 80 40 0e 06 00 c9 bb 00 80 fa 29 06 00
       -8.14622e-40 5.56125e-40 -6.7365e-41 5.66071e-40
0002b0 e5 51 12 00 08 22 01 00 20 d6 07 80 b1 77 0b 00
       1.682417e-39 1.04044e-40 -7.19662e-40 1.053128e-39
0002c0 f3 10 83 b8 f1 b2 57 b8 c2 03 c4 38 27 d8 b3 37
       -6.249724e-05 -5.1426647e-05 9.346708e-05 2.1439117e-05
0002d0 e0 0c f3 38 1d 5b 2d 38 bf 4b 3a 38 9b ef 60 38
       0.00011589541 4.133127e-05 4.44164e-05 5.362891e-05
0002e0 3e 49 3b 38 c6 f4 01 00 82 67 0b 80 19 43 0e 80
       4.4652486e-05 1.79644e-40 -1.047322e-39 -1.309767e-39
0002f0 fa a4 0e 80 fd bf 13 80 81 51 15 00 7d a7 0b 80
       -1.34488e-39 -1.813747e-39 1.957784e-39 -1.070274e-39
000300 34 12 0f 00 43 ba 0f 80 8a e0 14 80 1a ab 14 80
       1.384062e-39 -1.44435e-39 -1.91726e-39 -1.89809e-39
000310 32 1a 0b 80 ff 50 0d 80 67 f7 e3 bd d0 64 6d 3b
       -1.019588e-39 -1.222917e-39 -0.111311726 0.003622342
000320 df b1 9e 3b 78 8f 04 3c 84 50 de 3b e7 f8 4d 3d
       0.004842981 0.008090846 0.0067845006 0.0502862
000330 e6 05 33 3d 9a 4c f7 3c 98 32 31 3d 24 eb 00 80
       0.043706797 0.030187894 0.04326114 -8.4353e-41
000340 06 b0 15 80 ae 2c 05 80 a2 14 0e 80 5a b0 15 80
       -1.991691e-39 -4.75206e-40 -1.293099e-39 -1.991808e-39
000350 e3 f2 06 00 9f 07 05 00 ea f9 0e 00 1e 67 07 80
       6.38144e-40 4.61911e-40 1.375349e-39 -6.7984e-40
000360 74 2e 01 80 0c f4 09 00 9f 8e 0b 00 54 dd 0a 80
       -1.085e-40 9.14067e-40 1.061353e-39 -9.97753e-40
000370 6c f7 e3 3d ce 64 6d bb e3 b1 9e bb 7e 8f 04 bc
       0.11131176 -0.0036223414 -0.004842983 -0.008090852
000380 84 50 de bb ea f8 4d bd e7 05 33 bd 9c 4c f7 bc
       -0.0067845006 -0.05028621 -0.0437068 -0.030187897
000390 99 32 31 bd d1 b1 06 00 17 4c 09 00 e1 33 05 80
       -0.043261144 6.14801e-40 8.53815e-40 -4.77788e-40
0003a0 a1 2b 02 80 c3 b0 05 00 27 45 16 00 4b 27 05 80
       -1.99322e-40 5.22588e-40 2.045188e-39 -4.73273e-40
0003b0 dc a2 0a 00 46 44 11 00 5b b4 17 80 a7 91 15 00
       9.76778e-40 1.585695e-39 -2.176916e-39 1.980796e-39
0003c0 98 5f 00 80 98 8c 03 00 6b f7 e3 3d e0 64 6d bb
       -3.4293e-41 3.25942e-40 0.111311756 -0.0036223456
0003d0 df b1 9e bb 7e 8f 04 bc 82 50 de bb e9 f8 4d bd
       -0.004842981 -0.008090852 -0.0067844996 -0.050286207
0003e0 e7 05 33 bd 9e 4c f7 bc 99 32 31 bd e0 51 02 80
       -0.0437068 -0.030187901 -0.043261144 -2.13042e-40
0003f0 37 ee 0c 80 18 53 01 00 03 a4 0a 00 2c d1 06 00
       -1.187481e-39 1.21644e-40 9.77191e-40 6.2605e-40

fc1.bias f4 [100]
000000 08 84 da 28 0b 86 8d b9 ff c9 34 33 3f 9e 0f be
       2.4260121e-14 -0.00026993486 4.209323e-08 -0.1402521
000010 8f 7e 9c 37 1f 1d 8b b0 9f ec b2 b7 4f 9d 6b 34
       1.8655583e-05 -1.0121858e-09 -2.1329439e-05 2.1943309e-07
000020 d2 ef d8 b7 43 9e 0f be 43 9e 0f 3e 45 9e 0f 3e
       -2.5860882e-05 -0.14025216 0.14025216 0.14025219
000030 f9 df d7 b3 42 9e 0f 3e 47 9e 0f be 45 9e 0f 3e
       -1.0052458e-07 0.14025214 -0.14025222 0.14025219
000040 45 9e 0f be 45 9e 0f be c7 45 ef 36 45 9e 0f be
       -0.14025219 -0.14025219 7.130878e-06 -0.14025219
000050 e0 f1 1e 33 40 e1 b9 33 e5 68 3e ba d4 db 65 32
       3.7007226e-08 8.6557066e-08 -0.00072635553 1.33795375e-08
000060 30 50 57 2b d6 a7 28 38 b1 ae 47 39 42 9e 0f be
       7.6494627e-13 4.021063e-05 0.00019043197 -0.14025214
000070 b7 fa 07 b9 45 9e 0f 3e e1 b6 b4 b3 0c 34 1e 34
       -0.00012968002 0.14025219 -8.415169e-08 1.4733831e-07
000080 9a c6 07 39 45 9e 0f 3e 41 9e 0f be f1 ff 7c 31
       0.00012948588 0.14025219 -0.14025213 3.6816312e-09
000090 28 3b 36 b9 ea 89 0a 35 23 df 7a 36 8e 7b 67 b4
       -0.0001737891 5.16097e-07 3.7382786e-06 -2.15585e-07
0000a0 f1 f0 3f 36 0a 3f c0 36 b6 9f 52 35 00 e2 b4 34
       2.8601464e-06 5.7293846e-06 7.8463506e-07 3.369205e-07
0000b0 88 11 0b 30 da 3b 31 37 43 9e 0f 3e 41 9e 0f be
       5.059282e-10 1.0563957e-05 0.14025216 -0.14025213
0000c0 db 00 c0 33 44 9e 0f be 41 9e 0f be 44 9e 0f be
       8.940852e-08 -0.14025217 -0.14025213 -0.14025217
0000d0 43 9e 0f 3e 10 13 f5 b4 bb ef f5 b4 45 9e 0f be
       0.14025216 -4.5648676e-07 -4.5809233e-07 -0.14025219
0000e0 fb 26 fa b1 86 b9 20 39 43 9e 0f 3e 60 58 2c 32
       -7.280389e-09 0.00015327902 0.14025216 1.0031812e-08
0000f0 45 9e 0f 3e 6a 73 31 37 41 9e 0f 3e f1 48 ba b4
       0.14025219 1.0576894e-05 0.14025213 -3.4698272e-07
000100 44 9e 0f 3e ae 8b 48 b8 f8 a3 46 b6 41 9e 0f be
       0.14025217 -4.7813803e-05 -2.9599742e-06 -0.14025213
000110 43 9e 0f 3e fd 05 fc 31 85 f0 d1 39 41 9e 0f 3e
       0.14025216 7.334846e-09 0.00040042787 0.14025213
000120 f1 a2 42 b3 45 9e 0f be 41 9e 0f be 43 9e 0f 3e
       -4.531734e-08 -0.14025219 -0.14025213 0.14025216
000130 46 9e 0f 3e 43 9e 0f be c6 53 b3 a9 71 2d 8c b4
       0.1402522 -0.14025216 -7.963729e-14 -2.6110095e-07
000140 52 5a fc 37 20 70 3f 34 41 3b bf a9 43 9e 0f 3e
       3.00828e-05 1.7829052e-07 -8.492383e-14 0.14025216
000150 63 60 90 b3 41 9e 0f 3e 14 ad 6a b7 25 78 3d 35
       -6.723055e-08 0.14025213 -1.3987785e-05 7.058282e-07
000160 45 9e 0f 3e 6c 18 9f 34 a6 90 1a 3a 6b 64 73 b7
       0.14025219 2.9633827e-07 0.0005896188 -1.4507309e-05
000170 cd 9e 51 33 42 9e 0f 3e 43 9e 0f be 41 9e 0f 3e
       4.8806033e-08 0.14025214 -0.14025216 0.14025213
000180 8a 65 7e 35 e4 27 9f 37 bf ee a0 b4 43 9e 0f be
       9.477013e-07 1.8972853e-05 -2.9976033e-07 -0.14025216

fc2.weight f4 [100, 100]
000000 71 dc 5c 2b 08 66 80 38 47 7a 02 31 24 d0 b1 3c
       7.8465625e-13 6.1225204e-05 1.8986996e-09 0.021705694
000010 dc 54 1b b6 b8 06 3e ae 3e ae 4e b5 fe ac ed 31
       -2.3146195e-06 -4.3206966e-11 -7.6994536e-07 6.9172748e-09
000020 16 3f 31 38 24 d0 b1 3c 26 d0 b1 bc 25 d0 b1 bc
       4.2258842e-05 0.021705694 -0.021705698 -0.021705696
000030 33 7e d5 32 25 d0 b1 bc 28 d0 b1 3c 26 d0 b1 bc
       2.4853852e-08 -0.021705696 0.021705702 -0.021705698
000040 28 d0 b1 3c 26 d0 b1 3c 20 b7 91 34 24 d0 b1 3c
       0.021705702 0.021705698 2.7141596e-07 0.021705694
000050 1d a1 2d b4 c5 32 71 33 10 b3 da 39 22 db 2e 32
       -1.6170493e-07 5.615836e-08 0.00041713612 1.0177958e-08
000060 19 86 43 ab 0a 5c 88 38 b6 83 7d b8 24 d0 b1 3c
       -6.9464015e-13 6.502129e-05 -6.0442566e-05 0.021705694
000070 5f 55 69 b6 24 d0 b1 bc a0 98 5f 33 52 3b b6 b4
       -3.4769398e-06 -0.021705694 5.2060045e-08 -3.3943303e-07
000080 e6 b4 40 36 25 d0 b1 bc 24 d0 b1 3c 44 e6 5f b2
       2.8715526e-06 -0.021705696 0.021705694 -1.3032665e-08
000090 58 4c c1 b7 88 9c ec b4 c6 b4 8d 33 5e d2 2c b2
       -2.3042943e-05 -4.4072317e-07 6.598707e-08 -1.005955e-08
0000a0 5d 31 d0 33 00 d1 e8 36 60 9c 9d b5 74 21 ac 34
       9.694734e-08 6.9384696e-06 -1.1742923e-06 3.2061837e-07
0000b0 9e 69 8c 2d 68 ff d4 35 25 d0 b1 bc 24 d0 b1 3c
       1.596306e-11 1.5869564e-06 -0.021705696 0.021705694
0000c0 13 9e 02 32 25 d0 b1 3c 24 d0 b1 3c 26 d0 b1 3c
       7.602938e-09 0.021705696 0.021705694 0.021705698
0000d0 26 d0 b1 bc e1 3d 7c 35 12 23 00 b3 25 d0 b1 3c
       -0.021705698 9.396736e-07 -2.983422e-08 0.021705696
0000e0 7e 66 56 af 0c ee 27 37 24 d0 b1 bc 10 18 74 b2
       -1.9499599e-10 1.00094e-05 -0.021705694 -1.420814e-08
0000f0 25 d0 b1 bc 38 04 a4 34 24 d0 b1 bc f9 73 1e b2
       -0.021705696 3.055045e-07 -0.021705694 -9.2231796e-09
000100 24 d0 b1 bc d1 23 af 38 bf 27 07 37 24 d0 b1 3c
       -0.021705694 8.3513216e-05 8.055881e-06 0.021705694
000110 23 d0 b1 bc e3 3b af 2f 1b 1a 0a 38 24 d0 b1 bc
       -0.021705693 3.1874867e-10 3.2926077e-05 -0.021705694
000120 73 e5 8e 33 27 d0 b1 3c 23 d0 b1 3c 24 d0 b1 bc
       6.654127e-08 0.0217057 0.021705693 -0.021705694
000130 27 d0 b1 bc 24 d0 b1 3c 58 61 56 2b da c3 2b b2
       -0.0217057 0.021705694 7.6163164e-13 -9.9980415e-09
000140 74 03 b2 b7 8c 22 c7 b4 46 7e 58 2a 24 d0 b1 bc
       -2.1220862e-05 -3.7091775e-07 1.9228464e-13 -0.021705694
000150 d1 40 01 b1 25 d0 b1 bc ec 0e d5 37 f1 0c 02 33
       -1.8808815e-09 -0.021705696 2.5398527e-05 3.0279754e-08
000160 26 d0 b1 bc 9c 1d 97 b4 49 cf 9e b9 1c 14 16 b5
       -0.021705698 -2.8147485e-07 -0.00030290548 -5.590862e-07
000170 c3 8f 32 b3 25 d0 b1 bc 24 d0 b1 3c 25 d0 b1 bc
       -4.1574605e-08 -0.021705696 0.021705694 -0.021705696
000180 ea 5b 0f b5 f2 2b 34 37 78 95 f0 34 22 d0 b1 3c
       -5.3405404e-07 1.0739068e-05 4.4812236e-07 0.02170569
000190 c0 dc 5c 2b d1 65 80 38 3b 7a 02 31 d3 cf b1 3c
       7.8466053e-13 6.1224804e-05 1.898697e-09 0.021705544
0001a0 90 55 1b b6 2c 06 3e ae fa ad 4e b5 67 ac ed 31
       -2.3146604e-06 -4.320648e-11 -7.699415e-07 6.9172077e-09
0001b0 1e 3f 31 38 d8 cf b1 3c da cf b1 bc da cf b1 bc
       4.225887e-05 0.021705553 -0.021705557 -0.021705557
0001c0 67 7e d5 32 d9 cf b1 bc db cf b1 3c da cf b1 bc
       2.4853945e-08 -0.021705555 0.021705559 -0.021705557
0001d0 dc cf b1 3c da cf b1 3c aa b6 91 34 d8 cf b1 3c
       0.02170556 0.021705557 2.714126e-07 0.021705553
0001e0 41 a1 2d b4 dc 32 71 33 3a b3 da 39 05 db 2e 32
       -1.6170544e-07 5.615844e-08 0.00041713734 1.0177932e-08
0001f0 7a 86 43 ab 42 5d 88 38 70 83 7d b8 d7 cf b1 3c
       -6.946454e-13 6.502356e-05 -6.044231e-05 0.021705551
000200 03 56 69 b6 da cf b1 bc 0e 99 5f 33 8d 3b b6 b4
       -3.476977e-06 -0.021705557 5.2060436e-08 -3.394347e-07
000210 50 b4 40 36 d8 cf b1 bc d3 cf b1 3c 2a e6 5f b2
       2.8715185e-06 -0.021705553 0.021705544 -1.3032642e-08
000220 18 4c c1 b7 e5 9c ec b4 73 b4 8d 33 60 d2 2c b2
       -2.3042827e-05 -4.407258e-07 6.598648e-08 -1.0059551e-08
000230 16 31 d0 33 a8 d1 e8 36 77 9c 9d b5 94 22 ac 34
       9.6946835e-08 6.938546e-06 -1.1742949e-06 3.2062655e-07
000240 2e 69 8c 2d 19 ff d4 35 db cf b1 bc d4 cf b1 3c
       1.5962866e-11 1.5869474e-06 -0.021705559 0.021705545
000250 86 9e 02 32 d9 cf b1 3c d6 cf b1 3c d9 cf b1 3c
       7.60304e-09 0.021705555 0.02170555 0.021705555
000260 da cf b1 bc 04 3e 7c 35 12 23 00 b3 da cf b1 3c
       -0.021705557 9.396756e-07 -2.983422e-08 0.021705557
000270 d4 65 56 af 0c ef 27 37 d8 cf b1 bc 90 16 74 b2
       -1.9499363e-10 1.0009633e-05 -0.021705553 -1.4207799e-08
000280 db cf b1 bc a8 03 a4 34 d4 cf b1 bc 66 73 1e b2
       -0.021705559 3.055004e-07 -0.021705545 -9.223049e-09
000290 d9 cf b1 bc f0 23 af 38 d0 27 07 37 d6 cf b1 3c
       -0.021705555 8.351344e-05 8.055897e-06 0.02170555
0002a0 d6 cf b1 bc 76 3b af 2f 92 1a 0a 38 d7 cf b1 bc
       -0.02170555 3.1874564e-10 3.292651e-05 -0.021705551
0002b0 99 e5 8e 33 da cf b1 3c d8 cf b1 3c d9 cf b1 bc
       6.654154e-08 0.021705557 0.021705553 -0.021705555
0002c0 dc cf b1 bc d9 cf b1 3c d7 61 56 2b 74 c3 2b b2
       -0.02170556 0.021705555 7.6163853e-13 -9.997951e-09
0002d0 7c 03 b2 b7 ae 22 c7 b4 fc 7e 58 2a d7 cf b1 bc
       -2.1220876e-05 -3.709187e-07 1.922871e-13 -0.021705551
0002e0 78 40 01 b1 d6 cf b1 bc 01 0f d5 37 cc 0c 02 33
       -1.8808617e-09 -0.02170555 2.5398565e-05 3.0279622e-08
0002f0 dc cf b1 bc f2 1d 97 b4 42 cf 9e b9 b5 13 16 b5
       -0.02170556 -2.814773e-07 -0.00030290528 -5.590803e-07
000300 fa 8f 32 b3 d7 cf b1 bc d9 cf b1 3c d5 cf b1 bc
       -4.15748e-08 -0.021705551 0.021705555 -0.021705547
000310 48 5c 0f b5 18 2c 34 37 94 95 f0 34 d8 cf b1 3c
       -5.340594e-07 1.0739102e-05 4.4812316e-07 0.021705553
000320 ac dc 5c 2b f0 65 80 38 3e 7a 02 31 ee cf b1 3c
       7.8465945e-13 6.122503e-05 1.8986976e-09 0.021705594
000330 b4 55 1b b6 5b 06 3e ae 09 ae 4e b5 74 ac ed 31
       -2.3146686e-06 -4.3206643e-11 -7.6994235e-07 6.9172135e-09
000340 0d 3f 31 38 f1 cf b1 3c f2 cf b1 bc f4 cf b1 bc
       4.225881e-05 0.0217056 -0.021705601 -0.021705605
000350 46 7e d5 32 f2 cf b1 bc f6 cf b1 3c f2 cf b1 bc
       2.4853886e-08 -0.021705601 0.021705609 -0.021705601
000360 f4 cf b1 3c f5 cf b1 3c d9 b6 91 34 f4 cf b1 3c
       0.021705605 0.021705607 2.7141394e-07 0.021705605
000370 3b a1 2d b4 e8 32 71 33 2c b3 da 39 20 db 2e 32
       -1.6170536e-07 5.6158484e-08 0.00041713694 1.0177956e-08
000380 66 86 43 ab cc 5c 88 38 8c 83 7d b8 ef cf b1 3c
       -6.946443e-13 6.50227e-05 -6.0442413e-05 0.021705596
000390 e1 55 69 b6 f3 cf b1 bc df 98 5f 33 6b 3b b6 b4
       -3.4769694e-06 -0.021705603 5.206027e-08 -3.3943374e-07
0003a0 bf b4 40 36 f4 cf b1 bc ed cf b1 3c 2e e6 5f b2
       2.8715438e-06 -0.021705605 0.021705592 -1.3032645e-08
0003b0 3d 4c c1 b7 bf 9c ec b4 9c b4 8d 33 6a d2 2c b2
       -2.3042894e-05 -4.4072473e-07 6.598677e-08 -1.005956e-08
0003c0 35 31 d0 33 c8 d0 e8 36 73 9c 9d b5 38 22 ac 34
       9.6947055e-08 6.938444e-06 -1.1742944e-06 3.2062394e-07
0003d0 47 69 8c 2d 3b ff d4 35 f2 cf b1 bc f0 cf b1 3c
       1.596291e-11 1.5869513e-06 -0.021705601 0.021705598
0003e0 59 9e 02 32 f4 cf b1 3c f0 cf b1 3c f3 cf b1 3c
       7.603e-09 0.021705605 0.021705598 0.021705603
0003f0 f3 cf b1 bc f0 3d 7c 35 1a 23 00 b3 f2 cf b1 3c
       -0.021705603 9.3967446e-07 -2.9834247e-08 0.021705601

fc2.bias f4 [100]
000000 23 11 a2 bd da 10 a2 bd f3 10 a2 bd e1 10 a2 3d
       -0.07913425 -0.079133704 -0.07913389 0.07913376
000010 fc 10 a2 3d fd 10 a2 bd dd 10 a2 3d ef 10 a2 3d
       0.07913396 -0.079133965 0.07913373 0.07913386
000020 fc 10 a2 bd f0 10 a2 bd ef 10 a2 bd eb 10 a2 3d
       -0.07913396 -0.07913387 -0.07913386 0.07913383
000030 e4 10 a2 3d e4 10 a2 3d e8 10 a2 bd f0 10 a2 bd
       0.07913378 0.07913378 -0.07913381 -0.07913387
000040 00 11 a2 bd f3 10 a2 3d ec 10 a2 3d e5 10 a2 3d
       -0.07913399 0.07913389 0.07913384 0.079133786
000050 df 10 a2 bd 6b dc 95 b8 ad 10 a2 bd f3 10 a2 bd
       -0.07913374 -7.14593e-05 -0.07913337 -0.07913389
000060 1f 10 a2 3d 92 e2 55 b2 f0 10 a2 3d f9 10 a2 bd
       0.07913231 -1.2449748e-08 0.07913387 -0.079133935
000070 ed 10 a2 3d de 10 a2 bd 07 11 a2 bd dd 10 a2 3d
       0.079133846 -0.079133734 -0.07913404 0.07913373
000080 dd 10 a2 3d eb 10 a2 bd f9 10 a2 bd ee 10 a2 bd
       0.07913373 -0.07913383 -0.079133935 -0.07913385
000090 f8 10 a2 bd e7 10 a2 3d ee 10 a2 3d c4 10 a2 3d
       -0.07913393 0.0791338 0.07913385 0.07913354
0000a0 e8 10 a2 3d ff 10 a2 3d e9 10 a2 bd bd 10 a2 bd
       0.07913381 0.07913398 -0.079133816 -0.07913349
0000b0 08 11 a2 bd af 10 a2 bd d9 10 a2 3d d3 10 a2 3d
       -0.07913405 -0.079133384 0.0791337 0.07913365
0000c0 f0 10 a2 3d f0 10 a2 3d e4 10 a2 3d fd 10 a2 bd
       0.07913387 0.07913387 0.07913378 -0.079133965
0000d0 ec 10 a2 3d 02 11 a2 3d fc 10 a2 3d f0 10 a2 bd
       0.07913384 0.079134 0.07913396 -0.07913387
0000e0 de 10 a2 3d bf 10 a2 bd ca 10 a2 3d ef 10 a2 3d
       0.079133734 -0.0791335 0.079133585 0.07913386
0000f0 b8 10 a2 bd 00 11 a2 bd e5 10 a2 3d eb 10 a2 bd
       -0.07913345 -0.07913399 0.079133786 -0.07913383
000100 f3 10 a2 3d e9 10 a2 bd de 10 a2 bd fe 10 a2 3d
       0.07913389 -0.079133816 -0.079133734 0.07913397
000110 e4 10 a2 bd 0a 11 a2 bd f2 10 a2 3d 64 57 b8 1e
       -0.07913378 -0.07913406 0.07913388 1.9517902e-20
000120 dc 10 a2 3d d0 10 a2 bd d9 10 a2 bd fc 10 a2 bd
       0.07913372 -0.07913363 -0.0791337 -0.07913396
000130 da 10 a2 3d d5 10 a2 bd db 10 a2 3d f4 10 a2 3d
       0.079133704 -0.07913367 0.07913371 0.0791339
000140 20 43 0c 8c eb 10 a2 3d 02 11 a2 3d ec 10 a2 3d
       -1.0805407e-31 0.07913383 0.079134 0.07913384
000150 d2 10 a2 3d b2 ee 6b b2 f0 10 a2 bd 20 a3 d2 37
       0.079133645 -1.3733073e-08 -0.07913387 2.5109912e-05
000160 de 10 a2 3d f6 10 a2 bd 00 11 a2 bd e3 14 bc 34
       0.079133734 -0.07913391 -0.07913399 3.5032926e-07
000170 d8 10 a2 3d df 10 a2 3d fc 10 a2 3d ee 10 a2 3d
       0.07913369 0.07913374 0.07913396 0.07913385
000180 0b 11 a2 bd fe 10 a2 3d ce 10 a2 bd 23 51 f8 31
       -0.07913407 0.07913397 -0.079133615 7.226974e-09

fc3.weight f4 [1, 100]
000000 69 f4 26 be 13 f4 26 be 2e f4 26 be 19 f4 26 3e
       -0.16304173 -0.16304044 -0.16304085 0.16304053
000010 38 f4 26 3e 3c f4 26 be 16 f4 26 3e 2a f4 26 3e
       0.163041 -0.16304106 0.16304049 0.16304079
000020 38 f4 26 be 2c f4 26 be 2a f4 26 be 27 f4 26 3e
       -0.163041 -0.16304082 -0.16304079 0.16304074
000030 1e f4 26 3e 1e f4 26 3e 23 f4 26 be 2c f4 26 be
       0.16304061 0.16304061 -0.16304068 -0.16304082
000040 40 f4 26 be 31 f4 26 3e 29 f4 26 3e 1f f4 26 3e
       -0.16304111 0.16304089 0.16304077 0.16304062
000050 19 f4 26 be 23 31 a7 b8 e4 f3 26 be 30 f4 26 be
       -0.16304053 -7.972333e-05 -0.16303974 -0.16304088
000060 47 f3 26 3e 92 87 69 b1 2b f4 26 3e 36 f4 26 be
       0.1630374 -3.3983025e-09 0.1630408 -0.16304097
000070 28 f4 26 3e 18 f4 26 be 46 f4 26 be 15 f4 26 3e
       0.16304076 -0.16304052 -0.1630412 0.16304047
000080 16 f4 26 3e 27 f4 26 be 36 f4 26 be 2a f4 26 be
       0.16304049 -0.16304074 -0.16304097 -0.16304079
000090 36 f4 26 be 20 f4 26 3e 2b f4 26 3e fd f3 26 3e
       -0.16304097 0.16304064 0.1630408 0.16304012
0000a0 21 f4 26 3e 3f f4 26 3e 25 f4 26 be f5 f3 26 be
       0.16304065 0.1630411 -0.16304071 -0.16304
0000b0 47 f4 26 be e5 f3 26 be 12 f4 26 3e 0c f4 26 3e
       -0.16304122 -0.16303976 0.16304043 0.16304034
0000c0 2b f4 26 3e 2b f4 26 3e 1e f4 26 3e 3b f4 26 be
       0.1630408 0.1630408 0.16304061 -0.16304104
0000d0 28 f4 26 3e 41 f4 26 3e 3c f4 26 3e 2c f4 26 be
       0.16304076 0.16304113 0.16304106 -0.16304082
0000e0 16 f4 26 3e f8 f3 26 be 04 f4 26 3e 2d f4 26 3e
       0.16304049 -0.16304004 0.16304022 0.16304083
0000f0 ef f3 26 be 40 f4 26 be 1f f4 26 3e 28 f4 26 be
       -0.16303991 -0.16304111 0.16304062 -0.16304076
000100 30 f4 26 3e 23 f4 26 be 17 f4 26 be 3d f4 26 3e
       0.16304088 -0.16304068 -0.1630405 0.16304107
000110 1e f4 26 be 4b f4 26 be 2e f4 26 3e 30 f9 f8 1d
       -0.16304061 -0.16304128 0.16304085 6.5902707e-21
000120 17 f4 26 3e 08 f4 26 be 13 f4 26 be 3b f4 26 be
       0.1630405 -0.16304028 -0.16304044 -0.16304104
000130 13 f4 26 3e 0e f4 26 be 13 f4 26 3e 2e f4 26 3e
       0.16304044 -0.16304037 0.16304044 0.16304085
000140 bc 90 6f 8d 28 f4 26 3e 42 f4 26 3e 29 f4 26 3e
       -7.382178e-31 0.16304076 0.16304114 0.16304077
000150 08 f4 26 3e 7d 0c 53 b2 2c f4 26 be 1f e0 fa 37
       0.16304028 -1.2284656e-08 -0.16304082 2.9906687e-05
000160 18 f4 26 3e 33 f4 26 be 40 f4 26 be 3e 98 54 35
       0.16304052 -0.16304092 -0.16304111 7.9197696e-07
000170 0f f4 26 3e 19 f4 26 3e 3c f4 26 3e 2a f4 26 3e
       0.16304038 0.16304053 0.16304106 0.16304079
000180 4c f4 26 be 40 f4 26 3e 08 f4 26 be 97 d6 94 b2
       -0.1630413 0.16304111 -0.16304028 -1.7327052e-08
