gail/save_model/0/SUB018_ckpt_21.pth.tar (torch_old, 154739 bytes, 16 tensors)

fc1.weight f4 [100, 22]
-0.019773915 -0.52121943 0.10416479 -0.24145584 0.22105207 -0.283857 -0.4789639 -0.25057513
-0.20853265 0.1270954 -0.017363548 0.17043388 -0.105812654 0.027623221 -0.20033872 0.039657354
0.059117734 -0.008740246 0.043931454 0.1002669 0.1109502 0.16510823 0.29621318 0.1654493
-0.30275983 0.312929 -0.12825505 -0.15494767 -0.07010242 0.11220326 -0.10073626 -0.015945613
0.10634327 0.18803886 -0.18678859 0.05240825 0.16160882 0.04745248 0.059801936 -0.19784737
-0.036095023 -0.10515195 0.13505667 -0.20369631 0.15496168 -0.20371792 0.24146126 -0.26840514
0.04661884 -0.12934949 -0.34005052 -0.22649965 -0.020830711 0.06391707 0.04757929 0.17674974
-0.07064088 -0.03134334 0.11787838 0.21276453 0.070577055 0.046675146 -0.10051187 0.0133600235
-0.028393283 0.02227661 0.12964317 -0.56347287 0.08160507 -0.3245554 -0.2807813 -0.3810178
-0.045126405 -0.23195058 -0.22028534 -0.10686112 -0.15128021 0.04704073 0.19411889 -0.115122356
-0.094016075 0.16046417 0.06744477 0.18371043 0.021668047 -0.13205475 0.16463181 0.20020583
-0.050059423 -0.09816447 0.009508722 -0.3476578 0.18736517 0.16016969 0.13356349 -0.11915753
0.21569963 -0.12205914 0.13579372 0.005322799 0.08432412 -0.022651449 0.09195787 0.16440377
-0.18926974 0.12977988 0.1900717 0.12230405 0.10172212 -0.04550661 -0.1374781 -0.088057436
-0.094348505 -0.42773598 0.012699492 0.23291631 -0.053075664 0.20498571 0.12840003 0.1204091
-0.040400773 -0.08007951 -0.040216118 0.05861345 0.036905825 0.2075628 0.19277579 0.03202997
-0.033768386 -0.033163622 -0.05815363 0.115783155 -0.028984107 0.5876451 -0.015500226 0.12093632
-0.04382809 0.37109512 0.46132022 0.37614733 0.58702356 0.0014692396 0.08922824 0.092371374
0.08634055 -0.12774573 0.13442639 -0.060541153 -0.052569553 0.019937903 0.147576 0.15262696
-0.0764671 0.0041880906 -0.24461153 -0.0069978656 0.114688165 0.38710192 0.13187435 0.091552496
0.35031098 0.32120207 0.15984271 0.010758668 0.10274008 -0.036053494 -0.1139675 0.0819104
0.10758722 0.14027247 0.040210307 -0.110446535 -0.057112068 0.13466907 0.085246295 -0.0519187
0.17893629 -0.19975425 -0.0612723 0.09079933 0.20025444 0.26478618 -0.0853193 0.26843607
0.2545256 0.12848032 0.19182938 0.001976952 -0.16869412 0.018528864 -0.21164216 0.032917053
-0.14038798 0.12029651 0.1105552 -0.04730995 -0.113868356 -0.12329786 0.42908254 -0.011456998
0.16096555 0.16061969 -0.018494591 -0.06509054 -0.20754363 -0.15407968 -0.30038926 -0.16984642
0.20079082 -0.088579595 0.18850785 -0.17371158 0.038270175 0.19644278 -0.20980379 -0.18060121
-0.15269949 -0.030652776 0.051560342 -0.19551834 0.07903931 0.39778763 -0.12378232 0.25279567
0.038986832 0.26620656 0.16641708 0.2364551 0.26289836 -0.071006 -0.17976923 0.15769798
0.021393016 0.12140164 0.13626784 0.1949665 -0.17295463 -0.095842354 0.057777077 -0.041324288
0.1168986 -0.016012251 -0.011575746 -0.32818696 -0.037657324 0.4981335 0.16815862 -0.14787433
-0.40244272 -0.3545506 -0.33061525 0.06858435 -0.19918182 0.1397498 0.04704696 0.033131674
00000000: e8fc a1bc a36e 05bf 5954 d53d 3340 77be
00000010: 795b 623e b455 91be c23a f5be 624b 80be
00000020: 9589 55be 4c25 023e 003e 8ebc 3886 2e3e
00000030: 4eb4 d8bd 184a e23c 9825 4dbe c06f 223d
00000040: 7025 723d 4033 0fbc 78f1 333d bc58 cd3d
00000050: dc39 e33d 2212 293e 41a9 973e 8b6b 293e
00000060: 5603 9bbe 3b38 a03e 4b55 03be 9aaa 1ebe
00000070: dc91 8fbd d3ca e53d d04e cebd 60a0 82bc
00000080: 80ca d93d 428d 403e 8245 3fbe 08aa 563d
00000090: c87c 253e 885d 423d e0f2 743d 8098 4abe
000000a0: 60d8 13bd e859 d7bd 4c4c 0a3e c495 50be
000000b0: 46ae 1e3e 6e9b 50be 9f41 773e 666c 89be
000000c0: 66f3 3e3d 3174 04be 1a1b aebe 86ef 67be
000000d0: 2ba5 aabc f4e6 823d 80e2 423d e2fd 343e
000000e0: 2aac 90bd e061 00bd 386a f13d f2de 593e
000000f0: b48a 903d 702e 3f3d 2bd9 cdbd 00e4 5a3c
00000100: 0899 e8bc 707d b63c 2ec1 043e c23f 10bf
00000110: 8f20 a73d 202c a6be 91c2 8fbe c414 c3be
00000120: 77d6 38bd 7484 6dbe 7b92 61be 01da dabd
00000130: 33e9 1abe c8ad 403d 1ac7 463e 45c5 ebbd
00000140: 808b c0bd b850 243e 7c20 8a3d 961e 3c3e
00000150: 3081 b13c 5c39 07be 3e95 283e c202 4d3e
00000160: 1c0b 4dbd 740a c9bd 79ca 1b3c 3400 b2be
00000170: a8dc 3f3e 8603 243e dec4 083e dd08 f4bd
00000180: 5de0 5c3e 24fa f9bd 820d 0b3e e06a ae3b
00000190: 20b2 ac3d 888f b9bc 6854 bc3d 7659 283e
000001a0: edcf 41be 04e5 043e 28a2 423e 8c7a fa3d
000001b0: b053 d03d 2465 3abd 0fc7 0cbe 7557 b4bd
000001c0: ca39 c1bd 3600 dbbe 8811 503c 9d81 6e3e
000001d0: de65 59bd c6e7 513e 4c7b 033e 0c99 f63d
000001e0: 487b 25bd ba00 a4bd a8b9 24bd a814 703d
000001f0: 902a 173d 588b 543e 0467 453e dc31 033d
00000200: b850 0abd 94d6 07bd 8032 6ebd b81f ed3d
00000210: 1470 edbc e96f 163f a9f4 7dbc 76ad f73d
00000220: 1585 33bd 2e00 be3e 2a32 ec3e 6296 c03e
00000230: 2d47 163f 8093 c03a 4cbd b63d 342d bd3d
00000240: 50d3 b03d c7cf 02be 12a7 093e 00fa 77bd
00000250: 2c53 57bd d054 a33c 2a1e 173e 3e4a 1c3e
00000260: c89a 9cbd 403c 893b 727b 7abe 5a4e e5bb
00000270: a1e1 ea3d 3932 c63e 120a 073e e07f bb3d
00000280: f65b b33e 9974 a43e cfad 233e 2045 303c
00000290: 6469 d23d d4ac 13bd cb67 e9bd a4c0 a73d
000002a0: b056 dc3d 96a3 0f3e 90b3 243d cb31 e2bd
000002b0: 58ee 69bd b0e6 093e 9c95 ae3d b4a8 54bd
000002c0: 133b 373e 618c 4cbe aaf8 7abd 00f5 b93d
000002d0: 800f 4d3e 0e92 873e e3bb aebd 7470 893e
000002e0: 2e51 823e 5890 033e ec6e 443e c08f 013b
000002f0: 27be 2cbe d8c9 973c b9b8 58be 08d4 063d
00000300: dec1 0fbe 045e f63d c46a e23d 14c8 41bd
00000310: d033 e9bd 9783 fcbd b5b0 db3e 22b6 3bbc
00000320: 27d4 243e 7d79 243e f881 97bc 304e 85bd
00000330: 5186 54be 10c7 1dbe 9fcc 99be 38ec 2dbe
00000340: 1c9c 4d3e 3869 b5bd 3408 413e 73e1 31be
00000350: 30c1 1c3d 4c28 493e ced6 56be 86ef 38be
00000360: 415d 1cbe 881b fbbc f030 533d f635 48be
00000370: 5ddf a13d d2aa cb3e 9681 fdbd 6f6e 813e
00000380: a8b0 1f3d 3a4c 883e 3d69 2a3e 4921 723e
00000390: 9d9a 863e 986b 91bd 6d15 38be 947b 213e
000003a0: 6840 af3c 6ca1 f83d cc89 0b3e 4ca5 473e
000003b0: 051b 31be ff48 c4bd a8a7 6c3d a843 29bd
000003c0: 8868 ef3d 202c 83bc 33a8 3dbc 1f08 a8be
000003d0: 913e 1abd 5b0b ff3e c631 2c3e 5e6c 17be
000003e0: f90c cebe a887 b5be 6746 a9be f475 8c3d
000003f0: 52f6 4bbe 921a 0f3e 50b4 403d 14b5 073d

fc1.bias f4 [100]
0.38513488 0.03444867 0.28293967 0.08450232 -0.03472026 -0.25371417 -0.5942648 -0.10098618
-0.19353959 0.2224127 -0.18967038 0.1515596 0.02766551 -0.14162016 0.225638 -0.059525933
0.103961274 0.013357407 -0.039928604 0.046011332 0.15344118 -0.3828273 -0.23598994 -0.15183564
0.18089274 -0.44011176 0.12588918 -0.321955 0.45851508 0.19475253 0.06638384 -0.06835301
0.037038464 -0.0988756 0.3184927 -0.28856567 0.06389716 0.12805523 -0.3133935 0.4246378
0.044837415 -0.08532289 -0.0042082965 -0.14317745 0.15353423 -0.19935638 -0.2804237 -0.18339914
0.37488234 -0.14430548 -0.20625123 0.25031725 -0.23374173 -0.18869871 0.24004029 -0.21183263
0.22304809 -0.49342418 -0.10004345 -0.00863211 -0.09610484 -0.327644 -0.25125983 -0.25266415
-0.49280143 -0.21859825 0.14451927 -0.30038518 0.25589526 0.4171663 0.055857833 0.047691874
-0.23825707 0.20633768 0.1007865 0.119794324 0.3244405 -0.06508028 -0.120395474 -0.42902136
-0.12645264 0.049735762 -0.06911367 0.12517047 -0.19713232 0.12459662 -0.3491653 -0.019965054
0.23412065 0.14332429 -0.08461899 -0.33184573 0.06305824 0.08259051 -0.17819986 -0.028533975
-0.4610041 0.44340494 0.4085439 0.027880698
00000000: 6630 c53e 0c1a 0d3d 78dd 903e 8d0f ad3d
00000010: d536 0ebd d3e6 81be bd21 18bf d8d1 cebd
00000020: 3e2f 46be 28c0 633e f438 42be 7132 1b3e
00000030: c8a2 e23c e004 11be a60d 673e 77d1 73bd
00000040: a6e9 d43d 07d9 5a3c 2d8c 23bd 6176 3c3d
00000050: af1f 1d3e f101 c4be 59a7 71be cd7a 1bbe
00000060: f23b 393e 5456 e1be 18e9 003e 49d7 a4be
00000070: 7dc2 ea3e 356d 473e 40f4 873d aafc 8bbd
00000080: a5b5 173d 4a7f cabd 7a11 a33e e1be 93be
00000090: 84dc 823d e920 033e 1d75 a0be 206a d93e
000000a0: 70a7 373d c4bd aebd c0e5 89bb 1c9d 12be
000000b0: 1438 1d3e 1424 4cbe b293 8fbe fccc 3bbe
000000c0: 94f0 bf3e d1c4 13be 8633 53be 9529 803e
000000d0: fe59 6fbe 3c3a 41be 1fcd 753e a7ea 58be
000000e0: b866 643e 18a2 fcbe 95e3 ccbd b26d 0dbc
000000f0: 9dd2 c4bd f4c0 a7be 21a5 80be 325d 81be
00000100: 7850 fcbe 38d8 5fbe dcfc 133e 16cc 99be
00000110: b404 833e d296 d53e 2fcb 643d 8e58 433d
00000120: a9f9 73be 2f4a 533e 2769 ce3d ba56 f53d
00000130: 111d a63e cf48 85bd e791 f6bd b0a8 dbbe
00000140: cd7c 01be bab7 4b3d 788b 8dbd b02c 003e
00000150: 0edd 49be 832c ff3d cbc5 b2be c18d a3bc
00000160: 53bd 6f3e 9ac3 123e b94c adbd afe7 a9be
00000170: ae24 813d 3725 a93d 067a 36be 15c0 e9bc
00000180: bb08 ecbe f905 e33e ab2c d13e 1066 e43c

fc2.weight f4 [100, 100]
-0.48510745 -0.13882317 -0.47343758 0.109377585 0.4183119 0.24615164 0.37142003 0.24136011
0.44618616 -0.391875 0.1680427 -0.26726544 -0.52378 -0.30197322 -0.4751043 -0.40921673
0.28956196 -0.48520517 -0.037772663 0.059123356 -0.3841145 0.23121408 0.24877906 -0.07840372
-0.05185545 -0.162052 0.14674988 0.54880625 -0.33725572 -0.4577633 0.5173807 -0.1365224
-0.063284725 -0.094926454 -0.46986678 0.34925008 -0.048485205 -0.32750323 0.08636265 -0.3988823
0.075123414 0.3509554 -0.0035273235 0.43701696 -0.45371902 0.19754052 -0.20786259 0.5125477
0.22586304 0.29677078 0.58015424 -0.28500107 0.492167 0.3866072 -0.34925884 0.63122475
-0.16917528 0.40975362 -0.20665194 0.2571439 -0.32245833 0.19711329 0.64456445 0.6363726
0.36952916 0.077644624 -0.10168852 0.66946316 0.22165684 -0.591324 -0.10915985 -0.6559351
0.053161714 -0.1598667 -0.5943486 -0.45825723 -0.32068256 -0.19764188 -0.015151492 0.28246915
-0.35047925 -0.28645366 0.0025779172 0.024997512 0.4307173 -0.5342705 0.47088808 -0.027816638
-0.6901142 -0.31534493 0.6768683 0.39759398 0.4362092 -0.2978245 0.46157542 -0.35585722
0.27806944 -0.3731499 -0.2588853 -0.64109576 -0.40866354 -0.20093286 -0.417986 0.08905612
0.5421893 0.26029763 0.3817243 0.26874706 0.43084246 -0.33711562 0.07229492 -0.33359033
-0.4617018 -0.36476922 -0.62515384 -0.5190966 0.14451371 -0.46501583 0.09181284 -0.04673859
-0.22323328 0.3338326 0.27819955 -0.15613395 -0.12555078 -0.15722428 0.057045996 0.6121443
-0.33738425 -0.4653974 0.54916704 -0.16715336 0.03025793 -0.07949041 -0.39188662 0.43273374
-0.0126278745 -0.3408617 0.08045027 -0.47524804 0.013088075 0.3888217 0.08649539 0.39501885
-0.5160093 0.046901003 -0.140965 0.40084326 0.087007165 0.34041658 0.6258336 -0.35432526
0.35818586 0.36555478 -0.43874392 0.6955796 -0.15770562 0.45010698 -0.29321584 0.2555718
-0.17677428 0.2013924 0.59343904 0.6610145 0.35269475 0.07969677 -0.009993502 0.7530586
0.30155477 -0.53131986 0.0027313042 -0.5763 0.08629513 -0.23143987 -0.5204722 -0.5623262
-0.39092717 -0.13049407 0.15737335 0.13821192 -0.37811008 -0.252861 -0.05659547 0.0014205321
0.52265334 -0.48214293 0.46346453 -0.14156944 -0.55688757 -0.33135402 0.6174246 0.33996704
0.5321802 -0.4111375 0.3486354 -0.32963136 0.23435216 -0.45207945 -0.18117832 -0.6736371
-0.38711587 -0.11146477 -0.47772536 0.06340988 0.3858792 0.19710931 0.35932916 0.25602496
0.47881603 -0.27866104 0.21815404 -0.15378654 -0.49581409 -0.325677 -0.53453904 -0.41722742
0.16274129 -0.53836554 -0.050306816 0.020847319 -0.31329435 0.302795 0.31774518 -0.09866265
-0.05600834 -0.06988159 0.10703152 0.65574485 -0.25694898 -0.5078602 0.4552715 -0.0984584
-0.031190861 -0.13872227 -0.42637825 0.38810113 0.01036564 -0.37946516 0.16499251 -0.46195063
0.029712094 0.47053307 0.08266295 0.27641726 -0.33361167 0.13822237 -0.22773996 0.5052701
0.17294979 0.36384585 0.5930754 -0.33272153 0.32322803 0.41354322 -0.40495914 0.57569337
00000000: 0160 f8be a927 0ebe 6966 f2be 5b01 e03d
00000010: fa2c d63e 2d0f 7c3e c42a be3e 1b27 773e
00000020: 8372 e43e d7a3 c8be 6313 2c3e 04d7 88be
00000030: 7216 06bf 3c9c 9abe df40 f3be db84 d1be
00000040: 7741 943e d06c f8be 82b7 1abd 552b 723d
00000050: a8aa c4be 62c3 6c3e f0bf 7e3e 2192 a0bd
00000060: 6166 54bd f6f0 25be 9a45 163e 917e 0c3f
00000070: c8ac acbe f45f eabe 1073 043f 87cc 0bbe
00000080: 6c9b 81bd cd68 c2bd 6192 f0be e8d0 b23e
00000090: 6c98 46bd 81ae a7be e7de b03d 4d3a ccbe
000000a0: 4eda 993d 6db0 b33e ab2a 67bb b0c0 df3e
000000b0: dc4d e8be 1048 4a3e eed9 54be 5336 033f
000000c0: a448 673e 57f2 973e fd84 143f a9eb 91be
000000d0: 50fd fb3e 61f1 c53e 0ed2 b2be f297 213f
000000e0: 493c 2dbe 3acb d13e 919c 53be 5ea8 833e
000000f0: 4219 a5be 11d8 493e 2d02 253f 51e9 223f
00000100: ed32 bd3e 2504 9f3d 1242 d0bd f061 2b3f
00000110: 03fa 623e 0261 17bf 338f dfbd 5deb 27bf
00000120: 19c0 593d 19b4 23be 3b27 18bf b1a0 eabe
00000130: 8130 a4be a262 4abe f73d 78bc cc9f 903e
00000140: 0472 b3be 0eaa 92be 46f2 283b 95c7 cc3c
00000150: fa86 dc3e f4c5 08bf 3e18 f13e b8df e3bc
00000160: 53ab 30bf e474 a1be 3e47 2d3f 7091 cb3e
00000170: d056 df3e 747c 98be 9d53 ec3e eb32 b6be
00000180: 1e5f 8e3e 810d bfbe 9d8c 84be da1e 24bf
00000190: 593c d1be 58c1 4dbe 4302 d6be 0e63 b63d
000001a0: ebcc 0a3f bb45 853e 5e71 c33e 3799 893e
000001b0: 6297 dc3e 6b9a acbe 5c0f 943d 5acc aabe
000001c0: 2e64 ecbe 08c3 babe 150a 20bf 84e3 04bf
000001d0: 67fb 133e 8e16 eebe 5f08 bc3d f770 3fbd
000001e0: 4497 64be 1bec aa3e 2c70 8e3e 94e1 1fbe
000001f0: 6290 00be 67ff 20be 10a9 693d 7db5 1c3f
00000200: a1bd acbe 9148 eebe 3696 0c3f 402a 2bbe
00000210: 7adf f73c decb a2bd 5da5 c8be 478f dd3e
00000220: 25e5 4ebc 6d85 aebe 1cc3 a43d b653 f3be
00000230: 5e6f 563c a313 c73e 7f24 b13d e93f ca3e
00000240: 2f19 04bf 441b 403d 2159 10be 543b cd3e
00000250: d030 b23d 154b ae3e a136 203f 1f6a b5be
00000260: 2364 b73e ff29 bb3e 0ba3 e0be 8111 323f
00000270: 957d 21be 6c74 e63e 6320 96be 4fda 823e
00000280: 5104 35be cf39 4e3e 9feb 173f 3f38 293f
00000290: 6894 b43e 0f38 a33d c9bb 23bc 73c8 403f
000002a0: 6365 9a3e 9404 08bf aeff 323b 6688 13bf
000002b0: 80bb b03d 93fe 6cbe ab3d 05bf 9cf4 0fbf
000002c0: 9b27 c8be 3da0 05be 7b26 213e 6d87 0d3e
000002d0: a597 c1be ff76 81be a7d0 67bd 2631 ba3a
000002e0: 9ccc 053f 70db f6be 394b ed3e 94f7 10be
000002f0: 2f90 0ebf 3ca7 a9be 8a0f 1e3f 2910 ae3e
00000300: f63c 083f 9d80 d2be 5780 b23e 71c5 a8be
00000310: 03fa 6f3e f576 e7be cf86 39be 7b73 2cbf
00000320: 0d34 c6be a447 e4bd 6b98 f4be 0add 813d
00000330: f591 c53e 06d7 493e fef9 b73e b415 833e
00000340: 6027 f53e a9ac 8ebe c663 5f3e 387a 1dbe
00000350: 58db fdbe 23bf a6be 8dd7 08bf d59e d5be
00000360: a7a5 263e 53d2 09bf 850e 4ebd ffc7 aa3c
00000370: 1e68 a0be f207 9b3e 7faf a23e a50f cabd
00000380: 0069 65bd 141e 8fbd 5733 db3d e5de 273f
00000390: d18e 83be 2003 02bf 5919 e93e 8fa4 c9bd
000003a0: fa83 ffbc 360d 0ebe 404e dabe 31b5 c63e
000003b0: a5d4 293c 4249 c2be ccf3 283e cb84 ecbe
000003c0: c766 f33c b6e9 f03e 314b a93d 9086 8d3e
000003d0: 26cf aabe 2a8a 0d3e aa34 69be 6259 013f
000003e0: c019 313e 014a ba3e cad3 173f 7a5a aabe
000003f0: 257e a53e f0bb d33e ce56 cfbe a460 133f

fc2.bias f4 [100]
-0.7725492 -0.8605004 -0.83635485 -0.38536406 -0.2603644 -0.20870233 -0.11505824 -0.7402858
0.33197647 -0.06433249 -0.7241613 -0.9099383 -0.27103576 -0.0020039731 -0.7197918 -0.7462973
-0.267178 0.059775133 0.7093224 0.65192866 0.2622772 -0.22913657 -0.30303642 0.8016131
0.72148186 -0.82281286 0.7255159 -0.80960983 -0.71176547 0.0013050168 -0.80947804 -0.6936883
0.052378584 0.72394294 0.7376833 -0.69901824 -0.31809023 -0.31217158 -0.4618787 -0.7383234
0.4180035 0.27015826 0.129147 -0.12209286 0.84381354 -0.4460535 -0.78680456 0.828442
0.14182836 0.6548016 0.75839627 0.7191621 0.57502574 -0.5265104 -0.2947191 0.3035052
-0.2054868 0.28932172 0.74747753 0.58425146 -0.8727637 -0.7204097 -0.7624316 -0.7349088
0.8116244 0.3672022 0.1469193 0.18539028 -0.13616332 0.27252516 0.064264365 -0.20259143
-0.47689584 -0.7383777 0.71677816 0.35265714 0.24763948 0.7496459 -0.40779048 -0.6837104
0.74662036 0.83040535 -0.18736975 -0.46542802 0.2690979 -0.54915243 0.8027387 0.6782459
-0.8980253 -0.16732931 0.7388149 0.48993647 -0.7427359 0.5148897 0.74708354 0.71788067
-0.840838 0.753757 -0.01053295 0.34095764
00000000: c9c5 45bf c149 5cbf 5a1b 56bf 704e c5be
00000010: 7c4e 85be 10b6 55be a8a3 ebbd 5f83 3dbf
00000020: d2f8 a93e c1c0 83bd a362 39bf b7f1 68bf
00000030: 33c5 8abe 1755 03bb 4744 38bf 570d 3fbf
00000040: 8ecb 88be c5d6 743d 2796 353f cce4 263f
00000050: 3249 863e c7a2 6abe 9727 9bbe 8436 4d3f
00000060: 09b3 383f dda3 52bf 69bb 393f 9742 4fbf
00000070: 4336 36bf 190d ab3a f439 4fbf 8e95 31bf
00000080: ed8a 563d 5354 393f d0d8 3c3f dcf2 32bf
00000090: b9dc a2be f4d4 9fbe 5d7b ecbe c302 3dbf
000000a0: 8e04 d63e 2f52 8a3e 1c3f 043e d20b fabd
000000b0: 2a04 583f 2061 e4be 066c 49bf c614 543f
000000c0: 743b 113e 14a1 273f 4226 423f 021b 383f
000000d0: e334 133f 63c9 06bf 6ce5 96be 0965 9b3e
000000e0: 226b 52be fa21 943e b05a 3f3f 8191 153f
000000f0: 716d 5fbf c56c 38bf b82e 43bf fc22 3cbf
00000100: 9ec6 4f3f ed01 bc3e 0372 163e f3d6 3d3e
00000110: 666e 0bbe 6b88 8b3e 099d 833d 2174 4fbe
00000120: b12b f4be 5206 3dbf c67e 373f 7a8f b43e
00000130: 3495 7d3e cbe8 3f3f eac9 d0be a507 2fbf
00000140: 8322 3f3f 7295 543f dbdd 3fbe 954c eebe
00000150: 33c7 893e 4195 0cbf 4980 4d3f 86a1 2d3f
00000160: fce4 65bf 6058 2bbe f922 3d3f f4d8 fa3e
00000170: f123 3ebf d0cf 033f de40 3f3f 07c7 373f
00000180: 2941 57bf 38f6 403f 6592 2cbc 0092 ae3e

fc3.weight f4 [2, 100]
-2.0037763 -2.0212746 -2.0127435 -2.221212 -1.3096132 -2.5083458 1.5918964 -1.9803598
2.2291102 1.9309669 -1.9930383 -1.9780822 -2.0355337 -0.9178902 -2.0515501 -2.0476823
-1.281537 2.3787317 2.0326114 1.9266808 1.3282664 -1.3067051 -1.9478228 2.0133295
1.955923 -1.9763658 1.9693408 -1.9986938 -1.9883964 1.5513719 -2.0299568 -1.9420162
-0.59497285 2.0126195 1.9704142 -2.129866 -2.295904 -2.147507 -1.9019196 -2.0022824
2.2339716 2.17234 2.3971663 1.5653659 1.962443 -2.317726 -2.0252008 1.9670233
1.3446279 2.1305904 1.9675202 1.9884088 2.16095 -2.142661 -1.9477472 1.9340134
-2.3862047 2.1428664 2.0398812 2.0466793 -1.9552625 -1.9785705 -1.9655296 -1.9419975
1.9691275 2.2481143 2.1322553 2.3671474 -2.35409 -2.2183259 2.540045 -2.368322
-2.080097 -1.9592797 1.9984436 1.3963264 -1.1987067 1.9644756 -2.1705365 -2.033495
2.0347013 1.9742836 -2.42972 -1.9423332 1.2789795 -1.9367794 1.9893137 2.0261009
-2.0074868 2.2866998 2.034989 1.8938746 -2.0117044 1.937453 2.042573 2.0467844
-1.9695569 1.977506 2.0517051 1.9360688 -0.13898416 -0.14975895 -0.12074441 -0.035639245
-0.022662014 -0.039099757 0.0983687 -0.11795973 0.033609655 0.5517492 -0.12509932 -0.12650596
-0.05757483 0.8737924 -0.1709061 -0.15992233 -0.061515693 0.1813362 0.15109226 0.09021375
0.034645915 -0.084307164 0.11658776 0.14654653 0.11352953 -0.10961878 0.12383797 -0.1249013
-0.11495675 0.23601405 -0.16070679 -0.10688396 1.2681476 0.13178042 0.11521833 -0.1873206
-0.02217098 -0.024523942 -0.07345109 -0.11693137 0.022725299 0.024609942 0.9485563 0.35189217
0.12057717 -0.15103734 -0.12722284 0.10751252 0.097451426 0.20846356 0.12716663 0.11479859
0.19571544 0.012268843 0.060137786 -0.036785364 -1.2539517 1.7980574 0.14270653 0.19226255
-0.11807813 -0.11875308 -0.11097282 -0.11934224 0.11281018 0.0252763 0.19126211 1.207431
-0.9092844 -0.3429492 0.52962697 -1.1585697 -0.18776946 -0.10292169 0.13031305 -0.030182254
-2.3726652 0.113641426 -0.010834094 -0.14611155 0.14274412 0.113897175 -1.1532484 -0.107292466
-0.04715346 -0.11046683 0.115809634 0.15018982 -0.12978958 0.2952913 0.14914055 0.060134716
-0.11581505 0.098069414 0.1773434 0.16964374 -0.12334396 0.1211378 1.9042819 -0.12111719
00000000: df3d 00c0 905c 01c0 cad0 00c0 5628 0ec0
00000010: 68a1 a7bf bd88 20c0 43c3 cb3f 6e7c fdbf
00000020: bea9 0e40 ec29 f73f e11b ffbf cc31 fdbf
00000030: 2f46 02c0 dafa 6abf 994c 03c0 3a0d 03c0
00000040: 6809 a4bf 243d 1840 4e16 0240 7a9d f63f
00000050: a204 aa3f 1d42 a7bf 4252 f9bf 64da 0040
00000060: af5b fa3f 8ef9 fcbf 5c13 fc3f 33d5 ffbf
00000070: c683 febf 5b93 c63f d0ea 01c0 fd93 f8bf
00000080: 2450 18bf c2ce 0040 8836 fc3f b94f 08c0
00000090: 17f0 12c0 c170 09c0 1a72 f3bf 6525 00c0
000000a0: 64f9 0e40 9e07 0b40 2c6b 1940 e95d c83f
000000b0: 5531 fb3f 9f55 14c0 e49c 01c0 6bc7 fb3f
000000c0: c41c ac3f 985b 0840 b4d7 fb3f 2e84 fe3f
000000d0: 014d 0a40 5c21 09c0 c84f f9bf c08d f73f
000000e0: 94b7 18c0 b924 0940 6a8d 0240 cbfc 0240
000000f0: 0b46 fabf cc41 fdbf 7996 fbbf 6093 f8bf
00000100: 5f0c fc3f 1be1 0f40 df76 0840 587f 1740
00000110: 69a9 16c0 0df9 0dc0 1990 2240 9692 17c0
00000120: 4f20 05c0 adc9 fabf 00cd ff3f d3ba b23f
00000130: 396f 99bf f073 fb3f 12ea 0ac0 c824 02c0
00000140: 8c38 0240 53b5 fc3f 8880 1bc0 609e f8bf
00000150: 9ab5 a33f 63e8 f7bf d5a1 fe3f a3ab 0140
00000160: aa7a 00c0 4a59 1240 433d 0240 7c6a f23f
00000170: c4bf 00c0 76fe f73f 84b9 0240 84fe 0240
00000180: 711a fcbf eb1e fd3f 234f 0340 1ad1 f73f
00000190: dd51 0ebe 695a 19be d848 f7bd 75fa 11bd
000001a0: b0a5 b9bc 1127 20bd 8775 c93d df94 f1bd
000001b0: 47aa 093d 703f 0d3f 091a 00be c78a 01be
000001c0: 96d3 6bbd dcb0 5f3f 0202 2fbe aec2 23be
000001d0: e1f7 7bbd 32b0 393e eeb7 1a3e fdc1 b83d
000001e0: e0e8 0d3d 3ca9 acbd 90c5 ee3d 4b10 163e
000001f0: 2c82 e83d d07f e0bd c39e fd3d 41cc ffbd
00000200: 726e ebbd abad 713e 5290 24be fae5 dabd
00000210: a952 a23f 72f1 063e 96f7 eb3d f9d0 3fbe
00000220: ea9f b5bc 6fe6 c8bc 866d 96bd b779 efbd
00000230: 682a ba3c ca9a c93c 96d4 723f 362b b43e
00000240: 2af1 f63d 88a9 1abe b446 02be 862f dc3d
00000250: 9d94 c73d 7977 553e f837 023e 861b eb3d
00000260: a169 483e 4203 493c 0a53 763d 40ac 16bd
00000270: 7d81 a0bf bf26 e63f a921 123e 79e0 443e
00000280: f2d2 f1bd d134 f3bd b845 e3bd b469 f4bd
00000290: 0609 e73d 3e10 cf3c 37da 433e 198d 9a3f
000002a0: ddc6 68bf 0a97 afbe a295 073f 034c 94bf
000002b0: a346 40be 9bc8 d2bd c970 053e c640 f7bc
000002c0: bfd9 17c0 d6bc e83d 7c81 31bc 449e 15be
000002d0: 842b 123e ec42 e93d a59d 93bf 27bc dbbd
000002e0: fd23 41bd 6f3c e2bd 9a2d ed3d 5ccb 193e
000002f0: 8fe7 04be 6c30 973e 4db8 183e d24f 763d
00000300: 7130 edbd 9ed8 c83d 8299 353e 17b7 2d3e
00000310: c29b fcbd 1817 f83d 82bf f33f 4a0c f8bd

fc3.bias f4 [2]
1.9400182 0.19008212
00000000: 8452 f83f e3a4 423e

fc1.weight f4 [100, 22]
0.081524216 -0.0072580012 -0.007500871 -0.014042994 -0.011586846 -0.034962736 -0.017718496 -0.013459429
-0.029109979 -5.6224e-41 2.22785e-40 7.44413e-40 3.9315e-40 -1.12153e-39 8.31256e-40 -1.719934e-39
7.50887e-40 -4.78207e-40 -8.90504e-40 -2.09748e-39 -9.28238e-40 1.6716975e-38 -1.1532357e-05 7.4058225e-06
8.845911e-06 3.083607e-05 1.9596508e-05 5.966346e-06 8.518508e-06 1.1405759e-05 6.2277018e-06 1.42899e-40
-1.334908e-39 1.61093e-39 1.677054e-39 2.08023e-40 -9.59414e-40 1.252523e-39 -1.095328e-39 -1.493072e-39
-1.036043e-39 -1.524204e-39 -1.762323e-39 -1.132539e-39 -9.629654e-11 -3.5025885e-10 -2.2873498e-10 -1.4713168e-10
3.655079e-11 -2.5709254e-11 1.2347726e-10 7.2196554e-11 8.477102e-11 1.770902e-39 -3.0016e-41 1.611314e-39
-9.58838e-40 -7.00426e-40 -1.04974e-40 -6.16136e-40 -1.04725e-40 1.310662e-39 -6.6183e-41 1.106954e-39
1.84287e-39 7.54833e-40 -0.081524216 0.0072580012 0.007500871 0.014042994 0.011586846 0.034962736
0.017718496 0.013459429 0.029109979 -5.07339e-40 8.96094e-40 1.3091e-39 -1.938154e-39 4.8995e-40
-1.129818e-39 7.27701e-40 1.360715e-39 4.3249e-40 1.947284e-39 7.83222e-40 -2.32576e-40 -6.84314e-40
-3.2071847e-09 1.03015e-08 2.7219778e-07 4.0217753e-08 1.0569712e-08 2.9058672e-08 2.4986802e-08 2.22316e-08
2.9080294e-08 -4.80481e-40 1.423439e-39 -4.80047e-40 2.146229e-39 9.8004e-41 3.48988e-40 -2.21752e-39
2.040253e-39 -4.89657e-40 -8.48552e-40 2.040945e-39 1.378616e-39 -1.491141e-39 2.948587e-10 -2.188977e-09
-1.8741376e-08 -2.553349e-09 -8.6326146e-10 -2.059577e-09 -1.7535878e-09 -1.6250763e-09 -2.0515385e-09 -9.40964e-40
-8.92337e-40 -5.40534e-40 2.011088e-39 1.29675e-40 -1.695979e-39 8.76296e-40 1.7861e-39 -2.309619e-39
2.30404e-40 -2.055809e-39 1.797566e-39 -1.889867e-39 4.085531e-24 -4.980064e-25 2.748167e-24 3.6055282e-24
1.1992336e-24 -7.384115e-25 -1.9682638e-24 -1.5043036e-24 -1.036762e-24 -1.828163e-39 8.6565e-40 4.64023e-40
1.531916e-39 -6.36e-41 2.77907e-40 -3.50358e-40 -3.88657e-40 9.55925e-40 -1.023539e-39 7.73898e-40
-7.86822e-40 3.4270039e-37 2.8401265e-25 3.2528551e-25 -1.8547089e-23 4.933451e-24 1.3450401e-24 2.1265428e-24
1.8398358e-24 1.0790129e-24 2.1585329e-24 1.91636e-39 1.493833e-39 1.581033e-39 -1.357263e-39 1.704175e-39
-8.14622e-40 5.56125e-40 -6.7365e-41 5.66071e-40 1.682417e-39 1.04044e-40 -7.19662e-40 1.053128e-39
6.157115e-16 -1.4620586e-17 5.3582934e-16 7.006988e-16 1.0167912e-16 -5.3387607e-17 -1.9324374e-16 -2.1483635e-16
-6.2647536e-17 1.79644e-40 -1.047322e-39 -1.309767e-39 -1.34488e-39 -1.813747e-39 1.957784e-39 -1.070274e-39
1.384062e-39 -1.44435e-39 -1.91726e-39 -1.89809e-39 -1.019588e-39 -1.222917e-39 -0.081524216 0.0072580012
0.007500871 0.014042994 0.011586846 0.034962736 0.017718496 0.013459429 0.029109979 -8.4353e-41
-1.991691e-39 -4.75206e-40 -1.293099e-39 -1.991808e-39 6.38144e-40 4.61911e-40 1.375349e-39 -6.7984e-40
-1.085e-40 9.14067e-40 1.061353e-39 -9.97753e-40 0.081524216 -0.0072580012 -0.007500871 -0.014042994
-0.011586846 -0.034962736 -0.017718496 -0.013459429 -0.029109979 6.14801e-40 8.53815e-40 -4.77788e-40
-1.99322e-40 5.22588e-40 2.045188e-39 -4.73273e-40 9.76778e-40 1.585695e-39 -2.176916e-39 1.980796e-39
-3.4293e-41 3.25942e-40 0.081524216 -0.0072580012 -0.007500871 -0.014042994 -0.011586846 -0.034962736
-0.017718496 -0.013459429 -0.029109979 -2.13042e-40 -1.187481e-39 1.21644e-40 9.77191e-40 6.2605e-40
00000000: 2bf6 a63d 87d4 edbb dec9 f5bb 9614 66bc
00000010: c1d6 3dbc 1635 0fbd 6126 91bc f084 5cbc
00000020: 0d78 eebc bb9c 0080 096d 0200 1f1b 0800
00000030: f147 0400 5f36 0c80 340d 0900 7aba 1280
00000040: 2b2d 0800 0c35 0580 5db2 0980 ecd6 1680
00000050: 8d1b 0a80 2008 b600 197b 41b7 887f f836
00000060: e668 1437 fa55 0138 2e63 a437 8632 c836
00000070: b7ea 0e37 5d5b 3f37 8df7 d036 588e 0100
00000080: 2e89 0e80 9e8a 1100 f242 1200 e243 0200
00000090: 7572 0a80 86a3 0d00 54ed 0b80 1442 1080
000000a0: 1148 0b80 dc98 1080 a430 1380 0f55 0c80
000000b0: 22c2 d3ae 8d8e c0af 2c7f 7baf e3c5 21af
000000c0: 88c0 202e 1824 e2ad c2c3 072f 0cc3 9e2e
000000d0: d769 ba2e 8e48 1300 ac53 0080 b08b 1100
000000e0: da70 0a80 81a0 0780 a024 0180 89b5 0680
000000f0: ee23 0180 9845 0e00 7eb8 0080 bd0d 0c00
00000100: 2c11 1400 2b38 0800 2bf6 a6bd 87d4 ed3b
00000110: dec9 f53b 9614 663c c1d6 3d3c 1635 0f3d
00000120: 6126 913c f084 5c3c 0d78 ee3c 4186 0580
00000130: f2c1 0900 3d41 0e00 c91a 1580 c855 0500
00000140: 794d 0c80 89ec 0700 1fd1 0e00 9bb5 0400
00000150: 3c34 1500 4e87 0800 5488 0280 9773 0780
00000160: 6465 5cb1 7afa 3032 9422 9234 e3bb 2c33
00000170: 1696 3532 b29c f932 8fa2 d632 cef7 be32
00000180: 3ecc f932 633b 0580 f87f 0f00 2d3a 0580
00000190: d05e 1700 3211 0100 d6cc 0300 8b25 1880
000001a0: 6537 1600 f754 0580 6b3d 0980 5339 1600
000001b0: 0503 0f00 b23c 1080 ac19 a22f e46c 16b1
000001c0: b9fc a0b2 fe76 2fb1 a04a 6db0 7688 0db1
000001d0: e302 f1b0 4a59 dfb0 0cfb 0cb1 063f 0a80
000001e0: 79b7 0980 cae2 0580 18e6 1500 7b69 0100
000001f0: b377 1280 c28a 0900 ec72 1300 4726 1980
00000200: 4682 0200 c262 1680 e292 1300 2e94 1480
00000210: 240d 9e18 2220 1a97 0ea1 5418 6c7b 8b18
00000220: 8a92 b917 fc86 6497 7b49 1898 9bc7 e897
00000230: 606e a097 2de8 1380 146d 0900 820d 0500
00000240: 5cae 1000 4ab1 0080 b106 0300 a8d0 0380
00000250: 6b3b 0480 bb68 0a00 3625 0b80 506d 0800
00000260: 5791 0880 d43a e902 9acb af16 8c57 c916
00000270: 5e60 b399 88da be18 8722 d017 8588 2418
00000280: b459 0e18 1bf8 a617 2602 2718 08de 1400
00000290: 3344 1000 4737 1100 7fc7 0e80 8c8e 1200
000002a0: d6de 0880 400e 0600 c9bb 0080 fa29 0600
000002b0: e551 1200 0822 0100 20d6 0780 b177 0b00
000002c0: 7d77 3126 e2d9 86a3 3a71 1a26 72f6 4926
000002d0: c274 ea24 f634 76a4 7ccb 5ea5 80b0 77a5
000002e0: 9474 90a4 c6f4 0100 8267 0b80 1943 0e80
000002f0: faa4 0e80 fdbf 1380 8151 1500 7da7 0b80
00000300: 3412 0f00 43ba 0f80 8ae0 1480 1aab 1480
00000310: 321a 0b80 ff50 0d80 2bf6 a6bd 87d4 ed3b
00000320: dec9 f53b 9614 663c c1d6 3d3c 1635 0f3d
00000330: 6126 913c f084 5c3c 0d78 ee3c 24eb 0080
00000340: 06b0 1580 ae2c 0580 a214 0e80 5ab0 1580
00000350: e3f2 0600 9f07 0500 eaf9 0e00 1e67 0780
00000360: 742e 0180 0cf4 0900 9f8e 0b00 54dd 0a80
00000370: 2bf6 a63d 87d4 edbb dec9 f5bb 9614 66bc
00000380: c1d6 3dbc 1635 0fbd 6126 91bc f084 5cbc
00000390: 0d78 eebc d1b1 0600 174c 0900 e133 0580
000003a0: a12b 0280 c3b0 0500 2745 1600 4b27 0580
000003b0: dca2 0a00 4644 1100 5bb4 1780 a791 1500
000003c0: 985f 0080 988c 0300 2bf6 a63d 87d4 edbb
000003d0: dec9 f5bb 9614 66bc c1d6 3dbc 1635 0fbd
000003e0: 6126 91bc f084 5cbc 0d78 eebc e051 0280
000003f0: 37ee 0c80 1853 0100 03a4 0a00 2cd1 0600

fc1.bias f4 [100]
0.08246502 -5.4117877e-06 1.2092599e-10 -0.08246502 -3.38789e-08 2.4283093e-09 1.1240885e-24 -1.7573703e-24
6.38989e-17 -0.08246502 0.08246502 0.08246502 0.08246502 0.08246502 -0.08246502 0.08246502
-0.08246502 -0.08246502 2.6226865e-10 -0.08246502 -6.8073837e-20 9.078661e-11 -1.953704e-05 -6.8525003e-13
7.206723e-05 -0.00016738479 -0.08246502 -0.08246502 0.00048588344 0.08246502 -7.972646e-28 -3.321295e-24
0.00036346813 0.08246502 -0.08246502 0.08246502 -3.0096919e-05 2.4865155e-25 1.0603282e-18 -4.710434e-13
3.560499e-09 -2.784669e-27 4.5238764e-11 2.694325e-18 -0.00037017843 0.00021360978 0.08246502 -0.08246502
7.398489e-18 -0.08246502 -0.08246502 -0.08246502 0.08246502 2.3469914e-22 3.7440977e-06 -0.08246502
-1.6898159e-22 0.08246502 0.08246502 1.2616012e-05 0.08246502 2.5243503e-27 0.08246502 9.97802e-39
0.08246502 -2.0351995e-21 0.08246502 -0.08246502 0.08246502 0.08246502 2.7323188e-07 0.08246502
0.08246502 -0.08246502 -0.08246502 0.08246502 0.08246502 -0.08246502 -1.5110339e-15 0.08246502
-0.00010994954 -2.37819e-40 7.15187e-06 0.08246502 -0.08246502 0.08246502 2.1827657e-09 0.08246502
0.08246502 -2.880804e-10 -0.08246502 -7.53827e-40 4.6092e-06 0.08246502 -0.08246502 0.08246502
-0.00016247295 -2.3146234e-15 7.9873814e-08 -0.08246503
00000000: 6ce3 a83d e796 b5b6 a4f5 042f 6ce3 a8bd
00000010: 3f82 11b3 45df 2631 bcf1 ad17 4ef8 0798
00000020: 4157 9324 6ce3 a8bd 6ce3 a83d 6ce3 a83d
00000030: 6ce3 a83d 6ce3 a83d 6ce3 a8bd 6ce3 a83d
00000040: 6ce3 a8bd 6ce3 a8bd 082f 902f 6ce3 a8bd
00000050: 1cbc a09f 51a4 c72e 79e3 a3b7 78e1 40ab
00000060: cd22 9738 0384 2fb9 6ce3 a8bd 6ce3 a8bd
00000070: 2cbe fe39 6ce3 a83d caa9 7c92 837c 8098
00000080: de8f be39 6ce3 a83d 6ce3 a8bd 6ce3 a83d
00000090: a478 fcb7 69e8 9916 117a 9c21 4196 04ab
000000a0: f6ac 7431 cc9f 5c93 52f6 462e 5cce 4622
000000b0: 8214 c2b9 70fc 5f39 6ce3 a83d 6ce3 a8bd
000000c0: 607a 0823 6ce3 a8bd 6ce3 a8bd 6ce3 a8bd
000000d0: 6ce3 a83d efdd 8d1b 1c43 7b36 6ce3 a8bd
000000e0: 4549 4c9b 6ce3 a83d 6ce3 a83d 5ca9 5337
000000f0: 6ce3 a83d e8ff 4713 6ce3 a83d a9a6 6c00
00000100: 6ce3 a83d 7cc6 199d 6ce3 a83d 6ce3 a8bd
00000110: 6ce3 a83d 6ce3 a83d b4b0 9234 6ce3 a83d
00000120: 6ce3 a83d 6ce3 a8bd 6ce3 a8bd 6ce3 a83d
00000130: 6ce3 a83d 6ce3 a8bd 50c3 d9a6 6ce3 a83d
00000140: b694 e6b8 f196 0280 18fa ef36 6ce3 a83d
00000150: 6ce3 a8bd 6ce3 a83d 9fff 1531 6ce3 a83d
00000160: 6ce3 a83d b65f 9eaf 6ce3 a8bd 5d35 0880
00000170: baa8 9a36 6ce3 a83d 6ce3 a8bd 6ce3 a83d
00000180: 805d 2ab9 44c9 26a7 1887 ab33 6de3 a8bd

fc2.weight f4 [100, 100]
-0.0132058645 -1.1594639e-05 -7.1735735e-11 0.0132058645 -4.357607e-08 3.143159e-09 9.793341e-25 -3.126023e-24
4.905766e-17 0.0132058645 -0.0132058645 -0.0132058645 -0.0132058645 -0.0132058645 0.0132058645 -0.0132058645
0.0132058645 0.0132058645 -1.9376065e-09 0.0132058645 -8.711011e-20 1.3288061e-10 -2.3285313e-05 4.1657482e-13
0.00015172974 -0.0003510677 0.0132058645 0.0132058645 0.0004705249 -0.0132058645 -2.2380752e-27 -4.053613e-24
0.00028540907 -0.0132058645 0.0132058645 -0.0132058645 -2.5798932e-05 2.3726989e-25 1.4968379e-18 -6.4501074e-13
3.6478311e-09 -2.8131812e-27 5.981214e-11 6.204244e-17 -0.00023262679 0.00028701796 -0.0132058645 0.0132058645
6.9380018e-18 0.0132058645 0.0132058645 0.0132058645 -0.0132058645 -2.6865838e-23 1.3466326e-06 0.0132058645
1.7803772e-23 -0.0132058645 -0.0132058645 4.32592e-05 -0.0132058645 -1.2541605e-26 -0.0132058645 -1.628642e-39
-0.0132058645 -2.9676886e-21 -0.0132058645 0.0132058645 -0.0132058645 -0.0132058645 8.7109953e-07 -0.0132058645
-0.0132058645 0.0132058645 0.0132058645 -0.0132058645 -0.0132058645 0.0132058645 2.847215e-16 -0.0132058645
-9.131796e-05 2.61293e-40 5.365716e-05 -0.0132058645 0.0132058645 -0.0132058645 2.9934386e-09 -0.0132058645
-0.0132058645 -3.3153524e-10 0.0132058645 8.19541e-40 5.6551053e-06 -0.0132058645 0.0132058645 -0.0132058645
-0.00023727295 -3.174022e-15 9.260813e-08 0.013205866 -0.0132058645 -1.1594639e-05 -7.1735735e-11 0.0132058645
-4.357607e-08 3.143159e-09 9.793341e-25 -3.126023e-24 4.905766e-17 0.0132058645 -0.0132058645 -0.0132058645
-0.0132058645 -0.0132058645 0.0132058645 -0.0132058645 0.0132058645 0.0132058645 -1.9376065e-09 0.0132058645
-8.711011e-20 1.3288061e-10 -2.3285313e-05 4.1657482e-13 0.00015172974 -0.0003510677 0.0132058645 0.0132058645
0.0004705249 -0.0132058645 -2.2380752e-27 -4.053613e-24 0.00028540907 -0.0132058645 0.0132058645 -0.0132058645
-2.5798932e-05 2.3726989e-25 1.4968379e-18 -6.4501074e-13 3.6478311e-09 -2.8131812e-27 5.981214e-11 6.204244e-17
-0.00023262679 0.00028701796 -0.0132058645 0.0132058645 6.9380018e-18 0.0132058645 0.0132058645 0.0132058645
-0.0132058645 -2.6865838e-23 1.3466326e-06 0.0132058645 1.7803772e-23 -0.0132058645 -0.0132058645 4.32592e-05
-0.0132058645 -1.2541605e-26 -0.0132058645 -1.628642e-39 -0.0132058645 -2.9676886e-21 -0.0132058645 0.0132058645
-0.0132058645 -0.0132058645 8.7109953e-07 -0.0132058645 -0.0132058645 0.0132058645 0.0132058645 -0.0132058645
-0.0132058645 0.0132058645 2.847215e-16 -0.0132058645 -9.131796e-05 -3.9143e-40 5.365716e-05 -0.0132058645
0.0132058645 -0.0132058645 2.9934386e-09 -0.0132058645 -0.0132058645 -3.3153524e-10 0.0132058645 -7.52354e-40
5.6551053e-06 -0.0132058645 0.0132058645 -0.0132058645 -0.00023727295 -3.174022e-15 9.260813e-08 0.013205866
-0.0132058645 -1.1594639e-05 -7.1735735e-11 0.0132058645 -4.357607e-08 3.143159e-09 9.793341e-25 -3.126023e-24
4.905766e-17 0.0132058645 -0.0132058645 -0.0132058645 -0.0132058645 -0.0132058645 0.0132058645 -0.0132058645
0.0132058645 0.0132058645 -1.9376065e-09 0.0132058645 -8.711011e-20 1.3288061e-10 -2.3285313e-05 4.1657482e-13
0.00015172974 -0.0003510677 0.0132058645 0.0132058645 0.0004705249 -0.0132058645 -2.2380752e-27 -4.053613e-24
0.00028540907 -0.0132058645 0.0132058645 -0.0132058645 -2.5798932e-05 2.3726989e-25 1.4968379e-18 -6.4501074e-13
3.6478311e-09 -2.8131812e-27 5.981214e-11 6.204244e-17 -0.00023262679 0.00028701796 -0.0132058645 0.0132058645
6.9380018e-18 0.0132058645 0.0132058645 0.0132058645 -0.0132058645 -2.6865838e-23 1.3466326e-06 0.0132058645
00000000: 695d 58bc 9886 42b7 a1bf 9dae 695d 583c
00000010: 6528 3bb3 0aff 5731 6c8b 9717 44dd 7198
00000020: 103d 6224 695d 583c 695d 58bc 695d 58bc
00000030: 695d 58bc 695d 58bc 695d 583c 695d 58bc
00000040: 695d 583c 695d 583c bc26 05b1 695d 583c
00000050: d5ae cd9f 911a 122f d454 c3b7 c282 ea2a
00000060: a419 1f39 820f b8b9 695d 583c 695d 583c
00000070: c8b0 f639 695d 58bc 8f51 3193 0ad1 9c98
00000080: f5a2 9539 695d 58bc 695d 583c 695d 58bc
00000090: c96a d8b7 eadc 9216 f0e4 dc21 ec8d 35ab
000000a0: 53ad 7a31 18e2 5e93 3e87 832e 640f 8f24
000000b0: 47ed 73b9 e67a 9639 695d 58bc 695d 583c
000000c0: 93f7 ff22 695d 583c 695d 583c 695d 583c
000000d0: 695d 58bc 4cea 019a f2bd b435 695d 583c
000000e0: 0130 ac19 695d 58bc 695d 58bc 3671 3538
000000f0: 695d 58bc 7e69 7894 695d 58bc febb 1180
00000100: 695d 58bc 723b 609d 695d 58bc 695d 583c
00000110: 695d 58bc 695d 58bc 81d5 6935 695d 58bc
00000120: 695d 58bc 695d 583c 695d 583c 695d 58bc
00000130: 695d 58bc 695d 583c 7a21 a425 695d 58bc
00000140: f581 bfb8 61d8 0200 f00d 6138 695d 58bc
00000150: 695d 583c 695d 58bc 21b5 4d31 695d 58bc
00000160: 695d 58bc 7043 b6af 695d 583c 8cec 0800
00000170: fcc0 bd36 695d 58bc 695d 583c 695d 58bc
00000180: 79cc 78b9 5fb6 64a7 dcdf c633 6b5d 583c
00000190: 695d 58bc 9886 42b7 a1bf 9dae 695d 583c
000001a0: 6528 3bb3 0aff 5731 6c8b 9717 44dd 7198
000001b0: 103d 6224 695d 583c 695d 58bc 695d 58bc
000001c0: 695d 58bc 695d 58bc 695d 583c 695d 58bc
000001d0: 695d 583c 695d 583c bc26 05b1 695d 583c
000001e0: d5ae cd9f 911a 122f d454 c3b7 c282 ea2a
000001f0: a419 1f39 820f b8b9 695d 583c 695d 583c
00000200: c8b0 f639 695d 58bc 8f51 3193 0ad1 9c98
00000210: f5a2 9539 695d 58bc 695d 583c 695d 58bc
00000220: c96a d8b7 eadc 9216 f0e4 dc21 ec8d 35ab
00000230: 53ad 7a31 18e2 5e93 3e87 832e 640f 8f24
00000240: 47ed 73b9 e67a 9639 695d 58bc 695d 583c
00000250: 93f7 ff22 695d 583c 695d 583c 695d 583c
00000260: 695d 58bc 4cea 019a f2bd b435 695d 583c
00000270: 0130 ac19 695d 58bc 695d 58bc 3671 3538
00000280: 695d 58bc 7e69 7894 695d 58bc febb 1180
00000290: 695d 58bc 723b 609d 695d 58bc 695d 583c
000002a0: 695d 58bc 695d 58bc 81d5 6935 695d 58bc
000002b0: 695d 58bc 695d 583c 695d 583c 695d 58bc
000002c0: 695d 58bc 695d 583c 7a21 a425 695d 58bc
000002d0: f581 bfb8 2643 0480 f00d 6138 695d 58bc
000002e0: 695d 583c 695d 58bc 21b5 4d31 695d 58bc
000002f0: 695d 58bc 7043 b6af 695d 583c 4231 0880
00000300: fcc0 bd36 695d 58bc 695d 583c 695d 58bc
00000310: 79cc 78b9 5fb6 64a7 dcdf c633 6b5d 583c
00000320: 695d 58bc 9886 42b7 a1bf 9dae 695d 583c
00000330: 6528 3bb3 0aff 5731 6c8b 9717 44dd 7198
00000340: 103d 6224 695d 583c 695d 58bc 695d 58bc
00000350: 695d 58bc 695d 58bc 695d 583c 695d 58bc
00000360: 695d 583c 695d 583c bc26 05b1 695d 583c
00000370: d5ae cd9f 911a 122f d454 c3b7 c282 ea2a
00000380: a419 1f39 820f b8b9 695d 583c 695d 583c
00000390: c8b0 f639 695d 58bc 8f51 3193 0ad1 9c98
000003a0: f5a2 9539 695d 58bc 695d 583c 695d 58bc
000003b0: c96a d8b7 eadc 9216 f0e4 dc21 ec8d 35ab
000003c0: 53ad 7a31 18e2 5e93 3e87 832e 640f 8f24
000003d0: 47ed 73b9 e67a 9639 695d 58bc 695d 583c
000003e0: 93f7 ff22 695d 583c 695d 583c 695d 583c
000003f0: 695d 58bc 4cea 019a f2bd b435 695d 583c

fc2.bias f4 [100]
-0.06696885 -0.06696885 -0.06696885 0.06696885 0.06696885 -0.06696885 0.06696885 0.06696885
-0.06696885 -0.06696885 -0.06696885 0.06696885 0.06696885 0.06696885 -0.06696885 -0.06696885
-0.06696885 0.06696885 0.06696885 0.06696885 0.06696885 0.06696885 -0.06696885 -0.06696885
0.06696885 -0.06696885 0.06696885 -0.06696885 0.06696885 -0.06696885 -0.06696885 0.06696885
0.06696885 -0.06696885 -0.06696885 -0.06696885 -0.06696885 0.06696885 0.06696885 0.06696885
0.06696885 0.06696885 -0.06696885 -0.06696885 -0.06696885 -0.06696885 0.06696885 0.06696885
0.06696885 0.06696885 0.06696885 -0.06696885 0.06696885 0.06696885 0.06696885 -0.06696885
0.06696885 -0.06696885 0.06696885 0.06696885 -0.06696885 -0.06696885 0.06696885 -0.06696885
0.06696885 -0.06696885 -0.06696885 0.06696885 -0.06696885 0.06696885 0.06696885 0.06696885
0.06696885 -0.06696885 -0.06696885 -0.06696885 0.06696885 -0.06696885 0.06696885 0.06696885
-7.5892733e-16 0.06696885 0.06696885 0.06696885 0.06696885 1.1636e-40 -0.06696885 -0.06696885
0.06696885 -0.06696885 -0.06696885 0.06696885 0.06696885 0.06696885 0.06696885 0.06696885
-0.06696883 0.06696883 -0.06696883 0.06696883
00000000: f726 89bd f726 89bd f726 89bd f726 893d
00000010: f726 893d f726 89bd f726 893d f726 893d
00000020: f726 89bd f726 89bd f726 89bd f726 893d
00000030: f726 893d f726 893d f726 89bd f726 89bd
00000040: f726 89bd f726 893d f726 893d f726 893d
00000050: f726 893d f726 893d f726 89bd f726 89bd
00000060: f726 893d f726 89bd f726 893d f726 89bd
00000070: f726 893d f726 89bd f726 89bd f726 893d
00000080: f726 893d f726 89bd f726 89bd f726 89bd
00000090: f726 89bd f726 893d f726 893d f726 893d
000000a0: f726 893d f726 893d f726 89bd f726 89bd
000000b0: f726 89bd f726 89bd f726 893d f726 893d
000000c0: f726 893d f726 893d f726 893d f726 89bd
000000d0: f726 893d f726 893d f726 893d f726 89bd
000000e0: f726 893d f726 89bd f726 893d f726 893d
000000f0: f726 89bd f726 89bd f726 893d f726 89bd
00000100: f726 893d f726 89bd f726 89bd f726 893d
00000110: f726 89bd f726 893d f726 893d f726 893d
00000120: f726 893d f726 89bd f726 89bd f726 89bd
00000130: f726 893d f726 89bd f726 893d f726 893d
00000140: f4be 5aa6 f726 893d f726 893d f726 893d
00000150: f726 893d 5d44 0100 f726 89bd f726 89bd
00000160: f726 893d f726 89bd f726 89bd f726 893d
00000170: f726 893d f726 893d f726 893d f726 893d
00000180: f426 89bd f426 893d f426 89bd f426 893d

fc3.weight f4 [1, 100]
-0.11824599 -0.11824599 -0.11824599 0.11824599 0.11824599 -0.11824599 0.11824599 0.11824599
-0.11824599 -0.11824599 -0.11824599 0.11824599 0.11824599 0.11824599 -0.11824599 -0.11824599
-0.11824599 0.11824599 0.11824599 0.11824599 0.11824599 0.11824599 -0.11824599 -0.11824599
0.11824599 -0.11824599 0.11824599 -0.11824599 0.11824599 -0.11824599 -0.11824599 0.11824599
0.11824599 -0.11824599 -0.11824599 -0.11824599 -0.11824599 0.11824599 0.11824599 0.11824599
0.11824599 0.11824599 -0.11824599 -0.11824599 -0.11824599 -0.11824599 0.11824599 0.11824599
0.11824599 0.11824599 0.11824599 -0.11824599 0.11824599 0.11824599 0.11824599 -0.11824599
0.11824599 -0.11824599 0.11824599 0.11824599 -0.11824599 -0.11824599 0.11824599 -0.11824599
0.11824599 -0.11824599 -0.11824599 0.11824599 -0.11824599 0.11824599 0.11824599 0.11824599
0.11824599 -0.11824599 -0.11824599 -0.11824599 0.11824599 -0.11824599 0.11824599 0.11824599
-6.6748113e-16 0.11824599 0.11824599 0.11824599 0.11824599 9.36992e-40 -0.11824599 -0.11824599
0.11824599 -0.11824599 -0.11824599 0.11824599 0.11824599 0.11824599 0.11824599 0.11824599
-0.11824595 0.11824595 -0.11824595 0.11824595
00000000: f42a f2bd f42a f2bd f42a f2bd f42a f23d
00000010: f42a f23d f42a f2bd f42a f23d f42a f23d
00000020: f42a f2bd f42a f2bd f42a f2bd f42a f23d
00000030: f42a f23d f42a f23d f42a f2bd f42a f2bd
00000040: f42a f2bd f42a f23d f42a f23d f42a f23d
00000050: f42a f23d f42a f23d f42a f2bd f42a f2bd
00000060: f42a f23d f42a f2bd f42a f23d f42a f2bd
00000070: f42a f23d f42a f2bd f42a f2bd f42a f23d
00000080: f42a f23d f42a f2bd f42a f2bd f42a f2bd
00000090: f42a f2bd f42a f23d f42a f23d f42a f23d
000000a0: f42a f23d f42a f23d f42a f2bd f42a f2bd
000000b0: f42a f2bd f42a f2bd f42a f23d f42a f23d
000000c0: f42a f23d f42a f23d f42a f23d f42a f2bd
000000d0: f42a f23d f42a f23d f42a f23d f42a f2bd
000000e0: f42a f23d f42a f2bd f42a f23d f42a f23d
000000f0: f42a f2bd f42a f2bd f42a f23d f42a f2bd
00000100: f42a f23d f42a f2bd f42a f2bd f42a f23d
00000110: f42a f2bd f42a f23d f42a f23d f42a f23d
00000120: f42a f23d f42a f2bd f42a f2bd f42a f2bd
00000130: f42a f23d f42a f2bd f42a f23d f42a f23d
00000140: 6a63 40a6 f42a f23d f42a f23d f42a f23d
00000150: f42a f23d f433 0a00 f42a f2bd f42a f2bd
00000160: f42a f23d f42a f2bd f42a f2bd f42a f23d
00000170: f42a f23d f42a f23d f42a f23d f42a f23d
00000180: ef2a f2bd ef2a f23d ef2a f2bd ef2a f23d

fc1.weight f4 [100, 24]
-0.0345252 0.22620784 -0.018677006 -0.14603847 0.039622907 -0.03392307 0.16940138 -0.10617001
-0.08406816 0.20241627 -0.14398131 -0.0024333447 -0.14169621 -0.00915131 -0.14087927 0.06269115
-0.13647278 -0.1583248 -0.1385667 0.10256636 -0.13812408 0.1744578 0.06144423 0.2060769
0.13346197 0.12041237 0.11299951 -0.10672883 -0.13574 -0.13304226 -0.2048328 -0.20528905
-0.07419152 0.13403228 0.13753918 0.017171368 -0.074147254 -0.12939623 0.06618303 0.0015245974
0.1549465 -0.018191263 -0.052954108 -0.15728387 -0.11138475 0.008730655 0.14947161 -0.1296279
0.19227429 -0.05391957 -0.16303734 0.019116601 0.2197332 -0.03783299 -0.076369055 -0.008164132
0.10753204 -0.20040648 0.032572165 -0.030533522 0.014382333 -0.04103847 -0.07231605 -0.04327856
-0.056316003 -0.13460654 -0.17300546 -0.20299849 -0.08378723 -0.10522051 -0.101681426 0.1280948
0.108022064 -0.14316446 0.040417325 -0.12925896 0.01779312 0.14806637 -0.14191166 -0.096600555
-0.053851817 -0.1723868 0.16095951 0.18680397 -0.19828513 0.10636082 0.17428097 -0.04985395
-0.023952872 0.068677515 0.094787866 0.14626116 0.07196146 -0.049560964 -0.1458651 -0.041648116
-0.037251256 0.05032635 0.030155387 0.06762284 -0.1144196 -0.11453265 -0.04582302 -0.19216451
-0.099965185 -0.16513778 -0.19292879 -0.029473335 0.17257363 -0.013961151 -0.0014872104 -0.008670226
-0.006540939 0.15454754 -0.06687158 -0.10976623 0.18435624 -0.033722837 0.07204905 0.14812624
-0.10244137 -0.10383304 -0.13328406 -0.1778863 0.069756 -0.19003622 -0.03459057 -0.00040707388
0.046018045 0.07399571 0.17244154 -0.077443585 -0.17254117 0.025175333 0.14958793 -0.027063087
0.16056183 -0.09650545 -0.07253313 -0.06343526 -0.0643675 0.10597079 0.020619351 -0.030337712
-0.21663357 0.017467385 -0.095702 -0.164604 0.02332452 0.16466558 -0.13175374 -0.14580052
0.10871904 0.18290865 -0.1933351 -0.13922754 0.20048076 0.15442643 0.02912882 0.10926178
0.021771029 -0.11778597 -0.11758044 0.17305288 0.0101043135 0.06341156 0.091746934 0.003866376
0.0972863 0.0858577 -0.16046071 -0.014451604 0.15023106 0.008760133 0.141119 0.1565167
0.041951027 -0.113425456 0.07349771 0.08169246 -0.011307627 0.16403002 -0.079631485 0.032361984
-0.152095 -0.116669714 -0.08722923 -0.053563714 -0.17439996 0.076165736 -0.08181924 -0.109249495
-0.018541085 0.09374314 0.059400138 0.036648393 0.05066733 0.097385004 0.018598963 0.10300457
0.07791973 0.1816127 0.1742895 0.048463494 -0.04423082 -0.18074106 -0.033203706 0.20353648
0.15871239 0.16041413 -0.0751777 -0.030540332 0.12533009 -0.00030377373 0.023594309 -0.09707916
-0.082309395 0.054375008 0.010879892 0.13198547 -0.16449991 0.11429809 0.1398086 0.15717405
-0.01042995 -0.031300157 0.19015121 -0.12310607 0.09083539 -0.1886134 0.0072486997 0.048635185
0.05266142 -0.13044904 -0.11696787 0.08488697 0.14126459 0.027780421 -0.018305648 -0.17425734
-0.10121425 0.032320663 0.06771172 0.14567003 -0.12646694 -0.16839838 -0.12627774 -0.22989191
-0.12210154 -0.06176637 0.022790238 -0.0917225 0.015389383 0.13056195 0.058306754 -0.042467758
00000000: 4c6a 0dbd 07a3 673e 8500 99bc 1c8b 15be
00000010: a14b 223d ebf2 0abd 8e77 2d3e aa6f d9bd
00000020: ed2b acbd 3646 4f3e d66f 13be c078 1fbb
00000030: d018 11be 60ef 15bc a842 10be 3864 803d
00000040: 85bf 0bbe e51f 22be 6ee4 0dbe 500e d23d
00000050: 6670 0dbe 11a5 323e f2ac 7b3d d305 533e
00000060: 41aa 083e c39a f63d 496c e73d a594 dabd
00000070: 6dff 0abe 3b3c 08be b1bf 51be 4b37 52be
00000080: b9f1 97bd c23f 093e 12d7 0c3e f8aa 8c3c
00000090: 84da 97bd 7280 04be f88a 873d 00d5 c73a
000000a0: 4caa 1e3e d805 95bc 68e6 58bd 060f 21be
000000b0: b01d e4bd 050b 0f3c 160f 193e 2dbd 04be
000000c0: 8de3 443e c4da 5cbd 43f3 26be 6b9a 9c3c
000000d0: bd01 613e c4f6 1abd 6167 9cbd dac2 05bc
000000e0: c239 dc3d 5b37 4dbe 646a 053d 7021 fabc
000000f0: e0a3 6b3c f417 28bd 701a 94bd dc44 31bd
00000100: 9cab 66bd 4cd6 09be 5828 31be d6de 4fbe
00000110: a498 abbd da7d d7bd 5a3e d0bd 492b 033e
00000120: ac3a dd3d b499 12be a38c 253d 765c 04be
00000130: e1c2 913c b69e 173e 4a51 11be 83d6 c5bd
00000140: b993 5cbd 2a86 30be 92d2 243e 8a49 3f3e
00000150: 420b 4bbe b4d3 d93d b676 323e a833 4cbd
00000160: d038 c4bc cca6 8c3d 2420 c23d 7cc5 153e
00000170: 8860 933d 7000 4bbd a95d 15be 3797 2abd
00000180: c694 18bd 0123 4e3d 6e08 f73c d87d 8a3d
00000190: d354 eabd 1890 eabd ebb0 3bbd c6c6 44be
000001a0: 8cba ccbd e119 29be 208f 45be 1072 f1bc
000001b0: 24b7 303e 50bd 64bc 80ee c2ba 900d 0ebc
000001c0: 6055 d6bb b641 1e3e f8f3 88bd 1ecd e0bd
000001d0: e2c7 3c3e f520 0abd 748e 933d 68ae 173e
000001e0: c8cc d1bd 6ba6 d4bd 9e7b 08be d427 36be
000001f0: 3cdc 8e3d db98 42be d7ae 0dbd 886c d5b9
00000200: 6b7d 3c3d 108b 973d 8494 303e be9a 9ebd
00000210: a2ae 30be 803c ce3c 942d 193e 68b3 ddbc
00000220: 526a 243e a6a4 c5bd 408c 94bd 58ea 81bd
00000230: 1cd3 83bd 3707 d93d eae9 a83c cb86 f8bc
00000240: 31d5 5dbe c317 8f3c 69ff c3bd f38d 28be
00000250: 1013 bf3c 189e 283e 74ea 06be bb4c 15be
00000260: 17a8 de3d 684c 3b3e a3f9 45be aa91 0ebe
00000270: d44a 4d3e f621 1e3e 909f ee3c a4c4 df3d
00000280: 2859 b23c c539 f1bd 04ce f0bd c634 313e
00000290: 908c 253c ecdd 813d d1e5 bb3d 0663 7d3b
000002a0: 0a3e c73d 29d6 af3d d04f 24be 6cc6 6cbc
000002b0: 2cd6 193e a986 0f3c 8081 103e ea45 203e
000002c0: d7d4 2b3d 9b4b e8bd f885 963d 604e a73d
000002d0: a043 39bc 7cf7 273e d515 a3bd 008e 043d
000002e0: cbbe 1bbe 88f0 eebd 3da5 b2bd a065 5bbd
000002f0: e795 32be c8fc 9b3d d890 a7bd 33be dfbd
00000300: 79e3 97bc 67fc bf3d 8f4d 733d a01c 163d
00000310: 8c88 4f3d ca71 c73d da5c 983c 0ff4 d23d
00000320: 6194 9f3d aef8 393e f278 323e a881 463d
00000330: 602b 35bd 2f14 39be 9c00 08bd de6b 503e
00000340: 8085 223e 9a43 243e c4f6 99bd b82f fabc
00000350: 8856 003e d243 9fb9 da48 c13c 70d1 c6bd
00000360: d491 a8bd 54b8 5e3d 9341 323c 3327 073e
00000370: aa72 28be 1e15 ea3d fc29 0f3e 3cf2 203e
00000380: 62e2 2abc 9834 00bd 00b7 423e 091f fcbd
00000390: e807 ba3d df23 41be 8086 ed3b b035 473d
000003a0: 80b3 573d 6f94 05be da8c efbd 38d9 ad3d
000003b0: aaa7 103e c493 e33c baf5 95bc 8470 32be
000003c0: 6b49 cfbd ac62 043d 71ac 8a3d 862a 153e
000003d0: 8d80 01be a070 2cbe f44e 01be c968 6bbe
000003e0: 5f10 fabd bcfe 7cbd 98b2 ba3c 02d9 bbbd
000003f0: c023 7c3c 08b2 053e 10d3 6e3d acf2 2dbd
