gail/save_model/0/SUB059_ckpt_0.pth.tar (torch_old, 154740 bytes, 16 tensors)

fc1.weight f4 [100, 22]
0.14853026 0.052254602 0.038151156 0.074890815 0.26507893 0.05945787 -0.1363156 0.093293466
0.13400051 0.1270954 -0.017363548 0.17043388 -0.105812654 0.027623221 -0.20033872 0.039657354
0.059117734 -0.008740246 0.043931454 0.1002669 0.1109502 0.16510823 0.2529387 0.40958574
0.00033736997 -0.067744955 0.3744729 -0.07244579 0.011711221 0.19627064 -0.018623522 -0.015945613
0.10634327 0.18803886 -0.18678859 0.05240825 0.16160882 0.04745248 0.059801936 -0.19784737
-0.036095023 -0.10515195 0.13505667 -0.20369631 0.052783523 -0.10524065 0.116613634 0.00892539
-0.25916216 -0.029984536 -0.23942631 -0.1258512 0.08131829 0.06391707 0.04757929 0.17674974
-0.07064088 -0.03134334 0.11787838 0.21276453 0.070577055 0.046675146 -0.10051187 0.0133600235
-0.028393283 0.02227661 0.21652973 -0.43123266 0.32349038 -0.09072712 -0.14290252 -0.14150558
0.19334303 0.004155209 0.02228378 -0.10686112 -0.15128021 0.04704073 0.19411889 -0.115122356
-0.094016075 0.16046417 0.06744477 0.18371043 0.021668047 -0.13205475 0.16463181 0.20020583
-0.062344745 -0.34917286 -0.35985622 -0.08556016 0.08432114 0.08128253 0.060588606 -0.19192392
0.14149879 -0.12205914 0.13579372 0.005322799 0.08432412 -0.022651449 0.09195787 0.16440377
-0.18926974 0.12977988 0.1900717 0.12230405 0.10172212 -0.04550661 -0.39192417 -0.31023464
-0.21356565 0.019572906 -0.18787155 0.23223455 -0.05083207 0.2086833 0.12620983 0.1204091
-0.040400773 -0.08007951 -0.040216118 0.05861345 0.036905825 0.2075628 0.19277579 0.03202997
-0.033768386 -0.033163622 -0.05815363 0.115783155 -0.06933697 0.31360632 -0.18612076 0.17327663
0.29867715 -0.14374335 -0.053302065 -0.13894655 0.071753435 0.0014692396 0.08922824 0.092371374
0.08634055 -0.12774573 0.13442639 -0.060541153 -0.052569553 0.019937903 0.147576 0.15262696
-0.0764671 0.0041880906 -0.1440074 0.08975351 -0.28246254 -0.3075745 0.15370238 0.19803505
0.4547754 0.42629877 0.26138458 0.010758668 0.10274008 -0.036053494 -0.1139675 0.0819104
0.10758722 0.14027247 0.040210307 -0.110446535 -0.057112068 0.13466907 0.085246295 -0.0519187
0.15308838 -0.25255498 -0.15220198 0.051260218 -0.16515632 0.2991445 -0.053229336 0.29851177
0.28877804 0.12848032 0.19182938 0.001976952 -0.16869412 0.018528864 -0.21164216 0.032917053
-0.14038798 0.12029651 0.1105552 -0.04730995 -0.113868356 -0.12329786 0.2350627 0.08833602
0.24156308 -0.06900773 -0.2966062 0.04319547 -0.10041926 -0.04790023 -0.19137122 -0.16984642
0.20079082 -0.088579595 0.18850785 -0.17371158 0.038270175 0.19644278 -0.20980379 -0.18060121
-0.15269949 -0.030652776 0.051560342 -0.19551834 -0.17407373 0.27792206 -0.44360802 0.08756722
0.10823979 -0.02716089 -0.13114762 -0.05931333 -0.034645736 -0.071006 -0.17976923 0.15769798
0.021393016 0.12140164 0.13626784 0.1949665 -0.17295463 -0.095842354 0.057777077 -0.041324288
0.1168986 -0.016012251 -0.009991656 -0.30106828 0.06924536 0.3384198 0.24614544 0.12225812
-0.13108152 -0.08092041 -0.06442104 0.06858435 -0.19918182 0.1397498 0.04704696 0.033131674
00000000: 5118 183e ec08 563d 6344 1c3d 5b60 993d
00000010: 6db8 873e 188a 733d 5196 0bbe a510 bf3d
00000020: 6e37 093e 4c25 023e 003e 8ebc 3886 2e3e
00000030: 4eb4 d8bd 184a e23c 9825 4dbe c06f 223d
00000040: 7025 723d 4033 0fbc 78f1 333d bc58 cd3d
00000050: dc39 e33d 2212 293e 2e81 813e 39b5 d13e
00000060: 08e1 b039 debd 8abd e9ba bf3e 755e 94bd
00000070: 6ce0 3f3c 2cfb 483e 5b90 98bc 60a0 82bc
00000080: 80ca d93d 428d 403e 8245 3fbe 08aa 563d
00000090: c87c 253e 885d 423d e0f2 743d 8098 4abe
000000a0: 60d8 13bd e859 d7bd 4c4c 0a3e c495 50be
000000b0: 8933 583d 6988 d7bd 21d3 ee3d cd3b 123c
000000c0: e7b0 84be 21a2 f5bc 2c2c 75be 23df 00be
000000d0: 348a a63d f4e6 823d 80e2 423d e2fd 343e
000000e0: 2aac 90bd e061 00bd 386a f13d f2de 593e
000000f0: b48a 903d 702e 3f3d 2bd9 cdbd 00e4 5a3c
00000100: 0899 e8bc 707d b63c f8b9 5d3e 87ca dcbe
00000110: 88a0 a53e 24cf b9bd 0a55 12be d7e6 10be
00000120: b7fb 453e 6b28 883b 798c b63c 01da dabd
00000130: 33e9 1abe c8ad 403d 1ac7 463e 45c5 ebbd
00000140: 808b c0bd b850 243e 7c20 8a3d 961e 3c3e
00000150: 3081 b13c 5c39 07be 3e95 283e c202 4d3e
00000160: 345d 7fbd c9c6 b2be 133f b8be 2a3a afbd
00000170: 90b0 ac3d 7577 a63d c22b 783d b487 44be
00000180: 0fe5 103e 24fa f9bd 820d 0b3e e06a ae3b
00000190: 20b2 ac3d 888f b9bc 6854 bc3d 7659 283e
000001a0: edcf 41be 04e5 043e 28a2 423e 8c7a fa3d
000001b0: b053 d03d 2465 3abd 49aa c8be 13d7 9ebe
000001c0: f4b0 5abe 5c57 a03c 6661 40be e5ce 6d3e
000001d0: 4a35 50bd 13b1 553e 263d 013e 0c99 f63d
000001e0: 487b 25bd ba00 a4bd a8b9 24bd a814 703d
000001f0: 902a 173d 588b 543e 0467 453e dc31 033d
00000200: b850 0abd 94d6 07bd 8032 6ebd b81f ed3d
00000210: 8b00 8ebd 0291 a03e 7196 3ebe 6e6f 313e
00000220: 36ec 983e 7531 13be 4453 5abd 0148 0ebe
00000230: 77f3 923d 8093 c03a 4cbd b63d 342d bd3d
00000240: 50d3 b03d c7cf 02be 12a7 093e 00fa 77bd
00000250: 2c53 57bd d054 a33c 2a1e 173e 3e4a 1c3e
00000260: c89a 9cbd 403c 893b ad76 13be b0d0 b73d
00000270: ee9e 90be 687a 9dbe 2864 1d3e b3c9 4a3e
00000280: 52d8 e83e d543 da3e 33d4 853e 2045 303c
00000290: 6469 d23d d4ac 13bd cb67 e9bd a4c0 a73d
000002a0: b056 dc3d 96a3 0f3e 90b3 243d cb31 e2bd
000002b0: 58ee 69bd b0e6 093e 9c95 ae3d b4a8 54bd
000002c0: 33c3 1c3e e34e 81be d6da 1bbe 3cf6 513d
000002d0: bd1e 29be 7829 993e 0107 5abd 89d6 983e
000002e0: b7da 933e 5890 033e ec6e 443e c08f 013b
000002f0: 27be 2cbe d8c9 973c b9b8 58be 08d4 063d
00000300: dec1 0fbe 045e f63d c46a e23d 14c8 41bd
00000310: d033 e9bd 9783 fcbd 47b4 703e 84e9 b43d
00000320: 505c 773e ed53 8dbd c5dc 97be bced 303d
00000330: 9da8 cdbd 0833 44bd d1f6 43be 38ec 2dbe
00000340: 1c9c 4d3e 3869 b5bd 3408 413e 73e1 31be
00000350: 30c1 1c3d 4c28 493e ced6 56be 86ef 38be
00000360: 415d 1cbe 881b fbbc f030 533d f635 48be
00000370: 6240 32be cd4b 8e3e 9720 e3be 7156 b33d
00000380: d3ac dd3d 8480 debc 904b 06be 89f2 72bd
00000390: b0e8 0dbd 986b 91bd 6d15 38be 947b 213e
000003a0: 6840 af3c 6ca1 f83d cc89 0b3e 4ca5 473e
000003b0: 051b 31be ff48 c4bd a8a7 6c3d a843 29bd
000003c0: 8868 ef3d 202c 83bc 0bb4 23bc 9f25 9abe
000003d0: 83d0 8d3d 5c45 ad3e 8d0d 7c3e 7762 fa3d
000003e0: 3c3a 06be 9ab9 a5bd 2eef 83bd f475 8c3d
000003f0: 52f6 4bbe 921a 0f3e 50b4 403d 14b5 073d

fc1.bias f4 [100]
0.04241848 -0.04759004 0.18310232 -0.15517397 0.04246681 -0.2531012 -0.079829745 -0.20665415
-0.22771612 0.11469198 0.105078295 -0.11854218 0.11822952 -0.23419185 0.37213668 -0.2137205
0.122686125 0.023500621 -0.04888217 0.09089308 0.0945779 -0.56076497 -0.13280478 0.035490647
0.13921152 -0.1901501 0.09245023 -0.24519451 0.3941467 -0.08233659 0.20814852 0.0368114
0.00348225 0.040842813 0.44912583 -0.30318075 -0.08647685 0.009642276 -0.040210944 -0.07467767
-0.3495299 -0.007924835 -0.022359522 0.1738487 0.27478364 -0.17239054 -0.30299717 -0.25653616
0.07825319 -0.30307978 0.051778365 0.1191973 0.010396303 -0.23342605 -0.049304925 0.036138523
0.031238282 -0.29825723 0.10092163 0.09533382 -0.1492003 -0.03849486 -0.10172271 -0.10338624
-0.34969452 -0.06647507 0.15211542 -0.030628655 0.16192187 0.25606766 -0.06476987 0.10973002
0.04987409 0.4794016 0.0067195334 -0.054127537 0.20528127 0.43924326 0.25323206 -0.12573056
0.0281564 0.27355558 -0.057128206 0.40348214 -0.11860433 0.045466788 -0.15367886 0.056023575
0.13034846 0.30091968 0.10267161 -0.057376668 -0.1422558 0.09356668 0.13730522 0.11133222
-0.16914915 0.22083053 0.4144386 -0.11686406
00000000: 00bf 2d3d c6ed 42bd 2d7f 3b3e ede5 1ebe
00000010: aef1 2d3d 7b96 81be c77d a3bd 259d 53be
00000020: 6a2e 69be a1e3 ea3d 4a33 d73d 3ec6 f2bd
00000030: 5222 f23d fdcf 6fbe b388 be3e 8cd9 5abe
00000040: dd42 fb3d 6084 c03c ac38 48bd 2726 ba3d
00000050: 0fb2 c13d 4b8e 0fbf fafd 07be a45e 113d
00000060: 778d 0e3e b5b6 42be 8c56 bd3d 4514 7bbe
00000070: 99cd c93e 16a0 a8bd e324 553e 8dc7 163d
00000080: 7636 643b cb4a 273d d2f3 e53e 823a 9bbe
00000090: c61a b1bd a3fa 1d3c 3bb4 24bd 9bf0 98bd
000000a0: 95f5 b2be 2bd7 01bc 512b b7bc 6505 323e
000000b0: 71b0 8c3e 2587 30be 7222 9bbe b558 83be
000000c0: 3543 a03d 462d 9bbe 8d15 543d b71d f43d
000000d0: 4155 2a3c 3d07 6fbe f6f3 49bd fd05 143d
000000e0: 6de7 ff3c 2cb5 98be 00b0 ce3d 613e c33d
000000f0: f7c7 18be c9ac 1dbd ff53 d0bd 2abc d3bd
00000100: 290b b3be 1524 88bd 25c4 1b3e f2e8 fabc
00000110: d9ce 253e 4d1b 833e 11a6 84bd 22ba e03d
00000120: c648 4c3d 2074 f53e 882f dc3b d6b4 5dbd
00000130: 4135 523e 7ee4 e03e a2a7 813e 83bf 00be
00000140: 40a8 e63c 7a0f 8c3e 44ff 69bd 3695 ce3e
00000150: d4e6 f2bd 623b 3a3d fe5d 1dbe fa78 653d
00000160: 117a 053e 2512 9a3e 7e45 d23d cc03 6bbd
00000170: 81ab 11be e39f bf3d bd99 0c3e 2602 e43d
00000180: 6f35 2dbe 6621 623e 4c31 d43e 6d56 efbd

fc2.weight f4 [100, 100]
0.11884334 0.20562105 0.25692126 0.27871603 -0.2603427 -0.31708875 -0.38076952 -0.061660398
-0.50069344 0.3276016 -0.5168827 -0.16127849 0.2957448 -0.116014026 0.32157212 0.4283314
-0.82600963 0.37733728 0.5148475 -0.34405172 -0.274814 -0.2861048 -0.0378549 -0.26801094
0.35325855 -0.33818173 0.23840366 -0.3014526 0.25282422 -0.23482446 -0.3084668 0.15267393
-0.09306893 -0.12028906 0.1267055 -0.31412166 -0.28061914 -0.28826973 -0.702098 0.8582196
-0.1738469 -0.14144629 0.3523987 0.30664152 0.5489832 -0.16195363 0.43685523 -0.3758823
-0.014281831 -0.29221418 -0.227787 0.044565987 -0.6768044 -0.24499705 0.70729536 0.15946387
0.14739941 -0.28758267 -0.15320478 0.45820498 -0.14611296 0.47802085 -0.38571155 -0.3998842
-0.23611228 0.8589364 0.44636828 -0.19663848 0.21593985 0.25026482 -0.41744745 -0.43146077
-0.21866111 0.17062812 -0.44588074 -0.1942377 0.31278664 0.138096 0.39673612 -0.20908011
0.43433577 0.32482016 0.404011 0.28787392 0.095803 0.1471464 0.0935279 0.44900727
0.38001007 0.30166635 -0.9812949 -0.44470808 0.50646526 0.6553305 0.07595128 -0.41988182
-0.24212563 0.22963478 0.31492418 0.61966026 -0.18189874 -0.12328147 -0.31669593 -0.30577445
0.1583283 0.27136618 0.35186327 0.18064141 0.5235851 -0.3891614 0.553758 0.14219844
-0.3486908 0.041084394 -0.22378677 -0.38244027 0.6444166 -0.1986463 -0.44730633 0.3204021
0.24271338 0.20680116 0.14494942 0.20507005 -0.098592594 0.35164583 -0.099152446 0.17755717
-0.20193541 0.35916367 0.42374963 -0.15863918 0.11132363 0.2154081 -0.20107117 0.1521595
0.30169863 0.32252604 0.68310434 -0.77957386 0.31246784 -0.061460484 -0.41360265 -0.2870722
-0.7087937 0.0054449616 -0.4525295 0.4944321 -0.08504219 0.17530802 0.3039755 -0.011473106
0.74007666 0.22471021 -0.6456025 -0.021770278 -0.25443769 0.22418274 0.1402541 -0.54782635
0.022311844 -0.46586287 0.5641021 0.36678606 0.09516443 -0.9783286 -0.463664 0.17364395
-0.06492122 -0.27834943 0.34502417 0.2791949 0.4207451 -0.27533048 0.40651098 0.070214
-0.33222565 -0.11141763 -0.3538465 0.230947 -0.38594136 -0.49522683 -0.3779336 -0.102052204
0.21689948 -0.22363375 -0.21007171 -0.30497172 -0.5879946 -0.49630436 0.7219553 0.6613878
-0.49069884 -0.6077915 -0.097423546 0.58756363 0.27362126 -0.41343415 -0.49812666 -0.9485761
0.114417076 0.53079057 0.08467022 -0.037669662 0.39299577 -0.24533723 -0.1701297 0.080480784
-0.090036236 0.2534331 0.20958143 -0.41885343 0.4893807 0.11431899 0.097220585 -0.083481245
0.049735013 0.60250515 0.5367988 -0.61976594 -0.09652325 -0.058243863 0.17042151 -0.17552249
0.6994968 -0.44462276 0.24903585 0.048380632 0.15943247 -0.43385714 0.10454162 -0.27017388
0.08155396 0.31308883 -0.0069830213 -0.10234134 0.17798169 -0.09319803 -0.4728634 0.18113872
-0.087638445 -0.22024688 -0.0071041123 0.65629023 0.45993775 0.031739015 0.49261805 -0.34238207
-0.38185725 -0.08708688 0.31560245 -0.15915525 0.14732356 -0.49685743 -0.21140268 0.07552191
00000000: 2364 f33d 538e 523e 2f8b 833e deb3 8e3e
00000010: a34b 85be 7559 a2be 39f4 c2be 9d8f 7cbd
00000020: 722d 00bf 66bb a73e 6d52 04bf 3026 25be
00000030: dd6b 973e c398 edbd 1aa5 a43e 414e db3e
00000040: 5e75 53bf 5a32 c13e 0ccd 033f 8c27 b0be
00000050: 6cb4 8cbe 547c 92be bd0d 1bbd bb38 89be
00000060: 4ede b43e 2826 adbe 1720 743e ff57 9abe
00000070: 2d72 813e d375 70be 5cef 9dbe 8e56 1c3e
00000080: ec9a bebd 1c5a f6bd 16bf 013e 8ed4 a0be
00000090: 50ad 8fbe 1798 93be b2bc 33bf 48b4 5b3f
000000a0: ec04 32be 4cd7 10be 9a6d b43e 1e00 9d3e
000000b0: 2a8a 0c3f 2cd7 25be 7dab df3e a573 c0be
000000c0: 57fe 69bc 199d 95be ff40 69be d38a 363d
000000d0: 0e43 2dbf 82e0 7abe 4f11 353f 7f4a 233e
000000e0: dfef 163e 093e 93be b7e1 1cbe d899 ea3e
000000f0: a39e 15be 26bf f43e fc7b c5be 9fbd ccbe
00000100: 6bc7 71be 42e3 5b3f 628a e43e 995b 49be
00000110: 561f 5d3e b622 803e acbb d5be 6de8 dcbe
00000120: b3e8 5fbe 23b9 2e3e 7b4a e4be 3fe6 46be
00000130: 9225 a03e 0a69 0d3e ff20 cb3e 1919 56be
00000140: 4261 de3e d44e a63e 88da ce3e 3664 933e
00000150: 5d34 c43d 8cad 163e 8e8b bf3d 48e4 e53e
00000160: ae90 c23e 0374 9a3e 2436 7bbf c7b0 e3be
00000170: b5a7 013f bdc3 273f 588c 9b3d c0fa d6be
00000180: c8ef 77be 6125 6b3e be3d a13e 0ea2 1e3f
00000190: aa43 3abe ff7a fcbd f825 a2be 788e 9cbe
000001a0: d020 223e 82f0 8a3e 6c27 b43e 10fa 383e
000001b0: ac09 063f 2a40 c7be 16c3 0d3f 789c 113e
000001c0: 9a87 b2be 1c48 283d 5c28 65be 36cf c3be
000001d0: 7cf8 243f f069 4bbe 5605 e5be be0b a43e
000001e0: db89 783e afc3 533e 9f6d 143e e2fd 513e
000001f0: eaea c9bd ec0a b43e 7010 cbbd 8cd1 353e
00000200: 28c8 4ebe 4de4 b73e b6f5 d83e 4f72 22be
00000210: a5fd e33d f193 5c3e 9ae5 4dbe b3cf 1b3e
00000220: 3e78 9a3e 2222 a53e eddf 2e3f 2792 47bf
00000230: c9fb 9f3e fdbd 7bbd bac3 d3be 21fb 92be
00000240: 8173 35bf a66b b23b f2b1 e7be 3426 fd3e
00000250: 9a2a aebd f283 333e ada2 9b3e b2f9 3bbc
00000260: aa75 3d3f 6f1a 663e 3546 25bf 9557 b2bc
00000270: a845 82be 2990 653e c59e 0f3e 593e 0cbf
00000280: 54c7 b63c 9485 eebe ff68 103f 62cb bb3e
00000290: 92e5 c23d be73 7abf 5e65 edbe b8cf 313e
000002a0: 6bf5 84bd d183 8ebe 02a7 b03e a2f2 8e3e
000002b0: e76b d73e 1ef8 8cbe 3522 d03e 5ccc 8f3d
000002c0: 7b19 aabe ed2e e4bd 5e2b b5be 5f7d 6c3e
000002d0: 1b9a c5be 5f8e fdbe 8380 c1be bf00 d1bd
000002e0: e61a 5e3e 3f00 65be 0a1d 57be 4125 9cbe
000002f0: d086 16bf 9b1b febe 10d2 383f b650 293f
00000300: e13c fbbe 3998 1bbf ff85 c7bd 926a 163f
00000310: 1618 8c3e a4ad d3be 750a ffbe e2d5 72bf
00000320: 8053 ea3d e4e1 073f 9567 ad3d 814b 1abd
00000330: be36 c93e af39 7bbe 7b36 2ebe 1cd3 a43d
00000340: eb64 b8bd fcc1 813e 849c 563e f573 d6be
00000350: 1b90 fa3e 1320 ea3d 961b c73d 37f8 aabd
00000360: f1b6 4b3d c73d 1a3f a56b 093f fba8 1ebf
00000370: fbad c5bd 1e91 6ebd fa82 2e3e 2bbc 33be
00000380: 3912 333f 98a5 e3be 4103 7f3e c52a 463d
00000390: 4442 233e 8622 debe eb19 d63d 3b54 8abe
000003a0: c305 a73d 2e4d a03e d4d1 e4bb 5698 d1bd
000003b0: d540 363e 9cde bebd 271b f2be 6e7c 393e
000003c0: c97b b3bd 6688 61be 9dc9 e8bb a302 283f
000003d0: f67c eb3e c500 023d 6f38 fc3e b44c afbe
000003e0: cb82 c3be 9b5a b2bd a596 a13e 98f9 22be
000003f0: fddb 163e 1964 febe f279 58be 3bab 9a3d

fc2.bias f4 [100]
0.23090939 -0.2836687 0.08237369 -0.6936388 0.7781215 0.2563023 -0.3760235 0.72831476
0.614603 -0.21665457 0.24046126 0.46787524 0.1277851 0.7561931 -0.101193614 0.1603878
0.16379295 0.2092159 -0.75145006 -0.14162683 -0.71656674 -0.2916865 -0.14527327 0.17542644
0.489609 0.13818169 0.6039382 -0.69516134 0.77984315 -0.54534876 -0.63217896 0.6906448
0.33659625 -0.7395546 -0.41439396 -0.23233639 0.5873799 0.6473859 -0.33779138 -0.025899528
-0.55509895 -0.74788105 0.64178145 -0.18904185 0.6926874 -0.6541113 0.6044161 0.3686091
0.39618656 -0.7399839 -0.71283716 -0.6515926 -0.64604837 0.6643296 -0.13999216 0.7168472
-0.53359795 0.3529963 0.30020058 0.18273604 0.44846192 0.7144825 0.6756429 0.7510505
0.2528291 0.42188054 0.6378775 0.23297335 0.19747058 0.3873262 -0.62787503 0.20605554
0.7282839 0.36649495 -0.6875087 -0.52839327 -0.42882773 -0.41036752 0.2976263 -0.22667019
-0.6721104 0.46656543 -0.7267436 0.3068788 -0.7338811 0.33940625 -0.19039337 0.6131812
0.36945912 0.0808795 0.6358786 0.61464936 0.61138844 -0.7437536 -0.68002045 -0.77194273
0.6304104 -0.7504516 -0.63753 -0.3739459
00000000: 8373 6c3e 063d 91be 8ab3 a83d 5092 31bf
00000010: f832 473f 0e3a 833e 2786 c0be d672 3a3f
00000020: 9f56 1d3f b2da 5dbe 7a3b 763e 588d ef3e
00000030: 19da 023e df95 413f 993e cfbd b33c 243e
00000040: 57b9 273e b13c 563e 085f 40bf a006 11be
00000050: eb70 37bf ef57 95be 84c2 14be fda2 333e
00000060: 08ae fa3e 807f 0d3e b29b 1a3f 18f6 31bf
00000070: cda3 473f fa9b 0bbf 7bd6 21bf 19ce 303f
00000080: 5856 ac3e 7353 3dbf 722b d4be 97e9 6dbe
00000090: 875e 163f 15bb 253f fef2 acbe 3f2b d4bc
000000a0: f71a 0ebf 2275 3fbf ca4b 243f 3094 41be
000000b0: f653 313f d773 27bf 03bb 1a3f 55ba bc3e
000000c0: f7d8 ca3e 966f 3dbf 7f7c 36bf c6ce 26bf
000000d0: 6d63 25bf 8111 2a3f 1b5a 0fbe 4c83 373f
000000e0: e099 08bf eebb b43e e4b3 993e 281f 3b3e
000000f0: cd9c e53e 53e8 363f eff6 2c3f d844 403f
00000100: d172 813e ba00 d83e f14b 233f 9190 6e3e
00000110: ba35 4a3e 9f4f c63e 6bbc 20bf 3900 533e
00000120: d070 3a3f 3aa5 bb3e 9200 30bf c844 07bf
00000130: 4f8f dbbe b11b d2be 7962 983e 3b1c 68be
00000140: 6d0f 2cbf aae1 ee3e de0b 3abf 381f 9d3e
00000150: a2df 3bbf a8c6 ad3e 7bf6 42be 71f9 1c3f
00000160: bf29 bd3e 27a4 a53d f1c8 223f a959 1d3f
00000170: f483 1c3f a366 3ebf d215 2ebf 0a9e 45bf
00000180: 9362 213f 991d 40bf 2b35 23bf d675 bfbe

fc3.weight f4 [2, 100]
-1.851557 2.1417751 -0.9680482 1.4501184 -1.4065238 0.57107425 -0.27549383 -1.428459
-1.4085518 1.1120809 0.20346162 -1.4492509 1.3906164 -1.4649289 0.25652763 -1.227247
-1.1891246 1.4932742 1.4239019 -1.8413278 1.4683113 1.7007722 1.1434734 1.6807973
-1.4872831 -1.0939469 -1.4535214 1.4472746 -1.3997866 1.4152701 1.4451121 -1.4460084
0.2457013 1.4375856 -0.6386081 1.4490179 -1.4020194 -1.446422 -0.2832996 0.6730414
1.3497345 1.4495053 -1.4671552 1.1007109 -1.4395735 1.4392302 -1.471539 0.67339766
-1.5623082 1.4289702 1.4076139 1.455672 1.4518253 -1.4105778 1.1186844 -1.4526452
1.4494094 0.66337466 -1.7420212 -1.0816699 -1.414677 -1.4371614 -1.4531059 -1.3719642
-1.8328626 -1.4467127 -1.4379336 -0.64032835 -1.1683697 -1.7007118 1.4532906 -1.157614
-1.413773 -1.646372 1.403842 1.4507211 -0.715564 -0.63317037 0.3376073 1.6771431
1.418625 -1.416118 1.4278712 -1.058864 1.4041845 -1.6964594 1.8656223 -1.4505122
-1.4305291 -1.8168119 -1.4408032 -1.4496797 -1.4468317 1.386254 1.4616988 1.4338578
-1.425944 1.3896484 1.4405503 1.4534377 -1.8127862 2.2054763 -2.6420608 2.0923882
-2.165859 2.0982058 -2.4742978 -2.1048682 -2.070504 1.8255956 2.4325125 -2.0799427
1.7020911 -2.1308427 2.7176194 -1.7724134 -1.7811738 1.7218834 2.1184015 -0.78551215
2.007296 1.861416 1.8487562 1.6402893 -2.087925 -1.7865615 -2.0687914 2.1225004
-2.117181 2.1045957 2.0673215 -2.0640085 2.5243871 2.1043832 -2.1464522 2.0552826
-1.9072825 -2.119216 -2.5486286 3.016377 2.149586 2.278598 -2.07856 1.817272
-2.0629697 2.08754 -2.0760145 2.076503 -1.9112734 2.1278563 2.1149073 2.0617976
2.1159616 -2.0846505 1.7799168 -2.1008923 2.055816 2.09675 -1.8341447 -1.8138508
-1.9348098 -2.0952768 -2.0883758 -2.1371577 -1.9927162 -2.357808 -2.095649 -2.5034585
-1.8195901 -1.7660912 2.1163368 -1.8085946 -2.1469982 -1.8442923 2.0577648 1.9712431
-2.096831 -2.087279 2.3255808 2.3880491 2.1018152 -2.097668 2.107083 -2.3990903
2.160981 -1.8619012 1.8734154 -2.0668173 -2.0106807 1.3028238 -2.0995638 -1.955587
-2.08279 2.1143124 2.094245 2.1130629 -2.0996552 2.1277084 1.9878479 2.0621214
00000000: d2ff ecbf d812 0940 02d2 77bf 7b9d b93f
00000010: f908 b4bf ec31 123f 870d 8dbe bfd7 b6bf
00000020: 6d4b b4bf ab58 8e3f 3e58 503e 0e81 b9bf
00000030: b8ff b13f ca82 bbbf 9757 833e 6e16 9dbf
00000040: 3c35 98bf 9c23 bf3f 6b42 b63f a1b0 ebbf
00000050: a0f1 bb3f e7b2 d93f 565d 923f 5e24 d73f
00000060: 4b5f bebf 7406 8cbf fd0c babf 4b40 b93f
00000070: 352c b3bf 9227 b53f 6ff9 b83f ce16 b9bf
00000080: 1f99 7b3e ce02 b83f d27b 23bf 6b79 b93f
00000090: 5f75 b3bf 5b24 b9bf a50c 91be 714c 2c3f
000000a0: 1ac4 ac3f 6489 b93f becb bbbf 18e4 8c3f
000000b0: f243 b8bf b238 b83f 645b bcbf ca63 2c3f
000000c0: b7f9 c7bf 7fe8 b63f b12c b43f 7653 ba3f
000000d0: 69d5 b93f d08d b4bf 0d31 8f3f 47f0 b9bf
000000e0: 3f86 b93f ecd2 293f 8dfa debf 2974 8abf
000000f0: 2314 b5bf e8f4 b7bf 60ff b9bf 869c afbf
00000100: 3e9b eabf e22d b9bf 350e b8bf 8fec 23bf
00000110: 238d 95bf edb0 d9bf 6d05 ba3f b22c 94bf
00000120: 83f6 b4bf 51bc d2bf 18b1 b33f 3bb1 b93f
00000130: 342f 37bf 7417 22bf ddda ac3e a0ac d63f
00000140: 8195 b53f 5b43 b5bf 7cc4 b63f db88 87bf
00000150: 51bc b33f 9525 d9bf b6cc ee3f 62aa b9bf
00000160: 941b b7bf 4b8d e8bf 3d6c b8bf 1b8f b9bf
00000170: c831 b9bf c570 b13f f218 bb3f a788 b73f
00000180: 5585 b6bf 00e0 b13f f463 b83f 3f0a ba3f
00000190: 6109 e8bf 8626 0d40 8617 29c0 b0e9 0540
000001a0: 6f9d 0ac0 0149 0640 e55a 1ec0 29b6 06c0
000001b0: 2383 04c0 1ead e93f 49ae 1b40 c81d 05c0
000001c0: 1fde d93f ba5f 08c0 7aed 2d40 71de e2bf
000001d0: 81fd e3bf ad66 dc3f e493 0740 5317 49bf
000001e0: 8a77 0040 e142 ee3f 0ba4 ec3f 00f5 d13f
000001f0: 90a0 05c0 0cae e4bf 1467 04c0 0cd7 0740
00000200: e57f 07c0 b2b1 0640 ff4e 0440 b718 04c0
00000210: 8f8f 2140 37ae 0640 795f 09c0 c089 0340
00000220: d521 f4bf 3ca1 07c0 bb1c 23c0 520c 4140
00000230: d192 0940 8dd4 1140 2107 05c0 5e9c e83f
00000240: b207 04c0 419a 0540 6cdd 04c0 6de5 0440
00000250: 9ba4 f4bf cc2e 0840 a45a 0740 7ef4 0340
00000260: ea6b 0740 ea6a 05c0 50d4 e33f 0575 06c0
00000270: 7d92 0340 2731 0640 41c5 eabf 432c e8bf
00000280: d9a7 f7bf 0419 06c0 f3a7 05c0 31c7 08c0
00000290: 5311 ffbf 54e6 16c0 1d1f 06c0 aa38 20c0
000002a0: 54e8 e8bf 470f e2bf 1072 0740 0780 e7bf
000002b0: 6b68 09c0 c511 ecbf 6bb2 0340 b251 fc3f
000002c0: 7b32 06c0 fb95 05c0 51d6 1440 ccd5 1840
000002d0: 2484 0640 3140 06c0 73da 0640 b28a 19c0
000002e0: 834d 0a40 c752 eebf 13cc ef3f bc46 04c0
000002f0: feae 00c0 eec2 a63f 415f 06c0 ad50 fabf
00000300: 6e4c 05c0 e550 0740 1c08 0640 6c3c 0740
00000310: c060 06c0 602c 0840 cd71 fe3f ccf9 0340

fc3.bias f4 [2]
-1.2934256 -1.9209102
00000000: f88e a5bf 63e0 f5bf

fc1.weight f4 [100, 22]
2.4142945e-09 -9.257738e-09 -9.419637e-08 1.7169818e-08 -1.8343437e-08 6.260427e-08 6.362069e-08 4.6703597e-08
5.855911e-08 -5.6224e-41 2.22785e-40 7.44413e-40 3.9315e-40 -1.12153e-39 8.31256e-40 -1.719934e-39
7.50887e-40 -4.78207e-40 -8.90504e-40 -2.09748e-39 -9.28238e-40 -1.2341287e-37 7.3451264e-07 3.73251e-07
1.7126777e-07 6.252032e-07 2.827444e-07 -2.3253904e-07 -2.5503604e-07 -3.321164e-08 -1.7756638e-07 1.42899e-40
-1.334908e-39 1.61093e-39 1.677054e-39 2.08023e-40 -9.59414e-40 1.252523e-39 -1.095328e-39 -1.493072e-39
-1.036043e-39 -1.524204e-39 -1.762323e-39 -1.132539e-39 -5.8592337e-10 7.60333e-10 7.4791084e-10 6.805146e-10
3.2598785e-10 -1.0027184e-10 -1.3535277e-10 3.4259914e-11 5.285376e-11 1.770902e-39 -3.0016e-41 1.611314e-39
-9.58838e-40 -7.00426e-40 -1.04974e-40 -6.16136e-40 -1.04725e-40 1.310662e-39 -6.6183e-41 1.106954e-39
1.84287e-39 7.54833e-40 -0.099637374 0.005042693 0.0041342443 0.006639406 0.0050722547 0.04343174
0.04603519 0.021935064 0.037395526 -5.07339e-40 8.96094e-40 1.3091e-39 -1.938154e-39 4.8995e-40
-1.129818e-39 7.27701e-40 1.360715e-39 4.3249e-40 1.947284e-39 7.83222e-40 -2.32576e-40 -6.84314e-40
1.9308327e-06 -3.9316897e-06 -5.5070386e-06 6.5375936e-08 8.852263e-07 5.1184566e-07 7.7736604e-07 -6.1309984e-06
-5.6222405e-07 -4.80481e-40 1.423439e-39 -4.80047e-40 2.146229e-39 9.8004e-41 3.48988e-40 -2.21752e-39
2.040253e-39 -4.89657e-40 -8.48552e-40 2.040945e-39 1.378616e-39 -1.491141e-39 1.903833e-13 4.7862925e-14
4.284771e-14 9.100906e-14 4.4837686e-14 -2.6554093e-14 -3.1984655e-14 7.877539e-15 -1.4120441e-14 -9.40964e-40
-8.92337e-40 -5.40534e-40 2.011088e-39 1.29675e-40 -1.695979e-39 8.76296e-40 1.7861e-39 -2.309619e-39
2.30404e-40 -2.055809e-39 1.797566e-39 -1.889867e-39 -9.174875e-18 -3.2581023e-18 -9.84126e-18 5.5629315e-18
5.8619287e-18 4.5126845e-17 4.434381e-17 -6.982376e-17 2.922449e-17 -1.828163e-39 8.6565e-40 4.64023e-40
1.531916e-39 -6.36e-41 2.77907e-40 -3.50358e-40 -3.88657e-40 9.55925e-40 -1.023539e-39 7.73898e-40
-7.86822e-40 3.4270039e-37 2.5980865e-10 8.534974e-11 1.4235421e-10 -6.0944755e-10 -1.9648495e-10 -2.0288707e-10
-2.2282265e-10 4.4728204e-10 -1.3191177e-11 1.91636e-39 1.493833e-39 1.581033e-39 -1.357263e-39 1.704175e-39
-8.14622e-40 5.56125e-40 -6.7365e-41 5.66071e-40 1.682417e-39 1.04044e-40 -7.19662e-40 1.053128e-39
7.7903985e-07 -1.06948534e-07 7.0514386e-07 4.3414835e-07 8.5017325e-07 4.3951e-07 3.495174e-07 -6.466023e-07
5.136992e-07 1.79644e-40 -1.047322e-39 -1.309767e-39 -1.34488e-39 -1.813747e-39 1.957784e-39 -1.070274e-39
1.384062e-39 -1.44435e-39 -1.91726e-39 -1.89809e-39 -1.019588e-39 -1.222917e-39 -0.09963768 0.005042695
0.004134251 0.0066394075 0.005072259 0.043431867 0.04603532 0.02193512 0.03739563 -8.4353e-41
-1.991691e-39 -4.75206e-40 -1.293099e-39 -1.991808e-39 6.38144e-40 4.61911e-40 1.375349e-39 -6.7984e-40
-1.085e-40 9.14067e-40 1.061353e-39 -9.97753e-40 0.09963799 -0.005042695 -0.004134258 -0.0066394066
-0.0050722617 -0.04343202 -0.04603545 -0.02193519 -0.03739574 6.14801e-40 8.53815e-40 -4.77788e-40
-1.99322e-40 5.22588e-40 2.045188e-39 -4.73273e-40 9.76778e-40 1.585695e-39 -2.176916e-39 1.980796e-39
-3.4293e-41 3.25942e-40 0.09963783 -0.0050426982 -0.004134254 -0.006639406 -0.0050722603 -0.043431923
-0.04603538 -0.021935146 -0.03739568 -2.13042e-40 -1.187481e-39 1.21644e-40 9.77191e-40 6.2605e-40
00000000: b8e8 2531 f60b 1fb2 0149 cab3 d47c 9332
00000010: a591 9db2 1071 8633 d89f 8833 2697 4833
00000020: 6c82 7b33 bb9c 0080 096d 0200 1f1b 0800
00000030: f147 0400 5f36 0c80 340d 0900 7aba 1280
00000040: 2b2d 0800 0c35 0580 5db2 0980 ecd6 1680
00000050: 8d1b 0a80 1cfb 2782 532b 4535 3a63 c834
00000060: bae5 3734 a3d3 2735 18cc 9734 d8af 79b4
00000070: e3eb 88b4 96a4 0eb3 13a9 3eb4 588e 0100
00000080: 2e89 0e80 9e8a 1100 f242 1200 e243 0200
00000090: 7572 0a80 86a3 0d00 54ed 0b80 1442 1080
000000a0: 1148 0b80 dc98 1080 a430 1380 0f55 0c80
000000b0: b10e 21b0 aeff 5030 8c95 4d30 f50e 3b30
000000c0: b636 b32f 0780 dcae 6bd2 14af 3cad 162e
000000d0: 0b74 682e 8e48 1300 ac53 0080 b08b 1100
000000e0: da70 0a80 81a0 0780 a024 0180 89b5 0680
000000f0: ee23 0180 9845 0e00 7eb8 0080 bd0d 0c00
00000100: 2c11 1400 2b38 0800 ae0e ccbd 2d3d a53b
00000110: 8e78 873b 608f d93b 2835 a63b 7be5 313d
00000120: 658f 3c3d 2ab1 b33c 0d2c 193d 4186 0580
00000130: f2c1 0900 3d41 0e00 c91a 1580 c855 0500
00000140: 794d 0c80 89ec 0700 1fd1 0e00 9bb5 0400
00000150: 3c34 1500 4e87 0800 5488 0280 9773 0780
00000160: 7493 0136 f5ec 83b6 1ac9 b8b6 cd64 8c33
00000170: 4aa0 6d35 c465 0935 30ac 5035 e0b8 cdb6
00000180: beeb 16b5 633b 0580 f87f 0f00 2d3a 0580
00000190: d05e 1700 3211 0100 d6cc 0300 8b25 1880
000001a0: 6537 1600 f754 0580 6b3d 0980 5339 1600
000001b0: 0503 0f00 b23c 1080 405a 562a 328e 5729
000001c0: 0cf8 4029 27ef cc29 55ee 4929 922d efa8
000001d0: cc0b 10a9 bde8 0d28 0a5f 7ea8 063f 0a80
000001e0: 79b7 0980 cae2 0580 18e6 1500 7b69 0100
000001f0: b377 1280 c28a 0900 ec72 1300 4726 1980
00000200: 4682 0200 c262 1680 e292 1300 2e94 1480
00000210: 1f3f 29a3 d067 70a2 098a 35a3 673c cd22
00000220: 5a44 d822 601c 5024 ee7f 4c24 ac00 a1a4
00000230: 30c6 0624 2de8 1380 146d 0900 820d 0500
00000240: 5cae 1000 4ab1 0080 b106 0300 a8d0 0380
00000250: 6b3b 0480 bb68 0a00 3625 0b80 506d 0800
00000260: 5791 0880 d43a e902 d1d4 8e2f a2af bb2e
00000270: 2685 1c2f 0f86 27b0 9909 58af a213 5faf
00000280: 00ff 74af 5ae5 f52f c80f 68ad 08de 1400
00000290: 3344 1000 4737 1100 7fc7 0e80 8c8e 1200
000002a0: d6de 0880 400e 0600 c9bb 0080 fa29 0600
000002b0: e551 1200 0822 0100 20d6 0780 b177 0b00
000002c0: 361f 5135 94ab e5b3 1e49 3d35 e514 e934
000002d0: 7637 6435 cbf5 eb34 4ea5 bb34 2c92 2db5
000002e0: 24e5 0935 c6f4 0100 8267 0b80 1943 0e80
000002f0: faa4 0e80 fdbf 1380 8151 1500 7da7 0b80
00000300: 3412 0f00 43ba 0f80 8ae0 1480 1aab 1480
00000310: 321a 0b80 ff50 0d80 d70e ccbd 313d a53b
00000320: 9c78 873b 638f d93b 3135 a63b 9de5 313d
00000330: 888f 3c3d 48b1 b33c 292c 193d 24eb 0080
00000340: 06b0 1580 ae2c 0580 a214 0e80 5ab0 1580
00000350: e3f2 0600 9f07 0500 eaf9 0e00 1e67 0780
00000360: 742e 0180 0cf4 0900 9f8e 0b00 54dd 0a80
00000370: 010f cc3d 313d a5bb ab78 87bb 618f d9bb
00000380: 3735 a6bb c6e5 31bd ab8f 3cbd 6db1 b3bc
00000390: 472c 19bd d1b1 0600 174c 0900 e133 0580
000003a0: a12b 0280 c3b0 0500 2745 1600 4b27 0580
000003b0: dca2 0a00 4644 1100 5bb4 1780 a791 1500
000003c0: 985f 0080 988c 0300 eb0e cc3d 383d a5bb
000003d0: a378 87bb 608f d9bb 3435 a6bb ace5 31bd
000003e0: 988f 3cbd 56b1 b3bc 362c 19bd e051 0280
000003f0: 37ee 0c80 1853 0100 03a4 0a00 2cd1 0600

fc1.bias f4 [100]
-6.908528e-08 -1.253709e-06 1.4574461e-10 -0.12626927 -3.8049775e-06 -1.6619139e-13 -1.36713905e-17 9.24082e-12
-1.6481346e-06 -0.12626964 0.12627013 0.12626982 -7.1521516e-10 0.12626994 -0.1262702 0.12627015
-0.12627025 -0.12627023 1.4537833e-17 -0.12627047 -6.688099e-09 4.1032017e-06 7.431878e-17 5.3881456e-07
1.1188145e-06 3.521509e-07 -0.12626933 -0.1262699 -4.3874456e-11 0.12627032 5.4766986e-08 1.776203e-08
-9.721436e-10 0.12626994 -0.12626928 -8.26611e-12 1.4664791e-12 1.205136e-09 1.0263773e-09 3.8644288e-19
-4.1412044e-14 4.3221526e-08 2.3341562e-10 8.5282664e-08 1.6085194e-08 -2.727155e-12 0.12626967 -0.12626973
6.7273606e-07 -0.12627013 -0.1262694 -0.12626974 0.12626988 6.652616e-06 -0.12626466 -0.12627007
-2.8704906e-07 0.1262694 0.12627009 6.037022e-11 0.12627013 1.5656349e-06 0.12626961 2.0922178e-06
0.12627009 3.5263245e-08 0.12626913 -0.12627006 0.12626953 0.1262679 3.0269497e-08 0.12627001
0.12626927 -0.1262701 -0.12626944 0.12626988 0.12627 -0.12627022 -4.4123266e-07 0.1262692
-5.115658e-06 1.0965815e-13 2.0936469e-14 0.12626944 -0.12626925 0.12626976 7.2280013e-06 0.12626867
0.1262701 -1.2774987e-06 5.346422e-09 -1.9305578e-06 3.6830376e-11 0.12627022 -0.12626979 0.1262694
4.4483217e-10 -1.1884859e-13 5.7295744e-16 -0.12627004
00000000: 095c 94b3 1d45 a8b5 763f 202f bb4c 01be
00000010: 0459 7fb6 681d 3baa 5131 7ca3 f490 222d
00000020: 7935 ddb5 d44c 01be f54c 013e e04c 013e
00000030: cb98 44b0 e84c 013e fa4c 01be f64c 013e
00000040: fd4c 01be fc4c 01be 7d16 8623 0c4d 01be
00000050: 24cd e5b1 3cae 8936 115e ab24 0ea3 1035
00000060: 2c2a 9635 400f bd34 bf4c 01be e64c 01be
00000070: 3ff6 40ae 024d 013e f038 6b33 1e93 9832
00000080: 439c 85b0 e84c 013e bc4c 01be 406b 11ad
00000090: 7a63 ce2b f4a1 a530 7110 8d30 991d e420
000000a0: d680 3aa9 92a2 3933 5452 802f a424 b733
000000b0: b72b 8a32 0fe8 3fac d64c 013e da4c 01be
000000c0: 1296 3435 f54c 01be c44c 01be db4c 01be
000000d0: e44c 013e 8939 df36 864b 01be f14c 01be
000000e0: b91b 9ab4 c44c 013e f24c 013e 6ac1 842e
000000f0: f54c 013e ce22 d235 d24c 013e 0768 0c36
00000100: f24c 013e 5974 1733 b24c 013e f04c 01be
00000110: cd4c 013e 5f4c 013e aa01 0233 ed4c 013e
00000120: bb4c 013e f34c 01be c74c 01be e44c 013e
00000130: ec4c 013e fb4c 01be 8ee2 ecb4 b74c 013e
00000140: 2ba7 abb6 9fed f629 3694 bc28 c74c 013e
00000150: ba4c 01be dc4c 013e 0f88 f236 934c 013e
00000160: f34c 013e 8576 abb5 a0b3 b731 bb8e 01b6
00000170: 51fb 212e fb4c 013e de4c 01be c44c 013e
00000180: 908c f42f c6cf 05aa cc24 2526 ef4c 01be

fc2.weight f4 [100, 100]
-6.359352e-08 2.6742923e-08 1.8704926e-10 0.01895637 -2.0672592e-06 -1.4184255e-15 4.8166404e-18 -9.883802e-11
-1.298551e-08 0.01895643 -0.018956492 -0.018956453 -6.0578716e-11 -0.01895647 0.018956501 -0.018956494
0.018956508 0.018956508 7.126976e-17 0.018956536 -4.3101647e-09 -4.8926074e-07 1.5900587e-17 -1.1782729e-06
7.168688e-07 2.720571e-07 0.018956384 0.018956468 1.3261435e-13 -0.018956518 3.513155e-08 -1.6433864e-10
1.6199587e-12 -0.01895647 0.018956378 1.1252658e-12 2.483013e-13 1.3913046e-12 1.404931e-09 -1.6733114e-20
3.9047977e-15 2.195284e-10 -1.1524659e-12 -7.985638e-10 1.4379655e-09 -1.5726077e-12 -0.018956432 0.01895644
1.2035048e-06 0.018956494 0.018956395 0.018956443 -0.018956462 -5.175798e-07 0.01895575 0.018956484
1.1386476e-08 -0.018956395 -0.018956488 5.4219403e-11 -0.018956492 -2.9147824e-08 -0.018956425 2.4674323e-06
-0.01895649 1.0845762e-11 -0.018956358 0.018956484 -0.018956415 -0.018956192 -1.0168452e-09 -0.018956479
-0.018956373 0.01895649 0.0189564 -0.018956464 -0.018956477 0.018956505 -4.844325e-07 -0.018956369
1.0964479e-07 6.466137e-14 -1.0326883e-15 -0.0189564 0.01895637 -0.018956445 -9.41608e-08 -0.018956294
-0.01895649 -6.4909375e-07 9.3195736e-11 2.512099e-08 -1.6662152e-10 -0.018956501 0.018956449 -0.018956397
-1.945657e-12 2.8765713e-14 -9.748094e-17 0.018956484 -6.359426e-08 2.6741091e-08 1.8704098e-10 0.018955354
-2.0673513e-06 -1.4183827e-15 4.8161628e-18 -9.8835384e-11 -1.3004737e-08 0.018955404 -0.018955473 -0.018955434
-6.0571104e-11 -0.018955445 0.01895548 -0.018955475 0.018955484 0.018955482 7.126769e-17 0.01895552
-4.309017e-09 -4.892644e-07 1.5906412e-17 -1.1783878e-06 7.171002e-07 2.720526e-07 0.018955363 0.018955443
1.3256334e-13 -0.018955497 3.512693e-08 -1.6432296e-10 1.6194951e-12 -0.018955447 0.01895536 1.1252243e-12
2.4824243e-13 1.391688e-12 1.4049977e-09 -1.677331e-20 3.904919e-15 2.2080382e-10 -1.1519347e-12 -7.984625e-10
1.4380438e-09 -1.5724625e-12 -0.018955411 0.018955419 1.2034288e-06 0.018955471 0.018955372 0.018955423
-0.018955437 -5.1756217e-07 0.018954739 0.018955462 1.1466e-08 -0.018955372 -0.01895546 5.421664e-11
-0.01895547 -2.914686e-08 -0.018955404 2.4674875e-06 -0.018955464 1.0851736e-11 -0.018955339 0.018955464
-0.018955393 -0.01895517 -1.0168026e-09 -0.018955456 -0.018955354 0.01895547 0.018955385 -0.018955441
-0.018955454 0.018955482 -4.843982e-07 -0.018955348 1.0965418e-07 6.4658125e-14 -1.0326634e-15 -0.018955383
0.018955354 -0.018955423 -9.415496e-08 -0.018955275 -0.018955465 -6.491761e-07 9.3169056e-11 2.512169e-08
-1.666096e-10 -0.01895548 0.018955428 -0.018955372 -1.945262e-12 2.877888e-14 -9.749074e-17 0.018955456
-6.359401e-08 2.6741956e-08 1.8704488e-10 0.018955832 -2.0673085e-06 -1.4184042e-15 4.816385e-18 -9.883645e-11
-1.2995457e-08 0.018955886 -0.018955948 -0.01895591 -6.0574865e-11 -0.018955925 0.018955957 -0.018955955
0.018955963 0.018955965 7.126864e-17 0.018955996 -4.3095545e-09 -4.892631e-07 1.5903719e-17 -1.1783316e-06
7.1698713e-07 2.720547e-07 0.018955842 0.018955924 1.325867e-13 -0.018955978 3.51291e-08 -1.6433004e-10
1.6197042e-12 -0.018955927 0.018955836 1.1252446e-12 2.4827056e-13 1.3915267e-12 1.4049657e-09 -1.6754569e-20
3.9048583e-15 2.201972e-10 -1.152191e-12 -7.985085e-10 1.4380075e-09 -1.5725293e-12 -0.01895589 0.018955896
1.2034634e-06 0.01895595 0.018955853 0.018955898 -0.01895592 -5.175701e-07 0.018955216 0.018955942
00000000: e890 88b3 4fb8 e532 b0a9 4d2f 644a 9b3c
00000010: 3ebb 0ab6 aa6a cca6 e2b3 b122 dc58 d9ae
00000020: e016 5fb2 844a 9b3c a54a 9bbc 904a 9bbc
00000030: c936 85ae 994a 9bbc aa4a 9b3c a64a 9bbc
00000040: ae4a 9b3c ae4a 9b3c 3e56 a424 bd4a 9b3c
00000050: 9c18 94b1 be55 03b5 33a8 9223 2625 9eb5
00000060: d96e 4035 3e0f 9234 6b4a 9b3c 984a 9b3c
00000070: 7c4f 152a b34a 9bbc 8ce3 1633 37b1 34af
00000080: 2afd e32b 994a 9bbc 684a 9b3c f95d 9e2b
00000090: fdc7 8b2a 08cf c32b 9d17 c130 300a 9e9e
000000a0: 67af 8c27 c05f 712f f631 a2ab ef81 5bb0
000000b0: eaa1 c530 2a53 ddab 854a 9bbc 894a 9b3c
000000c0: 1c88 a135 a64a 9b3c 714a 9b3c 8b4a 9b3c
000000d0: 954a 9bbc d0ef 0ab5 1749 9b3c a14a 9b3c
000000e0: 409e 4332 714a 9bbc a34a 9bbc 9f75 6e2e
000000f0: a54a 9bbc be60 fab2 814a 9bbc 2a96 2536
00000100: a44a 9bbc f8cc 3e2d 5d4a 9bbc a14a 9b3c
00000110: 7c4a 9bbc 044a 9bbc 0fc1 8bb0 9e4a 9bbc
00000120: 654a 9bbc a44a 9b3c 744a 9b3c 964a 9bbc
00000130: 9d4a 9bbc ac4a 9b3c f309 02b5 634a 9bbc
00000140: dc75 eb33 be9a 9129 79d3 94a6 744a 9bbc
00000150: 644a 9b3c 8c4a 9bbc 7235 cab3 3b4a 9bbc
00000160: a44a 9bbc 623d 2eb5 89f0 cc2e a4c9 d732
00000170: ca33 37af aa4a 9bbc 8e4a 9b3c 724a 9bbc
00000180: d7e9 08ac 9c8c 0129 97c6 e0a4 a14a 9b3c
00000190: 5091 88b3 48b4 e532 5ba7 4d2f 4248 9b3c
000001a0: d3bc 0ab6 1669 cca6 5faf b122 6057 d9ae
000001b0: 706b 5fb2 5d48 9b3c 8248 9bbc 6d48 9bbc
000001c0: 8032 85ae 7348 9bbc 8648 9b3c 8348 9bbc
000001d0: 8848 9b3c 8748 9b3c 0555 a424 9b48 9b3c
000001e0: 840e 94b1 fe55 03b5 f4b5 9223 1929 9eb5
000001f0: c07e 4035 a00e 9234 4748 9b3c 7248 9b3c
00000200: c840 152a 8f48 9bbc 78de 1633 cdac 34af
00000210: 76ec e32b 7448 9bbc 4548 9b3c 7a5c 9e2b
00000220: 81bf 8b2a d8dc c32b f619 c130 606b 9e9e
00000230: 85b0 8c27 c0c6 722f d21e a2ab ce7a 5bb0
00000240: aba4 c530 ef4d ddab 6148 9bbc 6548 9b3c
00000250: 8085 a135 8148 9b3c 4c48 9b3c 6748 9b3c
00000260: 6f48 9bbc 9aee 0ab5 f846 9b3c 7c48 9b3c
00000270: 00fc 4432 4c48 9bbc 7b48 9bbc 8372 6e2e
00000280: 8048 9bbc 9f5e fab2 5d48 9bbc 1d97 2536
00000290: 7d48 9bbc e0e7 3e2d 3a48 9bbc 7d48 9b3c
000002a0: 5748 9bbc df47 9bbc 90bf 8bb0 7948 9bbc
000002b0: 4248 9bbc 8048 9b3c 5348 9b3c 7148 9bbc
000002c0: 7848 9bbc 8748 9b3c 9707 02b5 3f48 9bbc
000002d0: 067b eb33 df98 9129 8ed2 94a6 5248 9bbc
000002e0: 4248 9b3c 6748 9bbc 3d32 cab3 1848 9bbc
000002f0: 7e48 9bbc 0b43 2eb5 84e1 cc2e 2ecb d732
00000300: 6f30 37af 8648 9bbc 6a48 9b3c 4c48 9bbc
00000310: bae2 08ac ca9b 0129 60cc e0a4 7948 9b3c
00000320: 2d91 88b3 2fb6 e532 74a8 4d2f 4349 9b3c
00000330: 17bc 0ab6 e169 cca6 78b1 b122 fa57 d9ae
00000340: a042 5fb2 6049 9b3c 8149 9bbc 6d49 9bbc
00000350: 9e34 85ae 7549 9bbc 8649 9b3c 8549 9bbc
00000360: 8949 9b3c 8a49 9b3c 9455 a424 9b49 9b3c
00000370: 3e13 94b1 e755 03b5 98af 9223 2a27 9eb5
00000380: fb76 4035 ea0e 9234 4849 9b3c 7449 9b3c
00000390: 8447 152a 9149 9bbc dbe0 1633 cbae 34af
000003a0: fef3 e32b 7649 9bbc 4549 9b3c 365d 9e2b
000003b0: 8fc3 8b2a 08d7 c32b d618 c130 103e 9e9e
000003c0: f6af 8c27 001c 722f 0e28 a2ab 0a7e 5bb0
000003d0: 64a3 c530 5750 ddab 6249 9bbc 6549 9b3c
000003e0: b086 a135 8249 9b3c 4e49 9b3c 6649 9b3c
000003f0: 7249 9bbc 25ef 0ab5 f847 9b3c 7e49 9b3c

fc2.bias f4 [100]
-0.07656573 -0.07656116 -0.076563284 0.07656238 0.07656393 -0.07656449 0.076561846 0.076562904
-0.076564305 -0.0765632 -0.07656259 0.07656286 0.07656249 0.0765624 -0.07656255 -0.07656316
-0.07656425 0.07656344 0.07656304 0.07656245 -0.07656167 0.076553725 -0.07655429 -0.076563284
0.07655507 -1.493161e-13 0.076562986 -0.076563664 0.07656305 -0.076562256 -0.07656536 0.0765618
0.07656157 -0.076562986 -0.07656327 -0.076562956 -0.07656363 0.07656259 0.07656315 0.07656021
0.0765626 0.07656417 -0.076562606 -0.076559894 -0.07656507 -0.07655875 0.07656141 0.07656132
0.0765632 0.07656284 0.07656246 -0.07656379 0.07656288 0.07656355 0.07656425 -0.07656319
0.07656235 -0.07656025 0.07656077 0.07656305 -0.07655966 -0.07656446 0.076562464 -0.07656294
0.07656345 -0.07656255 -0.07656205 0.07656431 -0.07656241 1.0491289e-09 0.07656327 1.1284522e-07
0.07656162 -0.07656108 -0.076561585 -0.07656436 0.07656162 -0.07656134 0.07656146 0.07656328
-6.184979e-35 0.07656275 0.07656445 0.07656258 0.07656108 3.26423e-40 -0.07656315 -0.0765513
0.07656222 -0.07656338 -0.07656416 0.07655692 0.07656129 0.07656258 0.07656384 0.07656265
-0.07656492 0.07656447 -0.076561175 0.07655624
00000000: 7ece 9cbd 19cc 9cbd 36cd 9cbd bdcc 9c3d
00000010: 8dcd 9c3d d8cd 9cbd 75cc 9c3d 03cd 9c3d
00000020: bfcd 9cbd 2bcd 9cbd d9cc 9cbd fdcc 9c3d
00000030: cbcc 9c3d bfcc 9c3d d4cc 9cbd 25cd 9cbd
00000040: b8cd 9cbd 4bcd 9c3d 15cd 9c3d c6cc 9c3d
00000050: 5dcc 9cbd 33c8 9c3d 7fc8 9cbd 36cd 9cbd
00000060: e8c8 9c3d 701d 28aa 0ecd 9c3d 69cd 9cbd
00000070: 17cd 9c3d accc 9cbd 4dce 9cbd 6fcc 9c3d
00000080: 50cc 9c3d 0ecd 9cbd 34cd 9cbd 0acd 9cbd
00000090: 64cd 9cbd d9cc 9c3d 24cd 9c3d 99cb 9c3d
000000a0: dacc 9c3d adcd 9c3d dbcc 9cbd 6fcb 9cbd
000000b0: 26ce 9cbd d5ca 9cbd 3bcc 9c3d 2ecc 9c3d
000000c0: 2bcd 9c3d facc 9c3d c7cc 9c3d 7acd 9cbd
000000d0: 00cd 9c3d 5acd 9c3d b8cd 9c3d 29cd 9cbd
000000e0: b9cc 9c3d 9fcb 9cbd e5cb 9c3d 17cd 9c3d
000000f0: 50cb 9cbd d4cd 9cbd c8cc 9c3d 08cd 9cbd
00000100: 4ccd 9c3d d4cc 9cbd 90cc 9cbd c0cd 9c3d
00000110: c1cc 9cbd f130 9030 34cd 9c3d 5155 f233
00000120: 57cc 9c3d 0ecc 9cbd 52cc 9cbd c6cd 9cbd
00000130: 57cc 9c3d 31cc 9cbd 41cc 9c3d 35cd 9c3d
00000140: c96c a486 eecc 9c3d d3cd 9c3d d8cc 9c3d
00000150: 0ecc 9c3d ef8d 0300 24cd 9cbd eec6 9cbd
00000160: a7cc 9c3d 43cd 9cbd accd 9cbd e0c9 9c3d
00000170: 2acc 9c3d d8cc 9c3d 81cd 9c3d e1cc 9c3d
00000180: 12ce 9cbd d5cd 9c3d 1bcc 9cbd 85c9 9c3d

fc3.weight f4 [1, 100]
-0.15832523 -0.15831487 -0.15831973 0.1583176 0.15832117 -0.15832242 0.15831637 0.15831882
-0.15832202 -0.15831953 -0.15831806 0.15831873 0.15831783 0.15831764 -0.15831798 -0.15831943
-0.15832192 0.15832011 0.15831916 0.15831774 -0.15831603 0.1582983 -0.15829955 -0.15831974
0.1583013 -2.6087666e-13 0.15831906 -0.1583206 0.15831923 -0.15831734 -0.1583244 0.15831631
0.15831584 -0.15831906 -0.1583197 -0.15831898 -0.15832055 0.15831809 0.15831944 0.15831275
0.15831807 0.15832172 -0.15831809 -0.15831202 -0.15832375 -0.15830944 0.15831548 0.15831523
0.15831953 0.15831868 0.15831776 -0.15832084 0.15831877 0.15832034 0.1583219 -0.15831949
0.15831754 -0.15831284 0.15831402 0.15831922 -0.15831155 -0.15832235 0.15831779 -0.15831895
0.1583201 -0.15831798 -0.15831684 0.15832207 -0.15831767 8.9312674e-10 0.1583197 2.342266e-08
0.15831594 -0.1583147 -0.15831585 -0.15832213 0.15831591 -0.15831529 0.15831557 0.15831971
-1.581378e-35 0.15831845 0.15832235 0.15831806 0.15831469 -4.29251e-40 -0.15831944 -0.15829279
0.1583172 -0.15831997 -0.15832174 0.1583053 0.15831515 0.15831806 0.15832098 0.15831824
-0.15832342 0.15832238 -0.1583149 0.15830377
00000000: 0220 22be 4b1d 22be 911e 22be 021e 223e
00000010: f21e 223e 461f 22be b01d 223e 541e 223e
00000020: 2b1f 22be 841e 22be 211e 22be 4e1e 223e
00000030: 121e 223e 051e 223e 1c1e 22be 7d1e 22be
00000040: 241f 22be ab1e 223e 6b1e 223e 0c1e 223e
00000050: 991d 22be f318 223e 4719 22be 921e 22be
00000060: bc19 223e 4adc 92aa 641e 223e cc1e 22be
00000070: 701e 223e f11d 22be cb1f 22be ac1d 223e
00000080: 8c1d 223e 641e 22be 8f1e 22be 5f1e 22be
00000090: c81e 22be 231e 223e 7e1e 223e bd1c 223e
000000a0: 221e 223e 171f 223e 231e 22be 8c1c 22be
000000b0: 9f1f 22be df1b 22be 741d 223e 631d 223e
000000c0: 841e 223e 4b1e 223e 0d1e 223e dc1e 22be
000000d0: 511e 223e ba1e 223e 231f 223e 811e 22be
000000e0: fe1d 223e c31c 22be 121d 223e 6f1e 223e
000000f0: 6c1c 22be 411f 22be 0f1e 223e 5d1e 22be
00000100: aa1e 223e 1c1e 22be cf1d 22be 2e1f 223e
00000110: 071e 22be 3580 7530 8f1e 223e f932 c932
00000120: 931d 223e 401d 22be 8d1d 22be 321f 22be
00000130: 911d 223e 671d 22be 7a1d 223e 901e 223e
00000140: 3429 a885 3b1e 223e 411f 223e 211e 223e
00000150: 3f1d 223e 94ac 0480 7e1e 22be 8117 22be
00000160: e71d 223e a11e 22be 181f 22be c91a 223e
00000170: 5e1d 223e 211e 223e e51e 223e 2d1e 223e
00000180: 891f 22be 431f 223e 4d1d 22be 621a 223e

fc1.weight f4 [100, 24]
0.005749999 0.2270514 0.00881795 -0.09507586 0.08102872 0.016405562 0.21972309 -0.05588768
-0.033760436 0.20241627 -0.14398131 -0.0024333447 -0.14169621 -0.00915131 -0.14087927 0.06269115
-0.13647278 -0.1583248 -0.1385667 0.10256636 -0.13812408 0.11855966 0.043544453 0.20846966
0.07744863 0.07039081 0.073554575 -0.16691539 -0.16248316 -0.17756438 -0.24934223 -0.24976824
-0.11870291 0.13403228 0.13753918 0.017171368 -0.074147254 -0.12939623 0.06618303 0.0015245974
0.1549465 -0.018191263 -0.052954108 -0.15728387 -0.11138475 0.02356476 0.18057953 -0.08436816
0.16961479 -0.024752885 -0.15039656 0.035368644 0.20734188 -0.023849482 -0.06237564 0.005850114
0.121535115 -0.20040648 0.032572165 -0.030533522 0.014382333 -0.04103847 -0.07231605 -0.04327856
-0.056316003 -0.13460654 -0.17300546 -0.20299849 -0.08378723 -0.14933114 -0.14636812 0.0721712
0.08490934 -0.19191828 0.012061978 -0.1773826 -0.032943055 0.09029661 -0.19967118 -0.15429114
-0.1115878 -0.1723868 0.16095951 0.18680397 -0.19828513 0.10636082 0.17428097 -0.04985395
-0.023952872 0.068677515 0.094787866 0.14626116 0.07196146 -0.024059149 -0.13462439 -0.050861936
-0.057770923 0.013908904 0.010348767 0.036109235 -0.14308801 -0.103855155 -0.035153408 -0.18158017
-0.08935869 -0.16513778 -0.19292879 -0.029473335 0.17257363 -0.013961151 -0.0014872104 -0.008670226
-0.006540939 0.15454754 -0.06687158 -0.10976623 0.18435624 -0.016986553 0.030124051 0.18900171
-0.15146898 -0.12023495 -0.1377908 -0.1971469 -0.008941933 -0.259899 -0.10443708 -0.07022398
-0.023828976 0.07399571 0.17244154 -0.077443585 -0.17254117 0.025175333 0.14958793 -0.027063087
0.16056183 -0.09650545 -0.07253313 -0.06343526 -0.0643675 0.18508635 0.043495756 -0.009706694
-0.22595762 -0.005236313 -0.13266909 -0.21395494 -0.0016051431 0.15114355 -0.14515823 -0.15907876
0.09533679 0.18290865 -0.1933351 -0.13922754 0.20048076 0.15442643 0.02912882 0.10926178
0.021771029 -0.11778597 -0.11758044 0.17305288 0.0101043135 0.071617134 0.07075586 0.062087875
0.14202036 0.14107004 -0.10923168 0.04062531 0.19604978 0.05180882 0.18411498 0.19944747
0.0849498 -0.113425456 0.07349771 0.08169246 -0.011307627 0.16403002 -0.079631485 0.032361984
-0.152095 -0.116669714 -0.08722923 -0.053563714 -0.17439996 0.045983203 -0.07462925 -0.13445747
0.0076429723 0.14999911 0.11287971 0.060280867 0.09205277 0.09951823 0.02065588 0.1050659
0.08002129 0.1816127 0.1742895 0.048463494 -0.04423082 -0.18074106 -0.033203706 0.20353648
0.15871239 0.16041413 -0.0751777 -0.030540332 0.12533009 -0.03983077 0.060092527 -0.09167213
-0.06266897 0.070957564 0.0159375 0.15822354 -0.15499915 0.09577027 0.12117229 0.13853653
-0.028999569 -0.031300157 0.19015121 -0.12310607 0.09083539 -0.1886134 0.0072486997 0.048635185
0.05266142 -0.13044904 -0.11696787 0.08488697 0.14126459 -0.00016877259 0.025089206 -0.17936
-0.13994884 -0.027031085 -0.0009406171 0.08747847 -0.16456175 -0.22655168 -0.18439174 -0.287946
-0.18019412 -0.06176637 0.022790238 -0.0917225 0.015389383 0.13056195 0.058306754 -0.042467758
00000000: 7d6a bc3b 2a80 683e 2a79 103c 22b7 c2bd
00000010: 63f2 a53d f564 863c 17ff 603e 7bea 64bd
00000020: 6248 0abd 3646 4f3e d66f 13be c078 1fbb
00000030: d018 11be 60ef 15bc a842 10be 3864 803d
00000040: 85bf 0bbe e51f 22be 6ee4 0dbe 500e d23d
00000050: 6670 0dbe 68cf f23d ab5b 323d 1279 553e
00000060: 639d 9e3d 0f29 903d c8a3 963d deeb 2abe
00000070: fc61 26be 70d3 35be 9253 7fbe 3fc3 7fbe
00000080: 831a f3bd c23f 093e 12d7 0c3e f8aa 8c3c
00000090: 84da 97bd 7280 04be f88a 873d 00d5 c73a
000000a0: 4caa 1e3e d805 95bc 68e6 58bd 060f 21be
000000b0: b01d e4bd e20a c13c d7e9 383e 37c9 acbd
000000c0: 80af 2d3e 90c6 cabc 8e01 1abe b6de 103d
000000d0: 6e51 543e fd5f c3bc 997d 7fbd 50b2 bf3b
000000e0: 67e7 f83d 5b37 4dbe 646a 053d 7021 fabc
000000f0: e0a3 6b3c f417 28bd 701a 94bd dc44 31bd
00000100: 9cab 66bd 4cd6 09be 5828 31be d6de 4fbe
00000110: a498 abbd 43ea 18be 86e1 15be 7ece 933d
00000120: f3e4 ad3d 3a86 44be 9a9f 453c c9a3 35be
00000130: 4cef 06bd 6eed b83d 9a76 4cbe 7ffe 1dbe
00000140: 2588 e4bd 2a86 30be 92d2 243e 8a49 3f3e
00000150: 420b 4bbe b4d3 d93d b676 323e a833 4cbd
00000160: d038 c4bc cca6 8c3d 2420 c23d 7cc5 153e
00000170: 8860 933d b117 c5bc fada 09be 9b54 50bd
00000180: 34a1 6cbd 2ce2 633c e08d 293c 47e7 133d
00000190: aa85 12be 03b2 d4bd 05fd 0fbd 27f0 39be
000001a0: b001 b7bd e119 29be 208f 45be 1072 f1bc
000001b0: 24b7 303e 50bd 64bc 80ee c2ba 900d 0ebc
000001c0: 6055 d6bb b641 1e3e f8f3 88bd 1ecd e0bd
000001d0: e2c7 3c3e 6227 8bbc b7c6 f63c aa89 413e
000001e0: af1a 1bbe be3d f6bd 0819 0dbe e1e0 49be
000001f0: 2f81 12bc 7b11 85be 1ce3 d5bd 97d1 8fbd
00000200: fc34 c3bc 108b 973d 8494 303e be9a 9ebd
00000210: a2ae 30be 803c ce3c 942d 193e 68b3 ddbc
00000220: 526a 243e a6a4 c5bd 408c 94bd 58ea 81bd
00000230: 1cd3 83bd 4787 3d3e 9b28 323d d308 1fbc
00000240: 6f61 67be 6195 abbb 68da 07be 0117 5bbe
00000250: aa63 d2ba 60c5 1a3e 5ca4 14be 8be5 22be
00000260: ef3f c33d 684c 3b3e a3f9 45be aa91 0ebe
00000270: d44a 4d3e f621 1e3e 909f ee3c a4c4 df3d
00000280: 2859 b23c c539 f1bd 04ce f0bd c634 313e
00000290: 908c 253c 01ac 923d 73e8 903d db4f 7e3d
000002a0: c96d 113e aa74 103e dcb4 dfbd ba66 263d
000002b0: 46c1 483e 7c35 543d a388 3c3e f53b 4c3e
000002c0: 29fa ad3d 9b4b e8bd f885 963d 604e a73d
000002d0: a043 39bc 7cf7 273e d515 a3bd 008e 043d
000002e0: cbbe 1bbe 88f0 eebd 3da5 b2bd a065 5bbd
000002f0: e795 32be e258 3c3d 38d7 98bd 38af 09be
00000300: e671 fa3b 5e99 193e 7a2d e73d 12e9 763d
00000310: 2a86 bc3d 37d0 cb3d 8536 a93c ca2c d73d
00000320: 34e2 a33d aef8 393e f278 323e a881 463d
00000330: 602b 35bd 2f14 39be 9c00 08bd de6b 503e
00000340: 8085 223e 9a43 243e c4f6 99bd b82f fabc
00000350: 8856 003e 9725 23bd 9523 763d 99be bbbd
00000360: 9758 80bd 3352 913d 5c8f 823c 5a05 223e
00000370: 19b8 1ebe 3423 c43d 2d29 f83d 85dc 0d3e
00000380: 8190 edbc 9834 00bd 00b7 423e 091f fcbd
00000390: e807 ba3d df23 41be 8086 ed3b b035 473d
000003a0: 80b3 573d 6f94 05be da8c efbd 38d9 ad3d
000003b0: aaa7 103e 8cf8 30b9 e187 cd3c 26aa 37be
000003c0: c04e 0fbe 4b70 ddbc bf93 76ba e927 b33d
000003d0: e082 28be 2afd 67be 30d1 3cbe a86d 93be
000003e0: cf84 38be bcfe 7cbd 98b2 ba3c 02d9 bbbd
000003f0: c023 7c3c 08b2 053e 10d3 6e3d acf2 2dbd
