gail/save_model/0/SUB072_ckpt_20.pth.tar (torch_old, 154746 bytes, 16 tensors)

fc1.weight f4 [100, 22]
00000000: f8c4 0fbe 9ac9 48bd 54b3 bb3c 4a65 efbc
00000010: a588 a0bd a317 393e 3a00 4cbc 08a7 583e
00000020: 4d6c 833e 4c25 023e 003e 8ebc 3886 2e3e
00000030: 4eb4 d8bd 184a e23c 9825 4dbe c06f 223d
00000040: 7025 723d 4033 0fbc 78f1 333d bc58 cd3d
00000050: dc39 e33d 2212 293e fa6c c63e 7144 423d
00000060: d566 8abe 9180 1d3c 38d3 b53d 31a4 7fbe
00000070: 8b2c 27be a9c6 463c 036f 4abe 60a0 82bc
00000080: 80ca d93d 428d 403e 8245 3fbe 08aa 563d
00000090: c87c 253e 885d 423d e0f2 743d 8098 4abe
000000a0: 60d8 13bd e859 d7bd 4c4c 0a3e c495 50be
000000b0: 5b41 c43e f063 3c3d b9bf 98bd fb5e fcbe
000000c0: 1b54 933b 6300 413e decc 8cbc bee5 d33d
000000d0: fc17 9c3e f4e6 823d 80e2 423d e2fd 343e
000000e0: 2aac 90bd e061 00bd 386a f13d f2de 593e
000000f0: b48a 903d 702e 3f3d 2bd9 cdbd 00e4 5a3c
00000100: 0899 e8bc 707d b63c f577 1a3f 5717 1ebe
00000110: 5741 79bd 6ef7 a1be ac39 aebd e03a a93d
00000120: 06ca d73e 2f0e 783e a031 803e 01da dabd
00000130: 33e9 1abe c8ad 403d 1ac7 463e 45c5 ebbd
00000140: 808b c0bd b850 243e 7c20 8a3d 961e 3c3e
00000150: 3081 b13c 5c39 07be 3e95 283e c202 4d3e
00000160: d363 0d3f 5f13 4dbe f4a0 b9be dc07 0abf
00000170: a54c d03d a3ae 7e3e 6b8e 673e 6810 00bd
00000180: b142 9e3e 24fa f9bd 820d 0b3e e06a ae3b
00000190: 20b2 ac3d 888f b9bc 6854 bc3d 7659 283e
000001a0: edcf 41be 04e5 043e 28a2 423e 8c7a fa3d
000001b0: b053 d03d 2465 3abd 6176 9dbe 9b15 f4bd
000001c0: 34ed 2ebe af6f 43bd 7842 e83d beb1 8c3e
000001d0: 737c 29bc a4d2 7e3e 6dfe 2d3e 0c99 f63d
000001e0: 487b 25bd ba00 a4bd a8b9 24bd a814 703d
000001f0: 902a 173d 588b 543e 0467 453e dc31 033d
00000200: b850 0abd 94d6 07bd 8032 6ebd b81f ed3d
00000210: 1c64 0bbe c1a1 303d e79c 293d c181 cf3e
00000220: 1f8e c93e c429 45be 9242 dbbd c5bd 4abe
00000230: 3fb3 8d3c 8093 c03a 4cbd b63d 342d bd3d
00000240: 50d3 b03d c7cf 02be 12a7 093e 00fa 77bd
00000250: 2c53 57bd d054 a33c 2a1e 173e 3e4a 1c3e
00000260: c89a 9cbd 403c 893b 9162 42bf 4b14 5e3d
00000270: c8e9 753e 52f7 bb3e 9efb 873d 4eba ccbe
00000280: 871a 14be 0521 39be aacc adbe 2045 303c
00000290: 6469 d23d d4ac 13bd cb67 e9bd a4c0 a73d
000002a0: b056 dc3d 96a3 0f3e 90b3 243d cb31 e2bd
000002b0: 58ee 69bd b0e6 093e 9c95 ae3d b4a8 54bd
000002c0: 01b6 7fbd 2791 8fbe 87f2 12bb 7458 a73e
000002d0: f7f8 153d c4ad 9f3d a816 8bbe 8033 a43d
000002e0: 6db8 913d 5890 033e ec6e 443e c08f 013b
000002f0: 27be 2cbe d8c9 973c b9b8 58be 08d4 063d
00000300: dec1 0fbe 045e f63d c46a e23d 14c8 41bd
00000310: d033 e9bd 9783 fcbd 095f 0c3e dd3d 143e
00000320: e0e2 b23d 9843 a7bc 8699 d6be ea5e b13d
00000330: 577d 5dbd 6751 f03b e875 14be 38ec 2dbe
00000340: 1c9c 4d3e 3869 b5bd 3408 413e 73e1 31be
00000350: 30c1 1c3d 4c28 493e ced6 56be 86ef 38be
00000360: 415d 1cbe 881b fbbc f030 533d f635 48be
00000370: 55c4 28bf 6f7e 443d 0bd8 0c3e 40ef e53e
00000380: 6781 583e a00d 39be 614b 92be 12e9 62be
00000390: 0dea 46be 986b 91bd 6d15 38be 947b 213e
000003a0: 6840 af3c 6ca1 f83d cc89 0b3e 4ca5 473e
000003b0: 051b 31be ff48 c4bd a8a7 6c3d a843 29bd
000003c0: 8868 ef3d 202c 83bc a35a a43d 86a2 2fbe
000003d0: bd3c b33e f7bf af3e 796e 53bd 0589 c9bc
000003e0: 09fc 8fbe d9e1 76be 662f 5bbe f475 8c3d
000003f0: 52f6 4bbe 921a 0f3e 50b4 403d 14b5 073d
-0.14039981 -0.049020387 0.022912659 -0.029223103 -0.07838563 0.18075423 -0.012451226 0.21157467
0.25668564 0.1270954 -0.017363548 0.17043388 -0.105812654 0.027623221 -0.20033872 0.039657354
0.059117734 -0.008740246 0.043931454 0.1002669 0.1109502 0.16510823 0.38755018 0.047428552
-0.2703158 0.009613172 0.088781774 -0.24964978 -0.16325586 0.012132325 -0.1976891 -0.015945613
0.10634327 0.18803886 -0.18678859 0.05240825 0.16160882 0.04745248 0.059801936 -0.19784737
-0.036095023 -0.10515195 0.13505667 -0.20369631 0.38331112 0.045993745 -0.07458443 -0.49291214
0.00449611 0.18847804 -0.017187532 0.10346554 0.3048705 0.06391707 0.04757929 0.17674974
-0.07064088 -0.03134334 0.11787838 0.21276453 0.070577055 0.046675146 -0.10051187 0.0133600235
-0.028393283 0.02227661 0.6033929 -0.15438591 -0.06085333 -0.31634086 -0.08507094 0.08263183
0.4214632 0.2422416 0.2503786 -0.10686112 -0.15128021 0.04704073 0.19411889 -0.115122356
-0.094016075 0.16046417 0.06744477 0.18371043 0.021668047 -0.13205475 0.16463181 0.20020583
0.55230445 -0.2002692 -0.3625561 -0.5391824 0.10170869 0.24871306 0.22612922 -0.031265646
0.30910257 -0.12205914 0.13579372 0.005322799 0.08432412 -0.022651449 0.09195787 0.16440377
-0.18926974 0.12977988 0.1900717 0.12230405 0.10172212 -0.04550661 -0.30754378 -0.119181834
-0.17082673 -0.04771393 0.11340803 0.27479357 -0.010344612 0.2488504 0.16991587 0.1204091
-0.040400773 -0.08007951 -0.040216118 0.05861345 0.036905825 0.2075628 0.19277579 0.03202997
-0.033768386 -0.033163622 -0.05815363 0.115783155 -0.13612407 0.04312301 0.0414094 0.40528682
0.39366242 -0.19254214 -0.10706057 -0.19798954 0.017297385 0.0014692396 0.08922824 0.092371374
0.08634055 -0.12774573 0.13442639 -0.060541153 -0.052569553 0.019937903 0.147576 0.15262696
-0.0764671 0.0041880906 -0.7593165 0.05421857 0.24014962 0.36712128 0.06639789 -0.3998589
-0.14463244 -0.18079002 -0.3394521 0.010758668 0.10274008 -0.036053494 -0.1139675 0.0819104
0.10758722 0.14027247 0.040210307 -0.110446535 -0.057112068 0.13466907 0.085246295 -0.0519187
-0.06242943 -0.2804043 -0.002242239 0.32684672 0.036614385 0.07796815 -0.27165723 0.08017635
0.071152546 0.12848032 0.19182938 0.001976952 -0.16869412 0.018528864 -0.21164216 0.032917053
-0.14038798 0.12029651 0.1105552 -0.04730995 -0.113868356 -0.12329786 0.13708128 0.14476724
0.08734679 -0.020417973 -0.41914004 0.086606815 -0.05407461 0.0073339227 -0.14498103 -0.16984642
0.20079082 -0.088579595 0.18850785 -0.17371158 0.038270175 0.19644278 -0.20980379 -0.18060121
-0.15269949 -0.030652776 0.051560342 -0.19551834 -0.6592458 0.04797214 0.13754289 0.44909096
0.21143113 -0.18071604 -0.28573135 -0.22159222 -0.19425221 -0.071006 -0.17976923 0.15769798
0.021393016 0.12140164 0.13626784 0.1949665 -0.17295463 -0.095842354 0.057777077 -0.041324288
0.1168986 -0.016012251 0.080251 -0.17151842 0.35007277 0.34326145 -0.051619027 -0.024601469
-0.28121975 -0.24109592 -0.214048 0.06858435 -0.19918182 0.1397498 0.04704696 0.033131674

fc1.bias f4 [100]
00000000: c6f7 a2bd 8124 053e e25b 1dbd f18a c3be
00000010: d6c2 ffbd 119e 97be c12d e0bc d955 c93e
00000020: bb87 0bbc d3c8 8d3d fab2 853e 1d9b f93c
00000030: 18b1 8dbc 9253 21bb 92f7 843c 3444 c6bd
00000040: f774 fcbd 039f ad3d 12c5 3d3e 46f5 95bd
00000050: 1b7b 603e 4c1d abbe 148c 863e 7aea eb3d
00000060: b7b9 823e ab68 84bc 4bd8 d63d 8b4e 76bd
00000070: 2c3c 583e 4496 8dbe 847c 133e 6142 55bd
00000080: 5a93 65be 6cb2 003e 7d98 b43d 66d0 103e
00000090: 9987 d93d 116a 853e 0c76 4cbe f09b e53d
000000a0: b0c7 6dbe 3e8a 933e 118f ac3c 8da6 bfbc
000000b0: dabc dd3d 0c61 763e 628b 59be 1948 a53d
000000c0: 93b2 7e3e b28a 3fbe 4ef9 8ebd 5e19 b43e
000000d0: 425a d03b 47ee b0be 318f aebd 7f55 a7bd
000000e0: 8dfe 02bd e511 1fbe 3836 e73e b4dd 2bbe
000000f0: 1876 d63c 8ea2 68bd 54e6 1fbe 0f6b 1dbe
00000100: f26a 6fbe 9feb 93be db9a 9b3d 5794 823c
00000110: ce69 e93d 2193 663e e6e8 dbbc 25c4 b23e
00000120: 9729 413e fcc7 323e ab0b 98bd 8869 40bd
00000130: bb5e 1b3e 0a96 d73d 68a5 af3e 656e 95be
00000140: 599b 36be 24ab 95be 92f0 1d3d 5c3e 663e
00000150: 073b 14bd 13a1 983e 0062 15be 2786 ac3e
00000160: 82c3 3a3e 6262 923e d86b f93d 22b4 293e
00000170: 4fec b4be 471b 143d 5ecd fdbd cf0e 9b3e
00000180: 0321 93be a9ff 713c 7691 a43e 0f11 94bd
-0.07957415 0.13002206 -0.038417704 -0.3819194 -0.12488334 -0.29612783 -0.027365567 0.3932331
-0.008516247 0.0692307 0.2611311 0.030469472 -0.017296359 -0.0024616462 0.016231332 -0.096809775
-0.12326997 0.08477595 0.18532208 -0.07322173 0.21921961 -0.3342079 0.26278746 0.11519332
0.25532314 -0.01616319 0.10490473 -0.0601335 0.21116704 -0.27653706 0.14402968 -0.052065257
-0.22419491 0.12568063 0.08818147 0.14141998 0.10621566 0.26057485 -0.19966906 0.11211383
-0.23220706 0.28816408 0.021064313 -0.023394847 0.10827036 0.24060458 -0.21244577 0.08070392
0.24872808 -0.18705252 -0.06981145 0.35175604 0.006358416 -0.3455679 -0.08523405 -0.08170604
-0.03198104 -0.1553417 0.45158553 -0.16783792 0.026179358 -0.05679565 -0.15615207 -0.15372871
-0.2338064 -0.28890702 0.07597896 0.015939875 0.11397134 0.22517063 -0.026844453 0.3491527
0.18863522 0.174591 -0.074241005 -0.046975642 0.15172856 0.105266646 0.34305882 -0.29185787
-0.17832698 -0.29232132 0.038559504 0.22484726 -0.036189105 0.2981039 -0.14588165 0.336961
0.18238643 0.28590685 0.12178773 0.16572621 -0.3533654 0.036158826 -0.12392686 0.30284736
-0.28736123 0.014770427 0.32142228 -0.07229816

fc2.weight f4 [100, 100]
00000000: b538 1cbf af76 1a3f 857a 92be ba79 89be
00000010: 2b9b debc 658d 2dbf 26fb 9b3e 3891 883e
00000020: 08de 4abe 16e7 2e3c 412d ba3d 413d 733e
00000030: 754d e9bd 2baa fb3d d927 9f3d 663e 2d3e
00000040: ab8d 773d 9465 4c3e c492 cb3e 5e41 82be
00000050: 60e4 fbbd 9360 6cbe 6dab 7f3e 67a6 923e
00000060: 66af 213f c462 da3d 6ba8 82be 3ecc b1bd
00000070: 9ad7 873e bcc6 9fbe 7dab 803e 9874 da3d
00000080: be75 ecbe 8035 e9bd e4d2 123e 5899 a23e
00000090: 39e0 cd3c e000 063e d458 82be a6e4 853e
000000a0: 1017 8fbe 35bf ab3e 579d 5fbe 90d8 1abe
000000b0: b2ad 2b3e 3062 953e 40b3 b4be 29fa 693d
000000c0: 0f99 3a3e 82a4 abbe 3896 91be 80d8 c93e
000000d0: be09 abbc d76c 02bd 6b01 a83d 27bf bb3d
000000e0: d22d bfbe 99cc 8cbd f895 b73e 45ff cebe
000000f0: cc3a eb3d 6c2d e93d de6e bcbd aef5 103c
00000100: 9de4 96bd 6fc4 8abe e456 51be 09b1 3cbd
00000110: fdd1 063e 3318 853e d3ac 77be 92a5 e33e
00000120: 54a5 283e a28b 983e 7eb6 11bf d060 733e
00000130: 20d6 643e 59c8 9b3c 74b8 cb3e 2165 08be
00000140: 988a 07be 4967 4abf b911 613d ae41 4f3b
00000150: 2b71 8a3e 0f7d a73e fa6f c9bd ec6a 013e
00000160: e4a0 04bd 7742 b13d ba51 08bd ca32 7a3e
00000170: 9210 f4bd 4311 4e3e 2b10 1abf 1be7 373e
00000180: c913 a7be f5d9 8f3e 7635 6e3e 5792 c43d
00000190: f30f 91be b919 27bc b561 8c3d 9acf 8b3c
000001a0: b5ff 1cbe 83de d1be 7078 01be 75ed 3d3e
000001b0: 5d55 81be 5034 6f3f 154a 043c 31db 803d
000001c0: 47c4 a4be f105 36be 1813 963e d41d 573d
000001d0: 52af c6be 3800 c03e dba4 fb3e 2156 1bbe
000001e0: da0f c13e f0b0 cebd 4290 193d 9f12 cd3d
000001f0: 1738 443e 929d 163e 811d a83d 2a25 eebe
00000200: a019 e93d d0db 9dbe db90 ac3e 8ccd 29be
00000210: 64fa ab3d bfd6 533e ed70 50bd d36f f83d
00000220: e3d8 56be a071 ca3d 3b42 afbc 334a 823e
00000230: 55a4 03be fdeb 893c 5790 493d a57f 09bf
00000240: 3776 b63d 0c6e d0bd 0c36 91bb 0ba4 17bd
00000250: 5200 0ebf e013 d4be 9f46 b8be 1e76 a43e
00000260: c51c ab3d 8ab0 dfbe c843 23bc 34b5 c3be
00000270: 6588 133e 8d23 c2be bdcb b03d f499 f9be
00000280: b7b2 0e3e cb35 65be bf9a abbe 1970 a2be
00000290: 985b afbe c0f7 a3be c324 88be dcdd b7be
000002a0: 13d3 7b3e 4b55 cb3e 2b31 c63d b6ff a13e
000002b0: a404 013d 1942 a8be 93b5 67be 275e f0be
000002c0: 0fe7 c33c 33e1 d13d c4ea 4a3e b5c5 febe
000002d0: a7a7 58be 3272 72be 92f5 0bbe c81e 8d3e
000002e0: 59f1 4cbe 311d 203f 56c9 64bd 6abd 323e
000002f0: 0cfb ba3e d601 263e f815 ffbc c68a 373e
00000300: 5025 9dbc 85cb 653d 324a 22be 5b5c 0c3e
00000310: 285e 67bd 17af 18be e6cd be3e 7e01 8cbd
00000320: 55af 12bf 8da8 353f 66ab ccbe f2f5 c4be
00000330: 9be9 92be c81e 5abf 2ae3 a93e 41a3 bb3e
00000340: faa5 12be ada3 93bd 640c a93e 0196 0e3f
00000350: 44c6 b73e 28d5 d73d af88 20bb d879 5d3e
00000360: 8860 8dbe eeb2 9f3e 38fe f93e 582d c8be
00000370: d31a d63c 8767 20bf 958c c33e 2202 0b3f
00000380: d185 5d3f 4d04 5d3e a016 d8be 827c f33d
00000390: ea78 fb3e f9c1 22bf 9a19 153e dbd8 863e
000003a0: 18af 1fbf 5ed2 803d 3ecf 773d 8ae7 003f
000003b0: ebb5 143e 2024 853e e5cd 48be 69d7 823e
000003c0: 8216 d7be 09c6 453f f8a3 c8be 92ca c8be
000003d0: b779 da3e 26ff a13e 1e17 16bf 4180 8d3d
000003e0: 49be 253f 40f0 8ebe 5079 963e 1f7a dd3e
000003f0: 7b38 0fbf d41c 1bbe 70b9 c03c 504a a93e
-0.6102403 0.60337347 -0.286091 -0.26850682 -0.0271736 -0.67793876 0.3046505 0.26673293
-0.1981126 0.010675212 0.09090663 0.23753835 -0.11391727 0.12288316 0.07771272 0.16918334
0.06043784 0.19960624 0.3976041 -0.25440496 -0.122994184 -0.23083715 0.24967737 0.2864258
0.6315826 0.10663369 -0.25519118 -0.08681534 0.26531678 -0.3120631 0.25130835 0.1066677
-0.4618358 -0.113871574 0.14338261 0.31757617 0.025131332 0.13086271 -0.25458395 0.26151007
-0.27947283 0.33544317 -0.21837364 -0.15121675 0.16765478 0.29176474 -0.35293007 0.057123337
0.1822245 -0.33523947 -0.2843492 0.3942299 -0.020878669 -0.03184208 0.082033955 0.09167319
-0.37339646 -0.068749614 0.35856605 -0.4042913 0.11485824 0.11385617 -0.09200834 0.008847637
-0.07367823 -0.27102992 -0.20443302 -0.04606727 0.13166042 0.25995025 -0.24187021 0.44462258
0.16469318 0.2979403 -0.56919086 0.237674 0.22347307 0.019016432 0.39789164 -0.13319828
-0.13236463 -0.7906385 0.054948542 0.0031624842 0.27039465 0.327126 -0.09835811 0.12638444
-0.03238 0.08655255 -0.033281066 0.24433437 -0.11917223 0.20123772 -0.6018092 0.17959253
-0.32632282 0.28095976 0.23262581 0.095982246 -0.2833248 -0.010199004 0.06854574 0.017066766
-0.1533192 -0.40990075 -0.126436 0.18547614 -0.2526044 0.934392 0.008074303 0.062918074
-0.32180998 -0.17775704 0.29311442 0.05251868 -0.38805634 0.37500167 0.49149212 -0.15169574
0.37707406 -0.10092342 0.03749109 0.10013317 0.19162022 0.14708546 0.082087524 -0.4651273
0.11381841 -0.30831766 0.33704266 -0.16582316 0.083973676 0.20687388 -0.050888944 0.12130704
-0.20981173 0.098849535 -0.021393886 0.25447235 -0.12855656 0.01683616 0.04920992 -0.53710395
0.089092664 -0.1017724 -0.0044314917 -0.037021678 -0.5546924 -0.41421413 -0.3599138 0.32121366
0.08355097 -0.43689376 -0.009964891 -0.38224185 0.14407499 -0.37917748 0.0863261 -0.4875027
0.13935362 -0.22383802 -0.335165 -0.3172615 -0.34249568 -0.32024956 -0.26590547 -0.35911453
0.24592237 0.3971351 0.09677347 0.31640404 0.031498566 -0.32862929 -0.22627859 -0.46946833
0.023913888 0.102480315 0.19816118 -0.49760213 -0.21157704 -0.23676375 -0.13667896 0.27562547
-0.20013942 0.6254454 -0.05585607 0.17455068 0.3651966 0.16211638 -0.031138405 0.17924032
-0.019182831 0.056102294 -0.15848616 0.13707106 -0.05648628 -0.14910541 0.37266463 -0.06836222
-0.57298785 0.70960313 -0.39974517 -0.3846889 -0.28693852 -0.8520322 0.33181125 0.3664799
-0.14321128 -0.07208953 0.33017266 0.5569764 0.35893452 0.10538703 -0.0024495532 0.21628511
-0.2761271 0.311912 0.48826766 -0.39097095 0.026135838 -0.6265797 0.38193193 0.5430013
0.8653231 0.21583672 -0.42204762 0.11888982 0.49115688 -0.6357723 0.14560547 0.26337323
-0.62376547 0.06290124 0.060500376 0.503533 0.14522521 0.26004124 -0.19609793 0.2555497
-0.4200936 0.772553 -0.39187598 -0.3921705 0.42670986 0.31639975 -0.58629024 0.06909228
0.6474348 -0.2791767 0.2938943 0.43257234 -0.5594556 -0.15147716 0.023525923 0.33064508

fc2.bias f4 [100]
00000000: 2c5a 333f 085c 9b3e 1b83 553f 212b 72bf
00000010: d596 7a3f e64a a6bd d94e 68bf c34c 5ebe
00000020: f4f4 6f3f c27b 99be ad66 513c a6c4 503f
00000030: e71a c63c 0b68 783f 5372 c83d e397 713f
00000040: a8e7 4ebc a5d4 55bf e0be 71bf e11f 58bf
00000050: 2049 613d 9e95 383f 6f47 e0bc 438d 2ebc
00000060: fd26 eebd 2c38 a23e 33d3 583f c640 063c
00000070: 2cc6 773f 80dc 9fbe 4bcf 683f 0a0f 7b3f
00000080: c77b 9d3c 51c5 7ebf 4cfd e9bc 5ebe 033d
00000090: 5328 543f ece1 663f ca25 303d 55b6 903c
000000a0: 3412 a9be 3b2e f9bc 4cdc 5c3f 28bc 17be
000000b0: af4e e4bb d920 493d 2eb6 e2bd b36e 653f
000000c0: 834b 48bf bf58 6bbf 74d2 c93e 35ae 2bbd
000000d0: 08b8 a5bc a768 5c3f 70de 323e bf9f 0a3c
000000e0: 6d21 76bf 4cfa cdbe ba5a 68bf f9f3 51bf
000000f0: fbf9 e1bc d596 6f3f c2e2 6c3f ade8 6f3f
00000100: a66a 8abc 0be7 1dbe d543 5f3f 00da 57bf
00000110: 55bd 1a3d 7d2e 5abf c7b2 1b3e cd0f f93d
00000120: b599 6e3f 05dd 743f 71e5 73bf 2765 1fbf
00000130: 64d9 22bd 1b8f 03bf c807 04bf 0a24 5e3f
00000140: b2ce 6abf 854e 893e 8d52 6bbf 6b33 47bf
00000150: 4706 6abf 7f69 33bc bf75 5abf e081 d1be
00000160: f539 463f 5054 743f c9ad 5b3f d3f8 613e
00000170: 8576 653f c93f 5e3e b67b 6abf 7056 74bf
00000180: 35ea 553f 748c 8ebd 19d9 c3be 3657 eabd
0.70059466 0.30343652 0.83403176 -0.9459706 0.978864 -0.081197545 -0.9074531 -0.2170897
0.93733144 -0.29977232 0.0127808275 0.8155006 0.02418275 0.97033757 0.097874306 0.94372386
-0.012628473 -0.83527595 -0.9443188 -0.84423643 0.055001378 0.721033 -0.027377812 -0.010653797
-0.1162853 0.3168348 0.84697264 0.008194154 0.9678676 -0.31222916 0.90941304 0.9806982
0.01922406 -0.9951983 -0.028563164 0.03216397 0.8287403 0.9018848 0.04300479 0.017665068
-0.330217 -0.030417552 0.86273646 -0.1481787 -0.0069673876 0.04910359 -0.11069904 0.8962204
-0.7824022 -0.9193229 0.39418375 -0.041914184 -0.020229355 0.86097187 0.17467666 0.008460938
-0.96144754 -0.40230024 -0.9076344 -0.820129 -0.02758502 0.93589526 0.92533505 0.9371441
-0.016896557 -0.15420167 0.8721288 -0.84317017 0.037778217 -0.85227185 0.15204917 0.12161217
0.9320329 0.9564975 -0.95271975 -0.6226372 -0.0397581 -0.51390237 -0.51574373 0.8677374
-0.9172164 0.26817718 -0.9192284 -0.7781283 -0.9141583 -0.010950445 -0.85335916 -0.409194
0.77432185 0.9544115 0.8581205 0.22067575 0.8963397 0.2170402 -0.9159502 -0.95444393
0.83560497 -0.06960383 -0.3825157 -0.114424154

fc3.weight f4 [2, 100]
00000000: 645c f1be 786f ddbf 509a 0cbf e7ab 173f
00000010: 2af5 17bf 5138 f1bf 3f15 103f e981 d53e
00000020: 36ba f9be b14b a93e ff73 03c0 e019 09bf
00000030: ed78 e53f b65f 10bf 053f f23f 960c 11bf
00000040: 73bf e5bf 3210 173f acbf 133f 0c05 0a3f
00000050: 9112 ee3f b280 f0be 8afb 06c0 8ff4 ed3f
00000060: 9795 f6bf debd d4bf 327d 1abf bdec fb3f
00000070: 9116 05bf a842 103f f640 ecbe 9c0d 0fbf
00000080: c96c fcbf 7c47 153f 875f eb3f 575e f8bf
00000090: 8e19 1abf 02bf 11bf 0402 0340 c132 eabf
000000a0: cde3 fe3e 3522 f23f fa60 13bf 4c5f f13e
000000b0: 0f1d c9bf 957c e63f 1003 093f bca1 0dbf
000000c0: 0862 0d3f 4656 163f 0869 06bf 17c8 0140
000000d0: c1ad 503f b6d7 00bf ab80 d6bf 6d45 febf
000000e0: 10c2 0e3f 9346 ed3e 1ceb 1b3f b09b 153f
000000f0: 815d ecbf b922 19bf da55 06bf 1860 f4be
00000100: 7924 fcbf fded c33e 985f 10bf 38bc 063f
00000110: 88f5 0840 b6f0 103f 1dae 0040 f062 f1bf
00000120: c6ba 15bf f6d8 12bf 0986 013f 0da0 ef3e
00000130: ed6a f53f ed7f 833f 9801 f23f d626 f4be
00000140: 088a 183f f5f6 babe c6b7 093f 5a88 fa3e
00000150: 7e75 203f 5b70 e9bf 22cb 043f 3243 dc3f
00000160: 10dd f4be ecbf f5be 5a46 05bf 5f64 cdbe
00000170: 519c 12bf c40a d7bf 2cbd 0a3f f09b 0b3f
00000180: aada ebbe ab33 eb3f 8598 163f 0430 09bf
00000190: a40e d9bf 3b12 40be 523c d9bf aecf da3f
000001a0: b8c9 debf b708 5bbf 1ed6 e03f 0daf fb3f
000001b0: 6cf2 dabf 8fb3 fe3f 1368 babe dc5c dcbf
000001c0: aeee cd3e 5c55 dabf 6fa5 7f3f 3851 dabf
000001d0: acac acbf 9260 e13f 40f3 da3f 6480 dc3f
000001e0: a430 a93f b612 ddbf fd15 b1be 84fb 4c3f
000001f0: 06d2 3dbf a20b babe 403e dcbf 86e3 7b3f
00000200: 7665 dcbf 7675 f03f d870 dcbf 5c51 dbbf
00000210: f4f4 5fbf 7c0f cd3f 94bb 913f 8053 4abf
00000220: ac8a e0bf ccbd dbbf 9927 853f 9e53 2ebf
00000230: e183 f13f 5449 3b3f d651 d8bf 7896 f43f
00000240: 7456 cfbf e85e a83f f832 ec3f 5225 e1bf
00000250: 6a25 e33f 627b df3f 2a2b f3bf 5bc7 c73e
00000260: bc02 ec3f 0cff d9bf 1633 debe 9e1e 4abf
00000270: c870 da3f 0a47 f33f 8878 de3f 0e51 da3f
00000280: 64dd 90bf a6e9 d3bf e020 dcbf 9a25 ddbf
00000290: c80e 54bf ddd8 f63f 826d dcbf a230 dc3f
000002a0: 429a 793e 5aee d43f a8b5 8f3f 9da9 23bd
000002b0: 345f dcbf 966e d8bf 3823 dd3f a609 dc3f
000002c0: bee2 5f3f b04a c73f 7a56 093e dc59 dbbf
000002d0: 7215 dc3f 715e febf dce5 da3f 6860 e03f
000002e0: 5a0e dc3f e255 43bf be21 dc3f 8647 973e
000002f0: 79e2 dcbf a461 dbbf eed1 dbbf c0fe f0bf
00000300: bbc4 d9bf 57e0 3cbe 94e2 db3f dae0 db3f
00000310: 3613 ddbf c86a 903f 410a e33f 56eb f9bf
-0.471408 -1.7299643 -0.5492296 0.5924668 -0.59358466 -1.8845311 0.5628242 0.41700676
-0.4877488 0.3306556 -2.0539548 -0.5355511 1.7927529 -0.56396043 1.8925482 -0.5665983
-1.7949051 0.5900909 0.57714343 0.5391395 1.8599416 -0.46973187 -2.1091027 1.8590258
-1.9264401 -1.6620443 -0.6034728 1.9681622 -0.5198756 0.5635171 -0.4614331 -0.5588014
-1.9720699 0.583122 1.8388528 -1.940379 -0.60195243 -0.5693208 2.046998 -1.8296739
0.49783173 1.8916689 -0.5756985 0.47143018 -1.5711993 1.800677 0.535203 -0.5532491
0.5522771 0.5872539 -0.52504015 2.0278375 0.8151513 -0.5032915 -1.6758016 -1.9864937
0.55764866 0.46342906 0.60905623 0.58440685 -1.8466035 -0.5981861 -0.5247475 -0.47729564
-1.969863 0.38267508 -0.56395864 0.5263095 2.139986 0.56617296 2.010627 -1.8858318
-0.5848812 -0.57362306 0.50595146 0.46801797 1.9173256 1.0273415 1.8906736 -0.4768588
0.5958562 -0.36516538 0.5379604 0.48932153 0.6267928 -1.8237413 0.51872456 1.7208006
-0.47824907 -0.47997987 -0.5206047 -0.4011564 -0.5726977 -1.680016 0.54194903 0.54534817
-0.46065265 1.8375143 0.58826476 -0.5358889 -1.6957593 -0.18756954 -1.6971533 1.7094629
-1.740531 -0.8556017 1.7565343 1.9662796 -1.7105231 1.9898547 -0.36407527 -1.7215838
0.4022116 -1.70573 0.99861807 -1.7056036 -1.3490195 1.7607596 1.7105484 1.7226682
1.3217969 -1.7271335 -0.34587088 0.8007128 -0.74148595 -0.36337 -1.7206497 0.9839405
-1.7218463 1.8785846 -1.7221937 -1.7134204 -0.87483144 1.602035 1.1385369 -0.7903366
-1.7542319 -1.7167296 1.0402709 -0.6809634 1.8868371 0.73158765 -1.6899974 1.910842
-1.6198258 1.3153963 1.8453054 -1.7589514 1.7745793 1.7459528 -1.8997548 0.39019284
1.8438334 -1.7030959 -0.4339835 -0.7895297 1.7065668 1.9006054 1.7380533 1.7055986
-1.1317563 -1.6555679 -1.7197533 -1.72771 -0.82835054 1.9284931 -1.7220919 1.7202342
0.24375251 1.6635239 1.1227312 -0.039956678 -1.7216554 -1.6908748 1.7276373 1.7190444
0.87455356 1.5569668 0.13411894 -1.7136798 1.7194045 -1.9872571 1.7101398 1.7529421
1.719188 -0.7630292 1.7197797 0.29546756 -1.7256614 -1.7139173 -1.717344 -1.8827744
-1.7013162 -0.18444954 1.7178521 1.7177994 -1.7271488 1.1282587 1.7737504 -1.9524944

fc3.bias f4 [2]
00000000: 1857 ebbe 6b46 c1bf
-0.45964885 -1.5099615

fc1.weight f4 [100, 22]
00000000: 1579 d1a5 f0d7 f026 38ba 0f26 2d6f 2227
00000010: 3918 9225 2f08 0525 4a95 cb24 41c3 9ba5
00000020: f225 dd24 bb9c 0080 096d 0200 1f1b 0800
00000030: f147 0400 5f36 0c80 340d 0900 7aba 1280
00000040: 2b2d 0800 0c35 0580 5db2 0980 ecd6 1680
00000050: 8d1b 0a80 2008 b600 ccaa 941b b405 401e
00000060: 1325 0c9d b343 511e eeb1 aa1e 3012 589b
00000070: 3d12 9e9c b073 839d 5d03 8a9c 588e 0100
00000080: 2e89 0e80 9e8a 1100 f242 1200 e243 0200
00000090: 7572 0a80 86a3 0d00 54ed 0b80 1442 1080
000000a0: 1148 0b80 dc98 1080 a430 1380 0f55 0c80
000000b0: 3315 a8b5 0df6 bc35 0c0b fa34 6887 b836
000000c0: 3837 4f36 d0de ceb2 9629 49b4 7c99 bdb4
000000d0: cc99 2fb4 8e48 1300 ac53 0080 b08b 1100
000000e0: da70 0a80 81a0 0780 a024 0180 89b5 0680
000000f0: ee23 0180 9845 0e00 7eb8 0080 bd0d 0c00
00000100: 2c11 1400 2b38 0800 24eb cabd 7fd6 a43b
00000110: 3674 c83b e63d 213c 5e5c 043c b90e 313d
00000120: ff9e 163d 3ac3 b23c cd73 1a3d 4186 0580
00000130: f2c1 0900 3d41 0e00 c91a 1580 c855 0500
00000140: 794d 0c80 89ec 0700 1fd1 0e00 9bb5 0400
00000150: 3c34 1500 4e87 0800 5488 0280 9773 0780
00000160: 57f7 dd20 26c2 42a1 281d 3ba0 07a9 9aa1
00000170: 8850 d49d e6ff 7d20 e2fd 8020 e2b8 9620
00000180: 4384 8020 633b 0580 f87f 0f00 2d3a 0580
00000190: d05e 1700 3211 0100 d6cc 0300 8b25 1880
000001a0: 6537 1600 f754 0580 6b3d 0980 5339 1600
000001b0: 0503 0f00 b23c 1080 6ae1 9736 af5a 10b7
000001c0: 51e2 56b7 5a94 73b7 371b 0d35 1991 4b36
000001d0: b224 4e36 64aa 7536 e874 4d36 063f 0a80
000001e0: 79b7 0980 cae2 0580 18e6 1500 7b69 0100
000001f0: b377 1280 c28a 0900 ec72 1300 4726 1980
00000200: 4682 0200 c262 1680 e292 1300 2e94 1480
00000210: d0c4 4537 fbc2 833a 30b3 a13a 7b02 a639
00000220: 08cb 7eba 5bb5 5fb9 5e11 65b9 e725 3db9
00000230: b471 64b9 2de8 1380 146d 0900 820d 0500
00000240: 5cae 1000 4ab1 0080 b106 0300 a8d0 0380
00000250: 6b3b 0480 bb68 0a00 3625 0b80 506d 0800
00000260: 5791 0880 d43a e902 3140 f9b3 461b b033
00000270: 4793 0033 6fe2 a034 7e4c 1134 4461 81b3
00000280: 9fbf 88b3 99af b7b3 fe57 87b3 08de 1400
00000290: 3344 1000 4737 1100 7fc7 0e80 8c8e 1200
000002a0: d6de 0880 400e 0600 c9bb 0080 fa29 0600
000002b0: e551 1200 0822 0100 20d6 0780 b177 0b00
000002c0: 85f4 e3b2 069e 0db2 01c1 9fb1 ba35 49b2
000002d0: 94d3 ee30 b221 e430 ae86 da30 bb74 57b0
000002e0: 8eda df30 c6f4 0100 8267 0b80 1943 0e80
000002f0: faa4 0e80 fdbf 1380 8151 1500 7da7 0b80
00000300: 3412 0f00 43ba 0f80 8ae0 1480 1aab 1480
00000310: 321a 0b80 ff50 0d80 24eb cabd 7ed6 a43b
00000320: 3674 c83b e73d 213c 5c5c 043c b80e 313d
00000330: ff9e 163d 39c3 b23c cd73 1a3d 24eb 0080
00000340: 06b0 1580 ae2c 0580 a214 0e80 5ab0 1580
00000350: e3f2 0600 9f07 0500 eaf9 0e00 1e67 0780
00000360: 742e 0180 0cf4 0900 9f8e 0b00 54dd 0a80
00000370: 25eb ca3d 7ed6 a4bb 3374 c8bb e53d 21bc
00000380: 5c5c 04bc b90e 31bd fd9e 16bd 38c3 b2bc
00000390: ce73 1abd d1b1 0600 174c 0900 e133 0580
000003a0: a12b 0280 c3b0 0500 2745 1600 4b27 0580
000003b0: dca2 0a00 4644 1100 5bb4 1780 a791 1500
000003c0: 985f 0080 988c 0300 24eb ca3d 7fd6 a4bb
000003d0: 3474 c8bb e73d 21bc 5b5c 04bc b70e 31bd
000003e0: fe9e 16bd 39c3 b2bc ce73 1abd e051 0280
000003f0: 37ee 0c80 1853 0100 03a4 0a00 2cd1 0600
-3.633777e-16 1.6711875e-15 4.9865465e-16 2.2542285e-15 2.5343377e-16 1.1538684e-16 8.829012e-17 -2.7020523e-16
9.5907754e-17 -5.6224e-41 2.22785e-40 7.44413e-40 3.9315e-40 -1.12153e-39 8.31256e-40 -1.719934e-39
7.50887e-40 -4.78207e-40 -8.90504e-40 -2.09748e-39 -9.28238e-40 1.6716975e-38 2.459492e-22 1.0165575e-20
-1.8548013e-21 1.1078368e-20 1.807304e-20 -1.7872978e-22 -1.0460277e-21 -3.479503e-21 -9.132943e-22 1.42899e-40
-1.334908e-39 1.61093e-39 1.677054e-39 2.08023e-40 -9.59414e-40 1.252523e-39 -1.095328e-39 -1.493072e-39
-1.036043e-39 -1.524204e-39 -1.762323e-39 -1.132539e-39 -1.2523145e-06 1.4078702e-06 4.6574166e-07 5.4993907e-06
3.0877545e-06 -2.408288e-08 -1.8734713e-07 -3.5315668e-07 -1.6354096e-07 1.770902e-39 -3.0016e-41 1.611314e-39
-9.58838e-40 -7.00426e-40 -1.04974e-40 -6.16136e-40 -1.04725e-40 1.310662e-39 -6.6183e-41 1.106954e-39
1.84287e-39 7.54833e-40 -0.09908131 0.0050304527 0.006117369 0.009841418 0.008078663 0.04322693
0.036772724 0.021821607 0.037708092 -5.07339e-40 8.96094e-40 1.3091e-39 -1.938154e-39 4.8995e-40
-1.129818e-39 7.27701e-40 1.360715e-39 4.3249e-40 1.947284e-39 7.83222e-40 -2.32576e-40 -6.84314e-40
3.7602532e-19 -6.598671e-19 -1.5849163e-19 -1.0480187e-18 -5.61992e-21 2.1514603e-19 2.185205e-19 2.5533334e-19
2.1771567e-19 -4.80481e-40 1.423439e-39 -4.80047e-40 2.146229e-39 9.8004e-41 3.48988e-40 -2.21752e-39
2.040253e-39 -4.89657e-40 -8.48552e-40 2.040945e-39 1.378616e-39 -1.491141e-39 4.5263923e-06 -8.604183e-06
-1.2808087e-05 -1.45184695e-05 5.2566196e-07 3.0333815e-06 3.0717752e-06 3.6607025e-06 3.0615429e-06 -9.40964e-40
-8.92337e-40 -5.40534e-40 2.011088e-39 1.29675e-40 -1.695979e-39 8.76296e-40 1.7861e-39 -2.309619e-39
2.30404e-40 -2.055809e-39 1.797566e-39 -1.889867e-39 1.1787939e-05 0.0010052616 0.0012336727 0.00031663835
-0.0009719585 -0.00021334497 -0.00021845612 -0.00018038564 -0.00021786132 -1.828163e-39 8.6565e-40 4.64023e-40
1.531916e-39 -6.36e-41 2.77907e-40 -3.50358e-40 -3.88657e-40 9.55925e-40 -1.023539e-39 7.73898e-40
-7.86822e-40 3.4270039e-37 -1.16066424e-07 8.2006e-08 2.993627e-08 2.9967075e-07 1.3532005e-07 -6.024723e-08
-6.367849e-08 -8.5535426e-08 -6.302433e-08 1.91636e-39 1.493833e-39 1.581033e-39 -1.357263e-39 1.704175e-39
-8.14622e-40 5.56125e-40 -6.7365e-41 5.66071e-40 1.682417e-39 1.04044e-40 -7.19662e-40 1.053128e-39
-2.6537473e-08 -8.243211e-09 -4.649451e-09 -1.1711956e-08 1.7376913e-09 1.659876e-09 1.5899866e-09 -7.838243e-10
1.6287502e-09 1.79644e-40 -1.047322e-39 -1.309767e-39 -1.34488e-39 -1.813747e-39 1.957784e-39 -1.070274e-39
1.384062e-39 -1.44435e-39 -1.91726e-39 -1.89809e-39 -1.019588e-39 -1.222917e-39 -0.09908131 0.0050304523
0.006117369 0.009841419 0.008078661 0.043226928 0.036772724 0.021821605 0.037708092 -8.4353e-41
-1.991691e-39 -4.75206e-40 -1.293099e-39 -1.991808e-39 6.38144e-40 4.61911e-40 1.375349e-39 -6.7984e-40
-1.085e-40 9.14067e-40 1.061353e-39 -9.97753e-40 0.099081315 -0.0050304523 -0.0061173677 -0.009841417
-0.008078661 -0.04322693 -0.036772717 -0.021821603 -0.037708096 6.14801e-40 8.53815e-40 -4.77788e-40
-1.99322e-40 5.22588e-40 2.045188e-39 -4.73273e-40 9.76778e-40 1.585695e-39 -2.176916e-39 1.980796e-39
-3.4293e-41 3.25942e-40 0.09908131 -0.0050304527 -0.006117368 -0.009841419 -0.00807866 -0.043226924
-0.03677272 -0.021821605 -0.037708096 -2.13042e-40 -1.187481e-39 1.21644e-40 9.77191e-40 6.2605e-40

fc1.bias f4 [100]
00000000: ba03 53a5 1b4f 319d 9569 f5b4 9064 f1bd
00000010: 08f1 94a0 a229 73b6 c094 2839 b371 8f33
00000020: 705f eb32 9064 f1bd 8f64 f13d 8f64 f13d
00000030: 8c9f d836 8e64 f13d 9064 f1bd 9164 f13d
00000040: 9264 f1bd 9164 f1bd 143b f830 9364 f1bd
00000050: b60a adb5 cb7f d7b0 fb04 d536 8c25 85b2
00000060: 30b7 232b 053c b733 9164 f1bd 9364 f1bd
00000070: 0ea5 bfa7 9164 f13d 4c5c 8d39 6c17 8c32
00000080: d0b5 df2c 8f64 f13d 9264 f1bd 9d64 a4a9
00000090: 84af 70b6 010c a8b7 9c2c 89a1 8d49 cfb8
000000a0: f337 9a29 80a5 2436 b62c 1331 567a 8734
000000b0: fc3b e9b0 c679 d6b4 8f64 f13d 9164 f1bd
000000c0: 8438 7033 9164 f1bd 8f64 f1bd 9164 f1bd
000000d0: 9064 f13d ce3b 68b3 496a 03b4 9264 f1bd
000000e0: 062a 1539 9064 f13d 8e64 f13d 8510 9228
000000f0: 9164 f13d ae9f e6ae 9464 f13d b2a1 fca6
00000100: 8e64 f13d 7e68 242d 199e 2b30 9064 f1bd
00000110: 9064 f13d a50c 8dad 8f80 3b38 9064 f13d
00000120: 8e64 f13d 9064 f1bd 9064 f1bd 9264 f13d
00000130: 9064 f13d 9264 f1bd 8a1d 21b2 9064 f13d
00000140: a2ac 3c32 c75c 8939 d406 a824 9264 f13d
00000150: f2a5 5538 8f64 f13d 52e3 992a a4d7 b832
00000160: 9164 f13d 0e21 922c ff14 70b5 51de 19a7
00000170: 2714 6637 9264 f13d 9164 f1bd 8d64 f13d
00000180: 42f8 7936 9515 841e 14de 9129 9264 f1bd
-1.8302595e-16 -2.3466652e-21 -4.5711627e-07 -0.11786759 -2.5231676e-19 -3.6234055e-06 0.00016077142 6.679638e-08
2.7401e-08 -0.11786759 0.11786758 0.11786758 6.4558753e-06 0.117867574 -0.11786759 0.1178676
-0.117867604 -0.1178676 1.8061166e-09 -0.11786761 -1.2892622e-06 -1.567963e-09 6.3484745e-06 -1.5500312e-08
5.8163457e-13 8.532519e-08 -0.1178676 -0.11786761 -5.31921e-15 0.1178676 0.00026962382 1.6308796e-08
6.3582264e-12 0.11786758 -0.117867604 -7.300517e-14 -3.586495e-06 -2.003275e-05 -9.295289e-19 -9.884229e-05
6.8486795e-14 2.4534238e-06 2.141673e-09 2.523472e-07 -1.697003e-09 -3.9949208e-07 0.11786758 -0.1178676
5.5930755e-08 -0.1178676 -0.11786758 -0.1178676 0.11786759 -5.40711e-08 -1.2238992e-07 -0.117867604
0.00014225402 0.11786759 0.117867574 1.621642e-14 0.1178676 -1.0487554e-10 0.11786762 -1.752984e-15
0.117867574 9.345523e-12 6.243411e-10 -0.11786759 0.11786759 -1.603546e-11 4.4704004e-05 0.11786759
0.117867574 -0.11786759 -0.11786759 0.117867604 0.11786759 -0.117867604 -9.37815e-09 0.11786759
1.0982292e-08 0.000261998 7.286995e-17 0.117867604 5.0937706e-05 0.11786758 2.7335995e-13 2.1518481e-08
0.1178676 4.1532394e-12 -8.943752e-07 -2.1353533e-15 1.371376e-05 0.117867604 -0.1178676 0.11786757
3.7248396e-06 1.398497e-20 6.477818e-14 -0.117867604

fc2.weight f4 [100, 100]
00000000: 4c45 0ca6 e080 8b9b ca16 9bb5 68f0 943c
00000010: c553 1c21 7381 0237 8282 0dba 1cb4 76b3
00000020: 8e90 90b0 68f0 943c 66f0 94bc 67f0 94bc
00000030: de7e 8cb7 67f0 94bc 69f0 943c 68f0 94bc
00000040: 69f0 943c 6af0 943c a879 7532 6af0 943c
00000050: 90bd b3b7 8482 142e c463 77b7 22b4 9cb2
00000060: e9b2 04aa 8ace 5db1 68f0 943c 68f0 943c
00000070: 0036 27a4 69f0 94bc 5c43 103a 0907 3433
00000080: 1d4f 832d 67f0 94bc 69f0 943c 2e89 6327
00000090: 9126 0534 d9e6 c1b7 70af 2ea1 09c5 38b8
000000a0: 7afb 752a 142b 6c34 1f03 25ae 6692 77b4
000000b0: 4877 1cae c2cc 6633 69f0 94bc 68f0 943c
000000c0: 6607 e3b3 6af0 943c 67f0 943c 68f0 943c
000000d0: 68f0 94bc 44ec 6fb1 8314 8831 69f0 943c
000000e0: 5019 1339 67f0 94bc 66f0 94bc d5d4 2829
000000f0: 68f0 94bc 24cb 87ad 6af0 94bc 39e1 80a6
00000100: 66f0 94bc 9a1c 5d2e 6285 f2ad 68f0 943c
00000110: 67f0 94bc d48f adac 2638 aeb6 68f0 94bc
00000120: 67f0 94bc 68f0 943c 67f0 943c 69f0 94bc
00000130: 68f0 94bc 69f0 943c d1cd 7eb1 68f0 94bc
00000140: aa67 47b2 08ce 6bb9 7690 7725 6af0 94bc
00000150: 2c43 acb6 67f0 94bc f5da 27ac d447 be31
00000160: 6af0 94bc 520e 5dac ec93 ce32 f426 e026
00000170: b0be dfb7 68f0 94bc 6af0 943c 67f0 94bc
00000180: 6a98 2cb8 3992 4420 f0b6 b527 68f0 943c
00000190: 5745 0ca6 b480 8b9b d016 9bb5 55f0 943c
000001a0: c653 1c21 7581 0237 9782 0dba fcb3 76b3
000001b0: 9290 90b0 54f0 943c 55f0 94bc 54f0 94bc
000001c0: da7e 8cb7 56f0 94bc 55f0 943c 56f0 94bc
000001d0: 57f0 943c 55f0 943c ac79 7532 57f0 943c
000001e0: 99bd b3b7 5482 142e c163 77b7 20b4 9cb2
000001f0: eeb2 04aa 80ce 5db1 57f0 943c 59f0 943c
00000200: 403d 27a4 55f0 94bc 6143 103a 1107 3433
00000210: 154f 832d 54f0 94bc 57f0 943c 2689 6327
00000220: 8626 0534 eee6 c1b7 61af 2ea1 00c5 38b8
00000230: 70fb 752a a82a 6c34 be02 25ae 4792 77b4
00000240: 3078 1cae cecc 6633 56f0 94bc 55f0 943c
00000250: 7007 e3b3 59f0 943c 54f0 943c 57f0 943c
00000260: 56f0 94bc c0ed 6fb1 6214 8831 58f0 943c
00000270: 5719 1339 54f0 94bc 55f0 94bc d1d4 2829
00000280: 55f0 94bc e4ca 87ad 58f0 94bc 1be1 80a6
00000290: 55f0 94bc 981c 5d2e 3885 f2ad 55f0 943c
000002a0: 56f0 94bc 548f adac 4e38 aeb6 55f0 94bc
000002b0: 53f0 94bc 55f0 943c 56f0 943c 56f0 94bc
000002c0: 55f0 94bc 55f0 943c 04ce 7eb1 56f0 94bc
000002d0: ba67 47b2 64ce 6bb9 8a90 7725 58f0 94bc
000002e0: 1a43 acb6 54f0 94bc fdda 27ac e447 be31
000002f0: 55f0 94bc 700e 5dac 9293 ce32 0527 e026
00000300: acbe dfb7 56f0 94bc 55f0 943c 53f0 94bc
00000310: 6e98 2cb8 3592 4420 80b6 b527 57f0 943c
00000320: 4c45 0ca6 c080 8b9b cd16 9bb5 65f0 943c
00000330: c353 1c21 7381 0237 8782 0dba 1cb4 76b3
00000340: 9590 90b0 65f0 943c 65f0 94bc 65f0 94bc
00000350: df7e 8cb7 67f0 94bc 65f0 943c 66f0 94bc
00000360: 67f0 943c 66f0 943c a979 7532 67f0 943c
00000370: 92bd b3b7 8b82 142e c663 77b7 20b4 9cb2
00000380: e2b2 04aa 92ce 5db1 65f0 943c 69f0 943c
00000390: 2035 27a4 66f0 94bc 5a43 103a 0a07 3433
000003a0: 1a4f 832d 66f0 94bc 65f0 943c 3089 6327
000003b0: 9326 0534 e2e6 c1b7 6faf 2ea1 01c5 38b8
000003c0: 76fb 752a f42a 6c34 1803 25ae 6292 77b4
000003d0: 9477 1cae c2cc 6633 65f0 94bc 65f0 943c
000003e0: 6807 e3b3 68f0 943c 66f0 943c 65f0 943c
000003f0: 66f0 94bc e8eb 6fb1 7f14 8831 67f0 943c
-4.866617e-16 -2.3078905e-22 -1.1555032e-06 0.01818104 5.2965724e-19 7.778744e-06 -0.00053981703 -5.7440147e-08
-1.0518464e-09 0.01818104 -0.018181037 -0.018181039 -1.6748378e-05 -0.018181039 0.018181043 -0.01818104
0.018181043 0.018181045 1.4288538e-08 0.018181045 -2.1426735e-05 3.3767225e-11 -1.4745576e-05 -1.8242705e-08
-1.1786027e-13 -3.2277137e-09 0.01818104 0.01818104 -3.6258092e-17 -0.018181043 0.00055032014 4.1915914e-08
1.4928109e-11 -0.018181039 0.018181043 3.1576944e-15 1.240062e-07 -2.311489e-05 -5.9185683e-19 -4.4052522e-05
2.184762e-13 2.1994884e-07 -3.751943e-11 -2.3056927e-07 -3.5576236e-11 5.3737274e-08 -0.018181043 0.01818104
-1.0571857e-07 0.018181045 0.018181039 0.01818104 -0.01818104 -3.4913379e-09 3.960453e-09 0.018181043
0.00014028442 -0.018181039 -0.018181037 3.7488096e-14 -0.01818104 -1.5437936e-11 -0.018181045 -8.942831e-16
-0.018181037 5.0274986e-11 -2.7571449e-11 0.01818104 -0.018181039 -4.932924e-12 -5.1921406e-06 -0.01818104
-0.018181039 0.01818104 0.018181039 -0.018181043 -0.01818104 0.018181043 -3.7078858e-09 -0.01818104
-1.1606895e-08 -0.00022488099 2.147278e-16 -0.018181045 -5.1338193e-06 -0.018181039 -2.3853673e-12 5.5378937e-09
-0.018181045 -3.1413938e-12 2.4048823e-08 1.5553681e-15 -2.6672467e-05 -0.01818104 0.018181045 -0.018181039
-4.1149942e-05 1.6650227e-19 5.0435933e-15 0.01818104 -4.866623e-16 -2.3078793e-22 -1.1555039e-06 0.018181005
5.296573e-19 7.778745e-06 -0.00053981825 -5.7440033e-08 -1.0518468e-09 0.018181004 -0.018181005 -0.018181004
-1.674837e-05 -0.018181007 0.018181005 -0.018181007 0.01818101 0.018181005 1.4288542e-08 0.01818101
-2.1426751e-05 3.376706e-11 -1.4745573e-05 -1.8242702e-08 -1.1786034e-13 -3.2277114e-09 0.01818101 0.018181013
-3.6264233e-17 -0.018181005 0.00055032043 4.1915943e-08 1.4928095e-11 -0.018181004 0.01818101 3.1576927e-15
1.2400605e-07 -2.3114928e-05 -5.9185605e-19 -4.405249e-05 2.1847606e-13 2.1994731e-07 -3.7519092e-11 -2.3056883e-07
-3.557704e-11 5.3737317e-08 -0.018181007 0.018181005 -1.0571864e-07 0.018181013 0.018181004 0.01818101
-0.018181007 -3.4914223e-09 3.960438e-09 0.018181011 0.00014028452 -0.018181004 -0.018181005 3.7488082e-14
-0.018181005 -1.5437825e-11 -0.018181011 -8.942799e-16 -0.018181005 5.027498e-11 -2.7571376e-11 0.018181005
-0.018181007 -4.9328683e-12 -5.192159e-06 -0.018181005 -0.018181002 0.018181005 0.018181007 -0.018181007
-0.018181005 0.018181005 -3.707897e-09 -0.018181007 -1.1606909e-08 -0.00022488233 2.1472807e-16 -0.018181011
-5.133811e-06 -0.018181004 -2.385369e-12 5.537901e-09 -0.018181005 -3.1414003e-12 2.4048664e-08 1.5553699e-15
-2.667246e-05 -0.018181007 0.018181005 -0.018181002 -4.1149957e-05 1.6650222e-19 5.043546e-15 0.01818101
-4.866617e-16 -2.3078824e-22 -1.1555036e-06 0.018181035 5.2965714e-19 7.778744e-06 -0.0005398173 -5.7440147e-08
-1.0518472e-09 0.018181035 -0.018181035 -0.018181035 -1.674838e-05 -0.018181039 0.018181035 -0.018181037
0.018181039 0.018181037 1.4288539e-08 0.018181039 -2.1426738e-05 3.376725e-11 -1.4745578e-05 -1.8242702e-08
-1.1786018e-13 -3.2277154e-09 0.018181035 0.018181043 -3.625735e-17 -0.018181037 0.00055032 4.1915918e-08
1.4928104e-11 -0.018181037 0.018181035 3.1576948e-15 1.2400623e-07 -2.3114906e-05 -5.918568e-19 -4.4052493e-05
2.1847614e-13 2.1994839e-07 -3.7519404e-11 -2.3056921e-07 -3.55765e-11 5.3737274e-08 -0.018181035 0.018181035
-1.05718584e-07 0.01818104 0.018181037 0.018181035 -0.018181037 -3.4913175e-09 3.960451e-09 0.018181039

fc2.bias f4 [100]
00000000: 5526 9abd 4126 9abd 5426 9abd 4326 9a3d
00000010: 5626 9a3d 5826 9abd 4326 9a3d 4a26 9a3d
00000020: 5726 9abd 4d26 9abd 4a26 9abd 4926 9a3d
00000030: 4126 9a3d 4326 9a3d 4526 9abd 4c26 9abd
00000040: 5526 9abd 5326 9a3d 4d26 9a3d 4326 9a3d
00000050: 4326 9abd 46a4 05ad 1526 9abd 4c26 9abd
00000060: c525 9a3d 8ac2 7e1d 4c26 9a3d 5426 9abd
00000070: 4a26 9a3d 4426 9abd 5826 9abd 4126 9a3d
00000080: 4326 9a3d 4a26 9abd 5326 9abd 4a26 9abd
00000090: 5426 9abd 4526 9a3d 4c26 9a3d 3426 9a3d
000000a0: 4526 9a3d 5726 9a3d 4526 9abd 3326 9abd
000000b0: 5526 9abd 2926 9abd 4126 9a3d 3b26 9a3d
000000c0: 4a26 9a3d 4c26 9a3d 4426 9a3d 5826 9abd
000000d0: 4c26 9a3d 5426 9a3d 5526 9a3d 4d26 9abd
000000e0: 4426 9a3d 3626 9abd 3726 9a3d 4c26 9a3d
000000f0: 3326 9abd 5526 9abd 4526 9a3d 4b26 9abd
00000100: 5126 9a3d 4526 9abd 4326 9abd 5726 9a3d
00000110: 4326 9abd 5f26 9abd 5226 9a3d 60b1 46af
00000120: 4326 9a3d 3926 9abd 4326 9abd 5626 9abd
00000130: 4126 9a3d 3f26 9abd 4326 9a3d 5126 9a3d
00000140: 74d7 6eaa 4526 9a3d 5826 9a3d 4526 9a3d
00000150: 3d26 9a3d 3626 9a3d 5326 9abd a4ab 7fae
00000160: 4226 9a3d 5326 9abd 5826 9abd 0f26 9a3d
00000170: 4126 9a3d 4526 9a3d 5526 9a3d 4c26 9a3d
00000180: 5a26 9abd 5c26 9a3d 3d26 9abd a6d7 1400
-0.075268425 -0.075268276 -0.07526842 0.07526829 0.07526843 -0.07526845 0.07526829 0.07526834
-0.07526844 -0.075268365 -0.07526834 0.075268336 0.075268276 0.07526829 -0.075268306 -0.07526836
-0.075268425 0.07526841 0.075268365 0.07526829 -0.07526829 -7.596651e-12 -0.07526795 -0.07526836
0.07526735 3.3717194e-21 0.07526836 -0.07526842 0.07526834 -0.0752683 -0.07526845 0.075268276
0.07526829 -0.07526834 -0.07526841 -0.07526834 -0.07526842 0.075268306 0.07526836 0.07526818
0.075268306 0.07526844 -0.075268306 -0.07526817 -0.075268425 -0.0752681 0.075268276 0.07526823
0.07526834 0.07526836 0.0752683 -0.07526845 0.07526836 0.07526842 0.075268425 -0.075268365
0.0752683 -0.075268194 0.0752682 0.07526836 -0.07526817 -0.075268425 0.075268306 -0.07526835
0.075268395 -0.075268306 -0.07526829 0.07526844 -0.07526829 -0.0752685 0.0752684 -1.8071011e-10
0.07526829 -0.07526822 -0.07526829 -0.07526843 0.075268276 -0.07526826 0.07526829 0.075268395
-2.1213397e-13 0.075268306 0.07526845 0.075268306 0.075268246 0.075268194 -0.07526841 -5.8132735e-11
0.07526828 -0.07526841 -0.07526845 0.0752679 0.075268276 0.075268306 0.075268425 0.07526836
-0.07526846 0.07526848 -0.075268246 1.91407e-39

fc3.weight f4 [1, 100]
00000000: 0a0f 15be f40e 15be 080f 15be f70e 153e
00000010: 0b0f 153e 0d0f 15be f70e 153e ff0e 153e
00000020: 0c0f 15be 020f 15be fe0e 15be fe0e 153e
00000030: f60e 153e f80e 153e f80e 15be 000f 15be
00000040: 0a0f 15be 070f 153e 020f 153e f70e 153e
00000050: f60e 15be e03d 28ac c90e 15be 010f 15be
00000060: 760e 153e e48e 0c1e 000f 153e 090f 15be
00000070: fe0e 153e f60e 15be 0c0f 15be f50e 153e
00000080: f60e 153e ff0e 15be 070f 15be ff0e 15be
00000090: 090f 15be fa0e 153e 000f 153e e60e 153e
000000a0: fa0e 153e 0c0f 153e fa0e 15be e40e 15be
000000b0: 0a0f 15be dd0e 15be f40e 153e ef0e 153e
000000c0: fe0e 153e 010f 153e f80e 153e 0c0f 15be
000000d0: 000f 153e 080f 153e 0a0f 153e 020f 15be
000000e0: f90e 153e e90e 15be eb0e 153e 000f 153e
000000f0: e50e 15be 0a0f 15be f80e 153e ff0e 15be
00000100: 050f 153e fa0e 15be f70e 15be 0c0f 153e
00000110: f70e 15be 150f 15be 060f 153e f32a 99b2
00000120: f70e 153e ed0e 15be f60e 15be 0b0f 15be
00000130: f40e 153e f10e 15be f70e 153e 050f 153e
00000140: 5e31 abaa fa0e 153e 0e0f 153e f90e 153e
00000150: f00e 153e e90e 153e 070f 15be d499 aaaf
00000160: f60e 153e 070f 15be 0f0f 15be c00e 153e
00000170: f40e 153e fa0e 153e 0a0f 153e 000f 153e
00000180: 0f0f 15be 100f 153e f10e 15be c443 0080
-0.14556518 -0.14556485 -0.14556515 0.1455649 0.1455652 -0.14556523 0.1455649 0.14556502
-0.14556521 -0.14556506 -0.145565 0.145565 0.14556488 0.14556491 -0.14556491 -0.14556503
-0.14556518 0.14556514 0.14556506 0.1455649 -0.14556488 -2.3908583e-12 -0.14556421 -0.14556505
0.14556298 7.441087e-21 0.14556503 -0.14556517 0.145565 -0.14556488 -0.14556521 0.14556487
0.14556488 -0.14556502 -0.14556514 -0.14556502 -0.14556517 0.14556494 0.14556503 0.14556465
0.14556494 0.14556521 -0.14556494 -0.14556462 -0.14556518 -0.14556451 0.14556485 0.14556478
0.145565 0.14556505 0.14556491 -0.14556521 0.14556503 0.14556515 0.14556518 -0.14556506
0.14556493 -0.14556469 0.14556472 0.14556503 -0.14556463 -0.14556518 0.14556491 -0.14556502
0.14556511 -0.14556494 -0.1455649 0.14556521 -0.1455649 -0.14556535 0.14556512 -1.7831075e-08
0.1455649 -0.14556475 -0.14556488 -0.1455652 0.14556485 -0.14556481 0.1455649 0.14556511
-3.0409957e-13 0.14556494 0.14556524 0.14556493 0.1455648 0.14556469 -0.14556514 -3.103212e-10
0.14556488 -0.14556514 -0.14556526 0.14556408 0.14556485 0.14556494 0.14556518 0.14556503
-0.14556526 0.14556527 -0.14556481 -2.431e-41

fc1.weight f4 [100, 24]
00000000: 4de2 ce3b 2511 683e 45cf 16bb 208c ecbd
00000010: 3fc4 813d f15c 6a3c dfd6 5e3e 8642 6dbd
00000020: 8db8 12bd 3646 4f3e d66f 13be c078 1fbb
00000030: d018 11be 60ef 15bc a842 10be 3864 803d
00000040: 85bf 0bbe e51f 22be 6ee4 0dbe 500e d23d
00000050: 6670 0dbe a6e8 f33d 571e 293d e36a 563e
00000060: 6e3b a13d c8f4 8a3d 0042 813d 3384 23be
00000070: 13e4 17be 2462 39be a670 81be 89b1 81be
00000080: d34b fabd c23f 093e 12d7 0c3e f8aa 8c3c
00000090: 84da 97bd 7280 04be f88a 873d 00d5 c73a
000000a0: 4caa 1e3e d805 95bc 68e6 58bd 060f 21be
000000b0: b01d e4bd 212e c83c 32de 353e 6ed4 bebd
000000c0: 47d7 503e ea69 2fbc 2e78 08be 7ff6 743d
000000d0: 9ec2 4e3e 3a4e e0bb 41d4 39bd 23d6 ba3c
000000e0: 8dd0 0d3e 5b37 4dbe 646a 053d 7021 fabc
000000f0: e0a3 6b3c f417 28bd 701a 94bd dc44 31bd
00000100: 9cab 66bd 4cd6 09be 5828 31be d6de 4fbe
00000110: a498 abbd c6b2 17be 9e48 19be ffc3 b63d
00000120: c76a a43d 24fa 2ebe 3e72 233d 5953 24be
00000130: 6d26 68bc 4edf c63d 217c 45be 4d21 17be
00000140: d4b9 d6bd 2a86 30be 92d2 243e 8a49 3f3e
00000150: 420b 4bbe b4d3 d93d b676 323e a833 4cbd
00000160: d038 c4bc cca6 8c3d 2420 c23d 7cc5 153e
00000170: 8860 933d c288 c4bc 9c6d 0bbe 9ba2 6bbd
00000180: 62e1 47bd b2fb 353b be90 8abc 468d da3c
00000190: 3b1c 21be 6753 00be b6ed 67bd 20cc 4fbe
000001a0: 8bbc e2bd e119 29be 208f 45be 1072 f1bc
000001b0: 24b7 303e 50bd 64bc 80ee c2ba 900d 0ebc
000001c0: 6055 d6bb b641 1e3e f8f3 88bd 1ecd e0bd
000001d0: e2c7 3c3e 0fb2 c2bc 05e9 1a3d 943d 3e3e
000001e0: e996 1dbe 076d a5bd f30f 0fbe 6deb 38be
000001f0: e18d 06bc 82af 86be 9659 dcbd da66 96bd
00000200: 385a ddbc 108b 973d 8494 303e be9a 9ebd
00000210: a2ae 30be 803c ce3c 942d 193e 68b3 ddbc
00000220: 526a 243e a6a4 c5bd 408c 94bd 58ea 81bd
00000230: 1cd3 83bd dd45 363e 8088 3c3d ef38 78bc
00000240: fd66 56be 2c9d 06bd 68c3 13be c17b 53be
00000250: 15eb 43bc bc1b 113e e747 1ebe 94e6 2cbe
00000260: 6148 af3d 684c 3b3e a3f9 45be aa91 0ebe
00000270: d44a 4d3e f621 1e3e 909f ee3c a4c4 df3d
00000280: 2859 b23c c539 f1bd 04ce f0bd c634 313e
00000290: 908c 253c 0a24 983d d803 a43d cd9c 723d
000002a0: 2333 003e 050a 013e 64ac ebbd 2340 ea3c
000002b0: 8cec 403e 0143 443d 6889 383e 5568 483e
000002c0: cc3f a63d 9b4b e8bd f885 963d 604e a73d
000002d0: a043 39bc 7cf7 273e d515 a3bd 008e 043d
000002e0: cbbe 1bbe 88f0 eebd 3da5 b2bd a065 5bbd
000002f0: e795 32be d286 513d 3275 90bd 9256 07be
00000300: 0ea4 063c 1130 1a3e e93a f53d a334 9b3d
00000310: 0a21 c23d a167 d83d 6c83 db3c defd e33d
00000320: 2ab9 b03d aef8 393e f278 323e a881 463d
00000330: 602b 35bd 2f14 39be 9c00 08bd de6b 503e
00000340: 8085 223e 9a43 243e c4f6 99bd b82f fabc
00000350: 8856 003e 8f8f e5bc fb8d 623d f046 c3bd
00000360: 15e1 a3bd de54 963d 71bb b03c c7d1 2b3e
00000370: d6c0 27be 2293 c93d e493 fd3d 1abc 103e
00000380: e590 d6bc 9834 00bd 00b7 423e 091f fcbd
00000390: e807 ba3d df23 41be 8086 ed3b b035 473d
000003a0: 80b3 573d 6f94 05be da8c efbd 38d9 ad3d
000003b0: aaa7 103e bf15 b53b 9871 b03c 3e93 32be
000003c0: e5d3 07be 131a 8e3c 601d 6b3c 3d94 c83d
000003d0: eb0c 18be 6a1f 65be 98f0 39be ae11 92be
000003e0: d0cb 35be bcfe 7cbd 98b2 ba3c 02d9 bbbd
000003f0: c023 7c3c 08b2 053e 10d3 6e3d acf2 2dbd
0.0063135982 0.2266279 -0.0023011726 -0.11550164 0.06336259 0.0143043855 0.21761654 -0.05792477
-0.035820533 0.20241627 -0.14398131 -0.0024333447 -0.14169621 -0.00915131 -0.14087927 0.06269115
-0.13647278 -0.1583248 -0.1385667 0.10256636 -0.13812408 0.119096085 0.0412887 0.20939212
0.078726634 0.067849696 0.063114166 -0.15968399 -0.14833097 -0.18103844 -0.25281256 -0.2533076
-0.122214936 0.13403228 0.13753918 0.017171368 -0.074147254 -0.12939623 0.06618303 0.0015245974
0.1549465 -0.018191263 -0.052954108 -0.15728387 -0.11138475 0.024436058 0.17760542 -0.093178615
0.20394622 -0.010706404 -0.13327095 0.05980539 0.20191428 -0.006845263 -0.045368437 0.022807186
0.13849087 -0.20040648 0.032572165 -0.030533522 0.014382333 -0.04103847 -0.07231605 -0.04327856
-0.056316003 -0.13460654 -0.17300546 -0.20299849 -0.08378723 -0.1481429 -0.14969108 0.08924102
0.08028179 -0.17087609 0.03990387 -0.1604742 -0.014169318 0.09710561 -0.19285633 -0.14758797
-0.10484663 -0.1723868 0.16095951 0.18680397 -0.19828513 0.10636082 0.17428097 -0.04985395
-0.023952872 0.068677515 0.094787866 0.14626116 0.07196146 -0.023990992 -0.13616031 -0.05752812
-0.048798926 0.002776843 -0.016914722 0.026678693 -0.15733425 -0.12531815 -0.056623183 -0.20292711
-0.11071118 -0.16513778 -0.19292879 -0.029473335 0.17257363 -0.013961151 -0.0014872104 -0.008670226
-0.006540939 0.15454754 -0.06687158 -0.10976623 0.18435624 -0.023766546 0.03781988 0.18578178
-0.15389599 -0.08077436 -0.13970928 -0.18058558 -0.0082125375 -0.26305777 -0.10759275 -0.07343836
-0.027020559 0.07399571 0.17244154 -0.077443585 -0.17254117 0.025175333 0.14958793 -0.027063087
0.16056183 -0.09650545 -0.07253313 -0.06343526 -0.0643675 0.17800088 0.046028614 -0.015150293
-0.20937724 -0.032864735 -0.1443001 -0.20652677 -0.011957903 0.14170736 -0.15457116 -0.16884834
0.08558727 0.18290865 -0.1933351 -0.13922754 0.20048076 0.15442643 0.02912882 0.10926178
0.021771029 -0.11778597 -0.11758044 0.17305288 0.0101043135 0.07428749 0.08008546 0.059231568
0.12519507 0.12601478 -0.1150749 0.028595036 0.18840235 0.047915462 0.18021166 0.1957105
0.08117637 -0.113425456 0.07349771 0.08169246 -0.011307627 0.16403002 -0.079631485 0.032361984
-0.152095 -0.116669714 -0.08722923 -0.053563714 -0.17439996 0.051153965 -0.07053603 -0.13216618
0.008217825 0.15057398 0.11974127 0.07578399 0.09478958 0.10566641 0.026796065 0.11132406
0.08629067 0.1816127 0.1742895 0.048463494 -0.04423082 -0.18074106 -0.033203706 0.20353648
0.15871239 0.16041413 -0.0751777 -0.030540332 0.12533009 -0.028022556 0.055311184 -0.09535015
-0.08001915 0.07340406 0.021573754 0.16779242 -0.16382155 0.098425165 0.123817235 0.14134255
-0.026192138 -0.031300157 0.19015121 -0.12310607 0.09083539 -0.1886134 0.0072486997 0.048635185
0.05266142 -0.13044904 -0.11696787 0.08488697 0.14126459 0.005526274 0.02153854 -0.17438981
-0.13264425 0.017346418 0.014350265 0.09793899 -0.14848678 -0.22375265 -0.18158185 -0.28529114
-0.1775353 -0.06176637 0.022790238 -0.0917225 0.015389383 0.13056195 0.058306754 -0.042467758
