gail/save_model/0/SUB075_ckpt_0.pth.tar (torch_old, 154725 bytes, 16 tensors)

fc1.weight f4 [100, 22]
-0.29590324 -0.13875817 0.08313936 -0.12888755 0.3132729 0.30186462 0.1072023 0.33682606
0.37636665 0.1270954 -0.017363548 0.17043388 -0.105812654 0.027623221 -0.20033872 0.039657354
0.059117734 -0.008740246 0.043931454 0.1002669 0.1109502 0.16510823 0.12134734 0.16492437
-0.15089871 0.4289946 -0.20756489 -0.06832793 0.016472677 0.19926132 -0.015207571 -0.015945613
0.10634327 0.18803886 -0.18678859 0.05240825 0.16160882 0.04745248 0.059801936 -0.19784737
-0.036095023 -0.10515195 0.13505667 -0.20369631 -0.10015578 0.18036218 0.13098498 -0.13770701
0.12827826 0.34925956 0.14408222 0.2575262 0.4605489 0.06391707 0.04757929 0.17674974
-0.07064088 -0.03134334 0.11787838 0.21276453 0.070577055 0.046675146 -0.10051187 0.0133600235
-0.028393283 0.02227661 -0.22512212 -0.039569307 0.15732644 -0.02786891 0.118737504 0.20731547
0.5476355 0.36137328 0.3723668 -0.10686112 -0.15128021 0.04704073 0.19411889 -0.115122356
-0.094016075 0.16046417 0.06744477 0.18371043 0.021668047 -0.13205475 0.16463181 0.20020583
-0.28629944 -0.018047825 0.0328195 -0.13791199 0.23548095 0.2431756 0.22171557 -0.03335556
0.3022126 -0.12205914 0.13579372 0.005322799 0.08432412 -0.022651449 0.09195787 0.16440377
-0.18926974 0.12977988 0.1900717 0.12230405 0.10172212 -0.04550661 -0.2652923 -0.07453495
0.00036472554 -0.16306612 -0.042630494 0.09817164 -0.18592277 0.073353074 -0.007224995 0.1204091
-0.040400773 -0.08007951 -0.040216118 0.05861345 0.036905825 0.2075628 0.19277579 0.03202997
-0.033768386 -0.033163622 -0.05815363 0.115783155 -0.034660343 0.17391531 -0.38730407 0.5233211
0.096700735 -0.018680852 0.07110405 -0.015904114 0.19679454 0.0014692396 0.08922824 0.092371374
0.08634055 -0.12774573 0.13442639 -0.060541153 -0.052569553 0.019937903 0.147576 0.15262696
-0.0764671 0.0041880906 0.023238188 -0.063578464 -0.03557258 0.09628491 -0.18059228 -0.43768993
-0.18477242 -0.21145096 -0.37419015 0.010758668 0.10274008 -0.036053494 -0.1139675 0.0819104
0.10758722 0.14027247 0.040210307 -0.110446535 -0.057112068 0.13466907 0.085246295 -0.0519187
0.17792486 -0.26409462 0.03790766 0.026786169 0.14913835 0.19883268 -0.14925306 0.20465085
0.18983652 0.12848032 0.19182938 0.001976952 -0.16869412 0.018528864 -0.21164216 0.032917053
-0.14038798 0.12029651 0.1105552 -0.04730995 -0.113868356 -0.12329786 0.23893507 0.1612896
0.13336256 -0.18442991 0.12201114 0.29519746 0.15722755 0.21170783 0.06251512 -0.16984642
0.20079082 -0.088579595 0.18850785 -0.17371158 0.038270175 0.19644278 -0.20980379 -0.18060121
-0.15269949 -0.030652776 0.051560342 -0.19551834 -0.04385288 0.00088036375 -0.1359952 0.15437628
-0.07878238 -0.23243424 -0.33897108 -0.26740736 -0.2405388 -0.071006 -0.17976923 0.15769798
0.021393016 0.12140164 0.13626784 0.1949665 -0.17295463 -0.095842354 0.057777077 -0.041324288
0.1168986 -0.016012251 0.11558049 -0.13206376 0.19725284 0.17414433 0.07502751 -0.168042
-0.42674065 -0.3792908 -0.35564828 0.06858435 -0.19918182 0.1397498 0.04704696 0.033131674
00000000: a180 97be 9f16 0ebe f844 aa3d 19fb 03be
00000010: 4e65 a03e 008e 9a3e e18c db3d 7774 ac3e
00000020: 21b3 c03e 4c25 023e 003e 8ebc 3886 2e3e
00000030: 4eb4 d8bd 184a e23c 9825 4dbe c06f 223d
00000040: 7025 723d 4033 0fbc 78f1 333d bc58 cd3d
00000050: dc39 e33d 2212 293e f484 f83d efe1 283e
00000060: 3185 1abe 2ea5 db3e e48b 54be 84ef 8bbd
00000070: b5f1 863c 290b 4c3e 2d29 79bc 60a0 82bc
00000080: 80ca d93d 428d 403e 8245 3fbe 08aa 563d
00000090: c87c 253e 885d 423d e0f2 743d 8098 4abe
000000a0: 60d8 13bd e859 d7bd 4c4c 0a3e c495 50be
000000b0: 791e cdbd ddb0 383e ed20 063e 1103 0dbe
000000c0: 605b 033e 26d2 b23e 4a8a 133e 79da 833e
000000d0: 11cd eb3e f4e6 823d 80e2 423d e2fd 343e
000000e0: 2aac 90bd e061 00bd 386a f13d f2de 593e
000000f0: b48a 903d 702e 3f3d 2bd9 cdbd 00e4 5a3c
00000100: 0899 e8bc 707d b63c 6a86 66be 6d13 22bd
00000110: 2f1a 213e 574d e4bc a62c f33d 824a 543e
00000120: d731 0c3f eb05 b93e dca6 be3e 01da dabd
00000130: 33e9 1abe c8ad 403d 1ac7 463e 45c5 ebbd
00000140: 808b c0bd b850 243e 7c20 8a3d 961e 3c3e
00000150: 3081 b13c 5c39 07be 3e95 283e c202 4d3e
00000160: d795 92be 08d9 93bc bd6d 063d cd38 0dbe
00000170: eb21 713e 0603 793e 6809 633e d79f 08bd
00000180: 9cbb 9a3e 24fa f9bd 820d 0b3e e06a ae3b
00000190: 20b2 ac3d 888f b9bc 6854 bc3d 7659 283e
000001a0: edcf 41be 04e5 043e 28a2 423e 8c7a fa3d
000001b0: b053 d03d 2465 3abd 64d4 87be c8a5 98bd
000001c0: a238 bf39 cefa 26be 509d 2ebd 360e c93d
000001d0: 8a62 3ebe 233a 963d a7bf ecbb 0c99 f63d
000001e0: 487b 25bd ba00 a4bd a8b9 24bd a814 703d
000001f0: 902a 173d 588b 543e 0467 453e dc31 033d
00000200: b850 0abd 94d6 07bd 8032 6ebd b81f ed3d
00000210: 01f8 0dbd db16 323e b84c c6be 5ff8 053f
00000220: 090b c63d 9608 99bc 009f 913d 5849 82bc
00000230: 8284 493e 8093 c03a 4cbd b63d 342d bd3d
00000240: 50d3 b03d c7cf 02be 12a7 093e 00fa 77bd
00000250: 2c53 57bd d054 a33c 2a1e 173e 3e4a 1c3e
00000260: c89a 9cbd 403c 893b 035e be3c 6d35 82bd
00000270: 8eb4 11bd 0631 c53d 2fed 38be e518 e0be
00000280: fb34 3dbe 9a86 58be da95 bfbe 2045 303c
00000290: 6469 d23d d4ac 13bd cb67 e9bd a4c0 a73d
000002a0: b056 dc3d 96a3 0f3e 90b3 243d cb31 e2bd
000002b0: 58ee 69bd b0e6 093e 9c95 ae3d b4a8 54bd
000002c0: ef31 363e 6937 87be 1045 1b3d ab6e db3c
000002d0: b9b7 183e cb9a 4b3e cbd5 18be fe8f 513e
000002e0: 8164 423e 5890 033e ec6e 443e c08f 013b
000002f0: 27be 2cbe d8c9 973c b9b8 58be 08d4 063d
00000300: dec1 0fbe 045e f63d c46a e23d 14c8 41bd
00000310: d033 e9bd 9783 fcbd 65ab 743e 1a29 253e
00000320: 3290 083e 32db 3cbe fae0 f93d 1f24 973e
00000330: 4200 213e f0c9 583e ed07 803d 38ec 2dbe
00000340: 1c9c 4d3e 3869 b5bd 3408 413e 73e1 31be
00000350: 30c1 1c3d 4c28 493e ced6 56be 86ef 38be
00000360: 415d 1cbe 881b fbbc f030 533d f635 48be
00000370: 149f 33bd 36c8 663a 5342 0bbe d114 1e3e
00000380: a858 a1bd 3e03 6ebe 9e8d adbe 9ee9 88be
00000390: ce4f 76be 986b 91bd 6d15 38be 947b 213e
000003a0: 6840 af3c 6ca1 f83d cc89 0b3e 4ca5 473e
000003b0: 051b 31be ff48 c4bd a8a7 6c3d a843 29bd
000003c0: 8868 ef3d 202c 83bc 77b5 ec3d b93b 07be
000003d0: a6fc 493e e452 323e 06a8 993d 3413 2cbe
000003e0: c07d dabe 6732 c2be 8817 b6be f475 8c3d
000003f0: 52f6 4bbe 921a 0f3e 50b4 403d 14b5 073d

fc1.bias f4 [100]
-0.19993351 -0.050895967 -0.19823131 -0.5066838 -0.120393544 -0.11994377 -0.20633127 0.43200162
-0.13001445 -0.14052917 0.31272602 0.17465141 0.34222966 0.37373197 -0.07512482 -0.035437495
-0.1977162 0.052734308 0.04610587 -0.033724435 0.44908813 0.12069911 0.37103415 0.38111404
0.19647102 0.039055742 -0.27911016 -0.20496643 0.017932562 -0.16536039 -0.15780365 0.04794049
-0.20218474 0.09478059 -0.021093134 0.058809932 0.42258635 0.35753405 0.18075353 0.067136586
0.075755306 0.11251468 -0.11318471 0.088784195 0.13892505 0.39122933 -0.13206393 0.097394146
0.051176745 0.11353092 0.06053895 0.13615878 -0.1741316 -0.24870145 0.103388056 -0.035530023
-0.06898157 0.10213108 0.53722024 -0.04214276 0.13063517 -0.116661705 -0.111836486 0.015978822
0.053834192 0.111432225 -0.25906378 0.11739891 -0.33268237 -0.01689694 -0.1253435 0.32326856
0.3260544 0.046091132 0.104339726 0.11549335 -0.16324791 0.15528879 0.5205748 0.019455936
-0.21398081 -0.3435222 0.13311449 0.038091466 -0.0798907 0.08744886 0.043130144 0.22478406
0.15392895 0.1646681 -0.038856387 0.32099876 -0.20495892 0.16114359 0.079758935 0.48215958
-0.093246095 0.1368336 0.057846397 0.15763983
00000000: 5fbb 4cbe 4a78 50bd 26fd 4abe 08b6 01bf
00000010: e490 f6bd 14a5 f5bd 8148 53be 512f dd3e
00000020: 8222 05be e1e6 0fbe a01d a03e d2d7 323e
00000030: ba38 af3e cc59 bf3e 0bdb 99bd e826 11bd
00000040: 1e76 4abe eeff 573d 82d9 3c3d a222 0abd
00000050: e1ee e53e 1831 f73d 30f8 bd3e 6121 c33e
00000060: b32f 493e eaf8 1f3d 87e7 8ebe b8e2 51be
00000070: 4fe7 923c 3c54 29be 4897 21be 3f5d 443d
00000080: 8409 4fbe 531c c23d 82cb acbc afe2 703d
00000090: 3d5d d83e b40e b73e 7417 393e e87e 893d
000000a0: 9925 9b3d 196e e63d 63cd e7bd 7dd4 b53d
000000b0: 5e42 0e3e 364f c83e c43b 07be 9576 c73d
000000c0: b59e 513d e682 e83d b1f7 773d 356d 0b3e
000000d0: 8e4f 32be 98ab 7ebe 1ebd d33d ee87 11bd
000000e0: 3646 8dbd 1a2a d13d 4487 093f e39d 2cbd
000000f0: 3ac5 053e 55ec eebd 870a e5bd 05e6 823c
00000100: 3e81 5c3d 9436 e43d 02a4 84be d76e f03d
00000110: 5855 aabe 746b 8abc 0c5a 00be 7583 a53e
00000120: 9af0 a63e 0eca 3c3d 11b0 d53d c787 ec3d
00000130: 762a 27be 0604 1f3e 6444 053f 0e62 9f3c
00000140: c91d 5bbe 24e2 afbe 2a4f 083e cc05 1c3d
00000150: bc9d a3bd 6318 b33d 3ca9 303d cb2d 663e
00000160: 8d9f 1d3e c19e 283e e027 1fbd f359 a43e
00000170: c0e0 51be d302 253e a758 a33d 9fdd f63e
00000180: cff7 bebd 1b1e 0c3e 58f0 6c3d 566c 213e

fc2.weight f4 [100, 100]
0.29050553 -0.25191224 0.10472062 -0.45793617 -0.31042868 -0.3502968 -0.092255615 0.47915158
0.25801107 -0.04842491 0.68824023 0.4763893 0.66776156 0.6159978 0.61944073 0.7941084
-0.75073856 0.6257248 0.40147582 0.028286112 0.4484929 -0.27091187 0.47348627 0.6879971
0.63472 0.46773946 -0.53848255 -0.22242367 0.21206626 0.4866519 -0.4233796 0.6949662
-0.26710436 0.018537808 0.35162377 -0.36126438 0.40447667 0.878448 -0.07313834 0.66995233
-0.095903136 0.09509192 -0.0095932735 0.12611298 0.82856977 0.4438461 -0.4461045 0.13573521
-0.043229263 -0.33864287 0.5988553 -0.04603276 -0.6414193 -0.04831255 0.4001669 0.101163566
-0.26851663 0.22834021 0.66194814 -0.16689727 0.32818207 -0.34077445 -0.12459485 0.13548042
-0.5810576 -0.018770792 -0.22847337 -0.059719197 -0.37263826 0.13569748 -0.10961681 0.23718205
0.8239981 0.1553626 -0.47182605 0.67657703 0.34222993 0.6361133 0.5201355 -0.082905605
0.073187165 -0.36814094 0.31496716 0.41791737 0.18490738 0.11392991 -0.24057929 0.35968113
0.48607662 -0.03193897 -0.5123349 0.18178776 -0.5871076 0.5502827 -0.40332142 0.90729886
-0.58876914 0.20074838 0.032959618 -0.15195473 -0.44192377 0.10389535 -0.13442771 0.36633417
0.3434506 0.2359743 0.02482652 -0.24628998 -0.24693762 -0.057844605 -0.9452972 -0.41315162
-0.9717891 -0.4098405 -0.6801194 -0.83253664 0.7828473 -0.7078796 -0.40609252 0.075971454
-0.57454914 0.2336602 -0.18448542 -0.6843339 -0.60574406 -0.45479417 0.3879436 0.22159272
-0.2004182 -0.40341878 0.8900458 -0.7125793 0.30134648 -0.28055733 -0.48872763 0.28396672
-0.28908297 -0.59766614 0.03505047 -0.77379674 0.25203285 -0.12177955 0.067398176 0.0981361
-0.9265576 -0.36998138 0.66220105 -0.007663446 0.0065811863 0.2917089 -0.74843043 -0.1727978
0.7300706 0.1606821 -0.4621135 0.06211704 0.08536064 -0.23707512 -0.45379847 0.2409701
-0.2833695 0.30946505 0.4135128 0.03058324 0.48712906 0.14592431 0.614068 0.13208917
0.2790351 -0.19841139 0.12232599 -0.37542877 -0.84048873 -0.5144516 0.6996852 -0.6797409
-0.27006233 -0.7167968 -0.726658 0.1182241 0.055586442 0.2698738 -0.26458827 -0.31809595
0.12657748 -0.30788302 0.2313799 -0.34185982 -0.5855295 -0.20030692 0.51399213 0.13087806
0.7793847 -0.5942771 0.4354931 -0.5272645 0.7127961 -0.014736277 -0.20777111 -0.3131195
0.49778992 -0.19840549 -0.065594874 0.31113613 0.53625256 0.084436625 0.41328162 -0.19580975
-0.40161082 -0.06175791 0.1919464 0.056012016 -0.480639 -0.29876018 0.019366475 -0.20528854
0.07716496 -0.5650646 -0.14557497 0.13513899 -0.015285359 -0.31738818 -0.06700004 -0.043935694
-0.15565787 -0.42274675 0.50150245 0.6612797 0.352102 0.2941232 0.004113926 -0.10506978
0.049167007 -0.58407885 0.40016612 -0.48113486 -0.72946316 -0.4285172 -0.6589222 -0.19689493
-0.22544366 0.03925814 0.41008106 0.43687782 -0.35837922 -0.2368098 0.123285286 0.37565935
-0.25408554 -0.30343542 0.008980748 -0.5207724 0.56113255 0.5804019 -0.25287417 0.43771926
00000000: 24bd 943e a4fa 80be c477 d63d 9c76 eabe
00000010: 82f0 9ebe 1a5a b3be 83f0 bcbd 5b53 f53e
00000020: 071a 843e 3359 46bd 8330 303f 4ce9 f33e
00000030: 6cf2 2a3f 08b2 1d3f ab93 1e3f b04a 4b3f
00000040: 6730 40bf 802f 203f 3d8e cd3e 47b8 e73c
00000050: dda0 e53e f6b4 8abe cb6c f23e 9420 303f
00000060: 037d 223f 8c7b ef3e fed9 09bf 08c3 63be
00000070: e627 593e 702a f93e 36c5 d8be 4ee9 313f
00000080: e7c1 88be 9adc 973c 0808 b43e a5f7 b8be
00000090: 9117 cf3e f8e1 603f 8ec9 95bd ff81 2b3f
000000a0: dd68 c4bd 8dbf c23d 1b2d 1dbc c323 013e
000000b0: 261d 543f cc3f e33e cf67 e4be 2cfe 0a3e
000000c0: 2b11 31bd 9962 adbe 954e 193f d98c 3cbd
000000d0: 0e34 24bf 61e3 45bd ade2 cc3e d82e cf3d
000000e0: 037b 89be 04d2 693e 6f75 293f 1ee7 2abe
000000f0: 7b07 a83e fd79 aebe 962b ffbd 61bb 0a3e
00000100: 31c0 14bf 34c5 99bc ecf4 69be 1e9c 74bd
00000110: 71ca bebe 48f4 0a3e c77e e0bd dadf 723e
00000120: 8af1 523f 6017 1f3e 2f93 f1be 2734 2d3f
00000130: c338 af3e 52d8 223f 9a27 053f 6aca a9bd
00000140: 27e3 953d f87c bcbe 6043 a13e 44f9 d53e
00000150: 5c58 3d3e 1654 e93d 6b5a 76be 2028 b83e
00000160: 09df f83e 70d2 02bd 6128 03bf 9226 3a3e
00000170: af4c 16bf 54df 0c3f 2580 cebe bd44 683f
00000180: 93b9 16bf fc90 4d3e aa00 073d 059a 1bbe
00000190: d543 e2be 16c7 d43d 6ba7 09be 2790 bb3e
000001a0: c2d8 af3e 3fa3 713e fc60 cb3c 7133 7cbe
000001b0: 37dd 7cbe 77ee 6cbd fffe 71bf 9c88 d3be
000001c0: 2cc7 78bf 9dd6 d1be 4e1c 2ebf 1f21 55bf
000001d0: ae68 483f 9937 35bf 5ceb cfbe ec96 9b3d
000001e0: a715 13bf 9f44 6f3e bfe9 3cbe 8230 2fbf
000001f0: 0b12 1bbf c8da e8be 8ba0 c63e 34e9 623e
00000200: 6e3a 4dbe e88c cebe 0bda 633f 996b 36bf
00000210: 164a 9a3e 36a5 8fbe 823a fabe 1664 913e
00000220: af02 94be a600 19bf 1591 0f3d 8b17 46bf
00000230: 730a 813e 8f67 f9bd 0e08 8a3d 94fb c83d
00000240: e132 6dbf 336e bdbe 0286 293f a51d fbbb
00000250: fea6 d73b de5a 953e 2399 3fbf e8f1 30be
00000260: e8e5 3a3f d989 243e 249a ecbe 706e 7e3d
00000270: 8fd1 ae3d d2c3 72be 4658 e8be dec0 763e
00000280: cf15 91be 3472 9e3e f3b7 d33e b489 fa3c
00000290: fb68 f93e 2f6d 153e 8f33 1d3f 6242 073e
000002a0: b0dd 8e3e 5b2c 4bbe 0c86 fa3d 3338 c0be
000002b0: 452a 57bf 1ab3 03bf 921e 333f 8003 2ebf
000002c0: 9c45 8abe ff7f 37bf 4206 3abf 7a1f f23d
000002d0: 9cae 633d e62c 8a3e 1d78 87be 79dd a2be
000002e0: 879d 013e d8a2 9dbe daee 6c3e 4008 afbe
000002f0: 43e5 15bf 421d 4dbe fd94 033f e604 063e
00000300: c185 473f 8b22 18bf f4f8 de3e cefa 06bf
00000310: ce79 363f 6d70 71bc f3c1 54be 3351 a0be
00000320: 52de fe3e cf2a 4bbe 9b56 86bd 3c4d 9f3e
00000330: d947 093f 1ced ac3d a699 d33e 5a82 48be
00000340: ef9f cdbe ddf5 7cbd 998d 443e db6c 653d
00000350: 5116 f6be 18f7 98be 71a6 9e3c 2937 52be
00000360: aa08 9e3d 13a8 10bf 9b11 15be e061 0a3e
00000370: 716f 7abc b480 a2be 5137 89bd eaf5 33bd
00000380: c764 1fbe 4372 d8be 7762 003f a049 293f
00000390: b746 b43e 5197 963e 1dce 863b d32e d7bd
000003a0: 5863 493d 3186 15bf 93e2 cc3e 4f57 f6be
000003b0: 19be 3abf 9b66 dbbe 20af 28bf d39e 49be
000003c0: b4da 66be 25cd 203d 25f6 d13e 73ae df3e
000003d0: 7b7d b7be 457e 72be ff7c fc3d 6c56 c03e
000003e0: 8017 82be e35b 9bbe fd23 133c 5751 05bf
000003f0: 62a6 0f3f 3895 143f b978 81be bd1c e03e

fc2.bias f4 [100]
0.76692194 -0.84876704 -0.4021813 0.7373697 0.7479864 -0.9180632 0.79222816 0.8571201
-0.47822955 -0.6703315 0.8805465 -0.020260172 0.749152 0.36916 -0.7919153 -0.18049219
-0.08903297 -0.49251172 0.75073916 -0.7757956 0.79732704 -0.84834313 0.8672211 0.761315
0.7282396 -0.31827256 -0.8528168 0.7531814 0.041869905 -0.7787649 0.8051729 -0.72226554
0.7924947 -0.86446357 0.7942833 0.93298495 0.4188437 -0.79265434 0.34936756 -0.77990395
-0.3876021 0.7466357 -0.79070026 0.78954786 0.6587903 -0.8034262 0.8347826 -0.8496262
-0.71184343 0.7591894 0.74360406 -0.20231825 0.07865721 -0.85269463 -0.8085392 0.7956472
-0.91488796 0.8512213 0.78650194 -0.70229036 -0.88626367 0.89839184 -0.7795872 0.89978755
0.7592472 -0.36958203 0.779395 -0.74416286 0.82076603 0.8509071 0.88487506 -0.75440484
-0.736037 0.9239441 0.027955147 0.8746558 0.2274331 0.08232429 -0.0687502 0.86577725
0.15112743 0.8277995 0.61865133 0.9550786 -0.5759533 -0.33949974 0.8542493 -0.87031484
-0.8714032 -0.50311995 -0.83182365 -0.8225153 -0.7498406 0.6912316 -0.8102984 -0.8706549
0.7712528 0.013890224 -0.18341756 -0.7962441
00000000: ff54 443f cc48 59bf b5ea cdbe 43c4 3c3f
00000010: 097c 3f3f 3106 6bbf 77cf 4a3f 396c 5b3f
00000020: 81da f4be d89a 2bbf 7f6b 613f a9f8 a5bc
00000030: 6dc8 3f3f 8a02 bd3e f6ba 4abf f2d2 38be
00000040: eb56 b6bd 7f2a fcbe 7130 403f 8a9a 46bf
00000050: a01d 4c3f 042d 59bf 3402 5e3f 8ae5 423f
00000060: e96d 3a3f 9ff4 a2be 3452 5abf 7fd0 403f
00000070: c77f 2b3d 235d 47bf d01f 4e3f 65e6 38bf
00000080: efe0 4a3f 7c4d 5dbf 2656 4b3f 1ad8 6e3f
00000090: ae72 d63e 65eb 4abf 4ee0 b23e c9a7 47bf
000000a0: c873 c6be 8423 3f3f 556b 4abf cf1f 4a3f
000000b0: 7ba6 283f 57ad 4dbf 50b4 553f 1a81 59bf
000000c0: 5f3b 36bf 3d5a 423f d65c 3e3f 842c 4fbe
000000d0: 0817 a13d 324a 5abf 6dfc 4ebf 89af 4b3f
000000e0: 1936 6abf a4e9 593f 3158 493f 4dc9 33bf
000000f0: 2de2 62bf 02fd 653f 0793 47bf 7a58 663f
00000100: 065e 423f db39 bdbe 6e86 473f 7581 3ebf
00000110: b91d 523f 0cd5 593f 2c87 623f ad20 41bf
00000120: ec6c 3cbf 9a87 6c3f 3102 e53c 71e9 5f3f
00000130: 39e4 683e a399 a83d e8cc 8cbd 94a3 5d3f
00000140: 26c1 1a3e abea 533f ef5f 1e3f 0880 743f
00000150: ad71 13bf e9d2 adbe 15b0 5a3f f4cc 5ebf
00000160: 4814 5fbf 78cc 00bf 65f2 54bf 5d90 52bf
00000170: 8ef5 3fbf 8ef4 303f b76f 4fbf 3de3 5ebf
00000180: d370 453f d293 633c d0d1 3bbe a7d6 4bbf

fc3.weight f4 [2, 100]
4.8753347 -4.6789083 -4.8815846 4.2409472 -1.9240847 -4.5939903 4.6126986 4.2592654
1.8138552 1.8765112 4.255415 -2.5620334 4.426568 -1.9692806 -4.3586097 -4.525861
-2.5249765 1.9385515 4.7172146 -4.4697604 4.9421053 -4.5860176 4.747196 4.507416
4.535349 -4.963131 -4.2861814 4.252616 -3.744229 -4.601189 4.7751117 -5.211535
4.248312 -4.2668195 4.651541 -2.0803723 -1.7653135 -4.699979 4.1498537 -4.7207747
1.8178074 4.660996 -4.5477505 4.308689 -1.8509873 -4.553174 4.5891943 -4.755762
-5.1306777 4.724449 5.4868116 -3.647307 2.3805904 -5.4122963 -4.678918 4.550744
-4.699293 4.514469 4.6040134 -4.3476934 -4.430695 4.2201266 -4.6253858 4.675107
4.223862 1.7767625 4.7299848 -5.160243 4.5817866 5.2123957 4.749592 -4.982003
-4.6966887 4.5033264 -2.3654008 4.2425437 4.5491896 4.1555533 3.4265785 4.2322426
4.105273 5.2444115 -1.8534201 4.567094 1.8423676 -5.2015457 5.0556664 -4.2277994
-4.735091 1.905246 -4.225853 -4.6527567 -5.489635 4.9439416 -4.2527027 -4.2430596
4.2431154 4.0063286 3.2892582 -4.3428946 -2.1249604 2.1456025 2.1563911 -2.0020978
0.63442034 1.9874065 -1.9681886 -1.952242 -0.74068815 -0.7318044 -1.931033 0.111563995
-1.8985269 0.8505306 1.661767 1.9368069 1.1570327 -0.5650062 -2.1387413 1.91019
-2.248888 2.0219808 -2.215195 -1.91722 -1.9352782 2.1527965 2.009401 -1.9723871
1.6432222 2.065342 -2.2325256 2.2534108 -1.9838153 1.9474487 -2.003413 1.0734214
0.7154653 2.166784 -2.4850569 2.0930636 -0.76976013 -2.1084888 1.9092932 -2.040959
0.7002751 1.9670863 -2.0250428 2.2358136 2.317655 -2.1091452 -2.3752072 2.8218527
-1.0549378 2.2204108 1.9670334 -1.9045211 1.9977965 -1.9244174 -2.0208735 2.3029592
1.8568461 -1.9818125 2.0550292 -2.0976677 -2.0194895 -0.74927294 -2.1421762 2.3031054
-1.9697422 -2.4151587 -2.2248533 2.2895415 2.118108 -1.9216624 0.8200293 -2.0065336
-2.0244253 -1.6790819 -1.4618087 -1.9510478 -1.7012724 -2.2126682 0.69361347 -1.9742346
-0.70193297 2.3326848 -2.09613 1.9573393 2.2016718 -0.6245532 2.0322826 2.1168811
2.4274511 -2.186979 1.9083277 1.9861327 -1.992592 -0.90742034 -1.5375415 1.9934616
00000000: be02 9c40 9eb9 95c0 f135 9cc0 d7b5 8740
00000010: 6848 f6bf f801 93c0 3a9b 9340 e74b 8840
00000020: 682c e83f 8531 f03f 5c2c 8840 5bf8 23c0
00000030: 72a6 8d40 6311 fcbf bb79 8bc0 dad3 90c0
00000040: 3799 21c0 7522 f83f 6cf3 9640 4708 8fc0
00000050: ba25 9e40 a8c0 92c0 08e9 9740 c03c 9040
00000060: 9421 9140 f8d1 9ec0 6628 89c0 6e15 8840
00000070: 73a1 6fc0 f13c 93c0 b7cd 9840 e5c4 a6c0
00000080: 2cf2 8740 c989 88c0 6dd9 9440 d224 05c0
00000090: cbf5 e1bf 3a66 96c0 9acb 8440 9610 97c0
000000a0: eaad e83f e126 9540 2c87 91c0 c8e0 8940
000000b0: 27ed ecbf 9ab3 91c0 aeda 9240 342f 98c0
000000c0: 832e a4c0 b02e 9740 f693 af40 7a6d 69c0
000000d0: 985b 1840 8831 adc0 b2b9 95c0 b29f 9140
000000e0: 9c60 96c0 8876 9040 1454 9340 4e20 8bc0
000000f0: 41c8 8dc0 470b 8740 2903 94c0 7a9a 9540
00000100: e129 8740 f46c e33f 095c 9740 b620 a5c0
00000110: ff9d 9240 f2cb a640 a8fc 9740 926c 9fc0
00000120: 464b 96c0 401b 9040 ba62 17c0 ebc2 8740
00000130: f692 9140 4bfa 8440 104d 5b40 886e 8740
00000140: 655e 8340 38d2 a740 df3c edbf a225 9240
00000150: b4d2 eb3f 1073 a6c0 05c8 a140 224a 87c0
00000160: de85 97c0 1adf f33f 303a 87c0 62e3 94c0
00000170: 17ab afc0 c534 9e40 2416 88c0 25c7 87c0
00000180: 9ac7 8740 d833 8040 3583 5240 fef8 8ac0
00000190: 5aff 07c0 8d51 0940 5002 0a40 5f22 00c0
000001a0: 5f69 223f 5663 fe3f 9bed fbbf 11e3 f9bf
000001b0: bd9d 3dbf 8857 3bbf 172c f7bf aa7b e43d
000001c0: ee02 f3bf 60bc 593f c8b4 d43f 4ae9 f73f
000001d0: a619 943f 3fa4 10bf 23e1 08c0 1b81 f43f
000001e0: c8ed 0fc0 2268 0140 c1c5 0dc0 7767 f5bf
000001f0: 32b7 f7bf 6bc7 0940 079a 0040 2e77 fcbf
00000200: 1b55 d23f 902e 0440 b3e1 0ec0 e237 1040
00000210: a9ed fdbf 0046 f93f eb37 00c0 df65 893f
00000220: bc28 373f 97ac 0a40 2c0b 1fc0 c1f4 0540
00000230: 000f 45bf 7bf1 06c0 b863 f43f 129f 02c0
00000240: 3b45 333f 7cc9 fb3f 4d9a 01c0 9217 0f40
00000250: 7654 1440 3cfc 06c0 6503 18c0 3c99 3440
00000260: 3408 87bf 361b 0e40 c0c7 fb3f 59c7 f3bf
00000270: ccb7 ff3f 4f53 f6bf fe55 01c0 af63 1340
00000280: 22ad ed3f 08ac fdbf 9985 0340 3040 06c0
00000290: 513f 01c0 5ad0 3fbf 6a19 09c0 1466 1340
000002a0: 8320 fcbf f691 1ac0 ff63 0ec0 d987 1240
000002b0: 158f 0740 09f9 f5bf 71ed 513f 0c6b 00c0
000002c0: 2f90 01c0 28ec d6bf 8c1c bbbf efbb f9bf
000002d0: 4bc3 d9bf 5b9c 0dc0 a790 313f b8b3 fcbf
000002e0: e1b1 33bf b54a 1540 fe26 06c0 188a fa3f
000002f0: 31e8 0c40 b8e2 1fbf eb10 0240 fb7a 0740
00000300: 5c5b 1b40 77f7 0bc0 1544 f43f 9939 fe3f
00000310: 410d ffbf b34c 68bf 29ce c4bf c029 ff3f

fc3.bias f4 [2]
4.242467 -1.8782972
00000000: 4ac2 8740 0b6c f0bf

fc1.weight f4 [100, 22]
3.554956e-14 -1.4624135e-15 -1.9853203e-15 -4.9224706e-15 -2.8412473e-15 -6.8876865e-15 -1.0740178e-14 -7.179583e-15
-7.536403e-15 -5.6224e-41 2.22785e-40 7.44413e-40 3.9315e-40 -1.12153e-39 8.31256e-40 -1.719934e-39
7.50887e-40 -4.78207e-40 -8.90504e-40 -2.09748e-39 -9.28238e-40 1.6716975e-38 5.4355482e-08 -2.119607e-09
6.440403e-09 -7.4247257e-09 -5.7286e-09 -9.649267e-10 -2.0021562e-09 -8.005455e-10 -7.975363e-10 1.42899e-40
-1.334908e-39 1.61093e-39 1.677054e-39 2.08023e-40 -9.59414e-40 1.252523e-39 -1.095328e-39 -1.493072e-39
-1.036043e-39 -1.524204e-39 -1.762323e-39 -1.132539e-39 0.1059353 -0.0028103222 -0.0022995877 -0.0028145888
-0.0018400855 -0.038316246 -0.051775593 -0.039322402 -0.040554848 1.770902e-39 -3.0016e-41 1.611314e-39
-9.58838e-40 -7.00426e-40 -1.04974e-40 -6.16136e-40 -1.04725e-40 1.310662e-39 -6.6183e-41 1.106954e-39
1.84287e-39 7.54833e-40 2.0797217e-20 -2.5783395e-21 -7.425502e-20 1.3042005e-21 4.4451678e-20 9.438489e-21
1.6987637e-20 1.1215449e-20 1.3345698e-20 -5.07339e-40 8.96094e-40 1.3091e-39 -1.938154e-39 4.8995e-40
-1.129818e-39 7.27701e-40 1.360715e-39 4.3249e-40 1.947284e-39 7.83222e-40 -2.32576e-40 -6.84314e-40
-0.00010691625 5.8915057e-06 1.0289646e-05 1.068938e-05 5.0537888e-06 3.1182273e-05 4.422319e-05 3.2137305e-05
3.331211e-05 -4.80481e-40 1.423439e-39 -4.80047e-40 2.146229e-39 9.8004e-41 3.48988e-40 -2.21752e-39
2.040253e-39 -4.89657e-40 -8.48552e-40 2.040945e-39 1.378616e-39 -1.491141e-39 5.000122e-09 -9.7803085e-11
-5.3910618e-08 -5.7838694e-09 -2.5057403e-09 3.2250018e-09 3.2352152e-09 3.2852947e-09 3.3406145e-09 -9.40964e-40
-8.92337e-40 -5.40534e-40 2.011088e-39 1.29675e-40 -1.695979e-39 8.76296e-40 1.7861e-39 -2.309619e-39
2.30404e-40 -2.055809e-39 1.797566e-39 -1.889867e-39 2.3566563e-20 -3.0889144e-20 -6.61787e-20 -1.8799686e-20
6.379081e-22 4.100125e-21 1.5392574e-20 5.3356243e-21 6.951756e-21 -1.828163e-39 8.6565e-40 4.64023e-40
1.531916e-39 -6.36e-41 2.77907e-40 -3.50358e-40 -3.88657e-40 9.55925e-40 -1.023539e-39 7.73898e-40
-7.86822e-40 3.4270039e-37 7.7713893e-13 -8.301491e-14 -3.5951317e-14 -1.943302e-13 -3.133772e-14 -7.375399e-14
-3.6240447e-13 -9.196022e-14 -1.1878545e-13 1.91636e-39 1.493833e-39 1.581033e-39 -1.357263e-39 1.704175e-39
-8.14622e-40 5.56125e-40 -6.7365e-41 5.66071e-40 1.682417e-39 1.04044e-40 -7.19662e-40 1.053128e-39
6.8920884e-24 -7.1460217e-25 2.286322e-24 1.9147419e-25 -2.2337543e-24 -1.554969e-25 5.0829705e-25 -2.989192e-26
1.77971e-25 1.79644e-40 -1.047322e-39 -1.309767e-39 -1.34488e-39 -1.813747e-39 1.957784e-39 -1.070274e-39
1.384062e-39 -1.44435e-39 -1.91726e-39 -1.89809e-39 -1.019588e-39 -1.222917e-39 -0.1059353 0.0028103222
0.0022995877 0.0028145888 0.0018400855 0.038316246 0.051775593 0.039322402 0.040554848 -8.4353e-41
-1.991691e-39 -4.75206e-40 -1.293099e-39 -1.991808e-39 6.38144e-40 4.61911e-40 1.375349e-39 -6.7984e-40
-1.085e-40 9.14067e-40 1.061353e-39 -9.97753e-40 0.1059353 -0.0028103222 -0.0022995877 -0.0028145888
-0.0018400855 -0.038316246 -0.051775593 -0.039322402 -0.040554848 6.14801e-40 8.53815e-40 -4.77788e-40
-1.99322e-40 5.22588e-40 2.045188e-39 -4.73273e-40 9.76778e-40 1.585695e-39 -2.176916e-39 1.980796e-39
-3.4293e-41 3.25942e-40 0.1059353 -0.0028103222 -0.0022995877 -0.0028145888 -0.0018400855 -0.038316246
-0.051775593 -0.039322402 -0.040554848 -2.13042e-40 -1.187481e-39 1.21644e-40 9.77191e-40 6.2605e-40
00000000: da19 2029 89c1 d2a6 b20e 0fa7 c759 b1a7
00000010: c3bb 4ca7 b227 f8a7 547a 41a8 fc55 01a8
00000020: 86c3 07a8 bb9c 0080 096d 0200 1f1b 0800
00000030: f147 0400 5f36 0c80 340d 0900 7aba 1280
00000040: 2b2d 0800 0c35 0580 5db2 0980 ecd6 1680
00000050: 8d1b 0a80 2008 b600 7c74 6933 85a8 11b1
00000060: 624a dd31 941c ffb1 4cd5 c4b1 579e 84b0
00000070: 4e96 09b1 620d 5cb0 a139 5bb0 588e 0100
00000080: 2e89 0e80 9e8a 1100 f242 1200 e243 0200
00000090: 7572 0a80 86a3 0d00 54ed 0b80 1442 1080
000000a0: 1148 0b80 dc98 1080 a430 1380 0f55 0c80
000000b0: 9bf4 d83d 622d 38bb aeb4 16bb f774 38bb
000000c0: 062f f1ba 7ff1 1cbd a512 54bd 8710 21bd
000000d0: d71c 26bd 8e48 1300 ac53 0080 b08b 1100
000000e0: da70 0a80 81a0 0780 a024 0180 89b5 0680
000000f0: ee23 0180 9845 0e00 7eb8 0080 bd0d 0c00
00000100: 2c11 1400 2b38 0800 966c c41e 57d0 429d
00000110: 6854 af9f d015 c51c c8ea 511f bb49 321e
00000120: 9671 a01e 95da 531e d617 7c1e 4186 0580
00000130: f2c1 0900 3d41 0e00 c91a 1580 c855 0500
00000140: 794d 0c80 89ec 0700 1fd1 0e00 9bb5 0400
00000150: 3c34 1500 4e87 0800 5488 0280 9773 0780
00000160: 3a38 e0b8 a6af c536 b1a1 2c37 8a56 3337
00000170: b793 a936 b6c9 0238 4a7c 3938 2bcb 0638
00000180: 9bb8 0b38 633b 0580 f87f 0f00 2d3a 0580
00000190: d05e 1700 3211 0100 d6cc 0300 8b25 1880
000001a0: 6537 1600 f754 0580 6b3d 0980 5339 1600
000001b0: 0503 0f00 b23c 1080 8acd ab31 3e12 d7ae
000001c0: 5a8b 67b3 74bb c6b1 7331 2cb1 d59e 5d31
000001d0: 8252 5e31 84c3 6131 b690 6531 063f 0a80
000001e0: 79b7 0980 cae2 0580 18e6 1500 7b69 0100
000001f0: b377 1280 c28a 0900 ec72 1300 4726 1980
00000200: 4682 0200 c262 1680 e292 1300 2e94 1480
00000210: 7494 de1e afde 119f 9242 9c9f da8e b19e
00000220: c0cb 401c fae5 9a1d f660 911e fe92 c91d
00000230: a150 031e 2de8 1380 146d 0900 820d 0500
00000240: 5cae 1000 4ab1 0080 b106 0300 a8d0 0380
00000250: 6b3b 0480 bb68 0a00 3625 0b80 506d 0800
00000260: 5791 0880 d43a e902 c3be 5a2b d6ee baa9
00000270: 0ce9 21a9 decb 5aaa ee21 0da9 4814 a6a9
00000280: fd03 ccaa 7513 cfa9 93bd 05aa 08de 1400
00000290: 3344 1000 4737 1100 7fc7 0e80 8c8e 1200
000002a0: d6de 0880 400e 0600 c9bb 0080 fa29 0600
000002b0: e551 1200 0822 0100 20d6 0780 b177 0b00
000002c0: f84f 0519 9e28 5d97 46e5 3018 9808 6d16
000002d0: 10d4 2c98 ef7e 4096 714f 1d17 8304 1495
000002e0: 4351 5c16 c6f4 0100 8267 0b80 1943 0e80
000002f0: faa4 0e80 fdbf 1380 8151 1500 7da7 0b80
00000300: 3412 0f00 43ba 0f80 8ae0 1480 1aab 1480
00000310: 321a 0b80 ff50 0d80 9bf4 d8bd 622d 383b
00000320: aeb4 163b f774 383b 062f f13a 7ff1 1c3d
00000330: a512 543d 8710 213d d71c 263d 24eb 0080
00000340: 06b0 1580 ae2c 0580 a214 0e80 5ab0 1580
00000350: e3f2 0600 9f07 0500 eaf9 0e00 1e67 0780
00000360: 742e 0180 0cf4 0900 9f8e 0b00 54dd 0a80
00000370: 9bf4 d83d 622d 38bb aeb4 16bb f774 38bb
00000380: 062f f1ba 7ff1 1cbd a512 54bd 8710 21bd
00000390: d71c 26bd d1b1 0600 174c 0900 e133 0580
000003a0: a12b 0280 c3b0 0500 2745 1600 4b27 0580
000003b0: dca2 0a00 4644 1100 5bb4 1780 a791 1500
000003c0: 985f 0080 988c 0300 9bf4 d83d 622d 38bb
000003d0: aeb4 16bb f774 38bb 062f f1ba 7ff1 1cbd
000003e0: a512 54bd 8710 21bd d71c 26bd e051 0280
000003f0: 37ee 0c80 1853 0100 03a4 0a00 2cd1 0600

fc1.bias f4 [100]
4.3548668e-14 8.014659e-08 0.14167416 -3.621854e-21 -0.00013131593 -1.7185287e-09 -7.383197e-21 1.3927547e-12
1.2207286e-23 -0.14167416 0.14167416 0.14167416 -4.6414023e-16 0.14167416 -0.14167416 0.14167416
-0.14167416 -0.14167416 -1.1157071e-30 -0.14167416 -5.7995524e-09 -6.9668374e-21 0.14167416 1.5389662e-09
-0.14167416 -4.8644574e-13 -5.0303847e-14 -0.14167416 -4.4601996e-13 0.14167416 -1.4870961e-21 1.2237428e-12
8.059632e-17 0.14167416 -4.5740117e-12 1.0699317e-14 1.26791765e-05 -0.14167416 0.14167416 -0.14167416
6.309728e-22 -4.7066097e-12 0.14167416 -1.3351586e-08 -0.14167416 -0.14167416 0.14167416 -0.14167416
0.14167416 -0.14167416 -0.14167416 -0.14167416 0.14167416 7.562484e-20 8.1030904e-20 -0.14167416
-1.14419845e-11 0.14167416 0.14167416 -3.586044e-17 0.14167416 -0.14167416 0.14167416 2.0312517e-22
0.14167416 6.2922896e-11 8.677193e-15 -0.14167416 0.14167416 0.14167416 1.1519872e-09 0.14167416
0.14167416 -0.14167416 -0.14167416 0.14167416 0.14167416 -0.14167416 -1.5724424e-16 0.14167416
1.3994462e-12 -0.14167416 -0.14167416 0.14167416 -0.14167416 0.14167416 0.14167416 -2.1992175e-25
0.14167416 2.8368447e-07 2.7800184e-11 9.221101e-22 -9.838248e-22 0.14167416 -0.14167416 0.14167416
-3.992678e-25 -7.561728e-05 -6.4245704e-18 -0.14167418
00000000: 3220 4429 0e1d ac33 0813 113e 6cd4 889d
00000010: dab1 09b9 5a31 ecb0 f376 0b9e 4703 c42b
00000020: 8d1f 6c19 0813 11be 0813 113e 0813 113e
00000030: 81c7 05a6 0813 113e 0813 11be 0813 113e
00000040: 0813 11be 0813 11be a908 b58d 0813 11be
00000050: 6745 c7b1 8f99 039e 0813 113e 8f83 d330
00000060: 0813 11be 1cec 08ab 638c 62a9 0813 11be
00000070: 4016 fbaa 0813 113e 3eb9 e09c fb39 ac2b
00000080: acd7 b924 0813 113e 09ef a0ac e4bd 4028
00000090: a6b8 5437 0813 11be 0813 113e 0813 11be
000000a0: 28b3 3e1c 5f99 a5ac 0813 113e e560 65b2
000000b0: 0813 11be 0813 11be 0813 113e 0813 11be
000000c0: 0813 113e 0813 11be 0813 11be 0813 11be
000000d0: 0813 113e 6990 b21f 2d54 bf1f 0813 11be
000000e0: 1e4a 49ad 0813 113e 0813 113e 8960 25a4
000000f0: 0813 113e 0813 11be 0813 113e 3290 751b
00000100: 0813 113e 715e 8a2e 7d50 1c28 0813 11be
00000110: 0813 113e 0813 113e f253 9e30 0813 113e
00000120: 0813 113e 0813 11be 0813 11be 0813 113e
00000130: 0813 113e 0813 11be 4f4a 35a5 0813 113e
00000140: 5df4 c42b 0813 11be 0813 11be 0813 113e
00000150: 0813 11be 0813 113e 0813 113e fe1f 8896
00000160: 0813 113e 4c4d 9834 7388 f42d 6858 8b1c
00000170: e1ab 949c 0813 113e 0813 11be 0813 113e
00000180: 8222 f796 b894 9eb8 5a06 eda2 0913 11be

fc2.weight f4 [100, 100]
-5.669101e-15 -4.4765303e-09 -0.020930054 -2.8126842e-20 1.7150136e-05 -1.35355265e-08 -2.3706168e-20 -9.031866e-14
-6.106546e-25 0.020930054 -0.020930054 -0.020930054 1.8754616e-18 -0.020930054 0.020930054 -0.020930054
0.020930054 0.020930054 1.1872437e-31 0.020930054 3.1114713e-09 -8.539478e-21 -0.020930054 -1.0938683e-10
0.020930054 6.55669e-14 -9.0228294e-14 0.020930054 -5.4610635e-13 -0.020930054 8.6337305e-23 9.993386e-13
4.343954e-18 -0.020930054 3.5347268e-13 4.8084248e-15 1.883288e-05 0.020930054 -0.020930054 0.020930054
-4.1559985e-23 6.4273527e-13 -0.020930054 8.7784363e-10 0.020930054 0.020930054 -0.020930054 0.020930054
-0.020930054 0.020930054 0.020930054 0.020930054 -0.020930054 3.7548318e-19 -6.463985e-21 0.020930054
-8.623316e-12 -0.020930054 -0.020930054 8.9363e-18 -0.020930054 0.020930054 -0.020930054 -5.602754e-24
-0.020930054 5.3631355e-10 -1.0432183e-15 0.020930054 -0.020930054 -0.020930054 -7.9134976e-11 -0.020930054
-0.020930054 0.020930054 0.020930054 -0.020930054 -0.020930054 0.020930054 1.3191836e-17 -0.020930054
1.4647699e-12 0.020930054 0.020930054 -0.020930054 0.020930054 -0.020930054 -0.020930054 2.3709877e-27
-0.020930054 -3.1023976e-08 -2.4036365e-12 -7.665456e-23 2.1727575e-21 -0.020930054 0.020930054 -0.020930054
5.538058e-26 9.66858e-06 6.2888924e-19 0.02093006 -5.669101e-15 -4.4765303e-09 -0.020930054 -2.8126842e-20
1.7150136e-05 -1.35355265e-08 -2.3706168e-20 -9.031866e-14 -6.106546e-25 0.020930054 -0.020930054 -0.020930054
1.8754616e-18 -0.020930054 0.020930054 -0.020930054 0.020930054 0.020930054 1.1872437e-31 0.020930054
3.1114713e-09 -8.539478e-21 -0.020930054 -1.0938683e-10 0.020930054 6.55669e-14 -9.0228294e-14 0.020930054
-5.4610635e-13 -0.020930054 8.6337305e-23 9.993386e-13 4.343954e-18 -0.020930054 3.5347268e-13 4.8084248e-15
1.883288e-05 0.020930054 -0.020930054 0.020930054 -4.1559985e-23 6.4273527e-13 -0.020930054 8.7784363e-10
0.020930054 0.020930054 -0.020930054 0.020930054 -0.020930054 0.020930054 0.020930054 0.020930054
-0.020930054 3.7548318e-19 -6.463985e-21 0.020930054 -8.623316e-12 -0.020930054 -0.020930054 8.9363e-18
-0.020930054 0.020930054 -0.020930054 -5.602754e-24 -0.020930054 5.3631355e-10 -1.0432183e-15 0.020930054
-0.020930054 -0.020930054 -7.9134976e-11 -0.020930054 -0.020930054 0.020930054 0.020930054 -0.020930054
-0.020930054 0.020930054 1.3191836e-17 -0.020930054 1.4647699e-12 0.020930054 0.020930054 -0.020930054
0.020930054 -0.020930054 -0.020930054 2.3709877e-27 -0.020930054 -3.1023976e-08 -2.4036365e-12 -7.665456e-23
2.1727575e-21 -0.020930054 0.020930054 -0.020930054 5.538058e-26 9.66858e-06 6.2888924e-19 0.02093006
-5.669101e-15 -4.4765303e-09 -0.020930054 -2.8126842e-20 1.7150136e-05 -1.35355265e-08 -2.3706168e-20 -9.031866e-14
-6.106546e-25 0.020930054 -0.020930054 -0.020930054 1.8754616e-18 -0.020930054 0.020930054 -0.020930054
0.020930054 0.020930054 1.1872437e-31 0.020930054 3.1114713e-09 -8.539478e-21 -0.020930054 -1.0938683e-10
0.020930054 6.55669e-14 -9.0228294e-14 0.020930054 -5.4610635e-13 -0.020930054 8.6337305e-23 9.993386e-13
4.343954e-18 -0.020930054 3.5347268e-13 4.8084248e-15 1.883288e-05 0.020930054 -0.020930054 0.020930054
-4.1559985e-23 6.4273527e-13 -0.020930054 8.7784363e-10 0.020930054 0.020930054 -0.020930054 0.020930054
-0.020930054 0.020930054 0.020930054 0.020930054 -0.020930054 3.7548318e-19 -6.463985e-21 0.020930054
00000000: 3a40 cca7 facf 99b1 8175 abbc 44d3 049f
00000010: a3dd 8f37 e089 68b2 ffe5 df9e 2a61 cba9
00000020: 0bfd 3c97 8175 ab3c 8175 abbc 8175 abbc
00000030: 7862 0a22 8175 abbc 8175 ab3c 8175 abbc
00000040: 8175 ab3c 8175 ab3c f01c 1a0c 8175 ab3c
00000050: 95d1 5531 624e 219e 8175 abbc 508b f0ae
00000060: 8175 ab3c bfa4 9329 122d cba9 8175 ab3c
00000070: 1cb7 19ab 8175 abbc 34c0 d01a f8a4 8c2b
00000080: 7c43 a022 8175 abbc c8fc c62a e43d ad27
00000090: 4dfb 9d37 8175 ab3c 8175 abbc 8175 ab3c
000000a0: c5f8 489a f5e9 342b 8175 abbc c14c 7130
000000b0: 8175 ab3c 8175 ab3c 8175 abbc 8175 ab3c
000000c0: 8175 abbc 8175 ab3c 8175 ab3c 8175 ab3c
000000d0: 8175 abbc 6aa5 dd20 d433 f49d 8175 ab3c
000000e0: f6b3 17ad 8175 abbc 8175 abbc 7cd8 2423
000000f0: 8175 abbc 8175 ab3c 8175 abbc fdbe d898
00000100: 8175 abbc b66b 1330 f657 96a6 8175 ab3c
00000110: 8175 abbc 8175 abbc 0805 aeae 8175 abbc
00000120: 8175 abbc 8175 ab3c 8175 ab3c 8175 abbc
00000130: 8175 abbc 8175 ab3c af58 7323 8175 abbc
00000140: e625 ce2b 8175 ab3c 8175 ab3c 8175 abbc
00000150: 8175 ab3c 8175 abbc 8175 abbc 58d9 3b13
00000160: 8175 abbc 393f 05b3 1124 29ac e056 b99a
00000170: 3e2b 241d 8175 abbc 8175 ab3c 8175 abbc
00000180: 9d1d 8915 3c36 2237 879d 3921 8475 ab3c
00000190: 3a40 cca7 facf 99b1 8175 abbc 44d3 049f
000001a0: a3dd 8f37 e089 68b2 ffe5 df9e 2a61 cba9
000001b0: 0bfd 3c97 8175 ab3c 8175 abbc 8175 abbc
000001c0: 7862 0a22 8175 abbc 8175 ab3c 8175 abbc
000001d0: 8175 ab3c 8175 ab3c f01c 1a0c 8175 ab3c
000001e0: 95d1 5531 624e 219e 8175 abbc 508b f0ae
000001f0: 8175 ab3c bfa4 9329 122d cba9 8175 ab3c
00000200: 1cb7 19ab 8175 abbc 34c0 d01a f8a4 8c2b
00000210: 7c43 a022 8175 abbc c8fc c62a e43d ad27
00000220: 4dfb 9d37 8175 ab3c 8175 abbc 8175 ab3c
00000230: c5f8 489a f5e9 342b 8175 abbc c14c 7130
00000240: 8175 ab3c 8175 ab3c 8175 abbc 8175 ab3c
00000250: 8175 abbc 8175 ab3c 8175 ab3c 8175 ab3c
00000260: 8175 abbc 6aa5 dd20 d433 f49d 8175 ab3c
00000270: f6b3 17ad 8175 abbc 8175 abbc 7cd8 2423
00000280: 8175 abbc 8175 ab3c 8175 abbc fdbe d898
00000290: 8175 abbc b66b 1330 f657 96a6 8175 ab3c
000002a0: 8175 abbc 8175 abbc 0805 aeae 8175 abbc
000002b0: 8175 abbc 8175 ab3c 8175 ab3c 8175 abbc
000002c0: 8175 abbc 8175 ab3c af58 7323 8175 abbc
000002d0: e625 ce2b 8175 ab3c 8175 ab3c 8175 abbc
000002e0: 8175 ab3c 8175 abbc 8175 abbc 58d9 3b13
000002f0: 8175 abbc 393f 05b3 1124 29ac e056 b99a
00000300: 3e2b 241d 8175 abbc 8175 ab3c 8175 abbc
00000310: 9d1d 8915 3c36 2237 879d 3921 8475 ab3c
00000320: 3a40 cca7 facf 99b1 8175 abbc 44d3 049f
00000330: a3dd 8f37 e089 68b2 ffe5 df9e 2a61 cba9
00000340: 0bfd 3c97 8175 ab3c 8175 abbc 8175 abbc
00000350: 7862 0a22 8175 abbc 8175 ab3c 8175 abbc
00000360: 8175 ab3c 8175 ab3c f01c 1a0c 8175 ab3c
00000370: 95d1 5531 624e 219e 8175 abbc 508b f0ae
00000380: 8175 ab3c bfa4 9329 122d cba9 8175 ab3c
00000390: 1cb7 19ab 8175 abbc 34c0 d01a f8a4 8c2b
000003a0: 7c43 a022 8175 abbc c8fc c62a e43d ad27
000003b0: 4dfb 9d37 8175 ab3c 8175 abbc 8175 ab3c
000003c0: c5f8 489a f5e9 342b 8175 abbc c14c 7130
000003d0: 8175 ab3c 8175 ab3c 8175 abbc 8175 ab3c
000003e0: 8175 abbc 8175 ab3c 8175 ab3c 8175 ab3c
000003f0: 8175 abbc 6aa5 dd20 d433 f49d 8175 ab3c

fc2.bias f4 [100]
-0.078115046 -0.078115046 -0.078115046 0.078115046 0.078115046 -0.078115046 0.078115046 0.078115046
-0.078115046 -0.078115046 -0.078115046 0.078115046 0.078115046 0.078115046 -0.078115046 -0.078115046
-0.078115046 -0.078115046 0.078115046 0.078115046 -0.078115046 0.078115046 2.3881847e-07 -0.078115046
-0.06404339 0.07359551 0.078115046 -0.078115046 0.078115046 -0.078115046 -0.078115046 0.078115046
0.078115046 -0.078115046 -0.078115046 -0.078115046 -0.078115046 0.078115046 0.078115046 0.078115046
0.078115046 0.078115046 -0.078115046 -0.078115046 -0.078115046 -0.078115046 0.078115046 0.078115046
0.078115046 0.078115046 0.078115046 -0.078115046 0.078115046 0.078115046 0.078115046 -0.078115046
0.078115046 1.0180183e-20 0.078115046 0.078115046 -0.078115046 -0.078115046 0.078115046 -0.078115046
0.078115046 -0.078115046 -0.078115046 0.078115046 -0.078115046 -0.078115046 0.078115046 1.087735e-07
0.078115046 -0.078115046 -0.078115046 -0.078115046 0.078115046 -0.078115046 0.078115046 0.078115046
-1.0640404e-36 0.078115046 0.078115046 0.078115046 0.078115046 0.018391753 -0.078115046 0.078115046
0.078115046 -0.078115046 -0.078115046 -0.076325245 0.078115046 0.078115046 0.078115046 0.078115046
-0.07811506 0.07811506 -0.07811506 0.07811506
00000000: c8fa 9fbd c8fa 9fbd c8fa 9fbd c8fa 9f3d
00000010: c8fa 9f3d c8fa 9fbd c8fa 9f3d c8fa 9f3d
00000020: c8fa 9fbd c8fa 9fbd c8fa 9fbd c8fa 9f3d
00000030: c8fa 9f3d c8fa 9f3d c8fa 9fbd c8fa 9fbd
00000040: c8fa 9fbd c8fa 9fbd c8fa 9f3d c8fa 9f3d
00000050: c8fa 9fbd c8fa 9f3d f636 8034 c8fa 9fbd
00000060: 2e29 83bd 3eb9 963d c8fa 9f3d c8fa 9fbd
00000070: c8fa 9f3d c8fa 9fbd c8fa 9fbd c8fa 9f3d
00000080: c8fa 9f3d c8fa 9fbd c8fa 9fbd c8fa 9fbd
00000090: c8fa 9fbd c8fa 9f3d c8fa 9f3d c8fa 9f3d
000000a0: c8fa 9f3d c8fa 9f3d c8fa 9fbd c8fa 9fbd
000000b0: c8fa 9fbd c8fa 9fbd c8fa 9f3d c8fa 9f3d
000000c0: c8fa 9f3d c8fa 9f3d c8fa 9f3d c8fa 9fbd
000000d0: c8fa 9f3d c8fa 9f3d c8fa 9f3d c8fa 9fbd
000000e0: c8fa 9f3d 584c 401e c8fa 9f3d c8fa 9f3d
000000f0: c8fa 9fbd c8fa 9fbd c8fa 9f3d c8fa 9fbd
00000100: c8fa 9f3d c8fa 9fbd c8fa 9fbd c8fa 9f3d
00000110: c8fa 9fbd c8fa 9fbd c8fa 9f3d dd96 e933
00000120: c8fa 9f3d c8fa 9fbd c8fa 9fbd c8fa 9fbd
00000130: c8fa 9f3d c8fa 9fbd c8fa 9f3d c8fa 9f3d
00000140: 7f09 b583 c8fa 9f3d c8fa 9f3d c8fa 9f3d
00000150: c8fa 9f3d 4daa 963c c8fa 9fbd c8fa 9f3d
00000160: c8fa 9f3d c8fa 9fbd c8fa 9fbd 6950 9cbd
00000170: c8fa 9f3d c8fa 9f3d c8fa 9f3d c8fa 9f3d
00000180: cafa 9fbd cafa 9f3d cafa 9fbd cafa 9f3d

fc3.weight f4 [1, 100]
-0.18798316 -0.18798316 -0.18798316 0.18798316 0.18798316 -0.18798316 0.18798316 0.18798316
-0.18798316 -0.18798316 -0.18798316 0.18798316 0.18798316 0.18798316 -0.18798316 -0.18798316
-0.18798316 -0.18798316 0.18798316 0.18798316 -0.18798316 0.18798316 5.0648873e-07 -0.18798316
-0.15063041 0.17574915 0.18798316 -0.18798316 0.18798316 -0.18798316 -0.18798316 0.18798316
0.18798316 -0.18798316 -0.18798316 -0.18798316 -0.18798316 0.18798316 0.18798316 0.18798316
0.18798316 0.18798316 -0.18798316 -0.18798316 -0.18798316 -0.18798316 0.18798316 0.18798316
0.18798316 0.18798316 0.18798316 -0.18798316 0.18798316 0.18798316 0.18798316 -0.18798316
0.18798316 -3.6735988e-21 0.18798316 0.18798316 -0.18798316 -0.18798316 0.18798316 -0.18798316
0.18798316 -0.18798316 -0.18798316 0.18798316 -0.18798316 -0.18798316 0.18798316 2.214145e-07
0.18798316 -0.18798316 -0.18798316 -0.18798316 0.18798316 -0.18798316 0.18798316 0.18798316
-2.5839685e-36 0.18798316 0.18798316 0.18798316 0.18798316 0.041240424 -0.18798316 0.18798316
0.18798316 -0.18798316 -0.18798316 -0.1831102 0.18798316 0.18798316 0.18798316 0.18798316
-0.18798314 0.18798314 -0.18798314 0.18798314
00000000: a87e 40be a87e 40be a87e 40be a87e 403e
00000010: a87e 403e a87e 40be a87e 403e a87e 403e
00000020: a87e 40be a87e 40be a87e 40be a87e 403e
00000030: a87e 403e a87e 403e a87e 40be a87e 40be
00000040: a87e 40be a87e 40be a87e 403e a87e 403e
00000050: a87e 40be a87e 403e a4f5 0735 a87e 40be
00000060: dc3e 1abe 96f7 333e a87e 403e a87e 40be
00000070: a87e 403e a87e 40be a87e 40be a87e 403e
00000080: a87e 403e a87e 40be a87e 40be a87e 40be
00000090: a87e 40be a87e 403e a87e 403e a87e 403e
000000a0: a87e 403e a87e 403e a87e 40be a87e 40be
000000b0: a87e 40be a87e 40be a87e 403e a87e 403e
000000c0: a87e 403e a87e 403e a87e 403e a87e 40be
000000d0: a87e 403e a87e 403e a87e 403e a87e 40be
000000e0: a87e 403e dec8 8a9d a87e 403e a87e 403e
000000f0: a87e 40be a87e 40be a87e 403e a87e 40be
00000100: a87e 403e a87e 40be a87e 40be a87e 403e
00000110: a87e 40be a87e 40be a87e 403e f4bd 6d34
00000120: a87e 403e a87e 40be a87e 40be a87e 40be
00000130: a87e 403e a87e 40be a87e 403e a87e 403e
00000140: dad1 5b84 a87e 403e a87e 403e a87e 403e
00000150: a87e 403e b8eb 283d a87e 40be a87e 403e
00000160: a87e 403e a87e 40be a87e 40be 3e81 3bbe
00000170: a87e 403e a87e 403e a87e 403e a87e 403e
00000180: a77e 40be a77e 403e a77e 40be a77e 403e

fc1.weight f4 [100, 24]
-0.0031797378 0.24057113 -0.009760812 -0.100786656 0.068309575 0.009842771 0.21314561 -0.06240878
-0.04032154 0.20241627 -0.14398131 -0.0024333447 -0.14169621 -0.00915131 -0.14087927 0.06269115
-0.13647278 -0.1583248 -0.1385667 0.10256636 -0.13812408 0.12262337 0.039666228 0.20376074
0.081722334 0.08127036 0.08149567 -0.14141546 -0.1860494 -0.170363 -0.24212822 -0.24259564
-0.11148998 0.13403228 0.13753918 0.017171368 -0.074147254 -0.12939623 0.06618303 0.0015245974
0.1549465 -0.018191263 -0.052954108 -0.15728387 -0.11138475 0.03541712 0.15710537 -0.08648539
0.13439104 -0.05745808 -0.16556987 0.0070242505 0.21643636 -0.09048826 -0.12898771 -0.06081365
0.054905664 -0.20040648 0.032572165 -0.030533522 0.014382333 -0.04103847 -0.07231605 -0.04327856
-0.056316003 -0.13460654 -0.17300546 -0.20299849 -0.08378723 -0.08763272 -0.1494531 0.06961314
0.03034563 -0.22791214 -0.02689539 -0.12533394 -0.03340824 0.07186142 -0.21807708 -0.1727903
-0.13001575 -0.1723868 0.16095951 0.18680397 -0.19828513 0.10636082 0.17428097 -0.04985395
-0.023952872 0.068677515 0.094787866 0.14626116 0.07196146 -0.012914812 -0.14748523 -0.0600852
-0.06308566 0.040535122 0.018177968 0.10438166 -0.12394538 -0.09952709 -0.030887071 -0.17714788
-0.08500983 -0.16513778 -0.19292879 -0.029473335 0.17257363 -0.013961151 -0.0014872104 -0.008670226
-0.006540939 0.15454754 -0.06687158 -0.10976623 0.18435624 -0.001838502 0.009044154 0.17824136
-0.15642518 -0.12837929 -0.14352323 -0.19141854 0.043337915 -0.24924073 -0.093772106 -0.05960719
-0.013181937 0.07399571 0.17244154 -0.077443585 -0.17254117 0.025175333 0.14958793 -0.027063087
0.16056183 -0.09650545 -0.07253313 -0.06343526 -0.0643675 0.18032642 0.049303547 0.0030953933
-0.2742234 -0.02533194 -0.14962731 -0.17859933 -0.00046408223 0.10654208 -0.1896547 -0.20390359
0.050674092 0.18290865 -0.1933351 -0.13922754 0.20048076 0.15442643 0.02912882 0.10926178
0.021771029 -0.11778597 -0.11758044 0.17305288 0.0101043135 0.07402392 0.068694666 0.042725105
0.17609704 0.19370963 -0.10009513 0.012431881 0.19881493 0.07869935 0.21096542 0.22642939
0.11184702 -0.113425456 0.07349771 0.08169246 -0.011307627 0.16403002 -0.079631485 0.032361984
-0.152095 -0.116669714 -0.08722923 -0.053563714 -0.17439996 0.027877692 -0.05839085 -0.11231104
0.04018845 0.1344583 0.11636411 -0.0069652265 0.05274068 0.1444592 0.06556337 0.15006508
0.12497649 0.1816127 0.1742895 0.048463494 -0.04423082 -0.18074106 -0.033203706 0.20353648
0.15871239 0.16041413 -0.0751777 -0.030540332 0.12533009 -0.09107365 0.088690005 -0.065143816
-0.0065973843 0.13489108 0.054309696 0.14237972 -0.14323728 0.17238341 0.19772217 0.21522532
0.047602884 -0.031300157 0.19015121 -0.12310607 0.09083539 -0.1886134 0.0072486997 0.048635185
0.05266142 -0.13044904 -0.11696787 0.08488697 0.14126459 -0.026076876 0.033089805 -0.16206317
-0.1862511 -0.045273595 -0.0013786983 0.12292744 -0.101684704 -0.2496198 -0.20741422 -0.3111069
-0.20328754 -0.06176637 0.022790238 -0.0917225 0.015389383 0.13056195 0.058306754 -0.042467758
00000000: 2663 50bb 4758 763e d0eb 1fbc 3c69 cebd
00000010: e4e5 8b3d 9343 213c d842 5a3e 59a0 7fbd
00000020: 3328 25bd 3646 4f3e d66f 13be c078 1fbb
00000030: d018 11be 60ef 15bc a842 10be 3864 803d
00000040: 85bf 0bbe e51f 22be 6ee4 0dbe 500e d23d
00000050: 6670 0dbe f621 fb3d 0e79 223d a8a6 503e
00000060: 0a5e a73d 1371 a63d 34e7 a63d 37cf 10be
00000070: bc83 3ebe a373 2ebe 76f0 77be fe6a 78be
00000080: dc54 e4bd c23f 093e 12d7 0c3e f8aa 8c3c
00000090: 84da 97bd 7280 04be f88a 873d 00d5 c73a
000000a0: 4caa 1e3e d805 95bc 68e6 58bd 060f 21be
000000b0: b01d e4bd 8b11 113d 3be0 203e 411f b1bd
000000c0: ce9d 093e 2a59 6bbd 268b 29be af2b e63b
000000d0: 7ea1 5d3e e951 b9bd 5b15 04be bc17 79bd
000000e0: c3e4 603d 5b37 4dbe 646a 053d 7021 fabc
000000f0: e0a3 6b3c f417 28bd 701a 94bd dc44 31bd
00000100: 9cab 66bd 4cd6 09be 5828 31be d6de 4fbe
00000110: a498 abbd c978 b3bd 3c0a 19be 5591 8e3d
00000120: 6697 f83c cd61 69be b953 dcbc 8a57 00be
00000130: 14d7 08bd 152c 933d 994f 5fbe f1ef 30be
00000140: d922 05be 2a86 30be 92d2 243e 8a49 3f3e
00000150: 420b 4bbe b4d3 d93d b676 323e a833 4cbd
00000160: d038 c4bc cca6 8c3d 2420 c23d 7cc5 153e
00000170: 8860 933d a698 53bc 5e06 17be e61b 76bd
00000180: 0e33 81bd 2808 263d f6e9 943c 0dc6 d53d
00000190: 13d7 fdbd dcd4 cbbd e206 fdbc 4166 35be
000001a0: a219 aebd e119 29be 208f 45be 1072 f1bc
000001b0: 24b7 303e 50bd 64bc 80ee c2ba 900d 0ebc
000001c0: 6055 d6bb b641 1e3e f8f3 88bd 1ecd e0bd
000001d0: e2c7 3c3e e4f9 f0ba ee2d 143c e784 363e
000001e0: ec2d 20be dc75 03be c1f7 12be 3903 44be
000001f0: 1983 313d f638 7fbe 970b c0bd ab26 74bd
00000200: 0df9 57bc 108b 973d 8494 303e be9a 9ebd
00000210: a2ae 30be 803c ce3c 942d 193e 68b3 ddbc
00000220: 526a 243e a6a4 c5bd 408c 94bd 58ea 81bd
00000230: 1cd3 83bd 7da7 383e 84f2 493d 15dc 4a3b
00000240: 0267 8cbe ee84 cfbc e737 19be bee2 36be
00000250: 1050 f3b9 bc32 da3d d734 42be 1acc 50be
00000260: a38f 4f3d 684c 3b3e a3f9 45be aa91 0ebe
00000270: d44a 4d3e f621 1e3e 909f ee3c a4c4 df3d
00000280: 2859 b23c c539 f1bd 04ce f0bd c634 313e
00000290: 908c 253c da99 973d caaf 8c3d 8500 2f3d
000002a0: c852 343e d15b 463e adfe ccbd 17af 4b3c
000002b0: 2496 4b3e 202d a13d 5207 583e 1bdd 673e
000002c0: 0d10 e53d 9b4b e8bd f885 963d 604e a73d
000002d0: a043 39bc 7cf7 273e d515 a3bd 008e 043d
000002e0: cbbe 1bbe 88f0 eebd 3da5 b2bd a065 5bbd
000002f0: e795 32be c25f e43c 3e2b 6fbd 5503 e6bd
00000300: a59c 243d 70af 093e 4e50 ee3d 8e3c e4bb
00000310: 9c06 583d 1ded 133e 1746 863d a9aa 193e
00000320: adf3 ff3d aef8 393e f278 323e a881 463d
00000330: 602b 35bd 2f14 39be 9c00 08bd de6b 503e
00000340: 8085 223e 9a43 243e c4f6 99bd b82f fabc
00000350: 8856 003e d284 babd 1ba3 b53d 1f6a 85bd
00000360: df2e d8bb e320 0a3e d873 5e3d fdcb 113e
00000370: cbac 12be 4785 303e ae77 4a3e 0764 5c3e
00000380: 3efb 423d 9834 00bd 00b7 423e 091f fcbd
00000390: e807 ba3d df23 41be 8086 ed3b b035 473d
000003a0: 80b3 573d 6f94 05be da8c efbd 38d9 ad3d
000003b0: aaa7 103e 2c9f d5bc 2d89 073d e3f3 25be
000003c0: 9cb8 3ebe ce70 39bd 70b5 b4ba 62c1 fb3d
000003d0: 1240 d0bd 559c 7fbe 6564 54be 6749 9fbe
000003e0: 9c2a 50be bcfe 7cbd 98b2 ba3c 02d9 bbbd
000003f0: c023 7c3c 08b2 053e 10d3 6e3d acf2 2dbd
