gail/save_model/0/SUB063_ckpt_0.pth.tar (torch_old, 154733 bytes, 16 tensors)

fc1.weight f4 [100, 22]
00000000: 8e7e babd 7a60 2cbe 2018 d0bd b743 8c3b
00000010: 4aab dd3e 508e d13e acb4 5e3e b435 e43e
00000020: 59aa f83e 4c25 023e 003e 8ebc 3886 2e3e
00000030: 4eb4 d8bd 184a e23c 9825 4dbe c06f 223d
00000040: 7025 723d 4033 0fbc 78f1 333d bc58 cd3d
00000050: dc39 e33d 2212 293e f8e0 08be 4fb5 a03e
00000060: 79f0 c5be a84a 1c3f 7aae f93e cc0b 0cbe
00000070: 3211 48bd 8351 0b3e 0ec4 a6bd 60a0 82bc
00000080: 80ca d93d 428d 403e 8245 3fbe 08aa 563d
00000090: c87c 253e 885d 423d e0f2 743d 8098 4abe
000000a0: 60d8 13bd e859 d7bd 4c4c 0a3e c495 50be
000000b0: 71af 883e f613 803c e15a c2be 21a9 943e
000000c0: 4a3f 34be 6bd8 333d cbb1 26be 1d3b 46bd
000000d0: 7820 1f3e f4e6 823d 80e2 423d e2fd 343e
000000e0: 2aac 90bd e061 00bd 386a f13d f2de 593e
000000f0: b48a 903d 702e 3f3d 2bd9 cdbd 00e4 5a3c
00000100: 0899 e8bc 707d b63c b388 b93e c125 29bf
00000110: 4cdb 123d aa81 6abf 9007 26bf 5206 16bf
00000120: af0f 7dbe 1aed e0be b11b d8be 01da dabd
00000130: 33e9 1abe c8ad 403d 1ac7 463e 45c5 ebbd
00000140: 808b c0bd b850 243e 7c20 8a3d 961e 3c3e
00000150: 3081 b13c 5c39 07be 3e95 283e c202 4d3e
00000160: fdc7 f03d 6632 90be 8357 1bbe 2cb3 16bf
00000170: 8469 b83d d191 dd3b f4b7 87bc d5ec 87be
00000180: 5af8 883d 24fa f9bd 820d 0b3e e06a ae3b
00000190: 20b2 ac3d 888f b9bc 6854 bc3d 7659 283e
000001a0: edcf 41be 04e5 043e 28a2 423e 8c7a fa3d
000001b0: b053 d03d 2465 3abd 911f 3dbe dd3a 3bbe
000001c0: d28d 71be 96d0 cdbe d053 b6bd 023f e83d
000001d0: 4e77 2fbe 64ca b73d da14 033c 0c99 f63d
000001e0: 487b 25bd ba00 a4bd a8b9 24bd a814 703d
000001f0: 902a 173d 588b 543e 0467 453e dc31 033d
00000200: b850 0abd 94d6 07bd 8032 6ebd b81f ed3d
00000210: 0234 8a3d 2ddf 933e 4cbb b6be 58a4 f73e
00000220: fe07 eb3e 3ec2 85be e058 33be beee 83be
00000230: b7c2 40bd 8093 c03a 4cbd b63d 342d bd3d
00000240: 50d3 b03d c7cf 02be 12a7 093e 00fa 77bd
00000250: 2c53 57bd d054 a33c 2a1e 173e 3e4a 1c3e
00000260: c89a 9cbd 403c 893b 81eb 22bd 5223 553b
00000270: 648f 193f 08bc f5be decb 203e 3311 3ebd
00000280: 63f2 553e 0178 373e b905 8a3c 2045 303c
00000290: 6469 d23d d4ac 13bd cb67 e9bd a4c0 a73d
000002a0: b056 dc3d 96a3 0f3e 90b3 243d cb31 e2bd
000002b0: 58ee 69bd b0e6 093e 9c95 ae3d b4a8 54bd
000002c0: 48b6 fa3d 18e5 86be b275 72be f6d1 ff3e
000002d0: ebe2 073f dc9a 933e 355b 7cbd f67c 933e
000002e0: 31c2 8e3e 5890 033e ec6e 443e c08f 013b
000002f0: 27be 2cbe d8c9 973c b9b8 58be 08d4 063d
00000300: dec1 0fbe 045e f63d c46a e23d 14c8 41bd
00000310: d033 e9bd 9783 fcbd b9e8 343e 1b24 b4bc
00000320: a49c 0a3e ca62 8a3e 392e 91be 8278 993c
00000330: 74ee f7bd 9044 89bd 09e9 5bbe 38ec 2dbe
00000340: 1c9c 4d3e 3869 b5bd 3408 413e 73e1 31be
00000350: 30c1 1c3d 4c28 493e ced6 56be 86ef 38be
00000360: 415d 1cbe 881b fbbc f030 533d f635 48be
00000370: a4c7 adbe 4675 043e 3c6e a03d 921b bb3e
00000380: 8a89 e83e 4f36 493e 8c38 bf3d 02ee 293e
00000390: 004e 423e 986b 91bd 6d15 38be 947b 213e
000003a0: 6840 af3c 6ca1 f83d cc89 0b3e 4ca5 473e
000003b0: 051b 31be ff48 c4bd a8a7 6c3d a843 29bd
000003c0: 8868 ef3d 202c 83bc 7b1d 9cbd 4084 febe
000003d0: 7e0d c43e 1252 ca3d 3941 ce3e a863 10bd
000003e0: 4487 95be 17ab 79be 6b6a 63be f475 8c3d
000003f0: 52f6 4bbe 921a 0f3e 50b4 403d 14b5 073d
-0.0910617 -0.16833678 -0.101608515 0.004280533 0.43294746 0.40928888 0.21748608 0.44572222
0.48567465 0.1270954 -0.017363548 0.17043388 -0.105812654 0.027623221 -0.20033872 0.039657354
0.059117734 -0.008740246 0.043931454 0.1002669 0.1109502 0.16510823 -0.13367069 0.31388327
-0.3866003 0.61051416 0.48765928 -0.13676375 -0.048844524 0.13605313 -0.08142863 -0.015945613
0.10634327 0.18803886 -0.18678859 0.05240825 0.16160882 0.04745248 0.059801936 -0.19784737
-0.036095023 -0.10515195 0.13505667 -0.20369631 0.2669635 0.015634518 -0.3795996 0.29035285
-0.17602268 0.043907564 -0.1627876 -0.04839622 0.1553973 0.06391707 0.04757929 0.17674974
-0.07064088 -0.03134334 0.11787838 0.21276453 0.070577055 0.046675146 -0.10051187 0.0133600235
-0.028393283 0.02227661 0.36237106 -0.6607323 0.03585367 -0.916041 -0.6485529 -0.58603394
-0.24713014 -0.43930894 -0.42208627 -0.10686112 -0.15128021 0.04704073 0.19411889 -0.115122356
-0.094016075 0.16046417 0.06744477 0.18371043 0.021668047 -0.13205475 0.16463181 0.20020583
0.11756895 -0.2816345 -0.15170102 -0.58867145 0.090045005 0.0067617674 -0.016567208 -0.26547876
0.06687994 -0.12205914 0.13579372 0.005322799 0.08432412 -0.022651449 0.09195787 0.16440377
-0.18926974 0.12977988 0.1900717 0.12230405 0.10172212 -0.04550661 -0.18469073 -0.18284173
-0.23589256 -0.401982 -0.08902705 0.11340143 -0.17135355 0.0897415 0.008000577 0.1204091
-0.040400773 -0.08007951 -0.040216118 0.05861345 0.036905825 0.2075628 0.19277579 0.03202997
-0.033768386 -0.033163622 -0.05815363 0.115783155 0.06748201 0.28881207 -0.3568977 0.48367572
0.45904535 -0.26124758 -0.17514372 -0.25768083 -0.047060695 0.0014692396 0.08922824 0.092371374
0.08634055 -0.12774573 0.13442639 -0.060541153 -0.052569553 0.019937903 0.147576 0.15262696
-0.0764671 0.0041880906 -0.039775375 0.0032522273 0.5998442 -0.4799502 0.15702769 -0.04640312
0.20893244 0.17916872 0.016848432 0.010758668 0.10274008 -0.036053494 -0.1139675 0.0819104
0.10758722 0.14027247 0.040210307 -0.110446535 -0.057112068 0.13466907 0.085246295 -0.0519187
0.12241799 -0.2634666 -0.2367771 0.49964875 0.53080624 0.28829086 -0.06161042 0.28806275
0.2788253 0.12848032 0.19182938 0.001976952 -0.16869412 0.018528864 -0.21164216 0.032917053
-0.14038798 0.12029651 0.1105552 -0.04730995 -0.113868356 -0.12329786 0.17666902 -0.021989873
0.13536316 0.27028495 -0.28355578 0.01873422 -0.12106028 -0.067025304 -0.21475615 -0.16984642
0.20079082 -0.088579595 0.18850785 -0.17371158 0.038270175 0.19644278 -0.20980379 -0.18060121
-0.15269949 -0.030652776 0.051560342 -0.19551834 -0.33941376 0.12935361 0.078335255 0.36544472
0.45417434 0.19649623 0.09336957 0.16594699 0.18975067 -0.071006 -0.17976923 0.15769798
0.021393016 0.12140164 0.13626784 0.1949665 -0.17295463 -0.095842354 0.057777077 -0.041324288
0.1168986 -0.016012251 -0.076228105 -0.49710274 0.38291544 0.09878935 0.40284136 -0.03525129
-0.29204762 -0.24381672 -0.22208564 0.06858435 -0.19918182 0.1397498 0.04704696 0.033131674

fc1.bias f4 [100]
00000000: 1a4b 9ebe 1937 7e3c 8686 de3d 0c67 933e
00000010: ca46 f13d 3588 09be 9305 223d 2016 1b3d
00000020: bb35 5fbe e472 0d3e 021a f4bd de34 223d
00000030: 2693 d2bb f74a e5bc 637b 6a3e 06b1 12be
00000040: 41ec 6a3e 497c 70bd 4779 1d3d e3d8 ee3b
00000050: b7e4 973d da53 37be 113e 88be b8a2 2e3e
00000060: 4b20 0e3e e600 8fbe 76f0 9f3d 75d1 cebd
00000070: 7b36 683e b84e 293e f861 293e 2f19 623c
00000080: 0409 73bd 1008 40be dc27 903e d8de 7bbe
00000090: 3ac4 9dbc d98a 7abd 86b4 44be 5f28 0e3e
000000a0: 5ce2 20be 22b8 463e 86b7 4bbe e4bf 2d3e
000000b0: e1a3 7c3d 54fd 2cbe 275c a8bd 53c7 753d
000000c0: 3842 203d 5146 b4be 0c56 703d 8627 4e3e
000000d0: 8171 02be 74cf adbe 5a46 be3d c526 80be
000000e0: b700 48be c4a3 c7be 7991 463d 1d33 7b3e
000000f0: 4ee8 0c3e 7bc2 c63d 5ce5 28be 17d0 a9be
00000100: 5eda b8be 2197 593e f192 073e 9a51 f93d
00000110: 48ee 033e 9c6b be3e 376a 12be ef36 aa3e
00000120: c175 35be 8c8b 013e 53f6 9a3d 9544 24be
00000130: 96db c63e f635 833e 3be8 463e cfb2 57be
00000140: a9eb 7abe 1ffa 08bd a9aa 0bbe 18a6 ff3d
00000150: b2f6 92bd fb95 c03c 6343 93bd 49f7 343e
00000160: 17a7 7c3d d5cc 283e 6b1f 69bd 9a14 e7bd
00000170: 23a0 e53d 086e 1d3e 7d71 d23e 6cbe 68bc
00000180: 6bbe 88be 0d1e 443c 5ae7 7e3e 5e05 e6bd
-0.30916673 0.015516066 0.10865502 0.28789556 0.1178108 -0.13430865 0.039556097 0.037862897
-0.2179784 0.13813359 -0.11919023 0.0396012 -0.006426233 -0.027989848 0.22898631 -0.14325342
0.22941686 -0.058712278 0.038445737 0.0072890385 0.07416671 -0.1790308 -0.26609853 0.1705426
0.13879506 -0.27930373 0.07809536 -0.100985445 0.22677033 0.16533935 0.16541278 0.01379995
-0.05933477 -0.18753076 0.2815541 -0.24596727 -0.019258607 -0.06116757 -0.19209489 0.13882588
-0.15711349 0.19406179 -0.19894227 0.16967732 0.061679725 -0.16893512 -0.08220702 0.060004544
0.03912565 -0.35209897 0.05867581 0.20132264 -0.12738611 -0.33947337 0.09290762 -0.2502958
-0.19531523 -0.3899213 0.048478577 0.24531217 0.13760492 0.09705063 -0.16493744 -0.33166572
-0.361041 0.21249057 0.13239647 0.121737674 0.12883866 0.37191474 -0.1429833 0.33245036
-0.17720701 0.12650889 0.07566514 -0.16041787 0.38839406 0.25627106 0.19424526 -0.21064304
-0.2450396 -0.03344166 -0.1363932 0.12482852 -0.0717596 0.023509016 -0.07190587 0.17672457
0.061682787 0.16484387 -0.056914728 -0.11283226 0.11212184 0.15374005 0.4110221 -0.014205556
-0.26707777 0.011970055 0.24892941 -0.112314925

fc2.weight f4 [100, 100]
00000000: a9d9 4cbf a8ba 943e e4bd a13e d285 a83d
00000010: 30b1 3d3e c433 2ebf c420 3f3f f9ee 0fbe
00000020: 97da e8be 051b d13d 9644 07be 39fc c13d
00000030: 592b 1abf 640c e83e 42dc 153f 8311 763d
00000040: 5556 bc3e 413c 85be c8d2 6cbd a674 0dbf
00000050: 9dd9 32be 5fc0 cebe a2bf 44be 2ce1 073f
00000060: 0c1a 173f 5b1d 6bbe 8635 1bbf 4f0b bfbe
00000070: 1b9a d53e 45ae b53e 7bf1 6d3e 544f e53e
00000080: 9f0d 12bf db01 b2be 64c0 9a3e f92a 02bf
00000090: ce46 1ebe 98c7 33be 8a7b e1be 6ea5 d03e
000000a0: 1e0f edbe 1834 2c3e 5039 eabe d7fe 063f
000000b0: 4786 c73e ba4c 01be b3c5 b63e 1b2d b0be
000000c0: b966 15bf 6db2 efbe 3af0 bcbe 271d 453e
000000d0: 3d4f aebe 3a14 0cbf 034b 2b3e 78b0 c0be
000000e0: b3a8 6bbf 880b 9ebe 0f2b f4bc b942 e03e
000000f0: 7692 a83e 2a99 bd3e a08e bfbe 7c92 cabe
00000100: 0cbc dabe 174a 273f ef29 9d3e a608 f8bc
00000110: 102c b63d b8fe 8c3e e148 25bf 5f31 df3e
00000120: 537f c53d ec2c d33e 2f4a 3b3f b082 2fbf
00000130: 579d ce3e fa31 2b3f 2860 623d b073 86be
00000140: 96d1 41bf 5858 17bf effe 31be 1095 ea3e
00000150: 4300 a9bd 049b 663e 3f38 80be 8147 433d
00000160: 3399 cebe a7ed 133f ac99 e3be 08ee 61bd
00000170: 434b 363e eb01 263f 01e7 0d3f f885 78be
00000180: a7df 8bbd fdcc bd3e 3138 e73e 8b86 5d3e
00000190: d31a 40bf d25b 633e 5951 cf3e 7d0e 98bd
000001a0: 5a39 6e3e e10e 1cbf 2676 343f f616 1ebe
000001b0: 2fed a9be 117d 873e b739 27be f59f 92bc
000001c0: 9195 f9be e377 da3e d50d ea3e 9577 bebd
000001d0: 40d6 843e 0827 17be da75 c33d 48a6 24bf
000001e0: 24ec 2dbe b3d0 a8be cfbc 13be 7c1e de3e
000001f0: 4f01 0e3f 14c1 40be e324 30bf dd79 72be
00000200: e503 f63e 29dd 953e 15bc 823e 2f58 fb3e
00000210: 6259 f5be 00d7 83be aa4e ca3e 0946 e8be
00000220: 9f14 a9bb e833 1abe 98bb f2be 41b2 ca3e
00000230: 6d54 10bf 25eb 613e 5560 a3be 19d2 dc3e
00000240: 383b b13e 509f 2bbe b945 ea3e 4d95 02bf
00000250: 0828 3bbf 284e cfbe 1a8d 7fbe 772c 003e
00000260: 6c70 efbe 5eac 1abf 9719 fdbc fb1a cbbe
00000270: 6e11 66bf b832 92be b412 90bb 754a ef3e
00000280: e3b4 dd3e 5004 be3e c2d3 f0be 05a4 f1be
00000290: e0fb ebbe c057 313f b20c e03e 129a c13d
000002a0: 5fe3 e43d 84a2 b33e 3f9e 08bf 10a8 073f
000002b0: 0df8 c93d 7b76 bb3e f650 3f3f e7e7 44bf
000002c0: 28af a03e 1a2e 373f 58ea 123e 9570 cbbe
000002d0: fcbb 30bf fee6 14bf 2b86 67be 7dcc fb3e
000002e0: cc54 d9bc b6c6 7a3e 699b 59be 5816 a5bd
000002f0: 6920 95be 8841 0c3f 4b45 fbbe d582 ecbb
00000300: 27d7 8b3e 3f46 0b3f fcfb e63e 6a99 06be
00000310: 2159 67be ac49 803e e9f9 f13e b089 5e3e
00000320: f800 313f 5003 99be 8db6 9abe 2e2c 423c
00000330: 7643 56be 33f4 e33e 9210 32bf 8ba6 913e
00000340: 3e93 9a3e a329 dabd 4f7c 653e c813 19bd
00000350: fad3 033f 3ffd 9abe 29cc 09bf 4a57 e43d
00000360: 576a a8be 47f4 773e 0f8e 05bd 9ac3 0f3f
00000370: 1b64 753e 660a a83e a0ff aa3e e5d8 c6be
00000380: 7e18 eebe 897d 9a3e 9d57 2c3f a9a1 523e
00000390: ff24 c2be 2d48 a8be ef20 953b 98d9 b3be
000003a0: a457 f73e 19b4 e13d 54e1 ecbe 85f8 df3e
000003b0: 4cd1 833d 0f92 1b3e 3164 083f aaa3 eabe
000003c0: 505f 1f3f ccb9 63be b187 a53e b1ff 0ebf
000003d0: 2d0a d8be 2747 413d 0610 acbe cb1b d03e
000003e0: 20b4 163f e395 dc3e 1f87 b03e 54b9 a7be
000003f0: 129e be3e ea9d 093f e7d6 89bd 1a7d 033f
-0.80019623 0.29048657 0.31590188 0.08228649 0.18524623 -0.6804774 0.7465937 -0.14056005
-0.4547927 0.10210232 -0.13209757 0.09471936 -0.60222393 0.45321953 0.5853921 0.060075294
0.36784616 -0.26022533 -0.057818204 -0.55256116 -0.17465825 -0.40381142 -0.19213727 0.5307796
0.5902412 -0.22960417 -0.60628545 -0.37313315 0.41719136 0.3548452 0.23236649 0.44787085
-0.57052034 -0.3476704 0.30224907 -0.5084682 -0.15456697 -0.17556608 -0.44039565 0.40751213
-0.46300596 0.16816747 -0.4574685 0.52732605 0.38969633 -0.12626925 0.35697708 -0.34409413
-0.5835987 -0.46815816 -0.36902028 0.19249402 -0.3404483 -0.54718363 0.16727833 -0.37634635
-0.9205429 -0.30868173 -0.029805688 0.43800905 0.3292424 0.37030917 -0.37413502 -0.39564884
-0.42721593 0.6534743 0.30696055 -0.030277561 0.08895123 0.27538085 -0.6456433 0.43592355
0.09643426 0.4124521 0.7316007 -0.6855879 0.40354416 0.66873133 0.055267483 -0.26260138
-0.7571043 -0.59119177 -0.17382406 0.4581685 -0.08252003 0.22520071 -0.25042912 0.047675613
-0.40351257 0.57784504 -0.4445318 -0.055158645 0.17802148 0.64846677 0.5543061 -0.24269855
-0.06829768 0.37070456 0.45160058 0.21633355 -0.7504093 0.22202995 0.4049175 -0.074246384
0.23264065 -0.60960203 0.7049278 -0.15438446 -0.3318877 0.26462606 -0.1633061 -0.01789854
-0.48746923 0.4266959 0.45713678 -0.09300152 0.2594471 -0.14760983 0.09543963 -0.64316225
-0.16984612 -0.32971725 -0.14427494 0.43382633 0.55470747 -0.18823653 -0.68806285 -0.236793
0.48049846 0.29270294 0.2553412 0.49090716 -0.47919756 -0.2574997 0.3951314 -0.45365933
-0.005159929 -0.15058863 -0.47408748 0.39589122 -0.56378824 0.22062357 -0.31909433 0.43129042
0.34615493 -0.16759992 0.4575632 -0.51009065 -0.7310796 -0.40489316 -0.2495617 0.12516962
-0.4676546 -0.6041926 -0.030895991 -0.39669022 -0.89870346 -0.2855432 -0.004396761 0.46736494
0.43302068 0.37112665 -0.47036558 -0.4719545 -0.46090603 0.6927452 0.43759686 0.09453215
0.1117618 0.35084927 -0.53366464 0.5299082 0.09861765 0.3661383 0.7473291 -0.76916355
0.31383634 0.7155472 0.14347208 -0.3973433 -0.6903684 -0.58164966 -0.22609775 0.4917945
-0.026529692 0.24489865 -0.2125069 -0.08060902 -0.2912629 0.5478749 -0.49076304 -0.007217745
0.27312586 0.5440406 0.45114124 -0.1314446 -0.22592594 0.25056207 0.4726098 0.21732211
0.69142103 -0.2988534 -0.302174 0.011851354 -0.20924172 0.44522247 -0.69556534 0.28447375
0.30190462 -0.10652473 0.22410701 -0.03737238 0.51495326 -0.30271336 -0.5382715 0.111494616
-0.3289363 0.24214278 -0.03260618 0.5615784 0.23963968 0.32820433 0.3339815 -0.38837352
-0.4650306 0.301739 0.6732119 0.20569481 -0.3791885 -0.32867566 0.004551045 -0.35126948
0.48309052 0.11020679 -0.46265662 0.43744293 0.064364046 0.15192436 0.5327788 -0.4582799
0.6225481 -0.22238845 0.32330087 -0.55858904 -0.42195264 0.047186997 -0.33605975 0.40646204
0.588686 0.43083104 0.3447809 -0.32758582 0.37229973 0.5375658 -0.067304425 0.51362765

fc2.bias f4 [100]
00000000: c9e6 283f b825 373f 3cf2 4ebf 3846 40bf
00000010: b6fc 4c3f d8be 893e a526 2dbf 344a 213f
00000020: 3dc7 3dbf 144a 4cbf 6d2a 393f d8e0 0b3f
00000030: 3786 4dbf e5a9 04bd 5c68 ecbd 8e37 a3be
00000040: 5916 3a3f 7407 b3be 46a6 40bf f6a5 2fbf
00000050: 1876 c4be 1c00 3b3f c242 24bf 9fcd 40bf
00000060: 35f6 0ebe 3755 0ebf 3f54 2b3f 07db 41bf
00000070: 796c 4c3f 86d0 3bbf 1abb 113f 27a4 98be
00000080: 364c 0bbe 3419 11bf 15b3 e93e f7be 3b3f
00000090: 9a55 5ebe c2d9 323f ca72 3ebf a1d9 8abc
000000a0: a09f 173e d8a7 9abe 74d8 c53e ecb9 41bf
000000b0: 6d8f 413f 404b 37bf 8180 ecbd ea53 703e
000000c0: 9a33 22bf 3336 113d 34f9 55bf a11e 33bf
000000d0: 2b55 14bf 45cf 473f a48c 2cbf c4c9 20be
000000e0: 3c0e efbd 7ddd 39bf a1dd 3ebf ddc4 433f
000000f0: 01d3 f6be 2e57 443f d20c f3bd 9a7f 383f
00000100: 7c0f 353f 6540 99be c774 293f 246b 3e3f
00000110: 774b 4b3f ab67 3cbe 4eaf 00bf 27f2 453f
00000120: e340 3f3f 551b 2ebf 155d 52bf f904 8ebe
00000130: e14e 293f b83f 3ebf 4193 76be 3b3b 09be
00000140: ced1 403f ba13 41bf 1232 47bf 7571 2fbf
00000150: 25fa 443e e09f 30bf d674 f63e 82c3 87be
00000160: ab83 203f bf1f 953e 0c4d 923e add0 403f
00000170: fb4e afbd 34e9 43bf 0cc6 aebe c2ca 39bf
00000180: d09b 293f 0555 46bf c917 44bf 6a00 2f3f
0.6597715 0.7154193 -0.8083837 -0.75107145 0.80073106 0.26903415 -0.6763709 0.6300385
-0.7413214 -0.79800534 0.7233036 0.5463996 -0.8028292 -0.032388587 -0.115433425 -0.31878322
0.7269035 -0.34966624 -0.75253713 -0.6861261 -0.38371348 0.7304704 -0.64164364 -0.7531375
-0.13961108 -0.5559878 0.66925424 -0.75724834 0.79853016 -0.73365057 0.5692612 -0.29812738
-0.13603291 -0.5667908 0.4564444 0.73338264 -0.21712342 0.6986352 -0.74393904 -0.016949477
0.14806986 -0.3020618 0.38641703 -0.7567432 0.75609475 -0.715992 -0.11547948 0.2346951
-0.6335999 0.03545208 -0.8358338 -0.6996861 -0.57942456 0.78050643 -0.674021 -0.15701967
-0.11672637 -0.7260359 -0.7455693 0.76472265 -0.48207858 0.76695526 -0.1186768 0.72069705
0.7072675 -0.29931942 0.66193813 0.74382234 0.79412025 -0.18398921 -0.50267494 0.7732262
0.74708384 -0.68010455 -0.8217328 -0.2773817 0.66135985 -0.7431598 -0.2407961 -0.13401501
0.75320137 -0.75420725 -0.77810776 -0.68532497 0.19236048 -0.6899395 0.48136014 -0.26516348
0.6270091 0.29125783 0.28574407 0.75318414 -0.08559986 -0.76527715 -0.34135473 -0.7257501
0.66253376 -0.7747348 -0.76598793 0.68360007

fc3.weight f4 [2, 100]
00000000: a4b8 2e40 0b4f 3040 31f0 34c0 d779 2ac0
00000010: 3ac0 2d40 2513 aabf d952 2cc0 42ad 0ac0
00000020: ff5a 35c0 4b47 36c0 75d3 2a40 9219 2b40
00000030: 22be 34c0 bc09 81bf a6ef 71c0 af02 af3f
00000040: 28b5 3240 6daa c23f ff61 2ac0 bb8c 2cc0
00000050: 8171 993f 0f98 3540 c0f3 34c0 ff26 2ec0
00000060: 8742 6fbf dbb3 46c0 9fce 2d40 b776 2cc0
00000070: 9dc9 2c40 15d8 35c0 59cc 3a40 18e9 57c0
00000080: 5496 83c0 90d6 0940 ec88 4540 8f29 2f40
00000090: c3c3 70c0 a69a 2b40 2297 33c0 c39c 70bf
000000a0: d1ea 7840 793c 54c0 24a7 9ebf 0280 36c0
000000b0: 4981 3240 32dc 2bc0 5711 69c0 a87e 6f40
000000c0: bcdc 33c0 179a 7a40 13d0 2cc0 b11f 2ac0
000000d0: a644 b93f 8302 3540 3d86 35c0 5b1a 71c0
000000e0: 073f 8740 25df 35c0 c332 34c0 844e 4140
000000f0: ee1a 47c0 3970 2a40 66ba 84c0 b246 2940
00000100: 2476 3b40 0f6e 963f bced 2c40 9883 2d40
00000110: fd83 3540 5b58 70c0 2077 34c0 279a 3440
00000120: d7f9 2c40 7ee2 3dc0 e567 2fc0 ed4d ad3f
00000130: 9869 3740 7bf5 28c0 85c0 70c0 e7a4 72c0
00000140: 6e30 2e40 95bd 3cc0 586c 2dc0 0797 34c0
00000150: 96b3 7140 dfe1 3ec0 26b2 4740 8dc1 71c0
00000160: 4ffc 2d40 7a9c 7040 02f0 8cbf e4b6 3540
00000170: c7fa 7cc0 d628 30c0 02cc 8e3f 7e7c 2bc0
00000180: eba3 2840 bfaf 2cc0 6fcf 35c0 dd83 3e40
00000190: 735a f6bf 4a66 fabf 6453 fb3f e0f3 f53f
000001a0: a03c fdbf 8f83 81c0 dadd f73f 765e 84c0
000001b0: 4f9a f43f 1a82 f13f 8c70 f6bf 3f6c f6bf
000001c0: da52 f13f a4e2 a7c0 88d6 4b40 2bb4 7d40
000001d0: 6eee fdbf aee2 8340 2dd5 f53f 12ae f63f
000001e0: 4a17 8040 323b f2bf b844 f93f 930d f63f
000001f0: 0d23 a9c0 71bf d93f 72c7 fcbf b6bb f83f
00000200: 5627 f6bf 150c f33f 6aa3 ecbf 9873 fd3f
00000210: 0ea8 2040 a662 7f40 218c dabf 4aa0 fdbf
00000220: 2173 4840 066c f6bf 4950 fb3f 470c adc0
00000230: 4ee3 40c0 3fb0 3940 04e1 79c0 c62f f23f
00000240: ab42 ffbf 7a0d f63f 3077 1e40 16c8 50c0
00000250: 6c8e fa3f acba 3ec0 4862 f73f 9080 f73f
00000260: f600 8040 c996 f0bf ae34 f23f 56f2 4b40
00000270: 2855 8dbf b94c f73f eb7c fb3f b264 f0bf
00000280: 9a38 f93f b6cb f5bf 782c 2140 fcb4 f3bf
00000290: 8794 efbf 075f 7e40 1799 f6bf f002 fbbf
000002a0: 2f16 f0bf ce61 4440 6bfa f73f f1ce f1bf
000002b0: 58bf fabf 18c4 f83f 4864 f63f 7567 7d40
000002c0: 509b f0bf 4e43 f43f f8d5 4740 954d 4940
000002d0: c560 fbbf b6a3 f53f d475 f63f e1f5 f63f
000002e0: fcb2 45c0 0a22 f63f 2d40 eabf c778 4640
000002f0: 0475 f6bf 1174 4cc0 bf39 74c0 9bcf f0bf
00000300: 9e1c 3140 5e1f f73f 592b 7440 9d73 f63f
00000310: 9e42 f5bf d947 f63f c602 f33f a0cb f4bf
2.7300196 2.7548244 -2.8271601 -2.6636865 2.7148576 -1.3287092 -2.6925566 -2.1668248
-2.833679 -2.8481014 2.6691563 2.6734357 -2.8241048 -1.0081096 -3.780252 1.3672694
2.792307 1.520826 -2.6622312 -2.6960895 1.1987764 2.837406 -2.8273773 -2.7211301
-0.9346089 -3.1047275 2.7157362 -2.6947458 2.6998055 -2.8413136 2.9187224 -3.373602
-4.1121006 2.1537209 3.086482 2.7369115 -3.7619483 2.681314 -2.8060994 -0.939892
3.889332 -3.316191 -1.2394757 -2.851563 2.789141 -2.6853147 -3.6416833 3.7421055
-2.8103476 3.915655 -2.7001998 -2.6581843 1.4474075 2.8282783 -2.8363183 -3.7672336
4.226444 -2.8417447 -2.8155982 3.0204172 -3.1110187 2.6630995 -4.1477537 2.64494
2.9290857 1.1752337 2.7020102 2.7111568 2.836181 -3.7553928 -2.8197708 2.8219087
2.702749 -2.966949 -2.7407162 1.3539406 2.86582 -2.639983 -3.7617505 -3.7913148
2.721706 -2.9490712 -2.7097378 -2.821718 3.776586 -2.982536 3.1202483 -3.7774384
2.7185247 3.7595506 -1.1010745 2.8392878 -3.9528062 -2.7524924 1.1156008 -2.6794734
2.6350048 -2.6982267 -2.8407857 2.9767983 -1.9246353 -1.9562466 1.9634824 1.921505
-1.9784126 -4.0473094 1.9364579 -4.136531 1.9109591 1.8867829 -1.9253097 -1.9251784
1.8853409 -5.246416 3.184969 3.9641216 -1.9838388 4.121421 1.9205681 1.9271872
4.002843 -1.8924315 1.9474096 1.9222893 -5.2855287 1.7011548 -1.9748366 1.9432285
-1.9230754 1.8988062 -1.848737 1.9800901 2.5102572 3.990396 -1.7074014 -1.9814541
3.132027 -1.9251716 1.9633876 -5.4077487 -3.0138736 2.9013822 -3.9043589 1.8920829
-1.994222 1.9222863 2.4760246 -3.2622123 1.9574714 -2.9801435 1.9326868 1.9336109
4.0001173 -1.8796016 1.8922327 3.186666 -1.1041613 1.9320289 1.9647497 -1.878073
1.9470398 -1.9202793 2.5183392 -1.9039607 -1.8717202 3.97455 -1.9265469 -1.9610271
-1.875677 3.0684695 1.9373296 -1.8891279 -1.9589643 1.9434843 1.9249353 3.9594395
-1.8797398 1.908304 3.1224346 3.1453602 -1.9638907 1.9190586 1.9254708 1.9293786
-3.0890493 1.9229138 -1.8300835 3.1011217 -1.925446 -3.1945841 -3.8160245 -1.8813356
2.7673717 1.9306448 3.8151457 1.9254032 -1.9160955 1.9240676 1.8985221 -1.9124641

fc3.bias f4 [2]
00000000: f6c7 2f40 12b3 e4bf
2.7465796 -1.7867148

fc1.weight f4 [100, 22]
00000000: f454 0236 1d68 1a32 a9bd 9bb5 3762 c635
00000010: e977 84b5 c663 1434 cfb3 a633 40f3 3bb4
00000020: 2e8a 9b33 bb9c 0080 096d 0200 1f1b 0800
00000030: f147 0400 5f36 0c80 340d 0900 7aba 1280
00000040: 2b2d 0800 0c35 0580 5db2 0980 ecd6 1680
00000050: 8d1b 0a80 2008 b600 aa57 1fb1 31a9 b8b0
00000060: 77c1 cab0 bd71 11b1 2e48 99b0 96e8 8330
00000070: 3a9b 7830 d994 3e30 e260 7730 588e 0100
00000080: 2e89 0e80 9e8a 1100 f242 1200 e243 0200
00000090: 7572 0a80 86a3 0d00 54ed 0b80 1442 1080
000000a0: 1148 0b80 dc98 1080 a430 1380 0f55 0c80
000000b0: 89bf c2b6 c11a 27b6 e18f 83b6 574e 86b6
000000c0: 67af d0b5 77c2 2b36 3278 1f36 ef69 e635
000000d0: e17a 1e36 8e48 1300 ac53 0080 b08b 1100
000000e0: da70 0a80 81a0 0780 a024 0180 89b5 0680
000000f0: ee23 0180 9845 0e00 7eb8 0080 bd0d 0c00
00000100: 2c11 1400 2b38 0800 70de eab5 14e2 36b5
00000110: f564 8bb5 ddbf 89b5 4a46 f8b4 af69 ca34
00000120: cc0b c334 038d a934 7b75 c234 4186 0580
00000130: f2c1 0900 3d41 0e00 c91a 1580 c855 0500
00000140: 794d 0c80 89ec 0700 1fd1 0e00 9bb5 0400
00000150: 3c34 1500 4e87 0800 5488 0280 9773 0780
00000160: 3e71 5038 a2d0 8d37 c603 d437 2f3c e537
00000170: 777f 6137 7a75 5cb7 8593 4fb7 56a5 15b7
00000180: a678 4eb7 633b 0580 f87f 0f00 2d3a 0580
00000190: d05e 1700 3211 0100 d6cc 0300 8b25 1880
000001a0: 6537 1600 f754 0580 6b3d 0980 5339 1600
000001b0: 0503 0f00 b23c 1080 64c1 b631 156e 0fb2
000001c0: e229 25b2 0739 3ab2 69cb 1fb2 5938 d331
000001d0: 198a cd31 6524 af31 3f06 cd31 063f 0a80
000001e0: 79b7 0980 cae2 0580 18e6 1500 7b69 0100
000001f0: b377 1280 c28a 0900 ec72 1300 4726 1980
00000200: 4682 0200 c262 1680 e292 1300 2e94 1480
00000210: 5a63 1d34 aab4 9f33 be05 f833 0fac 0134
00000220: 754f 8133 e118 a5b3 8fb2 98b3 330b 5eb3
00000230: 25b8 97b3 2de8 1380 146d 0900 820d 0500
00000240: 5cae 1000 4ab1 0080 b106 0300 a8d0 0380
00000250: 6b3b 0480 bb68 0a00 3625 0b80 506d 0800
00000260: 5791 0880 d43a e902 9f69 6f33 98c7 f532
00000270: 7c20 1f33 70b5 3c33 ba9f f032 38d7 a9b2
00000280: c0d5 a0b2 9267 7fb2 8f1b a0b2 08de 1400
00000290: 3344 1000 4737 1100 7fc7 0e80 8c8e 1200
000002a0: d6de 0880 400e 0600 c9bb 0080 fa29 0600
000002b0: e551 1200 0822 0100 20d6 0780 b177 0b00
000002c0: 4ae6 5139 ce25 3fb9 4c1b c438 1999 4e39
000002d0: ce18 3138 1f1b 73b7 9e5e 96b7 516e d7b7
000002e0: a69f 98b7 c6f4 0100 8267 0b80 1943 0e80
000002f0: faa4 0e80 fdbf 1380 8151 1500 7da7 0b80
00000300: 3412 0f00 43ba 0f80 8ae0 1480 1aab 1480
00000310: 321a 0b80 ff50 0d80 5f16 01be 0fa8 6f3b
00000320: eaab 423b bce4 9d3b be22 153b d418 643d
00000330: facd 573d 2887 1f3d f3c3 563d 24eb 0080
00000340: 06b0 1580 ae2c 0580 a214 0e80 5ab0 1580
00000350: e3f2 0600 9f07 0500 eaf9 0e00 1e67 0780
00000360: 742e 0180 0cf4 0900 9f8e 0b00 54dd 0a80
00000370: 6016 013e 08a8 6fbb eaab 42bb bce4 9dbb
00000380: bf22 15bb d518 64bd f9cd 57bd 2787 1fbd
00000390: f5c3 56bd d1b1 0600 174c 0900 e133 0580
000003a0: a12b 0280 c3b0 0500 2745 1600 4b27 0580
000003b0: dca2 0a00 4644 1100 5bb4 1780 a791 1500
000003c0: 985f 0080 988c 0300 6016 013e 10a8 6fbb
000003d0: eeab 42bb b2e4 9dbb b922 15bb d718 64bd
000003e0: facd 57bd 2887 1fbd f3c3 56bd e051 0280
000003f0: 37ee 0c80 1853 0100 03a4 0a00 2cd1 0600
1.9420959e-06 8.987652e-09 -1.1603598e-06 1.4780734e-06 -9.869665e-07 1.3819871e-07 7.7626844e-08 -1.7504226e-07
7.242885e-08 -5.6224e-41 2.22785e-40 7.44413e-40 3.9315e-40 -1.12153e-39 8.31256e-40 -1.719934e-39
7.50887e-40 -4.78207e-40 -8.90504e-40 -2.09748e-39 -9.28238e-40 1.6716975e-38 -2.3187376e-09 -1.3435849e-09
-1.475242e-09 -2.116493e-09 -1.115273e-09 9.597609e-10 9.0442465e-10 6.933312e-10 8.9995755e-10 1.42899e-40
-1.334908e-39 1.61093e-39 1.677054e-39 2.08023e-40 -9.59414e-40 1.252523e-39 -1.095328e-39 -1.493072e-39
-1.036043e-39 -1.524204e-39 -1.762323e-39 -1.132539e-39 -5.803948e-06 -2.4900512e-06 -3.920854e-06 -4.002631e-06
-1.5548256e-06 2.559418e-06 2.376281e-06 1.7167166e-06 2.361536e-06 1.770902e-39 -3.0016e-41 1.611314e-39
-9.58838e-40 -7.00426e-40 -1.04974e-40 -6.16136e-40 -1.04725e-40 1.310662e-39 -6.6183e-41 1.106954e-39
1.84287e-39 7.54833e-40 -1.7499096e-06 -6.812927e-07 -1.0385689e-06 -1.0263135e-06 -4.6244742e-07 3.7702327e-07
3.6330164e-07 3.1581303e-07 3.6220794e-07 -5.07339e-40 8.96094e-40 1.3091e-39 -1.938154e-39 4.8995e-40
-1.129818e-39 7.27701e-40 1.360715e-39 4.3249e-40 1.947284e-39 7.83222e-40 -2.32576e-40 -6.84314e-40
4.969653e-05 1.6905662e-05 2.5274127e-05 2.7326952e-05 1.3440723e-05 -1.3140374e-05 -1.23725085e-05 -8.919587e-06
-1.23066475e-05 -4.80481e-40 1.423439e-39 -4.80047e-40 2.146229e-39 9.8004e-41 3.48988e-40 -2.21752e-39
2.040253e-39 -4.89657e-40 -8.48552e-40 2.040945e-39 1.378616e-39 -1.491141e-39 5.318883e-09 -8.348725e-09
-9.613787e-09 -1.08395914e-08 -9.301268e-09 6.147314e-09 5.981985e-09 5.097308e-09 5.9669953e-09 -9.40964e-40
-8.92337e-40 -5.40534e-40 2.011088e-39 1.29675e-40 -1.695979e-39 8.76296e-40 1.7861e-39 -2.309619e-39
2.30404e-40 -2.055809e-39 1.797566e-39 -1.889867e-39 1.4657908e-07 7.436877e-08 1.15494444e-07 1.2076656e-07
6.021484e-08 -7.687937e-08 -7.110531e-08 -5.169859e-08 -7.064981e-08 -1.828163e-39 8.6565e-40 4.64023e-40
1.531916e-39 -6.36e-41 2.77907e-40 -3.50358e-40 -3.88657e-40 9.55925e-40 -1.023539e-39 7.73898e-40
-7.86822e-40 3.4270039e-37 5.5742586e-08 2.8612519e-08 3.7049617e-08 4.3937177e-08 2.8012312e-08 -1.977206e-08
-1.8723654e-08 -1.4866503e-08 -1.8638984e-08 1.91636e-39 1.493833e-39 1.581033e-39 -1.357263e-39 1.704175e-39
-8.14622e-40 5.56125e-40 -6.7365e-41 5.66071e-40 1.682417e-39 1.04044e-40 -7.19662e-40 1.053128e-39
0.00020017583 -0.00018229263 9.351093e-05 0.00019702724 4.222319e-05 -1.4490243e-05 -1.7925453e-05 -2.5681367e-05
-1.8194154e-05 1.79644e-40 -1.047322e-39 -1.309767e-39 -1.34488e-39 -1.813747e-39 1.957784e-39 -1.070274e-39
1.384062e-39 -1.44435e-39 -1.91726e-39 -1.89809e-39 -1.019588e-39 -1.222917e-39 -0.1260619 0.0036568677
0.002970452 0.004818527 0.0022756304 0.05568774 0.05268667 0.038947254 0.052432965 -8.4353e-41
-1.991691e-39 -4.75206e-40 -1.293099e-39 -1.991808e-39 6.38144e-40 4.61911e-40 1.375349e-39 -6.7984e-40
-1.085e-40 9.14067e-40 1.061353e-39 -9.97753e-40 0.12606192 -0.003656866 -0.002970452 -0.004818527
-0.0022756306 -0.055687744 -0.052686665 -0.03894725 -0.052432973 6.14801e-40 8.53815e-40 -4.77788e-40
-1.99322e-40 5.22588e-40 2.045188e-39 -4.73273e-40 9.76778e-40 1.585695e-39 -2.176916e-39 1.980796e-39
-3.4293e-41 3.25942e-40 0.12606192 -0.003656868 -0.002970453 -0.0048185224 -0.0022756292 -0.05568775
-0.05268667 -0.038947254 -0.052432965 -2.13042e-40 -1.187481e-39 1.21644e-40 9.77191e-40 6.2605e-40

fc1.bias f4 [100]
00000000: dd97 83b5 3269 1831 ca7d c836 7406 b135
00000010: 9909 4ab8 c379 91b1 7121 2bb4 e72b 55b3
00000020: 729f 1ab9 9bae 2abe 9aae 2a3e 9aae 2a3e
00000030: 8b7c 89b4 9aae 2a3e 99ae 2abe 9aae 2a3e
00000040: 9aae 2abe 9bae 2abe fef1 4dba 9aae 2abe
00000050: dd0e b1b8 a2ad 27b9 d9b0 bcb3 693c 982c
00000060: 58c8 b739 3886 34b6 d3b7 8236 99ae 2abe
00000070: 9702 b1b7 99ae 2a3e ee84 aa32 ca92 6c32
00000080: a0c0 0db7 99ae 2a3e 99ae 2a3e 7073 2bb7
00000090: 122b b9b6 f57a 1e31 9c2c bfb7 d3f7 9c38
000000a0: a9b2 0ab2 951b 4033 7e35 24b8 891d dd35
000000b0: f3fc 94b7 a093 fa35 9aae 2a3e 99ae 2abe
000000c0: 3f3a 9bb3 9bae 2abe 2289 f033 99ae 2abe
000000d0: 99ae 2a3e cbdf edb5 30df bdb7 9aae 2abe
000000e0: 7ff6 e9b2 accf 5536 9aae 2a3e 8a1c 9d38
000000f0: 9bae 2a3e 9aae 2abe 9aae 2a3e 49bb 8ab3
00000100: 9aae 2a3e b95c 0638 db91 a9b5 97ae 2abe
00000110: 9bae 2a3e 02ab 00b8 8f3e d72a 98ae 2a3e
00000120: de0e 07b8 9aae 2abe 3aa9 d3b2 9bae 2a3e
00000130: 98ae 2a3e 98ae 2abe e3bd e232 5d9e da38
00000140: ae3d da34 ebb3 7b38 b17d 5138 a1b7 5bb5
00000150: c343 b4b3 99ae 2a3e 4139 b2ab eccd 1ab6
00000160: 98ae 2a3e 0142 de38 f519 a535 98ae 2abe
00000170: f2b1 9433 98ae 2a3e 98ae 2abe 9bae 2a3e
00000180: 810e c237 3799 87b1 1b42 1bb3 95ae 2abe
-9.804459e-07 2.2178708e-09 5.9751083e-06 1.3189406e-06 -4.816949e-05 -4.233898e-09 -1.5937782e-07 -4.9632856e-08
-0.00014745982 -0.16668169 0.16668168 0.16668168 -2.5608855e-07 0.16668168 -0.16668166 0.16668168
-0.16668168 -0.16668169 -0.0007856189 -0.16668168 -8.442786e-05 -0.00015991044 -8.7866006e-08 4.3268067e-12
0.00035053748 -2.6900216e-06 3.895702e-06 -0.16668166 -2.110125e-05 0.16668166 1.9851054e-08 1.3770384e-08
-8.449104e-06 0.16668166 0.16668166 -1.0219272e-05 -5.5184437e-06 2.306192e-09 -2.2789747e-05 7.4848205e-05
-8.07328e-09 4.472857e-08 -3.9150465e-05 1.6474379e-06 -1.7760764e-05 1.8669416e-06 0.16668168 -0.16668166
-7.228345e-08 -0.16668169 1.1200815e-07 -0.16668166 0.16668166 -1.7723008e-06 -2.2634486e-05 -0.16668168
-2.7236863e-08 3.1860354e-06 0.16668168 7.491659e-05 0.16668169 -0.16668168 0.16668168 -6.460193e-08
0.16668168 3.2034444e-05 -1.2633931e-06 -0.16668163 0.16668169 -3.067684e-05 3.823508e-13 0.16668165
-3.2200354e-05 -0.16668168 -2.4640588e-08 0.16668169 0.16668165 -0.16668165 2.6396213e-08 0.000104245475
4.0650542e-07 6.0010625e-05 4.9946542e-05 -8.185107e-07 -8.394229e-08 0.16668166 -1.2663552e-12 -2.306765e-06
0.16668165 0.00010598079 1.2301012e-06 -0.16668165 6.924155e-08 0.16668165 -0.16668165 0.16668169
2.3133356e-05 -3.9464356e-09 -3.6148872e-08 -0.1666816

fc2.weight f4 [100, 100]
00000000: ea6c da33 e357 402e 9e1e 5733 09ee 5032
00000010: c9dd 9334 c035 47ae d8d0 1db1 a95a 1cb0
00000020: 263d b235 1ac6 cd3c 1bc6 cdbc 1bc6 cdbc
00000030: aa02 1c34 1bc6 cdbc 1bc6 cd3c 1bc6 cdbc
00000040: 1bc6 cd3c 1cc6 cd3c 56dd fd39 1ac6 cd3c
00000050: 9321 9f36 48e4 3136 00b4 6230 3897 96ac
00000060: 903f 4cb8 50df dcb1 795f 4032 1bc6 cd3c
00000070: 1822 4738 1ac6 cdbc 180b 842f 7e72 8baf
00000080: 7cb5 7236 1ac6 cdbc 19c6 cdbc 8caf 1ab5
00000090: ac46 8db3 8e3d 352e 97f9 a333 02c7 4db5
000000a0: 38cf 4d30 04b7 aab1 2cbf 35b5 ed0b 23b5
000000b0: 7a31 04b7 7c16 08b2 1bc6 cdbc 1bc6 cd3c
000000c0: 5912 ae33 1ac6 cd3c be5f 8eb2 19c6 cd3c
000000d0: 1bc6 cdbc 43eb 4ab4 9097 bdb6 1ac6 cd3c
000000e0: 8c9e 0a34 6358 00b6 1bc6 cdbc b5c8 5cb5
000000f0: 1dc6 cdbc 1bc6 cd3c 1ac6 cdbc 8084 92af
00000100: 1ac6 cdbc e28a 56b8 0820 5ab1 16c6 cd3c
00000110: 1dc6 cdbc da30 1e38 8067 cb28 17c6 cdbc
00000120: bd40 1836 1bc6 cd3c 2277 22af 1ac6 cdbc
00000130: 18c6 cdbc 19c6 cd3c ae36 a32f b258 32b5
00000140: 9b30 8134 a43d 0eb5 65b6 8437 469c 8035
00000150: c2fa c1b0 1cc6 cdbc 415d 9aa8 f8a1 7b33
00000160: 19c6 cdbc e276 a634 5a2a 76b5 18c6 cd3c
00000170: b416 5d30 18c6 cdbc 19c6 cd3c 1bc6 cdbc
00000180: 2786 3337 d3e0 1a31 7ca5 12b1 15c6 cd3c
00000190: f06c da33 fc57 402e 871e 5733 16ee 5032
000001a0: eedd 9334 c033 47ae cfd0 1db1 b35a 1cb0
000001b0: be3d b235 19c6 cd3c 18c6 cdbc 18c6 cdbc
000001c0: ac02 1c34 16c6 cdbc 1ac6 cd3c 19c6 cdbc
000001d0: 1ac6 cd3c 19c6 cd3c 5cdd fd39 1bc6 cd3c
000001e0: a521 9f36 32e4 3136 10b4 6230 3b97 96ac
000001f0: 903f 4cb8 18df dcb1 725f 4032 16c6 cd3c
00000200: 1e22 4738 18c6 cdbc 240b 842f 8472 8baf
00000210: 7fb5 7236 19c6 cdbc 16c6 cdbc 88af 1ab5
00000220: 9646 8db3 913d 352e b2f9 a333 02c7 4db5
00000230: 36cf 4d30 18b7 aab1 21bf 35b5 f70b 23b5
00000240: 6131 04b7 ad16 08b2 19c6 cdbc 16c6 cd3c
00000250: 5812 ae33 19c6 cd3c c65f 8eb2 17c6 cd3c
00000260: 1bc6 cdbc 3aeb 4ab4 8097 bdb6 1ac6 cd3c
00000270: 8e9e 0a34 6458 00b6 1ac6 cdbc 9ac8 5cb5
00000280: 1bc6 cdbc 19c6 cd3c 1ac6 cdbc 5a84 92af
00000290: 19c6 cdbc e28a 56b8 4c20 5ab1 17c6 cd3c
000002a0: 1bc6 cdbc dc30 1e38 7867 cb28 16c6 cdbc
000002b0: ba40 1836 18c6 cd3c 4277 22af 1bc6 cdbc
000002c0: 16c6 cdbc 18c6 cd3c af36 a32f be58 32b5
000002d0: 9930 8134 aa3d 0eb5 65b6 8437 449c 8035
000002e0: b7fa c1b0 19c6 cdbc 455d 9aa8 80a2 7b33
000002f0: 17c6 cdbc d876 a634 582a 76b5 17c6 cd3c
00000300: 8a16 5d30 19c6 cdbc 16c6 cd3c 19c6 cdbc
00000310: 2286 3337 d9e0 1a31 68a5 12b1 13c6 cd3c
00000320: ec6c da33 f257 402e 781e 5733 feed 5032
00000330: e9dd 9334 8033 47ae c7d0 1db1 b85a 1cb0
00000340: d23d b235 18c6 cd3c 19c6 cdbc 19c6 cdbc
00000350: ae02 1c34 18c6 cdbc 18c6 cd3c 17c6 cdbc
00000360: 19c6 cd3c 19c6 cd3c 5bdd fd39 1ac6 cd3c
00000370: a021 9f36 27e4 3136 fdb3 6230 3b97 96ac
00000380: 903f 4cb8 2adf dcb1 725f 4032 16c6 cd3c
00000390: 1c22 4738 18c6 cdbc 240b 842f 8c72 8baf
000003a0: 81b5 7236 1ac6 cdbc 18c6 cdbc 88af 1ab5
000003b0: a246 8db3 903d 352e c0f9 a333 08c7 4db5
000003c0: 3acf 4d30 18b7 aab1 54bf 35b5 f80b 23b5
000003d0: 6231 04b7 9016 08b2 19c6 cdbc 17c6 cd3c
000003e0: 5812 ae33 1ac6 cd3c c25f 8eb2 18c6 cd3c
000003f0: 19c6 cdbc 38eb 4ab4 7897 bdb6 19c6 cd3c
1.01712274e-07 4.3733805e-11 5.0086435e-08 1.2161316e-08 2.7542254e-07 -4.52951e-11 -2.296522e-09 -5.6881305e-10
1.327983e-06 0.025118876 -0.025118878 -0.025118878 1.4529601e-07 -0.025118878 0.025118878 -0.025118878
0.025118878 0.02511888 0.00048420829 0.025118876 4.742478e-06 2.6507932e-06 8.2474116e-10 -4.280045e-12
-4.8696587e-05 -6.4282304e-09 1.1197579e-08 0.025118878 4.747705e-05 -0.025118876 2.4018543e-10 -2.5365304e-10
3.6166448e-06 -0.025118876 -0.025118874 -5.7624925e-07 -6.578679e-08 4.1209307e-11 7.635679e-08 -7.6658046e-07
7.487304e-10 -4.9684576e-09 -6.7705946e-07 -6.0739586e-07 -7.879333e-06 -7.921354e-09 -0.025118878 0.025118878
8.105844e-08 0.025118876 -1.6574514e-08 0.025118874 -0.025118878 -1.8898304e-07 -5.650283e-06 0.025118876
1.290993e-07 -1.9124934e-06 -0.025118878 -8.2248454e-07 -0.025118882 0.025118878 -0.025118876 -2.6651392e-10
-0.025118876 -5.115092e-05 -3.1741383e-09 0.025118869 -0.025118882 3.7715632e-05 2.2582413e-14 -0.02511887
2.2687448e-06 0.025118878 -1.4776139e-10 -0.025118876 -0.025118873 0.025118874 2.968838e-10 -6.6439236e-07
2.4063488e-07 -5.298882e-07 1.582056e-05 9.582225e-07 -1.4113868e-09 -0.02511888 -1.7137877e-14 5.85878e-08
-0.025118874 3.1006408e-07 -9.170377e-07 0.025118873 8.0431595e-10 -0.025118873 0.025118874 -0.025118878
1.0700466e-05 2.2537747e-09 -2.1339863e-09 0.025118867 1.0171232e-07 4.373389e-11 5.0086353e-08 1.2161328e-08
2.754236e-07 -4.5293325e-11 -2.29652e-09 -5.688136e-10 1.3280003e-06 0.025118874 -0.025118873 -0.025118873
1.4529604e-07 -0.025118869 0.025118876 -0.025118874 0.025118876 0.025118874 0.00048420846 0.025118878
4.742486e-06 2.6507882e-06 8.2474205e-10 -4.2800464e-12 -4.8696587e-05 -6.4282055e-09 1.1197573e-08 0.025118869
4.747707e-05 -0.025118873 2.4018576e-10 -2.536532e-10 3.6166455e-06 -0.025118874 -0.025118869 -5.76249e-07
-6.578664e-08 4.1209317e-11 7.635698e-08 -7.6658046e-07 7.487303e-10 -4.9684665e-09 -6.7705884e-07 -6.0739643e-07
-7.87931e-06 -7.921398e-09 -0.025118874 0.025118869 8.105843e-08 0.025118874 -1.6574528e-08 0.02511887
-0.025118878 -1.8898291e-07 -5.650276e-06 0.025118876 1.2909933e-07 -1.9124936e-06 -0.025118876 -8.22483e-07
-0.025118878 0.025118874 -0.025118876 -2.6651287e-10 -0.025118874 -5.115092e-05 -3.1741534e-09 0.02511887
-0.025118878 3.771564e-05 2.25824e-14 -0.025118869 2.268744e-06 0.025118873 -1.4776183e-10 -0.025118878
-0.025118869 0.025118873 2.9688382e-10 -6.6439304e-07 2.4063482e-07 -5.2988855e-07 1.582056e-05 9.582222e-07
-1.4113856e-09 -0.025118874 -1.7137884e-14 5.8588284e-08 -0.02511887 3.100638e-07 -9.170376e-07 0.02511887
8.043136e-10 -0.025118874 0.025118869 -0.025118874 1.0700462e-05 2.253776e-09 -2.1339819e-09 0.025118863
1.0171229e-07 4.3733857e-11 5.00863e-08 1.2161307e-08 2.7542345e-07 -4.5293103e-11 -2.2965183e-09 -5.688139e-10
1.3280026e-06 0.025118873 -0.025118874 -0.025118874 1.4529607e-07 -0.025118873 0.025118873 -0.02511887
0.025118874 0.025118874 0.00048420843 0.025118876 4.7424837e-06 2.6507857e-06 8.24741e-10 -4.2800464e-12
-4.8696587e-05 -6.4282135e-09 1.1197573e-08 0.025118869 4.7477064e-05 -0.025118873 2.4018576e-10 -2.5365343e-10
3.616646e-06 -0.025118876 -0.025118873 -5.76249e-07 -6.578672e-08 4.1209314e-11 7.635708e-08 -7.665808e-07
7.487305e-10 -4.9684665e-09 -6.7706173e-07 -6.073965e-07 -7.879311e-06 -7.921372e-09 -0.025118874 0.02511887
8.105843e-08 0.025118876 -1.6574521e-08 0.025118873 -0.025118874 -1.8898288e-07 -5.650272e-06 0.025118874

fc2.bias f4 [100]
00000000: 4f66 a4bd 4c66 a4bd 4d66 a4bd 4c66 a43d
00000010: 4d66 a43d 4c66 a4bd 4966 a43d 4d66 a43d
00000020: 4d66 a4bd 4e66 a4bd 4d66 a4bd 4d66 a43d
00000030: 4b66 a43d 4c66 a43d 4d66 a4bd 4c66 a4bd
00000040: 4d66 a4bd 4e66 a43d 4c66 a43d 4d66 a43d
00000050: 4a66 a4bd 4b66 a43d 2fe5 00b2 4d66 a4bd
00000060: 80f0 7bb4 4566 a4bd 4c66 a43d 4c66 a4bd
00000070: 4c66 a43d 4c66 a4bd 4d66 a4bd 4b66 a43d
00000080: 4766 a43d 4d66 a4bd 4d66 a4bd 4d66 a4bd
00000090: 4d66 a4bd 4b66 a43d 4d66 a43d 4866 a43d
000000a0: 4c66 a43d 4e66 a43d 4c66 a4bd 4766 a4bd
000000b0: 4d66 a4bd 4b66 a4bd 4d66 a43d 4b66 a43d
000000c0: 4b66 a43d 4d66 a43d 4d66 a43d 4d66 a4bd
000000d0: 4d66 a43d 4d66 a43d 4d66 a43d 4966 a4bd
000000e0: 4966 a43d 4766 a4bd 4d66 a43d 4c66 a43d
000000f0: 4866 a4bd 4d66 a4bd 4c66 a43d 4c66 a4bd
00000100: 5066 a43d 4966 a4bd 4d66 a4bd 4d66 a43d
00000110: 4d66 a4bd 4e66 a43d 4d66 a43d 4a66 a43d
00000120: 4c66 a43d 4a66 a4bd 4b66 a4bd 4c66 a4bd
00000130: 4d66 a43d 4b66 a4bd 4b66 a43d 4d66 a43d
00000140: d237 8702 4c66 a43d 4d66 a43d 4e66 a43d
00000150: 4b66 a43d 9e0f c435 4f66 a4bd 3619 872e
00000160: 4b66 a43d 4c66 a4bd 4d66 a4bd 4766 a4bd
00000170: 4c66 a43d 4d66 a43d 4e66 a43d 4b66 a43d
00000180: 4e66 a4bd 5066 a43d 4866 a4bd 4766 a43d
-0.08027326 -0.08027324 -0.08027325 0.08027324 0.08027325 -0.08027324 0.08027322 0.08027325
-0.08027325 -0.080273256 -0.08027325 0.08027325 0.08027323 0.08027324 -0.08027325 -0.08027324
-0.08027325 0.080273256 0.08027324 0.08027325 -0.080273226 0.08027323 -7.502691e-09 -0.08027325
-2.346369e-07 -0.08027319 0.08027324 -0.08027324 0.08027324 -0.08027324 -0.08027325 0.08027323
0.0802732 -0.08027325 -0.08027325 -0.08027325 -0.08027325 0.08027323 0.08027325 0.08027321
0.08027324 0.080273256 -0.08027324 -0.0802732 -0.08027325 -0.08027323 0.08027325 0.08027323
0.08027323 0.08027325 0.08027325 -0.08027325 0.08027325 0.08027325 0.08027325 -0.08027322
0.08027322 -0.0802732 0.08027325 0.08027324 -0.08027321 -0.08027325 0.08027324 -0.08027324
0.08027327 -0.08027322 -0.08027325 0.08027325 -0.08027325 0.080273256 0.08027325 0.080273226
0.08027324 -0.080273226 -0.08027323 -0.08027324 0.08027325 -0.08027323 0.08027323 0.08027325
1.9868506e-37 0.08027324 0.08027325 0.080273256 0.08027323 1.4607683e-06 -0.08027326 6.1435676e-11
0.08027323 -0.08027324 -0.08027325 -0.0802732 0.08027324 0.08027325 0.080273256 0.08027323
-0.080273256 0.08027327 -0.08027321 0.0802732

fc3.weight f4 [1, 100]
00000000: 01b5 3bbe ffb4 3bbe ffb4 3bbe ffb4 3b3e
00000010: 00b5 3b3e ffb4 3bbe f9b4 3b3e 01b5 3b3e
00000020: ffb4 3bbe ffb4 3bbe feb4 3bbe 01b5 3b3e
00000030: feb4 3b3e feb4 3b3e feb4 3bbe ffb4 3bbe
00000040: ffb4 3bbe ffb4 3b3e ffb4 3b3e ffb4 3b3e
00000050: fbb4 3bbe fcb4 3b3e c642 b9b0 00b5 3bbe
00000060: 2811 7a37 f7b4 3bbe ffb4 3b3e ffb4 3bbe
00000070: 00b5 3b3e fdb4 3bbe feb4 3bbe fdb4 3b3e
00000080: f9b4 3b3e 01b5 3bbe 00b5 3bbe ffb4 3bbe
00000090: ffb4 3bbe 00b5 3b3e 00b5 3b3e f9b4 3b3e
000000a0: feb4 3b3e 01b5 3b3e feb4 3bbe fab4 3bbe
000000b0: ffb4 3bbe fbb4 3bbe ffb4 3b3e fcb4 3b3e
000000c0: 00b5 3b3e feb4 3b3e ffb4 3b3e 00b5 3bbe
000000d0: 00b5 3b3e ffb4 3b3e ffb4 3b3e fcb4 3bbe
000000e0: fdb4 3b3e f9b4 3bbe feb4 3b3e ffb4 3b3e
000000f0: f8b4 3bbe 00b5 3bbe ffb4 3b3e 01b5 3bbe
00000100: 02b5 3b3e fcb4 3bbe ffb4 3bbe ffb4 3b3e
00000110: ffb4 3bbe ffb4 3b3e ffb4 3b3e fbb4 3b3e
00000120: feb4 3b3e fbb4 3bbe fcb4 3bbe ffb4 3bbe
00000130: ffb4 3b3e fcb4 3bbe 00b5 3b3e 00b5 3b3e
00000140: d0e7 4382 ffb4 3b3e ffb4 3b3e ffb4 3b3e
00000150: fcb4 3b3e b87a 0cb5 01b5 3bbe 318e 5caf
00000160: fbb4 3b3e feb4 3bbe 00b5 3bbe f9b4 3bbe
00000170: ffb4 3b3e feb4 3b3e 00b5 3b3e ffb4 3b3e
00000180: 02b5 3bbe 02b5 3b3e f9b4 3bbe fab4 3b3e
-0.18330766 -0.18330763 -0.18330763 0.18330763 0.18330765 -0.18330763 0.18330754 0.18330766
-0.18330763 -0.18330763 -0.18330762 0.18330766 0.18330762 0.18330762 -0.18330762 -0.18330763
-0.18330763 0.18330763 0.18330763 0.18330763 -0.18330757 0.18330759 -1.34795e-09 -0.18330765
1.4905156e-05 -0.18330751 0.18330763 -0.18330763 0.18330765 -0.1833076 -0.18330762 0.1833076
0.18330754 -0.18330766 -0.18330765 -0.18330763 -0.18330763 0.18330765 0.18330765 0.18330754
0.18330762 0.18330766 -0.18330762 -0.18330756 -0.18330763 -0.18330757 0.18330763 0.18330759
0.18330765 0.18330762 0.18330763 -0.18330765 0.18330765 0.18330763 0.18330763 -0.18330759
0.1833076 -0.18330754 0.18330762 0.18330763 -0.18330753 -0.18330765 0.18330763 -0.18330766
0.18330768 -0.18330759 -0.18330763 0.18330763 -0.18330763 0.18330763 0.18330763 0.18330757
0.18330762 -0.18330757 -0.18330759 -0.18330763 0.18330763 -0.18330759 0.18330765 0.18330765
-1.4392864e-37 0.18330763 0.18330763 0.18330763 0.18330759 -5.2332643e-07 -0.18330766 -2.00594e-10
0.18330757 -0.18330762 -0.18330765 -0.18330754 0.18330763 0.18330762 0.18330765 0.18330763
-0.18330768 0.18330768 -0.18330754 0.18330756

fc1.weight f4 [100, 24]
00000000: e162 493c 71f1 843e b94a 01bd eeff e5bd
00000010: 1438 773d 9e23 873c 9e20 613e a15f 64bd
00000020: 8ad0 09bd 3646 4f3e d66f 13be c078 1fbb
00000030: d018 11be 60ef 15bc a842 10be 3864 803d
00000040: 85bf 0bbe e51f 22be 6ee4 0dbe 500e d23d
00000050: 6670 0dbe 9c4a ef3d d783 343d 10ff 573e
00000060: 888a bb3d cfff 6d3d 5615 5d3d 0935 31be
00000070: 0f2a 17be 66ce 3bbe 9fad 82be fee3 82be
00000080: 4d18 ffbd c23f 093e 12d7 0c3e f8aa 8c3c
00000090: 84da 97bd 7280 04be f88a 873d 00d5 c73a
000000a0: 4caa 1e3e d805 95bc 68e6 58bd 060f 21be
000000b0: b01d e4bd d489 123d c3b7 253e 50b7 a4bd
000000c0: 3fb2 613e 0790 7bbc 3202 0ebe 0407 813d
000000d0: 0c04 643e b513 52bc a965 52bd 723b 8a3c
000000e0: f5bd 073e 5b37 4dbe 646a 053d 7021 fabc
000000f0: e0a3 6b3c f417 28bd 701a 94bd dc44 31bd
00000100: 9cab 66bd 4cd6 09be 5828 31be d6de 4fbe
00000110: a498 abbd 4ceb 20be 6735 0ebe 9165 a23d
00000120: cf4d 963d ba9b 4fbe 84ff 243d f0dd 14be
00000130: 5a30 3bbc 8c09 d13d 2778 40be bd00 12be
00000140: 857b ccbd 2a86 30be 92d2 243e 8a49 3f3e
00000150: 420b 4bbe b4d3 d93d b676 323e a833 4cbd
00000160: d038 c4bc cca6 8c3d 2420 c23d 7cc5 153e
00000170: 8860 933d 4d6f 8dbc 6465 0abe f9aa 7fbd
00000180: 83a8 76bd d2b1 a6b9 d156 07bd dbd4 6d3b
00000190: 40b4 34be cbeb 13be 9d21 9bbd 8073 63be
000001a0: 7d07 05be e119 29be 208f 45be 1072 f1bc
000001b0: 24b7 303e 50bd 64bc 80ee c2ba 900d 0ebc
000001c0: 6055 d6bb b641 1e3e f8f3 88bd 1ecd e0bd
000001d0: e2c7 3c3e a845 0bbb 50a1 563c c859 443e
000001e0: 2c9b edbd 5c27 dcbd 0143 f4bd 109f 56be
000001f0: 2eb2 7b3c d242 76be 7328 aebd bf48 50bd
00000200: 7544 91bb 108b 973d 8494 303e be9a 9ebd
00000210: a2ae 30be 803c ce3c 942d 193e 68b3 ddbc
00000220: 526a 243e a6a4 c5bd 408c 94bd 58ea 81bd
00000230: 1cd3 83bd 463c 383e 4c95 5d3d 5925 d13c
00000240: 1d00 77be b974 27bd a50c 03be 3644 5abe
00000250: 8e35 afbc 2c3a 083e 235c 27be dd87 35be
00000260: 8d07 9e3d 684c 3b3e a3f9 45be aa91 0ebe
00000270: d44a 4d3e f621 1e3e 909f ee3c a4c4 df3d
00000280: 2859 b23c c539 f1bd 04ce f0bd c634 313e
00000290: 908c 253c 036b b43d 4e80 7d3d 3304 863d
000002a0: 970c 0f3e b45e 3a3e 0623 c1bd efc2 3f3d
000002b0: cd92 4e3e 9e3b 883d f1b1 4b3e ab5d 5b3e
000002c0: e02d cc3d 9b4b e8bd f885 963d 604e a73d
000002d0: a043 39bc 7cf7 273e d515 a3bd 008e 043d
000002e0: cbbe 1bbe 88f0 eebd 3da5 b2bd a065 5bbd
000002f0: e795 32be 4abb 113d d153 5bbd 1ebb 0cbe
00000300: de88 1c3c be2c 2d3e b2cd 163e 9598 d93d
00000310: 7ddd d33d e221 fc3d ca88 353d 30bc 033e
00000320: 1e31 d43d aef8 393e f278 323e a881 463d
00000330: 602b 35bd 2f14 39be 9c00 08bd de6b 503e
00000340: 8085 223e 9a43 243e c4f6 99bd b82f fabc
00000350: 8856 003e 8bea 7ebd df68 b23d be94 a9bd
00000360: 5df8 a3bd 27a8 113e 5756 363d 1001 3e3e
00000370: b005 11be e639 f43d c33b 143e 2ce8 253e
00000380: 77cd b4bb 9834 00bd 00b7 423e 091f fcbd
00000390: e807 ba3d df23 41be 8086 ed3b b035 473d
000003a0: 80b3 573d 6f94 05be da8c efbd 38d9 ad3d
000003b0: aaa7 103e 895d 84bc 3a2a 403d d94a 2cbe
000003c0: 7f7e 0abe deae 71bd 4f39 75bc 5603 8a3d
000003d0: aa0f 25be 4f5a 76be 5d42 4bbe 24a1 9abe
000003e0: c7e9 46be bcfe 7cbd 98b2 ba3c 02d9 bbbd
000003f0: c023 7c3c 08b2 053e 10d3 6e3d acf2 2dbd
0.012291641 0.25965455 -0.0315654 -0.11230455 0.060356215 0.016496476 0.21985099 -0.05575526
-0.033646144 0.20241627 -0.14398131 -0.0024333447 -0.14169621 -0.00915131 -0.14087927 0.06269115
-0.13647278 -0.1583248 -0.1385667 0.10256636 -0.13812408 0.116841525 0.044071045 0.21093392
0.09157282 0.058105286 0.053975426 -0.17305388 -0.14762138 -0.18340454 -0.25523087 -0.2556457
-0.12455807 0.13403228 0.13753918 0.017171368 -0.074147254 -0.12939623 0.06618303 0.0015245974
0.1549465 -0.018191263 -0.052954108 -0.15728387 -0.11138475 0.035775974 0.16183381 -0.080427766
0.22040652 -0.015354163 -0.13868025 0.06300166 0.22267169 -0.012822081 -0.051366482 0.016874049
0.13256057 -0.20040648 0.032572165 -0.030533522 0.014382333 -0.04103847 -0.07231605 -0.04327856
-0.056316003 -0.13460654 -0.17300546 -0.20299849 -0.08378723 -0.15714759 -0.13887559 0.079295285
0.073390596 -0.20274249 0.04028274 -0.14537787 -0.011425102 0.10206899 -0.18795834 -0.14258094
-0.09984497 -0.1723868 0.16095951 0.18680397 -0.19828513 0.10636082 0.17428097 -0.04985395
-0.023952872 0.068677515 0.094787866 0.14626116 0.07196146 -0.017264986 -0.1351524 -0.06241891
-0.0602193 -0.00031794474 -0.03304178 0.0036290202 -0.17646885 -0.14445417 -0.075747706 -0.22212029
-0.12991138 -0.16513778 -0.19292879 -0.029473335 0.17257363 -0.013961151 -0.0014872104 -0.008670226
-0.006540939 0.15454754 -0.06687158 -0.10976623 0.18435624 -0.0021251235 0.013099983 0.19174874
-0.11601862 -0.10749695 -0.119268425 -0.20959115 0.015362306 -0.24048927 -0.08503809 -0.050850626
-0.0044332095 0.07399571 0.17244154 -0.077443585 -0.17254117 0.025175333 0.14958793 -0.027063087
0.16056183 -0.09650545 -0.07253313 -0.06343526 -0.0643675 0.17991742 0.05409746 0.025530504
-0.24121137 -0.0408828 -0.12797792 -0.21315083 -0.021387842 0.13303441 -0.16343741 -0.17727609
0.07716284 0.18290865 -0.1933351 -0.13922754 0.20048076 0.15442643 0.02912882 0.10926178
0.021771029 -0.11778597 -0.11758044 0.17305288 0.0101043135 0.08809473 0.06188994 0.0654377
0.13969646 0.18200189 -0.09430508 0.046816763 0.20173188 0.06651996 0.19892098 0.2142245
0.099696875 -0.113425456 0.07349771 0.08169246 -0.011307627 0.16403002 -0.079631485 0.032361984
-0.152095 -0.116669714 -0.08722923 -0.053563714 -0.17439996 0.035579003 -0.05354673 -0.13743255
0.009554116 0.16911599 0.14726904 0.10624806 0.1034498 0.1231115 0.044319905 0.12864757
0.10360931 0.1816127 0.1742895 0.048463494 -0.04423082 -0.18074106 -0.033203706 0.20353648
0.15871239 0.16041413 -0.0751777 -0.030540332 0.12533009 -0.062235396 0.08711409 -0.082803234
-0.08006356 0.14224301 0.044515934 0.18555093 -0.14162326 0.11925106 0.14475922 0.16201848
-0.0055176574 -0.031300157 0.19015121 -0.12310607 0.09083539 -0.1886134 0.0072486997 0.048635185
0.05266142 -0.13044904 -0.11696787 0.08488697 0.14126459 -0.016157882 0.04691527 -0.16825427
-0.13524817 -0.059004657 -0.014967277 0.067389175 -0.16119257 -0.24057887 -0.19849534 -0.30201066
-0.19425116 -0.06176637 0.022790238 -0.0917225 0.015389383 0.13056195 0.058306754 -0.042467758
