gail/save_model/0/SUB028_ckpt_18.pth.tar (torch_old, 154728 bytes, 16 tensors)

fc1.weight f4 [100, 22]
00000000: 43f1 343e fb64 abbe 0293 253d 20fc 27be
00000010: 5fb5 c7bd d691 de3d 0674 adbd e2aa 163e
00000020: e336 3c3e 4c25 023e 003e 8ebc 3886 2e3e
00000030: 4eb4 d8bd 184a e23c 9825 4dbe c06f 223d
00000040: 7025 723d 4033 0fbc 78f1 333d bc58 cd3d
00000050: dc39 e33d 2212 293e 8a9e 303e b367 073e
00000060: 52f4 0f3d a3ea 413e d02f e8bd 9a87 0ebe
00000070: e7d7 55bd ceed 083e baf9 aebd 60a0 82bc
00000080: 80ca d93d 428d 403e 8245 3fbe 08aa 563d
00000090: c87c 253e 885d 423d e0f2 743d 8098 4abe
000000a0: 60d8 13bd e859 d7bd 4c4c 0a3e c495 50be
000000b0: 9bf7 3c3e b0fe 9c3a 3b38 ab3e c3be 8ebe
000000c0: 8815 fcbd b86c b1bc 6801 69be 7dd5 e9bd
000000d0: 652c b93d f4e6 823d 80e2 423d e2fd 343e
000000e0: 2aac 90bd e061 00bd 386a f13d f2de 593e
000000f0: b48a 903d 702e 3f3d 2bd9 cdbd 00e4 5a3c
00000100: 0899 e8bc 707d b63c f61c 763e 6fc9 34be
00000110: de4f 89bd 45c1 63be a56f a0be 269d cbbe
00000120: 1451 6fbd 25fb 7dbe 80af 6dbe 01da dabd
00000130: 33e9 1abe c8ad 403d 1ac7 463e 45c5 ebbd
00000140: 808b c0bd b850 243e 7c20 8a3d 961e 3c3e
00000150: 3081 b13c 5c39 07be 3e95 283e c202 4d3e
00000160: 9cf2 5ebd d6cc 3dbe 3cfb 49be 93df 09bf
00000170: 9581 843e d840 293e 303d 123e b9c4 e0bd
00000180: bad2 663e 24fa f9bd 820d 0b3e e06a ae3b
00000190: 20b2 ac3d 888f b9bc 6854 bc3d 7659 283e
000001a0: edcf 41be 04e5 043e 28a2 423e 8c7a fa3d
000001b0: b053 d03d 2465 3abd 14e0 d7be a3c7 c2bd
000001c0: 0a36 cebe 9681 99bd 430a 87be 6e1d 353e
000001d0: f99f ddbd 46f1 1c3e 55ee 913d 0c99 f63d
000001e0: 487b 25bd ba00 a4bd a8b9 24bd a814 703d
000001f0: 902a 173d 588b 543e 0467 453e dc31 033d
00000200: b850 0abd 94d6 07bd 8032 6ebd b81f ed3d
00000210: dd88 20be 55c0 923e 64b3 693e 480a 3fbe
00000220: 90d4 b33e 2bd8 5ebe 030d 07be 6f56 5fbe
00000230: d165 83bb 8093 c03a 4cbd b63d 342d bd3d
00000240: 50d3 b03d c7cf 02be 12a7 093e 00fa 77bd
00000250: 2c53 57bd d054 a33c 2a1e 173e 3e4a 1c3e
00000260: c89a 9cbd 403c 893b 8ab0 2dbe 352b 5d3d
00000270: 0f11 5ebe c476 113e 31b5 2b3e ab06 f03d
00000280: cf56 be3e b847 b03e 4dc2 373e 2045 303c
00000290: 6469 d23d d4ac 13bd cb67 e9bd a4c0 a73d
000002a0: b056 dc3d 96a3 0f3e 90b3 243d cb31 e2bd
000002b0: 58ee 69bd b0e6 093e 9c95 ae3d b4a8 54bd
000002c0: c0c7 133c d7d0 04be 29f5 edbd c461 0a3e
000002d0: b88c 8b3d 1648 703e ae3d eabd 308b 733e
000002e0: 5eab 673e 5890 033e ec6e 443e c08f 013b
000002f0: 27be 2cbe d8c9 973c b9b8 58be 08d4 063d
00000300: dec1 0fbe 045e f63d c46a e23d 14c8 41bd
00000310: d033 e9bd 9783 fcbd 5da4 393e a12c 6e3e
00000320: 8ad6 f2be 22db 47be 9ee6 5abe 2355 83be
00000330: 3eb5 cabe 4664 b0be ce54 fabe 38ec 2dbe
00000340: 1c9c 4d3e 3869 b5bd 3408 413e 73e1 31be
00000350: 30c1 1c3d 4c28 493e ced6 56be 86ef 38be
00000360: 415d 1cbe 881b fbbc f030 533d f635 48be
00000370: 85be dfbe 993b c13d 911f f3be f167 023f
00000380: b92a 833d 018e 1a3d 0be9 8abd 2038 933b
00000390: d272 e53c 986b 91bd 6d15 38be 947b 213e
000003a0: 6840 af3c 6ca1 f83d cc89 0b3e 4ca5 473e
000003b0: 051b 31be ff48 c4bd a8a7 6c3d a843 29bd
000003c0: 8868 ef3d 202c 83bc ada2 1d3e cd59 84be
000003d0: 875c eb3e 0465 753e be9e 9e3e bdc4 813d
000003e0: 481e 47be 6cd0 10be 8f8c ffbd f475 8c3d
000003f0: 52f6 4bbe 921a 0f3e 50b4 403d 14b5 073d
0.17670159 -0.3347548 0.0404234 -0.16404772 -0.09751391 0.1086766 -0.08469395 0.14713624
0.18380313 0.1270954 -0.017363548 0.17043388 -0.105812654 0.027623221 -0.20033872 0.039657354
0.059117734 -0.008740246 0.043931454 0.1002669 0.1109502 0.16510823 0.17247978 0.13223152
0.03514511 0.18937163 -0.113372445 -0.13918915 -0.052207854 0.13371965 -0.08543725 -0.015945613
0.10634327 0.18803886 -0.18678859 0.05240825 0.16160882 0.04745248 0.059801936 -0.19784737
-0.036095023 -0.10515195 0.13505667 -0.20369631 0.18453829 0.0011977758 0.33441338 -0.27879915
-0.12308794 -0.021658286 -0.22754443 -0.11417673 0.09041671 0.06391707 0.04757929 0.17674974
-0.07064088 -0.03134334 0.11787838 0.21276453 0.070577055 0.046675146 -0.10051187 0.0133600235
-0.028393283 0.02227661 0.24034485 -0.17654966 -0.067046866 -0.22241695 -0.31335178 -0.39768332
-0.05842693 -0.24802835 -0.23211479 -0.10686112 -0.15128021 0.04704073 0.19411889 -0.115122356
-0.094016075 0.16046417 0.06744477 0.18371043 0.021668047 -0.13205475 0.16463181 0.20020583
-0.05443059 -0.1853517 -0.19724745 -0.5385677 0.25880113 0.16528642 0.14281154 -0.10975022
0.22541323 -0.12205914 0.13579372 0.005322799 0.08432412 -0.022651449 0.09195787 0.16440377
-0.18926974 0.12977988 0.1900717 0.12230405 0.10172212 -0.04550661 -0.42163146 -0.09510734
-0.40275604 -0.0749542 -0.26375017 0.17687008 -0.10821528 0.15326414 0.07125536 0.1204091
-0.040400773 -0.08007951 -0.040216118 0.05861345 0.036905825 0.2075628 0.19277579 0.03202997
-0.033768386 -0.033163622 -0.05815363 0.115783155 -0.15677209 0.28662363 0.22822338 -0.18656266
0.3512311 -0.21762149 -0.13188557 -0.21810316 -0.00400994 0.0014692396 0.08922824 0.092371374
0.08634055 -0.12774573 0.13442639 -0.060541153 -0.052569553 0.019937903 0.147576 0.15262696
-0.0764671 0.0041880906 -0.16961876 0.053996284 -0.21686195 0.14205462 0.16768338 0.11720022
0.37175605 0.34429717 0.17945214 0.010758668 0.10274008 -0.036053494 -0.1139675 0.0819104
0.10758722 0.14027247 0.040210307 -0.110446535 -0.057112068 0.13466907 0.085246295 -0.0519187
0.009019792 -0.12970291 -0.11619026 0.13513857 0.06813949 0.23464999 -0.11437546 0.23783565
0.22623965 0.12848032 0.19182938 0.001976952 -0.16869412 0.018528864 -0.21164216 0.032917053
-0.14038798 0.12029651 0.1105552 -0.04730995 -0.113868356 -0.12329786 0.18129106 0.23259212
-0.47429305 -0.19517186 -0.21377036 -0.25650892 -0.39591402 -0.34451503 -0.48892826 -0.16984642
0.20079082 -0.088579595 0.18850785 -0.17371158 0.038270175 0.19644278 -0.20980379 -0.18060121
-0.15269949 -0.030652776 0.051560342 -0.19551834 -0.43700042 0.094351955 -0.4748502 0.5093985
0.06404633 0.03773308 -0.06782731 0.0044927746 0.028008852 -0.071006 -0.17976923 0.15769798
0.021393016 0.12140164 0.13626784 0.1949665 -0.17295463 -0.095842354 0.057777077 -0.041324288
0.1168986 -0.016012251 0.15394087 -0.25849763 0.4596903 0.23964316 0.30980486 0.06336353
-0.19445145 -0.14142007 -0.12477981 0.06858435 -0.19918182 0.1397498 0.04704696 0.033131674

fc1.bias f4 [100]
00000000: 193a 01bc 3243 943c 154c 313e 1090 ca3d
00000010: 41b3 2bbd 79fb 4abe 34be 68bb 59c0 fdbd
00000020: 54d1 28be 5aed d23e b53e 2c3d 8357 6cbd
00000030: baf6 86bd 8649 d0bd 3012 913e bb6e 103c
00000040: 8b28 4f3e 9207 23be e293 fc3d ae8e 5dbc
00000050: b5cd 9fbe 282f 8bbe 1596 d8bd d888 193e
00000060: 176d 593e a20c b1bd 52b4 183d a7c8 d4be
00000070: 3843 7c3e 3d70 203e 0d16 8dbc 2fc1 893e
00000080: 296d 51be eb19 f3bc 5f4f cd3e a2b9 bebe
00000090: 25b2 fe3d 53d6 73be 7ea1 b1be dc1e 253e
000000a0: 840c 1dbe 9f53 eebc 12fc d6bd 8ec0 f73d
000000b0: 0c1a a83e e66b d7bd cff5 01bd 817b 2cbc
000000c0: 607b 113e fc11 2cbe c522 01be 3ee4 583e
000000d0: 07b9 f2be d9ed 77be 268f 453e 1d12 06be
000000e0: fdcf 7dbb 9717 9abe 6cd2 083e 9602 b13d
000000f0: 280d f73d 9d88 0b3e e8ef 18bd ea8e 31be
00000100: 0eaf 59be 22bc e73d ce45 923d c32c 80be
00000110: c733 393d f598 b33e f385 b4bd 1d12 d33d
00000120: 7f45 a53d e2e0 cc3e 1814 193e 325c e0bd
00000130: 9d06 113e dbef 1c3f 22d4 903d 431c c0be
00000140: 2278 a6be 3a01 0d3e c45d 2bbd c9d4 cb3e
00000150: d5a4 29be 76df 213d 65b4 103e 6ee2 223e
00000160: 01d6 6fbe 4305 753e ab5d 28be 397c 35be
00000170: 937f 95bd 2b3b dd3d 9cb2 8c3c b55f 0a3c
00000180: 5887 09be d842 8e3e e748 f53e 61e3 843d
-0.007887387 0.018098447 0.17314179 0.09890759 -0.041918997 -0.19822492 -0.003551376 -0.12390203
-0.16486102 0.4119671 0.04205199 -0.057700645 -0.06590028 -0.101702735 0.28334188 0.008815463
0.2023031 -0.15920857 0.12332894 -0.013522787 -0.3121163 -0.27184415 -0.10575501 0.14993608
0.2123302 -0.08644988 0.03728134 -0.41559336 0.24635017 0.15667816 -0.017222429 0.269052
-0.20451798 -0.029675445 0.40099618 -0.37251002 0.12436322 -0.23812227 -0.3469352 0.16125053
-0.15336806 -0.029092608 -0.10497297 0.12097274 0.32832372 -0.10518627 -0.031728562 -0.0105274925
0.1420722 -0.16803735 -0.1261092 0.21180817 -0.4740679 -0.24211825 0.19292888 -0.13092847
-0.0038728707 -0.30096123 0.1336152 0.08643071 0.12063056 0.13626333 -0.037338167 -0.17339674
-0.21258184 0.1131518 0.071422204 -0.2503415 0.045215394 0.35077634 -0.08814611 0.10306189
0.08069896 0.40015322 0.14949071 -0.10955085 0.14162679 0.6130349 0.07071711 -0.37521562
-0.3251353 0.13769999 -0.04183747 0.3981078 -0.16566785 0.03951975 0.14131315 0.15906689
-0.2342148 0.23927788 -0.16441981 -0.17723168 -0.072997235 0.10802301 0.017175011 0.00844567
-0.13430536 0.27785373 0.47907183 0.064886816

fc2.weight f4 [100, 100]
00000000: 8d41 04bf 6b3e 873e a4d8 fabc 8629 fe38
00000010: ca88 b3be d267 f9be 9a39 c9bd 4da3 2e3d
00000020: 3e91 91be 0fb2 773e 647e 893d 7822 623e
00000030: 7757 4ebe 5834 d63c 68f9 003f ee44 a43e
00000040: 654e 163d 1f47 17be 99b2 9d3e 759c 61be
00000050: 3679 0ebf 0e79 acbe 5966 4d3d c6a3 a63d
00000060: 5ab2 f43e 3113 493e 5f62 b53d 8a12 a7be
00000070: 771d df3d aba4 5b3e 2972 b5be 13ae e93e
00000080: 19b8 00bf fdcb 03bd 7dee 5f3e c4ec 91be
00000090: 4ffc a3bd 8f72 6abd b54c 99be 0f1d b13e
000000a0: 4b6d 25bd b37a a3be a4a9 f0be c54a ac3d
000000b0: d7ac e53e a28c 61b9 2ba3 c23c db25 26be
000000c0: 59ba 8dbd 73fc d8be b649 b2be 359b 4e3e
000000d0: 90ac 82be d8c2 92be e5da 013f 7b77 5e3d
000000e0: c1be 7b3d 4e03 b0bd b71a a23e ab8c dabd
000000f0: 0547 913e 7c96 c43d 1115 2ebc 705d 82be
00000100: e7f0 e2bd ce62 1b3e 818a 39bd d39d ebbe
00000110: 15c9 56be 81c0 1a3e 6305 9ebe cc4d afbe
00000120: 069b fc3e ade1 d33e 8281 33bd f228 203e
00000130: bb73 683e 9c9c ed3e 6220 d9be 28e8 9dbe
00000140: fa17 d0be 841e 333e 9ade 8a3d e684 103f
00000150: 3b46 cebc 9089 743d 329a f93d 025e fd3e
00000160: e4c4 3abe db3e 4e3d 8aab d6be 7e27 803d
00000170: b9a3 b1bd 8ca9 8a3d b9ad a8be 02a3 103d
00000180: 07c7 5cbe 74d9 823e b3b5 a03e 8b10 793e
00000190: cec9 fbbd b2a1 213d f911 063f 4c16 72bb
000001a0: ea92 ce3d d152 a1be 0a53 713e 2839 cabe
000001b0: ffce 83be 064e bd3e 93d9 8ebe 8934 63be
000001c0: f48a b9be f182 df3d e9ae 6fbd 8af8 b63d
000001d0: 45c0 e03d e571 26be 3915 743e 030a 94be
000001e0: a3f6 99bd 0e57 163e e84d 223e 3959 b43e
000001f0: 5b82 283e fd1d 96bd e138 2bbe 1037 77be
00000200: 1e32 963e cc33 1c3f f210 a1bc 82c0 b5bd
00000210: af2c 96bd 1735 2dbe be32 4a3e 4a06 03bf
00000220: bb58 05be fd3b 8fbe 94ff e6be 0363 e6bb
00000230: 096b f1be ee3f 513d 9ac3 0d3e cbba 6c3e
00000240: 721f 103e b777 91bd cdb6 163f 5fc6 a13d
00000250: a398 dbbe f31e 8d3d a3e4 2bbe 2850 71be
00000260: 6abb 58be 6f82 5d3c 1594 a63d 1231 86be
00000270: c0aa 91be 881a 86bd 2c06 38be 588a dd3d
00000280: 2416 703e 166a e03e cf5a 53bd 4244 3e3e
00000290: aa95 c3be 1aae bb3e d94c b13e 348d 29be
000002a0: 4891 a43d f9a5 143f d84f 8cbd 30e8 923d
000002b0: cbe1 983e d004 2d3d 5b3c f93e a7cc f4be
000002c0: 2f7e 603e 1379 8f3e 9f90 5fbc db83 a4be
000002d0: b0b7 0dbe 9d49 a5be 1433 90be b744 b03e
000002e0: 9a7b debd 7ace 10be 89ec fabd 6e6d e53d
000002f0: 43aa 05bf 9eda c73e 18c5 6abe cb74 44be
00000300: 2187 bd3e 7a4d 133e 09eb 03be 7d4b 3dbe
00000310: cd57 003e bd5d fd3e 3b7a b43e b275 9cbe
00000320: 9cd7 953e ddca d3bd 3e7d e13d 5c2d 803e
00000330: f813 cc3c 54e5 11be 2515 3bbe 5da6 39bd
00000340: 9789 1c3c 403a 663d 7317 3abe 9022 a63e
00000350: dcc3 27be 8434 40be 4d34 3e3e 7346 123e
00000360: 5633 863d e56f 3abc 1946 05bd b70d c53c
00000370: dd29 863d 9e5b d2bd 4e60 773b cd24 8cbd
00000380: 6f8c b23d 70fc c4bd a70d 453e 7125 ab3d
00000390: fcd7 ea3e 3dd4 b83e cbc0 3e3d 8e5d 4d3e
000003a0: 1ccb 873d fa63 c1be d95f 283e 7656 85be
000003b0: 3c7a 7cbe 2047 01bd 04ce febc 5e85 4abc
000003c0: 447d 1fbe 16cf 723d 618b cb3d 0ac8 563e
000003d0: e1b4 2d3e 337b 9cbe 73b1 53be 2fc8 5a3e
000003e0: adf6 0d3e e3e1 7ebe 8ab1 df3d 2329 80be
000003f0: adca 20bd e481 653e c40f 13be 2fdf 153e
-0.5166252 0.2641481 -0.03062088 0.00012119398 -0.350653 -0.4871202 -0.0982544 0.042636205
-0.28431123 0.24189018 0.0671356 0.22083461 -0.20150553 0.026148006 0.50380564 0.3208384
0.036695857 -0.14773224 0.30800322 -0.2203234 -0.55653703 -0.33686107 0.050146434 0.08136706
0.4779232 0.19636227 0.088566534 -0.32631332 0.10894292 0.21449535 -0.3543866 0.4564062
-0.5028091 -0.03217696 0.2186832 -0.2850095 -0.080071084 -0.057238158 -0.29941335 0.34592482
-0.040387433 -0.3192955 -0.47004426 0.08412699 0.4485843 -0.00021510062 0.023759445 -0.16225378
-0.069203086 -0.42380103 -0.34821862 0.20176394 -0.2552228 -0.2866428 0.5072463 0.054313164
0.061461214 -0.0859438 0.31661007 -0.106713615 0.28374496 0.09599015 -0.01062514 -0.25461912
-0.11081105 0.1517441 -0.045298103 -0.46018848 -0.20975144 0.15112497 -0.30863485 -0.34239042
0.49337023 0.41383114 -0.04382468 0.1564062 0.22700398 0.46408546 -0.4240752 -0.30841184
-0.40643293 0.1749211 0.06780739 0.56452787 -0.025179973 0.059701502 0.121876135 0.49485785
-0.1823917 0.050352912 -0.4192775 0.062575325 -0.08673806 0.0677062 -0.3294504 0.035311706
-0.21560298 0.2555653 0.31388626 0.24322717 -0.122943506 0.039460845 0.52371174 -0.003693956
0.100866154 -0.31508496 0.23566833 -0.39496732 -0.25743863 0.3697359 -0.2790037 -0.2218801
-0.36238825 0.10913647 -0.058516417 0.08934124 0.109741725 -0.16254385 0.23836221 -0.28913888
-0.07517745 0.14681646 0.15850031 0.3522432 0.16455977 -0.073299386 -0.16720916 -0.24142098
0.2933511 0.61016536 -0.0196614 -0.088746086 -0.073327415 -0.16914783 0.19745919 -0.5118147
-0.13022129 -0.27975455 -0.45116866 -0.007030846 -0.47151974 0.05108636 0.13844147 0.23118131
0.14074495 -0.07102912 0.5887268 0.078991644 -0.4288989 0.06890669 -0.16786437 -0.23565733
-0.21165243 0.013519867 0.08133713 -0.26209313 -0.28450584 -0.06548029 -0.17971104 0.108174026
0.23445946 0.43830937 -0.051600274 0.18580726 -0.38200122 0.36656266 0.34628943 -0.16557771
0.08035523 0.58065754 -0.068511665 0.071731925 0.29859766 0.042240918 0.4867886 -0.47812387
0.21923135 0.2802206 -0.01364532 -0.32131848 -0.13839602 -0.32282725 -0.2816397 0.34427425
-0.10863419 -0.14141265 -0.12252147 0.11202513 -0.52212924 0.3903398 -0.22926748 -0.19185178
0.37017158 0.14385024 -0.12882628 -0.18485828 0.12533493 0.4948558 0.35249504 -0.30558544
0.2926606 -0.103414275 0.11010216 0.25034606 0.024911866 -0.14247638 -0.18269785 -0.045324672
0.009554288 0.056207895 -0.18173008 0.32448244 -0.16383308 -0.18770033 0.18574639 0.14284687
0.0655276 -0.011379217 -0.032537553 0.024054391 0.065509535 -0.10271381 0.003774661 -0.06842957
0.08718192 -0.09618461 0.19243489 0.08356751 0.45867908 0.36099425 0.04657058 0.2005522
0.06630537 -0.3777159 0.16442813 -0.26042527 -0.24656004 -0.03156197 -0.031104095 -0.012360899
-0.15575129 0.059279524 0.09938694 0.20974746 0.16963531 -0.30562744 -0.2067316 0.21365426
0.1386363 -0.24890856 0.10922535 -0.25031385 -0.039255787 0.2241283 -0.14361483 0.14635919

fc2.bias f4 [100]
00000000: de30 fc3e 573d 423e 46cb debc 9c12 05be
00000010: c7a9 1c3f 9755 de3d 463c e2be df45 5ebe
00000020: 8bcc 11be ae31 803e 08c9 fd3c 9023 d73e
00000030: 1104 d23e 4ce1 1b3f 50e3 cdbe 9ee5 3cbe
00000040: 0fa6 033f 54da 43be 083d 13bf c9a7 97be
00000050: 1976 84be 6f4b 843d 6bcc a5be 4d02 56bc
00000060: 85f0 123c a2d9 a13e a467 013f 6a9e e3bd
00000070: 6c68 1b3f a3a3 88be 3aa6 a6bd 9dbd 1a3f
00000080: f033 b03e f324 1bbf 3e72 fbbe 7ef5 c83d
00000090: 5e34 7c3d 54a5 003f 4973 11bf 0230 c53c
000000a0: 0ced 0c3f 39a3 febd 6733 f83e 0151 b9be
000000b0: df5e 143f 43b8 0abf 6cf9 d83c d3bf 673e
000000c0: 6332 a13e d182 0ebf dded 21bf 7586 16bf
000000d0: ac32 03bf 692e bcbe 8ba7 a13e e008 ef3d
000000e0: a15b 0dbf 7ea3 aa3e 358f 16bd 18bc b83a
000000f0: a9e4 cc3e 1fa5 203f 6f97 133f 08e9 183f
00000100: 3155 093f 4e63 153f c848 f33e 28c6 cabe
00000110: d5eb 433d 42cd de3d eba4 c5be 8f3a 86bd
00000120: a524 123f 8413 9fbe e9b5 16bf 4b23 0c3f
00000130: 52ed 0cbf d28f 15bf abb7 59bd 1443 023d
00000140: 7e7b 07bf 1649 f0be d729 ba3e 3c65 53be
00000150: 62ce 06bf 37c3 a83e 1770 eabe f000 003e
00000160: ad9f cb3e cdd3 a13e dfcf e53e 55de c8be
00000170: d85f 0a3f cf16 17bf cb28 0fbf b004 1bbf
00000180: ea28 f83e d751 20bf d028 ddbd 6bc0 e7be
0.49256033 0.18968712 -0.027196538 -0.1299538 0.6119656 0.10856169 -0.4418661 -0.21706341
-0.14238183 0.25037903 0.030979648 0.4201932 0.41018727 0.6089065 -0.40212488 -0.18446967
0.5142526 -0.19126254 -0.57515 -0.29620197 -0.2587135 0.064597 -0.3238252 -0.013062072
0.008968477 0.31611353 0.5054877 -0.111141995 0.6070621 -0.26687345 -0.08137174 0.60445577
0.34414625 -0.60603255 -0.49110597 0.09812449 0.06157338 0.5025227 -0.56816536 0.024070743
0.55049205 -0.12433476 0.48476717 -0.36194614 0.5795726 -0.5418741 0.026486121 0.22631769
0.31483755 -0.5566836 -0.63253576 -0.58798915 -0.51249194 -0.36754158 0.31573138 0.11671615
-0.5521794 0.3332786 -0.036757667 0.0014094142 0.40018204 0.62751955 0.57652944 0.5973058
0.53645617 0.5835465 0.47516465 -0.39604306 0.04783233 0.108789936 -0.38602385 -0.06554138
0.57087165 -0.31069577 -0.5887132 0.5474135 -0.5504962 -0.5842258 -0.053153675 0.031802252
-0.5292281 -0.4693076 0.36360046 -0.20644087 -0.52658665 0.32961437 -0.45788643 0.12500358
0.3977026 0.31606904 0.44885156 -0.39232126 0.54052496 -0.5901918 -0.5592162 -0.6055403
0.48468715 -0.6262488 -0.107988 -0.4526399

fc3.weight f4 [2, 100]
00000000: 1e16 253f 3592 433f 072a 213f 5122 2abf
00000010: 1ea8 2b3f f575 3b3f bf75 22bf 8add c9bf
00000020: c630 91bf 3441 f1bf 474d aabf 5cc0 283f
00000030: 455e 103f 1bf8 1b3f 412a 26bf 29e8 6fbf
00000040: e8e4 223f d762 57bf 3a98 1bbf 6816 06bf
00000050: 8a49 74bf 5aee c63f e6ca 62bf a594 35bf
00000060: 935f 14bf 10b5 79bf bbc7 263f 9d03 1f3f
00000070: 984d 223f dacd cdbf 4d43 263f 0058 193f
00000080: 05b1 37bf 09fa 1ebf 87ea 18bf edfe 26bf
00000090: d5aa 1fbf 93ac 183f cf13 2cbf f1fa c6bf
000000a0: 3213 123f fa2d bdbf 9444 173f 5e50 6bbf
000000b0: 9745 263f 4258 26bf a4b8 143f 9bef 873f
000000c0: f8ce 583f 1eb2 21bf 05ae 24bf 960e 25bf
000000d0: 813f 1bbf 4761 463f bf49 1a3f 9530 32bf
000000e0: 316b 16bf 2d01 9bbf 4d0a 223f 6833 663f
000000f0: c4ad 103f 7815 1b3f 1b7b 193f 2761 233f
00000100: 2127 213f 5806 183f 5ac0 203f bf95 26bf
00000110: 26c6 983f ff4d 13bf 4916 36bf f999 383e
00000120: 92d8 223f 3902 c9bf e87f 25bf c1c3 193f
00000130: aaf3 12bf 27c1 14bf d053 16bf e566 1e3f
00000140: 6c97 1dbf 02c8 1abf bcfb 833f 2eee 373f
00000150: cf5d 31bf 13e2 0f3f 1fd3 13bf 8311 633f
00000160: 77ca 253f 22dd 5a3f c9b1 1a3f 115c 3cbf
00000170: 9d81 153f 3e86 29bf b1b4 1cbf 7d2c 1dbf
00000180: 7c28 1e3f 52ff 26bf 4329 1e3f 8de6 1abf
00000190: 6d28 76bf 21b3 67bf dc8c 75bf e8d5 8c3f
000001a0: cca1 83bf cb08 61bf 1ad6 6e3f 3ad4 a33f
000001b0: 0874 6c3f a952 1340 9823 8e3f 22b1 7bbf
000001c0: 88be 70bf 9fb9 7fbf f333 7d3f 3c76 8a3f
000001d0: 5193 73bf 7298 813f bd16 7e3f 13e8 873f
000001e0: d152 703f eed0 b8bf 2d2c 6b3f 9092 793f
000001f0: 849d 913f 4cbc a03f dd54 7ebf a999 99bf
00000200: 7e89 7ebf 97be 803f 2747 75bf 284b 7fbf
00000210: 561d 8c3f 0da3 7e3f fdcb 593f 5f82 883f
00000220: f2c1 523f e0a7 7dbf c2fd 843f 2b87 9e3f
00000230: ce6a 69bf e5b1 963f b763 7cbf 6cdd 783f
00000240: 19ce 80bf d4a6 7d3f f5b7 7dbf f51f 85bf
00000250: 085f 65bf fdcb 793f 9ef1 813f ff69 593f
00000260: 3933 813f 80eb 8fbf a5c8 82bf 9205 413f
00000270: c6be 7b3f 5ed1 d93f 5ed0 97bf ebb4 96bd
00000280: 66e6 68bf b572 7fbf d3b5 7cbf 5afd 7ebf
00000290: 85b7 85bf c2bc 5ebf 6c8e 76bf 261f 7a3f
000002a0: dd04 88bf fad0 473f af64 7c3f 9256 263f
000002b0: 5b1e 7abf 2349 77bd 041a 793f e7ea 5fbf
000002c0: 0782 733f 8a10 743f eb93 b93f 66b0 63bf
000002d0: a778 803f 049a 5b3f 0587 a8bf 4ca7 88bf
000002e0: 2d87 813f 1d1a 74bf 7fd9 783f 3de6 77bf
000002f0: cd69 73bf b1df 93bf e416 7ebf e787 663f
00000300: 58d1 79bf 35ed 7f3f d640 7d3f 81a1 7d3f
00000310: 6817 7fbf ce67 813f 1d13 96bf 767a 5b3f
0.64486873 0.7639497 0.62954754 -0.6645861 0.670534 0.73226863 -0.63460916 -1.5770733
-1.134301 -1.8848023 -1.3304833 0.6591852 0.56393844 0.60925454 -0.64908224 -0.93713623
0.63630533 -0.8413519 -0.60779154 -0.5237794 -0.9542471 1.5541489 -0.8859085 -0.7092994
-0.57958335 -0.97541904 0.65148515 0.6211489 0.6339965 -1.6078446 0.6494644 0.598999
-0.71754485 -0.62100273 -0.5973286 -0.65232736 -0.62370044 0.5963833 -0.67217726 -1.5545331
0.5706054 -1.4779656 0.59089017 -0.91919506 0.64949936 -0.6497842 0.5809424 1.0619997
0.8469081 -0.6316241 -0.6432803 -0.6447538 -0.60643774 0.77492183 0.6026878 -0.6960538
-0.5875731 -1.2109734 0.6329697 0.8992219 0.56515145 0.60579634 0.5995347 0.6382012
0.6295033 0.5938468 0.62793505 -0.65072244 1.193547 -0.5754089 -0.71127754 0.18027486
0.6361171 -1.5703803 -0.64648294 0.6006432 -0.5740305 -0.5810723 -0.5872164 0.61875755
-0.61559176 -0.6046144 1.0311198 0.7184781 -0.69283766 0.56204337 -0.5774402 0.88698596
0.6476206 0.8549367 0.6042753 -0.7357798 0.584009 -0.6622046 -0.61213213 -0.6139601
0.61780524 -0.6523334 0.6178171 -0.6050804 -0.96155435 -0.90507704 -0.9591806 1.1002779
-1.0283751 -0.8790404 0.93295443 1.2799141 0.9236455 2.3019202 1.1104612 -0.9831716
-0.9404073 -0.9989261 0.98907393 1.0817332 -0.9514666 1.0124648 0.99253446 1.0617698
0.9387637 -1.443876 0.9186428 0.9748926 1.1376195 1.2557464 -0.9934824 -1.2000018
-0.99428546 1.0058163 -0.95811695 -0.99724054 1.0946453 0.99467546 0.85076886 1.0664786
0.8232719 -0.9908428 1.0389941 1.2385 -0.91178596 1.1773039 -0.9858965 0.9721286
-1.0062896 0.99082685 -0.9910882 -1.0400378 -0.8959813 0.97576886 1.0151861 0.8492736
1.0093757 -1.1243744 -1.0217482 0.75399125 0.9833797 1.7017019 -1.1860464 -0.07358726
-0.9097656 -0.99784404 -0.9871494 -0.99605334 -1.0446631 -0.8700677 -0.9631107 0.9770378
-1.0626484 0.7805325 0.9859113 0.64975846 -0.9770257 -0.060372483 0.9730532 -0.8746781
0.9512028 0.95337737 1.4498266 -0.8894104 1.003682 0.85781884 -1.3166205 -1.0676055
1.0119377 -0.95352346 0.9720687 -0.9683569 -0.95083314 -1.155264 -0.9925368 0.9005112
-0.9758506 0.99971324 0.98927057 0.9907456 -0.9964509 1.0109804 -1.1724583 0.85733736

fc3.bias f4 [2]
00000000: de71 343f 2cf1 5abf
0.7048625 -0.8552425

fc1.weight f4 [100, 22]
00000000: 73ab 30a5 0aef 8ba4 894a 1ca5 f02e 52a5
00000010: 5c21 8ca3 59c2 8924 3251 f924 1026 4824
00000020: 29ba 7a24 bb9c 0080 096d 0200 1f1b 0800
00000030: f147 0400 5f36 0c80 340d 0900 7aba 1280
00000040: 2b2d 0800 0c35 0580 5db2 0980 ecd6 1680
00000050: 8d1b 0a80 1cfb 2782 6e77 61b3 dcbd 2335
00000060: 3e8b 79b5 a98c 0bb5 2078 be34 8c16 3834
00000070: ca0b 3334 f099 3f34 115f 3934 588e 0100
00000080: 2e89 0e80 9e8a 1100 f242 1200 e243 0200
00000090: 7572 0a80 86a3 0d00 54ed 0b80 1442 1080
000000a0: 1148 0b80 dc98 1080 a430 1380 0f55 0c80
000000b0: d230 7336 968f 6b34 cca1 e0b6 06b7 1eb7
000000c0: 88db 80b6 6969 7533 d6a2 1935 15fc 8ab5
000000d0: b284 cbb3 8e48 1300 ac53 0080 b08b 1100
000000e0: da70 0a80 81a0 0780 a024 0180 89b5 0680
000000f0: ee23 0180 9845 0e00 7eb8 0080 bd0d 0c00
00000100: 2c11 1400 2b38 0800 3e93 91b4 a73b 9db6
00000110: 06ae b3b5 1703 f9b2 53db c935 f8c4 9a35
00000120: 9b3f 9935 c92e 9e35 003e 9b35 4186 0580
00000130: f2c1 0900 3d41 0e00 c91a 1580 c855 0500
00000140: 794d 0c80 89ec 0700 1fd1 0e00 9bb5 0400
00000150: 3c34 1500 4e87 0800 5488 0280 9773 0780
00000160: 4707 b739 98f9 793a 8662 b5ba b48f 76ba
00000170: 6185 6eba a87c 8db8 4060 9cb8 f24d 89b8
00000180: 7553 8bb8 633b 0580 f87f 0f00 2d3a 0580
00000190: d05e 1700 3211 0100 d6cc 0300 8b25 1880
000001a0: 6537 1600 f754 0580 6b3d 0980 5339 1600
000001b0: 0503 0f00 b23c 1080 340e 502d 03d2 efad
000001c0: e2fe 332e 6afd f82b 4b8b f1ab 5c5a 912b
000001d0: fea6 252c dea1 1f2b c0f2 6c2b 063f 0a80
000001e0: 79b7 0980 cae2 0580 18e6 1500 7b69 0100
000001f0: b377 1280 c28a 0900 ec72 1300 4726 1980
00000200: 4682 0200 c262 1680 e292 1300 2e94 1480
00000210: ed38 65a8 f0f7 78a9 f93d a329 ac95 ad29
00000220: 64c9 8f29 e0fe 3ba6 f05b 5026 0fd3 02a7
00000230: 6c77 84a6 2de8 1380 146d 0900 820d 0500
00000240: 5cae 1000 4ab1 0080 b106 0300 a8d0 0380
00000250: 6b3b 0480 bb68 0a00 3625 0b80 506d 0800
00000260: 5791 0880 d43a e902 6968 a429 adc0 aea8
00000270: 48b1 a9a8 f52e 48aa 93db 0eaa 6028 80a6
00000280: 20a5 41a6 e8ae 6127 203f 17a6 08de 1400
00000290: 3344 1000 4737 1100 7fc7 0e80 8c8e 1200
000002a0: d6de 0880 400e 0600 c9bb 0080 fa29 0600
000002b0: e551 1200 0822 0100 20d6 0780 b177 0b00
000002c0: cfc9 73a9 a413 5829 c85f 3c2a ffa9 b52a
000002d0: 469a 692a 730e b1a8 813e 81a8 39c0 f7a8
000002e0: 3ffa bca8 c6f4 0100 8267 0b80 1943 0e80
000002f0: faa4 0e80 fdbf 1380 8151 1500 7da7 0b80
00000300: 3412 0f00 43ba 0f80 8ae0 1480 1aab 1480
00000310: 321a 0b80 ff50 0d80 904c e2bd f56c 693b
00000320: 0881 4a3b b710 a03b 2923 893b ba35 303d
00000330: 2bff 583d 30d2 0b3d 849e 283d 24eb 0080
00000340: 06b0 1580 ae2c 0580 a214 0e80 5ab0 1580
00000350: e3f2 0600 9f07 0500 eaf9 0e00 1e67 0780
00000360: 742e 0180 0cf4 0900 9f8e 0b00 54dd 0a80
00000370: 944c e23d f76c 69bb 0281 4abb ad10 a0bb
00000380: 2c23 89bb bf35 30bd 30ff 58bd 32d2 0bbd
00000390: 869e 28bd d1b1 0600 174c 0900 e133 0580
000003a0: a12b 0280 c3b0 0500 2745 1600 4b27 0580
000003b0: dca2 0a00 4644 1100 5bb4 1780 a791 1500
000003c0: 985f 0080 988c 0300 904c e23d f46c 69bb
000003d0: fe80 4abb bc10 a0bb 2823 89bb bb35 30bd
000003e0: 2eff 58bd 31d2 0bbd 859e 28bd e051 0280
000003f0: 37ee 0c80 1853 0100 03a4 0a00 2cd1 0600
-1.5323656e-16 -6.068659e-17 -1.3556097e-16 -1.82305e-16 -1.5192959e-17 5.974352e-17 1.08124087e-16 4.3400327e-17
5.4367792e-17 -5.6224e-41 2.22785e-40 7.44413e-40 3.9315e-40 -1.12153e-39 8.31256e-40 -1.719934e-39
7.50887e-40 -4.78207e-40 -8.90504e-40 -2.09748e-39 -9.28238e-40 -1.2341287e-37 -5.2495515e-08 6.0998514e-07
-9.296235e-07 -5.198622e-07 3.547766e-07 1.7144538e-07 1.6674963e-07 1.7844263e-07 1.7264053e-07 1.42899e-40
-1.334908e-39 1.61093e-39 1.677054e-39 2.08023e-40 -9.59414e-40 1.252523e-39 -1.095328e-39 -1.493072e-39
-1.036043e-39 -1.524204e-39 -1.762323e-39 -1.132539e-39 3.6238239e-06 2.1938317e-07 -6.694556e-06 -9.460147e-06
-3.840254e-06 5.7139378e-08 5.72339e-07 -1.0355167e-06 -9.477061e-08 1.770902e-39 -3.0016e-41 1.611314e-39
-9.58838e-40 -7.00426e-40 -1.04974e-40 -6.16136e-40 -1.04725e-40 1.310662e-39 -6.6183e-41 1.106954e-39
1.84287e-39 7.54833e-40 -2.7115487e-07 -4.685909e-06 -1.3387187e-06 -2.898882e-08 1.5039499e-06 1.153122e-06
1.14179e-06 1.1785534e-06 1.1566444e-06 -5.07339e-40 8.96094e-40 1.3091e-39 -1.938154e-39 4.8995e-40
-1.129818e-39 7.27701e-40 1.360715e-39 4.3249e-40 1.947284e-39 7.83222e-40 -2.32576e-40 -6.84314e-40
0.00034909902 0.00095357886 -0.0013838566 -0.00094055687 -0.00090988545 -6.746623e-05 -7.4565876e-05 -6.5471875e-05
-6.6435816e-05 -4.80481e-40 1.423439e-39 -4.80047e-40 2.146229e-39 9.8004e-41 3.48988e-40 -2.21752e-39
2.040253e-39 -4.89657e-40 -8.48552e-40 2.040945e-39 1.378616e-39 -1.491141e-39 1.1826585e-11 -2.7264418e-11
4.092627e-11 1.7691796e-12 -1.7162741e-12 1.0327949e-12 2.354061e-12 5.6712783e-13 8.4180926e-13 -9.40964e-40
-8.92337e-40 -5.40534e-40 2.011088e-39 1.29675e-40 -1.695979e-39 8.76296e-40 1.7861e-39 -2.309619e-39
2.30404e-40 -2.055809e-39 1.797566e-39 -1.889867e-39 -1.27243974e-14 -5.5282114e-14 7.249405e-14 7.708707e-14
6.3854114e-14 -6.522408e-16 7.2289095e-16 -1.815554e-15 -9.191709e-16 -1.828163e-39 8.6565e-40 4.64023e-40
1.531916e-39 -6.36e-41 2.77907e-40 -3.50358e-40 -3.88657e-40 9.55925e-40 -1.023539e-39 7.73898e-40
-7.86822e-40 3.4270039e-37 7.301175e-14 -1.940144e-14 -1.8839653e-14 -1.777986e-13 -1.2688314e-13 -8.892728e-16
-6.718411e-16 3.131984e-15 -5.24742e-16 1.91636e-39 1.493833e-39 1.581033e-39 -1.357263e-39 1.704175e-39
-8.14622e-40 5.56125e-40 -6.7365e-41 5.66071e-40 1.682417e-39 1.04044e-40 -7.19662e-40 1.053128e-39
-5.413188e-14 4.797867e-14 1.6730985e-13 3.2270017e-13 2.0748082e-13 -1.9657214e-14 -1.4348984e-14 -2.7505872e-14
-2.098072e-14 1.79644e-40 -1.047322e-39 -1.309767e-39 -1.34488e-39 -1.813747e-39 1.957784e-39 -1.070274e-39
1.384062e-39 -1.44435e-39 -1.91726e-39 -1.89809e-39 -1.019588e-39 -1.222917e-39 -0.110497594 0.0035617922
0.0030899663 0.004884805 0.0041850996 0.043019988 0.052977722 0.034135997 0.041166797 -8.4353e-41
-1.991691e-39 -4.75206e-40 -1.293099e-39 -1.991808e-39 6.38144e-40 4.61911e-40 1.375349e-39 -6.7984e-40
-1.085e-40 9.14067e-40 1.061353e-39 -9.97753e-40 0.11049762 -0.0035617927 -0.0030899649 -0.0048848004
-0.004185101 -0.043020006 -0.05297774 -0.034136005 -0.041166805 6.14801e-40 8.53815e-40 -4.77788e-40
-1.99322e-40 5.22588e-40 2.045188e-39 -4.73273e-40 9.76778e-40 1.585695e-39 -2.176916e-39 1.980796e-39
-3.4293e-41 3.25942e-40 0.110497594 -0.003561792 -0.003089964 -0.0048848074 -0.004185099 -0.04301999
-0.052977733 -0.034136 -0.0411668 -2.13042e-40 -1.187481e-39 1.21644e-40 9.77191e-40 6.2605e-40

fc1.bias f4 [100]
00000000: 3de8 bd25 b258 2bb4 24e6 b835 3d5b 95b5
00000010: 8441 df38 4dbb 3ead c2bb cba7 5f20 bda8
00000020: 14d6 6b28 6c91 12be 6f91 123e 6d91 123e
00000030: 1d78 0a31 6d91 123e 6d91 12be 6e91 123e
00000040: 6d91 12be 6d91 12be 321a 8220 6f91 12be
00000050: fc0e 7236 b225 962c 839b a233 77e1 a023
00000060: a226 c7b4 e088 36b1 6a91 12be 6e91 12be
00000070: 6738 4432 6b91 123e a254 7f26 1425 7722
00000080: 9a9f f323 6b91 123e 6c91 12be f6da ff29
00000090: 4fed adb0 2150 a527 e859 0835 6891 12be
000000a0: 06b8 a1b7 5c2b 6e1d 2143 f0b7 aed3 a12f
000000b0: 0b12 4ab8 1cb5 a637 6e91 123e 6c91 12be
000000c0: b2ca e829 6d91 12be 6d91 12be 6e91 12be
000000d0: 6c91 123e 0ec0 a42e 162a cd37 6c91 12be
000000e0: 7de7 0cb4 6c91 123e 6c91 123e 06b6 b4aa
000000f0: 6d91 123e 988c c0a3 6d91 123e 38e8 ae31
00000100: 6c91 123e 9e9e 48b0 2209 27a5 6c91 12be
00000110: 6c91 123e 2c16 5bb7 f271 4fb8 6c91 123e
00000120: 6a91 123e 6e91 12be 6a91 12be 6b91 123e
00000130: 6e91 123e 6e91 12be fe9d 31ae 6d91 123e
00000140: f65a 039f 51db a3a3 1304 d336 6e91 123e
00000150: 6d91 12be 6e91 123e d0d6 2324 8e35 282c
00000160: 6e91 123e 3e6e 48b9 2bc2 f0ab 5499 51ab
00000170: b76c efb1 6d91 123e 6e91 12be 6c91 123e
00000180: 829b 0f2a 243f 942b f7c7 5820 6b91 12be
3.2943644e-16 -1.5957883e-07 1.3776048e-06 -1.1127919e-06 0.00010645672 -1.0841839e-11 -5.6547386e-15 -2.0997254e-14
1.3091541e-14 -0.14313287 0.14313291 0.14313288 2.014992e-09 0.14313288 -0.14313288 0.1431329
-0.14313288 -0.14313288 2.204019e-19 -0.14313291 3.6069532e-06 4.2674414e-12 7.572e-08 1.7442723e-17
-3.7094748e-07 -2.656229e-09 -0.14313284 -0.1431329 1.1421526e-08 0.14313285 8.8585596e-16 3.3494371e-18
2.6413707e-17 0.14313285 -0.14313287 1.13622585e-13 -1.2654854e-09 4.5883576e-15 5.079478e-07 -0.1431328
-1.9278388e-05 3.1521454e-21 -2.8641489e-05 2.9436137e-10 -4.8177357e-05 1.9873078e-05 0.1431329 -0.14313287
1.0338032e-13 -0.14313288 -0.14313288 -0.1431329 0.14313287 7.491972e-11 2.4457502e-05 -0.14313287
-1.3122731e-07 0.14313287 0.14313287 -3.2100727e-13 0.14313288 -2.0876225e-17 0.14313288 5.0904667e-09
0.14313287 -7.2984985e-10 -1.4488035e-16 -0.14313287 0.14313287 -1.30585795e-05 -4.9458766e-05 0.14313287
0.14313284 -0.1431329 -0.14313284 0.14313285 0.1431329 -0.1431329 -4.0385466e-11 0.14313288
-2.781557e-20 -1.776538e-17 6.2887643e-06 0.1431329 -0.14313288 0.1431329 3.5526944e-17 2.3903965e-12
0.1431329 -0.00019114555 -1.7106918e-12 -7.44645e-13 -6.968175e-09 0.14313288 -0.1431329 0.14313287
1.2754904e-13 1.0533558e-12 1.8362074e-19 -0.14313285

fc2.weight f4 [100, 100]
00000000: 705a a822 20eb e9b3 8202 2736 37c9 ae35
00000010: d6ce 5539 0852 00ad 1c53 38a8 9e3c 3729
00000020: c67d f6a9 53c5 af3c 56c5 afbc 55c5 afbc
00000030: bd4c a3b1 54c5 afbc 54c5 af3c 54c5 afbc
00000040: 55c5 af3c 54c5 af3c 6495 5821 56c5 af3c
00000050: 84ee a6b4 1e0c a52d 5dec 89b2 24f8 7aa4
00000060: 0c55 8332 8359 1334 53c5 af3c 54c5 af3c
00000070: af83 a232 56c5 afbc 28d1 0525 c30b 0323
00000080: ee3d e022 54c5 afbc 54c5 af3c 5cda 9aaa
00000090: 6068 0233 0b4d d927 08ff 8f32 4fc5 af3c
000000a0: 5117 a539 8e90 781f 0382 30b9 ece0 a42c
000000b0: 859c fc35 4390 c1b8 55c5 afbc 54c5 af3c
000000c0: 14a4 caaa 54c5 af3c 56c5 af3c 56c5 af3c
000000d0: 55c5 afbc fb43 23b0 f691 58b5 55c5 af3c
000000e0: 08dd 85b4 55c5 afbc 54c5 afbc 169c c0aa
000000f0: 54c5 afbc dabb 7e24 54c5 afbc 2099 7faf
00000100: 56c5 afbc 5e47 b2af b757 1c26 54c5 af3c
00000110: 56c5 afbc 79c0 5935 4130 4938 55c5 afbc
00000120: 54c5 afbc 55c5 af3c 51c5 af3c 54c5 afbc
00000130: 54c5 afbc 54c5 af3c b00a 04ac 54c5 afbc
00000140: e8e8 de1d e84d 2d23 7292 86b8 56c5 afbc
00000150: 56c5 af3c 55c5 afbc fe79 0323 ee6c a9ac
00000160: 55c5 afbc 6c97 7538 b188 09ad 8b4c a12c
00000170: 8638 0d32 55c5 afbc 55c5 af3c 55c5 afbc
00000180: 04d8 6b2a b2e3 d12a 5865 0620 53c5 af3c
00000190: dc59 a822 3ceb e9b3 ba02 2736 3dc9 ae35
000001a0: 09cf 5539 2b52 00ad 6a53 38a8 f53c 3729
000001b0: 3a7e f6a9 3bc5 af3c 3fc5 afbc 3cc5 afbc
000001c0: ca4c a3b1 3dc5 afbc 3dc5 af3c 3ec5 afbc
000001d0: 3cc5 af3c 3cc5 af3c 9a95 5821 3fc5 af3c
000001e0: 7aee a6b4 540c a52d 87ec 89b2 79f8 7aa4
000001f0: 0e55 8332 c959 1334 3ac5 af3c 3dc5 af3c
00000200: d683 a232 3ac5 afbc 98cf 0525 fb0b 0323
00000210: 363e e022 3bc5 afbc 3bc5 af3c 83da 9aaa
00000220: ba68 0233 444d d927 7803 9032 37c5 af3c
00000230: 7617 a539 ec90 781f 1982 30b9 b0e0 a42c
00000240: 6c9c fc35 ed90 c1b8 3dc5 afbc 3dc5 af3c
00000250: 55a4 caaa 3cc5 af3c 3cc5 af3c 3ec5 af3c
00000260: 3bc5 afbc 2d44 23b0 c091 58b5 3bc5 af3c
00000270: 08dd 85b4 3cc5 afbc 3bc5 afbc 4e9c c0aa
00000280: 3bc5 afbc 1ebc 7e24 3dc5 afbc 2c99 7faf
00000290: 3cc5 afbc 9647 b2af f257 1c26 3cc5 af3c
000002a0: 3bc5 afbc 54c0 5935 c530 4938 3bc5 afbc
000002b0: 3bc5 afbc 3ec5 af3c 39c5 af3c 3bc5 afbc
000002c0: 3ec5 afbc 3dc5 af3c 580a 04ac 3dc5 afbc
000002d0: e5e9 de1d 084e 2d23 9292 86b8 3ec5 afbc
000002e0: 3dc5 af3c 3ec5 afbc 337a 0323 bf6d a9ac
000002f0: 3dc5 afbc 6097 7538 e388 09ad c44c a12c
00000300: 2039 0d32 3dc5 afbc 3cc5 af3c 3cc5 afbc
00000310: 3ad8 6b2a e1e3 d12a 6665 0620 3bc5 af3c
00000320: 385a a822 26eb e9b3 a202 2736 42c9 ae35
00000330: eece 5539 2152 00ad 5c53 38a8 d43c 3729
00000340: 1b7e f6a9 44c5 af3c 47c5 afbc 47c5 afbc
00000350: cc4c a3b1 48c5 afbc 49c5 af3c 47c5 afbc
00000360: 47c5 af3c 47c5 af3c 8e95 5821 47c5 af3c
00000370: 7eee a6b4 480c a52d 74ec 89b2 65f8 7aa4
00000380: 1a55 8332 a459 1334 43c5 af3c 47c5 af3c
00000390: c083 a232 43c5 afbc 60d0 0525 ec0b 0323
000003a0: 1e3e e022 44c5 afbc 45c5 af3c 92da 9aaa
000003b0: a068 0233 254d d927 a801 9032 42c5 af3c
000003c0: 6c17 a539 c290 781f 0b82 30b9 94e0 a42c
000003d0: 799c fc35 a490 c1b8 47c5 afbc 44c5 af3c
000003e0: 38a4 caaa 47c5 af3c 48c5 af3c 47c5 af3c
000003f0: 45c5 afbc 1c44 23b0 de91 58b5 46c5 af3c
4.5632246e-18 -1.0892677e-07 2.48864e-06 1.3022571e-06 0.00020390315 -7.294172e-12 -1.0232073e-14 4.068674e-14
-1.0946413e-13 0.021456396 -0.021456402 -0.0214564 -4.7526485e-09 -0.021456398 0.021456398 -0.021456398
0.0214564 0.021456398 7.3381363e-19 0.021456402 -3.1093452e-07 1.876371e-11 -1.6056385e-08 -5.4420292e-17
1.5289082e-08 1.3723006e-07 0.021456396 0.021456398 1.8919165e-08 -0.021456402 1.1606776e-16 7.104015e-18
6.0780892e-18 -0.021456398 0.021456398 -2.7507413e-13 3.0362912e-08 6.031313e-15 1.6763366e-08 0.021456389
0.00031488625 5.2635616e-20 -0.00016833101 4.6861317e-12 1.8821016e-06 -9.229828e-05 -0.0214564 0.021456398
-3.599626e-13 0.021456398 0.021456402 0.021456402 -0.0214564 -5.939566e-10 -8.067867e-07 0.0214564
-2.4934002e-07 -0.0214564 -0.021456398 -3.4214358e-13 -0.021456398 5.5236587e-17 -0.021456398 -2.3246516e-10
-0.021456402 -3.242872e-10 5.424225e-16 0.021456398 -0.021456402 8.1118884e-07 4.7967074e-05 -0.0214564
-0.021456398 0.0214564 0.021456392 -0.021456398 -0.021456398 0.021456398 -1.876426e-12 -0.021456398
5.900373e-21 9.394846e-18 -6.4168955e-05 -0.021456402 0.021456402 -0.0214564 7.127357e-18 -4.8153625e-12
-0.0214564 5.8553574e-05 -7.8179e-12 4.584393e-12 8.220132e-09 -0.0214564 0.0214564 -0.0214564
2.0947138e-13 3.7283853e-13 1.1383773e-19 0.021456396 4.5631634e-18 -1.0892697e-07 2.4886526e-06 1.3022578e-06
0.0002039039 -7.294203e-12 -1.0232139e-14 4.0687034e-14 -1.09464914e-13 0.021456352 -0.021456359 -0.021456353
-4.7526543e-09 -0.021456355 0.021456355 -0.021456357 0.021456353 0.021456353 7.3381643e-19 0.021456359
-3.1093424e-07 1.8763803e-11 -1.605646e-08 -5.4420573e-17 1.5289086e-08 1.3723105e-07 0.02145635 0.021456355
1.8919234e-08 -0.02145635 1.1606247e-16 7.104061e-18 6.078119e-18 -0.021456352 0.021456352 -2.7507518e-13
3.0363232e-08 6.031337e-15 1.6765384e-08 0.021456344 0.00031488732 5.263592e-20 -0.00016833133 4.6861057e-12
1.8820988e-06 -9.229952e-05 -0.021456355 0.021456355 -3.5996436e-13 0.021456353 0.021456353 0.021456357
-0.021456352 -5.939594e-10 -8.0678365e-07 0.021456352 -2.4934002e-07 -0.021456353 -0.021456352 -3.421451e-13
-0.021456352 5.5236812e-17 -0.021456355 -2.3246532e-10 -0.021456353 -3.2428876e-10 5.424256e-16 0.021456353
-0.021456352 8.1118674e-07 4.7967555e-05 -0.021456352 -0.021456352 0.021456357 0.021456348 -0.021456352
-0.021456357 0.021456355 -1.876407e-12 -0.021456355 5.900475e-21 9.3948726e-18 -6.416919e-05 -0.021456357
0.021456355 -0.021456357 7.127401e-18 -4.815453e-12 -0.021456355 5.855353e-05 -7.817943e-12 4.584418e-12
8.220269e-09 -0.021456355 0.021456353 -0.021456353 2.0947212e-13 3.728398e-13 1.1383791e-19 0.021456352
4.5632014e-18 -1.0892681e-07 2.4886472e-06 1.3022584e-06 0.0002039035 -7.294194e-12 -1.02321275e-14 4.0686923e-14
-1.09464704e-13 0.021456368 -0.021456374 -0.021456374 -4.752655e-09 -0.021456376 0.021456378 -0.021456374
0.021456374 0.021456374 7.338158e-19 0.021456374 -3.1093435e-07 1.8763782e-11 -1.6056426e-08 -5.4420507e-17
1.5289107e-08 1.3723053e-07 0.021456366 0.021456374 1.8919195e-08 -0.021456366 1.1606511e-16 7.104049e-18
6.078109e-18 -0.021456368 0.02145637 -2.750756e-13 3.036314e-08 6.031324e-15 1.676456e-08 0.021456365
0.00031488703 5.2635784e-20 -0.00016833113 4.6860935e-12 1.8821003e-06 -9.2298986e-05 -0.021456374 0.021456368
-3.5996358e-13 0.021456374 0.021456376 0.021456374 -0.02145637 -5.9395844e-10 -8.0678535e-07 0.021456372

fc2.bias f4 [100]
00000000: 92d7 9fbd 7ad7 9fbd 83d7 9fbd 7cd7 9f3d
00000010: 88d7 9f3d 88d7 9fbd 7bd7 9f3d 80d7 9f3d
00000020: 85d7 9fbd 83d7 9fbd 80d7 9fbd 7dd7 9f3d
00000030: 81d7 9f3d 7cd7 9f3d 80d7 9fbd 81d7 9fbd
00000040: 84d7 9fbd 82d7 9f3d 80d7 9f3d 80d7 9f3d
00000050: 7bd7 9fbd 72d7 9f3d 6ed7 9fbd 80d7 9fbd
00000060: 61d7 9f3d ec74 92b0 82d7 9f3d 82d7 9fbd
00000070: 7fd7 9f3d 7ad7 9fbd 8dd7 9fbd 7bd7 9f3d
00000080: 7ad7 9f3d 81d7 9fbd 83d7 9fbd 80d7 9fbd
00000090: 82d7 9fbd 7fd7 9f3d 83d7 9f3d 73d7 9f3d
000000a0: 81d7 9f3d 87d7 9f3d 80d7 9fbd 73d7 9fbd
000000b0: 89d7 9fbd 71d7 9fbd 78d7 9f3d 79d7 9f3d
000000c0: 80d7 9f3d 80d7 9f3d 80d7 9f3d 83d7 9fbd
000000d0: 80d7 9f3d 88d7 9f3d 87d7 9f3d 83d7 9fbd
000000e0: 7cd7 9f3d 71d7 9fbd 77d7 9f3d 81d7 9f3d
000000f0: 70d7 9fbd 87d7 9fbd 7dd7 9f3d 7fd7 9fbd
00000100: 83d7 9f3d 80d7 9fbd 7bd7 9fbd 87d7 9f3d
00000110: 80d7 9fbd 8ed7 9fbd 82d7 9f3d 4dcf 9cb8
00000120: 79d7 9f3d 7ad7 9fbd 78d7 9fbd 85d7 9fbd
00000130: 79d7 9f3d 79d7 9fbd 7bd7 9f3d 82d7 9f3d
00000140: 40e5 718a 80d7 9f3d 87d7 9f3d 7ed7 9f3d
00000150: 7bd7 9f3d 1911 9ca7 80d7 9fbd daeb 448d
00000160: 7cd7 9f3d 83d7 9fbd 89d7 9fbd 67d7 9f3d
00000170: 7ad7 9f3d 7fd7 9f3d 83d7 9f3d 81d7 9f3d
00000180: 89d7 9fbd 8ad7 9f3d 7cd7 9fbd 70d7 9f3d
-0.07804789 -0.07804771 -0.078047775 0.07804772 0.07804781 -0.07804781 0.078047715 0.07804775
-0.07804779 -0.078047775 -0.07804775 0.07804773 0.07804776 0.07804772 -0.07804775 -0.07804776
-0.07804778 0.07804777 0.07804775 0.07804775 -0.078047715 0.07804765 -0.07804762 -0.07804775
0.07804752 -1.0656129e-09 0.07804777 -0.07804777 0.078047745 -0.07804771 -0.07804785 0.078047715
0.07804771 -0.07804776 -0.078047775 -0.07804775 -0.07804777 0.078047745 0.078047775 0.078047656
0.07804776 0.078047805 -0.07804775 -0.078047656 -0.07804782 -0.07804764 0.07804769 0.0780477
0.07804775 0.07804775 0.07804775 -0.078047775 0.07804775 0.07804781 0.078047805 -0.078047775
0.07804772 -0.07804764 0.078047685 0.07804776 -0.07804763 -0.078047805 0.07804773 -0.078047745
0.078047775 -0.07804775 -0.078047715 0.078047805 -0.07804775 -0.07804786 0.07804777 -7.4772724e-05
0.0780477 -0.07804771 -0.07804769 -0.07804779 0.0780477 -0.0780477 0.078047715 0.07804777
-1.1646845e-32 0.07804775 0.078047805 0.07804774 0.078047715 -4.3317235e-15 -0.07804775 -6.068106e-31
0.07804772 -0.078047775 -0.07804782 0.078047566 0.07804771 0.078047745 0.078047775 0.07804776
-0.07804782 0.07804783 -0.07804772 0.07804763

fc3.weight f4 [1, 100]
00000000: 81d3 2ebe 61d3 2ebe 6ed3 2ebe 64d3 2e3e
00000010: 75d3 2e3e 76d3 2ebe 63d3 2e3e 6bd3 2e3e
00000020: 73d3 2ebe 6ed3 2ebe 6bd3 2ebe 69d3 2e3e
00000030: 6bd3 2e3e 67d3 2e3e 6bd3 2ebe 6dd3 2ebe
00000040: 71d3 2ebe 6fd3 2e3e 6bd3 2e3e 6ad3 2e3e
00000050: 62d3 2ebe 59d3 2e3e 55d3 2ebe 6cd3 2ebe
00000060: 43d3 2e3e 136b 0db2 6dd3 2e3e 6ed3 2ebe
00000070: 6ad3 2e3e 62d3 2ebe 7bd3 2ebe 63d3 2e3e
00000080: 61d3 2e3e 6dd3 2ebe 6ed3 2ebe 6bd3 2ebe
00000090: 6dd3 2ebe 6ad3 2e3e 6ed3 2e3e 5ad3 2e3e
000000a0: 6bd3 2e3e 74d3 2e3e 6cd3 2ebe 59d3 2ebe
000000b0: 78d3 2ebe 58d3 2ebe 61d3 2e3e 61d3 2e3e
000000c0: 6ad3 2e3e 6bd3 2e3e 6ad3 2e3e 6ed3 2ebe
000000d0: 6cd3 2e3e 75d3 2e3e 75d3 2e3e 6ed3 2ebe
000000e0: 67d3 2e3e 56d3 2ebe 5ed3 2e3e 6cd3 2e3e
000000f0: 55d3 2ebe 73d3 2ebe 67d3 2e3e 6ad3 2ebe
00000100: 6ed3 2e3e 6bd3 2ebe 62d3 2ebe 74d3 2e3e
00000110: 6cd3 2ebe 7cd3 2ebe 6dd3 2e3e afdc 0fb9
00000120: 60d3 2e3e 62d3 2ebe 61d3 2ebe 72d3 2ebe
00000130: 61d3 2e3e 62d3 2ebe 63d3 2e3e 6ed3 2e3e
00000140: 3e4b d10a 6bd3 2e3e 74d3 2e3e 69d3 2e3e
00000150: 61d3 2e3e 0c62 38a6 6cd3 2ebe e2ef 440d
00000160: 64d3 2e3e 6ed3 2ebe 75d3 2ebe 4cd3 2e3e
00000170: 61d3 2e3e 6ad3 2e3e 6ed3 2e3e 6cd3 2e3e
00000180: 76d3 2ebe 78d3 2e3e 64d3 2ebe 56d3 2e3e
-0.1707287 -0.17072822 -0.17072842 0.17072827 0.17072852 -0.17072853 0.17072825 0.17072837
-0.17072849 -0.17072842 -0.17072837 0.17072834 0.17072837 0.17072831 -0.17072837 -0.1707284
-0.17072846 0.17072843 0.17072837 0.17072836 -0.17072824 0.1707281 -0.17072804 -0.17072839
0.17072777 -8.231626e-09 0.1707284 -0.17072842 0.17072836 -0.17072824 -0.17072861 0.17072825
0.17072822 -0.1707284 -0.17072842 -0.17072837 -0.1707284 0.17072836 0.17072842 0.17072812
0.17072837 0.1707285 -0.17072839 -0.1707281 -0.17072856 -0.17072809 0.17072822 0.17072822
0.17072836 0.17072837 0.17072836 -0.17072842 0.17072839 0.17072852 0.17072852 -0.17072842
0.17072831 -0.17072806 0.17072818 0.17072839 -0.17072804 -0.17072849 0.17072831 -0.17072836
0.17072842 -0.17072837 -0.17072824 0.1707285 -0.17072839 -0.17072862 0.1707284 -0.00013719754
0.1707282 -0.17072824 -0.17072822 -0.17072847 0.17072822 -0.17072824 0.17072825 0.17072842
2.0154271e-32 0.17072837 0.1707285 0.17072834 0.17072822 -6.39707e-16 -0.17072839 6.068591e-31
0.17072827 -0.17072842 -0.17072852 0.17072791 0.17072822 0.17072836 0.17072842 0.17072839
-0.17072853 0.17072856 -0.17072827 0.17072806

fc1.weight f4 [100, 24]
00000000: 9a2d 233c bee3 813e 774c 3cbc 4e74 d7bd
00000010: 19b5 9c3d 5a73 663c 8c94 5e3e 8976 6ebd
00000020: c8da 13bd 3646 4f3e d66f 13be c078 1fbb
00000030: d018 11be 60ef 15bc a842 10be 3864 803d
00000040: 85bf 0bbe e51f 22be 6ee4 0dbe 500e d23d
00000050: 6670 0dbe ef5c f43d 4018 2e3d 665f 573e
00000060: b3bb 963d 03f3 843d 7255 8d3d 79ee 31be
00000070: 5466 1abe c70a 3abe 93c1 81be 0afb 81be
00000080: 1d7f fbbd c23f 093e 12d7 0c3e f8aa 8c3c
00000090: 84da 97bd 7280 04be f88a 873d 00d5 c73a
000000a0: 4caa 1e3e d805 95bc 68e6 58bd 060f 21be
000000b0: b01d e4bd 1cc8 c93c d946 323e a402 b3bd
000000c0: 52e5 3e3e 0def 14bd 24a6 20be ed34 253d
000000d0: 1a24 563e 280b cebc 6760 82bd 8b66 953b
000000e0: 5f3e f63d 5b37 4dbe 646a 053d 7021 fabc
000000f0: e0a3 6b3c f417 28bd 701a 94bd dc44 31bd
00000100: 9cab 66bd 4cd6 09be 5828 31be d6de 4fbe
00000110: a498 abbd bbc0 10be 688c 13be 4eee 9e3d
00000120: faa3 a73d 26fa 53be e0a6 c13c 013b 21be
00000130: 0e0a 8dbc d246 c63d 02c0 45be a952 17be
00000140: ad2c d7bd 2a86 30be 92d2 243e 8a49 3f3e
00000150: 420b 4bbe b4d3 d93d b676 323e a833 4cbd
00000160: d038 c4bc cca6 8c3d 2420 c23d 7cc5 153e
00000170: 8860 933d 6ba9 aabc 89c5 08be e570 59bd
00000180: e34d 95bd 8c98 373b 0a0e babc 4c2b b03c
00000190: 7836 1abe dcc7 05be 78cd 7dbd ba51 55be
000001a0: 10c8 edbd e119 29be 208f 45be 1072 f1bc
000001b0: 24b7 303e 50bd 64bc 80ee c2ba 900d 0ebc
000001c0: 6055 d6bb b641 1e3e f8f3 88bd 1ecd e0bd
000001d0: e2c7 3c3e 6dc0 04bc 4010 d03c a5e0 4a3e
000001e0: 0bc8 1bbe 1772 e9bd 545e f6bd 6c22 68be
000001f0: 7447 903c 2921 78be dbd9 b1bd dcb3 57bd
00000200: 58d8 ccbb 108b 973d 8494 303e be9a 9ebd
00000210: a2ae 30be 803c ce3c 942d 193e 68b3 ddbc
00000220: 526a 243e a6a4 c5bd 408c 94bd 58ea 81bd
00000230: 1cd3 83bd 970f 343e 5cb1 883d e165 973c
00000240: 1eb3 7ebe 59dc a0bc 37ed edbd 34e6 56be
00000250: b529 02bc a304 043e 104c 2bbe baaa 39be
00000260: f1ac 953d 684c 3b3e a3f9 45be aa91 0ebe
00000270: d44a 4d3e f621 1e3e 909f ee3c a4c4 df3d
00000280: 2859 b23c c539 f1bd 04ce f0bd c634 313e
00000290: 908c 253c d90f 9d3d f7be 9a3d abff 893d
000002a0: 8c9c 163e 9027 333e eae5 cbbd 661e 423d
000002b0: f144 403e 9ea8 753d 6bd8 443e 2f9a 543e
000002c0: f8b4 be3d 9b4b e8bd f885 963d 604e a73d
000002d0: a043 39bc 7cf7 273e d515 a3bd 008e 043d
000002e0: cbbe 1bbe 88f0 eebd 3da5 b2bd a065 5bbd
000002f0: e795 32be 5008 333d 45fe 8cbd 74a8 0fbe
00000300: c11b 9d3b d56c 1c3e a8bf f13d e7df 673d
00000310: f479 d13d 07b1 c13d 895e 803c 50f4 cc3d
00000320: 0eb8 993d aef8 393e f278 323e a881 463d
00000330: 602b 35bd 2f14 39be 9c00 08bd de6b 503e
00000340: 8085 223e 9a43 243e c4f6 99bd b82f fabc
00000350: 8856 003e 080a 6ebd 11aa 8c3d 9a09 ccbd
00000360: 4497 60bd 8de2 ff3d 7871 003d a725 243e
00000370: d9fe 12be 3120 d93d 8183 063e d84c 183e
00000380: cfca 99bc 9834 00bd 00b7 423e 091f fcbd
00000390: e807 ba3d df23 41be 8086 ed3b b035 473d
000003a0: 80b3 573d 6f94 05be da8c efbd 38d9 ad3d
000003b0: aaa7 103e d49b 0dbc 9e2a e63c 4163 46be
000003c0: 4469 1abe 17c3 63bd b8cf b1bb 2ca0 963d
000003d0: 4c87 17be 1f1d 6bbe 77e4 3fbe 35fd 94be
000003e0: e6a6 3bbe bcfe 7cbd 98b2 ba3c 02d9 bbbd
000003f0: c023 7c3c 08b2 053e 10d3 6e3d acf2 2dbd
0.009959603 0.25369066 -0.01149284 -0.1052023 0.07651729 0.014065588 0.21736354 -0.058218513
-0.036097318 0.20241627 -0.14398131 -0.0024333447 -0.14169621 -0.00915131 -0.14087927 0.06269115
-0.13647278 -0.1583248 -0.1385667 0.10256636 -0.13812408 0.11931788 0.042503595 0.21032485
0.073600195 0.06491663 0.06901063 -0.17376126 -0.15078098 -0.18168174 -0.25342998 -0.2538684
-0.12280104 0.13403228 0.13753918 0.017171368 -0.074147254 -0.12939623 0.06618303 0.0015245974
0.1549465 -0.018191263 -0.052954108 -0.15728387 -0.11138475 0.024631552 0.17409839 -0.08740738
0.18642166 -0.03636079 -0.15688378 0.040333677 0.20912209 -0.025151804 -0.063660435 0.004559343
0.12023615 -0.20040648 0.032572165 -0.030533522 0.014382333 -0.04103847 -0.07231605 -0.04327856
-0.056316003 -0.13460654 -0.17300546 -0.20299849 -0.08378723 -0.14136021 -0.1440903 0.07760297
0.08185573 -0.20700893 0.023639143 -0.15745164 -0.017216709 0.09681477 -0.19311526 -0.14777626
-0.10506568 -0.1723868 0.16095951 0.18680397 -0.19828513 0.10636082 0.17428097 -0.04985395
-0.023952872 0.068677515 0.094787866 0.14626116 0.07196146 -0.020832738 -0.13356604 -0.05308618
-0.07290246 0.002801451 -0.022711772 0.02150502 -0.1505984 -0.13064522 -0.06196353 -0.20831957
-0.116104245 -0.16513778 -0.19292879 -0.029473335 0.17257363 -0.013961151 -0.0014872104 -0.008670226
-0.006540939 0.15454754 -0.06687158 -0.10976623 0.18435624 -0.0081025185 0.025398374 0.19812258
-0.15213029 -0.11398714 -0.120297104 -0.22669381 0.017612197 -0.242314 -0.08684131 -0.05266176
-0.006251376 0.07399571 0.17244154 -0.077443585 -0.17254117 0.025175333 0.14958793 -0.027063087
0.16056183 -0.09650545 -0.07253313 -0.06343526 -0.0643675 0.17584072 0.066744536 0.018481197
-0.24873015 -0.01963632 -0.11617511 -0.20986253 -0.007944514 0.12892394 -0.16728234 -0.18131533
0.073083766 0.18290865 -0.1933351 -0.13922754 0.20048076 0.15442643 0.02912882 0.10926178
0.021771029 -0.11778597 -0.11758044 0.17305288 0.0101043135 0.07669038 0.07555955 0.06738218
0.14708155 0.1749556 -0.09955962 0.04739227 0.18776299 0.05997526 0.19223182 0.20761941
0.09311861 -0.113425456 0.07349771 0.08169246 -0.011307627 0.16403002 -0.079631485 0.032361984
-0.152095 -0.116669714 -0.08722923 -0.053563714 -0.17439996 0.0437091 -0.068844356 -0.14029104
0.0047945683 0.15275891 0.11804134 0.056610014 0.10228339 0.094575934 0.015670078 0.100075364
0.07505809 0.1816127 0.1742895 0.048463494 -0.04423082 -0.18074106 -0.033203706 0.20353648
0.15871239 0.16041413 -0.0751777 -0.030540332 0.12533009 -0.058115035 0.06868375 -0.09962769
-0.05483176 0.12494383 0.031358212 0.16029988 -0.14355029 0.10601843 0.13136102 0.14873064
-0.018773464 -0.031300157 0.19015121 -0.12310607 0.09083539 -0.1886134 0.0072486997 0.048635185
0.05266142 -0.13044904 -0.11696787 0.08488697 0.14126459 -0.008643109 0.028096493 -0.193738
-0.15079218 -0.055605974 -0.0054263733 0.07354769 -0.14797705 -0.22960328 -0.18739496 -0.29099432
-0.18325385 -0.06176637 0.022790238 -0.0917225 0.015389383 0.13056195 0.058306754 -0.042467758
