gail/save_model/0/SUB080_ckpt_0.pth.tar (torch_old, 154734 bytes, 16 tensors)

fc1.weight f4 [100, 22]
000000 af 26 3b be df a5 a5 3e fa 2f 80 3e 8f e4 e9 3d
       -0.18276475 0.32353112 0.25036603 0.11420547
000010 40 fa 18 be e4 08 22 bd 6b c1 6d be 2e 94 a9 bb
       -0.14939213 -0.03955926 -0.23218314 -0.005175135
000020 97 16 1b 3d 4c 25 02 3e 00 3e 8e bc 38 86 2e 3e
       0.03786334 0.1270954 -0.017363548 0.17043388
000030 4e b4 d8 bd 18 4a e2 3c 98 25 4d be c0 6f 22 3d
       -0.105812654 0.027623221 -0.20033872 0.039657354
000040 70 25 72 3d 40 33 0f bc 78 f1 33 3d bc 58 cd 3d
       0.059117734 -0.008740246 0.043931454 0.1002669
000050 dc 39 e3 3d 22 12 29 3e ca d7 c7 3b 19 43 88 3e
       0.1109502 0.16510823 0.006098722 0.2661369
000060 4b 2f 47 be 8f 1e a5 3e d2 56 e0 3e 10 2b d0 bd
       -0.19451635 0.32249877 0.4381624 -0.101644635
000070 37 24 5f bc ce a4 2b 3e 46 c6 37 bd 60 a0 82 bc
       -0.013619474 0.16762087 -0.044866823 -0.015945613
000080 80 ca d9 3d 42 8d 40 3e 82 45 3f be 08 aa 56 3d
       0.10634327 0.18803886 -0.18678859 0.05240825
000090 c8 7c 25 3e 88 5d 42 3d e0 f2 74 3d 80 98 4a be
       0.16160882 0.04745248 0.059801936 -0.19784737
0000a0 60 d8 13 bd e8 59 d7 bd 4c 4c 0a 3e c4 95 50 be
       -0.036095023 -0.10515195 0.13505667 -0.20369631
0000b0 ab f8 8c 3e ed 0a 60 3e b0 3d 9c 3e 0f 8e ad be
       0.2753347 0.21879168 0.30515814 -0.33897445
0000c0 a4 86 c8 be 81 72 86 bd ca 76 89 be 15 ca 24 be
       -0.39165223 -0.06564809 -0.2684844 -0.16092713
0000d0 9d 8f 45 3d f4 e6 82 3d 80 e2 42 3d e2 fd 34 3e
       0.048232663 0.06391707 0.04757929 0.17674974
0000e0 2a ac 90 bd e0 61 00 bd 38 6a f1 3d f2 de 59 3e
       -0.07064088 -0.03134334 0.11787838 0.21276453
0000f0 b4 8a 90 3d 70 2e 3f 3d 2b d9 cd bd 00 e4 5a 3c
       0.070577055 0.046675146 -0.10051187 0.0133600235
000100 08 99 e8 bc 70 7d b6 3c 77 9c 1f 3e 17 6b 94 be
       -0.028393283 0.02227661 0.1558703 -0.28987953
000110 0a a2 cc 3d 73 7b 6b be 93 d4 14 bf a6 27 c5 be
       0.09991844 -0.22996311 -0.5813686 -0.38506812
000120 2a 4d 51 bd 04 ee 6e be 2e ad 65 be 01 da da bd
       -0.05109898 -0.23332983 -0.22429344 -0.10686112
000130 33 e9 1a be c8 ad 40 3d 1a c7 46 3e 45 c5 eb bd
       -0.15128021 0.04704073 0.19411889 -0.115122356
000140 80 8b c0 bd b8 50 24 3e 7c 20 8a 3d 96 1e 3c 3e
       -0.094016075 0.16046417 0.06744477 0.18371043
000150 30 81 b1 3c 5c 39 07 be 3e 95 28 3e c2 02 4d 3e
       0.021668047 -0.13205475 0.16463181 0.20020583
000160 a4 b3 30 be 07 80 40 bc 77 a8 ff bd 35 db 96 be
       -0.17256027 -0.011749274 -0.12483304 -0.29464117
000170 c8 2f cc be c2 3d 16 bd 29 12 73 bd bc 33 a1 be
       -0.39880204 -0.03667999 -0.05934349 -0.31484783
000180 5f 63 ca 3c 24 fa f9 bd 82 0d 0b 3e e0 6a ae 3b
       0.024705587 -0.12205914 0.13579372 0.005322799
000190 20 b2 ac 3d 88 8f b9 bc 68 54 bc 3d 76 59 28 3e
       0.08432412 -0.022651449 0.09195787 0.16440377
0001a0 ed cf 41 be 04 e5 04 3e 28 a2 42 3e 8c 7a fa 3d
       -0.18926974 0.12977988 0.1900717 0.12230405
0001b0 b0 53 d0 3d 24 65 3a bd af ce fd bd 90 58 9f be
       0.10172212 -0.04550661 -0.123929374 -0.31122255
0001c0 fe b4 09 be 8f 11 74 be e8 8a 88 be 95 02 50 3e
       -0.1344795 -0.23834823 -0.26668477 0.20313485
0001d0 7e a1 9f bd 67 1a 35 3e be 86 ca 3d 0c 99 f6 3d
       -0.07794474 0.17685853 0.09888981 0.1204091
0001e0 48 7b 25 bd ba 00 a4 bd a8 b9 24 bd a8 14 70 3d
       -0.040400773 -0.08007951 -0.040216118 0.05861345
0001f0 90 2a 17 3d 58 8b 54 3e 04 67 45 3e dc 31 03 3d
       0.036905825 0.2075628 0.19277579 0.03202997
000200 b8 50 0a bd 94 d6 07 bd 80 32 6e bd b8 1f ed 3d
       -0.033768386 -0.033163622 -0.05815363 0.115783155
000210 83 bf 7d be a1 d8 54 be 39 d0 f2 3c 05 44 9c 3e
       -0.24780087 -0.20785762 0.029640304 0.30520645
000220 10 9a ca 3e ee 42 7f 3e fb 89 a9 3e 85 5d 80 3e
       0.39570665 0.24927875 0.33113083 0.2507135
000230 ff 3a eb 3e 80 93 c0 3a 4c bd b6 3d 34 2d bd 3d
       0.45943448 0.0014692396 0.08922824 0.092371374
000240 50 d3 b0 3d c7 cf 02 be 12 a7 09 3e 00 fa 77 bd
       0.08634055 -0.12774573 0.13442639 -0.060541153
000250 2c 53 57 bd d0 54 a3 3c 2a 1e 17 3e 3e 4a 1c 3e
       -0.052569553 0.019937903 0.147576 0.15262696
000260 c8 9a 9c bd 40 3c 89 3b 73 67 45 be 98 7b 71 be
       -0.0764671 0.0041880906 -0.19277744 -0.23582304
000270 d4 8d 04 3d c9 54 89 3e c9 6e e1 3e 30 3b c0 3d
       0.03236182 0.26822498 0.44029835 0.09386289
000280 5a 4a b2 3e 0b a0 a5 3e c8 22 1e 3e 20 45 30 3c
       0.3482235 0.32348666 0.15442955 0.010758668
000290 64 69 d2 3d d4 ac 13 bd cb 67 e9 bd a4 c0 a7 3d
       0.10274008 -0.036053494 -0.1139675 0.0819104
0002a0 b0 56 dc 3d 96 a3 0f 3e 90 b3 24 3d cb 31 e2 bd
       0.10758722 0.14027247 0.040210307 -0.110446535
0002b0 58 ee 69 bd b0 e6 09 3e 9c 95 ae 3d b4 a8 54 bd
       -0.057112068 0.13466907 0.085246295 -0.0519187
0002c0 c7 30 26 3e 96 52 7a be ac 59 6f be d9 f8 37 3d
       0.16229545 -0.24445567 -0.23374051 0.044915054
0002d0 9c eb 2e 3e 8c ae bb 3e 67 ab 23 3c 39 3d bc 3e
       0.17082065 0.36656606 0.009989596 0.3676546
0002e0 ee f8 b4 3e 58 90 03 3e ec 6e 44 3e c0 8f 01 3b
       0.35346168 0.12848032 0.19182938 0.001976952
0002f0 27 be 2c be d8 c9 97 3c b9 b8 58 be 08 d4 06 3d
       -0.16869412 0.018528864 -0.21164216 0.032917053
000300 de c1 0f be 04 5e f6 3d c4 6a e2 3d 14 c8 41 bd
       -0.14038798 0.12029651 0.1105552 -0.04730995
000310 d0 33 e9 bd 97 83 fc bd 67 f0 59 3e a4 ca a4 3e
       -0.113868356 -0.12329786 0.21283112 0.32185853
000320 0e 42 31 3e 22 c8 42 bd 87 74 17 bf a9 80 7c be
       0.17310354 -0.047554143 -0.5916218 -0.24658455
000330 5a 84 c4 be 5b ea aa be 59 74 f5 be 38 ec 2d be
       -0.38382226 -0.33381924 -0.4794033 -0.16984642
000340 1c 9c 4d 3e 38 69 b5 bd 34 08 41 3e 73 e1 31 be
       0.20079082 -0.088579595 0.18850785 -0.17371158
000350 30 c1 1c 3d 4c 28 49 3e ce d6 56 be 86 ef 38 be
       0.038270175 0.19644278 -0.20980379 -0.18060121
000360 41 5d 1c be 88 1b fb bc f0 30 53 3d f6 35 48 be
       -0.15269949 -0.030652776 0.051560342 -0.19551834
000370 66 c4 89 be 5d fd 55 3d 3d 04 aa bd 62 94 ae 3e
       -0.26907653 0.05224358 -0.0830159 0.34097582
000380 4a 52 e3 3e 54 f6 22 3e 3e 75 5a 3d 45 e5 02 3e
       0.4439872 0.15914279 0.053334467 0.12782772
000390 7f 94 19 3e 98 6b 91 bd 6d 15 38 be 94 7b 21 3e
       0.14998053 -0.071006 -0.17976923 0.15769798
0003a0 68 40 af 3c 6c a1 f8 3d cc 89 0b 3e 4c a5 47 3e
       0.021393016 0.12140164 0.13626784 0.1949665
0003b0 05 1b 31 be ff 48 c4 bd a8 a7 6c 3d a8 43 29 bd
       -0.17295463 -0.095842354 0.057777077 -0.041324288
0003c0 88 68 ef 3d 20 2c 83 bc 5d 6e 02 bd 03 a2 3f 3d
       0.1168986 -0.016012251 -0.031843532 0.046785366
0003d0 b8 56 50 3e 1c 77 d4 3d b9 7c c1 3e 57 06 17 3f
       0.2034558 0.10374281 0.37790468 0.5899405
0003e0 d1 ee a8 3e 42 94 c3 3e 11 e8 cd 3e f4 75 8c 3d
       0.32994702 0.3819905 0.40216115 0.06858435
0003f0 52 f6 4b be 92 1a 0f 3e 50 b4 40 3d 14 b5 07 3d
       -0.19918182 0.1397498 0.04704696 0.033131674

fc1.bias f4 [100]
000000 89 0d 0f 3e 72 31 a6 bc e5 31 5d 3e a9 68 b8 3d
       0.13970007 -0.02028725 0.21601065 0.09004337
000010 66 d0 23 3e e2 3a 67 be 4d ba ef be 95 67 cd bd
       0.15997466 -0.22581056 -0.46821824 -0.10029522
000020 bf 60 95 be ba da cd 3e 9c 09 a4 bd 4a 72 15 bf
       -0.29175374 0.40205938 -0.08009645 -0.58377516
000030 3e 26 f0 3b 3c 9d 89 be 14 71 21 3e 65 37 21 be
       0.0073287776 -0.26877773 0.15765792 -0.15743788
000040 c1 f3 17 3e ff f9 20 be 52 50 d4 3e cc 76 9e bd
       0.14839078 -0.15720366 0.4146753 -0.077375025
000050 4b 6e 87 bc 38 ba a1 be 27 18 70 bd 5f f2 01 3e
       -0.016532084 -0.31587386 -0.058616783 0.12690113
000060 63 56 0f bd 94 4b a7 be 61 ed e5 3d 59 22 e7 3d
       -0.034994494 -0.3267485 0.11226917 0.11285848
000070 f6 d8 a7 3e 31 83 4e 3e c6 f8 61 3e 79 f4 d3 bd
       0.32782716 0.20167233 0.22067556 -0.10349364
000080 5a 39 1b 3d 24 a1 e2 bd cf 4d 18 3e 6a 78 f9 be
       0.03789649 -0.110658914 0.14873432 -0.4872468
000090 30 b6 1e 3e 13 04 b7 bd b2 70 dd be f0 cf 32 3e
       0.15499187 -0.08936324 -0.43250042 0.17462134
0000a0 a4 3f 0c bd f8 94 35 bd c8 d0 5c 3d 7b 18 86 bd
       -0.03424038 -0.04433152 0.053910047 -0.06547638
0000b0 35 c1 e6 3d f7 44 35 3d 5d f4 36 be 53 20 1e be
       0.1126732 0.044255223 -0.17866655 -0.15442018
0000c0 f6 67 24 3e 1f 9f 46 bd 7f e0 bb 3d 6e 3d f0 3d
       0.16055283 -0.048491593 0.091736786 0.11730467
0000d0 28 ec d4 bd d1 64 9d be 1e 6c e3 bd b2 92 27 be
       -0.10396606 -0.3074098 -0.11104606 -0.16364554
0000e0 e6 0d 51 3d 6d 31 10 bf 72 db 28 3c 3a 3c a8 bd
       0.051038645 -0.5632542 0.010306226 -0.08214612
0000f0 c2 c5 fd 3d f9 e1 96 3e 2b d9 8a be 26 62 64 be
       0.12391235 0.29469278 -0.2711881 -0.22303066
000100 dc a8 af be ae f0 e7 3d 09 c4 64 3e c5 ee f2 bd
       -0.34308517 0.11325203 0.22340406 -0.11861948
000110 67 5d 6c 3d b1 9a 91 3e 81 f5 7f 3d bc bf 0d 3e
       0.057706263 0.28438333 0.06248999 0.13842672
000120 22 83 e5 bc eb 31 20 3e 57 d4 58 3d 46 bf 10 be
       -0.02801663 0.15644042 0.052936878 -0.14135465
000130 6f 48 67 3e b3 e8 70 3e cb 1b da 3d bb a1 9b be
       0.22586225 0.23526268 0.10649832 -0.30396828
000140 ba 2f 1e be 15 c9 2a 3d 1b 34 22 be da 82 86 3e
       -0.15447894 0.041695673 -0.15840189 0.26271707
000150 d1 44 5b 3e 11 b1 97 3e d1 8b c7 3c cd f0 ef 3d
       0.2141297 0.29627278 0.024358662 0.11715851
000160 ea 46 ba bd 83 87 9a bd 2e 78 a5 3d 9d 22 83 bd
       -0.09095557 -0.07545378 0.08079563 -0.06403086
000170 81 87 59 3d 2c 3c 12 be 9e 1c c3 3d 2d eb b3 b9
       0.053107742 -0.14280766 0.09526943 -0.0003431676
000180 7b 64 e0 bd 91 02 7e 3e 3e 5d 0c 3e 02 24 58 bd
       -0.10956665 0.24805667 0.13707444 -0.052768715

fc2.weight f4 [100, 100]
000000 6d d4 15 bf 8d db 07 bf ac 17 61 be 00 65 97 bd
       -0.5852726 -0.5306938 -0.21981686 -0.07392311
000010 bf 39 c7 3d 52 e3 12 3f 7f d6 f0 3e 55 3d 95 3e
       0.09727811 0.57378113 0.47038648 0.29148355
000020 43 ac 02 3f f5 32 09 bf 8b 18 e9 3d de cf 24 3f
       0.510441 -0.5359338 0.11381634 0.6437968
000030 86 12 a6 bd 55 6f 39 3f 04 71 83 be ad df 00 3e
       -0.08109002 0.72435504 -0.25672162 0.12585326
000040 04 a4 2e bb 90 0f 84 bd 3e 2d 16 bf 3b 4e d0 3e
       -0.0026648054 -0.06448281 -0.58662784 0.40684685
000050 1e aa 8f 3c 1a ee fc 3e 58 8d 0a 3f 0f 6a 29 3f
       0.017537173 0.49400407 0.54121923 0.6617746
000060 31 83 6d be a3 b9 7a 3e 21 19 89 be f0 4f 29 3e
       -0.23194577 0.24484877 -0.26776984 0.165344
000070 3e f9 12 bf bd 58 cc be d7 f5 ab 3d 05 72 a5 be
       -0.57411563 -0.39911452 0.083964996 -0.32313552
000080 37 5f 69 bd 0d 12 5d 3c 4a d7 ca be 80 12 de 3e
       -0.05697557 0.013493073 -0.39617378 0.4337349
000090 3a 4a e7 bd 2a 76 91 3d d8 2c b6 3e d6 ed f2 be
       -0.112934545 0.07102616 0.35581088 -0.4744708
0000a0 b7 e7 da 3e 69 6f f4 3e eb a8 98 3d 0c 25 a8 3e
       0.4275491 0.4774125 0.074540935 0.32840765
0000b0 0e 36 cd be ae 5a 72 3e c3 0f da 3e 36 ee 11 3f
       -0.40080303 0.23667404 0.4259015 0.57004106
0000c0 75 2b b7 be f0 79 9c 3e 0c 0f 18 bf c1 14 01 bf
       -0.35775343 0.3056178 -0.5939796 -0.5042229
0000d0 52 99 0d 3f b1 64 30 3f 3b 04 da be ef 96 f9 be
       0.55312073 0.6890364 -0.42581353 -0.48747966
0000e0 6d 78 99 3e 47 28 eb 3e d9 3c 7e 3e 32 fe 05 3f
       0.2997469 0.45929167 0.24827899 0.52340996
0000f0 0b 59 af 3e 0d aa 85 3e 72 5e 21 3f dd 43 24 be
       0.34247622 0.261063 0.6303474 -0.16041513
000100 8b 96 ff 3e 2b 47 95 3e 49 f9 50 be 22 a2 ff 3e
       0.49919543 0.2915586 -0.20407595 0.49928385
000110 62 32 83 be 4d aa ed be ee 28 3a bd ce 01 ac 3e
       -0.25624377 -0.46418992 -0.04544919 0.33595127
000120 3f 4f 9e 3e c1 b3 10 bf 2e 70 09 3f 22 99 a7 bd
       0.30919835 -0.5652428 0.536868 -0.08183505
000130 a5 2b fc be 1a e8 a8 be 68 99 3d bd 72 fa 18 3f
       -0.49252048 -0.3298958 -0.046288878 0.5975715
000140 af 67 53 3f f7 2c ab 3e 56 b9 23 bd 89 88 fc be
       0.82580084 0.33432743 -0.039971672 -0.49322918
000150 c2 6d 41 3c ef ca be be 6d d6 20 3f 2e 00 98 bd
       0.011805953 -0.372642 0.6282719 -0.07421909
000160 b1 90 74 bd 56 49 5d be 5a 36 9b 3e e3 ce b9 3e
       -0.0597083 -0.21610007 0.30314904 0.36290655
000170 38 ff a1 bd 2a 70 45 be 82 ea 31 3f c6 9a 3a 3e
       -0.07910007 -0.19281068 0.69498456 0.18223104
000180 49 62 fc 3e f0 72 fb be f8 2f 2b bf 13 f8 cc be
       0.49293736 -0.49111128 -0.6687007 -0.40033016
000190 a8 40 11 3e 65 b0 78 be a7 c9 ee 3e 04 cd 83 3e
       0.1418482 -0.24286039 0.46638224 0.25742352
0001a0 5d 72 3a 3d b0 5f 3f be 50 21 9d be 53 b9 c2 be
       0.04551922 -0.18688846 -0.30689478 -0.38032016
0001b0 b4 be dc bd 6a 67 cc 3e 40 d1 09 bf 35 4b 1e be
       -0.10778561 0.3992265 -0.53834915 -0.15458377
0001c0 63 43 a7 be a0 57 c6 bc dd 7d a7 3e 2d 91 ef bd
       -0.326686 -0.024211705 0.32713214 -0.11697612
0001d0 25 99 91 3e 2f 46 8c be d2 17 99 3e 2e fe 29 bd
       0.28437153 -0.27397296 0.29900986 -0.04150217
0001e0 68 2e 7e be fa 7b a3 be 17 57 54 be dd de 7c 3d
       -0.2482239 -0.31930524 -0.20736347 0.061735976
0001f0 4b 7f 25 be 30 58 ea be 19 d0 06 3e b3 ac 39 3e
       -0.1616184 -0.45770407 0.1316532 0.18132286
000200 07 f8 97 3e 9e fa e2 3e 21 11 b2 3e bb 85 8a 3d
       0.29681417 0.4433183 0.34778693 0.06763788
000210 b7 f5 b8 3e 40 16 ce be 62 57 bd 3e 22 10 bf be
       0.36124966 -0.4025135 0.3698073 -0.37316996
000220 a2 f6 c2 3e f7 f3 a1 be 83 25 c5 be 9a 17 7b 3e
       0.3807879 -0.31631443 -0.38505182 0.24520722
000230 f1 44 38 be 8f cc c2 bd 72 c8 ee 3e 83 58 e8 3b
       -0.17995049 -0.09511673 0.46637303 0.0070906295
000240 ad a2 57 3e 32 d3 77 be ca 09 85 3e 67 d8 87 be
       0.2105815 -0.24201658 0.2598403 -0.2653229
000250 be 2c 8a 3d 96 28 bf be b6 6b 9e bc c0 4c c6 bd
       0.06746815 -0.37335652 -0.01933847 -0.09682608
000260 fe 94 eb bc 3f 95 ee bd b2 60 eb bc 4e 8e 3d be
       -0.028757568 -0.1164956 -0.028732631 -0.18511316
000270 a6 a5 d8 bd c6 ba a3 be 78 c8 2d be 2a 57 25 3e
       -0.1057847 -0.31978434 -0.16971004 0.16146532
000280 4a 73 88 3e 4d 9a ef 3d 8b 1c 41 be e7 42 c0 be
       0.2665046 0.116993524 -0.18858545 -0.37551042
000290 42 60 b3 be 34 4d c7 3e a3 5c ad 3e 80 0a 87 be
       -0.35034376 0.3892609 0.3385974 -0.26375198
0002a0 0f 8f 58 be ba 7a e9 3e 4f fa 97 3c ae 14 9c bd
       -0.21148323 0.45601445 0.018551974 -0.07621132
0002b0 0d d7 0a be e9 44 85 3d 1d 56 83 3e ad 17 7f bd
       -0.13558598 0.06507284 0.25651637 -0.06227844
0002c0 3b 26 58 3e 0c 8a 99 3e 29 08 51 be 93 88 ce be
       0.21108334 0.29988134 -0.20413269 -0.40338573
0002d0 fa f2 29 be d2 e3 2e bd cc b5 c7 bd 74 f8 89 3e
       -0.16596594 -0.042697735 -0.09751472 0.26947367
0002e0 ff 98 ef bd 22 15 f2 3d 1a 91 95 be 99 13 33 be
       -0.116991036 0.11820437 -0.29212266 -0.17487945
0002f0 c1 fa df be 37 64 bc bc 52 2c b0 be 82 e9 a1 be
       -0.43745998 -0.022997005 -0.34408814 -0.31623465
000300 f3 93 e6 3e c4 3c 52 3e 56 0f 6b 3e 60 1e c2 be
       0.4503475 0.20530993 0.22955069 -0.379138
000310 02 35 9a 3e 00 82 6f 3e 62 62 97 bd f6 41 0c be
       0.30118567 0.23389435 -0.07391812 -0.13697037
000320 f8 07 a3 3e 09 a6 a7 3e e2 f3 16 3e ba 20 bb 3d
       0.31842017 0.32743862 0.14741471 0.091371015
000330 3c 5b 93 bd 5b 17 15 bf 58 0b 0d bf 41 d4 2e bd
       -0.07195136 -0.5823876 -0.55095434 -0.04268289
000340 5c d5 b3 be 48 70 ce 3e 8f fc e7 3c d7 06 b2 be
       -0.35123718 0.4032004 0.028318672 -0.34770843
000350 fb f2 30 bd 88 81 d2 be 1c b0 9f 3e 14 4b 6d 3e
       -0.043200474 -0.4111445 0.31189048 0.23173171
000360 26 7b 9e bd a3 90 6e bd ab 3d c1 3e a1 1f 83 be
       -0.077383325 -0.058243405 0.3774236 -0.25610068
000370 cf e2 44 3d 0f 68 eb be 40 92 9b be 06 16 c0 be
       0.048067864 -0.45977828 -0.30385017 -0.37516803
000380 6f a2 26 3e cf 5d 0d bc da 8d 4a 3e 95 fa d7 3d
       0.16272901 -0.008628323 0.19780675 0.105458416
000390 09 08 08 3f de d1 b2 3e f2 df 31 bd 5b 30 93 3e
       0.5313726 0.3492574 -0.04342646 0.2874783
0003a0 5b 85 4e 3d af 8c 0a be 25 6e 3c 3e a9 dc f1 be
       0.050420146 -0.13530229 0.18401392 -0.47238663
0003b0 b2 0f 8e 3e 5b 43 0a 3d 41 89 34 be cb 48 c6 3e
       0.2774635 0.03375564 -0.17630483 0.38727412
0003c0 ae 4e 95 be 3c 83 ac be 8b ab 2f 3b 22 6c 6e 3e
       -0.2916159 -0.33693874 0.0026805128 0.23283437
0003d0 ee 83 ba 3e e7 90 81 bd a7 73 8b be b3 d5 b5 be
       0.3642878 -0.06326466 -0.27236673 -0.35514602
0003e0 07 d1 9c 3e 5c 18 a2 be a3 69 ff 3e 57 eb 3c 3e
       0.30628225 -0.3165921 0.49885282 0.1844915
0003f0 df 56 bc be 78 9b b7 be ed 56 5f bd 30 b3 d5 3e
       -0.36785027 -0.358608 -0.05452626 0.41738272

fc2.bias f4 [100]
000000 60 10 2f bf 92 64 d3 3d 1c a7 f8 3e 3e de 4b bd
       -0.6838436 0.10321917 0.48564994 -0.049772494
000010 7d 69 3c 3f cd ac 19 3f 93 5b 3d 3c ad de 41 3f
       0.7359846 0.600293 0.0115574775 0.757304
000020 dd 7d 2a bf ee c0 f0 be 77 9d 42 3f da ac 14 3f
       -0.665983 -0.47022194 0.7602152 0.5807625
000030 32 95 bb be 3d 13 6f 3d fb 3e 46 3f 8b ae 43 3f
       -0.36637264 0.058367956 0.7743985 0.76438206
000040 fe 98 34 3f f1 76 31 bf 05 c6 3f bf de cc 27 bf
       0.7054595 -0.69322115 -0.7491153 -0.6554698
000050 d8 91 39 bf 70 ac 31 bf f8 eb a9 be 3e 68 2d 3f
       -0.72488165 -0.69403744 -0.33187842 0.67737186
000060 e9 29 1c 3f c2 00 27 3f 85 44 3b bf 8d f6 2f bf
       0.6100145 0.6523553 -0.7315143 -0.6873558
000070 bd 9f 4a 3f ab d8 37 3f 4a 5f 32 3f 22 eb 46 3f
       0.7914999 0.71814984 0.6967665 0.77702534
000080 fc 57 e0 3c 33 78 20 3f 36 07 2a bf 25 7e 53 3d
       0.027385704 0.6268341 -0.66417253 0.051633973
000090 f0 5b 26 3f 06 cd 2f 3f f1 7d 29 3f 7a c0 44 3f
       0.64984035 0.68672216 0.66207796 0.76856196
0000a0 1b 0e 18 bf 07 b1 44 bf 3c f1 01 3e 6b 6d 29 3f
       -0.59396523 -0.7683262 0.1268968 0.66182584
0000b0 06 78 07 3f 1f c2 31 3f 02 a8 c1 3d da 3d d5 be
       0.52917516 0.6943683 0.09455873 -0.41648751
0000c0 d0 22 15 bf 8d 97 39 bf a1 c1 85 bd 6f 63 42 bf
       -0.58256245 -0.72496873 -0.065310724 -0.75932974
0000d0 20 b9 2b bf 75 b4 28 bf 55 a2 47 3e 94 b1 2f bf
       -0.67079353 -0.65900356 0.19495519 -0.6863034
0000e0 d7 6c 44 bf 69 3f 07 3f 10 fe fa bd 1c c4 09 3d
       -0.76728576 0.5283113 -0.1225549 0.03363429
0000f0 ee cb 23 3f a5 31 4a 3f 50 14 36 3f 6f a7 34 3d
       0.63983047 0.78982 0.71124744 0.04410499
000100 8c 3a c6 bd c7 fa 1c bf e3 9d f3 bd d2 fa 46 3f
       -0.09679136 -0.61320156 -0.11895349 0.7772647
000110 69 98 cd bd 78 cf 35 3f dc 24 0e 3f 0b 61 86 3c
       -0.100388356 0.710197 0.5552499 0.016403696
000120 cc bb 39 3f 2b d5 3b 3f 7c 25 8e be 30 c0 bb 3d
       0.7255218 0.73372144 -0.27762973 0.09167516
000130 96 51 bd be ef f6 38 bf c3 b2 1a 3f 07 fa 3e 3f
       -0.36976308 -0.7225179 0.6042902 0.7460026
000140 d3 b6 2d 3f 4f 9b 28 bf ea 6b 38 bc 50 55 4c 3f
       0.6785709 -0.6586198 -0.0112561975 0.79817677
000150 e2 f1 c1 3c 9d 8c 3b 3e 58 d8 20 bf 03 b3 46 3e
       0.023674909 0.18315358 -0.62830114 0.19404225
000160 50 6e c1 be 01 f5 db 3d aa 40 34 bf 6e 78 ea bd
       -0.37779474 0.1074009 -0.7041117 -0.114487514
000170 7b 7c 36 3f 7f 76 2e 3f ea fc f7 bb 57 a0 42 bf
       0.7128369 0.6814956 -0.0075679915 -0.7602591
000180 44 31 2b 3f 17 7c 45 bf a2 4b 39 bf b5 f6 28 bf
       0.6687205 -0.7714247 -0.7238103 -0.66001445

fc3.weight f4 [2, 100]
000000 c1 3c c1 3f 8a d8 4c 40 b2 7d fd bf b5 c1 3d 3f
       1.5096666 3.2007165 -1.9803984 0.741237
000010 eb 1d c3 bf 7a dc be bf 90 f7 7d bf 33 ab be bf
       -1.5243505 -1.4911034 -0.99205875 -1.4895996
000020 e4 dd bc 3f c6 26 63 c0 ec b5 bd bf 7f 31 c1 bf
       1.4755216 -3.5492415 -1.4821143 -1.509323
000030 b8 7f 20 c0 dc 48 72 3f 5d d4 bd bf 7d 53 bf bf
       -2.5077953 0.94642425 -1.4830433 -1.4947354
000040 23 1a c2 bf c2 e8 cf 3f ef 52 bd 3f d4 77 c9 3f
       -1.5164226 1.6242907 1.4790934 1.5739694
000050 92 0a b5 3f af db c0 3f 7c 5e 64 c0 03 19 bd bf
       1.4143851 1.5067042 -3.5682669 -1.4773258
000060 58 62 b7 bf b5 ce bf bf ce b8 ba 3f e8 47 c1 3f
       -1.4326887 -1.4984957 1.4587648 1.5100069
000070 f4 2e bd bf 1c f4 bd bf 90 f3 b6 bf 4b ac c2 bf
       -1.4779954 -1.4840121 -1.4293079 -1.520883
000080 b6 15 89 3f b2 36 b7 bf eb 6b bb 3f 3a 29 84 3f
       1.0709751 -1.4313567 1.4642309 1.0325081
000090 ca 8e bd bf 53 8a bf bf 8b ce bd bf d6 b3 c0 bf
       -1.4809201 -1.4964088 -1.4828657 -1.5054882
0000a0 58 c0 c7 3f ea df bb 3f c5 72 04 40 e8 fa bc bf
       1.5605574 1.4677708 2.069505 -1.476407
0000b0 ad 42 c9 bf f1 7c bf bf 6d ee f8 3f 68 d6 10 40
       -1.5723473 -1.4960004 1.9447762 2.2630863
0000c0 78 e5 be 3f 96 ff c0 3f ac 30 f3 bf 2d 4c c0 3f
       1.4913778 1.5077999 -1.8999228 1.5023247
0000d0 ce 42 c6 3f 4b 04 b0 3f 6e b9 fc bf 34 9b c6 3f
       1.5489137 1.375131 -1.9744089 1.5516114
0000e0 c7 2c ac 3f 17 aa bc bf 62 c1 d4 3f 8c 5a 77 3f
       1.3451165 -1.4739407 1.6621516 0.9662254
0000f0 86 e4 bd bf 56 45 bc bf ac 2b c1 bf 47 78 60 3f
       -1.4835365 -1.470866 -1.5091453 0.8768353
000100 c9 75 eb 3f b7 6b b6 3f cd 1d fa bf 3a 75 aa bf
       1.839532 1.4251622 -1.9540344 -1.3317025
000110 f9 6e 27 40 b8 b9 b9 bf fa 33 1b c0 c4 40 98 3f
       2.6161482 -1.4509802 -2.4250474 1.1894765
000120 57 dc be bf 4d e4 c5 bf 0c b7 f2 bf a5 f1 73 bf
       -1.4910992 -1.5460297 -1.8962111 -0.95290595
000130 e1 1a fc 3f a3 6c bf 3f 75 e6 c4 bf fa 93 c3 bf
       1.9695703 1.4955028 -1.538283 -1.5279534
000140 5c 5e b6 bf 17 a1 bc 3f 8b 68 63 bf 70 11 b4 bf
       -1.4247546 1.4736661 -0.88831395 -1.4067822
000150 fd 35 7c bf 6a d0 0d bf 43 12 bf 3f e2 f2 a9 be
       -0.9851988 -0.5539614 1.4927448 -0.33193117
000160 a2 dd 1a 3f de cf 5b bf 6f 7b bb 3f 7d 79 14 c0
       0.60494435 -0.85864055 1.4647044 -2.319915
000170 85 5b c5 bf 6e 31 bb bf eb 18 81 bf 65 88 b8 3f
       -1.5418555 -1.462446 -1.0085729 1.4416624
000180 0b c8 be bf 92 85 bf 3f 29 a5 c3 3f d4 a8 b9 3f
       -1.4904798 1.4962637 1.5284778 1.4504647
000190 a8 dc 9e 3f 7f cd 7d 40 b3 af ce bf 89 5b 62 40
       1.2411089 3.9656675 -1.6147369 3.5368369
0001a0 c2 11 93 bf b4 26 a5 bf ad b4 4d c0 3d 4d a8 bf
       -1.1489794 -1.2902436 -3.2141526 -1.3148571
0001b0 4b 8f a9 3f eb 11 7f c0 cc 69 a8 bf 80 f5 a3 bf
       1.3246855 -3.9854686 -1.3157287 -1.2809296
0001c0 75 f3 48 c0 23 f6 59 40 b8 59 9d bf be 99 a0 bf
       -3.1398594 3.405648 -1.2293005 -1.2546918
0001d0 a0 46 a1 bf 8d b4 b2 3f e3 14 a2 3f 08 0b a4 3f
       -1.2599678 1.396135 1.2662624 1.2815866
0001e0 b3 48 a9 3f 98 72 9d 3f 1d ec 36 c0 a3 0c b7 bf
       1.3225311 1.2300596 -2.8581612 -1.4300731
0001f0 4a ee a7 bf e6 c1 9c bf ca 53 a9 3f 3d c9 9e 3f
       -1.3119595 -1.2246673 1.3228695 1.2405163
000200 f2 a3 a5 bf 2a 5a 9c bf 24 91 9e bf 3c b0 9f bf
       -1.2940657 -1.2215016 -1.2388043 -1.2475657
000210 74 75 52 40 dc 63 a7 bf a5 31 95 3f 29 db 4c 40
       3.2884188 -1.307735 1.1655775 3.2008765
000220 32 56 a2 bf 56 91 a2 bf 5a c9 a9 bf 5a fb a2 bf
       -1.2682555 -1.2700603 -1.3264573 -1.2732956
000230 ca 1c a2 3f ca 77 a4 3f 43 04 3d 40 fd 34 99 bf
       1.2665036 1.2849057 2.953385 -1.1969296
000240 51 e7 6f bf fd 0e a2 bf 1a 48 41 40 e1 dd ef 3f
       -0.93712336 -1.2660824 3.0200257 1.8739587
000250 09 bb a4 3f 4c ba a1 3f 50 25 38 c0 75 73 a4 3f
       1.2869579 1.2634978 -2.8772774 1.2847735
000260 8f e6 92 3f d4 bf 99 3f ad dc ca bf b5 71 a5 3f
       1.1476611 1.2011666 -1.5848595 1.2925326
000270 4f cd 9e 3f 9a 32 95 bf b3 06 8e 3f 4e e9 42 40
       1.2406405 -1.1656067 1.1095794 3.0454898
000280 0c 0b 98 bf 33 7a a4 bf f6 3c a1 bf d3 bd 2e 40
       -1.1878371 -1.2849792 -1.2596729 2.730336
000290 0a 81 a6 3f ae 99 9d 3f 51 bd 39 c0 b0 88 a0 bf
       1.300813 1.2312524 -2.90218 -1.2541714
0002a0 52 54 ed 3f 15 bb 93 bf 70 1e 01 c0 6f 90 4f 40
       1.8541358 -1.1541468 -2.0174828 3.2431905
0002b0 bc c6 a1 bf 07 b2 9c bf d9 0f 38 c0 e7 66 41 c0
       -1.2638774 -1.224183 -2.8759673 -3.0219057
0002c0 eb 25 cd 3f dd 51 9b 3f 02 fd 9c bf a4 18 a1 bf
       1.6027197 1.2134358 -1.2264712 -1.2585645
0002d0 0a 68 a7 bf d0 df 97 3f 23 e6 53 c0 24 cc a5 bf
       -1.3078625 1.1865177 -3.3109214 -1.2952924
0002e0 8d f2 41 c0 87 4a c9 bf fc 89 99 3f 0f be d7 bf
       -3.0304291 -1.5725869 1.1995234 -1.6854876
0002f0 60 13 e4 3f ad b9 5a c0 c4 1e 95 3f 34 33 44 c0
       1.7818413 -3.4175828 1.1650014 -3.0656252
000300 77 52 9c bf 24 bd b3 bf d9 5f 52 c0 f8 b8 9a 3f
       -1.2212666 -1.4042096 -3.2871 1.2087698
000310 92 36 a5 bf 0d 6e a3 3f 74 38 97 3f 86 47 96 3f
       -1.2907279 1.276796 1.1814103 1.1740577

fc3.bias f4 [2]
000000 a2 4b ac bf 27 64 97 bf
       -1.3460581 -1.1827439

fc1.weight f4 [100, 22]
000000 34 bd ec 38 07 49 29 ba aa db ba 38 77 0e c3 b9
       0.00011288599 -0.00064577203 8.910087e-05 -0.00037204075
000010 63 8c b1 39 d7 af 9d b8 cb f5 d3 b8 8c 69 6c b8
       0.00033864667 -7.519096e-05 -0.000101070465 -5.6365083e-05
000020 7b cc 8d b8 bb 9c 00 80 09 6d 02 00 1f 1b 08 00
       -6.7614914e-05 -5.6224e-41 2.22785e-40 7.44413e-40
000030 f1 47 04 00 5f 36 0c 80 34 0d 09 00 7a ba 12 80
       3.9315e-40 -1.12153e-39 8.31256e-40 -1.719934e-39
000040 2b 2d 08 00 0c 35 05 80 5d b2 09 80 ec d6 16 80
       7.50887e-40 -4.78207e-40 -8.90504e-40 -2.09748e-39
000050 8d 1b 0a 80 20 08 b6 00 8a 79 21 ac d0 a8 ba 2c
       -9.28238e-40 1.6716975e-38 -2.2946944e-12 5.30518e-12
000060 6e 76 89 ac 6c c9 24 2b 5e 82 24 ad e5 55 81 2c
       -3.9069225e-12 5.8544033e-13 -9.351268e-12 3.6759367e-12
000070 1d 18 8f 2c 85 3d 67 2c 4e bc 78 2c 58 8e 01 00
       4.0669816e-12 3.2861225e-12 3.534745e-12 1.42899e-40
000080 2e 89 0e 80 9e 8a 11 00 f2 42 12 00 e2 43 02 00
       -1.334908e-39 1.61093e-39 1.677054e-39 2.08023e-40
000090 75 72 0a 80 86 a3 0d 00 54 ed 0b 80 14 42 10 80
       -9.59414e-40 1.252523e-39 -1.095328e-39 -1.493072e-39
0000a0 11 48 0b 80 dc 98 10 80 a4 30 13 80 0f 55 0c 80
       -1.036043e-39 -1.524204e-39 -1.762323e-39 -1.132539e-39
0000b0 3a 7e 5d 23 8f 2f 8b a4 a5 34 6a 22 7f 35 12 a4
       1.20071635e-17 -6.036221e-17 3.1740783e-18 -3.1704016e-17
0000c0 15 87 fc 23 8b af e0 a2 b4 95 15 a3 80 61 a6 a2
       2.7379104e-17 -6.0901185e-18 -8.109007e-18 -4.5097622e-18
0000d0 65 d1 c9 a2 8e 48 13 00 ac 53 00 80 b0 8b 11 00
       -5.4702864e-18 1.770902e-39 -3.0016e-41 1.611314e-39
0000e0 da 70 0a 80 81 a0 07 80 a0 24 01 80 89 b5 06 80
       -9.58838e-40 -7.00426e-40 -1.04974e-40 -6.16136e-40
0000f0 ee 23 01 80 98 45 0e 00 7e b8 00 80 bd 0d 0c 00
       -1.04725e-40 1.310662e-39 -6.6183e-41 1.106954e-39
000100 2c 11 14 00 2b 38 08 00 33 e0 42 b3 60 e0 b8 34
       1.84287e-39 7.54833e-40 -4.5373053e-08 3.4435925e-07
000110 c9 35 e5 b4 96 91 1c 34 5a d6 32 b4 62 05 e8 32
       -4.2693708e-07 1.4581596e-07 -1.6655522e-07 2.7010802e-08
000120 81 bf 6e b2 b2 e7 3b 33 49 00 1a 33 41 86 05 80
       -1.3896966e-08 4.3750056e-08 3.585618e-08 -5.07339e-40
000130 f2 c1 09 00 3d 41 0e 00 c9 1a 15 80 c8 55 05 00
       8.96094e-40 1.3091e-39 -1.938154e-39 4.8995e-40
000140 79 4d 0c 80 89 ec 07 00 1f d1 0e 00 9b b5 04 00
       -1.129818e-39 7.27701e-40 1.360715e-39 4.3249e-40
000150 3c 34 15 00 4e 87 08 00 54 88 02 80 97 73 07 80
       1.947284e-39 7.83222e-40 -2.32576e-40 -6.84314e-40
000160 36 68 7e 25 82 2d 2e 26 05 63 a0 27 17 40 ea 26
       2.2066296e-16 6.043005e-16 4.451628e-15 1.6254383e-15
000170 84 ea 7f 25 8e d0 bf a6 e5 dc 8b a6 67 46 e1 a6
       2.2197181e-16 -1.3309816e-15 -9.704936e-16 -1.5631594e-15
000180 3a 37 cb a6 63 3b 05 80 f8 7f 0f 00 2d 3a 05 80
       -1.4100924e-15 -4.80481e-40 1.423439e-39 -4.80047e-40
000190 d0 5e 17 00 32 11 01 00 d6 cc 03 00 8b 25 18 80
       2.146229e-39 9.8004e-41 3.48988e-40 -2.21752e-39
0001a0 65 37 16 00 f7 54 05 80 6b 3d 09 80 53 39 16 00
       2.040253e-39 -4.89657e-40 -8.48552e-40 2.040945e-39
0001b0 05 03 0f 00 b2 3c 10 80 a6 69 3c a3 fa 31 cd a3
       1.378616e-39 -1.491141e-39 -1.0213872e-17 -2.224731e-17
0001c0 03 e8 c8 23 ec 44 31 24 6e d6 e3 a2 5f a4 df a2
       2.1782304e-17 3.8439136e-17 -6.175551e-18 -6.0618306e-18
0001d0 37 f2 dc a2 c6 f9 4d a3 c0 a3 22 a3 06 3f 0a 80
       -5.9887574e-18 -1.1165964e-17 -8.816713e-18 -9.40964e-40
0001e0 79 b7 09 80 ca e2 05 80 18 e6 15 00 7b 69 01 00
       -8.92337e-40 -5.40534e-40 2.011088e-39 1.29675e-40
0001f0 b3 77 12 80 c2 8a 09 00 ec 72 13 00 47 26 19 80
       -1.695979e-39 8.76296e-40 1.7861e-39 -2.309619e-39
000200 46 82 02 00 c2 62 16 80 e2 92 13 00 2e 94 14 80
       2.30404e-40 -2.055809e-39 1.797566e-39 -1.889867e-39
000210 ae 05 04 ab ca f7 58 2c 6e c5 f8 2b ef bf a6 2c
       -4.69037e-13 3.0832997e-12 1.7676258e-12 4.7393127e-12
000220 40 ac 78 a9 a9 be 8a ab 3d 8a 65 ab ef 4b 9d ab
       -5.5216465e-14 -9.858409e-13 -8.154899e-13 -1.1176597e-12
000230 f5 1c 92 ab 2d e8 13 80 14 6d 09 00 82 0d 05 00
       -1.0381961e-12 -1.828163e-39 8.6565e-40 4.64023e-40
000240 5c ae 10 00 4a b1 00 80 b1 06 03 00 a8 d0 03 80
       1.531916e-39 -6.36e-41 2.77907e-40 -3.50358e-40
000250 6b 3b 04 80 bb 68 0a 00 36 25 0b 80 50 6d 08 00
       -3.88657e-40 9.55925e-40 -1.023539e-39 7.73898e-40
000260 57 91 08 80 d4 3a e9 02 d8 18 8f b1 fa 8b e8 32
       -7.86822e-40 3.4270039e-37 -4.164672e-09 2.7072009e-08
000270 f6 fa 1b 33 0d 32 33 33 c0 ea 04 af fa 84 42 b2
       3.6316997e-08 4.1722206e-08 -1.208873e-10 -1.1322522e-08
000280 7c 1d 17 b2 89 5e 64 b2 d2 f7 4e b2 08 de 14 00
       -8.796061e-09 -1.32928415e-08 -1.2047126e-08 1.91636e-39
000290 33 44 10 00 47 37 11 00 7f c7 0e 80 8c 8e 12 00
       1.493833e-39 1.581033e-39 -1.357263e-39 1.704175e-39
0002a0 d6 de 08 80 40 0e 06 00 c9 bb 00 80 fa 29 06 00
       -8.14622e-40 5.56125e-40 -6.7365e-41 5.66071e-40
0002b0 e5 51 12 00 08 22 01 00 20 d6 07 80 b1 77 0b 00
       1.682417e-39 1.04044e-40 -7.19662e-40 1.053128e-39
0002c0 56 d4 eb 20 fe 5b 15 a2 f5 df 38 a1 ef 16 5f a2
       3.995106e-19 -2.0241966e-18 -6.263803e-19 -3.0234277e-18
0002d0 78 3e e6 9f cc a2 fb 20 34 c9 c5 20 22 87 16 21
       -9.7512135e-20 4.2628784e-19 3.3506243e-19 5.1000824e-19
0002e0 75 f2 06 21 c6 f4 01 00 82 67 0b 80 19 43 0e 80
       4.5721855e-19 1.79644e-40 -1.047322e-39 -1.309767e-39
0002f0 fa a4 0e 80 fd bf 13 80 81 51 15 00 7d a7 0b 80
       -1.34488e-39 -1.813747e-39 1.957784e-39 -1.070274e-39
000300 34 12 0f 00 43 ba 0f 80 8a e0 14 80 1a ab 14 80
       1.384062e-39 -1.44435e-39 -1.91726e-39 -1.89809e-39
000310 32 1a 0b 80 ff 50 0d 80 e1 eb e2 bd f0 8f b8 3b
       -1.019588e-39 -1.222917e-39 -0.110801466 0.005632393
000320 3c 59 74 3b ae 74 c9 3b d9 71 a0 3b f3 a7 24 3d
       0.0037284633 0.0061479425 0.004896384 0.04019923
000330 3b 62 79 3d 64 6c e9 3c 7e fe 10 3d 24 eb 00 80
       0.060884696 0.028494067 0.035398953 -8.4353e-41
000340 06 b0 15 80 ae 2c 05 80 a2 14 0e 80 5a b0 15 80
       -1.991691e-39 -4.75206e-40 -1.293099e-39 -1.991808e-39
000350 e3 f2 06 00 9f 07 05 00 ea f9 0e 00 1e 67 07 80
       6.38144e-40 4.61911e-40 1.375349e-39 -6.7984e-40
000360 74 2e 01 80 0c f4 09 00 9f 8e 0b 00 54 dd 0a 80
       -1.085e-40 9.14067e-40 1.061353e-39 -9.97753e-40
000370 e2 eb e2 3d eb 8f b8 bb 36 59 74 bb ad 74 c9 bb
       0.11080147 -0.0056323907 -0.003728462 -0.006147942
000380 d9 71 a0 bb f3 a7 24 bd 39 62 79 bd 63 6c e9 bc
       -0.004896384 -0.04019923 -0.060884688 -0.028494066
000390 7d fe 10 bd d1 b1 06 00 17 4c 09 00 e1 33 05 80
       -0.03539895 6.14801e-40 8.53815e-40 -4.77788e-40
0003a0 a1 2b 02 80 c3 b0 05 00 27 45 16 00 4b 27 05 80
       -1.99322e-40 5.22588e-40 2.045188e-39 -4.73273e-40
0003b0 dc a2 0a 00 46 44 11 00 5b b4 17 80 a7 91 15 00
       9.76778e-40 1.585695e-39 -2.176916e-39 1.980796e-39
0003c0 98 5f 00 80 98 8c 03 00 dd eb e2 3d ec 8f b8 bb
       -3.4293e-41 3.25942e-40 0.110801436 -0.005632391
0003d0 31 59 74 bb b2 74 c9 bb db 71 a0 bb f3 a7 24 bd
       -0.0037284608 -0.0061479444 -0.004896385 -0.04019923
0003e0 3a 62 79 bd 62 6c e9 bc 7d fe 10 bd e0 51 02 80
       -0.06088469 -0.028494064 -0.03539895 -2.13042e-40
0003f0 37 ee 0c 80 18 53 01 00 03 a4 0a 00 2c d1 06 00
       -1.187481e-39 1.21644e-40 9.77191e-40 6.2605e-40

fc1.bias f4 [100]
000000 5a 0d 16 39 8f eb 9d ac 64 7f 4d 23 29 4b 0c b3
       0.00014310089 -4.4883606e-12 1.1140048e-17 -3.2664648e-08
000010 9d da fb 25 6d ab cd a2 ef db 17 2b ba a2 bd 31
       4.3689697e-16 -5.5746865e-18 5.3951196e-13 5.519124e-09
000020 f0 5a 77 a0 f3 c9 0f be f2 c9 0f 3e f3 c9 0f 3e
       -2.0951802e-19 -0.14041881 0.1404188 0.14041881
000030 ac ee c2 24 f2 c9 0f 3e f4 c9 0f be f3 c9 0f 3e
       8.4538414e-17 0.1404188 -0.14041883 0.14041881
000040 f3 c9 0f be f3 c9 0f be 3d 9f 11 b6 f2 c9 0f be
       -0.14041881 -0.14041881 -2.1699373e-06 -0.1404188
000050 f5 75 12 a5 ea 1c 83 37 f4 d2 4a 37 fa dc 22 aa
       -1.2703447e-16 1.5629881e-05 1.2089255e-05 -1.4465157e-13
000060 2f 7b 4c a7 04 a1 fc 33 e3 33 e8 b2 f2 c9 0f be
       -2.8377465e-15 1.1763953e-07 -2.703195e-08 -0.1404188
000070 68 7b 72 29 f4 c9 0f 3e 0d cd 3b b9 93 40 e6 31
       5.3841832e-14 0.14041883 -0.00017910097 6.7012222e-09
000080 ac 5a ff a8 f1 c9 0f 3e 17 67 93 a6 ff b3 9a a3
       -2.835001e-14 0.14041878 -1.0228117e-15 -1.6772945e-17
000090 82 a4 67 9c b6 c2 de b1 9d a8 65 b6 f3 c9 0f be
       -7.664411e-22 -6.4831864e-09 -3.4221805e-06 -0.14041881
0000a0 b0 34 07 20 1a dc b1 27 d0 56 07 b8 7e 29 cb b2
       1.1452378e-19 4.9366003e-15 -3.226736e-05 -2.3651179e-08
0000b0 3a 92 bd 25 fb cf a2 29 f2 c9 0f 3e f3 c9 0f be
       3.288536e-16 7.230324e-14 0.1404188 -0.14041881
0000c0 8d 01 e0 20 f3 c9 0f be f3 c9 0f be f3 c9 0f be
       3.7948102e-19 -0.14041881 -0.14041881 -0.14041881
0000d0 f3 c9 0f 3e 20 92 00 a8 d5 ef f7 b8 f4 c9 0f be
       0.14041881 -7.137113e-15 -0.0001182255 -0.14041883
0000e0 00 86 fd a5 7c 1b ff 25 f2 c9 0f 3e 3d 9d 3d 36
       -4.3979306e-16 4.4254073e-16 0.1404188 2.825472e-06
0000f0 f2 c9 0f 3e e3 ae 3e 29 f1 c9 0f 3e 06 0a cf 30
       0.1404188 4.2340165e-14 0.14041878 1.5064081e-09
000100 f2 c9 0f 3e 4d ea f1 b7 9e f7 76 36 f4 c9 0f be
       0.1404188 -2.8838544e-05 3.6800989e-06 -0.14041883
000110 f2 c9 0f 3e cc 88 e4 a4 58 a0 5f a5 f1 c9 0f 3e
       0.1404188 -9.911098e-17 -1.9396493e-16 0.14041878
000120 18 0a 51 27 f4 c9 0f be f1 c9 0f be f3 c9 0f 3e
       2.9010048e-15 -0.14041883 -0.14041878 0.14041881
000130 f3 c9 0f 3e f3 c9 0f be 8e 05 7e 2f f1 c9 0f 3e
       0.14041881 -0.14041881 2.3103139e-10 0.14041878
000140 a6 5a dc b6 1e bc 8c a9 05 25 0b a8 ac 04 5e 3a
       -6.567064e-06 -6.249882e-14 -7.724077e-15 0.0008469324
000150 f4 c9 0f be f3 c9 0f 3e 38 35 7d a4 2d 6d b4 28
       -0.14041883 0.14041881 -5.4905708e-17 2.0031362e-14
000160 f2 c9 0f 3e f8 fa ac b7 48 6a 39 a6 a4 3b 63 22
       0.1404188 -2.0620864e-05 -6.4328807e-16 3.079581e-18
000170 c6 ce 99 38 ef c9 0f 3e f3 c9 0f be f4 c9 0f 3e
       7.334123e-05 0.14041875 -0.14041881 0.14041883
000180 93 1e eb a5 7e 5d e7 38 33 7e 97 38 f6 c9 0f be
       -4.078672e-16 0.000110323526 7.2237475e-05 -0.14041886

fc2.weight f4 [100, 100]
000000 bf 30 0f 39 4b d7 37 ac df 50 50 23 ba b2 3c b3
       0.00013655702 -2.6125376e-12 1.1292828e-17 -4.3934712e-08
000010 09 a1 c5 26 1f 1a f5 a1 96 d9 65 2b f2 0b 81 32
       1.371327e-15 -1.660876e-18 8.1659104e-13 1.5023009e-08
000020 cb bc b9 a0 ef ee ae 3c ee ee ae bc ed ee ae bc
       -3.1465152e-19 0.021354167 -0.021354165 -0.021354163
000030 b8 43 45 a6 ed ee ae bc ef ee ae 3c ef ee ae bc
       -6.843988e-16 -0.021354163 0.021354167 -0.021354167
000040 ee ee ae 3c ed ee ae 3c 5a af 07 b6 ed ee ae 3c
       0.021354165 0.021354163 -2.0218636e-06 0.021354163
000050 38 9d 05 a3 a9 20 a2 b7 af e5 09 35 ca d2 84 a9
       -7.243237e-18 -1.9327113e-05 5.137071e-07 -5.8985436e-14
000060 50 06 bb a4 4a 6e 92 33 47 48 22 b3 ee ee ae 3c
       -8.1109016e-17 6.818716e-08 -3.77843e-08 0.021354165
000070 d0 cb 0a 29 f0 ee ae bc dc 13 05 ba 22 4a 78 31
       3.0818935e-14 -0.021354169 -0.00050765066 3.613089e-09
000080 8c cb ad a9 ec ee ae bc d2 75 06 a6 30 7c 97 20
       -7.718053e-14 -0.021354161 -4.6650265e-16 2.5662575e-19
000090 88 eb a8 9c 3a 1b 84 b1 02 68 5f b7 ef ee ae 3c
       -1.1178191e-21 -3.844801e-09 -1.3316052e-05 0.021354167
0000a0 20 43 ca 20 8f 2a 45 28 29 7e 43 37 a8 df 32 32
       3.426455e-19 1.0944925e-14 1.165228e-05 1.0411817e-08
0000b0 a6 fb 03 a4 3e 8b b3 26 ed ee ae bc ed ee ae 3c
       -2.861925e-17 1.2458362e-15 -0.021354163 0.021354163
0000c0 a8 ec 16 a0 f0 ee ae 3c ee ee ae 3c ef ee ae 3c
       -1.2783797e-19 0.021354169 0.021354165 0.021354167
0000d0 ee ee ae bc 14 91 e7 27 04 86 32 ba ef ee ae 3c
       -0.021354165 6.4272674e-15 -0.0006810131 0.021354167
0000e0 9c b9 ee a7 e4 d1 ad a4 ed ee ae bc d8 11 81 36
       -6.625951e-15 -7.538236e-17 -0.021354163 3.846577e-06
0000f0 ee ee ae bc 94 89 a2 28 ed ee ae bc c5 eb 80 31
       -0.021354165 1.8045278e-14 -0.021354163 3.752094e-09
000100 ee ee ae bc 39 e6 b5 37 98 34 27 37 f0 ee ae 3c
       -0.021354165 2.1684087e-05 9.966221e-06 0.021354169
000110 ee ee ae bc 72 28 53 a7 1a f7 fa a6 ec ee ae bc
       -0.021354165 -2.9304058e-15 -1.7414212e-15 -0.021354161
000120 f5 f1 c0 27 ef ee ae 3c ed ee ae 3c ef ee ae bc
       5.3553036e-15 0.021354167 0.021354163 -0.021354167
000130 ee ee ae bc ee ee ae 3c f5 c7 1b 30 ec ee ae bc
       -0.021354165 0.021354165 5.667283e-10 -0.021354161
000140 af 9e 8d 37 ed a2 b2 26 99 61 4e 25 f8 33 b2 3a
       1.6882403e-05 1.2395392e-15 1.7900719e-16 0.001359581
000150 f0 ee ae 3c ee ee ae bc 24 c6 18 a5 90 91 54 26
       0.021354169 -0.021354165 -1.3251031e-16 7.374955e-16
000160 ee ee ae bc 76 ad 64 b9 83 ca dc a6 a8 f9 61 22
       -0.021354165 -0.00021808394 -1.5320457e-15 3.0625353e-18
000170 89 34 07 39 ec ee ae bc ef ee ae 3c ee ee ae bc
       0.00012894174 -0.021354161 0.021354167 -0.021354165
000180 d2 82 c4 a3 4f 37 b6 35 73 12 d6 34 f2 ee ae 3c
       -2.1305767e-17 1.3576154e-06 3.987403e-07 0.021354172
000190 be 30 0f 39 4c d7 37 ac de 50 50 23 be b2 3c b3
       0.000136557 -2.6125378e-12 1.1292827e-17 -4.3934726e-08
0001a0 11 a1 c5 26 eb 19 f5 a1 99 d9 65 2b ef 0b 81 32
       1.3713278e-15 -1.6608706e-18 8.165912e-13 1.5023003e-08
0001b0 c6 bc b9 a0 e8 ee ae 3c e9 ee ae bc e8 ee ae bc
       -3.146514e-19 0.021354154 -0.021354156 -0.021354154
0001c0 bd 43 45 a6 e9 ee ae bc e9 ee ae 3c e8 ee ae bc
       -6.843991e-16 -0.021354156 0.021354156 -0.021354154
0001d0 e9 ee ae 3c e7 ee ae 3c 5a af 07 b6 e8 ee ae 3c
       0.021354156 0.021354152 -2.0218636e-06 0.021354154
0001e0 38 9d 05 a3 a8 20 a2 b7 aa e5 09 35 d1 d2 84 a9
       -7.243237e-18 -1.9327112e-05 5.137068e-07 -5.8985484e-14
0001f0 50 07 bb a4 4a 6e 92 33 43 48 22 b3 e9 ee ae 3c
       -8.111071e-17 6.818716e-08 -3.7784286e-08 0.021354156
000200 d0 cb 0a 29 e9 ee ae bc e0 13 05 ba 20 4a 78 31
       3.0818935e-14 -0.021354156 -0.0005076509 3.6130885e-09
000210 8e cb ad a9 e6 ee ae bc dc 75 06 a6 fe 7b 97 20
       -7.7180544e-14 -0.02135415 -4.665032e-16 2.5662446e-19
000220 7f eb a8 9c 2a 1b 84 b1 14 68 5f b7 e9 ee ae 3c
       -1.1178182e-21 -3.844794e-09 -1.3316068e-05 0.021354156
000230 23 43 ca 20 92 2a 45 28 23 7e 43 37 e8 df 32 32
       3.4264558e-19 1.0944928e-14 1.1652274e-05 1.0411874e-08
000240 a7 fb 03 a4 96 8b b3 26 e8 ee ae bc e8 ee ae 3c
       -2.8619255e-17 1.2458455e-15 -0.021354154 0.021354154
000250 a2 ec 16 a0 e9 ee ae 3c e9 ee ae 3c e8 ee ae 3c
       -1.278379e-19 0.021354156 0.021354156 0.021354154
000260 e8 ee ae bc 2e 91 e7 27 fe 85 32 ba e8 ee ae 3c
       -0.021354154 6.4272784e-15 -0.00068101275 0.021354154
000270 9b b9 ee a7 f8 d1 ad a4 e6 ee ae bc d7 11 81 36
       -6.6259504e-15 -7.538249e-17 -0.02135415 3.8465764e-06
000280 e9 ee ae bc 91 89 a2 28 e8 ee ae bc c8 eb 80 31
       -0.021354156 1.8045273e-14 -0.021354154 3.7520955e-09
000290 e8 ee ae bc 39 e6 b5 37 96 34 27 37 eb ee ae 3c
       -0.021354154 2.1684087e-05 9.966219e-06 0.02135416
0002a0 e6 ee ae bc 63 28 53 a7 1c f7 fa a6 e7 ee ae bc
       -0.02135415 -2.9304026e-15 -1.7414214e-15 -0.021354152
0002b0 fc f1 c0 27 e8 ee ae 3c e7 ee ae 3c ea ee ae bc
       5.3553065e-15 0.021354154 0.021354152 -0.021354157
0002c0 e8 ee ae bc e8 ee ae 3c f2 c7 1b 30 e8 ee ae bc
       -0.021354154 0.021354154 5.667281e-10 -0.021354154
0002d0 b1 9e 8d 37 ec a2 b2 26 76 61 4e 25 05 34 b2 3a
       1.6882406e-05 1.2395391e-15 1.7900673e-16 0.0013595825
0002e0 e9 ee ae 3c e8 ee ae bc 14 c6 18 a5 92 91 54 26
       0.021354156 -0.021354154 -1.325101e-16 7.374956e-16
0002f0 ea ee ae bc 76 ad 64 b9 8a ca dc a6 bd f9 61 22
       -0.021354157 -0.00021808394 -1.5320465e-15 3.0625396e-18
000300 8e 34 07 39 e7 ee ae bc e9 ee ae 3c e9 ee ae bc
       0.00012894181 -0.021354152 0.021354156 -0.021354156
000310 cc 82 c4 a3 61 37 b6 35 49 12 d6 34 ec ee ae 3c
       -2.1305757e-17 1.3576174e-06 3.987391e-07 0.021354161
000320 be 30 0f 39 4e d7 37 ac df 50 50 23 c0 b2 3c b3
       0.000136557 -2.6125382e-12 1.1292828e-17 -4.3934733e-08
000330 10 a1 c5 26 04 1a f5 a1 97 d9 65 2b f2 0b 81 32
       1.3713277e-15 -1.6608732e-18 8.165911e-13 1.5023009e-08
000340 ca bc b9 a0 ef ee ae 3c ee ee ae bc ed ee ae bc
       -3.146515e-19 0.021354167 -0.021354165 -0.021354163
000350 a7 43 45 a6 eb ee ae bc ef ee ae 3c ed ee ae bc
       -6.843979e-16 -0.02135416 0.021354167 -0.021354163
000360 ed ee ae 3c ec ee ae 3c 5c af 07 b6 eb ee ae 3c
       0.021354163 0.021354161 -2.021864e-06 0.02135416
000370 40 9d 05 a3 ac 20 a2 b7 c2 e5 09 35 ca d2 84 a9
       -7.2432434e-18 -1.9327119e-05 5.137082e-07 -5.8985436e-14
000380 10 08 bb a4 46 6e 92 33 44 48 22 b3 ed ee ae 3c
       -8.111198e-17 6.8187134e-08 -3.778429e-08 0.021354163
000390 f0 cb 0a 29 f0 ee ae bc df 13 05 ba 1a 4a 78 31
       3.0819043e-14 -0.021354169 -0.00050765084 3.6130872e-09
0003a0 8a cb ad a9 eb ee ae bc da 75 06 a6 12 7c 97 20
       -7.718052e-14 -0.02135416 -4.665031e-16 2.5662498e-19
0003b0 80 eb a8 9c 32 1b 84 b1 0e 68 5f b7 ed ee ae 3c
       -1.1178183e-21 -3.8447974e-09 -1.3316063e-05 0.021354163
0003c0 1d 43 ca 20 97 2a 45 28 25 7e 43 37 c0 df 32 32
       3.4264543e-19 1.0944932e-14 1.1652276e-05 1.04118385e-08
0003d0 a6 fb 03 a4 6a 8b b3 26 eb ee ae bc ed ee ae 3c
       -2.861925e-17 1.2458408e-15 -0.02135416 0.021354163
0003e0 a3 ec 16 a0 ee ee ae 3c ef ee ae 3c ed ee ae 3c
       -1.2783791e-19 0.021354165 0.021354167 0.021354163
0003f0 ee ee ae bc 2a 91 e7 27 00 86 32 ba ed ee ae 3c
       -0.021354165 6.4272767e-15 -0.00068101287 0.021354163

fc2.bias f4 [100]
000000 fe 26 9f bd f8 26 9f bd fc 26 9f bd f8 26 9f 3d
       -0.07771109 -0.077711046 -0.077711076 0.077711046
000010 fe 26 9f 3d ff 26 9f bd fc 26 9f 3d fc 26 9f 3d
       0.07771109 -0.0777111 0.077711076 0.077711076
000020 fe 26 9f bd fd 26 9f bd fa 26 9f bd fc 26 9f 3d
       -0.07771109 -0.07771108 -0.07771106 0.077711076
000030 fb 26 9f 3d fe 26 9f 3d fe 26 9f bd fd 26 9f bd
       0.07771107 0.07771109 -0.07771109 -0.07771108
000040 f8 26 9f bd fe 26 9f bd fa 26 9f 3d fe 26 9f 3d
       -0.077711046 -0.07771109 0.07771106 0.07771109
000050 fc 26 9f bd d8 74 26 21 f0 26 9f bd fd 26 9f bd
       -0.077711076 5.639763e-19 -0.077710986 -0.07771108
000060 ea 26 9f 3d 27 58 8e b8 fc 26 9f 3d fe 26 9f bd
       0.07771094 -6.787507e-05 0.077711076 -0.07771109
000070 fe 26 9f 3d fc 26 9f bd fc 26 9f bd fb 26 9f 3d
       0.07771109 -0.077711076 -0.077711076 0.07771107
000080 f9 26 9f 3d fc 26 9f bd fb 26 9f bd fe 26 9f bd
       0.07771105 -0.077711076 -0.07771107 -0.07771109
000090 fd 26 9f bd fc 26 9f 3d fb 26 9f 3d f9 26 9f 3d
       -0.07771108 0.077711076 0.07771107 0.07771105
0000a0 fa 26 9f 3d fd 26 9f 3d fc 26 9f bd f8 26 9f bd
       0.07771106 0.07771108 -0.077711076 -0.077711046
0000b0 fe 26 9f bd f7 26 9f bd f9 26 9f 3d f8 26 9f 3d
       -0.07771109 -0.07771104 0.07771105 0.077711046
0000c0 fe 26 9f 3d fe 26 9f 3d fc 26 9f 3d fe 26 9f bd
       0.07771109 0.07771109 0.077711076 -0.07771109
0000d0 fb 26 9f 3d fc 26 9f 3d fe 26 9f 3d fc 26 9f bd
       0.07771107 0.077711076 0.07771109 -0.077711076
0000e0 fc 26 9f 3d f1 26 9f bd f8 26 9f 3d fc 26 9f 3d
       0.077711076 -0.07771099 0.077711046 0.077711076
0000f0 f8 26 9f bd fc 26 9f bd fc 26 9f 3d fe 26 9f bd
       -0.077711046 -0.077711076 0.077711076 -0.07771109
000100 fc 26 9f 3d fa 26 9f bd fc 26 9f bd fd 26 9f 3d
       0.077711076 -0.07771106 -0.077711076 0.07771108
000110 ff 26 9f bd ff 26 9f bd fd 26 9f 3d f8 26 9f bd
       -0.0777111 -0.0777111 0.07771108 -0.077711046
000120 f9 26 9f 3d f8 26 9f bd f8 26 9f bd fe 26 9f bd
       0.07771105 -0.077711046 -0.077711046 -0.07771109
000130 f9 26 9f 3d f9 26 9f bd fc 26 9f 3d fe 26 9f 3d
       0.07771105 -0.07771105 0.077711076 0.07771109
000140 14 b9 9a b8 fc 26 9f 3d fc 26 9f 3d fc 26 9f 3d
       -7.377766e-05 0.077711076 0.077711076 0.077711076
000150 f8 26 9f 3d 08 36 25 9e fe 26 9f bd f4 d9 cb b3
       0.077711046 -8.746201e-21 -0.07771109 -9.4925696e-08
000160 fc 26 9f 3d fe 26 9f bd fc 26 9f bd f0 26 9f 3d
       0.077711076 -0.07771109 -0.077711076 0.077710986
000170 fa 26 9f 3d fc 26 9f 3d fc 26 9f 3d fe 26 9f 3d
       0.07771106 0.077711076 0.077711076 0.07771109
000180 fd 26 9f bd fc 26 9f 3d f9 26 9f bd d4 62 98 b4
       -0.07771108 0.077711076 -0.07771105 -2.8384113e-07

fc3.weight f4 [1, 100]
000000 2a 1f 25 be 25 1f 25 be 28 1f 25 be 25 1f 25 3e
       -0.1612517 -0.16125162 -0.16125166 0.16125162
000010 2a 1f 25 3e 2c 1f 25 be 28 1f 25 3e 28 1f 25 3e
       0.1612517 -0.16125172 0.16125166 0.16125166
000020 2a 1f 25 be 2b 1f 25 be 27 1f 25 be 27 1f 25 3e
       -0.1612517 -0.16125171 -0.16125165 0.16125165
000030 28 1f 25 3e 2b 1f 25 3e 2b 1f 25 be 28 1f 25 be
       0.16125166 0.16125171 -0.16125171 -0.16125166
000040 25 1f 25 be 2a 1f 25 be 27 1f 25 3e 2b 1f 25 3e
       -0.16125162 -0.1612517 0.16125165 0.16125171
000050 28 1f 25 be f9 25 1e a3 1b 1f 25 be 2b 1f 25 be
       -0.16125166 -8.573238e-18 -0.16125147 -0.16125171
000060 17 1f 25 3e 1c 6e f4 38 28 1f 25 3e 2a 1f 25 be
       0.16125141 0.00011655336 0.16125166 -0.1612517
000070 2b 1f 25 3e 2a 1f 25 be 28 1f 25 be 2a 1f 25 3e
       0.16125171 -0.1612517 -0.16125166 0.1612517
000080 25 1f 25 3e 28 1f 25 be 27 1f 25 be 2b 1f 25 be
       0.16125162 -0.16125166 -0.16125165 -0.16125171
000090 2b 1f 25 be 29 1f 25 3e 28 1f 25 3e 25 1f 25 3e
       -0.16125171 0.16125168 0.16125166 0.16125162
0000a0 27 1f 25 3e 2a 1f 25 3e 28 1f 25 be 25 1f 25 be
       0.16125165 0.1612517 -0.16125166 -0.16125162
0000b0 2a 1f 25 be 24 1f 25 be 25 1f 25 3e 25 1f 25 3e
       -0.1612517 -0.1612516 0.16125162 0.16125162
0000c0 2b 1f 25 3e 2a 1f 25 3e 28 1f 25 3e 2a 1f 25 be
       0.16125171 0.1612517 0.16125166 -0.1612517
0000d0 27 1f 25 3e 28 1f 25 3e 2a 1f 25 3e 27 1f 25 be
       0.16125165 0.16125166 0.1612517 -0.16125165
0000e0 28 1f 25 3e 1f 1f 25 be 25 1f 25 3e 27 1f 25 3e
       0.16125166 -0.16125153 0.16125162 0.16125165
0000f0 25 1f 25 be 28 1f 25 be 27 1f 25 3e 2a 1f 25 be
       -0.16125162 -0.16125166 0.16125165 -0.1612517
000100 28 1f 25 3e 27 1f 25 be 27 1f 25 be 2b 1f 25 3e
       0.16125166 -0.16125165 -0.16125165 0.16125171
000110 2c 1f 25 be 2c 1f 25 be 28 1f 25 3e 25 1f 25 be
       -0.16125172 -0.16125172 0.16125166 -0.16125162
000120 25 1f 25 3e 25 1f 25 be 25 1f 25 be 2b 1f 25 be
       0.16125162 -0.16125162 -0.16125162 -0.16125171
000130 25 1f 25 3e 25 1f 25 be 28 1f 25 3e 2b 1f 25 3e
       0.16125162 -0.16125162 0.16125166 0.16125171
000140 26 2e f1 b9 27 1f 25 3e 28 1f 25 3e 28 1f 25 3e
       -0.00046001485 0.16125165 0.16125166 0.16125166
000150 25 1f 25 3e e6 6f 09 20 2b 1f 25 be 55 c2 4d 35
       0.16125162 1.1641375e-19 -0.16125171 7.665124e-07
000160 29 1f 25 3e 2a 1f 25 be 28 1f 25 be 1a 1f 25 3e
       0.16125168 -0.1612517 -0.16125166 0.16125146
000170 28 1f 25 3e 28 1f 25 3e 28 1f 25 3e 2b 1f 25 3e
       0.16125166 0.16125166 0.16125166 0.16125171
000180 2a 1f 25 be 28 1f 25 3e 25 1f 25 be 2f 94 03 b4
       -0.1612517 0.16125166 -0.16125162 -1.2254235e-07
