gail/save_model/0/SUB010_ckpt_0.pth.tar (torch_old, 154736 bytes, 16 tensors)

fc1.weight f4 [100, 22]
00000000: 4a52 943e 0634 80bb f75b 393c 42cc 73be
00000010: 61d8 1dbe 6e78 38be d575 bfbe 2f5d 16be
00000020: e77f d7bd 4c25 023e 003e 8ebc 3886 2e3e
00000030: 4eb4 d8bd 184a e23c 9825 4dbe c06f 223d
00000040: 7025 723d 4033 0fbc 78f1 333d bc58 cd3d
00000050: dc39 e33d 2212 293e 40d7 ad3e 4439 d73e
00000060: fee8 87be 5492 a33b 72f5 d1be 174e 92be
00000070: 0756 4dbe 317f 99bc 4225 6fbe 60a0 82bc
00000080: 80ca d93d 428d 403e 8245 3fbe 08aa 563d
00000090: c87c 253e 885d 423d e0f2 743d 8098 4abe
000000a0: 60d8 13bd e859 d7bd 4c4c 0a3e c495 50be
000000b0: 7a1f 623e d263 893e 4adf 853e e855 abbe
000000c0: 32bf c2be 5e3a fdbc 67c0 74be b0a4 ffbd
000000d0: df0c a03d f4e6 823d 80e2 423d e2fd 343e
000000e0: 2aac 90bd e061 00bd 386a f13d f2de 593e
000000f0: b48a 903d 702e 3f3d 2bd9 cdbd 00e4 5a3c
00000100: 0899 e8bc 707d b63c 325b 783e 11f1 acbd
00000110: c0c1 323e f48d b8be 5b47 bcbe 9edf 29be
00000120: 0b8d 2f3e 5106 5abc 4bfd 82bb 01da dabd
00000130: 33e9 1abe c8ad 403d 1ac7 463e 45c5 ebbd
00000140: 808b c0bd b850 243e 7c20 8a3d 961e 3c3e
00000150: 3081 b13c 5c39 07be 3e95 283e c202 4d3e
00000160: 722e 8fbd d227 013e 4036 75bd 6adb 55be
00000170: 71ca c6bd b3a0 b83e 4a19 ac3e 1eed a93d
00000180: fd22 d63e 24fa f9bd 820d 0b3e e06a ae3b
00000190: 20b2 ac3d 888f b9bc 6854 bc3d 7659 283e
000001a0: edcf 41be 04e5 043e 28a2 423e 8c7a fa3d
000001b0: b053 d03d 2465 3abd 4faf c2bd c92f a9bd
000001c0: 185c 28be 2511 073e 6c89 afbd 24db b73e
000001d0: b66c 963d c371 a83e 14d8 813e 0c99 f63d
000001e0: 487b 25bd ba00 a4bd a8b9 24bd a814 703d
000001f0: 902a 173d 588b 543e 0467 453e dc31 033d
00000200: b850 0abd 94d6 07bd 8032 6ebd b81f ed3d
00000210: ca7f 80be e9d3 84bd c2cd 30bd 22f8 a93e
00000220: 2c69 f13e 419a 3e3e cd4c 8c3e aa18 413e
00000230: ed2a ce3e 8093 c03a 4cbd b63d 342d bd3d
00000240: 50d3 b03d c7cf 02be 12a7 093e 00fa 77bd
00000250: 2c53 57bd d054 a33c 2a1e 173e 3e4a 1c3e
00000260: c89a 9cbd 403c 893b 8fc6 84be 4f73 88be
00000270: 4622 0b3e 7072 a43e 20c0 ae3e 782a 92bc
00000280: 9825 753e b037 553e 7f0f 483d 2045 303c
00000290: 6469 d23d d4ac 13bd cb67 e9bd a4c0 a73d
000002a0: b056 dc3d 96a3 0f3e 90b3 243d cb31 e2bd
000002b0: 58ee 69bd b0e6 093e 9c95 ae3d b4a8 54bd
000002c0: 26c9 cf3d bc19 6c3d eba8 70bd 731c 5f3e
000002d0: 3819 62bd b250 a83e 4704 b6bc 9cab ab3e
000002e0: 7dc9 a23e 5890 033e ec6e 443e c08f 013b
000002f0: 27be 2cbe d8c9 973c b9b8 58be 08d4 063d
00000300: dec1 0fbe 045e f63d c46a e23d 14c8 41bd
00000310: d033 e9bd 9783 fcbd 61da c63e 518c 8e3e
00000320: 177a a43e 88ec 95be bf15 b8be 7898 263d
00000330: 6842 cfbd 9bc3 4bbd 375e 47be 38ec 2dbe
00000340: 1c9c 4d3e 3869 b5bd 3408 413e 73e1 31be
00000350: 30c1 1c3d 4c28 493e ced6 56be 86ef 38be
00000360: 415d 1cbe 881b fbbc f030 533d f635 48be
00000370: 9008 eabd 2df6 59bd 3b03 8b3c 10ae 893e
00000380: f897 5e3e 4ed5 fcbd 0aee 66be 33da 21be
00000390: 1d4c 03be 986b 91bd 6d15 38be 947b 213e
000003a0: 6840 af3c 6ca1 f83d cc89 0b3e 4ca5 473e
000003b0: 051b 31be ff48 c4bd a8a7 6c3d a843 29bd
000003c0: 8868 ef3d 202c 83bc b49d 86be 69a9 3ebe
000003d0: 3cee 153e 39b7 7e3e 0157 d33e bc57 f43e
000003e0: 07f8 633e a1e4 883e 4171 963e f475 8c3d
000003f0: 52f6 4bbe 921a 0f3e 50b4 403d 14b5 073d
0.28969032 -0.0039124517 0.01131343 -0.23808387 -0.15414573 -0.1801469 -0.37394586 -0.14683984
-0.10522442 0.1270954 -0.017363548 0.17043388 -0.105812654 0.027623221 -0.20033872 0.039657354
0.059117734 -0.008740246 0.043931454 0.1002669 0.1109502 0.16510823 0.33953285 0.42035878
-0.26544946 0.004991809 -0.41007572 -0.28575203 -0.20052348 -0.018737407 -0.23354056 -0.015945613
0.10634327 0.18803886 -0.18678859 0.05240825 0.16160882 0.04745248 0.059801936 -0.19784737
-0.036095023 -0.10515195 0.13505667 -0.20369631 0.2208232 0.2683397 0.2614692 -0.3346398
-0.38036495 -0.03091162 -0.2390152 -0.124825835 0.07814955 0.06391707 0.04757929 0.17674974
-0.07064088 -0.03134334 0.11787838 0.21276453 0.070577055 0.046675146 -0.10051187 0.0133600235
-0.028393283 0.02227661 0.24253538 -0.08444417 0.17456722 -0.36045802 -0.3677319 -0.1658921
0.17143647 -0.01330717 -0.00399748 -0.10686112 -0.15128021 0.04704073 0.19411889 -0.115122356
-0.094016075 0.16046417 0.06744477 0.18371043 0.021668047 -0.13205475 0.16463181 0.20020583
-0.069912806 0.12612846 -0.05986619 -0.20884481 -0.097065814 0.36060104 0.33613044 0.0829718
0.4182357 -0.12205914 0.13579372 0.005322799 0.08432412 -0.022651449 0.09195787 0.16440377
-0.18926974 0.12977988 0.1900717 0.12230405 0.10172212 -0.04550661 -0.09506094 -0.082610674
-0.16441381 0.13190134 -0.08571133 0.3590938 0.07344954 0.32899293 0.25360167 0.1204091
-0.040400773 -0.08007951 -0.040216118 0.05861345 0.036905825 0.2075628 0.19277579 0.03202997
-0.033768386 -0.033163622 -0.05815363 0.115783155 -0.25097495 -0.06485731 -0.043164976 0.33197123
0.47150552 0.1861353 0.27402344 0.18857065 0.40267125 0.0014692396 0.08922824 0.092371374
0.08634055 -0.12774573 0.13442639 -0.060541153 -0.052569553 0.019937903 0.147576 0.15262696
-0.0764671 0.0041880906 -0.25932738 -0.26650473 0.13587293 0.3211856 0.34130955 -0.017842516
0.23940122 0.20822024 0.048842903 0.010758668 0.10274008 -0.036053494 -0.1139675 0.0819104
0.10758722 0.14027247 0.040210307 -0.110446535 -0.057112068 0.13466907 0.085246295 -0.0519187
0.10145788 0.05764173 -0.058754843 0.21788196 -0.05519983 0.32874066 -0.022218836 0.33529365
0.31794348 0.12848032 0.19182938 0.001976952 -0.16869412 0.018528864 -0.21164216 0.032917053
-0.14038798 0.12029651 0.1105552 -0.04730995 -0.113868356 -0.12329786 0.38838485 0.27841428
0.32124397 -0.29282022 -0.3595409 0.04067275 -0.10120088 -0.04974709 -0.19469534 -0.16984642
0.20079082 -0.088579595 0.18850785 -0.17371158 0.038270175 0.19644278 -0.20980379 -0.18060121
-0.15269949 -0.030652776 0.051560342 -0.19551834 -0.114274144 -0.053213287 0.016969314 0.26890612
0.21737659 -0.12345372 -0.22551742 -0.15805893 -0.12822004 -0.071006 -0.17976923 0.15769798
0.021393016 0.12140164 0.13626784 0.1949665 -0.17295463 -0.095842354 0.057777077 -0.041324288
0.1168986 -0.016012251 -0.26292193 -0.18619312 0.1464166 0.24874581 0.41277316 0.47723186
0.22262584 0.2673693 0.2938328 0.06858435 -0.19918182 0.1397498 0.04704696 0.033131674

fc1.bias f4 [100]
00000000: c82a 903e d6a5 293e aca6 3c3e b493 06be
00000010: 1149 71be e755 c2be 397e d1be 1293 0e3c
00000020: 0cd1 83be bea2 ef3d f33e 4d3e f97f f2be
00000030: cba3 4f3e 6bbd 71bc 49f2 4e3c 050e 38bd
00000040: d49c adbd 9205 2b3e 4129 d83e b735 9ebe
00000050: 05d4 4f3e c09a 88be 692a 2bbe 53e7 3fbb
00000060: aeb4 803e 295c 6dbe 21c8 553e dbf2 dcbe
00000070: 4692 983e e7dd 4abe 09d2 a23b 1ea8 7e3d
00000080: cb66 8ebe 6fa8 6a3e 9da6 f3bd cbbb 92be
00000090: 50d7 bb3e 51d9 813b a394 c23c 0ef0 b93e
000000a0: 196b a3be 78e6 83be 438d 68be c940 633d
000000b0: 3358 5b3e 1881 a33d 6815 ccbe 7640 9abe
000000c0: 5add b43e 8880 413e 94f0 97be f84a c23e
000000d0: 4357 d9be 51d6 e33d 8b3c 883e 2896 a63b
000000e0: 35dd 8a3d 10bd 97be 4cc5 6f3e 16b1 c2be
000000f0: 91f6 903d 2b9d abbe 1d0d 54be e8af 52be
00000100: df46 b3bd 42bb 2fbe fb10 d23d 8c9f 2bbe
00000110: 91b6 d83d d88e 6bb9 ce63 71be e306 613e
00000120: 660e dd3c af57 4a3e bd68 89be 9746 b23d
00000130: bb98 83bd 75c4 a73e 60c4 1fbe 9482 b1be
00000140: ec51 c0be 11a0 5d3d 6b7e 913e b9c8 db3e
00000150: 7e68 7ebe 77a4 3e3d 036e 623b a450 d93e
00000160: 38cb 313e 241b 1a3e d495 18be 6adb 84be
00000170: 7088 edbd 76cd 953e 912e adbd 6ecb da3d
00000180: 5e29 43be 6a1f af3e cc3f c43e ffde dc3c
0.2815764 0.16567168 0.18422955 -0.13142282 -0.23563029 -0.37956163 -0.40916613 0.0087020565
-0.25745428 0.117009625 0.20043544 -0.4736326 0.20277326 -0.014754633 0.0126310075 -0.044935245
-0.08477178 0.16701344 0.42218974 -0.30900356 0.20295723 -0.26680565 -0.16715397 -0.0029282167
0.25137848 -0.23179688 0.20877124 -0.43154034 0.29799098 -0.19811212 0.004968886 0.062172048
-0.278128 0.22915815 -0.11897013 -0.286589 0.36687708 0.0039626737 0.023752516 0.3631596
-0.31917647 -0.2576177 -0.22710137 0.055481706 0.21420364 0.07983607 -0.39860082 -0.30127305
0.35325128 0.18896687 -0.29675734 0.37947822 -0.42449388 0.11124862 0.2660869 0.005083818
0.06780473 -0.2963643 0.23415107 -0.3802573 0.07078279 -0.33518347 -0.20708127 -0.20574915
-0.08753752 -0.17161277 0.10257145 -0.16760081 0.10581697 -0.0002246456 -0.23573229 0.21975283
0.026984405 0.19760011 -0.2683772 0.0870487 -0.064256154 0.32767072 -0.15602255 -0.34669936
-0.375625 0.05410773 0.28416762 0.42926577 -0.24844548 0.046543565 0.0034550435 0.42444336
0.17362678 0.15049416 -0.14900905 -0.2594865 -0.11598289 0.29258317 -0.084561475 0.106833324
-0.19058749 0.34203655 0.38329923 0.026961802

fc2.weight f4 [100, 100]
00000000: e83a 91be dd4e 6cbe a905 07be a0d8 453d
00000010: b4e5 b33e 6edc 843e fc4b 7e3e c219 913d
00000020: ba5a a93e dba3 5cbe 3ebf bdbe 656f 9e3e
00000030: 48e6 0ebf 18e6 84bd 390b 83bd cfdb bdbe
00000040: 2eee ed3e 0168 c2be 602c 9dbe c32d 8c3e
00000050: 448e e9be 73fc abbc 250c 6a3e 731f 6c3d
00000060: db87 7cbe 54dc ee3c 3685 883c 3ab0 9d3e
00000070: f2b2 87bd 1d62 d43d e26b 003f 2008 c2be
00000080: 1718 8a3e a46a d5be ce05 69be b6d6 883c
00000090: ff68 abbe 23f9 3bbe d277 06bf 852f 11be
000000a0: 170f 453e f3df 523e 0816 993e 837b ce3e
000000b0: 2772 bdbe 6467 a0bc 4395 573e 7dea c43e
000000c0: e68c 17be e545 763d 4049 f03e 530e aebe
000000d0: ae59 003f ed1b f9be bbc4 c9be 0f8c 65be
000000e0: 1248 0ebe 539e 8e3d 5a6a 8dbd 08a8 943e
000000f0: 4489 43be 67ec 8d3e 19db c63e 39d3 3e3e
00000100: 86af 223d 0967 8c3e fc11 2b3e 51af 893e
00000110: 1332 56be 60a3 49be f384 493e aedf f4be
00000120: 7070 3ebd 93a8 cbbd 3af1 c53e 47f2 ccbe
00000130: a6d1 5abd 07d1 afbe fbb1 243e 4407 0b3e
00000140: 0e0b b73e e78b 94be fb9a acbe 78dc 07be
00000150: 041a 063f 3934 c2be cddc 143e dadf b1be
00000160: f328 13bf ccb6 aabe 255d df3e 5668 8c3e
00000170: 9f79 933e 7e9c babe 5544 b33e af5c 9bbd
00000180: 0dd8 e53e 6aad 933d b911 e5be 197c e7be
00000190: e7ac 70be 58b0 84be eaa8 bbbd 91a3 b5bb
000001a0: 21fd ec3e 7b4e 873e 73da 963e 08ee 113d
000001b0: 644b 973e 35ec 1ebe d23b d3be 3276 693e
000001c0: 9c62 f6be ec2b cbbd 6a2e 4bbe c98b f1be
000001d0: ed08 913e 9ce7 b2be ceea 2cbe cb7d 0b3e
000001e0: 872d a1be c457 133d e49f 943e facb 103b
000001f0: fd0a 88be b0fe b53c 67ac b8bd 85bc b63e
00000200: 96ff febb 0b2e 8a3d 2419 fe3e 2aa0 bfbe
00000210: 9cb4 883e c494 aabe 0533 12be 97c9 aa3d
00000220: 7434 79be df5a 59be 7cc5 01bf ec00 6bbe
00000230: 1ce6 963d 459f 953e d21d a73e 7d76 b23e
00000240: da9d d0be 52f0 13be b9da 973e d97b 8c3e
00000250: 78f0 6fbe 14ff d33d 24f7 fa3e c1d7 debe
00000260: 041f c13e 6913 f9be dfd2 fcbe 7b5a 36be
00000270: b67e 47be 9294 013e a0c9 1bbe 6e10 ad3e
00000280: 8011 11bd c994 973e 074e ab3e 558a 3b3e
00000290: 67fd 0b3c 432e b53e 455b b53e b2f8 a43e
000002a0: 1fdd 39be 6d3e e6bd 4c6d 8a3e 3a2f d5be
000002b0: e30a 023d d262 00be fb1f ef3e b29b f9be
000002c0: 98a5 14be 4e3f 98be dc2d 8c3e 06b2 ecbc
000002d0: 39c3 a83e 0018 95be ee04 c3be 1ef6 e0bd
000002e0: 4b1d 093f c112 a5be cca6 353e 10c4 e8be
000002f0: 1422 d8be 7991 91be fa05 a23e 5283 7d3e
00000300: ce9d c03e 0265 c3be 7aa0 433e 1fa6 a1bd
00000310: 07e8 de3e dd3c 873d 37d8 ccbe 4f0b f2be
00000320: 9908 3ebe f853 50be aede f7bd 8414 0a3d
00000330: a520 a43e b138 693e 0e7f 6a3e 8abc 703d
00000340: c169 b03e ed02 abbd b17d a9be 884a b83e
00000350: d68c 09bf 4deb d8bd 7a03 f8bd 6778 b9be
00000360: 238b af3e 33b7 dfbe cc38 9dbe b0a9 5d3e
00000370: 44c5 bdbe d927 403d b7c9 8d3e c94d 823d
00000380: 0519 87be d090 e23d 2aca 95ba 0b86 d13e
00000390: b3e4 ae3c 9c9f 9bbc f798 e33e 4685 c2be
000003a0: 6799 8d3e d1ea e3be e060 5cbe c714 1a3d
000003b0: 6c49 8ebe 1116 6dbe c28a ddbe 6bc2 3fbe
000003c0: a742 0b3e c0d4 ad3e c867 c23e b481 833e
000003d0: 825d 6abe 7d7b a7bd 38a5 243e f2af af3e
000003e0: 00de 14be 48cb 163e de28 f33e 6502 ccbe
000003f0: fd16 a53e 9d56 cfbe 2d26 f2be d04e 81be
-0.28365254 -0.23076959 -0.13185753 0.048302293 0.35136187 0.25949425 0.24833673 0.07084991
0.3307703 -0.21546881 -0.3705997 0.30944362 -0.5582013 -0.064891994 -0.06398625 -0.37081763
0.4647078 -0.37969974 -0.30697918 0.27378663 -0.45616353 -0.0209944 0.22856195 0.05764718
-0.246612 0.029157795 0.016665082 0.30798513 -0.06625928 0.10370276 0.50164616 -0.37896824
0.26971504 -0.41682923 -0.2275612 0.016703945 -0.33478543 -0.18356757 -0.5252658 -0.14178284
0.19244038 0.20593242 0.2989962 0.40328607 -0.37001154 -0.01958055 0.21053033 0.3846015
-0.14799842 0.06012525 0.46930885 -0.33995304 0.5013684 -0.48654118 -0.39407906 -0.2241671
-0.1389468 0.06963792 -0.069050506 0.29034448 -0.19095331 0.27719423 0.38839033 0.18635263
0.039718173 0.2742236 0.16706079 0.26891568 -0.2091754 -0.19691229 0.19679622 -0.47826904
-0.046493948 -0.09944262 0.38660604 -0.40028593 -0.053422593 -0.34339163 0.16083519 0.1357699
0.35750622 -0.29012987 -0.3371199 -0.13267696 0.52383447 -0.37930468 0.14537354 -0.34741098
-0.5748436 -0.33342588 0.4362575 0.27423352 0.28803727 -0.3644752 0.3501307 -0.07586037
0.44891396 0.072108105 -0.44740084 -0.45211866 -0.23503457 -0.2591579 -0.09163077 -0.0055431803
0.46286872 0.26427063 0.2946354 0.035627395 0.29549706 -0.15519793 -0.41256577 0.22798994
-0.48122108 -0.09920487 -0.19841924 -0.4717696 0.28327122 -0.3494233 -0.16886446 0.13622205
-0.31480047 0.03597237 0.29028237 0.0022094236 -0.26570883 0.022216171 -0.09017258 0.35690704
-0.007781933 0.06747063 0.49628556 -0.37426883 0.26700294 -0.33316624 -0.14277275 0.083392315
-0.24336416 -0.21226071 -0.5069196 -0.2294957 0.07368109 0.29223076 0.3263994 0.34856024
-0.4074543 -0.14447144 0.2965906 0.27438238 -0.23431575 0.10351387 0.49016678 -0.43523982
0.37718976 -0.4864762 -0.49379632 -0.17807953 -0.1948193 0.12654331 -0.15213633 0.33801597
-0.03541708 0.29605702 0.33457968 0.18314488 0.008544303 0.35386857 0.35421196 0.3222099
-0.18150757 -0.112423755 0.27036512 -0.41637594 0.031748664 -0.12537697 0.46704087 -0.487516
-0.14516294 -0.29735798 0.27378738 -0.028893482 0.32961443 -0.29119873 -0.380897 -0.10984443
0.5356032 -0.3224087 0.17739409 -0.45462084 -0.422135 -0.284313 0.31645185 0.24757126
0.37620395 -0.38163 0.19104186 -0.07893013 0.43536398 0.066034056 -0.4000871 -0.47274253
-0.18557967 -0.20344532 -0.1210302 0.03371097 0.32056156 0.22775532 0.2290003 0.058773555
0.34455684 -0.083501674 -0.33103707 0.35994363 -0.53730524 -0.10591755 -0.12110038 -0.36224672
0.3428584 -0.43694457 -0.30707395 0.21646762 -0.37064564 0.046913 0.2769296 0.063624926
-0.26386276 0.11062777 -0.0011428047 0.4092258 0.021349287 -0.018997006 0.4445264 -0.37992305
0.276561 -0.44515088 -0.2152133 0.03761747 -0.2779039 -0.23152949 -0.43269926 -0.18726508
0.13599645 0.33951378 0.37969804 0.25684893 -0.22887233 -0.081778504 0.16078651 0.34313923
-0.14537811 0.14725983 0.47492117 -0.39845577 0.322441 -0.40495768 -0.4729475 -0.25255442

fc2.bias f4 [100]
00000000: 5259 c0be 63ea e6be 4c32 dfbe 2493 2d3d
00000010: e847 bf3e 3980 e7be 941e aa3e d59a a6be
00000020: 0f8c 223e ced6 b73e 74ef 9dbe 47fd eebe
00000030: 2b6d 3c3d ec55 7cbe 3fb5 8dbe f465 9abe
00000040: e690 01bd a1ce d03e f2eb 9e3e 5025 263e
00000050: 8ee4 f23b 8cbf 10be 75cd dc3e 893a ce3e
00000060: 10f1 1abe 2756 d2be 9e94 ab3e 4c1d 55bd
00000070: c21b 8dbe 0289 d93e c2a8 bfbe 9623 86be
00000080: 1c79 a73e af48 983e 0526 a93e c789 a13d
00000090: 100b c3be 5388 b1be 45ed 53be f4a9 97be
000000a0: 726b e8bd 191f 973e eaf0 d9bd 99f3 bd3d
000000b0: 2bfd 98bc c3ac 443e aa3b c6be 294c f6bd
000000c0: 2383 9ebd dd84 aa3e b64e 943e ee24 a03e
000000d0: 5fc0 b43e a521 cfbe 87c6 d4bd a4d7 b1bd
000000e0: f607 2bbe 30d4 da3e a641 ba3e 57a5 d03e
000000f0: b811 dbbe 423c 83be 91a9 aabe 4856 2ebb
00000100: 84bf b5bc 2797 1f3d ec01 b43e cc49 023f
00000110: 3120 d73e 887e d73e 83f0 4f3e 64c9 d23d
00000120: d4be a7be a3cf a1be 8070 a93e aed8 2c3e
00000130: 3e1b e8bd 1440 9d3e faf3 1fbe 87e6 87be
00000140: c29d a93e f2ee c63e 07dc a43e 6b9a ef3e
00000150: 18fa 9c3e f752 d83e 6ce4 d33e 27dc 903e
00000160: b45f eabe 6cb0 08be 63af a83e 8e00 f83d
00000170: e1eb a5be 0b06 9f3e 9635 b13e 287f a13e
00000180: a6fc d1be 7229 9a3e e11f 2dbe 6cdb 13be
-0.37568146 -0.45100698 -0.4359306 0.042376652 0.37359548 -0.45215014 0.33226454 -0.32540002
0.1587374 0.3590607 -0.3084675 -0.4667761 0.04600255 -0.24642152 -0.27677342 -0.3015591
-0.031632327 0.40782645 0.31039387 0.16225171 0.0074124997 -0.1413557 0.431255 0.40279034
-0.1513102 -0.41081354 0.33511823 -0.052029893 -0.2756024 0.4248734 -0.3743344 -0.26199025
0.32709587 0.29742953 0.3303682 0.07887607 -0.38094378 -0.3467432 -0.2069598 -0.2962185
-0.113486186 0.29515913 -0.10641654 0.09274978 -0.018675407 0.19206528 -0.38717395 -0.12026245
-0.07739856 0.33304492 0.28966302 0.31278175 0.35303017 -0.40455356 -0.103894286 -0.08683708
-0.16702256 0.4274001 0.3637821 0.40751144 -0.42786956 -0.2563191 -0.33332494 -0.002660172
-0.022186048 0.03896251 0.35157716 0.50893855 0.42016748 0.42088723 0.20306592 0.102923185
-0.32762778 -0.31603727 0.33093643 0.16879532 -0.11333321 0.3071295 -0.15620413 -0.26543066
0.33128172 0.38854176 0.32199118 0.467975 0.30659556 0.42250797 0.4138521 0.28292963
-0.4577614 -0.1334855 0.3294631 0.12109481 -0.32406524 0.31059298 0.34611195 0.31542325
-0.41013068 0.30109745 -0.16906692 -0.14439172

fc3.weight f4 [2, 100]
00000000: 593b c8bf cbf7 ccbf adb1 c3bf d7e4 d33f
00000010: 697d f9bf d2d2 d3bf f2f3 d83f 377a c7bf
00000020: c4f3 1640 c6c9 0240 4b26 c9bf 36d9 c8bf
00000030: f5fb ee3f 6a60 dbbf aa78 cebf 2027 c8bf
00000040: 3d28 d6bf f782 ce3f e7f2 ca3f c418 943f
00000050: bdb3 2440 55fb efbf bbdd f43f 0737 cb3f
00000060: 65a3 f9bf 8fbf c8bf fc16 c83f 2511 95bf
00000070: 4830 c7bf 545d 0040 7922 cbbf aaf5 c4bf
00000080: 700a f3bf 854a c93f dcc5 c53f 212e 5ac0
00000090: deee d0bf 582e ccbf 1660 94bf 982d cabf
000000a0: 4b29 5c40 2efc cc3f 75c0 d6bf 2db9 fd3f
000000b0: 5b94 d9bf 3667 9e3f d514 0bc0 1b46 d7bf
000000c0: da9f 4e40 fccf d13f 1bf8 c23f 7610 ca3f
000000d0: 8913 d43f 2d51 cebf 2be2 94bf 7947 f3bf
000000e0: cc8c ffbf 6edc ff3f 6d7e cc3f 57f5 c43f
000000f0: 056d c6bf 5371 c8bf 330a c8bf c8a7 95bf
00000100: 9404 953f 9964 2e40 b13e cf3f b735 cd3f
00000110: e744 c33f 5ab3 b93f 6f4e f33f 49c1 57c0
00000120: f147 cebf 383e c8bf 579b c73f 4b4e f83f
00000130: e792 4140 4163 c43f 4319 e1bf 8e24 d1bf
00000140: 97d5 c43f de7c bf3f 231f cc3f 238a 1240
00000150: d3db de3f 93b7 f63f f45f c53f 2067 ca3f
00000160: 0b68 c9bf 38d6 f03f dd89 c93f 8da8 973f
00000170: 85da cebf c8a7 c43f 882f cc3f 0eed ca3f
00000180: 780a c8bf 471e c83f 4348 5d40 b7fe 823f
00000190: d5f9 b93d 3af3 9f3d 8e21 ce3d 77ad 0dbc
000001a0: 5f3e 8e3f 1ec1 0a3d cada 02bd 84c9 bc3d
000001b0: 76dc 223e 8b79 9dbd 031f b63d 4c59 c03d
000001c0: 4ad4 883d 1a7e 333d 76db ab3d 460c cb3d
000001d0: 534e 1f3d ff45 59bd 1415 b9bd 7d24 82bf
000001e0: 8d11 2b3e 7f09 3dbe 7a9f 1abd d601 6cbd
000001f0: 2906 b73c 9e4d d43d 3078 b6bd eee0 8c3f
00000200: fae2 cb3d 3032 8abd da96 b83d 8433 e73d
00000210: 9b69 9b3f 3bfe bebd 3220 c6bd d1e0 a0bd
00000220: d17d 4a3d b958 b23d 30f9 893f 0045 d93d
00000230: f194 053e 92c7 a4bd 79b0 9fbd 3ea3 fcbc
00000240: dc46 643d d8be a3bf f060 4d3d 7afa c0be
00000250: d436 133e 752c 50bd af21 bdbd 48d9 c0bd
00000260: 11bb 47bd 6691 0a3d b639 853f 4ea4 ef3c
00000270: 5854 ddbc d62f 51bd cf60 dabd 8a57 c7bd
00000280: 0ec6 be3d 4583 e93d 2a84 e13d 74cc 743f
00000290: aabd 8ebf 412e 0d3e 35ff 5cbd dd5c 5fbd
000002a0: 40e9 bcbd feff a33e 4ef4 a4bc 95f9 21be
000002b0: 9e1d 8b3d 0336 e83d d51b b5bd 7289 01bd
000002c0: cc3d 1dbf f004 c9bd 00e3 2c3d 7541 9b3d
000002d0: 1e1e dcbd b77a 62be f5da aabd b3ed aebd
000002e0: bc4f 4ebd be8f 33bd 7801 d4bd ad10 c2bd
000002f0: 762b cd3d 65ce 83bf 340d ccbd 7812 80bf
00000300: ee0d c83d 6804 ccbd 2b03 c5bd ab6d bebd
00000310: 082e c23d 9c8e bebd ac30 f23d 5303 cebf
-1.5643111 -1.601312 -1.5288597 1.6554211 -1.9491397 -1.6548712 1.6949446 -1.5584172
2.3586283 2.0435653 -1.5714811 -1.5691288 1.8670641 -1.7138798 -1.6130574 -1.563694
-1.673103 1.6133717 1.5855378 1.1570058 2.5734704 -1.8748575 1.9130167 1.5876168
-1.9502989 -1.5683459 1.5632014 -1.1645857 -1.5561609 2.0056963 -1.5869895 -1.5387471
-1.898756 1.5725867 1.5451007 -3.4090655 -1.6322896 -1.5951643 -1.1591823 -1.5795164
3.4400203 1.6014459 -1.6777483 1.9822136 -1.69984 1.2375247 -2.1731465 -1.681827
3.2285066 1.6391597 1.5231966 1.5786273 1.6568462 -1.6118523 -1.1631521 -1.9006187
-1.9964843 1.9989145 1.5976082 1.5387372 -1.550202 -1.5659584 -1.5628113 -1.1691828
1.1642022 2.72489 1.6191007 1.6032017 1.5255402 1.4507859 1.9008311 -3.3711722
-1.6115705 -1.5643988 1.5594281 1.9398893 3.0245912 1.534279 -1.7585834 -1.6339281
1.5377682 1.4959981 1.5947002 2.2896812 1.7410835 1.9274772 1.5419908 1.5812721
-1.5734876 1.8815374 1.5745198 1.1848313 -1.6160437 1.5363703 1.5952005 1.5853593
-1.5628195 1.563424 3.4575355 1.0233983 0.09080855 0.07810064 0.10064994 -0.008647314
1.1112784 0.033875577 -0.031946935 0.092181236 0.15904412 -0.07689198 0.08892634 0.09392032
0.06681116 0.04382143 0.08391468 0.0991445 0.038893055 -0.05304527 -0.090372235 -1.0167385
0.16705914 -0.18460654 -0.037749745 -0.05761894 0.022341805 0.10366367 -0.08909643 1.1006143
0.09955402 -0.06747854 0.09013148 0.11289123 1.2141603 -0.09325834 -0.096741095 -0.0785538
0.049436394 0.08708329 1.0779171 0.10608864 0.13045098 -0.080458775 -0.07797331 -0.030839559
0.05573164 -1.2792616 0.050141275 -0.37691098 0.14376384 -0.050823648 -0.0923494 -0.09416443
-0.048762385 0.03383007 1.0408237 0.029253151 -0.027017757 -0.05107101 -0.10662996 -0.097334936
0.0931512 0.11401991 0.110115364 0.9562447 -1.1151631 0.13787176 -0.053954322 -0.05453192
-0.092241764 0.32031244 -0.020136025 -0.15817864 0.067927584 0.11338427 -0.08843199 -0.03162522
-0.6142242 -0.09815395 0.04220867 0.07580844 -0.10747932 -0.22117124 -0.08342544 -0.08541431
-0.05036901 -0.043838255 -0.10351843 -0.09475837 0.10018055 -1.0297362 -0.09963456 -1.0005636
0.09768282 -0.09961778 -0.09619745 -0.09298261 0.09481436 -0.09304544 0.1182569 -1.6094764

fc3.bias f4 [2]
00000000: 6126 c43f c3a2 4dbc
1.5324212 -0.012551012

fc1.weight f4 [100, 22]
00000000: b2a9 9f3d c072 c8bb 9b0a c3bb 8248 42bc
00000010: 4a4a 11bc ee6b eebc dec8 efbc 8747 4dbc
00000020: e01c dfbc bb9c 0080 096d 0200 1f1b 0800
00000030: f147 0400 5f36 0c80 340d 0900 7aba 1280
00000040: 2b2d 0800 0c35 0580 5db2 0980 ecd6 1680
00000050: 8d1b 0a80 1cfb 2782 2ce7 0530 9005 49b0
00000060: a861 aeaf 6a96 02b0 1d4b 80af 9aee aeaf
00000070: 66d4 aeaf 2cbe a0af e830 b0af 588e 0100
00000080: 2e89 0e80 9e8a 1100 f242 1200 e243 0200
00000090: 7572 0a80 86a3 0d00 54ed 0b80 1442 1080
000000a0: 1148 0b80 dc98 1080 a430 1380 0f55 0c80
000000b0: f174 dfaa e463 2e2b 326c ac29 b847 012b
000000c0: 06d3 c62a c42c a82a d92f a82a 7728 a72a
000000d0: 420b a82a 8e48 1300 ac53 0080 b08b 1100
000000e0: da70 0a80 81a0 0780 a024 0180 89b5 0680
000000f0: ee23 0180 9845 0e00 7eb8 0080 bd0d 0c00
00000100: 2c11 1400 2b38 0800 aea9 9fbd bd72 c83b
00000110: 9b0a c33b 8148 423c 464a 113c e86b ee3c
00000120: d8c8 ef3c 8347 4d3c db1c df3c 4186 0580
00000130: f2c1 0900 3d41 0e00 c91a 1580 c855 0500
00000140: 794d 0c80 89ec 0700 1fd1 0e00 9bb5 0400
00000150: 3c34 1500 4e87 0800 5488 0280 9773 0780
00000160: 7d8b 1935 77db 8cb5 ac9b 99b3 9353 9ab5
00000170: fec4 09b5 ced7 64b4 eeea 64b4 0006 6db4
00000180: 4018 64b4 633b 0580 f87f 0f00 2d3a 0580
00000190: d05e 1700 3211 0100 d6cc 0300 8b25 1880
000001a0: 6537 1600 f754 0580 6b3d 0980 5339 1600
000001b0: 0503 0f00 b23c 1080 5d36 bb1c 7a2c 5e9c
000001c0: 46ea 559c d40f c79c 044c b09c f9d6 849c
000001d0: 4cda 849c 23c8 849c 7fb2 849c 063f 0a80
000001e0: 79b7 0980 cae2 0580 18e6 1500 7b69 0100
000001f0: b377 1280 c28a 0900 ec72 1300 4726 1980
00000200: 4682 0200 c262 1680 e292 1300 2e94 1480
00000210: bb2d ce2c bc5c 8cac f8e8 99ac c454 ffab
00000220: e26a 46ac 8a8e d5ac 8b8d d5ac 9837 bdac
00000230: 9668 d5ac 2de8 1380 146d 0900 820d 0500
00000240: 5cae 1000 4ab1 0080 b106 0300 a8d0 0380
00000250: 6b3b 0480 bb68 0a00 3625 0b80 506d 0800
00000260: 5791 0880 d43a e902 de1a fbb3 77b4 54b4
00000270: f82c 0b35 40d7 7db0 ddb7 65b3 da4f f3b2
00000280: 1adf eeb2 23ef d133 6990 a3b3 08de 1400
00000290: 3344 1000 4737 1100 7fc7 0e80 8c8e 1200
000002a0: d6de 0880 400e 0600 c9bb 0080 fa29 0600
000002b0: e551 1200 0822 0100 20d6 0780 b177 0b00
000002c0: ada9 9f3d ba72 c8bb 9c0a c3bb 8348 42bc
000002d0: 444a 11bc e86b eebc d8c8 efbc 8147 4dbc
000002e0: db1c dfbc c6f4 0100 8267 0b80 1943 0e80
000002f0: faa4 0e80 fdbf 1380 8151 1500 7da7 0b80
00000300: 3412 0f00 43ba 0f80 8ae0 1480 1aab 1480
00000310: 321a 0b80 ff50 0d80 afa9 9fbd bd72 c83b
00000320: 9b0a c33b 8248 423c 484a 113c ec6b ee3c
00000330: dbc8 ef3c 8547 4d3c df1c df3c 24eb 0080
00000340: 06b0 1580 ae2c 0580 a214 0e80 5ab0 1580
00000350: e3f2 0600 9f07 0500 eaf9 0e00 1e67 0780
00000360: 742e 0180 0cf4 0900 9f8e 0b00 54dd 0a80
00000370: afa9 9f3d b972 c8bb 9b0a c3bb 8348 42bc
00000380: 454a 11bc e96b eebc dac8 efbc 8247 4dbc
00000390: db1c dfbc d1b1 0600 174c 0900 e133 0580
000003a0: a12b 0280 c3b0 0500 2745 1600 4b27 0580
000003b0: dca2 0a00 4644 1100 5bb4 1780 a791 1500
000003c0: 985f 0080 988c 0300 aca9 9f3d b972 c8bb
000003d0: 9b0a c3bb 7f48 42bc 464a 11bc e76b eebc
000003e0: d7c8 efbc 7f47 4dbc d71c dfbc e051 0280
000003f0: 37ee 0c80 1853 0100 03a4 0a00 2cd1 0600
0.07796039 -0.006117195 -0.005952192 -0.0118581075 -0.00886781 -0.0291042 -0.029270586 -0.0125292605
-0.027235448 -5.6224e-41 2.22785e-40 7.44413e-40 3.9315e-40 -1.12153e-39 8.31256e-40 -1.719934e-39
7.50887e-40 -4.78207e-40 -8.90504e-40 -2.09748e-39 -9.28238e-40 -1.2341287e-37 4.8713633e-10 -7.313128e-10
-3.1719805e-10 -4.7507476e-10 -2.3336436e-10 -3.1819952e-10 -3.1801334e-10 -2.9238956e-10 -3.2048963e-10 1.42899e-40
-1.334908e-39 1.61093e-39 1.677054e-39 2.08023e-40 -9.59414e-40 1.252523e-39 -1.095328e-39 -1.493072e-39
-1.036043e-39 -1.524204e-39 -1.762323e-39 -1.132539e-39 -3.9693902e-13 6.1955844e-13 7.657103e-14 4.5929536e-13
3.5318292e-13 2.9873857e-13 2.9875996e-13 2.9693237e-13 2.9850607e-13 1.770902e-39 -3.0016e-41 1.611314e-39
-9.58838e-40 -7.00426e-40 -1.04974e-40 -6.16136e-40 -1.04725e-40 1.310662e-39 -6.6183e-41 1.106954e-39
1.84287e-39 7.54833e-40 -0.07796036 0.0061171935 0.005952192 0.011858107 0.008867806 0.029104188
0.029270574 0.012529257 0.027235439 -5.07339e-40 8.96094e-40 1.3091e-39 -1.938154e-39 4.8995e-40
-1.129818e-39 7.27701e-40 1.360715e-39 4.3249e-40 1.947284e-39 7.83222e-40 -2.32576e-40 -6.84314e-40
5.7199924e-07 -1.0494686e-06 -7.152934e-08 -1.1498217e-06 -5.132314e-07 -2.1312664e-07 -2.1319622e-07 -2.2074528e-07
-2.1242977e-07 -4.80481e-40 1.423439e-39 -4.80047e-40 2.146229e-39 9.8004e-41 3.48988e-40 -2.21752e-39
2.040253e-39 -4.89657e-40 -8.48552e-40 2.040945e-39 1.378616e-39 -1.491141e-39 1.2388675e-21 -7.3511123e-22
-7.077858e-22 -1.3172807e-21 -1.1666353e-21 -8.790596e-22 -8.791456e-22 -8.786761e-22 -8.781167e-22 -9.40964e-40
-8.92337e-40 -5.40534e-40 2.011088e-39 1.29675e-40 -1.695979e-39 8.76296e-40 1.7861e-39 -2.309619e-39
2.30404e-40 -2.055809e-39 1.797566e-39 -1.889867e-39 5.8599492e-12 -3.989335e-12 -4.3743863e-12 -1.8142367e-12
-2.8196824e-12 -6.069649e-12 -6.0695385e-12 -5.3778752e-12 -6.0654355e-12 -1.828163e-39 8.6565e-40 4.64023e-40
1.531916e-39 -6.36e-41 2.77907e-40 -3.50358e-40 -3.88657e-40 9.55925e-40 -1.023539e-39 7.73898e-40
-7.86822e-40 3.4270039e-37 -1.16929854e-07 -1.9809691e-07 5.1846973e-07 -9.234675e-10 -5.348544e-08 -2.8325235e-08
-2.7808301e-08 9.7758196e-08 -7.616547e-08 1.91636e-39 1.493833e-39 1.581033e-39 -1.357263e-39 1.704175e-39
-8.14622e-40 5.56125e-40 -6.7365e-41 5.66071e-40 1.682417e-39 1.04044e-40 -7.19662e-40 1.053128e-39
0.07796035 -0.006117192 -0.0059521925 -0.011858108 -0.008867804 -0.029104188 -0.029270574 -0.012529255
-0.027235439 1.79644e-40 -1.047322e-39 -1.309767e-39 -1.34488e-39 -1.813747e-39 1.957784e-39 -1.070274e-39
1.384062e-39 -1.44435e-39 -1.91726e-39 -1.89809e-39 -1.019588e-39 -1.222917e-39 -0.077960365 0.0061171935
0.005952192 0.0118581075 0.008867808 0.029104196 0.02927058 0.012529259 0.027235446 -8.4353e-41
-1.991691e-39 -4.75206e-40 -1.293099e-39 -1.991808e-39 6.38144e-40 4.61911e-40 1.375349e-39 -6.7984e-40
-1.085e-40 9.14067e-40 1.061353e-39 -9.97753e-40 0.077960365 -0.0061171916 -0.005952192 -0.011858108
-0.008867805 -0.02910419 -0.029270578 -0.012529256 -0.027235439 6.14801e-40 8.53815e-40 -4.77788e-40
-1.99322e-40 5.22588e-40 2.045188e-39 -4.73273e-40 9.76778e-40 1.585695e-39 -2.176916e-39 1.980796e-39
-3.4293e-41 3.25942e-40 0.07796034 -0.0061171916 -0.005952192 -0.011858105 -0.008867806 -0.029104186
-0.029270573 -0.012529253 -0.027235432 -2.13042e-40 -1.187481e-39 1.21644e-40 9.77191e-40 6.2605e-40

fc1.bias f4 [100]
00000000: e4ff ab3d 5944 bb2f fd4a aaaa e0ff abbd
00000010: d08e 7534 03dc 871c 5662 d22c b603 47b4
00000020: dfff ab3d e2ff abbd e0ff ab3d ddff ab3d
00000030: e1ff ab3d e2ff ab3d e3ff abbd e1ff ab3d
00000040: e1ff abbd e1ff abbd 85e9 8d17 e2ff abbd
00000050: 1d72 0080 45a5 49b1 dfff abbd 8c89 0400
00000060: 38d6 c8b0 a8ce ce8a e0ff abbd e4ff abbd
00000070: 540c ee96 dfff ab3d dcb9 6d16 208b b3b1
00000080: 44e0 e237 deff ab3d e2ff abbd e4ff ab3d
00000090: 9ee4 8c98 e55d 2990 6658 312e 3835 36a8
000000a0: d843 09a3 9879 9f24 3cfe 96a2 30a5 4da3
000000b0: cc04 1ab4 e4ff abbd e0ff ab3d e2ff abbd
000000c0: 45a9 1a15 dfff abbd e4ff abbd e0ff abbd
000000d0: dfff ab3d 0088 0f36 e3ff abbd e2ff abbd
000000e0: dfff abbd ddff ab3d e1ff ab3d dfff ab3d
000000f0: deff ab3d 2353 8a38 e1ff ab3d 70e8 3c1e
00000100: e4ff ab3d 724f 0421 e1ff ab3d e4ff abbd
00000110: e4ff ab3d e1ff ab3d 360a d69a e0ff ab3d
00000120: e3ff ab3d e2ff abbd e3ff abbd e4ff ab3d
00000130: e2ff ab3d e1ff abbd fed9 0a00 e2ff ab3d
00000140: 0caf 9422 aa0a 5d34 3a89 21a3 e1ff ab3d
00000150: e1ff abbd e4ff ab3d 6d6b 4ab4 e6ff ab3d
00000160: e1ff ab3d 7098 0033 e0ff abbd dfe6 0200
00000170: 8cde b133 e4ff ab3d e2ff abbd e5ff ab3d
00000180: 482e 74b5 e3ff abbd e2ff abbd e2ff abbd
0.08398417 3.4063666e-10 -3.02501e-13 -0.08398414 2.2869358e-07 8.990422e-22 5.9794765e-12 -1.8534669e-07
0.08398413 -0.08398415 0.08398414 0.083984114 0.083984144 0.08398415 -0.08398416 0.083984144
-0.083984144 -0.083984144 9.17086e-25 -0.08398415 -4.0936e-41 -2.9343294e-09 -0.08398413 4.16685e-40
-1.46128e-09 -1.9914814e-32 -0.08398414 -0.08398417 -3.8458754e-25 0.08398413 1.9203354e-25 -5.2254023e-09
2.7045731e-05 0.08398412 -0.08398415 0.08398417 -3.6419996e-24 -3.3401707e-29 4.0323654e-11 -1.01145695e-14
-7.441151e-18 6.9161246e-17 -4.0926763e-18 -1.1148052e-17 -1.4344113e-07 -0.08398417 0.08398414 -0.08398415
3.1233582e-26 -0.08398413 -0.08398417 -0.08398414 0.08398413 2.1387823e-06 -0.08398416 -0.08398415
-0.08398413 0.083984114 0.083984144 0.08398413 0.08398412 6.595838e-05 0.083984144 1.0000704e-20
0.08398417 4.4828485e-19 0.083984144 -0.08398417 0.08398417 0.083984144 -8.852482e-23 0.08398414
0.08398416 -0.08398415 -0.08398416 0.08398417 0.08398415 -0.083984144 9.96556e-40 0.08398415
4.030082e-18 2.0586108e-07 -8.756886e-18 0.083984144 -0.083984144 0.08398417 -1.8851797e-07 0.08398418
0.083984144 2.9940963e-08 -0.08398414 2.66492e-40 8.282686e-08 0.08398417 -0.08398415 0.083984174
-9.096443e-07 -0.08398416 -0.08398415 -0.08398415

fc2.weight f4 [100, 100]
00000000: 591d 54bc ca8d 1a2f f997 002a 531d 543c
00000010: a608 9634 fffd 809b ff59 a0ac 5e9d ea32
00000020: 521d 54bc 541d 543c 541d 54bc 501d 54bc
00000030: 551d 54bc 571d 54bc 581d 543c 541d 54bc
00000040: 561d 543c 551d 543c e8f6 8216 571d 543c
00000050: 1d10 0180 5ca1 e4b2 511d 543c f968 0480
00000060: e886 42ae b509 010c 521d 543c 591d 543c
00000070: 2b93 6c18 511d 54bc 57ba 0c96 18b6 bc31
00000080: 1904 7f37 501d 54bc 571d 543c 581d 54bc
00000090: 28c1 0997 f89a 1b8f c4f2 8d2c ecd4 cc27
000000a0: 76ac b6a1 4a83 f2a4 c5ad bc22 cffa 27a2
000000b0: 02f9 8eb4 591d 543c 531d 54bc 551d 543c
000000c0: 098a 6314 521d 543c 571d 543c 531d 543c
000000d0: 511d 54bc e834 d0b4 581d 543c 551d 543c
000000e0: 521d 543c 511d 54bc 541d 54bc 521d 54bc
000000f0: 521d 54bc 4481 e337 551d 54bc 8d70 f71d
00000100: 571d 54bc a2a9 2da0 541d 54bc 591d 543c
00000110: 571d 54bc 541d 54bc 7db8 531a 541d 54bc
00000120: 571d 54bc 571d 543c 581d 543c 571d 54bc
00000130: 541d 54bc 541d 543c 880a 0380 541d 54bc
00000140: 987a 8421 3e0d 29b3 c219 eaa2 541d 54bc
00000150: 541d 543c 571d 54bc 40e1 e7af 591d 54bc
00000160: 541d 54bc 1681 7ab1 531d 543c 6f1d 0480
00000170: 4006 f330 581d 54bc 561d 543c 591d 54bc
00000180: a437 0435 551d 543c 551d 543c 551d 543c
00000190: 451d 54bc c68d 1a2f fb97 002a 411d 543c
000001a0: 9f08 9634 0bfe 809b 015a a0ac 4c9d ea32
000001b0: 401d 54bc 431d 543c 411d 54bc 3f1d 54bc
000001c0: 441d 54bc 451d 54bc 471d 543c 441d 54bc
000001d0: 441d 543c 441d 543c eaf6 8216 461d 543c
000001e0: 3d51 0180 5ca1 e4b2 3f1d 543c 3ee2 0100
000001f0: 4886 42ae b109 010c 411d 543c 471d 543c
00000200: 3093 6c18 401d 54bc 80ba 0c96 12b6 bc31
00000210: 1304 7f37 401d 54bc 461d 543c 481d 54bc
00000220: 10c1 0997 ef9a 1b8f 98f2 8d2c f2d4 cc27
00000230: 64ac b6a1 4c83 f2a4 bead bc22 98fa 27a2
00000240: fdf8 8eb4 471d 543c 401d 54bc 431d 543c
00000250: f289 6314 3f1d 543c 471d 543c 411d 543c
00000260: 3f1d 54bc fa34 d0b4 451d 543c 441d 543c
00000270: 401d 543c 3e1d 54bc 441d 54bc 401d 54bc
00000280: 401d 54bc 3081 e337 411d 54bc b670 f71d
00000290: 451d 54bc 8ca9 2da0 431d 54bc 471d 543c
000002a0: 481d 54bc 411d 54bc 77b8 531a 411d 54bc
000002b0: 451d 54bc 461d 543c 471d 543c 461d 54bc
000002c0: 441d 54bc 441d 543c efe3 0380 431d 54bc
000002d0: 367a 8421 3a0d 29b3 c019 eaa2 431d 54bc
000002e0: 451d 543c 451d 54bc f0e0 e7af 491d 54bc
000002f0: 411d 54bc 5c81 7ab1 411d 543c 1b83 0900
00000300: 6005 f330 461d 54bc 431d 543c 491d 54bc
00000310: a837 0435 451d 543c 441d 543c 441d 543c
00000320: 4e1d 54bc c88d 1a2f f997 002a 491d 543c
00000330: 9c08 9634 0dfe 809b 025a a0ac 6e9d ea32
00000340: 481d 54bc 4c1d 543c 4b1d 54bc 451d 54bc
00000350: 4b1d 54bc 4d1d 54bc 4d1d 543c 4b1d 54bc
00000360: 4c1d 543c 4b1d 543c ebf6 8216 4f1d 543c
00000370: c5fb 0380 57a1 e4b2 461d 543c fc89 0b80
00000380: e485 42ae b409 010c 461d 543c 4e1d 543c
00000390: 2c93 6c18 481d 54bc 6fba 0c96 0eb6 bc31
000003a0: 1a04 7f37 461d 54bc 4f1d 543c 4e1d 54bc
000003b0: 20c1 0997 e79a 1b8f a0f2 8d2c eed4 cc27
000003c0: 68ac b6a1 4f83 f2a4 bfad bc22 adfa 27a2
000003d0: fef8 8eb4 4e1d 543c 491d 54bc 4c1d 543c
000003e0: 058a 6314 471d 543c 4e1d 543c 481d 543c
000003f0: 471d 54bc fc34 d0b4 4e1d 543c 4c1d 543c
-0.01294645 1.4056592e-10 1.142141e-13 0.012946445 2.794597e-07 -2.1339965e-22 -4.557465e-12 2.7312748e-08
-0.012946444 0.0129464455 -0.0129464455 -0.012946442 -0.012946446 -0.012946448 0.012946449 -0.0129464455
0.012946447 0.012946446 2.1158452e-25 0.012946448 -9.7616e-41 -2.6616071e-08 0.012946443 -4.04999e-40
-4.4230314e-11 9.94072e-32 0.012946444 0.01294645 3.0576586e-24 -0.012946443 -1.1367908e-25 5.492222e-09
1.52001385e-05 -0.012946442 0.012946448 -0.012946449 -4.4510885e-25 -7.671936e-30 4.0344134e-12 5.6852225e-15
-1.237845e-18 -1.0517318e-16 5.1141488e-18 -2.2765497e-18 -2.6630738e-07 0.01294645 -0.012946445 0.012946446
1.1487794e-26 0.012946444 0.012946448 0.012946445 -0.012946443 -3.8781513e-07 0.012946449 0.012946446
0.012946444 -0.012946443 -0.0129464455 -0.012946444 -0.012946444 2.7120703e-05 -0.012946446 6.549673e-21
-0.012946448 -1.4709797e-19 -0.0129464455 0.01294645 -0.012946448 -0.0129464455 4.3782806e-23 -0.0129464455
-0.012946448 0.012946448 0.012946449 -0.012946448 -0.0129464455 0.0129464455 -2.79284e-40 -0.0129464455
8.977118e-19 -3.9360422e-08 -6.34531e-18 -0.0129464455 0.0129464455 -0.012946448 -4.2178705e-10 -0.01294645
-0.0129464455 -3.6453165e-09 0.012946445 -3.77901e-40 1.7682353e-09 -0.012946449 0.012946447 -0.01294645
4.92548e-07 0.012946446 0.012946446 0.012946446 -0.0129464315 1.4056586e-10 1.1421413e-13 0.012946428
2.794595e-07 -2.1339995e-22 -4.557466e-12 2.7312716e-08 -0.012946427 0.01294643 -0.012946428 -0.012946426
-0.012946431 -0.0129464315 0.012946433 -0.012946431 0.012946431 0.012946431 2.1158457e-25 0.012946432
-1.20978e-40 -2.6616071e-08 0.012946426 1.72996e-40 -4.422976e-11 9.940715e-32 0.012946428 0.012946433
3.0576596e-24 -0.012946427 -1.1367959e-25 5.492219e-09 1.5200133e-05 -0.012946427 0.012946432 -0.012946434
-4.4510767e-25 -7.671929e-30 4.0343943e-12 5.685225e-15 -1.2378431e-18 -1.05173196e-16 5.114146e-18 -2.2765384e-18
-2.6630724e-07 0.012946433 -0.012946427 0.01294643 1.1487776e-26 0.012946426 0.012946433 0.012946428
-0.012946426 -3.8781565e-07 0.0129464315 0.012946431 0.012946427 -0.012946425 -0.012946431 -0.012946427
-0.012946427 2.7120666e-05 -0.012946428 6.5496896e-21 -0.0129464315 -1.4709768e-19 -0.01294643 0.012946433
-0.012946434 -0.012946428 4.3782787e-23 -0.012946428 -0.0129464315 0.012946432 0.012946433 -0.012946432
-0.012946431 0.012946431 -3.57274e-40 -0.01294643 8.977017e-19 -3.936041e-08 -6.345309e-18 -0.01294643
0.0129464315 -0.0129464315 -4.2178483e-10 -0.012946435 -0.012946428 -3.645332e-09 0.012946428 8.73551e-40
1.7682105e-09 -0.012946432 0.01294643 -0.012946435 4.925482e-07 0.0129464315 0.012946431 0.012946431
-0.01294644 1.4056589e-10 1.142141e-13 0.012946435 2.794594e-07 -2.134e-22 -4.5574664e-12 2.7312776e-08
-0.012946434 0.012946438 -0.012946437 -0.0129464315 -0.012946437 -0.012946439 0.012946439 -0.012946437
0.012946438 0.012946437 2.115846e-25 0.012946441 -3.65824e-40 -2.6616062e-08 0.012946432 -1.05969e-39
-4.4229412e-11 9.940718e-32 0.012946432 0.01294644 3.0576588e-24 -0.012946434 -1.1367938e-25 5.4922173e-09
1.5200139e-05 -0.012946432 0.012946441 -0.01294644 -4.4510845e-25 -7.671923e-30 4.034398e-12 5.6852233e-15
-1.2378435e-18 -1.05173216e-16 5.1141463e-18 -2.2765427e-18 -2.6630727e-07 0.01294644 -0.012946435 0.012946438
1.1487791e-26 0.012946433 0.01294644 0.012946434 -0.012946433 -3.878157e-07 0.01294644 0.012946438

fc2.bias f4 [100]
00000000: c814 8dbd bc14 8dbd c014 8dbd be14 8d3d
00000010: c514 8d3d c514 8dbd be14 8d3d c014 8d3d
00000020: c514 8dbd c014 8dbd be14 8dbd bc14 8d3d
00000030: be14 8d3d be14 8d3d be14 8dbd c014 8dbd
00000040: c514 8dbd c014 8d3d c014 8d3d be14 8d3d
00000050: be14 8dbd bb14 8d3d ba14 8dbd c014 8dbd
00000060: b414 8d3d b514 8dbd c014 8d3d c514 8dbd
00000070: c014 8d3d be14 8dbd c714 8dbd be14 8d3d
00000080: bc14 8d3d c014 8dbd c014 8dbd c014 8dbd
00000090: c014 8dbd be14 8d3d c014 8d3d ba14 8d3d
000000a0: be14 8d3d c514 8d3d be14 8dbd ba14 8dbd
000000b0: c714 8dbd ba14 8dbd bc14 8d3d bc14 8d3d
000000c0: c014 8d3d be14 8d3d be14 8d3d c414 8dbd
000000d0: be14 8d3d be14 8dbd c514 8d3d c014 8dbd
000000e0: be14 8d3d ba14 8dbd ba14 8d3d c014 8d3d
000000f0: bb14 8dbd c514 8dbd be14 8d3d c014 8dbd
00000100: c014 8d3d be14 8dbd be14 8dbd c514 8d3d
00000110: be14 8dbd c514 8d3d c014 8d3d aa14 8dbd
00000120: bc14 8d3d bc14 8dbd bc14 8dbd c514 8dbd
00000130: bc14 8d3d bc14 8dbd bc14 8d3d c014 8d3d
00000140: 7a71 15ba be14 8d3d c514 8d3d c014 8d3d
00000150: bc14 8d3d bb14 8d3d c014 8dbd b114 8dbd
00000160: be14 8d3d c014 8dbd c514 8dbd b514 8d3d
00000170: bc14 8d3d be14 8d3d c514 8d3d c014 8d3d
00000180: c514 8dbd c514 8d3d bc14 8dbd b314 8d3d
-0.06888729 -0.068887204 -0.068887234 0.06888722 0.06888727 -0.06888727 0.06888722 0.068887234
-0.06888727 -0.068887234 -0.06888722 0.068887204 0.06888722 0.06888722 -0.06888722 -0.068887234
-0.06888727 0.068887234 0.068887234 0.06888722 -0.06888722 0.0688872 -0.06888719 -0.068887234
0.068887144 -0.06888715 0.068887234 -0.06888727 0.068887234 -0.06888722 -0.068887286 0.06888722
0.068887204 -0.068887234 -0.068887234 -0.068887234 -0.068887234 0.06888722 0.068887234 0.06888719
0.06888722 0.06888727 -0.06888722 -0.06888719 -0.068887286 -0.06888719 0.068887204 0.068887204
0.068887234 0.06888722 0.06888722 -0.06888726 0.06888722 -0.06888722 0.06888727 -0.068887234
0.06888722 -0.06888719 0.06888719 0.068887234 -0.0688872 -0.06888727 0.06888722 -0.068887234
0.068887234 -0.06888722 -0.06888722 0.06888727 -0.06888722 0.06888727 0.068887234 -0.06888707
0.068887204 -0.068887204 -0.068887204 -0.06888727 0.068887204 -0.068887204 0.068887204 0.068887234
-0.0005700808 0.06888722 0.06888727 0.068887234 0.068887204 0.0688872 -0.068887234 -0.06888712
0.06888722 -0.068887234 -0.06888727 0.06888715 0.068887204 0.06888722 0.06888727 0.068887234
-0.06888727 0.06888727 -0.068887204 0.06888714

fc3.weight f4 [1, 100]
00000000: 2ab1 fdbd 14b1 fdbd 1db1 fdbd 19b1 fd3d
00000010: 23b1 fd3d 23b1 fdbd 19b1 fd3d 1cb1 fd3d
00000020: 23b1 fdbd 1cb1 fdbd 19b1 fdbd 15b1 fd3d
00000030: 19b1 fd3d 19b1 fd3d 19b1 fdbd 1db1 fdbd
00000040: 23b1 fdbd 1cb1 fd3d 1db1 fd3d 19b1 fd3d
00000050: 19b1 fdbd 0fb1 fd3d 10b1 fdbd 1db1 fdbd
00000060: 06b1 fd3d 08b1 fdbd 1db1 fd3d 23b1 fdbd
00000070: 1db1 fd3d 19b1 fdbd 27b1 fdbd 19b1 fd3d
00000080: 15b1 fd3d 1cb1 fdbd 1cb1 fdbd 1db1 fdbd
00000090: 1db1 fdbd 19b1 fd3d 1db1 fd3d 11b1 fd3d
000000a0: 19b1 fd3d 23b1 fd3d 19b1 fdbd 10b1 fdbd
000000b0: 27b1 fdbd 0fb1 fdbd 14b1 fd3d 14b1 fd3d
000000c0: 1cb1 fd3d 19b1 fd3d 19b1 fd3d 21b1 fdbd
000000d0: 19b1 fd3d 19b1 fdbd 23b1 fd3d 1db1 fdbd
000000e0: 19b1 fd3d 11b1 fdbd 10b1 fd3d 1db1 fd3d
000000f0: 0fb1 fdbd 23b1 fdbd 19b1 fd3d 1db1 fdbd
00000100: 1db1 fd3d 19b1 fdbd 19b1 fdbd 23b1 fd3d
00000110: 19b1 fdbd 23b1 fd3d 1db1 fd3d f0b0 fdbd
00000120: 14b1 fd3d 15b1 fdbd 14b1 fdbd 23b1 fdbd
00000130: 14b1 fd3d 14b1 fdbd 14b1 fd3d 1db1 fd3d
00000140: ac89 0ab9 19b1 fd3d 23b1 fd3d 1cb1 fd3d
00000150: 14b1 fd3d 0fb1 fd3d 1cb1 fdbd ffb0 fdbd
00000160: 19b1 fd3d 1cb1 fdbd 23b1 fdbd 08b1 fd3d
00000170: 14b1 fd3d 19b1 fd3d 23b1 fd3d 1cb1 fd3d
00000180: 24b1 fdbd 24b1 fd3d 12b1 fdbd 01b1 fd3d
-0.12387307 -0.123872906 -0.12387297 0.12387294 0.12387302 -0.12387302 0.12387294 0.123872966
-0.12387302 -0.123872966 -0.12387294 0.12387291 0.12387294 0.12387294 -0.12387294 -0.12387297
-0.12387302 0.123872966 0.12387297 0.12387294 -0.12387294 0.12387287 -0.123872876 -0.12387297
0.1238728 -0.12387282 0.12387297 -0.12387302 0.12387297 -0.12387294 -0.12387305 0.12387294
0.12387291 -0.123872966 -0.123872966 -0.12387297 -0.12387297 0.12387294 0.12387297 0.12387288
0.12387294 0.12387302 -0.12387294 -0.123872876 -0.12387305 -0.12387287 0.123872906 0.123872906
0.123872966 0.12387294 0.12387294 -0.123873 0.12387294 -0.12387294 0.12387302 -0.12387297
0.12387294 -0.12387288 0.123872876 0.12387297 -0.12387287 -0.12387302 0.12387294 -0.12387297
0.12387297 -0.12387294 -0.12387294 0.12387302 -0.12387294 0.12387302 0.12387297 -0.12387264
0.123872906 -0.12387291 -0.123872906 -0.12387302 0.123872906 -0.123872906 0.123872906 0.12387297
-0.00013211992 0.12387294 0.12387302 0.123872966 0.123872906 0.12387287 -0.123872966 -0.12387275
0.12387294 -0.123872966 -0.12387302 0.12387282 0.123872906 0.12387294 0.12387302 0.123872966
-0.123873025 0.123873025 -0.12387289 0.123872764

fc1.weight f4 [100, 24]
00000000: 6ed2 d7bc c2fe 6b3e 8eff 4dbb de82 10be
00000010: 277c 363d f3a5 e2bc 75db 333e a8a5 ccbd
00000020: 3d5c 9fbd 3646 4f3e d66f 13be c078 1fbb
00000030: d018 11be 60ef 15bc a842 10be 3864 803d
00000040: 85bf 0bbe e51f 22be 6ee4 0dbe 500e d23d
00000050: 6670 0dbe 37cc 2f3e 5e7f 873d fa17 523e
00000060: be09 073e e3f3 f33d 11c0 e23d 8e40 e1bd
00000070: c5b1 0ebe 320b 0bbe 2b8a 54be f501 55be
00000080: bc8e 9dbd c23f 093e 12d7 0c3e f8aa 8c3c
00000090: 84da 97bd 7280 04be f88a 873d 00d5 c73a
000000a0: 4caa 1e3e d805 95bc 68e6 58bd 060f 21be
000000b0: b01d e4bd 3b13 d43b f14f 183e b124 07be
000000c0: 7973 3b3e caad 61bd 7098 31be 1593 de3b
000000d0: ac72 513e d744 45bd a883 b1bd 9e6f 97bc
000000e0: 5012 c73d 5b37 4dbe 646a 053d 7021 fabc
000000f0: e0a3 6b3c f417 28bd 701a 94bd dc44 31bd
00000100: 9cab 66bd 4cd6 09be 5828 31be d6de 4fbe
00000110: a498 abbd 19e2 ddbd 60fa d5bd e461 f73d
00000120: 77ab cc3d c33a 12be 87f8 e03c 6d50 0cbe
00000130: 59ae 2a3c a246 0f3e 90a3 19be 7f7c d6bd
00000140: 4cf2 7dbd 2a86 30be 92d2 243e 8a49 3f3e
00000150: 420b 4bbe b4d3 d93d b676 323e a833 4cbd
00000160: d038 c4bc cca6 8c3d 2420 c23d 7cc5 153e
00000170: 8860 933d ff72 48bd d131 1cbe 627b 28bd
00000180: fc77 2ebd 31aa 223d f959 c83c cc03 7a3d
00000190: 41ee f3bd 55a2 f4bd 0ef5 4fbd c2d0 49be
000001a0: 59cc d6bd e119 29be 208f 45be 1072 f1bc
000001b0: 24b7 303e 50bd 64bc 80ee c2ba 900d 0ebc
000001c0: 6055 d6bb b641 1e3e f8f3 88bd 1ecd e0bd
000001d0: e2c7 3c3e 15d5 0fbd f504 8f3d 0cc6 1f3e
000001e0: 6fa3 c5bd 2098 d8bd 5726 09be c895 34be
000001f0: 0804 983d d76c 3dbe 25ce f1bc 4299 983b
00000200: 042e 513d 108b 973d 8494 303e be9a 9ebd
00000210: a2ae 30be 803c ce3c 942d 193e 68b3 ddbc
00000220: 526a 243e a6a4 c5bd 408c 94bd 58ea 81bd
00000230: 1cd3 83bd 8d67 d33d 7d43 af3c aa69 c7bc
00000240: e003 61be 11af 783c 172b d0bd 9c03 2cbe
00000250: 0ddf b23c 885f 253e 4cf3 09be 3277 18be
00000260: 692a d83d 684c 3b3e a3f9 45be aa91 0ebe
00000270: d44a 4d3e f621 1e3e 909f ee3c a4c4 df3d
00000280: 2859 b23c c539 f1bd 04ce f0bd c634 313e
00000290: 908c 253c f974 793d 373f b83d 0244 8339
000002a0: 4fcf cd3d efc2 b63d df8b 1fbe 0b8a 37bc
000002b0: aa7b 1d3e 0929 493c a807 143e 3ad6 233e
000002c0: 413e 3a3d 9b4b e8bd f885 963d 604e a73d
000002d0: a043 39bc 7cf7 273e d515 a3bd 008e 043d
000002e0: cbbe 1bbe 88f0 eebd 3da5 b2bd a065 5bbd
000002f0: e795 32be 22f7 9b3d d93f a5bd cfd2 e2bd
00000300: ce32 c5bc 56e8 cb3d 1a88 853d a3b3 003d
00000310: 00d2 553d 00d1 bc3d 4414 5a3c 3a42 c83d
00000320: 21f7 943d aef8 393e f278 323e a881 463d
00000330: 602b 35bd 2f14 39be 9c00 08bd de6b 503e
00000340: 8085 223e 9a43 243e c4f6 99bd b82f fabc
00000350: 8856 003e 6506 c5ba 4081 d93c 76e6 bfbd
00000360: d0aa b8bd db2d 473d a775 bf3b 0d1f f93d
00000370: 2f47 30be 4c84 db3d 31bd 073e 579d 193e
00000380: bd9f 8fbc 9834 00bd 00b7 423e 091f fcbd
00000390: e807 ba3d df23 41be 8086 ed3b b035 473d
000003a0: 80b3 573d 6f94 05be da8c efbd 38d9 ad3d
000003b0: aaa7 103e 10b4 9c3c e380 d0bb 3a96 30be
000003c0: db59 d7bd 7e83 a13c 5f76 793d 6fb6 103e
000003d0: 7aad 05be 0887 30be b552 05be 0979 6fbe
000003e0: e91e 01be bcfe 7cbd 98b2 ba3c 02d9 bbbd
000003f0: c023 7c3c 08b2 053e 10d3 6e3d acf2 2dbd
-0.026345458 0.23046401 -0.003143284 -0.14112422 0.044551995 -0.027667021 0.17564185 -0.09992534
-0.07781265 0.20241627 -0.14398131 -0.0024333447 -0.14169621 -0.00915131 -0.14087927 0.06269115
-0.13647278 -0.1583248 -0.1385667 0.10256636 -0.13812408 0.17167746 0.0661609 0.20516959
0.1318731 0.11911752 0.1107179 -0.10998641 -0.13935001 -0.1357849 -0.20755832 -0.20801528
-0.0769324 0.13403228 0.13753918 0.017171368 -0.074147254 -0.12939623 0.06618303 0.0015245974
0.1549465 -0.018191263 -0.052954108 -0.15728387 -0.11138475 0.006472019 0.14874245 -0.1319759
0.18305768 -0.05509738 -0.17343307 0.006792436 0.204539 -0.048161354 -0.086676896 -0.01848584
0.0972029 -0.20040648 0.032572165 -0.030533522 0.014382333 -0.04103847 -0.07231605 -0.04327856
-0.056316003 -0.13460654 -0.17300546 -0.20299849 -0.08378723 -0.1083414 -0.10448146 0.12079218
0.09993642 -0.14280228 0.027462257 -0.13702555 0.010417544 0.13991788 -0.150038 -0.104729645
-0.06199865 -0.1723868 0.16095951 0.18680397 -0.19828513 0.10636082 0.17428097 -0.04985395
-0.023952872 0.068677515 0.094787866 0.14626116 0.07196146 -0.048937794 -0.15253378 -0.041133292
-0.042594895 0.03971309 0.024456965 0.061038777 -0.11910678 -0.11945025 -0.05077081 -0.19708541
-0.10488195 -0.16513778 -0.19292879 -0.029473335 0.17257363 -0.013961151 -0.0014872104 -0.008670226
-0.006540939 0.15454754 -0.06687158 -0.10976623 0.18435624 -0.03511532 0.06983367 0.15602893
-0.09650313 -0.105758905 -0.13393532 -0.17635262 0.07422644 -0.1849855 -0.029517243 0.0046569416
0.051069275 0.07399571 0.17244154 -0.077443585 -0.17254117 0.025175333 0.14958793 -0.027063087
0.16056183 -0.09650545 -0.07253313 -0.06343526 -0.0643675 0.10322485 0.021394486 -0.024342377
-0.21974134 0.015178458 -0.10164469 -0.16798252 0.021834875 0.16149724 -0.13471717 -0.1488922
0.10554964 0.18290865 -0.1933351 -0.13922754 0.20048076 0.15442643 0.02912882 0.10926178
0.021771029 -0.11778597 -0.11758044 0.17305288 0.0101043135 0.06090257 0.08996432 0.00025036937
0.100493066 0.089238994 -0.155807 -0.011202346 0.15379205 0.01227785 0.14456046 0.1599969
0.045469526 -0.113425456 0.07349771 0.08169246 -0.011307627 0.16403002 -0.079631485 0.032361984
-0.152095 -0.116669714 -0.08722923 -0.053563714 -0.17439996 0.07615496 -0.080688186 -0.11075365
-0.024072077 0.09956424 0.065201 0.031421315 0.052202225 0.09219551 0.013310496 0.09778257
0.072736986 0.1816127 0.1742895 0.048463494 -0.04423082 -0.18074106 -0.033203706 0.20353648
0.15871239 0.16041413 -0.0751777 -0.030540332 0.12533009 -0.0015031813 0.026550889 -0.09370129
-0.09016955 0.048627716 0.0058428827 0.121641256 -0.17214654 0.10718593 0.13255765 0.15001427
-0.017532224 -0.031300157 0.19015121 -0.12310607 0.09083539 -0.1886134 0.0072486997 0.048635185
0.05266142 -0.13044904 -0.11696787 0.08488697 0.14126459 0.01912883 -0.0063630207 -0.17244807
-0.105151854 0.01971602 0.060903903 0.14132093 -0.13054457 -0.1723901 -0.13019831 -0.23386015
-0.12609448 -0.06176637 0.022790238 -0.0917225 0.015389383 0.13056195 0.058306754 -0.042467758
