gail/save_model/0/SUB031_ckpt_21.pth.tar (torch_old, 154741 bytes, 16 tensors)

fc1.weight f4 [100, 22]
00000000: e609 f03d b8a9 06bf 11e0 663e 86d7 c33d
00000010: c709 403e 3c7a a1be 5ca8 02bf eda7 90be
00000020: cff6 77be 4c25 023e 003e 8ebc 3886 2e3e
00000030: 4eb4 d8bd 184a e23c 9825 4dbe c06f 223d
00000040: 7025 723d 4033 0fbc 78f1 333d bc58 cd3d
00000050: dc39 e33d 2212 293e 3633 cd3e b9fd 5ebe
00000060: 2e7a dbbd af85 0e3e 650b c43e a9fc 5ebe
00000070: 8f24 09be 75ff 333d 04b0 2cbe 60a0 82bc
00000080: 80ca d93d 428d 403e 8245 3fbe 08aa 563d
00000090: c87c 253e 885d 423d e0f2 743d 8098 4abe
000000a0: 60d8 13bd e859 d7bd 4c4c 0a3e c495 50be
000000b0: 1319 8b3e 0b27 81bd d224 1e3d 59dc a9bd
000000c0: 9ee1 993d 91a3 b0bd fe41 95be 69af 30be
000000d0: 5a98 ef3c f4e6 823d 80e2 423d e2fd 343e
000000e0: 2aac 90bd e061 00bd 386a f13d f2de 593e
000000f0: b48a 903d 702e 3f3d 2bd9 cdbd 00e4 5a3c
00000100: 0899 e8bc 707d b63c c01f d33d 4961 dabd
00000110: 7363 4e3e 4fec 94bd ccf3 e5be 0412 c1be
00000120: f37c 11bd f75d 5ebe 7b06 54be 01da dabd
00000130: 33e9 1abe c8ad 403d 1ac7 463e 45c5 ebbd
00000140: 808b c0bd b850 243e 7c20 8a3d 961e 3c3e
00000150: 3081 b13c 5c39 07be 3e95 283e c202 4d3e
00000160: f804 5a3e b085 f6bd 3879 cebe af10 b1be
00000170: c183 883d 1d06 b43d dd33 833d 8865 42be
00000180: bd5f 163e 24fa f9bd 820d 0b3e e06a ae3b
00000190: 20b2 ac3d 888f b9bc 6854 bc3d 7659 283e
000001a0: edcf 41be 04e5 043e 28a2 423e 8c7a fa3d
000001b0: b053 d03d 2465 3abd 4d9a 82be c3d6 35be
000001c0: bac1 0c3e eda1 53be 6b0b fe3d bb88 cc3e
000001d0: 7d34 e83d bfca be3e b725 963e 0c99 f63d
000001e0: 487b 25bd ba00 a4bd a8b9 24bd a814 703d
000001f0: 902a 173d 588b 543e 0467 453e dc31 033d
00000200: b850 0abd 94d6 07bd 8032 6ebd b81f ed3d
00000210: 70cc 40be e832 763e 6c9a c3be d64d f73c
00000220: 446d 033f 52af 0bbe aefa 4cbd aa84 0fbe
00000230: 16ff 993d 8093 c03a 4cbd b63d 342d bd3d
00000240: 50d3 b03d c7cf 02be 12a7 093e 00fa 77bd
00000250: 2c53 57bd d054 a33c 2a1e 173e 3e4a 1c3e
00000260: c89a 9cbd 403c 893b 283c 96be dc3d 0f3e
00000270: 27b0 fa3d 04c8 923e 7d53 ddbd f23a 963e
00000280: 6b44 0c3f 3cb6 043f db7c b53e 2045 303c
00000290: 6469 d23d d4ac 13bd cb67 e9bd a4c0 a73d
000002a0: b056 dc3d 96a3 0f3e 90b3 243d cb31 e2bd
000002b0: 58ee 69bd b0e6 093e 9c95 ae3d b4a8 54bd
000002c0: ecc4 dabd ad30 073e 6ac2 783d e121 b63e
000002d0: d8f4 1a3e 891c bf3e a1d8 b83c 7c4a c03e
000002e0: b11c ba3e 5890 033e ec6e 443e c08f 013b
000002f0: 27be 2cbe d8c9 973c b9b8 58be 08d4 063d
00000300: dec1 0fbe 045e f63d c46a e23d 14c8 41bd
00000310: d033 e9bd 9783 fcbd f766 543e 5c7f e23d
00000320: 72bf 703e 2df3 813d 1eca eabe 9022 7dbb
00000330: 8684 10be b8d4 a1bd 3c95 6cbe 38ec 2dbe
00000340: 1c9c 4d3e 3869 b5bd 3408 413e 73e1 31be
00000350: 30c1 1c3d 4c28 493e ced6 56be 86ef 38be
00000360: 415d 1cbe 881b fbbc f030 533d f635 48be
00000370: 780c 04be 0710 103d 81fb a03b 1fac 443e
00000380: 9076 853d 4352 4e3e f264 c53d d646 263e
00000390: ff64 423e 986b 91bd 6d15 38be 947b 213e
000003a0: 6840 af3c 6ca1 f83d cc89 0b3e 4ca5 473e
000003b0: 051b 31be ff48 c4bd a8a7 6c3d a843 29bd
000003c0: 8868 ef3d 202c 83bc 7d94 943c f6e5 16bf
000003d0: 6222 003e 409f 973e 925f f53d a641 93be
000003e0: f65c 0cbf 2ab8 01bf 6042 f6be f475 8c3d
000003f0: 52f6 4bbe 921a 0f3e 50b4 403d 14b5 073d
0.11720638 -0.5260272 0.22546412 0.09562592 0.1875373 -0.3153857 -0.51038146 -0.28253117
-0.24215244 0.1270954 -0.017363548 0.17043388 -0.105812654 0.027623221 -0.20033872 0.039657354
0.059117734 -0.008740246 0.043931454 0.1002669 0.1109502 0.16510823 0.40078133 -0.21776475
-0.10716663 0.13918184 0.38289943 -0.2177607 -0.13392852 0.043944795 -0.1686402 -0.015945613
0.10634327 0.18803886 -0.18678859 0.05240825 0.16160882 0.04745248 0.059801936 -0.19784737
-0.036095023 -0.10515195 0.13505667 -0.20369631 0.27167568 -0.06306275 0.038609333 -0.08293981
0.07513736 -0.08624948 -0.2915191 -0.17254414 0.029247452 0.06391707 0.04757929 0.17674974
-0.07064088 -0.03134334 0.11787838 0.21276453 0.070577055 0.046675146 -0.10051187 0.0133600235
-0.028393283 0.02227661 0.1030879 -0.10663087 0.20155124 -0.07271635 -0.44912565 -0.37709057
-0.03551955 -0.21715532 -0.20705597 -0.10686112 -0.15128021 0.04704073 0.19411889 -0.115122356
-0.094016075 0.16046417 0.06744477 0.18371043 0.021668047 -0.13205475 0.16463181 0.20020583
0.21290958 -0.120372176 -0.40326858 -0.3458304 0.06665755 0.087902285 0.064063765 -0.18984044
0.14684959 -0.12205914 0.13579372 0.005322799 0.08432412 -0.022651449 0.09195787 0.16440377
-0.18926974 0.12977988 0.1900717 0.12230405 0.10172212 -0.04550661 -0.25508347 -0.17757706
0.13745776 -0.20667239 0.124045216 0.39948067 0.11338136 0.37264058 0.2932565 0.1204091
-0.040400773 -0.08007951 -0.040216118 0.05861345 0.036905825 0.2075628 0.19277579 0.03202997
-0.033768386 -0.033163622 -0.05815363 0.115783155 -0.18827987 0.24042857 -0.38203752 0.030188482
0.513386 -0.13641098 -0.050043754 -0.14015451 0.07519357 0.0014692396 0.08922824 0.092371374
0.08634055 -0.12774573 0.13442639 -0.060541153 -0.052569553 0.019937903 0.147576 0.15262696
-0.0764671 0.0041880906 -0.2934277 0.13988441 0.1224063 0.28668225 -0.1080694 0.29341847
0.547919 0.5184057 0.3544682 0.010758668 0.10274008 -0.036053494 -0.1139675 0.0819104
0.10758722 0.14027247 0.040210307 -0.110446535 -0.057112068 0.13466907 0.085246295 -0.0519187
-0.10682091 0.13202162 0.060732283 0.35572723 0.15132463 0.37326458 0.022564234 0.37556827
0.36350015 0.12848032 0.19182938 0.001976952 -0.16869412 0.018528864 -0.21164216 0.032917053
-0.14038798 0.12029651 0.1105552 -0.04730995 -0.113868356 -0.12329786 0.20742403 0.11059448
0.2351053 0.0634521 -0.45857328 -0.0038625337 -0.14113054 -0.07901901 -0.23103803 -0.16984642
0.20079082 -0.088579595 0.18850785 -0.17371158 0.038270175 0.19644278 -0.20980379 -0.18060121
-0.15269949 -0.030652776 0.051560342 -0.19551834 -0.12895381 0.035171535 0.004912794 0.19206284
0.065167546 0.20148568 0.096383944 0.1623796 0.1898384 -0.071006 -0.17976923 0.15769798
0.021393016 0.12140164 0.13626784 0.1949665 -0.17295463 -0.095842354 0.057777077 -0.041324288
0.1168986 -0.016012251 0.018137211 -0.5894464 0.12513116 0.29613686 0.11981119 -0.28761023
-0.5482935 -0.5067164 -0.48097515 0.06858435 -0.19918182 0.1397498 0.04704696 0.033131674

fc1.bias f4 [100]
00000000: 39e0 d53e 5ea1 cc3d 4ced 713e 0150 9b3d
00000010: 73d4 153d 5b02 d7be 3dda acbd 1a9f 99be
00000020: 85ac 9abe 8383 203e e393 f8bd 69b6 973e
00000030: a2d6 d43d 3b97 4f3d 3982 a13e 1479 103e
00000040: a955 773d 8f04 3dbe 3157 863e 7616 b3be
00000050: eaad de3e 65d5 bbbe 8477 67be a1f2 103e
00000060: d687 cb3e 33db e0be c120 713e 3068 11bf
00000070: 4c53 073f 6b3f 84bd 0f7c 2fbe 60da bf3e
00000080: 3826 92be 495f 4fbd 3efe 013f 8f66 13bf
00000090: e4bb ea3b d289 9bbd 7dc3 d9be 1c11 ad3e
000000a0: 9a01 70be a007 d0bc 3ccf 84be a359 6e3e
000000b0: b4dc ba3e 3347 86be 5d8d 59be 352e de3d
000000c0: e447 933e 4259 3cbe 39b5 1c3e f3b5 de3d
000000d0: 74f4 ecbe a637 a8be 4a61 1b3e 513e 91be
000000e0: a9a8 263e 88e8 acbe a2da cc3d f5c6 9b3e
000000f0: 17c1 5dbe 4ab4 803e 1238 b7be ee57 a93d
00000100: a475 8ebe a234 d938 fc5e 7d3e ed6c 32be
00000110: 30e9 b63d 5f4c a23e 77da f1be 9b40 d53d
00000120: aea8 633e 2c91 253f 3f38 2b3e a279 41be
00000130: 4b38 873e cd6a 183f a650 cb3d 4607 0fbf
00000140: cd24 09bf bce4 b03d 7335 c33c 77ef f73e
00000150: 14ba 1dbe 976c f5bc e6e4 323e dbc0 973d
00000160: 2b23 f2bd c6ed cb3e bee0 023c ee31 90be
00000170: 69f9 4bbd e228 4e3e 26b8 053d 867f 7b3d
00000180: f38a c8be fd3c 743c de45 d63e 5264 6c3e
0.4177263 0.09991716 0.23625678 0.07583619 0.03657956 -0.41993985 -0.08440063 -0.30004197
-0.30209747 0.15675168 -0.12137582 0.29631355 0.103925005 0.050681334 0.31544665 0.14108688
0.060384426 -0.1845877 0.26238397 -0.34978074 0.4349206 -0.36686245 -0.22604185 0.14155056
0.39752072 -0.43917236 0.23547651 -0.567996 0.52861476 -0.064574085 -0.17137168 0.37471294
-0.28544784 -0.05062798 0.5077857 -0.57578367 0.0071635116 -0.075946465 -0.42531958 0.33802116
-0.23438111 -0.02539426 -0.25939357 0.23276381 0.36496508 -0.26226196 -0.21245332 0.10848657
0.28765786 -0.18393424 0.15303506 0.10874548 -0.46280253 -0.32854956 0.15173832 -0.28367856
0.16275276 -0.33771157 0.100026384 0.3042523 -0.21655689 0.2513755 -0.35784966 0.082687244
-0.27824128 0.0001035717 0.24743265 -0.17424364 0.08931196 0.31698892 -0.47236988 0.10412713
0.22232315 0.6467464 0.16720675 -0.18894055 0.26410136 0.59537965 0.09927492 -0.55870473
-0.5357178 0.086373776 0.023829198 0.48424885 -0.15403014 -0.029959006 0.1747013 0.07409831
-0.11823114 0.39829844 0.007988153 -0.28163093 -0.049798403 0.20132783 0.03264632 0.061400913
-0.3916851 0.014907119 0.4185018 0.23085144

fc2.weight f4 [100, 100]
00000000: f062 3d3d 3dd8 8b3d f238 8d3e b3fb 2ebc
00000010: 7f5e d3be 588e abbe b8e5 1b3e 6358 a5be
00000020: 9f90 f8be aa65 513e 0b4a 8abc 1d80 d63d
00000030: a535 f1bd 39d0 8f3e e73a 053f da58 013f
00000040: 31cf 45be eb4d b7bd 9859 8f3e 6f90 a1be
00000050: c161 f83e 1dd1 f9be 7d71 67be e0a1 1cbd
00000060: d444 f63e 7235 f3bd 78e1 ddbc 2d6f c8be
00000070: cc75 333e 7f50 463e 869d 0cbf 3a36 df3e
00000080: 2ee7 cebe f6da dd3d 21ac 9a3e 6f6b 0cbf
00000090: 8e0f 0dbd 7f0a 7f3e 1ab8 afbe f593 7d3e
000000a0: 9ac3 32be b000 c5bc 77dc fbbe b037 adbd
000000b0: a471 ec3e 8f71 553c 1ad9 66be a440 86be
000000c0: d9b1 bc3e 226e a4be bc22 bb3e f714 6dbe
000000d0: 5a82 95be 285f 9ebe c2b8 d73e c8bd f4be
000000e0: ab55 c3bd e260 c6be 0480 833e 4f1b 363e
000000f0: 5d61 4a3d a8fc 7f3e d638 81be faf1 1c3e
00000100: 7829 0cbe 1740 413e b419 45be c02e adbe
00000110: e966 c3bc 06dc b73e 12c2 b1be 8d74 453e
00000120: 387b 2a3f ef7e 133d 99e4 83be 7757 96be
00000130: eb7a 683e 32fe d83e 80cd 8bbd dc4d 03be
00000140: 0d5d 03be e107 16be 8666 8c3e a1aa cd3e
00000150: 3aeb 18bf ca0a 14bd 3f8f aa3d 77e3 923e
00000160: cd81 1dbf 5616 3a3e 067b a8bd 4145 173c
00000170: 5994 8bbe b54d ef3e 43a3 a63d c23e 383e
00000180: afb9 3dbd 14ff 1e3e aebb 713e ecbf e83e
00000190: 13fc 003e f8db c83c f922 b13e 2312 07be
000001a0: a565 6dbe 9b34 b9be a8b0 3d3e b4be b2be
000001b0: be3e f7be c2fd 833e 7e00 093d 2cf1 243d
000001c0: 6820 023d b899 993e fc35 cc3e d9d1 e43e
000001d0: b439 aebe cecc 4ebd 5f11 d53e c1d3 d7be
000001e0: b233 213f 459e d3be 3fa2 50be de01 33bd
000001f0: f202 e13e cc10 b2bc a894 87bd 1d27 9fbe
00000200: e764 3f3e d994 3f3e a1ee ccbe 7074 013f
00000210: 58e2 73be e6f8 093e d96b e13e cad2 f6be
00000220: 7115 b83d f70f ca3e 9175 b8be d368 333e
00000230: 1667 84be 5ad7 423b f127 d5be 9701 f7bd
00000240: 74f3 f03e 7ca2 5fbd 7b49 0bbe e8fa 88be
00000250: 7d66 6d3e ec7f 9fbe ff85 ce3e 8585 9abe
00000260: f971 cfbe e5af 7dbe ca7d 953e b8e0 aebe
00000270: e133 1abe 99cc acbe a187 703e 7429 443e
00000280: 275b 3b3e e184 783e b774 8cbe 5aa9 2b3d
00000290: 6808 29be 6ddd 263e e168 2ebe 6379 86be
000002a0: c08a b33c 879c eb3e eef3 7cbe b9c1 383e
000002b0: 6827 133f 5be0 28bd 0fd0 20be 1724 c7be
000002c0: 1be3 083e f0b3 fb3e 63db 80bd 0abf 89be
000002d0: 8995 d6bd 41f2 6ebe f693 2a3e 0f94 d53e
000002e0: cd0f adbe 2788 d23a c6f6 153d 66cc 493e
000002f0: dd96 dfbe 148c 853e 44e2 50be f0ff 4c3d
00000300: e138 84be d008 da3e b337 c4bb b687 8b3e
00000310: 7d5d e3bd 6503 9d3b e383 9e3e 3813 e43e
00000320: d5ce 7c3e 08cc 4f3d f256 1c3e 3401 cb3e
00000330: c612 09be 4f0b aabd f66c d2be a980 0a3d
00000340: 9d69 98bc 165c 8d3e 6fa8 08be 1db3 7a3e
00000350: 3882 113f 78cd 2ebe c023 b23d 7e61 323e
00000360: 5dff f83c b4a5 393e d972 5f3e d93b ecbd
00000370: f75c 173e c317 1abe 8a55 38bd ae6f bd3d
00000380: 0398 013e b348 343e 6909 843e 8706 e9bd
00000390: 017f b83e 9b77 d8be 3dba 7d3d de7e 8c3e
000003a0: 21aa 063d 0e1e cbbc 9714 6b3d 5187 09be
000003b0: 0a91 c2bb 2aad 36be 2232 d53d f5b3 593e
000003c0: 91aa 08bd 9b0a b8be 5aa6 3fbd 799d 20be
000003d0: 8e6d 393e 17de d2be 751e 69be 05e6 1fbe
000003e0: 8bd7 4c3e cf16 49be 2787 803e 15cf 3a3e
000003f0: 1d5c 79be 0cd0 6cbe 880b e43c cbb6 793d
0.046236932 0.068283536 0.27582508 -0.010680127 -0.41283032 -0.33507037 0.1522435 -0.32293996
-0.48547837 0.20448938 -0.01688101 0.104736544 -0.1177781 0.2808855 0.52043 0.505262
-0.19317318 -0.089504085 0.27998042 -0.31555507 0.4851208 -0.48792353 -0.22601886 -0.038240314
0.48099387 -0.11875428 -0.027085051 -0.3914732 0.17525405 0.19366644 -0.5492786 0.4359606
-0.4041075 0.10832779 0.3020945 -0.5485143 -0.034438662 0.24906348 -0.34320146 0.24763472
-0.17457429 -0.02404818 -0.4919164 -0.08457887 0.4618045 0.013027563 -0.22543755 -0.26221192
0.36854437 -0.32115275 0.36549938 -0.23152529 -0.29201013 -0.30931973 0.42133147 -0.47801042
-0.09537824 -0.3874579 0.25683606 0.17783855 0.04940926 0.24998724 -0.25238675 0.15326682
-0.13687694 0.18872105 -0.19248086 -0.3382473 -0.023852782 0.35910052 -0.34718376 0.19282742
0.66594267 0.036009725 -0.25760344 -0.29363605 0.2270314 0.42381436 -0.068263054 -0.1282267
-0.12828465 -0.14651443 0.2742197 0.40169242 -0.5973393 -0.0361431 0.08328103 0.28689167
-0.61526185 0.18172583 -0.0822659 0.00923282 -0.27261618 0.46738973 0.081366085 0.1799269
-0.04631966 0.15526992 0.2360675 0.45458925 0.12596159 0.024518952 0.34596995 -0.13190512
-0.23183306 -0.36172947 0.1852442 -0.3491112 -0.48290056 0.2577954 0.033447735 0.040269062
0.031769186 0.3000009 0.39884937 0.4469135 -0.340284 -0.050488286 0.41614816 -0.42153743
0.62969506 -0.41331688 -0.20374392 -0.043702953 0.4394756 -0.021736525 -0.06620151 -0.3108453
0.18690835 0.18709125 -0.4002581 0.50568295 -0.23816812 0.13473853 0.44027594 -0.48207694
0.089884646 0.39465305 -0.36027196 0.17520456 -0.25859898 0.002973041 -0.41632035 -0.1206085
0.4706074 -0.054598317 -0.1360225 -0.26753926 0.23183627 -0.31152284 0.40336606 -0.30179992
-0.40516642 -0.2477413 0.29197532 -0.34155822 -0.15058853 -0.33749846 0.23489238 0.19156438
0.1829649 0.2426944 -0.27432796 0.041909553 -0.16507113 0.16295405 -0.17032196 -0.26264486
0.021916747 0.46017858 -0.24702427 0.1804265 0.57482004 -0.041229587 -0.15704368 -0.38894722
0.13367884 0.4916072 -0.06291845 -0.26903564 -0.1047774 -0.233346 0.16658005 0.41714522
-0.33801118 0.0016062305 0.036612295 0.19706878 -0.43669787 0.26083434 -0.20398813 0.05004877
-0.25824645 0.42584848 -0.005988085 0.27251977 -0.11101816 0.0047916644 0.30959997 0.44545913
0.24688275 0.05073169 0.15267542 0.39649355 -0.13386068 -0.08302938 -0.41098756 0.033814106
-0.018605048 0.27609318 -0.13345502 0.24482389 0.56839323 -0.17070568 0.08698225 0.17420003
0.030395204 0.18129617 0.21821155 -0.115348525 0.14781557 -0.15048127 -0.04500345 0.09249817
0.12655644 0.17605858 0.2578843 -0.11378198 0.36034396 -0.42278752 0.06194519 0.27440542
0.03287709 -0.024794605 0.057392683 -0.13430525 -0.0059377 -0.17839494 0.10409953 0.21260054
-0.03336579 -0.3594559 -0.046789505 -0.15685071 0.18108198 -0.41185066 -0.22765525 -0.15615089
0.20004098 -0.19637607 0.25103113 0.18243058 -0.24351545 -0.23126239 0.02783753 0.06096534

fc2.bias f4 [100]
00000000: 042d ef3e 5789 d93e 3c10 fa3b 301e f9be
00000010: ed28 063f 24e1 be3e bf90 fabe 4df6 f33e
00000020: f567 023f a46a 6a3d cf32 f33e 6faf 9f3e
00000030: 697c a63c fa04 0b3e 60cb 1fbe 636d eb3e
00000040: 922d df3e 88e7 f53e 6443 bdbe a55e 2cbe
00000050: b5c8 5a3e 4bb3 563e 20a3 b5be 82f2 f6be
00000060: 4833 ccbe a3ba 98bc 2283 4a3e 892d bfbd
00000070: a17c fc3e a6af 9f3e 958d ef3c d3b4 f63e
00000080: 8df1 f83d bba8 e3be 305b 4abe 17f6 a9be
00000090: f9c6 e83e aabf d63e 73a1 c43e c017 083f
000000a0: 66d3 003f 5353 81be 19f0 bf3e adb7 a23d
000000b0: 02f2 f83e ce1a af3e 0f70 ddbe 27a2 e03e
000000c0: 36db 493e a403 fabe 539f 07bf 8a84 fdbe
000000d0: b245 cdbe 9916 b3be e1af 253e 3800 243e
000000e0: a65f f1be 7f12 a93d decc febc 21f4 bcbe
000000f0: c3a3 a73e 206b ce3e f47e cd3e 206f ff3e
00000100: 933c 1d3e c1e1 bd3e b0ca ea3e f26a bbbe
00000110: def3 f43d 48a5 0a3f b54b 86be bb05 db3d
00000120: dda0 043f ed09 753e c17d 04bf 125d 953e
00000130: 076d 2ebe c02a f9be a5be 803e 65b1 623d
00000140: 1ab5 f7be ff5f a2be bc7a bc3d 65a7 75bd
00000150: a236 9d3c d4bb df3e 4c1d 92bd 8465 fbbe
00000160: f609 a53e fad0 163f 03ee cb3e 1bc2 debd
00000170: 6826 ea3d 5122 00bf 9ab4 e7be 4a35 febe
00000180: c9b8 bb3e 2350 fabe 96e0 e9bd 4e0e 9e3e
0.46714032 0.42487594 0.00763133 -0.48655844 0.524062 0.37281144 -0.48938558 0.4764885
0.50939876 0.057230607 0.474997 0.31188533 0.020322995 0.13576117 -0.15604925 0.45981893
0.43589455 0.48028207 -0.36965477 -0.16832979 0.21365626 0.20966832 -0.35476017 -0.48231894
-0.39882874 -0.018643683 0.19776586 -0.09334857 0.49313834 0.31188697 0.029242316 0.48184833
0.12155447 -0.4446467 -0.19761348 -0.33195564 0.45464304 0.41943103 0.38404426 0.5316124
0.5032257 -0.25258884 0.37487867 0.079451896 0.48622137 0.34200138 -0.43249556 0.43873712
0.19712529 -0.48830903 -0.52977484 -0.49515182 -0.40092236 -0.34978178 0.16180374 0.16015708
-0.47143286 0.08255481 -0.031103548 -0.36905006 0.32742128 0.40316105 0.4013592 0.4988947
0.15355138 0.370863 0.45857763 -0.3660503 0.119605765 0.5415845 -0.26229635 0.106944524
0.5180796 0.23929568 -0.51754385 0.2917257 -0.17033778 -0.48665428 0.2514545 0.055344958
-0.48380357 -0.31713864 0.09203097 -0.059974093 0.01919109 0.4369799 -0.07134494 -0.49100888
0.32234162 0.5891262 0.39830026 -0.108768664 0.11433107 -0.5005236 -0.45254976 -0.4965003
0.36664417 -0.48889264 -0.114197895 0.3087029

fc3.weight f4 [2, 100]
00000000: a7f8 a13e 6694 803e 1358 82be a496 81be
00000010: 6d8d 953e 8da1 b43e c536 99be 444b 863e
00000020: 7181 ad3e 48c4 dbbe 3c4a 7e3e 1024 8c3e
00000030: fa55 57be a6af 573e 5b32 c93e a6a3 853e
00000040: c664 903e b30c e23e 716b 7ebe da17 4fbe
00000050: 78b0 fb3e 87f4 c13e 3a73 2ebf 117e 9bbe
00000060: 7e09 0abf 7fa1 e13d ba98 d0be 6e9c 6dbe
00000070: 0da6 883e 48ac 203f 7594 e13e be5c 823e
00000080: 727b 51be ebac 81be 280f 48be a3c9 cdbe
00000090: df45 bd3e 087a 863e 0c40 0c3f 4e54 8b3e
000000a0: f5d7 323f 1677 7bbe 2ffc 763e 779e f3be
000000b0: d5a4 913e f710 e23e 08c6 f5be dca6 8c3e
000000c0: 05d0 11bf 8997 91be 72da 82be bcf0 7cbe
000000d0: 9c80 8dbe 0cad 23bf 0f4e 86be 9b16 9cbe
000000e0: 9472 81be 862e 7fbe 9ac2 5ebe 39a4 74be
000000f0: 5f47 713e 1edd 723e ebd7 743e ea71 8a3e
00000100: 65d6 5abe 3c2b 0c3f 5065 b63e 2dc9 99be
00000110: 1f62 1c3f 3b6c 7b3e 1bc0 973e 523c 843e
00000120: 1416 923e bf42 583e 8b70 97be e51f 4a3e
00000130: d4bc 0e3f 72e5 80be 791a df3e e359 d13e
00000140: 4e61 75be ecae 8e3e ee88 a13e a9ff 1e3f
00000150: ac99 a03e 87a2 8d3e ad2b 8e3e 1ded 88be
00000160: 2c00 8e3e 9be0 c13e dad4 973e 744c fd3e
00000170: a0f8 3f3e 9dd3 9bbe d317 8ebe 46f7 84be
00000180: b0db 893e 2dfc 78be 2a53 69be c54c c23e
00000190: a888 34bf eaa3 17bf 3dcd 263f 5dd7 353f
000001a0: 67cb 2fbf 2066 32bf 93c9 2d3f 0731 30bf
000001b0: d884 36bf 5824 1c3f ad5e 2dbf 77d6 38bf
000001c0: 7098 233f 876b 3cbf 610f 02bf 61d7 36bf
000001d0: 6183 3dbf 7220 6ebf cad6 373f ca6e 113f
000001e0: af79 79be 6901 8dbf 923e 503f f87e 343f
000001f0: a6bf 2c3f 941b 10bf 7993 033f 8d34 1d3f
00000200: 29ab 38bf e53c 6bbf b7ee 2abf 740c 36bf
00000210: f2d4 043f 68e5 353f bc35 1c3f f92a 153f
00000220: 2ab1 3dbf 57b8 38bf df33 42bf 5914 2cbf
00000230: c881 6cbf 3b9e 3a3f 2ccb 25bf ce2b 2b3f
00000240: 237e 36bf 250f 96bf d614 963f d3ed 36bf
00000250: 398e 383f bef1 393f cd5c 263f cfde 2b3f
00000260: ad05 3b3f 1053 473f 6805 153f a194 193f
00000270: 606c 363f 8c23 3f3f a4ea 263f a087 183f
00000280: c4e8 22bf a0a2 30bf 57e5 31bf aa0a 36bf
00000290: d195 073f 3449 49bf 46b7 39bf 1b0e 363f
000002a0: 4a5c 48bf ea27 06bf e478 23bf bb4f 15bf
000002b0: 4b3b 2abf e765 1bbf 5f2b 373f ea5b 0fbf
000002c0: 5978 c0bc 1d59 2f3f 3114 a3bf a65e 24bf
000002d0: 8507 213f c84b 24bf b701 24bf fa8b 87bc
000002e0: 99ec 2fbf c1e8 39bf ab83 13bf 6757 363f
000002f0: 236c 39bf f3ca 35bf 907c 3abf 3f5c 24bf
00000300: 5f43 30bf 844c 383f 5e2d 393f 5f10 383f
00000310: 07c8 38bf c107 303f 94eb 333f 9cce 86bf
0.3163502 0.2511322 -0.2545782 -0.25310242 0.29209462 0.35279503 -0.29924598 0.26229298
0.33887818 -0.42923188 0.24833006 0.27371264 -0.21028891 0.21063098 0.3929623 0.26101416
0.28201884 0.44150314 -0.24845673 -0.20223942 0.49158072 0.37881872 -0.6814457 -0.3036962
-0.53920734 0.11017131 -0.4074152 -0.23204204 0.26689187 0.6276288 0.44058576 0.25461382
-0.20457247 -0.25327238 -0.19537032 -0.401929 0.3696737 0.26264977 0.5478523 0.27212757
0.69860774 -0.24557146 0.24119638 -0.47581837 0.2844607 0.44153568 -0.48002648 0.27471054
-0.5695804 -0.28435925 -0.25557286 -0.24701208 -0.27637184 -0.63935924 -0.2623143 -0.30485997
-0.2528273 -0.24920091 -0.21753922 -0.23890771 0.23562382 0.23717162 0.23910491 0.27040035
-0.21370848 0.5475347 0.3562417 -0.30036297 0.6108722 0.24553005 0.29638752 0.2582727
0.2853247 0.21119212 -0.2957805 0.1973873 0.5575688 -0.25175053 0.43574885 0.4088889
-0.239629 0.2786783 0.31549782 0.62108856 0.31367242 0.2766306 0.27767697 -0.26743403
0.27734506 0.37866673 0.2965458 0.49472392 0.18747187 -0.30434886 -0.2775255 -0.25969905
0.2692542 -0.24314947 -0.22785631 0.37949196 -0.7052102 -0.5923449 0.6515692 0.71031743
-0.6866974 -0.6968708 0.678857 -0.6882481 -0.71296453 0.60992956 -0.6772259 -0.7220225
0.63904476 -0.73601574 -0.50804716 -0.7142239 -0.74028593 -0.9301826 0.7181212 0.56809676
-0.24362825 -1.1016055 0.81345475 0.7050624 0.6747993 -0.5629208 0.513969 0.6140831
-0.7213617 -0.9188979 -0.667705 -0.7111275 0.5188743 0.7105317 0.6101949 0.58268696
-0.74098456 -0.7215628 -0.758604 -0.6721855 -0.9238553 0.7289769 -0.6476314 0.66863716
-0.7128622 -1.1723372 1.1725109 -0.7145664 0.72092015 0.72634494 0.6498535 0.67136854
0.73055536 0.7786112 0.58211374 0.59992415 0.7125912 0.74663615 0.65201783 0.5958195
-0.6363642 -0.68998146 -0.6949057 -0.7111002 0.52962977 -0.78627324 -0.7254528 0.71115273
-0.7826582 -0.52404654 -0.6385634 -0.58324784 -0.66496724 -0.60702366 0.71550554 -0.55999625
-0.023494886 0.6849535 -1.2740537 -0.6420692 0.629021 -0.64178133 -0.64065117 -0.016546238
-0.68720394 -0.7262078 -0.57622784 0.71227115 -0.7243063 -0.710128 -0.7284632 -0.64203256
-0.688528 0.71991754 0.7233485 0.7189998 -0.7218022 0.6876183 0.7028134 -1.0531802

fc3.bias f4 [2]
00000000: 22c4 ca3e a838 08bf
0.39602762 -0.5321145

fc1.weight f4 [100, 22]
00000000: f4a4 b0b6 50ee d0b4 08a0 2ab7 a140 4a38
00000010: 9629 7638 9d86 81b7 4560 84b7 7441 65b7
00000020: 1b59 7db7 bb9c 0080 096d 0200 1f1b 0800
00000030: f147 0400 5f36 0c80 340d 0900 7aba 1280
00000040: 2b2d 0800 0c35 0580 5db2 0980 ecd6 1680
00000050: 8d1b 0a80 1cfb 2782 0f29 17b5 ebd1 3334
00000060: aa89 2935 b89d 7a34 dc50 15b5 32f0 3333
00000070: 5302 8c34 2e00 8fb3 55ba 0cb3 588e 0100
00000080: 2e89 0e80 9e8a 1100 f242 1200 e243 0200
00000090: 7572 0a80 86a3 0d00 54ed 0b80 1442 1080
000000a0: 1148 0b80 dc98 1080 a430 1380 0f55 0c80
000000b0: fa3d 94b7 90b9 85b7 ddfa 75b8 78c4 54b8
000000c0: db1b 3bb8 e9b2 8237 2a65 c637 1579 b937
000000d0: 046d 9837 8e48 1300 ac53 0080 b08b 1100
000000e0: da70 0a80 81a0 0780 a024 0180 89b5 0680
000000f0: ee23 0180 9845 0e00 7eb8 0080 bd0d 0c00
00000100: 2c11 1400 2b38 0800 503d d1bd f89d f73a
00000110: 7814 603b 8b2a e43b 070c c53b a54d 253d
00000120: c4bb 7c3d e1d1 8f3c c902 003d 4186 0580
00000130: f2c1 0900 3d41 0e00 c91a 1580 c855 0500
00000140: 794d 0c80 89ec 0700 1fd1 0e00 9bb5 0400
00000150: 3c34 1500 4e87 0800 5488 0280 9773 0780
00000160: 9700 2db6 9e6f 0bb7 d3e9 3cb7 30d8 32b7
00000170: 8533 2136 76e8 ec36 4b1b f736 1312 c336
00000180: 406e e536 633b 0580 f87f 0f00 2d3a 0580
00000190: d05e 1700 3211 0100 d6cc 0300 8b25 1880
000001a0: 6537 1600 f754 0580 6b3d 0980 5339 1600
000001b0: 0503 0f00 b23c 1080 8b6d 82b6 25a8 8cb7
000001c0: a5ea 65b7 2c7a 10b8 490c 90b7 ecbb c837
000001d0: c64c cd37 514e b437 1788 c437 063f 0a80
000001e0: 79b7 0980 cae2 0580 18e6 1500 7b69 0100
000001f0: b377 1280 c28a 0900 ec72 1300 4726 1980
00000200: 4682 0200 c262 1680 e292 1300 2e94 1480
00000210: a9c8 a82e 8e1f 892f a216 412f 459f f32f
00000220: 1e89 c5ad c043 94af c14d 92af de0c 8aaf
00000230: 5d53 93af 2de8 1380 146d 0900 820d 0500
00000240: 5cae 1000 4ab1 0080 b106 0300 a8d0 0380
00000250: 6b3b 0480 bb68 0a00 3625 0b80 506d 0800
00000260: 5791 0880 d43a e902 aed8 3535 f82b 0c35
00000270: baa7 4436 b6a9 5f36 60b6 9cb4 f118 1db6
00000280: 1453 1fb6 4c95 07b6 3732 19b6 08de 1400
00000290: 3344 1000 4737 1100 7fc7 0e80 8c8e 1200
000002a0: d6de 0880 400e 0600 c9bb 0080 fa29 0600
000002b0: e551 1200 0822 0100 20d6 0780 b177 0b00
000002c0: 7962 013a c4a0 b3b9 4634 c0ba b89a a939
000002d0: 15d7 0cba 5a33 7339 5511 ca39 a938 18b9
000002e0: 5b2c e038 c6f4 0100 8267 0b80 1943 0e80
000002f0: faa4 0e80 fdbf 1380 8151 1500 7da7 0b80
00000300: 3412 0f00 43ba 0f80 8ae0 1480 1aab 1480
00000310: 321a 0b80 ff50 0d80 9342 d1bd 2299 f73a
00000320: 9116 603b 3629 e43b 6c0c c53b e851 253d
00000330: 74c2 7c3d 70d5 8f3c fc05 003d 24eb 0080
00000340: 06b0 1580 ae2c 0580 a214 0e80 5ab0 1580
00000350: e3f2 0600 9f07 0500 eaf9 0e00 1e67 0780
00000360: 742e 0180 0cf4 0900 9f8e 0b00 54dd 0a80
00000370: 9f46 d13d 9a95 f7ba 1e18 60bb 0f28 e4bb
00000380: a60c c5bb 2a55 25bd 93c7 7cbd 25d8 8fbc
00000390: 7008 00bd d1b1 0600 174c 0900 e133 0580
000003a0: a12b 0280 c3b0 0500 2745 1600 4b27 0580
000003b0: dca2 0a00 4644 1100 5bb4 1780 a791 1500
000003c0: 985f 0080 988c 0300 4f46 d13d e195 f7ba
000003d0: f017 60bb 2f28 e4bb a90c c5bb e454 25bd
000003e0: 23c7 7cbd ebd7 8fbc 3908 00bd e051 0280
000003f0: 37ee 0c80 1853 0100 03a4 0a00 2cd1 0600
-5.264412e-06 -3.8916414e-07 -1.017005e-05 4.8220743e-05 5.86897e-05 -1.5440683e-05 -1.5780455e-05 -1.3664703e-05
-1.5100722e-05 -5.6224e-41 2.22785e-40 7.44413e-40 3.9315e-40 -1.12153e-39 8.31256e-40 -1.719934e-39
7.50887e-40 -4.78207e-40 -8.90504e-40 -2.09748e-39 -9.28238e-40 -1.2341287e-37 -5.631163e-07 1.6747042e-07
6.3157734e-07 2.3340442e-07 -5.562449e-07 4.189514e-08 2.6078723e-07 -6.658989e-08 -3.2765758e-08 1.42899e-40
-1.334908e-39 1.61093e-39 1.677054e-39 2.08023e-40 -9.59414e-40 1.252523e-39 -1.095328e-39 -1.493072e-39
-1.036043e-39 -1.524204e-39 -1.762323e-39 -1.132539e-39 -1.7671835e-05 -1.5941245e-05 -5.8646187e-05 -5.0727715e-05
-4.4610217e-05 1.558052e-05 2.3650548e-05 2.2110102e-05 1.8170576e-05 1.770902e-39 -3.0016e-41 1.611314e-39
-9.58838e-40 -7.00426e-40 -1.04974e-40 -6.16136e-40 -1.04725e-40 1.310662e-39 -6.6183e-41 1.106954e-39
1.84287e-39 7.54833e-40 -0.102167726 0.0018891683 0.0034191888 0.0069630793 0.0060133967 0.04035725
0.061702505 0.017556133 0.031252656 -5.07339e-40 8.96094e-40 1.3091e-39 -1.938154e-39 4.8995e-40
-1.129818e-39 7.27701e-40 1.360715e-39 4.3249e-40 1.947284e-39 7.83222e-40 -2.32576e-40 -6.84314e-40
-2.5779352e-06 -8.3110335e-06 -1.1260115e-05 -1.0659962e-05 2.4020858e-06 7.06041e-06 7.364351e-06 5.813557e-06
6.8375666e-06 -4.80481e-40 1.423439e-39 -4.80047e-40 2.146229e-39 9.8004e-41 3.48988e-40 -2.21752e-39
2.040253e-39 -4.89657e-40 -8.48552e-40 2.040945e-39 1.378616e-39 -1.491141e-39 -3.8870544e-06 -1.6767599e-05
-1.3704096e-05 -3.4446057e-05 -1.7171858e-05 2.3929366e-05 2.4473655e-05 2.1494141e-05 2.3428393e-05 -9.40964e-40
-8.92337e-40 -5.40534e-40 2.011088e-39 1.29675e-40 -1.695979e-39 8.76296e-40 1.7861e-39 -2.309619e-39
2.30404e-40 -2.055809e-39 1.797566e-39 -1.889867e-39 7.6754e-11 2.4942576e-10 1.7561289e-10 4.431461e-10
-2.24572e-11 -2.6969182e-10 -2.6612493e-10 -2.5111196e-10 -2.6798377e-10 -1.828163e-39 8.6565e-40 4.64023e-40
1.531916e-39 -6.36e-41 2.77907e-40 -3.50358e-40 -3.88657e-40 9.55925e-40 -1.023539e-39 7.73898e-40
-7.86822e-40 3.4270039e-37 6.7743065e-07 5.2218047e-07 2.9303906e-06 3.3328374e-06 -2.918996e-07 -2.340934e-06
-2.3741204e-06 -2.020347e-06 -2.2828006e-06 1.91636e-39 1.493833e-39 1.581033e-39 -1.357263e-39 1.704175e-39
-8.14622e-40 5.56125e-40 -6.7365e-41 5.66071e-40 1.682417e-39 1.04044e-40 -7.19662e-40 1.053128e-39
0.0004935633 -0.0003426132 -0.0014664016 0.00032349466 -0.0005372626 0.00023193416 0.00038541356 -0.00014516957
0.00010689414 1.79644e-40 -1.047322e-39 -1.309767e-39 -1.34488e-39 -1.813747e-39 1.957784e-39 -1.070274e-39
1.384062e-39 -1.44435e-39 -1.91726e-39 -1.89809e-39 -1.019588e-39 -1.222917e-39 -0.10217776 0.0018890242
0.0034193138 0.0069629205 0.0060134437 0.040361315 0.061708882 0.01755783 0.031255707 -8.4353e-41
-1.991691e-39 -4.75206e-40 -1.293099e-39 -1.991808e-39 6.38144e-40 4.61911e-40 1.375349e-39 -6.7984e-40
-1.085e-40 9.14067e-40 1.061353e-39 -9.97753e-40 0.10218548 -0.0018889189 -0.0034194062 -0.006962783
-0.0060134707 -0.040364422 -0.061713766 -0.01755912 -0.031258047 6.14801e-40 8.53815e-40 -4.77788e-40
-1.99322e-40 5.22588e-40 2.045188e-39 -4.73273e-40 9.76778e-40 1.585695e-39 -2.176916e-39 1.980796e-39
-3.4293e-41 3.25942e-40 0.102184884 -0.0018889272 -0.0034193955 -0.006962798 -0.006013472 -0.04036416
-0.06171335 -0.017559012 -0.03125784 -2.13042e-40 -1.187481e-39 1.21644e-40 9.77191e-40 6.2605e-40

fc1.bias f4 [100]
00000000: 5899 8637 6d60 3835 4636 04b8 7b74 07be
00000010: 5195 e8b6 1f5b d1b7 223f a32f bbf8 2a36
00000020: f420 f2b9 9278 07be af7b 073e 657b 073e
00000030: 1e26 bfb7 887a 073e 167c 07be 147c 073e
00000040: ee7c 07be 3f7d 07be 5534 9d38 447e 07be
00000050: 34e2 013b af03 4839 9142 bc36 1656 d937
00000060: 2fe5 f039 2df1 2aba d976 07be 5d7a 07be
00000070: 3c82 6eb3 dc7d 073e 9515 bfb9 eed5 16b9
00000080: 1a32 553a 717b 073e d275 07be ea57 6db7
00000090: dbdc a8b0 3364 adb9 92d9 8daf 5679 50b8
000000a0: 3db5 a9b9 372a 82b7 fcb6 adb7 cfbb 15b9
000000b0: 55fb 7fba 9617 43ae fd79 073e 5c77 07be
000000c0: 612f b538 367c 07be e176 07be e079 07be
000000d0: d97a 073e b515 b736 5d75 07be 8b7a 07be
000000e0: e38f dd35 ec75 073e d37b 073e 400c e23a
000000f0: 957b 073e 6b4e 403b 7179 073e 2707 0fb5
00000100: 7b7b 073e e7f1 b7b5 3073 073e 147c 07be
00000110: da77 073e ee74 073e fc6e 073e de7b 073e
00000120: b567 073e a27c 07be 5c78 07be c17a 073e
00000130: 1b7b 073e 3b7d 07be 7c21 f3b2 1475 073e
00000140: 2979 9d39 1003 0ab7 9709 5bb0 4476 073e
00000150: 7378 07be 6e7a 073e 6ac3 0c3b fa75 073e
00000160: 457b 073e 40cc ae32 fb42 1036 671f 23b7
00000170: d52d c0b7 707c 073e 5e7a 07be 6f76 073e
00000180: cd8b 30b8 5962 07ba 361a 5838 957b 07be
1.6045451e-05 6.868566e-07 -3.15218e-05 -0.13228028 -6.9315215e-06 -2.4957173e-05 2.9694386e-10 2.5476754e-06
-0.0004618239 -0.13229588 0.13230775 0.13230665 -2.2786724e-05 0.13230336 -0.13230929 0.13230926
-0.1323125 -0.13231371 7.496091e-05 -0.1323176 0.0019818665 0.00019074859 5.610586e-06 2.5908503e-05
0.00045947122 -0.00065209233 -0.1322893 -0.13230272 -5.553214e-08 0.13231605 -0.0003644644 -0.0001438481
0.0008132771 0.13230683 -0.13228539 -1.414677e-05 -1.228638e-09 -0.00033071786 -2.5802344e-10 -4.9704067e-05
-0.00032369225 -1.5516865e-05 -2.0708416e-05 -0.00014279711 -0.00097649294 -4.4358815e-11 0.13230129 -0.13229126
8.6395776e-05 -0.13230976 -0.13228942 -0.13230085 0.13230456 5.456352e-06 -0.13228364 -0.1323034
1.650766e-06 0.13228577 0.13230829 0.0017246082 0.13230737 0.0029343616 0.1322992 -5.328206e-07
0.13230698 -1.3704965e-06 0.13227534 -0.13230926 0.13229313 0.13228199 0.13225931 0.13230845
0.13223155 -0.13231137 -0.13229507 0.1323042 0.13230555 -0.13231365 -2.830415e-08 0.13228256
0.00030035645 -8.226154e-06 -7.9685364e-10 0.13228709 -0.13229541 0.13230297 0.002147878 0.13228598
0.13230617 2.0349148e-08 2.149666e-06 -9.7228685e-06 -2.2909526e-05 0.13231063 -0.13230273 0.13228773
-4.209187e-05 -0.0005164496 5.1522824e-05 -0.13230737

fc2.weight f4 [100, 100]
00000000: 1146 f1b6 08dc 2334 e3b1 37b7 a7dc a4bc
00000010: 59ae 2db6 0673 2936 4066 332e a05c 0a35
00000020: a04e 89b5 1de1 a4bc 87e4 a43c 39e4 a43c
00000030: bd5d 12b7 4ae3 a43c f8e4 a4bc f7e4 a43c
00000040: eae5 a4bc 43e6 a4bc 13a3 5c39 6ae7 a4bc
00000050: 4b74 ca3a 2c98 a337 30d3 e934 49e6 9036
00000060: 8cdd 2a39 926c 07ba 3ddf a4bc 18e3 a4bc
00000070: 006a 45af eee6 a43c e259 a4b8 2945 f137
00000080: 18b8 1f3a 45e4 a43c 1fde a4bc e0de 5536
00000090: 1d0a 462f 8048 9bb8 603a 532c 5f73 0238
000000a0: eaec b738 0250 7337 ee77 4b36 8098 00b6
000000b0: a32b 10ba df7e 7a2d ade2 a43c cfdf a4bc
000000c0: c91a 84b7 1ae5 a4bc 49df a4bc 8ee2 a4bc
000000d0: a0e3 a43c 26e9 a5b5 9fdd a4bc 4fe3 a4bc
000000e0: 2a1e 27b4 3cde a43c b0e4 a43c 8e6f 933a
000000f0: 6de4 a43c 9c3e 863a 11e2 a43c 4952 ca33
00000100: 50e4 a43c 3a9c db33 32db a43c f6e4 a4bc
00000110: 58e0 a43c 24dd a43c 97d6 a43c bce4 a43c
00000120: 9ece a43c 98e5 a4bc e5e0 a4bc 84e3 a43c
00000130: e7e3 a43c 3de6 a4bc f585 37b2 4ddd a43c
00000140: f804 94b6 0973 2f35 ec52 dfaf a0de a43c
00000150: fae0 a4bc 2ce3 a43c bb02 a53a 4bde a43c
00000160: 19e4 a43c 1b1a 9eb1 f88d edb3 88a9 e935
00000170: 2d11 9c35 5ce5 a43c 1ce3 a4bc cdde a43c
00000180: 7b96 3638 0216 1639 fdef 7738 6de4 a4bc
00000190: d64e f136 d4de 23b4 47b4 3737 0cd2 a43c
000001a0: 89a8 2d36 9c98 29b6 f449 33ae 0453 0ab5
000001b0: d06e 8b35 7ed6 a43c efd9 a4bc a2d9 a4bc
000001c0: 2d61 1237 a7d8 a4bc 5fda a43c 5dda a4bc
000001d0: 51db a43c a9db a43c 74ab 5cb9 cfdc a43c
000001e0: f97a caba 7075 a3b7 889a e9b4 dbd7 90b6
000001f0: 10e7 2ab9 8868 073a a2d4 a43c 74d8 a43c
00000200: 00fd 3f2f 5adc a4bc 4f56 a438 6a5e f1b7
00000210: 06cb 1fba aed9 a4bc 85d3 a43c c0f6 55b6
00000220: 7204 46af ec3b 9b38 20d1 54ac cd77 02b8
00000230: c4df b7b8 8555 73b7 2e97 4bb6 40f0 0336
00000240: fe2e 103a 9c94 7aad 0dd8 a4bc 33d5 a43c
00000250: 542a 8437 82da a43c acd4 a43c eed7 a43c
00000260: 03d9 a4bc 22f7 a535 09d3 a43c acd8 a43c
00000270: f648 2734 a7d3 a4bc 15da a4bc 4d70 93ba
00000280: d2d9 a4bc 5836 86ba 71d7 a4bc b46f cab3
00000290: b8d9 a4bc 7c97 dbb3 9dd0 a4bc 5ada a43c
000002a0: c0d5 a4bc 8ad2 a4bc f3cb a4bc 22da a4bc
000002b0: 02c4 a4bc fada a43c 45d6 a43c e8d8 a4bc
000002c0: 4fd9 a4bc a2db a43c e180 3732 b5d2 a4bc
000002d0: a02f 9436 7c71 2fb5 ec53 df2f 04d4 a4bc
000002e0: 5bd6 a43c 8ad8 a4bc 1904 a5ba b6d3 a4bc
000002f0: 80d9 a4bc f214 9e31 60fe ed33 2ec7 e9b5
00000300: 8c10 9cb5 c3da a4bc 78d8 a43c 34d4 a4bc
00000310: 7a7f 36b8 e65f 16b9 dcf1 77b8 d3d9 a43c
00000320: cb4a f136 a2dd 23b4 36b3 3737 d0d6 a43c
00000330: 24ab 2d36 6487 29b6 c456 33ae 5757 0ab5
00000340: e074 8a35 4adb a43c b7de a4bc 6dde a4bc
00000350: a15f 1237 78dd a4bc 25df a43c 25df a4bc
00000360: 14e0 a43c 6be0 a43c b6a7 5cb9 93e1 a43c
00000370: f677 caba 1485 a3b7 30b4 e9b4 53de 90b6
00000380: d9e2 2ab9 5a6a 073a 67d9 a43c 45dd a43c
00000390: 806b 422f 19e1 a4bc d557 a438 f252 f1b7
000003a0: 81c2 1fba 78de a4bc 47d8 a43c fdeb 55b6
000003b0: f206 46af 8641 9b38 e01b 54ac d975 02b8
000003c0: a4e5 b7b8 0453 73b7 ea88 4bb6 4070 0236
000003d0: 7a2d 103a d28a 7aad dddc a4bc f9d9 a43c
000003e0: 4423 8437 4edf a43c 6fd9 a43c bedc a43c
000003f0: d3dd a4bc e6f0 a535 cbd7 a43c 7add a43c
-7.1905165e-06 1.5260605e-07 -1.09490675e-05 -0.020124746 -2.5880493e-06 2.5249915e-06 4.0790704e-11 5.1543793e-07
-1.0230178e-06 -0.020126874 0.020128502 0.020128356 -8.724103e-06 0.020127911 -0.020128712 0.02012871
-0.020129163 -0.020129329 0.00021041585 -0.020129878 0.0015446035 1.9501975e-05 4.355329e-07 4.318343e-06
0.00016294996 -0.00051660195 -0.02012598 -0.020127818 -1.7954704e-10 0.020129647 -7.8368714e-05 2.8761644e-05
0.0006092801 0.020128379 -0.020125447 3.1869204e-06 1.8011588e-10 -7.40448e-05 3.0017308e-12 3.1101863e-05
8.770249e-05 1.4502557e-05 3.0319165e-06 -1.9162253e-06 -0.00054996664 1.4239026e-11 0.020127619 -0.020126252
-1.5748099e-05 -0.020128775 -0.020126002 -0.020127561 0.020128071 -1.2361313e-06 -0.020125208 -0.02012792
-1.556406e-07 0.0201255 0.020128578 0.0011248456 0.020128453 0.0010242048 0.020127328 9.4213256e-08
0.0201284 1.02263996e-07 0.020124052 -0.020128708 0.020126507 0.02012498 0.020121856 0.0201286
0.020118054 -0.02012901 -0.02012677 0.02012802 0.020128204 -0.020129317 -1.068246e-08 0.020125056
-4.411322e-06 6.535998e-07 -4.0622383e-10 0.020125687 -0.020126808 0.020127855 0.0012589315 0.020125529
0.020128297 -4.601373e-09 -1.10619965e-07 1.7409193e-06 1.1627905e-06 0.020128898 -0.020127825 0.020125771
4.3532327e-05 0.00014313313 5.9112896e-05 -0.020128453 7.1915374e-06 -1.5261622e-07 1.0949624e-05 0.02011969
2.587711e-06 -2.5271793e-06 -4.076557e-11 -5.152981e-07 1.0388558e-06 0.02012181 -0.02012345 -0.020123307
8.724904e-06 -0.02012284 0.020123659 -0.020123655 0.02012411 0.020124273 -0.00021044706 0.020124821
-0.0015448026 -1.94858e-05 -4.3512068e-07 -4.3166633e-06 -0.00016298541 0.00051654177 0.020120922 0.020122744
1.7461232e-10 -0.020124603 7.8362056e-05 -2.8773404e-05 -0.00060956215 -0.020123329 0.020120392 -3.18831e-06
-1.8009574e-10 7.402137e-05 -3.02431e-12 -3.110599e-05 -8.7677996e-05 -1.450384e-05 -3.0337355e-06 1.9660365e-06
0.00055001664 -1.4243853e-11 -0.020122552 0.020121193 1.5755337e-05 0.020123724 0.020120941 0.020122495
-0.02012301 1.2365383e-06 0.02012016 0.020122848 1.557963e-07 -0.020120455 -0.02012352 -0.0011248678
-0.020123396 -0.0010239584 -0.020122262 -9.426677e-08 -0.020123348 -1.0225537e-07 -0.020119006 0.02012365
-0.020121455 -0.020119924 -0.020116782 -0.020123545 -0.020112995 0.020123947 0.020121703 -0.02012296
-0.020123152 0.02012426 1.0681306e-08 -0.020120004 4.416288e-06 -6.535772e-07 4.0623094e-10 -0.020120628
0.020121744 -0.020122785 -0.0012589722 -0.020120483 -0.020123243 4.6007864e-09 1.1082443e-07 -1.7417822e-06
-1.1627722e-06 -0.020123845 0.020122752 -0.020120718 -4.3510903e-05 -0.0001434084 -5.9114638e-05 0.020123398
7.1910667e-06 -1.5261188e-07 1.0949376e-05 0.020121962 2.5878626e-06 -2.526177e-06 -4.077695e-11 -5.15361e-07
1.0315816e-06 0.020124096 -0.02012573 -0.020125592 8.7245435e-06 -0.020125136 0.020125935 -0.020125935
0.02012638 0.020126542 -0.00021043312 0.020127093 -0.0015447128 -1.9493084e-05 -4.3530736e-07 -4.3174164e-06
-0.0001629697 0.0005165689 0.020123197 0.02012504 1.7682389e-10 -0.020126866 7.8364894e-05 -2.8768063e-05
-0.0006094352 -0.020125613 0.02012266 -3.1876837e-06 -1.8010463e-10 7.403181e-05 -3.0142486e-12 -3.110417e-05
-8.768894e-05 -1.4503257e-05 -3.0329052e-06 1.9436848e-06 0.00054999406 -1.4241679e-11 -0.020124847 0.020123469
1.5752048e-05 0.020126011 0.020123212 0.02012479 -0.020125305 1.2363569e-06 0.02012243 0.02012514

fc2.bias f4 [100]
00000000: c11b a13d 0410 a1bd 5f15 a1bd 5b12 a13d
00000010: b917 a13d 5418 a1bd 4411 a13d 2714 a13d
00000020: 0f1a a1bd b414 a1bd 3412 a1bd 3714 a13d
00000030: 7312 a13d 2d13 a13d 3c13 a1bd 5015 a1bd
00000040: d50e a1bd 7c17 a13d d414 a13d f511 a13d
00000050: 7611 a1bd 540a 7c1c 4308 a1bd 8015 a1bd
00000060: 753b 1397 19d3 1a80 bd13 a13d f317 a1bd
00000070: 5f16 a13d 2d13 a1bd a51d a1bd d211 a13d
00000080: a810 a13d 1f14 a1bd 6f12 a1bd b515 a1bd
00000090: f417 a1bd ed12 a13d af16 a13d 8b0d a13d
000000a0: 7114 a13d d218 a13d 1713 a1bd 1e0c a1bd
000000b0: cf1b a1bd 5d0a a1bd 4b10 a13d ee0f a13d
000000c0: 4217 a13d 6c13 a13d 4512 a13d 6c18 a1bd
000000d0: 5f14 a13d c913 a1bd a918 a13d 3415 a1bd
000000e0: 4a13 a13d 040d a1bd b30d a13d eb13 a13d
000000f0: 2f0c a1bd 4919 a1bd 2b13 a13d f814 a1bd
00000100: 2b17 a13d 2814 a1bd a811 a1bd 0118 a13d
00000110: 7415 a1bd b21b a1bd 3117 a13d c111 a1bd
00000120: 7b10 a13d 720f a1bd 7b10 a1bd d218 a1bd
00000130: 6110 a13d 3d10 a1bd 5210 a13d f416 a13d
00000140: 6a83 0aa1 0715 a13d 5119 a13d 4a14 a13d
00000150: a60e a13d a20c a13d d614 a1bd 61f0 2100
00000160: e211 a13d 0817 a1bd b31a a1bd 5e05 a13d
00000170: 8d0f a13d 1014 a13d 7017 a13d 3515 a13d
00000180: 6d1b a1bd 471a a13d 940f a1bd e12c a511
0.07866622 -0.07864383 -0.07865404 0.07864829 0.07865853 -0.07865968 0.07864621 0.07865172
-0.078662984 -0.07865277 -0.078648 0.07865184 0.07864847 0.078649856 -0.07864997 -0.07865393
-0.07864157 0.078658074 0.07865301 0.07864753 -0.078646585 8.3393155e-22 -0.07862904 -0.07865429
-4.7573307e-25 -2.46345e-39 0.07865093 -0.07865896 0.07865595 -0.078649856 -0.07866982 0.07864727
0.07864505 -0.07865166 -0.07864844 -0.078654684 -0.07865897 0.07864938 0.07865655 0.07863911
0.07865227 0.07866062 -0.07864969 -0.07863639 -0.07866632 -0.07863305 0.07864436 0.078643665
0.07865764 0.078650326 0.07864813 -0.07865986 0.078652136 -0.07865102 0.07866032 -0.07865372
0.07865007 -0.07863811 0.07863941 0.07865127 -0.07863652 -0.07866151 0.07864984 -0.078653276
0.07865747 -0.078651726 -0.07864696 0.078659065 -0.0786542 -0.078666106 0.078657515 -0.078647144
0.078644715 -0.07864274 -0.078644715 -0.07866062 0.07864452 -0.07864425 0.07864441 0.07865706
-4.6930144e-19 0.07865339 0.07866157 0.07865198 0.07864122 0.07863738 -0.07865302 3.116803e-39
0.07864739 -0.07865721 -0.078664206 0.07862352 0.07864294 0.07865155 0.078657985 0.07865373
-0.07866559 0.0786634 -0.078642994 2.6060069e-28

fc3.weight f4 [1, 100]
00000000: dd66 2b3e 1559 2bbe 495f 2bbe c75b 2b3e
00000010: 1862 2b3e cf62 2bbe 805a 2b3e df5d 2b3e
00000020: df64 2bbe 835e 2bbe 955b 2bbe f05d 2b3e
00000030: df5b 2b3e ba5c 2b3e c95c 2bbe 3c5f 2bbe
00000040: ac57 2bbe d261 2b3e a75e 2b3e 535b 2b3e
00000050: bf5a 2bbe 5095 501b ee4f 2bbe 745f 2bbe
00000060: 6ecb 3d97 5ce9 0580 5f5d 2b3e 5b62 2bbe
00000070: 8960 2b3e b85c 2bbe 1969 2bbe 275b 2b3e
00000080: d459 2b3e d45d 2bbe da5b 2bbe ba5f 2bbe
00000090: 5e62 2bbe 6d5c 2b3e e060 2b3e 1b56 2b3e
000000a0: 325e 2b3e 6263 2b3e 9d5c 2bbe 6d54 2bbe
000000b0: ee66 2bbe 6752 2bbe 6659 2b3e f658 2b3e
000000c0: 8d61 2b3e fd5c 2b3e ab5b 2b3e e962 2bbe
000000d0: 1e5e 2b3e 6a5d 2bbe 3163 2b3e 1b5f 2bbe
000000e0: d95c 2b3e 7e55 2bbe 4a56 2b3e 9a5d 2b3e
000000f0: 8254 2bbe f563 2bbe b55c 2b3e d15e 2bbe
00000100: 7561 2b3e df5d 2bbe f65a 2bbe 6962 2b3e
00000110: 655f 2bbe ca66 2bbe 7e61 2b3e 125b 2bbe
00000120: 9a59 2b3e 6458 2bbe 9a59 2bbe 6263 2bbe
00000130: 7d59 2b3e 5759 2bbe 6f59 2b3e 3361 2b3e
00000140: 2e0d 28a0 e25e 2b3e f963 2b3e 055e 2b3e
00000150: 6e57 2b3e 0955 2b3e a95e 2bbe 1e9f 1d00
00000160: 3e5b 2b3e 4d61 2bbe a165 2bbe 8f4c 2b3e
00000170: 8658 2b3e c25d 2b3e c561 2b3e 1e5f 2b3e
00000180: 7b66 2bbe 1f65 2b3e 9158 2bbe f5b6 1711
0.16738458 -0.16733201 -0.16735567 0.16734229 0.16736639 -0.16736911 0.16733742 0.16735028
-0.16737698 -0.16735272 -0.16734155 0.16735053 0.16734265 0.16734591 -0.16734613 -0.16735548
-0.16732663 0.16736534 0.16735326 0.16734056 -0.16733836 1.7253602e-22 -0.1672971 -0.16735631
-6.132596e-25 -5.42891e-40 0.16734837 -0.16736738 0.16736044 -0.16734588 -0.1673931 0.1673399
0.16733485 -0.16735011 -0.16734257 -0.16735736 -0.16736743 0.16734476 0.16736174 0.16732065
0.16735151 0.1673713 -0.16734548 -0.16731425 -0.16738483 -0.16730653 0.16733322 0.16733155
0.16736431 0.16734691 0.16734187 -0.1673695 0.16735122 -0.16734853 0.16737057 -0.16735499
0.16734637 -0.16731831 0.16732135 0.16734925 -0.16731456 -0.1673735 0.16734584 -0.16735388
0.16736396 -0.16735028 -0.16733918 0.16736759 -0.16735609 -0.1673843 0.16736409 -0.1673396
0.16733399 -0.16732937 -0.16733399 -0.1673713 0.16733356 -0.16733299 0.16733335 0.16736297
-1.4234514e-19 0.16735414 0.16737355 0.16735084 0.1673257 0.16731657 -0.16735329 2.72031e-39
0.16734025 -0.16736336 -0.16737987 0.16728424 0.16732988 0.16734985 0.16736515 0.16735503
-0.16738312 0.16737793 -0.16733004 1.1968178e-28

fc1.weight f4 [100, 24]
00000000: 0711 7f3c 15f0 6c3e 4720 f53c d06b c1bd
00000010: 0598 b33d fbae 883c bb4e 613e b960 63bd
00000020: def4 08bd 3646 4f3e d66f 13be c078 1fbb
00000030: d018 11be 60ef 15bc a842 10be 3864 803d
00000040: 85bf 0bbe e51f 22be 6ee4 0dbe 500e d23d
00000050: 6670 0dbe c586 003e 5090 2f3d 5831 503e
00000060: 091a 9e3d c777 9c3d 1229 a03d 8fa6 2cbe
00000070: 3cb6 37be 73be 34be aa42 7ebe 51c5 7ebe
00000080: 8aff f0bd c23f 093e 12d7 0c3e f8aa 8c3c
00000090: 84da 97bd 7280 04be f88a 873d 00d5 c73a
000000a0: 4caa 1e3e d805 95bc 68e6 58bd 060f 21be
000000b0: b01d e4bd 777a e13c 5426 373e 5570 acbd
000000c0: c6d8 3a3e fadb e8bc 4469 26be 48ff f73c
000000d0: d728 573e 7c25 00bd ba05 8fbd 5209 daba
000000e0: 3298 e93d 5b37 4dbe 646a 053d 7021 fabc
000000f0: e0a3 6b3c f417 28bd 701a 94bd dc44 31bd
00000100: 9cab 66bd 4cd6 09be 5828 31be d6de 4fbe
00000110: a498 abbd 0864 0ebe d91a 14be 39de 963d
00000120: 4b07 953d 77ea 42be e42f 3bbb 9f05 3abe
00000130: d516 31bd cb4b b33d 3f52 4fbe 14fc 20be
00000140: 8e50 eabd 2a86 30be 92d2 243e 8a49 3f3e
00000150: 420b 4bbe b4d3 d93d b676 323e a833 4cbd
00000160: d038 c4bc cca6 8c3d 2420 c23d 7cc5 153e
00000170: 8860 933d e2e9 a8bc bb6d 0cbe 1d32 32bd
00000180: 5f4e 98bc 4f8e b83c fb7b 493d 68d1 9c3d
00000190: d21d e5bd 1909 a1bd 9137 21bc 3ec2 1fbe
000001a0: 5f0b 83bd e119 29be 208f 45be 1072 f1bc
000001b0: 24b7 303e 50bd 64bc 80ee c2ba 900d 0ebc
000001c0: 6055 d6bb b641 1e3e f8f3 88bd 1ecd e0bd
000001d0: e2c7 3c3e 48a9 45bc 80fd e03c 90f5 413e
000001e0: 56be 2bbe 89b0 fcbd b401 33be 06ab 5dbe
000001f0: 65ce 63bc 5314 87be c7f4 ddbd d70b 98bd
00000200: cea4 e3bc 108b 973d 8494 303e be9a 9ebd
00000210: a2ae 30be 803c ce3c 942d 193e 68b3 ddbc
00000220: 526a 243e a6a4 c5bd 408c 94bd 58ea 81bd
00000230: 1cd3 83bd d1ce 3b3e 8493 343d 253e 86bb
00000240: 1657 80be c1b7 efbc 1d7b 06be b2ef 5dbe
00000250: 0381 f7bc 1d0b ee3d 8a82 38be ca33 47be
00000260: 6375 763d 684c 3b3e a3f9 45be aa91 0ebe
00000270: d44a 4d3e f621 1e3e 909f ee3c a4c4 df3d
00000280: 2859 b23c c539 f1bd 04ce f0bd c634 313e
00000290: 908c 253c bb20 873d 67e3 b03d d78c 693d
000002a0: 9aca 143e 1581 073e d6f9 d2bd 13af 3d3d
000002b0: 75c4 4f3e 4a23 6e3d a011 433e 37f4 523e
000002c0: 1c27 bb3d 9b4b e8bd f885 963d 604e a73d
000002d0: a043 39bc 7cf7 273e d515 a3bd 008e 043d
000002e0: cbbe 1bbe 88f0 eebd 3da5 b2bd a065 5bbd
000002f0: e795 32be e31b 2f3d bed9 91bd 8eb7 09be
00000300: 4567 9abc dc19 e23d 4b5e b83d faf0 053d
00000310: 8c9f 953d 0cb9 973d 567c 9bbb f95c a33d
00000320: 03dd 5f3d aef8 393e f278 323e a881 463d
00000330: 602b 35bd 2f14 39be 9c00 08bd de6b 503e
00000340: 8085 223e 9a43 243e c4f6 99bd b82f fabc
00000350: 8856 003e 0baf 48bd 26d5 8a3d c541 9bbd
00000360: 8a86 81bd 9c4c b43d c8e9 4c3c dd33 1f3e
00000370: 3b3c 14be 6ec1 cc3d 046f 003e 4d5c 123e
00000380: f055 cabc 9834 00bd 00b7 423e 091f fcbd
00000390: e807 ba3d df23 41be 8086 ed3b b035 473d
000003a0: 80b3 573d 6f94 05be da8c efbd 38d9 ad3d
000003b0: aaa7 103e 6969 90bb 4ca1 ea3c 575c 3dbe
000003c0: 53f5 16be e906 e3bc de01 b4bb 990a a43d
000003d0: 0e4a 32be 4752 6abe 0634 3fbe afba 94be
000003e0: 21f7 3abe bcfe 7cbd 98b2 ba3c 02d9 bbbd
000003f0: c023 7c3c 08b2 053e 10d3 6e3d acf2 2dbd
0.0155680245 0.23138459 0.029922618 -0.09444392 0.0876923 0.016685 0.2200269 -0.055512164
-0.03343665 0.20241627 -0.14398131 -0.0024333447 -0.14169621 -0.00915131 -0.14087927 0.06269115
-0.13647278 -0.1583248 -0.1385667 0.10256636 -0.13812408 0.1255141 0.042862236 0.20331323
0.077198096 0.07640033 0.078203335 -0.16860412 -0.1794061 -0.17650776 -0.24830118 -0.24879958
-0.1176749 0.13403228 0.13753918 0.017171368 -0.074147254 -0.12939623 0.06618303 0.0015245974
0.1549465 -0.018191263 -0.052954108 -0.15728387 -0.11138475 0.027524216 0.17885715 -0.08419863
0.18246755 -0.028425205 -0.16251093 0.030273095 0.21011673 -0.031285748 -0.06983514 -0.0016634858
0.11405982 -0.20040648 0.032572165 -0.030533522 0.014382333 -0.04103847 -0.07231605 -0.04327856
-0.056316003 -0.13460654 -0.17300546 -0.20299849 -0.08378723 -0.13905346 -0.14463367 0.07366604
0.07276782 -0.19034754 -0.002856248 -0.18166207 -0.043234665 0.08754691 -0.20246218 -0.1572116
-0.11441146 -0.1723868 0.16095951 0.18680397 -0.19828513 0.10636082 0.17428097 -0.04985395
-0.023952872 0.068677515 0.094787866 0.14626116 0.07196146 -0.020619337 -0.13713734 -0.043504823
-0.018592058 0.022528796 0.049190503 0.076571286 -0.111873284 -0.07863063 -0.009839908 -0.15601441
-0.06398653 -0.16513778 -0.19292879 -0.029473335 0.17257363 -0.013961151 -0.0014872104 -0.008670226
-0.006540939 0.15454754 -0.06687158 -0.10976623 0.18435624 -0.012064286 0.027464628 0.18941331
-0.16771826 -0.12338359 -0.17481118 -0.21647272 -0.013904189 -0.26382694 -0.10837703 -0.07424133
-0.027788546 0.07399571 0.17244154 -0.077443585 -0.17254117 0.025175333 0.14958793 -0.027063087
0.16056183 -0.09650545 -0.07253313 -0.06343526 -0.0643675 0.18340613 0.044085994 -0.0040967637
-0.2506644 -0.029262425 -0.13132901 -0.21673468 -0.030212885 0.116232134 -0.18018547 -0.1945335
0.060170542 0.18290865 -0.1933351 -0.13922754 0.20048076 0.15442643 0.02912882 0.10926178
0.021771029 -0.11778597 -0.11758044 0.17305288 0.0101043135 0.0659804 0.086371236 0.05701908
0.14530411 0.13232835 -0.10301559 0.046309542 0.20289786 0.058139123 0.19049692 0.20600973
0.09138319 -0.113425456 0.07349771 0.08169246 -0.011307627 0.16403002 -0.079631485 0.032361984
-0.152095 -0.116669714 -0.08722923 -0.053563714 -0.17439996 0.042751204 -0.07121609 -0.13448927
-0.01884807 0.110400885 0.0900236 0.032700516 0.07305822 0.07408342 -0.0047450466 0.079767175
0.054654133 0.1816127 0.1742895 0.048463494 -0.04423082 -0.18074106 -0.033203706 0.20353648
0.15871239 0.16041413 -0.0751777 -0.030540332 0.12533009 -0.04899506 0.06778936 -0.07580904
-0.063244894 0.088036746 0.01250691 0.15547128 -0.14476101 0.09997831 0.12542349 0.14293022
-0.024699181 -0.031300157 0.19015121 -0.12310607 0.09083539 -0.1886134 0.0072486997 0.048635185
0.05266142 -0.13044904 -0.11696787 0.08488697 0.14126459 -0.004407097 0.028641365 -0.18492256
-0.14742021 -0.027713256 -0.0054933866 0.08009834 -0.17411062 -0.22882949 -0.18672189 -0.29048678
-0.18258335 -0.06176637 0.022790238 -0.0917225 0.015389383 0.13056195 0.058306754 -0.042467758
