gail/save_model/0/SUB032_ckpt_0.pth.tar (torch_old, 154731 bytes, 16 tensors)

fc1.weight f4 [100, 22]
0	0xbe06a4a1	-0.13148738
1	0xbe4565bc	-0.1927709
2	0x3ef4b825	0.4779674
3	0xbdcfa3a5	-0.101386346
4	0x3e0e537d	0.13899036
5	0x3e9b7b5b	0.3036755
6	0x3de38299	0.11108894
7	0x3eaf9ce8	0.34299397
8	0x3ec1f468	0.3788178
9	0x3e02254c	0.1270954
10	0xbc8e3e00	-0.017363548
11	0x3e2e8638	0.17043388
12	0xbdd8b44e	-0.105812654
13	0x3ce24a18	0.027623221
14	0xbe4d2598	-0.20033872
15	0x3d226fc0	0.039657354
16	0x3d722570	0.059117734
17	0xbc0f3340	-0.008740246
18	0x3d33f178	0.043931454
19	0x3dcd58bc	0.1002669
20	0x3de339dc	0.1109502
21	0x3e291222	0.16510823
22	0x3e96aadf	0.2942724
23	0x3d885485	0.06656746
24	0xbe162242	-0.14661506
25	0x3e4b73a9	0.1986834
26	0xbd149cff	-0.036282536
27	0xbea35fe1	-0.31909087
28	0xbe6dbdf8	-0.23216999
29	0xbd4829bb	-0.048867922
30	0xbe88aa78	-0.26692557
31	0xbc82a060	-0.015945613
32	0x3dd9ca80	0.10634327
33	0x3e408d42	0.18803886
34	0xbe3f4582	-0.18678859
35	0x3d56aa08	0.05240825
36	0x3e257cc8	0.16160882
37	0x3d425d88	0.04745248
38	0x3d74f2e0	0.059801936
39	0xbe4a9880	-0.19784737
40	0xbd13d860	-0.036095023
41	0xbdd759e8	-0.10515195
42	0x3e0a4c4c	0.13505667
43	0xbe5095c4	-0.20369631
44	0x3e92a52d	0.28641644
45	0xbe9ae255	-0.30250803
46	0x3edbb254	0.4290949
47	0xbe1e86df	-0.15481137
48	0x3d154eb5	0.036452014
49	0x3df373c9	0.11887319
50	0xbdb2cf21	-0.08730913
51	0x3cf4b713	0.029872453
52	0x3e6c27c0	0.23062038
53	0x3d82e6f4	0.06391707
54	0x3d42e280	0.04757929
55	0x3e34fde2	0.17674974
56	0xbd90ac2a	-0.07064088
57	0xbd0061e0	-0.03134334
58	0x3df16a38	0.11787838
59	0x3e59def2	0.21276453
60	0x3d908ab4	0.070577055
61	0x3d3f2e70	0.046675146
62	0xbdcdd92b	-0.10051187
63	0x3c5ae400	0.0133600235
64	0xbce89908	-0.028393283
65	0x3cb67d70	0.02227661
66	0x3e90c33a	0.28273946
67	0xbf4113fb	-0.7542111
68	0x3e691049	0.22760119
69	0xbebadfaa	-0.36498767
70	0xbea982d1	-0.33107617
71	0xbeea7649	-0.4579337
72	0xbdf6224b	-0.120182596
73	0xbe9accfc	-0.30234516
74	0xbe946b4d	-0.28988114
75	0xbddada01	-0.10686112
76	0xbe1ae933	-0.15128021
77	0x3d40adc8	0.04704073
78	0x3e46c71a	0.19411889
79	0xbdebc545	-0.115122356
80	0xbdc08b80	-0.094016075
81	0x3e2450b8	0.16046417
82	0x3d8a207c	0.06744477
83	0x3e3c1e96	0.18371043
84	0x3cb18130	0.021668047
85	0xbe07395c	-0.13205475
86	0x3e28953e	0.16463181
87	0x3e4d02c2	0.20020583
88	0xbd4677a1	-0.04845393
89	0xbe149c4e	-0.1451275
90	0xbd83a546	-0.06428008
91	0x3c99d8fa	0.01878022
92	0xbdc5133a	-0.09622808
93	0x3d564610	0.05231291
94	0x3cf11ca9	0.029432612
95	0xbe66dfd5	-0.22546323
96	0x3de0e4a9	0.109811135
97	0xbdf9fa24	-0.12205914
98	0x3e0b0d82	0.13579372
99	0x3bae6ae0	0.005322799
100	0x3dacb220	0.08432412
101	0xbcb98f88	-0.022651449
102	0x3dbc5468	0.09195787
103	0x3e285976	0.16440377
104	0xbe41cfed	-0.18926974
105	0x3e04e504	0.12977988
106	0x3e42a228	0.1900717
107	0x3dfa7a8c	0.12230405
108	0x3dd053b0	0.10172212
109	0xbd3a6524	-0.04550661
110	0xbe81f6ff	-0.25383756
111	0xbe5790a9	-0.21051277
112	0x3cefeedb	0.0292887
113	0xbe020bc5	-0.12699802
114	0x3d194a88	0.037424594
115	0x3e44e942	0.19229606
116	0xbdbe5779	-0.09294028
117	0x3e2aebdc	0.16691536
118	0x3dae5fea	0.08514388
119	0x3df6990c	0.1204091
120	0xbd257b48	-0.040400773
121	0xbda400ba	-0.08007951
122	0xbd24b9a8	-0.040216118
123	0x3d7014a8	0.05861345
124	0x3d172a90	0.036905825
125	0x3e548b58	0.2075628
126	0x3e456704	0.19277579
127	0x3d0331dc	0.03202997
128	0xbd0a50b8	-0.033768386
129	0xbd07d694	-0.033163622
130	0xbd6e3280	-0.05815363
131	0x3ded1fb8	0.115783155
132	0x3e53d919	0.20688285
133	0x3de9c8c9	0.1141525
134	0xbeadde31	-0.3395858
135	0x3e8cf60f	0.27531478
136	0x3c6d0a34	0.014467765
137	0xbe8f2bbf	-0.27963063
138	0xbe4563ed	-0.192764
139	0xbe9187c2	-0.28423887
140	0xbd89e515	-0.06733147
141	0x3ac09380	0.0014692396
142	0x3db6bd4c	0.08922824
143	0x3dbd2d34	0.092371374
144	0x3db0d350	0.08634055
145	0xbe02cfc7	-0.12774573
146	0x3e09a712	0.13442639
147	0xbd77fa00	-0.060541153
148	0xbd57532c	-0.052569553
149	0x3ca354d0	0.019937903
150	0x3e171e2a	0.147576
151	0x3e1c4a3e	0.15262696
152	0xbd9c9ac8	-0.0764671
153	0x3b893c40	0.0041880906
154	0xbe5b7a21	-0.21433307
155	0x3d946900	0.0724659
156	0xbe3298d8	-0.17441118
157	0xbc721a9b	-0.014776851
158	0xbd451f00	-0.048125267
159	0x3e22ae3e	0.1588678
160	0x3ed4184d	0.4142479
161	0x3ec5898a	0.38581496
162	0x3e6467b0	0.22305179
163	0x3c304520	0.010758668
164	0x3dd26964	0.10274008
165	0xbd13acd4	-0.036053494
166	0xbde967cb	-0.1139675
167	0x3da7c0a4	0.0819104
168	0x3ddc56b0	0.10758722
169	0x3e0fa396	0.14027247
170	0x3d24b390	0.040210307
171	0xbde231cb	-0.110446535
172	0xbd69ee58	-0.057112068
173	0x3e09e6b0	0.13466907
174	0x3dae959c	0.085246295
175	0xbd54a8b4	-0.0519187
176	0xbe325196	-0.17413935
177	0xbd7760c8	-0.060395032
178	0x3eacc216	0.33741826
179	0x3f0565cf	0.5210847
180	0x3e4338ea	0.1906468
181	0x3e9c2b84	0.3050195
182	0xbd38fc17	-0.045162287
183	0x3e9f3ed9	0.31102636
184	0x3e986657	0.2976558
185	0x3e039058	0.12848032
186	0x3e446eec	0.19182938
187	0x3b018fc0	0.001976952
188	0xbe2cbe27	-0.16869412
189	0x3c97c9d8	0.018528864
190	0xbe58b8b9	-0.21164216
191	0x3d06d408	0.032917053
192	0xbe0fc1de	-0.14038798
193	0x3df65e04	0.12029651
194	0x3de26ac4	0.1105552
195	0xbd41c814	-0.04730995
196	0xbde933d0	-0.113868356
197	0xbdfc8397	-0.12329786
198	0x3e2e4885	0.17019852
199	0xbb84cbdc	-0.0040526222
200	0xbd6aa13c	-0.05728267
201	0xbe0f68dc	-0.14004844
202	0xbe247b74	-0.16062719
203	0x3e7e81be	0.2485418
204	0x3ddda0c7	0.108216815
205	0x3e2b06c1	0.16701795
206	0x3c84caa9	0.016209917
207	0xbe2dec38	-0.16984642
208	0x3e4d9c1c	0.20079082
209	0xbdb56938	-0.088579595
210	0x3e410834	0.18850785
211	0xbe31e173	-0.17371158
212	0x3d1cc130	0.038270175
213	0x3e49284c	0.19644278
214	0xbe56d6ce	-0.20980379
215	0xbe38ef86	-0.18060121
216	0xbe1c5d41	-0.15269949
217	0xbcfb1b88	-0.030652776
218	0x3d5330f0	0.051560342
219	0xbe4835f6	-0.19551834
220	0xbe85463b	-0.26030144
221	0x3e8bf937	0.27338573
222	0xbd4ea57c	-0.050450787
223	0x3daf93a4	0.08573082
224	0x3e19f620	0.15035295
225	0x3e00df40	0.12585163
226	0x3cb0a75c	0.021564178
227	0x3db62cc5	0.08895258
228	0x3df04c7a	0.11733337
229	0xbd916b98	-0.071006
230	0xbe38156d	-0.17976923
231	0x3e217b94	0.15769798
232	0x3caf4068	0.021393016
233	0x3df8a16c	0.12140164
234	0x3e0b89cc	0.13626784
235	0x3e47a54c	0.1949665
236	0xbe311b05	-0.17295463
237	0xbdc448ff	-0.095842354
238	0x3d6ca7a8	0.057777077
239	0xbd2943a8	-0.041324288
240	0x3def6888	0.1168986
241	0xbc832c20	-0.016012251
242	0x3db82859	0.08992071
243	0xbf170405	-0.5899051
244	0x3da1764c	0.078838915
245	0x3ea443a4	0.32082856
246	0x3e854454	0.26028693
247	0xbde899bd	-0.11357448
248	0xbebd9a8c	-0.37031972
249	0xbea64147	-0.32471678
250	0xbe9aa8be	-0.30206865
251	0x3d8c75f4	0.06858435
252	0xbe4bf652	-0.19918182
253	0x3e0f1a92	0.1397498
254	0x3d40b450	0.04704696
255	0x3d07b514	0.033131674

fc1.bias f4 [100]
0	0xbe500f91	-0.20318438
1	0x3e4be3df	0.19911145
2	0x3d050e02	0.032484062
3	0x3e217b15	0.15769608
4	0x3d95cf17	0.0731489
5	0xbe597d82	-0.21239284
6	0x3d739287	0.05946591
7	0xbe2b4315	-0.16724809
8	0xbe712546	-0.23549375
9	0xbdbffece	-0.09374772
10	0xbd3f3967	-0.046685603
11	0x3df5bd38	0.11998981
12	0x3e93ba18	0.28852916
13	0xbe05c937	-0.13065039
14	0x3ea85c21	0.3288279
15	0x3c0b450d	0.00850035
16	0xbcd1d4f9	-0.025614249
17	0xbe041617	-0.12899052
18	0x3e875bb2	0.26437145
19	0xbe298e75	-0.1655825
20	0x3cb83a00	0.022488594
21	0xbeaf63e4	-0.34255898
22	0xbca32a36	-0.019917589
23	0x3ce09780	0.02741599
24	0x3efdc35b	0.49563107
25	0xbe9cae01	-0.30601504
26	0xbdcd4f72	-0.100249186
27	0xbd215eec	-0.039397165
28	0x3eacd17c	0.33753574
29	0xbe893415	-0.26797548
30	0x3d67f9ff	0.0566349
31	0x3cdb0276	0.026734572
32	0xbdea6630	-0.11445272
33	0xbd8dd897	-0.06926077
34	0xbdb7f614	-0.089824826
35	0x3d0d4d44	0.034497514
36	0xbd80978b	-0.062789045
37	0xbe00de8f	-0.125849
38	0xbea84956	-0.3286845
39	0x3d20228d	0.03909545
40	0xbe2d9459	-0.16951121
41	0xbdb30ff8	-0.0874328
42	0x3c756c22	0.014979394
43	0x3e66396c	0.22482842
44	0x3e879487	0.26480505
45	0xbe21dfc9	-0.15808024
46	0xbe543ef8	-0.20727146
47	0x3e1410a6	0.14459476
48	0x3e5d0476	0.21583733
49	0xbe87288f	-0.2639813
50	0x3e6b0a29	0.22953095
51	0x3e8425f3	0.25810203
52	0xbe8f8cd7	-0.2803714
53	0xbe15cebd	-0.14629646
54	0x3ddc8690	0.10767853
55	0xbdd84116	-0.10559289
56	0xbe7e6af3	-0.24845485
57	0xbecfa1fe	-0.40553278
58	0x3d21c6fb	0.039496403
59	0x3e431b6f	0.19053434
60	0xbe20ec82	-0.1571522
61	0x3e460c40	0.1934061
62	0x3e841abf	0.25801656
63	0xbd60a2e1	-0.054842833
64	0xbeea6033	-0.4577652
65	0x3d9c14ba	0.07621141
66	0x3e6b958d	0.23006268
67	0x3e4fd8b0	0.20297503
68	0x3dcfb22d	0.10141406
69	0x3f11e7d5	0.5699437
70	0xbe3514d5	-0.17683728
71	0x3dd5a997	0.10432737
72	0xbaedcf07	-0.0018143364
73	0x3e9ce792	0.30645424
74	0xbdc26289	-0.0949145
75	0xbd2fe4a1	-0.042942647
76	0x3e770c16	0.24125704
77	0x3e964983	0.2935296
78	0xbdbd03ce	-0.09229241
79	0xbead321f	-0.33827302
80	0xbe0f803e	-0.14013764
81	0xbdff7a3c	-0.12474486
82	0xbe09fe64	-0.13475949
83	0x3edce0ff	0.43140408
84	0x3da46c52	0.08028473
85	0xbce4cb35	-0.027928928
86	0x3dd54e89	0.1041537
87	0x3e244802	0.16043094
88	0x3ecca361	0.39968398
89	0x3ea65796	0.32488698
90	0x3d6a2a1e	0.057169072
91	0x3e2106a5	0.15725191
92	0x3dc80002	0.097656265
93	0x3e4a69c1	0.19766904
94	0xbd73c20c	-0.05951123
95	0xbdb777d2	-0.08958401
96	0xbde3746b	-0.11106189
97	0x3e64db5f	0.22349308
98	0x3eca039e	0.39455885
99	0xbaece3a6	-0.0018073216

fc2.weight f4 [100, 100]
0	0xbeef1549	-0.46695927
1	0x3eb42ac0	0.35188866
2	0xbb2078a4	-0.002448597
3	0xbd1129ce	-0.03544026
4	0xbe71d52e	-0.23616478
5	0xbecbe349	-0.39821842
6	0x3e9cba69	0.3061097
7	0xbe983187	-0.29725286
8	0xbedf3ecf	-0.43602607
9	0xbea77b47	-0.3271124
10	0xbcf5596b	-0.029949864
11	0x3dfff129	0.124971695
12	0x3ebb9dac	0.36643732
13	0x3dd74d1c	0.10512754
14	0x3f12a777	0.5728678
15	0x3e918597	0.28422233
16	0xbdc88fec	-0.09793076
17	0xbebfa1ee	-0.3742823
18	0x3ec08d51	0.37607816
19	0xbea14326	-0.31496543
20	0x3c7e8c7d	0.015536425
21	0xbe6e8bc3	-0.23295502
22	0x3d534c3c	0.051586375
23	0xbd74948a	-0.05971197
24	0x3f1c9975	0.61171657
25	0xbd126b94	-0.035747126
26	0xbef46dac	-0.47739923
27	0x3c9f6c2c	0.01946076
28	0x3e540214	0.20703918
29	0xbe566124	-0.20935494
30	0xbe32293d	-0.17398544
31	0x3ec10b0e	0.37703747
32	0xbeb6f833	-0.35736236
33	0x3de60385	0.1123114
34	0xbdf08c8f	-0.117455594
35	0xbc564edc	-0.013080325
36	0x3d03fd73	0.03222413
37	0x3d991447	0.07474571
38	0xbee98160	-0.45606518
39	0x3e848083	0.25879297
40	0xbe9ff5e9	-0.31242302
41	0xbe42df64	-0.1903053
42	0xbdb5b2e6	-0.08872013
43	0xbe34c723	-0.1765409
44	0x3ed8f417	0.42373726
45	0x3d8cea1a	0.06880589
46	0xbed02a6f	-0.40657374
47	0xbe2aa1e9	-0.16663326
48	0x3ee7d9f8	0.45283484
49	0xbf0bc872	-0.5460273
50	0x3e7d4412	0.24732998
51	0x3eb42934	0.35187685
52	0xbe81dcc2	-0.25363737
53	0xbea410ec	-0.3204416
54	0x3e9f3432	0.3109451
55	0xbd9b9add	-0.07597897
56	0xbf0b55a8	-0.54427576
57	0xbf026cbb	-0.5094716
58	0x3e52d262	0.20588067
59	0x3e4ad9d9	0.19809665
60	0xbd953d26	-0.07287054
61	0x3e70d4a8	0.23518622
62	0x3e3937da	0.18087712
63	0x3e8cc6e5	0.27495494
64	0xbe43e7a5	-0.19131334
65	0x3e646029	0.22302307
66	0xbcd4962a	-0.02595051
67	0xbecc6fb6	-0.3992898
68	0x3d4bd040	0.04975915
69	0x3ecb8ace	0.39754337
70	0xbebab35d	-0.36464968
71	0x3d0158b5	0.03157874
72	0x3e9fb125	0.31189838
73	0x3d9ea0f0	0.0774554
74	0xbc1c634a	-0.009545157
75	0x3dc6c782	0.09706022
76	0x3e838cfb	0.25693497
77	0x3ea4bd01	0.3217545
78	0xbed1c62d	-0.4097151
79	0xbe2fb12b	-0.17157428
80	0xbe14e8ee	-0.1454198
81	0xbee7955c	-0.4523114
82	0x3d93e6b0	0.072217345
83	0x3e300a1c	0.17191356
84	0x3d654db3	0.055982303
85	0xbe7d4f93	-0.24737386
86	0x3e53ade7	0.20671807
87	0x3e893f60	0.26806164
88	0x3d98644d	0.07441006
89	0x3e9d0c05	0.30673233
90	0xbdc1df1d	-0.094663836
91	0x3ed14f0e	0.40880626
92	0x3dac6a1a	0.08418675
93	0x3eee5afb	0.46553788
94	0xbeb7f667	-0.35930178
95	0x3dd81ca4	0.10552338
96	0xbe6d204a	-0.23156849
97	0x3f1c6402	0.610901
98	0x3ec22942	0.37922102
99	0x3e922824	0.2854625
100	0x3ebc5296	0.36781758
101	0xbebfc4b0	-0.37454748
102	0xbd28c3bd	-0.041202296
103	0x3d208c2b	0.039196175
104	0x3e53fe8d	0.20702572
105	0x3ea73992	0.3266111
106	0xbedf3f93	-0.4360319
107	0x3ef0148e	0.46890682
108	0x3eba0f9a	0.36340028
109	0x3ea0e0ec	0.31421602
110	0x3cae5892	0.021282468
111	0xbe8a919b	-0.27064213
112	0xbee49d5f	-0.44651315
113	0xbe288b05	-0.16459282
114	0xbf0c4f62	-0.5480863
115	0xbe7d9619	-0.24764289
116	0xbcaf58e9	-0.0214047
117	0x3ed45da6	0.41477698
118	0xbead8c89	-0.33896282
119	0x3e83decb	0.25755915
120	0xbdd2a63a	-0.102856115
121	0x3e3e087f	0.18557929
122	0x3dddf67c	0.10838029
123	0x3d867419	0.065651126
124	0xbf03acc6	-0.51435506
125	0x3d1271b5	0.03575297
126	0x3f246c68	0.64227915
127	0xbdd302f6	-0.10303299
128	0xbe19c256	-0.1501554
129	0x3e84dc72	0.25949436
130	0x3ea9b1b3	0.33143386
131	0xbe360712	-0.17776135
132	0x3e9bdf53	0.3044382
133	0xbc1f8fcf	-0.0097388765
134	0xbd2547d3	-0.0403517
135	0x3c1d67e3	0.009607288
136	0x3e6874dc	0.22700828
137	0xbdd84dc7	-0.1056171
138	0x3ea4d61d	0.32194605
139	0xbe7a6d96	-0.24455866
140	0x3ed4bdf3	0.4155117
141	0x3cb9d071	0.0226824
142	0x3d6ce5d3	0.057836365
143	0x3e50b6a1	0.20382167
144	0xbef0f646	-0.47062892
145	0xbddc6b46	-0.10762648
146	0x3eed3063	0.4632598
147	0x3e065025	0.1311651
148	0xbef077d7	-0.4696643
149	0x3ef8fd83	0.48630914
150	0xbd2000de	-0.039063327
151	0xbf047022	-0.517336
152	0x3e996130	0.2995696
153	0x3e8341fa	0.25636274
154	0xbeaf0c7b	-0.3418921
155	0x3de1324a	0.1099592
156	0x3ecd21ab	0.4006475
157	0x3ef96df9	0.48716715
158	0xbe71e8e1	-0.23623993
159	0xbebf8971	-0.37409547
160	0xbd830d98	-0.06399077
161	0xbeb8e560	-0.361125
162	0x3c023695	0.007947584
163	0xbe65ee3f	-0.22454165
164	0x3db88a3d	0.09010742
165	0xbeb0c7ee	-0.34527534
166	0x3e0b1394	0.13581687
167	0x3e9cbd65	0.30613247
168	0xbd704a95	-0.058664877
169	0xbedd72dd	-0.43251696
170	0x3e9a0155	0.3007914
171	0xbdf4abdc	-0.11946842
172	0xbda3e562	-0.08002736
173	0xbe26f6ba	-0.16305056
174	0x3db3fb56	0.08788173
175	0xbd081bcb	-0.03322963
176	0xbe445ff5	-0.1917723
177	0xbe983be0	-0.2973318
178	0x3ec7d47b	0.39029297
179	0x3e1cf983	0.15329556
180	0x3e35e21b	0.17762034
181	0x3e9190a3	0.28430662
182	0xbd8b9a9d	-0.068165995
183	0xbb73fd9c	-0.003723002
184	0x3d47bd6a	0.048764624
185	0x3e9bfeaf	0.30467746
186	0xbe865b68	-0.26241612
187	0xbe13b56c	-0.14424676
188	0xbd2e743e	-0.042591326
189	0xbeec2682	-0.4612313
190	0xbd6ed909	-0.05831245
191	0xbe8539ab	-0.2602056
192	0xbcf6730f	-0.030084161
193	0xbebaeb0d	-0.36507455
194	0x3ea7bbeb	0.32760558
195	0xbd628426	-0.055301808
196	0x3e6ce3f7	0.23133837
197	0xbf17ce6d	-0.59299356
198	0xbf0a5601	-0.5403748
199	0xbebccae2	-0.36873537
200	0x3eb791af	0.35853335
201	0xbeb6b016	-0.35681218
202	0xbe1246fd	-0.14284892
203	0xbd55b52c	-0.052174732
204	0x3e05962c	0.13045567
205	0x3e85a2b1	0.26100686
206	0xbee3991c	-0.4445275
207	0x3f08186d	0.5316227
208	0x3edd8dd5	0.43272272
209	0x3ebb9463	0.36636648
210	0x3e15f006	0.14642343
211	0xbd29f588	-0.041493922
212	0xbe8cb591	-0.27482274
213	0xbdad9f15	-0.08477608
214	0xbeebf428	-0.46084714
215	0xbe2cf64a	-0.16890827
216	0x3de1640f	0.11005413
217	0x3ebb346f	0.3656344
218	0xbeeb3d11	-0.45945027
219	0x3e93866a	0.28813487
220	0xbd76f9d0	-0.060296834
221	0x3d89aceb	0.067224346
222	0x3e02c196	0.1276916
223	0x3d987175	0.07443515
224	0xbee046c0	-0.43803978
225	0x3e03c2fb	0.12867348
226	0x3f150cad	0.58222467
227	0x3cb950f4	0.02262161
228	0xbdab2db1	-0.08358324
229	0x3da45b17	0.080251865
230	0x3e626830	0.22110057
231	0xbe84c139	-0.25928667
232	0x3ed03a06	0.40669268
233	0xbddd2e31	-0.10799826
234	0xbdbb2f29	-0.091398545
235	0x3da5901d	0.08084128
236	0x3e328bb0	0.17436099
237	0xbd9dac43	-0.07698872
238	0x3eca49ce	0.39509434
239	0xbea35762	-0.31902605
240	0x3efee13e	0.4978122
241	0x3d3d7ae8	0.04625979
242	0x3d2b9475	0.041889627
243	0x3e3d852b	0.18507831
244	0xbe8a416a	-0.27003032
245	0xbd3e663a	-0.04648421
246	0x3ebee1b2	0.37281567
247	0x3e343675	0.17598899
248	0xbec42437	-0.3830888
249	0x3f03a87d	0.5142897
250	0x3da317ec	0.07963547
251	0xbf01129d	-0.50419027
252	0x3e9ba936	0.30402535
253	0x3ea921c1	0.33033565
254	0xbea90aa5	-0.33015934
255	0x3d7719f5	0.06032749

fc2.bias f4 [100]
0	0x3f040da6	0.51583326
1	0xbf139225	-0.57644874
2	0xbf00d56b	-0.5032565
3	0xbdb6dacb	-0.0892845
4	0x3ea1490b	0.3150104
5	0xbcd4e8ad	-0.025989855
6	0xbf0a5fa4	-0.54052186
7	0x3f195b79	0.599052
8	0x3ee6ac69	0.45053414
9	0xbed95334	-0.4244629
10	0x3dd65b03	0.10466578
11	0x3edc736f	0.4305682
12	0xbedea2d3	-0.434836
13	0x3f1cf6b4	0.6131394
14	0x3ef4ae31	0.47789147
15	0x3dd97829	0.10618622
16	0xbe81e9de	-0.2537374
17	0xbd2649f5	-0.040597875
18	0xbf18eec1	-0.5973931
19	0x3ef908f4	0.48639643
20	0xbe6c6286	-0.23084459
21	0x3df4642b	0.11933168
22	0xbeba8065	-0.36426082
23	0xbf0cafd7	-0.5495581
24	0x3eed2584	0.46317685
25	0x3f041469	0.51593643
26	0x3edec2be	0.43507951
27	0xbf11a742	-0.5689584
28	0x3f1fc684	0.62412286
29	0xbe3267fd	-0.17422481
30	0xbefdc940	-0.49567604
31	0x3f21a951	0.6314898
32	0x3d7e0a6c	0.062021658
33	0xbf193e32	-0.5986053
34	0xbea024df	-0.3127813
35	0x3f1b7f86	0.6074146
36	0x3c826c36	0.01592074
37	0x3f065ad5	0.5248235
38	0xbdc64464	-0.09681013
39	0x3f18ae20	0.59640694
40	0xbcc56556	-0.024096172
41	0xbde9fdfb	-0.11425396
42	0x3cb4eef0	0.02208659
43	0xbec805ec	-0.39067018
44	0x3f15c121	0.58497816
45	0xbf0e076d	-0.5548008
46	0xbe3a2bc2	-0.18180755
47	0x3f0b50a5	0.5441993
48	0xbe9b43c2	-0.30325133
49	0xbf17f5d8	-0.593595
50	0xbd902d25	-0.07039861
51	0xbf18da32	-0.5970794
52	0xbf09993c	-0.5374944
53	0x3ce9c80a	0.028537769
54	0x3da98f47	0.08279281
55	0x3f0e88a0	0.55677223
56	0xbf1d3310	-0.6140604
57	0xbed8940b	-0.42300448
58	0xbf13d98b	-0.5775382
59	0x3d35be9b	0.04437123
60	0xbe68379c	-0.22677463
61	0x3f20b86c	0.62781405
62	0x3e5fb32f	0.21845697
63	0x3e9986f5	0.29985777
64	0x3ea72a28	0.3264935
65	0xbe8cc299	-0.27492216
66	0x3efe4a44	0.49666035
67	0xbeebf7fc	-0.46087635
68	0x3edb9001	0.42883304
69	0x3de57af4	0.11205092
70	0xbe430c57	-0.19047676
71	0x3ee1ff3c	0.4414004
72	0x3efb4208	0.49073815
73	0x3e096ea5	0.13421114
74	0xbf1cc969	-0.6124483
75	0x3f1ca6ff	0.61192316
76	0xbe86128c	-0.26186025
77	0xbd3cc37f	-0.046084877
78	0xbf06ce02	-0.5265809
79	0x3eafd586	0.34342593
80	0xbf1365d3	-0.57577246
81	0xbf00cacb	-0.5030944
82	0xbf0aa9fd	-0.5416563
83	0xbda07f56	-0.078367874
84	0xbe9f78d3	-0.3114687
85	0xbe214631	-0.15749432
86	0x3eef5123	0.4674159
87	0x3eea04b1	0.45706704
88	0x3ee55806	0.4479372
89	0x3f1eca32	0.62027276
90	0x3efc8f48	0.49328065
91	0x3edeb499	0.4349716
92	0xbe07c316	-0.13258013
93	0xbf122629	-0.5708948
94	0xbf094d39	-0.5363346
95	0xbf2274bb	-0.63459367
96	0x3f0086ef	0.5020589
97	0xbf1f11b2	-0.62136376
98	0xbf1325c5	-0.57479507
99	0x3e4407d4	0.19143611

fc3.weight f4 [2, 100]
0	0x3f5cc4cc	0.8623779
1	0xbf54b0e8	-0.8308244
2	0xbf680f79	-0.9064861
3	0x3f0098cc	0.5023315
4	0x3f53414d	0.82521516
5	0xbef0ae79	-0.47008112
6	0xbf57744a	-0.8416182
7	0x3f459d71	0.7719336
8	0x3f4cbb97	0.7997374
9	0xbf5fb458	-0.8738456
10	0xbf0aaf16	-0.5417341
11	0x3f4cd40d	0.80011064
12	0xbf607d9f	-0.8769168
13	0x3f4c880e	0.798951
14	0x3f5eb66e	0.86997116
15	0xbef91ac4	-0.48653233
16	0xbfb40a22	-1.4065592
17	0x3eeca88b	0.46222338
18	0xbf54af83	-0.8308031
19	0x3f66a2a1	0.900919
20	0xbf8222fb	-1.0166925
21	0x3f6d18a2	0.9261571
22	0xbf60ecdc	-0.8786142
23	0xbf558289	-0.83402306
24	0x3f4f7857	0.81043
25	0x3f520a7f	0.82047266
26	0x3f4dd4e4	0.8040297
27	0xbf52ca7f	-0.82340235
28	0x3f5457a6	0.8294624
29	0xbf5c586e	-0.86072433
30	0xbf4d79f9	-0.8026424
31	0x3f42f05e	0.7614802
32	0xbf0c5b26	-0.5482658
33	0xbf4dc42e	-0.8037747
34	0x3f1a6434	0.6030915
35	0x3f51c91f	0.8194751
36	0xbf00585f	-0.50134844
37	0x3f509b06	0.81486547
38	0x3f0ebf80	0.55760956
39	0x3f4bc3f9	0.79595906
40	0xbf576f04	-0.8415377
41	0x3f041e9e	0.5160922
42	0xbef3ec87	-0.47641394
43	0xbf5bdef6	-0.85887086
44	0x3f52bf25	0.82322913
45	0xbf44f15c	-0.76930785
46	0xbfb4433a	-1.4083016
47	0x3f50bfd6	0.8154272
48	0xbf62d234	-0.88601995
49	0xbf503d8e	-0.81343925
50	0x3fc3e735	1.5304934
51	0xbf4f192b	-0.8089778
52	0xbf51f0fd	-0.82008344
53	0xbf01bb3a	-0.5067631
54	0xbfce7f30	-1.6132565
55	0x3f4c1724	0.7972281
56	0xbf4c1df9	-0.79733235
57	0xbf609ca7	-0.8773903
58	0xbf45dcb4	-0.7728989
59	0x3ef3f722	0.47649485
60	0xbfb5caa3	-1.4202465
61	0x3f416925	0.7555106
62	0xbf1559f1	-0.58340365
63	0xbfb7da09	-1.4363414
64	0x3f4e52c6	0.8059505
65	0xbf614a72	-0.8800422
66	0x3f50c48e	0.8154992
67	0xbf5bb56d	-0.8582371
68	0x3f603fa3	0.875971
69	0xbf03e507	-0.51521343
70	0xbf550003	-0.8320314
71	0x3f6a539d	0.91533834
72	0x3f528da0	0.8224735
73	0xbf0b23f5	-0.5435174
74	0xbf58daa7	-0.84708637
75	0x3f510b15	0.81657535
76	0x3f2328a1	0.6373387
77	0x3f039547	0.51399654
78	0xbf6b2544	-0.9185374
79	0x3f6e2978	0.93032026
80	0xbf4e2ada	-0.80534136
81	0xbf4a3f5b	-0.7900292
82	0xbf51bdff	-0.81930536
83	0xbf63e2c9	-0.8901792
84	0xbf4c5aad	-0.7982586
85	0xbf88afeb	-1.0678686
86	0x3f6676c9	0.90025
87	0x3f4f3a47	0.809483
88	0x3f58ca9d	0.84684163
89	0x3f587ad1	0.845624
90	0x3f5205cd	0.820401
91	0x3f6577af	0.8963575
92	0xbf7d4474	-0.98932576
93	0xbf58d291	-0.846963
94	0xbf4cdd70	-0.80025387
95	0xbf52a43d	-0.8228186
96	0x3f58a1cc	0.8462188
97	0xbf448306	-0.76762426
98	0xbf4e54e1	-0.80598265
99	0x3fb80a8f	1.4378222
100	0xbf89ee07	-1.0775765
101	0x3f89e02a	1.0771534
102	0x3f847e46	1.0351036
103	0xbf325f24	-0.69676423
104	0xbf90d017	-1.1313504
105	0x3f30b914	0.69032407
106	0x3f8d9c96	1.1063411
107	0xbf810384	-1.0079198
108	0xbf88c156	-1.0684001
109	0x3f8829e5	1.0637785
110	0x3f3c2ab8	0.73502684
111	0xbf85426c	-1.0410895
112	0x3f84d65d	1.0377918
113	0xbf8b2f5f	-1.0873832
114	0xbf84c210	-1.0371723
115	0x3f38d8d6	0.72205865
116	0x3eeb4bd8	0.45956302
117	0xbf2f8c8f	-0.6857385
118	0x3f8a8dac	1.0824485
119	0xbf84ff81	-1.0390474
120	0x3fc639c3	1.5486377
121	0xbf859fef	-1.0439433
122	0x3f8b16f5	1.0866381
123	0x3f89aab6	1.0755222
124	0xbf8a3f39	-1.0800544
125	0xbf8ce17c	-1.1006312
126	0xbf8f0145	-1.1172262
127	0x3f88e415	1.0694605
128	0xbf896b8d	-1.0735947
129	0x3f9666b9	1.1750098
130	0x3f8f4728	1.119359
131	0xbf78efbc	-0.97240806
132	0x3f34fb37	0.70695823
133	0x3f86b280	1.0523224
134	0xbf57407e	-0.8408278
135	0xbf8a0c6f	-1.0785044
136	0x3f368472	0.71295846
137	0xbf8afcdf	-1.085842
138	0xbf2a4048	-0.66504335
139	0xbf899592	-1.074877
140	0x3f90aec7	1.1303338
141	0xbf39b7b5	-0.7254594
142	0x3f312af9	0.69206196
143	0x3f8ac14a	1.0840237
144	0xbf8d7409	-1.1051036
145	0x3f815d9e	1.0106695
146	0x3fcbebd1	1.593134
147	0xbf8aa19f	-1.0830573
148	0x3f8604df	1.0470237
149	0x3f8e3e2f	1.1112727
150	0xbfee4219	-1.8613921
151	0x3f8821ed	1.0635353
152	0x3f8852a6	1.0650222
153	0x3f30e5b7	0.6910052
154	0x3f275aed	0.65373117
155	0xbf8eb982	-1.1150362
156	0x3f867f63	1.0507625
157	0x3f89167a	1.0709984
158	0x3f74fdf7	0.9570002
159	0xbf27356f	-0.6531591
160	0x3fd00ddc	1.625423
161	0xbf81ad1e	-1.0130956
162	0x3f47e848	0.7808881
163	0x3ff45b16	1.9090297
164	0xbf8ea48d	-1.1143967
165	0x3f84badb	1.0369524
166	0xbf870dbe	-1.0551069
167	0x3f897999	1.0740234
168	0xbf87a749	-1.0597926
169	0x3f3889c6	0.72085226
170	0x3f8d4e96	1.1039608
171	0xbf81cfef	-1.0141581
172	0xbf8eadcb	-1.1146787
173	0x3f33cd07	0.7023472
174	0x3f892233	1.0713562
175	0xbf89314f	-1.0718173
176	0xbf7a9d4f	-0.97896284
177	0xbf2d7e53	-0.6777088
178	0x3f7c2a53	0.9850208
179	0xbf83a692	-1.0285208
180	0x3f872db3	1.0560821
181	0x3f852c5c	1.0404162
182	0x3f8b5376	1.0884845
183	0x3f9740d3	1.1816658
184	0x3f8dbfaf	1.1074122
185	0x3f916eb3	1.1361908
186	0xbf84bd8e	-1.0370347
187	0xbf8b0ab6	-1.0862644
188	0xbf8a2afb	-1.0794367
189	0xbf8a52a7	-1.0806473
190	0xbf87749c	-1.0582461
191	0xbf829a4e	-1.020334
192	0x3f892bd8	1.0716505
193	0x3f891ad7	1.0711316
194	0x3f87e3d7	1.0616406
195	0x3f8a624e	1.081125
196	0xbf88720a	-1.0659802
197	0x3f80ef43	1.0073017
198	0x3f8b75b8	1.08953
199	0xbfb30129	-1.3984729

fc3.bias f4 [2]
0	0x3f5db28e	0.8660058
1	0xbf589adf	-0.84611315

fc1.weight f4 [100, 22]
0	0x3dba80fa	0.091066316
1	0xbb413a47	-0.00294842
2	0xbb52aa38	-0.0032144915
3	0xbba6e515	-0.0050932267
4	0xbb8dcb85	-0.00432724
5	0xbd2cd741	-0.04219747
6	0xbd183942	-0.03716398
7	0xbcc78f83	-0.024360424
8	0xbd104a70	-0.03522724
9	0x80009cbb	-5.6224e-41
10	0x00026d09	2.22785e-40
11	0x00081b1f	7.44413e-40
12	0x000447f1	3.9315e-40
13	0x800c365f	-1.12153e-39
14	0x00090d34	8.31256e-40
15	0x8012ba7a	-1.719934e-39
16	0x00082d2b	7.50887e-40
17	0x8005350c	-4.78207e-40
18	0x8009b25d	-8.90504e-40
19	0x8016d6ec	-2.09748e-39
20	0x800a1b8d	-9.28238e-40
21	0x8227fb1c	-1.2341287e-37
22	0xada092c9	-1.825508e-11
23	0x2e0d0cec	3.2071165e-11
24	0x2e62044d	5.139027e-11
25	0x2d4d1bae	1.1659047e-11
26	0xae2ac725	-3.88304e-11
27	0x2d115470	8.261045e-12
28	0x2d1034aa	8.197146e-12
29	0x2d0bd14d	7.947709e-12
30	0x2d0fb467	8.168666e-12
31	0x00018e58	1.42899e-40
32	0x800e892e	-1.334908e-39
33	0x00118a9e	1.61093e-39
34	0x001242f2	1.677054e-39
35	0x000243e2	2.08023e-40
36	0x800a7275	-9.59414e-40
37	0x000da386	1.252523e-39
38	0x800bed54	-1.095328e-39
39	0x80104214	-1.493072e-39
40	0x800b4811	-1.036043e-39
41	0x801098dc	-1.524204e-39
42	0x801330a4	-1.762323e-39
43	0x800c550f	-1.132539e-39
44	0xb721aed3	-9.637052e-06
45	0x37ccbe58	2.440733e-05
46	0x38159453	3.5662506e-05
47	0x37157efd	8.910659e-06
48	0xb7ad3629	-2.0648427e-05
49	0x36620d72	3.368445e-06
50	0x36605d0c	3.3432761e-06
51	0x365a3f34	3.252132e-06
52	0x365fa05a	3.3322926e-06
53	0x0013488e	1.770902e-39
54	0x800053ac	-3.0016e-41
55	0x00118bb0	1.611314e-39
56	0x800a70da	-9.58838e-40
57	0x8007a081	-7.00426e-40
58	0x800124a0	-1.04974e-40
59	0x8006b589	-6.16136e-40
60	0x800123ee	-1.04725e-40
61	0x000e4598	1.310662e-39
62	0x8000b87e	-6.6183e-41
63	0x000c0dbd	1.106954e-39
64	0x0014112c	1.84287e-39
65	0x0008382b	7.54833e-40
66	0xbdba8357	-0.09107082
67	0x3b4139e7	0.0029483975
68	0x3b52ab0b	0.0032145407
69	0x3ba6e520	0.005093232
70	0x3b8dcbef	0.0043272893
71	0x3d2cd970	0.042199552
72	0x3d183b26	0.037165783
73	0x3cc791fa	0.0243616
74	0x3d104c3b	0.03522895
75	0x80058641	-5.07339e-40
76	0x0009c1f2	8.96094e-40
77	0x000e413d	1.3091e-39
78	0x80151ac9	-1.938154e-39
79	0x000555c8	4.8995e-40
80	0x800c4d79	-1.129818e-39
81	0x0007ec89	7.27701e-40
82	0x000ed11f	1.360715e-39
83	0x0004b59b	4.3249e-40
84	0x0015343c	1.947284e-39
85	0x0008874e	7.83222e-40
86	0x80028854	-2.32576e-40
87	0x80077397	-6.84314e-40
88	0xa976c4ce	-5.4793674e-14
89	0xa9474a03	-4.425107e-14
90	0x290ee1b8	3.1726114e-14
91	0x28c32f45	2.1669849e-14
92	0x29420b9a	4.3086716e-14
93	0x298f74ca	6.3707354e-14
94	0x298f387c	6.360274e-14
95	0x298e868e	6.329408e-14
96	0x298f1f38	6.355891e-14
97	0x80053b63	-4.80481e-40
98	0x000f7ff8	1.423439e-39
99	0x80053a2d	-4.80047e-40
100	0x00175ed0	2.146229e-39
101	0x00011132	9.8004e-41
102	0x0003ccd6	3.48988e-40
103	0x8018258b	-2.21752e-39
104	0x00163765	2.040253e-39
105	0x800554f7	-4.89657e-40
106	0x80093d6b	-8.48552e-40
107	0x00163953	2.040945e-39
108	0x000f0305	1.378616e-39
109	0x80103cb2	-1.491141e-39
110	0x3dba81e7	0.09106808
111	0xbb413a25	-0.002948412
112	0xbb52aa8f	-0.0032145118
113	0xbba6e521	-0.0050932323
114	0xbb8dcbb3	-0.0043272614
115	0xbd2cd81c	-0.042198285
116	0xbd183a01	-0.03716469
117	0xbcc7907c	-0.024360888
118	0xbd104b1f	-0.03522789
119	0x800a3f06	-9.40964e-40
120	0x8009b779	-8.92337e-40
121	0x8005e2ca	-5.40534e-40
122	0x0015e618	2.011088e-39
123	0x0001697b	1.29675e-40
124	0x801277b3	-1.695979e-39
125	0x00098ac2	8.76296e-40
126	0x001372ec	1.7861e-39
127	0x80192647	-2.309619e-39
128	0x00028246	2.30404e-40
129	0x801662c2	-2.055809e-39
130	0x001392e2	1.797566e-39
131	0x8014942e	-1.889867e-39
132	0x3afa5eda	0.0019101754
133	0xbabf9941	-0.0014617817
134	0xbb590993	-0.003311728
135	0xbab4661c	-0.0013763341
136	0xb92be476	-0.00016392939
137	0xba72653e	-0.00092466536
138	0xba7128c0	-0.00091994926
139	0xba6d1430	-0.00090438407
140	0xba70a1a6	-0.0009179361
141	0x8013e82d	-1.828163e-39
142	0x00096d14	8.6565e-40
143	0x00050d82	4.64023e-40
144	0x0010ae5c	1.531916e-39
145	0x8000b14a	-6.36e-41
146	0x000306b1	2.77907e-40
147	0x8003d0a8	-3.50358e-40
148	0x80043b6b	-3.88657e-40
149	0x000a68bb	9.55925e-40
150	0x800b2536	-1.023539e-39
151	0x00086d50	7.73898e-40
152	0x80089157	-7.86822e-40
153	0x02e93ad4	3.4270039e-37
154	0xac0446e1	-1.8797674e-12
155	0x2cead166	6.673928e-12
156	0x2ce95ce9	6.6325734e-12
157	0x2c39f2ee	2.6424934e-12
158	0xad1d0bf2	-8.927069e-12
159	0x2a8491f2	2.354918e-13
160	0x2a7a5bd0	2.2236314e-13
161	0x2a4221bc	1.7242365e-13
162	0x2a7390d8	2.1632988e-13
163	0x0014de08	1.91636e-39
164	0x00104433	1.493833e-39
165	0x00113747	1.581033e-39
166	0x800ec77f	-1.357263e-39
167	0x00128e8c	1.704175e-39
168	0x8008ded6	-8.14622e-40
169	0x00060e40	5.56125e-40
170	0x8000bbc9	-6.7365e-41
171	0x000629fa	5.66071e-40
172	0x001251e5	1.682417e-39
173	0x00012208	1.04044e-40
174	0x8007d620	-7.19662e-40
175	0x000b77b1	1.053128e-39
176	0xb654cd4d	-3.1709963e-06
177	0x372e1595	1.0376233e-05
178	0x3755f12d	1.2751942e-05
179	0x36116348	2.1664473e-06
180	0xb7662604	-1.37179195e-05
181	0x35331e28	6.672658e-07
182	0x352e305a	6.489041e-07
183	0x351900da	5.699818e-07
184	0x352befae	6.4051244e-07
185	0x0001f4c6	1.79644e-40
186	0x800b6782	-1.047322e-39
187	0x800e4319	-1.309767e-39
188	0x800ea4fa	-1.34488e-39
189	0x8013bffd	-1.813747e-39
190	0x00155181	1.957784e-39
191	0x800ba77d	-1.070274e-39
192	0x000f1234	1.384062e-39
193	0x800fba43	-1.44435e-39
194	0x8014e08a	-1.91726e-39
195	0x8014ab1a	-1.89809e-39
196	0x800b1a32	-1.019588e-39
197	0x800d50ff	-1.222917e-39
198	0xbdba83a7	-0.09107142
199	0x3b4139d5	0.0029483933
200	0x3b52ab1f	0.0032145453
201	0x3ba6e516	0.005093227
202	0x3b8dcbf8	0.0043272935
203	0x3d2cd9bd	0.04219984
204	0x3d183b68	0.03716603
205	0x3cc79248	0.024361745
206	0x3d104c79	0.03522918
207	0x8000eb24	-8.4353e-41
208	0x8015b006	-1.991691e-39
209	0x80052cae	-4.75206e-40
210	0x800e14a2	-1.293099e-39
211	0x8015b05a	-1.991808e-39
212	0x0006f2e3	6.38144e-40
213	0x0005079f	4.61911e-40
214	0x000ef9ea	1.375349e-39
215	0x8007671e	-6.7984e-40
216	0x80012e74	-1.085e-40
217	0x0009f40c	9.14067e-40
218	0x000b8e9f	1.061353e-39
219	0x800add54	-9.97753e-40
220	0x3dba8483	0.09107306
221	0xbb4139c3	-0.0029483892
222	0xbb52ab70	-0.0032145642
223	0xbba6e522	-0.0050932327
224	0xbb8dcc18	-0.0043273084
225	0xbd2cda8e	-0.042200617
226	0xbd183c1d	-0.037166703
227	0xbcc79337	-0.02436219
228	0xbd104d2a	-0.03522984
229	0x0006b1d1	6.14801e-40
230	0x00094c17	8.53815e-40
231	0x800533e1	-4.77788e-40
232	0x80022ba1	-1.99322e-40
233	0x0005b0c3	5.22588e-40
234	0x00164527	2.045188e-39
235	0x8005274b	-4.73273e-40
236	0x000aa2dc	9.76778e-40
237	0x00114446	1.585695e-39
238	0x8017b45b	-2.176916e-39
239	0x001591a7	1.980796e-39
240	0x80005f98	-3.4293e-41
241	0x00038c98	3.25942e-40
242	0x3dba83f9	0.09107203
243	0xbb4139c9	-0.0029483906
244	0xbb52ab42	-0.0032145535
245	0xbba6e51b	-0.0050932295
246	0xbb8dcc03	-0.0043272986
247	0xbd2cda0b	-0.04220013
248	0xbd183baa	-0.037166275
249	0xbcc792a4	-0.024361916
250	0xbd104cb8	-0.035229415
251	0x800251e0	-2.13042e-40
252	0x800cee37	-1.187481e-39
253	0x00015318	1.21644e-40
254	0x000aa403	9.77191e-40
255	0x0006d12c	6.2605e-40

fc1.bias f4 [100]
0	0x3deecd24	0.11660221
1	0xad176478	-8.605665e-12
2	0xb66bf362	-3.5159396e-06
3	0xbdeed089	-0.11660869
4	0xa9910332	-6.439848e-14
5	0x3deece77	0.11660474
6	0x3a7a15eb	0.0009540009
7	0xaab2fe26	-3.1795503e-13
8	0xb54b5528	-7.574731e-07
9	0xbdeed103	-0.116609596
10	0x3deed248	0.11661202
11	0x3deed17c	0.1166105
12	0x371bd7dc	9.288979e-06
13	0x3deed1d3	0.116611145
14	0xbdeed257	-0.11661213
15	0x3deed232	0.11661185
16	0xbdeed280	-0.116612434
17	0xbdeed252	-0.11661209
18	0xbaddba11	-0.0016916414
19	0xbdeed31f	-0.11661362
20	0x3deece35	0.116604246
21	0xb9e56014	-0.00043749867
22	0xbdeecf0f	-0.11660587
23	0x398928fb	0.0002616121
24	0x3deeceaf	0.116605155
25	0xbdeece60	-0.11660457
26	0xbdeed047	-0.116608195
27	0xbdeed1c5	-0.11661104
28	0x293b3d1c	4.1575345e-14
29	0x3deed2e5	0.11661319
30	0xbdeeccf6	-0.11660187
31	0x2daa7086	1.9376733e-11
32	0x3a1e0ec0	0.00060294196
33	0x3deed18e	0.11661063
34	0xbdeed04b	-0.116608225
35	0x3deecd46	0.116602466
36	0xa8ddab2b	-2.4610161e-14
37	0xbdeece9b	-0.116605006
38	0xb3b7cdce	-8.559037e-08
39	0x30367e5b	6.6390776e-10
40	0x37477d79	1.1890538e-05
41	0x36032238	1.954044e-06
42	0xad3dba90	-1.0784831e-11
43	0x2b894b28	9.755296e-13
44	0x368e7eea	4.2467045e-06
45	0x3714771e	8.849222e-06
46	0x3deed112	0.11660971
47	0xbdeed15b	-0.11661025
48	0x242fd3a8	3.8126356e-17
49	0xbdeed24e	-0.11661206
50	0xbdeed09d	-0.116608836
51	0xbdeed16c	-0.11661038
52	0x3deed16c	0.11661038
53	0x3a49279b	0.0007673443
54	0xbdeecde4	-0.11660364
55	0xbdeed213	-0.11661162
56	0x2a90d727	2.572883e-13
57	0x3deed05c	0.11660835
58	0x3deed1e9	0.11661131
59	0x2a1dc8b2	1.4014031e-13
60	0x3deed248	0.11661202
61	0xbdeeccdd	-0.11660168
62	0x3deed0f4	0.116609484
63	0x3a195088	0.0005848487
64	0x3deed222	0.116611734
65	0xa67c04e4	-8.743669e-16
66	0x3deecf5d	0.11660645
67	0xbdeed1f1	-0.11661137
68	0x3deed134	0.11660996
69	0x3deecbf3	0.11659994
70	0xb7668be9	-1.3741644e-05
71	0x3deed1ea	0.11661132
72	0x3deed020	0.116607904
73	0xbdeed23b	-0.11661192
74	0xbdeed0a8	-0.11660892
75	0x3deed188	0.11661059
76	0x3deed1ca	0.11661108
77	0xbdeed28f	-0.116612546
78	0xab6ddf95	-8.4509597e-13
79	0x3deecff1	0.116607554
80	0xbdeece78	-0.116604745
81	0x296f285a	5.310366e-14
82	0xb6e2dd05	-6.761055e-06
83	0x3deed0b4	0.11660901
84	0xbdeecf8c	-0.1166068
85	0x3deed163	0.11661031
86	0x3deece26	0.116604134
87	0x3deecd5a	0.116602615
88	0x3deed20e	0.116611585
89	0x3deecee1	0.11660553
90	0xb7eff116	-2.8603285e-05
91	0x2b4b0bc0	7.2136394e-13
92	0x36726241	3.6118001e-06
93	0x3deed27d	0.11661241
94	0xbdeed155	-0.11661021
95	0x3deed062	0.116608396
96	0xaac15148	-3.4340087e-13
97	0x27b0562f	4.8943254e-15
98	0xaa0fe8cf	-1.2781723e-13
99	0xbdeed1e8	-0.1166113

fc2.weight f4 [100, 100]
0	0xbc8e6c87	-0.017385734
1	0x2cc2ebd2	5.539993e-12
2	0x36e72008	6.8880654e-06
3	0x3c8e6e65	0.017386625
4	0xa9a82be0	-7.46831e-14
5	0xbc8e6d3f	-0.017386077
6	0xba23729d	-0.0006235035
7	0x2c489ffa	2.8510514e-12
8	0x3672c0ce	3.6173037e-06
9	0x3c8e6ea4	0.017386742
10	0xbc8e6f5b	-0.017387083
11	0xbc8e6ee7	-0.017386867
12	0xb775534f	-1.4622535e-05
13	0xbc8e6f17	-0.017386956
14	0x3c8e6f5f	0.01738709
15	0xbc8e6f4e	-0.017387059
16	0x3c8e6f73	0.017387128
17	0x3c8e6f5d	0.017387087
18	0xba575cc2	-0.0008215421
19	0x3c8e6fcf	0.017387299
20	0xbc8e6d1d	-0.017386014
21	0x3892b2f0	6.995152e-05
22	0x3c8e6d94	0.017386235
23	0xb98a5a88	-0.00026388862
24	0xbc8e6d5c	-0.017386131
25	0x3c8e6d33	0.017386055
26	0x3c8e6e3f	0.017386554
27	0x3c8e6f0e	0.01738694
28	0xa9a1f3c8	-7.1921256e-14
29	0xbc8e6fad	-0.017387236
30	0x3c8e6c6d	0.017385686
31	0x2e186df6	3.4658464e-11
32	0xb9ab6770	-0.0003269273
33	0xbc8e6eef	-0.017386882
34	0x3c8e6e43	0.017386561
35	0xbc8e6c97	-0.017385764
36	0x290b017f	3.0865498e-14
37	0x3c8e6d52	0.017386112
38	0xb2da8406	-2.5438577e-08
39	0xad4e6562	-1.1732256e-11
40	0x3849f792	4.8152702e-05
41	0xb4cac60a	-3.7769524e-07
42	0x2d745a5a	1.3889856e-11
43	0x2b89c32a	9.788604e-13
44	0x36ee4a16	7.1015775e-06
45	0xb73f34ac	-1.1396751e-05
46	0xbc8e6eb0	-0.017386764
47	0x3c8e6ed7	0.017386837
48	0xa4174f4d	-3.2810076e-17
49	0x3c8e6f5d	0.017387087
50	0x3c8e6e70	0.017386645
51	0x3c8e6edf	0.017386852
52	0xbc8e6edf	-0.017386852
53	0x3a838b17	0.0010035959
54	0x3c8e6cf0	0.01738593
55	0x3c8e6f36	0.017387014
56	0xa92be630	-3.8169283e-14
57	0xbc8e6e4a	-0.017386574
58	0xbc8e6f21	-0.017386975
59	0x29aec556	7.7613846e-14
60	0xbc8e6f5b	-0.017387083
61	0x3c8e6c5f	0.01738566
62	0xbc8e6e9e	-0.01738673
63	0x3a5eaa92	0.0008494045
64	0xbc8e6f41	-0.017387034
65	0xa4807ad8	-5.5719257e-17
66	0xbc8e6dbb	-0.017386308
67	0x3c8e6f27	0.017386986
68	0xbc8e6ec0	-0.017386794
69	0xbc8e6bdd	-0.017385418
70	0x35af7db8	1.3075105e-06
71	0xbc8e6f22	-0.017386977
72	0xbc8e6e2c	-0.017386518
73	0x3c8e6f51	0.017387064
74	0x3c8e6e74	0.017386653
75	0xbc8e6eef	-0.017386882
76	0xbc8e6f15	-0.017386952
77	0x3c8e6f80	0.017387152
78	0x2baa04d1	1.2080563e-12
79	0xbc8e6e13	-0.017386472
80	0x3c8e6d40	0.017386079
81	0xa9ae1046	-7.729975e-14
82	0x366e7eb0	3.5538505e-06
83	0xbc8e6e7c	-0.017386667
84	0x3c8e6dd6	0.017386358
85	0xbc8e6eda	-0.017386843
86	0xbc8e6d13	-0.017385995
87	0xbc8e6ca4	-0.017385788
88	0xbc8e6f36	-0.017387014
89	0xbc8e6d78	-0.017386183
90	0xb80006c7	-3.052389e-05
91	0xaded5664	-2.6982146e-11
92	0x34eaa484	4.3705597e-07
93	0xbc8e6f73	-0.017387128
94	0x3c8e6ed2	0.017386828
95	0xbc8e6e4e	-0.017386582
96	0x2a3d66a8	1.6822188e-13
97	0x2721752b	2.2406755e-15
98	0xa6e78180	-1.6063946e-15
99	0x3c8e6f21	0.017386975
100	0xbc8e6ae2	-0.01738495
101	0x2cc2e868	5.539614e-12
102	0x36e71e6b	6.8878776e-06
103	0x3c8e6cbe	0.017385837
104	0xa9a82c9d	-7.468438e-14
105	0xbc8e6b99	-0.017385291
106	0xba237026	-0.0006234668
107	0x2c489ff3	2.85105e-12
108	0x3672bf5a	3.6172191e-06
109	0x3c8e6cfe	0.017385956
110	0xbc8e6daf	-0.017386286
111	0xbc8e6d40	-0.017386079
112	0xb77550d4	-1.4621957e-05
113	0xbc8e6d70	-0.017386168
114	0x3c8e6db7	0.0173863
115	0xbc8e6da4	-0.017386265
116	0x3c8e6dce	0.017386343
117	0x3c8e6db6	0.017386299
118	0xba575dbc	-0.00082155666
119	0x3c8e6e27	0.01738651
120	0xbc8e6b77	-0.017385228
121	0x3892ab10	6.9936854e-05
122	0x3c8e6bed	0.017385447
123	0xb98a5a1d	-0.0002638855
124	0xbc8e6bb8	-0.017385349
125	0x3c8e6b8f	0.017385272
126	0x3c8e6c99	0.017385768
127	0x3c8e6d6a	0.017386157
128	0xa9a1f27b	-7.1919e-14
129	0xbc8e6e06	-0.017386448
130	0x3c8e6ac9	0.017384904
131	0x2e186ea9	3.4659085e-11
132	0xb9ab6ba5	-0.00032695863
133	0xbc8e6d4a	-0.017386097
134	0x3c8e6c9d	0.017385775
135	0xbc8e6af4	-0.017384984
136	0x290b0078	3.0864607e-14
137	0x3c8e6bad	0.017385328
138	0xb2da897f	-2.5441066e-08
139	0xad4e68de	-1.17330295e-11
140	0x3849f754	4.8152477e-05
141	0xb4cac616	-3.7769559e-07
142	0x2d7458c5	1.3889505e-11
143	0x2b89c462	9.788943e-13
144	0x36ee4b11	7.1016916e-06
145	0xb73f33ba	-1.1396531e-05
146	0xbc8e6d08	-0.017385975
147	0x3c8e6d2e	0.017386045
148	0xa4174cf6	-3.2808094e-17
149	0x3c8e6db5	0.017386297
150	0x3c8e6ccb	0.01738586
151	0x3c8e6d39	0.017386066
152	0xbc8e6d3a	-0.017386068
153	0x3a838d9e	0.0010036712
154	0x3c8e6b4a	0.017385144
155	0x3c8e6d91	0.01738623
156	0xa92bd9c4	-3.815851e-14
157	0xbc8e6ca5	-0.01738579
158	0xbc8e6d7d	-0.017386192
159	0x29aec7a0	7.761782e-14
160	0xbc8e6db2	-0.017386291
161	0x3c8e6abc	0.01738488
162	0xbc8e6cf7	-0.017385943
163	0x3a5eabd7	0.0008494234
164	0xbc8e6d9a	-0.017386246
165	0xa4808cb8	-5.574954e-17
166	0xbc8e6c1b	-0.017385533
167	0x3c8e6d81	0.0173862
168	0xbc8e6d1a	-0.017386008
169	0xbc8e6a3b	-0.017384639
170	0x35af6d80	1.3070385e-06
171	0xbc8e6d7d	-0.017386192
172	0xbc8e6c85	-0.01738573
173	0x3c8e6da6	0.017386269
174	0x3c8e6ccf	0.017385868
175	0xbc8e6d4a	-0.017386097
176	0xbc8e6d6d	-0.017386163
177	0x3c8e6dd8	0.017386362
178	0x2baa03e6	1.2080309e-12
179	0xbc8e6c6d	-0.017385686
180	0x3c8e6b9c	0.017385297
181	0xa9ae0f36	-7.729791e-14
182	0x366e7b13	3.5536402e-06
183	0xbc8e6cd5	-0.01738588
184	0x3c8e6c33	0.017385578
185	0xbc8e6d33	-0.017386055
186	0xbc8e6b6e	-0.01738521
187	0xbc8e6afd	-0.017385
188	0xbc8e6d8e	-0.017386224
189	0xbc8e6bd3	-0.017385399
190	0xb8000752	-3.0524396e-05
191	0xaded552d	-2.6981606e-11
192	0x34eaa408	4.3705245e-07
193	0xbc8e6dcd	-0.017386341
194	0x3c8e6d2d	0.017386043
195	0xbc8e6ca6	-0.017385792
196	0x2a3d62dd	1.6820872e-13
197	0x2721785a	2.2408481e-15
198	0xa6e85f40	-1.6124051e-15
199	0x3c8e6d7b	0.017386189
200	0xbc8e6ba2	-0.017385308
201	0x2cc2ea00	5.539791e-12
202	0x36e71f21	6.8879604e-06
203	0x3c8e6d83	0.017386204
204	0xa9a82c3c	-7.468372e-14
205	0xbc8e6c5d	-0.017385656
206	0xba23713c	-0.000623483
207	0x2c489fec	2.8510484e-12
208	0x3672c002	3.6172573e-06
209	0x3c8e6dbf	0.017386315
210	0xbc8e6e74	-0.017386653
211	0xbc8e6e06	-0.017386448
212	0xb77551f0	-1.46222155e-05
213	0xbc8e6e35	-0.017386535
214	0x3c8e6e7c	0.017386667
215	0xbc8e6e6a	-0.017386634
216	0x3c8e6e92	0.017386708
217	0x3c8e6e7a	0.017386664
218	0xba575d46	-0.0008215498
219	0x3c8e6ee8	0.017386869
220	0xbc8e6c38	-0.017385587
221	0x3892ae98	6.994343e-05
222	0x3c8e6cb0	0.01738581
223	0xb98a5a4c	-0.00026388688
224	0xbc8e6c79	-0.017385708
225	0x3c8e6c53	0.017385637
226	0x3c8e6d5c	0.017386131
227	0x3c8e6e2b	0.017386517
228	0xa9a1f312	-7.192002e-14
229	0xbc8e6ecb	-0.017386815
230	0x3c8e6b89	0.017385261
231	0x2e186e5a	3.465881e-11
232	0xb9ab69ae	-0.000326944
233	0xbc8e6e0e	-0.017386463
234	0x3c8e6d5e	0.017386135
235	0xbc8e6bb4	-0.017385341
236	0x290b00f4	3.0865027e-14
237	0x3c8e6c71	0.017385693
238	0xb2da8712	-2.5439963e-08
239	0xad4e6722	-1.1732644e-11
240	0x3849f779	4.815261e-05
241	0xb4cac60d	-3.7769533e-07
242	0x2d74597a	1.3889662e-11
243	0x2b89c3cc	9.78878e-13
244	0x36ee4aa8	7.101644e-06
245	0xb73f3428	-1.1396631e-05
246	0xbc8e6dca	-0.017386336
247	0x3c8e6df2	0.01738641
248	0xa4174dff	-3.280897e-17
249	0x3c8e6e76	0.017386656
250	0x3c8e6d8a	0.017386217
251	0x3c8e6dfc	0.017386429
252	0xbc8e6dfb	-0.017386427
253	0x3a838c72	0.0010036363
254	0x3c8e6c0c	0.017385505
255	0x3c8e6e54	0.017386593

fc2.bias f4 [100]
0	0xbd9d5664	-0.07682493
1	0xbd9d5454	-0.076821
2	0xbd9d5548	-0.07682282
3	0x3d9d54e6	0.07682209
4	0x3d9d55b5	0.07682363
5	0xbd9d55e7	-0.076824
6	0x3d9d5498	0.076821506
7	0x3d9d5525	0.07682256
8	0xbd9d5554	-0.07682291
9	0xbd9d552f	-0.07682263
10	0xbd9d54d3	-0.076821946
11	0x3d9d5515	0.07682244
12	0x3d9d54be	0.07682179
13	0x3d9d54cc	0.07682189
14	0xbd9d54f6	-0.07682221
15	0xbd9d5539	-0.076822706
16	0xbd9d55d7	-0.07682388
17	0x3d9d555c	0.07682297
18	0x3d9d5528	0.07682258
19	0x3d9d54ef	0.076822154
20	0x0004d800	4.44828e-40
21	0x3d9d5356	0.07681911
22	0xbd9d51fb	-0.07681652
23	0xbd9d5541	-0.076822765
24	0x3d9d5270	0.07681739
25	0x8281404b	-1.8991749e-37
26	0x3d9d552c	0.07682261
27	0xbd9d554f	-0.07682287
28	0x3d9d552f	0.07682263
29	0xbd9d54be	-0.07682179
30	0xbd9d561c	-0.0768244
31	0x3d9d5491	0.076821454
32	0x3d9d547b	0.07682129
33	0xbd9d5522	-0.076822534
34	0xbd9d5543	-0.07682278
35	0xbd9d5520	-0.07682252
36	0xbd9d5582	-0.07682325
37	0x3d9d54f9	0.07682223
38	0x3d9d552f	0.07682263
39	0x3d9d540e	0.07682048
40	0x3d9d550e	0.076822385
41	0x3d9d55ce	0.076823816
42	0xbd9d54d9	-0.07682199
43	0xbd9d53dd	-0.07682011
44	0xbd9d561b	-0.07682439
45	0xbd9d5373	-0.07681932
46	0x3d9d5472	0.07682122
47	0x3d9d5472	0.07682122
48	0x3d9d5527	0.07682257
49	0x3d9d5515	0.07682244
50	0x3d9d54ef	0.076822154
51	0xbd9d5586	-0.07682328
52	0x3d9d5519	0.07682247
53	0x3d9d5564	0.076823026
54	0x3d9d55cb	0.07682379
55	0xbd9d5542	-0.07682277
56	0x3d9d54d3	0.076821946
57	0xbd9d53fd	-0.07682035
58	0x3d9d542a	0.07682069
59	0x3d9d5527	0.07682257
60	0xbd9d53c5	-0.076819934
61	0xbd9d55e8	-0.07682401
62	0x3d9d54f3	0.076822184
63	0xbd9d5532	-0.07682265
64	0x3d9d5552	0.07682289
65	0xbd9d54e6	-0.07682209
66	0xbd9d54b7	-0.07682174
67	0x3d9d55cc	0.0768238
68	0xbd9d54b7	-0.07682174
69	0xbd9d5666	-0.07682495
70	0x3d9d5547	0.07682281
71	0xb268172a	-1.3509444e-08
72	0x3d9d548e	0.07682143
73	0xbd9d5452	-0.076820984
74	0xbd9d5480	-0.07682133
75	0xbd9d55b9	-0.07682366
76	0x3d9d5485	0.076821364
77	0xbd9d5471	-0.076821215
78	0x3d9d547f	0.07682132
79	0x3d9d5553	0.0768229
80	0xab5ee4ad	-7.9187595e-13
81	0x3d9d5501	0.07682229
82	0x3d9d55d9	0.0768239
83	0x3d9d54ef	0.076822154
84	0x3d9d5471	0.076821215
85	0x3d9d5311	0.07681859
86	0xbd9d5519	-0.07682247
87	0xa71779c2	-2.1021465e-15
88	0x3d9d54c9	0.07682187
89	0xbd9d5554	-0.07682291
90	0xbd9d55a7	-0.076823525
91	0x3d9d528a	0.07681759
92	0x3d9d546e	0.07682119
93	0x3d9d54ee	0.07682215
94	0x3d9d5584	0.076823264
95	0x3d9d54f0	0.07682216
96	0xbd9d5612	-0.07682432
97	0x3d9d55ec	0.07682404
98	0xbd9d5460	-0.07682109
99	0x3d9d53b9	0.076819845

fc3.weight f4 [1, 100]
0	0xbe26226f	-0.16224073
1	0xbe26200e	-0.16223165
2	0xbe262125	-0.16223581
3	0x3e2620b8	0.16223419
4	0x3e2621a2	0.16223767
5	0xbe2621de	-0.16223857
6	0x3e26205f	0.16223286
7	0x3e2620fd	0.16223522
8	0xbe262134	-0.16223603
9	0xbe262108	-0.16223538
10	0xbe2620a3	-0.16223387
11	0x3e2620e8	0.1622349
12	0x3e26208b	0.16223352
13	0x3e26209a	0.16223374
14	0xbe2620c8	-0.16223443
15	0xbe262113	-0.16223554
16	0xbe2621cc	-0.1622383
17	0x3e262140	0.16223621
18	0x3e262101	0.16223527
19	0x3e2620c0	0.1622343
20	0x000b9a4a	1.065539e-39
21	0x3e261eeb	0.16222732
22	0xbe261d56	-0.16222128
23	0xbe26211e	-0.1622357
24	0x3e261ddf	0.16222332
25	0x03ae570d	1.0246787e-36
26	0x3e262104	0.16223532
27	0xbe26212c	-0.16223592
28	0x3e262107	0.16223536
29	0xbe26208b	-0.16223352
30	0xbe26221b	-0.16223948
31	0x3e262055	0.16223271
32	0x3e26203d	0.16223235
33	0xbe2620f9	-0.16223516
34	0xbe262122	-0.16223577
35	0xbe2620f7	-0.16223513
36	0xbe262169	-0.16223682
37	0x3e2620cb	0.16223447
38	0x3e262108	0.16223538
39	0x3e261fbd	0.16223045
40	0x3e2620e2	0.16223481
41	0x3e2621c0	0.16223812
42	0xbe2620a8	-0.16223395
43	0xbe261f84	-0.1622296
44	0xbe262218	-0.16223943
45	0xbe261f0d	-0.16222782
46	0x3e262032	0.16223219
47	0x3e262032	0.16223219
48	0x3e262101	0.16223527
49	0x3e2620eb	0.16223495
50	0x3e2620be	0.16223428
51	0xbe26216f	-0.16223691
52	0x3e2620f0	0.16223502
53	0x3e262148	0.16223633
54	0x3e2621be	0.16223809
55	0xbe26211b	-0.16223566
56	0x3e2620a3	0.16223387
57	0xbe261fa7	-0.16223012
58	0x3e261fdd	0.16223092
59	0x3e262100	0.16223526
60	0xbe261f64	-0.16222912
61	0xbe2621e0	-0.1622386
62	0x3e2620c4	0.16223437
63	0xbe26210a	-0.16223541
64	0x3e262132	0.162236
65	0xbe2620b8	-0.16223419
66	0xbe262080	-0.16223335
67	0x3e2621bc	0.16223806
68	0xbe262080	-0.16223335
69	0xbe262273	-0.16224079
70	0x3e262126	0.16223583
71	0xb282a8e4	-1.5210794e-08
72	0x3e262051	0.16223265
73	0xbe26200c	-0.16223162
74	0xbe262040	-0.1622324
75	0xbe2621a8	-0.16223776
76	0x3e262048	0.16223252
77	0xbe262031	-0.16223218
78	0x3e26203f	0.16223238
79	0x3e262131	0.16223599
80	0x2cd00a53	5.9128618e-12
81	0x3e2620d6	0.16223463
82	0x3e2621cd	0.16223831
83	0x3e2620bf	0.16223429
84	0x3e26202e	0.16223213
85	0x3e261e9b	0.16222613
86	0xbe2620f0	-0.16223502
87	0x288864cf	1.5142752e-14
88	0x3e262096	0.16223368
89	0xbe262134	-0.16223603
90	0xbe262191	-0.16223742
91	0x3e261dff	0.1622238
92	0x3e262028	0.16223204
93	0x3e2620be	0.16223428
94	0x3e26216a	0.16223684
95	0x3e2620bf	0.16223429
96	0xbe26220f	-0.1622393
97	0x3e2621e5	0.16223867
98	0xbe26201e	-0.16223189
99	0x3e261f57	0.16222893
