gail/save_model/0/SUB022_ckpt_0.pth.tar (torch_old, 154732 bytes, 16 tensors)

fc1.weight f4 [100, 22]
000000 ab bd 80 bc d3 fc 90 be 2d 81 a9 bd 18 f1 43 bd
       -0.01571544 -0.2831789 -0.082765914 -0.047837347
000010 95 6a 59 3d d4 b3 75 3e 13 e0 3a 3d 11 bf 8e 3e
       0.05308016 0.2399438 0.04562385 0.27880147
000020 52 0d a3 3e 4c 25 02 3e 00 3e 8e bc 38 86 2e 3e
       0.318461 0.1270954 -0.017363548 0.17043388
000030 4e b4 d8 bd 18 4a e2 3c 98 25 4d be c0 6f 22 3d
       -0.105812654 0.027623221 -0.20033872 0.039657354
000040 70 25 72 3d 40 33 0f bc 78 f1 33 3d bc 58 cd 3d
       0.059117734 -0.008740246 0.043931454 0.1002669
000050 dc 39 e3 3d 22 12 29 3e df 90 ec 3c 9b 5b 4e 3e
       0.1109502 0.16510823 0.028877674 0.20152132
000060 e3 d6 2c bc 16 f8 63 3e 12 76 2a 3e 15 61 4f be
       -0.01054928 0.22262606 0.16646603 -0.20251878
000070 47 4e ef bd 62 ab 90 3d f8 b4 14 be 60 a0 82 bc
       -0.11684852 0.07063939 -0.14522159 -0.015945613
000080 80 ca d9 3d 42 8d 40 3e 82 45 3f be 08 aa 56 3d
       0.10634327 0.18803886 -0.18678859 0.05240825
000090 c8 7c 25 3e 88 5d 42 3d e0 f2 74 3d 80 98 4a be
       0.16160882 0.04745248 0.059801936 -0.19784737
0000a0 60 d8 13 bd e8 59 d7 bd 4c 4c 0a 3e c4 95 50 be
       -0.036095023 -0.10515195 0.13505667 -0.20369631
0000b0 8b 9e a6 3c 21 14 0e 3f 71 26 17 3f b1 24 83 be
       0.020339271 0.55499464 0.5904303 -0.2561393
0000c0 4f 6e 23 be 62 8a 86 3e fa 5e 66 3d 73 00 2e 3e
       -0.15960048 0.26277453 0.05624292 0.16992359
0000d0 04 86 bf 3e f4 e6 82 3d 80 e2 42 3d e2 fd 34 3e
       0.37406933 0.06391707 0.04757929 0.17674974
0000e0 2a ac 90 bd e0 61 00 bd 38 6a f1 3d f2 de 59 3e
       -0.07064088 -0.03134334 0.11787838 0.21276453
0000f0 b4 8a 90 3d 70 2e 3f 3d 2b d9 cd bd 00 e4 5a 3c
       0.070577055 0.046675146 -0.10051187 0.0133600235
000100 08 99 e8 bc 70 7d b6 3c bc 3f b1 3d 86 36 07 bf
       -0.028393283 0.02227661 0.086547345 -0.5281757
000110 8a cd 93 be eb 6e 36 3b 6d 85 ed bc 23 fd 90 be
       -0.2886775 0.0027837108 -0.028994286 -0.28318128
000120 3a 27 54 3d 77 42 0d be 49 3b f6 bd 01 da da bd
       0.051795222 -0.13794886 -0.120230265 -0.10686112
000130 33 e9 1a be c8 ad 40 3d 1a c7 46 3e 45 c5 eb bd
       -0.15128021 0.04704073 0.19411889 -0.115122356
000140 80 8b c0 bd b8 50 24 3e 7c 20 8a 3d 96 1e 3c 3e
       -0.094016075 0.16046417 0.06744477 0.18371043
000150 30 81 b1 3c 5c 39 07 be 3e 95 28 3e c2 02 4d 3e
       0.021668047 -0.13205475 0.16463181 0.20020583
000160 1f 1e 69 3e 26 b8 fb be 97 af 03 bf ec 1c ab be
       0.22765397 -0.49163932 -0.51439804 -0.33420503
000170 b9 e0 bb 3d 2c 23 60 bd e9 3b 9c bd 44 99 a8 be
       0.09173722 -0.054721043 -0.076286145 -0.32929432
000180 10 79 93 3b 24 fa f9 bd 82 0d 0b 3e e0 6a ae 3b
       0.0045005158 -0.12205914 0.13579372 0.005322799
000190 20 b2 ac 3d 88 8f b9 bc 68 54 bc 3d 76 59 28 3e
       0.08432412 -0.022651449 0.09195787 0.16440377
0001a0 ed cf 41 be 04 e5 04 3e 28 a2 42 3e 8c 7a fa 3d
       -0.18926974 0.12977988 0.1900717 0.12230405
0001b0 b0 53 d0 3d 24 65 3a bd 57 0f 17 be fb ab 00 bf
       0.10172212 -0.04550661 -0.14751945 -0.5026242
0001c0 93 83 da be 81 bf 2f be 55 50 0d 3e f5 9b 05 3e
       -0.42678508 -0.17162897 0.13800175 0.13047774
0001d0 73 79 1c be ed 86 e2 3d 89 78 e2 3c 0c 99 f6 3d
       -0.15280704 0.11060891 0.027645366 0.1204091
0001e0 48 7b 25 bd ba 00 a4 bd a8 b9 24 bd a8 14 70 3d
       -0.040400773 -0.08007951 -0.040216118 0.05861345
0001f0 90 2a 17 3d 58 8b 54 3e 04 67 45 3e dc 31 03 3d
       0.036905825 0.2075628 0.19277579 0.03202997
000200 b8 50 0a bd 94 d6 07 bd 80 32 6e bd b8 1f ed 3d
       -0.033768386 -0.033163622 -0.05815363 0.115783155
000210 9d e5 b8 3c 47 29 a1 3e 41 d9 c4 3d fc 8f f1 3c
       0.022570426 0.31476805 0.096117504 0.029487602
000220 53 d0 12 3d 86 46 84 be 71 58 2d be 6b 50 83 be
       0.035843205 -0.25835055 -0.16928269 -0.25647292
000230 4c 27 39 bd 80 93 c0 3a 4c bd b6 3d 34 2d bd 3d
       -0.045203492 0.0014692396 0.08922824 0.092371374
000240 50 d3 b0 3d c7 cf 02 be 12 a7 09 3e 00 fa 77 bd
       0.08634055 -0.12774573 0.13442639 -0.060541153
000250 2c 53 57 bd d0 54 a3 3c 2a 1e 17 3e 3e 4a 1c 3e
       -0.052569553 0.019937903 0.147576 0.15262696
000260 c8 9a 9c bd 40 3c 89 3b 62 2b e5 bc 1b 00 6f bd
       -0.0764671 0.0041880906 -0.027974788 -0.05834971
000270 71 2b ab 3e d2 a0 03 be b3 1e 52 be 09 9d 76 bc
       0.3343158 -0.12854317 -0.20519523 -0.015052089
000280 d9 d5 76 3e be eb 5d 3e 6e 33 53 3d 20 45 30 3c
       0.24105014 0.2167196 0.05156272 0.010758668
000290 64 69 d2 3d d4 ac 13 bd cb 67 e9 bd a4 c0 a7 3d
       0.10274008 -0.036053494 -0.1139675 0.0819104
0002a0 b0 56 dc 3d 96 a3 0f 3e 90 b3 24 3d cb 31 e2 bd
       0.10758722 0.14027247 0.040210307 -0.110446535
0002b0 58 ee 69 bd b0 e6 09 3e 9c 95 ae 3d b4 a8 54 bd
       -0.057112068 0.13466907 0.085246295 -0.0519187
0002c0 16 b8 4a bc 83 d0 bd be 72 f1 b7 be 15 68 b3 3e
       -0.012372991 -0.37073144 -0.35926396 0.35040346
0002d0 45 0f 8c 3e 3f 64 6a 3e f6 95 fd bd 49 36 6b 3e
       0.273554 0.22889803 -0.123821184 0.22969927
0002e0 93 73 61 3e 58 90 03 3e ec 6e 44 3e c0 8f 01 3b
       0.22016744 0.12848032 0.19182938 0.001976952
0002f0 27 be 2c be d8 c9 97 3c b9 b8 58 be 08 d4 06 3d
       -0.16869412 0.018528864 -0.21164216 0.032917053
000300 de c1 0f be 04 5e f6 3d c4 6a e2 3d 14 c8 41 bd
       -0.14038798 0.12029651 0.1105552 -0.04730995
000310 d0 33 e9 bd 97 83 fc bd 90 cb 1f 3d f5 09 26 3f
       -0.113868356 -0.12329786 0.03901249 0.64858943
000320 4a 79 17 3f 36 40 91 bd ba 05 3e bd 0a 88 9b 3e
       0.5916945 -0.070923254 -0.04639218 0.30377227
000330 cf c3 26 3e 42 81 5a 3e 3c 18 89 3d 38 ec 2d be
       0.16285633 0.2133837 0.066940755 -0.16984642
000340 1c 9c 4d 3e 38 69 b5 bd 34 08 41 3e 73 e1 31 be
       0.20079082 -0.088579595 0.18850785 -0.17371158
000350 30 c1 1c 3d 4c 28 49 3e ce d6 56 be 86 ef 38 be
       0.038270175 0.19644278 -0.20980379 -0.18060121
000360 41 5d 1c be 88 1b fb bc f0 30 53 3d f6 35 48 be
       -0.15269949 -0.030652776 0.051560342 -0.19551834
000370 41 b6 55 be 15 c3 d1 3e 0b 48 9d 3e 39 3d eb 3d
       -0.20870306 0.40969148 0.30719027 0.11486287
000380 0d 0c 57 be e2 7a 90 3e e7 4f 38 3e cc 5e 82 3e
       -0.21000691 0.28218752 0.1799923 0.2546295
000390 ba 44 8e 3e 98 6b 91 bd 6d 15 38 be 94 7b 21 3e
       0.2778681 -0.071006 -0.17976923 0.15769798
0003a0 68 40 af 3c 6c a1 f8 3d cc 89 0b 3e 4c a5 47 3e
       0.021393016 0.12140164 0.13626784 0.1949665
0003b0 05 1b 31 be ff 48 c4 bd a8 a7 6c 3d a8 43 29 bd
       -0.17295463 -0.095842354 0.057777077 -0.041324288
0003c0 88 68 ef 3d 20 2c 83 bc 09 b5 41 3e 95 a8 26 bf
       0.1168986 -0.016012251 0.18916716 -0.65100986
0003d0 69 c0 f2 be 5b 11 77 3d 16 6a f6 3d d7 fe 6a bd
       -0.47412422 0.060319286 0.12031953 -0.05737194
0003e0 6a 3a a0 be 16 d7 84 be b0 89 75 be f4 75 8c 3d
       -0.31294566 -0.25945348 -0.23978305 0.06858435
0003f0 52 f6 4b be 92 1a 0f 3e 50 b4 40 3d 14 b5 07 3d
       -0.19918182 0.1397498 0.04704696 0.033131674

fc1.bias f4 [100]
000000 3a a5 0f be cf a1 a4 3d b9 29 e2 bd c2 d4 51 bc
       -0.14027873 0.08038675 -0.11043114 -0.012807073
000010 5f de 36 3e be ea 1c be a0 ee 13 3d 28 aa a0 3b
       0.17858265 -0.15323922 0.036116242 0.0049030967
000020 74 9a 21 be 51 b3 14 be 2d fa 53 be d4 bd 72 3d
       -0.15781575 -0.14521529 -0.20700903 0.059263065
000030 0a 5c a5 bd 79 43 3a bd f3 12 4a 3e 2f fb 41 3c
       -0.08074196 -0.045474503 0.19733791 0.011839672
000040 17 a6 38 3e c3 d2 8f be a9 92 08 bd 89 3f 8f be
       0.18032108 -0.28090486 -0.03334299 -0.2797816
000050 dc c1 fb bd 56 f4 6d be 9c ec 08 3e 61 ae 92 3d
       -0.12292835 -0.23237738 0.1337151 0.071621664
000060 f9 94 ab 3e 69 cc 0d be 56 5d f1 bb a0 3a d3 3a
       0.33512095 -0.13847508 -0.007365863 0.0016115494
000070 5c 3e 1e 3e b8 d7 d2 bd 73 d0 f1 3d d3 97 11 3e
       0.15453476 -0.10295051 0.11807337 0.14218073
000080 ce 81 1c be b8 3b 28 be 16 88 96 3e 34 7d 6f be
       -0.15283892 -0.16429031 0.294007 -0.23387605
000090 fd 68 05 be cb be cc bd 98 59 57 be 3b 93 5b be
       -0.13028331 -0.09997328 -0.21030271 -0.21442883
0000a0 44 cb 44 bc 23 1e 8a 3d 6c a6 31 3e bc b0 8e 3e
       -0.012011353 0.067440294 0.17348641 0.27869213
0000b0 0d 58 0a 3e 94 f5 36 bd 99 cd 84 bd eb 68 88 3e
       0.13510151 -0.044667795 -0.06484527 0.26642546
0000c0 4c 6c 0b 3e bc b8 f9 bd b7 de 3e 3e 89 52 18 3e
       0.1361553 -0.121934384 0.18639646 0.14875235
0000d0 66 65 6f be e7 52 19 bd 39 bb 66 3e 2f e4 89 bc
       -0.23378524 -0.037432577 0.22532357 -0.01683244
0000e0 2a 5b 59 be 02 27 a2 bd 27 53 1f 3e 4e 3e b0 3e
       -0.21226183 -0.079175964 0.15559064 0.34422535
0000f0 63 a3 84 be 85 c5 6d 3e 2a 9c 04 3e 7b 34 ce 3d
       -0.25905904 0.23219879 0.12950197 0.100686036
000100 5d d0 d9 3d 46 62 60 3e 56 b5 e0 3d 77 aa 85 3e
       0.10635445 0.21912488 0.10972087 0.26106617
000110 69 4a de bc a9 49 13 3e fc 46 fc bd 0c 03 90 bd
       -0.02713509 0.14383568 -0.12318227 -0.07031831
000120 d0 00 6e bd 24 78 42 3e 19 0c e1 bd d9 20 45 be
       -0.058106244 0.18991143 -0.109886356 -0.19250812
000130 bd 97 b7 bc ef 80 e5 3d f3 50 0e be ad ed e2 bd
       -0.022411222 0.11206233 -0.13898067 -0.11080489
000140 4a bc 87 bd e3 34 4e 3e 49 c9 9c be 6a db 48 3e
       -0.0662771 0.20137362 -0.30622318 0.1961495
000150 a8 91 9c 3d 26 ea 2f be 89 cc f4 bd 1b 28 9a bc
       0.07644969 -0.17179164 -0.119530745 -0.018817952
000160 7f 9e 10 be b2 bb 8a 3e c9 ae d4 3d 04 dd 66 be
       -0.14122961 0.27096325 0.103849 -0.22545248
000170 04 0f 3b 3e 34 0f 10 3e aa 3a 87 3e 98 64 1e 3d
       0.18267447 0.140683 0.26411945 0.038670152
000180 ad c1 b5 be 63 42 44 3e c8 61 8b 3e 25 06 f2 bd
       -0.35499325 0.1916595 0.2722304 -0.11817578

fc2.weight f4 [100, 100]
000000 14 c3 44 3f a9 9f 4f bf c1 20 49 3e 79 33 40 be
       0.76860166 -0.81103 0.19641401 -0.18769635
000010 7f ea 2a 3d 10 21 16 3f c2 a1 68 bf 0d 63 22 3f
       0.04172754 0.586442 -0.9087182 0.6343239
000020 9a 41 1b 3e 5b b6 a7 3d 63 47 33 3d 22 f8 35 3d
       0.15161744 0.081890784 0.04376925 0.04442609
000030 a3 b4 00 3f a0 f1 01 be b4 1f f5 be 5b 44 56 be
       0.5027563 -0.12689829 -0.4787575 -0.20924513
000040 83 da 38 3e 1b 2a a1 3d 0f ee 6e be 44 ae 78 3f
       0.18052106 0.07869359 -0.23333 0.9714091
000050 ac a8 e3 3d ce ff c7 3e dd 14 63 be 74 ad 3a 3f
       0.11116156 0.3906235 -0.22175927 0.7292092
000060 a9 17 60 bf b7 b1 55 be 42 24 e8 3e af 83 3d be
       -0.875361 -0.20868574 0.45340163 -0.18507265
000070 ce 5f 20 be a9 1a 5a 3e 2c 48 e4 3e 14 02 3d bf
       -0.15661547 0.21299233 0.44586313 -0.73831296
000080 67 57 69 3d 98 be 39 bd 39 ee 86 be 70 45 a4 3c
       0.05696812 -0.04534778 -0.26353624 0.020052642
000090 69 cf 58 3e 27 1b 3d be 27 f5 2d 3f 71 d2 18 3e
       0.2117287 -0.18467389 0.679522 0.14924027
0000a0 d2 98 b3 3e d7 d5 2e be 06 91 2a 3d 49 7e 0c bd
       0.3507753 -0.17073761 0.04164221 -0.034300122
0000b0 f5 82 dd be b6 fd f4 3d 44 ec e8 bd 8c 02 1e be
       -0.43263975 0.11962454 -0.11373189 -0.15430659
0000c0 15 ea 0f bf 35 fe b0 3d ff ae 97 be 23 19 25 bf
       -0.56216556 0.08642236 -0.296257 -0.6449148
0000d0 d0 9c 35 3f 7e ee ca 3d dd 1f 09 bf 51 2f 07 bf
       0.709424 0.0990877 -0.53564245 -0.52806574
0000e0 22 e8 33 3f 28 0b 1e be 0b 89 9a be 4b 1d 9a be
       0.7027608 -0.15433943 -0.3018268 -0.30100474
0000f0 fe 77 1d 3f 17 79 96 be 7e 75 19 bd 75 23 3e bf
       0.6151122 -0.2938926 -0.037465565 -0.74272853
000100 56 20 95 be e7 8e f3 be 02 67 e9 3d 23 72 8a be
       -0.29126233 -0.47569963 0.113966 -0.27040204
000110 cf 02 98 3e 3a 1d b8 be cc 19 7c bd f6 20 f8 3e
       0.29689643 -0.35959798 -0.06154804 0.48462647
000120 2b 25 c0 bb f7 7f 69 bf e7 0c 2f 3f 9a 23 5a 3f
       -0.0058638058 -0.91210884 0.6837906 0.85210574
000130 27 89 10 be dc 72 c2 be 0b ac 73 3e 32 45 b5 3e
       -0.1411482 -0.37978256 0.23796098 0.35404354
000140 50 e6 40 3d 83 0d f5 be e4 5c 08 3e fb e2 a7 be
       0.047094643 -0.4786187 0.13316685 -0.3279036
000150 f8 08 d1 3d 58 85 b1 3d 84 24 b9 3d a2 f9 84 3e
       0.10206789 0.086680114 0.09040168 0.25971705
000160 e3 c5 f1 3d 2b ef 44 bf 98 84 1d bd 43 fd a7 3e
       0.11805322 -0.7692744 -0.03845653 0.3281041
000170 21 6e 24 bc 0d 90 18 be 71 09 36 3f 57 dc 53 3d
       -0.010036022 -0.14898701 0.71108156 0.051723804
000180 1b 3a 3b 3f 47 ba b4 be 8c 48 87 bf 14 06 57 be
       0.73135537 -0.35298368 -1.0569015 -0.20998412
000190 66 6d 47 3f 4a 82 52 bf df 49 51 3e 7e 7b 85 be
       0.77901304 -0.82230055 0.20438336 -0.2607078
0001a0 22 65 85 3e 87 ba 12 3f fd 81 55 bf e6 93 19 3f
       0.2605372 0.5731587 -0.8340147 0.599913
0001b0 df 43 e3 3d a0 8b 35 3e 98 c2 ae bc b8 91 87 bd
       0.1109693 0.17729044 -0.021333024 -0.066195905
0001c0 06 34 0c 3f 13 25 0a be 32 b1 14 bf 11 b7 ae be
       0.5476688 -0.13490705 -0.5808288 -0.34124044
0001d0 a8 52 23 3d 07 ea 2f 3e a5 4a c0 bd 50 b2 4a 3f
       0.03987375 0.17179118 -0.09389237 0.79178333
0001e0 b6 88 ae 3e 30 90 db 3e d9 b0 f6 bd ed 34 1e 3f
       0.34088677 0.42883444 -0.1204545 0.6179951
0001f0 ad 38 5e bf bc c1 b1 be 9e 0d ca 3e f7 70 1a be
       -0.8680523 -0.3471812 0.39463514 -0.15082155
000200 a2 16 e1 bd 54 f9 42 3e 2f 5b 13 3f 3b 36 36 bf
       -0.10990645 0.19040424 0.5756101 -0.711765
000210 54 98 09 3e 0e e0 51 bd 84 64 36 be 5d e7 00 3e
       0.13437015 -0.051239066 -0.17811781 0.12588258
000220 2d 8d 59 3e 30 8a f6 bd 79 15 2a 3f 47 a5 d9 bb
       0.2124526 -0.12038076 0.66439015 -0.006642017
000230 be 35 73 3e a3 e9 8a be 9f 38 16 3d 4d 7e 4d bd
       0.2375097 -0.27131376 0.03667509 -0.050169278
000240 08 f6 d6 be ea 2a 40 3c 67 6f 2b bd b4 0f 44 be
       -0.41984582 0.0117289815 -0.04185429 -0.19146615
000250 9e 93 23 bf 0d 11 f5 3d ac 84 d8 bd 2a d3 2d bf
       -0.6389712 0.11966143 -0.1057218 -0.67900336
000260 06 02 0f 3f 0a 68 84 3e f7 b8 2d bf a3 83 e0 be
       0.5586246 0.25860626 -0.6786036 -0.4385043
000270 f8 87 29 3f e8 2c 9d bd 6a d6 9d be a9 6a b9 be
       0.66223097 -0.07674581 -0.30827647 -0.36214188
000280 e7 5e 33 3f cf e1 a1 be 93 8b d9 bd 45 26 46 bf
       0.70066684 -0.3161759 -0.10622325 -0.77402145
000290 79 b2 36 be 2b 5b c8 be 8b cc 68 3e 2f 07 3a be
       -0.1784152 -0.39132056 0.22734277 -0.18166803
0002a0 53 b6 8c 3e 94 67 71 be 26 39 cc 3d 1f ee ef 3e
       0.27482852 -0.23574668 0.09971838 0.4686136
0002b0 4c 46 6d 3d a4 b8 6b bf d2 d1 34 3f 62 db 32 3f
       0.05792837 -0.92078614 0.7063266 0.69866
0002c0 18 78 55 be f4 90 8f be f5 9c ba 3e 0c df 61 3e
       -0.20846593 -0.28040278 0.36447874 0.22057742
0002d0 b4 fe b5 3c 50 6f ee be d2 e1 1c 3d 27 05 98 be
       0.022216178 -0.465693 0.038301297 -0.2969143
0002e0 e4 9f 93 3d 64 06 24 3e 46 7b d8 3d df cd 71 3d
       0.07208231 0.16018063 0.105703875 0.059034225
0002f0 63 0a a2 3e c8 8a 30 bf 60 27 22 be ca e9 88 3e
       0.3164855 -0.68961763 -0.15835333 0.26740867
000300 47 90 e9 3c 08 53 2e be 5b 54 85 3e 4c e5 f4 3d
       0.02851118 -0.17023861 0.2604092 0.119577974
000310 5c ce 37 3f 7e 1d dd be 9f 70 70 bf 8b 4e 34 be
       0.71799254 -0.43186563 -0.93921846 -0.17608087
000320 e6 1b 56 bf 08 b3 3b 3f 30 bf 10 be 96 fa 8b 3e
       -0.8363632 0.73320055 -0.14135432 0.2733962
000330 ac 47 8b be 5f 68 29 bf 19 6d 47 3f c3 ba 0d bf
       -0.2720312 -0.6617488 0.77900845 -0.553631
000340 5c 0f 88 bd 6f 17 0c 3d 4c 24 3d bc 5f 15 83 bd
       -0.066435546 0.034202036 -0.011544298 -0.064005606
000350 60 20 2c bf c6 fb 26 3d de 28 0e 3f dc 8c 62 3e
       -0.672369 0.040767454 0.5553111 0.22124046
000360 f2 c3 5a be bf 65 89 bd 49 6e fb 3d df f7 52 bf
       -0.2136381 -0.0670886 0.122768946 -0.8240947
000370 54 41 06 be 75 ad eb be 88 e7 a8 3e 44 a3 25 bf
       -0.13110858 -0.46030775 0.32989144 -0.6470225
000380 56 fc 76 3f ef cf 03 3f 2e 44 f2 be 4b 8e cd 3d
       0.96478784 0.51489156 -0.47317642 0.10036906
000390 c2 60 1f 3e 6f 18 02 be 96 3d c1 be be b0 3e 3f
       0.15564254 -0.12704633 -0.377423 0.7448844
0003a0 bf 38 86 be 9c 36 03 be 4b 0a 9d 3d de 98 33 be
       -0.2621517 -0.128138 0.07667979 -0.17538783
0003b0 70 ed 40 be 89 05 29 3e f7 e3 05 bf b5 45 f2 bd
       -0.18840575 0.16506018 -0.5230097 -0.11829702
0003c0 1a 18 22 be a5 2f 3c 3e 11 69 63 be 4b 6f 51 3d
       -0.15829507 0.1837755 -0.22208048 0.051131528
0003d0 3b c2 f9 3e 4e 5e 43 be a4 13 df 3d de 12 3e 3d
       0.48781 -0.19078943 0.10892418 0.046404712
0003e0 a9 cf 21 3f 7d eb 03 be b3 07 bc 3e a6 8c de 3e
       0.6320749 -0.128828 0.36724624 0.4346668
0003f0 ae ca 23 bf 09 46 29 be 2b 4b 08 3f 62 57 f2 3e
       -0.6398114 -0.16530623 0.532397 0.47332293

fc2.bias f4 [100]
000000 d2 3b 80 bf 00 82 75 bf f9 8b 65 3f f4 3a 83 bf
       -1.0018256 -0.9590149 0.89666706 -1.0252366
000010 8d 27 8b 3f b1 f6 d8 be dc 21 97 be 25 e9 81 3f
       1.0871445 -0.4237571 -0.2951802 1.0149275
000020 91 63 56 bd bd 9d 7e be 75 09 f0 3e ab 08 57 3f
       -0.052341048 -0.2486486 0.46882215 0.839976
000030 27 d0 99 3e d3 1d 85 3f 44 ac 7a 3f ef 51 f2 3d
       0.3004162 1.0399727 0.97919106 0.11832034
000040 c3 83 33 bf dd 82 2d 3f aa 51 d3 be c0 d0 72 bf
       -0.7012293 0.67777807 -0.41273242 -0.9484978
000050 a8 d3 83 3e 16 64 b7 3e 13 62 10 3e 8f d1 73 3f
       0.25747418 0.35818547 0.14099912 0.95241636
000060 fc 6f 6e 3f c2 f7 9b 3e fb 1f 5a 3f 18 8b 80 bf
       0.93139625 0.30462462 0.8520505 -1.0042448
000070 40 18 76 3f c4 90 a6 b8 d1 fe ba 3e ec 5e 8c 3f
       0.9613075 -7.9424615e-05 0.36522534 1.0966468
000080 cb ff 3f 3f fa f5 d8 be 1b f5 82 bf d0 ed b9 3d
       0.74999684 -0.42375165 -1.023105 0.09078562
000090 74 7f 84 3e bb fc 68 3f d5 c2 20 3f b8 74 72 3f
       0.2587849 0.91010636 0.6279729 0.9470935
0000a0 d2 9c 81 be d5 09 87 bf b2 45 78 3f 48 cb cb be
       -0.25314957 -1.0549875 0.96981347 -0.3980353
0000b0 d1 c3 da be 63 d2 0a bf e9 64 c2 be 0b 78 35 bf
       -0.4272752 -0.54227275 -0.37967613 -0.70886296
0000c0 92 80 0f 3f 45 8d 06 bf 94 61 9e be 46 a9 87 bf
       0.5605556 -0.5255931 -0.3093382 -1.0598533
0000d0 d3 c8 79 bf b0 0d 75 3f 90 0b 85 3f 0f 38 61 bf
       -0.9757206 0.9572401 1.0394154 -0.87976164
0000e0 3b 81 84 bf 76 ee 55 3e 2a 49 69 bd ad d3 62 bf
       -1.0351938 0.20891747 -0.05695454 -0.8860424
0000f0 71 56 6f 3f a0 68 81 3f 12 34 6a 3f e8 12 48 3f
       0.93491274 1.0110054 0.91485703 0.7815385
000100 15 e5 22 bf f6 52 96 be 8c 68 95 be 94 64 7e 3f
       -0.636308 -0.2936017 -0.29181325 0.9937222
000110 86 d6 c9 3e 73 25 33 3f d6 b3 75 bd 4b 8a 67 bf
       0.3942148 0.6997902 -0.059985958 -0.90445393
000120 fe 3b 40 3f d2 00 81 3f ca cb e8 be 4e c2 66 bf
       0.7509154 1.0078375 -0.4546798 -0.90140235
000130 0f 09 7b bf 48 01 84 bf 5a 3c ab 3e a9 0c 79 3f
       -0.980607 -1.0312891 0.33444482 0.9728494
000140 0d 18 c7 be 6e 3f d3 3e ff 5b 24 3e e3 e4 e8 3e
       -0.38885537 0.4125933 0.16050719 0.45487127
000150 4c c1 32 3f 7a af 7c 3f 04 08 c4 be 34 b9 7a 3f
       0.698262 0.98705256 -0.38287365 0.9793885
000160 33 8f 95 3d 22 84 95 3e fc 8d 71 3f c0 15 81 3f
       0.07302704 0.29202372 0.94357276 1.0084763
000170 4d d4 3f be bc 81 df be e8 1a 86 bf 07 ec b1 be
       -0.1873333 -0.43653667 -1.0476961 -0.34750387
000180 b8 58 6c 3f c4 7d 7c bf a1 59 2b 3e c7 ad c7 3e
       0.92322874 -0.98629403 0.1673341 0.3899977

fc3.weight f4 [2, 100]
000000 af 99 c9 3f 10 5e b4 3f 4f 17 d6 bf ba d6 d8 3f
       1.5750026 1.4091206 -1.6725863 1.6940529
000010 e3 57 d6 bf 18 71 4e bf cb 1e d4 3f a4 ed c7 bf
       -1.6745571 -0.8064132 1.6571897 -1.5619397
000020 b8 bb 3d c0 02 5f 5d c0 fd 7c d4 bf 1b 92 ca bf
       -2.9645824 -3.4589238 -1.6600643 -1.5825838
000030 b6 ec 0b c0 8c 29 cd bf fe ef ca bf 2d 90 66 40
       -2.1863227 -1.6028304 -1.585449 3.6025498
000040 06 8d f4 3f 62 79 dc bf 68 89 cc 3f f6 b3 d6 3f
       1.9105537 -1.7224543 1.5979433 1.677367
000050 f3 f1 08 c0 bd 4e 8d 40 eb 38 71 c0 59 aa c5 bf
       -2.1397674 4.4158616 -3.769099 -1.5442611
000060 77 68 d4 bf df 68 12 c0 95 fa d7 bf 81 a4 d6 3f
       -1.659438 -2.2876508 -1.6873347 1.6768953
000070 d9 f4 cb bf d3 fb 17 c0 9c bc d4 bf e9 7b d2 bf
       -1.5934097 -2.3747451 -1.6620059 -1.6444064
000080 33 a9 cb bf a1 0b d5 3f 18 7e d7 3f cd 5d 59 40
       -1.591101 1.6644174 1.6835356 3.3963501
000090 42 e6 e1 bf fb 71 cc bf 07 d7 de bf c3 ed d3 bf
       -1.7648394 -1.5972284 -1.7409371 -1.6556934
0000a0 91 4d 0e 40 29 7e da 3f 8d 29 d5 bf 7d 80 88 c0
       2.2234843 1.7069751 -1.6653305 -4.2656846
0000b0 1e 43 04 40 b9 f8 db 3f f2 00 5b c0 66 f1 f5 3f
       2.0665965 1.7185279 -3.4219327 1.9214294
0000c0 fc f8 f5 bf be 92 79 c0 43 d2 d1 3f fb 1f ce 3f
       -1.9216609 -3.8995814 1.6392292 1.610351
0000d0 a1 a4 d2 3f 8b 92 d6 bf 69 ac d1 bf 30 03 e1 3f
       1.6456491 -1.6763471 -1.638074 1.7579098
0000e0 18 2b d5 3f b9 ae 6d c0 72 82 2c c0 13 a6 c9 3f
       1.6653776 -3.7137892 -2.6954618 1.5753807
0000f0 2d 94 d4 bf c1 0a cd bf ce 6f d5 bf d5 c2 cb bf
       -1.660772 -1.6018907 -1.6674745 -1.5918833
000100 77 c9 de 3f 18 25 f2 3f fa 14 2f c0 56 eb df bf
       1.7405232 1.891757 -2.7356553 -1.7493694
000110 c5 7a e4 be 03 19 01 c0 90 65 52 c0 e5 ba d5 3f
       -0.44624916 -2.0171516 -3.287449 1.6697661
000120 b7 3a cb bf be e6 d7 bf 90 fa d4 3f 88 78 d5 3f
       -1.5877293 -1.6867292 1.6638966 1.6677408
000130 27 24 d6 3f b5 0d d1 3f bd 8b 78 bf 88 5e ca bf
       1.6729783 1.6332308 -0.97088224 -1.5810099
000140 6c 4b 6b 3f 04 ce 0b c0 42 f4 10 40 1b b8 d2 bf
       0.9191196 -2.1844492 2.2649083 -1.6462435
000150 4d 6c e4 bf fb 64 d5 bf 70 51 09 40 97 6c d5 bf
       -1.7845551 -1.6671442 2.1455956 -1.6673764
000160 98 46 fd bf fb 55 e3 bf cd d1 d5 bf 11 05 be bf
       -1.9787169 -1.7760614 -1.6704651 -1.4845296
000170 f4 b2 5f c0 86 d3 c9 3f f3 85 d2 3f 18 12 d7 3f
       -3.4952974 1.5767677 1.6447128 1.6802397
000180 db 95 cd bf c8 20 cb 3f 9d ed 94 bf 95 7c 8a 40
       -1.6061357 1.5869379 -1.1635014 4.327708
000190 08 08 ed 3f 64 6e d3 3f 64 2f e6 bf b0 64 e6 3f
       1.8518076 1.6518064 -1.7983212 1.7999477
0001a0 ac 0e e9 bf 41 af f2 3f b7 31 e9 3f 9e 49 ee bf
       -1.8207603 1.8959733 1.8218297 -1.8616216
0001b0 e8 0f 5e c0 71 2f 7a c0 9e 3b f7 bf 7f 99 eb bf
       -3.4697208 -3.9091456 -1.9315069 -1.8406218
0001c0 11 dc eb bf 98 df e9 bf 19 2d e6 bf 00 30 85 40
       -1.8426534 -1.827136 -1.7982513 4.1621094
0001d0 8f 36 1a 40 e9 38 0b c0 96 f3 e6 3f d9 05 db 3f
       2.40958 -2.1753485 1.8043087 1.711116
0001e0 b6 4b 13 c0 13 d1 9f 40 14 49 74 c0 2e db ef bf
       -2.301496 4.9942718 -3.8169603 -1.8738763
0001f0 0a 48 e7 bf ff d9 d6 bf 75 79 04 c0 0e 11 e0 3f
       -1.806886 -1.6785277 -2.0699131 1.7505205
000200 40 0b e3 bf 39 6b 13 c0 88 9c ec bf 5f 62 e8 bf
       -1.7737808 -2.3034194 -1.848527 -1.815502
000210 22 1a d9 bf 8f 46 f6 3f 05 c0 e4 3f b0 54 79 40
       -1.69611 1.9240283 1.78711 3.895794
000220 47 3a d5 bf ab 23 e4 bf e1 db ee bf ed 6e da bf
       -1.665841 -1.7823385 -1.8660852 -1.7065102
000230 cb 9b b7 3f 65 8f e8 3f c3 12 e4 bf 3f 60 90 c0
       1.4344419 1.816876 -1.7818226 -4.511749
000240 49 48 28 40 2a 5c e9 3f 50 ec 4f c0 37 0e 0d 40
       2.629412 1.8231251 -3.2487984 2.2039926
000250 2c 03 08 c0 35 5f 8d c0 2e 98 e6 3f 9f 26 ea 3f
       -2.1251936 -4.417872 1.8015192 1.8293036
000260 a1 4b e8 3f 54 21 f7 bf 81 db e8 bf 1a bc 03 40
       1.814808 -1.9307046 -1.8191987 2.0583558
000270 05 35 dc 3f 8b 41 71 c0 01 cd 56 c0 35 89 ee 3f
       1.720368 -3.7696254 -3.3562624 1.8635622
000280 aa c8 e7 bf 42 4d e6 bf 76 cb d8 bf 4d 17 e7 bf
       -1.8108113 -1.7992327 -1.6937091 -1.8053986
000290 1f ca f0 3f 33 3d f0 3f f7 2b 33 c0 78 e7 03 c0
       1.8811682 1.8768677 -2.7995584 -2.0610027
0002a0 ea 7f ea bf 1c 40 21 c0 67 c5 64 c0 cb 64 da 3f
       -1.8320286 -2.519538 -3.5745485 1.706201
0002b0 6b 66 e1 bf 4c 42 da bf 5f 8e f8 3f f3 10 dd 3f
       -1.760938 -1.7051482 1.9418448 1.7270797
0002c0 af ec da 3f c5 a3 e9 3f be 2d f4 bf 99 c9 e6 bf
       1.710348 1.8253103 -1.907646 -1.8030273
0002d0 48 c4 f9 3f 67 16 f4 bf 53 da 18 40 b8 f9 f7 bf
       1.9513025 -1.9069337 2.3883255 -1.9373083
0002e0 d7 30 0b c0 34 2c df bf 85 53 e9 3f 61 79 e5 bf
       -2.174856 -1.7435365 1.8228613 -1.7927667
0002f0 e2 8b e0 bf dd 55 d6 bf ba 05 e4 bf 23 2b f2 bf
       -1.7542689 -1.6744953 -1.7814248 -1.8919414
000300 05 dc 3a c0 26 12 d2 3f 75 97 e9 3f 8f 30 f0 3f
       -2.919679 1.6411788 1.8249346 1.8764819
000310 b3 10 e9 bf 7f 69 e7 3f dd 5a 17 c0 f3 04 91 40
       -1.8208221 1.807907 -2.3649209 4.531854

fc3.bias f4 [2]
000000 b3 75 c0 bf 6d 02 d8 bf
       -1.5035919 -1.687574

fc1.weight f4 [100, 22]
000000 c2 77 46 b0 d6 34 78 ae ac bd de af e0 96 bf af
       -7.2202166e-10 -5.64356e-11 -4.0516335e-10 -3.48499e-10
000010 fc 04 fa af 47 84 ab 2f db b8 be 2f 00 7a 7e 2f
       -4.5478277e-10 3.1198708e-10 3.4692146e-10 2.3144509e-10
000020 8c e7 91 2f bb 9c 00 80 09 6d 02 00 1f 1b 08 00
       2.653987e-10 -5.6224e-41 2.22785e-40 7.44413e-40
000030 f1 47 04 00 5f 36 0c 80 34 0d 09 00 7a ba 12 80
       3.9315e-40 -1.12153e-39 8.31256e-40 -1.719934e-39
000040 2b 2d 08 00 0c 35 05 80 5d b2 09 80 ec d6 16 80
       7.50887e-40 -4.78207e-40 -8.90504e-40 -2.09748e-39
000050 8d 1b 0a 80 20 08 b6 00 f1 4f d9 bd 22 ee 9b 3b
       -9.28238e-40 1.6716975e-38 -0.10610951 0.0047586123
000060 57 fb 5b 3b 9f c5 9b 3b 7f b3 90 3b df 1d 30 3d
       0.0033566558 0.004753783 0.004415929 0.042997237
000070 1d d6 3e 3d 74 e9 10 3d 87 c2 1c 3d 58 8e 01 00
       0.046590913 0.03537889 0.038271453 1.42899e-40
000080 2e 89 0e 80 9e 8a 11 00 f2 42 12 00 e2 43 02 00
       -1.334908e-39 1.61093e-39 1.677054e-39 2.08023e-40
000090 75 72 0a 80 86 a3 0d 00 54 ed 0b 80 14 42 10 80
       -9.59414e-40 1.252523e-39 -1.095328e-39 -1.493072e-39
0000a0 11 48 0b 80 dc 98 10 80 a4 30 13 80 0f 55 0c 80
       -1.036043e-39 -1.524204e-39 -1.762323e-39 -1.132539e-39
0000b0 29 7c a0 b3 d3 5c 25 33 93 90 96 33 82 01 5a 34
       -7.473165e-08 3.850148e-08 7.011217e-08 2.030338e-07
0000c0 82 5d 16 34 38 14 69 b2 df 72 62 b2 e0 a5 79 b2
       1.4003857e-07 -1.3566982e-08 -1.318105e-08 -1.4531423e-08
0000d0 16 f1 72 b2 8e 48 13 00 ac 53 00 80 b0 8b 11 00
       -1.41410705e-08 1.770902e-39 -3.0016e-41 1.611314e-39
0000e0 da 70 0a 80 81 a0 07 80 a0 24 01 80 89 b5 06 80
       -9.58838e-40 -7.00426e-40 -1.04974e-40 -6.16136e-40
0000f0 ee 23 01 80 98 45 0e 00 7e b8 00 80 bd 0d 0c 00
       -1.04725e-40 1.310662e-39 -6.6183e-41 1.106954e-39
000100 2c 11 14 00 2b 38 08 00 0a 8b b6 aa 72 57 87 2a
       1.84287e-39 7.54833e-40 -3.2426172e-13 2.4041495e-13
000110 28 72 35 28 a0 d7 d9 29 60 33 8e 2b a4 a6 30 29
       1.0072272e-14 9.674141e-14 1.0103966e-12 3.9224388e-14
000120 28 b3 2b 29 10 6d 3f 29 f4 f5 38 29 41 86 05 80
       3.812502e-14 4.2505116e-14 4.1069538e-14 -5.07339e-40
000130 f2 c1 09 00 3d 41 0e 00 c9 1a 15 80 c8 55 05 00
       8.96094e-40 1.3091e-39 -1.938154e-39 4.8995e-40
000140 79 4d 0c 80 89 ec 07 00 1f d1 0e 00 9b b5 04 00
       -1.129818e-39 7.27701e-40 1.360715e-39 4.3249e-40
000150 3c 34 15 00 4e 87 08 00 54 88 02 80 97 73 07 80
       1.947284e-39 7.83222e-40 -2.32576e-40 -6.84314e-40
000160 38 ce 3b a5 20 26 1e a3 28 96 97 26 5d 6a 69 27
       -1.6289534e-16 -8.5732704e-18 1.051843e-15 3.2392905e-15
000170 b0 7b 24 a6 db 85 8a a5 24 cd 86 a5 80 95 94 a5
       -5.706656e-16 -2.4029888e-16 -2.3384303e-16 -2.5775213e-16
000180 1d 59 90 a5 63 3b 05 80 f8 7f 0f 00 2d 3a 05 80
       -2.5040404e-16 -4.80481e-40 1.423439e-39 -4.80047e-40
000190 d0 5e 17 00 32 11 01 00 d6 cc 03 00 8b 25 18 80
       2.146229e-39 9.8004e-41 3.48988e-40 -2.21752e-39
0001a0 65 37 16 00 f7 54 05 80 6b 3d 09 80 53 39 16 00
       2.040253e-39 -4.89657e-40 -8.48552e-40 2.040945e-39
0001b0 05 03 0f 00 b2 3c 10 80 ef 4f d9 3d 2a ee 9b bb
       1.378616e-39 -1.491141e-39 0.10610949 -0.004758616
0001c0 5b fb 5b bb a2 c5 9b bb 80 b3 90 bb df 1d 30 bd
       -0.0033566568 -0.0047537843 -0.0044159293 -0.042997237
0001d0 1d d6 3e bd 73 e9 10 bd 85 c2 1c bd 06 3f 0a 80
       -0.046590913 -0.035378885 -0.038271446 -9.40964e-40
0001e0 79 b7 09 80 ca e2 05 80 18 e6 15 00 7b 69 01 00
       -8.92337e-40 -5.40534e-40 2.011088e-39 1.29675e-40
0001f0 b3 77 12 80 c2 8a 09 00 ec 72 13 00 47 26 19 80
       -1.695979e-39 8.76296e-40 1.7861e-39 -2.309619e-39
000200 46 82 02 00 c2 62 16 80 e2 92 13 00 2e 94 14 80
       2.30404e-40 -2.055809e-39 1.797566e-39 -1.889867e-39
000210 56 d4 63 38 a2 eb ac 38 13 a4 97 b9 bf 23 47 ba
       5.431877e-05 8.245489e-05 -0.0002892321 -0.0007596574
000220 5c 44 7d 39 c2 3c e5 38 55 8a d0 38 27 62 0f 39
       0.00024153426 0.00010930888 9.943979e-05 0.00013674107
000230 64 15 03 39 2d e8 13 80 14 6d 09 00 82 0d 05 00
       0.00012501102 -1.828163e-39 8.6565e-40 4.64023e-40
000240 5c ae 10 00 4a b1 00 80 b1 06 03 00 a8 d0 03 80
       1.531916e-39 -6.36e-41 2.77907e-40 -3.50358e-40
000250 6b 3b 04 80 bb 68 0a 00 36 25 0b 80 50 6d 08 00
       -3.88657e-40 9.55925e-40 -1.023539e-39 7.73898e-40
000260 57 91 08 80 d4 3a e9 02 ab f3 7b 20 0c e7 24 a0
       -7.86822e-40 3.4270039e-37 2.134115e-19 -1.3967787e-19
000270 51 5b 09 a0 4d 61 bf a0 74 45 74 a0 3b b9 34 1f
       -1.1634565e-19 -3.2421047e-19 -2.0690584e-19 3.8269702e-20
000280 d6 52 32 1f ca 50 3a 1f 84 21 38 1f 08 de 14 00
       3.7761486e-20 3.945386e-20 3.899124e-20 1.91636e-39
000290 33 44 10 00 47 37 11 00 7f c7 0e 80 8c 8e 12 00
       1.493833e-39 1.581033e-39 -1.357263e-39 1.704175e-39
0002a0 d6 de 08 80 40 0e 06 00 c9 bb 00 80 fa 29 06 00
       -8.14622e-40 5.56125e-40 -6.7365e-41 5.66071e-40
0002b0 e5 51 12 00 08 22 01 00 20 d6 07 80 b1 77 0b 00
       1.682417e-39 1.04044e-40 -7.19662e-40 1.053128e-39
0002c0 2d 93 d3 32 1a 08 de b0 9f 25 22 b2 2f 33 f0 b2
       2.463056e-08 -1.6154929e-09 -9.438195e-09 -2.7962953e-08
0002d0 df 4a b3 b2 df 3e 03 b2 19 1e 17 b2 60 1c c1 b1
       -2.087239e-08 -7.639499e-09 -8.7962e-09 -5.620265e-09
0002e0 3c 7d d9 b1 c6 f4 01 00 82 67 0b 80 19 43 0e 80
       -6.3297687e-09 1.79644e-40 -1.047322e-39 -1.309767e-39
0002f0 fa a4 0e 80 fd bf 13 80 81 51 15 00 7d a7 0b 80
       -1.34488e-39 -1.813747e-39 1.957784e-39 -1.070274e-39
000300 34 12 0f 00 43 ba 0f 80 8a e0 14 80 1a ab 14 80
       1.384062e-39 -1.44435e-39 -1.91726e-39 -1.89809e-39
000310 32 1a 0b 80 ff 50 0d 80 14 50 d9 bd 17 ee 9b 3b
       -1.019588e-39 -1.222917e-39 -0.10610977 0.004758607
000320 49 fb 5b 3b 87 c5 9b 3b 7a b3 90 3b fa 1d 30 3d
       0.0033566526 0.0047537717 0.0044159265 0.042997338
000330 37 d6 3e 3d 88 e9 10 3d 9b c2 1c 3d 24 eb 00 80
       0.04659101 0.035378963 0.038271528 -8.4353e-41
000340 06 b0 15 80 ae 2c 05 80 a2 14 0e 80 5a b0 15 80
       -1.991691e-39 -4.75206e-40 -1.293099e-39 -1.991808e-39
000350 e3 f2 06 00 9f 07 05 00 ea f9 0e 00 1e 67 07 80
       6.38144e-40 4.61911e-40 1.375349e-39 -6.7984e-40
000360 74 2e 01 80 0c f4 09 00 9f 8e 0b 00 54 dd 0a 80
       -1.085e-40 9.14067e-40 1.061353e-39 -9.97753e-40
000370 1e 50 d9 3d 14 ee 9b bb 31 fb 5b bb 8e c5 9b bb
       0.10610984 -0.0047586057 -0.003356647 -0.004753775
000380 72 b3 90 bb 03 1e 30 bd 3f d6 3e bd 91 e9 10 bd
       -0.004415923 -0.04299737 -0.04659104 -0.035378996
000390 a2 c2 1c bd d1 b1 06 00 17 4c 09 00 e1 33 05 80
       -0.038271554 6.14801e-40 8.53815e-40 -4.77788e-40
0003a0 a1 2b 02 80 c3 b0 05 00 27 45 16 00 4b 27 05 80
       -1.99322e-40 5.22588e-40 2.045188e-39 -4.73273e-40
0003b0 dc a2 0a 00 46 44 11 00 5b b4 17 80 a7 91 15 00
       9.76778e-40 1.585695e-39 -2.176916e-39 1.980796e-39
0003c0 98 5f 00 80 98 8c 03 00 1b 50 d9 3d 16 ee 9b bb
       -3.4293e-41 3.25942e-40 0.10610982 -0.0047586067
0003d0 38 fb 5b bb 8c c5 9b bb 71 b3 90 bb ff 1d 30 bd
       -0.0033566486 -0.004753774 -0.0044159223 -0.042997357
0003e0 3e d6 3e bd 90 e9 10 bd a0 c2 1c bd e0 51 02 80
       -0.046591036 -0.035378993 -0.038271546 -2.13042e-40
0003f0 37 ee 0c 80 18 53 01 00 03 a4 0a 00 2c d1 06 00
       -1.187481e-39 1.21644e-40 9.77191e-40 6.2605e-40

fc1.bias f4 [100]
000000 6f 58 a9 2f e7 04 0b be e2 b9 24 32 d4 0b 0d a9
       3.0803757e-10 -0.13576089 9.588321e-09 -3.131855e-14
000010 09 ae 4a 25 e6 04 0b 3e a0 8e 7e b6 86 18 19 9f
       1.7579673e-16 0.13576087 -3.7931968e-06 -3.2419296e-20
000020 90 72 72 b2 00 05 0b be 08 05 0b 3e 07 05 0b 3e
       -1.4112302e-08 -0.13576126 0.13576138 0.13576137
000030 b8 e7 44 b6 09 05 0b 3e 0a 05 0b be 07 05 0b 3e
       -2.9341154e-06 0.1357614 -0.13576141 0.13576137
000040 0b 05 0b be 0a 05 0b be d1 09 f2 23 0c 05 0b be
       -0.13576142 -0.13576141 2.624185e-17 -0.13576144
000050 0e 34 eb 1e 40 cd ef b2 3c 43 23 9f 15 f0 9a b7
       2.4903122e-20 -2.7916599e-08 -3.4572208e-20 -1.8470027e-05
000060 af 96 66 9f 27 45 f0 a7 d8 78 2e 2e 07 05 0b be
       -4.8829037e-20 -6.6688357e-15 3.967035e-11 -0.13576137
000070 20 fc 53 37 0c 05 0b 3e 4a 0f 79 29 5e 75 c8 30
       1.26352825e-05 0.13576144 5.5302368e-14 1.4585273e-09
000080 ea c4 d1 35 06 05 0b 3e e7 49 b1 28 e0 d6 63 b8
       1.5629023e-06 0.13576135 1.9682998e-14 -5.4321135e-05
000090 00 30 38 9f 2d 43 38 28 b3 c0 83 ab fd 04 0b be
       -3.900322e-20 1.0228618e-14 -9.361595e-13 -0.13576122
0000a0 c4 fb b9 a5 9c 56 37 33 e3 04 0b 3e f8 04 0b be
       -3.2262987e-16 4.268678e-08 0.13576083 -0.13576114
0000b0 c0 53 47 32 d0 ea d0 35 fe 04 0b 3e 06 05 0b be
       1.1602367e-08 1.5565547e-06 0.13576123 -0.13576135
0000c0 f8 04 0b 3e 07 05 0b be fe 04 0b be ff 04 0b be
       0.13576114 -0.13576137 -0.13576123 -0.13576125
0000d0 07 05 0b 3e d8 3c e3 22 b8 a0 f7 a7 07 05 0b be
       0.13576137 6.1592894e-18 -6.8730523e-15 -0.13576137
0000e0 c6 dc 8a a1 6b c0 e2 ab 07 05 0b 3e d8 0a aa b9
       -9.409682e-19 -1.6111673e-12 0.13576137 -0.00032433006
0000f0 07 05 0b 3e 0c 27 fd 2b fe 04 0b 3e 60 d5 bb 1d
       0.13576137 1.7987569e-12 0.13576123 4.9719112e-21
000100 07 05 0b 3e 6c 23 6c a7 a0 11 88 a5 07 05 0b be
       0.13576137 -3.2770781e-15 -2.3604182e-16 -0.13576137
000110 fe 04 0b 3e 80 69 25 27 02 0f 81 30 07 05 0b 3e
       0.13576123 2.2955542e-15 9.390251e-10 0.13576137
000120 78 00 1f a9 0a 05 0b be fb 04 0b be 07 05 0b 3e
       -3.53055e-14 -0.13576141 -0.13576119 0.13576137
000130 05 05 0b 3e 09 05 0b be 86 39 fb 27 7e 7d c6 33
       0.13576134 -0.1357614 6.972886e-15 9.2429204e-08
000140 e3 54 16 30 18 6f cb a6 b1 92 08 33 f8 04 0b 3e
       5.4690313e-10 -1.4116067e-15 3.1798383e-08 0.13576114
000150 f6 04 0b be 07 05 0b 3e 92 52 ab 3a 83 59 a1 2f
       -0.13576111 0.13576137 0.0013070873 2.934933e-10
000160 06 05 0b 3e 98 f2 78 22 8d 72 d9 36 c0 4f c2 37
       0.13576135 3.3738695e-18 6.4804394e-06 2.3163739e-05
000170 f6 04 0b 3e 0b 05 0b 3e 04 05 0b be 00 05 0b 3e
       0.13576111 0.13576142 -0.13576132 0.13576126
000180 c5 2a 21 32 73 8a 84 ac 8e e4 27 2e 08 05 0b be
       9.381158e-09 -3.7670366e-12 3.81744e-11 -0.13576138

fc2.weight f4 [100, 100]
000000 9a a5 cf 2e 7e 28 a7 3c fd 7b e5 b2 50 0e cb aa
       9.442687e-11 0.02040505 -2.6715492e-08 -3.6069975e-13
000010 2e b4 28 26 7f 28 a7 bc b0 a7 88 b6 df f2 c8 1f
       5.85309e-16 -0.020405052 -4.0726372e-06 8.510509e-20
000020 ba 7d b3 31 9a 28 a7 3c a3 28 a7 bc a2 28 a7 bc
       5.223879e-09 0.020405103 -0.02040512 -0.020405117
000030 97 0d 3a 38 a4 28 a7 bc a6 28 a7 3c a4 28 a7 bc
       4.4358512e-05 -0.020405121 0.020405125 -0.020405121
000040 a5 28 a7 3c a5 28 a7 3c cc e8 11 a3 a6 28 a7 3c
       0.020405123 0.020405123 -7.909762e-18 0.020405125
000050 64 3f 0e a0 5f b9 a5 2f ee d7 99 20 8a 46 e8 b8
       -1.2048842e-19 3.014504e-10 2.6062098e-19 -0.00011075761
000060 43 87 66 1e 5f 4b 0a a6 59 f9 09 b0 a1 28 a7 3c
       1.220407e-20 -4.7980515e-16 -5.0194654e-10 0.020405116
000070 4b 5d 8f b9 a7 28 a7 bc 52 e6 bb 29 d0 7a 82 af
       -0.00027344594 -0.020405127 8.3444224e-14 -2.3734126e-10
000080 36 e5 17 37 a0 28 a7 bc 2c 52 ad 25 be c6 a0 39
       9.053669e-06 -0.020405114 3.0066398e-16 0.00030665653
000090 90 b9 34 1e 5a 26 db a8 e4 07 e6 2a 95 28 a7 3c
       9.567494e-21 -2.4330517e-14 4.0861683e-13 0.020405093
0000a0 25 02 66 27 14 3b 90 b4 7a 28 a7 bc 92 28 a7 3c
       3.1920075e-15 -2.6865075e-07 -0.020405043 0.020405088
0000b0 14 43 12 33 2e 9f b9 37 99 28 a7 bc a1 28 a7 3c
       3.405428e-08 2.2127842e-05 -0.0204051 0.020405116
0000c0 93 28 a7 bc a4 28 a7 3c 9a 28 a7 3c 99 28 a7 3c
       -0.02040509 0.020405121 0.020405103 0.0204051
0000d0 a3 28 a7 bc bb 02 cb 24 5a ae a3 a5 a4 28 a7 3c
       -0.02040512 8.804184e-17 -2.8394138e-16 0.020405121
0000e0 00 3e b0 1e d0 b4 91 28 a2 28 a7 bc 58 04 8b ba
       1.8660367e-20 1.6176649e-14 -0.020405117 -0.0010606153
0000f0 a2 28 a7 bc fd 74 47 ad 97 28 a7 bc 03 7d 24 9f
       -0.020405117 -1.1337817e-11 -0.020405097 -3.4831758e-20
000100 a3 28 a7 bc b6 69 d5 27 fa 69 02 a9 a4 28 a7 3c
       -0.02040512 5.923399e-15 -2.895772e-14 0.020405121
000110 99 28 a7 bc 40 18 38 a7 ec 42 81 31 a2 28 a7 bc
       -0.0204051 -2.5548276e-15 3.7620023e-09 -0.020405117
000120 5c 86 87 a6 a6 28 a7 3c 95 28 a7 3c a2 28 a7 bc
       -9.403925e-16 0.020405125 0.020405093 -0.020405117
000130 a0 28 a7 bc a4 28 a7 3c 4e 78 87 29 47 a5 92 b2
       -0.020405114 0.020405121 6.016074e-14 -1.7071796e-08
000140 b6 c8 a2 ac 12 82 07 29 1f f5 94 34 90 28 a7 bc
       -4.6266003e-12 3.008884e-14 2.7745497e-07 -0.020405084
000150 8f 28 a7 3c a1 28 a7 bc 90 1a 06 3a ce b4 ee 2d
       0.020405082 -0.020405116 0.00051156525 2.713776e-11
000160 a2 28 a7 bc d4 11 c2 a4 49 c0 05 38 02 85 8b ba
       -0.020405117 -8.416429e-17 3.188875e-05 -0.0010644498
000170 90 28 a7 bc a6 28 a7 bc 9f 28 a7 3c 98 28 a7 bc
       -0.020405084 -0.020405125 0.020405112 -0.020405099
000180 7f ac 2f b3 9d 01 17 a9 90 67 ea aa a3 28 a7 3c
       -4.0902247e-08 -3.3530135e-14 -4.163861e-13 0.02040512
000190 72 a5 cf 2e f8 27 a7 3c 9d 7b e5 b2 88 0e cb aa
       9.442659e-11 0.0204048 -2.6715322e-08 -3.6070127e-13
0001a0 ee b4 28 26 f6 27 a7 bc 40 ca 88 b6 ac f2 c8 1f
       5.8531914e-16 -0.020404797 -4.076661e-06 8.510476e-20
0001b0 27 7e b3 31 12 28 a7 3c 1d 28 a7 bc 18 28 a7 bc
       5.2239275e-09 0.02040485 -0.02040487 -0.02040486
0001c0 56 0d 3a 38 1b 28 a7 bc 1e 28 a7 3c 1a 28 a7 bc
       4.4358276e-05 -0.020404866 0.020404872 -0.020404864
0001d0 1f 28 a7 3c 1f 28 a7 3c de e9 11 a3 20 28 a7 3c
       0.020404873 0.020404873 -7.909989e-18 0.020404875
0001e0 58 3f 0e a0 00 b9 a5 2f 4b d8 99 20 2c 47 e8 b8
       -1.2048827e-19 3.0144776e-10 2.606234e-19 -0.00011075879
0001f0 31 88 66 1e 89 4b 0a a6 b1 fa 09 b0 18 28 a7 3c
       1.2204262e-20 -4.7980737e-16 -5.0196564e-10 0.02040486
000200 84 5d 8f b9 22 28 a7 bc 00 e7 bb 29 20 6f 82 af
       -0.0002734476 -0.020404879 8.34454e-14 -2.372582e-10
000210 5c e5 17 37 18 28 a7 bc ec 53 ad 25 99 c7 a0 39
       9.053703e-06 -0.02040486 3.0067584e-16 0.0003066629
000220 50 a7 34 1e 66 26 db a8 48 05 e6 2a 0f 28 a7 3c
       9.56372e-21 -2.4330537e-14 4.0859872e-13 0.020404844
000230 4c 02 66 27 e2 3a 90 b4 f5 27 a7 bc 0b 28 a7 3c
       3.1920157e-15 -2.6864933e-07 -0.020404795 0.020404836
000240 92 43 12 33 39 9f b9 37 11 28 a7 bc 18 28 a7 3c
       3.405473e-08 2.2127862e-05 -0.020404847 0.02040486
000250 0c 28 a7 bc 1c 28 a7 3c 0e 28 a7 3c 12 28 a7 3c
       -0.020404838 0.020404868 0.020404842 0.02040485
000260 18 28 a7 bc 19 03 cb 24 7e ac a3 a5 1b 28 a7 3c
       -0.02040486 8.8042464e-17 -2.8392878e-16 0.020404866
000270 80 e9 af 1e 36 b4 91 28 19 28 a7 bc 7e 04 8b ba
       1.8625419e-20 1.6176388e-14 -0.020404862 -0.0010606197
000280 1a 28 a7 bc f2 74 47 ad 11 28 a7 bc 40 7d 24 9f
       -0.020404864 -1.1337807e-11 -0.020404847 -3.4831955e-20
000290 1a 28 a7 bc a5 69 d5 27 30 6a 02 a9 1a 28 a7 3c
       -0.020404864 5.9233916e-15 -2.89579e-14 0.020404864
0002a0 10 28 a7 bc bc 17 38 a7 98 43 81 31 19 28 a7 bc
       -0.020404845 -2.5547996e-15 3.7620786e-09 -0.020404862
0002b0 2a 86 87 a6 1f 28 a7 3c 0e 28 a7 3c 19 28 a7 bc
       -9.403872e-16 0.020404873 0.020404842 -0.020404862
0002c0 18 28 a7 bc 1e 28 a7 3c f2 78 87 29 30 a6 92 b2
       -0.02040486 0.020404872 6.016185e-14 -1.707221e-08
0002d0 6d c8 a2 ac 00 82 07 29 7a f5 94 34 09 28 a7 bc
       -4.6265687e-12 3.008878e-14 2.7745756e-07 -0.020404832
0002e0 08 28 a7 3c 19 28 a7 bc 00 1a 06 3a a8 b4 ee 2d
       0.02040483 -0.020404862 0.00051155686 2.7137695e-11
0002f0 19 28 a7 bc 32 12 c2 a4 cb c0 05 38 17 85 8b ba
       -0.020404862 -8.416491e-17 3.1889223e-05 -0.0010644522
000300 0a 28 a7 bc 1e 28 a7 bc 17 28 a7 3c 14 28 a7 bc
       -0.020404834 -0.020404872 0.020404859 -0.020404853
000310 32 ac 2f b3 2a 01 17 a9 22 67 ea aa 1b 28 a7 3c
       -4.0901973e-08 -3.3529745e-14 -4.1638313e-13 0.020404866
000320 8e a5 cf 2e 43 28 a7 3c d2 7b e5 b2 64 0e cb aa
       9.4426786e-11 0.02040494 -2.6715416e-08 -3.607003e-13
000330 84 b4 28 26 42 28 a7 bc a0 b6 88 b6 bb f2 c8 1f
       5.8531353e-16 -0.020404939 -4.074376e-06 8.510486e-20
000340 f4 7d b3 31 5a 28 a7 3c 64 28 a7 bc 63 28 a7 bc
       5.223905e-09 0.020404983 -0.020405002 -0.020405
000350 76 0d 3a 38 64 28 a7 bc 69 28 a7 3c 64 28 a7 bc
       4.4358392e-05 -0.020405002 0.020405011 -0.020405002
000360 69 28 a7 3c 6a 28 a7 3c 5a e9 11 a3 6b 28 a7 3c
       0.020405011 0.020405013 -7.90988e-18 0.020405015
000370 62 3f 0e a0 46 b9 a5 2f 1f d8 99 20 d5 46 e8 b8
       -1.204884e-19 3.014497e-10 2.6062225e-19 -0.000110758156
000380 b4 87 66 1e 72 4b 0a a6 ea f9 09 b0 63 28 a7 3c
       1.2204161e-20 -4.7980615e-16 -5.019546e-10 0.020405
000390 54 5d 8f b9 6a 28 a7 bc a2 e6 bb 29 80 75 82 af
       -0.0002734462 -0.020405013 8.3444766e-14 -2.373035e-10
0003a0 3e e5 17 37 62 28 a7 bc 23 53 ad 25 24 c7 a0 39
       9.053676e-06 -0.020404998 3.0067052e-16 0.0003066595
0003b0 20 b2 34 1e 66 26 db a8 b0 06 e6 2a 56 28 a7 3c
       9.565956e-21 -2.4330537e-14 4.0860848e-13 0.020404976
0003c0 3a 02 66 27 fe 3a 90 b4 40 28 a7 bc 54 28 a7 3c
       3.192012e-15 -2.6865013e-07 -0.020404935 0.020404972
0003d0 4d 43 12 33 32 9f b9 37 59 28 a7 bc 61 28 a7 3c
       3.4054484e-08 2.212785e-05 -0.020404981 0.020404996
0003e0 54 28 a7 bc 62 28 a7 3c 58 28 a7 3c 5c 28 a7 3c
       -0.020404972 0.020404998 0.02040498 0.020404987
0003f0 62 28 a7 bc d4 02 cb 24 8a ad a3 a5 62 28 a7 3c
       -0.020404998 8.804201e-17 -2.8393587e-16 0.020404998

fc2.bias f4 [100]
000000 b2 14 9f bd 20 14 9f bd 6f 14 9f bd 37 14 9f 3d
       -0.07767619 -0.077675104 -0.07767569 0.077675276
000010 78 14 9f 3d 8f 14 9f bd 24 14 9f 3d 5b 14 9f 3d
       0.07767576 -0.07767593 0.077675134 0.077675544
000020 86 14 9f bd 63 14 9f bd 5e 14 9f bd 56 14 9f 3d
       -0.077675864 -0.0776756 -0.077675566 0.07767551
000030 5f 14 9f 3d 39 14 9f 3d 3f 14 9f bd 5c 14 9f bd
       0.07767557 0.07767529 -0.077675335 -0.07767555
000040 95 14 9f bd 91 14 9f bd 59 14 9f 3d 49 14 9f 3d
       -0.077675976 -0.077675946 0.07767553 0.07767541
000050 32 14 9f bd d8 13 9f 3d c7 13 9f bd 5e 14 9f bd
       -0.07767524 0.07767457 -0.07767444 -0.077675566
000060 50 13 9f 3d ab eb a7 87 5c 14 9f 3d 5e 14 9f bd
       0.077673554 -2.526588e-34 0.07767555 -0.077675566
000070 51 14 9f 3d 38 14 9f bd a8 14 9f bd 32 14 9f 3d
       0.07767547 -0.07767528 -0.07767612 0.07767524
000080 20 14 9f 3d 5b 14 9f bd 73 14 9f bd 50 14 9f bd
       0.077675104 -0.077675544 -0.07767572 -0.07767546
000090 6d 14 9f bd 48 14 9f 3d 5d 14 9f 3d eb 13 9f 3d
       -0.07767568 0.0776754 0.07767556 0.07767471
0000a0 46 14 9f 3d 8a 14 9f 3d 54 14 9f bd eb 13 9f bd
       0.07767539 0.077675894 -0.07767549 -0.07767471
0000b0 a4 14 9f bd cd 13 9f bd 24 14 9f 3d 16 14 9f 3d
       -0.07767609 -0.077674486 0.077675134 0.07767503
0000c0 5c 14 9f 3d 8c 14 9f 3d 4a 14 9f 3d 6c 14 9f bd
       0.07767555 0.07767591 0.07767542 -0.07767567
0000d0 50 14 9f 3d 61 14 9f 3d 89 14 9f 3d 61 14 9f bd
       0.07767546 0.07767559 0.07767589 -0.07767559
0000e0 39 14 9f 3d d2 13 9f bd 18 14 9f 3d 5b 14 9f 3d
       0.07767529 -0.07767452 0.077675045 0.077675544
0000f0 d0 13 9f bd 9c 14 9f bd 47 14 9f 3d 59 14 9f bd
       -0.07767451 -0.07767603 0.077675395 -0.07767553
000100 6e 14 9f 3d 47 14 9f bd 28 14 9f bd 86 14 9f 3d
       0.077675685 -0.077675395 -0.077675164 0.077675864
000110 44 14 9f bd b7 14 9f bd 5c 14 9f 3d 8a 3a a4 b5
       -0.07767537 -0.07767623 0.07767555 -1.2235989e-06
000120 24 14 9f 3d 11 14 9f bd 22 14 9f bd 83 14 9f bd
       0.077675134 -0.07767499 -0.07767512 -0.07767584
000130 18 14 9f 3d 1e 14 9f bd 24 14 9f 3d 5c 14 9f 3d
       0.077675045 -0.07767509 0.077675134 0.07767555
000140 f4 6c 1c a5 50 14 9f 3d 94 14 9f 3d 58 14 9f 3d
       -1.3567758e-16 0.07767546 0.07767597 0.07767552
000150 0e 14 9f 3d c7 9b 09 00 71 14 9f bd 63 13 9f 3d
       0.07767497 8.82402e-40 -0.07767571 0.077673696
000160 38 14 9f 3d 62 14 9f bd 9b 14 9f bd 99 77 c0 26
       0.07767528 -0.077675596 -0.07767602 1.3355093e-15
000170 1a 14 9f 3d 47 14 9f 3d 82 14 9f 3d 58 14 9f 3d
       0.07767506 0.077675395 0.077675834 0.07767552
000180 a0 14 9f bd 93 14 9f 3d 15 14 9f bd de 13 9f 3d
       -0.07767606 0.07767596 -0.07767502 0.07767461

fc3.weight f4 [1, 100]
000000 71 2c 28 be ca 2b 28 be 25 2c 28 be e4 2b 28 3e
       -0.16423203 -0.16422954 -0.1642309 0.16422993
000010 2e 2c 28 3e 4a 2c 28 be cf 2b 28 3e 0e 2c 28 3e
       0.16423103 -0.16423145 0.16422962 0.16423056
000020 3f 2c 28 be 17 2c 28 be 13 2c 28 be 07 2c 28 3e
       -0.16423129 -0.16423069 -0.16423063 0.16423045
000030 11 2c 28 3e e8 2b 28 3e ee 2b 28 be 0f 2c 28 be
       0.1642306 0.16422999 -0.16423008 -0.16423057
000040 51 2c 28 be 4b 2c 28 be 0c 2c 28 3e f9 2b 28 3e
       -0.16423155 -0.16423146 0.16423053 0.16423024
000050 de 2b 28 be 7c 2b 28 3e 67 2b 28 be 13 2c 28 be
       -0.16422984 0.16422838 -0.16422807 -0.16423063
000060 d6 2a 28 3e 46 f8 6e 88 10 2c 28 3e 12 2c 28 be
       0.1642259 -7.1912364e-34 0.16423059 -0.16423061
000070 04 2c 28 3e e4 2b 28 be 68 2c 28 be e0 2b 28 3e
       0.1642304 -0.16422993 -0.1642319 0.16422987
000080 ca 2b 28 3e 0e 2c 28 be 2a 2c 28 be 03 2c 28 be
       0.16422954 -0.16423056 -0.16423097 -0.16423039
000090 23 2c 28 be fa 2b 28 3e 11 2c 28 3e 90 2b 28 3e
       -0.16423087 0.16423026 0.1642306 0.16422868
0000a0 f5 2b 28 3e 45 2c 28 3e 06 2c 28 be 90 2b 28 be
       0.16423018 0.16423137 -0.16423044 -0.16422868
0000b0 63 2c 28 be 6c 2b 28 be cf 2b 28 3e c1 2b 28 3e
       -0.16423182 -0.16422814 0.16422962 0.16422941
0000c0 0f 2c 28 3e 45 2c 28 3e fb 2b 28 3e 20 2c 28 be
       0.16423057 0.16423137 0.16423027 -0.16423082
0000d0 03 2c 28 3e 15 2c 28 3e 42 2c 28 3e 16 2c 28 be
       0.16423039 0.16423066 0.16423133 -0.16423067
0000e0 e6 2b 28 3e 74 2b 28 be c3 2b 28 3e 10 2c 28 3e
       0.16422996 -0.16422826 0.16422944 0.16423059
0000f0 72 2b 28 be 56 2c 28 be f7 2b 28 3e 0c 2c 28 be
       -0.16422823 -0.16423163 0.16423021 -0.16423053
000100 23 2c 28 3e f7 2b 28 be d3 2b 28 be 40 2c 28 3e
       0.16423087 -0.16423021 -0.16422968 0.1642313
000110 f5 2b 28 be 76 2c 28 be 11 2c 28 3e b8 02 86 b4
       -0.16423018 -0.1642321 0.1642306 -2.4961423e-07
000120 cf 2b 28 3e bc 2b 28 be cb 2b 28 be 3a 2c 28 be
       0.16422962 -0.16422933 -0.16422956 -0.16423121
000130 c2 2b 28 3e c8 2b 28 be cf 2b 28 3e 10 2c 28 3e
       0.16422942 -0.16422951 0.16422962 0.16423059
000140 69 1f 8b 26 04 2c 28 3e 50 2c 28 3e 0a 2c 28 3e
       9.653576e-16 0.1642304 0.16423154 0.1642305
000150 b7 2b 28 3e 79 53 0e 00 27 2c 28 be ee 2a 28 3e
       0.16422926 1.315641e-39 -0.16423093 0.16422626
000160 e4 2b 28 3e 17 2c 28 be 55 2c 28 be 94 0c 84 26
       0.16422993 -0.16423069 -0.16423161 9.162749e-16
000170 c4 2b 28 3e f8 2b 28 3e 3b 2c 28 3e 0a 2c 28 3e
       0.16422945 0.16423023 0.16423123 0.1642305
000180 5c 2c 28 be 4e 2c 28 3e be 2b 28 be 82 2b 28 3e
       -0.16423172 0.16423151 -0.16422936 0.16422847
