gail/save_model/0/SUB046_ckpt_21.pth.tar (torch_old, 154735 bytes, 16 tensors)

fc1.weight f4 [100, 22]
-0.058415644 -0.20628144 0.31145325 0.25963548 0.15923074 -0.13965906 -0.332285 -0.10452339
-0.06226135 0.1270954 -0.017363548 0.17043388 -0.105812654 0.027623221 -0.20033872 0.039657354
0.059117734 -0.008740246 0.043931454 0.1002669 0.1109502 0.16510823 0.17361829 0.08271058
-0.31907225 0.3173677 0.19931825 -0.2955938 -0.20854416 -0.027276644 -0.24027541 -0.015945613
0.10634327 0.18803886 -0.18678859 0.05240825 0.16160882 0.04745248 0.059801936 -0.19784737
-0.036095023 -0.10515195 0.13505667 -0.20369631 0.10260736 0.36659452 0.07823014 -0.32121804
-0.198686 0.1652013 -0.04185573 0.07046422 0.27732185 0.06391707 0.04757929 0.17674974
-0.07064088 -0.03134334 0.11787838 0.21276453 0.070577055 0.046675146 -0.10051187 0.0133600235
-0.028393283 0.02227661 0.17063418 -0.15846738 0.0068102623 -0.27215016 -0.3392927 -0.1956553
0.14095409 -0.047990784 -0.030668724 -0.10686112 -0.15128021 0.04704073 0.19411889 -0.115122356
-0.094016075 0.16046417 0.06744477 0.18371043 0.021668047 -0.13205475 0.16463181 0.20020583
0.04418952 -0.32638875 -0.25355485 -0.34853467 0.19043832 0.14279321 0.1203176 -0.1332245
0.20227632 -0.12205914 0.13579372 0.005322799 0.08432412 -0.022651449 0.09195787 0.16440377
-0.18926974 0.12977988 0.1900717 0.12230405 0.10172212 -0.04550661 -0.46756333 0.0053633684
0.26277748 -0.16571528 -2.7870497e-05 0.3573796 0.07272252 0.33133698 0.25195614 0.1204091
-0.040400773 -0.08007951 -0.040216118 0.05861345 0.036905825 0.2075628 0.19277579 0.03202997
-0.033768386 -0.033163622 -0.05815363 0.115783155 0.06870478 -0.093968585 -0.22099702 -0.040216874
0.08197529 0.065878026 0.15243039 0.06810015 0.27849743 0.0014692396 0.08922824 0.092371374
0.08634055 -0.12774573 0.13442639 -0.060541153 -0.052569553 0.019937903 0.147576 0.15262696
-0.0764671 0.0041880906 -0.18180764 0.22328405 0.19711407 0.1846904 -0.16652462 -0.07885755
0.17754304 0.1516774 -0.015336003 0.010758668 0.10274008 -0.036053494 -0.1139675 0.0819104
0.10758722 0.14027247 0.040210307 -0.110446535 -0.057112068 0.13466907 0.085246295 -0.0519187
-0.18763848 0.03475003 0.22192279 0.27715766 0.20050587 0.38367286 0.032402918 0.3849589
0.37474388 0.12848032 0.19182938 0.001976952 -0.16869412 0.018528864 -0.21164216 0.032917053
-0.14038798 0.12029651 0.1105552 -0.04730995 -0.113868356 -0.12329786 0.2408445 0.36069378
0.038973913 -0.22547106 -0.3111056 0.1990827 0.057631623 0.1092812 -0.03445176 -0.16984642
0.20079082 -0.088579595 0.18850785 -0.17371158 0.038270175 0.19644278 -0.20980379 -0.18060121
-0.15269949 -0.030652776 0.051560342 -0.19551834 -0.22132604 -0.004529001 0.3190805 0.2797435
-0.20101278 0.057885274 -0.04600474 0.02698754 0.048639446 -0.071006 -0.17976923 0.15769798
0.021393016 0.12140164 0.13626784 0.1949665 -0.17295463 -0.095842354 0.057777077 -0.041324288
0.1168986 -0.016012251 -0.06674738 -0.2980672 0.38077635 0.398046 0.29815012 -0.058441073
-0.31304634 -0.26447606 -0.24448411 0.06858435 -0.19918182 0.1397498 0.04704696 0.033131674
00000000: 3e45 6fbd 713b 53be cd76 9f3e f1ee 843e
00000010: 620d 233e c902 0fbe 4221 aabe 5c10 d6bd
00000020: c205 7fbd 4c25 023e 003e 8ebc 3886 2e3e
00000030: 4eb4 d8bd 184a e23c 9825 4dbe c06f 223d
00000040: 7025 723d 4033 0fbc 78f1 333d bc58 cd3d
00000050: dc39 e33d 2212 293e fec8 313e 2a64 a93d
00000060: 705d a3be 057e a23e 151a 4c3e 1258 97be
00000070: 9a8c 55be 4573 dfbc c20a 76be 60a0 82bc
00000080: 80ca d93d 428d 403e 8245 3fbe 08aa 563d
00000090: c87c 253e 885d 423d e0f2 743d 8098 4abe
000000a0: 60d8 13bd e859 d7bd 4c4c 0a3e c495 50be
000000b0: cf23 d23d 47b2 bb3e 2037 a03d b176 a4be
000000c0: 5874 4bbe 882a 293e ea70 2bbd 8c4f 903d
000000d0: 21fd 8d3e f4e6 823d 80e2 423d e2fd 343e
000000e0: 2aac 90bd e061 00bd 386a f13d f2de 593e
000000f0: b48a 903d 702e 3f3d 2bd9 cdbd 00e4 5a3c
00000100: 0899 e8bc 707d b63c baba 2e3e 4645 22be
00000110: 9f28 df3b 4457 8bbe c6b7 adbe dd59 48be
00000120: 4556 103e fc91 44bd fa3c fbbc 01da dabd
00000130: 33e9 1abe c8ad 403d 1ac7 463e 45c5 ebbd
00000140: 808b c0bd b850 243e 7c20 8a3d 961e 3c3e
00000150: 3081 b13c 5c39 07be 3e95 283e c202 4d3e
00000160: 1200 353d 6d1c a7be f1d1 81be 2373 b2be
00000170: 4302 433e 6238 123e 1369 f63d 016c 08be
00000180: 8621 4f3e 24fa f9bd 820d 0b3e e06a ae3b
00000190: 20b2 ac3d 888f b9bc 6854 bc3d 7659 283e
000001a0: edcf 41be 04e5 043e 28a2 423e 8c7a fa3d
000001b0: b053 d03d 2465 3abd 7664 efbe 32bf af3b
000001c0: c58a 863e 44b1 29be 70cb e9b7 75fa b63e
000001d0: 8bef 943d 00a5 a93e 6500 813e 0c99 f63d
000001e0: 487b 25bd ba00 a4bd a8b9 24bd a814 703d
000001f0: 902a 173d 588b 543e 0467 453e dc31 033d
00000200: b850 0abd 94d6 07bd 8032 6ebd b81f ed3d
00000210: 17b5 8c3d 9a72 c0bd 0b4d 62be 73ba 24bd
00000220: a9e2 a73d 0feb 863d b616 1c3e 1778 8b3d
00000230: 3797 8e3e 8093 c03a 4cbd b63d 342d bd3d
00000240: 50d3 b03d c7cf 02be 12a7 093e 00fa 77bd
00000250: 2c53 57bd d054 a33c 2a1e 173e 3e4a 1c3e
00000260: c89a 9cbd 403c 893b c82b 3abe 93a4 643e
00000270: 45d8 493e 7b1f 3d3e 6e85 2abe 1180 a1bd
00000280: d8cd 353e 5251 1b3e dc43 7bbc 2045 303c
00000290: 6469 d23d d4ac 13bd cb67 e9bd a4c0 a73d
000002a0: b056 dc3d 96a3 0f3e 90b3 243d cb31 e2bd
000002b0: 58ee 69bd b0e6 093e 9c95 ae3d b4a8 54bd
000002c0: 4d24 40be 0c56 0e3d ba3f 633e 9ce7 8d3e
000002d0: 6951 4d3e c570 c43e ecb8 043d 5519 c53e
000002e0: 6ede bf3e 5890 033e ec6e 443e c08f 013b
000002f0: 27be 2cbe d8c9 973c b9b8 58be 08d4 063d
00000300: dec1 0fbe 045e f63d c46a e23d 14c8 41bd
00000310: d033 e9bd 9783 fcbd f19f 763e dbac b83e
00000320: 1ca3 1f3d e3e1 66be 3c49 9fbe 56dc 4b3e
00000330: 230f 6c3d d2ce df3d 4a1d 0dbd 38ec 2dbe
00000340: 1c9c 4d3e 3869 b5bd 3408 413e 73e1 31be
00000350: 30c1 1c3d 4c28 493e ced6 56be 86ef 38be
00000360: 415d 1cbe 881b fbbc f030 533d f635 48be
00000370: 4ba3 62be 0468 94bb 855e a33e 8a3a 8f3e
00000380: 4bd6 4dbe 1c19 6d3d 776f 3cbd f914 dd3c
00000390: 283a 473d 986b 91bd 6d15 38be 947b 213e
000003a0: 6840 af3c 6ca1 f83d cc89 0b3e 4ca5 473e
000003b0: 051b 31be ff48 c4bd a8a7 6c3d a843 29bd
000003c0: 8868 ef3d 202c 83bc dab2 88bd 449c 98be
000003d0: 1ef5 c23e afcc cb3e 22a7 983e e85f 6fbd
000003e0: 9c47 a0be 6869 87be 0b5a 7abe f475 8c3d
000003f0: 52f6 4bbe 921a 0f3e 50b4 403d 14b5 073d

fc1.bias f4 [100]
0.23990014 0.17455655 -0.012490225 -0.10236684 -0.017954236 -0.37795845 -0.2870877 0.06995396
-0.31325197 -0.04190343 0.020525886 0.06282714 0.08948806 -0.0643064 0.34045294 0.15912409
0.020798419 -0.10605482 0.20767516 -0.17140763 0.16498557 -0.2728678 -0.3441578 0.15523006
0.42559755 -0.1664858 -0.01936794 -0.32419005 0.22941613 -0.28003535 -0.014769443 0.34779975
-0.14242335 0.03632147 0.3201301 -0.3158368 -0.003042977 -0.03894065 -0.25789616 0.39258966
-0.33987033 -0.052470207 -0.10173394 0.1309187 0.34114808 0.068960726 -0.1947344 -0.048643194
0.20800555 -0.26494113 -0.035090555 0.25984767 -0.24025041 -0.039579317 0.09594033 0.16330318
0.06285689 -0.21841404 0.09546507 0.028568856 -0.06423995 0.1740472 -0.15926725 -0.101043046
-0.5333668 0.055255115 0.15392289 -0.08489468 -0.010052288 0.3283783 -0.17064533 -0.25289384
0.010435925 0.28925917 0.113090515 -0.1432511 0.1866489 0.37446186 0.031196326 -0.4794398
-0.17869917 0.098160155 -0.0431747 0.27269915 -0.16427247 -0.09780383 0.02369934 0.15836868
-0.02674235 0.37084585 -0.16948655 -0.125164 -0.14241326 0.37109306 -0.045920216 0.1355376
-0.23609148 0.15592915 0.4145616 0.24773024
00000000: 62a8 753e f4be 323e cda3 4cbc b5a5 d1bd
00000010: c314 93bc c583 c1be 29fd 92be 0644 8f3d
00000020: 9062 a0be eea2 2bbd e725 a83c 84ab 803d
00000030: 8445 b73d 13b3 83bd d94f ae3e 6df1 223e
00000040: 7261 aa3c 4533 d9bd cca8 543e 7b85 2fbe
00000050: faf1 283e 54b5 8bbe 7335 b0be a1f4 1e3e
00000060: ece7 d93e 417b 2abe 84a9 9ebc 3dfc a5be
00000070: 10ec 6a3e cb60 8fbe 89fb 71bc cf12 b23e
00000080: 6dd7 11be d2c5 143d 18e8 a33e 5cb5 a1be
00000090: af6c 47bb 3b80 1fbd f70a 84be 8301 c93e
000000a0: 7c03 aebe 00eb 56bd e259 d0bd 8d0f 063e
000000b0: f6aa ae3e 483b 8d3d 7468 47be 163e 47bd
000000c0: 68ff 543e 5da6 87be 1dbb 0fbd c10a 853e
000000d0: 3404 76be ec1d 22bd 5d7c c43d f338 273e
000000e0: 1dbb 803d eea7 5fbe 3183 c33d 3c09 ea3c
000000f0: 3c90 83bd 6e39 323e f416 23be a8ef cebd
00000100: ba8a 08bf 3053 623d f69d 1d3e 43dd adbd
00000110: 5ab2 24bc 3321 a83e a6bd 2ebe 4d7b 81be
00000120: 71fb 2a3c c719 943e 009c e73d 6bb0 12be
00000130: e420 3f3e 77b9 bf3e 708f ff3c 2279 f5be
00000140: eafc 36be 3108 c93d f4d7 30bd 399f 8b3e
00000150: 0b37 28be 604d c8bd 1e25 c23c 662b 223e
00000160: c612 dbbc 82df bd3e e28d 2dbe fe2a 00be
00000170: c8d4 11be e9ff bd3e d616 3cbd 5eca 0a3e
00000180: f7c1 71be e4ab 1f3e 6b41 d43e ffac 7d3e

fc2.weight f4 [100, 100]
0.24621403 -0.03516782 -0.24378704 -0.2829865 -0.25938165 -0.13289082 -0.3830002 0.22887996
-0.23248625 0.066183366 0.10518964 0.19785912 0.23419969 0.20161782 0.35082984 0.3525756
-0.18934117 0.10411892 -0.03314801 0.082537465 0.06391347 -0.16024512 -0.31837547 0.40063262
0.14496015 0.19037516 -0.54935724 -0.1239092 0.030522142 0.05518187 -0.28291917 0.3307934
-0.27124044 0.00017359584 0.22210117 -0.1966569 0.054559678 0.21246411 -0.23000039 0.30326977
0.073808685 -0.043985493 -0.36938202 -0.19869685 0.37105498 0.26496917 -0.35528412 -0.2832014
0.035373054 -0.34192562 0.038697533 0.29063037 -0.056927025 0.7217408 0.362957 -0.030334378
0.09117943 -0.33447784 0.2583378 -0.049544234 -0.03135802 -0.09408877 -0.23838 0.07476673
-0.43901902 0.118574716 -0.07001409 -0.3245874 0.10569238 0.11778845 -0.5334564 -0.08419086
0.41490048 -0.045059074 -0.2576296 0.3204418 0.46804398 0.031748716 -0.081558675 0.08789657
-0.5165069 0.2192863 -0.039967366 0.29117027 -0.15095055 -0.020730227 -0.36975855 0.23628037
-0.08770292 0.05168807 -0.3121861 -0.22386429 -0.09542129 0.4177344 0.08837393 0.29540777
-0.32360432 0.032888282 0.27874073 0.14845702 -0.0548718 0.0313532 0.5424148 0.49296078
0.43506855 -0.20836656 -0.099678144 -0.111705825 -0.22809988 0.46238193 -0.24258612 -0.7246961
0.025621863 -0.19884576 0.028987983 0.034124672 0.2766197 -0.2234804 0.27084026 -0.22030272
-0.18608345 -0.080756 0.016515257 -0.59392536 0.16172928 -0.16562603 0.83271706 -0.2224656
0.09989536 -0.12023022 0.58640033 0.18395336 0.5769344 -0.21392058 0.03618365 -0.11786126
0.72813916 -0.22677149 0.011464692 0.10042155 -0.11417375 -0.32020608 0.611406 0.3355573
0.06696133 -0.37312925 0.54424036 -0.23374273 -0.32622185 -0.122293256 0.15262184 0.023820654
0.27535945 -0.8881172 -0.52301204 0.29960483 0.19469298 -0.029836081 -0.24528295 0.09957861
-0.040175162 0.18644057 -0.18019491 -0.51981056 -0.18607873 -0.30319965 0.19633912 -0.2040045
0.34060517 0.11303336 0.6907621 -0.25365058 -0.4781144 -0.014906413 0.59319663 -0.60639536
0.06933028 0.2325965 1.6077594 -0.20622273 0.835375 0.1411961 -0.25332063 0.17185934
0.9351296 -0.18676674 0.49419817 -0.35107744 -0.19422023 0.04911769 -0.15968253 0.06905902
0.30979392 0.18135755 -0.22921485 -0.19463788 0.5530614 -0.42494574 0.07819285 0.043795653
0.40620536 0.076574735 -0.36528426 -0.120310895 -0.40404537 -0.25523594 -0.4003699 0.14848684
-0.20511337 0.24312705 0.12417463 0.7748259 0.17273095 0.12118168 0.2823975 0.38934687
-0.41356128 0.054800067 0.072649084 -0.089848384 0.25163475 -0.17655744 -0.2387226 0.21171795
0.25342277 0.295682 -0.66769093 -0.09588983 0.22338633 -0.115925066 -0.34477007 0.33510214
-0.10241123 0.05023681 0.2539688 -0.24465962 -0.2827921 0.18862814 -0.12540057 0.22792268
-0.093795665 -0.020671027 -0.20369408 -0.60043806 0.47426632 0.12338048 -0.5698117 -0.28922555
0.033100758 -0.26693967 0.15695854 0.1620294 -0.39228362 0.8648989 0.24959089 0.0668769
00000000: 881f 7c3e 220c 10bd 4fa3 79be 9be3 90be
00000010: accd 84be 8814 08be 9a18 c4be 825f 6a3e
00000020: e010 6ebe 258b 873d aa6d d73d 959b 4a3e
00000030: 0bd2 6f3e e774 4e3e f89f b33e ca84 b43e
00000040: a7e2 41be 4d3c d53d 35c6 07bd 6709 a93d
00000050: 11e5 823d 4c17 24be 1c02 a3be b81f cd3e
00000060: 6f70 143e b5f1 423e ada2 0cbf 1bc4 fdbd
00000070: 9209 fa3c 6206 623d c8da 90be c15d a93e
00000080: 07e0 8abe 4707 3639 7d6e 633e 6d60 49be
00000090: f879 5f3d 3190 593e 3985 6bbe 2d46 9b3e
000000a0: 0229 973d 222a 34bd a41f bdbe 3077 4bbe
000000b0: ebfa bd3e 0aaa 873e cde7 b5be c6ff 90be
000000c0: 56e3 103d e010 afbe 4e81 1e3d 81cd 943e
000000d0: 502c 69bd 01c4 383f 80d5 b93e cd7f f8bc
000000e0: 48bc ba3d ae40 abbe da44 843e e5ee 4abd
000000f0: 4471 00bd 9db1 c0bd e319 74be 4d1f 993d
00000100: 1ac7 e0be 4dd7 f23d 8c63 8fbd 5230 a6be
00000110: 3f75 d83d 123b f13d 9990 08bf 426c acbd
00000120: d66d d43e dd8f 38bd 07e8 83be f310 a43e
00000130: 76a3 ef3e f10a 023d 3c08 a7bd 1e03 b43d
00000140: cc39 04bf 968c 603e d2b4 23bd 4514 953e
00000150: c892 1abe 70d2 a9bc fe50 bdbe 7bf3 713e
00000160: 979d b3bd dfb6 533d dbd6 9fbe ae3c 65be
00000170: 3d6c c3bd 49e1 d53e 64fd b43d b03f 973e
00000180: 77af a5be ddb5 063d 1bb7 8e3e 1e05 183e
00000190: 41c1 60bd 376c 003d b2db 0a3f 5b65 fc3e
000001a0: 4ec1 de3e 0b5e 55be 0e24 ccbd 06c6 e4bd
000001b0: 0493 69be 53bd ec3e 7f68 78be af85 39bf
000001c0: f1e4 d13c 399e 4bbe 3578 ed3c 50c6 0b3d
000001d0: 19a1 8d3e 0cd8 64be 93ab 8a3e 0997 61be
000001e0: a98c 3ebe 6763 a5bd 014b 873c 7e0b 18bf
000001f0: 5c9c 253e df99 29be f22c 553f 06ce 63be
00000200: f095 cc3d 433b f6bd 551e 163f 455e 3c3e
00000210: f9b1 133f ff0d 5bbe 4f35 143d 3f61 f1bd
00000220: 5467 3a3f c936 68be 67d6 3b3c d0a9 cd3d
00000230: edd3 e9bd 0df2 a3be 1b85 1c3f 2bce ab3e
00000240: 0623 893d cc0a bfbe 5653 0b3f 415a 6fbe
00000250: 8d06 a7be e374 fabd e648 1c3e 8823 c33c
00000260: eafb 8c3e a65b 63bf 1ee4 05bf ce65 993e
00000270: 995d 473e cc6a f4bc 742b 7bbe dfef cb3d
00000280: b68e 24bd 47ea 3e3e 0485 38be 4e12 05bf
00000290: 6c8b 3ebe fc3c 9bbe 1f0d 493e 8ee6 50be
000002a0: cd63 ae3e 097e e73d c9d5 303f 7dde 81be
000002b0: 69cb f4be 073a 74bc bcdb 173f ba3c 1bbf
000002c0: 09fd 8d3d c72d 6e3e 0fcb cd3f 0d2c 53be
000002d0: 23db 553f b695 103e 3eb3 81be e5fb 2f3e
000002e0: a764 6f3f c83f 3fbe 8b07 fd3e 6cc0 b3be
000002f0: abe1 46be a22f 493d d183 23be d16e 8d3d
00000300: 4f9d 9e3e cbb5 393e 4cb7 6abe 274f 47be
00000310: 6f95 0d3f 7d92 d9be 9323 a03d 1263 333d
00000320: 26fa cf3e 37d3 9c3d 8a06 bbbe 8f65 f6bd
00000330: 09df cebe 49ae 82be 49fd ccbe ef0c 183e
00000340: 3d09 52be 4cf6 783e 454f fe3d fd5a 463f
00000350: 62e0 303e 1a2e f83d 6896 903e 7958 c73e
00000360: 4ebe d3be 0976 603d 0bc9 943d 6e02 b8bd
00000370: 45d6 803e 79cb 34be b273 74be 97cc 583e
00000380: a1c0 813e a263 973e cbed 2abf e361 c4bd
00000390: 63bf 643e 1f6a edbd b485 b0be 8292 ab3e
000003a0: fbbc d1bd 1dc5 4d3d 3308 823e 0d88 7abe
000003b0: 20ca 90be bc27 413e 0269 00be 9064 693e
000003c0: f117 c0bd 4956 a9bc 2e95 50be 4fb6 19bf
000003d0: 09d3 f23e e8ae fc3d 2edf 11bf 5f15 94be
000003e0: a994 073d 51ac 88be bdb9 203e 09eb 253e
000003f0: 66d9 c8be 046a 5d3f c194 7f3e c2f6 883d

fc2.bias f4 [100]
0.40811658 0.09945784 0.29538468 -0.42331126 0.46830922 0.28438914 -0.43946743 -0.28038728
-0.3424672 0.054150943 0.17181376 0.34270978 0.3443637 0.4581801 0.46146446 0.27044392
0.42092657 -0.3372132 -0.42589 -0.35211253 -0.4053248 -0.106143944 0.14401945 -0.39620858
0.27498218 0.09523428 0.3691169 -0.43895078 0.4760934 0.14345121 0.41979748 0.5003547
0.40964887 -0.124360375 -0.44366425 0.45143408 0.37947464 0.37174898 -0.39033464 0.19486105
0.21400633 -0.50923014 0.38786998 0.088555515 0.410951 -0.43585262 0.38538662 0.3432105
-0.26069596 -0.41635633 0.3514091 -0.18642122 -0.35452393 0.35345545 0.4424074 0.38259995
-0.44892427 0.1267848 -0.41016886 -0.3219296 0.36664808 0.13847943 0.43617108 0.11656728
0.38732335 -0.29574454 -0.12325759 -0.29839635 -0.07048503 -0.10936577 -0.30575246 -0.36059624
0.41800433 0.4515715 -0.49680004 0.19778596 -0.48733222 -0.45655122 0.34963724 0.48524898
-0.39903152 -0.079743944 -0.43771085 -0.2931706 -0.4433305 0.42026913 -0.33108577 -0.49777353
0.3402892 0.50350463 0.31027865 -0.09075338 0.39870688 0.013175547 -0.4000009 -0.4688139
0.3117806 -0.17580989 -0.4351118 -0.098408855
00000000: a8f4 d03e 8db0 cb3d a93c 973e 41bc d8be
00000010: 3ac6 ef3e 749b 913e e001 e1be ec8e 8fbe
00000020: dc57 afbe 61cd 5d3d f2ef 2f3e a877 af3e
00000030: 7050 b03e 9596 ea3e 1245 ec3e a077 8a3e
00000040: b083 d73e 35a7 acbe 410e dabe 1848 b4be
00000050: bb86 cfbe ff61 d9bd d679 133e dadb cabe
00000060: 77ca 8c3e 310a c33d e4fc bc3e 28be e0be
00000070: 84c2 f33e e0e4 123e b2ef d63e 3f17 003f
00000080: 7fbd d13e a7b0 febd f627 e3be 5e22 e73e
00000090: 804a c23e e255 be3e f1d9 c7be a889 473e
000000a0: 7a24 5b3e e85c 02bf e596 c63e 985c b53d
000000b0: 2b68 d23e 1328 dfbe 6551 c53e 49b9 af3e
000000c0: f179 85be a82c d5be e5eb b33e 34e5 3ebe
000000d0: 2984 b5be 1df8 b43e 3983 e23e 24e4 c33e
000000e0: 67d9 e5be e0d3 013e a701 d2be f5d3 a4be
000000f0: 4cb9 bb3e 8dcd 0d3e d151 df3e d3ba ee3d
00000100: 3f4f c63e d46b 97be 7a6e fcbd 68c7 98be
00000110: 755a 90bd 29fb dfbd 968b 9cbe 12a0 b8be
00000120: aa04 d63e 6134 e73e 935c febe 6788 4a3e
00000130: 9c83 f9be 15c1 e9be a703 b33e 8e72 f83e
00000140: dc4d ccbe cb50 a3bd a31b e0be 751a 96be
00000150: 37fc e2be 842d d73e 1384 a9be 2cdc febe
00000160: 633a ae3e aee5 003f d8dc 9e3e e8dc b9bd
00000170: 4f23 cc3e 40de 573c ebcc ccbe 6008 f0be
00000180: b5a1 9f3e 8207 34be f9c6 debe 958a c9bd

fc3.weight f4 [2, 100]
-1.7208413 2.4992795 -1.7995156 1.7944813 -1.860924 -1.7581682 1.7489139 1.7732579
1.8012483 2.0611656 2.0005343 -1.16852 -1.8037602 -1.8049684 -1.7464635 -0.45151177
-1.767757 1.7676626 1.7723174 1.7620486 1.8583136 -2.0864182 2.364729 1.7907853
-1.8845558 2.0091124 -1.8826683 1.7770141 -1.73311 2.3482556 -1.7747571 -1.7819169
-1.832452 -1.1442027 1.8224287 -1.8167582 -1.7838527 -1.7996659 1.9104482 2.0019867
2.2809305 1.7281729 -1.7968549 2.078213 -1.7831467 1.8138939 -1.8874222 -2.9078314
1.8161783 1.7879461 -1.7343221 -2.006684 1.8013244 -1.7382277 -1.8099203 -1.8632153
1.7776791 2.0162623 1.8237326 1.8243388 -1.8234243 0.29921788 -1.7264154 0.9322986
-2.2900503 1.7272757 -2.716165 1.7606344 -2.0554287 -3.1845355 1.8326312 1.8177633
-1.7679781 -1.8341078 1.7404376 2.092291 1.7968472 1.8249488 -1.8267777 -1.7205604
1.8250691 -2.0047646 1.7158527 1.8258142 1.7488964 -1.8252344 1.7981763 1.7978197
-1.7121073 -1.7355775 -1.8067623 -2.1097062 -1.8292803 -1.1104969 1.7825328 1.7744678
-1.754346 -2.1217852 1.9088252 -2.1598134 -2.3485794 3.7258902 -2.3117814 2.3720415
-2.1828485 -2.36129 2.3665254 2.4508681 2.4130533 3.3000689 3.2657328 -2.6087148
-2.121886 -2.3724022 -2.3342788 -2.9846935 -2.3307173 2.3610973 2.3374622 2.335859
2.3375123 -3.3068566 3.8016925 2.3963253 -2.0886972 3.276896 -2.1330383 2.3814516
-2.3472543 3.3933387 -2.1061752 -2.3313498 -2.1049776 3.6729631 2.2664492 -2.3819458
-2.3353536 -2.3257508 2.2004824 3.2629628 3.4964075 2.3349097 -2.3471313 3.293923
-2.3503385 2.145182 -2.1777103 1.0982548 2.3776371 2.3480299 -2.3879158 -3.2424178
2.353078 -2.317843 -2.1382852 -2.0912182 2.3279507 3.2791119 2.3064082 2.295724
-2.247356 -3.2800121 -2.341026 -3.5347033 -1.4870585 2.383608 -3.9202118 2.3496091
-3.2907262 1.5289202 2.1087248 2.144561 -2.3336537 -2.2865918 2.3469286 3.323669
2.1089187 2.1893792 -2.1006794 -2.3395975 2.28527 -3.260408 2.3250458 2.111094
2.386268 -2.1860242 2.3125484 2.1377048 -2.3428144 -2.3470175 -2.3251379 -3.2925816
-2.2972853 3.7147622 2.3401692 2.3315752 -2.3376741 -3.407246 2.3049228 -3.3545752
00000000: 8744 dcbf 32f4 1f40 8756 e6bf 90b1 e53f
00000010: c232 eebf a80b e1bf 69dc df3f 1dfa e23f
00000020: 4e8f e63f 23ea 0340 c108 0040 1092 95bf
00000030: 9de1 e6bf 3409 e7bf 1e8c dfbf 8d2c e7be
00000040: dd45 e2bf c542 e23f 4cdb e23f cf8a e13f
00000050: 38dd ed3f e087 05c0 b857 1740 7438 e53f
00000060: 2039 f1bf 4c95 0040 46fb f0bf 3375 e33f
00000070: 8cd6 ddbf d249 1640 3e2b e3bf da15 e4bf
00000080: ca8d eabf 3c75 92bf 5845 e93f 888b e8bf
00000090: 4955 e4bf 745b e6bf 9189 f43f 8d20 0040
000000a0: c4fa 1140 c534 dd3f 57ff e5bf 7101 0540
000000b0: 273e e4bf ad2d e83f 0d97 f1bf e919 3ac0
000000c0: 8878 e83f 6bdb e43f 44fe ddbf 836d 00c0
000000d0: cc91 e63f 3f7e debf 78ab e7bf d77d eebf
000000e0: fd8a e33f 710a 0140 1270 e93f ef83 e93f
000000f0: f865 e9bf 1633 993e 2efb dcbf 1fab 6e3f
00000100: 2f90 12c0 5f17 dd3f a6d5 2dc0 785c e13f
00000110: 258c 03c0 6ecf 4bc0 a993 ea3f 78ac e83f
00000120: 1b4d e2bf 0bc4 eabf a9c6 de3f 19e8 0540
00000130: 17ff e53f ec97 e93f dad3 e9bf 533b dcbf
00000140: dd9b e93f 104e 00c0 10a1 db3f 48b4 e93f
00000150: d6db df3f 48a1 e9bf a42a e63f f51e e63f
00000160: 5526 dbbf 6727 debf fd43 e7bf 6d05 07c0
00000170: db25 eabf c324 8ebf 092a e43f c321 e33f
00000180: 698e e0bf 54cb 07c0 6254 f43f 623a 0ac0
00000190: 204f 16c0 fc74 6e40 3af4 13c0 87cf 1740
000001a0: cab3 0bc0 601f 17c0 2775 1740 06db 1c40
000001b0: 776f 1a40 5434 5340 c401 5140 2ff5 26c0
000001c0: fbcc 07c0 70d5 17c0 d364 15c0 3805 3fc0
000001d0: 792a 15c0 381c 1740 fb98 1540 b77e 1540
000001e0: cd99 1540 8aa3 53c0 ee4e 7340 655d 1940
000001f0: 37ad 05c0 aab8 5140 b383 08c0 b469 1840
00000200: 6a39 16c0 762c 5940 93cb 06c0 d634 15c0
00000210: f4b7 06c0 d411 6b40 810d 1140 cd71 18c0
00000220: 6f76 15c0 1ad9 14c0 b4d4 0c40 62d4 5040
00000230: 24c5 5f40 296f 1540 6637 16c0 a2cf 5240
00000240: f26b 16c0 a94a 0940 9b5f 0bc0 9d93 8c3f
00000250: 352b 1840 1f46 1640 9dd3 18c0 c683 4fc0
00000260: d498 1640 8a57 14c0 aad9 08c0 85d6 05c0
00000270: 25fd 1440 f8dc 5140 319c 1340 24ed 1240
00000280: aed4 0fc0 b8eb 51c0 5fd3 15c0 9438 62c0
00000290: ef57 bebf 098d 1840 c0e4 7ac0 ff5f 1640
000002a0: 429b 52c0 a8b3 c33f 59f5 0640 7d40 0940
000002b0: 955a 15c0 8557 12c0 1434 1640 feb6 5440
000002c0: 86f8 0640 ca1e 0c40 8871 06c0 f7bb 15c0
000002d0: dd41 1240 86aa 50c0 8dcd 1440 2a1c 0740
000002e0: 9db8 1840 d2e7 0bc0 cb00 1440 28d0 0840
000002f0: acf0 15c0 8935 16c0 0fcf 14c0 a8b9 52c0
00000300: b906 13c0 aabe 6d40 55c5 1540 8738 1540
00000310: 749c 15c0 5210 5ac0 db83 1340 5cb1 56c0

fc3.bias f4 [2]
-1.6809564 -2.127012
00000000: 9429 d7bf f720 08c0

fc1.weight f4 [100, 22]
0.0895605 -0.0038456463 -0.003770176 -0.006548699 -0.005104303 -0.042437993 -0.035937704 -0.020779781
-0.032649353 -5.6224e-41 2.22785e-40 7.44413e-40 3.9315e-40 -1.12153e-39 8.31256e-40 -1.719934e-39
7.50887e-40 -4.78207e-40 -8.90504e-40 -2.09748e-39 -9.28238e-40 -1.2341287e-37 -2.3339213e-05 -1.790618e-05
-3.1568485e-05 4.053644e-05 2.674185e-05 1.8379658e-05 1.2140539e-05 4.321403e-06 8.500065e-06 1.42899e-40
-1.334908e-39 1.61093e-39 1.677054e-39 2.08023e-40 -9.59414e-40 1.252523e-39 -1.095328e-39 -1.493072e-39
-1.036043e-39 -1.524204e-39 -1.762323e-39 -1.132539e-39 6.837338e-06 1.0201645e-07 -1.561719e-06 4.220998e-07
-1.3179377e-06 3.1934871e-07 1.3356205e-06 1.0365117e-06 1.6484034e-06 1.770902e-39 -3.0016e-41 1.611314e-39
-9.58838e-40 -7.00426e-40 -1.04974e-40 -6.16136e-40 -1.04725e-40 1.310662e-39 -6.6183e-41 1.106954e-39
1.84287e-39 7.54833e-40 -0.08956057 0.0038456512 0.0037701726 0.0065486985 0.005104303 0.042438023
0.03593773 0.020779792 0.03264938 -5.07339e-40 8.96094e-40 1.3091e-39 -1.938154e-39 4.8995e-40
-1.129818e-39 7.27701e-40 1.360715e-39 4.3249e-40 1.947284e-39 7.83222e-40 -2.32576e-40 -6.84314e-40
0.0011757342 7.760522e-06 -0.00049248856 -0.0010778448 0.00018066296 5.144381e-05 0.000106845415 0.00012127671
0.00012835415 -4.80481e-40 1.423439e-39 -4.80047e-40 2.146229e-39 9.8004e-41 3.48988e-40 -2.21752e-39
2.040253e-39 -4.89657e-40 -8.48552e-40 2.040945e-39 1.378616e-39 -1.491141e-39 4.289467e-07 -5.1258144e-08
-8.404382e-08 3.564016e-07 1.1621273e-07 -2.3806203e-08 5.0436952e-09 5.2172794e-08 2.0053294e-08 -9.40964e-40
-8.92337e-40 -5.40534e-40 2.011088e-39 1.29675e-40 -1.695979e-39 8.76296e-40 1.7861e-39 -2.309619e-39
2.30404e-40 -2.055809e-39 1.797566e-39 -1.889867e-39 7.318908e-09 -5.0398303e-09 -4.2089106e-09 -1.3297807e-08
-3.4762673e-09 2.285293e-09 2.0068311e-09 -8.763062e-10 1.562992e-09 -1.828163e-39 8.6565e-40 4.64023e-40
1.531916e-39 -6.36e-41 2.77907e-40 -3.50358e-40 -3.88657e-40 9.55925e-40 -1.023539e-39 7.73898e-40
-7.86822e-40 3.4270039e-37 -0.00014755466 -4.166326e-05 2.3053975e-05 0.00013684735 1.8411038e-05 1.47516275e-05
6.941188e-06 -2.7172668e-05 9.198691e-07 1.91636e-39 1.493833e-39 1.581033e-39 -1.357263e-39 1.704175e-39
-8.14622e-40 5.56125e-40 -6.7365e-41 5.66071e-40 1.682417e-39 1.04044e-40 -7.19662e-40 1.053128e-39
-3.4863567e-07 8.014895e-08 -9.742852e-09 -2.0035777e-07 4.7645095e-08 4.752407e-08 1.0478084e-08 -6.4918716e-08
-1.0578897e-08 1.79644e-40 -1.047322e-39 -1.309767e-39 -1.34488e-39 -1.813747e-39 1.957784e-39 -1.070274e-39
1.384062e-39 -1.44435e-39 -1.91726e-39 -1.89809e-39 -1.019588e-39 -1.222917e-39 -0.0895606 0.003845653
0.0037701733 0.0065486957 0.005104302 0.042438034 0.035937734 0.020779802 0.032649387 -8.4353e-41
-1.991691e-39 -4.75206e-40 -1.293099e-39 -1.991808e-39 6.38144e-40 4.61911e-40 1.375349e-39 -6.7984e-40
-1.085e-40 9.14067e-40 1.061353e-39 -9.97753e-40 0.08956063 -0.0038456558 -0.0037701759 -0.0065486985
-0.005104303 -0.042438053 -0.035937753 -0.020779807 -0.0326494 6.14801e-40 8.53815e-40 -4.77788e-40
-1.99322e-40 5.22588e-40 2.045188e-39 -4.73273e-40 9.76778e-40 1.585695e-39 -2.176916e-39 1.980796e-39
-3.4293e-41 3.25942e-40 0.08956059 -0.0038456544 -0.0037701747 -0.006548698 -0.0051043006 -0.04243804
-0.03593774 -0.0207798 -0.032649387 -2.13042e-40 -1.187481e-39 1.21644e-40 9.77191e-40 6.2605e-40
00000000: 7f6b b73d 3d07 7cbb 0f15 77bb 7896 d6bb
00000010: ff41 a7bb 76d3 2dbd 6a33 13bd 5c3a aabc
00000020: 54bb 05bd bb9c 0080 096d 0200 1f1b 0800
00000030: f147 0400 5f36 0c80 340d 0900 7aba 1280
00000040: 2b2d 0800 0c35 0580 5db2 0980 ecd6 1680
00000050: 8d1b 0a80 1cfb 2782 94c8 c3b7 3b35 96b7
00000060: 6768 04b8 ac05 2a38 b053 e037 042e 9a37
00000070: 38af 4b37 9200 9136 809b 0e37 588e 0100
00000080: 2e89 0e80 9e8a 1100 f242 1200 e243 0200
00000090: 7572 0a80 86a3 0d00 54ed 0b80 1442 1080
000000a0: 1148 0b80 dc98 1080 a430 1380 0f55 0c80
000000b0: 496c e536 2314 db33 429c d1b5 f49c e234
000000c0: ffe3 b0b5 f472 ab34 9243 b335 451e 8b35
000000d0: b63e dd35 8e48 1300 ac53 0080 b08b 1100
000000e0: da70 0a80 81a0 0780 a024 0180 89b5 0680
000000f0: ee23 0180 9845 0e00 7eb8 0080 bd0d 0c00
00000100: 2c11 1400 2b38 0800 886b b7bd 5207 7c3b
00000110: 0015 773b 7796 d63b ff41 a73b 7ed3 2d3d
00000120: 7133 133d 623a aa3c 5bbb 053d 4186 0580
00000130: f2c1 0900 3d41 0e00 c91a 1580 c855 0500
00000140: 794d 0c80 89ec 0700 1fd1 0e00 9bb5 0400
00000150: 3c34 1500 4e87 0800 5488 0280 9773 0780
00000160: 181b 9a3a 3033 0237 591a 01ba 7846 8dba
00000170: 5870 3d39 5fc5 5738 3212 e038 f055 fe38
00000180: ce96 0639 633b 0580 f87f 0f00 2d3a 0580
00000190: d05e 1700 3211 0100 d6cc 0300 8b25 1880
000001a0: 6537 1600 f754 0580 6b3d 0980 5339 1600
000001b0: 0503 0f00 b23c 1080 fc49 e634 ed26 5cb3
000001c0: 947b b4b3 7757 bf34 a090 f933 657e ccb2
000001d0: d04c ad31 9814 6033 a941 ac32 063f 0a80
000001e0: 79b7 0980 cae2 0580 18e6 1500 7b69 0100
000001f0: b377 1280 c28a 0900 ec72 1300 4726 1980
00000200: 4682 0200 c262 1680 e292 1300 2e94 1480
00000210: cc79 fb31 d12a adb1 f89d 90b1 6074 64b2
00000220: 24e3 6eb1 4d0b 1d31 8ce8 0931 91e0 70b0
00000230: e4d0 d630 2de8 1380 146d 0900 820d 0500
00000240: 5cae 1000 4ab1 0080 b106 0300 a8d0 0380
00000250: 6b3b 0480 bb68 0a00 3625 0b80 506d 0800
00000260: 5791 0880 d43a e902 e7b8 1ab9 96bf 2eb8
00000270: 0964 c137 ae7e 0f39 6771 9a37 c27d 7737
00000280: 5ae8 e836 dcf0 e3b7 ecec 7635 08de 1400
00000290: 3344 1000 4737 1100 7fc7 0e80 8c8e 1200
000002a0: d6de 0880 400e 0600 c9bb 0080 fa29 0600
000002b0: e551 1200 0822 0100 20d6 0780 b177 0b00
000002c0: 1f2c bbb4 5a1e ac33 8461 27b2 ed21 57b4
000002d0: 56a2 4c33 441d 4c33 1a03 3432 7169 8bb3
000002e0: 7bbe 35b2 c6f4 0100 8267 0b80 1943 0e80
000002f0: faa4 0e80 fdbf 1380 8151 1500 7da7 0b80
00000300: 3412 0f00 43ba 0f80 8ae0 1480 1aab 1480
00000310: 321a 0b80 ff50 0d80 8c6b b7bd 5a07 7c3b
00000320: 0315 773b 7196 d63b fd41 a73b 81d3 2d3d
00000330: 7233 133d 673a aa3c 5dbb 053d 24eb 0080
00000340: 06b0 1580 ae2c 0580 a214 0e80 5ab0 1580
00000350: e3f2 0600 9f07 0500 eaf9 0e00 1e67 0780
00000360: 742e 0180 0cf4 0900 9f8e 0b00 54dd 0a80
00000370: 906b b73d 6607 7cbb 0e15 77bb 7796 d6bb
00000380: ff41 a7bb 86d3 2dbd 7733 13bd 6a3a aabc
00000390: 61bb 05bd d1b1 0600 174c 0900 e133 0580
000003a0: a12b 0280 c3b0 0500 2745 1600 4b27 0580
000003b0: dca2 0a00 4644 1100 5bb4 1780 a791 1500
000003c0: 985f 0080 988c 0300 8b6b b73d 6007 7cbb
000003d0: 0915 77bb 7696 d6bb fa41 a7bb 83d3 2dbd
000003e0: 7433 13bd 663a aabc 5dbb 05bd e051 0280
000003f0: 37ee 0c80 1853 0100 03a4 0a00 2cd1 0600

fc1.bias f4 [100]
0.11141517 -4.4282027e-05 6.077279e-07 -0.11141527 0.00048781678 1.4173e-07 3.6830639e-09 -8.234603e-06
-2.507074e-07 -0.11141529 0.111415364 0.111415304 0.11141516 0.11141532 -0.111415364 0.11141535
-0.11141536 -0.111415364 0.11141489 -0.11141538 -1.7719128e-13 -7.7562265e-07 -0.11141508 -8.239789e-21
8.01308e-12 5.598561e-06 -0.111415274 -0.111415334 -0.11141492 0.11141537 5.0588726e-05 -2.7247993e-22
1.8894428e-10 0.111415304 -0.111415245 0.11141508 2.7148924e-24 -2.0026166e-08 3.395788e-10 -2.9630346e-08
-1.7213545e-06 1.3398295e-13 -2.2296044e-06 4.036407e-16 -7.64172e-21 -0.11141507 0.11141532 -0.1114153
-0.00022409612 -0.111415364 -0.1114153 -0.111415304 0.11141534 -3.9402935e-06 -0.11141509 -0.11141533
-3.8885704e-05 0.11141526 0.111415334 -4.5975025e-07 0.11141535 -0.00019762722 0.1114153 -5.683017e-19
0.11141534 -2.7914677e-09 0.111415245 -0.11141534 0.1114153 0.11141522 4.5674926e-07 0.111415334
0.11141528 -0.11141536 -0.11141528 0.111415304 0.111415334 -0.11141535 6.6951384e-07 0.11141528
9.294032e-05 -8.0977676e-11 1.5927772e-23 0.11141529 -0.11141526 0.111415334 1.4462819e-09 0.11141522
0.11141536 1.10027006e-23 -0.111415155 1.7471355e-09 -2.9398193e-06 0.111415364 -0.11141532 0.1114153
3.7324146e-08 -2.5831741e-24 -0.11141501 -0.11141534
00000000: a32d e43d 77bb 39b8 be22 2335 b02d e4bd
00000010: a9c1 ff39 722e 1834 2519 7d31 5a27 0ab7
00000020: f698 86b4 b32d e4bd bd2d e43d b52d e43d
00000030: a22d e43d b72d e43d bd2d e4bd bb2d e43d
00000040: bc2d e4bd bd2d e4bd 7d2d e43d bf2d e4bd
00000050: e97f 47aa 6234 50b5 972d e4bd 2da5 1b9e
00000060: b4f7 0c2d 46db bb36 b12d e4bd b92d e4bd
00000070: 812d e4bd be2d e43d 3b2f 5438 3ab4 a49b
00000080: 16bf 4f2f b52d e43d ad2d e4bd 972d e43d
00000090: fc0d 5218 0106 acb2 78af ba2f d285 feb2
000000a0: 4a09 e7b5 f5d9 162a 50a0 15b6 dbae e825
000000b0: 1759 109e 962d e4bd b72d e43d b42d e4bd
000000c0: 58fb 6ab9 bd2d e4bd b42d e4bd b52d e4bd
000000d0: ba2d e43d dd36 84b6 982d e4bd b82d e4bd
000000e0: 3519 23b8 af2d e43d b92d e43d 98d3 f6b4
000000f0: bb2d e43d 273a 4fb9 b42d e43d aabb 27a1
00000100: ba2d e43d 05d4 3fb1 ad2d e43d ba2d e4bd
00000110: b42d e43d aa2d e43d 2437 f534 b92d e43d
00000120: b22d e43d bc2d e4bd b22d e4bd b52d e43d
00000130: b92d e43d bb2d e4bd a4b8 3335 b22d e43d
00000140: f4e8 c238 6112 b2ae 410b 9a19 b32d e43d
00000150: af2d e4bd b92d e43d 85c6 c630 aa2d e43d
00000160: bc2d e43d bcd2 5419 a12d e4bd de1f f030
00000170: b649 45b6 bd2d e43d b72d e4bd b42d e43d
00000180: 554e 2033 09dd 4798 8e2d e4bd ba2d e4bd

fc2.weight f4 [100, 100]
-0.016817749 1.1011212e-05 -1.3864102e-06 0.016817756 -0.00010387167 4.419819e-08 -6.063501e-10 3.2154512e-05
5.5291533e-08 0.016817762 -0.016817773 -0.016817765 -0.016817745 -0.016817769 0.016817773 -0.01681777
0.016817773 0.016817773 -0.01681771 0.016817775 -1.0090729e-13 8.755776e-07 0.016817732 -3.91134e-21
-1.873302e-12 -4.2184383e-05 0.016817762 0.016817769 0.016817711 -0.016817773 -0.00010393 1.394305e-22
-4.044668e-11 -0.016817767 0.016817754 -0.016817734 1.2494527e-24 -1.5923529e-09 -3.1171021e-09 -1.194808e-08
1.269776e-07 3.483011e-14 -3.2522746e-07 -4.533963e-16 3.2828468e-22 0.01681773 -0.016817767 0.016817762
-2.6458707e-05 0.016817773 0.016817763 0.016817763 -0.01681777 2.0849775e-06 0.01681773 0.016817769
1.0819383e-06 -0.016817758 -0.01681777 5.5047394e-07 -0.016817773 1.4806039e-05 -0.016817763 -1.3562047e-19
-0.01681777 -8.801888e-10 -0.016817754 0.01681777 -0.01681776 -0.016817756 3.620359e-07 -0.016817769
-0.01681776 0.016817775 0.01681776 -0.016817765 -0.016817769 0.01681777 -1.6094921e-06 -0.016817758
2.3538214e-05 -1.4708797e-11 -2.5102854e-24 -0.016817762 0.016817756 -0.01681777 -3.1603561e-10 -0.016817752
-0.01681777 2.8475415e-24 0.016817743 -3.864722e-10 -1.0374332e-06 -0.016817773 0.016817767 -0.016817762
1.7015534e-08 1.7448701e-25 0.016817724 0.016817769 -0.016817607 1.10114015e-05 -1.3864087e-06 0.016817624
-0.000103867744 4.4199776e-08 -6.0633865e-10 3.2154796e-05 5.5290588e-08 0.016817626 -0.016817631 -0.016817627
-0.016817607 -0.016817627 0.016817633 -0.016817631 0.016817633 0.016817633 -0.016817568 0.016817637
-1.0090865e-13 8.755947e-07 0.016817594 -3.9114245e-21 -1.8732529e-12 -4.218485e-05 0.016817624 0.016817627
0.016817572 -0.016817635 -0.00010393081 1.3943416e-22 -4.0446577e-11 -0.016817627 0.01681762 -0.016817596
1.2494833e-24 -1.5925059e-09 -3.1171408e-09 -1.1948196e-08 1.2696188e-07 3.4830154e-14 -3.2524014e-07 -4.534063e-16
3.279955e-22 0.016817596 -0.016817627 0.016817626 -2.6457717e-05 0.016817633 0.016817627 0.016817626
-0.016817631 2.084977e-06 0.016817596 0.016817627 1.0819804e-06 -0.016817622 -0.016817631 5.504816e-07
-0.016817631 1.48034105e-05 -0.016817627 -1.3562577e-19 -0.01681763 -8.801911e-10 -0.016817616 0.016817627
-0.016817627 -0.016817614 3.620438e-07 -0.016817627 -0.016817626 0.016817635 0.016817624 -0.016817627
-0.01681763 0.01681763 -1.6095172e-06 -0.016817624 2.3538727e-05 -1.4709517e-11 -2.5100527e-24 -0.016817627
0.016817624 -0.016817627 -3.160343e-10 -0.016817618 -0.016817631 2.8476857e-24 0.016817603 -3.8648884e-10
-1.0374225e-06 -0.016817633 0.016817627 -0.016817626 1.7015822e-08 1.744747e-25 0.016817588 0.016817631
-0.016817674 1.1011338e-05 -1.3864071e-06 0.016817687 -0.00010386959 4.419917e-08 -6.0634303e-10 3.215467e-05
5.5291068e-08 0.016817689 -0.016817698 -0.016817689 -0.016817674 -0.016817695 0.0168177 -0.016817695
0.016817696 0.016817698 -0.016817635 0.016817702 -1.00907875e-13 8.7558595e-07 0.01681766 -3.9114003e-21
-1.8732771e-12 -4.2184627e-05 0.016817685 0.016817695 0.016817639 -0.0168177 -0.00010393041 1.3943244e-22
-4.044659e-11 -0.016817693 0.016817683 -0.016817661 1.2494667e-24 -1.5924367e-09 -3.1171163e-09 -1.1948137e-08
1.269689e-07 3.483017e-14 -3.2523457e-07 -4.534011e-16 3.2812332e-22 0.01681766 -0.016817695 0.016817689
-2.645811e-05 0.016817696 0.01681769 0.01681769 -0.016817695 2.0849777e-06 0.01681766 0.016817693
00000000: 60c5 89bc ccbc 3837 b114 bab5 64c5 893c
00000010: aed5 d9b8 6dd4 3d33 18ac 26b0 a5dd 0638
00000020: af79 6d33 67c5 893c 6dc5 89bc 69c5 89bc
00000030: 5ec5 89bc 6bc5 89bc 6dc5 893c 6cc5 89bc
00000040: 6dc5 893c 6dc5 893c 4bc5 89bc 6ec5 893c
00000050: 1839 e3a9 3c09 6b35 57c5 893c 29c4 939d
00000060: 69d2 03ac 23ef 30b8 67c5 893c 6bc5 893c
00000070: 4cc5 893c 6dc5 89bc fef4 d9b8 a68f 281b
00000080: eae2 31ae 6ac5 89bc 63c5 893c 58c5 89bc
00000090: ec57 c117 f0d9 dab0 a434 56b1 3644 4db2
000000a0: 5657 0834 62dc 1c29 ec9a aeb4 beae 02a6
000000b0: 986f c61b 56c5 893c 6ac5 89bc 67c5 893c
000000c0: a4f3 ddb7 6dc5 893c 68c5 893c 68c5 893c
000000d0: 6cc5 89bc a4eb 0b36 56c5 893c 6bc5 893c
000000e0: 1e37 9135 65c5 89bc 6cc5 89bc 48c4 1335
000000f0: 6dc5 89bc 7467 7837 68c5 89bc c61c 20a0
00000100: 6cc5 89bc c8f1 71b0 63c5 89bc 6cc5 893c
00000110: 66c5 89bc 64c5 89bc d65d c234 6bc5 89bc
00000120: 66c5 89bc 6ec5 893c 66c5 893c 69c5 89bc
00000130: 6bc5 89bc 6cc5 893c ba05 d8b5 65c5 89bc
00000140: ee73 c537 4461 81ad 5339 4298 67c5 89bc
00000150: 64c5 893c 6cc5 89bc 0fbe adaf 62c5 89bc
00000160: 6cc5 89bc 5f51 5c18 5dc5 893c 2077 d4af
00000170: ef3d 8bb5 6dc5 89bc 6ac5 893c 67c5 89bc
00000180: 8e29 9232 2401 5816 53c5 893c 6bc5 893c
00000190: 14c5 89bc 9cbd 3837 a414 bab5 1dc5 893c
000001a0: 92d3 d9b8 2bd6 3d33 4aab 26b0 f3dd 0638
000001b0: a578 6d33 1ec5 893c 21c5 89bc 1fc5 89bc
000001c0: 14c5 89bc 1fc5 89bc 22c5 893c 21c5 89bc
000001d0: 22c5 893c 22c5 893c ffc4 89bc 24c5 893c
000001e0: e039 e3a9 690a 6b35 0dc5 893c fac4 939d
000001f0: 86d1 03ac a3ef 30b8 1dc5 893c 1fc5 893c
00000200: 01c5 893c 23c5 89bc 6ef5 d9b8 c890 281b
00000210: cce2 31ae 1fc5 89bc 1bc5 893c 0ec5 89bc
00000220: 2259 c117 52df dab0 5235 56b1 b944 4db2
00000230: 0453 0834 6fdc 1c29 aa9c aeb4 7baf 02a6
00000240: d842 c61b 0ec5 893c 1fc5 89bc 1ec5 893c
00000250: 84f1 ddb7 22c5 893c 1fc5 893c 1ec5 893c
00000260: 21c5 89bc a2eb 0b36 0ec5 893c 1fc5 893c
00000270: 9038 9135 1cc5 89bc 21c5 89bc cfc4 1335
00000280: 21c5 89bc 2a5c 7837 1fc5 89bc 601e 20a0
00000290: 20c5 89bc f1f1 71b0 19c5 89bc 1fc5 893c
000002a0: 1fc5 89bc 18c5 89bc ec5e c234 1fc5 89bc
000002b0: 1ec5 89bc 23c5 893c 1dc5 893c 1fc5 89bc
000002c0: 20c5 89bc 20c5 893c 9706 d8b5 1dc5 89bc
000002d0: 0875 c537 e362 81ad b734 4298 1fc5 89bc
000002e0: 1dc5 893c 1fc5 89bc e0bd adaf 1ac5 89bc
000002f0: 21c5 89bc 3a54 5c18 12c5 893c 7879 d4af
00000300: 913d 8bb5 22c5 89bc 1fc5 893c 1ec5 89bc
00000310: 302a 9232 3dfd 5716 0ac5 893c 21c5 893c
00000320: 38c5 89bc 56bd 3837 9614 bab5 3fc5 893c
00000330: 90d4 d9b8 80d5 3d33 99ab 26b0 d0dd 0638
00000340: 2c79 6d33 40c5 893c 45c5 89bc 40c5 89bc
00000350: 38c5 89bc 43c5 89bc 46c5 893c 43c5 89bc
00000360: 44c5 893c 45c5 893c 23c5 89bc 47c5 893c
00000370: 6e39 e3a9 cf09 6b35 30c5 893c bec4 939d
00000380: f6d1 03ac 66ef 30b8 3ec5 893c 43c5 893c
00000390: 25c5 893c 46c5 89bc 37f5 d9b8 4090 281b
000003a0: d0e2 31ae 42c5 89bc 3dc5 893c 31c5 89bc
000003b0: 7a58 c117 e3dc dab0 e434 56b1 7644 4db2
000003c0: f254 0834 74dc 1c29 e69b aeb4 19af 02a6
000003d0: a056 c61b 30c5 893c 43c5 89bc 40c5 893c
000003e0: 5cf2 ddb7 44c5 893c 41c5 893c 41c5 893c
000003f0: 43c5 89bc a5eb 0b36 30c5 893c 42c5 893c

fc2.bias f4 [100]
-0.07573645 -0.075735755 -0.07573608 0.07573588 0.07573615 -0.07573624 0.07573582 0.075735986
-0.0757362 -0.075736046 -0.07573588 0.075736 0.07573588 0.075735904 -0.07573591 -0.07573605
-0.075736195 0.07573614 0.07573604 0.07573589 -0.0757358 -7.434317e-15 -0.07573538 -0.075736076
0.07573508 -5.2057915e-31 0.075735986 -0.07573615 0.07573603 -0.07573586 -0.07573638 0.0757358
0.07573579 -0.07573604 -0.07573604 -0.075736 -0.07573615 0.07573594 0.075736046 0.07573563
0.0757359 0.07573619 -0.07573593 -0.07573563 -0.07573633 -0.07573551 0.07573577 0.07573577
0.07573607 0.075736046 0.075735904 -0.07573615 0.07573599 0.075736135 0.07573621 -0.07573604
0.075735874 -0.07573563 0.075735696 0.075736 -0.07573558 -0.0757362 0.07573592 -0.07573601
0.07573611 -0.07573595 -0.07573582 0.07573621 -0.075735874 -0.0757364 0.0757361 2.3023018e-05
0.075735785 -0.075735725 -0.075735785 -0.0757362 0.07573579 -0.075735785 0.07573579 0.07573608
2.7923274e-05 0.07573595 0.075736225 0.07573594 0.07573573 -2.2577362e-17 -0.07573604 4.747018e-25
0.07573585 -0.0757361 -0.07573622 0.075735085 0.075735755 0.07573591 0.07573616 0.07573595
-0.075736284 0.07573623 -0.07573574 0.07573492
00000000: b61b 9bbd 591b 9bbd 851b 9bbd 6a1b 9b3d
00000010: 8e1b 9b3d 9a1b 9bbd 621b 9b3d 781b 9b3d
00000020: 951b 9bbd 801b 9bbd 6a1b 9bbd 7a1b 9b3d
00000030: 6a1b 9b3d 6d1b 9b3d 6e1b 9bbd 811b 9bbd
00000040: 941b 9bbd 8d1b 9b3d 7f1b 9b3d 6b1b 9b3d
00000050: 5f1b 9bbd bcec 05a8 271b 9bbd 841b 9bbd
00000060: fe1a 9b3d 06f0 288d 781b 9b3d 8e1b 9bbd
00000070: 7e1b 9b3d 671b 9bbd ad1b 9bbd 5f1b 9b3d
00000080: 5e1b 9b3d 7f1b 9bbd 7f1b 9bbd 7a1b 9bbd
00000090: 8e1b 9bbd 721b 9b3d 801b 9b3d 481b 9b3d
000000a0: 6c1b 9b3d 931b 9b3d 701b 9bbd 481b 9bbd
000000b0: a61b 9bbd 381b 9bbd 5b1b 9b3d 5b1b 9b3d
000000c0: 831b 9b3d 801b 9b3d 6d1b 9b3d 8e1b 9bbd
000000d0: 791b 9b3d 8c1b 9b3d 961b 9b3d 7f1b 9bbd
000000e0: 691b 9b3d 481b 9bbd 511b 9b3d 7a1b 9b3d
000000f0: 411b 9bbd 951b 9bbd 6f1b 9b3d 7b1b 9bbd
00000100: 891b 9b3d 731b 9bbd 621b 9bbd 961b 9b3d
00000110: 691b 9bbd b01b 9bbd 871b 9b3d 8e21 c137
00000120: 5d1b 9b3d 551b 9bbd 5d1b 9bbd 951b 9bbd
00000130: 5e1b 9b3d 5d1b 9bbd 5e1b 9b3d 851b 9b3d
00000140: c63c ea37 731b 9b3d 981b 9b3d 721b 9b3d
00000150: 561b 9b3d 4a3d d0a3 7f1b 9bbd c0e9 1217
00000160: 661b 9b3d 871b 9bbd 971b 9bbd ff1a 9b3d
00000170: 591b 9b3d 6e1b 9b3d 8f1b 9b3d 731b 9b3d
00000180: a01b 9bbd 991b 9b3d 571b 9bbd e91a 9b3d

fc3.weight f4 [1, 100]
-0.15325886 -0.15325736 -0.15325806 0.15325762 0.15325822 -0.15325841 0.1532575 0.15325789
-0.15325835 -0.153258 -0.15325762 0.1532579 0.15325762 0.15325768 -0.15325768 -0.153258
-0.15325832 0.15325819 0.15325798 0.15325765 -0.15325744 7.197565e-16 -0.15325657 -0.15325803
0.1532559 -8.550344e-32 0.15325789 -0.1532582 0.15325795 -0.1532576 -0.15325871 0.15325744
0.15325741 -0.15325795 -0.15325798 -0.1532579 -0.15325819 0.15325777 0.15325798 0.15325712
0.15325767 0.1532583 -0.15325773 -0.15325712 -0.15325862 -0.15325685 0.15325738 0.15325738
0.15325803 0.153258 0.15325768 -0.1532582 0.15325789 0.15325817 0.15325835 -0.15325797
0.15325762 -0.15325712 0.15325725 0.1532579 -0.15325698 -0.15325835 0.15325773 -0.15325794
0.1532581 -0.15325779 -0.1532575 0.15325834 -0.15325762 -0.15325876 0.15325809 1.5293503e-05
0.1532574 -0.1532573 -0.15325738 -0.15325835 0.1532574 -0.1532574 0.15325741 0.15325806
1.0718883e-05 0.15325779 0.15325837 0.15325777 0.15325731 2.4674447e-17 -0.15325798 2.8601355e-25
0.15325756 -0.1532581 -0.15325837 0.15325591 0.15325733 0.15325771 0.15325823 0.15325777
-0.15325853 0.15325838 -0.15325733 0.15325555
00000000: e4ef 1cbe 7fef 1cbe aeef 1cbe 91ef 1c3e
00000010: b9ef 1c3e c6ef 1cbe 89ef 1c3e a3ef 1c3e
00000020: c2ef 1cbe aaef 1cbe 91ef 1cbe a4ef 1c3e
00000030: 91ef 1c3e 95ef 1c3e 95ef 1cbe aaef 1cbe
00000040: c0ef 1cbe b7ef 1c3e a9ef 1c3e 93ef 1c3e
00000050: 85ef 1cbe a874 4f26 4aef 1cbe acef 1cbe
00000060: 1def 1c3e c8fa dd8b a3ef 1c3e b8ef 1cbe
00000070: a7ef 1c3e 8fef 1cbe daef 1cbe 85ef 1c3e
00000080: 83ef 1c3e a7ef 1cbe a9ef 1cbe a4ef 1cbe
00000090: b7ef 1cbe 9bef 1c3e a9ef 1c3e 6fef 1c3e
000000a0: 94ef 1c3e beef 1c3e 98ef 1cbe 6fef 1cbe
000000b0: d4ef 1cbe 5def 1cbe 81ef 1c3e 81ef 1c3e
000000c0: acef 1c3e aaef 1c3e 95ef 1c3e b8ef 1cbe
000000d0: a3ef 1c3e b6ef 1c3e c2ef 1c3e a8ef 1cbe
000000e0: 91ef 1c3e 6fef 1cbe 78ef 1c3e a4ef 1c3e
000000f0: 66ef 1cbe c2ef 1cbe 98ef 1c3e a6ef 1cbe
00000100: b1ef 1c3e 9cef 1cbe 89ef 1cbe c1ef 1c3e
00000110: 91ef 1cbe ddef 1cbe b0ef 1c3e 8c4a 8037
00000120: 82ef 1c3e 7bef 1cbe 81ef 1cbe c2ef 1cbe
00000130: 82ef 1c3e 82ef 1cbe 83ef 1c3e aeef 1c3e
00000140: 40d5 3337 9cef 1c3e c3ef 1c3e 9bef 1c3e
00000150: 7cef 1c3e e494 e323 a9ef 1cbe a808 b116
00000160: 8def 1c3e b1ef 1cbe c3ef 1cbe 1eef 1c3e
00000170: 7def 1c3e 97ef 1c3e baef 1c3e 9bef 1c3e
00000180: ceef 1cbe c4ef 1c3e 7def 1cbe 06ef 1c3e

fc1.weight f4 [100, 24]
0.016101785 0.2417305 -0.030197555 -0.10903977 0.07923221 0.01545108 0.21870574 -0.056824442
-0.034719486 0.20241627 -0.14398131 -0.0024333447 -0.14169621 -0.00915131 -0.14087927 0.06269115
-0.13647278 -0.1583248 -0.1385667 0.10256636 -0.13812408 0.119215585 0.04173615 0.21216384
0.0733463 0.06724135 0.06653501 -0.16622728 -0.14205575 -0.18227458 -0.25398484 -0.25448516
-0.12339269 0.13403228 0.13753918 0.017171368 -0.074147254 -0.12939623 0.06618303 0.0015245974
0.1549465 -0.018191263 -0.052954108 -0.15728387 -0.11138475 0.025073286 0.1797399 -0.09113556
0.17687741 -0.017422646 -0.1382654 0.05094226 0.19799605 -0.015751164 -0.054222934 0.013949024
0.12964259 -0.20040648 0.032572165 -0.030533522 0.014382333 -0.04103847 -0.07231605 -0.04327856
-0.056316003 -0.13460654 -0.17300546 -0.20299849 -0.08378723 -0.15177491 -0.15100648 0.08185686
0.08879429 -0.1794524 0.038705368 -0.15763412 -0.015760949 0.0980988 -0.19178933 -0.14652948
-0.1037848 -0.1723868 0.16095951 0.18680397 -0.19828513 0.10636082 0.17428097 -0.04985395
-0.023952872 0.068677515 0.094787866 0.14626116 0.07196146 -0.029955663 -0.12977435 -0.06268453
-0.0657292 -0.0003583777 -0.011870932 0.02095877 -0.15416174 -0.12773219 -0.059094265 -0.20540005
-0.113200895 -0.16513778 -0.19292879 -0.029473335 0.17257363 -0.013961151 -0.0014872104 -0.008670226
-0.006540939 0.15454754 -0.06687158 -0.10976623 0.18435624 -0.018603165 0.03901431 0.18878913
-0.16519572 -0.09579376 -0.1155326 -0.18117446 -0.005493081 -0.26075807 -0.10524418 -0.0710971
-0.024679856 0.07399571 0.17244154 -0.077443585 -0.17254117 0.025175333 0.14958793 -0.027063087
0.16056183 -0.09650545 -0.07253313 -0.06343526 -0.0643675 0.18301319 0.047511533 -0.011684656
-0.21678655 -0.018970411 -0.11642201 -0.21253604 0.007763421 0.1572841 -0.13862513 -0.15294392
0.10154496 0.18290865 -0.1933351 -0.13922754 0.20048076 0.15442643 0.02912882 0.10926178
0.021771029 -0.11778597 -0.11758044 0.17305288 0.0101043135 0.07908241 0.06752388 0.062261622
0.1379031 0.11988172 -0.110686995 0.033175115 0.18794088 0.050349202 0.18250374 0.19801523
0.08347156 -0.113425456 0.07349771 0.08169246 -0.011307627 0.16403002 -0.079631485 0.032361984
-0.152095 -0.116669714 -0.08722923 -0.053563714 -0.17439996 0.04983173 -0.07267166 -0.13487104
0.007905985 0.15149233 0.093766525 0.075302914 0.09201631 0.09861524 0.019633062 0.1041485
0.079091445 0.1816127 0.1742895 0.048463494 -0.04423082 -0.18074106 -0.033203706 0.20353648
0.15871239 0.16041413 -0.0751777 -0.030540332 0.12533009 -0.03454142 0.060937405 -0.09400711
-0.07405873 0.07153064 -0.019680142 0.16823547 -0.16352354 0.09368444 0.118909 0.13643396
-0.031129053 -0.031300157 0.19015121 -0.12310607 0.09083539 -0.1886134 0.0072486997 0.048635185
0.05266142 -0.13044904 -0.11696787 0.08488697 0.14126459 0.0022376413 0.024864867 -0.1763842
-0.14271899 -0.0038008257 0.0025567405 0.091870666 -0.15539296 -0.22619921 -0.18387656 -0.2875928
-0.1798134 -0.06176637 0.022790238 -0.0917225 0.015389383 0.13056195 0.058306754 -0.042467758
00000000: e4e7 833c 3388 773e dd60 f7bc 3e50 dfbd
00000010: 7f44 a23d 8726 7d3c 66f4 5f3e bfc0 68bd
00000020: 0536 0ebd 3646 4f3e d66f 13be c078 1fbb
00000030: d018 11be 60ef 15bc a842 10be 3864 803d
00000040: 85bf 0bbe e51f 22be 6ee4 0dbe 500e d23d
00000050: 6670 0dbe 4d27 f43d 86f3 2a3d 7a41 593e
00000060: 9636 963d d5b5 893d 8243 883d 7c37 2abe
00000070: 1077 11be 30a6 3abe 4d0a 82be e14b 82be
00000080: 4fb5 fcbd c23f 093e 12d7 0c3e f8aa 8c3c
00000090: 84da 97bd 7280 04be f88a 873d 00d5 c73a
000000a0: 4caa 1e3e d805 95bc 68e6 58bd 060f 21be
000000b0: b01d e4bd 7e66 cd3c bd0d 383e 48a5 babd
000000c0: 5a1f 353e f0b9 8ebc 7295 0dbe d5a8 503d
000000d0: 7abf 4a3e 9608 81bc de18 5ebd 728a 643c
000000e0: 07c1 043e 5b37 4dbe 646a 053d 7021 fabc
000000f0: e0a3 6b3c f417 28bd 701a 94bd dc44 31bd
00000100: 9cab 66bd 4cd6 09be 5828 31be d6de 4fbe
00000110: a498 abbd e26a 1bbe 71a1 1abe 92a4 a73d
00000120: c8d9 b53d 5fc2 37be 8589 1e3d d76a 21be
00000130: 1b1d 81bc 06e8 c83d 6c64 44be d30b 16be
00000140: 208d d4bd 2a86 30be 92d2 243e 8a49 3f3e
00000150: 420b 4bbe b4d3 d93d b676 323e a833 4cbd
00000160: d038 c4bc cca6 8c3d 2420 c23d 7cc5 153e
00000170: 8860 933d 9465 f5bc 91e3 04be bf60 80bd
00000180: 089d 86bd a4e4 bbb9 4c7e 42bc bab1 ab3c
00000190: 93dc 1dbe 3acc 02be d40c 72bd 6454 52be
000001a0: dfd5 e7bd e119 29be 208f 45be 1072 f1bc
000001b0: 24b7 303e 50bd 64bc 80ee c2ba 900d 0ebc
000001c0: 6055 d6bb b641 1e3e f8f3 88bd 1ecd e0bd
000001d0: e2c7 3c3e aa65 98bc 78cd 1f3d f051 413e
000001e0: 1129 29be 852f c4bd 5b9c ecbd cc85 39be
000001f0: 4eff b3bb 1582 85be 438a d7bd 5b9b 91bd
00000200: 692d cabc 108b 973d 8494 303e be9a 9ebd
00000210: a2ae 30be 803c ce3c 942d 193e 68b3 ddbc
00000220: 526a 243e a6a4 c5bd 408c 94bd 58ea 81bd
00000230: 1cd3 83bd cf67 3b3e 749b 423d 0071 3fbc
00000240: 4bfd 5dbe d667 9bbc aa6e eebd 0ca3 59be
00000250: 4c64 fe3b 150f 213e bff3 0dbe 559d 1cbe
00000260: cef6 cf3d 684c 3b3e a3f9 45be aa91 0ebe
00000270: d44a 4d3e f621 1e3e 909f ee3c a4c4 df3d
00000280: 2859 b23c c539 f1bd 04ce f0bd c634 313e
00000290: 908c 253c f5f5 a13d f649 8a3d 0b06 7f3d
000002a0: 7836 0d3e 8c84 f53d ddaf e2bd a1e2 073d
000002b0: 9373 403e f73a 4e3d 43e2 3a3e 81c4 4a3e
000002c0: 23f3 aa3d 9b4b e8bd f885 963d 604e a73d
000002d0: a043 39bc 7cf7 273e d515 a3bd 008e 043d
000002e0: cbbe 1bbe 88f0 eebd 3da5 b2bd a065 5bbd
000002f0: e795 32be 5b1c 4c3d e1d4 94bd a21b 0abe
00000300: 1b88 013c ce20 1b3e aa08 c03d 6a38 9a3d
00000310: 0c73 bc3d c9f6 c93d 84d5 a03c cf4b d53d
00000320: b2fa a13d aef8 393e f278 323e a881 463d
00000330: 602b 35bd 2f14 39be 9c00 08bd de6b 503e
00000340: 8085 223e 9a43 243e c4f6 99bd b82f fabc
00000350: 8856 003e 4e7b 0dbd 8099 793d cd86 c0bd
00000360: 1aac 97bd a87e 923d 4038 a1bc eb45 2c3e
00000370: b772 27be a1dd bf3d 9086 f33d 58b5 0b3e
00000380: 5b02 ffbc 9834 00bd 00b7 423e 091f fcbd
00000390: e807 ba3d df23 41be 8086 ed3b b035 473d
000003a0: 80b3 573d 6f94 05be da8c efbd 38d9 ad3d
000003b0: aaa7 103e 64a5 123b 68b1 cb3c 0f9e 34be
000003c0: ed24 12be 4617 79bb fd8e 273b b026 bc3d
000003d0: 551f 1fbe c4a0 67be 234a 3cbe 5d3f 93be
000003e0: 0121 38be bcfe 7cbd 98b2 ba3c 02d9 bbbd
000003f0: c023 7c3c 08b2 053e 10d3 6e3d acf2 2dbd
