gail/save_model/0/SUB049_ckpt_0.pth.tar (torch_old, 154740 bytes, 16 tensors)

fc1.weight f4 [100, 22]
-0.16633253 0.13641596 0.24500977 0.09931023 -0.14288774 0.26987803 0.07588263 0.3035137
0.34745267 0.1270954 -0.017363548 0.17043388 -0.105812654 0.027623221 -0.20033872 0.039657354
0.059117734 -0.008740246 0.043931454 0.1002669 0.1109502 0.16510823 0.17948256 -0.13633496
-0.12155407 -0.05394804 0.3192544 -0.4074308 -0.32086554 -0.14003888 -0.3508816 -0.015945613
0.10634327 0.18803886 -0.18678859 0.05240825 0.16160882 0.04745248 0.059801936 -0.19784737
-0.036095023 -0.10515195 0.13505667 -0.20369631 0.1580237 0.28363585 -0.5652347 -0.20455265
-0.21495587 0.05691859 -0.15143096 -0.037625585 0.17036048 0.06391707 0.04757929 0.17674974
-0.07064088 -0.03134334 0.11787838 0.21276453 0.070577055 0.046675146 -0.10051187 0.0133600235
-0.028393283 0.02227661 0.19854857 -0.26073977 0.110098206 -0.18532217 -0.15140001 -0.26128504
0.0782732 -0.11278812 -0.0967246 -0.10686112 -0.15128021 0.04704073 0.19411889 -0.115122356
-0.094016075 0.16046417 0.06744477 0.18371043 0.021668047 -0.13205475 0.16463181 0.20020583
0.054025162 -0.20406154 -0.14634302 -0.39205897 0.57422423 0.239914 0.21485126 -0.039148632
0.30189592 -0.12205914 0.13579372 0.005322799 0.08432412 -0.022651449 0.09195787 0.16440377
-0.18926974 0.12977988 0.1900717 0.12230405 0.10172212 -0.04550661 -0.04737024 -0.27990475
-0.26857907 -0.31376547 -0.058095336 0.21568666 -0.07064817 0.18957831 0.11176351 0.1204091
-0.040400773 -0.08007951 -0.040216118 0.05861345 0.036905825 0.2075628 0.19277579 0.03202997
-0.033768386 -0.033163622 -0.05815363 0.115783155 -0.08946935 -0.016341276 0.12565272 0.08144352
0.5548533 -0.19349691 -0.10724188 -0.18983085 0.020164909 0.0014692396 0.08922824 0.092371374
0.08634055 -0.12774573 0.13442639 -0.060541153 -0.052569553 0.019937903 0.147576 0.15262696
-0.0764671 0.0041880906 -0.22682989 0.13478191 0.10340433 0.2650177 0.20947148 0.23714022
0.49282652 0.46816516 0.29850882 0.010758668 0.10274008 -0.036053494 -0.1139675 0.0819104
0.10758722 0.14027247 0.040210307 -0.110446535 -0.057112068 0.13466907 0.085246295 -0.0519187
-0.06705206 -0.16406128 0.09600679 0.11825693 -0.013955705 0.22380443 -0.124455005 0.22644277
0.21433757 0.12848032 0.19182938 0.001976952 -0.16869412 0.018528864 -0.21164216 0.032917053
-0.14038798 0.12029651 0.1105552 -0.04730995 -0.113868356 -0.12329786 0.0023369798 0.52941155
0.12538296 -0.14785147 0.67158073 0.27769122 0.13506839 0.18906517 0.04565192 -0.16984642
0.20079082 -0.088579595 0.18850785 -0.17371158 0.038270175 0.19644278 -0.20980379 -0.18060121
-0.15269949 -0.030652776 0.051560342 -0.19551834 -0.121860296 -0.30995092 -0.22962902 0.057396453
-0.29719156 0.14349085 0.040421654 0.11354185 0.13346465 -0.071006 -0.17976923 0.15769798
0.021393016 0.12140164 0.13626784 0.1949665 -0.17295463 -0.095842354 0.057777077 -0.041324288
0.1168986 -0.016012251 0.02639161 -0.3685425 0.4555305 0.16782452 0.39616215 -0.03626618
-0.2928655 -0.24088868 -0.22451216 0.06858435 -0.19918182 0.1397498 0.04704696 0.033131674
00000000: 1353 2abe a0b0 0b3e d7e3 7a3e 2963 cb3d
00000010: 2a51 12be 742d 8a3e 5a68 9b3d 2666 9b3e
00000020: 51e5 b13e 4c25 023e 003e 8ebc 3886 2e3e
00000030: 4eb4 d8bd 184a e23c 9825 4dbe c06f 223d
00000040: 7025 723d 4033 0fbc 78f1 333d bc58 cd3d
00000050: dc39 e33d 2212 293e 47ca 373e 649b 0bbe
00000060: 57f1 f8bd 9ff8 5cbd 5075 a33e c59a d0be
00000070: 7d48 a4be 5a66 0fbe c1a6 b3be 60a0 82bc
00000080: 80ca d93d 428d 403e 8245 3fbe 08aa 563d
00000090: c87c 253e 885d 423d e0f2 743d 8098 4abe
000000a0: 60d8 13bd e859 d7bd 4c4c 0a3e c495 50be
000000b0: f7d0 213e b838 913e 39b3 10bf 4076 51be
000000c0: 641d 5cbe 7823 693d b810 1bbe 491d 1abd
000000d0: fa72 2e3e f4e6 823d 80e2 423d e2fd 343e
000000e0: 2aac 90bd e061 00bd 386a f13d f2de 593e
000000f0: b48a 903d 702e 3f3d 2bd9 cdbd 00e4 5a3c
00000100: 0899 e8bc 707d b63c 5150 4b3e af7f 85be
00000110: 2b7b e13d 18c5 3dbe 9b08 1bbe 27c7 85be
00000120: b34d a03d 75fd e6bd 8c17 c6bd 01da dabd
00000130: 33e9 1abe c8ad 403d 1ac7 463e 45c5 ebbd
00000140: 808b c0bd b850 243e 7c20 8a3d 961e 3c3e
00000150: 3081 b13c 5c39 07be 3e95 283e c202 4d3e
00000160: 7d49 5d3d 82f5 50be f2da 15be f4bb c8be
00000170: 5c00 133f 04ac 753e f801 5c3e 515a 20bd
00000180: 1a92 9a3e 24fa f9bd 820d 0b3e e06a ae3b
00000190: 20b2 ac3d 888f b9bc 6854 bc3d 7659 283e
000001a0: edcf 41be 04e5 043e 28a2 423e 8c7a fa3d
000001b0: b053 d03d 2465 3abd 4c07 42bd ad4f 8fbe
000001c0: 3283 89be dea5 a0be 60f5 6dbd f7dc 5c3e
000001d0: fdaf 90bd d120 423e 44e4 e43d 0c99 f63d
000001e0: 487b 25bd ba00 a4bd a8b9 24bd a814 703d
000001f0: 902a 173d 588b 543e 0467 453e dc31 033d
00000200: b850 0abd 94d6 07bd 8032 6ebd b81f ed3d
00000210: b53b b7bd 24de 85bc 1bab 003e dccb a63d
00000220: de0a 0e3f 0e24 46be a1a1 dbbd 0563 42be
00000230: e130 a53c 8093 c03a 4cbd b63d 342d bd3d
00000240: 50d3 b03d c7cf 02be 12a7 093e 00fa 77bd
00000250: 2c53 57bd d054 a33c 2a1e 173e 3e4a 1c3e
00000260: c89a 9cbd 403c 893b 1846 68be 4504 0a3e
00000270: a6c5 d33d 66b0 873e b17f 563e e3d4 723e
00000280: c253 fc3e 58b3 ef3e 26d6 983e 2045 303c
00000290: 6469 d23d d4ac 13bd cb67 e9bd a4c0 a73d
000002a0: b056 dc3d 96a3 0f3e 90b3 243d cb31 e2bd
000002b0: 58ee 69bd b0e6 093e 9c95 ae3d b4a8 54bd
000002c0: 9752 89bd aeff 27be 359f c43d b030 f23d
000002d0: 78a6 64bc fd2c 653e 44e2 febd 9de0 673e
000002e0: 4f7b 5b3e 5890 033e ec6e 443e c08f 013b
000002f0: 27be 2cbe d8c9 973c b9b8 58be 08d4 063d
00000300: dec1 0fbe 045e f63d c46a e23d 14c8 41bd
00000310: d033 e9bd 9783 fcbd 0428 193b 8487 073f
00000320: 6464 003e 6066 17be b7ec 2b3f 8b2d 8e3e
00000330: 5e4f 0a3e 4d9a 413e 82fd 3a3d 38ec 2dbe
00000340: 1c9c 4d3e 3869 b5bd 3408 413e 73e1 31be
00000350: 30c1 1c3d 4c28 493e ced6 56be 86ef 38be
00000360: 415d 1cbe 881b fbbc f030 533d f635 48be
00000370: e491 f9bd e3b1 9ebe df23 6bbe 8b18 6b3d
00000380: 7e29 98be 44ef 123e 2d91 253d a188 e83d
00000390: f5aa 083e 986b 91bd 6d15 38be 947b 213e
000003a0: 6840 af3c 6ca1 f83d cc89 0b3e 4ca5 473e
000003b0: 051b 31be ff48 c4bd a8a7 6c3d a843 29bd
000003c0: 8868 ef3d 202c 83bc 3833 d83c 9ab1 bcbe
000003d0: 4b3b e93e 31da 2b3e c4d5 ca3e d98b 14bd
000003e0: 78f2 95be 86ab 76be 84e6 65be f475 8c3d
000003f0: 52f6 4bbe 921a 0f3e 50b4 403d 14b5 073d

fc1.bias f4 [100]
-0.16969688 0.28559524 0.09560805 -0.037558086 -0.11615089 -0.23617372 -0.027896302 -0.24445084
-0.15404649 -0.12040902 -0.064795285 0.04169247 -0.24543154 -0.2709539 0.2927098 -0.3073605
0.27500105 -0.021081433 -0.04018697 0.25780058 -0.12502228 -0.41380718 -0.3310344 0.06855596
0.35184506 -0.42544132 0.07778155 0.03076411 0.36239317 0.09868116 0.24271625 -0.003971222
-0.04068475 -0.2239119 0.34801266 -0.22515872 0.044271536 -0.1350656 -0.19873045 0.12079919
-0.23840378 -0.037515543 -0.06961893 -0.03570009 0.22123097 -0.056984555 -0.292706 0.1667774
-0.1242499 -0.20343173 0.072110884 0.16783643 -0.38310358 -0.36402842 0.21304893 0.12166945
-0.11852553 -0.52339864 0.10998733 -0.11532155 0.21053389 -0.037508313 -0.18685502 0.0075191422
-0.41141313 0.09775931 0.26673356 -0.08533586 0.2395901 0.41494727 -0.29768533 0.076332204
-0.0077721393 0.3390779 -0.15063018 -0.41025335 0.16474627 0.20569742 -0.21119073 -0.42978013
0.026832383 -0.34265006 0.23031586 0.21030922 -0.111800686 0.1826184 -0.18627681 -0.19171067
0.13007192 0.26818225 -0.118931904 -0.14599721 -0.14763962 0.45190275 0.11240437 -0.15082586
-0.4268441 0.17341256 0.31824702 0.018037373
00000000: 05c5 2dbe 8a39 923e 27ce c33d 82d6 19bd
00000010: 85e0 edbd 86d7 71be c986 e4bc 5251 7abe
00000020: 5dbe 1dbe 0199 f6bd 64b3 84bd b9c5 2a3d
00000030: 6852 7bbe 78ba 8abe 0fde 953e 5b5e 9dbe
00000040: f0cc 8c3e f8b2 acbc 189b 24bd 70fe 833e
00000050: d705 00be 89de d3be 577d a9be 1167 8c3d
00000060: 0925 b43e 72d3 d9be ef4b 9f3d 0405 fc3c
00000070: 998b b93e 5919 ca3d 9c8a 783e 0621 82bb
00000080: 0da5 26bd 2949 65be b72e b23e 0290 66be
00000090: 1256 353d a34e 0abe ff7f 4bbe 9165 f73d
000000a0: 1f20 74be e6a9 19bd 5f94 8ebd 423a 12bd
000000b0: 5f8a 623e a368 69bd 90dd 95be b2c7 2a3e
000000c0: bb76 febd 6850 50be dfae 933d 50dd 2b3e
000000d0: 2726 c4be ef61 babe 8029 5a3e d52d f93d
000000e0: 83bd f2bd 74fd 05bf 0a41 e13d b42d ecbd
000000f0: 3296 573e 51a2 19bd ec56 3fbe 2363 f63b
00000100: bea4 d2be 0836 c83d 4d91 883e 91c4 aebd
00000110: 1b57 753e f873 d43e 366a 98be 0f54 9c3d
00000120: 6ead febb 9e9b ad3e cc3e 1abe ba0c d2be
00000130: 3fb3 283e 58a2 523e 6242 58be 240c dcbe
00000140: 96cf db3c d46f afbe ecd7 6b3e 4d5b 573e
00000150: c2f7 e4bd 5100 3b3e 59bf 3ebe cd4f 44be
00000160: 9331 053e 2f4f 893e 9292 f3bd 4b80 15be
00000170: d72e 17be cc5f e73e 4334 e63d 1872 1abe
00000180: 4f8b dabe 1093 313e 46f1 a23e 1dc3 933c

fc2.weight f4 [100, 100]
-0.45515817 0.28386608 -0.13268533 -0.06572083 -0.3605197 -0.49442264 0.3708557 -0.045496188
-0.43312788 -0.09470433 -0.052778207 0.31261933 -0.3575274 -0.16593207 0.4046002 0.024261007
-0.015746787 0.32416308 0.3052969 0.33826163 -0.13946258 -0.26169738 -0.33204073 0.24660724
0.4885594 -0.2038501 -0.19876356 0.27667302 0.22001337 0.31576777 0.16015746 0.106814936
-0.30877903 -0.034672134 -0.09766604 -0.17204106 0.052979156 0.02464134 -0.28042376 0.39521837
-0.34520426 -0.36237958 -0.2515282 -0.41285232 0.43616804 0.14710811 0.0049654176 -0.1985399
-0.35583743 -0.38806048 0.34710607 0.27788246 -0.35663682 -0.46017984 0.33871233 -0.093557715
-0.560054 -0.3841198 0.18935505 -0.51403457 0.33526117 -0.17436 -0.29720134 -0.07368297
-0.25747162 0.08084912 -0.20489553 -0.4073232 0.26359707 0.28433868 -0.4382021 0.2217543
0.17692001 0.17035282 -0.24590392 -0.16276254 0.33028153 0.40446383 -0.30069166 -0.2035771
0.34444627 -0.28308922 0.4837853 0.44858757 -0.19437891 0.39823225 -0.0014326221 0.24512453
-0.11496017 0.30306342 -0.30262917 -0.12217616 -0.18984693 0.48462504 -0.013317874 -0.035875197
0.067286596 0.17575157 0.24272406 0.24425668 -0.36540538 0.25488433 -0.05560135 -0.13084222
-0.2722842 -0.5025219 0.34075853 -0.10080701 -0.45674166 -0.020445034 -0.13191478 0.2114285
-0.28819042 -0.1525867 0.29112932 -0.06066141 -0.18525311 0.3811156 0.43314552 0.22564436
0.06844365 -0.1935752 -0.31800768 0.19329311 0.46326673 -0.23309843 -0.23959851 0.30184895
0.25809917 0.3209094 0.13214399 0.1269226 -0.23901714 0.037309933 -0.0064670034 -0.08671961
0.13498898 0.06216566 -0.2809402 0.3347247 -0.45012656 -0.33767486 -0.21734947 -0.46482128
0.38835812 0.050128464 0.12412212 -0.27186432 -0.44501713 -0.38116565 0.39458975 0.21695732
-0.47349077 -0.47133607 0.24375425 -0.0029312067 -0.5456101 -0.38084912 0.14341852 -0.51290065
0.43686885 -0.17932686 -0.34812778 -0.013535747 -0.29029012 0.052913718 -0.10468818 -0.35179296
0.25186166 0.38886333 -0.33269763 0.23817208 0.29478428 0.1286696 -0.13752115 -0.21256083
0.23296678 0.44652152 -0.19341327 -0.36955333 0.32646644 -0.28866398 0.4041253 0.45959595
-0.11518365 0.45282054 0.03126516 0.14673814 0.035673607 0.28323737 -0.3524499 -0.16708772
-0.10883528 0.42801613 -0.14611122 0.00438959 0.024074908 0.067194656 0.34098846 0.18694906
0.21826822 -0.1506564 -0.116782844 -0.13843234 -0.35552236 -0.19310407 -0.11705873 0.24354988
0.021889945 -0.19424736 0.13412195 0.10086146 0.17406383 0.16010858 0.06516991 0.21064447
-0.23547255 0.15003544 -0.033962898 0.0015667364 0.20413658 0.08158287 0.18887438 0.31408194
0.01889993 0.18358646 -0.06059017 0.07458517 -0.06831649 0.0078053665 -0.13260165 0.15456119
-0.075178675 0.14502585 -0.116563894 -0.018595614 0.25435227 0.18856321 0.113888286 0.10788448
0.12285074 0.018442972 0.029707264 -0.19999109 0.07896905 0.107617304 0.26601285 -0.03742065
0.058035117 0.024073787 0.23400567 -0.098622814 0.0031945878 0.1270875 0.2777687 -0.18216781
00000000: 7e0a e9be e556 913e aade 07be a498 86bd
00000010: 0a96 b8be f724 fdbe cce0 bd3e 365a 3abd
00000020: f0c2 ddbe 58f4 c1bd f62d 58bd a40f a03e
00000030: d50d b7be 19ea 29be c227 cf3e 05bf c63c
00000040: 68ff 80bc b4f8 a53e e04f 9c3e a130 ad3e
00000050: 47cf 0ebe 33fd 85be 3e01 aabe 9c86 7c3e
00000060: 7524 fa3e 15be 50be ad88 4bbe 16a8 8d3e
00000070: 2f4b 613e 50ac a13e 5100 243e cac1 da3d
00000080: 4918 9ebe 5e04 0ebd 2205 c8bd 882b 30be
00000090: ac00 593d a3dc c93c b493 8fbe 105a ca3e
000000a0: 9dbe b0be d189 b9be 4ec8 80be 6161 d3be
000000b0: 6b51 df3e 82a3 163e f1b4 a23b 0b4e 4bbe
000000c0: 5330 b6be ddaf c6be e3b7 b13e 9c46 8e3e
000000d0: 1a99 b6be b19c ebbe b46b ad3e 309b bfbd
000000e0: b35f 0fbf 5aab c4be 4ae6 413e c597 03bf
000000f0: 5aa7 ab3e 6e8b 32be c62a 98be 19e7 96bd
00000100: 52d3 83be 3994 a53d 22d0 51be ab8c d0be
00000110: 32f6 863e d794 913e 075c e0be 8f13 633e
00000120: 852a 353e f870 2e3e 3dce 7bbe 39ab 26be
00000130: a91a a93e e215 cf3e 42f4 99be 8476 50be
00000140: 435b b03e 12f1 90be b5b2 f73e 45ad e53e
00000150: 440b 47be 19e5 cb3e d2c6 bbba ed01 7b3e
00000160: 3d70 ebbd 212b 9b3e 36f2 9abe 7f37 fabd
00000170: 3c67 42be c620 f83e 3633 5abc dff1 12bd
00000180: 8ecd 893d 38f8 333e a88c 783e 6c1e 7a3e
00000190: 6a16 bbbe 3380 823e 3ebe 63bd 81fb 05be
000001a0: d668 8bbe 46a5 00bf e777 ae3e e873 cebd
000001b0: 0bda e9be 587c a7bc ab14 07be b680 583e
000001c0: b28d 93be b03f 1cbe e70e 953e 1978 78bd
000001d0: feb2 3dbe 9521 c33e 40c5 dd3e 510f 673e
000001e0: 2f2c 8c3d 9438 46be e7d1 a2be a1ee 453e
000001f0: 4c31 ed3e 5bb1 6ebe 5059 75be f28b 9a3e
00000200: 9325 843e 3d4e a43e c150 073e 00f8 013e
00000210: e9c0 74be 4dd2 183d 28e9 d3bb 0d9a b1bd
00000220: 8d3a 0a3e 6ba1 7e3d 65d7 8fbe 0961 ab3e
00000230: fd76 e6be b8e3 acbe dc90 5ebe 0efd edbe
00000240: e0d6 c63e 8153 4d3d bd33 fe3d cd31 8bbe
00000250: 49d9 e3be 2528 c3be ab07 ca3e 0f2a 5e3e
00000260: 626d f2be f652 f1be b79a 793e 7d19 40bb
00000270: 1aad 0bbf a8fe c2be 4edc 123e 754d 03bf
00000280: 46ad df3e 76a1 37be ce3d b2be 0ac5 5dbc
00000290: e8a0 94be 0ebc 583d c266 d6bd 351e b4be
000002a0: 03f4 803e 1819 c73e 5857 aabe 62e3 733e
000002b0: f7ed 963e f7c1 033e 58d2 0cbe 8ca9 59be
000002c0: d88e 6e3e 789e e43e 210e 46be 1836 bdbe
000002d0: 9c26 a73e c4cb 93be 83e9 ce3e 2950 eb3e
000002e0: 68e5 ebbd 18d8 e73e e50f 003d 8642 163e
000002f0: 7d1e 123d 7d04 913e 5074 b4be 0b19 2bbe
00000300: 08e5 debd ee24 db3e 2e9e 15be 8dd6 8f3b
00000310: be38 c53c 5a9d 893d 0a96 ae3e 936f 3f3e
00000320: b481 5f3e ac45 1abe d82b efbd 35c1 0dbe
00000330: 0707 b6be 13bd 45be 7dbc efbd 2465 793e
00000340: 8b52 b33c c8e8 46be 4457 093e 7490 ce3d
00000350: ca3d 323e 81f3 233e cd77 853d 2fb3 573e
00000360: b71f 71be e4a2 193e ae1c 0bbd f35a cd3a
00000370: 2e09 513e eb14 a73d 4968 413e 59cf a03e
00000380: 07d4 9a3c 17fe 3b3e 662d 78bd 1cc0 983d
00000390: 84e9 8bbd 29c4 ff3b bac8 07be 4a45 1e3e
000003a0: 47f7 99bd a881 143e 0db9 eebd d455 98bc
000003b0: 763a 823e b716 413e 433e e93d 8af2 dc3d
000003c0: 2b99 fb3d b715 973c a65c f33c 77ca 4cbe
000003d0: 86ba a13d 7666 dc3d d632 883e 6546 19bd
000003e0: 3bb6 6d3d 6436 c53c 2f9f 6f3e c2fa c9bd
000003f0: 4a5c 513b 3a23 023e b337 8e3e 338a 3abe

fc2.bias f4 [100]
0.4855854 0.47901332 0.040307954 -0.5429701 0.4001359 -0.10026604 -0.5430084 0.4809708
-0.4606311 -0.39668572 0.30527928 0.39023197 -0.46675542 0.61088306 0.5996022 -0.45876738
-0.17239027 -0.30040815 -0.5785988 0.4622093 -0.4087982 0.33412498 -0.39043736 -0.5323368
0.4558371 0.24015035 0.5013793 -0.521585 0.33002433 -0.09593436 0.28290665 0.4137627
0.046136435 -0.5954819 0.07959276 0.5726061 0.48468062 0.5291156 0.18020268 0.36986944
0.020715322 -0.019106822 0.44362324 -0.4246258 0.4006988 -0.21908078 0.40413302 -0.16607046
0.10422072 -0.56618786 -0.1381296 -0.5035615 -0.50194585 -0.27102205 0.033049647 0.52932876
-0.58994097 -0.403982 -0.2817498 -0.300057 -0.12740079 0.54376334 -0.077534795 -0.3075927
-0.49761122 0.24222346 0.24667989 -0.2762661 0.44009215 0.44342998 -0.38515642 0.4564622
0.25651997 0.40512103 -0.5313031 -0.41924703 -0.01752669 -0.50187445 -0.017098555 0.5943078
0.49715105 0.53518426 -0.55483395 -0.19144128 -0.31901985 0.14840378 0.14874306 0.47771123
0.36783102 -0.42427984 0.4615465 0.30512568 0.39508662 -0.52390385 -0.52755934 -0.26867798
0.36615348 -0.28581738 -0.12538156 0.009698872
00000000: a69e f83e 3c41 f53e f419 253d 1700 0bbf
00000010: 9dde cc3e 4858 cdbd 9902 0bbf ce41 f63e
00000020: d7d7 ebbe 641a cbbe 914d 9c3e 7ccc c73e
00000030: 91fa eebe d562 1c3f 887f 193f 8fe3 eabe
00000040: 1387 30be 19cf 99be 0d1f 14bf b3a6 ec3e
00000050: ff4d d1be 6e12 ab3e 68e7 c7be 3947 08bf
00000060: 7b63 e93e f9e9 753e 655a 003f 9886 05bf
00000070: f3f8 a83e 3c79 c4bd 24d9 903e b4d8 d33e
00000080: 8ff9 3c3d 8071 18bf 8701 a33d 5096 123f
00000090: 0f28 f83e 1f74 073f 0d87 383e 875f bd3e
000000a0: 2eb3 a93c e985 9cbc 9622 e33e 8e68 d9be
000000b0: 6528 cd3e b656 60be 86ea ce3e 600e 2abe
000000c0: ac71 d53d b0f1 10bf d971 0dbe 68e9 00bf
000000d0: 867f 00bf 67c3 8abe 115f 073d 1782 073f
000000e0: 5f06 17bf bbd6 cebe 8341 90be 12a1 99be
000000f0: 5a75 02be 1334 0b3f 90ca 9ebd ca7c 9dbe
00000100: e6c6 febe 6d09 783e a799 7c3e c072 8dbe
00000110: c253 e13e 4109 e33e 3933 c5be 6ab5 e93e
00000120: 9656 833e 066c cf3e 7b03 08bf 8ca7 d6be
00000130: 2294 8fbc d87a 00bf 4512 8cbc 8e24 183f
00000140: 958a fe3e d601 093f 9909 0ebf 2f09 44be
00000150: 9256 a3be 29f7 173e 1a50 183e 9196 f43e
00000160: 5954 bc3e 353b d9be d34f ec3e 6f39 9c3e
00000170: cb48 ca3e 901e 06bf 210e 07bf 2990 89be
00000180: 7878 bb3e a856 92be 0664 00be 05e8 1e3c

fc3.weight f4 [2, 100]
0.27195108 0.24358748 -0.46341908 -0.22479783 0.085291825 -0.13916339 -0.30321133 0.24935283
-0.24195118 -0.3576481 0.2036878 0.21139589 -0.31118622 0.2435227 0.26939678 -0.24958055
-0.2620118 -0.38806352 -0.27386338 0.31708568 -0.0653544 0.3573079 -0.3264232 -0.28774187
0.25889528 0.43185237 0.2566229 -0.2688146 0.42147228 0.22487395 0.21086878 0.31786045
-0.0942046 -0.2993101 0.751494 0.24143942 0.24441083 0.26391834 0.3137867 0.21749558
0.15461363 0.14882039 0.20782156 -0.3239262 0.3601962 0.15302095 0.18650526 -0.25306267
0.12912565 -0.2759182 -0.8860529 -0.23369896 -0.29071248 -0.19240604 -0.49815065 0.1853605
-0.25094953 -0.33438525 -0.17466688 -0.8602565 -0.6369656 0.20940791 -0.7168228 -0.3173536
-0.24519475 0.2027829 0.08174625 -0.39517385 0.31874698 0.097528815 -0.25818136 0.3128087
-0.16215457 0.83210963 -0.39633185 -0.29722473 0.41441458 -0.3126058 -0.10959194 0.28300095
0.25126982 0.24293926 -0.263376 -0.19480723 -0.115022436 -0.6298984 0.694765 0.23509893
0.40344536 -0.2786284 0.26257065 0.085671015 0.6941777 -0.31946287 -0.26082504 0.13144492
0.29642272 -0.2637984 -0.5183253 -0.90290886 -0.6055492 -0.6106472 0.582945 0.5839222
-0.5696373 -0.75626284 0.61812866 -0.801037 0.62040925 0.5787021 -0.7523802 -0.5726044
0.6026671 -0.596828 -0.58710295 0.63099414 0.6018449 0.57035524 0.5966083 -0.6215553
0.5744187 -0.57076615 0.6075797 0.60386825 -0.5941945 -0.9944537 -0.610424 0.59926176
-1.3546445 0.72638226 -0.773884 -1.039614 -0.7451015 0.59200513 -0.5993756 -0.6028863
-0.63034576 -0.5958473 -0.6338211 -0.85876435 0.7150682 0.72619873 -0.57566917 0.6113547
-0.5874418 0.7045125 -0.6055371 0.60281473 0.7934231 0.6235729 2.1225426 0.7107835
0.59553564 0.70092773 0.5502429 -0.55528873 0.6017971 0.6279052 0.80965614 1.9985669
0.48042974 -0.5864766 1.1399153 0.5838716 0.605445 -0.5791005 -0.69805586 1.2670977
-0.5952508 -0.55442584 0.6578297 -0.59740263 -0.7307653 -1.9165409 0.624344 0.6004268
-0.594706 0.6476192 -0.7512241 -0.5886085 -0.6068015 -0.5923383 0.6341481 0.6604732
0.47586963 0.737566 -0.57911056 -0.6007963 -0.660617 0.6189291 -0.5909991 -0.5980145
-1.8144995 0.5937251 0.5814893 0.7169026 -0.70029366 0.94362766 0.5394989 0.99696314
00000000: 2c3d 8b3e ff6e 793e 4445 edbe 6731 66be
00000010: 7bad ae3d d980 0ebe 843e 9bbe 5956 7f3e
00000020: 0dc2 77be a71d b7be 8993 503e 2a78 583e
00000030: cd53 9fbe 045e 793e 60ee 893e 0b92 7fbe
00000040: 6926 86be 43b0 c6be d237 8cbe 0e59 a23e
00000050: 87d8 85bd 10f1 b63e f120 a7be e752 93be
00000060: ec8d 843e c11b dd3e 1464 833e 11a2 89be
00000070: 37cb d73e 5b45 663e fced 573e 9bbe a23e
00000080: 57ee c0bd 2c3f 99be e961 403f e53b 773e
00000090: d546 7a3e 4e20 873e a6a8 a03e 29b7 5e3e
000000a0: 0953 1e3e 5f64 183e 2dcf 543e a8d9 a5be
000000b0: a36b b83e 86b1 1c3e 3cfb 3e3e 6e91 81be
000000c0: 8439 043e 2645 8dbe 5dd4 62bf c84e 6fbe
000000d0: 44d8 94be 1706 45be 9a0d ffbe 25cf 3d3e
000000e0: 757c 80be 8b34 abbe e0db 32be c539 5cbf
000000f0: 2d10 23bf 076f 563e b381 37bf 2c7c a2be
00000100: 5514 7bbe 52a6 4f3e 946a a73d 3a54 cabe
00000110: ce32 a33e 30bd c73d 5930 84be 7628 a03e
00000120: d90b 26be 2305 553f 02ec cabe d72d 98be
00000130: 262e d43e de0d a0be bd71 e0bd 80e5 903e
00000140: 70a6 803e 12c5 783e 38d9 86be 8c7b 47be
00000150: e290 ebbd 0641 21bf 1edc 313f c6bd 703e
00000160: 6490 ce3e 62a8 8ebe a96f 863e 4974 af3d
00000170: a1b5 313f a390 a3be dc8a 85be 7f99 063e
00000180: b8c4 973e 9510 87be f8b0 04bf 0925 67bf
00000190: 4605 1bbf 6053 1cbf e23b 153f ed7b 153f
000001a0: c0d3 11bf 719a 41bf ae3d 1e3f c310 4dbf
000001b0: 24d3 1e3f d225 143f fd9b 40bf 3496 12bf
000001c0: 6448 1a3f b8c9 18bf 614c 16bf d588 213f
000001d0: 8212 1a3f cd02 123f 52bb 183f 401e 1fbf
000001e0: 1b0d 133f bb1d 12bf 588a 1b3f 1c97 1a3f
000001f0: 211d 18bf 8594 7ebf bf44 1cbf 3869 193f
00000200: fe64 adbf 30f4 393f 431d 46bf 1212 85bf
00000210: f9be 3ebf a68d 173f ae70 19bf c256 1abf
00000220: 575e 21bf 7389 18bf 1a42 22bf fbd7 5bbf
00000230: b60e 373f 29e8 393f 0e5f 13bf be81 1c3f
00000240: 9662 16bf ee5a 343f 7b04 1bbf 1152 1a3f
00000250: c71d 4b3f 79a2 1f3f bdd7 0740 e8f5 353f
00000260: 0675 183f 0070 333f b8dc 0c3f 6727 0ebf
00000270: 600f 1a3f 65be 203f a045 4f3f 0ad1 ff3f
00000280: e3fa f53e 5523 16bf bfe8 913f 9c78 153f
00000290: 72fe 1a3f ee3f 14bf cab3 32bf 4230 a23f
000002a0: 5b62 18bf daee 0dbf 8767 283f 61ef 18bf
000002b0: 6f13 3bbf 3651 f5bf 02d5 1f3f 92b5 193f
000002c0: a73e 18bf 5fca 253f 3950 40bf 0caf 16bf
000002d0: 5857 1bbf 7ca3 17bf 8857 223f c614 293f
000002e0: 2fa5 f33e 20d1 3c3f 9740 14bf c9cd 19bf
000002f0: 321e 29bf 2372 1e3f b84b 17bf 7a17 19bf
00000300: 8541 e8bf 5efe 173f 7cdc 143f ee86 373f
00000310: 7246 33bf 9591 713f 9a1c 0a3f fa38 7f3f

fc3.bias f4 [2]
0.28464004 -0.33944944
00000000: 57bc 913e 51cc adbe

fc1.weight f4 [100, 22]
0.08780617 -0.0031576212 -0.004372492 -0.008277889 -0.0072527053 -0.04728919 -0.02005693 -0.018076343
-0.03651333 -5.6224e-41 2.22785e-40 7.44413e-40 3.9315e-40 -1.12153e-39 8.31256e-40 -1.719934e-39
7.50887e-40 -4.78207e-40 -8.90504e-40 -2.09748e-39 -9.28238e-40 -1.2341287e-37 -4.687834e-07 4.878136e-07
5.916487e-06 3.0353638e-06 1.9729973e-06 -1.1131773e-06 -1.2349525e-06 -1.2335552e-06 -1.1787204e-06 1.42899e-40
-1.334908e-39 1.61093e-39 1.677054e-39 2.08023e-40 -9.59414e-40 1.252523e-39 -1.095328e-39 -1.493072e-39
-1.036043e-39 -1.524204e-39 -1.762323e-39 -1.132539e-39 -1.0766254e-05 1.3869797e-05 0.00013496233 5.1413786e-05
4.0838924e-05 -1.761556e-05 -2.0931693e-05 -2.096217e-05 -1.9051484e-05 1.770902e-39 -3.0016e-41 1.611314e-39
-9.58838e-40 -7.00426e-40 -1.04974e-40 -6.16136e-40 -1.04725e-40 1.310662e-39 -6.6183e-41 1.106954e-39
1.84287e-39 7.54833e-40 -0.08781955 0.003157777 0.004373009 0.008278483 0.0072533553 0.04729642
0.02005991 0.018079052 0.036518898 -5.07339e-40 8.96094e-40 1.3091e-39 -1.938154e-39 4.8995e-40
-1.129818e-39 7.27701e-40 1.360715e-39 4.3249e-40 1.947284e-39 7.83222e-40 -2.32576e-40 -6.84314e-40
-1.3392953e-06 3.402805e-06 -3.5533546e-06 1.6346544e-06 1.1203585e-06 -2.1698033e-06 -1.0494679e-06 -9.1653067e-07
-1.951763e-06 -4.80481e-40 1.423439e-39 -4.80047e-40 2.146229e-39 9.8004e-41 3.48988e-40 -2.21752e-39
2.040253e-39 -4.89657e-40 -8.48552e-40 2.040945e-39 1.378616e-39 -1.491141e-39 -4.289008e-06 1.1285281e-06
-8.551044e-07 -1.8105552e-06 4.4637886e-06 6.5724407e-06 2.8230481e-06 4.8575666e-06 9.2891787e-07 -9.40964e-40
-8.92337e-40 -5.40534e-40 2.011088e-39 1.29675e-40 -1.695979e-39 8.76296e-40 1.7861e-39 -2.309619e-39
2.30404e-40 -2.055809e-39 1.797566e-39 -1.889867e-39 4.567845e-05 3.4682803e-06 3.958607e-06 2.4584444e-05
-1.1843588e-06 8.382861e-06 -1.3652778e-05 -1.3944307e-05 -1.4947034e-06 -1.828163e-39 8.6565e-40 4.64023e-40
1.531916e-39 -6.36e-41 2.77907e-40 -3.50358e-40 -3.88657e-40 9.55925e-40 -1.023539e-39 7.73898e-40
-7.86822e-40 3.4270039e-37 -0.0877876 0.0031574045 0.004371772 0.008277041 0.007251806 0.047279086
0.02005277 0.018072601 0.036505613 1.91636e-39 1.493833e-39 1.581033e-39 -1.357263e-39 1.704175e-39
-8.14622e-40 5.56125e-40 -6.7365e-41 5.66071e-40 1.682417e-39 1.04044e-40 -7.19662e-40 1.053128e-39
-0.08779568 0.0031574944 0.004372094 0.00827742 0.0072521935 0.047283456 0.020054571 0.018074233
0.036508944 1.79644e-40 -1.047322e-39 -1.309767e-39 -1.34488e-39 -1.813747e-39 1.957784e-39 -1.070274e-39
1.384062e-39 -1.44435e-39 -1.91726e-39 -1.89809e-39 -1.019588e-39 -1.222917e-39 -0.08781613 0.0031577423
0.0043728705 0.008278327 0.0072531854 0.04729454 0.020059153 0.018078351 0.036517438 -8.4353e-41
-1.991691e-39 -4.75206e-40 -1.293099e-39 -1.991808e-39 6.38144e-40 4.61911e-40 1.375349e-39 -6.7984e-40
-1.085e-40 9.14067e-40 1.061353e-39 -9.97753e-40 0.08782675 -0.0031578653 -0.0043732873 -0.00827881
-0.0072537027 -0.04730036 -0.020061525 -0.018080514 -0.036521878 6.14801e-40 8.53815e-40 -4.77788e-40
-1.99322e-40 5.22588e-40 2.045188e-39 -4.73273e-40 9.76778e-40 1.585695e-39 -2.176916e-39 1.980796e-39
-3.4293e-41 3.25942e-40 0.08781786 -0.0031577596 -0.004372939 -0.008278403 -0.007253274 -0.04729549
-0.020059532 -0.018078709 -0.03651817 -2.13042e-40 -1.187481e-39 1.21644e-40 9.77191e-40 6.2605e-40
00000000: b9d3 b33d 18f0 4ebb 1f47 8fbb fc9f 07bc
00000010: 1aa8 edbb 4fb2 41bd 6e4e a4bc d714 94bc
00000020: 008f 15bd bb9c 0080 096d 0200 1f1b 0800
00000030: f147 0400 5f36 0c80 340d 0900 7aba 1280
00000040: 2b2d 0800 0c35 0580 5db2 0980 ecd6 1680
00000050: 8d1b 0a80 1cfb 2782 1aad fbb4 4cf2 0235
00000060: 3d86 c636 27b3 4b36 d667 0436 7b68 95b5
00000070: a5c0 a5b5 a290 a5b5 8634 9eb5 588e 0100
00000080: 2e89 0e80 9e8a 1100 f242 1200 e243 0200
00000090: 7572 0a80 86a3 0d00 54ed 0b80 1442 1080
000000a0: 1148 0b80 dc98 1080 a430 1380 0f55 0c80
000000b0: b5a0 34b7 53b2 6837 ad84 0d39 22a5 5738
000000c0: 764a 2b38 21c5 93b7 7896 afb7 ebd7 afb7
000000d0: c0d0 9fb7 8e48 1300 ac53 0080 b08b 1100
000000e0: da70 0a80 81a0 0780 a024 0180 89b5 0680
000000f0: ee23 0180 9845 0e00 7eb8 0080 bd0d 0c00
00000100: 2c11 1400 2b38 0800 bcda b3bd b5f2 4e3b
00000110: 754b 8f3b 79a2 073c 8ead ed3b e4b9 413d
00000120: ae54 a43c 851a 943c d794 153d 4186 0580
00000130: f2c1 0900 3d41 0e00 c91a 1580 c855 0500
00000140: 794d 0c80 89ec 0700 1fd1 0e00 9bb5 0400
00000150: 3c34 1500 4e87 0800 5488 0280 9773 0780
00000160: d6c1 b3b5 bf5b 6436 2b76 6eb6 4c66 db35
00000170: 3a5f 9635 f09c 11b6 71db 8cb5 8207 76b5
00000180: 08fb 02b6 633b 0580 f87f 0f00 2d3a 0580
00000190: d05e 1700 3211 0100 d6cc 0300 8b25 1880
000001a0: 6537 1600 f754 0580 6b3d 0980 5339 1600
000001b0: 0503 0f00 b23c 1080 4cea 8fb6 ee77 9735
000001c0: 548a 65b5 3402 f3b5 a7c7 9536 d688 dc36
000001d0: 9973 3d36 2efe a236 c05a 7935 063f 0a80
000001e0: 79b7 0980 cae2 0580 18e6 1500 7b69 0100
000001f0: b377 1280 c28a 0900 ec72 1300 4726 1980
00000200: 4682 0200 c262 1680 e292 1300 2e94 1480
00000210: dd96 3f38 9ac0 6836 2dd4 8436 b13a ce37
00000220: 42f6 9eb5 1da4 0c37 3c0e 65b7 58f2 69b7
00000230: 9e9d c8b5 2de8 1380 146d 0900 820d 0500
00000240: 5cae 1000 4ab1 0080 b106 0300 a8d0 0380
00000250: 6b3b 0480 bb68 0a00 3625 0b80 506d 0800
00000260: 5791 0880 d43a e902 fcc9 b3bd 75ec 4e3b
00000270: 1541 8f3b 6d9c 073c 8fa0 ed3b b7a7 413d
00000280: b545 a43c fe0c 943c e986 153d 08de 1400
00000290: 3344 1000 4737 1100 7fc7 0e80 8c8e 1200
000002a0: d6de 0880 400e 0600 c9bb 0080 fa29 0600
000002b0: e551 1200 0822 0100 20d6 0780 b177 0b00
000002c0: 39ce b3bd f7ed 4e3b c843 8f3b 049e 073c
000002d0: cfa3 ed3b 4cac 413d 7c49 a43c 6a10 943c
000002e0: 678a 153d c6f4 0100 8267 0b80 1943 0e80
000002f0: faa4 0e80 fdbf 1380 8151 1500 7da7 0b80
00000300: 3412 0f00 43ba 0f80 8ae0 1480 1aab 1480
00000310: 321a 0b80 ff50 0d80 f1d8 b3bd 20f2 4e3b
00000320: 4c4a 8f3b d2a1 073c 21ac ed3b ebb7 413d
00000330: 1853 a43c 0d19 943c 4f93 153d 24eb 0080
00000340: 06b0 1580 ae2c 0580 a214 0e80 5ab0 1580
00000350: e3f2 0600 9f07 0500 eaf9 0e00 1e67 0780
00000360: 742e 0180 0cf4 0900 9f8e 0b00 54dd 0a80
00000370: 83de b33d 30f4 4ebb cb4d 8fbb d9a3 07bc
00000380: 78b0 edbb 06be 41bd 1158 a4bc 961d 94bc
00000390: f797 15bd d1b1 0600 174c 0900 e133 0580
000003a0: a12b 0280 c3b0 0500 2745 1600 4b27 0580
000003b0: dca2 0a00 4644 1100 5bb4 1780 a791 1500
000003c0: 985f 0080 988c 0300 dad9 b33d 6af2 4ebb
000003d0: df4a 8fbb 24a2 07bc dfac edbb eab8 41bd
000003e0: e353 a4bc cd19 94bc 1494 15bd e051 0280
000003f0: 37ee 0c80 1853 0100 03a4 0a00 2cd1 0600

fc1.bias f4 [100]
0.10642237 9.405891e-07 1.4591137e-05 -0.10644012 1.9643041e-06 1.475068e-05 -4.4235712e-05 -0.10639768
-0.10640831 -0.1064355 0.10644975 0.106437825 4.3694343e-11 0.106445715 -0.10644919 0.10644883
-0.106449336 -0.106445305 0.00014314924 -0.10645509 -6.4160768e-06 3.0558855e-05 8.527859e-07 0.00051709614
2.3113802e-09 6.7211666e-05 -0.10643039 -0.10644321 -1.9241188e-06 0.10645394 -0.106422834 1.3957302e-05
-0.1062777 0.10643677 -0.10643468 0.10641657 0.106423646 -9.728527e-07 0.00017847834 -1.8323279e-08
-1.3106057e-06 -0.10642402 4.934288e-05 1.344259e-06 -8.195234e-06 0.10641034 0.10643845 -0.106442235
-1.318261e-06 -0.10644882 -0.10641859 -0.10644431 0.10643002 0.10642224 -1.07257534e-07 -0.10644761
0.00037922277 0.10642464 0.1064425 -0.10639071 0.10644989 -1.9091935e-08 0.10643493 -0.00034730314
0.106448404 4.7676814e-08 0.10641266 -0.106443524 0.10644313 -0.00010884169 8.38487e-08 0.10644546
0.10642497 -0.10644699 -0.10642928 0.10644209 0.10644354 -0.1064491 1.581783e-05 0.10640205
-3.6569625e-05 -6.973237e-05 9.215535e-06 0.106434904 -0.0005265394 0.106439315 1.1675619e-09 -3.34082e-07
0.1064457 -4.07431e-11 -5.537867e-06 0.10642326 -8.590999e-07 0.106450446 -0.10644033 0.10640827
-0.00025130043 0.00018635756 0.106387444 -0.10644192
00000000: f9f3 d93d ca7c 7c35 75cc 7437 47fd d9bd
00000010: 7dd2 0336 b079 7737 bc89 39b8 07e7 d9bd
00000020: 9aec d9bd dbfa d9bd 5402 da3d 13fc d93d
00000030: 752b 402e 3600 da3d 0802 dabd d801 da3d
00000040: 1c02 dabd ffff d9bd 551a 1639 2005 dabd
00000050: ae49 d7b6 522c 0038 00eb 6435 bc8d 073a
00000060: 3bd6 1e31 fdf3 8c38 2df8 d9bd e6fe d9bd
00000070: 1c20 01b6 8604 da3d 37f4 d9bd 282a 6a37
00000080: 1fa8 d9bd 85fb d93d 6dfa d9bd eef0 d93d
00000090: a4f4 d93d f792 82b5 ea25 3b39 5165 9db2
000000a0: 12e8 afb5 d6f4 d9bd 84f5 4e38 636c b435
000000b0: 437e 09b7 aaed d93d 67fc d93d 63fe d9bd
000000c0: 1aef b0b5 d701 dabd fdf1 d9bd 79ff d9bd
000000d0: fbf7 d93d e7f3 d93d 7455 e6b3 3401 dabd
000000e0: 6bd2 c639 29f5 d93d 87fe d93d 5fe3 d9bd
000000f0: 6602 da3d 9cff a3b2 8efa d93d 3d16 b6b9
00000100: 9f01 da3d 36c5 4c33 e1ee d93d 10ff d9bd
00000110: dbfe d93d f041 e4b8 4f10 b433 1400 da3d
00000120: 56f5 d93d e100 dabd 98f7 d9bd 4ffe d93d
00000130: 12ff d93d fc01 dabd 88b0 8437 51e9 d93d
00000140: 5662 19b8 483d 92b8 6c9c 1a37 8bfa d93d
00000150: 7607 0aba dbfc d93d ef77 a030 e15b b3b4
00000160: 3400 da3d a730 33ae ead1 b9b6 70f4 d93d
00000170: e59c 66b5 b102 da3d 63fd d9bd 94ec d93d
00000180: f9c0 83b9 fa68 4339 a9e1 d93d 39fe d9bd

fc2.weight f4 [100, 100]
-0.016104257 1.1388918e-06 2.4230616e-05 0.016106768 -4.7137888e-07 3.9405376e-07 7.415572e-07 0.01610075
0.01610226 0.016106114 -0.016108133 -0.016106445 4.785865e-11 -0.016107567 0.016108058 -0.016107999
0.016108071 0.016107498 7.010099e-06 0.016108902 -2.5328998e-06 6.988572e-06 -4.2340014e-07 -8.086197e-06
8.896828e-11 -5.844352e-06 0.0161054 0.016107205 -1.4750844e-07 -0.016108738 0.016104322 1.8895913e-05
0.016083665 -0.016106294 0.016106004 -0.016103435 -0.01610444 1.3430721e-06 1.4612403e-06 1.3670908e-08
2.5697293e-08 0.016104495 2.2097379e-06 6.6813163e-07 -1.1462352e-05 -0.016102552 -0.016106538 0.01610707
-3.95882e-09 0.016108 0.016103718 0.016107358 -0.016105348 -0.016104236 -6.978605e-08 0.016107824
-9.547257e-06 -0.016104583 -0.016107107 0.016099747 -0.016108155 -2.3254745e-07 -0.016106036 2.6798746e-06
-0.01610794 3.7801946e-08 -0.01610289 0.016107254 -0.016107196 1.4159853e-06 9.753287e-09 -0.016107518
-0.016104633 0.016107742 0.016105242 -0.016107047 -0.016107254 0.01610804 -0.0001820648 -0.01610138
-5.135474e-05 3.6726126e-06 -1.9038779e-06 -0.016106032 -0.00033909336 -0.016106661 8.646855e-10 -3.6641376e-07
-0.016107561 -3.7987304e-11 3.1373784e-07 -0.016104382 3.6913626e-08 -0.01610823 0.016106807 -0.016102256
-1.9637555e-06 -4.8365702e-05 -0.016099278 0.016107028 -0.016095875 1.13909e-06 2.4233505e-05 0.016098393
-4.700637e-07 3.9610478e-07 7.419902e-07 0.016092379 0.016093897 0.016097741 -0.016099747 -0.016098067
4.7875797e-11 -0.016099187 0.01609967 -0.016099613 0.016099695 0.016099125 7.02321e-06 0.016100513
-2.529391e-06 7.0094075e-06 -4.2355794e-07 -8.065008e-06 9.17274e-11 -5.8471505e-06 0.016097022 0.016098833
-1.4762637e-07 -0.01610035 0.016095934 1.8903338e-05 0.016075278 -0.016097926 0.016097628 -0.016095063
-0.016096056 1.3460049e-06 1.4706073e-06 1.365725e-08 2.5675588e-08 0.01609611 2.2078734e-06 6.6819194e-07
-1.1466203e-05 -0.016094178 -0.016098158 0.016098695 -3.98886e-09 0.016099619 0.016095344 0.016098984
-0.016096968 -0.016095858 -6.980818e-08 0.01609945 -9.53251e-06 -0.016096203 -0.016098728 0.016091375
-0.016099766 -2.3253509e-07 -0.016097663 2.677828e-06 -0.016099555 3.7821078e-08 -0.016094517 0.016098877
-0.01609882 1.4145706e-06 9.762405e-09 -0.016099153 -0.016096251 0.016099365 0.016096864 -0.01609867
-0.016098874 0.016099658 -0.00018199607 -0.016092993 -5.1361527e-05 3.6696845e-06 -1.9046323e-06 -0.016097663
-0.00033928783 -0.016098278 8.650121e-10 -3.6655572e-07 -0.016099183 -3.8002844e-11 3.1445245e-07 -0.016095998
3.691483e-08 -0.016099844 0.016098421 -0.016093886 -1.9715185e-06 -4.8388163e-05 -0.0160909 0.01609865
-0.016100442 1.1389842e-06 2.4231917e-05 0.016102955 -4.7078083e-07 3.9498758e-07 7.4175284e-07 0.01609693
0.016098447 0.016102301 -0.016104326 -0.016102627 4.786645e-11 -0.016103758 0.01610425 -0.016104193
0.01610427 0.016103692 7.016067e-06 0.016105082 -2.5313072e-06 6.9980497e-06 -4.234723e-07 -8.076564e-06
9.0223384e-11 -5.8456335e-06 0.01610158 0.016103394 -1.4756245e-07 -0.016104925 0.016100505 1.8899296e-05
0.016079849 -0.016102478 0.016102184 -0.016099622 -0.01610062 1.3444085e-06 1.4654898e-06 1.3664693e-08
2.5687374e-08 0.016100679 2.2088848e-06 6.681598e-07 -1.14641225e-05 -0.016098734 -0.016102718 0.016103262
-3.9725485e-09 0.016104195 0.016099906 0.01610355 -0.01610153 -0.016100422 -6.979624e-08 0.01610402
00000000: 13ed 83bc 06dc 9835 da42 cb37 57f2 833c
00000010: d211 fdb4 568e d334 6c0f 4735 b8e5 833c
00000020: e3e8 833c f8f0 833c 34f5 83bc aaf1 83bc
00000030: 0d7c 522e 04f4 83bc 0cf5 833c ecf4 83bc
00000040: 13f5 833c dff3 833c 4b38 eb36 d1f6 833c
00000050: e3fa 29b6 607f ea36 ac4f e3b4 f4a9 07b7
00000060: b0a4 c32e 9a1a c4b6 79ef 833c 42f3 833c
00000070: d062 1eb4 79f6 83bc 36ed 833c aa82 9e37
00000080: e4c1 833c 59f1 83bc bdf0 833c 5aeb 83bc
00000090: 75ed 83bc 9b43 b435 d61f c435 4add 6a32
000000a0: f2bc dc32 93ed 833c 024b 1436 a859 3335
000000b0: 6d4e 40b7 80e9 83bc dcf1 83bc f9f2 833c
000000c0: 2606 88b1 edf4 833c f2eb 833c 94f3 833c
000000d0: 5def 83bc 08ed 83bc 49dd 95b3 8ef4 833c
000000e0: 282d 20b7 c2ed 83bc 0df3 83bc 9ee3 833c
000000f0: 40f5 83bc 28b2 79b4 cef0 83bc e5d7 3336
00000100: ccf4 83bc ae5b 2233 35ea 83bc 5cf3 833c
00000110: 3df3 83bc e20c be35 698f 2732 eaf3 83bc
00000120: dded 83bc 62f4 833c 24ef 833c edf2 83bc
00000130: 5cf3 83bc 02f5 833c a6e8 3eb9 0be7 83bc
00000140: bb65 57b8 0177 7636 bf88 ffb5 ccf0 83bc
00000150: 57c8 b1b9 1ef2 83bc d5ae 6d30 86b7 c4b4
00000160: 01f4 83bc e711 27ae cd6f a834 56ed 83bc
00000170: f68a 1e33 68f5 83bc 6cf2 833c e1e8 83bc
00000180: 10c9 03b6 47dc 4ab8 a2e2 83bc e3f2 833c
00000190: 7fdb 83bc d6e2 9835 0e49 cb37 c7e0 833c
000001a0: 105d fcb4 3aa8 d434 2e2d 4735 2ad4 833c
000001b0: 59d7 833c 69df 833c 9ee3 83bc 18e0 83bc
000001c0: 5b8f 522e 71e2 83bc 75e3 833c 56e3 83bc
000001d0: 82e3 833c 50e2 833c eaa8 eb36 39e5 833c
000001e0: 9bbe 29b6 5a32 eb36 5c65 e3b4 f24e 07b7
000001f0: f0b5 c92e a432 c4b6 e7dd 833c b3e1 833c
00000200: 3a83 1eb4 e2e4 83bc 9fdb 833c 9c92 9e37
00000210: 4db0 833c ccdf 83bc 2cdf 833c cbd9 83bc
00000220: e0db 83bc 60a8 b435 af61 c535 39a1 6a32
00000230: 378d dc32 fddb 833c fa2a 1436 cd5d 3335
00000240: f85e 40b7 f0d7 83bc 49e0 83bc 69e1 833c
00000250: 620e 89b1 59e3 833c 62da 833c 04e2 833c
00000260: cadd 83bc 76db 83bc 74e9 95b3 fee2 833c
00000270: d2ed 1fb7 2fdc 83bc 7be1 83bc 0fd2 833c
00000280: a8e3 83bc c2ae 79b4 3fdf 83bc bcb4 3336
00000290: 37e3 83bc b770 2233 a6d8 83bc cbe1 833c
000002a0: ace1 83bc 47dc bd35 83b7 2732 5fe2 83bc
000002b0: 49dc 83bc d1e2 833c 92dd 833c 5ce1 83bc
000002c0: c9e1 83bc 6ee3 833c 33d6 3eb9 74d5 83bc
000002d0: 056d 57b8 b344 7636 aba2 ffb5 3fdf 83bc
000002e0: 71e2 b1b9 89e0 83bc d1c5 6d30 09cb c4b4
000002f0: 6fe2 83bc 6623 27ae 04d2 a834 c1db 83bc
00000300: 498c 1e33 d2e3 83bc d6e0 833c 53d7 83bc
00000310: 6e4e 04b6 65f4 4ab8 10d1 83bc 51e1 833c
00000320: 13e5 83bc 33df 9835 a545 cb37 58ea 833c
00000330: a0bf fcb4 ae0e d434 de1c 4735 b5dd 833c
00000340: e4e0 833c f9e8 833c 38ed 83bc a8e9 83bc
00000350: d584 522e 07ec 83bc 0fed 833c f1ec 83bc
00000360: 1aed 833c e4eb 833c 8e6b eb36 ceee 833c
00000370: 87df 29b6 cad0 ea36 9759 e3b4 9480 07b7
00000380: 4067 c62e 9c25 c4b6 76e7 833c 44eb 833c
00000390: a871 1eb4 7aee 83bc 35e5 833c ee89 9e37
000003a0: e3b9 833c 58e9 83bc bae8 833c 5be3 83bc
000003b0: 73e5 83bc 8671 b435 d9b1 c435 f5c1 6a32
000003c0: 22a7 dc32 92e5 833c 5a3c 1436 985b 3335
000003d0: 0856 40b7 7ee1 83bc d9e9 83bc fdea 833c
000003e0: e87e 88b1 f2ec 833c f3e3 833c 98eb 833c
000003f0: 5be7 83bc 08e5 83bc e4e2 95b3 94ec 833c

fc2.bias f4 [100]
-0.074595034 -0.07455277 -0.07457579 0.074571535 0.07458628 -0.0745928 0.074561946 0.07457573
-3.5451538e-11 -0.074577734 -0.07457004 0.074571766 0.07455483 0.074567564 -0.07457138 -0.07457552
-0.07459166 0.07457667 0.07457435 0.07457033 0.074589744 0.07457316 -0.0745168 -0.07457905
0.07449295 -0.074459195 0.07457688 -0.07458398 0.07457186 -0.0745607 -0.07459339 0.07456006
0.07455514 -0.07457434 -0.07457945 -0.07457064 -0.07457728 0.074571274 0.0745713 0.07454546
0.074566275 0.07458879 -0.07456919 -0.07454263 -0.07459449 -0.07453495 0.07455227 0.07455546
0.07456939 0.07457082 0.07456891 -0.074581996 0.07457502 0.074586004 0.074590065 -0.07457718
0.07456436 -0.07454858 0.07455024 0.074580245 -0.074536845 -0.07458877 0.0745697 -0.07457506
0.07457403 -0.0745688 -0.074567 0.0745872 -0.0745554 0.074593164 0.07457517 0.07453105
0.07455859 -0.07455191 -0.07455901 -0.0745869 0.07455984 -0.0745551 0.07455722 0.07457819
3.969921e-11 0.07456721 0.07458939 0.07456284 0.074560925 6.167579e-29 -0.0745756 -0.07452639
0.07456489 -0.074572586 -0.074589066 0.07450626 0.074558616 0.07456552 0.07458231 0.074563615
-0.07457614 0.07458994 -0.07455344 0.074565396
00000000: 48c5 98bd 1faf 98bd 31bb 98bd f6b8 983d
00000010: b1c0 983d 1cc4 98bd efb3 983d 29bb 983d
00000020: e2ea 1bae 36bc 98bd 2db8 98bd 15b9 983d
00000030: 34b0 983d e1b6 983d e1b8 98bd 0dbb 98bd
00000040: 83c3 98bd a7bb 983d 70ba 983d 54b8 983d
00000050: 82c2 983d d0b9 983d 449c 98bd e7bc 98bd
00000060: c38f 983d 107e 98bd c3bb 983d 7cbf 98bd
00000070: 22b9 983d 48b3 98bd 6bc4 98bd f2b2 983d
00000080: 5eb0 983d 6eba 98bd 1cbd 98bd 7eb8 98bd
00000090: f9bb 98bd d3b8 983d d6b8 983d 4aab 983d
000000a0: 34b6 983d 02c2 983d bbb7 98bd cea9 98bd
000000b0: ffc4 98bd c8a5 98bd dcae 983d 88b0 983d
000000c0: d6b7 983d 96b8 983d 96b7 983d 72be 98bd
000000d0: caba 983d 8cc0 983d adc2 983d ecbb 98bd
000000e0: 33b5 983d edac 98bd ccad 983d 87bd 983d
000000f0: c6a6 98bd ffc1 98bd 00b8 983d cfba 98bd
00000100: 45ba 983d 87b7 98bd 95b6 98bd 2dc1 983d
00000110: 80b0 98bd 4dc4 983d deba 983d bca3 983d
00000120: 2db2 983d acae 98bd 65b2 98bd 04c1 98bd
00000130: d4b2 983d 58b0 98bd 75b1 983d 73bc 983d
00000140: 5699 2e2e b2b6 983d 52c2 983d 67b4 983d
00000150: 66b3 983d e05d 9c10 18bb 98bd 4ba1 98bd
00000160: 7ab5 983d 83b9 98bd 27c2 98bd bd96 983d
00000170: 30b2 983d cfb5 983d 9cbe 983d cfb4 983d
00000180: 60bb 98bd 9cc2 983d 79af 98bd beb5 983d

fc3.weight f4 [1, 100]
-0.14624381 -0.1461548 -0.14620328 0.14619441 0.14622535 -0.14623906 0.14617412 0.14620316
5.4650756e-11 -0.14620733 -0.14619127 0.14619492 0.14615916 0.14618607 -0.14619409 -0.1462027
-0.14623661 0.14620511 0.14620027 0.14619184 0.14623271 0.14619777 -0.14607939 -0.14621001
0.14602928 -0.14595823 0.14620556 -0.14622043 0.14619508 -0.14617144 -0.14624031 0.14617011
0.1461598 -0.14620024 -0.14621086 -0.14619249 -0.14620635 0.14619386 0.14619395 0.14613965
0.14618331 0.14623071 -0.14618944 -0.14613368 -0.1462427 -0.14611733 0.14615381 0.14616044
0.14618987 0.14619294 0.14618884 -0.14621629 0.14620164 0.14622478 0.1462333 -0.14620617
0.14617918 -0.14614604 0.14614958 0.14621253 -0.14612128 -0.1462307 0.14619054 -0.14620174
0.1461996 -0.14618859 -0.14618488 0.1462273 -0.1461603 0.14623982 0.14620194 0.14610913
0.1461671 -0.14615306 -0.14616792 -0.14622672 0.14616965 -0.14615972 0.14616412 0.14620826
2.5878182e-11 0.14618531 0.14623195 0.14617592 0.14617193 -8.27502e-28 -0.14620289 -0.14609958
0.14618036 -0.14619653 -0.14623126 0.14605725 0.14616711 0.1461817 0.14621696 0.14617757
-0.146204 0.14623307 -0.14615624 0.14618142
00000000: f0c0 15be 9ba9 15be 50b6 15be fdb3 153e
00000010: 19bc 153e b1bf 15be abae 153e 48b6 153e
00000020: 485b 702e 60b7 15be 2ab3 15be 1fb4 153e
00000030: bfaa 153e cdb1 153e e7b3 15be 29b6 15be
00000040: 0dbf 15be cbb6 153e 86b5 153e 50b3 153e
00000050: 07be 153e deb4 153e d695 15be 14b8 15be
00000060: b388 153e 1376 15be e9b6 153e cfba 15be
00000070: 2ab4 153e f7ad 15be 05c0 15be 9ead 153e
00000080: eaaa 153e 84b5 15be 4db8 15be 7cb3 15be
00000090: 1eb7 15be d8b3 153e deb3 153e a2a5 153e
000000a0: 14b1 153e 81bd 153e afb2 15be 11a4 15be
000000b0: a5c0 15be c89f 15be 58a9 153e 15ab 153e
000000c0: ccb2 153e 9ab3 153e 87b2 153e b9b9 15be
000000d0: e2b5 153e f3bb 153e 2fbe 153e 12b7 15be
000000e0: ffaf 153e 4fa7 15be 3ca8 153e bdb8 153e
000000f0: d1a0 15be 80bd 15be f9b2 153e e9b5 15be
00000100: 59b5 153e 76b2 15be 7db1 15be 9cbc 153e
00000110: 0cab 15be e4bf 153e f6b5 153e a29d 153e
00000120: d4ac 153e 26a9 15be 0bad 15be 75bc 15be
00000130: 7fad 153e e5aa 15be 0cac 153e 9eb7 153e
00000140: 7ca0 e32d 9ab1 153e d4bd 153e 24af 153e
00000150: 18ae 153e 781f 8392 36b6 15be 219b 15be
00000160: 4eb0 153e 8bb4 15be a6bd 15be 0890 153e
00000170: d5ac 153e a8b0 153e e6b9 153e 93af 153e
00000180: 80b6 15be 1fbe 153e fba9 15be 95b0 153e

fc1.weight f4 [100, 24]
0.007167626 0.2426757 0.00076224154 -0.12568714 0.06629611 0.014477391 0.21781811 -0.05775353
-0.035690177 0.20241627 -0.14398131 -0.0024333447 -0.14169621 -0.00915131 -0.14087927 0.06269115
-0.13647278 -0.1583248 -0.1385667 0.10256636 -0.13812408 0.11649823 0.043114014 0.21518971
0.083066426 0.060572956 0.06056138 -0.116527565 -0.13701625 -0.18449195 -0.25629953 -0.2567544
-0.12562387 0.13403228 0.13753918 0.017171368 -0.074147254 -0.12939623 0.06618303 0.0015245974
0.1549465 -0.018191263 -0.052954108 -0.15728387 -0.11138475 0.03529789 0.17642392 -0.094006464
0.25631014 -0.029159606 -0.1236141 0.053996805 0.21291003 0.014535775 -0.024002492 0.044207815
0.15993384 -0.20040648 0.032572165 -0.030533522 0.014382333 -0.04103847 -0.07231605 -0.04327856
-0.056316003 -0.13460654 -0.17300546 -0.20299849 -0.08378723 -0.14194463 -0.14471705 0.10918281
0.08573847 -0.16279873 0.053324815 -0.13031086 0.021212997 0.117340766 -0.1726467 -0.12733565
-0.08455137 -0.1723868 0.16095951 0.18680397 -0.19828513 0.10636082 0.17428097 -0.04985395
-0.023952872 0.068677515 0.094787866 0.14626116 0.07196146 -0.037950534 -0.12275396 -0.07346411
-0.031415697 0.004634546 -0.01863922 0.02370595 -0.15885688 -0.1254 -0.056686126 -0.20303492
-0.110869594 -0.16513778 -0.19292879 -0.029473335 0.17257363 -0.013961151 -0.0014872104 -0.008670226
-0.006540939 0.15454754 -0.06687158 -0.10976623 0.18435624 -0.021737413 0.029039135 0.18269552
-0.15021497 -0.0766407 -0.11198708 -0.16259922 0.012006818 -0.26049864 -0.10507438 -0.07088514
-0.024416432 0.07399571 0.17244154 -0.077443585 -0.17254117 0.025175333 0.14958793 -0.027063087
0.16056183 -0.09650545 -0.07253313 -0.06343526 -0.0643675 0.18428259 0.04264451 -0.012911291
-0.19305459 -0.033662107 -0.12642366 -0.20082393 0.00952084 0.17768258 -0.11878314 -0.13280803
0.12196029 0.18290865 -0.1933351 -0.13922754 0.20048076 0.15442643 0.02912882 0.10926178
0.021771029 -0.11778597 -0.11758044 0.17305288 0.0101043135 0.08971694 0.062128715 0.05805199
0.12216361 0.13401273 -0.11099733 0.03129326 0.18834157 0.051961824 0.18435179 0.19974063
0.08505108 -0.113425456 0.07349771 0.08169246 -0.011307627 0.16403002 -0.079631485 0.032361984
-0.152095 -0.116669714 -0.08722923 -0.053563714 -0.17439996 0.04800509 -0.06312237 -0.13133894
0.0021104875 0.14813681 0.12361291 0.08743176 0.09865212 0.10824503 0.029462641 0.11387049
0.08867088 0.1816127 0.1742895 0.048463494 -0.04423082 -0.18074106 -0.033203706 0.20353648
0.15871239 0.16041413 -0.0751777 -0.030540332 0.12533009 -0.028167699 0.06491642 -0.09099097
-0.08879736 0.081789486 0.051000666 0.17614464 -0.15202457 0.10547251 0.13100399 0.14836842
-0.019417068 -0.031300157 0.19015121 -0.12310607 0.09083539 -0.1886134 0.0072486997 0.048635185
0.05266142 -0.13044904 -0.11696787 0.08488697 0.14126459 0.009294756 0.018246539 -0.17603359
-0.13526453 0.0076401033 0.009090664 0.09401477 -0.14566931 -0.22718589 -0.18508738 -0.2886889
-0.18080986 -0.06176637 0.022790238 -0.0917225 0.015389383 0.13056195 0.058306754 -0.042467758
00000000: 68de ea3b fb7f 783e 2ad1 473a 21b4 00be
00000010: 41c6 873d 9432 6d3c b60b 5f3e f78e 6cbd
00000020: dd2f 12bd 3646 4f3e d66f 13be c078 1fbb
00000030: d018 11be 60ef 15bc a842 10be 3864 803d
00000040: 85bf 0bbe e51f 22be 6ee4 0dbe 500e d23d
00000050: 6670 0dbe a096 ee3d 5298 303d b15a 5c3e
00000060: bb1e aa3d 591b 783d 360f 783d 01a6 eebd
00000070: fd4d 0cbe 75eb 3cbe b139 83be 5075 83be
00000080: 8ba3 00be c23f 093e 12d7 0c3e f8aa 8c3c
00000090: 84da 97bd 7280 04be f88a 873d 00d5 c73a
000000a0: 4caa 1e3e d805 95bc 68e6 58bd 060f 21be
000000b0: b01d e4bd 8594 103d 79a8 343e 7686 c0bd
000000c0: 153b 833e 20e0 eebc 6429 fdbd c12b 5d3d
000000d0: 1605 5a3e 7627 6e3c e0a0 c4bc 4113 353d
000000e0: b2c5 233e 5b37 4dbe 646a 053d 7021 fabc
000000f0: e0a3 6b3c f417 28bd 701a 94bd dc44 31bd
00000100: 9cab 66bd 4cd6 09be 5828 31be d6de 4fbe
00000110: a498 abbd ef59 11be b530 14be 3d9b df3d
00000120: a797 af3d b6b4 26be 1f6b 5a3d 3670 05be
00000130: e1c6 ad3c 5b50 f03d 4cca 30be 4764 02be
00000140: 4529 adbd 2a86 30be 92d2 243e 8a49 3f3e
00000150: 420b 4bbe b4d3 d93d b676 323e a833 4cbd
00000160: d038 c4bc cca6 8c3d 2420 c23d 7cc5 153e
00000170: 8860 933d 0572 1bbd 6e66 fbbd 5a74 96bd
00000180: bfad 00bd 64dd 973b 47b1 98bc fb32 c23c
00000190: 61ab 22be dc68 00be b62f 68bd 63e8 4fbe
000001a0: 990f e3bd e119 29be 208f 45be 1072 f1bc
000001b0: 24b7 303e 50bd 64bc 80ee c2ba 900d 0ebc
000001c0: 6055 d6bb b641 1e3e f8f3 88bd 1ecd e0bd
000001d0: e2c7 3c3e a912 b2bc 7be3 ed3c 8914 3b3e
000001e0: f4d1 19be cdf5 9cbd 7b59 e5bd 6980 26be
000001f0: 3fb8 443c 1460 85be 3d31 d7bd 3a2c 91bd
00000200: f804 c8bc 108b 973d 8494 303e be9a 9ebd
00000210: a2ae 30be 803c ce3c 942d 193e 68b3 ddbc
00000220: 526a 243e a6a4 c5bd 408c 94bd 58ea 81bd
00000230: 1cd3 83bd 93b4 3c3e 02ac 2e3d e189 53bc
00000240: 1ab0 45be 47e1 09bd 3475 01be caa4 4dbe
00000250: 4cfd 1b3c 6cf2 353e 9344 f3bd d4fe 07be
00000260: 51c6 f93d 684c 3b3e a3f9 45be aa91 0ebe
00000270: d44a 4d3e f621 1e3e 909f ee3c a4c4 df3d
00000280: 2859 b23c c539 f1bd 04ce f0bd c634 313e
00000290: 908c 253c 84bd b73d ae7a 7e3d ecc7 6d3d
000002a0: ea30 fa3d a23a 093e 9152 e3bd 5d2d 003d
000002b0: 9ddc 403e ecd5 543d b7c6 3c3e cf88 4c3e
000002c0: 432f ae3d 9b4b e8bd f885 963d 604e a73d
000002d0: a043 39bc 7cf7 273e d515 a3bd 008e 043d
000002e0: cbbe 1bbe 88f0 eebd 3da5 b2bd a065 5bbd
000002f0: e795 32be fca0 443d 4d46 81bd b77d 06be
00000300: 1b50 0a3b 2db1 173e c428 fd3d 6c0f b33d
00000310: 1f0a ca3d 92af dd3d a35b f13c ee34 e93d
00000320: 1499 b53d aef8 393e f278 323e a881 463d
00000330: 602b 35bd 2f14 39be 9c00 08bd de6b 503e
00000340: 8085 223e 9a43 243e c4f6 99bd b82f fabc
00000350: 8856 003e f2bf e6bc e6f2 843d 7959 babd
00000360: 64db b5bd 3f81 a73d 13e6 503d 435f 343e
00000370: 54ac 1bbe f901 d83d e925 063e e4ed 173e
00000380: 8b10 9fbc 9834 00bd 00b7 423e 091f fcbd
00000390: e807 ba3d df23 41be 8086 ed3b b035 473d
000003a0: 80b3 573d 6f94 05be da8c efbd 38d9 ad3d
000003b0: aaa7 103e 0849 183c c479 953c 2642 34be
000003c0: c982 0abe d559 fa3b 02f1 143c d18a c03d
000003d0: 562a 15be 6ba3 68be 8c87 3dbe 08cf 93be
000003e0: 3826 39be bcfe 7cbd 98b2 ba3c 02d9 bbbd
000003f0: c023 7c3c 08b2 053e 10d3 6e3d acf2 2dbd
