gail/save_model/0/SUB015_ckpt_0.pth.tar (torch_old, 154734 bytes, 16 tensors)

fc1.weight f4 [100, 22]
00000000: db28 b6bd 9f04 6b3d e2c7 173e a727 5fbe
00000010: c52c 563d 8cc4 973e 666a d03d 5165 aa3e
00000020: 535a be3e 4c25 023e 003e 8ebc 3886 2e3e
00000030: 4eb4 d8bd 184a e23c 9825 4dbe c06f 223d
00000040: 7025 723d 4033 0fbc 78f1 333d bc58 cd3d
00000050: dc39 e33d 2212 293e 427f 593e 79ce 61bd
00000060: c2c6 a2be dc49 423e f70b 593d 3cfd 9ebe
00000070: f68e 67be 50d5 27bd 66bc 83be 60a0 82bc
00000080: 80ca d93d 428d 403e 8245 3fbe 08aa 563d
00000090: c87c 253e 885d 423d e0f2 743d 8098 4abe
000000a0: 60d8 13bd e859 d7bd 4c4c 0a3e c495 50be
000000b0: 5df8 30bd 97a9 c73e 64d3 df3d 0874 96be
000000c0: 9f0a c5bc f6ca 9f3e 93c7 d33d a1cb 5f3e
000000d0: e577 d83e f4e6 823d 80e2 423d e2fd 343e
000000e0: 2aac 90bd e061 00bd 386a f13d f2de 593e
000000f0: b48a 903d 702e 3f3d 2bd9 cdbd 00e4 5a3c
00000100: 0899 e8bc 707d b63c 8d60 943d 9848 cabe
00000110: ed07 2e3e fc0e 06bc 74fb e5be c115 f1be
00000120: 2c55 09be a9a1 a4be 5c14 9dbe 01da dabd
00000130: 33e9 1abe c8ad 403d 1ac7 463e 45c5 ebbd
00000140: 808b c0bd b850 243e 7c20 8a3d 961e 3c3e
00000150: 3081 b13c 5c39 07be 3e95 283e c202 4d3e
00000160: 9773 00bb 5be7 d1bd 6363 4abe 20ea d4be
00000170: 7bdf 05bb d3f2 253e db92 0e3e 34b0 e7bd
00000180: 5da4 633e 24fa f9bd 820d 0b3e e06a ae3b
00000190: 20b2 ac3d 888f b9bc 6854 bc3d 7659 283e
000001a0: edcf 41be 04e5 043e 28a2 423e 8c7a fa3d
000001b0: b053 d03d 2465 3abd 7aca 1ebe 516d 19bd
000001c0: df57 1fbe 9a78 b2be a8a0 d1bd e575 8a3e
000001d0: 8c4b 62bc cf6e 7b3e 1d4e 293e 0c99 f63d
000001e0: 487b 25bd ba00 a4bd a8b9 24bd a814 703d
000001f0: 902a 173d 588b 543e 0467 453e dc31 033d
00000200: b850 0abd 94d6 07bd 8032 6ebd b81f ed3d
00000210: fb72 eb3c 74a3 b93e 6834 41be b0b0 ef3e
00000220: e3bc e5bd 536d 7dbd 8019 dd3c 113b 76bd
00000230: f6c9 1c3e 8093 c03a 4cbd b63d 342d bd3d
00000240: 50d3 b03d c7cf 02be 12a7 093e 00fa 77bd
00000250: 2c53 57bd d054 a33c 2a1e 173e 3e4a 1c3e
00000260: c89a 9cbd 403c 893b 8eee 47be 5f1a babd
00000270: 6ad5 bc3d 6040 0d3f 22c9 1b3e 623e 263e
00000280: fe69 d63e d10c c83e 29bd 663e 2045 303c
00000290: 6469 d23d d4ac 13bd cb67 e9bd a4c0 a73d
000002a0: b056 dc3d 96a3 0f3e 90b3 243d cb31 e2bd
000002b0: 58ee 69bd b0e6 093e 9c95 ae3d b4a8 54bd
000002c0: e1c9 273e 831c e3bd 5619 6ebd 6e02 10bc
000002d0: 30db c3bc 13e5 9f3e 49c6 1abd dcff a13e
000002e0: 17d6 9a3e 5890 033e ec6e 443e c08f 013b
000002f0: 27be 2cbe d8c9 973c b9b8 58be 08d4 063d
00000300: dec1 0fbe 045e f63d c46a e23d 14c8 41bd
00000310: d033 e9bd 9783 fcbd 82aa 1a3e bade 3c3e
00000320: 129b 373e 5952 5abe cd97 773e 0893 adbd
00000330: fb24 69be 94a6 31be 5f6e a3be 38ec 2dbe
00000340: 1c9c 4d3e 3869 b5bd 3408 413e 73e1 31be
00000350: 30c1 1c3d 4c28 493e ced6 56be 86ef 38be
00000360: 415d 1cbe 881b fbbc f030 533d f635 48be
00000370: 550b 7cbe a964 a83e 15d6 4e3c 778d 613d
00000380: c4a6 943e a210 d03d e703 5eba 7f1c 8c3d
00000390: d9fc c13d 986b 91bd 6d15 38be 947b 213e
000003a0: 6840 af3c 6ca1 f83d cc89 0b3e 4ca5 473e
000003b0: 051b 31be ff48 c4bd a8a7 6c3d a843 29bd
000003c0: 8868 ef3d 202c 83bc edbd 01bb b82c fcbd
000003d0: 8fb9 d1bd 70e3 f53c d9e1 843e bce1 c73e
000003e0: 86b1 0a3e 7c15 3d3e 9119 513e f475 8c3d
000003f0: 52f6 4bbe 921a 0f3e 50b4 403d 14b5 073d
-0.08894511 0.057377454 0.14822343 -0.2179247 0.05228879 0.2964214 0.10176544 0.33280423
0.37178287 0.1270954 -0.017363548 0.17043388 -0.105812654 0.027623221 -0.20033872 0.039657354
0.059117734 -0.008740246 0.043931454 0.1002669 0.1109502 0.16510823 0.21239951 -0.05512855
-0.31792265 0.18973488 0.052989926 -0.31052577 -0.22613129 -0.040974915 -0.25729674 -0.015945613
0.10634327 0.18803886 -0.18678859 0.05240825 0.16160882 0.04745248 0.059801936 -0.19784737
-0.036095023 -0.10515195 0.13505667 -0.20369631 -0.043205608 0.38996574 0.109289914 -0.293854
-0.024052916 0.31209534 0.103408 0.21855022 0.42278972 0.06391707 0.04757929 0.17674974
-0.07064088 -0.03134334 0.11787838 0.21276453 0.070577055 0.046675146 -0.10051187 0.0133600235
-0.028393283 0.02227661 0.07244978 -0.3950851 0.16995211 -0.0081822835 -0.44918406 -0.4708691
-0.13411397 -0.32154587 -0.30679595 -0.10686112 -0.15128021 0.04704073 0.19411889 -0.115122356
-0.094016075 0.16046417 0.06744477 0.18371043 0.021668047 -0.13205475 0.16463181 0.20020583
-0.0019600147 -0.10249206 -0.19764476 -0.41584873 -0.0020427394 0.16205911 0.13923208 -0.11312905
0.22230668 -0.12205914 0.13579372 0.005322799 0.08432412 -0.022651449 0.09195787 0.16440377
-0.18926974 0.12977988 0.1900717 0.12230405 0.10172212 -0.04550661 -0.15506926 -0.037457768
-0.15560864 -0.34857637 -0.10235721 0.2704307 -0.013811957 0.24553989 0.16533704 0.1204091
-0.040400773 -0.08007951 -0.040216118 0.05861345 0.036905825 0.2075628 0.19277579 0.03202997
-0.033768386 -0.033163622 -0.05815363 0.115783155 0.02874135 0.36257517 -0.18867648 0.4681449
-0.11217668 -0.061871838 0.026989698 -0.060114924 0.15311417 0.0014692396 0.08922824 0.092371374
0.08634055 -0.12774573 0.13442639 -0.060541153 -0.052569553 0.019937903 0.147576 0.15262696
-0.0764671 0.0041880906 -0.19524595 -0.09087061 0.09220393 0.55176353 0.15213445 0.16234735
0.4187774 0.39072278 0.22533096 0.010758668 0.10274008 -0.036053494 -0.1139675 0.0819104
0.10758722 0.14027247 0.040210307 -0.110446535 -0.057112068 0.13466907 0.085246295 -0.0519187
0.16385604 -0.110894226 -0.05812963 -0.008789642 -0.023908228 0.31229457 -0.037786756 0.31640518
0.30241463 0.12848032 0.19182938 0.001976952 -0.16869412 0.018528864 -0.21164216 0.032917053
-0.14038798 0.12029651 0.1105552 -0.04730995 -0.113868356 -0.12329786 0.15104106 0.18444338
0.17930248 -0.21320476 0.24179001 -0.084753096 -0.22768013 -0.17348701 -0.31920144 -0.16984642
0.20079082 -0.088579595 0.18850785 -0.17371158 0.038270175 0.19644278 -0.20980379 -0.18060121
-0.15269949 -0.030652776 0.051560342 -0.19551834 -0.24613698 0.32889298 0.012624283 0.055066552
0.29033482 0.101594225 -0.00084692094 0.06841373 0.09472055 -0.071006 -0.17976923 0.15769798
0.021393016 0.12140164 0.13626784 0.1949665 -0.17295463 -0.095842354 0.057777077 -0.041324288
0.1168986 -0.016012251 -0.0019797042 -0.12313217 -0.102404706 0.030015677 0.25953558 0.3903941
0.13544282 0.18465227 0.20419909 0.06858435 -0.19918182 0.1397498 0.04704696 0.033131674

fc1.bias f4 [100]
00000000: 4ef1 47be 5ebb 423e 2588 23be d52d 313e
00000010: 7e38 1cbd 4cf1 94be 6952 24be ed0d 2ebe
00000020: e7ca 77be 81bf 773e a599 bcbc 247f c5be
00000030: 3662 373e b64c f03c f598 3e3e d219 a8bd
00000040: 3d4c 72bc 4637 f33d 3a16 363e 0041 823e
00000050: c060 0abe b8b3 abbe fb20 4abe 0efc 4c3e
00000060: 0444 983e e1c6 b7be c74c 8f3e 3db1 bebe
00000070: b468 8e3e 983b dcbd ee4f 4a3d 84fa 5cbd
00000080: 8b74 03be 0db4 9bbd 7660 6ebd 08d5 a9be
00000090: 33ea 48be 88a8 1bbe 9944 85be ab14 883e
000000a0: e627 44be 1150 75be 61e3 80be 6a94 393d
000000b0: 9fff 803e adfd 7abe 7104 7dbe 45d5 54be
000000c0: 292d 723e 5f47 39be 20fc 52bd 4068 a63e
000000d0: 24c0 70be 3b64 a2be 0adc 893e c1af 67be
000000e0: 63f9 35be 2faa 07bf 45e9 d23d 9aed 243c
000000f0: f296 723e 5be1 25be a4df 283e c5ad eb3c
00000100: eb19 95be a595 8d3e 99c1 003e f5bd c33e
00000110: af28 b23e 9628 1c3e a4c0 66be d658 103d
00000120: 7248 a4be 079b 8c3e b993 71be 7127 6ebe
00000130: 927c c33d 1f77 5c3e 95b3 f5bd a6ea e1be
00000140: e91d a3be 5610 9fbe 7c5c 803e 59b4 403e
00000150: 0cdf 42be bb97 763e 5000 6fbe 47d5 193e
00000160: bcdb a73d 24e7 823e e283 553d 57a7 74be
00000170: ac64 f93d d63a 813e 2c40 76bd 7989 e4bc
00000180: 62c1 76bd 25b5 ad3e 8cd4 bc3e 84d9 03be
-0.19525644 0.19016787 -0.15969904 0.1730264 -0.038139813 -0.29090345 -0.16047062 -0.169975
-0.24198495 0.24194147 -0.023022482 -0.38573563 0.17908558 0.029333454 0.18613036 -0.0820805
-0.014788684 0.11875777 0.17781916 0.25440216 -0.1351347 -0.33535552 -0.19739144 0.20018026
0.29739392 -0.3589392 0.27988264 -0.37244597 0.27814257 -0.10753554 0.049392633 -0.053949848
-0.12837426 -0.07602701 -0.05819746 -0.33170342 -0.1962059 -0.15201008 -0.26028898 0.26578268
-0.19155845 -0.23956324 -0.25173476 0.045307554 0.25195023 -0.24510832 -0.24708726 -0.20784481
0.2365004 -0.18093632 -0.051509976 0.3250141 -0.23510796 -0.31717095 0.2692569 -0.22625639
-0.17770915 -0.52994055 0.10298399 0.010066414 0.23690394 -0.16199248 0.16491562 0.028769383
-0.29121336 0.27653232 0.12573852 0.38230863 0.34796664 0.15249857 -0.22534424 0.03524097
-0.3208652 0.27462026 -0.23591508 -0.23257233 0.09545244 0.21529816 -0.11997143 -0.44124335
-0.31858757 -0.3106715 0.2507056 0.18818797 -0.19030398 0.24081318 -0.23339963 0.15022765
0.08196208 0.2556697 0.052127726 -0.2389196 0.12177405 0.252402 -0.060119793 -0.027897583
-0.060243018 0.33927265 0.3688091 -0.12875944

fc2.weight f4 [100, 100]
00000000: 6127 89be a7da 253e 90a4 f1be fc91 143e
00000010: e164 d2bc f226 a7be 3e41 d4be 01e9 f13d
00000020: b324 5cbe b643 d03d e37b 93bc 28cf 223d
00000030: 0e71 87bd bf67 733d c98e 073e f01e fa3d
00000040: 440c 1b3c d863 043d 04bf 1a3e 34a2 1d3f
00000050: f5ff 3fbe 58a2 c4be 9811 4e3c 6de1 97bd
00000060: 8298 c23e 8199 17be 327d 143d e49b 5abe
00000070: cfa1 3e3e 142d 4cbe 6cd2 083d dce4 203e
00000080: b673 d23c d700 4dbe 1a98 85be 194b 14be
00000090: 6ec5 a3be da0f 24bc 4f56 fabc ebd2 003f
000000a0: b36d 51bb 2a13 6fbe 85d5 46be 0a34 9b3d
000000b0: 4997 793e 8baa 02be 2950 3bbe ed0f 863d
000000c0: c032 ddbb 1f32 99be c93e 533d e4d3 373e
000000d0: d620 1a3d 6a5e bd3c a69d 4d3e a3a2 94b8
000000e0: 9189 6bbe d30e 7dbe d6cf 8e3d 2192 a3be
000000f0: 4874 f53c 9a81 febe c68f 0e3f 9dac a73e
00000100: a562 fdbe e441 2c3d 9cda 7cbc f7d3 033f
00000110: 232c 243e 83f8 0dbd f48e 50be bbce 27be
00000120: 177b b5bd 7f0a 683e 1aab 37be bec4 92bc
00000130: 747d 033f cbe6 383e eeb6 24bd 11de 28be
00000140: 4f92 61bc 762b 16bd 0ee4 303e fbdc 0f3f
00000150: 62b1 1fbd dc84 983d 6737 95be ed85 703d
00000160: 5d18 d9bd 10d4 513e 8bc3 a83c 29db 8abe
00000170: 951f b03d 8378 b73e 8113 5abe b192 643b
00000180: de12 9abe 3f73 803e 5158 033e f93b 07bd
00000190: b96a bdbe 7ddd 7f3d a045 e7bd 6c07 38bd
000001a0: 87b1 e9bd 4e12 d9be 63fd 6a3d ec4a a2bd
000001b0: 4fb1 c5be 7aa5 b13e 5349 09be e248 c9be
000001c0: 1ec1 3a3e bfa8 ca3d 52a7 c33d 7a33 b5bd
000001d0: 7a81 8ebe 6da8 9d3e 5e74 8f3e 54e3 1d3e
000001e0: 07a4 ebbc 7fb4 94bd 1541 b93d a5b5 293e
000001f0: 2fe5 133f f876 ab3c 7689 e33c 9ffd b6be
00000200: d577 f53d 3960 90bd 9839 c53d 88a0 3cbe
00000210: 9432 76bd e90c c83b a48b cebd 7718 a7be
00000220: 139f c7bd 5e57 f5bc c8ba 32be 371a 943d
00000230: e76c a3be 347c c1be 65b2 83be 366f 95be
00000240: 76bf 943e 1d17 12be ae37 a2bd 740f b5be
00000250: f923 7c3e f11b aabe 47ea f73c 22c9 f73c
00000260: 9ca5 babe c0bd a7be 1fb4 983e 42bb 9cbd
00000270: faf7 fcbe ed3e a8be 5082 253d a127 42bd
00000280: 9346 e73e f4ba fdbd 5e12 353e 3da7 2b3e
00000290: c8ed 2bbe 7738 d33e e5ee d93d 8d21 763e
000002a0: 59bc 103e 43fd 833e 734a 99be 6d16 edbd
000002b0: 58a2 7d3c d224 1bbd c20a 23bd 1dcd c9bd
000002c0: cc63 973d 8b3a c33e ab45 33be 6abf 2bbe
000002d0: aede 80be 5fca a6be 676b a23e 46bf 203e
000002e0: 0a64 6cbd 41f3 b73e 100d f2bd 8f59 ef3d
000002f0: 2156 b3bb 8897 de3d c85f 5abd 025f 6abd
00000300: 6623 283e 8f26 e83e 608d 14be b668 1a3d
00000310: 4ab5 303e cb6c 913e 5e04 e03d 8318 fabd
00000320: bef0 be3c 40b0 e7bc 7e6e 5ebc 2cfd a7be
00000330: 6ece 75bf fdd2 37be 0ecb c33e 77cc 113f
00000340: 54a7 02be 75ce bebd f0c6 fa3e 0314 0d3e
00000350: 0661 843e 5ebb e53e 49bc 073f 5614 053f
00000360: 576e 70bf 12d8 093f 88f0 44bd 4b14 2dbd
00000370: 0594 c43e 3652 313e b3ea f73e f90e 363f
00000380: d453 c93f 8bd0 e13e 6561 d1be e0a0 1c3e
00000390: 841d 99bb da68 2a3c ad3a efbe a29f df3e
000003a0: 442e 1fbf b710 cf3e 25e3 d53d 1b1b 843e
000003b0: 2e85 cb3e c910 ef3e 7a68 e9bd 8c99 80bd
000003c0: f622 603d 2289 933d e11f 74bf a277 80be
000003d0: 7dfc ba3e 50f5 ab3e afb9 0c3e 211b 023e
000003e0: 45fb 433f 9e33 84bc 806f 51be f96d 97bd
000003f0: f81f a6be 2faf b6bd 8d0b b63e a9b7 e0be
-0.26787856 0.1619669 -0.47195864 0.14508814 -0.025682868 -0.326469 -0.41456026 0.1181202
-0.21498375 0.10169165 -0.01800341 0.03974834 -0.0661336 0.05942511 0.13238062 0.12212932
0.009463374 0.03232178 0.15111929 0.6157563 -0.18749984 -0.38405108 0.012577437 -0.074160434
0.3800698 -0.14804651 0.036252208 -0.2134853 0.18616413 -0.19939071 0.0334038 0.15712303
0.02568994 -0.20019852 -0.26092607 -0.14481772 -0.31986564 -0.010013545 -0.030558733 0.50321835
-0.0031956255 -0.23347154 -0.19417389 0.07578285 0.24374117 -0.1276037 -0.18292297 0.06546006
-0.0067504346 -0.29921052 0.05157355 0.17951924 0.03762897 0.02311631 0.2007967 -7.0874834e-05
-0.23001696 -0.24712686 0.06973235 -0.31947425 0.029962674 -0.49708253 0.5568813 0.3274888
-0.49489322 0.042055026 -0.01543298 0.5149531 0.16032462 -0.034660827 -0.20367032 -0.16387455
-0.08861368 0.22660254 -0.17936364 -0.01791608 0.513633 0.1805679 -0.040213518 -0.16490962
-0.013767793 -0.03666254 0.17274496 0.56196564 -0.038987525 0.07447216 -0.2914383 0.05872147
-0.1060035 0.20491052 0.020601055 -0.2712033 0.08599774 0.3583413 -0.21296503 0.0034877474
-0.3009252 0.25087926 0.12826659 -0.03301618 -0.36995485 0.062467087 -0.11292577 -0.044928953
-0.11410814 -0.42396778 0.057370555 -0.079244465 -0.38611838 0.3469656 -0.13406877 -0.39313418
0.18237731 0.09895467 0.09553398 -0.08847709 -0.27833158 0.3079256 0.2801847 0.1541875
-0.028764738 -0.072609894 0.090456165 0.16573198 0.5777158 0.020930752 0.027775507 -0.35740373
0.11985747 -0.07049603 0.09630126 -0.18420613 -0.06010683 0.0061050546 -0.10085228 -0.32635853
-0.09747138 -0.029948886 -0.17454064 0.072315626 -0.31919023 -0.37790072 -0.25722042 -0.2918641
0.29052323 -0.1426663 -0.07920776 -0.35363352 0.24623097 -0.33224443 0.03026308 0.030247275
-0.36454475 -0.32761955 0.2982492 -0.07652904 -0.4940794 -0.3286051 0.04040748 -0.047401074
0.4517103 -0.12389174 0.17682788 0.16763015 -0.16789925 0.41254017 0.10641269 0.24036236
0.14134349 0.2577916 -0.29939613 -0.11576543 0.0154806 -0.03787691 -0.03980518 -0.098535754
0.073920816 0.38130602 -0.17507045 -0.16772237 -0.2516989 -0.32576272 0.31722566 0.15697965
-0.057712592 0.35927776 -0.11818898 0.11687004 -0.005472914 0.10868746 -0.053314 -0.057219513
0.16419753 0.45341918 -0.14507055 0.037697516 0.17256656 0.28403315 0.10938333 -0.122117065
0.023308154 -0.028282285 -0.013576148 -0.32810342 -0.9601811 -0.1795158 0.38240856 0.56952614
-0.12759143 -0.09316722 0.48979902 0.13777165 0.25855273 0.44869512 0.53021675 0.51984155
-0.93918365 0.5384532 -0.04808095 -0.04225568 0.3839418 0.17316517 0.4842125 0.71116596
1.5728707 0.44104418 -0.4089462 0.15295744 -0.004672708 0.010400975 -0.46724454 0.43676478
-0.6217997 0.4044244 0.10443715 0.2580193 0.39750046 0.46692494 -0.113968804 -0.06279287
0.05472084 0.072038904 -0.95361143 -0.25091273 0.36520758 0.33585596 0.13742708 0.12705661
0.7655528 -0.016137894 -0.2045269 -0.073940225 -0.32446265 -0.08920132 0.35555688 -0.43890122

fc2.bias f4 [100]
00000000: dbf0 8c3e 37cb be3e a135 4abd 92b5 a03e
00000010: 56de 013f f047 d23e e8b6 e4be d5e1 a43e
00000020: 8067 7f3e 5f1b 72be ca91 b23e cb76 cdbd
00000030: 4d08 e0be a40b 703e 4f0b 9b3e 7eb8 b83e
00000040: 6960 873d 93cf 55be d26d bcbd c793 d13e
00000050: dc0f 50be 3146 be3e 07c4 bbbe 7b61 d3be
00000060: 207a 6bbd b349 d43d 13ea d6be 04a4 e93e
00000070: 4380 343d 28c7 b8be 2c4d 803e ef4d 83be
00000080: bb60 0d3f a184 a1be 65a4 8d3e 6f03 713c
00000090: 8d5f 92be f2c5 b63e 998e aebc 4a02 d83e
000000a0: bb8a e0be de54 b5be e988 f6be ee6f d8be
000000b0: f815 da3e 518f f83e 9b9f df3e 5953 1cbc
000000c0: 5d9e 7dbe e677 93be f3e5 f7be 1cd6 a2be
000000d0: aa05 683c 0cd0 c03e 3449 a2be dace 24be
000000e0: facf ca3e 4d96 aabe d493 99be dc51 06be
000000f0: af6e 31bd 4e03 3f3e a186 8b3c 34c5 81be
00000100: bf5e 43be f706 cdbe b638 e2bd e61c 1d3d
00000110: ed55 d63e a18c d93e 4909 9ebe f3ae df3e
00000120: ff0d c03e 37c5 683d e7a9 bbbd b346 bcbe
00000130: cad3 a13e 27fa fbbe 06f2 efbe 005a 013f
00000140: 7810 00bf c33c bebd c14d ebbe dbfd 003f
00000150: 2dbe 03bf fed2 2ebc 2e69 aa3e ee50 02bf
00000160: 5656 813e def2 9e3d 61c3 05bf 8227 b5bd
00000170: c92e 96be 9247 14bc 6e8d 883e 18d8 57be
00000180: 3d97 b8be 4811 0fbf f87f 46bd 4fe8 aa3e
0.27527508 0.37264416 -0.04936755 0.31388527 0.5072988 0.4107051 -0.44670796 0.32203546
0.24941826 -0.23643254 0.34876853 -0.100324236 -0.43756333 0.2344194 0.30282065 0.36078256
0.06610186 -0.20879965 -0.09200634 0.40933058 -0.2031855 0.37162927 -0.36672994 -0.4128531
-0.057489514 0.103656195 -0.4197546 0.45632946 0.044067632 -0.36089444 0.25058877 -0.25645396
0.55225724 -0.315465 0.27664486 0.014710291 -0.28588524 0.35697895 -0.02130823 0.42189246
-0.43855843 -0.3541631 -0.4815133 -0.42272896 0.42594886 0.48546842 0.43676457 -0.009541356
-0.24767442 -0.28802413 -0.48417625 -0.31803977 0.014161507 0.37658727 -0.31696475 -0.16094533
0.396118 -0.33317795 -0.29995596 -0.13117164 -0.043318447 0.18653604 0.01703197 -0.25345767
-0.19079112 -0.40044376 -0.11045973 0.038357638 0.4186243 0.42490104 -0.3086646 0.43688163
0.37510678 0.056828704 -0.09163266 -0.3677269 0.31606895 -0.4921429 -0.46864337 0.50527954
-0.5002513 -0.09288933 -0.4595776 0.5038735 -0.5146206 -0.010670422 0.3328337 -0.5090474
0.25261182 0.07761167 -0.5225125 -0.08845426 -0.2933257 -0.009050267 0.26670402 -0.21078527
-0.36052886 -0.55885744 -0.048461884 0.33380362

fc3.weight f4 [2, 100]
00000000: b1b5 983f 3897 933f 9603 b93f bba5 943f
00000010: 42af 863f 3ece 853f 3952 8abf 242b 963f
00000020: 70db 903f 0ac9 74bf 4ff5 963f 0857 c63f
00000030: 0738 92bf e5ae 9a3f 4f5b 933f 9fa6 983f
00000040: a29b d2bf 0be5 96bf 3003 a1bf 2127 963f
00000050: 65b4 8ebf 2340 943f 26e6 93bf c654 95bf
00000060: 1ce7 8b3f 9c2b ccbf 7f59 90bf 3d21 8a3f
00000070: 39d7 d73f 97ae 8ebf 4f09 963f b4f6 8cbf
00000080: f5f8 743f 7976 99bf 664d 8d3f f05c b33f
00000090: 3b36 91bf 190f 983f 2d80 9f3f 6367 8c3f
000000a0: 0df0 7ebf 7bea 91bf 424d 77bf d393 93bf
000000b0: 438c 993f 6286 793f 257a 963f a4fa c43f
000000c0: 6904 92bf d81d 96bf 8630 98bf fcde 97bf
000000d0: cb65 c0bf 773d 913f 1ec1 8ebf 9975 b4bf
000000e0: 872c 693f 768b 96bf c5c5 98bf 0dfd 95bf
000000f0: 2058 b93f c0b9 da3f e7f9 c33f e7b3 8bbf
00000100: 55ff 76bf b9ff 85bf 029c 84bf eeae a3bf
00000110: a140 8e3f c7bb 923f 6ad9 95bf ae0c 953f
00000120: 661d 963f 6cad ce3f edfe bcbf 4d6c 91bf
00000130: fecd 913f 21f9 74bf 5bba 8ebf 9c99 8d3f
00000140: 1dd6 79bf 8203 91bf 31af 94bf c3b6 933f
00000150: d0e9 80bf 46ac c43f 0b87 8c3f 3ec3 94bf
00000160: abc9 9a3f 50a2 c13f f3c0 7cbf 1a88 8dbf
00000170: 1a0f 90bf 7856 c6bf b593 893f 8c83 ffbf
00000180: e537 8cbf d4f4 81bf 643a c8bf 145b 8f3f
00000190: 4620 b9bf 773e b9bf 112e e9bf f91a b5bf
000001a0: fd65 babf 1ced b6bf 1ed7 ba3f b595 bebf
000001b0: c8b8 c2bf 7159 c13f 6737 b8bf dd21 f3bf
000001c0: c38c b03f eb0e bebf 0a52 bdbf 7ec9 bdbf
000001d0: 40b6 0d40 aca2 be3f d878 a53f 3ca7 b7bf
000001e0: 3778 c43f 8651 babf af0e b53f 0418 b33f
000001f0: df3d f1bf d36d d93f c670 ba3f f750 b9bf
00000200: 3716 09c0 1522 ad3f c0b1 b9bf ef6a ab3f
00000210: 860c b5bf dfaf b63f 8fbd a5bf 0d2b fcbf
00000220: 79c3 c23f f8e2 c1bf f4a5 b9bf 5059 b5bf
00000230: f6a9 b63f 2d97 c33f c8b6 bc3f 16fc b63f
00000240: 7194 b8bf c4d3 b5bf adea b6bf b9a8 f3bf
00000250: 8ebf ab3f 704c bc3f e96f b63f 5bb4 ba3f
00000260: 15be f03f b172 babf f56a a73f d4f1 a63f
00000270: f303 b8bf 591c bb3f e7b5 bb3f a9c5 b93f
00000280: e587 e8bf 22a3 7fbf d943 f5bf 19f6 a73f
00000290: b8eb bb3f 283e b83f 2eba c43f 5afb ae3f
000002a0: f6d8 adbf d4fd adbf 32a3 b93f 4413 b7bf
000002b0: 65d5 b8bf 369b 02c0 2386 ea3f c9c6 ba3f
000002c0: c85e b0bf 4237 b03f 4e2c a83f 85ac babf
000002d0: ef6a b03f 0422 c93f fd35 b63f 6e09 b9bf
000002e0: bc43 b63f 190a 05c0 576f 9ebf a6c4 b93f
000002f0: b8d6 bfbf 735d f1bf e045 b53f 6cbf b83f
00000300: a4b7 aa3f 55f8 0440 3902 a2bf cc98 213f
00000310: fc07 a63f a8a1 b03f 16e9 0240 5ed7 a8bf
1.1930448 1.1530523 1.4454219 1.1613077 1.0522234 1.0453565 -1.0806342 1.1731915
1.1316967 -0.9561926 1.1793612 1.549531 -1.1423348 1.2084624 1.151224 1.1925849
-1.6453745 -1.1788648 -1.2579098 1.1730691 -1.1148802 1.1582073 -1.1554611 -1.1666496
1.0929904 -1.5950809 -1.1277312 1.0791394 1.6862556 -1.114703 1.1721591 -1.1012788
0.9569238 -1.198928 1.1039245 1.4012737 -1.1344675 1.1879607 1.2460991 1.0969051
-0.9958504 -1.1399683 -0.9660226 -1.1529487 1.199593 0.97470677 1.1756026 1.538899
-1.1407596 -1.1727858 -1.1889808 -1.1864924 -1.5031065 1.1346883 -1.1152685 -1.4098388
0.9108357 -1.176131 -1.1935354 -1.171785 1.4480019 1.7087936 1.5310639 -1.0914277
-0.96483356 -1.0468665 -1.036011 -1.2787759 1.1113473 1.1463555 -1.1706975 1.1644495
1.1727722 1.6146674 -1.4765297 -1.1361176 1.1390989 -0.9569264 -1.1150621 1.1062503
-0.97592336 -1.1329195 -1.1615964 1.154015 -1.0071354 1.5365074 1.0978712 -1.1622083
1.2092794 1.5127659 -0.9873192 -1.105716 -1.1254609 -1.5495138 1.0748202 -1.996202
-1.0954558 -1.0152841 -1.564282 1.119967 -1.4462974 -1.4472188 -1.8217183 -1.4148856
-1.4562374 -1.429111 1.4596899 -1.4889437 -1.5212641 1.510542 -1.4391907 -1.8994709
1.3792957 -1.4848303 -1.4790661 -1.4827116 2.2142487 1.4893394 1.2927504 -1.4347911
1.5349187 -1.4556129 1.4145106 1.3991704 -1.8847007 1.6986641 1.4565666 -1.4477834
-2.141981 1.3526026 -1.450737 1.3392009 -1.4144447 1.4272422 -1.2948474 -1.9700638
1.5215904 -1.514739 -1.450377 -1.4167881 1.4270618 1.528051 1.474328 1.429568
-1.4420301 -1.4205251 -1.4290367 -1.9035865 1.3417833 1.4710827 1.4252902 1.458629
1.8808008 -1.4566251 1.3079516 1.304255 -1.4376205 1.4618026 1.4664887 1.4513446
-1.8166472 -0.99858296 -1.916133 1.3121978 1.4681311 1.4393969 1.5369318 1.3670456
-1.3581836 -1.3593087 1.4502928 -1.4302754 -1.4440123 -2.0407233 1.8322185 1.4591914
-1.3778925 1.3766863 1.3138521 -1.4583899 1.3782634 1.5713506 1.4235226 -1.4456003
1.4239421 -2.0787413 -1.2377728 1.4513137 -1.4987402 -1.8856643 1.4161949 1.4433417
1.3337293 2.077657 -1.2656928 0.63123775 1.2971187 1.3799334 2.0454764 -1.3190725

fc3.bias f4 [2]
00000000: 70e2 8f3f d0d3 9cbf
1.1240978 -1.225214

fc1.weight f4 [100, 22]
00000000: b9f8 a93d 1e4a 3dbb 2992 88bb 2a64 f0bb
00000010: 62d3 acbb 3dec 36bd 39dd afbc 4a42 a3bc
00000020: 982c 08bd bb9c 0080 096d 0200 1f1b 0800
00000030: f147 0400 5f36 0c80 340d 0900 7aba 1280
00000040: 2b2d 0800 0c35 0580 5db2 0980 ecd6 1680
00000050: 8d1b 0a80 247d 5502 9c04 aabd 894e 3d3b
00000060: 7399 883b 8b6b f03b 6eda ac3b 2ef9 363d
00000070: 55e9 af3c 7f4d a33c 2136 083d 588e 0100
00000080: 2e89 0e80 9e8a 1100 f242 1200 e243 0200
00000090: 7572 0a80 86a3 0d00 54ed 0b80 1442 1080
000000a0: 1148 0b80 dc98 1080 a430 1380 0f55 0c80
000000b0: 3621 773a 7273 5bbb 6345 24bb cca8 22bb
000000c0: 8d55 61b9 fbc2 703a 9978 683a f28c 663a
000000d0: e8f4 6d3a 8e48 1300 ac53 0080 b08b 1100
000000e0: da70 0a80 81a0 0780 a024 0180 89b5 0680
000000f0: ee23 0180 9845 0e00 7eb8 0080 bd0d 0c00
00000100: 2c11 1400 2b38 0800 b224 aabd 525a 3d3b
00000110: e9ac 883b 617f f03b 47ed ac3b 531c 373d
00000120: 220a b03c dd6b a33c db4f 083d 4186 0580
00000130: f2c1 0900 3d41 0e00 c91a 1580 c855 0500
00000140: 794d 0c80 89ec 0700 1fd1 0e00 9bb5 0400
00000150: 3c34 1500 4e87 0800 5488 0280 9773 0780
00000160: 58f9 a93d 3d4a 3dbb 8b92 88bb 8764 f0bb
00000170: c1d3 acbb efec 36bd dcdd afbc e842 a3bc
00000180: 1e2d 08bd 633b 0580 f87f 0f00 2d3a 0580
00000190: d05e 1700 3211 0100 d6cc 0300 8b25 1880
000001a0: 6537 1600 f754 0580 6b3d 0980 5339 1600
000001b0: 0503 0f00 b23c 1080 10d0 a9bd 193b 3d3b
000001c0: 8479 883b 0b4b f03b 95bb ac3b 20c0 363d
000001d0: f3b3 af3c 031c a33c 290c 083d 063f 0a80
000001e0: 79b7 0980 cae2 0580 18e6 1500 7b69 0100
000001f0: b377 1280 c28a 0900 ec72 1300 4726 1980
00000200: 4682 0200 c262 1680 e292 1300 2e94 1480
00000210: 35fa a9bd 904a 3d3b 1593 883b 1665 f03b
00000220: 40d4 ac3b d9ed 363d bbde af3c b143 a33c
00000230: d02d 083d 2de8 1380 146d 0900 820d 0500
00000240: 5cae 1000 4ab1 0080 b106 0300 a8d0 0380
00000250: 6b3b 0480 bb68 0a00 3625 0b80 506d 0800
00000260: 5791 0880 d43a e902 77f4 a93d 9348 3dbb
00000270: 988f 88bb 8f61 f0bb f0d0 acbb 9de7 36bd
00000280: e3d8 afbc 453e a3bc 3e29 08bd 08de 1400
00000290: 3344 1000 4737 1100 7fc7 0e80 8c8e 1200
000002a0: d6de 0880 400e 0600 c9bb 0080 fa29 0600
000002b0: e551 1200 0822 0100 20d6 0780 b177 0b00
000002c0: ac74 242b 5077 e82d b140 ecad d86f 0cac
000002d0: f68a b62a 91a1 baac 51b8 b3ac 883a b4ac
000002e0: 4a1a b5ac c6f4 0100 8267 0b80 1943 0e80
000002f0: faa4 0e80 fdbf 1380 8151 1500 7da7 0b80
00000300: 3412 0f00 43ba 0f80 8ae0 1480 1aab 1480
00000310: 321a 0b80 ff50 0d80 001f aabd 2f58 3d3b
00000320: 83a9 883b d97b f03b f1e9 ac3b 1216 373d
00000330: 4d04 b03c 7466 a33c 504b 083d 24eb 0080
00000340: 06b0 1580 ae2c 0580 a214 0e80 5ab0 1580
00000350: e3f2 0600 9f07 0500 eaf9 0e00 1e67 0780
00000360: 742e 0180 0cf4 0900 9f8e 0b00 54dd 0a80
00000370: db49 aa3d f267 3dbb 76c3 88bb 2196 f0bb
00000380: 0303 adbb b044 37bd ec2f b0bc e38e a3bc
00000390: 876d 08bd d1b1 0600 174c 0900 e133 0580
000003a0: a12b 0280 c3b0 0500 2745 1600 4b27 0580
000003b0: dca2 0a00 4644 1100 5bb4 1780 a791 1500
000003c0: 985f 0080 988c 0300 7b2d aa3d 775d 3dbb
000003d0: 47b2 88bb c984 f0bb 72f2 acbb d925 37bd
000003e0: 0713 b0bc 1e74 a3bc e256 08bd e051 0280
000003f0: 37ee 0c80 1853 0100 03a4 0a00 2cd1 0600
0.08299393 -0.0028883289 -0.0041678143 -0.0073361592 -0.005274222 -0.044658888 -0.021467792 -0.01992907
-0.033245653 -5.6224e-41 2.22785e-40 7.44413e-40 3.9315e-40 -1.12153e-39 8.31256e-40 -1.719934e-39
7.50887e-40 -4.78207e-40 -8.90504e-40 -2.09748e-39 -9.28238e-40 1.5684682e-37 -0.083016604 0.0028885922
0.004168683 0.007337039 0.0052750623 0.04467123 0.021473566 0.019934414 0.033254746 1.42899e-40
-1.334908e-39 1.61093e-39 1.677054e-39 2.08023e-40 -9.59414e-40 1.252523e-39 -1.095328e-39 -1.493072e-39
-1.036043e-39 -1.524204e-39 -1.762323e-39 -1.132539e-39 0.0009427251 -0.0033485559 -0.0025065772 -0.002481985
-0.00021489542 0.0009184328 0.0008868068 0.0008794806 0.00090773264 1.770902e-39 -3.0016e-41 1.611314e-39
-9.58838e-40 -7.00426e-40 -1.04974e-40 -6.16136e-40 -1.04725e-40 1.310662e-39 -6.6183e-41 1.106954e-39
1.84287e-39 7.54833e-40 -0.0830778 0.0028892946 0.004171003 0.0073394035 0.005277309 0.044704746
0.021489207 0.019948894 0.03327928 -5.07339e-40 8.96094e-40 1.3091e-39 -1.938154e-39 4.8995e-40
-1.129818e-39 7.27701e-40 1.360715e-39 4.3249e-40 1.947284e-39 7.83222e-40 -2.32576e-40 -6.84314e-40
0.08299512 -0.002888336 -0.00416786 -0.0073362025 -0.0052742665 -0.04465955 -0.021468095 -0.019929364
-0.033246152 -4.80481e-40 1.423439e-39 -4.80047e-40 2.146229e-39 9.8004e-41 3.48988e-40 -2.21752e-39
2.040253e-39 -4.89657e-40 -8.48552e-40 2.040945e-39 1.378616e-39 -1.491141e-39 -0.08291638 0.0028874336
0.0041648764 0.0073331646 0.005271385 0.04461682 0.021448111 0.019910818 0.03321472 -9.40964e-40
-8.92337e-40 -5.40534e-40 2.011088e-39 1.29675e-40 -1.695979e-39 8.76296e-40 1.7861e-39 -2.309619e-39
2.30404e-40 -2.055809e-39 1.797566e-39 -1.889867e-39 -0.08299676 0.0028883554 0.004167924 0.007336269
0.0052743256 0.044660423 0.02146851 0.019929739 0.033246815 -1.828163e-39 8.6565e-40 4.64023e-40
1.531916e-39 -6.36e-41 2.77907e-40 -3.50358e-40 -3.88657e-40 9.55925e-40 -1.023539e-39 7.73898e-40
-7.86822e-40 3.4270039e-37 0.08298581 -0.002888237 -0.0041675083 -0.0073358486 -0.0052739307 -0.044654477
-0.021465724 -0.019927153 -0.033242457 1.91636e-39 1.493833e-39 1.581033e-39 -1.357263e-39 1.704175e-39
-8.14622e-40 5.56125e-40 -6.7365e-41 5.66071e-40 1.682417e-39 1.04044e-40 -7.19662e-40 1.053128e-39
5.842642e-13 2.6428332e-11 -2.6858822e-11 -1.9957282e-12 3.2426118e-13 -5.3043754e-12 -5.1079492e-12 -5.122406e-12
-5.147248e-12 1.79644e-40 -1.047322e-39 -1.309767e-39 -1.34488e-39 -1.813747e-39 1.957784e-39 -1.070274e-39
1.384062e-39 -1.44435e-39 -1.91726e-39 -1.89809e-39 -1.019588e-39 -1.222917e-39 -0.08306694 0.0028891673
0.004170598 0.0073389825 0.0052769114 0.044698782 0.021486426 0.019946314 0.03327495 -8.4353e-41
-1.991691e-39 -4.75206e-40 -1.293099e-39 -1.991808e-39 6.38144e-40 4.61911e-40 1.375349e-39 -6.7984e-40
-1.085e-40 9.14067e-40 1.061353e-39 -9.97753e-40 0.08314868 -0.0028901068 -0.0041736914 -0.0073421155
-0.0052799 -0.04474324 -0.021507226 -0.019965595 -0.03330758 6.14801e-40 8.53815e-40 -4.77788e-40
-1.99322e-40 5.22588e-40 2.045188e-39 -4.73273e-40 9.76778e-40 1.585695e-39 -2.176916e-39 1.980796e-39
-3.4293e-41 3.25942e-40 0.08309456 -0.002889482 -0.004171643 -0.007340048 -0.005277925 -0.04471383
-0.021493448 -0.01995283 -0.033285983 -2.13042e-40 -1.187481e-39 1.21644e-40 9.77191e-40 6.2605e-40

fc1.bias f4 [100]
00000000: 30c9 d13d 29d9 d1bd 000f 7cba 6204 d2bd
00000010: 05ca d13d be92 d1bd 26cb d1bd 6ec3 d13d
00000020: d8c1 bb2c b6fc d1bd 4c36 d23d 2310 d23d
00000030: 4756 d13d 2024 d23d aa36 d2bd 8d33 d23d
00000040: 3435 d2bd 7a2b d2bd 05a6 d0b8 104e d2bd
00000050: cf6b 2c2f d2ff 3fb1 b9db d1bd 9cd4 d13d
00000060: f7d6 d13d 3f8d b0b6 6cea d1bd 771b d2bd
00000070: c0d7 8d2e 6548 d23d 0e4b 473a 3c8f 5337
00000080: 0f2b b4af ca06 d23d d2f5 d1bd e5b7 d13d
00000090: b20f 0ab3 6ed2 d1bd b89a 8aaf 0e44 d1bd
000000a0: 8093 4137 e3dc 32b3 ce61 4f32 a4b9 d13d
000000b0: fcd2 d13d 852d 4ead 1404 d23d c41a d2bd
000000c0: 2d6d d52d 4533 d2bd f2e6 d1bd 8d1e d2bd
000000d0: 4702 d23d 9b6c fc2d d672 1e33 2b2c d2bd
000000e0: 64dc 2db0 c6d0 d13d a11e d23d fb97 8a2c
000000f0: 5435 d23d dbe8 62b3 d3fc d13d 1bcf d13d
00000100: fd2f d23d 8c86 c3b0 b4be d13d 5c23 d2bd
00000110: 1915 d23d 129c a2b6 b662 a42a 5f25 d23d
00000120: e6d2 d13d 112b d2bd b9ed d1bd 1419 d23d
00000130: 481f d23d b539 d2bd 1c94 b431 34ca d13d
00000140: 4756 2fb6 42be 8f2f eb19 d1bd ce03 d23d
00000150: e4e8 cdbd c40e d23d 6d89 cfbd 4af9 d03d
00000160: ed2e d23d 5c5f a636 07c5 bcb1 4ac7 96af
00000170: 25d3 d13d 2939 d23d c413 d2bd b5ca d13d
00000180: a1dd d13d 62cd f5b0 586e 57b2 331c d2bd
0.102434516 -0.10246498 -0.0009615272 -0.10254742 0.1024361 -0.10233067 -0.102438256 0.102423534
5.3363806e-12 -0.10253279 0.102642626 0.10256984 0.10221534 0.102607965 -0.102643326 0.10263739
-0.10264054 -0.10262199 -9.9491364e-05 -0.102687955 1.568161e-10 -2.7939575e-09 -0.10246987 0.1024563
0.102460794 -5.261652e-06 -0.102497905 -0.10259145 6.4502625e-11 0.102677144 0.00076024316 1.2609929e-05
-3.2772404e-10 0.10255201 -0.10251965 0.10240153 -3.2144904e-08 -0.102452144 -2.5211988e-10 -0.102180585
1.1538039e-05 -4.164475e-08 1.2071224e-08 0.10240486 0.1024532 -1.1719852e-11 0.10254684 -0.102590114
2.426378e-11 -0.10263685 -0.102491274 -0.10259733 0.102543406 2.8697314e-11 3.6891684e-08 -0.102623306
-6.325023e-10 0.102448985 0.10259748 3.939069e-12 0.10264078 -5.2831506e-08 0.102533005 0.1024458
0.10263059 -1.4226358e-09 0.10241452 -0.102606505 0.1025793 -4.846145e-06 2.9200747e-13 0.10261034
0.10245304 -0.102621205 -0.1025042 0.102586895 0.10259873 -0.10264913 5.2555276e-09 0.10243645
-2.6127252e-06 2.6146735e-10 -0.102100216 0.10254632 -0.10054186 0.102567226 -0.10133634 0.10203798
0.10262857 4.958287e-06 -5.4939195e-09 -2.7426444e-10 0.10245351 0.10264809 -0.10257676 0.102437414
0.102473505 -1.788447e-09 -1.2539736e-08 -0.10259285

fc2.weight f4 [100, 100]
00000000: 5d07 7bbc 6f19 7b3c 3c90 1eba 2f4a 7b3c
00000010: 5308 7bbc e3c9 7a3c 9f09 7b3c e600 7bbc
00000020: cd82 052d 8641 7b3c 6682 7bbc 6d57 7bbc
00000030: c385 7abc e86d 7bbc ce82 7b3c 467f 7bbc
00000040: 2381 7b3c 2c76 7b3c 85df 63b8 299d 7b3c
00000050: b660 602e 182e 4db1 531c 7b3c 4f14 7bbc
00000060: f816 7bbc c61d 80b3 d12c 7b3c 2c64 7b3c
00000070: a891 8428 b796 7bbc 88b1 ec39 6a09 4434
00000080: 08e2 a2b0 e34c 7bbc bc39 7b3c dbf3 7abc
00000090: c9ef 18b4 db11 7b3c ac9c 842b 2f71 7a3c
000000a0: 2772 4234 19b1 19b4 389c b8b0 d9f5 7abc
000000b0: 7d12 7bbc aea1 21ac d349 7bbc 6163 7b3c
000000c0: 7dad e4ac f67e 7b3c e328 7b3c 9f67 7b3c
000000d0: c547 7bbc 8e8c 802e 381b ee33 f276 7b3c
000000e0: 0e6d 18b0 fc0f 7bbc b367 7bbc 5f72 942b
000000f0: 4c81 7bbc a20a d3b3 a741 7bbc 1b0e 7bbc
00000100: 407b 7bbc 0684 b32d 8ffb 7abc 0a6d 7b3c
00000110: 0b5d 7bbc 5435 85b3 8b33 012b 4a6f 7bbc
00000120: 6512 7bbc be75 7b3c 9030 7b3c 7d61 7bbc
00000130: 7568 7bbc 3d86 7b3c 2b12 0c30 8b08 7bbc
00000140: 3391 6bb6 2406 e6af 8c41 7a3c 8149 7bbc
00000150: faa5 763c e155 7bbc 257d 783c be1c 7abc
00000160: 127a 7bbc 28e0 9236 9e3e 09b3 3890 52ab
00000170: aa12 7bbc 9b85 7bbc 885b 7b3c 1d09 7bbc
00000180: 741e 7bbc 9601 ae2d eeda a434 ff64 7b3c
00000190: 20b2 7abc 3bc4 7a3c d1c9 1eba d5f4 7a3c
000001a0: 1bb3 7abc c174 7a3c 60b4 7a3c b3ab 7abc
000001b0: c092 052d 33ec 7a3c 062d 7bbc 1a02 7bbc
000001c0: bd30 7abc 8718 7bbc 6c2d 7b3c ea29 7bbc
000001d0: c32b 7b3c cd20 7b3c cc31 65b8 b947 7b3c
000001e0: 2779 602e 9d4a 4db1 15c7 7a3c 17bf 7abc
000001f0: c7c1 7abc 1303 80b3 9ad7 7a3c e30e 7b3c
00000200: 481a 8128 4841 7bbc ca11 ed39 bdfc 4334
00000210: 56e5 a2b0 89f7 7abc 72e4 7a3c ac9e 7abc
00000220: 02f9 18b4 98bc 7a3c c386 852b 301c 7a3c
00000230: 1667 4234 aab8 19b4 5843 bab0 a4a0 7abc
00000240: 3ebd 7abc aa76 21ac 7bf4 7abc 1a0e 7b3c
00000250: 5a65 e5ac 9629 7b3c afd3 7a3c 5012 7b3c
00000260: 71f2 7abc bf9b 802e 8f37 ee33 9721 7b3c
00000270: 4153 18b0 bdba 7abc 6412 7bbc a066 932b
00000280: ec2b 7bbc 7a14 d3b3 55ec 7abc d9b8 7abc
00000290: e025 7bbc a7c0 b32d 5ca6 7abc aa17 7b3c
000002a0: b207 7bbc 8622 85b3 ec53 012b ed19 7bbc
000002b0: 24bd 7abc 5f20 7b3c 53db 7a3c 270c 7bbc
000002c0: 2613 7bbc dd30 7b3c 6de8 0b30 50b3 7abc
000002d0: e076 6bb6 599b e5af a4ec 793c 2df4 7abc
000002e0: 4552 763c 8f00 7bbc d228 783c e3c7 79bc
000002f0: b024 7bbc 58cc 9236 f554 09b3 f002 52ab
00000300: 6bbd 7abc 3b30 7bbc 3106 7b3c dab3 7abc
00000310: 3fc9 7abc c676 ae2d d3f3 a434 b70f 7b3c
00000320: 51db 7abc 50ed 7a3c 06ae 1eba 051e 7b3c
00000330: 47dc 7abc e39d 7a3c 96dd 7a3c d4d4 7abc
00000340: 108b 052d 6715 7b3c 3c56 7bbc 422b 7bbc
00000350: ca59 7abc c241 7bbc a256 7b3c 2453 7bbc
00000360: fd54 7b3c 0c4a 7b3c a18e 64b8 fa70 7b3c
00000370: 516d 602e d93c 4db1 37f0 7a3c 34e8 7abc
00000380: ddea 7abc 0010 80b3 c300 7b3c 1738 7b3c
00000390: 30d2 8228 8d6a 7bbc 49e3 ec39 c702 4434
000003a0: b9e3 a2b0 b620 7bbc 9f0d 7b3c cbc7 7abc
000003b0: 89f4 18b4 c5e5 7a3c 0f15 852b 3c45 7a3c
000003c0: 5f6c 4234 feb4 19b4 ec76 b9b0 c6c9 7abc
000003d0: 60e6 7abc 778b 21ac a61d 7bbc 4b37 7b3c
000003e0: 6c0c e5ac d052 7b3c cffc 7a3c 863b 7b3c
000003f0: 9e1b 7bbc 5c94 802e e829 ee33 d84a 7b3c
-0.01532158 0.015325888 -0.0006048714 0.015337511 -0.015321809 0.015306923 0.015322118 -0.015320038
7.589218e-12 0.015335446 -0.015350914 -0.015340668 -0.01529068 -0.015346028 0.0153510105 -0.015350169
0.015350613 0.015347999 -5.4329186e-05 0.015357294 5.10176e-11 -2.9857627e-09 0.015326577 -0.015324666
-0.0153253 -5.96588e-08 0.015330509 0.015343707 1.4718112e-14 -0.015355757 0.000451457 1.8257347e-07
-1.1851293e-09 -0.015338155 0.015333589 -0.015316929 -1.4243336e-07 0.015324081 9.422649e-13 0.015285774
1.8109186e-07 -1.4313663e-07 -1.3432162e-09 -0.015317404 -0.015324232 -2.2969226e-12 -0.015337425 0.015343518
-6.499411e-12 0.015350094 0.015329572 0.015344529 -0.015336935 5.8457336e-11 1.108769e-07 0.015348183
-5.5452254e-10 -0.015323635 -0.015344548 1.0547777e-12 -0.015350651 -9.827387e-08 -0.015335477 -0.015323187
-0.015349209 2.0408574e-11 -0.015318765 0.015345821 -0.015342007 -6.2029955e-08 4.5901537e-13 -0.015346358
-0.01532421 0.015347896 0.015331402 -0.015343067 -0.015344729 0.015351829 5.095752e-10 -0.015321861
-3.5102246e-06 -4.184112e-10 0.015274417 -0.015337349 0.01505422 -0.015340299 0.0151665555 -0.015265642
-0.015348928 4.3772343e-06 -3.1954748e-08 -7.480713e-13 -0.015324274 -0.015351678 0.015341647 -0.015321997
-0.015327085 1.9782214e-11 3.0706673e-07 0.015343904 -0.015301257 0.015305574 -0.00060572947 0.015317162
-0.015301491 0.015286625 0.015301794 -0.015299725 7.59276e-12 0.015315103 -0.015330559 -0.015320325
-0.015270409 -0.015325672 0.015330654 -0.015329817 0.015330258 0.015327645 -5.464423e-05 0.015336924
5.1039308e-11 -2.987384e-09 0.015306254 -0.015304348 -0.015304989 -5.961024e-08 0.0153101925 0.0153233735
1.4333275e-14 -0.0153353885 0.00045217416 1.8252736e-07 -1.1852233e-09 -0.015317806 0.015313255 -0.015296619
-1.4246692e-07 0.015303753 9.487622e-13 0.0152655095 1.810516e-07 -1.4316416e-07 -1.3552421e-09 -0.015297089
-0.015303908 -2.2945348e-12 -0.015317078 0.015323186 -6.5198237e-12 0.015329739 0.015309258 0.01532419
-0.015316592 5.848432e-11 1.1092845e-07 0.015327833 -5.541559e-10 -0.015303311 -0.015324209 1.0473462e-12
-0.015330296 -9.829178e-08 -0.015315135 -0.01530286 -0.015328854 2.0435499e-11 -0.015298452 0.015325466
-0.015321659 -6.199575e-08 4.594647e-13 -0.015326005 -0.015303884 0.015327542 0.01531108 -0.015322722
-0.01532439 0.015331474 5.08982e-10 -0.0153015405 -3.5086923e-06 -4.1765238e-10 0.015254173 -0.015317005
0.015034263 -0.015319957 0.015146451 -0.015245411 -0.015328571 4.374928e-06 -3.1975066e-08 -7.4611064e-13
-0.01530395 -0.015331323 0.0153213 -0.015301669 -0.01530677 1.9834256e-11 3.0724786e-07 0.015323571
-0.015311078 0.015315369 -0.0006053153 0.015326981 -0.015311307 0.015296432 0.015311619 -0.015309531
7.591053e-12 0.015324927 -0.015340384 -0.015330138 -0.015280196 -0.015335502 0.015340479 -0.0153396465
0.015340087 0.015337478 -5.449227e-05 0.01534676 5.1028796e-11 -2.9866014e-09 0.015316061 -0.015314151
-0.015314785 -5.963375e-08 0.015320006 0.015333197 1.4524054e-14 -0.015345228 0.00045182768 1.8254933e-07
-1.1851774e-09 -0.015327623 0.015323072 -0.015306423 -1.4245065e-07 0.01531357 9.456063e-13 0.015275296
1.8107083e-07 -1.431508e-07 -1.3494321e-09 -0.015306896 -0.015313715 -2.2956895e-12 -0.015326893 0.015333007
-6.5099506e-12 0.015339568 0.015319063 0.015334016 -0.015326409 5.84712e-11 1.1090361e-07 0.015337668

fc2.bias f4 [100]
00000000: ed9a 98bd db61 98bd 707d 98bd 0b72 983d
00000010: db89 983d af8d 98bd 1e68 983d 337c 983d
00000020: ade7 5b2e ae78 98bd 4370 98bd 4876 983d
00000030: 6967 983d d170 983d 3673 98bd 9d7d 98bd
00000040: a18e 98bd 707c 983d b57a 983d 1074 983d
00000050: befc 973d 7065 983d 4e0a 98bd ec7d 98bd
00000060: ee1c 983d a856 98bd 4e78 983d 1b86 98bd
00000070: 0c76 983d 296a 98bd ab8e 98bd 7666 983d
00000080: ee63 983d 4876 98bd 647c 98bd 2576 98bd
00000090: 817e 98bd 2873 983d c875 983d 7659 983d
000000a0: cd71 983d 838a 983d 7273 98bd 9a52 98bd
000000b0: a393 98bd 9949 98bd 8b61 983d c164 983d
000000c0: 7374 983d 1878 983d f971 983d 8282 98bd
000000d0: fe7b 983d 2f7e 983d 4d8c 983d 9f7e 98bd
000000e0: e36b 983d 015b 98bd 7f5c 983d ea7f 983d
000000f0: 014e 98bd 848b 98bd 8573 983d 7e7b 98bd
00000100: ef7a 983d 9574 98bd 1e70 98bd 118a 983d
00000110: 9a65 98bd f87e 983d 037d 983d bc43 983d
00000120: 5169 983d 985f 98bd 8368 98bd 8587 98bd
00000130: 7867 983d 8662 98bd b567 983d 707f 983d
00000140: bef9 97bd ce71 983d 838d 983d 1168 983d
00000150: 8261 983d f1d0 00ba f379 98bd 4412 98bd
00000160: 216d 983d 3a7a 98bd e385 98bd 892f 983d
00000170: 6067 983d 3c6e 983d af81 983d 6b6c 983d
00000180: 7789 98bd d58c 983d f061 98bd c75b 983d
-0.07451425 -0.074405394 -0.074458 0.07443627 0.07448169 -0.07448899 0.07441734 0.07445564
5.0000604e-11 -0.07444893 -0.07443287 0.07444435 0.07441599 0.07443393 -0.0744385 -0.07445834
-0.07449079 0.074456096 0.074452795 0.07444012 0.074212536 0.07441223 -0.074238405 -0.07445893
0.07427393 -0.07438403 0.07444821 -0.074474536 0.07444391 -0.074421234 -0.07449087 0.07441418
0.07440935 -0.07444435 -0.07445601 -0.07444409 -0.07446004 0.07443839 0.0744434 0.07438938
0.07443581 0.07448294 -0.074438944 -0.0743763 -0.074500345 -0.07435913 0.0744048 0.07441092
0.07444086 0.07444781 0.074436136 -0.074467674 0.07445525 0.074459426 0.07448635 -0.07446026
0.07442453 -0.074392326 0.07439517 0.07446273 -0.07436753 -0.074484855 0.074439086 -0.07445429
0.07445323 -0.07444111 -0.0744326 0.07448209 -0.07441254 0.07446092 0.07445719 0.07434794
0.074419625 -0.07440108 -0.07441809 -0.07447723 0.0744161 -0.07440667 0.074416555 0.07446182
-0.074206814 0.074435815 0.07448866 0.07441724 0.07440473 -0.0004913947 -0.07445135 -0.07425359
0.0744269 -0.07445188 -0.07447412 0.074309416 0.07441592 0.074429005 0.0744661 0.07442554
-0.07448094 0.074487366 -0.07440555 0.0743938

fc3.weight f4 [1, 100]
00000000: 2f2c 18be 05ef 17be 8c0c 18be 5b00 183e
00000010: eb19 183e ff1d 18be c4f5 173e 370b 183e
00000020: 315c 7b2e 6d07 18be 70fe 17be de04 183e
00000030: 05f5 173e 0eff 173e 9c01 18be ba0c 18be
00000040: 021f 18be 780b 183e 9f09 183e 8d02 183e
00000050: bf82 173e e7f2 173e 3d91 17be 0f0d 18be
00000060: 32a5 173e 03e3 17be 0b07 183e dd15 18be
00000070: 9904 183e f0f7 17be 0e1f 18be 00f4 173e
00000080: 45f1 173e dd04 18be 690b 18be b704 18be
00000090: b30d 18be 8d01 183e 4d04 183e 03e6 173e
000000a0: 1e00 183e a11a 183e dd01 18be aade 17be
000000b0: 6f24 18be f1d4 17be afee 173e 2bf2 173e
000000c0: ed02 183e d106 183e 4800 183e 0512 18be
000000d0: ff0a 183e 580d 183e 831c 183e d20d 18be
000000e0: ccf9 173e aee7 17be 48e9 173e 390f 183e
000000f0: b4d9 17be b31b 18be f401 183e 780a 18be
00000100: e009 183e 1603 18be 49fe 17be 201a 183e
00000110: 17f3 17be 2e0e 183e 150c 183e aace 173e
00000120: 0bf7 173e 9dec 17be 31f6 17be 5f17 18be
00000130: 13f5 173e c2ef 17be 55f5 173e b10e 183e
00000140: 897f 17be 1f00 183e cf1d 183e b5f5 173e
00000150: a6ee 173e f11f 8237 ce08 18be bc99 17be
00000160: 23fb 173e 1a09 18be a415 18be 11b9 173e
00000170: faf4 173e 4bfc 173e 2211 183e 60fa 173e
00000180: 7e19 18be 191d 183e 1eef 17be 86e8 173e
-0.14860605 -0.14837272 -0.14848536 0.14843886 0.14853637 -0.14855193 0.14839846 0.14848028
5.7152675e-11 -0.14846583 -0.14843154 0.14845607 0.14839561 0.1484339 -0.14844364 -0.14848605
-0.14855579 0.14848125 0.1484742 0.14844723 0.1479597 0.14838754 -0.14801498 -0.14848731
0.14809111 -0.14832692 0.14846437 -0.1485209 0.14845504 -0.14840674 -0.14855596 0.14839172
0.14838131 -0.14845605 -0.14848103 -0.14845549 -0.14848976 0.14844342 0.1484539 0.14833836
0.14843795 0.14853908 -0.14844461 -0.14831033 -0.14857648 -0.14827324 0.14837144 0.14838473
0.14844866 0.1484635 0.14843857 -0.14850624 0.14847945 0.1484884 0.14854626 -0.14849022
0.14841384 -0.14834473 0.14835083 0.14849557 -0.14829141 -0.14854316 0.14844495 -0.14847744
0.14847517 -0.14844927 -0.14843096 0.14853716 -0.14838825 0.14849159 0.14848359 0.1482493
0.14840333 -0.14836355 -0.14840008 -0.14852665 0.14839582 -0.14837554 0.1483968 0.14849354
-0.14794745 0.14843796 0.14855121 0.14839824 0.14837131 1.5512082e-05 -0.14847109 -0.14804739
0.14841895 -0.14847222 -0.14852005 0.14816691 0.14839545 0.14842336 0.14850286 0.14841604
-0.14853474 0.1485485 -0.1483731 0.14834794

fc1.weight f4 [100, 24]
00000000: 226b ba3a 02cb 793e aa9b 1dbd e51c 01be
00000010: 044a 913d ed23 f83b e9f1 573e 6d7c 84bd
00000020: f24c 2ebd 3646 4f3e d66f 13be c078 1fbb
00000030: d018 11be 60ef 15bc a842 10be 3864 803d
00000040: 85bf 0bbe e51f 22be 6ee4 0dbe 500e d23d
00000050: 6670 0dbe a59e f93d a6d3 203d 2f00 5c3e
00000060: c770 903d 52c5 a03d f46c 953d 1db8 01be
00000070: 8381 1bbe 4754 46be 67ec 87be 9222 88be
00000080: 591c 0abe c23f 093e 12d7 0c3e f8aa 8c3c
00000090: 84da 97bd 7280 04be f88a 873d 00d5 c73a
000000a0: 4caa 1e3e d805 95bc 68e6 58bd 060f 21be
000000b0: b01d e4bd d62a cd3c ce92 2a3e 1009 f6bd
000000c0: fa6f 7f3e 6bf2 25bd 5216 08be 791d 423d
000000d0: 1c96 5b3e 64c6 0d3c 41dd f4bc d816 1d3d
000000e0: b7b1 1d3e 5b37 4dbe 646a 053d 7021 fabc
000000f0: e0a3 6b3c f417 28bd 701a 94bd dc44 31bd
00000100: 9cab 66bd 4cd6 09be 5828 31be d6de 4fbe
00000110: a498 abbd c7b2 02be 5601 14be dfd9 df3d
00000120: e02c b13d 5be0 2dbe 91a7 6e3d b336 22be
00000130: 302e 733b a7e2 e93d fbfc 33be d391 05be
00000140: 5fb1 b3bd 2a86 30be 92d2 243e 8a49 3f3e
00000150: 420b 4bbe b4d3 d93d b676 323e a833 4cbd
00000160: d038 c4bc cca6 8c3d 2420 c23d 7cc5 153e
00000170: 8860 933d c570 2abd 948b 00be ccd7 8cbd
00000180: 4d57 4cbc acea a13c 463e 973b 0240 3b3d
00000190: 56c2 0bbe c480 d2bd ba88 0bbd 14c9 38be
000001a0: 069c b4bd e119 29be 208f 45be 1072 f1bc
000001b0: 24b7 303e 50bd 64bc 80ee c2ba 900d 0ebc
000001c0: 6055 d6bb b641 1e3e f8f3 88bd 1ecd e0bd
000001d0: e2c7 3c3e 095b a2bc f109 d63c b104 313e
000001e0: 3b19 27be 48c9 9cbd afe3 efbd 28d6 37be
000001f0: 33bb bdbb be47 89be 5cbc e6bd 68bd a0bd
00000200: 7f6a 03bd 108b 973d 8494 303e be9a 9ebd
00000210: a2ae 30be 803c ce3c 942d 193e 68b3 ddbc
00000220: 526a 243e a6a4 c5bd 408c 94bd 58ea 81bd
00000230: 1cd3 83bd 388e 3a3e 02bc 1b3d 8ac1 74bc
00000240: d6c2 67be 1c0d 95bc ba24 e6bd 3298 45be
00000250: c2b6 7d3b 398f 193e d2f0 15be 5d2b 24be
00000260: 843b c03d 684c 3b3e a3f9 45be aa91 0ebe
00000270: d44a 4d3e f621 1e3e 909f ee3c a4c4 df3d
00000280: 2859 b23c c539 f1bd 04ce f0bd c634 313e
00000290: 908c 253c 167d c23d 70ab 713d 959c 763d
000002a0: 12da 013e 531f 083e 28ea e4bd 1f14 0c3d
000002b0: 5663 3f3e 7bff 583d 4dc7 3d3e 1673 4d3e
000002c0: aea8 b03d 9b4b e8bd f885 963d 604e a73d
000002d0: a043 39bc 7cf7 273e d515 a3bd 008e 043d
000002e0: cbbe 1bbe 88f0 eebd 3da5 b2bd a065 5bbd
000002f0: e795 32be 3da6 3b3d ca73 74bd 80f4 02be
00000300: 38e7 6dbb 2838 1f3e c7ae e83d a263 af3d
00000310: 9d17 c63d 099c dd3d 6621 f13c b4cb e83d
00000320: 4c0a b63d aef8 393e f278 323e a881 463d
00000330: 602b 35bd 2f14 39be 9c00 08bd de6b 503e
00000340: 8085 223e 9a43 243e c4f6 99bd b82f fabc
00000350: 8856 003e 8319 13bd 9b18 8e3d 7c12 b5bd
00000360: e44c a3bd b7bf d23d f800 563d 9af4 323e
00000370: 54dc 12be 4793 f73d 28e5 153e 3c81 273e
00000380: cd3f 71bb 9834 00bd 00b7 423e 091f fcbd
00000390: e807 ba3d df23 41be 8086 ed3b b035 473d
000003a0: 80b3 573d 6f94 05be da8c efbd 38d9 ad3d
000003b0: aaa7 103e e8cc f23b 4810 a33c cc55 2fbe
000003c0: 8edf 02be 6ebf 203b 4b23 363c 9a87 b83d
000003d0: 9132 17be 794c 68be cd29 3dbe f798 93be
000003e0: 0ef5 38be bcfe 7cbd 98b2 ba3c 02d9 bbbd
000003f0: c023 7c3c 08b2 053e 10d3 6e3d acf2 2dbd
0.0014222602 0.24393848 -0.03847853 -0.12608679 0.070941955 0.007572642 0.21088375 -0.06469045
-0.04255385 0.20241627 -0.14398131 -0.0024333447 -0.14169621 -0.00915131 -0.14087927 0.06269115
-0.13647278 -0.1583248 -0.1385667 0.10256636 -0.13812408 0.12188462 0.039264344 0.21484445
0.070527606 0.07850136 0.07296172 -0.1266789 -0.15186124 -0.19368087 -0.26547548 -0.26588875
-0.13487376 0.13403228 0.13753918 0.017171368 -0.074147254 -0.12939623 0.06618303 0.0015245974
0.1549465 -0.018191263 -0.052954108 -0.15728387 -0.11138475 0.02504484 0.16657564 -0.12013447
0.2494506 -0.04051439 -0.13289765 0.04739139 0.21443981 0.008653257 -0.029890658 0.038351864
0.15399824 -0.20040648 0.032572165 -0.030533522 0.014382333 -0.04103847 -0.07231605 -0.04327856
-0.056316003 -0.13460654 -0.17300546 -0.20299849 -0.08378723 -0.1276351 -0.14453635 0.109302275
0.08651137 -0.16980116 0.058265273 -0.15841179 0.0037106387 0.11420184 -0.17576973 -0.13043909
-0.08774065 -0.1723868 0.16095951 0.18680397 -0.19828513 0.10636082 0.17428097 -0.04985395
-0.023952872 0.068677515 0.094787866 0.14626116 0.07196146 -0.04161145 -0.12553245 -0.068770975
-0.012471986 0.01976522 0.004615578 0.04571534 -0.13648352 -0.10278466 -0.03406594 -0.18045455
-0.088188216 -0.16513778 -0.19292879 -0.029473335 0.17257363 -0.013961151 -0.0014872104 -0.008670226
-0.006540939 0.15454754 -0.06687158 -0.10976623 0.18435624 -0.0198188 0.026127787 0.17286946
-0.16318218 -0.07655579 -0.11713349 -0.17952788 -0.005790138 -0.26812547 -0.112663954 -0.078486264
-0.032083984 0.07399571 0.17244154 -0.077443585 -0.17254117 0.025175333 0.14958793 -0.027063087
0.16056183 -0.09650545 -0.07253313 -0.06343526 -0.0643675 0.18218315 0.038021095 -0.014938721
-0.22632918 -0.018194728 -0.11237474 -0.19296339 0.0038713668 0.14996041 -0.14642647 -0.16032167
0.09386352 0.18290865 -0.1933351 -0.13922754 0.20048076 0.15442643 0.02912882 0.10926178
0.021771029 -0.11778597 -0.11758044 0.17305288 0.0101043135 0.094965145 0.059001386 0.060207922
0.12680843 0.13293199 -0.11177474 0.034198876 0.18690237 0.05297802 0.18533058 0.20063433
0.08625923 -0.113425456 0.07349771 0.08169246 -0.011307627 0.16403002 -0.079631485 0.032361984
-0.152095 -0.116669714 -0.08722923 -0.053563714 -0.17439996 0.045812834 -0.059680738 -0.12788582
-0.0036301147 0.15548766 0.11361461 0.08563925 0.096724726 0.10820777 0.02943487 0.11366978
0.08888683 0.1816127 0.1742895 0.048463494 -0.04423082 -0.18074106 -0.033203706 0.20353648
0.15871239 0.16041413 -0.0751777 -0.030540332 0.12533009 -0.035913 0.06938287 -0.08841416
-0.0797365 0.10290473 0.052247018 0.1747612 -0.14341861 0.12088638 0.14638197 0.16357893
-0.003681171 -0.031300157 0.19015121 -0.12310607 0.09083539 -0.1886134 0.0072486997 0.048635185
0.05266142 -0.13044904 -0.11696787 0.08488697 0.14126459 0.0074096806 0.019905224 -0.17122573
-0.12780592 0.0024528163 0.011116813 0.09010239 -0.14765383 -0.22685422 -0.18472977 -0.2882764
-0.18062231 -0.06176637 0.022790238 -0.0917225 0.015389383 0.13056195 0.058306754 -0.042467758
