gail/save_model/0/SUB051_ckpt_0.pth.tar (torch_old, 154729 bytes, 16 tensors)

fc1.weight f4 [100, 22]
00000000: 883b a13e d51d ffbc 8ba5 27bb aee5 61be
00000010: 706d b6bd 7f57 52be f90b cbbe 78b3 28be
00000020: 593c 05be 4c25 023e 003e 8ebc 3886 2e3e
00000030: 4eb4 d8bd 184a e23c 9825 4dbe c06f 223d
00000040: 7025 723d 4033 0fbc 78f1 333d bc58 cd3d
00000050: dc39 e33d 2212 293e af43 403e 6b4b 703d
00000060: 6cbb 313e c870 823e b132 223e 4b8b b0bd
00000070: 5182 363b 2b7e 403e 1753 07bd 60a0 82bc
00000080: 80ca d93d 428d 403e 8245 3fbe 08aa 563d
00000090: c87c 253e 885d 423d e0f2 743d 8098 4abe
000000a0: 60d8 13bd e859 d7bd 4c4c 0a3e c495 50be
000000b0: 88f6 d23d 661d 773c eb8f 09be 177f 28be
000000c0: fb1d 83be 9168 983e 4b7c b83d 89dc 513e
000000d0: 1cfd d23e f4e6 823d 80e2 423d e2fd 343e
000000e0: 2aac 90bd e061 00bd 386a f13d f2de 593e
000000f0: b48a 903d 702e 3f3d 2bd9 cdbd 00e4 5a3c
00000100: 0899 e8bc 707d b63c fd4c 973e 8ddc dcbe
00000110: acc8 563d 36dd 8dbe df9f 7bbc bd93 8ebe
00000120: 368f 6a3d 8506 06be f431 e1bd 01da dabd
00000130: 33e9 1abe c8ad 403d 1ac7 463e 45c5 ebbd
00000140: 808b c0bd b850 243e 7c20 8a3d 961e 3c3e
00000150: 3081 b13c 5c39 07be 3e95 283e c202 4d3e
00000160: 2963 21be 07f8 b3bd 2b8b c8bd 5ea7 6bbe
00000170: e359 af3c e41e b13e 2d95 a53e 07f7 913d
00000180: c63a d03e 24fa f9bd 820d 0b3e e06a ae3b
00000190: 20b2 ac3d 888f b9bc 6854 bc3d 7659 283e
000001a0: edcf 41be 04e5 043e 28a2 423e 8c7a fa3d
000001b0: b053 d03d 2465 3abd 16ed d2bd 03c4 8bbe
000001c0: 7617 8dbe 7a8f ecbe cfef 65be 62dc 0a3e
000001d0: d465 1abe d223 e13d 91b2 013d 0c99 f63d
000001e0: 487b 25bd ba00 a4bd a8b9 24bd a814 703d
000001f0: 902a 173d 588b 543e 0467 453e dc31 033d
00000200: b850 0abd 94d6 07bd 8032 6ebd b81f ed3d
00000210: 618b 2c3d 7055 713e cb46 3abe 3baa efbd
00000220: 4381 d83e 4422 aabe 9e47 7abe 14e2 a9be
00000230: b424 f6bd 8093 c03a 4cbd b63d 342d bd3d
00000240: 50d3 b03d c7cf 02be 12a7 093e 00fa 77bd
00000250: 2c53 57bd d054 a33c 2a1e 173e 3e4a 1c3e
00000260: c89a 9cbd 403c 893b e552 dcbe a9e4 a63c
00000270: def0 d53e 9056 f53e 5fb1 c33e d453 8e3d
00000280: 58ff a63e c560 983e 3a91 053e 2045 303c
00000290: 6469 d23d d4ac 13bd cb67 e9bd a4c0 a73d
000002a0: b056 dc3d 96a3 0f3e 90b3 243d cb31 e2bd
000002b0: 58ee 69bd b0e6 093e 9c95 ae3d b4a8 54bd
000002c0: 2711 9e3e 11ae 0bbf b54d 3cbe 7ef6 14be
000002d0: 829d d2bc e84d 12be 7ff2 fbbe 8827 0fbe
000002e0: 5201 1cbe 5890 033e ec6e 443e c08f 013b
000002f0: 27be 2cbe d8c9 973c b9b8 58be 08d4 063d
00000300: dec1 0fbe 045e f63d c46a e23d 14c8 41bd
00000310: d033 e9bd 9783 fcbd 4a4b 9a3e a76b 383b
00000320: 8223 d93d 9b4a 423d 747a bebe f561 6c3e
00000330: bb2a b53d 3b20 123e c220 d3b9 38ec 2dbe
00000340: 1c9c 4d3e 3869 b5bd 3408 413e 73e1 31be
00000350: 30c1 1c3d 4c28 493e ced6 56be 86ef 38be
00000360: 415d 1cbe 881b fbbc f030 533d f635 48be
00000370: bbb5 c3be 7c6c 763e ab52 c13e 4e06 e53e
00000380: be42 a13e bc46 be3d 5d8c 1fbc b6d2 773d
00000390: 22ce a73d 986b 91bd 6d15 38be 947b 213e
000003a0: 6840 af3c 6ca1 f83d cc89 0b3e 4ca5 473e
000003b0: 051b 31be ff48 c4bd a8a7 6c3d a843 29bd
000003c0: 8868 ef3d 202c 83bc 8a10 863c 8dcc 003d
000003d0: 06a7 533e c9c9 993e 775e a33e 852a bfbd
000003e0: 1cf0 b1be aac9 98be 303a 91be f475 8c3d
000003f0: 52f6 4bbe 921a 0f3e 50b4 403d 14b5 073d
0.3149073 -0.031142155 -0.002558085 -0.22060272 -0.08907592 -0.2054119 -0.39657572 -0.16474712
-0.13011302 0.1270954 -0.017363548 0.17043388 -0.105812654 0.027623221 -0.20033872 0.039657354
0.059117734 -0.008740246 0.043931454 0.1002669 0.1109502 0.16510823 0.18775819 0.058665674
0.17356652 0.2547667 0.1583965 -0.08620318 0.002784867 0.1879813 -0.033038225 -0.015945613
0.10634327 0.18803886 -0.18678859 0.05240825 0.16160882 0.04745248 0.059801936 -0.19784737
-0.036095023 -0.10515195 0.13505667 -0.20369631 0.10300928 0.015082693 -0.13433807 -0.16454731
-0.2560881 0.29767278 0.09008082 0.20494284 0.41208732 0.06391707 0.04757929 0.17674974
-0.07064088 -0.03134334 0.11787838 0.21276453 0.070577055 0.046675146 -0.10051187 0.0133600235
-0.028393283 0.02227661 0.29550925 -0.43137017 0.05243747 -0.27707833 -0.01535794 -0.2784709
0.057265483 -0.13088425 -0.10995856 -0.10686112 -0.15128021 0.04704073 0.19411889 -0.115122356
-0.094016075 0.16046417 0.06744477 0.18371043 0.021668047 -0.13205475 0.16463181 0.20020583
-0.15760483 -0.08787542 -0.09792169 -0.23013064 0.021405166 0.3459388 0.32340375 0.07127195
0.4066984 -0.12205914 0.13579372 0.005322799 0.08432412 -0.022651449 0.09195787 0.16440377
-0.18926974 0.12977988 0.1900717 0.12230405 0.10172212 -0.04550661 -0.10299127 -0.27297983
-0.27556962 -0.46203214 -0.22454761 0.13560632 -0.15077907 0.1099316 0.031664435 0.1204091
-0.040400773 -0.08007951 -0.040216118 0.05861345 0.036905825 0.2075628 0.19277579 0.03202997
-0.033768386 -0.033163622 -0.05815363 0.115783155 0.04212511 0.23567748 -0.18191068 -0.11702391
0.4228612 -0.33229268 -0.24441382 -0.33180296 -0.12018719 0.0014692396 0.08922824 0.092371374
0.08634055 -0.12774573 0.13442639 -0.060541153 -0.052569553 0.019937903 0.147576 0.15262696
-0.0764671 0.0041880906 -0.43031994 0.020372706 0.4178533 0.47917604 0.3822126 0.06949583
0.32616687 0.2976133 0.13043681 0.010758668 0.10274008 -0.036053494 -0.1139675 0.0819104
0.10758722 0.14027247 0.040210307 -0.110446535 -0.057112068 0.13466907 0.085246295 -0.0519187
0.3087246 -0.5456248 -0.18389018 -0.14547154 -0.025709871 -0.14287531 -0.49208447 -0.13979924
-0.15234879 0.12848032 0.19182938 0.001976952 -0.16869412 0.018528864 -0.21164216 0.032917053
-0.14038798 0.12029651 0.1105552 -0.04730995 -0.113868356 -0.12329786 0.30135566 0.0028140338
0.10602476 0.04743443 -0.372028 0.23084243 0.08846041 0.14270107 -0.00040269463 -0.16984642
0.20079082 -0.088579595 0.18850785 -0.17371158 0.038270175 0.19644278 -0.20980379 -0.18060121
-0.15269949 -0.030652776 0.051560342 -0.19551834 -0.38224587 0.24064821 0.37758383 0.44731373
0.31496233 0.09290835 -0.009738055 0.060503684 0.081936136 -0.071006 -0.17976923 0.15769798
0.021393016 0.12140164 0.13626784 0.1949665 -0.17295463 -0.095842354 0.057777077 -0.041324288
0.1168986 -0.016012251 0.016365308 0.031445075 0.20669183 0.30036762 0.31908008 -0.09334282
-0.347535 -0.29841357 -0.28364706 0.06858435 -0.19918182 0.1397498 0.04704696 0.033131674

fc1.bias f4 [100]
00000000: aa36 9c3e 06d8 11bd e3f9 15be 23bd a3bc
00000010: 0678 64be 2590 20be ae33 e33d 3666 9dbd
00000020: 77c5 5a3e 8147 99bd bbbc 63bc 504c ca3d
00000030: 6bb6 25bd d0cd 533d a137 833e 6d35 a73c
00000040: b411 5abd fa42 3dbe 353e df3d ea3a 32be
00000050: cbdb 2d3e c740 84be bf24 b33e 2d9d a13e
00000060: 4eaf 4b3e ddc7 dbbe d9bd 03be 5d08 fdbd
00000070: ab9e 5b3e 8f62 92be b377 8fbc 805d cd3d
00000080: 23cd bcbe 19a9 c93c 1911 5cbe 7edc b33d
00000090: 92e9 78be fd13 60bd c348 86bd 0b3b 103e
000000a0: c61e 413e 8f29 a43e c639 afbe 3fbf 663e
000000b0: 9143 2b3e 20c5 e43c 762c a5be e3da 313e
000000c0: 9263 aa3e e532 aebd f8e3 0b3e c4ff d43e
000000d0: a525 dfbd d62e 953e b5a7 c63e e64f 0b3e
000000e0: f30d a4be 22aa adbe 3152 0f3d 770f c6bd
000000f0: fb04 1d3e 4429 36be b08f 1d3e 1643 d73d
00000100: 4641 a1be 1c41 dd3e e592 8c3e 781f b23d
00000110: f567 f9bd ea29 843e 6418 3dbe 4973 0cbe
00000120: a34e c23d c2c9 a63e e4a3 86be 9f1f 7b3e
00000130: 1c30 f63d 517b 3a3e ad57 0cbe 164f 3dbe
00000140: 4ca9 5b3c a5be 59bd 19fb 11be 42da 113e
00000150: 864e 1a3e ce50 22be fe08 82be 2f26 483e
00000160: 6306 a33e ea57 183e b42f 663d 709e 2fbe
00000170: 1f02 67be 8cfe 303e 97db edbd bb63 8f3e
00000180: 1a46 0bbf 1819 74be 8bbb 5c3e 6b21 783e
0.30510455 -0.035606407 -0.14646105 -0.019987648 -0.2231141 -0.15679987 0.110938415 -0.07685511
0.2136439 -0.074843414 -0.013899977 0.09877837 -0.04045717 0.05170995 0.2562838 0.020411218
-0.05323954 -0.18482581 0.10900537 -0.17405286 0.16978376 -0.2583067 0.34988973 0.31565228
0.19891092 -0.4292592 -0.1286539 -0.12355111 0.21447246 -0.2859082 -0.017513132 0.10027599
-0.36875257 0.024616765 -0.21490897 0.0878229 -0.2430785 -0.054706562 -0.06556847 0.14085023
0.18859395 0.32062957 -0.34223765 0.22533892 0.16724993 0.027926028 -0.32260484 0.17368655
0.3327909 -0.08505801 0.13661182 0.41601384 -0.10895852 0.29137295 0.38799825 0.13604698
-0.32041892 -0.33918864 0.034990493 -0.096709184 0.15333931 -0.17789179 0.15386844 0.105108425
-0.31495112 0.43213737 0.27455822 0.086974084 -0.12178031 0.25813228 -0.18466336 -0.13715853
0.09487655 0.32575804 -0.26296914 0.24523781 0.12020895 0.18211104 -0.1370532 -0.184872
0.013407063 -0.05316033 -0.14255942 0.14243415 0.15069017 -0.15851137 -0.25397485 0.19545816
0.3184081 0.14877287 0.056197837 -0.17150283 -0.22559403 0.17284602 -0.11614149 0.28005776
-0.5440384 -0.23837698 0.21555917 0.24231498

fc2.weight f4 [100, 100]
00000000: 2bff 243e 7220 a63e 818e 3cbf dd2b da3d
00000010: 5e81 04bf a441 0cbf 31f9 23bd 0f8c a5bd
00000020: 022f dc3c d8bb 4d3e 3d4e eabb 2809 163f
00000030: 571c ecbd 92f2 d13b 575b c53e 8eec 353e
00000040: 4904 01be 8736 66bd e5d9 3c3f fccc b5be
00000050: ea2e f2bd 5d89 e8be 5a11 f03e 6f78 e83e
00000060: d00f e13e e15e 14be 8196 a3be 9925 b83d
00000070: 0298 a73e d687 e1bd 169f eabd 2f3f cc3e
00000080: b84a d8be 3c43 23bd bc23 c8be f62f 673e
00000090: 2a9a 43be 9dee ebbc 2f6a 483d 7431 b53e
000000a0: 1d1f 973e f850 c83e 8659 93be 264e 0a3e
000000b0: 9045 e73d 705b 84bb 1464 aa3c 3ede be3d
000000c0: e9e1 c03e f258 e3be 403a 0d3e 233e ae3e
000000d0: 371b 71bd e814 ac3e d6f7 d13e 0e82 953e
000000e0: 7316 0abf 38d1 b1be f34f b93b b8b3 cdbe
000000f0: 2a11 fabc 0847 c0be ad2d 773e 2aec 903e
00000100: 4733 b8be a728 8b3e 961b 803c 7390 8abd
00000110: d823 a93d ebff a03e 1b2a 24bf 47b0 b4be
00000120: 316b 5e3d 0907 aa3e 1b18 c0be 63e2 623e
00000130: 8825 f83e 02db 8d3d 005e c5be 7037 eebe
00000140: 542d fb3d de47 9bbe fdbb 42bd 5a91 d13e
00000150: ec3a 313e 76bb b6bd fae9 c3be 8556 833e
00000160: b7a1 763e 6457 813e 12be 793d 1da6 f2bd
00000170: f441 03bc 9cc0 363e fe97 a1be b084 3c3d
00000180: 49a2 97be 2657 4dbe 55e2 823e 01dc b63e
00000190: 03a9 7cbe d337 bcbd ff45 81bd ed4c b9be
000001a0: 1269 e4bd bd65 3ebd c504 883e 1f1e cb3e
000001b0: fecd cdbe 616c 8fbe 8873 af3e e3be f7bc
000001c0: 4ad2 d2be 452d af3e 4410 87be ff4e dc3e
000001d0: d4a8 1fbf 48c4 ae3e 3933 d63d 8815 acbe
000001e0: 3243 f13e 1f0b f43d 11f5 c33e b01c d7bd
000001f0: 5cd9 e13e 4898 9f3e 6888 a4be a68a a43b
00000200: 2f74 6cbd 92ed 8a3e 4c5d eabe 27c9 843d
00000210: 0e0b 3ebd 3d87 b23e 30e2 4b3e fdb0 c9bd
00000220: 83c5 7b3e 87d3 d83e 8564 1f3e 7006 ecbd
00000230: cbb6 cbbd 30b5 f33c f66b efbe ba14 bbbe
00000240: 3626 ef3e ef34 843e 4d15 3cbe c45c bebe
00000250: 74c5 7fbe 182f eb3b ef22 1e3f 6a51 90be
00000260: a930 02bf 4ac0 993d 635a 5dbe c0d3 923b
00000270: 4350 0dbf be98 723e 057f bb3e f1bc ec3d
00000280: afc5 f73e c4b4 82bd f2b8 e2bd 3168 17be
00000290: b78d 1e3d ee22 3abe aebb 8cbe 01a9 0e3f
000002a0: 89cc 82be 2037 a8bd 8ffb 6cbd d2a3 1d3e
000002b0: 9ba6 183f 46e6 4bbe d50e 8a3e 1cc0 f13e
000002c0: 93e0 a2bd eff5 023f 8ae3 893e af38 1dbd
000002d0: 9db2 4d3e 9783 86be 70bb 8d3e d21c b23c
000002e0: 3465 fd3e 855a 013f 2b04 e63d ab21 003f
000002f0: 47ee b33d 2e35 393c b9c0 d3be d596 a23e
00000300: eaf9 94be f26e cf3e efd4 1cbd 1eff e03e
00000310: 803a 603e 98be 433e 989b 36be 8b81 463e
00000320: 0756 973e d8ed a43e c0d3 5bbf 817f dc3d
00000330: 5601 12bf 8037 fabe 24a4 98bc 6676 a5bd
00000340: ddc2 843d 5fdc a13e 7d43 9c3d cc36 3a3f
00000350: 252b 79bd 934a 4cbd 35fd b23e fe37 2f3e
00000360: 542f 8dbe 9365 06be 92f2 323f f6a9 d4be
00000370: 692e dd3c 7d30 c5be b9eb 143f 5b26 eb3e
00000380: 5f7a ae3e d849 7fbd 3a64 9ebe 8d46 9e3e
00000390: bf94 d23e 1f4a 3fbe ea92 5cbe 9f71 bf3e
000003a0: 5316 c8be bc4e a5bd faea ddbe a522 893e
000003b0: e3e9 04be 82d0 36bd bd53 e13d b76e 963e
000003c0: 53ec 963e d2dc 0d3f 2369 e0bd 4c17 f13b
000003d0: 7c84 6b3e f0b5 8bbd 8fbb 253d 202a b73d
000003e0: ca73 ad3e c367 a7be 0aa4 533e 4bf4 8f3e
000003f0: a8ee 6dbe a1c1 d63e 35bc aa3e 881d 853e
0.16112964 0.3244663 -0.73654944 0.106528975 -0.517599 -0.5478766 -0.04003257 -0.08083355
0.026877884 0.20091188 -0.00715044 0.5860772 -0.11528843 0.0064070905 0.3854625 0.1776602
-0.12599291 -0.056204345 0.7376998 -0.35507953 -0.118253544 -0.454173 0.46888238 0.45404384
0.43957376 -0.14489318 -0.31950763 0.08991546 0.3273316 -0.11012237 -0.114561245 0.39891955
-0.42244506 -0.03985904 -0.39089763 0.2257689 -0.19101778 -0.028800303 0.04892939 0.35389292
0.29515925 0.39124274 -0.28779238 0.13506374 0.11292565 -0.0040392205 0.020799674 0.09319733
0.37672356 -0.44403797 0.13791752 0.34031782 -0.058863845 0.336097 0.41009396 0.29200786
-0.53940505 -0.34729934 0.0056552826 -0.40176177 -0.030525763 -0.37554193 0.24138518 0.2830518
-0.35976622 0.27179453 0.015638154 -0.06765833 0.0825879 0.3144525 -0.6412675 -0.3529074
0.054301444 0.33208492 -0.3751839 0.22156672 0.48466134 0.06926538 -0.3854828 -0.4652667
0.12264505 -0.30328268 -0.04754256 0.40931207 0.17307633 -0.08922474 -0.38264447 0.25651947
0.24085127 0.25261986 0.06097228 -0.1184809 -0.00801133 0.17846912 -0.31561273 0.04602498
-0.29616 -0.20052776 0.25563303 0.35714725 -0.24673848 -0.09190335 -0.06312179 -0.36191502
-0.11152853 -0.046483744 0.2656614 0.39671418 -0.40196222 -0.28012374 0.3426783 -0.030242389
-0.41176063 0.34214225 -0.26379597 0.4302902 -0.62366986 0.34134126 0.10458989 -0.33610177
0.47121578 0.11916184 0.38272908 -0.105035186 0.44111145 0.3117087 -0.3213532 0.005021411
-0.05772799 0.27134377 -0.45774305 0.06483679 -0.04639726 0.34868804 0.19910502 -0.09848211
0.24587063 0.42348883 0.15565689 -0.11524665 -0.09946974 0.029749483 -0.46762055 -0.3653925
0.4670884 0.25821635 -0.183675 -0.3718015 -0.24977666 0.007177245 0.61772054 -0.28187114
-0.508555 0.07507379 -0.21616511 0.004480809 -0.55200595 0.23691079 0.36620346 0.11559475
0.48393008 -0.063821346 -0.11070432 -0.1478584 0.03870937 -0.18177387 -0.27486938 0.5572663
-0.25546673 -0.08213639 -0.057857092 0.15394524 0.5962922 -0.19912061 0.2696444 0.4721688
-0.079529904 0.51156515 0.2693141 -0.038384136 0.20087667 -0.2627227 0.27682066 0.021742258
0.49491274 0.50528747 0.11231264 0.50051373 0.08785682 0.011304183 -0.41357973 0.317557
-0.2909692 0.40514332 -0.038289007 0.4394464 0.21897316 0.19115674 -0.17832792 0.19385354
0.2955782 0.3221271 -0.8586998 0.10766507 -0.5703329 -0.48870468 -0.018632956 -0.08079223
0.0648248 0.31613442 0.0763006 0.72739863 -0.06083216 -0.049875807 0.34958807 0.17111203
-0.2757517 -0.13124685 0.6990138 -0.4153592 0.02699967 -0.38513556 0.58172184 0.459277
0.34077737 -0.062326282 -0.30935842 0.309132 0.4112911 -0.18680619 -0.21540418 0.37391374
-0.39079532 -0.08071658 -0.43343335 0.26784244 -0.12979846 -0.044632442 0.110023 0.29381344
0.29477176 0.5541507 -0.10957553 0.0073575135 0.22999758 -0.06821811 0.040462073 0.089435816
0.33877403 -0.3269635 0.20668045 0.28116068 -0.23235571 0.41944602 0.33346716 0.25999093

fc2.bias f4 [100]
00000000: 1b70 d23e 9997 04be be46 b93e 76de aabe
00000010: a287 c53e 2a06 bb3e 0721 ec3e 0f98 62be
00000020: 4841 4abe 6f03 04bf 4395 ff3e 7758 ad3e
00000030: 65ec 9abe db81 b0be 6144 0d3f 1124 f43e
00000040: a19e dfbe 7b54 dfbe 6c42 06bf ae22 b9be
00000050: c343 f3be 787c c43e ff28 9bbe d7fe 153e
00000060: 115d 9f3e 3aa6 88be fdd5 623e 3829 04be
00000070: ab37 003f 4a22 c4be b114 e13e 2241 84bc
00000080: 95c8 e83e 8aa5 05bf 903f 95bd 5875 033f
00000090: e0ea e03e bd83 f33e b458 f3be 0f3a 6bbe
000000a0: 729e 093f 2e97 02bf f111 efbe d17f c9be
000000b0: f30e 013f 9a1f e23e d4a1 e93e c51c b0bd
000000c0: f1fc a1be a796 05bf d86e 953e 338d 423e
000000d0: d0e2 bebe 9435 cd3e d6f1 aebe d114 8e3e
000000e0: 7177 09bf 08dc a6be 4745 8d3d 151f 073e
000000f0: ba5c ccbe cb3b f8bd c17e bbbd 87b5 65be
00000100: 8c28 fc3e 21f9 ccbe 02ea eebe 058c b3be
00000110: 8f25 da3e 1275 e33e 36a9 43be b601 ba3e
00000120: 5dca 003f 2165 ffbc fda4 d7be adab 5cbe
00000130: 4903 203e f765 963e 0032 f6be 74ea c2be
00000140: 441b 263d 6a5c bf3e c32d 91be 3e8a 6abe
00000150: 140f 94be 441a 113d 40bf d0be 39a0 8b3e
00000160: 2360 ad3e b6c0 0d3f 8181 cb3e f7fb 033e
00000170: 8a7c ea3e dc37 bd3b 1eab 01bf 26da 0bbf
00000180: 7a97 0cbe fc44 143e 4080 d7be 7829 003f
0.41101155 -0.12948455 0.36186785 -0.3337285 0.38580042 0.3652814 0.46118948 -0.22128318
-0.19751465 -0.5156774 0.49918565 0.33856556 -0.3025848 -0.34474072 0.5518246 0.47683766
-0.43675712 -0.4361914 -0.524451 -0.3615927 -0.47512636 0.38376212 -0.30304715 0.14647995
0.31125692 -0.2668932 0.22151943 -0.12906349 0.5008494 -0.3830741 0.439611 -0.016144339
0.45465532 -0.5220572 -0.07287514 0.5135093 0.43929195 0.47561446 -0.47528613 -0.22971366
0.53757393 -0.5101193 -0.46693376 -0.3935533 0.50413436 0.44164735 0.45631278 -0.08599237
-0.3163829 -0.52183 0.2918613 0.18999176 -0.3728242 0.4007994 -0.3416888 0.27750257
-0.5369788 -0.32589746 0.06897979 0.1319545 -0.39914495 -0.121207796 -0.09155036 -0.22432528
0.49249685 -0.4003382 -0.4666291 -0.35067764 0.4260678 0.44425255 -0.19107518 0.3632943
0.5030878 -0.031176152 -0.42118064 -0.21549864 0.15626253 0.29374668 -0.48085022 -0.380695
0.040553346 0.37375194 -0.28355226 -0.22904298 -0.28917754 0.03542544 -0.40770912 0.27270678
0.3386241 0.5537218 0.3974724 0.12889086 0.4579814 0.005774481 -0.5065173 -0.54629743
-0.13729659 0.1447944 -0.42090034 0.50063276

fc3.weight f4 [2, 100]
00000000: b26f 0740 23d1 6040 b397 0740 bd83 aebf
00000010: adc2 48c0 b5ab 0b40 b7fd 0e40 0dae 4340
00000020: 0b02 4640 81f9 0ec0 7979 0e40 eef7 0640
00000030: 2467 2ec0 fa77 11c0 6de7 0840 e2b2 0540
00000040: 5e95 06c0 c138 0cc0 b593 06c0 486f 07c0
00000050: ab2a 0cc0 a9d5 1040 340e 1ac0 dcc4 2740
00000060: ea12 1140 62f6 2cc0 1366 45c0 41db 5e40
00000070: 8fe3 0640 d43d 0fc0 feab 0f40 c1d5 5c40
00000080: 4899 0f40 1820 0ac0 a379 f5bd 0203 0a40
00000090: 82a0 0f40 9444 0740 8050 0ec0 c220 1fc0
000000a0: a191 0b40 f947 08c0 afaf 0cc0 8edb 10c0
000000b0: 7155 0840 8d67 0b40 dfa3 0c40 fd6d 4340
000000c0: d58c 0fc0 5816 08c0 7843 1140 9051 2d40
000000d0: 2b3b 0ac0 8136 0d40 f854 12c0 5580 46c0
000000e0: b536 09c0 a096 14c0 1bc3 5ec0 fdf2 3cc0
000000f0: ac64 14c0 cefc 1ac0 b1f2 4540 c0bf 28c0
00000100: 0e2a 0a40 75dc 0ec0 27b9 07c0 bc64 0ec0
00000110: d2dd 1040 e05b 1040 69c1 4540 33d4 1940
00000120: 3458 0940 bfbf 5c40 9d07 0bc0 782b 24c0
00000130: 081e 2440 4a07 1340 00e0 0ec0 396a 0bc0
00000140: 9333 3dc0 3258 1340 8d1a 4640 2acc 18c0
00000150: 35c2 4d40 2585 0540 a669 0bc0 0c35 1440
00000160: 7864 0640 c030 0b40 f445 0840 99ec 62c0
00000170: af1e 0740 01f1 24c0 4d1a 09c0 7567 07c0
00000180: 550c 5540 e5da 1b40 a27e 07c0 72e0 0f40
00000190: 0e90 17c0 f534 69c0 cbe1 17c0 1156 3640
000001a0: 8daa 3640 6962 18c0 28df 15c0 358c 3fc0
000001b0: 9f44 3fc0 c2d8 1640 e737 17c0 ae1f 16c0
000001c0: a386 2c40 28fb 1040 f518 18c0 167b 16c0
000001d0: ff42 1640 fcfa 1740 258d 1640 2801 1840
000001e0: 3eb0 1840 e631 14c0 e5ac 1440 f758 2ac0
000001f0: c29f 15c0 9a6a 2a40 0d5a 3e40 97f0 67c0
00000200: ac9c 17c0 0222 1740 745f 17c0 ff74 67c0
00000210: cc19 16c0 67cb 1840 6d26 fb3f df61 18c0
00000220: 6b03 16c0 999a 17c0 f4e4 1840 000b 1940
00000230: 69ba 18c0 a359 1740 972d 1940 d42f 1540
00000240: 8d08 18c0 3b8f 19c0 1f98 17c0 23cf 4fc0
00000250: 94a8 1740 4dde 1740 b061 13c0 f21c 29c0
00000260: 0714 1c40 bcb6 18c0 aa2c 1440 c128 4140
00000270: 4202 1840 f458 1240 e1fe 6740 6ff3 4e40
00000280: 3814 1240 6ce1 1440 bda6 50c0 7ab1 2640
00000290: 45cc 17c0 e29d 1640 dd66 1940 c0bf 1740
000002a0: 2859 14c0 342f 14c0 bb93 42c0 0ae3 14c0
000002b0: 4a2a 18c0 8d5c 67c0 968c 1c40 081b 1e40
000002c0: d035 23c0 a9d1 12c0 b2e0 1840 239d 1840
000002d0: b70d 4f40 a83f 11c0 8f91 40c0 a88d 1140
000002e0: 03cf 2bc0 c960 50c0 4567 1a40 5e4f 13c0
000002f0: 3aff 16c0 bdcc 19c0 e35b 18c0 6163 6940
00000300: 0ffd 18c0 b75e 4a40 6317 1840 fab9 1740
00000310: e98f 5ec0 262c 17c0 b167 1940 3f19 16c0
2.1161923 3.5127647 2.118634 -1.3633953 -3.136882 2.1823552 2.2342355 3.0574982
3.0938747 -2.2339785 2.226164 2.1088824 -2.7250452 -2.2729478 2.139125 2.0890431
-2.1028666 -2.190964 -2.1027653 -2.116167 -2.1901042 2.2630408 -2.407117 2.6213903
2.2667794 -2.702538 -3.084355 3.4821322 2.107639 -2.2381487 2.2448726 3.4505465
2.2437305 -2.1582088 -0.11986091 2.1564336 2.2441716 2.1135607 -2.2236633 -2.4863744
2.1807635 -2.1293929 -2.1982229 -2.2634006 2.130215 2.1781952 2.197502 3.0535882
-2.2429707 -2.1263638 2.269743 2.7081032 -2.1598613 2.2064517 -2.286436 -3.1015828
-2.143964 -2.3216934 -3.4806583 -2.9523308 -2.3186445 -2.42168 3.0929377 -2.6367035
2.1588168 -2.2322056 -2.1206758 -2.2248983 2.2635388 2.2556076 3.0899298 2.4035766
2.1460085 3.4492033 -2.1723397 -2.5651531 2.564333 2.29732 -2.2324219 -2.1783583
-2.9562728 2.302258 3.0953705 -2.3874612 3.2149785 2.0862515 -2.1783233 2.3157377
2.0998821 2.1748505 2.1292696 -3.5456908 2.1112478 -2.5772097 -2.1422303 -2.1156895
3.3288777 2.4352353 -2.117104 2.248074 -2.3681674 -3.6438572 -2.3731563 2.849003
2.8541596 -2.3810065 -2.3417454 -2.9929326 -2.9885633 2.3569798 -2.362787 -2.3456836
2.6957176 2.2653294 -2.3765233 -2.3512626 2.347839 2.3746939 2.3523648 2.3750706
2.385757 -2.3155456 2.3230526 -2.66168 -2.3378758 2.6627564 2.9742463 -3.6240594
-2.3689375 2.3614507 -2.365201 -3.6165159 -2.3453245 2.3874147 1.9621102 -2.3809736
-2.3439586 -2.368811 2.3889742 2.3912964 -2.3863776 2.364846 2.3934076 2.3310442
-2.375522 -2.399367 -2.3686597 -3.2470176 2.3696642 2.3729432 -2.3028374 -2.6423917
2.4387224 -2.3861532 2.315226 3.0181124 2.3751378 2.2866793 3.6249316 3.233608
2.282484 2.3262587 -3.260177 2.6045823 -2.3718426 2.3533864 2.3969033 2.3710785
-2.3179417 -2.315381 -3.0402668 -2.3263574 -2.3775811 -3.6150239 2.4460807 2.4703999
-2.5501595 -2.2940466 2.3887143 2.3845909 3.235212 -2.2695103 -3.0088842 2.274271
-2.68451 -3.2559073 2.412553 -2.3017192 -2.3593278 -2.4031212 -2.3806083 3.6466906
-2.3904455 3.162031 2.3764274 2.370726 -3.4775336 -2.3620696 2.3969538 -2.345291

fc3.bias f4 [2]
00000000: 73cd 0640 6ac3 06c0
2.1062896 -2.1056771

fc1.weight f4 [100, 22]
00000000: b11d 7e34 1c2f fd33 1e4c f5b3 1c4e 9a33
00000010: 9969 9db3 1bac 3eb3 8169 9db3 04ff d3b3
00000020: b923 79b3 bb9c 0080 096d 0200 1f1b 0800
00000030: f147 0400 5f36 0c80 340d 0900 7aba 1280
00000040: 2b2d 0800 0c35 0580 5db2 0980 ecd6 1680
00000050: 8d1b 0a80 1cfb 2782 de89 44aa 5b2b 032d
00000060: 8db2 95ad b4bc 0cac bc35 a72d 36d5 1cab
00000070: 06b5 0e2c 8e0c 072c 3623 e22a 588e 0100
00000080: 2e89 0e80 9e8a 1100 f242 1200 e243 0200
00000090: 7572 0a80 86a3 0d00 54ed 0b80 1442 1080
000000a0: 1148 0b80 dc98 1080 a430 1380 0f55 0c80
000000b0: a3aa 6137 f444 9c36 66dd d4b5 202a 4e37
000000c0: d430 4fb5 bddb 6eb6 de4e 87b6 859a 12b7
000000d0: bc15 39b6 8e48 1300 ac53 0080 b08b 1100
000000e0: da70 0a80 81a0 0780 a024 0180 89b5 0680
000000f0: ee23 0180 9845 0e00 7eb8 0080 bd0d 0c00
00000100: 2c11 1400 2b38 0800 c135 d2bd 98c7 1f3b
00000110: 2a2e e73a 9c88 8f3b 3d65 353b eb49 4d3d
00000120: 6e59 1c3d 5f4c ed3c 92f1 363d 4186 0580
00000130: f2c1 0900 3d41 0e00 c91a 1580 c855 0500
00000140: 794d 0c80 89ec 0700 1fd1 0e00 9bb5 0400
00000150: 3c34 1500 4e87 0800 5488 0280 9773 0780
00000160: 94d0 9935 a236 2734 8dd6 a434 2495 1334
00000170: 73a4 4735 1e9d eab3 3670 d6b3 74fa 6cb3
00000180: 5967 efb3 633b 0580 f87f 0f00 2d3a 0580
00000190: d05e 1700 3211 0100 d6cc 0300 8b25 1880
000001a0: 6537 1600 f754 0580 6b3d 0980 5339 1600
000001b0: 0503 0f00 b23c 1080 24ee c333 bcd0 0db5
000001c0: 38f6 5734 42ea 21b4 6ee3 2434 5f04 2e33
000001d0: 226c 0633 ce9f 26b2 d3bf 2a33 063f 0a80
000001e0: 79b7 0980 cae2 0580 18e6 1500 7b69 0100
000001f0: b377 1280 c28a 0900 ec72 1300 4726 1980
00000200: 4682 0200 c262 1680 e292 1300 2e94 1480
00000210: fbad ac2d e7ff 8e2c 546c c42c 191f f52b
00000220: e66c ae2c 6c1d f3ac 3995 81ac 06d7 22ac
00000230: e894 b6ac 2de8 1380 146d 0900 820d 0500
00000240: 5cae 1000 4ab1 0080 b106 0300 a8d0 0380
00000250: 6b3b 0480 bb68 0a00 3625 0b80 506d 0800
00000260: 5791 0880 d43a e902 f3e3 d8b0 6244 ffb2
00000270: b475 08b1 6e6e fdb2 7f63 64b2 2703 5231
00000280: 9010 8a31 70d1 9231 5a00 7231 08de 1400
00000290: 3344 1000 4737 1100 7fc7 0e80 8c8e 1200
000002a0: d6de 0880 400e 0600 c9bb 0080 fa29 0600
000002b0: e551 1200 0822 0100 20d6 0780 b177 0b00
000002c0: bc35 d2bd 92c7 1f3b 202e e73a a288 8f3b
000002d0: 3d65 353b e549 4d3d 6959 1c3d 594c ed3c
000002e0: 90f1 363d c6f4 0100 8267 0b80 1943 0e80
000002f0: faa4 0e80 fdbf 1380 8151 1500 7da7 0b80
00000300: 3412 0f00 43ba 0f80 8ae0 1480 1aab 1480
00000310: 321a 0b80 ff50 0d80 c235 d2bd 8ec7 1f3b
00000320: 232e e73a 9c88 8f3b 3965 353b ed49 4d3d
00000330: 6e59 1c3d 5f4c ed3c 93f1 363d 24eb 0080
00000340: 06b0 1580 ae2c 0580 a214 0e80 5ab0 1580
00000350: e3f2 0600 9f07 0500 eaf9 0e00 1e67 0780
00000360: 742e 0180 0cf4 0900 9f8e 0b00 54dd 0a80
00000370: c835 d23d 8ac7 1fbb 1e2e e7ba 9888 8fbb
00000380: 2d65 35bb ec49 4dbd 7159 1cbd 634c edbc
00000390: 97f1 36bd d1b1 0600 174c 0900 e133 0580
000003a0: a12b 0280 c3b0 0500 2745 1600 4b27 0580
000003b0: dca2 0a00 4644 1100 5bb4 1780 a791 1500
000003c0: 985f 0080 988c 0300 c435 d23d 92c7 1fbb
000003d0: 2a2e e7ba 9a88 8fbb 3565 35bb eb49 4dbd
000003e0: 6d59 1cbd 624c edbc 92f1 36bd e051 0280
000003f0: 37ee 0c80 1853 0100 03a4 0a00 2cd1 0600
2.3666395e-07 1.17898e-07 -1.1422547e-07 7.185392e-08 -7.33009e-08 -4.439435e-08 -7.330073e-08 -9.87184e-08
-5.800732e-08 -5.6224e-41 2.22785e-40 7.44413e-40 3.9315e-40 -1.12153e-39 8.31256e-40 -1.719934e-39
7.50887e-40 -4.78207e-40 -8.90504e-40 -2.09748e-39 -9.28238e-40 -1.2341287e-37 -1.7456129e-13 7.456115e-12
-1.7018631e-11 -1.9999948e-12 1.9009565e-11 -5.5718223e-13 2.0279902e-12 1.9191623e-12 4.0170097e-13 1.42899e-40
-1.334908e-39 1.61093e-39 1.677054e-39 2.08023e-40 -9.59414e-40 1.252523e-39 -1.095328e-39 -1.493072e-39
-1.036043e-39 -1.524204e-39 -1.762323e-39 -1.132539e-39 1.34507745e-05 4.6571895e-06 -1.5859666e-06 1.2288365e-05
-7.7184563e-07 -3.5592668e-06 -4.032495e-06 -8.738255e-06 -2.75798e-06 1.770902e-39 -3.0016e-41 1.611314e-39
-9.58838e-40 -7.00426e-40 -1.04974e-40 -6.16136e-40 -1.04725e-40 1.310662e-39 -6.6183e-41 1.106954e-39
1.84287e-39 7.54833e-40 -0.10264159 0.0024380442 0.0017637659 0.004380299 0.002767875 0.05011932
0.038171224 0.02896708 0.044663973 -5.07339e-40 8.96094e-40 1.3091e-39 -1.938154e-39 4.8995e-40
-1.129818e-39 7.27701e-40 1.360715e-39 4.3249e-40 1.947284e-39 7.83222e-40 -2.32576e-40 -6.84314e-40
1.1460093e-06 1.5572962e-07 3.0703487e-07 1.3744699e-07 7.437258e-07 -1.09250536e-07 -9.9855626e-08 -5.5175818e-08
-1.11481036e-07 -4.80481e-40 1.423439e-39 -4.80047e-40 2.146229e-39 9.8004e-41 3.48988e-40 -2.21752e-39
2.040253e-39 -4.89657e-40 -8.48552e-40 2.040945e-39 1.378616e-39 -1.491141e-39 9.1237126e-08 -5.283034e-07
2.0113009e-07 -1.5079516e-07 1.5356429e-07 4.0516507e-08 3.1297652e-08 -9.698807e-09 3.9755673e-08 -9.40964e-40
-8.92337e-40 -5.40534e-40 2.011088e-39 1.29675e-40 -1.695979e-39 8.76296e-40 1.7861e-39 -2.309619e-39
2.30404e-40 -2.055809e-39 1.797566e-39 -1.889867e-39 1.9631399e-11 4.0642936e-12 5.582682e-12 1.7416928e-12
4.9574676e-12 -6.909742e-12 -3.6829676e-12 -2.3140947e-12 -5.189283e-12 -1.828163e-39 8.6565e-40 4.64023e-40
1.531916e-39 -6.36e-41 2.77907e-40 -3.50358e-40 -3.88657e-40 9.55925e-40 -1.023539e-39 7.73898e-40
-7.86822e-40 3.4270039e-37 -1.5780856e-09 -2.9717004e-08 -1.9857511e-09 -2.9503294e-08 -1.32939695e-08 3.0560814e-09
4.0182115e-09 4.2729695e-09 3.5215835e-09 1.91636e-39 1.493833e-39 1.581033e-39 -1.357263e-39 1.704175e-39
-8.14622e-40 5.56125e-40 -6.7365e-41 5.66071e-40 1.682417e-39 1.04044e-40 -7.19662e-40 1.053128e-39
-0.10264155 0.0024380428 0.0017637648 0.0043803016 0.002767875 0.0501193 0.038171206 0.02896707
0.044663966 1.79644e-40 -1.047322e-39 -1.309767e-39 -1.34488e-39 -1.813747e-39 1.957784e-39 -1.070274e-39
1.384062e-39 -1.44435e-39 -1.91726e-39 -1.89809e-39 -1.019588e-39 -1.222917e-39 -0.1026416 0.0024380418
0.0017637651 0.004380299 0.0027678742 0.05011933 0.038171224 0.02896708 0.044663977 -8.4353e-41
-1.991691e-39 -4.75206e-40 -1.293099e-39 -1.991808e-39 6.38144e-40 4.61911e-40 1.375349e-39 -6.7984e-40
-1.085e-40 9.14067e-40 1.061353e-39 -9.97753e-40 0.10264164 -0.002438041 -0.0017637645 -0.004380297
-0.0027678714 -0.050119326 -0.038171235 -0.028967088 -0.04466399 6.14801e-40 8.53815e-40 -4.77788e-40
-1.99322e-40 5.22588e-40 2.045188e-39 -4.73273e-40 9.76778e-40 1.585695e-39 -2.176916e-39 1.980796e-39
-3.4293e-41 3.25942e-40 0.10264161 -0.0024380428 -0.0017637659 -0.004380298 -0.0027678732 -0.05011932
-0.03817122 -0.028967086 -0.044663973 -2.13042e-40 -1.187481e-39 1.21644e-40 9.77191e-40 6.2605e-40

fc1.bias f4 [100]
00000000: 0044 ccb3 58fe d4ac 6c99 3ab7 a13e 0bbe
00000010: 022c 87b5 de99 3ab2 e2bd f7ad a53f 1731
00000020: 9c3e 0bbe a03e 0bbe a43e 0b3e a13e 0b3e
00000030: 0e9e a631 a33e 0b3e a63e 0bbe a33e 0b3e
00000040: a43e 0bbe a33e 0bbe 953e 0b3e a73e 0bbe
00000050: d985 fab4 9c3e 0b3e 0684 a635 644f 4c31
00000060: 9b3e 0bbe 6abe 3632 9c3e 0bbe a33e 0bbe
00000070: 98b4 ed35 a53e 0b3e 2f3d 0fb2 4a12 9533
00000080: c0e9 8a2b a33e 0b3e 9f3e 0bbe e213 e1ab
00000090: 6945 892e 9371 08b5 76c5 3ab7 d95a aeaa
000000a0: 983e 0bbe e3cd 6033 ec6e b3b5 deac 1b2f
000000b0: 5825 7d34 4aa3 70ac 9e3e 0b3e 9e3e 0bbe
000000c0: a393 0030 a43e 0bbe 9e3e 0bbe a23e 0bbe
000000d0: a33e 0b3e 943e 0b3e 207c 0eb6 a23e 0bbe
000000e0: 225d b7b3 9c3e 0b3e a23e 0b3e 993e 0bbe
000000f0: a33e 0b3e 993e 0b3e 9e3e 0b3e 9c3e 0b3e
00000100: a43e 0b3e 387f b432 27f2 952e a33e 0bbe
00000110: a13e 0b3e dba0 7e37 e039 acb7 a33e 0b3e
00000120: 9d3e 0b3e a53e 0bbe 9d3e 0bbe a23e 0b3e
00000130: a33e 0b3e a33e 0bbe 789e d232 953e 0b3e
00000140: 5d1f c3ae 5a8a 64b5 993e 0bbe 9d3e 0b3e
00000150: 4536 1ba5 a33e 0b3e ed47 13b5 a786 b2b6
00000160: a23e 0b3e 99b1 0dab b328 d5b1 8167 95b8
00000170: 7290 a8ac a53e 0b3e a13e 0bbe 993e 0b3e
00000180: f719 d22a 983e 0b3e dfc9 1a36 a23e 0bbe
-9.5118594e-08 -6.0536402e-12 -1.1122185e-05 -0.1359811 -1.0071092e-06 -1.086161e-08 -2.8164974e-11 2.200957e-09
-0.13598102 -0.13598108 0.13598114 0.1359811 4.8492046e-09 0.13598113 -0.13598117 0.13598113
-0.13598114 -0.13598113 0.13598092 -0.13598119 -4.6663516e-07 0.13598102 1.2406388e-06 2.9731035e-09
-0.13598101 1.0637089e-08 -0.13598102 -0.13598113 1.7710436e-06 0.13598116 -8.337607e-09 6.94168e-08
9.870368e-13 0.13598113 -0.13598107 -1.599273e-12 6.2423684e-11 -5.082922e-07 -1.1132439e-05 -3.0971647e-13
-0.13598096 5.2341317e-08 -1.3368822e-06 1.4158583e-10 2.3576047e-07 -3.4196695e-12 0.13598105 -0.13598105
4.6775933e-10 -0.13598114 -0.13598105 -0.13598111 0.13598113 0.1359809 -2.12319e-06 -0.13598111
-8.538542e-08 0.13598102 0.13598111 -0.13598098 0.13598113 0.13598098 0.13598105 0.13598102
0.13598114 2.101261e-08 6.8187504e-11 -0.13598113 0.1359811 1.5177032e-05 -2.0530948e-05 0.13598113
0.13598104 -0.13598116 -0.13598104 0.13598111 0.13598113 -0.13598113 2.451928e-08 0.13598092
-8.8731446e-11 -8.5137947e-07 -0.13598098 0.13598104 -1.3462494e-16 0.13598113 -5.4866433e-07 -5.320489e-06
0.13598111 -5.033973e-13 -6.203743e-09 -7.124153e-05 -4.790884e-12 0.13598116 -0.1359811 0.13598098
3.732151e-13 0.13598096 2.3065293e-06 -0.13598111

fc2.weight f4 [100, 100]
00000000: e61b ce32 2289 58ac a17d 0336 440b a53c
00000010: 8b77 0133 c8d0 7eb3 0cf7 062c b730 4a31
00000020: 3e0b a53c 440b a53c 480b a5bc 450b a5bc
00000030: 3887 61b3 480b a5bc 4a0b a53c 470b a5bc
00000040: 480b a53c 480b a53c 390b a5bc 4a0b a53c
00000050: 0a3c 8932 400b a5bc 46c7 60b5 6ba6 95af
00000060: 3c0b a53c 2dd3 d931 400b a53c 460b a53c
00000070: 00ea 7ab6 490b a5bc aa18 3031 585c 40b4
00000080: e612 a42a 480b a5bc 430b a53c 97c6 76aa
00000090: 1c89 d6ae d3ee 8fb4 d963 6735 9f9f 5028
000000a0: 3c0b a53c b55a 7c33 b22a 3633 b35d 4e2d
000000b0: 18a1 15b2 a04e c42a 440b a5bc 440b a53c
000000c0: a51e 60ad 4a0b a53c 410b a53c 460b a53c
000000d0: 470b a5bc 370b a5bc e494 98b6 460b a53c
000000e0: 2385 a731 400b a5bc 460b a5bc 3c0b a53c
000000f0: 480b a5bc 3c0b a5bc 420b a5bc 400b a5bc
00000100: 490b a5bc 4e7e 1caf 3c75 65ac 470b a53c
00000110: 460b a5bc f2c1 e0b5 a07a 94b7 470b a5bc
00000120: 400b a5bc 490b a53c 410b a53c 460b a5bc
00000130: 460b a5bc 470b a53c 5359 d732 390b a5bc
00000140: aefe bf2c 8320 2733 3a0b a53c 400b a5bc
00000150: a318 f725 470b a5bc 7e81 5433 5fe7 6cb4
00000160: 470b a5bc 7085 33a9 03d6 abb1 5a27 69b8
00000170: b7ce 39ad 4a0b a5bc 460b a53c 3b0b a5bc
00000180: cee7 882a 3a0b a5bc 4076 06b4 440b a53c
00000190: 121c ce32 3389 58ac 9a7d 0336 340b a53c
000001a0: a377 0133 92d0 7eb3 05f7 062c b630 4a31
000001b0: 2f0b a53c 340b a53c 380b a5bc 340b a5bc
000001c0: 5087 61b3 380b a5bc 390b a53c 380b a5bc
000001d0: 390b a53c 370b a53c 270b a5bc 3c0b a53c
000001e0: f93b 8932 2f0b a5bc 35c7 60b5 49a6 95af
000001f0: 2e0b a53c 2ed3 d931 2e0b a53c 370b a53c
00000200: 18ea 7ab6 3a0b a5bc d618 3031 5b5c 40b4
00000210: 0c13 a42a 370b a5bc 320b a53c 06c7 76aa
00000220: 3889 d6ae c2ee 8fb4 bb63 6735 9e9f 5028
00000230: 2a0b a53c d25a 7c33 ae2a 3633 125e 4e2d
00000240: 11a1 15b2 0051 c42a 330b a5bc 330b a53c
00000250: 5f1e 60ad 380b a53c 2e0b a53c 370b a53c
00000260: 380b a5bc 250b a5bc f094 98b6 370b a53c
00000270: 2985 a731 300b a5bc 350b a5bc 2b0b a53c
00000280: 370b a5bc 2a0b a5bc 300b a5bc 300b a5bc
00000290: 370b a5bc ee7d 1caf 2c75 65ac 350b a53c
000002a0: 350b a5bc 1cc2 e0b5 9d7a 94b7 380b a5bc
000002b0: 2d0b a5bc 3a0b a53c 320b a53c 350b a5bc
000002c0: 370b a5bc 370b a53c 5859 d732 250b a5bc
000002d0: a7fe bf2c 8c20 2733 2b0b a53c 2e0b a5bc
000002e0: c518 f725 370b a5bc 7881 5433 56e8 6cb4
000002f0: 360b a5bc 7485 33a9 0dd6 abb1 6027 69b8
00000300: c0ce 39ad 3a0b a5bc 350b a53c 2b0b a5bc
00000310: 18e8 882a 290b a5bc 6876 06b4 350b a53c
00000320: fe1b ce32 2c89 58ac 917d 0336 390b a53c
00000330: 9777 0133 9ed0 7eb3 0cf7 062c d030 4a31
00000340: 310b a53c 3a0b a53c 3c0b a5bc 3b0b a5bc
00000350: 3f87 61b3 3a0b a5bc 3f0b a53c 3b0b a5bc
00000360: 3c0b a53c 3d0b a53c 2c0b a5bc 400b a53c
00000370: fe3b 8932 330b a5bc 42c7 60b5 42a6 95af
00000380: 310b a53c 26d3 d931 300b a53c 390b a53c
00000390: 0aea 7ab6 3c0b a5bc c418 3031 585c 40b4
000003a0: f012 a42a 3a0b a5bc 360b a53c dbc6 76aa
000003b0: 2e89 d6ae c1ee 8fb4 d963 6735 a29f 5028
000003c0: 300b a53c c95a 7c33 a82a 3633 e85d 4e2d
000003d0: 11a1 15b2 3050 c42a 370b a5bc 370b a53c
000003e0: 8b1e 60ad 3c0b a53c 350b a53c 3a0b a53c
000003f0: 3b0b a5bc 290b a5bc e794 98b6 3a0b a53c
2.3994243e-08 -3.077157e-12 1.9593647e-06 0.020146973 3.0143877e-08 -5.932887e-08 1.9179684e-12 2.942256e-09
0.020146962 0.020146973 -0.02014698 -0.020146975 -5.2509876e-08 -0.02014698 0.020146985 -0.020146979
0.02014698 0.02014698 -0.020146953 0.020146985 1.5976202e-08 -0.020146966 -8.3736484e-07 -2.722119e-10
0.020146959 6.339539e-09 0.020146966 0.020146977 -3.738911e-06 -0.020146983 2.562539e-09 -1.7914988e-07
2.9145366e-13 -0.02014698 0.020146972 -2.1918089e-13 -9.755949e-11 -2.6809593e-07 8.6199503e-07 1.1580932e-14
0.020146959 5.875582e-08 4.241401e-08 1.173055e-11 -8.70957e-09 3.487115e-13 -0.020146973 0.020146973
-1.273973e-11 0.020146985 0.020146968 0.020146977 -0.020146979 -0.02014695 -4.547286e-06 0.020146977
4.8754756e-09 -0.020146966 -0.020146977 0.020146959 -0.02014698 -0.020146959 -0.02014697 -0.020146966
-0.020146983 -1.423299e-10 -3.2607935e-12 0.020146979 -0.020146977 -1.6745746e-06 -1.7700077e-05 -0.020146979
-0.020146966 0.020146983 0.020146968 -0.020146977 -0.020146977 0.020146979 2.5069914e-08 -0.020146953
5.4568216e-12 3.8912287e-08 0.020146955 -0.020146966 4.2864364e-16 -0.020146979 4.947787e-08 -2.2063385e-07
-0.020146979 -3.9861723e-14 -5.0010853e-09 -5.5588178e-05 -1.0561932e-11 -0.020146985 0.020146977 -0.020146957
2.43193e-13 -0.020146955 -1.2522742e-07 0.020146973 2.3994321e-08 -3.0771607e-12 1.959363e-06 0.020146944
3.0143962e-08 -5.9328677e-08 1.9179669e-12 2.9422558e-09 0.020146934 0.020146944 -0.020146951 -0.020146944
-5.250996e-08 -0.020146951 0.020146953 -0.020146951 0.020146953 0.02014695 -0.02014692 0.020146959
1.5976171e-08 -0.020146934 -8.3736387e-07 -2.7221095e-10 0.020146932 6.3395396e-09 0.020146932 0.02014695
-3.7389163e-06 -0.020146955 2.5625488e-09 -1.7914992e-07 2.9145469e-13 -0.02014695 0.02014694 -2.1918239e-13
-9.755968e-11 -2.6809545e-07 8.619933e-07 1.1580931e-14 0.020146925 5.8755923e-08 4.2413994e-08 1.1730632e-11
-8.709564e-09 3.48728e-13 -0.020146942 0.020146942 -1.27396696e-11 0.020146951 0.020146932 0.02014695
-0.020146951 -0.020146916 -4.5472916e-06 0.02014695 4.8754782e-09 -0.020146936 -0.020146945 0.020146927
-0.02014695 -0.020146925 -0.020146936 -0.020146936 -0.02014695 -1.4232857e-10 -3.26079e-12 0.020146945
-0.020146945 -1.6745794e-06 -1.7700071e-05 -0.020146951 -0.02014693 0.020146955 0.02014694 -0.020146945
-0.02014695 0.02014695 2.5069923e-08 -0.020146916 5.4568186e-12 3.891232e-08 0.020146927 -0.020146932
4.2864454e-16 -0.02014695 4.9477848e-08 -2.2063736e-07 -0.020146947 -3.9861736e-14 -5.0010898e-09 -5.55882e-05
-1.056194e-11 -0.020146955 0.020146945 -0.020146927 2.43195e-13 -0.020146923 -1.2522798e-07 0.020146945
2.3994286e-08 -3.0771592e-12 1.959361e-06 0.020146953 3.014392e-08 -5.932872e-08 1.9179684e-12 2.9422615e-09
0.020146938 0.020146955 -0.020146959 -0.020146957 -5.25099e-08 -0.020146955 0.020146964 -0.020146957
0.020146959 0.02014696 -0.020146929 0.020146966 1.597618e-08 -0.020146942 -8.373646e-07 -2.7221075e-10
0.020146938 6.339536e-09 0.020146936 0.020146953 -3.7389132e-06 -0.020146959 2.5625448e-09 -1.7914988e-07
2.9145393e-13 -0.020146955 0.020146947 -2.1918181e-13 -9.755961e-11 -2.6809542e-07 8.6199503e-07 1.1580934e-14
0.020146936 5.875589e-08 4.2413973e-08 1.1730596e-11 -8.709564e-09 3.4872235e-13 -0.02014695 0.02014695
-1.2739708e-11 0.020146959 0.020146945 0.020146955 -0.020146957 -0.020146923 -4.5472875e-06 0.020146955

fc2.bias f4 [100]
00000000: 7211 a0bd 6311 a0bd 6611 a0bd 6811 a03d
00000010: 6811 a03d 6d11 a0bd 6311 a03d 6511 a03d
00000020: 6611 a0bd 6611 a0bd 6411 a0bd 6611 a03d
00000030: 6311 a03d 6411 a03d 6611 a0bd 6611 a0bd
00000040: 6c11 a0bd 6711 a03d 6611 a03d 6611 a03d
00000050: 6411 a0bd 5811 a03d 5811 a0bd 6711 a0bd
00000060: 5711 a03d 49f1 d183 6611 a03d 6811 a0bd
00000070: 6611 a03d 6611 a0bd 6f11 a0bd 6411 a03d
00000080: 6311 a03d 6811 a0bd 6611 a0bd 6611 a0bd
00000090: 6711 a0bd 6711 a03d 6611 a03d 5e11 a03d
000000a0: 6611 a03d 6b11 a03d 6511 a0bd 5e11 a0bd
000000b0: 6e11 a0bd 5d11 a0bd 6311 a03d 6511 a03d
000000c0: 6611 a03d 6a11 a03d 6611 a03d 6811 a0bd
000000d0: 6811 a03d 6a11 a03d 6b11 a03d 6811 a0bd
000000e0: 6511 a03d 5a11 a0bd 5f11 a03d 6511 a03d
000000f0: 5c11 a0bd 6e11 a0bd 6611 a03d 6811 a0bd
00000100: 6611 a03d 6611 a0bd 6411 a0bd 6d11 a03d
00000110: 6411 a0bd 7411 a0bd 6611 a03d 29da 9319
00000120: 6311 a03d 6211 a0bd 6311 a0bd 6b11 a0bd
00000130: 6411 a03d 6511 a0bd 6211 a03d 6811 a03d
00000140: e0e1 e6ad 6411 a03d 6d11 a03d 6411 a03d
00000150: 6311 a03d b0a1 ad25 6611 a0bd aa94 670e
00000160: 6411 a03d 6611 a0bd 6d11 a0bd 5411 a03d
00000170: 6311 a03d 6411 a03d 6811 a03d 6411 a03d
00000180: 6e11 a0bd 6c11 a03d 5f11 a0bd 5e11 a03d
-0.078158274 -0.07815816 -0.078158185 0.0781582 0.0781582 -0.07815824 0.07815816 0.07815818
-0.078158185 -0.078158185 -0.07815817 0.078158185 0.07815816 0.07815817 -0.078158185 -0.078158185
-0.07815823 0.07815819 0.078158185 0.078158185 -0.07815817 0.07815808 -0.07815808 -0.07815819
0.07815807 -1.2339312e-36 0.078158185 -0.0781582 0.078158185 -0.078158185 -0.07815825 0.07815817
0.07815816 -0.0781582 -0.078158185 -0.078158185 -0.07815819 0.07815819 0.078158185 0.078158125
0.078158185 0.07815822 -0.07815818 -0.078158125 -0.078158244 -0.07815812 0.07815816 0.07815818
0.078158185 0.078158215 0.078158185 -0.0781582 0.0781582 0.078158215 0.07815822 -0.0781582
0.07815818 -0.078158095 0.07815813 0.07815818 -0.07815811 -0.078158244 0.078158185 -0.0781582
0.078158185 -0.078158185 -0.07815817 0.07815824 -0.07815817 -0.07815829 0.078158185 1.5287558e-23
0.07815816 -0.078158155 -0.07815816 -0.07815822 0.07815817 -0.07815818 0.078158155 0.0781582
-2.6248281e-11 0.07815817 0.07815824 0.07815817 0.07815816 3.012028e-16 -0.078158185 2.8544527e-30
0.07815817 -0.078158185 -0.07815824 0.07815805 0.07815816 0.07815817 0.0781582 0.07815817
-0.078158244 0.07815823 -0.07815813 0.078158125

fc3.weight f4 [1, 100]
00000000: 0619 35be ef18 35be f618 35be f618 353e
00000010: fa18 353e fe18 35be f018 353e f418 353e
00000020: f718 35be f618 35be f318 35be f618 353e
00000030: f118 353e f318 353e f618 35be f618 35be
00000040: fe18 35be f918 353e f618 353e f518 353e
00000050: f118 35be e418 353e e418 35be f918 35be
00000060: e218 353e 9d79 1c04 f618 353e f618 35be
00000070: f618 353e f618 35be 0319 35be f118 353e
00000080: f018 353e f718 35be f618 35be f618 35be
00000090: f918 35be f518 353e f718 353e ea18 353e
000000a0: f518 353e fd18 353e f218 35be ea18 35be
000000b0: 0119 35be e918 35be f018 353e f218 353e
000000c0: f618 353e fb18 353e f618 353e f718 35be
000000d0: f718 353e fb18 353e fd18 353e f618 35be
000000e0: f418 353e e618 35be eb18 353e f418 353e
000000f0: e718 35be 0119 35be f518 353e f718 35be
00000100: f618 353e f618 35be f318 35be fe18 353e
00000110: f418 35be 0819 35be f718 353e 0d56 f719
00000120: f118 353e ef18 35be f018 35be fc18 35be
00000130: f018 353e f118 35be f118 353e f918 353e
00000140: c504 672e f418 353e fe18 353e f518 353e
00000150: f018 353e 4df3 9325 f518 35be fa02 bd0e
00000160: f318 353e f618 35be fe18 35be df18 353e
00000170: ef18 353e f518 353e f918 353e f118 353e
00000180: 0119 35be fe18 353e ec18 35be eb18 353e
-0.17685327 -0.17685293 -0.17685303 0.17685303 0.17685309 -0.17685315 0.17685294 0.176853
-0.17685305 -0.17685303 -0.17685299 0.17685303 0.17685296 0.17685299 -0.17685303 -0.17685303
-0.17685315 0.17685308 0.17685303 0.17685302 -0.17685296 0.17685276 -0.17685276 -0.17685308
0.17685273 1.8393554e-36 0.17685303 -0.17685303 0.17685303 -0.17685303 -0.17685322 0.17685296
0.17685294 -0.17685305 -0.17685303 -0.17685303 -0.17685308 0.17685302 0.17685305 0.17685285
0.17685302 0.17685314 -0.17685297 -0.17685285 -0.1768532 -0.17685284 0.17685294 0.17685297
0.17685303 0.1768531 0.17685303 -0.17685305 0.17685305 0.1768531 0.17685314 -0.17685303
0.176853 -0.17685279 0.17685287 0.176853 -0.1768528 -0.1768532 0.17685302 -0.17685305
0.17685303 -0.17685303 -0.17685299 0.17685315 -0.176853 -0.1768533 0.17685305 2.5573957e-23
0.17685296 -0.17685293 -0.17685294 -0.17685312 0.17685294 -0.17685296 0.17685296 0.17685308
5.2527555e-11 0.176853 0.17685315 0.17685302 0.17685294 2.5665302e-16 -0.17685302 4.6594964e-30
0.17685299 -0.17685303 -0.17685315 0.17685269 0.17685293 0.17685302 0.17685308 0.17685296
-0.1768532 0.17685315 -0.17685288 0.17685287

fc1.weight f4 [100, 24]
00000000: 2b83 8c3c 0836 773e 302c 00bd c2d9 eabd
00000010: b5b8 943d 188f 693c 15c0 5e3e b7a3 6dbd
00000020: 3502 13bd 3646 4f3e d66f 13be c078 1fbb
00000030: d018 11be 60ef 15bc a842 10be 3864 803d
00000040: 85bf 0bbe e51f 22be 6ee4 0dbe 500e d23d
00000050: 6670 0dbe c1cf e93d d9c5 1d3d 4e74 5a3e
00000060: 2271 8f3d e1cd 3c3d 7b15 4b3d 7b5a 0bbe
00000070: 3d9f 19be 0548 47be 6257 88be ac98 88be
00000080: 4702 0bbe c23f 093e 12d7 0c3e f8aa 8c3c
00000090: 84da 97bd 7280 04be f88a 873d 00d5 c73a
000000a0: 4caa 1e3e d805 95bc 68e6 58bd 060f 21be
000000b0: b01d e4bd 5ffa 063d 2ad2 2c3e cfe4 cbbd
000000c0: ad3d 723e f928 92bc a4e4 0abe 9d63 803d
000000d0: e841 593e 0463 4ebb 097f 2abd 7a91 d93c
000000e0: 47a2 113e 5b37 4dbe 646a 053d 7021 fabc
000000f0: e0a3 6b3c f417 28bd 701a 94bd dc44 31bd
00000100: 9cab 66bd 4cd6 09be 5828 31be d6de 4fbe
00000110: a498 abbd dd51 24be 4cd0 17be d28e b03d
00000120: d71b af3d 9b78 3fbe 0854 583d 99e6 28be
00000130: 1a03 41bb 1d06 d83d 03db 3cbe ca7c 0ebe
00000140: 9f7f c5bd 2a86 30be 92d2 243e 8a49 3f3e
00000150: 420b 4bbe b4d3 d93d b676 323e a833 4cbd
00000160: d038 c4bc cca6 8c3d 2420 c23d 7cc5 153e
00000170: 8860 933d c98a 05bd 09e1 01be 2fe3 90bd
00000180: d5d4 61bd c9b4 4fbc bcff 00bd 7d7a 163c
00000190: f42a 2abe b5ae 11be fdc2 96bd 2037 61be
000001a0: 38c5 02be e119 29be 208f 45be 1072 f1bc
000001b0: 24b7 303e 50bd 64bc 80ee c2ba 900d 0ebc
000001c0: 6055 d6bb b641 1e3e f8f3 88bd 1ecd e0bd
000001d0: e2c7 3c3e 410d e5bb 76be 973c 94cc 443e
000001e0: 2ae1 25be 33d0 e3bd a7a7 f9bd d2b7 3fbe
000001f0: de55 9bbc 0131 8cbe 164e f2bd 0058 acbd
00000200: 22a5 1abd 108b 973d 8494 303e be9a 9ebd
00000210: a2ae 30be 803c ce3c 942d 193e 68b3 ddbc
00000220: 526a 243e a6a4 c5bd 408c 94bd 58ea 81bd
00000230: 1cd3 83bd fab5 463e 236f 0f3d 38ba dfbb
00000240: a748 78be f866 03bd cf66 06be 5055 56be
00000250: 2dd8 fabb cff4 0a3e e525 24be 34b5 32be
00000260: 1a62 a33d 684c 3b3e a3f9 45be aa91 0ebe
00000270: d44a 4d3e f621 1e3e 909f ee3c a4c4 df3d
00000280: 2859 b23c c539 f1bd 04ce f0bd c634 313e
00000290: 908c 253c 4a3d b83d 171f 6f3d b57b 8e3d
000002a0: 6bf4 0e3e 8c8a 2c3e de8d c6bd ed04 423d
000002b0: b5a5 473e e5a5 843d 4fac 493e 8185 593e
000002c0: e09b c83d 9b4b e8bd f885 963d 604e a73d
000002d0: a043 39bc 7cf7 273e d515 a3bd 008e 043d
000002e0: cbbe 1bbe 88f0 eebd 3da5 b2bd a065 5bbd
000002f0: e795 32be 12fc 123d 19b2 64bd d131 10be
00000300: 7e48 843c 8ce0 373e b408 023e 4caf cd3d
00000310: d778 dc3d d6e0 fd3d a3e8 373d 5186 043e
00000320: 6efc d53d aef8 393e f278 323e a881 463d
00000330: 602b 35bd 2f14 39be 9c00 08bd de6b 503e
00000340: 8085 223e 9a43 243e c4f6 99bd b82f fabc
00000350: 8856 003e 6b51 63bd 7c41 9b3d 7988 c5bd
00000360: 9bfd 90bd f8e2 063e 513a 0d3d c460 453e
00000370: 987a 0ebe ef95 f13d 9c96 123e 4f82 243e
00000380: 9a13 debb 9834 00bd 00b7 423e 091f fcbd
00000390: e807 ba3d df23 41be 8086 ed3b b035 473d
000003a0: 80b3 573d 6f94 05be da8c efbd 38d9 ad3d
000003b0: aaa7 103e 6ea0 2ebc 2312 2a3d fdf1 2fbe
000003c0: e282 13be 0ed5 10bd 5dbb 46bc 1af6 933d
000003d0: e14e 20be f323 75be 36d5 49be 2600 9abe
000003e0: 3cb8 45be bcfe 7cbd 98b2 ba3c 02d9 bbbd
000003f0: c023 7c3c 08b2 053e 10d3 6e3d acf2 2dbd
0.01715239 0.24141705 -0.03129214 -0.11467315 0.072617926 0.014255308 0.21752961 -0.05801746
-0.035890777 0.20241627 -0.14398131 -0.0024333447 -0.14169621 -0.00915131 -0.14087927 0.06269115
-0.13647278 -0.1583248 -0.1385667 0.10256636 -0.13812408 0.11416579 0.03851876 0.21333429
0.07004 0.04609478 0.049581032 -0.13608734 -0.15002151 -0.19461067 -0.26629168 -0.2667898
-0.13575087 0.13403228 0.13753918 0.017171368 -0.074147254 -0.12939623 0.06618303 0.0015245974
0.1549465 -0.018191263 -0.052954108 -0.15728387 -0.11138475 0.032953616 0.16877046 -0.09955751
0.2365634 -0.017841803 -0.13563782 0.06269 0.21216547 -0.0031492123 -0.041625056 0.026558626
0.1422206 -0.20040648 0.032572165 -0.030533522 0.014382333 -0.04103847 -0.07231605 -0.04327856
-0.056316003 -0.13460654 -0.17300546 -0.20299849 -0.08378723 -0.16046853 -0.14825553 0.08620991
0.08550232 -0.18698351 0.052814513 -0.16494216 -0.0029451312 0.10548041 -0.18442921 -0.13914791
-0.096434824 -0.1723868 0.16095951 0.18680397 -0.19828513 0.10636082 0.17428097 -0.04985395
-0.023952872 0.068677515 0.094787866 0.14626116 0.07196146 -0.03260306 -0.126835 -0.07074582
-0.055134613 -0.01267738 -0.031493887 0.009184477 -0.16617948 -0.14226802 -0.0736141 -0.21993685
-0.12770545 -0.16513778 -0.19292879 -0.029473335 0.17257363 -0.013961151 -0.0014872104 -0.008670226
-0.006540939 0.15454754 -0.06687158 -0.10976623 0.18435624 -0.0069901054 0.018523436 0.19218665
-0.16199175 -0.11123695 -0.1219018 -0.18722466 -0.018961843 -0.27381137 -0.118313 -0.08415222
-0.03775514 0.07399571 0.17244154 -0.077443585 -0.17254117 0.025175333 0.14958793 -0.027063087
0.16056183 -0.09650545 -0.07253313 -0.06343526 -0.0643675 0.19405356 0.035018098 -0.006827619
-0.24246465 -0.03208062 -0.13125156 -0.20930982 -0.0076551647 0.1356995 -0.1603008 -0.17451936
0.07977696 0.18290865 -0.1933351 -0.13922754 0.20048076 0.15442643 0.02912882 0.10926178
0.021771029 -0.11778597 -0.11758044 0.17305288 0.0101043135 0.08996065 0.05837926 0.06957189
0.13960426 0.16849726 -0.09695028 0.04736798 0.19496806 0.06476954 0.19694637 0.21242334
0.09795356 -0.113425456 0.07349771 0.08169246 -0.011307627 0.16403002 -0.079631485 0.032361984
-0.152095 -0.116669714 -0.08722923 -0.053563714 -0.17439996 0.035884924 -0.05583391 -0.14081503
0.016147848 0.17956752 0.12698632 0.10043201 0.10765236 0.123964 0.044899594 0.12941863
0.10448538 0.1816127 0.1742895 0.048463494 -0.04423082 -0.18074106 -0.033203706 0.20353648
0.15871239 0.16041413 -0.0751777 -0.030540332 0.12533009 -0.055497568 0.075808495 -0.09645171
-0.070796214 0.13172519 0.034479443 0.19275194 -0.13913953 0.11796176 0.14315265 0.16065334
-0.006777239 -0.031300157 0.19015121 -0.12310607 0.09083539 -0.1886134 0.0072486997 0.048635185
0.05266142 -0.13044904 -0.11696787 0.08488697 0.14126459 -0.010658367 0.041521203 -0.17182155
-0.14405397 -0.035359435 -0.012129632 0.072246745 -0.1565509 -0.23939495 -0.1971024 -0.30078238
-0.19308561 -0.06176637 0.022790238 -0.0917225 0.015389383 0.13056195 0.058306754 -0.042467758
