gail/save_model/0/SUB033_ckpt_21.pth.tar (torch_old, 154733 bytes, 16 tensors)

fc1.weight f4 [100, 22]
000000 b8 20 78 3e db c0 84 bd d9 94 a1 bc 99 34 e5 3b
       0.24231231 -0.06482097 -0.019724296 0.0069947955
000010 72 ca 13 be a8 04 02 bd c0 1a 67 be 1e 9b 0f 3c
       -0.14432696 -0.03174272 -0.22568798 0.00876501
000020 32 9b 33 3d 4c 25 02 3e 00 3e 8e bc 38 86 2e 3e
       0.043849178 0.1270954 -0.017363548 0.17043388
000030 4e b4 d8 bd 18 4a e2 3c 98 25 4d be c0 6f 22 3d
       -0.105812654 0.027623221 -0.20033872 0.039657354
000040 70 25 72 3d 40 33 0f bc 78 f1 33 3d bc 58 cd 3d
       0.059117734 -0.008740246 0.043931454 0.1002669
000050 dc 39 e3 3d 22 12 29 3e 65 0b 61 3e 57 67 5c 3e
       0.1109502 0.16510823 0.21977003 0.21523796
000060 29 5a 15 bf ea cf 57 be 77 37 b6 3e ac a6 c2 be
       -0.583407 -0.21075407 0.3558919 -0.38017786
000070 89 85 96 be f7 40 d8 bd b0 6f a7 be 60 a0 82 bc
       -0.29398754 -0.10559266 -0.32702398 -0.015945613
000080 80 ca d9 3d 42 8d 40 3e 82 45 3f be 08 aa 56 3d
       0.10634327 0.18803886 -0.18678859 0.05240825
000090 c8 7c 25 3e 88 5d 42 3d e0 f2 74 3d 80 98 4a be
       0.16160882 0.04745248 0.059801936 -0.19784737
0000a0 60 d8 13 bd e8 59 d7 bd 4c 4c 0a 3e c4 95 50 be
       -0.036095023 -0.10515195 0.13505667 -0.20369631
0000b0 e3 e0 6d 3e 8e 51 04 3e 55 40 a0 3c 56 af 71 bc
       0.23230319 0.12921736 0.019561926 -0.014751276
0000c0 c0 92 ab be 3e 4c e0 bd d8 41 a2 be 5e 05 4d be
       -0.335104 -0.10952042 -0.3169086 -0.20021579
0000d0 52 34 7a 3b f4 e6 82 3d 80 e2 42 3d e2 fd 34 3e
       0.0038178158 0.06391707 0.04757929 0.17674974
0000e0 2a ac 90 bd e0 61 00 bd 38 6a f1 3d f2 de 59 3e
       -0.07064088 -0.03134334 0.11787838 0.21276453
0000f0 b4 8a 90 3d 70 2e 3f 3d 2b d9 cd bd 00 e4 5a 3c
       0.070577055 0.046675146 -0.10051187 0.0133600235
000100 08 99 e8 bc 70 7d b6 3c 9d ed 0d 3e 89 8c 91 be
       -0.028393283 0.02227661 0.13860174 -0.28427532
000110 75 6b 87 3e 42 35 0f be 75 1f 0f bf da 49 98 be
       0.2644917 -0.1398516 -0.55907375 -0.29743844
000120 29 1c 24 3d 06 9b 16 be a4 ad 05 be 01 da da bd
       0.040065918 -0.14707574 -0.1305452 -0.10686112
000130 33 e9 1a be c8 ad 40 3d 1a c7 46 3e 45 c5 eb bd
       -0.15128021 0.04704073 0.19411889 -0.115122356
000140 80 8b c0 bd b8 50 24 3e 7c 20 8a 3d 96 1e 3c 3e
       -0.094016075 0.16046417 0.06744477 0.18371043
000150 30 81 b1 3c 5c 39 07 be 3e 95 28 3e c2 02 4d 3e
       0.021668047 -0.13205475 0.16463181 0.20020583
000160 1d 1c cb 3c a3 e0 85 bd 09 64 8e bd d2 31 4c be
       0.024793679 -0.06536987 -0.06952674 -0.1994088
000170 63 15 b5 be 2a e4 3e 3e b2 d2 26 3e f5 6d b0 bd
       -0.3536788 0.18641725 0.16291311 -0.08614723
000180 7d 80 7c 3e 24 fa f9 bd 82 0d 0b 3e e0 6a ae 3b
       0.2465839 -0.12205914 0.13579372 0.005322799
000190 20 b2 ac 3d 88 8f b9 bc 68 54 bc 3d 76 59 28 3e
       0.08432412 -0.022651449 0.09195787 0.16440377
0001a0 ed cf 41 be 04 e5 04 3e 28 a2 42 3e 8c 7a fa 3d
       -0.18926974 0.12977988 0.1900717 0.12230405
0001b0 b0 53 d0 3d 24 65 3a bd f8 ba ac be b9 1f 98 3d
       0.10172212 -0.04550661 -0.33736396 0.074279256
0001c0 97 ab fd bc 67 3b 10 be c9 f7 ec be 1c 5c 0a 3e
       -0.03096561 -0.1408516 -0.46282795 0.135117
0001d0 dd 89 1a be 50 b4 e5 3d 1e 5a f0 3c 0c 99 f6 3d
       -0.15091653 0.112160325 0.029339846 0.1204091
0001e0 48 7b 25 bd ba 00 a4 bd a8 b9 24 bd a8 14 70 3d
       -0.040400773 -0.08007951 -0.040216118 0.05861345
0001f0 90 2a 17 3d 58 8b 54 3e 04 67 45 3e dc 31 03 3d
       0.036905825 0.2075628 0.19277579 0.03202997
000200 b8 50 0a bd 94 d6 07 bd 80 32 6e bd b8 1f ed 3d
       -0.033768386 -0.033163622 -0.05815363 0.115783155
000210 a5 5e 52 be af e2 3d 3e f8 ef c4 bd 1d 50 ac 3c
       -0.20543917 0.18543504 -0.09616083 0.021034295
000220 cd 62 04 3f 1e f4 9c 3d 6b 52 28 3e fe a9 98 3d
       0.5171326 0.07663749 0.1643769 0.074542984
000230 8b 0d 94 3e 80 93 c0 3a 4c bd b6 3d 34 2d bd 3d
       0.28916582 0.0014692396 0.08922824 0.092371374
000240 50 d3 b0 3d c7 cf 02 be 12 a7 09 3e 00 fa 77 bd
       0.08634055 -0.12774573 0.13442639 -0.060541153
000250 2c 53 57 bd d0 54 a3 3c 2a 1e 17 3e 3e 4a 1c 3e
       -0.052569553 0.019937903 0.147576 0.15262696
000260 c8 9a 9c bd 40 3c 89 3b f8 8d 71 be c2 79 71 be
       -0.0764671 0.0041880906 -0.23589313 -0.23581603
000270 34 76 db 3b c1 cf 65 bc 47 e9 a7 bd 53 ab a3 3c
       0.0066974405 -0.014026583 -0.08198791 0.019979155
000280 81 6d 8d 3e 9e f8 7a 3e b6 ed a5 3d 20 45 30 3c
       0.27622607 0.24508902 0.081019804 0.010758668
000290 64 69 d2 3d d4 ac 13 bd cb 67 e9 bd a4 c0 a7 3d
       0.10274008 -0.036053494 -0.1139675 0.0819104
0002a0 b0 56 dc 3d 96 a3 0f 3e 90 b3 24 3d cb 31 e2 bd
       0.10758722 0.14027247 0.040210307 -0.110446535
0002b0 58 ee 69 bd b0 e6 09 3e 9c 95 ae 3d b4 a8 54 bd
       -0.057112068 0.13466907 0.085246295 -0.0519187
0002c0 ee b5 24 3e 13 b7 9e be 82 0c 2c 3d c7 a9 8d 3e
       0.16085026 -0.3099905 0.042004116 0.27668592
0002d0 44 01 d1 bd e4 1a a8 3e 4d b9 ae bc 39 98 a8 3e
       -0.102053195 0.32833016 -0.021328593 0.32928637
0002e0 9b 19 a3 3e 58 90 03 3e ec 6e 44 3e c0 8f 01 3b
       0.31855473 0.12848032 0.19182938 0.001976952
0002f0 27 be 2c be d8 c9 97 3c b9 b8 58 be 08 d4 06 3d
       -0.16869412 0.018528864 -0.21164216 0.032917053
000300 de c1 0f be 04 5e f6 3d c4 6a e2 3d 14 c8 41 bd
       -0.14038798 0.12029651 0.1105552 -0.04730995
000310 d0 33 e9 bd 97 83 fc bd b0 2a cd 3e fd 08 78 bd
       -0.113868356 -0.12329786 0.4007163 -0.060555447
000320 ea 75 62 3e 03 51 e5 3d 3d f1 aa be d4 8b 1c bd
       0.22115293 0.111970924 -0.33387175 -0.038219288
000330 aa b9 37 be c1 34 ff bd ec ed 89 be 38 ec 2d be
       -0.17941919 -0.12461234 -0.26939332 -0.16984642
000340 1c 9c 4d 3e 38 69 b5 bd 34 08 41 3e 73 e1 31 be
       0.20079082 -0.088579595 0.18850785 -0.17371158
000350 30 c1 1c 3d 4c 28 49 3e ce d6 56 be 86 ef 38 be
       0.038270175 0.19644278 -0.20980379 -0.18060121
000360 41 5d 1c be 88 1b fb bc f0 30 53 3d f6 35 48 be
       -0.15269949 -0.030652776 0.051560342 -0.19551834
000370 56 ad a4 be 5c a2 4c 3e 42 eb c5 3b 11 36 d5 3e
       -0.32163495 0.1998381 0.006040008 0.41642812
000380 6d a0 c4 3e 0b 1a d8 3c cd 57 9d bd de bc 0a bc
       0.38403645 0.026379606 -0.07682762 -0.008467881
000390 4c 6a 88 3c 98 6b 91 bd 6d 15 38 be 94 7b 21 3e
       0.016652249 -0.071006 -0.17976923 0.15769798
0003a0 68 40 af 3c 6c a1 f8 3d cc 89 0b 3e 4c a5 47 3e
       0.021393016 0.12140164 0.13626784 0.1949665
0003b0 05 1b 31 be ff 48 c4 bd a8 a7 6c 3d a8 43 29 bd
       -0.17295463 -0.095842354 0.057777077 -0.041324288
0003c0 88 68 ef 3d 20 2c 83 bc 36 04 8c bd 25 61 8f be
       0.1168986 -0.016012251 -0.06836741 -0.28003803
0003d0 49 8f 6a 3d e0 fe 8f 3d b0 86 a8 bd e4 f8 83 3e
       0.057265554 0.070310354 -0.082288146 0.25775826
0003e0 3f 99 0a 3b 3f c4 55 3d 18 1e 8c 3d f4 75 8c 3d
       0.002114847 0.052189108 0.068416774 0.06858435
0003f0 52 f6 4b be 92 1a 0f 3e 50 b4 40 3d 14 b5 07 3d
       -0.19918182 0.1397498 0.04704696 0.033131674

fc1.bias f4 [100]
000000 53 79 07 3e 5d e1 84 3e 27 60 85 3e 2d 0d dc ba
       0.13229875 0.2595319 0.2604992 -0.0016788595
000010 3f 57 81 bd 02 f6 1f be af 5f 98 be 3c 9e d6 bc
       -0.06315469 -0.15621188 -0.297605 -0.026198499
000020 47 79 83 be ba c7 45 3e b6 ce 58 3d fa d3 80 be
       -0.25678465 0.19314471 0.05293151 -0.25161725
000030 ff 68 b5 ba 46 f1 29 bb b8 5f 4e 3e 31 09 41 3a
       -0.0013840495 -0.0025931164 0.20153701 0.00073637353
000040 e4 b4 97 bd e3 11 2f 3e 18 91 2b 3e d3 7e 07 be
       -0.07407549 0.17096667 0.16754568 -0.13231973
000050 97 4a 41 3e 0d cd 7b be 39 06 65 be 94 35 e2 bd
       0.1887611 -0.2458994 -0.22365655 -0.110453755
000060 fb 76 4a 3e d3 f0 a4 be 0f 94 91 3e 78 d2 88 be
       0.1977195 -0.32214984 0.28433272 -0.26723075
000070 61 3d 46 3e 31 d2 a7 3d 73 14 b6 bc e7 eb 09 3d
       0.19359352 0.08194388 -0.022226548 0.03367224
000080 b9 31 00 be 77 9d a8 3c 3e 73 80 3e e2 74 91 be
       -0.12518968 0.020582898 0.25087923 -0.28409487
000090 ff 93 8f 3d 32 12 a0 3c 7e ee ad be 80 39 a2 3e
       0.0701065 0.019539926 -0.33971018 0.31684494
0000a0 b5 8b 4f be 8b d8 ae bd a5 fa e2 bd 0a e6 7b 3d
       -0.20268138 -0.08537396 -0.11082963 0.06149868
0000b0 5d cd 87 3e b8 c1 33 3c cd e6 e9 be 75 fa ca bd
       0.26523867 0.010971479 -0.456839 -0.09911052
0000c0 b3 69 6e 3e 1b cf 13 be 0c 20 4e 3d 26 39 81 3e
       0.23282509 -0.14434473 0.05032353 0.25238913
0000d0 df d0 54 be b3 52 84 be a3 5e 3b 3e 8a 57 dc 3d
       -0.20782803 -0.25844344 0.1829782 0.10758884
0000e0 c0 66 2a 3e 1c 66 90 be ed ce e4 3d a4 90 64 be
       0.16640759 -0.28202903 0.111722805 -0.22320801
0000f0 62 36 92 bd 5f 22 de bd c4 de 5f be 2b d2 c6 bd
       -0.07139279 -0.108463995 -0.21862322 -0.09708055
000100 af 56 6e be de 65 6a 3c 2c 5d fb bc 2a 7b b1 bd
       -0.23275255 0.014306514 -0.030684076 -0.0866607
000110 18 74 83 bb 0f 6c 89 3e df 14 43 be b8 ce 3f bd
       -0.004011642 0.26840255 -0.1905093 -0.046828
000120 68 5f 50 ba d0 12 3e 3e 33 d8 b6 bd a4 5d 78 3e
       -0.0007948787 0.18561864 -0.089279555 0.24254471
000130 ac 50 9c bd 85 5b 31 3e 37 a0 e3 3d 87 72 8c be
       -0.076325744 0.17320068 0.11114543 -0.27431127
000140 d8 55 b9 be 6c f1 b8 3d ee 2a 38 3d 6b 11 61 3e
       -0.36198306 0.090304226 0.044962816 0.219793
000150 06 eb 20 be 79 52 cc bc 30 ea 16 bd cd 1f 57 3e
       -0.15714654 -0.02494167 -0.036844432 0.21008225
000160 47 c3 54 bb 0d 55 84 3d 28 f4 2e be b8 63 6f bc
       -0.0032465027 0.06461535 -0.17085326 -0.014611177
000170 80 35 b8 bd f6 30 38 3e 14 e2 0c 3d 3a d3 23 3e
       -0.08994579 0.17987427 0.034395292 0.15998545
000180 03 50 8c be 5f e0 85 3b 6c 73 29 3e ae 8b e0 3d
       -0.27404794 0.004085585 0.16547936 0.10964142

fc2.weight f4 [100, 100]
000000 5b 6a 68 be eb 70 ae bd be fd 8c be 42 5b 41 be
       -0.22696821 -0.08517631 -0.2753734 -0.18882468
000010 d0 96 98 3c c7 29 5b bd 2c 96 01 bd 64 47 36 3e
       0.0186266 -0.05350664 -0.031637356 0.17800671
000020 4b b6 80 3e d8 2d a1 bd b4 7d 1f 3e 04 62 38 3d
       0.25139078 -0.07870072 0.15575296 0.04501535
000030 c0 46 14 3e a5 73 05 3e ee 3e 8f be 9e 72 48 3d
       0.14480114 0.13032396 -0.279777 0.048937432
000040 e0 89 1a 3b af 6f 98 bc b7 81 1e bd f1 af 46 3e
       0.0023580715 -0.018607942 -0.038697924 0.19403054
000050 27 34 05 bd 03 46 83 3e 21 75 54 3e fe 2c f2 3d
       -0.03252044 0.25639352 0.20747806 0.11824988
000060 18 ee af 3d 83 00 e5 3d 9d be 2a 3d 04 3e fb 3c
       0.08590335 0.11181738 0.04168569 0.03066922
000070 17 17 92 be aa 4c 39 be 01 ca 30 3e 2e d7 8c bc
       -0.2853324 -0.18095651 0.17264558 -0.01719245
000080 f4 05 5d bd 1d 11 04 3b 38 1c f3 be 25 3a 48 3e
       -0.053960755 0.0020151802 -0.47482467 0.1955343
000090 be 9a b1 3d ec f0 05 3e 59 98 56 3e a6 42 5a be
       0.08672093 0.13080186 0.20956554 -0.21314487
0000a0 32 26 b8 3e 34 c9 4a be c3 f3 d7 bd 77 4c 91 3d
       0.3596664 -0.19803315 -0.10544541 0.07094663
0000b0 6f 70 0d be ca 83 74 3e 23 15 97 3d 67 bc 04 3e
       -0.13812421 0.23878399 0.073770784 0.12962495
0000c0 df 34 cf bd b7 e7 97 3e 42 f8 11 3d 3f 8f 12 3c
       -0.10117506 0.29668972 0.035637148 0.008945285
0000d0 36 a3 ea 3d 41 3e 6a bd 06 15 f0 bc eb 80 2a bd
       0.11456911 -0.057188276 -0.0293069 -0.041626852
0000e0 c8 a8 f9 bc 86 12 23 3e a7 5e 42 3e 06 0d 8d bd
       -0.030475989 0.15925035 0.1898142 -0.0688725
0000f0 8a 16 43 bd 5d 4e 4a bd f0 69 3b 3e 8d 1e 33 bd
       -0.047628917 -0.04939114 0.1830213 -0.043730307
000100 d1 0b 89 3e 7d 6a fc bd 58 bb 82 3c 27 d8 0d 3e
       0.26766828 -0.123249985 0.015958473 0.13851987
000110 fe b5 f0 3d 80 50 fc be 32 d0 0d bd 8d 0b 1b bd
       0.11753462 -0.49280167 -0.03462238 -0.037852813
000120 b5 58 01 3e f4 0b a5 be 4d a1 18 3e 1f f6 08 bd
       0.12631495 -0.32235682 0.14905281 -0.033437844
000130 3a 4a f4 3d 80 57 2d bd c4 17 60 3e b7 94 b4 3e
       0.1192822 -0.042319775 0.21884066 0.3526971
000140 b0 d1 8a 3e af 9a 6d bc a4 68 f3 3c 7d 9f 51 be
       0.27113104 -0.0145022115 0.029712982 -0.20470996
000150 1a 87 79 3e c9 b3 7e 3e f2 a2 7e 3c b8 80 8e 3c
       0.24367943 0.2487327 0.015541779 0.017395362
000160 33 52 82 3e b1 54 aa be 52 aa b6 3e 5b c6 c6 3e
       0.25453338 -0.3326774 0.3567682 0.38823208
000170 3c 9c 9b bd a2 4e 04 bd af cd 1c 3d e9 84 16 3e
       -0.07598159 -0.032301553 0.038282093 0.14699139
000180 2f ce 06 3e 10 59 bc be d7 bd ba be 6a 26 3b be
       0.1316459 -0.367867 -0.3647296 -0.18276373
000190 67 9f 4c be 9e d1 28 be 19 67 ac be cd 74 53 be
       -0.19982682 -0.16486213 -0.33672407 -0.20650025
0001a0 41 24 18 3f 2e 1b 9e 3e b9 3b ee 3e e6 44 f6 3e
       0.5943032 0.3088011 0.4652994 0.4809944
0001b0 98 32 12 3e ee 2a c5 be dc cb b7 be 29 09 ba 3e
       0.14277112 -0.38509315 -0.3589772 0.36335114
0001c0 de da 88 be 04 71 8d be 96 68 98 be eb 67 d4 be
       -0.26729482 -0.27625287 -0.29767293 -0.41485533
0001d0 3f 15 9b 3e ae e6 ee be d9 bc 05 be 37 22 96 bd
       0.30289647 -0.4666037 -0.13060321 -0.07330745
0001e0 d2 a8 8e be 16 b9 08 bc 1a c0 24 3f f6 6d eb 3e
       -0.27863175 -0.008344909 0.64355624 0.4598233
0001f0 93 21 0e be 2a 5b a3 3d cd eb 1b bd 4c 1a c1 3e
       -0.13879995 0.079763725 -0.038066674 0.37715375
000200 ee 35 07 3e 11 d5 a9 3c 85 e3 01 3f ff 3a ed bd
       0.13204166 0.02073148 0.5073779 -0.11583518
000210 f3 13 1f 3e 52 3e 25 be e5 e7 90 be db 0e bd 3e
       0.15534954 -0.16137055 -0.2830192 0.36925396
000220 54 c2 cd bb e2 4a 8c be 4d a2 1c bd 93 5f bd be
       -0.0062792692 -0.2740088 -0.03824072 -0.3698698
000230 66 0b f5 bc c5 90 c9 3e 05 6f 43 3e 0e 4b 03 3f
       -0.029912662 0.39368263 0.1908532 0.512864
000240 00 f5 07 bf 0c 5f 4c 3d 1f 8c ae 3e a3 e4 04 3f
       -0.53108215 0.04989533 0.3409128 0.5191137
000250 e6 91 4b bd 28 05 25 3e 0a 4a c0 be 30 cb 1c bf
       -0.049699686 0.16115248 -0.37556487 -0.6124754
000260 10 c7 e3 3e 26 a1 11 3f 04 03 23 bf 92 3e f6 bd
       0.4448781 0.5688652 -0.63676476 -0.12023653
000270 5e 43 07 bf c7 d9 ec 3e 98 ae 58 be 0a cf cc 3e
       -0.5283717 0.462599 -0.21160352 0.40001708
000280 ff 29 ef 3d 14 4a 00 3f 4f fa 17 3f 54 0e 4d be
       0.11677932 0.50113034 0.59366316 -0.20024997
000290 a8 4b 6d 3e a2 95 86 3e 3e 8b 09 3f ca 24 c4 3e
       0.23173392 0.26286036 0.5372809 0.38309318
0002a0 c6 7a f8 bc ee dd 68 be 11 a2 1b 3e 78 0b 54 3e
       -0.03033198 -0.2274091 0.15198542 0.207075
0002b0 bd 43 52 3d 67 34 27 3d 6d 60 f6 3e d8 53 99 be
       0.05133413 0.04082146 0.48120442 -0.2994678
0002c0 67 0b a2 be 7e 3c 80 be 9f 46 75 bd 3e 16 a0 bd
       -0.31649324 -0.25046152 -0.059881803 -0.07816742
0002d0 7b de d3 3c f5 23 06 bf 4d 5d b5 be 77 90 50 be
       0.025862923 -0.52398616 -0.35422745 -0.20367609
0002e0 43 dc 01 3f a7 85 cb bd cd 9a 1b be 6b 28 ba be
       0.5072672 -0.099376015 -0.1519577 -0.3635896
0002f0 8b 61 59 3e 26 c7 71 3d 01 bf 12 3e d9 20 54 3e
       0.21228616 0.059027813 0.14330675 0.20715655
000300 ab ee e0 3e 2e da f6 be 08 74 a5 3d 21 83 f9 bc
       0.4393209 -0.48213333 0.08078772 -0.030458035
000310 92 1f c9 3e 34 92 f7 3c 4d 42 70 3c 8a f9 80 be
       0.392819 0.030221082 0.014664245 -0.25190383
000320 ed c0 1f be f7 e1 85 bd e2 ff 15 be dd cb 03 be
       -0.15600939 -0.0653724 -0.14648393 -0.12870736
000330 b1 f6 7d bd b1 b2 ee b9 8e bc 2a 3d 03 50 65 3e
       -0.06200284 -0.00045528033 0.041683726 0.22393803
000340 97 76 b3 3e fe 46 b1 3c 6c a0 91 3e 23 1a ba 3e
       0.35051414 0.021640297 0.28442705 0.36348066
000350 05 fa 5f 3e 6f aa 23 3e b3 16 6b be a4 3d 25 3e
       0.21872719 0.15982984 -0.22957878 0.16136795
000360 cf d0 fd bd 95 20 6b 3d ff c2 55 be 22 64 11 3e
       -0.12393343 0.05740412 -0.20875166 0.14198354
000370 93 d5 46 3e dd 50 c4 3e 68 ea 29 3e 2b fa 37 3e
       0.1941741 0.38342944 0.16593325 0.17966525
000380 9d 33 a8 bc fe f9 8d 3e 97 c1 55 bd 37 82 44 3e
       -0.020532424 0.2772979 -0.052186575 0.19190298
000390 5b 29 67 be 30 80 72 bd c3 52 bf bb 4a 14 87 3c
       -0.2257437 -0.05920428 -0.0058387234 0.016489167
0003a0 2f 03 92 3d 74 5b 42 be e0 de a8 be 20 d5 f6 3d
       0.071295135 -0.18980199 -0.3298254 0.12052369
0003b0 c0 1b c8 3c 67 bb 37 3e da 50 92 3e ed e8 d7 be
       0.024427295 0.17942582 0.2857731 -0.42169896
0003c0 dc 7f ba 3e 57 35 ac bd a4 d4 fa 3d a2 bd dd bd
       0.36425674 -0.08408611 0.12247589 -0.10827185
0003d0 2c c8 b5 3d 5b 79 9e 3d 12 1b 3e 3e e9 31 f6 3d
       0.088760704 0.077379905 0.18565014 0.12021238
0003e0 a4 2c 3a be d2 71 fc 3e 8a cf d9 3d ee 8f 0e 3c
       -0.18181092 0.49305588 0.10635288 0.008701308
0003f0 66 a9 fd bd 69 78 78 3d 51 59 72 bd 46 09 2a be
       -0.12385826 0.060661707 -0.05916721 -0.166051

fc2.bias f4 [100]
000000 0e 28 ef bc 6a 22 21 bf 02 0f 1b bd 0c 01 e2 3e
       -0.029193904 -0.62943137 -0.03785611 0.44141424
000010 af d4 bd be e8 09 cb be 77 a9 c8 3e 84 90 88 3c
       -0.37076327 -0.39655995 0.3919179 0.016670473
000020 81 f9 fc be ae e5 bc 3d 22 43 c2 3e e6 9b 2e bf
       -0.49409106 0.092234954 0.37941843 -0.6820663
000030 52 ab af bc 95 f4 84 be 06 2e 51 3c a7 27 ef be
       -0.021443997 -0.2596785 0.0127673205 -0.4670994
000040 29 ca 07 3f 2b c9 07 3f fc f9 e3 3e 3d 8d f8 3e
       0.53042847 0.5304133 0.4452666 0.48545256
000050 03 e1 0f bf 20 47 9b 3c 97 83 fe 3e 02 f6 0f 3f
       -0.56202716 0.018954813 0.4970977 0.56234753
000060 32 c1 91 bc 48 c4 fd 3e 10 ba 26 3d 70 2c eb 3c
       -0.017792318 0.49563813 0.040704787 0.028707713
000070 f8 bc f7 be 44 84 ad 3d 6c c9 9b bd 3f 62 8f bb
       -0.4838636 0.08472493 -0.076067775 -0.0043757255
000080 b6 bd a1 bd 43 c5 bd 3e 02 2a ee 3e b0 16 3d bd
       -0.078975126 0.3706456 0.46516424 -0.046164215
000090 a8 7a c3 bc a2 5f 0b bf 10 96 e8 3d 41 ac 22 3f
       -0.023862198 -0.544428 0.11356747 0.6354409
0000a0 f3 db 83 3e 6e 5f 9f 3e 5f 19 15 bf dd dc 93 bc
       0.25753745 0.31127495 -0.5824184 -0.018049652
0000b0 2f 2d ed be 95 51 29 bb e1 1d 1f bd 36 8f df be
       -0.46323535 -0.002583598 -0.038846854 -0.4366395
0000c0 a9 d1 64 bd 1e 27 d1 3e 78 25 8d bd 80 2f 01 3f
       -0.05586401 0.40850157 -0.06891912 0.50463104
0000d0 64 78 fa 3e f6 01 06 bf 75 0c e6 be b0 33 92 be
       0.48919976 -0.5234674 -0.4493138 -0.2855506
0000e0 5a 91 e1 3e 28 e3 52 be 19 93 05 3f 86 bc c9 3e
       0.44056207 -0.20594466 0.5217758 0.39401644
0000f0 a9 0d 00 bf 06 57 ae be 4d 49 0d 3e 82 33 f4 be
       -0.50020844 -0.3405077 0.13797493 -0.47695547
000100 e1 2f 33 be 0d d2 85 3e d3 5d dd bd 03 c4 11 3f
       -0.17498733 0.2613682 -0.10808911 0.56939715
000110 1c 8b 11 3e b7 49 ca 3d 41 d4 51 3e ba 1d 37 bc
       0.14213222 0.09877341 0.20491125 -0.011176521
000120 c0 46 ec be 02 e4 cc be ca ea f0 3e e3 65 21 3e
       -0.46147728 -0.40017706 0.4705413 0.15761523
000130 f1 4d 2a bb 47 c0 df 3e 00 22 e5 3e 59 9f f0 bd
       -0.0025986398 0.43701383 0.44752502 -0.11749143
000140 89 34 c6 3e 55 b0 95 bd 03 e0 04 3f 2d 6a 5e 3d
       0.38711956 -0.07309023 0.51904315 0.054300476
000150 91 64 c3 3e 13 d1 7b 3c ff 30 0b bf 21 63 fe 3e
       0.38162664 0.015369671 -0.5437164 0.49685004
000160 dd 1d 0e bf e6 22 d5 39 de 9c fd be 84 ce d8 3e
       -0.5551432 0.00040652527 -0.49533743 0.4234506
000170 70 67 13 3f 8d c7 eb 3e a2 5f 07 3f 5f 10 f8 3e
       0.5757971 0.46050683 0.528803 0.4844999
000180 97 77 19 bf 4d 4b ef 3e 60 4f f1 3e b3 1c 39 bc
       -0.59948105 0.46737137 0.4713087 -0.011298346

fc3.weight f4 [2, 100]
000000 9b 74 d6 bf f0 21 cb bf 0e a5 c6 bf f0 3f c7 3f
       -1.6754335 -1.5869732 -1.5519121 1.5566387
000010 7a 86 cd bf 19 f9 d5 bf 54 80 e7 3f 88 8b cd bf
       -1.6056664 -1.6716644 1.8086038 -1.6058207
000020 10 89 c3 bf 93 cb 18 40 c3 31 c7 3f 56 e5 c3 bf
       -1.5276203 2.3874252 1.5562061 -1.5304363
000030 03 63 cf bf 64 73 05 c0 99 74 11 c0 3a 6b cd bf
       -1.6202091 -2.085168 -2.2727416 -1.6048348
000040 8f 9c f4 bf 9a 90 c8 3f fa f3 c7 3f 7c 7e bf 3f
       -1.9110278 1.5669129 1.5621331 1.4960475
000050 9d fa e7 3f cd 54 04 c0 87 48 b7 3f 26 68 c6 3f
       1.8123356 -2.0676758 1.4319009 1.5500534
000060 86 c1 d1 3f b0 e4 cd 3f 4e 0c d5 bf 1b a0 c1 3f
       1.6387184 1.6085415 -1.664438 1.5126985
000070 74 2b c7 bf c5 d1 14 40 9c 36 da 3f e8 97 d3 bf
       -1.5560136 2.3253033 1.7047915 -1.6530733
000080 b7 50 06 c0 74 9d c3 3f 79 d9 c4 3f 3c 6f cc bf
       -2.0986764 1.5282426 1.5378867 -1.5971446
000090 be d5 e5 bf e4 1f ca bf a1 6a 0b 40 c4 56 c8 3f
       -1.7955854 -1.5790982 2.178383 1.5651479
0000a0 dc 20 18 40 7f be ed 3f 1e ca cc bf 1e 0c 06 40
       2.3770056 1.857376 -1.5999181 2.0944896
0000b0 d8 fc ce bf 5a 96 d0 3f 80 b2 d2 bf 22 8d d8 bf
       -1.6170912 1.6295884 -1.6460724 -1.691807
0000c0 d0 16 1d 40 f1 f5 ce 3f 22 d4 d1 3f 96 fc c4 3f
       2.4545174 1.6168805 1.6392863 1.5389583
0000d0 9d 65 cf 3f 23 4e c9 bf eb ff c0 bf 28 88 01 c0
       1.6202885 -1.572697 -1.50781 -2.0239353
0000e0 ab 12 c7 3f 5a a0 09 40 7c 74 cc 3f f9 a5 c1 3f
       1.5552572 2.150412 1.5973048 1.5128776
0000f0 2b 0a c3 bf 73 76 c3 bf 46 99 d2 3f c0 b9 c3 bf
       -1.5237478 -1.5270523 1.6453025 -1.5291061
000100 d8 29 ce bf 36 a6 04 40 93 b3 d1 bf 18 62 c7 3f
       -1.610652 2.0726447 -1.6382927 1.5576811
000110 ab a7 cf 3f f6 71 e6 bf d6 7f c9 3f d8 49 ce 3f
       1.6223043 -1.8003528 1.5742137 1.6116285
000120 84 e4 cd bf a6 f9 c0 bf b8 73 c6 3f 6e e0 ce bf
       -1.6085362 -1.5076187 1.5504065 -1.616224
000130 18 d4 cd 3f f5 9b c4 3f 5e d8 c9 3f 67 4b 14 3f
       1.6080351 1.5360094 1.5769155 0.57927555
000140 0a 5c c5 3f ef e4 d2 3f 0e 29 c8 3f f6 d5 d1 bf
       1.5418713 1.6476115 1.5637529 -1.6393421
000150 6b eb cc 3f 0a 60 d0 bf 6f 4b cb bf e3 fb c8 3f
       1.6009344 -1.6279309 -1.5882396 1.570187
000160 b0 06 c7 bf 5c 68 cf bf 08 6b c2 bf af e5 c1 3f
       -1.5548916 -1.6203723 -1.5188913 1.5148219
000170 16 81 c3 3f f7 56 c3 3f 2a 56 c7 3f d6 89 c7 3f
       1.5273769 1.5260915 1.557317 1.5588939
000180 0e e1 c5 bf 24 8a c5 3f 62 c1 cd 3f ec 40 15 c0
       -1.5459306 1.5432782 1.6074641 -2.3320875
000190 b9 aa 91 3e 26 e3 16 3e b3 6a 7b 3e 4d 75 4e be
       0.28450564 0.14735088 0.24552421 -0.20161934
0001a0 0a 7f 24 3e c5 04 2b bc 0c b5 28 be 05 03 9f 3e
       0.16064087 -0.010438149 -0.16475314 0.3105699
0001b0 6f 79 40 3e 9b bc 38 be 3d 09 4d be 20 61 3f 3e
       0.18796323 -0.18040697 -0.20023055 0.18689394
0001c0 7c 7b a9 3e 64 f3 9f 3e a0 42 0e be 64 9a 1c 3e
       0.33102024 0.3124038 -0.13892603 0.1529327
0001d0 a9 8b 81 3e de 85 0e be 71 66 42 be 48 e6 42 be
       0.25301865 -0.13918254 -0.18984391 -0.19033158
0001e0 6a 9b 61 be 1b b1 4d 3e 92 de 04 3f ed c4 38 be
       -0.22031942 0.20087092 0.51902115 -0.18043871
0001f0 2a 90 ce be c0 ae 12 be 7c 61 95 3e 97 a5 85 be
       -0.40344363 -0.14324474 0.29175937 -0.26102898
000200 fa a1 3a 3e ec 65 a6 3e 95 7c 8b be b2 a3 92 3e
       0.18225852 0.32499635 -0.27243486 0.28640515
000210 ca 09 92 3e e1 c9 47 be 2c ab 4d be c1 34 89 3e
       0.28523093 -0.19510604 -0.20084828 0.2679806
000220 93 28 47 3e 7e 6f 24 3e 6f f4 36 be aa a5 48 be
       0.19449072 0.16058156 -0.17866682 -0.19594446
000230 ac 83 41 be f2 82 44 be 2e 94 1d 3e eb e6 56 be
       -0.18897885 -0.19190577 0.15388557 -0.20986526
000240 ac d7 0f 3e 1e 16 a7 be 7a f2 c5 3e 33 62 00 3e
       0.14047116 -0.32634062 0.38661557 0.1253746
000250 86 5d 4d be 80 cd 16 be 29 43 b6 be 52 41 42 be
       -0.20055208 -0.1472683 -0.35598114 -0.1897023
000260 c0 e5 11 be 7e 69 15 3e a5 2f 40 3e 41 ab 94 3e
       -0.14247799 0.14591023 0.18768175 0.29036906
000270 1e f0 47 be ee 7f a5 bd 78 18 28 be 20 17 4a be
       -0.19525191 -0.08081041 -0.16415584 -0.19735384
000280 22 37 46 3e 52 f2 48 3e 43 f7 51 bf 8f f5 45 3e
       0.19356969 0.19623688 -0.82017916 0.19331954
000290 76 3c 25 3e 45 d7 2c be b9 50 90 3e a8 18 3f be
       0.16136345 -0.16878994 0.28186586 -0.1866175
0002a0 97 ae 96 be 9d d1 17 3e d6 66 60 be 3f fc a0 be
       -0.29430076 0.14826055 -0.21914229 -0.31442448
0002b0 fc af 0f 3e 97 5c 4e 3e a5 68 41 be a2 ab 93 3e
       0.14031976 0.20152508 -0.18887575 0.28841883
0002c0 07 fb ed be 2e ea 47 be fc 0b 1b be 34 6c a5 bf
       -0.4648058 -0.19522926 -0.1514129 -1.2923646
0002d0 9c 75 4f be ca f1 9c be 2d e7 41 be c8 61 cc 3e
       -0.20259708 -0.3065322 -0.18935843 0.3991835
0002e0 53 0b 29 be 94 7a b0 3e fa a1 27 3e 0f e2 40 be
       -0.16508226 0.3446852 0.16370383 -0.18836235
0002f0 0b cc 35 3e e2 e1 8b 3e d6 89 40 3e 76 c3 47 be
       0.17753617 0.27320772 0.1880258 -0.19508156
000300 82 32 45 be 93 ad 38 be 70 a5 40 be 9d 54 43 be
       -0.19257548 -0.18034963 -0.1881311 -0.19075246
000310 29 f3 46 3e 6b 0e 48 be 06 ac 2a be f6 48 69 3e
       0.19428696 -0.1953675 -0.16667184 0.22781739

fc3.bias f4 [2]
000000 39 1b c0 3f d1 23 d4 bd
       1.5008308 -0.10358394

fc1.weight f4 [100, 22]
000000 12 4b 9b 3d f8 6c dd bb 48 91 cf bb 3e e7 5a bc
       0.07582678 -0.006757375 -0.0063344575 -0.0133607965
000010 88 ea 14 bc 52 07 f3 bc 78 30 cb bc 0d c6 75 bc
       -0.00908912 -0.029666577 -0.024803385 -0.015000832
000020 e3 be bd bc bb 9c 00 80 09 6d 02 00 1f 1b 08 00
       -0.023162311 -5.6224e-41 2.22785e-40 7.44413e-40
000030 f1 47 04 00 5f 36 0c 80 34 0d 09 00 7a ba 12 80
       3.9315e-40 -1.12153e-39 8.31256e-40 -1.719934e-39
000040 2b 2d 08 00 0c 35 05 80 5d b2 09 80 ec d6 16 80
       7.50887e-40 -4.78207e-40 -8.90504e-40 -2.09748e-39
000050 8d 1b 0a 80 1c fb 27 82 f5 f7 90 39 5b 2a 35 39
       -9.28238e-40 -1.2341287e-37 0.00027650563 0.00017277284
000060 37 f6 61 ba 50 aa 74 3a c4 38 8e ba e2 2e c7 b9
       -0.0008619758 0.000933324 -0.0010850658 -0.00037991168
000070 d9 33 c8 b9 86 92 d4 b9 c5 02 c9 b9 58 8e 01 00
       -0.00038185602 -0.0004054496 -0.0003833977 1.42899e-40
000080 2e 89 0e 80 9e 8a 11 00 f2 42 12 00 e2 43 02 00
       -1.334908e-39 1.61093e-39 1.677054e-39 2.08023e-40
000090 75 72 0a 80 86 a3 0d 00 54 ed 0b 80 14 42 10 80
       -9.59414e-40 1.252523e-39 -1.095328e-39 -1.493072e-39
0000a0 11 48 0b 80 dc 98 10 80 a4 30 13 80 0f 55 0c 80
       -1.036043e-39 -1.524204e-39 -1.762323e-39 -1.132539e-39
0000b0 d0 b5 24 a9 04 4d 90 28 20 cd 89 26 43 5c 12 a9
       -3.6573012e-14 1.6020612e-14 9.561884e-16 -3.2498537e-14
0000c0 04 81 9f 29 d1 5c 59 29 0d 41 59 29 7e c2 58 29
       7.083399e-14 4.8264185e-14 4.8240102e-14 4.813033e-14
0000d0 4a 3b 59 29 8e 48 13 00 ac 53 00 80 b0 8b 11 00
       4.8235104e-14 1.770902e-39 -3.0016e-41 1.611314e-39
0000e0 da 70 0a 80 81 a0 07 80 a0 24 01 80 89 b5 06 80
       -9.58838e-40 -7.00426e-40 -1.04974e-40 -6.16136e-40
0000f0 ee 23 01 80 98 45 0e 00 7e b8 00 80 bd 0d 0c 00
       -1.04725e-40 1.310662e-39 -6.6183e-41 1.106954e-39
000100 2c 11 14 00 2b 38 08 00 12 4b 9b bd fa 6c dd 3b
       1.84287e-39 7.54833e-40 -0.07582678 0.006757376
000110 49 91 cf 3b 3f e7 5a 3c 88 ea 14 3c 52 07 f3 3c
       0.006334458 0.013360797 0.00908912 0.029666577
000120 78 30 cb 3c 0e c6 75 3c e3 be bd 3c 41 86 05 80
       0.024803385 0.015000833 0.023162311 -5.07339e-40
000130 f2 c1 09 00 3d 41 0e 00 c9 1a 15 80 c8 55 05 00
       8.96094e-40 1.3091e-39 -1.938154e-39 4.8995e-40
000140 79 4d 0c 80 89 ec 07 00 1f d1 0e 00 9b b5 04 00
       -1.129818e-39 7.27701e-40 1.360715e-39 4.3249e-40
000150 3c 34 15 00 4e 87 08 00 54 88 02 80 97 73 07 80
       1.947284e-39 7.83222e-40 -2.32576e-40 -6.84314e-40
000160 86 5c 9d 36 fd cd 1f b6 82 5d 43 35 26 27 4a 36
       4.6897358e-06 -2.3812747e-06 7.277923e-07 3.0123133e-06
000170 ce 08 0b b7 f3 48 c8 36 fe f4 c2 36 6b 1c 41 b6
       -8.287096e-06 5.968957e-06 5.8101714e-06 -2.8775783e-06
000180 68 4c bb 36 63 3b 05 80 f8 7f 0f 00 2d 3a 05 80
       5.581929e-06 -4.80481e-40 1.423439e-39 -4.80047e-40
000190 d0 5e 17 00 32 11 01 00 d6 cc 03 00 8b 25 18 80
       2.146229e-39 9.8004e-41 3.48988e-40 -2.21752e-39
0001a0 65 37 16 00 f7 54 05 80 6b 3d 09 80 53 39 16 00
       2.040253e-39 -4.89657e-40 -8.48552e-40 2.040945e-39
0001b0 05 03 0f 00 b2 3c 10 80 7c e8 45 34 27 34 b0 33
       1.378616e-39 -1.491141e-39 1.8431632e-07 8.205125e-08
0001c0 ae fd 70 b5 32 a9 0f 33 d4 41 4a 34 78 e4 a8 b4
       -8.977612e-07 3.3448664e-08 1.8836664e-07 -3.145867e-07
0001d0 54 20 07 b4 84 b2 89 b4 5c 68 4f b3 06 3f 0a 80
       -1.2584616e-07 -2.5648126e-07 -4.8290858e-08 -9.40964e-40
0001e0 79 b7 09 80 ca e2 05 80 18 e6 15 00 7b 69 01 00
       -8.92337e-40 -5.40534e-40 2.011088e-39 1.29675e-40
0001f0 b3 77 12 80 c2 8a 09 00 ec 72 13 00 47 26 19 80
       -1.695979e-39 8.76296e-40 1.7861e-39 -2.309619e-39
000200 46 82 02 00 c2 62 16 80 e2 92 13 00 2e 94 14 80
       2.30404e-40 -2.055809e-39 1.797566e-39 -1.889867e-39
000210 19 44 6f 2e 82 4c 07 2e b2 07 e5 ae b6 29 10 2f
       5.440279e-11 3.07634e-11 -1.0415081e-10 1.3111542e-10
000220 b5 2b 2f af ac cd c9 ae b4 d7 ca ae 7c f2 cb ae
       -1.5931685e-10 -9.1769564e-11 -9.224213e-11 -9.274445e-11
000230 53 4b cb ae 2d e8 13 80 14 6d 09 00 82 0d 05 00
       -9.2447515e-11 -1.828163e-39 8.6565e-40 4.64023e-40
000240 5c ae 10 00 4a b1 00 80 b1 06 03 00 a8 d0 03 80
       1.531916e-39 -6.36e-41 2.77907e-40 -3.50358e-40
000250 6b 3b 04 80 bb 68 0a 00 36 25 0b 80 50 6d 08 00
       -3.88657e-40 9.55925e-40 -1.023539e-39 7.73898e-40
000260 57 91 08 80 d4 3a e9 02 c0 22 f4 98 1e 7e 08 19
       -7.86822e-40 3.4270039e-37 -6.310761e-24 7.056504e-24
000270 7c 8a f2 98 e3 57 ab 99 0d 05 92 99 0b c0 db 99
       -6.2695367e-24 -1.7716483e-23 -1.5098086e-23 -2.2721635e-23
000280 eb 36 90 99 de 8a ce 99 0b f3 ac 99 08 de 14 00
       -1.4911432e-23 -2.1355989e-23 -1.7882547e-23 1.91636e-39
000290 33 44 10 00 47 37 11 00 7f c7 0e 80 8c 8e 12 00
       1.493833e-39 1.581033e-39 -1.357263e-39 1.704175e-39
0002a0 d6 de 08 80 40 0e 06 00 c9 bb 00 80 fa 29 06 00
       -8.14622e-40 5.56125e-40 -6.7365e-41 5.66071e-40
0002b0 e5 51 12 00 08 22 01 00 20 d6 07 80 b1 77 0b 00
       1.682417e-39 1.04044e-40 -7.19662e-40 1.053128e-39
0002c0 13 4b 9b 3d fa 6c dd bb 47 91 cf bb 3f e7 5a bc
       0.07582679 -0.006757376 -0.006334457 -0.013360797
0002d0 89 ea 14 bc 54 07 f3 bc 79 30 cb bc 0f c6 75 bc
       -0.009089121 -0.02966658 -0.024803387 -0.015000834
0002e0 e4 be bd bc c6 f4 01 00 82 67 0b 80 19 43 0e 80
       -0.023162313 1.79644e-40 -1.047322e-39 -1.309767e-39
0002f0 fa a4 0e 80 fd bf 13 80 81 51 15 00 7d a7 0b 80
       -1.34488e-39 -1.813747e-39 1.957784e-39 -1.070274e-39
000300 34 12 0f 00 43 ba 0f 80 8a e0 14 80 1a ab 14 80
       1.384062e-39 -1.44435e-39 -1.91726e-39 -1.89809e-39
000310 32 1a 0b 80 ff 50 0d 80 13 4b 9b bd f9 6c dd 3b
       -1.019588e-39 -1.222917e-39 -0.07582679 0.0067573753
000320 49 91 cf 3b 40 e7 5a 3c 8a ea 14 3c 52 07 f3 3c
       0.006334458 0.013360798 0.009089122 0.029666577
000330 7a 30 cb 3c 0e c6 75 3c e4 be bd 3c 24 eb 00 80
       0.024803389 0.015000833 0.023162313 -8.4353e-41
000340 06 b0 15 80 ae 2c 05 80 a2 14 0e 80 5a b0 15 80
       -1.991691e-39 -4.75206e-40 -1.293099e-39 -1.991808e-39
000350 e3 f2 06 00 9f 07 05 00 ea f9 0e 00 1e 67 07 80
       6.38144e-40 4.61911e-40 1.375349e-39 -6.7984e-40
000360 74 2e 01 80 0c f4 09 00 9f 8e 0b 00 54 dd 0a 80
       -1.085e-40 9.14067e-40 1.061353e-39 -9.97753e-40
000370 12 4b 9b 3d f8 6c dd bb 4a 91 cf bb 3f e7 5a bc
       0.07582678 -0.006757375 -0.0063344585 -0.013360797
000380 88 ea 14 bc 52 07 f3 bc 78 30 cb bc 0d c6 75 bc
       -0.00908912 -0.029666577 -0.024803385 -0.015000832
000390 e2 be bd bc d1 b1 06 00 17 4c 09 00 e1 33 05 80
       -0.02316231 6.14801e-40 8.53815e-40 -4.77788e-40
0003a0 a1 2b 02 80 c3 b0 05 00 27 45 16 00 4b 27 05 80
       -1.99322e-40 5.22588e-40 2.045188e-39 -4.73273e-40
0003b0 dc a2 0a 00 46 44 11 00 5b b4 17 80 a7 91 15 00
       9.76778e-40 1.585695e-39 -2.176916e-39 1.980796e-39
0003c0 98 5f 00 80 98 8c 03 00 14 4b 9b 3d fd 6c dd bb
       -3.4293e-41 3.25942e-40 0.075826794 -0.006757377
0003d0 4b 91 cf bb 41 e7 5a bc 89 ea 14 bc 57 07 f3 bc
       -0.006334459 -0.013360799 -0.009089121 -0.029666586
0003e0 7d 30 cb bc 11 c6 75 bc e4 be bd bc e0 51 02 80
       -0.024803394 -0.015000836 -0.023162313 -2.13042e-40
0003f0 37 ee 0c 80 18 53 01 00 03 a4 0a 00 2c d1 06 00
       -1.187481e-39 1.21644e-40 9.77191e-40 6.2605e-40

fc1.bias f4 [100]
000000 0f 20 a0 3d d8 4a cf 39 db 87 5b a9 0f 20 a0 bd
       0.07818615 0.0003953788 -4.8745604e-14 -0.07818615
000010 b5 38 3a b6 a4 df a1 33 1d e1 cc 2e 5f 5f 5c 99
       -2.7749168e-06 7.537827e-08 9.316834e-11 -1.13929935e-23
000020 0f 20 a0 3d 10 20 a0 bd 0f 20 a0 3d 12 20 a0 3d
       0.07818615 -0.078186154 0.07818615 0.07818617
000030 10 20 a0 3d 10 20 a0 3d 11 20 a0 bd 0e 20 a0 3d
       0.078186154 0.078186154 -0.07818616 0.07818614
000040 10 20 a0 bd 0f 20 a0 bd 74 74 34 b6 12 20 a0 bd
       -0.078186154 -0.07818615 -2.6889875e-06 -0.07818617
000050 c0 d0 cb b6 e5 28 4d a6 0e 20 a0 bd bd 14 03 80
       -6.074173e-06 -7.1179085e-16 -0.07818614 -2.82946e-40
000060 4a 76 3a 2e 0b 4c 25 a1 11 20 a0 bd 0e 20 a0 bd
       4.2396565e-11 -5.6004817e-19 -0.07818616 -0.07818614
000070 4a 23 05 00 10 20 a0 3d 9d 8a 04 80 58 58 30 36
       4.71837e-40 0.078186154 -4.17067e-40 2.6277467e-06
000080 7a 6b 05 00 0e 20 a0 3d 0f 20 a0 bd 12 20 a0 3d
       4.97733e-40 0.07818614 -0.07818615 0.07818617
000090 f0 39 18 34 c5 98 32 b4 7e 65 a6 b9 0e 20 a0 bd
       1.417718e-07 -1.6633119e-07 -0.00031737605 -0.07818614
0000a0 0e 20 a0 3d 97 08 6e b2 02 30 09 16 5e 3c 01 80
       0.07818614 -1.3855376e-08 1.108192e-25 -1.13491e-40
0000b0 24 6c 71 38 10 20 a0 bd 0f 20 a0 3d 10 20 a0 bd
       5.755959e-05 -0.078186154 0.07818615 -0.078186154
0000c0 b9 25 40 b4 0e 20 a0 bd 0f 20 a0 bd 0e 20 a0 bd
       -1.7895117e-07 -0.07818614 -0.07818615 -0.07818614
0000d0 12 20 a0 3d 37 22 2a ab 10 20 a0 bd 11 20 a0 bd
       0.07818617 -6.0443615e-13 -0.078186154 -0.07818616
0000e0 3e b4 3f ae 0f 20 a0 3d 0e 20 a0 3d 0f 20 a0 3d
       -4.358846e-11 0.07818615 0.07818614 0.07818615
0000f0 0d 20 a0 3d 33 aa 2e 1a 0f 20 a0 3d bd 4a b0 ae
       0.07818613 3.6119842e-23 0.07818615 -8.0168296e-11
000100 11 20 a0 3d bc 73 5b 3a 0f 20 a0 3d 12 20 a0 bd
       0.07818616 0.0008371433 0.07818615 -0.07818617
000110 0f 20 a0 3d 10 20 a0 3d 93 90 7e b6 0e 20 a0 3d
       0.07818615 0.078186154 -3.7933103e-06 0.07818614
000120 0f 20 a0 3d 0e 20 a0 bd 10 20 a0 bd 0d 20 a0 3d
       0.07818615 -0.07818614 -0.078186154 0.07818613
000130 10 20 a0 3d 12 20 a0 bd bb 55 81 b5 12 20 a0 3d
       0.078186154 -0.07818617 -9.6362e-07 0.07818617
000140 90 4d 03 00 54 c1 69 b7 87 a7 01 00 0f 20 a0 3d
       3.0333e-40 -1.3932895e-05 1.51933e-40 0.07818615
000150 0f 20 a0 bd 10 20 a0 3d 13 d1 8e 29 11 20 a0 3d
       -0.07818615 0.078186154 6.3423354e-14 0.07818616
000160 0e 20 a0 3d f4 ab 09 37 0f 20 a0 bd 3d cb 03 00
       0.07818614 8.205872e-06 -0.07818615 3.48415e-40
000170 34 94 1b 80 0f 20 a0 3d 10 20 a0 bd 10 20 a0 3d
       -2.532724e-39 0.07818615 -0.078186154 0.078186154
000180 a4 35 02 80 0e 20 a0 bd 13 20 a0 bd 0f 20 a0 bd
       -2.02914e-40 -0.07818614 -0.07818618 -0.07818615

fc2.weight f4 [100, 100]
000000 34 93 4b bc dc 1a 12 ba 91 70 02 29 33 93 4b 3c
       -0.012425233 -0.00055734604 2.8963434e-14 0.012425232
000010 d9 cd ed 35 c9 3f ef 33 e8 57 16 af 63 9c 4c 97
       1.7717786e-06 1.1140907e-07 -1.3673651e-10 -6.6113343e-25
000020 34 93 4b bc 35 93 4b 3c 33 93 4b bc 38 93 4b bc
       -0.012425233 0.012425234 -0.012425232 -0.012425236
000030 35 93 4b bc 34 93 4b bc 34 93 4b 3c 34 93 4b bc
       -0.012425234 -0.012425233 0.012425233 -0.012425233
000040 35 93 4b 3c 34 93 4b 3c b4 e6 ac b6 38 93 4b 3c
       0.012425234 0.012425233 -5.152857e-06 0.012425236
000050 ad af 6e 37 9c 05 18 26 33 93 4b 3c 6e a9 06 00
       1.4226808e-05 5.2743196e-16 0.012425232 6.11793e-40
000060 30 7d 6f ae aa 5f 86 22 37 93 4b 3c 34 93 4b 3c
       -5.4453497e-11 3.642206e-18 0.0124252355 0.012425233
000070 e8 4d 02 00 34 93 4b bc 24 ca 04 00 66 e0 9c 38
       2.11618e-40 -0.012425233 4.39856e-40 7.480457e-05
000080 fc 9f 0f 00 32 93 4b bc 33 93 4b 3c 38 93 4b bc
       1.434924e-39 -0.012425231 0.012425232 -0.012425236
000090 d6 e2 3d b4 a0 90 45 34 52 d6 e9 b9 33 93 4b 3c
       -1.7684519e-07 1.8399669e-07 -0.00044600904 0.012425232
0000a0 34 93 4b bc ee 7c d9 32 b2 26 ac 94 f8 17 06 00
       -0.012425233 2.5318936e-08 -1.7382824e-26 5.59611e-40
0000b0 55 2a 7c b8 35 93 4b 3c 34 93 4b bc 35 93 4b 3c
       -6.0120907e-05 0.012425234 -0.012425233 0.012425234
0000c0 98 29 ad 34 33 93 4b 3c 34 93 4b 3c 33 93 4b 3c
       3.2254025e-07 0.012425232 0.012425233 0.012425232
0000d0 36 93 4b bc 88 3a 11 ac 35 93 4b 3c 34 93 4b 3c
       -0.012425235 -2.063823e-12 0.012425234 0.012425233
0000e0 c4 80 97 2e 34 93 4b bc 33 93 4b bc 33 93 4b bc
       6.8895584e-11 -0.012425233 -0.012425232 -0.012425232
0000f0 33 93 4b bc 9c fd 32 99 34 93 4b bc d6 f4 21 2f
       -0.012425232 -9.2536e-24 -0.012425233 1.4729848e-10
000100 34 93 4b bc 5a 9c 1b 3a 35 93 4b bc 38 93 4b 3c
       -0.012425233 0.0005936079 -0.012425234 0.012425236
000110 33 93 4b bc 35 93 4b bc dc e9 e2 34 34 93 4b bc
       -0.012425232 -0.012425234 4.2265935e-07 -0.012425233
000120 35 93 4b bc 33 93 4b 3c 35 93 4b 3c 31 93 4b bc
       -0.012425234 0.012425232 0.012425234 -0.01242523
000130 34 93 4b bc 36 93 4b 3c 23 7c 38 b6 38 93 4b bc
       -0.012425233 0.012425235 -2.7490394e-06 -0.012425236
000140 bb 6a 07 00 b8 87 92 37 bb a4 03 80 36 93 4b bc
       6.81136e-40 1.7467755e-05 -3.346e-40 -0.012425235
000150 34 93 4b 3c 34 93 4b bc 0e 0b dd a9 36 93 4b bc
       0.012425233 -0.012425233 -9.816289e-14 -0.012425235
000160 34 93 4b bc b8 63 4d b6 34 93 4b 3c c9 96 06 80
       -0.012425233 -3.0605424e-06 0.012425233 -6.05104e-40
000170 8f f5 00 00 34 93 4b bc 35 93 4b 3c 34 93 4b bc
       8.809e-41 -0.012425233 0.012425234 -0.012425233
000180 93 ed 07 00 34 93 4b 3c 38 93 4b 3c 34 93 4b 3c
       7.28074e-40 0.012425233 0.012425236 0.012425233
000190 1b 93 4b bc e6 1a 12 ba 90 70 02 29 1c 93 4b 3c
       -0.012425209 -0.0005573466 2.896343e-14 0.01242521
0001a0 bb cd ed 35 a6 3f ef 33 e7 57 16 af 1d 9c 4c 97
       1.7717751e-06 1.1140882e-07 -1.367365e-10 -6.6113e-25
0001b0 20 93 4b bc 20 93 4b 3c 1e 93 4b bc 21 93 4b bc
       -0.012425214 0.012425214 -0.012425212 -0.012425215
0001c0 21 93 4b bc 21 93 4b bc 21 93 4b 3c 1e 93 4b bc
       -0.012425215 -0.012425215 0.012425215 -0.012425212
0001d0 21 93 4b 3c 20 93 4b 3c a6 e6 ac b6 22 93 4b 3c
       0.012425215 0.012425214 -5.1528505e-06 0.012425216
0001e0 68 af 6e 37 99 05 18 26 1f 93 4b 3c 9b 6d 0e 00
       1.4226745e-05 5.274318e-16 0.012425213 1.325016e-39
0001f0 27 7d 6f ae b3 5f 86 22 21 93 4b 3c 1e 93 4b 3c
       -5.4453466e-11 3.64221e-18 0.012425215 0.012425212
000200 d2 08 0d 80 21 93 4b bc 46 c1 07 80 69 e0 9c 38
       -1.197026e-39 -0.012425215 -7.12182e-40 7.480459e-05
000210 aa e4 11 80 1c 93 4b bc 1c 93 4b 3c 21 93 4b bc
       -1.643233e-39 -0.01242521 0.01242521 -0.012425215
000220 dc e2 3d b4 93 90 45 34 7e d6 e9 b9 20 93 4b 3c
       -1.7684528e-07 1.839965e-07 -0.00044601032 0.012425214
000230 1e 93 4b bc da 7c d9 32 94 26 ac 94 8f c7 0b 80
       -0.012425212 2.53189e-08 -1.7382778e-26 -1.081779e-39
000240 64 2a 7c b8 21 93 4b 3c 20 93 4b bc 21 93 4b 3c
       -6.012096e-05 0.012425215 -0.012425214 0.012425215
000250 9e 29 ad 34 1e 93 4b 3c 1e 93 4b 3c 1c 93 4b 3c
       3.2254042e-07 0.012425212 0.012425212 0.01242521
000260 22 93 4b bc 8a 3a 11 ac 22 93 4b 3c 21 93 4b 3c
       -0.012425216 -2.0638235e-12 0.012425216 0.012425215
000270 cc 80 97 2e 21 93 4b bc 1c 93 4b bc 1c 93 4b bc
       6.889564e-11 -0.012425215 -0.01242521 -0.01242521
000280 1c 93 4b bc b7 fd 32 99 20 93 4b bc ed f4 21 2f
       -0.01242521 -9.253622e-24 -0.012425214 1.472988e-10
000290 21 93 4b bc 7f 9c 1b 3a 20 93 4b bc 21 93 4b 3c
       -0.012425215 0.00059361005 -0.012425214 0.012425215
0002a0 1c 93 4b bc 20 93 4b bc c8 e9 e2 34 1d 93 4b bc
       -0.01242521 -0.012425214 4.226588e-07 -0.012425211
0002b0 20 93 4b bc 1d 93 4b 3c 21 93 4b 3c 1d 93 4b bc
       -0.012425214 0.012425211 0.012425215 -0.012425211
0002c0 21 93 4b bc 22 93 4b 3c 17 7c 38 b6 22 93 4b bc
       -0.012425215 0.012425216 -2.7490366e-06 -0.012425216
0002d0 e0 4e 02 80 b9 87 92 37 38 d3 04 00 21 93 4b bc
       -2.11966e-40 1.7467757e-05 4.43113e-40 -0.012425215
0002e0 1e 93 4b 3c 1f 93 4b bc 14 0b dd a9 21 93 4b bc
       0.012425212 -0.012425213 -9.816293e-14 -0.012425215
0002f0 1d 93 4b bc ec 63 4d b6 1e 93 4b 3c 92 aa 05 80
       -0.012425211 -3.0605543e-06 0.012425212 -5.20367e-40
000300 21 62 12 00 1e 93 4b bc 21 93 4b 3c 21 93 4b bc
       1.688241e-39 -0.012425212 0.012425215 -0.012425215
000310 f2 d9 00 00 1e 93 4b 3c 22 93 4b 3c 1d 93 4b 3c
       7.8184e-41 0.012425212 0.012425216 0.012425211
000320 26 93 4b bc e5 1a 12 ba 8d 70 02 29 26 93 4b 3c
       -0.01242522 -0.00055734656 2.896342e-14 0.01242522
000330 c1 cd ed 35 a7 3f ef 33 eb 57 16 af 76 9c 4c 97
       1.7717758e-06 1.1140883e-07 -1.3673655e-10 -6.6113437e-25
000340 27 93 4b bc 27 93 4b 3c 25 93 4b bc 2a 93 4b bc
       -0.012425221 0.012425221 -0.012425219 -0.012425223
000350 28 93 4b bc 29 93 4b bc 28 93 4b 3c 27 93 4b bc
       -0.0124252215 -0.012425222 0.0124252215 -0.012425221
000360 29 93 4b 3c 27 93 4b 3c b4 e6 ac b6 2a 93 4b 3c
       0.012425222 0.012425221 -5.152857e-06 0.012425223
000370 82 af 6e 37 9b 05 18 26 27 93 4b 3c 7b ae 04 00
       1.4226769e-05 5.274319e-16 0.012425221 4.29934e-40
000380 31 7d 6f ae b1 5f 86 22 29 93 4b 3c 27 93 4b 3c
       -5.44535e-11 3.642209e-18 0.012425222 0.012425221
000390 dc 21 02 00 28 93 4b bc 9e 2d 02 80 69 e0 9c 38
       1.95817e-40 -0.0124252215 -2.00035e-40 7.480459e-05
0003a0 4b 94 13 00 24 93 4b bc 26 93 4b 3c 2b 93 4b bc
       1.798072e-39 -0.012425218 0.01242522 -0.012425224
0003b0 db e2 3d b4 98 90 45 34 69 d6 e9 b9 27 93 4b 3c
       -1.7684526e-07 1.8399658e-07 -0.0004460097 0.012425221
0003c0 27 93 4b bc e7 7c d9 32 9a 26 ac 94 05 d6 08 80
       -0.012425221 2.5318924e-08 -1.7382787e-26 -8.1146e-40
0003d0 54 2a 7c b8 29 93 4b 3c 26 93 4b bc 29 93 4b 3c
       -6.0120903e-05 0.012425222 -0.01242522 0.012425222
0003e0 9c 29 ad 34 27 93 4b 3c 27 93 4b 3c 26 93 4b 3c
       3.2254036e-07 0.012425221 0.012425221 0.01242522
0003f0 2c 93 4b bc 8e 3a 11 ac 29 93 4b 3c 28 93 4b 3c
       -0.012425225 -2.0638244e-12 0.012425222 0.0124252215

fc2.bias f4 [100]
000000 c6 e6 8a bd b5 e6 8a bd bd e6 8a bd b6 e6 8a 3d
       -0.06782298 -0.06782285 -0.06782291 0.06782286
000010 be e6 8a 3d bf e6 8a bd b5 e6 8a 3d b7 e6 8a 3d
       0.06782292 -0.067822926 0.06782285 0.067822866
000020 bd e6 8a bd bd e6 8a bd b7 e6 8a bd b7 e6 8a 3d
       -0.06782291 -0.06782291 -0.067822866 0.067822866
000030 b6 e6 8a 3d b6 e6 8a 3d b6 e6 8a bd bd e6 8a bd
       0.06782286 0.06782286 -0.06782286 -0.06782291
000040 bf e6 8a bd c2 e6 8a 3d b7 e6 8a 3d b6 e6 8a 3d
       -0.067822926 0.06782295 0.067822866 0.06782286
000050 b5 e6 8a bd ad e6 8a 3d aa e6 8a bd bd e6 8a bd
       -0.06782285 0.06782279 -0.06782277 -0.06782291
000060 aa e6 8a 3d aa e6 8a bd b7 e6 8a 3d be e6 8a bd
       0.06782277 -0.06782277 0.067822866 -0.06782292
000070 b7 e6 8a 3d b5 e6 8a bd c2 e6 8a bd b5 e6 8a 3d
       0.067822866 -0.06782285 -0.06782295 0.06782285
000080 b5 e6 8a 3d b7 e6 8a bd bd e6 8a bd b7 e6 8a bd
       0.06782285 -0.067822866 -0.06782291 -0.067822866
000090 bd e6 8a bd b6 e6 8a 3d b7 e6 8a 3d b1 e6 8a 3d
       -0.06782291 0.06782286 0.067822866 0.06782282
0000a0 b6 e6 8a 3d be e6 8a 3d b9 e6 8a bd b2 e6 8a bd
       0.06782286 0.06782292 -0.06782288 -0.06782283
0000b0 c2 e6 8a bd ad e6 8a bd b5 e6 8a 3d b5 e6 8a 3d
       -0.06782295 -0.06782279 0.06782285 0.06782285
0000c0 b7 e6 8a 3d bd e6 8a 3d b6 e6 8a 3d bd e6 8a bd
       0.067822866 0.06782291 0.06782286 -0.06782291
0000d0 b7 e6 8a 3d bd e6 8a 3d be e6 8a 3d bd e6 8a bd
       0.067822866 0.06782291 0.06782292 -0.06782291
0000e0 b5 e6 8a 3d b5 e6 8a bd b5 e6 8a 3d bd e6 8a 3d
       0.06782285 -0.06782285 0.06782285 0.06782291
0000f0 ab e6 8a bd be e6 8a bd b6 e6 8a 3d bd e6 8a bd
       -0.06782278 -0.06782292 0.06782286 -0.06782291
000100 bd e6 8a 3d b7 e6 8a bd b6 e6 8a bd be e6 8a 3d
       0.06782291 -0.067822866 -0.06782286 0.06782292
000110 b6 e6 8a bd c2 e6 8a 3d bd e6 8a 3d a0 e6 8a 3d
       -0.06782286 0.06782295 0.06782291 0.067822695
000120 b5 e6 8a 3d b3 e6 8a bd b5 e6 8a bd be e6 8a bd
       0.06782285 -0.06782284 -0.06782285 -0.06782292
000130 b5 e6 8a 3d b5 e6 8a bd b5 e6 8a 3d bd e6 8a 3d
       0.06782285 -0.06782285 0.06782285 0.06782291
000140 7d e6 8a bd b6 e6 8a 3d be e6 8a 3d b9 e6 8a 3d
       -0.067822434 0.06782286 0.06782292 0.06782288
000150 b3 e6 8a 3d 9b 33 a8 15 bd e6 8a bd d7 67 53 38
       0.06782284 6.793608e-26 -0.06782291 5.040303e-05
000160 b5 e6 8a 3d bd e6 8a bd bd e6 8a bd aa e6 8a 3d
       0.06782285 -0.06782291 -0.06782291 0.06782277
000170 b5 e6 8a 3d b6 e6 8a 3d bd e6 8a 3d b7 e6 8a 3d
       0.06782285 0.06782286 0.06782291 0.067822866
000180 bf e6 8a bd bf e6 8a 3d b5 e6 8a bd a7 e6 8a 3d
       -0.067822926 0.067822926 -0.06782285 0.06782275

fc3.weight f4 [1, 100]
000000 2d 3b f5 bd 10 3b f5 bd 1b 3b f5 bd 11 3b f5 3d
       -0.119741775 -0.11974156 -0.11974164 0.11974157
000010 1f 3b f5 3d 21 3b f5 bd 10 3b f5 3d 13 3b f5 3d
       0.11974167 -0.119741686 0.11974156 0.11974158
000020 1e 3b f5 bd 1e 3b f5 bd 13 3b f5 bd 13 3b f5 3d
       -0.11974166 -0.11974166 -0.11974158 0.11974158
000030 11 3b f5 3d 11 3b f5 3d 11 3b f5 bd 1e 3b f5 bd
       0.11974157 0.11974157 -0.11974157 -0.11974166
000040 21 3b f5 bd 27 3b f5 3d 13 3b f5 3d 11 3b f5 3d
       -0.119741686 0.11974173 0.11974158 0.11974157
000050 10 3b f5 bd 04 3b f5 3d fd 3a f5 bd 1e 3b f5 bd
       -0.11974156 0.11974147 -0.11974142 -0.11974166
000060 fd 3a f5 3d fd 3a f5 bd 13 3b f5 3d 1f 3b f5 bd
       0.11974142 -0.11974142 0.11974158 -0.11974167
000070 13 3b f5 3d 10 3b f5 bd 27 3b f5 bd 10 3b f5 3d
       0.11974158 -0.11974156 -0.11974173 0.11974156
000080 10 3b f5 3d 13 3b f5 bd 1b 3b f5 bd 13 3b f5 bd
       0.11974156 -0.11974158 -0.11974164 -0.11974158
000090 1e 3b f5 bd 11 3b f5 3d 13 3b f5 3d 08 3b f5 3d
       -0.11974166 0.11974157 0.11974158 0.1197415
0000a0 11 3b f5 3d 1f 3b f5 3d 15 3b f5 bd 0d 3b f5 bd
       0.11974157 0.11974167 -0.1197416 -0.11974154
0000b0 27 3b f5 bd 04 3b f5 bd 10 3b f5 3d 10 3b f5 3d
       -0.11974173 -0.11974147 0.11974156 0.11974156
0000c0 13 3b f5 3d 1e 3b f5 3d 11 3b f5 3d 1e 3b f5 bd
       0.11974158 0.11974166 0.11974157 -0.11974166
0000d0 13 3b f5 3d 1b 3b f5 3d 1f 3b f5 3d 1e 3b f5 bd
       0.11974158 0.11974164 0.11974167 -0.11974166
0000e0 10 3b f5 3d 10 3b f5 bd 10 3b f5 3d 1b 3b f5 3d
       0.11974156 -0.11974156 0.11974156 0.11974164
0000f0 fe 3a f5 bd 1f 3b f5 bd 11 3b f5 3d 1e 3b f5 bd
       -0.119741425 -0.11974167 0.11974157 -0.11974166
000100 1e 3b f5 3d 13 3b f5 bd 11 3b f5 bd 1f 3b f5 3d
       0.11974166 -0.11974158 -0.11974157 0.11974167
000110 11 3b f5 bd 27 3b f5 3d 1b 3b f5 3d ea 3a f5 3d
       -0.11974157 0.11974173 0.11974164 0.119741276
000120 10 3b f5 3d 0f 3b f5 bd 10 3b f5 bd 1f 3b f5 bd
       0.11974156 -0.11974155 -0.11974156 -0.11974167
000130 10 3b f5 3d 10 3b f5 bd 10 3b f5 3d 1e 3b f5 3d
       0.11974156 -0.11974156 0.11974156 0.11974166
000140 a9 3a f5 bd 11 3b f5 3d 1f 3b f5 3d 15 3b f5 3d
       -0.11974079 0.11974157 0.11974167 0.1197416
000150 0f 3b f5 3d 13 85 2f 16 1e 3b f5 bd 36 21 b6 38
       0.11974155 1.4178378e-25 -0.11974166 8.684622e-05
000160 10 3b f5 3d 1b 3b f5 bd 1e 3b f5 bd fd 3a f5 3d
       0.11974156 -0.11974164 -0.11974166 0.11974142
000170 10 3b f5 3d 11 3b f5 3d 1e 3b f5 3d 13 3b f5 3d
       0.11974156 0.11974157 0.11974166 0.11974158
000180 23 3b f5 bd 21 3b f5 3d 10 3b f5 bd f7 3a f5 3d
       -0.1197417 0.119741686 -0.11974156 0.11974137
