gail/save_model/0/SUB006_ckpt_0.pth.tar (torch_old, 154734 bytes, 16 tensors)

fc1.weight f4 [100, 22]
000000 9e c2 16 3e 62 a7 f0 be 8b 3c 2c 3e 86 57 6f be
       0.14722678 -0.47002703 0.1681997 -0.23373231
000010 8c 8c b1 3d 80 c5 43 be 91 03 c4 be 4f 4b 1a be
       0.08669385 -0.19118309 -0.3828397 -0.1506779
000020 5e fc e9 bd 4c 25 02 3e 00 3e 8e bc 38 86 2e 3e
       -0.11425088 0.1270954 -0.017363548 0.17043388
000030 4e b4 d8 bd 18 4a e2 3c 98 25 4d be c0 6f 22 3d
       -0.105812654 0.027623221 -0.20033872 0.039657354
000040 70 25 72 3d 40 33 0f bc 78 f1 33 3d bc 58 cd 3d
       0.059117734 -0.008740246 0.043931454 0.1002669
000050 dc 39 e3 3d 22 12 29 3e 7e 40 82 3d aa c5 d4 be
       0.1109502 0.16510823 0.06359957 -0.41557056
000060 d2 3f fa be fa 95 01 3d 53 10 e5 3e a7 9a 92 be
       -0.48876816 0.03163717 0.44739017 -0.28633615
000070 5c d9 47 be 17 18 7c bc 71 71 69 be 60 a0 82 bc
       -0.1951651 -0.015386603 -0.2279718 -0.015945613
000080 80 ca d9 3d 42 8d 40 3e 82 45 3f be 08 aa 56 3d
       0.10634327 0.18803886 -0.18678859 0.05240825
000090 c8 7c 25 3e 88 5d 42 3d e0 f2 74 3d 80 98 4a be
       0.16160882 0.04745248 0.059801936 -0.19784737
0000a0 60 d8 13 bd e8 59 d7 bd 4c 4c 0a 3e c4 95 50 be
       -0.036095023 -0.10515195 0.13505667 -0.20369631
0000b0 6d 21 c3 3d 07 b0 ff 3e 91 5d e2 3e 8d ad 56 be
       0.0952786 0.49938986 0.4421201 -0.20964642
0000c0 60 d4 7a be e9 4e 13 3d 5d b9 2e be 6a d1 49 bd
       -0.24495077 0.035963926 -0.17062898 -0.04927198
0000d0 d4 77 16 3e f4 e6 82 3d 80 e2 42 3d e2 fd 34 3e
       0.14694148 0.06391707 0.04757929 0.17674974
0000e0 2a ac 90 bd e0 61 00 bd 38 6a f1 3d f2 de 59 3e
       -0.07064088 -0.03134334 0.11787838 0.21276453
0000f0 b4 8a 90 3d 70 2e 3f 3d 2b d9 cd bd 00 e4 5a 3c
       0.070577055 0.046675146 -0.10051187 0.0133600235
000100 08 99 e8 bc 70 7d b6 3c c1 c5 05 3e 68 40 47 3d
       -0.028393283 0.02227661 0.13063718 0.048645407
000110 1e 30 89 3e 48 da 02 bf d2 d1 e3 bd 81 1b 6b be
       0.26794523 -0.5111432 -0.111240044 -0.2295971
000120 2e a7 d9 3d 54 51 94 bd 6e 98 8c bd 01 da da bd
       0.1062759 -0.072420746 -0.06865011 -0.10686112
000130 33 e9 1a be c8 ad 40 3d 1a c7 46 3e 45 c5 eb bd
       -0.15128021 0.04704073 0.19411889 -0.115122356
000140 80 8b c0 bd b8 50 24 3e 7c 20 8a 3d 96 1e 3c 3e
       -0.094016075 0.16046417 0.06744477 0.18371043
000150 30 81 b1 3c 5c 39 07 be 3e 95 28 3e c2 02 4d 3e
       0.021668047 -0.13205475 0.16463181 0.20020583
000160 4d 8a 79 bc f6 a5 44 3e 30 56 bb b9 55 c2 b1 be
       -0.015230727 0.19203934 -0.00035731634 -0.34718576
000170 43 76 a0 be bd 4e 07 3e 3a 7c e3 3d ba 51 10 be
       -0.31340227 0.1321363 0.11107679 -0.14093676
000180 d7 d8 45 3e 24 fa f9 bd 82 0d 0b 3e e0 6a ae 3b
       0.19320999 -0.12205914 0.13579372 0.005322799
000190 20 b2 ac 3d 88 8f b9 bc 68 54 bc 3d 76 59 28 3e
       0.08432412 -0.022651449 0.09195787 0.16440377
0001a0 ed cf 41 be 04 e5 04 3e 28 a2 42 3e 8c 7a fa 3d
       -0.18926974 0.12977988 0.1900717 0.12230405
0001b0 b0 53 d0 3d 24 65 3a bd dc 8e 42 be d2 8e be 3e
       0.10172212 -0.04550661 -0.18999809 0.37218338
0001c0 ab 31 58 3d 26 e5 12 be f5 a9 a3 be 47 73 8e 3e
       0.052781742 -0.14345226 -0.31965604 0.27822325
0001d0 1d 69 b2 bb 3e 76 83 3e 03 be 31 3e 0c 99 f6 3d
       -0.0054446594 0.2567615 0.1735764 0.1204091
0001e0 48 7b 25 bd ba 00 a4 bd a8 b9 24 bd a8 14 70 3d
       -0.040400773 -0.08007951 -0.040216118 0.05861345
0001f0 90 2a 17 3d 58 8b 54 3e 04 67 45 3e dc 31 03 3d
       0.036905825 0.2075628 0.19277579 0.03202997
000200 b8 50 0a bd 94 d6 07 bd 80 32 6e bd b8 1f ed 3d
       -0.033768386 -0.033163622 -0.05815363 0.115783155
000210 4d d6 d2 3c 15 a5 9b 3e 50 df 91 be 12 ac 05 3e
       0.025736952 0.30399385 -0.28490686 0.13053921
000220 af 50 8c be cd 51 3d 3c 6b 2c ca 3d de 21 85 3b
       -0.27405307 0.011555147 0.09871753 0.004062875
000230 ba 8c 68 3e 80 93 c0 3a 4c bd b6 3d 34 2d bd 3d
       0.22709933 0.0014692396 0.08922824 0.092371374
000240 50 d3 b0 3d c7 cf 02 be 12 a7 09 3e 00 fa 77 bd
       0.08634055 -0.12774573 0.13442639 -0.060541153
000250 2c 53 57 bd d0 54 a3 3c 2a 1e 17 3e 3e 4a 1c 3e
       -0.052569553 0.019937903 0.147576 0.15262696
000260 c8 9a 9c bd 40 3c 89 3b aa 5b 31 be 85 07 58 be
       -0.0764671 0.0041880906 -0.17320123 -0.21096618
000270 da 83 c1 3d fe 7e c7 3e ab ff 0d 3e 8e 81 87 3d
       0.09448977 0.38964075 0.13867061 0.066165075
000280 2f 56 a5 3e 67 ca 92 3e 9a 08 06 3e 20 45 30 3c
       0.32292315 0.28670046 0.13089219 0.010758668
000290 64 69 d2 3d d4 ac 13 bd cb 67 e9 bd a4 c0 a7 3d
       0.10274008 -0.036053494 -0.1139675 0.0819104
0002a0 b0 56 dc 3d 96 a3 0f 3e 90 b3 24 3d cb 31 e2 bd
       0.10758722 0.14027247 0.040210307 -0.110446535
0002b0 58 ee 69 bd b0 e6 09 3e 9c 95 ae 3d b4 a8 54 bd
       -0.057112068 0.13466907 0.085246295 -0.0519187
0002c0 ab 11 66 3e ee 9d 26 bf d7 5e b8 be 57 6f b9 bd
       0.22467677 -0.6508473 -0.36009857 -0.090544395
0002d0 39 cb a1 3e e3 0b 13 be d1 d3 fc be 3f e0 09 be
       0.3160036 -0.14360003 -0.49380353 -0.1346445
0002e0 9e a0 1d be 58 90 03 3e ec 6e 44 3e c0 8f 01 3b
       -0.15393302 0.12848032 0.19182938 0.001976952
0002f0 27 be 2c be d8 c9 97 3c b9 b8 58 be 08 d4 06 3d
       -0.16869412 0.018528864 -0.21164216 0.032917053
000300 de c1 0f be 04 5e f6 3d c4 6a e2 3d 14 c8 41 bd
       -0.14038798 0.12029651 0.1105552 -0.04730995
000310 d0 33 e9 bd 97 83 fc bd df 03 4e 3e 25 da 92 3e
       -0.113868356 -0.12329786 0.20118664 0.28682056
000320 32 25 92 3e 31 00 d8 3d e1 3b ca be a7 8e f1 bb
       0.28544003 0.105469115 -0.3949881 -0.007371742
000330 22 f5 1b be 2a fd b8 bd 15 49 7b be 38 ec 2d be
       -0.1523023 -0.09032662 -0.24539597 -0.16984642
000340 1c 9c 4d 3e 38 69 b5 bd 34 08 41 3e 73 e1 31 be
       0.20079082 -0.088579595 0.18850785 -0.17371158
000350 30 c1 1c 3d 4c 28 49 3e ce d6 56 be 86 ef 38 be
       0.038270175 0.19644278 -0.20980379 -0.18060121
000360 41 5d 1c be 88 1b fb bc f0 30 53 3d f6 35 48 be
       -0.15269949 -0.030652776 0.051560342 -0.19551834
000370 02 c8 de bd 94 e4 9d be 73 3e 16 be c6 24 ed 3e
       -0.10877992 -0.30838454 -0.1467226 0.46317118
000380 78 a4 9a 3e 83 6d 14 3d f4 88 8b bd ce 9f 8b bb
       0.30203605 0.03623725 -0.06813231 -0.0042609936
000390 6a 47 eb 3c 98 6b 91 bd 6d 15 38 be 94 7b 21 3e
       0.028720576 -0.071006 -0.17976923 0.15769798
0003a0 68 40 af 3c 6c a1 f8 3d cc 89 0b 3e 4c a5 47 3e
       0.021393016 0.12140164 0.13626784 0.1949665
0003b0 05 1b 31 be ff 48 c4 bd a8 a7 6c 3d a8 43 29 bd
       -0.17295463 -0.095842354 0.057777077 -0.041324288
0003c0 88 68 ef 3d 20 2c 83 bc 54 92 b8 bd 25 37 ee be
       0.1168986 -0.016012251 -0.09012285 -0.46526447
0003d0 c8 a4 86 be ca a3 37 3e d8 0c a1 3e 81 7c 31 3e
       -0.26297593 0.17933574 0.31455112 0.1733265
0003e0 ed 87 a2 bd c6 cd 12 bd f4 28 1f bc f4 75 8c 3d
       -0.07936082 -0.035840772 -0.009714354 0.06858435
0003f0 52 f6 4b be 92 1a 0f 3e 50 b4 40 3d 14 b5 07 3d
       -0.19918182 0.1397498 0.04704696 0.033131674

fc1.bias f4 [100]
000000 1e ac 94 3e 25 d7 25 3e ea 2e ec 3d 58 b6 89 bd
       0.29037565 0.16195352 0.11532386 -0.067242324
000010 db 1d 25 bc e5 1d 9a be dd 7a 6e be 56 be 96 bd
       -0.010077919 -0.30100933 -0.23289056 -0.073605224
000020 c6 c5 5a 3e 99 d6 2a 3e 5b c9 30 3d 5d 66 2f be
       0.21364507 0.16683425 0.043160778 -0.17128892
000030 d6 98 0b 3a 94 ac ef bd c8 82 cc bd c1 80 80 3b
       0.00053252035 -0.117028385 -0.09985882 0.0039215987
000040 64 a3 51 3d 66 7f 7a bc 59 e9 ad 3d c1 3a 49 3e
       0.051181212 -0.015289163 0.08491773 0.19651319
000050 52 4d 12 3e 51 33 0e bf 57 b8 4c be db 51 4b bd
       0.14287308 -0.5554705 -0.19992195 -0.04963861
000060 6f 4b 5c 3e 96 94 92 be 2c 40 a8 3e 06 ed d1 be
       0.2151315 -0.28628987 0.3286146 -0.41001147
000070 04 41 e5 3e 8f f1 2e bd c3 cc a4 3d 78 a1 7a 3d
       0.44776165 -0.042710837 0.08046868 0.061189145
000080 f3 11 30 be 9a 36 8e 3d dc 8b de 3e bb 64 81 bd
       -0.17194347 0.06944008 0.4346608 -0.06318041
000090 86 53 0c 3e f3 42 b3 bc fb 9a 94 be cc 96 89 3e
       0.13703737 -0.02188251 -0.2902449 0.2687286
0000a0 94 72 0b bc c0 9e d9 3b f4 e0 19 be 85 4d 0a 3d
       -0.008511204 0.006641239 -0.15027219 0.033765335
0000b0 48 e4 47 3e 3e 9c 24 bd 68 04 7c be 92 d2 0b bd
       0.19520676 -0.040188067 -0.24611056 -0.034136362
0000c0 28 c3 70 3e 89 88 41 38 65 36 ca bd 78 16 ba 3e
       0.23511946 4.6141944e-05 -0.09873656 0.36345267
0000d0 a0 78 34 be 8c 92 8e be 30 c7 98 3e 0c 92 a3 be
       -0.1762414 -0.2784618 0.29839468 -0.31947362
0000e0 e7 5c bc 3d 4a 20 70 be 16 52 b8 3d 36 81 71 be
       0.09197407 -0.23449817 0.09000032 -0.23584446
0000f0 05 52 48 bd cb 6a ad be 09 41 01 3e cf 26 a8 bd
       -0.048906345 -0.3387054 0.12622465 -0.08210527
000100 49 23 ca be 7e a5 75 be 61 d6 44 3e ad a7 0e 3e
       -0.39480045 -0.23988912 0.19222404 0.1393115
000110 03 82 8c 3e 41 8f a7 3e d2 0c f0 3d 9f 59 ec 3c
       0.2744294 0.32726482 0.11721195 0.028851328
000120 dd e7 38 bd db 37 9c 3e 90 31 3e bd 07 ab 76 3b
       -0.045142997 0.30511364 -0.046433985 0.0037638561
000130 8d a9 9b 3e a6 bc ab 3d fa 80 b1 3c 9b e5 e8 be
       0.30402794 0.08385591 0.021667946 -0.45487675
000140 2f f7 91 be f9 a8 d7 3d 82 e7 34 bd 5a 7d c7 3e
       -0.285089 0.10530276 -0.044166096 0.38962823
000150 ec ef 02 be 1c 11 4a bb ce 99 8f bd fd 20 0e 3e
       -0.12786835 -0.0030832952 -0.07011758 0.13879772
000160 85 bb 26 3d 25 d2 96 3e f7 f6 4a bb 60 bc 2e be
       0.040706176 0.29457203 -0.0030969956 -0.17064047
000170 1c 68 d8 bd d2 5e 8a 3d a4 c4 47 bd 59 8c 28 3d
       -0.10566732 0.06756367 -0.048771515 0.04114947
000180 d5 be c1 bc ec 23 68 b9 06 d5 8f 3e 1a 2a cc bd
       -0.023650566 -0.00022138626 0.2809221 -0.09968968

fc2.weight f4 [100, 100]
000000 81 02 82 be f8 c9 9d 3d 8c 7b c2 be d2 1d df 3d
       -0.25392535 0.07704538 -0.37984884 0.1089436
000010 a8 97 7e 3e db 3d 3a 3e 45 76 b4 3d cc f2 97 3e
       0.2486254 0.18187658 0.088116206 0.29677427
000020 e3 8a a5 3e 58 b3 25 bf 95 da 49 bc 8f a5 e5 3e
       0.32332525 -0.6472678 -0.01232018 0.44852874
000030 5c a8 bc be 92 bf 6b be cb 6b 9b be ac e9 0b be
       -0.36847198 -0.23022297 -0.30355677 -0.13663357
000040 80 09 fc 3e 61 c9 15 bf 8e 2a b4 bc 6d 03 da 3e
       0.49225998 -0.58510405 -0.021992948 0.4258074
000050 1c 60 d1 bd 3c 2f 91 3e 3b 9c ca 3e 5c f4 b8 bc
       -0.102234095 0.2835635 0.3957232 -0.022577457
000060 37 38 b5 bd ff 7a d5 3d 4a 6c 6a bd a1 4c c1 3e
       -0.08848613 0.1042385 -0.05723218 0.37753776
000070 a6 0c af be db dc 96 be 5b 02 de 3e 09 ff 8e bd
       -0.34189337 -0.29465374 0.43361172 -0.06982238
000080 60 62 99 3e 18 c3 9a be fa 5a 0f bf c2 d4 09 3e
       0.29957867 -0.3022697 -0.55998194 0.13460067
000090 b8 c8 bf be 64 13 95 bd 08 d9 86 be 8e 37 50 be
       -0.37457824 -0.07279089 -0.26337457 -0.20333692
0000a0 5d 7d aa 3e cb 14 f1 3e 01 89 11 3e a9 d8 33 3f
       0.3329877 0.47086176 0.14212419 0.7025247
0000b0 40 48 99 be 95 93 70 bd 2c f3 e6 3d 2b 1b 8b 3e
       -0.29937935 -0.058734495 0.1127685 0.27169165
0000c0 86 a4 54 3e 0d 47 a2 3e fb b7 09 3f aa ea a5 be
       0.20765886 0.31694832 0.53796357 -0.32405597
0000d0 0c 40 b5 3e 5e c2 fb 3e fa 3d bc be 59 05 c5 3e
       0.35400426 0.49171728 -0.36766034 0.38480642
0000e0 c5 39 e8 3c 1c e1 97 3e 4e f8 fe bd 74 af 94 3e
       0.02834786 0.29663932 -0.12449704 0.2904011
0000f0 2e c7 96 be 18 e3 19 3e b1 98 a8 3e 59 b7 0b 3f
       -0.29448837 0.15028036 0.32928994 0.5457664
000100 28 25 55 3e 39 74 8f 3e 8f bc 28 3e 1e 2a 76 3e
       0.20814955 0.28018358 0.1647818 0.24039504
000110 a4 0d da 3d 0c d5 eb be 50 9e 3d 3e b4 82 0c bf
       0.10647133 -0.4606098 0.18517423 -0.5488694
000120 5e 78 b5 be fe 68 b7 bc cc a9 f7 be 3a 4e 03 3f
       -0.35443395 -0.022388931 -0.48371732 0.5129124
000130 17 3c f4 be ec df 17 3e 8e fa b9 3c ae 02 d2 3e
       -0.47702095 0.14831513 0.022702482 0.4101767
000140 37 6f 9d 3e 52 66 86 3d dc 3c 7d be b8 52 23 be
       0.30748913 0.06562485 -0.24730247 -0.15949523
000150 ae 9d 81 3e 4f 15 04 3e 57 5e 23 3d b9 0a e8 bd
       0.25315613 0.12898754 0.03988489 -0.1133017
000160 0c 04 be 3d e3 05 76 be 62 fc 5f 3e c3 2a de 3e
       0.09278116 -0.24025683 0.2187362 0.43392
000170 c9 77 8c 3e 9a 4c da bd 43 12 68 3e d7 f1 87 3b
       0.2743514 -0.10659142 0.22663216 0.0041487026
000180 0c ce b7 be f9 d3 44 3f 69 af 17 bf 9e fa 57 be
       -0.3589939 0.76885945 -0.5925203 -0.21091697
000190 db 2f fc bd 23 d7 95 bc eb 5a 87 be cc 0f 7d 3d
       -0.12313815 -0.018291062 -0.26436552 0.061782643
0001a0 81 97 87 3e e5 06 04 3e 4e 75 8b 3d fe cc 7f 3e
       0.26482776 0.12893255 0.068094835 0.24980542
0001b0 21 b0 49 3e c5 0c f5 be 2f 9c 96 bd 5b 07 91 3e
       0.19696094 -0.47861305 -0.073540084 0.28325924
0001c0 d1 a7 5a be da d6 57 be 0a a8 fa be 32 20 28 be
       -0.2135308 -0.21078053 -0.4895633 -0.16418532
0001d0 93 36 c6 3e 3c c6 ee be e1 2a cf 3d f9 8d 3f 3e
       0.38713512 -0.46635616 0.101156004 0.18706502
0001e0 0c 17 01 3e 02 db a1 3e 53 b2 cb 3e 9a 4e 8e bd
       0.12606448 0.31612402 0.39784488 -0.06948586
0001f0 67 b5 c0 bd 94 8f 88 3d 8f 5a 9f bd e6 f7 a2 3e
       -0.094096 0.0666801 -0.077809446 0.31829756
000200 9b de 8e be 65 af e2 bd d5 ef ca 3e e8 66 a1 bd
       -0.2790421 -0.1106861 0.39636102 -0.07880956
000210 e3 56 75 3e ef 6b 5e be f9 b3 cb be 79 0f 88 3e
       0.23958926 -0.21720861 -0.39785746 0.26574305
000220 ad 1e 86 be f2 75 1c bd 02 4f 87 be 8f 19 69 be
       -0.2619528 -0.03819842 -0.26427466 -0.22763656
000230 58 54 5a 3e a0 d7 eb 3e 75 78 36 3e 6d 79 0e 3f
       0.21321237 0.46062946 0.17819388 0.5565403
000240 d2 8c 8d be f1 76 37 be 9b 08 2d 3e 4f 4b 7a 3d
       -0.276465 -0.17916466 0.16897814 0.061106976
000250 b7 11 53 3d 7e 76 9e 3e e2 3d e1 3e 3d 91 ab be
       0.051530566 0.30949777 0.43992525 -0.33509246
000260 e1 14 1e 3e bf 43 c9 3e 96 4e c8 be 55 91 a4 3e
       0.15437652 0.393095 -0.39122456 0.3214213
000270 64 27 ac 3d 22 1c 65 3e c3 68 28 be df de 5a 3e
       0.08405951 0.22374013 -0.16446213 0.21374081
000280 84 72 cf bd fd f3 1f 3e 45 b8 67 3e da e2 df 3e
       -0.10129264 0.15620418 0.22628887 0.43727762
000290 06 bd 0d 3e 88 c5 86 3e 12 37 66 3e 29 0e a2 3e
       0.13841638 0.2632258 0.22481945 0.31651428
0002a0 73 66 ff 3c b9 63 93 be 7c e3 6d 3e 77 ff ed be
       0.031176781 -0.2878702 0.2323131 -0.46483967
0002b0 c1 f7 89 be 66 99 97 bd 61 b3 ab be a2 a2 d0 3e
       -0.26946834 -0.07402305 -0.33535293 0.4074908
0002c0 ca 55 ff be 09 d3 98 3e d2 9c 0d 3e da f0 61 3e
       -0.4987014 0.29848507 0.13829353 0.22064534
0002d0 25 4b 7d 3e 11 8d c4 3d 69 fc 31 be bb b6 68 be
       0.24735697 0.09597219 -0.17381443 -0.22725956
0002e0 9c e0 49 3e 24 fd 05 3e 7d 46 13 bb 58 f6 b0 bd
       0.19714588 0.13084847 -0.0022472434 -0.08640736
0002f0 3e 4c 69 3e fc cb 4d be 85 22 93 bb e6 1b ba 3e
       0.2278299 -0.20097345 -0.004490199 0.3634941
000300 ca 2b c6 3e 04 68 04 be 6f d9 13 3d 09 5a 93 3d
       0.38705283 -0.12930304 0.036096033 0.07194907
000310 8e f7 b8 be c1 59 33 3f 80 d9 e1 be 26 99 c3 be
       -0.3612637 0.7005883 -0.44111252 -0.3820278
000320 58 94 ec bd 6a ea c5 3d b8 b8 bb be e0 c1 01 3e
       -0.11551732 0.096638516 -0.36664367 0.12671614
000330 56 fd 2d 3e 64 b5 ea 3d a8 9b 45 3d 7f cd 93 3e
       0.16991171 0.11460379 0.04824415 0.2886772
000340 15 c8 ab 3e 8c 35 f9 be 9b 04 a1 3d 83 1f fd 3e
       0.33551088 -0.48673666 0.078622065 0.49438104
000350 5e 6f 96 be 8a 76 8f be 47 93 96 be a7 6f 66 bd
       -0.2938184 -0.28020126 -0.2940924 -0.056258824
000360 c3 1f ba 3e 10 98 16 bf 44 2b 0c bd 95 cb b1 3e
       0.36352357 -0.5882578 -0.03422095 0.34725633
000370 68 69 b8 3c 0f db a9 3e da de dd 3e 83 29 7e bd
       0.0225112 0.3317494 0.43334085 -0.062051307
000380 ea 77 82 bd c0 78 2c 3e 52 2f 90 bc 09 c8 e4 3e
       -0.06370528 0.16842937 -0.01760069 0.44683865
000390 63 44 71 be d8 8e 85 be a2 fd af 3e 38 3c 9d bc
       -0.23561244 -0.26085544 0.34373194 -0.019193754
0003a0 51 7a 9d 3e 21 9c 91 be 31 81 e8 be a1 1c 11 3e
       0.30757383 -0.2843943 -0.45411065 0.14171077
0003b0 bd 77 85 be f1 7c ba bd 63 7e 3e be 55 a9 5b be
       -0.26067916 -0.09105862 -0.186029 -0.21451314
0003c0 d3 52 82 3e bb 58 16 3f 20 3d 3e 3e 4b b1 08 3f
       0.25453815 0.5872914 0.18578005 0.5339553
0003d0 93 14 10 be 7d 70 19 be 98 a0 19 3d 13 42 5e 3e
       -0.14070348 -0.14984317 0.03750667 0.21704893
0003e0 ad 44 44 3e a4 a9 a7 3e c2 84 00 3f cb 05 b5 be
       0.19166823 0.32746613 0.5020257 -0.35355982
0003f0 b5 c5 11 3e c0 0b ed 3e a1 ab ce be 0c 18 92 3e
       0.14235575 0.46298027 -0.40365317 0.2853397

fc2.bias f4 [100]
000000 38 ff 20 bf 9e 32 10 bf 87 d5 25 bf 5a c3 0a 3f
       -0.6288943 -0.56327236 -0.6477894 0.5420433
000010 62 32 0f be 26 64 be be 97 4a 34 3d d5 8f 11 bf
       -0.13984063 -0.37185782 0.044016447 -0.56860095
000020 dd f8 3b be 20 47 09 3f db 04 13 bf 5f bd 2b bf
       -0.18356653 0.53624153 -0.57429284 -0.6708583
000030 66 cb 26 bf db f3 95 bd fd 20 04 bf 8a 2a 15 bf
       -0.6515411 -0.07321902 -0.51612836 -0.58268034
000040 73 06 9b 3d 28 60 16 3f 58 41 0a 3f 99 57 c0 3e
       0.075695895 0.5874047 0.54005957 0.37566832
000050 2c e8 80 3e e5 64 18 3f 36 a0 96 3e 92 7a 0c 3f
       0.25177133 0.5952895 0.29419106 0.5487453
000060 ed 82 08 3f 78 df 1b bf ce 42 bb be 7e 45 22 bf
       0.53324777 -0.6088786 -0.36574405 -0.63387287
000070 41 00 08 bf 6c c2 67 be 2a 51 1c bf da 8f fb be
       -0.5312539 -0.2263276 -0.61061347 -0.49133188
000080 de 5c 83 3e 90 52 09 3f c5 74 0f 3f 5a 17 3c 3e
       0.2565679 0.53641605 0.5603755 0.18368283
000090 51 7c 78 be 6f 94 15 bf 60 ab 29 bf cd c7 0d bf
       -0.24266173 -0.58429617 -0.6627712 -0.55382997
0000a0 4b 98 d5 3d a8 d9 0e 3f ea 47 1f bf 63 7d cd 3e
       0.10429438 0.5580087 -0.6221911 0.40134725
0000b0 7a 6a 5e be 11 d0 05 3e 1b 38 0d bf dd 12 f5 be
       -0.21720305 0.13067652 -0.55163735 -0.47865954
0000c0 5f ed e2 3e 4f 05 08 3f 17 7d 0b 3f 4f 49 04 3f
       0.44321725 0.531331 0.54487747 0.5167436
0000d0 6f 88 1b 3f 0f e5 0f bf ac 11 15 bf d3 3e 07 3f
       0.60755056 -0.5620889 -0.5823009 0.5283024
0000e0 73 22 28 3e bf 70 f5 3e be 58 10 3f c8 ee 28 3f
       0.16419391 0.4793758 0.5638541 0.6598935
0000f0 aa 34 2a bf 80 8f 04 bf f6 8e 11 bf 0e 73 06 bf
       -0.6648661 -0.51781464 -0.56858766 -0.5251931
000100 55 2e 0d 3f 5c f5 f6 3e 96 14 0b 3f 35 5d 31 3f
       0.5514882 0.4823407 0.54328287 0.6928285
000110 3c 48 b1 be 7d b1 1d 3f 9d 53 eb 3e 7a fe 29 3f
       -0.34625423 0.6159895 0.4596223 0.66403925
000120 29 2a 06 bf 74 64 06 bf 36 e2 0c 3f 4c 1b 0a bf
       -0.5240808 -0.5249703 0.5503267 -0.539479
000130 41 2c 08 3f dc d3 f3 3e bb 48 3a 3e 60 21 f3 be
       0.53192526 0.47622573 0.18191807 -0.474864
000140 4e f7 15 3f 92 8c 15 3f 8e 98 58 3e d6 c3 43 bd
       0.5858048 0.5841762 0.21151945 -0.047794186
000150 02 42 59 3e 84 bd 15 bf 18 a7 99 3d ca 47 0e 3f
       0.21216586 -0.584923 0.07502574 0.5557829
000160 0a ad 31 bf a1 15 e9 3e 3b 43 0f bf f2 ee 24 3f
       -0.6940466 0.45524314 -0.5596196 0.644271
000170 66 72 a7 3e 29 50 15 3f 69 f5 0f 3f 73 28 0e 3f
       0.32704467 0.5832544 0.5623384 0.5553047
000180 7f 0a 2f bf 1e 54 0c 3f 79 4f d7 be 92 f6 1f 3f
       -0.6837539 0.5481585 -0.4205282 0.6248561

fc3.weight f4 [2, 100]
000000 b1 aa 01 c0 d1 1d 04 c0 b5 db fc bf 6c be 01 40
       -2.0260432 -2.0643198 -1.9754549 2.0272474
000010 5d b5 4f c0 98 e4 2c c0 3e d0 86 40 48 fd 02 c0
       -3.2454445 -2.7014523 4.21292 -2.046709
000020 cf b0 53 40 7e 96 35 40 61 4d fe bf c9 9b f7 bf
       3.3076665 2.8373103 -1.9867364 -1.9344417
000030 54 25 fc bf 83 a6 58 c0 a1 65 03 c0 5d fc 00 c0
       -1.9698892 -3.385163 -2.053078 -2.015403
000040 68 67 41 c0 e6 58 09 40 61 79 03 40 30 de 10 c0
       -3.0219364 2.146051 2.0542834 -2.2635612
000050 1a 3b 4c 40 7e 79 fb 3f 92 1a 49 c0 db 04 03 40
       3.1911073 1.9646451 -3.1422467 2.0471714
000060 d9 ae 04 40 4e 71 fd bf 22 c7 4e c0 ad 21 fe bf
       2.0731719 -1.9800203 -3.230904 -1.9854027
000070 8d 3d 02 c0 df 03 89 40 ec 80 fe bf d8 9f fd bf
       -2.0350068 4.2817225 -1.9883094 -1.9814405
000080 38 df 53 c0 ce dc 02 40 7b c4 fb 3f e1 2a 55 c0
       -3.3104992 2.0447268 1.9669336 -3.3307421
000090 a5 ca 1d c0 29 f8 04 c0 d3 c0 01 c0 20 15 02 c0
       -2.4654934 -2.0776465 -2.027394 -2.0325394
0000a0 d2 76 66 40 d6 42 05 40 aa 5d fc bf 63 d8 10 40
       3.6010022 2.0822043 -1.9716084 2.2632072
0000b0 6b 3e 55 c0 9f bf 53 c0 83 09 0c c0 09 1f 0a c0
       -3.3319347 -3.3085706 -2.1880805 -2.1581442
0000c0 9d 3a 09 40 c5 f4 0a 40 52 5c 00 40 39 ca 01 40
       2.1442025 2.1711895 2.0056348 2.0279677
0000d0 28 6a ff 3f d9 df 08 c0 24 df fc bf 01 be f7 3f
       1.9954271 -2.1386626 -1.9755597 1.935486
0000e0 b6 f0 1a 40 7c 17 07 40 8e 04 fc 3f f5 e2 01 40
       2.4209418 2.1108084 1.968889 2.0294774
0000f0 62 60 fd bf 09 f9 01 c0 3a a2 fc bf 23 bf fa bf
       -1.9795039 -2.030825 -1.9737008 -1.958958
000100 5d d8 f7 3f 20 db 26 40 93 39 05 40 61 55 02 40
       1.9362904 2.6071243 2.081639 2.036461
000110 ac e1 06 c0 9d 12 f9 3f d9 e1 21 40 da 05 f8 3f
       -2.107524 1.9458805 2.5294096 1.9376786
000120 34 a2 07 c0 fe 91 fa bf ed 46 01 40 d8 eb fd bf
       -2.119275 -1.9575803 2.019954 -1.9837599
000130 3f 1d fe 3f 2e 13 f9 3f 76 24 15 40 75 2d fa bf
       1.9852675 1.9458978 2.3303504 -1.9545122
000140 6c 1e 03 40 64 ab fa 3f 73 1c 18 40 20 31 da bf
       2.0487318 1.9583554 2.3767364 -1.7046242
000150 3d 09 4f 40 3c d7 fb bf 44 02 1c 40 02 b8 01 40
       3.2349389 -1.9675059 2.4376383 2.026856
000160 40 04 02 c0 78 f3 ef 3f 35 06 21 c0 5d 6b 03 40
       -2.0315094 1.8746176 -2.5160038 2.053428
000170 b9 14 03 40 84 c1 01 40 ac 71 02 40 bc ea 03 40
       2.0481398 2.0274363 2.038188 2.061202
000180 2f f7 00 c0 a1 d2 fe 3f ff 31 14 c0 6c 9a 00 40
       -2.015087 1.9908029 -2.3155515 2.0094252
000190 0f 9d d8 3e e2 81 c4 3e b8 67 e4 3e db b3 df be
       0.42307326 0.38380343 0.4461038 -0.43691906
0001a0 06 0c 02 40 7c 7e c4 3e 07 c4 0e c0 ac 7f d9 3e
       2.0319839 0.3837775 -2.2307146 0.42480218
0001b0 84 ee d3 bf e8 31 8e 3f ea 61 df 3e 99 51 dc 3e
       -1.6557164 1.110898 0.4362939 0.43031004
0001c0 bd 46 e1 3e c1 43 fa 3f 9a 1c db 3e cf 5f e0 3e
       0.43999282 1.9551927 0.4279526 0.43823096
0001d0 9b 60 0e 3f cc 3a bc be f5 fc d6 be 3b 74 d4 be
       0.5561616 -0.36763608 -0.41989866 -0.41494927
0001e0 77 10 ee bf 50 31 e2 be d6 1d e2 3f 0e 54 c6 be
       -1.8598775 -0.44178247 1.7665355 -0.38736004
0001f0 9f d4 c5 be 09 92 e4 3e 5d 04 eb 3f fb 92 e1 3e
       -0.3863878 0.44642666 1.8360707 0.4405745
000200 33 99 dc 3e 7a 4c 86 3c 50 48 df 3e f6 9f e6 3e
       0.43085632 0.016393889 0.43609858 0.45043916
000210 1d cb d6 3f 07 a9 d8 be d9 75 e2 be b9 95 ea 3f
       1.6780735 -0.42316458 -0.44230536 1.8326942
000220 d9 68 a2 3e 65 f8 c5 3e 5a ca db 3e af 73 e4 3e
       0.31720617 0.38666072 0.4292782 0.4461951
000230 c4 a7 d3 bf de 41 c2 be ca 37 df 3e a1 c5 8e 3f
       -1.6535573 -0.37940878 0.4359725 1.1154062
000240 cd 2a fc 3f 7a b5 d3 3f 44 92 bc 3e 0a 9f 8c bf
       1.9700562 1.6539757 0.36830342 -1.0986035
000250 74 10 87 3f 5a 16 c0 be 40 26 e1 be 86 8b e0 be
       1.0551896 -0.37517053 -0.43974495 -0.43856448
000260 9f bc e2 be 29 ea b7 3e d1 57 e0 3e cf d8 e4 be
       -0.4428453 0.35920838 0.43817 -0.44696662
000270 bc 47 06 be 14 57 90 3f e2 1e e4 be c2 15 e2 be
       -0.13113302 1.1276574 -0.44554812 -0.44157225
000280 b1 0c e0 3e 88 ae de 3e 38 b3 e1 3e ed 8c dd 3e
       0.43759683 0.43492532 0.44082046 0.4327158
000290 d5 cf e3 be 7e 6e 8a be 7c 52 c0 be 18 b4 d5 be
       -0.444945 -0.27037424 -0.3756293 -0.41738963
0002a0 56 34 8e bf cd 38 d9 be 06 8a 83 3f 50 67 de be
       -1.1109722 -0.42426148 1.0276496 -0.43438196
0002b0 d2 3b c6 3e e4 70 e4 3e 03 1d da be f1 4d e3 3e
       0.38717514 0.4461738 -0.4260026 0.44395402
0002c0 31 27 e4 be 4e 6c e0 be ba b5 df bd ab 0a dc 3e
       -0.4456115 -0.4383263 -0.109233335 0.4297689
0002d0 5b 28 de be 51 76 e0 be a6 e6 12 be 22 82 ad bf
       -0.43390164 -0.43840268 -0.14345798 -1.3555338
0002e0 4b 6f ff bf 47 f2 df 3e 8e 44 f2 be d3 51 da be
       -1.9955839 0.4373953 -0.47317928 -0.42640552
0002f0 0a a2 dc 3e 6c 72 c0 3f cb 26 8d bf bf 17 cf be
       0.43092376 1.5034919 -1.1027464 -0.40447804
000300 a1 f4 84 3f c1 08 d8 be fc d7 dd be 81 da d2 be
       1.0387155 -0.4219418 -0.43328846 -0.4118233
000310 e0 de d9 3e 3f 22 e2 be 16 ce 81 3e 71 15 e2 be
       0.42552853 -0.44166753 0.25352544 -0.44156983

fc3.bias f4 [2]
000000 08 df fa 3f 1d 65 b1 be
       1.9599314 -0.34647456

fc1.weight f4 [100, 22]
000000 81 65 77 2e 4a 6f 6e 2d 28 c1 8c 2f d0 39 6a ae
       5.625145e-11 1.3553445e-11 2.5603097e-10 -5.3256788e-11
000010 e5 e0 74 ae 0d 38 c1 ae 18 5f c1 ae 37 06 bd ae
       -5.5678923e-11 -8.7865805e-11 -8.793516e-11 -8.595829e-11
000020 f2 76 c1 ae bb 9c 00 80 09 6d 02 00 1f 1b 08 00
       -8.797753e-11 -5.6224e-41 2.22785e-40 7.44413e-40
000030 f1 47 04 00 5f 36 0c 80 34 0d 09 00 7a ba 12 80
       3.9315e-40 -1.12153e-39 8.31256e-40 -1.719934e-39
000040 2b 2d 08 00 0c 35 05 80 5d b2 09 80 ec d6 16 80
       7.50887e-40 -4.78207e-40 -8.90504e-40 -2.09748e-39
000050 8d 1b 0a 80 20 08 b6 00 40 14 62 aa af 51 c9 ab
       -9.28238e-40 1.6716975e-38 -2.0079858e-13 -1.4304581e-12
000060 74 74 d9 ab fc eb 5c 2b a0 15 09 ac 5a 6a 38 ac
       -1.54511e-12 7.8487195e-13 -1.9480875e-12 -2.620701e-12
000070 c0 09 64 ac fe b5 32 ac eb 5f 18 ac 58 8e 01 00
       -3.2406161e-12 -2.5396347e-12 -2.1653744e-12 1.42899e-40
000080 2e 89 0e 80 9e 8a 11 00 f2 42 12 00 e2 43 02 00
       -1.334908e-39 1.61093e-39 1.677054e-39 2.08023e-40
000090 75 72 0a 80 86 a3 0d 00 54 ed 0b 80 14 42 10 80
       -9.59414e-40 1.252523e-39 -1.095328e-39 -1.493072e-39
0000a0 11 48 0b 80 dc 98 10 80 a4 30 13 80 0f 55 0c 80
       -1.036043e-39 -1.524204e-39 -1.762323e-39 -1.132539e-39
0000b0 62 8c c5 29 c8 ed a8 26 ca c2 9d 2a 75 ee 0d a9
       8.77291e-14 1.1721792e-15 2.8023964e-13 -3.1515118e-14
0000c0 c6 cf 03 2a eb b0 50 2a 54 9c 59 2a 4a 1d d0 29
       1.1707223e-13 1.8535492e-13 1.9327709e-13 9.2421364e-14
0000d0 f9 d9 41 2a 8e 48 13 00 ac 53 00 80 b0 8b 11 00
       1.7217468e-13 1.770902e-39 -3.0016e-41 1.611314e-39
0000e0 da 70 0a 80 81 a0 07 80 a0 24 01 80 89 b5 06 80
       -9.58838e-40 -7.00426e-40 -1.04974e-40 -6.16136e-40
0000f0 ee 23 01 80 98 45 0e 00 7e b8 00 80 bd 0d 0c 00
       -1.04725e-40 1.310662e-39 -6.6183e-41 1.106954e-39
000100 2c 11 14 00 2b 38 08 00 5c f4 aa bd 00 c2 03 3c
       1.84287e-39 7.54833e-40 -0.08347389 0.008041859
000110 14 83 ee 3b bd ae 80 3c 01 18 2d 3c 37 78 e2 3c
       0.0072788093 0.015708322 0.010564805 0.027645214
000120 f7 20 0a 3d 56 c8 5f 3c 91 2d c2 3c 41 86 05 80
       0.033722844 0.013658604 0.023703368 -5.07339e-40
000130 f2 c1 09 00 3d 41 0e 00 c9 1a 15 80 c8 55 05 00
       8.96094e-40 1.3091e-39 -1.938154e-39 4.8995e-40
000140 79 4d 0c 80 89 ec 07 00 1f d1 0e 00 9b b5 04 00
       -1.129818e-39 7.27701e-40 1.360715e-39 4.3249e-40
000150 3c 34 15 00 4e 87 08 00 54 88 02 80 97 73 07 80
       1.947284e-39 7.83222e-40 -2.32576e-40 -6.84314e-40
000160 06 18 d7 2e 2c 51 18 2e 1d 5d 1f 30 c1 76 43 af
       9.7813355e-11 3.4632894e-11 5.7976185e-10 -1.7777337e-10
000170 6a f5 6b ae d3 7f 81 ae de fd 70 ae 79 af 88 ae
       -5.3650785e-11 -5.888947e-11 -5.479516e-11 -6.215734e-11
000180 65 9a 83 ae 63 3b 05 80 f8 7f 0f 00 2d 3a 05 80
       -5.984616e-11 -4.80481e-40 1.423439e-39 -4.80047e-40
000190 d0 5e 17 00 32 11 01 00 d6 cc 03 00 8b 25 18 80
       2.146229e-39 9.8004e-41 3.48988e-40 -2.21752e-39
0001a0 65 37 16 00 f7 54 05 80 6b 3d 09 80 53 39 16 00
       2.040253e-39 -4.89657e-40 -8.48552e-40 2.040945e-39
0001b0 05 03 0f 00 b2 3c 10 80 96 c4 cf 2f f4 cc 4e af
       1.378616e-39 -1.491141e-39 3.7792763e-10 -1.8808405e-10
0001c0 e8 ce de 2f 16 7d 07 af 45 f1 0f b0 70 93 54 b0
       4.052858e-10 -1.2322618e-10 -5.236596e-10 -7.733467e-10
0001d0 54 05 5e b0 34 9c 69 b0 18 e2 4b b0 06 3f 0a 80
       -8.07707e-10 -8.4986884e-10 -7.417227e-10 -9.40964e-40
0001e0 79 b7 09 80 ca e2 05 80 18 e6 15 00 7b 69 01 00
       -8.92337e-40 -5.40534e-40 2.011088e-39 1.29675e-40
0001f0 b3 77 12 80 c2 8a 09 00 ec 72 13 00 47 26 19 80
       -1.695979e-39 8.76296e-40 1.7861e-39 -2.309619e-39
000200 46 82 02 00 c2 62 16 80 e2 92 13 00 2e 94 14 80
       2.30404e-40 -2.055809e-39 1.797566e-39 -1.889867e-39
000210 33 b1 02 35 ec be 80 32 0b 32 31 36 c5 2a 09 b5
       4.868663e-07 1.4987982e-08 2.6404184e-06 -5.1098715e-07
000220 32 99 69 b4 85 f2 1f b5 27 54 23 b5 95 11 18 b5
       -2.1755548e-07 -5.958503e-07 -6.084469e-07 -5.665e-07
000230 f8 86 1a b5 2d e8 13 80 14 6d 09 00 82 0d 05 00
       -5.7565876e-07 -1.828163e-39 8.6565e-40 4.64023e-40
000240 5c ae 10 00 4a b1 00 80 b1 06 03 00 a8 d0 03 80
       1.531916e-39 -6.36e-41 2.77907e-40 -3.50358e-40
000250 6b 3b 04 80 bb 68 0a 00 36 25 0b 80 50 6d 08 00
       -3.88657e-40 9.55925e-40 -1.023539e-39 7.73898e-40
000260 57 91 08 80 d4 3a e9 02 a1 46 88 21 2c 3c d0 a0
       -7.86822e-40 3.4270039e-37 9.234414e-19 -3.527639e-19
000270 02 ad 6f 21 27 da 29 a1 de 2a 27 9f f5 ce 6b 1f
       8.1205324e-19 -5.754815e-19 -3.5399084e-20 4.9934376e-20
000280 b5 b4 84 20 aa d2 f8 9f e2 ad 84 9f 08 de 14 00
       2.2481252e-19 -1.053806e-19 -5.619184e-20 1.91636e-39
000290 33 44 10 00 47 37 11 00 7f c7 0e 80 8c 8e 12 00
       1.493833e-39 1.581033e-39 -1.357263e-39 1.704175e-39
0002a0 d6 de 08 80 40 0e 06 00 c9 bb 00 80 fa 29 06 00
       -8.14622e-40 5.56125e-40 -6.7365e-41 5.66071e-40
0002b0 e5 51 12 00 08 22 01 00 20 d6 07 80 b1 77 0b 00
       1.682417e-39 1.04044e-40 -7.19662e-40 1.053128e-39
0002c0 64 1f 57 ac 78 38 12 ab de e6 9d ad 79 2a 96 2c
       -3.0570763e-12 -5.1947986e-13 -1.795136e-11 4.267972e-12
0002d0 34 fb 6c 2b 89 59 6d 2b cb 12 6a 2b 49 6e 72 2b
       8.4192657e-13 8.432357e-13 8.315958e-13 8.612872e-13
0002e0 69 40 69 2b c6 f4 01 00 82 67 0b 80 19 43 0e 80
       8.2867616e-13 1.79644e-40 -1.047322e-39 -1.309767e-39
0002f0 fa a4 0e 80 fd bf 13 80 81 51 15 00 7d a7 0b 80
       -1.34488e-39 -1.813747e-39 1.957784e-39 -1.070274e-39
000300 34 12 0f 00 43 ba 0f 80 8a e0 14 80 1a ab 14 80
       1.384062e-39 -1.44435e-39 -1.91726e-39 -1.89809e-39
000310 32 1a 0b 80 ff 50 0d 80 5a f4 aa bd ff c1 03 3c
       -1.019588e-39 -1.222917e-39 -0.083473876 0.008041858
000320 12 83 ee 3b bd ae 80 3c 00 18 2d 3c 37 78 e2 3c
       0.0072788084 0.015708322 0.010564804 0.027645214
000330 f6 20 0a 3d 56 c8 5f 3c 91 2d c2 3c 24 eb 00 80
       0.03372284 0.013658604 0.023703368 -8.4353e-41
000340 06 b0 15 80 ae 2c 05 80 a2 14 0e 80 5a b0 15 80
       -1.991691e-39 -4.75206e-40 -1.293099e-39 -1.991808e-39
000350 e3 f2 06 00 9f 07 05 00 ea f9 0e 00 1e 67 07 80
       6.38144e-40 4.61911e-40 1.375349e-39 -6.7984e-40
000360 74 2e 01 80 0c f4 09 00 9f 8e 0b 00 54 dd 0a 80
       -1.085e-40 9.14067e-40 1.061353e-39 -9.97753e-40
000370 5c f4 aa 3d 00 c2 03 bc 14 83 ee bb bd ae 80 bc
       0.08347389 -0.008041859 -0.0072788093 -0.015708322
000380 01 18 2d bc 37 78 e2 bc f7 20 0a bd 56 c8 5f bc
       -0.010564805 -0.027645214 -0.033722844 -0.013658604
000390 91 2d c2 bc d1 b1 06 00 17 4c 09 00 e1 33 05 80
       -0.023703368 6.14801e-40 8.53815e-40 -4.77788e-40
0003a0 a1 2b 02 80 c3 b0 05 00 27 45 16 00 4b 27 05 80
       -1.99322e-40 5.22588e-40 2.045188e-39 -4.73273e-40
0003b0 dc a2 0a 00 46 44 11 00 5b b4 17 80 a7 91 15 00
       9.76778e-40 1.585695e-39 -2.176916e-39 1.980796e-39
0003c0 98 5f 00 80 98 8c 03 00 5c f4 aa 3d 00 c2 03 bc
       -3.4293e-41 3.25942e-40 0.08347389 -0.008041859
0003d0 14 83 ee bb bd ae 80 bc 01 18 2d bc 37 78 e2 bc
       -0.0072788093 -0.015708322 -0.010564805 -0.027645214
0003e0 f7 20 0a bd 56 c8 5f bc 91 2d c2 bc e0 51 02 80
       -0.033722844 -0.013658604 -0.023703368 -2.13042e-40
0003f0 37 ee 0c 80 18 53 01 00 03 a4 0a 00 2c d1 06 00
       -1.187481e-39 1.21644e-40 9.77191e-40 6.2605e-40

fc1.bias f4 [100]
000000 d7 2e cf 2e 84 57 68 2c 37 95 18 aa d4 bf ac bd
       9.4215906e-11 3.3017764e-12 -1.3552081e-13 -0.08435026
000010 2e 76 a2 2e 62 40 7b 30 28 32 5c 35 5d 2e 35 21
       7.3879e-11 9.140476e-10 8.2029374e-07 6.1386547e-19
000020 9d c1 cf ab d4 bf ac bd d4 bf ac 3d d4 bf ac 3d
       -1.4761973e-12 -0.08435026 0.08435026 0.08435026
000030 d9 6b f3 27 d4 bf ac 3d d4 bf ac bd d4 bf ac 3d
       6.7562977e-15 0.08435026 -0.08435026 0.08435026
000040 d4 bf ac bd d4 bf ac bd 8e 67 39 a1 d4 bf ac bd
       -0.08435026 -0.08435026 -6.281749e-19 -0.08435026
000050 25 1f b9 2e 99 8a a3 af 0f c8 5b 2e 93 05 07 80
       8.4183584e-11 -2.9748007e-10 4.9972523e-11 -6.44848e-40
000060 dd 12 3c a3 0a 59 06 94 d4 bf ac bd d4 bf ac bd
       -1.0195495e-17 -6.782831e-27 -0.08435026 -0.08435026
000070 1e 5c 0f 2c d4 bf ac 3d 5c a3 91 34 95 dc 4e ab
       2.0372658e-12 0.08435026 2.7127214e-07 -7.349202e-13
000080 56 06 95 9a d4 bf ac 3d d4 bf ac bd 62 dc d6 a5
       -6.163519e-23 0.08435026 -0.08435026 -3.727242e-16
000090 c2 f8 11 15 eb 19 45 2b 65 84 21 b8 de 0f 0c 35
       2.9478752e-26 7.002443e-13 -3.8508693e-05 5.2177154e-07
0000a0 8b 89 29 2c 08 6a b6 b2 e5 92 4a 25 54 ad 33 b5
       2.4092696e-12 -2.1235806e-08 1.7570477e-16 -6.693492e-07
0000b0 7e 3c 5e 34 94 c1 fd 29 d4 bf ac 3d d4 bf ac bd
       2.0697368e-07 1.12690375e-13 0.08435026 -0.08435026
0000c0 d5 29 b9 22 d4 bf ac bd d4 bf ac bd d4 bf ac bd
       5.018864e-18 -0.08435026 -0.08435026 -0.08435026
0000d0 d4 bf ac 3d d1 56 a4 27 d4 bf ac bd d4 bf ac bd
       0.08435026 4.561327e-15 -0.08435026 -0.08435026
0000e0 d4 57 c9 24 d4 bf ac 3d d4 bf ac 3d 70 92 2b b0
       8.731864e-17 0.08435026 0.08435026 -6.241754e-10
0000f0 d4 bf ac 3d a8 d3 e8 95 d4 bf ac 3d 65 1d d2 2a
       0.08435026 -9.403799e-26 0.08435026 3.732389e-13
000100 d4 bf ac 3d e0 bd 6e 23 d4 bf ac 3d d4 bf ac bd
       0.08435026 1.29422134e-17 0.08435026 -0.08435026
000110 d4 bf ac 3d d4 bf ac 3d a8 f3 2c a5 d4 bf ac 3d
       0.08435026 0.08435026 -1.5001176e-16 0.08435026
000120 d4 bf ac 3d d4 bf ac bd d4 bf ac bd d4 bf ac 3d
       0.08435026 -0.08435026 -0.08435026 0.08435026
000130 d4 bf ac 3d d4 bf ac bd 26 f7 a8 a7 d4 bf ac 3d
       0.08435026 -0.08435026 -4.6897326e-15 0.08435026
000140 81 4b 9e 93 7b cf 52 34 37 19 62 a7 d4 bf ac 3d
       -3.995926e-27 1.9633255e-07 -3.137747e-15 0.08435026
000150 d4 bf ac bd d4 bf ac 3d bc 03 94 1b d4 bf ac 3d
       -0.08435026 0.08435026 2.448696e-22 0.08435026
000160 d4 bf ac 3d 6c f6 b7 af 49 35 01 93 17 f3 81 ae
       0.08435026 -3.34626e-10 -1.630836e-27 -5.909422e-11
000170 87 a8 18 2e d4 bf ac 3d d4 bf ac bd d4 bf ac 3d
       3.471048e-11 0.08435026 -0.08435026 0.08435026
000180 5c 7b df 23 8e e4 69 13 87 0f 58 2d d6 bf ac bd
       2.4229953e-17 2.952142e-27 1.2281626e-11 -0.08435027

fc2.weight f4 [100, 100]
000000 91 dc 9d 2e a8 9e 4a 2c 69 04 9f a9 0d a3 5e 3c
       7.178714e-11 2.8793998e-12 -7.0617835e-14 0.013588679
000010 23 75 80 2e 6c 22 24 30 40 4d ea 34 2f 1e 01 20
       5.841574e-11 5.971177e-10 4.3642103e-07 1.0936712e-19
000020 1e 17 de ab 0c a3 5e 3c 0d a3 5e bc 0d a3 5e bc
       -1.5780465e-12 0.013588678 -0.013588679 -0.013588679
000030 44 54 8a 27 0d a3 5e bc 0d a3 5e 3c 0d a3 5e bc
       3.8394055e-15 -0.013588679 0.013588679 -0.013588679
000040 0c a3 5e 3c 0d a3 5e 3c b0 4b 93 a1 0c a3 5e 3c
       0.013588678 0.013588679 -9.981142e-19 0.013588678
000050 2d be 8a 2e 3a 47 05 af 98 28 5c 2e 88 71 08 00
       6.3092954e-11 -1.2121584e-10 5.0058263e-11 7.75411e-40
000060 eb fa 04 23 8b 02 1e 94 0d a3 5e 3c 0d a3 5e 3c
       7.208868e-18 -7.977463e-27 0.013588679 0.013588679
000070 76 97 10 2b 0d a3 5e bc ba 99 3b 34 ee 5a ad aa
       5.136927e-13 -0.013588679 1.7471658e-07 -3.0794068e-13
000080 64 40 07 1a 0d a3 5e bc 0d a3 5e 3c 35 5a c7 a5
       2.796936e-23 -0.013588679 0.013588679 -3.4582124e-16
000090 ba d0 54 14 1e 19 f0 2a ee e7 cb b7 a8 82 c1 34
       1.0744429e-26 4.2649993e-13 -2.4307486e-05 3.6044116e-07
0000a0 bf 23 32 2c 64 46 6e b2 0b 3b 90 24 e4 20 13 35
       2.5315164e-12 -1.3869428e-08 6.255007e-17 5.480963e-07
0000b0 e0 a6 7b 34 72 6c 28 29 0d a3 5e bc 0d a3 5e 3c
       2.3436905e-07 3.7397555e-14 -0.013588679 0.013588679
0000c0 25 9d 9d 22 0d a3 5e 3c 0d a3 5e 3c 0d a3 5e 3c
       4.272132e-18 0.013588679 0.013588679 0.013588679
0000d0 0d a3 5e bc f7 ee 58 27 0d a3 5e 3c 0d a3 5e 3c
       -0.013588679 3.0105565e-15 0.013588679 0.013588679
0000e0 77 bf 24 25 0d a3 5e bc 0d a3 5e bc 20 63 b5 ac
       1.4289603e-16 -0.013588679 -0.013588679 -5.1553345e-12
0000f0 0d a3 5e bc b9 22 8f 95 0d a3 5e bc d4 69 c1 2a
       -0.013588679 -5.781202e-26 -0.013588679 3.435712e-13
000100 0d a3 5e bc 0e dd 65 22 0c a3 5e bc 0d a3 5e 3c
       -0.013588679 3.1152313e-18 -0.013588678 0.013588679
000110 0d a3 5e bc 0d a3 5e bc 6b aa 8a a5 0d a3 5e bc
       -0.013588679 -0.013588679 -2.4054664e-16 -0.013588679
000120 0d a3 5e bc 0d a3 5e 3c 0d a3 5e 3c 0d a3 5e bc
       -0.013588679 0.013588679 0.013588679 -0.013588679
000130 0d a3 5e bc 0d a3 5e 3c 25 23 97 a7 0d a3 5e bc
       -0.013588679 0.013588679 -4.1949023e-15 -0.013588679
000140 56 37 73 93 3b b8 c0 34 9e c6 29 a7 0d a3 5e bc
       -3.0698195e-27 3.5896832e-07 -2.3561132e-15 -0.013588679
000150 0c a3 5e 3c 0d a3 5e bc 1f 04 4d 1b 0d a3 5e bc
       0.013588678 -0.013588679 1.6958534e-22 -0.013588679
000160 0c a3 5e bc f2 17 22 af b0 00 d8 10 73 6b 78 ae
       -0.013588678 -1.4742321e-10 8.519804e-29 -5.6484106e-11
000170 d2 20 64 2e 0d a3 5e bc 0d a3 5e 3c 0d a3 5e bc
       5.187035e-11 -0.013588679 0.013588679 -0.013588679
000180 62 1e f2 23 62 b6 b3 12 8a 89 bc 2c 0e a3 5e 3c
       2.625056e-17 1.1341449e-27 5.3585513e-12 0.01358868
000190 8f dc 9d 2e a8 9e 4a 2c 6c 04 9f a9 0d a3 5e 3c
       7.1787125e-11 2.8793998e-12 -7.0617855e-14 0.013588679
0001a0 23 75 80 2e 6c 22 24 30 40 4d ea 34 2f 1e 01 20
       5.841574e-11 5.971177e-10 4.3642103e-07 1.0936712e-19
0001b0 1e 17 de ab 0c a3 5e 3c 0d a3 5e bc 0d a3 5e bc
       -1.5780465e-12 0.013588678 -0.013588679 -0.013588679
0001c0 44 54 8a 27 0d a3 5e bc 0d a3 5e 3c 0d a3 5e bc
       3.8394055e-15 -0.013588679 0.013588679 -0.013588679
0001d0 0c a3 5e 3c 0d a3 5e 3c b0 4b 93 a1 0c a3 5e 3c
       0.013588678 0.013588679 -9.981142e-19 0.013588678
0001e0 2f be 8a 2e 3a 47 05 af 98 28 5c 2e 67 39 02 80
       6.309297e-11 -1.2121584e-10 5.0058263e-11 -2.04263e-40
0001f0 eb fa 04 23 8b 02 1e 94 0d a3 5e 3c 0d a3 5e 3c
       7.208868e-18 -7.977463e-27 0.013588679 0.013588679
000200 76 97 10 2b 0d a3 5e bc bb 99 3b 34 ee 5a ad aa
       5.136927e-13 -0.013588679 1.7471659e-07 -3.0794068e-13
000210 64 40 07 1a 0d a3 5e bc 0d a3 5e 3c 35 5a c7 a5
       2.796936e-23 -0.013588679 0.013588679 -3.4582124e-16
000220 ba d0 54 14 1e 19 f0 2a ee e7 cb b7 ac 82 c1 34
       1.0744429e-26 4.2649993e-13 -2.4307486e-05 3.6044128e-07
000230 bf 23 32 2c 64 46 6e b2 0b 3b 90 24 e4 20 13 35
       2.5315164e-12 -1.3869428e-08 6.255007e-17 5.480963e-07
000240 e0 a6 7b 34 72 6c 28 29 0d a3 5e bc 0d a3 5e 3c
       2.3436905e-07 3.7397555e-14 -0.013588679 0.013588679
000250 25 9d 9d 22 0d a3 5e 3c 0d a3 5e 3c 0d a3 5e 3c
       4.272132e-18 0.013588679 0.013588679 0.013588679
000260 0d a3 5e bc f7 ee 58 27 0d a3 5e 3c 0d a3 5e 3c
       -0.013588679 3.0105565e-15 0.013588679 0.013588679
000270 77 bf 24 25 0d a3 5e bc 0d a3 5e bc 20 63 b5 ac
       1.4289603e-16 -0.013588679 -0.013588679 -5.1553345e-12
000280 0d a3 5e bc b9 22 8f 95 0d a3 5e bc d4 69 c1 2a
       -0.013588679 -5.781202e-26 -0.013588679 3.435712e-13
000290 0d a3 5e bc fa dc 65 22 0c a3 5e bc 0d a3 5e 3c
       -0.013588679 3.1152271e-18 -0.013588678 0.013588679
0002a0 0d a3 5e bc 0d a3 5e bc 6b aa 8a a5 0d a3 5e bc
       -0.013588679 -0.013588679 -2.4054664e-16 -0.013588679
0002b0 0d a3 5e bc 0d a3 5e 3c 0d a3 5e 3c 0d a3 5e bc
       -0.013588679 0.013588679 0.013588679 -0.013588679
0002c0 0d a3 5e bc 0d a3 5e 3c 25 23 97 a7 0d a3 5e bc
       -0.013588679 0.013588679 -4.1949023e-15 -0.013588679
0002d0 56 37 73 93 3b b8 c0 34 9e c6 29 a7 0d a3 5e bc
       -3.0698195e-27 3.5896832e-07 -2.3561132e-15 -0.013588679
0002e0 0c a3 5e 3c 0d a3 5e bc 1f 04 4d 1b 0d a3 5e bc
       0.013588678 -0.013588679 1.6958534e-22 -0.013588679
0002f0 0c a3 5e bc f2 17 22 af b0 00 d8 10 73 6b 78 ae
       -0.013588678 -1.4742321e-10 8.519804e-29 -5.6484106e-11
000300 d2 20 64 2e 0d a3 5e bc 0d a3 5e 3c 0d a3 5e bc
       5.187035e-11 -0.013588679 0.013588679 -0.013588679
000310 62 1e f2 23 62 b6 b3 12 8a 89 bc 2c 0e a3 5e 3c
       2.625056e-17 1.1341449e-27 5.3585513e-12 0.01358868
000320 8f dc 9d 2e a8 9e 4a 2c 6c 04 9f a9 0d a3 5e 3c
       7.1787125e-11 2.8793998e-12 -7.0617855e-14 0.013588679
000330 23 75 80 2e 6c 22 24 30 40 4d ea 34 2f 1e 01 20
       5.841574e-11 5.971177e-10 4.3642103e-07 1.0936712e-19
000340 1e 17 de ab 0c a3 5e 3c 0d a3 5e bc 0d a3 5e bc
       -1.5780465e-12 0.013588678 -0.013588679 -0.013588679
000350 44 54 8a 27 0d a3 5e bc 0d a3 5e 3c 0d a3 5e bc
       3.8394055e-15 -0.013588679 0.013588679 -0.013588679
000360 0c a3 5e 3c 0d a3 5e 3c b0 4b 93 a1 0c a3 5e 3c
       0.013588678 0.013588679 -9.981142e-19 0.013588678
000370 2f be 8a 2e 3a 47 05 af 98 28 5c 2e 67 39 02 80
       6.309297e-11 -1.2121584e-10 5.0058263e-11 -2.04263e-40
000380 eb fa 04 23 8b 02 1e 94 0d a3 5e 3c 0d a3 5e 3c
       7.208868e-18 -7.977463e-27 0.013588679 0.013588679
000390 76 97 10 2b 0d a3 5e bc bb 99 3b 34 ee 5a ad aa
       5.136927e-13 -0.013588679 1.7471659e-07 -3.0794068e-13
0003a0 64 40 07 1a 0d a3 5e bc 0d a3 5e 3c 35 5a c7 a5
       2.796936e-23 -0.013588679 0.013588679 -3.4582124e-16
0003b0 ba d0 54 14 1e 19 f0 2a ee e7 cb b7 ac 82 c1 34
       1.0744429e-26 4.2649993e-13 -2.4307486e-05 3.6044128e-07
0003c0 bf 23 32 2c 64 46 6e b2 0b 3b 90 24 e4 20 13 35
       2.5315164e-12 -1.3869428e-08 6.255007e-17 5.480963e-07
0003d0 e0 a6 7b 34 72 6c 28 29 0d a3 5e bc 0d a3 5e 3c
       2.3436905e-07 3.7397555e-14 -0.013588679 0.013588679
0003e0 25 9d 9d 22 0d a3 5e 3c 0d a3 5e 3c 0d a3 5e 3c
       4.272132e-18 0.013588679 0.013588679 0.013588679
0003f0 0d a3 5e bc f7 ee 58 27 0d a3 5e 3c 0d a3 5e 3c
       -0.013588679 3.0105565e-15 0.013588679 0.013588679

fc2.bias f4 [100]
000000 d4 65 8a bd d4 65 8a bd d4 65 8a bd d4 65 8a 3d
       -0.067577034 -0.067577034 -0.067577034 0.067577034
000010 d4 65 8a 3d d4 65 8a bd d4 65 8a 3d d4 65 8a 3d
       0.067577034 -0.067577034 0.067577034 0.067577034
000020 d4 65 8a bd d4 65 8a bd d4 65 8a bd d4 65 8a 3d
       -0.067577034 -0.067577034 -0.067577034 0.067577034
000030 d4 65 8a 3d d4 65 8a 3d d4 65 8a bd d4 65 8a bd
       0.067577034 0.067577034 -0.067577034 -0.067577034
000040 d4 65 8a bd d4 65 8a 3d d4 65 8a 3d d4 65 8a 3d
       -0.067577034 0.067577034 0.067577034 0.067577034
000050 d4 65 8a bd 1c 5f 0a 00 d4 65 8a bd d4 65 8a bd
       -0.067577034 9.52474e-40 -0.067577034 -0.067577034
000060 d4 65 8a 3d d4 65 8a 3d d4 65 8a 3d d4 65 8a bd
       0.067577034 0.067577034 0.067577034 -0.067577034
000070 d4 65 8a 3d d4 65 8a bd d4 65 8a bd d4 65 8a 3d
       0.067577034 -0.067577034 -0.067577034 0.067577034
000080 d4 65 8a 3d d4 65 8a bd d4 65 8a bd d4 65 8a bd
       0.067577034 -0.067577034 -0.067577034 -0.067577034
000090 d4 65 8a bd d4 65 8a 3d d4 65 8a 3d d4 65 8a 3d
       -0.067577034 0.067577034 0.067577034 0.067577034
0000a0 d4 65 8a 3d d4 65 8a 3d d4 65 8a bd d4 65 8a bd
       0.067577034 0.067577034 -0.067577034 -0.067577034
0000b0 d4 65 8a bd d4 65 8a bd d4 65 8a 3d d4 65 8a 3d
       -0.067577034 -0.067577034 0.067577034 0.067577034
0000c0 d4 65 8a 3d d4 65 8a 3d d4 65 8a 3d d4 65 8a bd
       0.067577034 0.067577034 0.067577034 -0.067577034
0000d0 d4 65 8a 3d d4 65 8a 3d d4 65 8a 3d d4 65 8a bd
       0.067577034 0.067577034 0.067577034 -0.067577034
0000e0 d4 65 8a 3d d4 65 8a bd d4 65 8a 3d d4 65 8a 3d
       0.067577034 -0.067577034 0.067577034 0.067577034
0000f0 d4 65 8a bd d4 65 8a bd d4 65 8a 3d d4 65 8a bd
       -0.067577034 -0.067577034 0.067577034 -0.067577034
000100 d4 65 8a 3d d4 65 8a bd d4 65 8a bd d4 65 8a 3d
       0.067577034 -0.067577034 -0.067577034 0.067577034
000110 d4 65 8a bd d4 65 8a bd d4 65 8a 3d d4 65 8a bd
       -0.067577034 -0.067577034 0.067577034 -0.067577034
000120 d4 65 8a 3d d4 65 8a bd d4 65 8a bd d4 65 8a bd
       0.067577034 -0.067577034 -0.067577034 -0.067577034
000130 d4 65 8a 3d d4 65 8a bd d4 65 8a 3d d4 65 8a 3d
       0.067577034 -0.067577034 0.067577034 0.067577034
000140 f0 c0 ab 9c d4 65 8a 3d d4 65 8a 3d d4 65 8a 3d
       -1.1365704e-21 0.067577034 0.067577034 0.067577034
000150 d4 65 8a 3d d4 65 8a 3d d4 65 8a bd d4 65 8a bd
       0.067577034 0.067577034 -0.067577034 -0.067577034
000160 d4 65 8a 3d d4 65 8a bd d4 65 8a bd d4 65 8a 3d
       0.067577034 -0.067577034 -0.067577034 0.067577034
000170 d4 65 8a 3d d4 65 8a 3d d4 65 8a 3d d4 65 8a 3d
       0.067577034 0.067577034 0.067577034 0.067577034
000180 d4 65 8a bd d4 65 8a 3d d4 65 8a bd d4 0a ec 35
       -0.067577034 0.067577034 -0.067577034 1.7586522e-06

fc3.weight f4 [1, 100]
000000 9d 90 f2 bd 9d 90 f2 bd 9d 90 f2 bd 9d 90 f2 3d
       -0.11843989 -0.11843989 -0.11843989 0.11843989
000010 9d 90 f2 3d 9d 90 f2 bd 9d 90 f2 3d 9d 90 f2 3d
       0.11843989 -0.11843989 0.11843989 0.11843989
000020 9d 90 f2 bd 9d 90 f2 bd 9d 90 f2 bd 9d 90 f2 3d
       -0.11843989 -0.11843989 -0.11843989 0.11843989
000030 9d 90 f2 3d 9d 90 f2 3d 9d 90 f2 bd 9d 90 f2 bd
       0.11843989 0.11843989 -0.11843989 -0.11843989
000040 9d 90 f2 bd 9d 90 f2 3d 9d 90 f2 3d 9d 90 f2 3d
       -0.11843989 0.11843989 0.11843989 0.11843989
000050 9d 90 f2 bd f6 5c 02 80 9d 90 f2 bd 9d 90 f2 bd
       -0.11843989 -2.17019e-40 -0.11843989 -0.11843989
000060 9d 90 f2 3d 9d 90 f2 3d 9d 90 f2 3d 9d 90 f2 bd
       0.11843989 0.11843989 0.11843989 -0.11843989
000070 9d 90 f2 3d 9d 90 f2 bd 9d 90 f2 bd 9d 90 f2 3d
       0.11843989 -0.11843989 -0.11843989 0.11843989
000080 9d 90 f2 3d 9d 90 f2 bd 9d 90 f2 bd 9d 90 f2 bd
       0.11843989 -0.11843989 -0.11843989 -0.11843989
000090 9d 90 f2 bd 9d 90 f2 3d 9d 90 f2 3d 9d 90 f2 3d
       -0.11843989 0.11843989 0.11843989 0.11843989
0000a0 9d 90 f2 3d 9d 90 f2 3d 9d 90 f2 bd 9d 90 f2 bd
       0.11843989 0.11843989 -0.11843989 -0.11843989
0000b0 9d 90 f2 bd 9d 90 f2 bd 9d 90 f2 3d 9d 90 f2 3d
       -0.11843989 -0.11843989 0.11843989 0.11843989
0000c0 9d 90 f2 3d 9d 90 f2 3d 9d 90 f2 3d 9d 90 f2 bd
       0.11843989 0.11843989 0.11843989 -0.11843989
0000d0 9d 90 f2 3d 9d 90 f2 3d 9d 90 f2 3d 9d 90 f2 bd
       0.11843989 0.11843989 0.11843989 -0.11843989
0000e0 9d 90 f2 3d 9d 90 f2 bd 9d 90 f2 3d 9d 90 f2 3d
       0.11843989 -0.11843989 0.11843989 0.11843989
0000f0 9d 90 f2 bd 9d 90 f2 bd 9d 90 f2 3d 9d 90 f2 bd
       -0.11843989 -0.11843989 0.11843989 -0.11843989
000100 9d 90 f2 3d 9d 90 f2 bd 9d 90 f2 bd 9d 90 f2 3d
       0.11843989 -0.11843989 -0.11843989 0.11843989
000110 9d 90 f2 bd 9d 90 f2 bd 9d 90 f2 3d 9d 90 f2 bd
       -0.11843989 -0.11843989 0.11843989 -0.11843989
000120 9d 90 f2 3d 9d 90 f2 bd 9d 90 f2 bd 9d 90 f2 bd
       0.11843989 -0.11843989 -0.11843989 -0.11843989
000130 9d 90 f2 3d 9d 90 f2 bd 9d 90 f2 3d 9d 90 f2 3d
       0.11843989 -0.11843989 0.11843989 0.11843989
000140 c5 8d 28 1e 9d 90 f2 3d 9d 90 f2 3d 9d 90 f2 3d
       8.923163e-21 0.11843989 0.11843989 0.11843989
000150 9d 90 f2 3d 9d 90 f2 3d 9d 90 f2 bd 9d 90 f2 bd
       0.11843989 0.11843989 -0.11843989 -0.11843989
000160 9d 90 f2 3d 9d 90 f2 bd 9d 90 f2 bd 9d 90 f2 3d
       0.11843989 -0.11843989 -0.11843989 0.11843989
000170 9d 90 f2 3d 9d 90 f2 3d 9d 90 f2 3d 9d 90 f2 3d
       0.11843989 0.11843989 0.11843989 0.11843989
000180 9c 90 f2 bd 9c 90 f2 3d 9c 90 f2 bd 62 bf b5 b5
       -0.11843988 0.11843988 -0.11843988 -1.3541251e-06
