gail/save_model/0/SUB039_ckpt_0.pth.tar (torch_old, 154731 bytes, 16 tensors)

fc1.weight f4 [100, 22]
000000 ee 32 21 bb 1d 68 a1 bd 4e 43 1c 3c f3 12 30 be
       -0.0024597007 -0.07881186 0.009537531 -0.17194729
000010 54 61 86 3e 05 f2 bf 3e 90 3e 38 3e b8 df d2 3e
       0.2624613 0.37489334 0.17992616 0.4118631
000020 0a 39 e6 3e 4c 25 02 3e 00 3e 8e bc 38 86 2e 3e
       0.44965392 0.1270954 -0.017363548 0.17043388
000030 4e b4 d8 bd 18 4a e2 3c 98 25 4d be c0 6f 22 3d
       -0.105812654 0.027623221 -0.20033872 0.039657354
000040 70 25 72 3d 40 33 0f bc 78 f1 33 3d bc 58 cd 3d
       0.059117734 -0.008740246 0.043931454 0.1002669
000050 dc 39 e3 3d 22 12 29 3e 1e 77 06 3f 9d 34 00 be
       0.1109502 0.16510823 0.5252551 -0.1252007
000060 79 c5 20 be b6 f0 32 3d 60 d0 06 3f 92 15 11 be
       -0.1570033 0.04368659 0.52661705 -0.14168385
000070 d8 67 63 bd bc 70 05 3e c0 0a b1 bd 60 a0 82 bc
       -0.055518955 0.13031286 -0.086446285 -0.015945613
000080 80 ca d9 3d 42 8d 40 3e 82 45 3f be 08 aa 56 3d
       0.10634327 0.18803886 -0.18678859 0.05240825
000090 c8 7c 25 3e 88 5d 42 3d e0 f2 74 3d 80 98 4a be
       0.16160882 0.04745248 0.059801936 -0.19784737
0000a0 60 d8 13 bd e8 59 d7 bd 4c 4c 0a 3e c4 95 50 be
       -0.036095023 -0.10515195 0.13505667 -0.20369631
0000b0 a5 47 0c 3e 23 4c 25 3c e2 09 07 3d ba a1 60 3e
       0.13699205 0.010088953 0.03296841 0.21936694
0000c0 60 d9 0e be 2b 73 0f bc 62 ba 5d be 9f ec cd bd
       -0.1395011 -0.0087554855 -0.2165313 -0.100548975
0000d0 dc de d2 3d f4 e6 82 3d 80 e2 42 3d e2 fd 34 3e
       0.10296413 0.06391707 0.04757929 0.17674974
0000e0 2a ac 90 bd e0 61 00 bd 38 6a f1 3d f2 de 59 3e
       -0.07064088 -0.03134334 0.11787838 0.21276453
0000f0 b4 8a 90 3d 70 2e 3f 3d 2b d9 cd bd 00 e4 5a 3c
       0.070577055 0.046675146 -0.10051187 0.0133600235
000100 08 99 e8 bc 70 7d b6 3c f5 e0 8b 3e 72 35 8a be
       -0.028393283 0.02227661 0.27320066 -0.269939
000110 5b 8d 85 3e 96 c4 a4 be 80 9b a7 be 3f bf d0 bd
       0.26084408 -0.32181233 -0.32735825 -0.10192727
000120 d4 c2 6d 3e 8e b8 34 3d b8 52 6d 3d 01 da da bd
       0.23218852 0.044121318 0.057940215 -0.10686112
000130 33 e9 1a be c8 ad 40 3d 1a c7 46 3e 45 c5 eb bd
       -0.15128021 0.04704073 0.19411889 -0.115122356
000140 80 8b c0 bd b8 50 24 3e 7c 20 8a 3d 96 1e 3c 3e
       -0.094016075 0.16046417 0.06744477 0.18371043
000150 30 81 b1 3c 5c 39 07 be 3e 95 28 3e c2 02 4d 3e
       0.021668047 -0.13205475 0.16463181 0.20020583
000160 a3 69 cb 3c 54 4e 0d bd f5 e4 0d be b5 ce aa be
       0.024830645 -0.034498528 -0.13856871 -0.3336083
000170 6d 84 79 3e 2d 05 ac 3e 05 61 a0 3e 9c 71 7f 3d
       0.24366923 0.335977 0.3132402 0.062364206
000180 95 90 cb 3e 24 fa f9 bd 82 0d 0b 3e e0 6a ae 3b
       0.39758745 -0.12205914 0.13579372 0.005322799
000190 20 b2 ac 3d 88 8f b9 bc 68 54 bc 3d 76 59 28 3e
       0.08432412 -0.022651449 0.09195787 0.16440377
0001a0 ed cf 41 be 04 e5 04 3e 28 a2 42 3e 8c 7a fa 3d
       -0.18926974 0.12977988 0.1900717 0.12230405
0001b0 b0 53 d0 3d 24 65 3a bd 77 fd a1 be 6b 0c 24 bd
       0.10172212 -0.04550661 -0.3163869 -0.040050905
0001c0 30 3c 0e 3c d8 db 1b be 12 63 75 be 35 e6 f8 3d
       0.008681342 -0.15220582 -0.23963574 0.121532835
0001d0 64 2d 27 be 2e 29 ca 3d 16 df 96 3c 0c 99 f6 3d
       -0.16325909 0.09871136 0.018416923 0.1204091
0001e0 48 7b 25 bd ba 00 a4 bd a8 b9 24 bd a8 14 70 3d
       -0.040400773 -0.08007951 -0.040216118 0.05861345
0001f0 90 2a 17 3d 58 8b 54 3e 04 67 45 3e dc 31 03 3d
       0.036905825 0.2075628 0.19277579 0.03202997
000200 b8 50 0a bd 94 d6 07 bd 80 32 6e bd b8 1f ed 3d
       -0.033768386 -0.033163622 -0.05815363 0.115783155
000210 62 1f 55 3b 2d fa 98 3e d1 0a 66 be b3 59 e8 3d
       0.0032519926 0.2987837 -0.22465064 0.11345234
000220 d1 17 a1 3e ff 95 70 be 6c b9 14 be f8 e3 6c be
       0.31463483 -0.23494719 -0.14523858 -0.23133838
000230 97 be 83 bc 80 93 c0 3a 4c bd b6 3d 34 2d bd 3d
       -0.016082091 0.0014692396 0.08922824 0.092371374
000240 50 d3 b0 3d c7 cf 02 be 12 a7 09 3e 00 fa 77 bd
       0.08634055 -0.12774573 0.13442639 -0.060541153
000250 2c 53 57 bd d0 54 a3 3c 2a 1e 17 3e 3e 4a 1c 3e
       -0.052569553 0.019937903 0.147576 0.15262696
000260 c8 9a 9c bd 40 3c 89 3b 86 d6 e1 be 55 b8 64 3d
       -0.0764671 0.0041880906 -0.4410898 0.055839855
000270 29 36 23 3e 86 1c 2b 3d f1 9f c0 be 94 4f cd bd
       0.15938629 0.04177525 -0.37622026 -0.10024944
000280 9d 6b 20 3e 90 f9 01 3e 82 68 15 bd 20 45 30 3c
       0.15666051 0.12692857 -0.03647662 0.010758668
000290 64 69 d2 3d d4 ac 13 bd cb 67 e9 bd a4 c0 a7 3d
       0.10274008 -0.036053494 -0.1139675 0.0819104
0002a0 b0 56 dc 3d 96 a3 0f 3e 90 b3 24 3d cb 31 e2 bd
       0.10758722 0.14027247 0.040210307 -0.110446535
0002b0 58 ee 69 bd b0 e6 09 3e 9c 95 ae 3d b4 a8 54 bd
       -0.057112068 0.13466907 0.085246295 -0.0519187
0002c0 53 fb fb bd 56 c0 6c bc 8b 46 34 3e 3c 71 d9 3e
       -0.12303796 -0.014450153 0.17605035 0.42469203
0002d0 ef 26 f9 3d 7f c9 d1 3e 8d 22 67 3d 9d 95 d1 3e
       0.12165629 0.40974042 0.056429435 0.40934458
0002e0 ed 20 cb 3e 58 90 03 3e ec 6e 44 3e c0 8f 01 3b
       0.39673558 0.12848032 0.19182938 0.001976952
0002f0 27 be 2c be d8 c9 97 3c b9 b8 58 be 08 d4 06 3d
       -0.16869412 0.018528864 -0.21164216 0.032917053
000300 de c1 0f be 04 5e f6 3d c4 6a e2 3d 14 c8 41 bd
       -0.14038798 0.12029651 0.1105552 -0.04730995
000310 d0 33 e9 bd 97 83 fc bd 57 5e 4a 3e 69 78 46 3e
       -0.113868356 -0.12329786 0.1976255 0.1938187
000320 1d 38 8e 3d d5 ca 65 3d 66 9c 97 be 64 23 d9 3d
       0.069442965 0.05610164 -0.2961151 0.10602453
000330 e7 b5 06 bd ab 8c a8 3c f2 4e 02 be 38 ec 2d be
       -0.03288832 0.020574888 -0.12725428 -0.16984642
000340 1c 9c 4d 3e 38 69 b5 bd 34 08 41 3e 73 e1 31 be
       0.20079082 -0.088579595 0.18850785 -0.17371158
000350 30 c1 1c 3d 4c 28 49 3e ce d6 56 be 86 ef 38 be
       0.038270175 0.19644278 -0.20980379 -0.18060121
000360 41 5d 1c be 88 1b fb bc f0 30 53 3d f6 35 48 be
       -0.15269949 -0.030652776 0.051560342 -0.19551834
000370 35 9f d8 bd 64 08 05 be d5 a9 39 bc 6d be 89 3e
       -0.10577241 -0.12991482 -0.011331995 0.26903096
000380 f7 2e 40 3e b5 c3 94 bd 4f 8e 31 be b8 11 d4 bd
       0.18767916 -0.07263891 -0.17339443 -0.10354942
000390 15 dc 9f bd 98 6b 91 bd 6d 15 38 be 94 7b 21 3e
       -0.07805649 -0.071006 -0.17976923 0.15769798
0003a0 68 40 af 3c 6c a1 f8 3d cc 89 0b 3e 4c a5 47 3e
       0.021393016 0.12140164 0.13626784 0.1949665
0003b0 05 1b 31 be ff 48 c4 bd a8 a7 6c 3d a8 43 29 bd
       -0.17295463 -0.095842354 0.057777077 -0.041324288
0003c0 88 68 ef 3d 20 2c 83 bc d7 ca 3a be 08 22 fc bd
       0.1168986 -0.016012251 -0.1824144 -0.123111784
0003d0 4c 40 ca 3e 71 bf 51 3e 9c 56 5a 3e 98 af a7 3e
       0.3950218 0.20483185 0.21322101 0.32751155
0003e0 0b 91 93 3d b3 74 f8 3d 66 d6 10 3e f4 75 8c 3d
       0.07205399 0.121316336 0.14144287 0.06858435
0003f0 52 f6 4b be 92 1a 0f 3e 50 b4 40 3d 14 b5 07 3d
       -0.19918182 0.1397498 0.04704696 0.033131674

fc1.bias f4 [100]
000000 0e 0d 8c be 74 f1 a7 3c f0 31 25 3e 27 54 46 be
       -0.2735371 0.020500876 0.16132331 -0.19368039
000010 12 70 59 be b7 74 12 be b8 1d 30 3c 21 2a bc 3d
       -0.21234158 -0.14302336 0.010749273 0.09187723
000020 e0 a9 ac be 02 bd 50 3d d2 e5 18 3e f6 85 a5 be
       -0.33723354 0.050961502 0.1493142 -0.32328767
000030 f3 cc 1a be 06 b3 5a 3d 94 91 22 3e 01 eb b2 3d
       -0.15117244 0.053393386 0.15875846 0.0873623
000040 19 f5 44 3c 4d 5c 3d 3d 05 9d 5e 3e fd 96 04 be
       0.012021326 0.046230603 0.21739586 -0.12948222
000050 f1 c1 27 bd 1d e0 aa be 23 a8 44 3e 38 49 68 3e
       -0.04095644 -0.3337411 0.19204764 0.2268418
000060 97 b8 e0 3e 29 b2 aa bd 4d 00 99 3b b6 7c 9d be
       0.4389083 -0.083347626 0.0046692253 -0.3075921
000070 7d f1 a3 3e c5 17 bc 3e d1 c4 5a be 9d fb b5 bb
       0.32020178 0.36736885 -0.21364142 -0.0055536763
000080 ba ed 80 be 37 2d 02 3e 64 b2 cc 3e 3d 1e 9e be
       -0.2518137 0.1271256 0.3997985 -0.30882445
000090 b2 05 58 3e b0 2c a7 3d bc 4e e6 be 17 d5 6f 3d
       0.21095923 0.0816282 -0.44981945 0.058552828
0000a0 f2 0e 36 be 72 e7 9d 3e 96 dc 89 be 15 27 56 3d
       -0.17779139 0.3084064 -0.26926106 0.052283365
0000b0 64 8b 97 3e b5 9e f9 3d d0 6d cc bd bb 43 c9 bd
       0.29598534 0.12188474 -0.099818826 -0.09827372
0000c0 bc 2c b6 3c 16 0e 1c be 63 50 4e be f9 18 8c 3d
       0.022238128 -0.15239748 -0.20147853 0.06840701
0000d0 92 07 ad be 55 d0 b1 be c5 3d a0 3e 00 78 45 be
       -0.33794838 -0.34729257 0.31297126 -0.19284058
0000e0 13 72 cc 3c cd 07 b2 be 00 3c b6 3e ba 73 22 3d
       0.024956739 -0.34771577 0.3559265 0.039661147
0000f0 e1 2d 91 3d 78 c0 54 3e 19 08 a0 be 10 5e 46 3d
       0.07088829 0.20776546 -0.31256178 0.04842955
000100 ca ab ae bd 8d 38 a8 3d e5 a9 38 bd 4e 4b 4c be
       -0.0852886 0.08213911 -0.0450839 -0.19950601
000110 6b d6 b2 be c2 fd 9e 3e a5 72 87 be 3f 7a 62 3e
       -0.34929213 0.31052977 -0.26454654 0.22116946
000120 b1 db aa 3e c2 f4 1c 3e 8d 11 8f 3e 90 f4 c3 be
       0.33370736 0.15327743 0.27943078 -0.38272524
000130 ff 6a 93 bb d7 0b c1 3e 1e 56 3a bc b2 0e 09 be
       -0.004498839 0.37704346 -0.011373071 -0.13384512
000140 e1 fc d8 be cb df 21 3e 04 22 5c 3e 96 56 80 3e
       -0.4238043 0.15808026 0.21497351 0.2506606
000150 75 e0 a7 be 0e e1 cc be 37 a1 08 3e e5 77 c0 3e
       -0.32788435 -0.40015453 0.13342749 0.37591472
000160 04 26 e5 b9 8f 50 9f 3e 8c 90 47 3d c4 43 37 3e
       -0.00043706608 0.3111615 0.048721835 0.17896944
000170 72 9b f6 bd 0f 3d 4d 3e 87 6b 38 3d 30 90 57 3e
       -0.120413676 0.20042823 0.04502442 0.21051097
000180 32 61 53 be d6 4f be 3d 97 c9 01 3f e7 27 ee bd
       -0.20642546 0.09292571 0.50698227 -0.116287045

fc2.weight f4 [100, 100]
000000 3e 1c 12 bf de a8 9a bd 83 17 d1 3e 32 42 38 bd
       -0.57074344 -0.0755174 0.4083825 -0.044985004
000010 b2 34 0a bf f5 87 0a be 15 55 11 3e 4f cc 31 3d
       -0.53986657 -0.13528426 0.14192612 0.043407734
000020 70 2d ac be 1f 29 50 3e cc 70 45 3e 9c bf 88 be
       -0.33628416 0.20328186 0.1928131 -0.26708686
000030 54 eb 98 be dd 96 95 3e 0f 8d d4 3e 67 5c 39 3e
       -0.2986704 0.29216662 0.4151387 0.18101655
000040 75 9e f1 be 02 6e 2d 3e 29 75 eb bd 42 77 a6 3c
       -0.47191206 0.16936496 -0.11496956 0.020320538
000050 7b df 5b 3e f0 00 02 bf a1 96 e3 3d d5 0f c1 3d
       0.2147197 -0.5078268 0.111127146 0.09426848
000060 25 04 8f 3e 1c 9f c4 3d 53 b0 f2 bc 4c 13 fd bd
       0.2793285 0.0960066 -0.029625094 -0.12357196
000070 a3 e2 2c 3e 81 9a 26 3f 62 b0 db be 2a 94 ae 3d
       0.1688333 0.65079504 -0.42908007 0.08524354
000080 68 37 c6 be 02 74 40 3d d4 27 da 3e f4 2f 05 bf
       -0.38714147 0.046985634 0.4260851 -0.52026296
000090 22 8c 07 bd cb b7 63 3e 30 e9 b1 b9 e3 3f b9 3d
       -0.033092625 0.2223808 -0.0003393381 0.090453885
0000a0 55 77 c3 be 02 13 e5 3e f0 ea 5b be 43 47 bb bd
       -0.3817698 0.44741064 -0.2147634 -0.091444515
0000b0 f1 5f a3 3e c3 1f 9e 3d 0d ee 76 3e 35 3e 1a bd
       0.31909135 0.07720902 0.24114247 -0.03765698
0000c0 56 a7 fc 3e 4b 7d 07 bf af ea 9e be bb 05 90 bd
       0.49346417 -0.52925557 -0.31038424 -0.07032343
0000d0 a0 27 90 be f3 41 37 be c6 2f e6 3e 67 91 8c be
       -0.2815523 -0.17896251 0.44958323 -0.27454683
0000e0 00 3d 23 be 98 68 af be 9f 78 c2 3e 40 63 40 3e
       -0.15941238 -0.34259486 0.37982652 0.18787861
0000f0 84 08 08 3c 79 02 9a 3e d3 a5 1c be 62 9d ca bd
       0.0083028115 0.3008001 -0.15297632 -0.098933
000100 aa e2 29 be d7 d4 36 3e 49 d6 2b be 7e d2 9f be
       -0.16590372 0.1785463 -0.16780962 -0.3121528
000110 bc 5f 20 bf fa 83 e0 3e 83 03 42 be 2a 83 c7 bd
       -0.6264608 0.4385069 -0.18946652 -0.097418144
000120 cb 56 1d 3f d3 ba a4 ba 15 14 b7 3e 17 bf e3 be
       0.6146056 -0.0012567885 0.3575751 -0.44481727
000130 b0 60 48 3e 2e 95 e4 3e 27 75 c2 be 81 be 3b 3e
       0.19568133 0.44645065 -0.37980005 0.1833439
000140 3f ef 7c be e2 22 09 3d af 00 ae 3e db ff 4d 3e
       -0.2470064 0.033480532 0.33984897 0.20117132
000150 5b 15 6c be 15 b2 0f bf 38 f1 a5 3c 84 42 1b 3f
       -0.23055021 -0.56131107 0.020256624 0.6064837
000160 8c f0 9f be 1b a1 67 3e 48 27 7a bd 4f 20 1f 3d
       -0.3123821 0.2262005 -0.061072618 0.03884917
000170 0a 2c e3 bd aa a5 f1 3e 29 f3 21 3d 2f ed 1a 3e
       -0.11092384 0.47196704 0.039538536 0.15129541
000180 6a 57 ea bd 04 83 c7 3e 1b c2 7a 3e 4f 4a 7d be
       -0.11442454 0.38967144 0.24488108 -0.24735378
000190 05 19 c7 be c7 6c 4b be a0 a2 b4 3e a8 4c fe bc
       -0.38886276 -0.19865714 0.35280323 -0.031042412
0001a0 95 3a be be 0f ac 37 be a8 0e 0b 3e 3b 15 3a bb
       -0.3715407 -0.17936729 0.1357981 -0.0028394002
0001b0 9e 92 ca be 74 da 57 3e f3 58 a0 3c 07 19 b6 be
       -0.39564985 0.21079427 0.019573664 -0.3556597
0001c0 44 fe 04 be e1 39 2c 3e c9 54 66 3e 44 ab 02 3e
       -0.1298762 0.16818954 0.2249328 0.12760645
0001d0 c8 17 04 bf d3 3a 86 3e 7e cb 41 3d 9d 30 f8 bd
       -0.5159879 0.26216754 0.047313206 -0.12118647
0001e0 fd 1b aa 3e e7 d3 dd be 31 82 b6 3d a3 3a 9d bd
       0.33224478 -0.4332573 0.08911551 -0.076772
0001f0 c3 26 9a 3d 9a de d4 3b 73 ba 85 bc 8b 30 0e be
       0.075269245 0.0064962627 -0.016324257 -0.13885705
000200 0b ac 79 3e bb d6 0e 3f 2b 55 a1 be df c3 f3 3d
       0.24382035 0.557964 -0.3151029 0.11902594
000210 46 62 74 be 6e c9 bf bc 86 38 0d 3f 7a b0 a9 be
       -0.23865613 -0.023411479 0.5516437 -0.33142453
000220 9e 15 3b bd 53 e4 06 3e 9a 04 f0 3d 50 f9 93 3d
       -0.045674913 0.13173036 0.11719628 0.07225287
000230 7a cf f6 be 04 3b d3 3e 9c e4 cb bd 11 75 4d bd
       -0.48205167 0.41255963 -0.09955713 -0.05016047
000240 b9 71 59 3e 43 b1 e9 bd 3b f0 9d 3e 5c 87 a6 bd
       0.21234788 -0.11410763 0.30847344 -0.081312865
000250 32 f3 ad 3e 8d 49 fd be 37 a9 63 be 0b 8f 35 be
       0.33974606 -0.49470177 -0.22232519 -0.17730348
000260 67 90 99 be 7d 58 10 be f0 f4 79 3e 99 fd 0d be
       -0.29992983 -0.14096256 0.24409842 -0.13866271
000270 86 93 ac bd f5 93 5f be 28 c2 53 3e a4 6b 03 3e
       -0.08426575 -0.21833785 0.20679533 0.1283403
000280 64 ce 9b 3c c8 e4 b9 3e fc 4c 3b be 2e d7 a3 3b
       0.019019313 0.3630736 -0.18291086 0.0050000167
000290 51 01 60 be c7 36 52 3e 70 f8 03 3d e2 7c 86 be
       -0.21875502 0.20528708 0.03221935 -0.26267153
0002a0 7b ad f1 be 32 f8 0e 3f 24 29 a3 3c dd 3d 38 be
       -0.47202668 0.55847466 0.019917078 -0.17992349
0002b0 af 28 10 3f ae 85 a2 3b bb ae b9 3e dd 2b ea be
       0.5631208 0.0049597835 0.3626612 -0.4573659
0002c0 55 d0 b4 3d 8d 24 05 3f 51 44 1a be ce 07 c8 bc
       0.08828799 0.520089 -0.15065123 -0.024417784
0002d0 ee 5e 76 be db 42 c0 3d 4b 0b 63 3e 19 50 40 3e
       -0.2405965 0.09387752 0.22172277 0.18780555
0002e0 62 dd 02 be 4a 5d ca be 9f 93 bc bc cf 9c d1 3e
       -0.12779763 -0.395243 -0.02301961 0.40939948
0002f0 2c 1e fa bd 1f 33 13 3e fd 17 90 bd 13 1f 32 bd
       -0.12212786 0.1437497 -0.070358254 -0.043486666
000300 6e 5f 7f 3d 34 cc ba 3e 08 12 f6 bd a5 a8 e6 3d
       0.06234687 0.3648392 -0.12015158 0.11262635
000310 c5 78 11 be 0b 40 bc 3e 91 4a 1c 3e 42 19 59 be
       -0.14206226 0.3676761 0.1526282 -0.21201041
000320 79 22 10 be 01 46 db 3e 8b e7 3c 3e e1 cc de 3d
       -0.1407565 0.42826846 0.18447702 0.10878921
000330 db 09 9b be 51 c5 ff be d7 81 14 be 86 9a 1e 3e
       -0.30280957 -0.49955228 -0.14502655 0.15488634
000340 b8 22 5c 3e 32 cb 4a be e4 d2 d2 3e ad f4 6e 3e
       0.21497619 -0.19804075 0.41176522 0.23335524
000350 b5 0e 87 be 62 0c 59 3e 99 5a df 3d ea 99 1d 3f
       -0.26378408 0.2119613 0.10905952 0.6156298
000360 75 d1 b8 be 94 8a 0b 3f e9 97 1c 3a fd 42 be be
       -0.36097303 0.5450833 0.0005973564 -0.37160483
000370 d5 4b 09 3f ee 4d 5d 3b f1 95 40 3d 1c e6 84 be
       0.53631335 0.0033768374 0.047017995 -0.2595681
000380 43 fe 49 3f 83 e8 9f bc 33 53 9e 3d ff 1e 25 3e
       0.789036 -0.01952005 0.07730713 0.16125105
000390 37 29 0b 3f ce fd 87 3e 61 00 9e be 88 8f d7 3e
       0.54359764 0.26560825 -0.30859664 0.42101693
0003a0 ab 1e 65 be e6 f6 15 3e 67 df 01 3d 79 76 7c be
       -0.2237498 0.14644966 0.031707194 -0.24654569
0003b0 a0 7d 76 bd fd 1f ef 3e 97 13 d6 be f2 0b 21 3f
       -0.0601784 0.46704093 -0.4181182 0.6290885
0003c0 ba 34 ac 3c 6e 36 a2 3e cc af 6b bf 65 d5 ad be
       0.021021236 0.31682152 -0.9206512 -0.3395187
0003d0 06 d8 4c 3e 90 1b 1d be d4 1d 0b bf 90 f2 d5 3d
       0.20004281 -0.15342546 -0.5434239 0.10446656
0003e0 18 47 f3 3e 37 aa 67 bc b7 5f c4 3c e1 09 2f 3f
       0.47515178 -0.0141397035 0.023971422 0.6837445
0003f0 de 5f 01 bf 15 f2 03 bd 48 00 80 3e 57 0d 1f be
       -0.50536907 -0.03221329 0.25000215 -0.15532432

fc2.bias f4 [100]
000000 d0 85 08 3f 98 ca ca 3e 91 2a a8 3e a2 de 33 be
       0.5332918 0.39607692 0.32844976 -0.17565396
000010 1c 9b 19 3f a5 39 6e 3e 88 26 10 bf d5 5f e4 3e
       0.60002303 0.23264177 -0.56308794 0.44604364
000020 b3 04 14 3f b0 ce ca bd 64 9d 16 3f 71 c8 e9 3e
       0.5781967 -0.09902704 0.5883391 0.45660737
000030 c0 82 c4 3d 4a ab 19 3f 58 f6 78 3e 6e e0 51 3d
       0.09595251 0.6002699 0.24312723 0.051239423
000040 0a 32 06 3f 33 ed 97 be 8a 68 1a bf 47 7f 4f be
       0.52420104 -0.29673156 -0.60315764 -0.20263396
000050 17 03 0d bf d4 1a a4 3c 42 ec 25 be 64 a1 0d bf
       -0.5508284 0.020032324 -0.16203406 -0.5532439
000060 42 31 09 bf ce 10 c4 bd 06 bd cc 3e 25 da d4 3e
       -0.53590786 -0.09573518 0.39987963 0.4157268
000070 e9 fa 1f 3f 23 66 0f bd d8 31 80 3e 6b d1 20 3f
       0.62492234 -0.035009515 0.25038028 0.62819546
000080 43 77 16 3f 37 e0 1a bf 30 4b f0 be 10 7c ee 3e
       0.5877573 -0.60498375 -0.46932364 0.46579027
000090 75 19 0e bf 8d 44 83 bc a8 52 db be 7d a8 ef 3d
       -0.55507594 -0.016023898 -0.428365 0.117020585
0000a0 82 56 10 3f 22 00 96 3e 0f 9f 03 3f 87 0c b0 be
       0.56382 0.29296976 0.5141458 -0.34384558
0000b0 79 d4 95 be 67 3c a8 3c 68 35 78 bd b2 1d 88 3e
       -0.29263666 0.020536615 -0.060597807 0.26585156
0000c0 a8 08 06 3e 79 a7 13 bf 63 e6 65 3e ea c8 ce be
       0.1308924 -0.5767742 0.22451167 -0.4038766
0000d0 97 95 15 3e 16 5b f5 3e 27 31 14 3f f2 5d ab 3e
       0.14607845 0.47921056 0.578875 0.33470112
0000e0 a6 4f 1c bf ea de fd bc 3a 79 e8 be 0c 51 01 bf
       -0.61059034 -0.030990083 -0.4540499 -0.5051429
0000f0 cb 52 f9 3e 07 6f 24 3f 4f a9 11 3f cd 5c 1f 3f
       0.4869598 0.64231914 0.5689897 0.6225098
000100 69 09 72 3e 4b 64 16 3f b5 6a dc 3e 01 38 33 3d
       0.23636402 0.58746785 0.4305016 0.04375458
000110 48 19 d5 3d 4c ae fa 3d 91 cb 5c be 3a 27 01 bf
       0.10405213 0.12240276 -0.2156203 -0.5045048
000120 d0 89 16 3f 50 f0 64 bd 78 c0 1b bf 3d cf e3 be
       0.58804035 -0.055893242 -0.6084056 -0.44494048
000130 b2 38 4b 3d ee de cd bc 7d f8 04 3e 1c 3e cc bd
       0.049614616 -0.025130715 0.12985416 -0.09972784
000140 ec ca 0c bf 1b 6f 0d 3f e0 0e 6a bd 11 9d 9e 3d
       -0.54997134 0.5524766 -0.057143092 0.07744802
000150 68 a9 62 3e 03 83 0b 3e ac 1a 02 bf 8e 7a 1f bf
       0.22134936 0.13624196 -0.5082195 -0.6229638
000160 b1 0d eb 3e ba 9c a8 bd dc e1 00 3f dc 1e a1 3d
       0.45908883 -0.08233018 0.50344634 0.07867214
000170 43 2e 18 3f 69 89 17 bf 23 37 11 bf 02 41 1c bf
       0.5944559 -0.59194046 -0.56724757 -0.61036694
000180 68 45 84 3e a3 20 1e bf ce 3e a4 be 12 8f 2b 3d
       0.25834203 -0.6176855 -0.32079166 0.04188449

fc3.weight f4 [2, 100]
000000 0e a9 36 3f f5 24 42 3f 75 10 18 3f e2 9d 23 bf
       0.71351707 0.7583764 0.5940011 -0.63912785
000010 56 93 2f 3f cf 55 54 3f 97 b2 2d bf 87 25 44 bf
       0.6858419 0.82943434 -0.6785063 -0.7661976
000020 58 87 2c 3f 91 75 41 bf d8 27 2a 3f 9e 77 31 3f
       0.6739402 -0.7557002 0.66467047 0.69323146
000030 5a 8d 1a bf b4 28 25 3f 91 a9 6d 3f 84 c8 27 bf
       -0.60371935 0.64515233 0.9283686 -0.6554034
000040 6e 2b 3c 3f 07 ce 42 bf 38 c5 27 bf d1 21 93 bf
       0.7350377 -0.7609562 -0.65535307 -1.1494695
000050 de 66 74 bf 27 de 1f 3f 21 e2 97 bf 80 e2 37 bf
       -0.9546946 0.6244835 -1.1865884 -0.71829987
000060 3f 98 8c bf d8 7c 1e bf a4 7b 36 3f 09 14 35 3f
       -1.0983962 -0.61909246 0.7128241 0.70733696
000070 43 2d 2c 3f 17 b3 20 bf af 46 78 3f 60 25 1b 3f
       0.67256564 -0.6277327 0.96982855 0.60603905
000080 b0 9c 37 3f ac 0b 2c bf c3 ee 0c bf 46 2a 79 3f
       0.7172346 -0.6720531 -0.5505182 0.9733013
000090 cb 4f 2d bf 0e b0 c6 3b 73 13 62 bf ad be 72 bf
       -0.6769988 0.006063468 -0.8831093 -0.948222
0000a0 9a 1f 32 3f e6 40 1d bf 53 6f 27 3f a5 42 95 bf
       0.6957947 -0.6142715 0.6540424 -1.1660963
0000b0 9a 6f 71 bf 92 8e 23 3f 6d b8 23 bf ef df 5a 3f
       -0.94310915 0.6388942 -0.63953286 0.85497946
0000c0 e1 29 1a bf 04 47 34 bf c9 b1 50 3f df 14 1b bf
       -0.6022015 -0.7042086 0.8152128 -0.6057872
0000d0 ec 3f ac 3f d4 5d 33 3f 9a dc 22 3f fa 73 41 3f
       1.3457007 0.70065045 0.6361786 0.7556759
0000e0 a5 97 1a bf 03 9d 2a bf cb e8 8c bf c5 f1 1a bf
       -0.6038764 -0.6664583 -1.1008543 -0.6052516
0000f0 99 0e 1e 3f 19 bd 2a 3f 1f bd 32 3f 5e 9c 36 3f
       0.61741024 0.6669479 0.69819826 0.7133235
000100 78 51 5e 3f 1e c0 23 3f 78 1b 37 3f 17 32 49 bf
       0.8684306 0.6396502 0.7152629 -0.78592056
000110 16 36 1b 3f e1 c9 40 3f 3a 9b 40 bf 26 cc 1f bf
       0.60629404 0.7530804 -0.75236857 -0.6242088
000120 b4 c7 2e 3f 6f b1 82 bf 9c 78 2e bf 1d a0 2d bf
       0.6827347 -1.0210398 -0.68152785 -0.6782244
000130 c9 50 77 3f 24 34 35 bf f0 9f 86 3f e9 82 1d 3f
       0.96607643 -0.70782685 1.0517559 0.6152788
000140 75 d0 26 bf 1e f6 21 3f 7a 8d 1b 3f 97 94 98 bf
       -0.6516183 0.6326617 0.6076275 -1.1920346
000150 93 b3 94 3f c7 9c 05 bf 06 3f 1f bf 2e b2 30 bf
       1.1617302 -0.5219235 -0.6220554 -0.6902188
000160 74 8b 39 3f d7 3e 93 bf bc 78 2d 3f 13 ec 1d 3f
       0.72478414 -1.1503552 0.6776235 0.61688346
000170 76 e6 28 3f 74 66 37 bf 55 35 29 bf 9d 25 27 bf
       0.65976655 -0.71640706 -0.66097003 -0.6529177
000180 8e 70 e8 3e 6a 0f 2e bf 36 d1 3e bf 46 f1 19 3f
       0.45398372 -0.6799227 -0.7453798 0.6013378
000190 67 f4 73 bf 61 d8 72 bf e4 1a 4e bf 8a b7 76 3f
       -0.95294803 -0.9486142 -0.8050978 0.9637381
0001a0 ce b3 78 bf e8 22 81 bf 12 a6 74 3f 9f a9 98 3f
       -0.9714936 -1.0088778 0.95565903 1.1926764
0001b0 92 f4 74 bf d3 93 8e 3f 4c 5b 70 bf 57 dc 74 bf
       -0.95685685 1.1138862 -0.9388931 -0.9564871
0001c0 d7 9b 53 3f fa 62 72 bf d8 cb 45 bf fb 77 5b 3f
       0.8265967 -0.94682276 -0.77264166 0.8572995
0001d0 ad bf 65 bf 49 1e 84 3f 53 5d 74 3f 68 63 5f 3f
       -0.897456 1.0321742 0.954549 0.87261057
0001e0 35 8a 7d 3f b1 e4 76 bf fe 8a ad 3f 0b 01 6b 3f
       0.9903901 -0.96442705 1.3558042 0.91798466
0001f0 89 30 80 3f b6 ac 5c 3f 1b 87 6c bf dc d0 73 bf
       1.0014812 0.86201036 -0.92393655 -0.9524057
000200 4e 3e 74 bf dd 98 5a 3f 73 6b 36 bf f5 c8 5e bf
       -0.9540757 0.853895 -0.71257704 -0.87025386
000210 14 d0 7a bf d6 59 74 3f 05 09 4f 3f 1c 0f 8b bf
       -0.9797375 0.9544958 0.8087314 -1.0863986
000220 62 e4 73 3f 91 8b 7c bf 46 4f 76 3f e3 20 ab 3f
       0.9527036 -0.9865046 0.9621471 1.3369411
000230 12 9a 72 bf 82 32 80 3f aa bd 6f bf bf 2e a8 3f
       -0.9476634 1.0015414 -0.9364878 1.3139266
000240 14 16 4f 3f 00 04 6f bf 94 cc 6e 3f b4 cf 85 bf
       0.80893064 -0.9336548 0.9328091 -1.0454011
000250 09 c4 46 3f 52 50 79 3f 2c 02 72 bf 32 84 4a 3f
       0.77642876 0.97388184 -0.94534564 0.79107964
000260 8c c3 d0 bf 20 91 67 bf a7 a1 69 bf bd 9d 7f bf
       -1.6309676 -0.9045582 -0.91262287 -0.99850065
000270 6e a7 67 3f 6a 53 78 3f 48 72 98 3f c6 00 5d 3f
       0.9048985 0.9700228 1.1909876 0.86329305
000280 20 f0 60 bf e0 62 74 bf 96 8c 74 bf 58 3b 73 bf
       -0.878664 -0.9546337 -0.9552702 -0.95012426
000290 92 c8 83 bf 72 da 66 bf e9 c2 74 bf 8f 45 7f 3f
       -1.0295584 -0.9017707 -0.9560991 0.99715513
0002a0 7f c4 5e bf cc fe 86 bf b2 b6 82 3f 73 17 66 3f
       -0.8701858 -1.0546508 1.0212004 0.8987953
0002b0 c6 f9 75 bf 91 0b 37 3f 5b 8c 74 3f 20 50 77 3f
       -0.9608425 0.71502024 0.95526665 0.96606636
0002c0 23 0e 61 bf fe d0 85 3f c5 63 36 bf d8 42 55 bf
       -0.87912196 1.0454404 -0.71245986 -0.8330512
0002d0 0a a8 7b 3f 44 31 71 bf c4 c2 5a bf 06 19 b7 3f
       0.9830328 -0.942158 -0.8545344 1.4304512
0002e0 e7 bf 81 bf d2 56 1e be aa cb 64 3f 70 6c 74 3f
       -1.0136689 -0.15462807 0.89373267 0.9547796
0002f0 71 1c 75 bf 62 51 7a 3f 67 15 74 bf f3 35 4e bf
       -0.95746523 0.9778043 -0.9534516 -0.8055107
000300 a8 7f 70 bf 83 1f 6a 3f 7a 4a 73 3f 64 e8 72 3f
       -0.9394479 0.91454333 0.9503552 0.9488585
000310 bf 4b 7f bf aa 67 73 3f 73 31 84 3f f2 65 5b bf
       -0.99724954 0.95080054 1.0327591 -0.8570243

fc3.bias f4 [2]
000000 d8 35 43 3f 1f 76 45 bf
       0.76254034 -0.77133363

fc1.weight f4 [100, 22]
000000 48 12 8a 38 b6 c9 87 37 a2 80 08 37 2b b1 3e 38
       6.583758e-05 1.6187183e-05 8.136181e-06 4.546453e-05
000010 7f 35 c2 37 65 50 3e b7 e5 16 36 b7 b9 8a 21 b7
       2.3151513e-05 -1.1343601e-05 -1.0853376e-05 -9.628647e-06
000020 81 d4 3e b7 bb 9c 00 80 09 6d 02 00 1f 1b 08 00
       -1.137436e-05 -5.6224e-41 2.22785e-40 7.44413e-40
000030 f1 47 04 00 5f 36 0c 80 34 0d 09 00 7a ba 12 80
       3.9315e-40 -1.12153e-39 8.31256e-40 -1.719934e-39
000040 2b 2d 08 00 0c 35 05 80 5d b2 09 80 ec d6 16 80
       7.50887e-40 -4.78207e-40 -8.90504e-40 -2.09748e-39
000050 8d 1b 0a 80 1c fb 27 82 8d a0 98 b8 4e bc 87 b7
       -9.28238e-40 -1.2341287e-37 -7.27783e-05 -1.618094e-05
000060 4a 5f 61 b7 8f 31 8b b8 aa 6f 87 b7 00 49 f3 36
       -1.3433231e-05 -6.6372675e-05 -1.6145252e-05 7.2504627e-06
000070 df 25 04 37 97 d9 91 36 ba 29 da 36 58 8e 01 00
       7.876631e-06 4.3466675e-06 6.501764e-06 1.42899e-40
000080 2e 89 0e 80 9e 8a 11 00 f2 42 12 00 e2 43 02 00
       -1.334908e-39 1.61093e-39 1.677054e-39 2.08023e-40
000090 75 72 0a 80 86 a3 0d 00 54 ed 0b 80 14 42 10 80
       -9.59414e-40 1.252523e-39 -1.095328e-39 -1.493072e-39
0000a0 11 48 0b 80 dc 98 10 80 a4 30 13 80 0f 55 0c 80
       -1.036043e-39 -1.524204e-39 -1.762323e-39 -1.132539e-39
0000b0 9e f7 32 b3 ba 64 b5 b1 76 03 81 b1 49 3f d0 b2
       -4.166906e-08 -5.2792446e-09 -3.7547876e-09 -2.4243166e-08
0000c0 b4 55 7d b2 ec ff 97 32 0a 91 ac 32 6e 29 38 32
       -1.4746025e-08 1.7695093e-08 2.0089391e-08 1.071963e-08
0000d0 ef d7 84 32 8e 48 13 00 ac 53 00 80 b0 8b 11 00
       1.5465018e-08 1.770902e-39 -3.0016e-41 1.611314e-39
0000e0 da 70 0a 80 81 a0 07 80 a0 24 01 80 89 b5 06 80
       -9.58838e-40 -7.00426e-40 -1.04974e-40 -6.16136e-40
0000f0 ee 23 01 80 98 45 0e 00 7e b8 00 80 bd 0d 0c 00
       -1.04725e-40 1.310662e-39 -6.6183e-41 1.106954e-39
000100 2c 11 14 00 2b 38 08 00 13 40 d4 bd 04 b7 19 3b
       1.84287e-39 7.54833e-40 -0.10363784 0.0023455033
000110 ed a7 3c 3b 7e 65 c7 3b b6 72 9a 3b 3d d1 33 3d
       0.0028786615 0.006085097 0.0047133816 0.043900717
000120 5e 6a 41 3d 99 64 f6 3c 5c 6c 24 3d 41 86 05 80
       0.04722058 0.030077266 0.040142402 -5.07339e-40
000130 f2 c1 09 00 3d 41 0e 00 c9 1a 15 80 c8 55 05 00
       8.96094e-40 1.3091e-39 -1.938154e-39 4.8995e-40
000140 79 4d 0c 80 89 ec 07 00 1f d1 0e 00 9b b5 04 00
       -1.129818e-39 7.27701e-40 1.360715e-39 4.3249e-40
000150 3c 34 15 00 4e 87 08 00 54 88 02 80 97 73 07 80
       1.947284e-39 7.83222e-40 -2.32576e-40 -6.84314e-40
000160 73 59 15 31 94 9b 92 2f 03 bc 72 2f 58 55 f5 30
       2.17332e-09 2.666779e-10 2.2076567e-10 1.7850352e-09
000170 ac 40 a3 30 b7 93 ce af 06 c9 e6 af 45 8a 58 af
       1.1878192e-09 -3.757614e-10 -4.1979592e-10 -1.9694209e-10
000180 e5 b8 b4 af 63 3b 05 80 f8 7f 0f 00 2d 3a 05 80
       -3.2873185e-10 -4.80481e-40 1.423439e-39 -4.80047e-40
000190 d0 5e 17 00 32 11 01 00 d6 cc 03 00 8b 25 18 80
       2.146229e-39 9.8004e-41 3.48988e-40 -2.21752e-39
0001a0 65 37 16 00 f7 54 05 80 6b 3d 09 80 53 39 16 00
       2.040253e-39 -4.89657e-40 -8.48552e-40 2.040945e-39
0001b0 05 03 0f 00 b2 3c 10 80 39 f8 09 34 2e d6 1b b4
       1.378616e-39 -1.491141e-39 1.2849422e-07 -1.4513418e-07
0001c0 25 f7 24 b4 8a d5 8a b4 9a 98 94 b2 86 a8 47 33
       -1.5363601e-07 -2.5859873e-07 -1.7298863e-08 4.648657e-08
0001d0 6a 03 51 33 02 58 11 33 bf a9 3b 33 06 3f 0a 80
       4.866471e-08 3.3840486e-08 4.3693714e-08 -9.40964e-40
0001e0 79 b7 09 80 ca e2 05 80 18 e6 15 00 7b 69 01 00
       -8.92337e-40 -5.40534e-40 2.011088e-39 1.29675e-40
0001f0 b3 77 12 80 c2 8a 09 00 ec 72 13 00 47 26 19 80
       -1.695979e-39 8.76296e-40 1.7861e-39 -2.309619e-39
000200 46 82 02 00 c2 62 16 80 e2 92 13 00 2e 94 14 80
       2.30404e-40 -2.055809e-39 1.797566e-39 -1.889867e-39
000210 87 68 1a b0 28 a8 7e ae c0 56 fa ae 65 f0 e9 af
       -5.6173416e-10 -5.7902266e-11 -1.1384094e-10 -4.2553264e-10
000220 88 03 94 af 07 b2 77 2f 29 b3 8a 2f ac 04 20 2f
       -2.6923552e-10 2.2527767e-10 2.5229355e-10 1.4553575e-10
000230 79 08 5d 2f 2d e8 13 80 14 6d 09 00 82 0d 05 00
       2.0102843e-10 -1.828163e-39 8.6565e-40 4.64023e-40
000240 5c ae 10 00 4a b1 00 80 b1 06 03 00 a8 d0 03 80
       1.531916e-39 -6.36e-41 2.77907e-40 -3.50358e-40
000250 6b 3b 04 80 bb 68 0a 00 36 25 0b 80 50 6d 08 00
       -3.88657e-40 9.55925e-40 -1.023539e-39 7.73898e-40
000260 57 91 08 80 d4 3a e9 02 8c 4d 31 b3 b7 a3 40 b3
       -7.86822e-40 3.4270039e-37 -4.1281552e-08 -4.485238e-08
000270 ae 73 de b2 03 0c 86 b3 63 39 ac 32 e9 39 36 32
       -2.5896806e-08 -6.242046e-08 2.0049532e-08 1.06069615e-08
000280 81 c2 3a 32 1b fd 27 32 3b e0 2f 32 08 de 14 00
       1.087085e-08 9.778229e-09 1.0237325e-08 1.91636e-39
000290 33 44 10 00 47 37 11 00 7f c7 0e 80 8c 8e 12 00
       1.493833e-39 1.581033e-39 -1.357263e-39 1.704175e-39
0002a0 d6 de 08 80 40 0e 06 00 c9 bb 00 80 fa 29 06 00
       -8.14622e-40 5.56125e-40 -6.7365e-41 5.66071e-40
0002b0 e5 51 12 00 08 22 01 00 20 d6 07 80 b1 77 0b 00
       1.682417e-39 1.04044e-40 -7.19662e-40 1.053128e-39
0002c0 3c 91 25 36 8f 71 ba 34 1c de 80 34 52 ab 04 36
       2.4671454e-06 3.4727825e-07 2.4003464e-07 1.9769254e-06
0002d0 7f 51 79 35 43 ec e0 b5 54 4a 04 b6 60 0e 58 b5
       9.287832e-07 -1.6758062e-06 -1.9712797e-06 -8.048719e-07
0002e0 79 bd bb b5 c6 f4 01 00 82 67 0b 80 19 43 0e 80
       -1.398773e-06 1.79644e-40 -1.047322e-39 -1.309767e-39
0002f0 fa a4 0e 80 fd bf 13 80 81 51 15 00 7d a7 0b 80
       -1.34488e-39 -1.813747e-39 1.957784e-39 -1.070274e-39
000300 34 12 0f 00 43 ba 0f 80 8a e0 14 80 1a ab 14 80
       1.384062e-39 -1.44435e-39 -1.91726e-39 -1.89809e-39
000310 32 1a 0b 80 ff 50 0d 80 c9 40 d4 bd a9 b6 19 3b
       -1.019588e-39 -1.222917e-39 -0.10363919 0.0023454821
000320 fb a7 3c 3b 3c 65 c7 3b a4 72 9a 3b df d1 33 3d
       0.0028786648 0.006085066 0.0047133733 0.04390132
000330 06 6b 41 3d 65 65 f6 3c e0 6c 24 3d 24 eb 00 80
       0.047221206 0.030077646 0.040142894 -8.4353e-41
000340 06 b0 15 80 ae 2c 05 80 a2 14 0e 80 5a b0 15 80
       -1.991691e-39 -4.75206e-40 -1.293099e-39 -1.991808e-39
000350 e3 f2 06 00 9f 07 05 00 ea f9 0e 00 1e 67 07 80
       6.38144e-40 4.61911e-40 1.375349e-39 -6.7984e-40
000360 74 2e 01 80 0c f4 09 00 9f 8e 0b 00 54 dd 0a 80
       -1.085e-40 9.14067e-40 1.061353e-39 -9.97753e-40
000370 03 41 d4 3d 6d b6 19 bb ff a7 3c bb 1d 65 c7 bb
       0.103639625 -0.0023454682 -0.0028786657 -0.0060850517
000380 94 72 9a bb 0e d2 33 bd 3b 6b 41 bd a1 65 f6 bc
       -0.004713366 -0.043901496 -0.047221404 -0.030077757
000390 0e 6d 24 bd d1 b1 06 00 17 4c 09 00 e1 33 05 80
       -0.040143065 6.14801e-40 8.53815e-40 -4.77788e-40
0003a0 a1 2b 02 80 c3 b0 05 00 27 45 16 00 4b 27 05 80
       -1.99322e-40 5.22588e-40 2.045188e-39 -4.73273e-40
0003b0 dc a2 0a 00 46 44 11 00 5b b4 17 80 a7 91 15 00
       9.76778e-40 1.585695e-39 -2.176916e-39 1.980796e-39
0003c0 98 5f 00 80 98 8c 03 00 ce 40 d4 3d a2 b6 19 bb
       -3.4293e-41 3.25942e-40 0.10363923 -0.0023454805
0003d0 f3 a7 3c bb 36 65 c7 bb a7 72 9a bb e3 d1 33 bd
       -0.002878663 -0.0060850633 -0.0047133747 -0.043901335
0003e0 0d 6b 41 bd 67 65 f6 bc e6 6c 24 bd e0 51 02 80
       -0.047221232 -0.03007765 -0.040142916 -2.13042e-40
0003f0 37 ee 0c 80 18 53 01 00 03 a4 0a 00 2c d1 06 00
       -1.187481e-39 1.21644e-40 9.77191e-40 6.2605e-40

fc1.bias f4 [100]
000000 dd 09 7e b8 dc a6 80 38 67 93 54 33 dd 3d 0a be
       -6.0567505e-05 6.1345956e-05 4.9494158e-08 -0.13500161
000010 43 92 0e b1 b2 70 92 b3 ee 78 36 30 e5 80 14 32
       -2.074686e-09 -6.819154e-08 6.6383066e-10 8.644041e-09
000020 ed 89 81 b6 67 3e 0a be 93 3e 0a 3e 6d 3e 0a 3e
       -3.8605563e-06 -0.13500367 0.13500433 0.13500376
000030 96 1c 10 36 83 3e 0a 3e 95 3e 0a be 8f 3e 0a 3e
       2.1474311e-06 0.13500409 -0.13500436 0.13500427
000040 95 3e 0a be 8f 3e 0a be 3b 37 c1 32 b8 3e 0a be
       -0.13500436 -0.13500427 2.2493273e-08 -0.13500488
000050 72 4d 1e b8 e1 0a 5a 2d 6e 81 13 35 5b bb de 37
       -3.7742262e-05 1.2394281e-11 5.495011e-07 2.6551706e-05
000060 fc 8d 61 b1 4e 65 7d b5 07 3e 0a be 78 3e 0a be
       -3.2822518e-09 -9.439726e-07 -0.13500224 -0.13500392
000070 2d 46 88 37 b1 3e 0a 3e 60 de 2e 32 e4 3d 0a be
       1.6245142e-05 0.13500477 1.0178695e-08 -0.13500172
000080 26 8d 20 37 79 3e 0a 3e 1b 3e 0a be cc b2 23 33
       9.569607e-06 0.13500394 -0.13500254 3.811401e-08
000090 93 7e 1f b3 5f b5 e1 b2 01 b2 bd 36 1e dc 00 af
       -3.713519e-08 -2.6275925e-08 5.6533613e-06 -1.1719734e-10
0000a0 4b b7 85 b0 07 dd 98 b7 6d 70 20 b6 68 90 42 38
       -9.729119e-10 -1.8222736e-05 -2.3907298e-06 4.6387693e-05
0000b0 36 cd d3 34 33 3e 0a 3e 5f 3e 0a 3e 64 3e 0a be
       3.9451123e-07 0.1350029 0.13500355 -0.13500363
0000c0 9a 2a 59 b1 93 3e 0a be 39 3e 0a be 5f 3e 0a be
       -3.1601872e-09 -0.13500433 -0.13500299 -0.13500355
0000d0 78 3e 0a 3e 78 f8 d3 b4 7e 31 5b 36 83 3e 0a be
       0.13500392 -3.9482597e-07 3.2662351e-06 -0.13500409
0000e0 e1 dc 12 3a 2d 3e 0a 3e 8b 3e 0a 3e 00 2f dc b2
       0.00056023715 0.1350028 0.13500421 -2.5632744e-08
0000f0 8c 3e 0a 3e fa 76 ab b4 52 3e 0a 3e 65 f2 9c 34
       0.13500422 -3.19378e-07 0.13500336 2.923363e-07
000100 85 3e 0a 3e 3d ee 4b 30 f6 3d 0a 3e 8c 3e 0a be
       0.13500412 7.4189527e-10 0.13500199 -0.13500422
000110 50 3e 0a 3e 0c c6 cc 37 f6 c6 b9 37 7f 3e 0a 3e
       0.13500333 2.4410918e-05 2.2146367e-05 0.13500403
000120 38 3e 0a 3e 90 3e 0a be 3d 3e 0a be 76 3e 0a 3e
       0.13500297 -0.13500428 -0.13500305 0.1350039
000130 7e 3e 0a 3e 9d 3e 0a be 48 67 35 ae 19 3e 0a 3e
       0.13500401 -0.13500448 -4.1246367e-11 0.13500251
000140 96 3d 0a 3e 06 1c 8a 32 d6 3d 0a 3e 41 3e 0a 3e
       0.13500056 1.6078058e-08 0.13500151 0.1350031
000150 39 3e 0a be 6c 3e 0a 3e 80 80 85 38 5e b5 8b b8
       -0.13500299 0.13500375 6.365869e-05 -6.661819e-05
000160 85 3e 0a 3e c5 d7 32 38 76 73 a1 36 6a 51 7d b4
       0.13500412 4.2639458e-05 4.8116153e-06 -2.359208e-07
000170 0a a0 2b b4 95 3e 0a 3e 73 3e 0a be 50 3e 0a 3e
       -1.5983838e-07 0.13500436 -0.13500385 0.13500333
000180 3b c0 31 32 9d ea 84 29 99 e0 5b aa 87 3e 0a be
       1.0346464e-08 5.9026765e-14 -1.952903e-13 -0.13500415

fc2.weight f4 [100, 100]
000000 65 52 08 b5 b0 19 0a 34 2b ee 8c 30 91 89 a5 3c
       -5.078385e-07 1.2861597e-07 1.0254032e-09 0.020207198
000010 5e 79 05 2d 43 1e 12 b3 3f 1b b8 2c 08 c0 eb af
       7.587124e-12 -3.4020797e-08 5.2326195e-12 -4.2882697e-10
000020 8e 39 32 b2 29 8a a5 3c 5a 8a a5 bc 2e 8a a5 bc
       -1.037405e-08 0.020207481 -0.020207573 -0.02020749
000030 60 05 73 33 45 8a a5 bc 5c 8a a5 3c 58 8a a5 bc
       5.6582735e-08 -0.020207534 0.020207576 -0.020207569
000040 5f 8a a5 3c 5a 8a a5 3c 04 d8 fe b3 84 8a a5 3c
       0.020207582 0.020207573 -1.186709e-07 0.020207651
000050 c0 79 06 b5 90 bf b1 ad 05 63 b9 b3 39 76 85 34
       -5.009606e-07 -2.0207641e-11 -8.6327454e-08 2.48592e-07
000060 8c c2 83 b0 c0 ee f4 35 c1 89 a5 3c 3a 8a a5 3c
       -9.586798e-10 1.8248902e-06 0.020207288 0.020207513
000070 94 28 0a 34 7f 8a a5 bc 98 32 97 31 9d 89 a5 3c
       1.2867014e-07 -0.020207642 4.4004302e-09 0.02020722
000080 58 81 5b 37 3f 8a a5 bc d4 89 a5 3c 85 4a 59 30
       1.3083532e-05 -0.020207522 0.020207323 7.905004e-10
000090 ec d7 11 b0 87 30 c2 ae a1 54 b3 b4 bb 37 06 b0
       -5.3057536e-10 -8.830719e-11 -3.3402924e-07 -4.8828114e-10
0000a0 a2 23 49 b0 16 94 5d b4 4c 08 14 b6 7c 8c 18 37
       -7.317401e-10 -2.0636102e-07 -2.2058548e-06 9.092615e-06
0000b0 ac 84 52 35 f0 89 a5 bc 22 8a a5 bc 27 8a a5 3c
       7.842416e-07 -0.020207375 -0.020207468 0.020207478
0000c0 31 40 2d af 59 8a a5 3c f6 89 a5 3c 22 8a a5 3c
       -1.5757064e-10 0.02020757 0.020207386 0.020207468
0000d0 39 8a a5 bc de 77 04 b2 62 db 14 34 46 8a a5 3c
       -0.020207511 -7.710666e-09 1.3863385e-07 0.020207535
0000e0 59 4e 14 ba ea 89 a5 bc 51 8a a5 bc 4c 52 31 2f
       -0.00056574267 -0.020207364 -0.020207556 1.6127294e-10
0000f0 55 8a a5 bc e2 40 a6 34 14 8a a5 bc ca 5f 32 b1
       -0.020207563 3.0967118e-07 -0.020207442 -2.5956859e-09
000100 4a 8a a5 bc 9e d2 0a b3 ac 89 a5 bc 53 8a a5 3c
       -0.020207543 -3.2322184e-08 -0.020207249 0.02020756
000110 11 8a a5 bc 8b a0 65 b4 39 e8 2b 35 44 8a a5 bc
       -0.020207437 -2.1385692e-07 6.404039e-07 -0.020207532
000120 f5 89 a5 bc 59 8a a5 3c fc 89 a5 3c 38 8a a5 bc
       -0.020207385 0.02020757 0.020207398 -0.02020751
000130 41 8a a5 bc 68 8a a5 3c b3 0d 3e ae d4 89 a5 bc
       -0.020207526 0.020207599 -4.3213166e-11 -0.020207323
000140 47 89 a5 bc 70 f5 a0 2f 8d 89 a5 bc 01 8a a5 bc
       -0.02020706 2.9278224e-10 -0.02020719 -0.020207407
000150 f8 89 a5 3c 2e 8a a5 bc 9f fe 25 35 f9 dc 0c b5
       0.02020739 -0.02020749 6.183781e-07 -5.247562e-07
000160 4c 8a a5 bc 6e 32 91 34 79 4d be b1 e8 fb 94 b3
       -0.020207547 2.7045047e-07 -5.5385354e-09 -6.9376085e-08
000170 15 3c 41 b0 5e 8a a5 bc 33 8a a5 3c 10 8a a5 bc
       -7.029837e-10 -0.02020758 0.0202075 -0.020207435
000180 c2 4d fd 2f 01 56 28 aa a4 96 2c 2b 51 8a a5 3c
       4.6075682e-10 -1.4951236e-13 6.131573e-13 0.020207556
000190 1a 53 08 b5 98 1c 0a 34 75 ee 8c 30 44 88 a5 3c
       -5.0784877e-07 1.2862654e-07 1.0254114e-09 0.020206578
0001a0 ee 78 05 2d a0 20 12 b3 26 1c b8 2c 58 19 ec af
       7.5870265e-12 -3.4022946e-08 5.2327196e-12 -4.2946158e-10
0001b0 02 3c 32 b2 d8 88 a5 3c 0e 89 a5 bc e1 88 a5 bc
       -1.0374608e-08 0.020206854 -0.020206954 -0.02020687
0001c0 20 3f 73 33 f8 88 a5 bc 0d 89 a5 3c 0d 89 a5 bc
       5.663526e-08 -0.020206913 0.020206952 -0.020206952
0001d0 0e 89 a5 3c 09 89 a5 3c 42 d9 fe b3 38 89 a5 3c
       0.020206954 0.020206945 -1.1867316e-07 0.020207033
0001e0 eb 7a 06 b5 35 bf b1 ad 29 66 b9 b3 c6 75 85 34
       -5.009776e-07 -2.0207483e-11 -8.6333166e-08 2.4858872e-07
0001f0 5d c2 83 b0 ac ee f4 35 72 88 a5 3c ef 88 a5 3c
       -9.586746e-10 1.8248879e-06 0.020206664 0.020206897
000200 86 29 0a 34 2c 89 a5 bc 34 32 97 31 4d 88 a5 3c
       1.2867358e-07 -0.02020701 4.400386e-09 0.020206595
000210 9a 82 5b 37 f0 88 a5 bc 88 88 a5 3c 29 4b 59 30
       1.3083825e-05 -0.020206898 0.020206705 7.905095e-10
000220 5b d8 11 b0 ec 32 c2 ae 78 54 b3 b4 ea 37 06 b0
       -5.305815e-10 -8.831144e-11 -3.3402807e-07 -4.8828375e-10
000230 2a 24 49 b0 2a 94 5d b4 f2 09 14 b6 fc 91 18 37
       -7.3174766e-10 -2.063613e-07 -2.2059508e-06 9.093896e-06
000240 99 85 52 35 a2 88 a5 bc d4 88 a5 bc d7 88 a5 3c
       7.8425506e-07 -0.020206753 -0.020206846 0.020206852
000250 ec 40 2d af 0d 89 a5 3c a9 88 a5 3c d4 88 a5 3c
       -1.5757323e-10 0.020206952 0.020206766 0.020206846
000260 ed 88 a5 bc 74 77 04 b2 13 d8 14 34 f7 88 a5 3c
       -0.020206893 -7.710572e-09 1.3862181e-07 0.020206911
000270 7c 4f 14 ba 9e 88 a5 bc 01 89 a5 bc d2 52 31 2f
       -0.0005657596 -0.020206746 -0.02020693 1.612748e-10
000280 08 89 a5 bc 7c 3f a6 34 c8 88 a5 bc e2 62 32 b1
       -0.020206943 3.09661e-07 -0.020206824 -2.5958617e-09
000290 fb 88 a5 bc 03 d4 0a b3 60 88 a5 bc 07 89 a5 3c
       -0.020206919 -3.2323452e-08 -0.02020663 0.020206941
0002a0 c5 88 a5 bc 35 ab 65 b4 a8 e7 2b 35 f7 88 a5 bc
       -0.020206818 -2.1389572e-07 6.403957e-07 -0.020206911
0002b0 a8 88 a5 bc 09 89 a5 3c af 88 a5 3c eb 88 a5 bc
       -0.020206764 0.020206945 0.020206777 -0.02020689
0002c0 f4 88 a5 bc 18 89 a5 3c e1 0e 3e ae 85 88 a5 bc
       -0.020206906 0.020206973 -4.3214213e-11 -0.0202067
0002d0 fa 87 a5 bc f6 f5 a0 2f 3d 88 a5 bc b3 88 a5 bc
       -0.02020644 2.9278596e-10 -0.020206565 -0.020206785
0002e0 a8 88 a5 3c e0 88 a5 bc b5 fe 25 35 89 de 0c b5
       0.020206764 -0.020206869 6.183794e-07 -5.2477895e-07
0002f0 fd 88 a5 bc 11 33 91 34 5a 33 be b1 7a 00 95 b3
       -0.020206923 2.704551e-07 -5.535566e-09 -6.93844e-08
000300 58 3d 41 b0 0f 89 a5 bc e9 88 a5 3c c2 88 a5 bc
       -7.0300166e-10 -0.020206956 0.020206885 -0.020206813
000310 56 4e fd 2f 51 56 28 aa 70 96 2c 2b ff 88 a5 3c
       4.6076093e-10 -1.4951344e-13 6.131545e-13 0.020206926
000320 d5 52 08 b5 e8 1a 0a 34 3d ee 8c 30 f9 88 a5 3c
       -5.0784485e-07 1.286204e-07 1.0254052e-09 0.020206915
000330 2e 79 05 2d 6f 1f 12 b3 93 1b b8 2c e0 e6 eb af
       7.587082e-12 -3.4021863e-08 5.232656e-12 -4.2910298e-10
000340 e6 3a 32 b2 8e 89 a5 3c c2 89 a5 bc 94 89 a5 bc
       -1.0374356e-08 0.020207193 -0.02020729 -0.020207204
000350 a0 1e 73 33 ab 89 a5 bc c2 89 a5 3c bd 89 a5 bc
       5.66057e-08 -0.020207247 0.02020729 -0.02020728
000360 c4 89 a5 3c be 89 a5 3c 80 d8 fe b3 e5 89 a5 3c
       0.020207293 0.020207282 -1.1867178e-07 0.020207355
000370 3a 7a 06 b5 6c bf b1 ad 32 64 b9 b3 08 76 85 34
       -5.0096753e-07 -2.0207579e-11 -8.632959e-08 2.485906e-07
000380 7a c2 83 b0 ba ee f4 35 28 89 a5 3c a1 89 a5 3c
       -9.586778e-10 1.8248895e-06 0.020207003 0.020207228
000390 d4 28 0a 34 e2 89 a5 bc 69 32 97 31 ff 88 a5 3c
       1.2867105e-07 -0.02020735 4.4004094e-09 0.020206926
0003a0 18 82 5b 37 a3 89 a5 bc 3d 89 a5 3c cd 4a 59 30
       1.3083707e-05 -0.020207232 0.020207042 7.905044e-10
0003b0 20 d8 11 b0 dd 31 c2 ae a3 54 b3 b4 cc 37 06 b0
       -5.3057825e-10 -8.830956e-11 -3.340293e-07 -4.882821e-10
0003c0 dc 23 49 b0 24 94 5d b4 16 09 14 b6 20 8f 18 37
       -7.3174333e-10 -2.0636122e-07 -2.2059007e-06 9.09323e-06
0003d0 2e 85 52 35 58 89 a5 bc 89 89 a5 bc 8d 89 a5 3c
       7.84249e-07 -0.020207092 -0.020207183 0.02020719
0003e0 6e 40 2d af c0 89 a5 3c 60 89 a5 3c 88 89 a5 3c
       -1.5757148e-10 0.020207286 0.020207107 0.020207182
0003f0 a1 89 a5 bc ae 77 04 b2 fb d9 14 34 ab 89 a5 3c
       -0.020207228 -7.710623e-09 1.3862875e-07 0.020207247

fc2.bias f4 [100]
000000 5b 86 a0 bd ef 84 a0 bd ad 85 a0 bd 37 85 a0 3d
       -0.07838126 -0.07837855 -0.07837997 0.07837909
000010 d8 85 a0 3d 19 86 a0 bd 14 85 a0 3d 74 85 a0 3d
       0.07838029 -0.07838077 0.07837883 0.07837954
000020 f7 85 a0 bd a6 85 a0 bd 5a 85 a0 bd 75 85 a0 3d
       -0.07838052 -0.078379914 -0.07837935 0.07837955
000030 5b 85 a0 3d 56 85 a0 3d 51 85 a0 bd 89 85 a0 bd
       0.078379355 0.07837932 -0.07837928 -0.0783797
000040 0f 86 a0 bd 2a 86 a0 3d 81 85 a0 3d 51 85 a0 3d
       -0.0783807 0.0783809 0.07837964 0.07837928
000050 0b 85 a0 bd e8 82 a0 3d e6 83 a0 bd 98 85 a0 bd
       -0.07837876 0.078374684 -0.07837658 -0.07837981
000060 41 83 a0 3d 4e 64 9c 36 80 85 a0 3d c7 85 a0 bd
       0.07837535 4.6608393e-06 0.07837963 -0.07838016
000070 72 85 a0 3d 30 85 a0 bd 6c 86 a0 bd 17 85 a0 3d
       0.07837953 -0.078379035 -0.07838139 0.07837885
000080 fb 84 a0 3d 89 85 a0 bd 9f 85 a0 bd 6e 85 a0 bd
       0.07837864 -0.0783797 -0.07837986 -0.0783795
000090 cb 85 a0 bd 5e 85 a0 3d 89 85 a0 3d 89 84 a0 3d
       -0.07838019 0.07837938 0.0783797 0.07837779
0000a0 40 85 a0 3d f9 85 a0 3d 5c 85 a0 bd 86 84 a0 bd
       0.078379154 0.07838053 -0.07837936 -0.07837777
0000b0 3c 86 a0 bd 58 84 a0 bd f8 84 a0 3d e7 84 a0 3d
       -0.07838103 -0.078377426 0.07837862 0.07837849
0000c0 8a 85 a0 3d bc 85 a0 3d 53 85 a0 3d cb 85 a0 bd
       0.078379706 0.07838008 0.078379296 -0.07838019
0000d0 70 85 a0 3d ab 85 a0 3d f8 85 a0 3d 9b 85 a0 bd
       0.07837951 0.07837995 0.078380525 -0.07837983
0000e0 2d 85 a0 3d 8e 84 a0 bd c4 84 a0 3d 98 85 a0 3d
       0.07837901 -0.07837783 0.07837823 0.07837981
0000f0 68 84 a0 bd 16 86 a0 bd 54 85 a0 3d 7c 85 a0 bd
       -0.078377545 -0.07838075 0.0783793 -0.0783796
000100 bb 85 a0 3d 58 85 a0 bd 1a 85 a0 bd f2 85 a0 3d
       0.07838007 -0.07837933 -0.07837887 0.07838048
000110 52 85 a0 bd 39 86 a0 3d a1 85 a0 3d 22 51 28 33
       -0.07837929 0.07838101 0.07837988 3.9189338e-08
000120 fa 84 a0 3d d1 84 a0 bd fb 84 a0 bd 02 86 a0 bd
       0.07837863 -0.07837833 -0.07837864 -0.0783806
000130 fc 84 a0 3d ed 84 a0 bd fb 84 a0 3d 9b 85 a0 3d
       0.07837865 -0.078378536 0.07837864 0.07837983
000140 a8 90 db 24 66 85 a0 3d 08 86 a0 3d 59 85 a0 3d
       9.522117e-17 0.07837944 0.078380644 0.07837934
000150 d3 84 a0 3d 3a f9 2c b4 90 85 a0 bd 2e 56 c3 22
       0.07837834 -1.6109416e-07 -0.07837975 5.2946102e-18
000160 2d 85 a0 3d aa 85 a0 bd f2 85 a0 bd 2a 83 a0 3d
       0.07837901 -0.078379944 -0.07838048 0.078375176
000170 e6 84 a0 3d 54 85 a0 3d dc 85 a0 3d 72 85 a0 3d
       0.07837848 0.0783793 0.07838032 0.07837953
000180 35 86 a0 bd 0e 86 a0 3d d6 84 a0 bd e5 83 a0 3d
       -0.07838098 0.07838069 -0.078378364 0.07837657

fc3.weight f4 [1, 100]
000000 fb d4 2c be 49 d3 2c be 31 d4 2c be 9f d3 2c 3e
       -0.1687812 -0.16877474 -0.1687782 0.16877602
000010 64 d4 2c 3e b2 d4 2c be 75 d3 2c 3e ec d3 2c 3e
       0.16877896 -0.16878012 0.1687754 0.16877717
000020 88 d4 2c be 27 d4 2c be c6 d3 2c be ed d3 2c 3e
       -0.16877949 -0.16877805 -0.1687766 0.16877718
000030 c6 d3 2c 3e c0 d3 2c 3e bc d3 2c be 07 d4 2c be
       0.1687766 0.16877651 -0.16877645 -0.16877757
000040 a7 d4 2c be c4 d4 2c 3e fb d3 2c 3e b9 d3 2c 3e
       -0.16877995 0.16878039 0.16877739 0.16877641
000050 6d d3 2c be eb d0 2c 3e 12 d2 2c be 16 d4 2c be
       -0.16877528 0.16876571 -0.1687701 -0.1687778
000060 4d d1 2c 3e 1b 82 ef b5 fa d3 2c 3e 51 d4 2c be
       0.16876717 -1.7844753e-06 0.16877738 -0.16877867
000070 e9 d3 2c 3e 96 d3 2c be 12 d5 2c be 7b d3 2c 3e
       0.16877712 -0.16877589 -0.16878155 0.16877548
000080 56 d3 2c 3e 05 d4 2c be 1f d4 2c be e4 d3 2c be
       0.16877493 -0.16877754 -0.16877793 -0.16877705
000090 54 d4 2c be cd d3 2c 3e 06 d4 2c 3e d4 d2 2c 3e
       -0.16877872 0.1687767 0.16877756 0.168773
0000a0 a9 d3 2c 3e 88 d4 2c 3e ca d3 2c be d0 d2 2c be
       0.16877617 0.16877949 -0.16877666 -0.16877294
0000b0 d9 d4 2c be 95 d2 2c be 54 d3 2c 3e 3f d3 2c 3e
       -0.1687807 -0.16877206 0.1687749 0.16877459
0000c0 07 d4 2c 3e 44 d4 2c 3e bf d3 2c 3e 56 d4 2c be
       0.16877757 0.16877848 0.1687765 -0.16877875
0000d0 e5 d3 2c 3e 2b d4 2c 3e 87 d4 2c 3e 19 d4 2c be
       0.16877706 0.1687781 0.16877948 -0.16877784
0000e0 93 d3 2c 3e da d2 2c be 18 d3 2c 3e 16 d4 2c 3e
       0.16877584 -0.16877308 0.16877401 0.1687778
0000f0 a8 d2 2c be ae d4 2c be c0 d3 2c 3e f2 d3 2c be
       -0.16877234 -0.16878006 0.16877651 -0.16877726
000100 42 d4 2c 3e c4 d3 2c be 7c d3 2c be 82 d4 2c 3e
       0.16877845 -0.16877657 -0.1687755 0.1687794
000110 bd d3 2c be d5 d4 2c 3e 22 d4 2c 3e 15 0b 3f 33
       -0.16877647 0.16878064 0.16877797 4.4480732e-08
000120 58 d3 2c 3e 28 d3 2c be 57 d3 2c be 94 d4 2c be
       0.16877496 -0.16877425 -0.16877495 -0.16877967
000130 58 d3 2c 3e 45 d3 2c be 56 d3 2c 3e 1a d4 2c 3e
       0.16877496 -0.16877468 0.16877493 0.16877785
000140 fa cd 1d a5 db d3 2c 3e a0 d4 2c 3e c6 d3 2c 3e
       -1.3687367e-16 0.16877691 0.16877985 0.1687766
000150 29 d3 2c 3e 62 7e 5b 34 0b d4 2c be c4 31 94 22
       0.16877426 2.0441942e-07 -0.16877763 4.016817e-18
000160 91 d3 2c 3e 2a d4 2c be 83 d4 2c be 32 d1 2c 3e
       0.16877581 -0.16877809 -0.16877942 0.16876677
000170 3e d3 2c 3e c0 d3 2c 3e 65 d4 2c 3e e8 d3 2c 3e
       0.16877457 0.16877651 0.16877897 0.16877711
000180 d3 d4 2c be a6 d4 2c 3e 2e d3 2c be 0e d2 2c 3e
       -0.16878061 0.16877994 -0.16877434 0.16877005
