gail/save_model/0/SUB005_ckpt_0.pth.tar (torch_old, 154739 bytes, 16 tensors)

fc1.weight f4 [100, 22]
-0.019292414 -0.32334045 0.18947168 0.07911033 -0.2557688 0.029102366 -0.1661138 0.064302795
0.10248645 0.1270954 -0.017363548 0.17043388 -0.105812654 0.027623221 -0.20033872 0.039657354
0.059117734 -0.008740246 0.043931454 0.1002669 0.1109502 0.16510823 0.29526785 -0.06626609
-0.24214524 -0.056177363 0.20634425 -0.2819033 -0.19570352 -0.012286188 -0.22570084 -0.015945613
0.10634327 0.18803886 -0.18678859 0.05240825 0.16160882 0.04745248 0.059801936 -0.19784737
-0.036095023 -0.10515195 0.13505667 -0.20369631 -0.21139249 -0.45349297 -0.3948666 0.16960028
-0.21342193 -0.0056312634 -0.21387275 -0.09903601 0.100940324 0.06391707 0.04757929 0.17674974
-0.07064088 -0.03134334 0.11787838 0.21276453 0.070577055 0.046675146 -0.10051187 0.0133600235
-0.028393283 0.02227661 -0.21838938 -0.54274046 -0.38432693 0.36203364 -0.35982308 -0.33811167
-0.0024195565 -0.18984225 -0.17990366 -0.10686112 -0.15128021 0.04704073 0.19411889 -0.115122356
-0.094016075 0.16046417 0.06744477 0.18371043 0.021668047 -0.13205475 0.16463181 0.20020583
-0.15682814 -0.440807 -0.4884676 0.071598366 -0.106178455 0.049702704 0.02577742 -0.2264782
0.10546621 -0.12205914 0.13579372 0.005322799 0.08432412 -0.022651449 0.09195787 0.16440377
-0.18926974 0.12977988 0.1900717 0.12230405 0.10172212 -0.04550661 -0.23293963 -0.032864798
-0.20137905 -0.22113056 0.28832698 0.47828504 0.19218871 0.4528347 0.3689783 0.1204091
-0.040400773 -0.08007951 -0.040216118 0.05861345 0.036905825 0.2075628 0.19277579 0.03202997
-0.033768386 -0.033163622 -0.05815363 0.115783155 0.17256013 0.3076499 -0.0029788252 -0.022384927
0.55656064 0.10243573 0.1918605 0.10558762 0.32032433 0.0014692396 0.08922824 0.092371374
0.08634055 -0.12774573 0.13442639 -0.060541153 -0.052569553 0.019937903 0.147576 0.15262696
-0.0764671 0.0041880906 0.13521035 0.39716265 0.46389467 -0.20137262 0.19784512 -0.0011863863
0.25596386 0.22738664 0.067784324 0.010758668 0.10274008 -0.036053494 -0.1139675 0.0819104
0.10758722 0.14027247 0.040210307 -0.110446535 -0.057112068 0.13466907 0.085246295 -0.0519187
-0.0152141005 -0.1778083 -0.22002679 0.32641986 0.20619117 0.2014738 -0.14905107 0.20377226
0.19312838 0.12848032 0.19182938 0.001976952 -0.16869412 0.018528864 -0.21164216 0.032917053
-0.14038798 0.12029651 0.1105552 -0.04730995 -0.113868356 -0.12329786 -0.13753079 -0.4127115
-0.39806193 0.2608441 -0.27612627 0.05970147 -0.08269914 -0.028920162 -0.17884731 -0.16984642
0.20079082 -0.088579595 0.18850785 -0.17371158 0.038270175 0.19644278 -0.20980379 -0.18060121
-0.15269949 -0.030652776 0.051560342 -0.19551834 0.14032213 0.41608647 0.36729577 -0.2071176
0.23690455 0.12505442 0.022388266 0.09302631 0.122434944 -0.071006 -0.17976923 0.15769798
0.021393016 0.12140164 0.13626784 0.1949665 -0.17295463 -0.095842354 0.057777077 -0.041324288
0.1168986 -0.016012251 0.25591472 -0.28434703 0.3519985 -0.04060703 0.069073066 0.061698973
-0.1927569 -0.14367248 -0.11987635 0.06858435 -0.19918182 0.1397498 0.04704696 0.033131674
00000000: 200b 9ebc e18c a5be dd04 423e 9904 a23d
00000010: 21f4 82be 1668 ee3c bc19 2abe 2fb1 833d
00000020: 6ae4 d13d 4c25 023e 003e 8ebc 3886 2e3e
00000030: 4eb4 d8bd 184a e23c 9825 4dbe c06f 223d
00000040: 7025 723d 4033 0fbc 78f1 333d bc58 cd3d
00000050: dc39 e33d 2212 293e 592d 973e 84b6 87bd
00000060: ecf4 77be 3c1a 66bd e84b 533e a155 90be
00000070: 8166 48be 024c 49bc 1f1e 67be 60a0 82bc
00000080: 80ca d93d 428d 403e 8245 3fbe 08aa 563d
00000090: c87c 253e 885d 423d e0f2 743d 8098 4abe
000000a0: 60d8 13bd e859 d7bd 4c4c 0a3e c495 50be
000000b0: 4677 58be 3b30 e8be f42b cabe b2ab 2d3e
000000c0: 478b 5abe 7686 b8bb 7501 5bbe 64d3 cabd
000000d0: cdb9 ce3d f4e6 823d 80e2 423d e2fd 343e
000000e0: 2aac 90bd e061 00bd 386a f13d f2de 593e
000000f0: b48a 903d 702e 3f3d 2bd9 cdbd 00e4 5a3c
00000100: 0899 e8bc 707d b63c 77a1 5fbe 0af1 0abf
00000110: 80c6 c4be 795c b93e bb3a b8be f91c adbe
00000120: 6c91 1ebb 0266 42be aa38 38be 01da dabd
00000130: 33e9 1abe c8ad 403d 1ac7 463e 45c5 ebbd
00000140: 808b c0bd b850 243e 7c20 8a3d 961e 3c3e
00000150: 3081 b13c 5c39 07be 3e95 283e c202 4d3e
00000160: 8e97 20be 75b1 e1be 6d18 fabe 2aa2 923d
00000170: 1774 d9bd 1095 4b3d 2b2b d33c e7e9 67be
00000180: abfe d73d 24fa f9bd 820d 0b3e e06a ae3b
00000190: 20b2 ac3d 888f b9bc 6854 bc3d 7659 283e
000001a0: edcf 41be 04e5 043e 28a2 423e 8c7a fa3d
000001b0: b053 d03d 2465 3abd ba87 6ebe 3d9d 06bd
000001c0: 4f36 4ebe 0d70 62be 989f 933e c7e1 f43e
000001d0: 1ecd 443e f3d9 e73e b9ea bc3e 0c99 f63d
000001e0: 487b 25bd ba00 a4bd a8b9 24bd a814 703d
000001f0: 902a 173d 588b 543e 0467 453e dc31 033d
00000200: b850 0abd 94d6 07bd 8032 6ebd b81f ed3d
00000210: 9ab3 303e 4a84 9d3e 6538 43bb 9860 b7bc
00000220: c27a 0e3f d3c9 d13d 1477 443e 523e d83d
00000230: 8d01 a43e 8093 c03a 4cbd b63d 342d bd3d
00000240: 50d3 b03d c7cf 02be 12a7 093e 00fa 77bd
00000250: 2c53 57bd d054 a33c 2a1e 173e 3e4a 1c3e
00000260: c89a 9cbd 403c 893b 9574 0a3e e758 cb3e
00000270: 9a83 ed3e a034 4ebe e997 4a3e 8580 9bba
00000280: b20d 833e 0bd8 683e 82d2 8a3d 2045 303c
00000290: 6469 d23d d4ac 13bd cb67 e9bd a4c0 a73d
000002a0: b056 dc3d 96a3 0f3e 90b3 243d cb31 e2bd
000002b0: 58ee 69bd b0e6 093e 9c95 ae3d b4a8 54bd
000002c0: 9044 79bc 6113 36be b44e 61be 8120 a73e
000002d0: c723 533e 264f 4e3e d8a0 18be ada9 503e
000002e0: 72c3 453e 5890 033e ec6e 443e c08f 013b
000002f0: 27be 2cbe d8c9 973c b9b8 58be 08d4 063d
00000300: dec1 0fbe 045e f63d c46a e23d 14c8 41bd
00000310: d033 e9bd 9783 fcbd dfd4 0cbe ec4e d3be
00000320: c6ce cbbe 5c8d 853e 6c60 8dbe 8789 743d
00000330: 2b5e a9bd fae9 ecbc c023 37be 38ec 2dbe
00000340: 1c9c 4d3e 3869 b5bd 3408 413e 73e1 31be
00000350: 30c1 1c3d 4c28 493e ced6 56be 86ef 38be
00000360: 415d 1cbe 881b fbbc f030 533d f635 48be
00000370: 9bb0 0f3e 4909 d53e 310e bc3e a316 54be
00000380: 1b97 723e 440e 003e 9967 b73c 9484 be3d
00000390: 2cbf fa3d 986b 91bd 6d15 38be 947b 213e
000003a0: 6840 af3c 6ca1 f83d cc89 0b3e 4ca5 473e
000003b0: 051b 31be ff48 c4bd a8a7 6c3d a843 29bd
000003c0: 8868 ef3d 202c 83bc 4107 833e ef95 91be
000003d0: 2639 b43e 8f53 26bd 2e76 8d3d 10b8 7c3d
000003e0: 1162 45be e11e 13be bb81 f5bd f475 8c3d
000003f0: 52f6 4bbe 921a 0f3e 50b4 403d 14b5 073d

fc1.bias f4 [100]
0.07294105 0.16143277 0.15927806 0.042084094 0.075331725 -0.4983538 -0.32629472 -0.008217257
-0.13041216 0.09844167 -0.048221506 -0.058376648 0.51472217 -0.3276381 -0.04232339 -0.2058158
0.1961956 -0.038512677 0.28582296 0.022812635 0.06644807 -0.31461558 -0.093626745 0.13650842
0.43634626 -0.28262684 0.46332207 -0.39462182 0.22308314 -0.047099408 0.18028913 0.34936604
-0.5279757 0.044461675 0.047664378 -0.15789364 0.36400434 -0.12385064 0.04903383 0.31617713
-0.2165319 -0.4351001 0.02256162 0.1704638 0.2326466 -0.04423906 -0.4397736 -0.26616016
0.12858035 -0.23371693 -0.15142886 0.14868487 -0.36558783 -0.1496748 0.077986315 0.0076313107
0.35388958 -0.34145102 0.12516059 0.078772336 -0.30074805 -0.055330876 -0.20096634 -0.14861798
-0.56730556 -0.093154155 -0.09878169 -0.12091212 0.24735017 -0.046590537 -0.46252227 -0.18244088
-0.11684406 0.37795758 0.16433015 -0.12173605 0.16236807 0.56392586 0.1902682 -0.2195305
-0.13240601 0.34284034 0.23776165 0.53586024 -0.2883514 0.06457002 0.19609001 0.049587965
0.02410824 0.12795825 -0.13936391 0.074895225 0.02748454 0.48348573 -0.32281822 0.10482668
0.00046214028 -0.19584678 0.13249317 0.122680575
00000000: 1e62 953d a24e 253e ca19 233e 5f60 2c3d
00000010: 8547 9a3d 3b28 ffbe 1a10 a7be ada1 06bc
00000020: c48a 05be c99b c93d ea83 45bd 5a1c 6fbd
00000030: d5c4 033f 2ec0 a7be 4a5b 2dbd 61c1 52be
00000040: 80e7 483e 78bf 1dbd 6357 923e 90e1 ba3c
00000050: ed15 883d 4b15 a1be 61bf bfbd ddc8 0b3e
00000060: c768 df3e 77b4 90be 8d38 ed3e df0b cabe
00000070: e86f 643e 4feb 40bd b79d 383e 1be0 b23e
00000080: 6a29 07bf 721d 363d b93b 433d dfae 21be
00000090: c75e ba3e 68a5 fdbd b3d7 483d f8e1 a13e
000000a0: 8aba 5dbe 71c5 debe 26d3 b83c 108e 2e3e
000000b0: e93a 6e3e 0434 35bd 012a e1be 2546 88be
000000c0: 91aa 033e 7e53 6fbe 2b10 1bbe d940 183e
000000d0: 542e bbbe 5a44 19be 4ab7 9f3d 1310 fa3b
000000e0: 0431 b53e abd2 aebe 192a 003e 6453 a13d
000000f0: a6fb 99be a1a2 62bd 1fca 4dbe 502f 18be
00000100: f03a 11bf 9bc7 bebd 0e4e cabd c6a0 f7bd
00000110: 5d49 7d3e b8d5 3ebd b8cf ecbe c8d1 3abe
00000120: f04b efbd a883 c13e 2a46 283e c050 f9bd
00000130: d143 263e 725d 103f abd5 423e 9acc 60be
00000140: 7195 07be c588 af3e ca77 733e 232e 093f
00000150: cba2 93be 493d 843d d2cb 483e c01c 4b3d
00000160: a57e c53c 7d07 033e 6ab5 0ebe ab62 993d
00000170: 4227 e13c 718b f73e 6e48 a5be 5faf d63d
00000180: 6b4b f239 0f8c 48be 4aac 073e f43f fb3d

fc2.weight f4 [100, 100]
0.072995886 0.64127034 -0.3170227 -0.4247803 -0.10694638 -0.61643636 -0.29764417 0.4620515
-0.089891694 -0.9434598 0.32385528 0.26158318 0.3273209 -0.24346453 0.44636345 0.5449838
-0.4781634 0.335747 0.51250756 0.11001087 0.10328138 -0.69171 0.30007562 -0.15310192
0.7050605 -0.05829472 0.46357703 0.080948435 0.5703222 0.037542947 -0.34505975 0.5479131
-0.73401827 0.035374753 -0.3693449 0.21868622 0.1468784 0.16543773 -0.043688152 0.4909005
-0.6005939 -0.47819513 -0.16158454 -0.07961899 0.5863911 0.107293576 -0.2945161 -0.34802142
0.38367587 -0.46179178 0.22671075 0.42465645 -0.3182012 0.16074984 0.053401396 0.6350682
0.16154057 0.21296325 -0.09801926 -0.27094057 -0.51729304 0.061880838 0.17898333 0.3771489
-0.6296715 -0.12173741 -0.0092539145 0.040601537 0.33692625 0.28155583 -0.63028806 -0.4503933
0.9792287 0.64731425 -0.05606752 0.13695744 0.72474986 0.47238177 -0.3014815 -0.3784578
-0.5570259 0.19954331 0.423694 0.6908719 0.13434479 -0.28812376 -0.08677523 0.19991203
0.006433655 -0.07386481 0.12838456 0.088821106 -0.33286938 0.50605446 -0.3399022 0.079189725
-0.035300545 -0.19525857 -0.17584091 0.032049432 -0.060958054 0.3921945 -0.6260259 -0.8332651
-0.37908185 -0.3909652 -0.044031195 0.77125365 -0.2959905 -1.181515 0.55706596 0.28206715
0.23043635 -0.07661362 0.7247708 0.79112726 -0.93825215 0.21622813 0.41373324 -0.3596982
0.60070175 -0.5035597 0.7216429 -0.60408205 0.44023746 0.22756378 0.1748387 -0.11410186
0.49237177 -0.15917689 -0.72857636 0.37276065 -0.4340749 0.14698356 0.033155162 -0.074867114
-0.101184264 0.4316947 -0.39832136 0.20173174 -0.45435438 -0.22804825 -0.41800773 0.024731327
0.8762081 0.17757058 -0.017567012 -0.25935245 0.42013282 -0.4648387 -0.011941964 0.025062282
-0.23177359 -0.19861741 0.30954996 0.41761214 -0.019105418 -0.22260082 0.09133777 -0.16299511
-0.18143575 0.36694732 -0.2184978 0.25660715 -0.45334524 0.1617841 0.5337807 -0.18600765
0.18096605 0.73242974 -0.30321637 -0.19892041 1.3457222 0.37281254 -0.192845 0.36198875
0.41811228 0.3203623 -0.47153106 -0.487877 -0.19688995 0.036430627 0.13631348 0.5092231
0.54191786 -0.57633454 -0.43309644 0.4658171 0.4485876 0.32767126 0.15609945 0.19949906
-0.54971206 0.25123495 -0.27852234 0.2363534 -0.3042563 -0.09984672 0.30028322 0.40865105
0.08793625 0.87968284 -0.29529643 -0.40940538 -0.1381391 -0.79042333 -0.3122756 0.59770554
-0.11521773 -0.79276323 0.3849112 0.28905225 0.3908945 -0.2767182 0.35123238 0.4906303
-0.5466695 0.68078965 0.6360782 -0.04126673 0.23427534 -1.0069721 0.35625294 -0.124628596
0.82281965 -0.025013914 0.5395263 0.28469115 0.9044788 0.13450198 -0.3735407 0.6312382
-0.9128764 0.5490607 -0.40999427 0.3649069 0.3372977 0.15999219 0.20536248 0.56853175
-0.8558396 -0.3985101 -0.24275565 -0.35831454 0.63957447 0.092143826 -0.37093046 -0.4497081
0.43180782 -0.62638825 0.40146345 0.50272876 -0.5824783 0.2162893 -0.021717587 0.7218759
00000000: de7e 953d 4b2a 243f cd50 a2be ce7c d9be
00000010: b406 dbbd c6ce 1dbf d164 98be 0492 ec3e
00000020: 2319 b8bd 9586 71bf 5cd0 a53e 3bee 853e
00000030: 9b96 a73e c44e 79be c089 e43e 0f84 0b3f
00000040: d5d1 f4be 08e7 ab3e b233 033f 614d e13d
00000050: 3085 d33d e813 31bf 83a3 993e c0c6 1cbe
00000060: d87e 343f 72c6 6ebd f859 ed3e 4bc8 a53d
00000070: a300 123f a2c6 193d acab b0be 0844 0c3f
00000080: 9fe8 3bbf 1ee5 103d c61a bdbe 48ef 5f3e
00000090: 4b67 163e 8268 293e 59f2 32bd 4f57 fb3e
000000a0: 86c0 19bf fed5 f4be 6b76 25be 480f a3bd
000000b0: ba1d 163f bcbc db3d d0ca 96be dd2f b2be
000000c0: 2a71 c43e f96f ecbe dd26 683e 926c d93e
000000d0: 45eb a2be 9b9b 243e 6cbb 5a3d d493 223f
000000e0: e46a 253e 0a13 5a3e 52be c8bd b9b8 8abe
000000f0: 516d 04bf c376 7d3d 6847 373e a919 c13e
00000100: 2732 21bf 7751 f9bd bb9d 17bc cc4d 263d
00000110: 9981 ac3e 1628 903e 8f5a 21bf f399 e6be
00000120: bbae 7a3f 63b6 253f 0ea7 65bd 923e 0c3e
00000130: 3589 393f 06dc f13e c85b 9abe 39c5 c1be
00000140: 4099 0ebf 1555 4c3e 6cee d83e fbdc 303f
00000150: ae91 093e f584 93be 36b7 b1bd bdb5 4c3e
00000160: 69d1 d23b 6f46 97bd 3e77 033e d7e7 b53d
00000170: db6d aabe c98c 013f a907 aebe 392e a23d
00000180: 4e97 10bd ddf1 47be a40f 34be 4446 033d
00000190: 27af 79bd b8cd c83e 3c43 20bf dd50 55bf
000001a0: 0417 c2be 972c c8be 0e5a 34bd e170 453f
000001b0: 118c 97be e23b 97bf e09b 0e3f 1b6b 903e
000001c0: 82f7 6b3e 9ae7 9cbd 948a 393f 5187 4a3f
000001d0: 4b31 70bf e86a 5d3e d8d4 d33e 5d2a b8be
000001e0: 97c7 193f 4ae9 00bf 97bd 383f 1fa5 1abf
000001f0: ce66 e13e 7b06 693e eb08 333e 3cae e9bd
00000200: 2718 fc3e 44ff 22be fb83 3abf 7cda be3e
00000210: 113f debe dc82 163e b5cd 073d ee53 99bd
00000220: b239 cfbd 1607 dd3e c7f0 cbbe c492 4e3e
00000230: 23a1 e8be 7b85 69be 1c05 d6be 5a99 ca3c
00000240: 2d4f 603f 10d5 353e b2e8 8fbc d8c9 84be
00000250: a61b d73e 57ff edbe 3aa8 43bc 6a4f cd3c
00000260: 0e56 6dbe 5d62 4bbe 557d 9e3e 42d1 d53e
00000270: f782 9cbc 78f1 63be 4c0f bb3d 31e8 26be
00000280: 4bca 39be 85e0 bb3e e3bd 5fbe 0362 833e
00000290: de1c e8be bbaa 253e daa5 083f ca78 3ebe
000002a0: 2a4f 393e 8480 3b3f 2d3f 9bbe cbb1 4bbe
000002b0: a040 ac3f 49e1 be3e 2979 45be 9756 b93e
000002c0: d012 d63e 8706 a43e 856c f1be 04cb f9be
000002d0: 859d 49be 4838 153d c395 0b3e 725c 023f
000002e0: 21bb 0a3f a98a 13bf d1be ddbe 947f ee3e
000002f0: 46ad e53e 87c4 a73e 89d8 1f3e 7b49 4c3e
00000300: eeb9 0cbf dea1 803e 7b9a 8ebe a006 723e
00000310: 7bc7 9bbe 707c ccbd b9be 993e b63a d13e
00000320: ec17 b43d e532 613f 1831 97be 959d d1be
00000330: 5674 0dbe 2f59 4abf 96e2 9fbe 3b03 193f
00000340: 46f7 ebbd 88f2 4abf 1513 c53e a8fe 933e
00000350: 5323 c83e 02ae 8dbe bbd4 b33e e533 fb3e
00000360: 88f2 0bbf 3b48 2e3f 05d6 223f 4d07 29bd
00000370: e0e5 6f3e 76e4 80bf c966 b63e 473d ffbd
00000380: 4fa4 523f fbe9 ccbc 651e 0a3f 0ac3 913e
00000390: ec8b 673f e3ba 093e ba40 bfbe d498 213f
000003a0: 45b2 69bf 3e8f 0c3f c5ea d1be 14d5 ba3e
000003b0: 49b2 ac3e fed4 233e 8b4a 523e 4c8b 113f
000003c0: 4e18 5bbf 8409 ccbe f094 78be 0175 b7be
000003d0: 27bb 233f e7b5 bc3d 99ea bdbe 2440 e6be
000003e0: ea15 dd3e fb5a 20bf 9e8c cd3e d5b2 003f
000003f0: 4c1d 15bf f17a 5d3e 15e9 b1bc dccc 383f

fc2.bias f4 [100]
0.82888514 0.54210335 1.0162245 -0.6064071 1.0799652 1.0029026 0.17415476 0.12523203
1.0988524 -0.94560915 0.14296648 -0.004190463 1.0093012 1.090254 -0.39832452 1.0282251
-1.0287639 -1.0123107 -1.0061535 -0.05733035 0.053129498 0.17619655 0.11250103 -0.6237434
-0.92300564 0.028346807 -0.0675958 1.064858 1.1498381 0.9139071 1.0601561 1.1407149
-0.503412 -1.1110537 -1.0536723 1.1132346 -1.000824 0.9619799 0.31061724 0.8191401
-0.17164995 -0.06329331 -1.0016578 0.053915936 0.79461336 1.0827096 1.0827544 1.107154
1.1089468 -0.81135136 -1.1007303 -0.89459896 -0.044535663 0.95304257 1.0416466 -0.18405089
-0.37649813 0.10558399 -0.543274 -0.8941033 1.0097709 1.1056299 1.0559973 0.7467491
0.24619049 0.15785895 -0.2964106 -0.9009234 -0.05531878 1.094422 -1.0332721 -0.9754866
0.9018599 0.96874875 -0.6860961 1.1049235 -1.1354411 -0.4243776 -1.072311 1.0442178
-0.93036354 -1.0408963 -1.0833164 0.122053504 -0.09044746 1.0675141 0.05709531 -0.94208544
0.9043437 1.1376883 0.98881817 -0.98510456 0.12949386 -1.0893838 -0.99059874 -1.102626
0.4991958 -0.99176055 -0.8804477 -0.10728727
00000000: d131 543f 49c7 0a3f a513 823f 7f3d 1bbf
00000010: 4d3c 8a3f 1d5f 803f a055 323e d33c 003e
00000020: 32a7 8c3f 7113 72bf ce65 123e 2750 89bb
00000030: c830 813f 718d 8b3f 31f1 cbbe e19c 833f
00000040: 89ae 83bf 6693 81bf a3c9 80bf 3bd3 6abd
00000050: 519e 593d de6c 343e f166 e63d a6ad 1fbf
00000060: 194a 6cbf 9037 e83c ab6f 8abd 444d 883f
00000070: e52d 933f d1f5 693f 32b3 873f f202 923f
00000080: 9cdf 00bf 0237 8ebf bcde 86bf 797e 8e3f
00000090: 001b 80bf 5144 763f 3909 9f3e 2ab3 513f
000000a0: 01c5 2fbe ec9f 81bd 5336 80bf f5d6 5c3d
000000b0: c86b 4b3f 3a96 8a3f b297 8a3f 39b7 8d3f
000000c0: f8f1 8d3f b9b4 4fbf bbe4 8cbf 7004 65bf
000000d0: 076b 36bd 99fa 733f ad54 853f d677 3cbe
000000e0: 5dc4 c0be 6b3c d83d 0114 0bbf f4e3 64bf
000000f0: 2c40 813f 4885 8d3f eb2a 873f f32a 3f3f
00000100: 5c19 7c3e c7a5 213e 21c3 97be eaa2 66bf
00000110: f295 62bd 0516 8c3f 4342 84bf 7db9 79bf
00000120: 4ae0 663f ebff 773f fea3 2fbf 226e 8d3f
00000130: 2256 91bf 0548 d9be 7d41 89bf eea8 853f
00000140: 4e2c 6ebf 173c 85bf 1daa 8abf 30f7 f93d
00000150: 853c b9bd 4da4 883f c6dc 693d 832c 71bf
00000160: 1283 673f c59f 913f 3023 7d3f d02f 7cbf
00000170: 0a9a 043e ee70 8bbf e197 7dbf d922 8dbf
00000180: 9896 ff3e 05e4 7dbf 0565 61bf 6eb9 dbbd

fc3.weight f4 [2, 100]
-1.9444392 -1.998334 -1.9776288 2.2088554 -2.0273998 -2.013813 2.99508 3.1122248
-1.9383295 1.9509205 3.201595 3.0726385 -2.0384383 -2.0283873 -4.1721463 -1.9596615
3.295567 1.9187647 1.9689533 -3.2499342 3.26149 -3.0094414 -1.1562964 1.9945596
1.9452298 3.0907648 -3.1067238 -1.9426514 -1.9630741 -2.0019817 -1.8966899 -2.037945
2.033753 1.9465866 2.043617 -1.971939 1.9179443 -1.9510404 -2.0034478 -1.9921935
3.3760147 3.093721 2.082547 3.078022 -2.0541131 -1.9857075 -2.0020843 -1.9345942
-2.0073562 1.9347751 2.0332344 1.934016 -3.066859 -2.3983302 -2.0385969 -3.1468434
4.479185 3.0296474 2.133705 1.9334067 -1.991184 -2.038493 -1.9871078 -1.9600784
-3.428617 3.2502112 3.3976767 3.058046 -3.1272995 -2.0530305 2.0646229 2.0381687
-1.9310136 -2.0214891 1.9969596 -2.0213928 2.055725 3.7372057 2.0079594 -2.0025444
1.9688884 2.0378215 1.9977719 -4.7096243 3.381937 -2.0359714 -3.0490024 2.0177228
-1.967866 -3.367806 -1.9399776 1.9346683 3.219134 1.9212052 2.0004668 1.9564431
-2.06506 1.9456121 1.953032 -3.1269696 -2.8595273 -3.088128 -2.8484764 3.3254714
-2.8713667 -2.6783788 3.4437296 3.2378237 -2.91535 2.9016669 3.3791568 3.1820703
-2.752495 -2.7362638 -0.51198846 -2.83227 4.262168 2.9152052 2.8609142 -3.55127
3.3383675 -3.180196 3.0112634 3.016553 2.8767776 3.2574677 -3.2285209 -2.881417
-2.860784 -2.6384938 -2.8484826 -2.7885187 3.1445885 2.8417366 2.7220442 -2.8246548
2.8582888 -2.8524723 -3.3188503 -2.619561 -0.15479504 3.1510775 2.6894495 3.1780205
-2.6262994 -2.869137 -2.8348858 -2.9007738 -2.6651092 2.8795002 2.758369 2.8561945
-3.2020295 -3.4610686 -2.733436 -3.2945676 -0.5168087 3.183496 3.2706373 2.8901558
-2.818251 -2.780308 -2.6520002 -2.8970578 0.15979633 3.0482397 -0.2314229 4.0801244
-3.3387744 -2.8528552 2.8182485 2.7334936 -2.8643186 -2.6495714 2.9436178 -2.8320682
2.740924 -0.5855332 2.6552238 -2.6621296 2.8720129 2.770737 2.8062413 -2.2502294
-0.22480619 -2.7576015 -3.1613386 2.9832895 -2.8487337 -4.2877088 -2.8596568 2.8730483
3.3214757 2.85223 2.65743 2.8421655 -3.2110224 2.8393621 2.8964827 -3.2858727
00000000: 62e3 f8bf 69c9 ffbf f122 fdbf e35d 0d40
00000010: ebc0 01c0 50e2 00c0 64af 3f40 b12e 4740
00000020: 2e1b f8bf c3b7 f93f efe6 4c40 1ca6 4440
00000030: c675 02c0 19d1 01c0 3982 85c0 30d6 fabf
00000040: 92ea 5240 159a f53f a906 fc3f ecfe 4fc0
00000050: 41bc 5040 b09a 40c0 8501 94bf bb4d ff3f
00000060: 4afd f83f 17cf 4540 90d4 46c0 cda8 f8bf
00000070: 0346 fbbf 7820 00c0 bcc6 f2bf b16d 02c0
00000080: 0229 0240 c029 f93f 9fca 0240 7f68 fcbf
00000090: 337f f53f b1bb f9bf 7d38 00c0 3200 ffbf
000000a0: a010 5840 86ff 4540 7348 0540 50fe 4440
000000b0: 9776 03c0 aa2b febf 2622 00c0 c8a0 f7bf
000000c0: 8678 00c0 b6a6 f73f 8320 0240 d68d f73f
000000d0: 6b47 44c0 3e7e 19c0 5f78 02c0 e265 49c0
000000e0: 7c55 8f40 bee5 4140 9f8e 0840 df79 f73f
000000f0: 1edf febf ab76 02c0 8c59 febf d9e3 fabf
00000100: 766e 5bc0 7603 5040 8973 5940 07b7 4340
00000110: ad25 48c0 da64 03c0 c822 0440 5b71 0240
00000120: 742b f7bf 1460 01c0 5f9c ff3f 805e 01c0
00000130: 0091 0340 612e 6f40 6882 0040 b029 00c0
00000140: 8904 fc3f ab6b 0240 fdb6 ff3f 3eb5 96c0
00000150: a871 5840 5b4d 02c0 db22 43c0 5f22 0140
00000160: 08e3 fbbf 228a 57c0 3051 f8bf 36a3 f73f
00000170: 4b06 4e40 0dea f53f a607 0040 ba6c fa3f
00000180: f129 04c0 d109 f93f f4fc f93f 4520 48c0
00000190: 7f02 37c0 e4a3 45c0 704d 36c0 86d4 5440
000001a0: 79c4 37c0 8f6a 2bc0 1166 5c40 8138 4f40
000001b0: 1895 3ac0 e9b4 3940 1b44 5840 0aa7 4b40
000001c0: e128 30c0 f21e 2fc0 ad11 03bf e943 35c0
000001d0: ae63 8840 b992 3a40 3819 3740 0248 63c0
000001e0: d0a7 5540 5588 4bc0 8ab8 4040 340f 4140
000001f0: 201d 3840 5a7a 5040 16a0 4ec0 2369 38c0
00000200: 1617 37c0 15dd 28c0 8a4d 36c0 1777 32c0
00000210: f040 4940 03df 3540 f935 2e40 25c7 34c0
00000220: 34ee 3640 e88e 36c0 0b68 54c0 e3a6 27c0
00000230: 9782 1ebe 41ab 4940 f11f 2c40 b064 4b40
00000240: 4a15 28c0 f19f 37c0 c56e 35c0 47a6 39c0
00000250: 2691 2ac0 bb49 3840 1e89 3040 e4cb 3640
00000260: 0dee 4cc0 2682 5dc0 9ef0 2ec0 32da 52c0
00000270: 934d 04bf 66be 4b40 1f52 5140 50f8 3840
00000280: 395e 34c0 91f0 31c0 5fba 29c0 6569 39c0
00000290: a6a1 233e 5c16 4340 20fa 6cbe 6190 8240
000002a0: 7bae 55c0 2e95 36c0 2f5e 3440 8ff1 2e40
000002b0: ff50 37c0 9492 29c0 3c64 3c40 9b40 35c0
000002c0: 4c6b 2f40 81e5 15bf 30ef 2940 5560 2ac0
000002d0: 0fcf 3740 c153 3140 7599 3340 c203 10c0
000002e0: 9833 66be 8b7c 30c0 5f53 4ac0 37ee 3e40
000002f0: a751 36c0 e934 89c0 9e04 37c0 06e0 3740
00000300: 0f93 5440 f08a 3640 5513 2a40 0ae6 3540
00000310: 6481 4dc0 1cb8 3540 f95f 3940 bd4b 52c0

fc3.bias f4 [2]
-1.8833458 -2.6377993
00000000: 7a11 f1bf b4d1 28c0

fc1.weight f4 [100, 22]
-2.3530774e-24 1.1362869e-22 -1.4819061e-23 1.1702835e-23 -3.8285707e-24 -7.522653e-24 -1.0113181e-23 -7.763748e-24
-1.2363519e-23 -5.6224e-41 2.22785e-40 7.44413e-40 3.9315e-40 -1.12153e-39 8.31256e-40 -1.719934e-39
7.50887e-40 -4.78207e-40 -8.90504e-40 -2.09748e-39 -9.28238e-40 1.6716975e-38 1.2596619e-08 -3.286017e-10
4.6564402e-10 -1.1251423e-09 -8.245229e-10 -4.591129e-09 -3.9519037e-09 -2.1795923e-09 -3.4592458e-09 1.42899e-40
-1.334908e-39 1.61093e-39 1.677054e-39 2.08023e-40 -9.59414e-40 1.252523e-39 -1.095328e-39 -1.493072e-39
-1.036043e-39 -1.524204e-39 -1.762323e-39 -1.132539e-39 -7.8485836e-14 -1.775094e-13 9.874617e-13 2.5974017e-13
-1.2081115e-12 4.311628e-14 6.0606115e-14 1.2400713e-13 7.6854565e-14 1.770902e-39 -3.0016e-41 1.611314e-39
-9.58838e-40 -7.00426e-40 -1.04974e-40 -6.16136e-40 -1.04725e-40 1.310662e-39 -6.6183e-41 1.106954e-39
1.84287e-39 7.54833e-40 7.415549e-13 1.6948519e-15 -1.06380704e-13 -2.7990988e-14 -3.5064457e-14 -2.14935e-13
-1.9491838e-13 -1.1727724e-13 -1.7745888e-13 -5.07339e-40 8.96094e-40 1.3091e-39 -1.938154e-39 4.8995e-40
-1.129818e-39 7.27701e-40 1.360715e-39 4.3249e-40 1.947284e-39 7.83222e-40 -2.32576e-40 -6.84314e-40
-0.11027076 0.00562527 0.004310017 0.008105602 0.0054380577 0.05025253 0.044902693 0.028250424
0.040559627 -4.80481e-40 1.423439e-39 -4.80047e-40 2.146229e-39 9.8004e-41 3.48988e-40 -2.21752e-39
2.040253e-39 -4.89657e-40 -8.48552e-40 2.040945e-39 1.378616e-39 -1.491141e-39 4.08068e-40 2.49578e-40
8.03797e-40 -4.08268e-40 8.36512e-40 9.80466e-40 5.70166e-40 6.0581e-41 2.93838e-40 -9.40964e-40
-8.92337e-40 -5.40534e-40 2.011088e-39 1.29675e-40 -1.695979e-39 8.76296e-40 1.7861e-39 -2.309619e-39
2.30404e-40 -2.055809e-39 1.797566e-39 -1.889867e-39 1.5206194e-26 -2.3136245e-25 6.7497355e-26 -3.089081e-26
2.2905101e-25 -5.7844e-27 -6.790737e-27 -1.07540246e-26 -7.5533e-27 -1.828163e-39 8.6565e-40 4.64023e-40
1.531916e-39 -6.36e-41 2.77907e-40 -3.50358e-40 -3.88657e-40 9.55925e-40 -1.023539e-39 7.73898e-40
-7.86822e-40 3.4270039e-37 -4.005054e-14 -7.091172e-13 4.957016e-12 8.518247e-13 -1.6288147e-12 -7.13942e-13
-5.236474e-13 -2.3932757e-13 -2.8538348e-13 1.91636e-39 1.493833e-39 1.581033e-39 -1.357263e-39 1.704175e-39
-8.14622e-40 5.56125e-40 -6.7365e-41 5.66071e-40 1.682417e-39 1.04044e-40 -7.19662e-40 1.053128e-39
1.8503312e-22 2.6799095e-21 -1.0650119e-20 -1.680952e-21 2.6935598e-21 -4.8759833e-23 -3.0995463e-22 -5.426116e-22
-5.3282983e-22 1.79644e-40 -1.047322e-39 -1.309767e-39 -1.34488e-39 -1.813747e-39 1.957784e-39 -1.070274e-39
1.384062e-39 -1.44435e-39 -1.91726e-39 -1.89809e-39 -1.019588e-39 -1.222917e-39 -0.11102869 0.005623215
0.004314774 0.008095555 0.0054363143 0.050601978 0.045210995 0.028437022 0.04083527 -8.4353e-41
-1.991691e-39 -4.75206e-40 -1.293099e-39 -1.991808e-39 6.38144e-40 4.61911e-40 1.375349e-39 -6.7984e-40
-1.085e-40 9.14067e-40 1.061353e-39 -9.97753e-40 0.11102869 -0.005623215 -0.004314774 -0.008095555
-0.0054363143 -0.050601978 -0.045210995 -0.028437022 -0.04083527 6.14801e-40 8.53815e-40 -4.77788e-40
-1.99322e-40 5.22588e-40 2.045188e-39 -4.73273e-40 9.76778e-40 1.585695e-39 -2.176916e-39 1.980796e-39
-3.4293e-41 3.25942e-40 0.11102869 -0.005623215 -0.004314774 -0.008095555 -0.0054363143 -0.050601978
-0.045210995 -0.028437022 -0.04083527 -2.13042e-40 -1.187481e-39 1.21644e-40 9.77191e-40 6.2605e-40
00000000: 800f 3698 605e 091b 3852 8f99 a25d 6219
00000010: 541c 9498 6082 1199 0c9e 4399 382c 1699
00000020: 2e25 6f99 bb9c 0080 096d 0200 1f1b 0800
00000030: f147 0400 5f36 0c80 340d 0900 7aba 1280
00000040: 2b2d 0800 0c35 0580 5db2 0980 ecd6 1680
00000050: 8d1b 0a80 2008 b600 8468 5832 94a6 b4af
00000060: 92fd ff2f 6da3 9ab0 a4a4 62b0 ffbf 9db1
00000070: 50c9 87b1 cbc7 15b1 b2b7 6db1 588e 0100
00000080: 2e89 0e80 9e8a 1100 f242 1200 e243 0200
00000090: 7572 0a80 86a3 0d00 54ed 0b80 1442 1080
000000a0: 1148 0b80 dc98 1080 a430 1380 0f55 0c80
000000b0: 01bc b0a9 9adb 47aa 0ff9 8a2b 8138 922a
000000c0: ce06 aaab b02d 4229 0c79 8829 9f9e 0b2a
000000d0: a40f ad29 8e48 1300 ac53 0080 b08b 1100
000000e0: da70 0a80 81a0 0780 a024 0180 89b5 0680
000000f0: ee23 0180 9845 0e00 7eb8 0080 bd0d 0c00
00000100: 2c11 1400 2b38 0800 a9ba 502b 0041 f426
00000110: 4d8c efa9 d31e fca8 91ea 1da9 ccfe 71aa
00000120: 6675 5baa dd0a 04aa 0acd 47aa 4186 0580
00000130: f2c1 0900 3d41 0e00 c91a 1580 c855 0500
00000140: 794d 0c80 89ec 0700 1fd1 0e00 9bb5 0400
00000150: 3c34 1500 4e87 0800 5488 0280 9773 0780
00000160: a3d5 e1bd 2f54 b83b 0b3b 8d3b 5ccd 043c
00000170: bc31 b23b 99d5 4d3d e3eb 373d 6f6d e73c
00000180: da21 263d 633b 0580 f87f 0f00 2d3a 0580
00000190: d05e 1700 3211 0100 d6cc 0300 8b25 1880
000001a0: 6537 1600 f754 0580 6b3d 0980 5339 1600
000001b0: 0503 0f00 b23c 1080 8771 0400 b9b7 0200
000001c0: a9c0 0800 1672 0480 db1b 0900 24ad 0a00
000001d0: 6435 0600 e0a8 0000 1a33 0300 063f 0a80
000001e0: 79b7 0980 cae2 0580 18e6 1500 7b69 0100
000001f0: b377 1280 c28a 0900 ec72 1300 4726 1980
00000200: 4682 0200 c262 1680 e292 1300 2e94 1480
00000210: 4898 9614 d834 8f96 881d a715 c1f6 1895
00000220: 95c6 8d16 c924 e593 2181 0694 6201 5594
00000230: c89b 1594 2de8 1380 146d 0900 820d 0500
00000240: 5cae 1000 4ab1 0080 b106 0300 a8d0 0380
00000250: 6b3b 0480 bb68 0a00 3625 0b80 506d 0800
00000260: 5791 0880 d43a e902 215f 34a9 4899 47ab
00000270: d568 ae2c 70c4 6f2b 3c3c e5ab f1f4 48ab
00000280: c664 13ab bdba 86aa 18a8 a0aa 08de 1400
00000290: 3344 1000 4737 1100 7fc7 0e80 8c8e 1200
000002a0: d6de 0880 400e 0600 c9bb 0080 fa29 0600
000002b0: e551 1200 0822 0100 20d6 0780 b177 0b00
000002c0: fab0 5f1b fd7c 4a1d d12c 499e ae04 fe9c
000002d0: 0685 4b1d c0c9 6b9a 285b bb9b 8afe 239c
000002e0: b609 219c c6f4 0100 8267 0b80 1943 0e80
000002f0: faa4 0e80 fdbf 1380 8151 1500 7da7 0b80
00000300: 3412 0f00 43ba 0f80 8ae0 1480 1aab 1480
00000310: 321a 0b80 ff50 0d80 0363 e3bd f242 b83b
00000320: f362 8d3b 38a3 043c 1c23 b23b 0544 4f3d
00000330: 2a2f 393d c2f4 e83c e242 273d 24eb 0080
00000340: 06b0 1580 ae2c 0580 a214 0e80 5ab0 1580
00000350: e3f2 0600 9f07 0500 eaf9 0e00 1e67 0780
00000360: 742e 0180 0cf4 0900 9f8e 0b00 54dd 0a80
00000370: 0363 e33d f242 b8bb f362 8dbb 38a3 04bc
00000380: 1c23 b2bb 0544 4fbd 2a2f 39bd c2f4 e8bc
00000390: e242 27bd d1b1 0600 174c 0900 e133 0580
000003a0: a12b 0280 c3b0 0500 2745 1600 4b27 0580
000003b0: dca2 0a00 4644 1100 5bb4 1780 a791 1500
000003c0: 985f 0080 988c 0300 0363 e33d f242 b8bb
000003d0: f362 8dbb 38a3 04bc 1c23 b2bb 0544 4fbd
000003e0: 2a2f 39bd c2f4 e8bc e242 27bd e051 0280
000003f0: 37ee 0c80 1853 0100 03a4 0a00 2cd1 0600

fc1.bias f4 [100]
-6.742626e-24 1.6049427e-08 4.5205904e-14 1.0615174e-12 -0.13749373 -3.3453e-41 -8.433708e-27 4.1436993e-13
-1.5715995e-21 -0.1386954 0.1386954 0.1386954 -5.157169e-07 0.1386954 -0.1386954 0.1386954
-0.1386954 -0.1386954 1.4521201e-10 -0.1386954 1.3059759e-22 7.659457e-27 7.855507e-06 -2.5381485e-16
-0.00013038453 2.5719912e-12 -5.69619e-10 -0.1386954 1.0305505e-11 0.1386954 6.8549664e-09 -1.0894422e-24
-2.4356309e-11 0.1386954 -2.0231818e-12 1.8824723e-17 -1.7906029e-08 3.4630256e-07 -8.590466e-22 -1.4702738e-10
6.1341904e-11 1.7271599e-11 -1.319877e-09 1.3369188e-19 -3.5483645e-12 -3.4369156e-09 0.1386954 -0.1386954
1.6038962e-11 -0.1386954 -0.1386954 -0.1386954 0.1386954 -1.991037e-21 1.2107003e-20 -0.1386954
-2.8190777e-07 -6.932819e-11 0.1386954 -2.2230113e-21 0.1386954 -3.2369974e-07 0.1386954 -8.0081686e-10
0.1386954 -3.7306693e-19 -3.9759128e-16 -0.1386954 0.1386954 4.016156e-05 1.10487534e-16 0.1386954
5.635136e-09 -0.1386954 -0.1386954 0.1386954 0.1386954 -0.1386954 -2.6375684e-09 2.5139293e-10
3.471561e-23 3.0013893e-16 2.4748711e-10 0.1386954 -6.2943564e-19 0.1386954 1.4628133e-26 -1.6286805e-09
0.1386954 3.595405e-20 1.5632606e-23 8.13757e-09 -0.00033385208 0.1386954 -0.1386954 0.1386954
9.228651e-19 2.9580454e-07 -4.9859197e-18 -0.13869537
00000000: de6b 0299 10dd 8932 dc96 4b29 3265 952b
00000010: 28cb 0cbe 415d 0080 fb0b 2794 0045 e92a
00000020: 507e ed9c 2b06 0ebe 2b06 0e3e 2b06 0e3e
00000030: cc6f 0ab5 2b06 0e3e 2b06 0ebe 2b06 0e3e
00000040: 2b06 0ebe 2b06 0ebe 8ca9 1f2f 2b06 0ebe
00000050: ffe1 1d1b 10b6 1714 25cb 0337 7650 92a5
00000060: d5b7 08b9 e0fc 342c 6093 1cb0 2b06 0ebe
00000070: de4b 352d 2b06 0e3e ec88 eb31 4095 a897
00000080: 883d d6ad 2b06 0e3e 675e 0eac 9fa0 ad23
00000090: c6cf 99b2 76eb b934 c1d0 819c 87a8 21af
000000a0: 6ce4 862e 2fec 972d 0b67 b5b0 e4d5 1d20
000000b0: a7b1 79ac dc2e 6cb1 2b06 0e3e 2b06 0ebe
000000c0: 8814 8d2d 2b06 0ebe 2b06 0ebe 2b06 0ebe
000000d0: 2b06 0e3e 4270 169d e0b1 641e 2b06 0ebe
000000e0: 1c59 97b4 4d74 98ae 2b06 0e3e 4bf7 279d
000000f0: 2b06 0e3e f4c8 adb4 2b06 0e3e 7a20 5cb0
00000100: 2b06 0e3e 4838 dca0 1e32 e5a5 2b06 0ebe
00000110: 2b06 0e3e 2673 2838 54c4 fe24 2b06 0e3e
00000120: 2e9f c131 2b06 0ebe 2b06 0ebe 2b06 0e3e
00000130: 2b06 0e3e 2b06 0ebe 9840 35b1 6934 8a2f
00000140: d8df 271a b004 ad25 b70e 882f 2b06 0e3e
00000150: d0c6 39a1 2b06 0e3e b9de 9014 1ad8 dfb0
00000160: 2b06 0e3e c8c9 291f 7530 9719 69cd 0b32
00000170: de08 afb9 2b06 0e3e 2b06 0ebe 2b06 0e3e
00000180: dc30 8821 11cf 9e34 aef2 b7a2 2906 0ebe

fc2.weight f4 [100, 100]
-2.4489698e-23 -2.3967164e-09 2.4019214e-13 -1.3721569e-13 0.020725027 -4.12846e-40 5.2962075e-26 5.6173946e-13
-2.1821012e-21 0.020881034 -0.020881034 -0.020881034 1.8048773e-06 -0.020881034 0.020881034 -0.020881034
0.020881034 0.020881034 9.71622e-10 0.020881034 -6.896597e-22 -4.3265754e-27 -1.5791085e-05 6.948896e-17
9.869473e-05 1.4822074e-11 8.140092e-11 0.020881034 -1.270733e-11 -0.020881034 1.5959658e-08 8.039002e-24
1.5726384e-10 -0.020881034 2.2009884e-13 1.4087308e-18 2.6479818e-09 -5.2904625e-08 -1.5693367e-21 -4.6133455e-11
-1.16397114e-10 -3.0379567e-11 1.8878696e-10 -1.690907e-20 -4.767931e-14 5.0725213e-10 -0.020881034 0.020881034
9.2489044e-11 0.020881034 0.020881034 0.020881034 -0.020881034 -1.3844398e-21 2.7877046e-20 0.020881034
2.4585052e-08 8.196591e-12 -0.020881034 -3.926298e-21 -0.020881034 1.0636157e-06 -0.020881034 -9.827259e-09
-0.020881034 -1.1402695e-17 -1.2006097e-15 0.020881034 -0.020881034 -0.00037645915 -9.8709514e-17 -0.020881034
-7.936623e-10 0.020881034 0.020881034 -0.020881034 -0.020881034 0.020881034 -2.7931435e-10 -3.5607226e-11
-1.2492108e-22 2.3774008e-15 -3.5054053e-11 -0.020881034 2.3248019e-18 -0.020881034 4.583974e-26 2.3545596e-10
-0.020881034 1.7493656e-19 2.490072e-23 9.833618e-10 -0.00061653124 -0.020881034 0.020881034 -0.020881034
6.506694e-19 1.1215261e-06 -1.34649345e-17 0.02088103 -2.4489698e-23 -2.3967164e-09 2.4019214e-13 -1.3721569e-13
0.020725027 9.82952e-40 5.2962075e-26 5.6173946e-13 -2.1821012e-21 0.020881034 -0.020881034 -0.020881034
1.8048773e-06 -0.020881034 0.020881034 -0.020881034 0.020881034 0.020881034 9.71622e-10 0.020881034
-6.896597e-22 -4.3265754e-27 -1.5791085e-05 6.948896e-17 9.869473e-05 1.4822074e-11 8.140092e-11 0.020881034
-1.270733e-11 -0.020881034 1.5959658e-08 8.039002e-24 1.5726384e-10 -0.020881034 2.2009884e-13 1.4087308e-18
2.6479818e-09 -5.2904625e-08 -1.5693367e-21 -4.6133455e-11 -1.16397114e-10 -3.0379567e-11 1.8878696e-10 -1.690907e-20
-4.767931e-14 5.0725213e-10 -0.020881034 0.020881034 9.2489044e-11 0.020881034 0.020881034 0.020881034
-0.020881034 -1.3844398e-21 2.7877046e-20 0.020881034 2.4585052e-08 8.196591e-12 -0.020881034 -3.926298e-21
-0.020881034 1.0636157e-06 -0.020881034 -9.827259e-09 -0.020881034 -1.1402695e-17 -1.2006097e-15 0.020881034
-0.020881034 -0.00037645915 -9.8709514e-17 -0.020881034 -7.936623e-10 0.020881034 0.020881034 -0.020881034
-0.020881034 0.020881034 -2.7931435e-10 -3.5607226e-11 -1.2492108e-22 2.3774008e-15 -3.5054053e-11 -0.020881034
2.3248019e-18 -0.020881034 4.583974e-26 2.3545596e-10 -0.020881034 1.7493656e-19 2.490072e-23 9.833618e-10
-0.00061653124 -0.020881034 0.020881034 -0.020881034 6.506694e-19 1.1215261e-06 -1.34649345e-17 0.02088103
-2.4489698e-23 -2.3967164e-09 2.4019214e-13 -1.3721569e-13 0.020725027 -2.1594e-40 5.2962075e-26 5.6173946e-13
-2.1821012e-21 0.020881034 -0.020881034 -0.020881034 1.8048773e-06 -0.020881034 0.020881034 -0.020881034
0.020881034 0.020881034 9.71622e-10 0.020881034 -6.896597e-22 -4.3265754e-27 -1.5791085e-05 6.948896e-17
9.869473e-05 1.4822074e-11 8.140092e-11 0.020881034 -1.270733e-11 -0.020881034 1.5959658e-08 8.039002e-24
1.5726384e-10 -0.020881034 2.2009884e-13 1.4087308e-18 2.6479818e-09 -5.2904625e-08 -1.5693367e-21 -4.6133455e-11
-1.16397114e-10 -3.0379567e-11 1.8878696e-10 -1.690907e-20 -4.767931e-14 5.0725213e-10 -0.020881034 0.020881034
9.2489044e-11 0.020881034 0.020881034 0.020881034 -0.020881034 -1.3844398e-21 2.7877046e-20 0.020881034
00000000: 8ed9 ec99 7bb3 24b1 5637 872a bb7d 1aaa
00000010: 88c7 a93c d97e 0480 b420 8315 981d 1e2b
00000020: fadf 249d b40e ab3c b40e abbc b40e abbc
00000030: 1d3f f235 b40e abbc b40e ab3c b40e abbc
00000040: b40e ab3c b40e ab3c e989 8530 b40e ab3c
00000050: d66f 509c b064 ab93 1977 84b7 0b3b a024
00000060: 54fa ce38 5860 822d a500 b32e b40e ab3c
00000070: ba8c 5fad b40e abbc a917 8932 367f 1b19
00000080: d6e9 2c2f b40e abbc 2ccf 772a 58e4 cf21
00000090: caf7 3531 4039 63b3 c626 ed9c a7e5 4aae
000000a0: c0f5 ffae 5a9c 05ae ce92 4f2f 9fb3 9f9e
000000b0: 80ba 56a9 b26e 0b30 b40e abbc b40e ab3c
000000c0: b462 cb2e b40e ab3c b40e ab3c b40e ab3c
000000d0: b40e abbc ec35 d19c 48a5 031f b40e ab3c
000000e0: 1a2f d332 2a32 102d b40e abbc d354 949d
000000f0: b40e abbc 8fc1 8e35 b40e abbc bed4 28b2
00000100: b40e abbc b457 52a3 ae06 ada6 b40e ab3c
00000110: b40e abbc 7e5f c5b9 d09b e3a4 b40e abbc
00000120: 0529 5ab0 b40e ab3c b40e ab3c b40e abbc
00000130: b40e abbc b40e ab3c 008e 99af 2c9a 1cae
00000140: 3405 179b 4e4f 2b27 5b2b 1aae b40e abbc
00000150: 448a 2b22 b40e abbc c6fc 6215 7b71 812f
00000160: b40e abbc 5587 4e20 32d3 f019 f826 8730
00000170: b69e 21ba b40e abbc b40e ab3c b40e abbc
00000180: 310b 4021 5887 9635 5b62 78a3 b20e ab3c
00000190: 8ed9 ec99 7bb3 24b1 5637 872a bb7d 1aaa
000001a0: 88c7 a93c 12b4 0a00 b420 8315 981d 1e2b
000001b0: fadf 249d b40e ab3c b40e abbc b40e abbc
000001c0: 1d3f f235 b40e abbc b40e ab3c b40e abbc
000001d0: b40e ab3c b40e ab3c e989 8530 b40e ab3c
000001e0: d66f 509c b064 ab93 1977 84b7 0b3b a024
000001f0: 54fa ce38 5860 822d a500 b32e b40e ab3c
00000200: ba8c 5fad b40e abbc a917 8932 367f 1b19
00000210: d6e9 2c2f b40e abbc 2ccf 772a 58e4 cf21
00000220: caf7 3531 4039 63b3 c626 ed9c a7e5 4aae
00000230: c0f5 ffae 5a9c 05ae ce92 4f2f 9fb3 9f9e
00000240: 80ba 56a9 b26e 0b30 b40e abbc b40e ab3c
00000250: b462 cb2e b40e ab3c b40e ab3c b40e ab3c
00000260: b40e abbc ec35 d19c 48a5 031f b40e ab3c
00000270: 1a2f d332 2a32 102d b40e abbc d354 949d
00000280: b40e abbc 8fc1 8e35 b40e abbc bed4 28b2
00000290: b40e abbc b457 52a3 ae06 ada6 b40e ab3c
000002a0: b40e abbc 7e5f c5b9 d09b e3a4 b40e abbc
000002b0: 0529 5ab0 b40e ab3c b40e ab3c b40e abbc
000002c0: b40e abbc b40e ab3c 008e 99af 2c9a 1cae
000002d0: 3405 179b 4e4f 2b27 5b2b 1aae b40e abbc
000002e0: 448a 2b22 b40e abbc c6fc 6215 7b71 812f
000002f0: b40e abbc 5587 4e20 32d3 f019 f826 8730
00000300: b69e 21ba b40e abbc b40e ab3c b40e abbc
00000310: 310b 4021 5887 9635 5b62 78a3 b20e ab3c
00000320: 8ed9 ec99 7bb3 24b1 5637 872a bb7d 1aaa
00000330: 88c7 a93c f459 0280 b420 8315 981d 1e2b
00000340: fadf 249d b40e ab3c b40e abbc b40e abbc
00000350: 1d3f f235 b40e abbc b40e ab3c b40e abbc
00000360: b40e ab3c b40e ab3c e989 8530 b40e ab3c
00000370: d66f 509c b064 ab93 1977 84b7 0b3b a024
00000380: 54fa ce38 5860 822d a500 b32e b40e ab3c
00000390: ba8c 5fad b40e abbc a917 8932 367f 1b19
000003a0: d6e9 2c2f b40e abbc 2ccf 772a 58e4 cf21
000003b0: caf7 3531 4039 63b3 c626 ed9c a7e5 4aae
000003c0: c0f5 ffae 5a9c 05ae ce92 4f2f 9fb3 9f9e
000003d0: 80ba 56a9 b26e 0b30 b40e abbc b40e ab3c
000003e0: b462 cb2e b40e ab3c b40e ab3c b40e ab3c
000003f0: b40e abbc ec35 d19c 48a5 031f b40e ab3c

fc2.bias f4 [100]
-0.07598106 -0.07598106 -0.07598106 0.07598106 0.07598106 -0.07598106 0.07598106 0.07598106
-0.07598106 -0.07598106 -0.07598106 0.07598106 0.07598106 0.07598106 -0.07598106 -0.07598106
-0.07598106 0.07598106 0.07598106 0.07598106 -0.07598106 0.07598106 -0.07598106 -0.07598106
0.07598106 1.3004168e-18 0.07598106 -0.07598106 0.07598106 -0.07598106 -0.07598106 0.07598106
0.07598106 -0.07598106 -0.07598106 -0.07598106 -0.07598106 0.07598106 0.07598106 0.07598106
0.07598106 0.07598106 -0.07598106 -0.07598106 -0.07598106 -0.07598106 0.07598106 0.07598106
0.07598106 0.07598106 0.07598106 -0.07598106 0.07598106 0.07598106 0.07598106 -0.07598106
0.07598106 -0.07598106 0.07598106 0.07598106 -0.07598106 -0.07598106 0.07598106 -0.07598106
0.07598106 -0.07598106 -0.07598106 0.07598106 -0.07598106 -0.07598106 0.07598106 8.142582e-06
0.07598106 -0.07598106 -0.07598106 -0.07598106 0.07598106 -0.07598106 0.07598106 0.07598106
-8.7434254e-11 0.07598106 0.07598106 0.07598106 0.07598106 0.07598106 -0.07598106 -4.7727352e-17
0.07598106 -0.07598106 -0.07598106 0.07598106 0.07598106 0.07598106 0.07598106 0.07598106
-0.07598106 0.07598106 -0.07598106 0.07598106
00000000: f59b 9bbd f59b 9bbd f59b 9bbd f59b 9b3d
00000010: f59b 9b3d f59b 9bbd f59b 9b3d f59b 9b3d
00000020: f59b 9bbd f59b 9bbd f59b 9bbd f59b 9b3d
00000030: f59b 9b3d f59b 9b3d f59b 9bbd f59b 9bbd
00000040: f59b 9bbd f59b 9b3d f59b 9b3d f59b 9b3d
00000050: f59b 9bbd f59b 9b3d f59b 9bbd f59b 9bbd
00000060: f59b 9b3d 5ce8 bf21 f59b 9b3d f59b 9bbd
00000070: f59b 9b3d f59b 9bbd f59b 9bbd f59b 9b3d
00000080: f59b 9b3d f59b 9bbd f59b 9bbd f59b 9bbd
00000090: f59b 9bbd f59b 9b3d f59b 9b3d f59b 9b3d
000000a0: f59b 9b3d f59b 9b3d f59b 9bbd f59b 9bbd
000000b0: f59b 9bbd f59b 9bbd f59b 9b3d f59b 9b3d
000000c0: f59b 9b3d f59b 9b3d f59b 9b3d f59b 9bbd
000000d0: f59b 9b3d f59b 9b3d f59b 9b3d f59b 9bbd
000000e0: f59b 9b3d f59b 9bbd f59b 9b3d f59b 9b3d
000000f0: f59b 9bbd f59b 9bbd f59b 9b3d f59b 9bbd
00000100: f59b 9b3d f59b 9bbd f59b 9bbd f59b 9b3d
00000110: f59b 9bbd f59b 9bbd f59b 9b3d 209c 0837
00000120: f59b 9b3d f59b 9bbd f59b 9bbd f59b 9bbd
00000130: f59b 9b3d f59b 9bbd f59b 9b3d f59b 9b3d
00000140: 1c45 c0ae f59b 9b3d f59b 9b3d f59b 9b3d
00000150: f59b 9b3d f59b 9b3d f59b 9bbd 831a 5ca4
00000160: f59b 9b3d f59b 9bbd f59b 9bbd f59b 9b3d
00000170: f59b 9b3d f59b 9b3d f59b 9b3d f59b 9b3d
00000180: f59b 9bbd f59b 9b3d f59b 9bbd f59b 9b3d

fc3.weight f4 [1, 100]
-0.15632372 -0.15632372 -0.15632372 0.15632372 0.15632372 -0.15632372 0.15632372 0.15632372
-0.15632372 -0.15632372 -0.15632372 0.15632372 0.15632372 0.15632372 -0.15632372 -0.15632372
-0.15632372 0.15632372 0.15632372 0.15632372 -0.15632372 0.15632372 -0.15632372 -0.15632372
0.15632372 1.4435078e-18 0.15632372 -0.15632372 0.15632372 -0.15632372 -0.15632372 0.15632372
0.15632372 -0.15632372 -0.15632372 -0.15632372 -0.15632372 0.15632372 0.15632372 0.15632372
0.15632372 0.15632372 -0.15632372 -0.15632372 -0.15632372 -0.15632372 0.15632372 0.15632372
0.15632372 0.15632372 0.15632372 -0.15632372 0.15632372 0.15632372 0.15632372 -0.15632372
0.15632372 -0.15632372 0.15632372 0.15632372 -0.15632372 -0.15632372 0.15632372 -0.15632372
0.15632372 -0.15632372 -0.15632372 0.15632372 -0.15632372 -0.15632372 0.15632372 9.280915e-06
0.15632372 -0.15632372 -0.15632372 -0.15632372 0.15632372 -0.15632372 0.15632372 0.15632372
-2.0604816e-10 0.15632372 0.15632372 0.15632372 0.15632372 0.15632372 -0.15632372 -5.920618e-17
0.15632372 -0.15632372 -0.15632372 0.15632372 0.15632372 0.15632372 0.15632372 0.15632372
-0.1563237 0.1563237 -0.1563237 0.1563237
00000000: 5313 20be 5313 20be 5313 20be 5313 203e
00000010: 5313 203e 5313 20be 5313 203e 5313 203e
00000020: 5313 20be 5313 20be 5313 20be 5313 203e
00000030: 5313 203e 5313 203e 5313 20be 5313 20be
00000040: 5313 20be 5313 203e 5313 203e 5313 203e
00000050: 5313 20be 5313 203e 5313 20be 5313 20be
00000060: 5313 203e 2f06 d521 5313 203e 5313 20be
00000070: 5313 203e 5313 20be 5313 20be 5313 203e
00000080: 5313 203e 5313 20be 5313 20be 5313 20be
00000090: 5313 20be 5313 203e 5313 203e 5313 203e
000000a0: 5313 203e 5313 203e 5313 20be 5313 20be
000000b0: 5313 20be 5313 20be 5313 203e 5313 203e
000000c0: 5313 203e 5313 203e 5313 203e 5313 20be
000000d0: 5313 203e 5313 203e 5313 203e 5313 20be
000000e0: 5313 203e 5313 20be 5313 203e 5313 203e
000000f0: 5313 20be 5313 20be 5313 203e 5313 20be
00000100: 5313 203e 5313 20be 5313 20be 5313 203e
00000110: 5313 20be 5313 20be 5313 203e 3ab5 1b37
00000120: 5313 203e 5313 20be 5313 20be 5313 20be
00000130: 5313 203e 5313 20be 5313 203e 5313 203e
00000140: 678d 62af 5313 203e 5313 203e 5313 203e
00000150: 5313 203e 5313 203e 5313 20be 2985 88a4
00000160: 5313 203e 5313 20be 5313 20be 5313 203e
00000170: 5313 203e 5313 203e 5313 203e 5313 203e
00000180: 5213 20be 5213 203e 5213 20be 5213 203e

fc1.weight f4 [100, 24]
0.01234279 0.23197447 -0.028508099 -0.10793171 0.08574783 0.013376293 0.21667884 -0.058877554
-0.03679107 0.20241627 -0.14398131 -0.0024333447 -0.14169621 -0.00915131 -0.14087927 0.06269115
-0.13647278 -0.1583248 -0.1385667 0.10256636 -0.13812408 0.11342023 0.043258693 0.2113506
0.06334661 0.061534595 0.0572135 -0.15666804 -0.15875639 -0.18835917 -0.26010638 -0.26061693
-0.1294541 0.13403228 0.13753918 0.017171368 -0.074147254 -0.12939623 0.06618303 0.0015245974
0.1549465 -0.018191263 -0.052954108 -0.15728387 -0.11138475 0.02123839 0.17582989 -0.1034427
0.17851372 -0.016598376 -0.13722669 0.051953886 0.21369104 -0.013233166 -0.051745135 0.01642459
0.13215734 -0.20040648 0.032572165 -0.030533522 0.014382333 -0.04103847 -0.07231605 -0.04327856
-0.056316003 -0.13460654 -0.17300546 -0.20299849 -0.08378723 -0.15295832 -0.14883688 0.07808177
0.0938073 -0.18750967 0.03633255 -0.17394422 -0.02320809 0.099638835 -0.19030863 -0.1450262
-0.10224591 -0.1723868 0.16095951 0.18680397 -0.19828513 0.10636082 0.17428097 -0.04985395
-0.023952872 0.068677515 0.094787866 0.14626116 0.07196146 -0.029019885 -0.13198262 -0.059036124
-0.06775771 0.008318389 0.00273815 0.023676556 -0.14838628 -0.12408432 -0.0554003 -0.20169835
-0.10954167 -0.16513778 -0.19292879 -0.029473335 0.17257363 -0.013961151 -0.0014872104 -0.008670226
-0.006540939 0.15454754 -0.06687158 -0.10976623 0.18435624 -0.02305166 0.042147893 0.18750961
-0.17086916 -0.11524469 -0.12521727 -0.18598124 -0.006722573 -0.26018056 -0.1047068 -0.07054707
-0.024110375 0.07399571 0.17244154 -0.077443585 -0.17254117 0.025175333 0.14958793 -0.027063087
0.16056183 -0.09650545 -0.07253313 -0.06343526 -0.0643675 0.18041469 0.04567517 -0.011017939
-0.23416997 -0.018305931 -0.10358385 -0.20032763 -0.0023979992 0.14027442 -0.155936 -0.1702212
0.08447063 0.18290865 -0.1933351 -0.13922754 0.20048076 0.15442643 0.02912882 0.10926178
0.021771029 -0.11778597 -0.11758044 0.17305288 0.0101043135 0.07205116 0.0791434 0.062450003
0.13978848 0.15256816 -0.114293315 0.035172082 0.18787973 0.048056867 0.18032207 0.19581082
0.08118152 -0.113425456 0.07349771 0.08169246 -0.011307627 0.16403002 -0.079631485 0.032361984
-0.152095 -0.116669714 -0.08722923 -0.053563714 -0.17439996 0.051386014 -0.07755852 -0.13440254
0.019096764 0.15611334 0.076601416 0.082288645 0.0909604 0.112041675 0.033131562 0.117673725
0.09249681 0.1816127 0.1742895 0.048463494 -0.04423082 -0.18074106 -0.033203706 0.20353648
0.15871239 0.16041413 -0.0751777 -0.030540332 0.12533009 -0.03420529 0.05031385 -0.104380004
-0.059015114 0.092405304 -0.025501287 0.1743136 -0.15726459 0.10154785 0.12689841 0.14443445
-0.023261936 -0.031300157 0.19015121 -0.12310607 0.09083539 -0.1886134 0.0072486997 0.048635185
0.05266142 -0.13044904 -0.11696787 0.08488697 0.14126459 0.008559922 0.020007161 -0.17838202
-0.13986942 -0.014192732 0.004016706 0.08744248 -0.16208476 -0.22271113 -0.18051071 -0.28422558
-0.17635094 -0.06176637 0.022790238 -0.0917225 0.015389383 0.13056195 0.058306754 -0.042467758
00000000: 6a39 4a3c b78a 6d3e d189 e9bc 4d0b ddbd
00000010: 8f9c af3d 3d28 5b3c 0fe1 5d3e 9729 71bd
00000020: 3cb2 16bd 3646 4f3e d66f 13be c078 1fbb
00000030: d018 11be 60ef 15bc a842 10be 3864 803d
00000040: 85bf 0bbe e51f 22be 6ee4 0dbe 500e d23d
00000050: 6670 0dbe de48 e83d 0730 313d 4b6c 583e
00000060: debb 813d b30b 7c3d b458 6a3d 966d 20be
00000070: 0991 22be 3ae1 40be aa2c 85be 956f 85be
00000080: 9e8f 04be c23f 093e 12d7 0c3e f8aa 8c3c
00000090: 84da 97bd 7280 04be f88a 873d 00d5 c73a
000000a0: 4caa 1e3e d805 95bc 68e6 58bd 060f 21be
000000b0: b01d e4bd 22fc ad3c c00c 343e c4d9 d3bd
000000c0: 4dcc 363e 51f9 87bc 2785 0cbe 99cd 543d
000000d0: d3d1 5a3e eccf 58bc b5f2 53bd dd8c 863c
000000e0: 4154 073e 5b37 4dbe 646a 053d 7021 fabc
000000f0: e0a3 6b3c f417 28bd 701a 94bd dc44 31bd
00000100: 9cab 66bd 4cd6 09be 5828 31be d6de 4fbe
00000110: a498 abbd 1ba1 1cbe b268 18be 56e9 9f3d
00000120: 0b1e c03d 8902 40be 71d1 143d 6f1e 32be
00000130: e41e bebc 720f cc3d 44e0 42be c081 14be
00000140: 4e66 d1bd 2a86 30be 92d2 243e 8a49 3f3e
00000150: 420b 4bbe b4d3 d93d b676 323e a833 4cbd
00000160: d038 c4bc cca6 8c3d 2420 c23d 7cc5 153e
00000170: 8860 933d 1cbb edbc 7426 07be ddcf 71bd
00000180: 8ec4 8abd da49 083c 8972 333b 56f5 c13c
00000190: 93f2 17be ec1f febd 6deb 62bd 038a 4ebe
000001a0: 6257 e0bd e119 29be 208f 45be 1072 f1bc
000001b0: 24b7 303e 50bd 64bc 80ee c2ba 900d 0ebc
000001c0: 6055 d6bb b641 1e3e f8f3 88bd 1ecd e0bd
000001d0: e2c7 3c3e d6d6 bcbc 45a3 2c3d 8502 403e
000001e0: 53f8 2ebe 6805 ecbd f538 00be de71 3ebe
000001f0: 0849 dcbb 6336 85be 8570 d6bd fb7a 90bd
00000200: 1f83 c5bc 108b 973d 8494 303e be9a 9ebd
00000210: a2ae 30be 803c ce3c 942d 193e 68b3 ddbc
00000220: 526a 243e a6a4 c5bd 408c 94bd 58ea 81bd
00000230: 1cd3 83bd a1be 383e e315 3b3d 9684 34bc
00000240: 41ca 6fbe 52f6 95bc c523 d4bd b022 4dbe
00000250: c027 1dbb 19a4 0f3e b0ad 1fbe 774e 2ebe
00000260: f0fe ac3d 684c 3b3e a3f9 45be aa91 0ebe
00000270: d44a 4d3e f621 1e3e 909f ee3c a4c4 df3d
00000280: 2859 b23c c539 f1bd 04ce f0bd c634 313e
00000290: 908c 253c 8f8f 933d ef15 a23d 93cb 7f3d
000002a0: b624 0f3e d43a 1c3e 9d12 eabd 9a10 103d
000002b0: 8b63 403e 47d7 443d 59a6 383e a282 483e
000002c0: 7f42 a63d 9b4b e8bd f885 963d 604e a73d
000002d0: a043 39bc 7cf7 273e d515 a3bd 008e 043d
000002e0: cbbe 1bbe 88f0 eebd 3da5 b2bd a065 5bbd
000002f0: e795 32be 247a 523d 00d7 9ebd d2a0 09be
00000300: d170 9c3c 2ddc 1f3e 34e1 9c3d f386 a83d
00000310: 7249 ba3d 1b76 e53d f6b4 073d ecfe f03d
00000320: f86e bd3d aef8 393e f278 323e a881 463d
00000330: 602b 35bd 2f14 39be 9c00 08bd de6b 503e
00000340: 8085 223e 9a43 243e c4f6 99bd b82f fabc
00000350: 8856 003e d91a 0cbd e515 4e3d 2fc5 d5bd
00000360: d5b9 71bd fe3e bd3d 13e8 d0bc 447f 323e
00000370: f809 21be 52f8 cf3d a8f1 013e a0e6 133e
00000380: d18f bebc 9834 00bd 00b7 423e 091f fcbd
00000390: e807 ba3d df23 41be 8086 ed3b b035 473d
000003a0: 80b3 573d 6f94 05be da8c efbd 38d9 ad3d
000003b0: aaa7 103e ea3e 0c3c 0fe6 a33c c7a9 36be
000003c0: ee39 0fbe a288 68bc 929e 833b 0b15 b33d
000003d0: 8cf9 25be 630e 64be cdd7 38be 0486 91be
000003e0: 5795 34be bcfe 7cbd 98b2 ba3c 02d9 bbbd
000003f0: c023 7c3c 08b2 053e 10d3 6e3d acf2 2dbd
