gail/save_model/0/SUB081_ckpt_0.pth.tar (torch_old, 154733 bytes, 16 tensors)

fc1.weight f4 [100, 22]
00000000: cf7c 83bd c0a7 b0bd becf 6c3c 75f0 893d
00000010: 95e6 8a3c 30bd 80bc 28b9 58be 0610 b23c
00000020: 991e 7f3d 4c25 023e 003e 8ebc 3886 2e3e
00000030: 4eb4 d8bd 184a e23c 9825 4dbe c06f 223d
00000040: 7025 723d 4033 0fbc 78f1 333d bc58 cd3d
00000050: dc39 e33d 2212 293e c635 b33e 9af5 2a3e
00000060: 4f05 a5be 81b5 50bd e603 88bd e783 c0be
00000070: 5b54 93be a185 ddbd be37 a5be 60a0 82bc
00000080: 80ca d93d 428d 403e 8245 3fbe 08aa 563d
00000090: c87c 253e 885d 423d e0f2 743d 8098 4abe
000000a0: 60d8 13bd e859 d7bd 4c4c 0a3e c495 50be
000000b0: 5956 4dbd ee3e 883d 9be6 d1bc 2c48 9b3c
000000c0: 77c7 1cbe e1d8 833d e1af 14be 98b3 e2bc
000000d0: 8a89 373e f4e6 823d 80e2 423d e2fd 343e
000000e0: 2aac 90bd e061 00bd 386a f13d f2de 593e
000000f0: b48a 903d 702e 3f3d 2bd9 cdbd 00e4 5a3c
00000100: 0899 e8bc 707d b63c b468 db3d ff48 ebbe
00000110: 7216 37be 7b98 7bbc ab9c 15be 5ce7 90be
00000120: c0cb 4c3d be58 04be 9299 ebbd 01da dabd
00000130: 33e9 1abe c8ad 403d 1ac7 463e 45c5 ebbd
00000140: 808b c0bd b850 243e 7c20 8a3d 961e 3c3e
00000150: 3081 b13c 5c39 07be 3e95 283e c202 4d3e
00000160: d15a 163d 0778 bebe 41e0 bdbe fd64 25bd
00000170: 559e 4abe 2587 8d3d 2911 323d 3e4a 52be
00000180: 695a 073e 24fa f9bd 820d 0b3e e06a ae3b
00000190: 20b2 ac3d 888f b9bc 6854 bc3d 7659 283e
000001a0: edcf 41be 04e5 043e 28a2 423e 8c7a fa3d
000001b0: b053 d03d 2465 3abd cc49 60be b10c e5be
000001c0: c5bf 91be 381e bebc 3b84 9bbe 98bf 0a3e
000001d0: c1de 1cbe 4da1 e53d c808 083d 0c99 f63d
000001e0: 487b 25bd ba00 a4bd a8b9 24bd a814 703d
000001f0: 902a 173d 588b 543e 0467 453e dc31 033d
00000200: b850 0abd 94d6 07bd 8032 6ebd b81f ed3d
00000210: 8003 4d3d 6591 963e a132 c2bc 23a1 b2bd
00000220: 5495 b83d 7aeb ecbc 80b2 7b3d 146f f0bc
00000230: 182e 3a3e 8093 c03a 4cbd b63d 342d bd3d
00000240: 50d3 b03d c7cf 02be 12a7 093e 00fa 77bd
00000250: 2c53 57bd d054 a33c 2a1e 173e 3e4a 1c3e
00000260: c89a 9cbd 403c 893b 9285 9b3c 18e9 853e
00000270: cf66 ad3e b253 8d3d 3de5 983d 1ade 95bd
00000280: b861 3f3e 6a30 1b3e a0a2 6ebc 2045 303c
00000290: 6469 d23d d4ac 13bd cb67 e9bd a4c0 a73d
000002a0: b056 dc3d 96a3 0f3e 90b3 243d cb31 e2bd
000002b0: 58ee 69bd b0e6 093e 9c95 ae3d b4a8 54bd
000002c0: d714 e13d d076 01bf 6d68 57be a8af a83e
000002d0: d995 9abe c986 313d a5d1 9ebe 130b 4a3d
000002e0: e591 193d 5890 033e ec6e 443e c08f 013b
000002f0: 27be 2cbe d8c9 973c b9b8 58be 08d4 063d
00000300: dec1 0fbe 045e f63d c46a e23d 14c8 41bd
00000310: d033 e9bd 9783 fcbd c293 ed3c fbfc 473e
00000320: 8aba 0f3e 4f3f 22be 2998 e2bd c707 223e
00000330: ba09 983c f2ab 8b3d d4da 9abd 38ec 2dbe
00000340: 1c9c 4d3e 3869 b5bd 3408 413e 73e1 31be
00000350: 30c1 1c3d 4c28 493e ced6 56be 86ef 38be
00000360: 415d 1cbe 881b fbbc f030 533d f635 48be
00000370: 0be4 bc3d aac3 ca3e 7e0d 7d3e 45dd 07be
00000380: 0ebc 223e 04e5 3d3d 3f83 57bd c646 233c
00000390: 502f 073d 986b 91bd 6d15 38be 947b 213e
000003a0: 6840 af3c 6ca1 f83d cc89 0b3e 4ca5 473e
000003b0: 051b 31be ff48 c4bd a8a7 6c3d a843 29bd
000003c0: 8868 ef3d 202c 83bc ffb9 193e fd2c 47be
000003d0: bf8a b73d 2be0 3a3e cc7e 4d3e caaf 253e
000003e0: acb5 c5bd 43ee 2bbd d6fb c0bc f475 8c3d
000003f0: 52f6 4bbe 921a 0f3e 50b4 403d 14b5 073d
-0.0642029 -0.08625746 0.0144538265 0.06735317 0.016955653 -0.015715212 -0.21164382 0.021736156
0.06228504 0.1270954 -0.017363548 0.17043388 -0.105812654 0.027623221 -0.20033872 0.039657354
0.059117734 -0.008740246 0.043931454 0.1002669 0.1109502 0.16510823 0.35001963 0.16695252
-0.32230613 -0.050954346 -0.066413686 -0.37600634 -0.28775296 -0.10816503 -0.3226909 -0.015945613
0.10634327 0.18803886 -0.18678859 0.05240825 0.16160882 0.04745248 0.059801936 -0.19784737
-0.036095023 -0.10515195 0.13505667 -0.20369631 -0.050131176 0.06652628 -0.025622657 0.018955313
-0.15310465 0.06437851 -0.14520217 -0.027673528 0.1792356 0.06391707 0.04757929 0.17674974
-0.07064088 -0.03134334 0.11787838 0.21276453 0.070577055 0.046675146 -0.10051187 0.0133600235
-0.028393283 0.02227661 0.1071333 -0.4595413 -0.17879656 -0.015356178 -0.14610545 -0.28301513
0.049999 -0.12924477 -0.115039006 -0.10686112 -0.15128021 0.04704073 0.19411889 -0.115122356
-0.094016075 0.16046417 0.06744477 0.18371043 0.021668047 -0.13205475 0.16463181 0.20020583
0.036707703 -0.3720095 -0.37085155 -0.040379513 -0.19786961 0.069105424 0.043473396 -0.20536134
0.13218082 -0.12205914 0.13579372 0.005322799 0.08432412 -0.022651449 0.09195787 0.16440377
-0.18926974 0.12977988 0.1900717 0.12230405 0.10172212 -0.04550661 -0.21903151 -0.44736245
-0.2846662 -0.023207769 -0.3037432 0.1354965 -0.15319349 0.11212406 0.0332115 0.1204091
-0.040400773 -0.08007951 -0.040216118 0.05861345 0.036905825 0.2075628 0.19277579 0.03202997
-0.033768386 -0.033163622 -0.05815363 0.115783155 0.050052166 0.29407802 -0.023705782 -0.08722141
0.09012857 -0.028920878 0.061449528 -0.029349841 0.18181646 0.0014692396 0.08922824 0.092371374
0.08634055 -0.12774573 0.13442639 -0.060541153 -0.052569553 0.019937903 0.147576 0.15262696
-0.0764671 0.0041880906 0.01898459 0.261544 0.338675 0.06900729 0.07465599 -0.07317753
0.1868962 0.15155187 -0.01456514 0.010758668 0.10274008 -0.036053494 -0.1139675 0.0819104
0.10758722 0.14027247 0.040210307 -0.110446535 -0.057112068 0.13466907 0.085246295 -0.0519187
0.10990303 -0.5057192 -0.21035929 0.32946515 -0.3019245 0.04334143 -0.3101932 0.049326967
0.03749265 0.12848032 0.19182938 0.001976952 -0.16869412 0.018528864 -0.21164216 0.032917053
-0.14038798 0.12029651 0.1105552 -0.04730995 -0.113868356 -0.12329786 0.02900112 0.19530098
0.14036003 -0.15844463 -0.110641785 0.1582328 0.018559325 0.06819905 -0.075612694 -0.16984642
0.20079082 -0.088579595 0.18850785 -0.17371158 0.038270175 0.19644278 -0.20980379 -0.18060121
-0.15269949 -0.030652776 0.051560342 -0.19551834 0.09223183 0.39602405 0.24712178 -0.13268001
0.1589205 0.046360984 -0.0526154 0.009965604 0.033004105 -0.071006 -0.17976923 0.15769798
0.021393016 0.12140164 0.13626784 0.1949665 -0.17295463 -0.095842354 0.057777077 -0.041324288
0.1168986 -0.016012251 0.15012358 -0.19450755 0.089620106 0.18249576 0.200679 0.1618034
-0.09653792 -0.04197527 -0.023557585 0.06858435 -0.19918182 0.1397498 0.04704696 0.033131674

fc1.bias f4 [100]
00000000: 814b ed3d a9d0 823e b9b3 b13d ec0b 80bc
00000010: 91c9 5b3d 815b 21be af19 45be 5da8 883d
00000020: 5897 d33c 1ab6 b6ba e4fa 0a3d 7283 21be
00000030: cdb3 503d 80c6 1dbe 246c e9bc a398 6abd
00000040: d013 3e3e 9bb9 1cbe b1df b73d e60b 843c
00000050: 94eb 543e 15e9 aabe 7942 0dbc 4ff4 52be
00000060: e94d 993d 034a e6bd 39b1 0c3f bd44 35bd
00000070: 076e 003e 2f3c 44bd 5fb6 39bd c5a9 84bd
00000080: 4ff4 83bb 3a60 3fbd 357d a53c d038 c8bd
00000090: 49b9 ec3d 024a 28be f451 4bbe e50a 0e3d
000000a0: 2c52 0d3c 07d6 11bf ee2b a4bd 2c00 8d3d
000000b0: 4483 5f3c 8646 3bbe f75c 0bbe 4ccf 4f3e
000000c0: 11d3 423d 1410 1e3d 2fea 923d 6b9c 2d3e
000000d0: 033a 55be 91d5 14be a8f9 2c3d 32fc a03c
000000e0: 300d 943e a7a9 b0be 6199 973e be30 2fbe
000000f0: e22e 763e fadd b4bd a05e 033f 0a8a 8d3c
00000100: 07e0 ebbe 6049 6bbd 12f7 b53e 5d81 d93d
00000110: 8e84 be3d a9e3 eb3d a1c3 0f3c 3d23 bb3d
00000120: 5306 fdbd 0bdf 813e efd4 2b3d 9539 a9bd
00000130: 4ad5 503e 8072 b13d 6847 1a3e f230 45bf
00000140: ddc9 87be 72fc da3e 0fe3 363d 0685 9a3e
00000150: 4b60 093e 8afe 3e3d a0b3 5a3e 0d8a 933c
00000160: 4ef8 ea3d d248 8e3d 0900 bcbd 25c3 e13d
00000170: b67f 783d 6594 f13c f5e5 543d d693 743d
00000180: 91d8 09be af4b 733e 2749 423e bd60 16be
0.11586667 0.2554982 0.086768575 -0.015630685 0.053659026 -0.15757562 -0.19248079 0.06672738
0.025829002 -0.0013939769 0.033930674 -0.15772799 0.05095272 -0.15407753 -0.028493948 -0.057274472
0.18562245 -0.15305178 0.089782126 0.016118955 0.20792991 -0.33380952 -0.008621805 -0.20601009
0.07485563 -0.11244585 0.5495792 -0.044255007 0.12541972 -0.047908958 -0.04533994 -0.064776935
-0.0040269266 -0.04672263 0.020201305 -0.09776461 0.11558778 -0.16434482 -0.19855481 0.03467836
0.008625548 -0.56967205 -0.080161914 0.068847984 0.013642136 -0.18288621 -0.13609682 0.20293921
0.04756457 0.038589552 0.07173573 0.169542 -0.20822911 -0.14534594 0.04223028 0.019651506
0.2891631 -0.34504434 0.29609206 -0.17108437 0.24041322 -0.08831401 0.5131626 0.017277736
-0.46069357 -0.057443023 0.35540062 0.10620377 0.093026266 0.11518032 0.008774669 0.091375805
-0.12354722 0.2536548 0.041951116 -0.08262936 0.20393863 0.08664417 0.15066302 -0.7702781
-0.26521197 0.42770725 0.044650134 0.30179614 0.13415639 0.046629466 0.21357584 0.018010164
0.114731416 0.06947483 -0.09179694 0.11023549 0.06066867 0.029489705 0.051977117 0.0597113
-0.1346152 0.2375934 0.18973218 -0.1468534

fc2.weight f4 [100, 100]
00000000: bc01 023f 4684 063f 6be6 ca3e 13d1 b93e
00000010: 4d76 85bf 4dcf fabe bf7b 14bf abad 0d3e
00000020: e32b 31be 8d9f 07be 601c 8bbb 4eb1 ddbd
00000030: f171 643f 9a5b cbbe a17d 473f 2344 83be
00000040: 7c63 623e d7ca dfbd 61b8 343f 7bf9 4bbf
00000050: 45d9 e0be 274e 2ebf 7637 853e 29c9 d3be
00000060: 164a 463f 495c 2e3c 87bd 273f 40b3 0e3f
00000070: 2d72 1d3e a4a7 21bf 8a99 0fbe e773 7ebe
00000080: f47d 1b3d f641 ee3d 5218 df3d 304b fe3e
00000090: 1bd5 b5be 0e54 42be dfa2 4fbe 1b5d 073f
000000a0: 2b54 35be 00b1 15bf f7f2 cfbe 079f 02bf
000000b0: 406d 723e a8d1 e1be 5c1b 3abe 055c 123f
000000c0: 86da 7abe d60d c3be 0ab0 0e3f 4389 cc3e
000000d0: 1105 dabe 2cc6 1bbd 8af3 14be 9798 293f
000000e0: 9220 d13e 5436 04bf 58cf 1f3f b919 41bf
000000f0: 9b89 933e f3b2 2fbf 6969 293f adab e93e
00000100: 1c82 e6be b21b 08bf 13ee 0c3f dbb9 aabd
00000110: 3a34 f83e c5b4 6e3e 70d5 11be a6c0 f3be
00000120: 4361 bfbe 131f bb3e 33fd 0bbe 0fb6 37bd
00000130: f6c8 a73e 2717 033e 31ee 9abe a3ec febe
00000140: 1773 fabe 510a f03e 6861 a5bd fdd7 383f
00000150: 62f7 273f 0cb4 713d 5cf2 e43e 7f7f 593e
00000160: ff9b 8b3f b15c 673c be38 73be c3d4 5d3f
00000170: b379 8b3e e00d 683f 3a98 64bf 514c 19be
00000180: fc9a 183e c2f2 e43d d588 17be 68bb 22bd
00000190: d216 0e3f d7ab f73e e444 f43e b764 a13e
000001a0: f0af 63bf 102b fcbe 18dd 0dbf 7f9d ca3d
000001b0: 7d43 87be 0a92 67bc 3159 85bd 41ab 4dbe
000001c0: 2827 503f 9f73 bfbe f156 383f 2100 adbe
000001d0: a4bb aa3b c5a0 7dbc 6e4a 5b3f 9f3d 54bf
000001e0: 99de 94be 9d0c 23bf 528d 9d3e 1b07 f3be
000001f0: 8c0b 3b3f 88e9 173c 489e 113f 0770 143f
00000200: fe58 833e 4080 1cbf ff8a a6bd 2da5 7dbe
00000210: b5d2 233d fe6d a2bc ae66 1d3f 6fa9 123f
00000220: b149 b5be 0262 55be a46b 31be d930 073f
00000230: f4ae 49be efc2 0ebf a95f c1be acfa 16bf
00000240: 80e9 813e 8fc6 11bf 620b c3bd 4235 fb3e
00000250: 1f81 c4be 6f27 90be 2dc6 1d3f 7b43 aa3e
00000260: 4279 18bf 5921 56bd 03df 88be 96b4 153f
00000270: e17c b73e 1232 05bf 6085 1e3f 632f 3bbf
00000280: 41f4 ca3e f53b 27bf 0c41 1b3f 904d ad3e
00000290: 3a6e fcbe fe07 b2be e809 2a3f 7e04 a93d
000002a0: a77e f33e 3710 a93e ee96 c7bc b936 cbbe
000002b0: 08d9 a5be 5f4e 873e aa76 14bd 5031 0abe
000002c0: 6f8e 953e 6c2f 803e 7dea 82be 83cf 22bf
000002d0: 5735 02bf 8fc4 eb3e e0ae adbd e552 3d3f
000002e0: b448 333f ff58 383e a5df d73e 1624 283e
000002f0: f644 743f e139 873d a021 13bd e0ea 5d3f
00000300: a077 c73e d156 133f fcab 7fbf e4bb 1ebe
00000310: 35a3 d83d 07b9 163d a342 29be 2cb3 f43c
00000320: 9cdd f43e 521a 053f e089 f33e 3b5e 8d3e
00000330: 33ca 36bf 7764 00bf accb f9be af77 253d
00000340: b2c1 68be 72e9 dfbb 178d 723d bb20 19be
00000350: f314 813e 27e8 8ebe 9781 253f b6ad 2cbe
00000360: 6855 c63c 73e7 36be 7644 263f 14f3 62bf
00000370: e858 27be a457 17bf af69 5bbd 9d35 c9be
00000380: 5572 ed3e e5a5 833d 7d92 0b3f d961 e33e
00000390: 9642 d53e 44ac 29bf 1e2c 68be 8453 51be
000003a0: b6dc 6c3d 447b 64be a666 b03e ad14 c23e
000003b0: 546f c2bd 6048 34be 53ca d53d 2f88 9a3e
000003c0: 24ba 79be 6110 d3be 552f b8be 496f 1bbf
000003d0: d900 1a3f b067 afbe 18ea 09be 2e28 e23e
000003e0: 221d 88bc 8e64 7bbe 5b75 023f 0180 b63e
000003f0: ee2c 38bf ff8e c33d 4fb2 a1be 4cf2 fe3e
0.50783896 0.52545583 0.3962892 0.36292323 -1.0426728 -0.48986283 -0.5800132 0.1383578
-0.17301898 -0.13244458 -0.004245326 -0.10824834 0.8923636 -0.39718324 0.7792607 -0.25637922
0.22108263 -0.109273605 0.7059384 -0.7967755 -0.43915763 -0.68088 0.26018876 -0.4136441
0.77456796 0.01064212 0.6552357 0.55742264 0.15375586 -0.63146424 -0.14023414 -0.248489
0.037961915 0.11633675 0.108933106 0.4966674 -0.3551415 -0.18977377 -0.20276974 0.5287644
-0.17707889 -0.58473206 -0.40615055 -0.51023906 0.23674488 -0.44105268 -0.181745 0.5717166
-0.24497423 -0.38096493 0.55737364 0.39948472 -0.4258199 -0.03803079 -0.14546028 0.6624846
0.40845162 -0.516454 0.62425756 -0.75429875 0.28815922 -0.6863243 0.6617647 0.4563879
-0.4502114 -0.5316726 0.5505077 -0.0833623 0.48477346 0.23311146 -0.14241576 -0.47607917
-0.37378892 0.36547145 -0.13670807 -0.04485136 0.3277051 0.128018 -0.3025985 -0.49789914
-0.48915932 0.4688287 -0.080752194 0.7220457 0.6561185 0.059009597 0.44716156 0.21240042
1.0906981 0.01412122 -0.23752114 0.86652774 0.27241287 0.9064617 -0.8929478 -0.14970519
0.14902872 0.11179115 -0.14798291 -0.039729506 0.5550357 0.4837329 0.4770881 0.31522152
-0.88940334 -0.49251604 -0.5541549 0.09893321 -0.26418677 -0.0141339395 -0.065111525 -0.2008486
0.8130975 -0.373929 0.7200766 -0.3378916 0.005210357 -0.015480225 0.85660446 -0.82906526
-0.2907608 -0.6369112 0.3077188 -0.4746636 0.73064494 0.009271987 0.56882143 0.5798344
0.25653833 -0.61133194 -0.0813198 -0.24770041 0.039995868 -0.019827839 0.614848 0.57289785
-0.35407785 -0.20838168 -0.17326218 0.5280891 -0.19695646 -0.55766195 -0.37768295 -0.58976245
0.2537346 -0.569436 -0.095236555 0.4906407 -0.38379762 -0.28155085 0.6163052 0.3325461
-0.59560025 -0.052277897 -0.26732644 0.5847868 0.35837463 -0.52029526 0.61922264 -0.7311918
0.39639476 -0.6532586 0.6064613 0.33848238 -0.49302846 -0.34771723 0.66421366 0.0825281
0.47557566 0.33020183 -0.024363961 -0.39690188 -0.32392144 0.2642698 -0.03624598 -0.13495374
0.2921023 0.2503618 -0.25569525 -0.6359789 -0.5086264 0.460484 -0.084806204 0.7395461
0.7003281 0.180027 0.42162815 0.16420016 0.95417726 0.066028364 -0.03592074 0.86686516
0.38958454 0.57554346 -0.998718 -0.15501362 0.10578004 0.03679755 -0.16529326 0.029870592
0.47825325 0.51993287 0.47566128 0.27610955 -0.7140228 -0.501533 -0.48788202 0.040397342
-0.22730139 -0.006833249 0.059216585 -0.14953892 0.25211295 -0.27911493 0.64650863 -0.1686314
0.024210647 -0.17861728 0.64948213 -0.8865216 -0.16342509 -0.59118104 -0.053567585 -0.39298716
0.4637629 0.06428126 0.545204 0.4441059 0.41652364 -0.6627848 -0.2267308 -0.20442015
0.057827674 -0.22312647 0.34453315 0.379064 -0.094938904 -0.17605734 0.10438981 0.30182025
-0.24387413 -0.41223434 -0.3597361 -0.6071668 0.60157543 -0.34258795 -0.13468206 0.4417128
-0.016615454 -0.24550077 0.5096032 0.35644534 -0.7194356 0.09548759 -0.3158135 0.49794233

fc2.bias f4 [100]
00000000: 8727 403f 543e 3c3f 6b31 263f 7446 453f
00000010: 748a 703f ce1c 483f 6423 64bf 389a 6a3f
00000020: b785 46bf aadf 1d3f dca0 6a3f 2c75 323f
00000030: 608a 90be f847 643f ea9f 643f e890 6d3f
00000040: 8aaf 54bf 01df 843e dc5d 65bf 0da7 593e
00000050: 22e3 5cbf aba3 72be 5104 25be c730 51bf
00000060: 022d 2cbf 4b1c 4a3f 9af8 62bf e398 463f
00000070: 258b 653f c7d1 33be f2d4 41be a198 033f
00000080: 36d5 a23e 3481 5fbf 8928 64bf 063b 5a3f
00000090: c58b 543f d7a1 4e3f 4c2f 3e3f bd1b 5d3f
000000a0: bc22 48bf c583 043e 9f38 343e 8a7a 2bbe
000000b0: dd41 4d3f 605a 4e3e 79d6 583f 4126 54bf
000000c0: 3968 d33e e076 58bf d546 63bf 4975 62bf
000000d0: 2d1c 56bf 94a6 4bbe 6c96 1ebe 1396 54bf
000000e0: 9629 0f3e 8e5a 383f 984c 58bf 9ec6 3fbf
000000f0: b3f5 273f 2cc6 633f ae96 583f d402 9abd
00000100: a571 51bf 7be4 49bf 8d00 57bf 14a1 9f3e
00000110: e54e 28bf c47b 51bf be91 6c3f 7724 673f
00000120: 844d 0c3e 8337 643f 8c9f 73bf 0ae5 99be
00000130: 3e84 dbbe 1ac6 40bf 08e9 503f e189 6c3f
00000140: 6dec 61bf 93f8 35bf fecb 21bf 74f0 ed3e
00000150: 0ac3 66bf 6a76 633f 8057 46bf 80e7 61bf
00000160: f38d 423f bc7f fdbe 1643 54bf a20c b7be
00000170: 83b0 6b3f da22 67bf b0db 4dbf c68c 6ebf
00000180: b0df 5b3f 282e 5ebf ce76 53bf a458 59bf
0.75060314 0.73532605 0.64919156 0.7706063 0.9396126 0.7816895 -0.891165 0.9164157
-0.7754778 0.6166941 0.916517 0.6971004 -0.28230572 0.89172316 0.8930651 0.92799234
-0.8308035 0.25951388 -0.89596343 0.21255131 -0.8628408 -0.23695247 -0.16114928 -0.81715053
-0.67256176 0.7894942 -0.88660586 0.77577037 0.8966544 -0.17560492 -0.18928888 0.5140477
0.31803292 -0.87306523 -0.8912435 0.8524631 0.8302577 0.807157 0.7429092 0.8637045
-0.78178 0.12940891 0.17599724 -0.16745964 0.80178624 0.20151663 0.8470226 -0.8287087
0.41290453 -0.8455639 -0.88779956 -0.8846021 -0.8363674 -0.19887763 -0.15487069 -0.83041495
0.13980708 0.72013175 -0.8449187 -0.7491244 0.6560928 0.8897426 0.8460492 -0.07520071
-0.8181403 -0.7886426 -0.83985215 0.3117758 -0.65745384 -0.81829476 0.92409885 0.90290016
0.13701445 0.89147204 -0.95165324 -0.30057555 -0.4287433 -0.7530228 0.8160558 0.92397887
-0.8825138 -0.7108242 -0.6320189 0.46472514 -0.90141356 0.8885256 -0.77477264 -0.88243866
0.7599785 -0.49511516 -0.82914865 -0.35751826 0.9206621 -0.90287554 -0.8041334 -0.93183553
0.85888195 -0.8678918 -0.82603157 -0.8490088

fc3.weight f4 [2, 100]
00000000: f7f6 1dc0 bec1 1dc0 56fa 25c0 ad16 28c0
00000010: a694 25c0 145e 1bc0 e0a4 2340 75df 1dc0
00000020: f418 1e40 c5f4 28c0 d9ea 1fc0 cc1a 1fc0
00000030: 23d9 98c0 c70b 25c0 b2c7 1ec0 02a5 1fc0
00000040: ae7d 1d40 8aea 6440 aa5f 1e40 bed2 5440
00000050: 7669 2140 3219 3440 af69 99c0 c876 1d40
00000060: ddb9 2c40 2881 23c0 3a3e 1e40 266d 20c0
00000070: 6408 25c0 5757 93c0 5f8e 82c0 bcd8 57c0
00000080: 69f9 2b40 2245 1f40 2f23 2a40 b65d 1ec0
00000090: f49f 1bc0 e5f2 1bc0 fefb 25c0 4c0c 20c0
000000a0: 93d2 2340 94cd 8a40 b216 3cc0 2095 53c0
000000b0: a2ad 1ec0 9eb2 6240 549e 1fc0 8cf5 2540
000000c0: 4f2d 85c0 3a9f 1d40 8910 2140 e84d 2240
000000d0: b858 2040 6b91 87c0 1075 88c0 763d 2540
000000e0: 752d 8240 e7b4 26c0 72f1 1f40 9098 1e40
000000f0: 88a4 25c0 5932 1ec0 9aec 22c0 f031 58c0
00000100: 6e82 1e40 f976 2440 2a1b 1e40 d45e 4f40
00000110: 9780 2640 8f88 2440 e3d0 24c0 fd85 23c0
00000120: d5f8 5cbf 3f2e 21c0 4cff 2440 6975 2640
00000130: 277e 2840 397c 2740 e51d 1fc0 852c 1fc0
00000140: adab 2540 f620 2840 faa3 2440 396e 3bc0
00000150: 7c69 2040 d080 1ec0 1466 1d40 3d95 1f40
00000160: 4707 24c0 fe7f 2940 b22e 1b40 6cce 5940
00000170: 3a50 22c0 1a52 2440 377c 1e40 7c1e 1e40
00000180: 041a 25c0 fd4a 2540 cc43 2540 b118 1e40
00000190: 3c2a 4ac0 c2aa 41c0 4d08 32c0 0a57 32c0
000001a0: 0a79 29c0 dca2 41c0 7df6 2440 0a08 41c0
000001b0: 1edd 3e40 0f99 35c0 8e31 3ec0 e89e 3ec0
000001c0: fedd 97c0 5618 3ac0 9290 42c0 7898 3ec0
000001d0: 1e26 4040 b2f2 6340 f629 3f40 aa57 7540
000001e0: 5c4d 4040 79e6 3b40 baba 9ac0 5283 4340
000001f0: 4285 3c40 3a2f 3cc0 2212 4040 2eb9 43c0
00000200: 7a41 32c0 55e2 91c0 0cbb 82c0 0d6c 0bc0
00000210: a702 4f40 0862 4340 9ca1 2740 8aac 43c0
00000220: 4aa0 43c0 a401 41c0 f784 31c0 a6b4 3fc0
00000230: 66f1 3d40 fb46 8840 f950 36c0 e081 5bc0
00000240: 3035 45c0 5608 6040 16aa 42c0 2661 3940
00000250: e9f5 81c0 70fb 4140 5ea3 3d40 604f 3d40
00000260: 3cfd 3d40 834d 87c0 021a 85c0 5f9b 3140
00000270: 75bd 8140 373a 32c0 24dc 3f40 e4a4 3f40
00000280: d75e 31c0 70f6 3ec0 c162 3cc0 9ead 59c0
00000290: ce4e 4040 a817 2940 68a8 4340 ce62 5a40
000002a0: 0aac 3140 9853 3440 f4a1 2ec0 d07f 3cc0
000002b0: 058c 59c0 268d 3ec0 0292 3640 9729 3040
000002c0: a6a8 3540 860e 3340 f5d3 2cc0 3f7c 42c0
000002d0: ec1c 3340 751f 3540 ac42 3240 10c6 17c0
000002e0: 5f52 2340 50ef 3fc0 c0a8 4140 e85d 4340
000002f0: 2479 3ac0 d497 2f40 ee60 4240 ad46 d5bf
00000300: 1fa5 3dc0 5e23 3240 dd1b 4140 b6aa 3f40
00000310: e39f 37c0 fa35 3240 5446 3140 aa41 4040
-2.4681985 -2.46495 -2.5934043 -2.626384 -2.5871978 -2.427617 2.5569382 -2.4667637
2.470273 -2.6399395 -2.498709 -2.4860106 -4.776506 -2.5788438 -2.4809384 -2.4944463
2.4607959 3.5768151 2.4745889 3.3253627 2.5220618 2.8140378 -4.794151 2.4603748
2.6988442 -2.554758 2.472548 -2.506662 -2.5786371 -4.6044116 -4.0798793 -3.3726034
2.6870978 2.4885945 2.6583974 -2.4744697 -2.4316378 -2.4367 -2.5935054 -2.5007505
2.5597274 4.337595 -2.9388852 -3.3059769 -2.4793477 3.542152 -2.4940386 2.593112
-4.161781 2.4628434 2.5166342 2.536005 2.505415 -4.236501 -4.26429 2.5818763
4.068049 -2.6047914 2.4991117 2.4780617 -2.5881672 -2.471823 -2.545691 -3.378048
2.4767108 2.5697615 2.470408 3.2401628 2.6015985 2.5708349 -2.5752494 -2.555053
-0.8631719 -2.5184476 2.578082 2.6009161 2.6326997 2.616957 -2.4861996 -2.4870923
2.5886033 2.6270118 2.5725083 -2.9286025 2.5064383 -2.476612 2.4593554 2.4934838
-2.5629442 2.648437 2.424725 3.403224 -2.5361466 2.567511 2.4763315 2.4706106
-2.5797129 2.582702 2.582263 2.470257 -3.1588278 -3.0260472 -2.7817566 -2.7865624
-2.6480126 -3.0255651 2.5775445 -3.0161157 2.982246 -2.837467 -2.9717746 -2.9784489
-4.7458487 -2.9077353 -3.0400739 -2.978056 3.0023265 3.561688 2.986936 3.8334756
3.0047216 2.935942 -4.835294 3.0548902 2.9456334 -2.9403825 3.0011067 -3.0581775
-2.7852464 -4.5588784 -4.085333 -2.17847 3.234537 3.0528584 2.6192389 -3.057406
-3.0566583 -3.0157251 -2.7737405 -2.995401 2.9678588 4.2586646 -2.8486922 -3.429802
-3.0813713 3.5005088 -3.0416312 2.8965545 -4.0612683 3.0309715 2.9630961 2.9579697
2.9685812 -4.228212 -4.159425 2.775108 4.054377 -2.7848032 2.9978113 2.9944391
-2.7714136 -2.9837914 -2.9435275 -3.4012218 3.0048099 2.6420689 3.0571537 3.4122806
2.7761254 2.8176022 -2.7286348 -2.945301 -3.399171 -2.977365 2.8526616 2.7525384
2.8384185 2.7977614 -2.7004368 -3.0388334 2.7986403 2.830045 2.7853193 -2.3714638
2.5519025 -2.9989815 3.0259247 3.0526066 -2.9136438 2.7436419 3.037166 -1.6662194
-2.9632032 2.7834086 3.0173256 2.9947944 -2.8691337 2.7845445 2.7699175 3.0040078

fc3.bias f4 [2]
00000000: f2a3 1dc0 b973 2ec0
-2.4631314 -2.7258132

fc1.weight f4 [100, 22]
00000000: 164b e727 f768 49a8 e092 cfa8 9bba b3a7
00000010: 603e 8da8 d005 bca7 4b5a cea6 5b33 5aa8
00000020: 5c1b cba7 bb9c 0080 096d 0200 1f1b 0800
00000030: f147 0400 5f36 0c80 340d 0900 7aba 1280
00000040: 2b2d 0800 0c35 0580 5db2 0980 ecd6 1680
00000050: 8d1b 0a80 2008 b600 e0d2 6d26 498f 1526
00000060: 9bc1 1ba7 2a5a 82a6 b701 8f26 4c1a ff25
00000070: 9bc7 96a5 a9f0 4fa7 f9a8 a7a6 588e 0100
00000080: 2e89 0e80 9e8a 1100 f242 1200 e243 0200
00000090: 7572 0a80 86a3 0d00 54ed 0b80 1442 1080
000000a0: 1148 0b80 dc98 1080 a430 1380 0f55 0c80
000000b0: b366 ffa6 b058 7e26 163c ff26 f72f ea26
000000c0: d02d 6927 29cd 9626 8a28 d126 42a3 fa26
000000d0: e2eb 8f26 8e48 1300 ac53 0080 b08b 1100
000000e0: da70 0a80 81a0 0780 a024 0180 89b5 0680
000000f0: ee23 0180 9845 0e00 7eb8 0080 bd0d 0c00
00000100: 2c11 1400 2b38 0800 791e d6bd 561d c53b
00000110: f4a3 943b a93d 0c3c 890b c33b 0c3c 493d
00000120: 4290 033d a3aa dd3c 40f3 2f3d 4186 0580
00000130: f2c1 0900 3d41 0e00 c91a 1580 c855 0500
00000140: 794d 0c80 89ec 0700 1fd1 0e00 9bb5 0400
00000150: 3c34 1500 4e87 0800 5488 0280 9773 0780
00000160: 6a73 9a34 7098 97b4 58d2 e433 0751 38b5
00000170: fb68 dfb5 dc3c 9834 6010 9b34 4c92 9b34
00000180: ba3b 9934 633b 0580 f87f 0f00 2d3a 0580
00000190: d05e 1700 3211 0100 d6cc 0300 8b25 1880
000001a0: 6537 1600 f754 0580 6b3d 0980 5339 1600
000001b0: 0503 0f00 b23c 1080 bc78 8ca6 faf6 56a7
000001c0: 0093 c6a5 4010 0127 a0f4 2f27 0b2d 96a6
000001d0: 719c 43a6 cb05 aaa6 0ec7 15a6 063f 0a80
000001e0: 79b7 0980 cae2 0580 18e6 1500 7b69 0100
000001f0: b377 1280 c28a 0900 ec72 1300 4726 1980
00000200: 4682 0200 c262 1680 e292 1300 2e94 1480
00000210: ce6c 2c01 3faf 5280 5645 5b80 6670 1f80
00000220: 1f83 5580 9c45 4981 aa7a 2a80 b0f9 6181
00000230: 9f19 9f81 2de8 1380 146d 0900 820d 0500
00000240: 5cae 1000 4ab1 0080 b106 0300 a8d0 0380
00000250: 6b3b 0480 bb68 0a00 3625 0b80 506d 0800
00000260: 5791 0880 d43a e902 448d 8fb8 0f29 7c38
00000270: 9e61 5bba 4d81 7b39 eb33 8a39 2015 8e37
00000280: b8da 6337 4851 2d37 f437 8937 08de 1400
00000290: 3344 1000 4737 1100 7fc7 0e80 8c8e 1200
000002a0: d6de 0880 400e 0600 c9bb 0080 fa29 0600
000002b0: e551 1200 0822 0100 20d6 0780 b177 0b00
000002c0: 6df8 0525 1ed2 e224 a678 f624 5ca2 b625
000002d0: 1795 d625 e977 8a25 02fe 4aa4 52e3 f225
000002e0: 7727 9b25 c6f4 0100 8267 0b80 1943 0e80
000002f0: faa4 0e80 fdbf 1380 8151 1500 7da7 0b80
00000300: 3412 0f00 43ba 0f80 8ae0 1480 1aab 1480
00000310: 321a 0b80 ff50 0d80 791e d6bd 561d c53b
00000320: f4a3 943b a93d 0c3c 890b c33b 0c3c 493d
00000330: 4290 033d a3aa dd3c 40f3 2f3d 24eb 0080
00000340: 06b0 1580 ae2c 0580 a214 0e80 5ab0 1580
00000350: e3f2 0600 9f07 0500 eaf9 0e00 1e67 0780
00000360: 742e 0180 0cf4 0900 9f8e 0b00 54dd 0a80
00000370: 791e d63d 561d c5bb f4a3 94bb a93d 0cbc
00000380: 890b c3bb 0c3c 49bd 4290 03bd a3aa ddbc
00000390: 40f3 2fbd d1b1 0600 174c 0900 e133 0580
000003a0: a12b 0280 c3b0 0500 2745 1600 4b27 0580
000003b0: dca2 0a00 4644 1100 5bb4 1780 a791 1500
000003c0: 985f 0080 988c 0300 791e d63d 561d c5bb
000003d0: f4a3 94bb a93d 0cbc 890b c3bb 0c3c 49bd
000003e0: 4290 03bd a3aa ddbc 40f3 2fbd e051 0280
000003f0: 37ee 0c80 1853 0100 03a4 0a00 2cd1 0600
6.419679e-15 -1.1180502e-14 -2.3045313e-14 -4.98848e-15 -1.5681195e-14 -5.2186784e-15 -1.4318595e-15 -1.2112567e-14
-5.637348e-15 -5.6224e-41 2.22785e-40 7.44413e-40 3.9315e-40 -1.12153e-39 8.31256e-40 -1.719934e-39
7.50887e-40 -4.78207e-40 -8.90504e-40 -2.09748e-39 -9.28238e-40 1.6716975e-38 8.251168e-16 5.1888947e-16
-2.1615525e-15 -9.045001e-16 9.923083e-16 4.4253268e-16 -2.615611e-16 -2.8857483e-15 -1.1633753e-15 1.42899e-40
-1.334908e-39 1.61093e-39 1.677054e-39 2.08023e-40 -9.59414e-40 1.252523e-39 -1.095328e-39 -1.493072e-39
-1.036043e-39 -1.524204e-39 -1.762323e-39 -1.132539e-39 -1.7722016e-15 8.8244147e-16 1.7710466e-15 1.6250013e-15
3.236008e-15 1.046395e-15 1.4513276e-15 1.7391486e-15 9.986554e-16 1.770902e-39 -3.0016e-41 1.611314e-39
-9.58838e-40 -7.00426e-40 -1.04974e-40 -6.16136e-40 -1.04725e-40 1.310662e-39 -6.6183e-41 1.106954e-39
1.84287e-39 7.54833e-40 -0.10455031 0.00601546 0.0045361463 0.008559623 0.005952303 0.04912953
0.032119997 0.027058905 0.04295659 -5.07339e-40 8.96094e-40 1.3091e-39 -1.938154e-39 4.8995e-40
-1.129818e-39 7.27701e-40 1.360715e-39 4.3249e-40 1.947284e-39 7.83222e-40 -2.32576e-40 -6.84314e-40
2.876871e-07 -2.8236855e-07 1.0655339e-07 -6.866325e-07 -1.6645348e-06 2.8356487e-07 2.8882914e-07 2.8977445e-07
2.8541928e-07 -4.80481e-40 1.423439e-39 -4.80047e-40 2.146229e-39 9.8004e-41 3.48988e-40 -2.21752e-39
2.040253e-39 -4.89657e-40 -8.48552e-40 2.040945e-39 1.378616e-39 -1.491141e-39 -9.747177e-16 -2.9832352e-15
-3.4447136e-16 1.7911155e-15 2.441874e-15 -1.042055e-15 -6.7866233e-16 -1.179769e-15 -5.196453e-16 -9.40964e-40
-8.92337e-40 -5.40534e-40 2.011088e-39 1.29675e-40 -1.695979e-39 8.76296e-40 1.7861e-39 -2.309619e-39
2.30404e-40 -2.055809e-39 1.797566e-39 -1.889867e-39 3.1669474e-38 -7.593377e-39 -8.381903e-39 -2.887221e-39
-7.853055e-39 -3.6967812e-38 -3.901094e-39 -4.1505115e-38 -5.844414e-38 -1.828163e-39 8.6565e-40 4.64023e-40
1.531916e-39 -6.36e-41 2.77907e-40 -3.50358e-40 -3.88657e-40 9.55925e-40 -1.023539e-39 7.73898e-40
-7.86822e-40 3.4270039e-37 -6.845084e-05 6.011972e-05 -0.0008368733 0.00023985394 0.00026360093 1.6937556e-05
1.3581179e-05 1.0330528e-05 1.6357728e-05 1.91636e-39 1.493833e-39 1.581033e-39 -1.357263e-39 1.704175e-39
-8.14622e-40 5.56125e-40 -6.7365e-41 5.66071e-40 1.682417e-39 1.04044e-40 -7.19662e-40 1.053128e-39
1.1620081e-16 9.836783e-17 1.0688988e-16 3.1681986e-16 3.722411e-16 2.4020438e-16 -4.401692e-17 4.2134346e-16
2.6914956e-16 1.79644e-40 -1.047322e-39 -1.309767e-39 -1.34488e-39 -1.813747e-39 1.957784e-39 -1.070274e-39
1.384062e-39 -1.44435e-39 -1.91726e-39 -1.89809e-39 -1.019588e-39 -1.222917e-39 -0.10455031 0.00601546
0.0045361463 0.008559623 0.005952303 0.04912953 0.032119997 0.027058905 0.04295659 -8.4353e-41
-1.991691e-39 -4.75206e-40 -1.293099e-39 -1.991808e-39 6.38144e-40 4.61911e-40 1.375349e-39 -6.7984e-40
-1.085e-40 9.14067e-40 1.061353e-39 -9.97753e-40 0.10455031 -0.00601546 -0.0045361463 -0.008559623
-0.005952303 -0.04912953 -0.032119997 -0.027058905 -0.04295659 6.14801e-40 8.53815e-40 -4.77788e-40
-1.99322e-40 5.22588e-40 2.045188e-39 -4.73273e-40 9.76778e-40 1.585695e-39 -2.176916e-39 1.980796e-39
-3.4293e-41 3.25942e-40 0.10455031 -0.00601546 -0.0045361463 -0.008559623 -0.005952303 -0.04912953
-0.032119997 -0.027058905 -0.04295659 -2.13042e-40 -1.187481e-39 1.21644e-40 9.77191e-40 6.2605e-40

fc1.bias f4 [100]
00000000: d36b 1c28 d269 2127 ce56 7ea6 a8b5 02be
00000010: 5413 93b4 d46a 6026 7e33 fb00 4c82 a4b7
00000020: 2012 2625 a8b5 02be a8b5 023e a8b5 023e
00000030: 6e42 e62d a8b5 023e a8b5 02be a8b5 023e
00000040: a8b5 02be a8b5 02be 2f71 5da6 a8b5 02be
00000050: be6e f931 8c05 df2b 1ed2 9222 074e 3297
00000060: 22a8 baa8 e75a 86a7 a8b5 02be a8b5 02be
00000070: cb30 14a5 a8b5 023e c7f1 8534 a9b7 1fa1
00000080: fa0a 2623 a8b5 023e 8477 ec26 3450 f480
00000090: b0ea a9b4 2d03 4e30 e25f e4b2 d23a 9720
000000a0: 525b 8527 d0af 0dba 4e9c d5b9 e352 f9b5
000000b0: 80c5 3982 82e2 bc33 a8b5 023e a8b5 02be
000000c0: e911 062c a8b5 02be a8b5 02be a8b5 02be
000000d0: a8b5 023e 466d 3e28 4447 be25 a8b5 02be
000000e0: fafe dd28 a8b5 023e a8b5 023e a4f6 2a01
000000f0: a8b5 023e 08b0 81b4 a8b5 023e 220d 0dba
00000100: a8b5 023e e9a2 eb82 164b 50b7 a8b5 02be
00000110: a8b5 023e 9258 b124 3745 a9aa a8b5 023e
00000120: a8b5 023e a8b5 02be a8b5 02be a8b5 023e
00000130: a8b5 023e a8b5 02be af0d a32c ef11 5720
00000140: 8120 ccb3 1e9a 1db9 cd07 2c82 a8b5 023e
00000150: 4c40 17a2 a8b5 023e 97a2 f8b2 74cc 7525
00000160: a8b5 023e f77c 5233 4476 3627 46a8 a125
00000170: 5a11 8fa4 a8b5 023e a8b5 02be a8b5 023e
00000180: 6783 adb0 9057 e513 5792 6fb9 a8b5 02be
8.68312e-15 2.2400604e-15 -8.8241595e-16 -0.12764609 -2.7394947e-07 7.786039e-16 2.3069181e-38 -1.9610998e-05
1.4404346e-16 -0.12764609 0.12764609 0.12764609 2.6177473e-11 0.12764609 -0.12764609 0.12764609
-0.12764609 -0.12764609 -7.682817e-16 -0.12764609 7.2594437e-09 1.5846643e-12 3.979585e-18 -5.7613386e-25
-2.0723064e-14 -3.7291028e-15 -0.12764609 -0.12764609 -1.2853485e-16 0.12764609 2.4949097e-07 -5.411437e-19
9.001202e-18 0.12764609 1.6408184e-15 -2.2436633e-38 -3.164946e-07 7.4946876e-10 -2.6586296e-08 2.561932e-19
3.7013925e-15 -0.0005404921 -0.00040742982 -1.8576069e-06 -1.3648333e-37 8.795634e-08 0.12764609 -0.12764609
1.9052487e-12 -0.12764609 -0.12764609 -0.12764609 0.12764609 1.0570814e-14 3.3008038e-16 -0.12764609
2.4646507e-14 0.12764609 0.12764609 3.1401025e-38 0.12764609 -2.4156202e-07 0.12764609 -0.000538068
0.12764609 -3.4623652e-37 -1.2415248e-05 -0.12764609 0.12764609 7.691156e-17 -3.0068458e-13 0.12764609
0.12764609 -0.12764609 -0.12764609 0.12764609 0.12764609 -0.12764609 4.634258e-12 1.8217142e-19
-9.505403e-08 -0.000150301 -1.2638803e-37 0.12764609 -2.0498354e-18 0.12764609 -2.8944937e-08 2.1319634e-16
0.12764609 4.900809e-08 2.5321686e-15 2.8043074e-16 -6.204576e-17 0.12764609 -0.12764609 0.12764609
-1.2624753e-09 5.789407e-27 -0.00022847332 -0.12764609

fc2.weight f4 [100, 100]
00000000: 92b1 75a8 43f9 71a6 1c48 f726 57fc 9e3c
00000010: b2c8 0035 fb0e 7e26 b6f9 3280 2faa 99b9
00000020: 9cbc 5d24 57fc 9e3c 57fc 9ebc 57fc 9ebc
00000030: 1ac1 61ae 57fc 9ebc 57fc 9e3c 57fc 9ebc
00000040: 57fc 9e3c 57fc 9e3c 66b0 6126 57fc 9e3c
00000050: 00a4 94ac 076c 0f2d 8bb7 b3a3 fb50 fd16
00000060: a88a 65a7 63a0 c8a6 57fc 9e3c 57fc 9e3c
00000070: 0c72 a024 57fc 9ebc e4b7 b833 0833 db20
00000080: 2c3c 0f22 57fc 9ebc 2a47 00a7 05c1 3a00
00000090: eb58 67b5 d8e6 72b1 29cc 01b3 4809 8b20
000000a0: d064 d5a7 6630 593a 92c3 00bb 7447 51b6
000000b0: a12b a401 96c7 6c34 57fc 9ebc 57fc 9e3c
000000c0: 0856 4f2a 57fc 9e3c 57fc 9e3c 57fc 9e3c
000000d0: 57fc 9ebc 50d7 2e28 5004 48a5 57fc 9e3c
000000e0: 7080 2429 57fc 9ebc 57fc 9ebc 9851 2980
000000f0: 57fc 9ebc 6f52 d9b4 57fc 9ebc 8e86 a538
00000100: 57fc 9ebc 4c3a c201 ec02 c036 57fc 9e3c
00000110: 57fc 9ebc 7e48 8624 5238 bc2a 57fc 9ebc
00000120: 57fc 9ebc 57fc 9e3c 57fc 9e3c 57fc 9ebc
00000130: 57fc 9ebc 57fc 9e3c 0774 ca2c aae4 ae20
00000140: 949e c0b2 58f3 b8b9 5c07 bf81 57fc 9ebc
00000150: 9f11 47a3 57fc 9ebc eeda 1633 f8c1 a524
00000160: 57fc 9ebc d910 f133 5054 3128 2097 2626
00000170: 4a10 3326 57fc 9ebc 57fc 9e3c 57fc 9ebc
00000180: 0040 aaac 5bba 5316 6bd1 7939 56fc 9e3c
00000190: 92b1 75a8 43f9 71a6 1c48 f726 57fc 9e3c
000001a0: b2c8 0035 fb0e 7e26 b6f9 3280 2faa 99b9
000001b0: 9cbc 5d24 57fc 9e3c 57fc 9ebc 57fc 9ebc
000001c0: 1ac1 61ae 57fc 9ebc 57fc 9e3c 57fc 9ebc
000001d0: 57fc 9e3c 57fc 9e3c 66b0 6126 57fc 9e3c
000001e0: 00a4 94ac 076c 0f2d 8bb7 b3a3 fb50 fd16
000001f0: a88a 65a7 63a0 c8a6 57fc 9e3c 57fc 9e3c
00000200: 0c72 a024 57fc 9ebc e4b7 b833 0833 db20
00000210: 2c3c 0f22 57fc 9ebc 2a47 00a7 05c1 3a00
00000220: eb58 67b5 d8e6 72b1 29cc 01b3 4809 8b20
00000230: d064 d5a7 6630 593a 92c3 00bb 7447 51b6
00000240: a12b a401 96c7 6c34 57fc 9ebc 57fc 9e3c
00000250: 0856 4f2a 57fc 9e3c 57fc 9e3c 57fc 9e3c
00000260: 57fc 9ebc 50d7 2e28 5004 48a5 57fc 9e3c
00000270: 7080 2429 57fc 9ebc 57fc 9ebc 9851 2980
00000280: 57fc 9ebc 6f52 d9b4 57fc 9ebc 8e86 a538
00000290: 57fc 9ebc 4c3a c201 ec02 c036 57fc 9e3c
000002a0: 57fc 9ebc 7e48 8624 5238 bc2a 57fc 9ebc
000002b0: 57fc 9ebc 57fc 9e3c 57fc 9e3c 57fc 9ebc
000002c0: 57fc 9ebc 57fc 9e3c 0774 ca2c aae4 ae20
000002d0: 949e c0b2 58f3 b8b9 5c07 bf81 57fc 9ebc
000002e0: 9f11 47a3 57fc 9ebc eeda 1633 f8c1 a524
000002f0: 57fc 9ebc d910 f133 5054 3128 2097 2626
00000300: 4a10 3326 57fc 9ebc 57fc 9e3c 57fc 9ebc
00000310: 0040 aaac 5bba 5316 6bd1 7939 56fc 9e3c
00000320: 92b1 75a8 43f9 71a6 1c48 f726 57fc 9e3c
00000330: b2c8 0035 fb0e 7e26 b6f9 3280 2faa 99b9
00000340: 9cbc 5d24 57fc 9e3c 57fc 9ebc 57fc 9ebc
00000350: 1ac1 61ae 57fc 9ebc 57fc 9e3c 57fc 9ebc
00000360: 57fc 9e3c 57fc 9e3c 66b0 6126 57fc 9e3c
00000370: 00a4 94ac 076c 0f2d 8bb7 b3a3 fb50 fd16
00000380: a88a 65a7 63a0 c8a6 57fc 9e3c 57fc 9e3c
00000390: 0c72 a024 57fc 9ebc e4b7 b833 0833 db20
000003a0: 2c3c 0f22 57fc 9ebc 2a47 00a7 05c1 3a00
000003b0: eb58 67b5 d8e6 72b1 29cc 01b3 4809 8b20
000003c0: d064 d5a7 6630 593a 92c3 00bb 7447 51b6
000003d0: a12b a401 96c7 6c34 57fc 9ebc 57fc 9e3c
000003e0: 0856 4f2a 57fc 9e3c 57fc 9e3c 57fc 9e3c
000003f0: 57fc 9ebc 50d7 2e28 5004 48a5 57fc 9e3c
-1.36387365e-14 -8.3951484e-16 1.7158613e-15 0.019407434 4.7975766e-07 8.8144255e-16 -4.681354e-39 -0.0002930923
4.8081494e-17 0.019407434 -0.019407434 -0.019407434 -5.1330586e-11 -0.019407434 0.019407434 -0.019407434
0.019407434 0.019407434 7.830162e-16 0.019407434 -4.2246207e-12 8.152596e-12 -1.9484952e-17 4.092546e-25
-3.18553e-15 -1.3921261e-15 0.019407434 0.019407434 6.958214e-17 -0.019407434 8.601617e-08 3.7133813e-19
1.9411969e-18 -0.019407434 -1.7802147e-15 5.395701e-39 -8.61836e-07 -3.5346854e-09 -3.0220836e-08 2.3553658e-19
-5.9228677e-15 0.0008285105 -0.001964782 -3.1185018e-06 6.030669e-38 2.2051822e-07 -0.019407434 0.019407434
1.8415141e-13 0.019407434 0.019407434 0.019407434 -0.019407434 9.705629e-15 -1.7348696e-16 0.019407434
3.6526717e-14 -0.019407434 -0.019407434 -3.794526e-39 -0.019407434 -4.0479378e-07 -0.019407434 7.892876e-05
-0.019407434 7.1347997e-38 5.722386e-06 0.019407434 -0.019407434 5.823604e-17 3.343459e-13 -0.019407434
-0.019407434 0.019407434 0.019407434 -0.019407434 -0.019407434 0.019407434 5.754067e-12 2.9628064e-19
-2.2423855e-08 -0.0003527652 -7.017288e-38 -0.019407434 -1.0791543e-17 -0.019407434 3.5123712e-08 7.188594e-17
-0.019407434 1.12255016e-07 9.843756e-15 5.779763e-16 6.2125176e-16 -0.019407434 0.019407434 -0.019407434
-4.838796e-12 1.7103248e-25 0.00023824505 0.019407433 -1.36387365e-14 -8.3951484e-16 1.7158613e-15 0.019407434
4.7975766e-07 8.8144255e-16 -4.681354e-39 -0.0002930923 4.8081494e-17 0.019407434 -0.019407434 -0.019407434
-5.1330586e-11 -0.019407434 0.019407434 -0.019407434 0.019407434 0.019407434 7.830162e-16 0.019407434
-4.2246207e-12 8.152596e-12 -1.9484952e-17 4.092546e-25 -3.18553e-15 -1.3921261e-15 0.019407434 0.019407434
6.958214e-17 -0.019407434 8.601617e-08 3.7133813e-19 1.9411969e-18 -0.019407434 -1.7802147e-15 5.395701e-39
-8.61836e-07 -3.5346854e-09 -3.0220836e-08 2.3553658e-19 -5.9228677e-15 0.0008285105 -0.001964782 -3.1185018e-06
6.030669e-38 2.2051822e-07 -0.019407434 0.019407434 1.8415141e-13 0.019407434 0.019407434 0.019407434
-0.019407434 9.705629e-15 -1.7348696e-16 0.019407434 3.6526717e-14 -0.019407434 -0.019407434 -3.794526e-39
-0.019407434 -4.0479378e-07 -0.019407434 7.892876e-05 -0.019407434 7.1347997e-38 5.722386e-06 0.019407434
-0.019407434 5.823604e-17 3.343459e-13 -0.019407434 -0.019407434 0.019407434 0.019407434 -0.019407434
-0.019407434 0.019407434 5.754067e-12 2.9628064e-19 -2.2423855e-08 -0.0003527652 -7.017288e-38 -0.019407434
-1.0791543e-17 -0.019407434 3.5123712e-08 7.188594e-17 -0.019407434 1.12255016e-07 9.843756e-15 5.779763e-16
6.2125176e-16 -0.019407434 0.019407434 -0.019407434 -4.838796e-12 1.7103248e-25 0.00023824505 0.019407433
-1.36387365e-14 -8.3951484e-16 1.7158613e-15 0.019407434 4.7975766e-07 8.8144255e-16 -4.681354e-39 -0.0002930923
4.8081494e-17 0.019407434 -0.019407434 -0.019407434 -5.1330586e-11 -0.019407434 0.019407434 -0.019407434
0.019407434 0.019407434 7.830162e-16 0.019407434 -4.2246207e-12 8.152596e-12 -1.9484952e-17 4.092546e-25
-3.18553e-15 -1.3921261e-15 0.019407434 0.019407434 6.958214e-17 -0.019407434 8.601617e-08 3.7133813e-19
1.9411969e-18 -0.019407434 -1.7802147e-15 5.395701e-39 -8.61836e-07 -3.5346854e-09 -3.0220836e-08 2.3553658e-19
-5.9228677e-15 0.0008285105 -0.001964782 -3.1185018e-06 6.030669e-38 2.2051822e-07 -0.019407434 0.019407434
1.8415141e-13 0.019407434 0.019407434 0.019407434 -0.019407434 9.705629e-15 -1.7348696e-16 0.019407434

fc2.bias f4 [100]
00000000: 7274 9abd 7274 9abd 7274 9abd 7274 9a3d
00000010: 7274 9a3d 7274 9abd 7274 9a3d 7274 9a3d
00000020: 7274 9abd 7274 9abd 7274 9abd 7274 9a3d
00000030: 7274 9a3d 7274 9a3d 7274 9abd 7274 9abd
00000040: 7274 9abd 7274 9a3d 7274 9a3d 7274 9a3d
00000050: 7274 9abd 7274 9a3d 7274 9abd 7274 9abd
00000060: 7274 9a3d 4661 f219 7274 9a3d 7274 9abd
00000070: 7274 9a3d 7274 9abd 7274 9abd 7274 9a3d
00000080: 7274 9a3d 7274 9abd 7274 9abd 7274 9abd
00000090: 7274 9abd 7274 9a3d 7274 9a3d 7274 9a3d
000000a0: 7274 9a3d 7274 9a3d 7274 9abd 7274 9abd
000000b0: 7274 9abd 7274 9abd 7274 9a3d 7274 9a3d
000000c0: 7274 9a3d 7274 9a3d 7274 9a3d 7274 9abd
000000d0: 7274 9a3d 7274 9a3d 7274 9a3d 7274 9abd
000000e0: 7274 9a3d 7274 9abd 7274 9a3d 7274 9a3d
000000f0: 7274 9abd 7274 9abd 7274 9a3d 7274 9abd
00000100: 7274 9a3d 7274 9abd 7274 9abd 7274 9a3d
00000110: 7274 9abd 7274 9abd 7274 9a3d 7274 9a3d
00000120: 7274 9a3d 7274 9abd 7274 9abd 7274 9abd
00000130: 7274 9a3d 7274 9abd 7274 9a3d 7274 9a3d
00000140: 3535 0f9b 7274 9a3d 7274 9a3d 7274 9a3d
00000150: 7274 9a3d b857 9419 7274 9abd 0bdc 48a8
00000160: 7274 9a3d 7274 9abd 7274 9abd 5bef 0180
00000170: 7274 9a3d 7274 9a3d 7274 9a3d 7274 9a3d
00000180: 7274 9abd 7274 9a3d 7274 9abd 7274 9a3d
-0.075417414 -0.075417414 -0.075417414 0.075417414 0.075417414 -0.075417414 0.075417414 0.075417414
-0.075417414 -0.075417414 -0.075417414 0.075417414 0.075417414 0.075417414 -0.075417414 -0.075417414
-0.075417414 0.075417414 0.075417414 0.075417414 -0.075417414 0.075417414 -0.075417414 -0.075417414
0.075417414 2.5061502e-23 0.075417414 -0.075417414 0.075417414 -0.075417414 -0.075417414 0.075417414
0.075417414 -0.075417414 -0.075417414 -0.075417414 -0.075417414 0.075417414 0.075417414 0.075417414
0.075417414 0.075417414 -0.075417414 -0.075417414 -0.075417414 -0.075417414 0.075417414 0.075417414
0.075417414 0.075417414 0.075417414 -0.075417414 0.075417414 0.075417414 0.075417414 -0.075417414
0.075417414 -0.075417414 0.075417414 0.075417414 -0.075417414 -0.075417414 0.075417414 -0.075417414
0.075417414 -0.075417414 -0.075417414 0.075417414 -0.075417414 -0.075417414 0.075417414 0.075417414
0.075417414 -0.075417414 -0.075417414 -0.075417414 0.075417414 -0.075417414 0.075417414 0.075417414
-1.1845875e-22 0.075417414 0.075417414 0.075417414 0.075417414 1.533827e-23 -0.075417414 -1.11499445e-14
0.075417414 -0.075417414 -0.075417414 -1.777e-40 0.075417414 0.075417414 0.075417414 0.075417414
-0.075417414 0.075417414 -0.075417414 0.075417414

fc3.weight f4 [1, 100]
00000000: 1ce4 1abe 1ce4 1abe 1ce4 1abe 1ce4 1a3e
00000010: 1ce4 1a3e 1ce4 1abe 1ce4 1a3e 1ce4 1a3e
00000020: 1ce4 1abe 1ce4 1abe 1ce4 1abe 1ce4 1a3e
00000030: 1ce4 1a3e 1ce4 1a3e 1ce4 1abe 1ce4 1abe
00000040: 1ce4 1abe 1ce4 1a3e 1ce4 1a3e 1ce4 1a3e
00000050: 1ce4 1abe 1ce4 1a3e 1ce4 1abe 1ce4 1abe
00000060: 1ce4 1a3e f8f6 421a 1ce4 1a3e 1ce4 1abe
00000070: 1ce4 1a3e 1ce4 1abe 1ce4 1abe 1ce4 1a3e
00000080: 1ce4 1a3e 1ce4 1abe 1ce4 1abe 1ce4 1abe
00000090: 1ce4 1abe 1ce4 1a3e 1ce4 1a3e 1ce4 1a3e
000000a0: 1ce4 1a3e 1ce4 1a3e 1ce4 1abe 1ce4 1abe
000000b0: 1ce4 1abe 1ce4 1abe 1ce4 1a3e 1ce4 1a3e
000000c0: 1ce4 1a3e 1ce4 1a3e 1ce4 1a3e 1ce4 1abe
000000d0: 1ce4 1a3e 1ce4 1a3e 1ce4 1a3e 1ce4 1abe
000000e0: 1ce4 1a3e 1ce4 1abe 1ce4 1a3e 1ce4 1a3e
000000f0: 1ce4 1abe 1ce4 1abe 1ce4 1a3e 1ce4 1abe
00000100: 1ce4 1a3e 1ce4 1abe 1ce4 1abe 1ce4 1a3e
00000110: 1ce4 1abe 1ce4 1abe 1ce4 1a3e 1ce4 1a3e
00000120: 1ce4 1a3e 1ce4 1abe 1ce4 1abe 1ce4 1abe
00000130: 1ce4 1a3e 1ce4 1abe 1ce4 1a3e 1ce4 1a3e
00000140: 60a2 8618 1ce4 1a3e 1ce4 1a3e 1ce4 1a3e
00000150: 1ce4 1a3e f56f f319 1ce4 1abe 5ade 68a8
00000160: 1ce4 1a3e 1ce4 1abe 1ce4 1abe b536 1600
00000170: 1ce4 1a3e 1ce4 1a3e 1ce4 1a3e 1ce4 1a3e
00000180: 1ce4 1abe 1ce4 1a3e 1ce4 1abe 1ce4 1a3e
-0.1512608 -0.1512608 -0.1512608 0.1512608 0.1512608 -0.1512608 0.1512608 0.1512608
-0.1512608 -0.1512608 -0.1512608 0.1512608 0.1512608 0.1512608 -0.1512608 -0.1512608
-0.1512608 0.1512608 0.1512608 0.1512608 -0.1512608 0.1512608 -0.1512608 -0.1512608
0.1512608 4.031776e-23 0.1512608 -0.1512608 0.1512608 -0.1512608 -0.1512608 0.1512608
0.1512608 -0.1512608 -0.1512608 -0.1512608 -0.1512608 0.1512608 0.1512608 0.1512608
0.1512608 0.1512608 -0.1512608 -0.1512608 -0.1512608 -0.1512608 0.1512608 0.1512608
0.1512608 0.1512608 0.1512608 -0.1512608 0.1512608 0.1512608 0.1512608 -0.1512608
0.1512608 -0.1512608 0.1512608 0.1512608 -0.1512608 -0.1512608 0.1512608 -0.1512608
0.1512608 -0.1512608 -0.1512608 0.1512608 -0.1512608 -0.1512608 0.1512608 0.1512608
0.1512608 -0.1512608 -0.1512608 -0.1512608 0.1512608 -0.1512608 0.1512608 0.1512608
3.4802145e-24 0.1512608 0.1512608 0.1512608 0.1512608 2.517083e-23 -0.1512608 -1.2926802e-14
0.1512608 -0.1512608 -0.1512608 2.040006e-39 0.1512608 0.1512608 0.1512608 0.1512608
-0.1512608 0.1512608 -0.1512608 0.1512608

fc1.weight f4 [100, 24]
00000000: 000a 5f3b 0985 783e f71f f9bc cac6 e9bd
00000010: ee7f 9b3d 0ac8 2b3c 38e1 5a3e fdf3 7cbd
00000020: e274 22bd 3646 4f3e d66f 13be c078 1fbb
00000030: d018 11be 60ef 15bc a842 10be 3864 803d
00000040: 85bf 0bbe e51f 22be 6ee4 0dbe 500e d23d
00000050: 6670 0dbe 13df e83d 122b 273d 176a 5a3e
00000060: 5288 733d f4e6 673d b7bb 763d 6d20 1dbe
00000070: e85d 1dbe 7d53 43be 5b5c 86be 3faa 86be
00000080: de0d 07be c23f 093e 12d7 0c3e f8aa 8c3c
00000090: 84da 97bd 7280 04be f88a 873d 00d5 c73a
000000a0: 4caa 1e3e d805 95bc 68e6 58bd 060f 21be
000000b0: b01d e4bd c446 da3c fe58 323e cefd ebbd
000000c0: 3e93 553e 3f82 29bc c7ee ecbd 83f6 993d
000000d0: 2491 5d3e ba26 033c 70b3 f9bc 7549 1a3d
000000e0: fb0d 1d3e 5b37 4dbe 646a 053d 7021 fabc
000000f0: e0a3 6b3c f417 28bd 701a 94bd dc44 31bd
00000100: 9cab 66bd 4cd6 09be 5828 31be d6de 4fbe
00000110: a498 abbd 5f24 14be 58d5 16be 0827 d43d
00000120: d9a3 c63d 0a52 40be 5e04 513d f58f 27be
00000130: 3c5a 3dbc 48f5 d53d cbe3 3dbe 1091 0fbe
00000140: 7a90 c7bd 2a86 30be 92d2 243e 8a49 3f3e
00000150: 420b 4bbe b4d3 d93d b676 323e a833 4cbd
00000160: d038 c4bc cca6 8c3d 2420 c23d 7cc5 153e
00000170: 8860 933d 6757 15bd 19e1 02be 58c0 7dbd
00000180: a035 73bd 1ab7 613c f165 08bc 893f e73c
00000190: d0e9 1abe 458e ffbd fbde 65bd c744 4fbe
000001a0: 3cba e1bd e119 29be 208f 45be 1072 f1bc
000001b0: 24b7 303e 50bd 64bc 80ee c2ba 900d 0ebc
000001c0: 6055 d6bb b641 1e3e f8f3 88bd 1ecd e0bd
000001d0: e2c7 3c3e 7050 b9bc 5cb7 243d c012 3c3e
000001e0: 8074 2cbe 32ef e4bd bfc2 ebbd 65de 37be
000001f0: 96af abbb 46df 84be ba05 d5bd 7d23 8fbd
00000200: 1e2f c0bc 108b 973d 8494 303e be9a 9ebd
00000210: a2ae 30be 803c ce3c 942d 193e 68b3 ddbc
00000220: 526a 243e a6a4 c5bd 408c 94bd 58ea 81bd
00000230: 1cd3 83bd 2f83 393e c451 343d 6f6b 75bc
00000240: 2724 66be e04a a5ba 51b7 ddbd 9b1e 4dbe
00000250: bbf4 b13b 8e8b 1d3e f892 11be 2a66 20be
00000260: 248c c83d 684c 3b3e a3f9 45be aa91 0ebe
00000270: d44a 4d3e f621 1e3e 909f ee3c a4c4 df3d
00000280: 2859 b23c c539 f1bd 04ce f0bd c634 313e
00000290: 908c 253c fe94 ad3d ad31 8a3d 9fc0 763d
000002a0: e188 093e a925 123e 6587 f0bd 9268 013d
000002b0: 104e 3f3e 7fe3 433d cb4e 383e 9d49 483e
000002c0: 61e7 a53d 9b4b e8bd f885 963d 604e a73d
000002d0: a043 39bc 7cf7 273e d515 a3bd 008e 043d
000002e0: cbbe 1bbe 88f0 eebd 3da5 b2bd a065 5bbd
000002f0: e795 32be 643c 433d e3e3 95bd e236 08be
00000300: 5508 c13c f1d8 163e 1e1d b03d 7726 a73d
00000310: f556 ba3d 6dd9 f23d 08c6 213d 9e69 fe3d
00000320: 53f6 ca3d aef8 393e f278 323e a881 463d
00000330: 602b 35bd 2f14 39be 9c00 08bd de6b 503e
00000340: 8085 223e 9a43 243e c4f6 99bd b82f fabc
00000350: 8856 003e ee29 febc 6085 3e3d 01ac e4bd
00000360: eb9c 6dbd e1c7 aa3d f23e 6e3c b3b8 303e
00000370: c0e8 1abe 78b0 d83d bf15 063e c247 183e
00000380: 9a1c 9bbc 9834 00bd 00b7 423e 091f fcbd
00000390: e807 ba3d df23 41be 8086 ed3b b035 473d
000003a0: 80b3 573d 6f94 05be da8c efbd 38d9 ad3d
000003b0: aaa7 103e 3659 203c b9d7 483c 508c 3abe
000003c0: 5b0f 0dbe 594c 52bc 54ff 0d3c c672 ba3d
000003d0: b6c9 1cbe f8de 62be 2b93 37be d3ed 90be
000003e0: 3e74 33be bcfe 7cbd 98b2 ba3c 02d9 bbbd
000003f0: c023 7c3c 08b2 053e 10d3 6e3d acf2 2dbd
0.003403306 0.24269499 -0.03041075 -0.11414869 0.0759276 0.010484705 0.21374977 -0.061756123
-0.03966225 0.20241627 -0.14398131 -0.0024333447 -0.14169621 -0.00915131 -0.14087927 0.06269115
-0.13647278 -0.1583248 -0.1385667 0.10256636 -0.13812408 0.11370673 0.04081256 0.21329533
0.059456177 0.05661674 0.060237613 -0.153444 -0.15367854 -0.19074817 -0.26242337 -0.26301762
-0.13188884 0.13403228 0.13753918 0.017171368 -0.074147254 -0.12939623 0.06618303 0.0015245974
0.1549465 -0.018191263 -0.052954108 -0.15728387 -0.11138475 0.026645072 0.1741676 -0.11523019
0.2085695 -0.0103459945 -0.11568981 0.075177215 0.21637398 0.008004839 -0.03048107 0.03766771
0.15337364 -0.20040648 0.032572165 -0.030533522 0.014382333 -0.04103847 -0.07231605 -0.04327856
-0.056316003 -0.13460654 -0.17300546 -0.20299849 -0.08378723 -0.14467 -0.14729822 0.10359007
0.0969922 -0.18781295 0.051029555 -0.16363509 -0.011557158 0.10447174 -0.18543927 -0.1402018
-0.097443536 -0.1723868 0.16095951 0.18680397 -0.19828513 0.10636082 0.17428097 -0.04985395
-0.023952872 0.068677515 0.094787866 0.14626116 0.07196146 -0.036460306 -0.1278118 -0.06195101
-0.059377313 0.013776565 -0.008325086 0.028228538 -0.15128255 -0.12478308 -0.056120854 -0.2024108
-0.110218495 -0.16513778 -0.19292879 -0.029473335 0.17257363 -0.013961151 -0.0014872104 -0.008670226
-0.006540939 0.15454754 -0.06687158 -0.10976623 0.18435624 -0.022621363 0.040213928 0.18366528
-0.16841316 -0.111784354 -0.11511754 -0.1795593 -0.0052394373 -0.25951594 -0.10401483 -0.06989191
-0.023459967 0.07399571 0.17244154 -0.077443585 -0.17254117 0.025175333 0.14958793 -0.027063087
0.16056183 -0.09650545 -0.07253313 -0.06343526 -0.0643675 0.18116449 0.04402329 -0.014979227
-0.22474729 -0.0012610815 -0.108259805 -0.20031206 0.0054307855 0.15385267 -0.1421622 -0.15663972
0.09792355 0.18290865 -0.1933351 -0.13922754 0.20048076 0.15442643 0.02912882 0.10926178
0.021771029 -0.11778597 -0.11758044 0.17305288 0.0101043135 0.08475684 0.06747756 0.06024229
0.13431121 0.14272179 -0.117445745 0.031593867 0.18682122 0.04782438 0.17998807 0.19559331
0.08100773 -0.113425456 0.07349771 0.08169246 -0.011307627 0.16403002 -0.079631485 0.032361984
-0.152095 -0.116669714 -0.08722923 -0.053563714 -0.17439996 0.047665015 -0.073188566 -0.13302186
0.023563543 0.14731194 0.08599304 0.081616335 0.09098617 0.11857877 0.039495498 0.12422489
0.09910264 0.1816127 0.1742895 0.048463494 -0.04423082 -0.18074106 -0.033203706 0.20353648
0.15871239 0.16041413 -0.0751777 -0.030540332 0.12533009 -0.031025853 0.046513915 -0.1116562
-0.058010977 0.08338905 0.0145413745 0.17257957 -0.1512785 0.10580534 0.13094233 0.14871123
-0.018934537 -0.031300157 0.19015121 -0.12310607 0.09083539 -0.1886134 0.0072486997 0.048635185
0.05266142 -0.13044904 -0.11696787 0.08488697 0.14126459 0.009786895 0.012258464 -0.18217587
-0.13775389 -0.0128355855 0.008666832 0.091039225 -0.15311322 -0.22155368 -0.17927234 -0.28306445
-0.17524812 -0.06176637 0.022790238 -0.0917225 0.015389383 0.13056195 0.058306754 -0.042467758
