gail/save_model/0/SUB019_ckpt_22.pth.tar (torch_old, 154725 bytes, 16 tensors)

fc1.weight f4 [100, 22]
-0.15387908 -0.1561287 0.108722046 -0.0793686 0.31772715 0.08295713 -0.107448295 0.08454558
0.1604044 0.1270954 -0.017363548 0.17043388 -0.105812654 0.027623221 -0.20033872 0.039657354
0.059117734 -0.008740246 0.043931454 0.1002669 0.1109502 0.16510823 0.47325242 -0.09408396
-0.41964114 0.31779662 -0.038686734 -0.3716132 -0.28272837 0.13491884 -0.31585428 -0.015945613
0.10634327 0.18803886 -0.18678859 0.05240825 0.16160882 0.04745248 0.059801936 -0.19784737
-0.036095023 -0.10515195 0.13505667 -0.20369631 -0.15458564 0.13917437 0.35047585 -0.052434433
-0.44137505 0.20179841 -0.0015313127 -0.029861316 0.314989 0.06391707 0.04757929 0.17674974
-0.07064088 -0.03134334 0.11787838 0.21276453 0.070577055 0.046675146 -0.10051187 0.0133600235
-0.028393283 0.02227661 0.20442602 -0.1633232 0.20619255 -0.4667831 -0.34975144 -0.22340862
0.11759788 -0.030250609 -0.057945993 -0.10686112 -0.15128021 0.04704073 0.19411889 -0.115122356
-0.094016075 0.16046417 0.06744477 0.18371043 0.021668047 -0.13205475 0.16463181 0.20020583
-0.124487676 0.042568207 -0.009114397 -0.6752603 -0.07500959 0.19168116 0.17081442 -0.12696695
0.25314027 -0.12205914 0.13579372 0.005322799 0.08432412 -0.022651449 0.09195787 0.16440377
-0.18926974 0.12977988 0.1900717 0.12230405 0.10172212 -0.04550661 -0.41133916 -0.042938203
0.048043545 -0.22849056 -0.2748384 0.28939673 0.0060020206 0.15911141 0.18558791 0.1204091
-0.040400773 -0.08007951 -0.040216118 0.05861345 0.036905825 0.2075628 0.19277579 0.03202997
-0.033768386 -0.033163622 -0.05815363 0.115783155 -0.38868457 0.16110694 0.1210977 -0.12406176
0.38933954 0.052300893 0.13632973 -0.08874968 0.2651764 0.0014692396 0.08922824 0.092371374
0.08634055 -0.12774573 0.13442639 -0.060541153 -0.052569553 0.019937903 0.147576 0.15262696
-0.0764671 0.0041880906 -0.06644727 -0.10746779 -0.112852044 0.34591314 0.24498393 -0.3432473
-0.09151227 0.17450547 -0.28157696 0.010758668 0.10274008 -0.036053494 -0.1139675 0.0819104
0.10758722 0.14027247 0.040210307 -0.110446535 -0.057112068 0.13466907 0.085246295 -0.0519187
-0.08709819 -0.18712375 0.31644222 -0.09884928 0.0940156 0.31398982 -0.036326468 0.19926348
0.30322814 0.12848032 0.19182938 0.001976952 -0.16869412 0.018528864 -0.21164216 0.032917053
-0.14038798 0.12029651 0.1105552 -0.04730995 -0.113868356 -0.12329786 0.24150936 0.16947699
0.23008494 -0.031934343 -0.5238721 0.07534232 -0.06207625 0.022350296 -0.15664656 -0.16984642
0.20079082 -0.088579595 0.18850785 -0.17371158 0.038270175 0.19644278 -0.20980379 -0.18060121
-0.15269949 -0.030652776 0.051560342 -0.19551834 -0.12722962 -0.14456376 -0.123520024 0.3789778
0.20814416 0.14068344 0.0335926 -0.004654646 0.13128164 -0.071006 -0.17976923 0.15769798
0.021393016 0.12140164 0.13626784 0.1949665 -0.17295463 -0.095842354 0.057777077 -0.041324288
0.1168986 -0.016012251 -0.34333014 -0.20234613 0.25924075 -0.10657466 0.22039971 0.14464971
-0.11497087 -0.058526397 -0.04359168 0.06858435 -0.19918182 0.1397498 0.04704696 0.033131674
00000000: 7a92 1dbe 34e0 1fbe aaa9 de3d 018c a2bd
00000010: 22ad a23e 6ee5 a93d da0d dcbd 3c26 ad3d
00000020: 0d41 243e 4c25 023e 003e 8ebc 3886 2e3e
00000030: 4eb4 d8bd 184a e23c 9825 4dbe c06f 223d
00000040: 7025 723d 4033 0fbc 78f1 333d bc58 cd3d
00000050: dc39 e33d 2212 293e 244e f23e 17af c0bd
00000060: 34db d6be 3db6 a23e fb75 1ebd 1644 bebe
00000070: c6c1 90be 2a28 0a3e a7b7 a1be 60a0 82bc
00000080: 80ca d93d 428d 403e 8245 3fbe 08aa 563d
00000090: c87c 253e 885d 423d e0f2 743d 8098 4abe
000000a0: 60d8 13bd e859 d7bd 4c4c 0a3e c495 50be
000000b0: b34b 1ebe ba83 0e3e 9271 b33e 7dc5 56bd
000000c0: e9fb e1be 3ea4 4e3e 54b6 c8ba b89f f4bc
000000d0: 3d46 a13e f4e6 823d 80e2 423d e2fd 343e
000000e0: 2aac 90bd e061 00bd 386a f13d f2de 593e
000000f0: b48a 903d 702e 3f3d 2bd9 cdbd 00e4 5a3c
00000100: 0899 e8bc 707d b63c 0e55 513e 323e 27be
00000110: 2424 533e 32fe eebe 9f12 b3be 3bc5 64be
00000120: 28d7 f03d 20d0 f7bc c758 6dbd 01da dabd
00000130: 33e9 1abe c8ad 403d 1ac7 463e 45c5 ebbd
00000140: 808b c0bd b850 243e 7c20 8a3d 961e 3c3e
00000150: 3081 b13c 5c39 07be 3e95 283e c202 4d3e
00000160: 65f3 febd 005c 2e3d 8d54 15bc dcdd 2cbf
00000170: a19e 99bd 1148 443e fae9 2e3e a003 02be
00000180: 9a9b 813e 24fa f9bd 820d 0b3e e06a ae3b
00000190: 20b2 ac3d 888f b9bc 6854 bc3d 7659 283e
000001a0: edcf 41be 04e5 043e 28a2 423e 8c7a fa3d
000001b0: b053 d03d 2465 3abd 0c9b d2be f8df 2fbd
000001c0: 4fc9 443d 6ef9 69be 9eb7 8cbe cf2b 943e
000001d0: 99ac c43b 1aee 223e c20a 3e3e 0c99 f63d
000001e0: 487b 25bd ba00 a4bd a8b9 24bd a814 703d
000001f0: 902a 173d 588b 543e 0467 453e dc31 033d
00000200: b850 0abd 94d6 07bd 8032 6ebd b81f ed3d
00000210: aa01 c7be 38f9 243e 1202 f83d 1814 febd
00000220: 8357 c73e 7639 563d 059a 0b3e 64c2 b5bd
00000230: 33c5 873e 8093 c03a 4cbd b63d 342d bd3d
00000240: 50d3 b03d c7cf 02be 12a7 093e 00fa 77bd
00000250: 2c53 57bd d054 a33c 2a1e 173e 3e4a 1c3e
00000260: c89a 9cbd 403c 893b 8215 88bd 1318 dcbd
00000270: f91e e7bd 871b b13e 11dd 7a3e 1cbe afbe
00000280: c96a bbbd 90b1 323e db2a 90be 2045 303c
00000290: 6469 d23d d4ac 13bd cb67 e9bd a4c0 a73d
000002a0: b056 dc3d 96a3 0f3e 90b3 243d cb31 e2bd
000002b0: 58ee 69bd b0e6 093e 9c95 ae3d b4a8 54bd
000002c0: 8960 b2bd 5e9d 3fbe b704 a23e 7e71 cabd
000002d0: 408b c03d 46c3 a03e 10cb 14bd ba0b 4c3e
000002e0: b840 9b3e 5890 033e ec6e 443e c08f 013b
000002f0: 27be 2cbe d8c9 973c b9b8 58be 08d4 063d
00000300: dec1 0fbe 045e f63d c46a e23d 14c8 41bd
00000310: d033 e9bd 9783 fcbd 3b4e 773e 608b 2d3e
00000320: 639b 6b3e 96cd 02bd 7b1c 06bf 134d 9a3d
00000330: aa43 7ebd f817 b73c f567 20be 38ec 2dbe
00000340: 1c9c 4d3e 3869 b5bd 3408 413e 73e1 31be
00000350: 30c1 1c3d 4c28 493e ced6 56be 86ef 38be
00000360: 415d 1cbe 881b fbbc f030 533d f635 48be
00000370: 7b48 02be 8608 14be 11f8 fcbd 6109 c23e
00000380: be23 553e 520f 103e 6598 093d 0086 98bb
00000390: b26e 063e 986b 91bd 6d15 38be 947b 213e
000003a0: 6840 af3c 6ca1 f83d cc89 0b3e 4ca5 473e
000003b0: 051b 31be ff48 c4bd a8a7 6c3d a843 29bd
000003c0: 8868 ef3d 202c 83bc f8c8 afbe d333 4fbe
000003d0: 34bb 843e d143 dabd 76b0 613e 0e1f 143e
000003e0: d975 ebbd 60b9 6fbd 308d 32bd f475 8c3d
000003f0: 52f6 4bbe 921a 0f3e 50b4 403d 14b5 073d

fc1.bias f4 [100]
0.016184907 0.2492172 -0.05143269 -0.0762626 -0.06908951 -0.3113213 -0.27282602 0.33760163
-0.2425758 0.0795579 -0.060691595 -0.13792856 0.04323324 -0.12178062 0.27477512 -0.007324503
0.20198356 -0.18397444 0.30903503 -0.20497672 0.018141534 -0.39730078 -0.15003963 -0.065816194
0.36591706 -0.28918594 0.24369182 -0.13781533 0.43774164 0.04004985 0.1424974 -0.022097172
-0.043582715 -0.1454304 0.3442438 -0.46655244 0.02512932 -0.10688533 -0.1678788 0.34895226
-0.4066838 -0.07805498 -0.09967392 0.081234545 0.281004 -0.096846715 -0.31165075 -0.19383536
0.24555902 -0.33631784 -0.23485968 0.29888713 -0.32395348 -0.12713139 0.16026348 -0.2137342
0.23224376 -0.38620898 0.10997434 0.016348697 -0.01802374 -0.003934439 -0.41324547 -0.22066171
-0.4590434 0.13307345 0.09130997 -0.2370717 0.015755141 0.37622195 -0.39865237 0.02332043
-0.073104136 0.4249909 0.04484846 -0.1832062 0.27683693 0.33471334 0.28037292 -0.4887988
-0.3512117 0.094099544 0.23489933 0.3118604 0.030084144 0.13615045 -0.063918635 0.19725946
-0.18361212 0.4095912 -0.04359079 -0.012337436 0.0007148879 0.40468767 -0.011513732 -0.010984075
-0.107048966 0.031450085 0.33489564 -0.010888278
00000000: 3696 843c cb32 7f3e 16ab 52bd 912f 9cbd
00000010: cd7e 8dbd 8165 9fbe daaf 8bbe 1fda ac3e
00000020: ca65 78be 41ef a23d c097 78bd 253d 0dbe
00000030: 5615 313d 1e68 f9bd 53af 8c3e 6202 f0bb
00000040: c7d4 4e3e cc63 3cbe d739 9e3e 6be5 51be
00000050: 8e9d 943c 026b cbbe fda3 19be a4ca 86bd
00000060: 7b59 bb3e 2e10 94be 598a 793e 761f 0dbe
00000070: ac1f e03e 500b 243d d7ea 113e 2105 b5bc
00000080: ca83 32bd b5eb 14be b940 b03e f6df eebe
00000090: 01dc cd3c b2e6 dabd 6ce8 2bbe dfa9 b23e
000000a0: dc38 d0be 4adb 9fbd d721 ccbd 4c5e a63d
000000b0: c2df 8f3e 9257 c6bd b090 9fbe c77c 46be
000000c0: d373 7b3e da31 acbe 0e7f 70be bc07 993e
000000d0: 3bdd a5be bb2e 02be 1c1c 243e 23dd 5abe
000000e0: 4fd1 6d3e 2fbd c5be 3a3a e13d b4ed 853c
000000f0: 86a6 93bc 77ec 80bb e994 d3be 25f5 61be
00000100: bd07 ebbe 6844 083e b900 bb3d ecc2 72be
00000110: ed10 813c 2aa0 c03e 2a1c ccbe 7d0a bf3c
00000120: 9fb7 95bd 6898 d93e 05b3 373d 689a 3bbe
00000130: 92bd 8d3e 8c5f ab3e 0a8d 8f3e d643 fabe
00000140: 05d2 b3be 43b7 c03d 7389 703e 2bac 9f3e
00000150: 0673 f63c 066b 0b3e c6e7 82bd 62fe 493e
00000160: d104 3cbe f0b5 d13e 428c 32bd f522 4abc
00000170: 5167 3b3a 3933 cf3e 18a4 3cbc 8df6 33bc
00000180: 7d3c dbbd ced1 003d 7177 ab3e bf64 32bc

fc2.weight f4 [100, 100]
-0.032831613 0.38805586 -0.36951607 -0.109537266 -0.24368043 -0.3781704 -0.15537058 0.2771054
-0.46044344 -0.11118432 0.22901215 -0.13099027 -0.2260945 -0.008654248 0.29975432 0.1790087
-0.07043929 -0.00029966905 0.27046564 -0.09682266 -0.29338315 -0.44207734 -0.28395596 -0.37320918
0.49905378 -0.17607524 0.28968897 -0.48815295 0.3901411 0.15492259 0.01269258 0.34943846
-0.37370545 0.10937074 0.114618205 -0.39195102 0.08593759 -0.01982236 -0.048690468 0.1676502
-0.35151646 -0.13282707 -0.29530317 0.079921335 0.25504047 0.059730876 -0.40016845 -0.0032242285
0.11705033 -0.30773315 0.06918838 0.21872745 -0.16005793 -0.15313274 0.20968522 0.086190104
-0.04771878 -0.31817603 -0.0138727985 -0.12766844 -0.10046346 0.026455024 -0.037611187 0.12490815
-0.29288882 0.34496403 -0.09417357 -0.26681203 0.13602814 0.4627322 -0.5431814 -0.08222296
0.20368029 0.4002266 -0.5782254 -0.3404088 0.36417672 0.26814577 -0.18208292 -0.3366978
-0.40874425 -0.1894889 0.489875 0.37157452 0.031888127 -0.037041035 0.051327772 0.19076896
-0.34580088 0.3764143 -0.106030375 0.25821134 -0.22282143 0.29924366 -0.33106434 0.34840903
0.1920027 0.21774031 0.36292478 0.48653492 0.22881743 0.2585747 -0.30477503 -0.08803377
-0.24171348 -0.39064232 -0.2194785 0.4088968 -0.4638055 -0.09576815 -0.058904685 -0.19820839
0.04464942 -0.02026306 0.26812562 0.21409927 -0.37901908 0.26712474 0.4419213 -0.26056707
-0.058521755 -0.39665297 -0.19071816 -0.32350788 0.3989141 -0.16699629 0.10483158 -0.4491317
0.4457812 0.4894853 -0.19972971 0.45302102 -0.26111943 0.1814884 0.3611219 -0.35844928
0.13510239 0.0049562235 0.039266855 0.16006288 -0.36596432 0.05937014 -0.3069603 -0.06348599
0.25722086 -0.16771124 -0.33308756 -0.2694598 -0.16554236 -0.35458234 -0.043146715 0.25461656
-0.35374048 0.016884517 0.18849888 -0.0022429507 0.0042527793 -0.38741076 -0.05147094 -0.16507214
0.122675054 -0.005014846 -0.13598998 0.16520292 -0.38111696 0.45429036 -0.05592925 -0.3151726
0.02220461 0.5207026 -0.3429774 0.115944505 0.16919121 0.27847302 -0.39740688 -0.36952507
0.32799676 0.38813463 -0.07232688 -0.41493255 -0.3316668 -0.20332742 0.36837608 0.40982425
-0.11203334 0.1530907 0.15414841 0.23198473 -0.28379166 0.3496012 -0.35898966 0.13573262
-0.11624426 0.31633526 -0.40613508 0.17243062 -0.047508977 0.032153536 0.3379972 0.4286772
0.22663644 0.2191712 -0.07497554 0.05649495 -0.48269677 -0.34928823 -0.131113 0.19123377
-0.3057414 0.21995495 0.08175105 0.07754929 0.084558755 0.12887232 0.3057853 0.39592892
-0.24943922 -0.06692468 0.20002034 -0.0639879 0.0018296735 -0.22867918 -0.04118467 -0.18430544
0.32884172 0.026760712 0.12604065 -0.17493576 0.329613 0.2838891 -0.26470324 0.32217458
-0.18361118 -0.05124687 0.1839769 -0.24229413 -0.0002111172 0.09028553 0.291382 0.24161054
-0.17205806 0.10842182 -0.104489475 -0.23545302 0.5027904 -0.027224198 -0.3539847 -0.20792706
-0.07131918 -0.35592246 0.10923045 0.12306908 -0.4751119 0.06070405 0.08019049 -0.11042941
00000000: 717a 06bd 42af c63e 3631 bdbe 1355 e0bd
00000010: 5d87 79be 8d9f c1be 7719 1fbe c2e0 8d3e
00000020: 3ebf ebbe 9bb4 e3bd 2982 6a3e 5022 06be
00000030: 5185 67be 8cca 0dbc 6679 993e 0f4e 373e
00000040: 7942 90bd e61c 9db9 797a 8a3e f54a c6bd
00000050: 5136 96be f657 e2be ad62 91be 4615 bfbe
00000060: fa83 ff3e 114d 34be 1d52 943e 2fef f9be
00000070: 93c0 c73e 07a4 1e3e 8af4 4f3c 99e9 b23e
00000080: 5256 bfbe c4fd df3d f3bc ea3d cead c8be
00000090: 0c00 b03d 8062 a2bc a86f 47bd 7eac 2b3e
000000a0: f7f9 b3be d203 08be fa31 97be ccad a33d
000000b0: aa94 823e 5da8 743d e1e2 ccbe 944d 53bb
000000c0: 15b8 ef3d 338f 9dbe a3b2 8d3d 17fa 5f3e
000000d0: 3ae6 23be d4ce 1cbe b9b7 563e 7084 b03d
000000e0: c474 43bd f8e7 a2be bc4a 63bc 84bb 02be
000000f0: c9bf cdbd 35b8 d83c 300e 1abd d8cf ff3d
00000100: 86f5 95be 209f b03e 13de c0bd 969b 88be
00000110: f64a 0b3e 3ceb ec3e f00d 0bbf 8364 a8bd
00000120: 9191 503e 80ea cc3e 9406 14bf 104a aebe
00000130: 5f75 ba3e 674a 893e f273 3abe a763 acbe
00000140: ed46 d1be 6109 42be e5d0 fa3e 043f be3e
00000150: 209d 023d 57b8 17bd 123d 523d f058 433e
00000160: d00c b1be 60b9 c03e 7426 d9bd 4734 843e
00000170: 4d2b 64be 7736 993e 4481 a9be ab62 b23e
00000180: 5b9c 443e 51f7 5e3e 47d1 b93e 1b1b f93e
00000190: 1e4f 6a3e e763 843e 790b 9cbe 0d4b b4bd
000001a0: bd83 77be 4502 c8be f9be 60be ec5a d13e
000001b0: ea77 edbe 1822 c4bd 0a46 71bd 24f7 4abe
000001c0: 4fe2 363d b8fe a5bc c347 893e d73c 5b3e
000001d0: ca0e c2be 93c4 883e 8243 e23e 0c69 85be
000001e0: 82b4 6fbd 1916 cbbe 9f4b 43be d3a2 a5be
000001f0: 783e cc3e 1301 2bbe f0b1 d63d 97f4 e5be
00000200: 6f3d e43e d19d fa3e f285 4cbe 5ff2 e73e
00000210: 72b1 85be 18d8 393e f8e4 b83e aa86 b7be
00000220: 4858 0a3e d167 a23b 48d6 203d 86e7 233e
00000230: ad5f bbbe 1b2e 733d e729 9dbe f104 82bd
00000240: 74b2 833e 7fbc 2bbe 748a aabe a3f6 89be
00000250: f083 29be d18b b5be 9cba 30bd 1a5d 823e
00000260: 791d b5be 6651 8a3c da05 413e 78fe 12bb
00000270: e65a 8b3b b45a c6be 31d3 52bd ac08 29be
00000280: 0f3d fb3d 9453 a4bb f540 0bbe f42a 293e
00000290: c321 c3be bf98 e83e 1216 65bd 4e5e a1be
000002a0: 71e6 b53c c44c 053f bc9a afbe 5074 ed3d
000002b0: 7640 2d3e 0494 8e3e ea78 cbbe 6432 bdbe
000002c0: 31ef a73e 95b9 c63e 1e20 94bd 0a72 d4be
000002d0: 3bd0 a9be 1035 50be ca9b bc3e 7cd4 d13e
000002e0: bc71 e5bd cfc3 1c3e 15d9 1d3e 688d 6d3e
000002f0: 244d 91be eefe b23e 7ecd b7be 7efd 0a3e
00000300: 7811 eebd b2f6 a13e f0f0 cfbe a791 303e
00000310: c698 42bd 6db3 033d f80d ad3e 947b db3e
00000320: 6213 683e 6a6e 603e c78c 99bd 4067 673d
00000330: 0824 f7be e8d5 b2be 7c42 06be c9d2 433e
00000340: 238a 9cbe df3b 613e 186d a73d 2ad2 9e3d
00000350: 242d ad3d 1bf7 033e e48f 9c3e 32b7 ca3e
00000360: ff6c 7fbe ce0f 89bd 22d2 4c3e 170c 83bd
00000370: a8d1 ef3a e02a 6abe 42b1 28bd 91ba 3cbe
00000380: f15d a83e 4839 db3c cd10 013e 5c22 33be
00000390: 09c3 a83e ea59 913e 2f87 87be 11f4 a43e
000003a0: 9204 3cbe 3de8 51bd 7164 3c3e f41b 78be
000003b0: 585f 5db9 9fe7 b83d 0630 953e c168 773e
000003c0: fd2f 30be 420c de3d 94fe d5bd 991a 71be
000003d0: dfb6 003f 4805 dfbc 7c3d b5be d5ea 54be
000003e0: ca0f 92bd 783b b6be 37b4 df3d a40b fc3d
000003f0: de41 f3be cfa4 783d e93a a43d d128 e2bd

fc2.bias f4 [100]
0.30139962 0.3078793 0.33712807 -0.3699181 0.3577762 0.37540826 -0.078750536 0.34998196
0.36648223 -0.08821486 0.36429146 0.23317154 0.33970183 -0.312498 -0.047029488 0.3689199
0.09209947 -0.27711174 -0.36068675 -0.11140576 -0.32842493 -0.38504574 0.34301397 -0.35772565
-0.482704 0.2658893 -0.31209162 0.3411054 0.38673627 0.43049073 0.0692123 0.44307336
0.060680512 -0.3350664 -0.3307439 -0.22275677 0.05215649 0.30948216 0.23635006 0.3537887
-0.04962307 -0.49923638 0.24811685 0.27562633 0.1150995 0.11119442 0.28417853 -0.40521094
0.47312903 -0.3368451 -0.3553671 -0.42409655 -0.41948718 0.33017838 0.39988473 -0.26449853
-0.41632062 0.07554068 -0.31282175 -0.2341559 0.21559384 0.40493104 0.3286043 0.4830624
-0.3059453 -0.18363068 0.044664506 -0.20701106 -0.3677399 -0.40012813 0.3725677 -0.22739013
0.33141676 0.3861787 -0.44173005 0.35372686 -0.37404147 -0.35228282 -0.45565963 0.09225952
-0.4646707 -0.4102435 -0.32614955 -0.08709612 -0.29971254 0.31661525 -0.4418808 -0.12443129
0.19399416 0.40483886 0.22851318 -0.26946765 0.32782406 -0.34502003 -0.3347099 -0.39080253
0.23332821 -0.3568103 -0.36904016 -0.063441865
00000000: 0d51 9a3e 5ba2 9d3e 0d9c ac3e e865 bdbe
00000010: 712e b73e 8335 c03e f647 a1bd d630 b33e
00000020: 8fa3 bb3e fea9 b4bd 6984 ba3e 85c4 6e3e
00000030: 66ed ad3e bdff 9fbe fea1 40bd 12e3 bc3e
00000040: a69e bc3d 97e1 8dbe efab b8be b428 e4bd
00000050: 5027 a8be b724 c5be 879f af3e d127 b7be
00000060: fb24 f7be a422 883e 79ca 9fbe 5ea5 ae3e
00000070: 4c02 c63e 4869 dc3e 2ebf 8d3d 83da e23e
00000080: 218c 783d d38d abbe 4457 a9be 5a1a 64be
00000090: 0ba2 553d 7274 9e3e c005 723e cb23 b53e
000000a0: 8f41 4bbd e99b ffbe 5812 7e3e e51e 8d3e
000000b0: 49b9 eb3d e6b9 e33d d97f 913e cf77 cfbe
000000c0: f83d f23e f676 acbe adf2 b5be 2f23 d9be
000000d0: 06c7 d6be 240d a93e b1bd cc3e 5a6c 87be
000000e0: fa27 d5be 12b5 9a3d 2c2a a0be 90c6 6fbe
000000f0: a2c4 5c3e 1f53 cf3e d33e a83e f453 f73e
00000100: dda4 9cbe ae09 3cbe 21f2 363d b5fa 53be
00000110: 6748 bcbe 98dd ccbe 32c1 be3e f5d8 68be
00000120: 75af a93e 37b9 c53e 712a e2be b01b b53e
00000130: 5d82 bfbe 6a5e b4be 384c e9be 8ff2 bc3d
00000140: 51e9 edbe 700b d2be 13fd a6be 735f b2bd
00000150: ec73 99be 651b a23e 333e e2be d5d5 febd
00000160: 68a6 463e 0a47 cf3e 5cff 693e aaf7 89be
00000170: 8ed8 a73e 77a6 b0be 195f abbe 4517 c8be
00000180: 97ed 6e3e d7af b6be d5f2 bcbe cfed 81bd

fc3.weight f4 [2, 100]
0.5320213 0.64810765 0.49762595 -0.8423554 0.59748304 0.4895378 0.61922574 0.5602703
0.60600495 0.82591915 0.578877 0.62343216 0.51874936 -0.5485116 -0.717286 0.57129973
-0.75519 -0.5556128 -0.5213647 -0.63720036 -0.6242602 -0.5435133 0.6107409 -0.62878597
-0.5031291 0.57921016 -0.5761156 0.6170604 0.5280299 0.5762497 -0.8285006 0.44702
-0.7323405 -0.5585766 -0.5200043 -0.56151414 -0.77474856 0.5836798 0.57521427 0.59362036
-0.45456433 -0.51360023 0.63008803 0.63908505 -0.77239436 -0.7159496 0.50241196 -0.54220116
0.5144702 -0.59804535 -0.5988345 -0.62119055 -0.5932369 0.6495689 0.56284 -0.5150696
-0.71204865 0.6377406 -0.54663384 -0.52736855 0.5563141 0.5501113 0.58163416 0.5149186
-0.51222783 -0.55304 0.71357745 -0.6052393 -0.5014646 -0.58270407 0.65359044 -0.69025004
0.6052662 0.48782715 -0.60826695 0.6678146 -0.49192464 -0.6652883 -0.59907997 -0.7403868
-0.5049144 -0.5513399 -0.5901344 -0.9378172 -0.6063199 0.54397607 -0.5098525 0.72637945
0.55108213 0.6251339 0.67963505 -0.5935123 0.57264626 -0.5680814 -0.56872594 -0.56774354
0.5843369 -0.52955604 -0.50900716 -0.5310763 -0.72553307 -0.7236361 -0.60994285 0.55074507
-0.81003255 -0.57838523 -0.63091314 -0.7537239 -0.47509784 -0.9074249 -0.7635792 -0.75831705
-0.56173354 0.5315122 0.91379386 -0.75222677 0.81794584 0.7632713 0.73870534 0.51521057
0.8117189 0.50079864 -0.46696103 0.74006706 0.5641281 -0.7819194 0.7708761 -0.75901836
-0.7400722 -0.5217362 0.72079253 -0.58018523 0.8917576 0.7591432 0.72680444 0.7546169
0.8494257 -0.76923245 -0.7622368 -0.7981108 0.6942148 0.5984598 -0.5290675 -0.45180917
0.84673 0.96664137 -0.7672382 0.5327589 -0.557131 0.7909103 0.77881366 0.77067596
0.52885693 -0.71318144 -0.49759924 0.70452017 0.5805952 -0.46496773 0.7664321 0.7387658
-0.7578593 -0.7622892 -0.783508 -0.6812942 0.6940717 0.82291955 -0.9059973 0.7604645
0.59918636 0.5250066 -0.5208365 0.46346757 -0.781964 -0.6429344 0.76001674 -0.44433755
0.6290174 0.45318827 0.55040413 0.8593959 0.576898 0.5200599 0.7709473 -0.2764721
0.7830692 -0.74039084 0.6604243 -0.89369977 -0.7655402 -0.46435726 -0.46329647 0.77661663
-0.77186185 0.757865 0.7545834 0.76155645 -0.76905984 0.73473674 0.7023558 0.7027453
00000000: 8c32 083f 62ea 253f d4c8 fe3e 9aa4 57bf
00000010: a6f4 183f b3a4 fa3e 9485 1e3f e06d 0f3f
00000020: 2423 1b3f 706f 533f 4831 143f 4099 1f3f
00000030: c2cc 043f 426b 0cbf 0ea0 37bf b340 123f
00000040: 2254 41bf a43c 0ebf 2878 05bf 901f 23bf
00000050: 84cf 1fbf b023 0bbf 8459 1c3f 1ef8 20bf
00000060: 12cd 00bf 1e47 143f 507c 13bf acf7 1d3f
00000070: f82c 073f 1a85 133f 9e18 54bf cedf e43e
00000080: ab7a 3bbf e0fe 0ebf 001f 05bf 64bf 0fbf
00000090: ec55 46bf 0a6c 153f 3e41 133f 81f7 173f
000000a0: a8bc e8be 4e7b 03bf 734d 213f 149b 233f
000000b0: a3bb 45bf 7948 37bf 129e 003f b2cd 0abf
000000c0: 52b4 033f 8019 19bf 384d 19bf 5806 1fbf
000000d0: 60de 17bf 264a 263f 4816 103f 9adb 03bf
000000e0: d248 36bf f842 233f 32f0 0bbf a001 07bf
000000f0: 9a6a 0e3f 18d4 0c3f fae5 143f b5d1 033f
00000100: 5d21 03bf 0894 0dbf 03ad 363f f6f0 1abf
00000110: fc5f 00bf 182c 15bf b451 273f 3ab4 30bf
00000120: baf2 1a3f 7bc4 f93e 62b7 1bbf e6f5 2a3f
00000130: 8cdd fbbe 5650 2abf 4e5d 19bf fd89 3dbf
00000140: 1242 01bf 9d24 0dbf 0c13 17bf ca14 70bf
00000150: c837 1bbf 0442 0b3f b285 02bf 01f4 393f
00000160: b813 0d3f c608 203f 90fc 2d3f 6cf0 17bf
00000170: f298 123f c86d 11bf 0698 11bf a457 11bf
00000180: 1a97 153f fc90 07bf 4b4e 02bf 9ef4 07bf
00000190: 89bc 39bf 3740 39bf 3725 1cbf a1fd 0c3f
000001a0: 4b5e 4fbf 0e11 14bf 8683 21bf 0df4 40bf
000001b0: 0640 f3be 004d 68bf ed79 43bf 1121 42bf
000001c0: c5cd 0fbf 2f11 083f 65ee 693f ef91 40bf
000001d0: e664 513f bf65 433f cb1b 3d3f d7e4 033f
000001e0: cfcc 4f3f 5734 003f 8415 efbe 0975 3d3f
000001f0: b36a 103f df2b 48bf 2358 453f 074f 42bf
00000200: 5f75 3dbf 8190 05bf dc85 383f 0587 14bf
00000210: 3a4a 643f 3557 423f db0f 3a3f 932e 413f
00000220: f673 593f 6bec 44bf f321 43bf fd50 4cbf
00000230: 10b8 313f a934 193f f870 07bf 8853 e7be
00000240: 4cc3 583f cf75 773f b969 44bf e362 083f
00000250: 23a0 0ebf 1979 4a3f 5560 473f 054b 453f
00000260: 2b63 073f 0f93 36bf 54c5 febe 6f5b 343f
00000270: e3a1 143f 4010 eebe e534 443f c11f 3d3f
00000280: 1103 42bf 6325 43bf fb93 48bf 4c69 2ebf
00000290: afae 313f dbaa 523f 70ef 67bf cdad 423f
000002a0: 4764 193f d566 063f 8a55 05bf 9f4b ed3e
000002b0: cb2e 48bf 5997 24bf 7590 423f 3680 e3be
000002c0: 4907 213f 4b08 e83e 49e7 0c3f 5f01 5c3f
000002d0: 96af 133f a522 053f cd5c 453f c08d 8dbe
000002e0: 3977 483f 418a 3dbf 9111 293f 82c9 64bf
000002f0: 71fa 43bf 3cc0 edbe 3235 edbe 59d0 463f
00000300: bd98 45bf 7103 423f 612c 413f 5df5 423f
00000310: 1be1 44bf b517 3c3f 97cd 333f 1ee7 333f

fc3.bias f4 [2]
0.6279926 -0.5504912
00000000: 1fc4 203f feec 0cbf

fc1.weight f4 [100, 22]
0.00017161813 4.67138e-40 -7.1462837e-06 5.9103968e-05 0.00027109453 -1.5248566e-05 1.1716609e-06 2.297297e-39
-3.1236254e-05 -5.6224e-41 2.22785e-40 7.44413e-40 3.9315e-40 -1.12153e-39 8.31256e-40 -1.719934e-39
7.50887e-40 -4.78207e-40 -8.90504e-40 -2.09748e-39 -9.28238e-40 -1.2341287e-37 0.09709796 9.7633e-40
-0.036483403 -0.00050083234 -0.0008862689 -0.04069178 -0.050804865 -3.25775e-40 -0.029646412 1.42899e-40
-1.334908e-39 1.61093e-39 1.677054e-39 2.08023e-40 -9.59414e-40 1.252523e-39 -1.095328e-39 -1.493072e-39
-1.036043e-39 -1.524204e-39 -1.762323e-39 -1.132539e-39 0.09720049 2.18179e-39 -0.036524963 -0.00049419614
-0.0008832757 -0.040741377 -0.050866496 5.0431e-40 -0.029682789 1.770902e-39 -3.0016e-41 1.611314e-39
-9.58838e-40 -7.00426e-40 -1.04974e-40 -6.16136e-40 -1.04725e-40 1.310662e-39 -6.6183e-41 1.106954e-39
1.84287e-39 7.54833e-40 -0.09720964 1.14154e-39 0.036528677 0.0004936067 0.00088301126 0.04074574
0.05087201 -2.172731e-39 0.029685944 -5.07339e-40 8.96094e-40 1.3091e-39 -1.938154e-39 4.8995e-40
-1.129818e-39 7.27701e-40 1.360715e-39 4.3249e-40 1.947284e-39 7.83222e-40 -2.32576e-40 -6.84314e-40
1.9741989e-05 5.14602e-40 1.668094e-06 2.570851e-05 1.1608334e-05 -3.510735e-06 -3.6254032e-06 4.057e-41
-2.7713982e-06 -4.80481e-40 1.423439e-39 -4.80047e-40 2.146229e-39 9.8004e-41 3.48988e-40 -2.21752e-39
2.040253e-39 -4.89657e-40 -8.48552e-40 2.040945e-39 1.378616e-39 -1.491141e-39 -3.0834892e-06 5.5856e-41
-8.368535e-08 -3.473568e-06 -1.3021672e-06 6.8210545e-07 1.0706907e-06 -2.305565e-39 3.4073483e-07 -9.40964e-40
-8.92337e-40 -5.40534e-40 2.011088e-39 1.29675e-40 -1.695979e-39 8.76296e-40 1.7861e-39 -2.309619e-39
2.30404e-40 -2.055809e-39 1.797566e-39 -1.889867e-39 0.09720464 1.6757e-40 -0.03652665 -0.0004939275
-0.00088315335 -0.040743317 -0.050869007 -1.069793e-39 -0.029684197 -1.828163e-39 8.6565e-40 4.64023e-40
1.531916e-39 -6.36e-41 2.77907e-40 -3.50358e-40 -3.88657e-40 9.55925e-40 -1.023539e-39 7.73898e-40
-7.86822e-40 3.4270039e-37 1.9884232e-05 -1.93e-40 2.8724978e-07 1.9051406e-05 9.582607e-06 -1.3460095e-08
9.894493e-07 -2.004364e-39 -3.567099e-07 1.91636e-39 1.493833e-39 1.581033e-39 -1.357263e-39 1.704175e-39
-8.14622e-40 5.56125e-40 -6.7365e-41 5.66071e-40 1.682417e-39 1.04044e-40 -7.19662e-40 1.053128e-39
-0.000110954854 6.97124e-40 -2.6978582e-06 -0.00010621864 -4.939349e-05 -8.565039e-07 -9.425052e-06 1.669458e-39
4.1351996e-06 1.79644e-40 -1.047322e-39 -1.309767e-39 -1.34488e-39 -1.813747e-39 1.957784e-39 -1.070274e-39
1.384062e-39 -1.44435e-39 -1.91726e-39 -1.89809e-39 -1.019588e-39 -1.222917e-39 -2.9486733e-05 -5.35464e-40
-2.5266667e-07 -2.7039101e-05 -1.3513259e-05 1.9931333e-06 1.6456333e-06 2.199827e-39 1.5829502e-06 -8.4353e-41
-1.991691e-39 -4.75206e-40 -1.293099e-39 -1.991808e-39 6.38144e-40 4.61911e-40 1.375349e-39 -6.7984e-40
-1.085e-40 9.14067e-40 1.061353e-39 -9.97753e-40 0.09721725 1.074053e-39 -0.03653186 -0.00049310556
-0.0008827891 -0.040749438 -0.050876595 -9.16183e-40 -0.029688725 6.14801e-40 8.53815e-40 -4.77788e-40
-1.99322e-40 5.22588e-40 2.045188e-39 -4.73273e-40 9.76778e-40 1.585695e-39 -2.176916e-39 1.980796e-39
-3.4293e-41 3.25942e-40 0.09721679 2.03581e-39 -0.03653169 -0.0004931424 -0.00088280364 -0.040749222
-0.05087636 1.025874e-39 -0.029688582 -2.13042e-40 -1.187481e-39 1.21644e-40 9.77191e-40 6.2605e-40
00000000: 64f4 3339 3116 0500 1cca efb6 67e6 7738
00000010: b121 8e39 18d4 7fb7 f641 9d35 ee03 1900
00000020: ac03 03b8 bb9c 0080 096d 0200 1f1b 0800
00000030: f147 0400 5f36 0c80 340d 0900 7aba 1280
00000040: 2b2d 0800 0c35 0580 5db2 0980 ecd6 1680
00000050: 8d1b 0a80 1cfb 2782 4cdb c63d 9ca1 0a00
00000060: 9f6f 15bd 4a4a 03ba 8054 68ba 6dac 26bd
00000070: c318 50bd 218c 0380 08dd f2bc 588e 0100
00000080: 2e89 0e80 9e8a 1100 f242 1200 e243 0200
00000090: 7572 0a80 86a3 0d00 54ed 0b80 1442 1080
000000a0: 1148 0b80 dc98 1080 a430 1380 0f55 0c80
000000b0: 0d11 c73d f1c1 1700 339b 15bd f18c 01ba
000000c0: a18b 67ba 6ee0 26bd 6359 50bd d07d 0500
000000d0: 5229 f3bc 8e48 1300 ac53 0080 b08b 1100
000000e0: da70 0a80 81a0 0780 a024 0180 89b5 0680
000000f0: ee23 0180 9845 0e00 7eb8 0080 bd0d 0c00
00000100: 2c11 1400 2b38 0800 d915 c7bd 266e 0c00
00000110: 189f 153d 6365 013a e279 673a 01e5 263d
00000120: 2b5f 503d b1a8 1780 f02f f33c 4186 0580
00000130: f2c1 0900 3d41 0e00 c91a 1580 c855 0500
00000140: 794d 0c80 89ec 0700 1fd1 0e00 9bb5 0400
00000150: 3c34 1500 4e87 0800 5488 0280 9773 0780
00000160: 999b a537 809a 0500 46e3 df35 9ba8 d737
00000170: 6ac1 4237 f899 6bb6 f44b 73b6 1871 0000
00000180: 42fc 39b6 633b 0580 f87f 0f00 2d3a 0580
00000190: d05e 1700 3211 0100 d6cc 0300 8b25 1880
000001a0: 6537 1600 f754 0580 6b3d 0980 5339 1600
000001b0: 0503 0f00 b23c 1080 f1ed 4eb6 b49b 0000
000001c0: 82b6 b3b3 721b 69b6 20c6 aeb5 ee19 3735
000001d0: a7b4 8f35 fa1a 1980 3dee b634 063f 0a80
000001e0: 79b7 0980 cae2 0580 18e6 1500 7b69 0100
000001f0: b377 1280 c28a 0900 ec72 1300 4726 1980
00000200: 4682 0200 c262 1680 e292 1300 2e94 1480
00000210: 3a13 c73d 1ed3 0100 f89c 15bd ea7a 01ba
00000220: 6b83 67ba 77e2 26bd 055c 50bd 26a6 0b80
00000230: 462c f3bc 2de8 1380 146d 0900 820d 0500
00000240: 5cae 1000 4ab1 0080 b106 0300 a8d0 0380
00000250: 6b3b 0480 bb68 0a00 3625 0b80 506d 0800
00000260: 5791 0880 d43a e902 10cd a637 011a 0280
00000270: 4f37 9a34 95d0 9f37 fcc4 2037 203e 67b2
00000280: 38cd 8435 5ad3 1580 d681 bfb4 08de 1400
00000290: 3344 1000 4737 1100 7fc7 0e80 8c8e 1200
000002a0: d6de 0880 400e 0600 c9bb 0080 fa29 0600
000002b0: e551 1200 0822 0100 20d6 0780 b177 0b00
000002c0: 6fb0 e8b8 4c97 0700 da0c 35b6 b3c1 deb8
000002d0: db2b 4fb8 80ea 65b5 4a20 1eb7 c52d 1200
000002e0: 18c1 8a36 c6f4 0100 8267 0b80 1943 0e80
000002f0: faa4 0e80 fdbf 1380 8151 1500 7da7 0b80
00000300: 3412 0f00 43ba 0f80 8ae0 1480 1aab 1480
00000310: 321a 0b80 ff50 0d80 475a f7b7 a8d4 0580
00000320: 3ea6 87b4 07d2 e2b7 01b7 62b7 c5c1 0536
00000330: 88df dc35 39f4 1700 c175 d435 24eb 0080
00000340: 06b0 1580 ae2c 0580 a214 0e80 5ab0 1580
00000350: e3f2 0600 9f07 0500 eaf9 0e00 1e67 0780
00000360: 742e 0180 0cf4 0900 9f8e 0b00 54dd 0a80
00000370: d619 c73d 06b2 0b00 6ea2 15bd c143 01ba
00000380: f96a 67ba e2e8 26bd fa63 50bd f2f9 0980
00000390: c535 f3bc d1b1 0600 174c 0900 e133 0580
000003a0: a12b 0280 c3b0 0500 2745 1600 4b27 0580
000003b0: dca2 0a00 4644 1100 5bb4 1780 a791 1500
000003c0: 985f 0080 988c 0300 9919 c73d 032b 1600
000003d0: 41a2 15bd 3a46 01ba f36b 67ba a8e8 26bd
000003e0: bb63 50bd b82b 0b00 7835 f3bc e051 0280
000003f0: 37ee 0c80 1853 0100 03a4 0a00 2cd1 0600

fc1.bias f4 [100]
-8.30123e-05 0.115917645 0.11605238 -0.116064414 -1.4536781e-05 3.3440306e-06 0.11605776 -1.3941661e-05
7.878043e-05 2.3802491e-05 0.11607457 0.11607406 3.1109077e-05 0.11607104 -0.11607589 0.116075955
-0.11607776 -0.11607729 -6.1883045e-05 -0.11608096 0.00023098421 1.8258642e-06 3.947252e-05 -7.901127e-05
-9.027537e-05 0.11605954 -0.116064794 -0.116068885 -0.11589936 0.11607854 -1.1972283e-05 0.00012521117
-0.11604164 0.11607406 -0.11606718 -0.11593788 -0.11605856 -0.11605254 0.11604579 3.095392e-05
1.1868628e-05 -2.3197928e-05 -0.11604941 -3.8776547e-05 3.9647803e-05 -9.899106e-06 0.11606864 -0.116062716
-0.11585027 -0.1160751 -0.11605351 -0.116071835 0.11607072 0.11605127 -0.11592319 -0.1160725
-5.4966942e-05 0.11605841 0.11607367 1.6512931e-06 0.11607454 -6.237836e-06 0.1160699 -2.66694e-05
0.11607502 0.115946345 0.116063535 -0.116074584 0.116060354 0.11588075 -7.1352238e-06 0.11607544
-0.00012686987 -0.116075695 -0.11590221 0.116072945 0.116072044 -0.11607792 -0.11594516 0.00010970846
-3.5049772e-05 0.00012248533 -1.3924586e-05 0.116064586 -0.11604322 0.116070285 -0.000129144 0.11606385
0.11607568 0.11604892 -0.115939096 -0.1158534 0.115937665 0.116076276 -0.116070904 -0.11594504
3.1483218e-05 3.4240296e-05 -3.3694098e-05 -0.11607382
00000000: e416 aeb8 3b66 ed3d dfac ed3d 2eb3 edbd
00000010: 00e3 73b7 026a 6036 b1af ed3d fae6 69b7
00000020: ec36 a538 76ab c737 81b8 ed3d 3db8 ed3d
00000030: 1e7b 0238 a7b6 ed3d 32b9 edbd 3bb9 ed3d
00000040: 2dba edbd eeb9 edbd 35c7 81b8 dbbb edbd
00000050: 5a34 7239 3710 f535 4c8f 2538 dab2 a5b8
00000060: 3852 bdb8 a0b0 ed3d 61b3 edbd 86b5 edbd
00000070: a55c edbd 96ba ed3d 90dc 48b7 1e4b 0339
00000080: 3da7 edbd 3db8 ed3d a1b4 edbd d770 edbd
00000090: 1cb0 edbd f4ac edbd 6aa9 ed3d 85d4 0138
000000a0: 5e1f 4737 2c99 c2b7 50ab edbd 00a4 22b8
000000b0: 814b 2638 5614 26b7 65b5 ed3d 4ab2 edbd
000000c0: e842 edbd c8b8 edbd 76ad edbd 12b7 edbd
000000d0: 7cb6 ed3d 4aac ed3d 2369 edbd 6bb7 edbd
000000e0: 4e8c 66b8 08b0 ed3d 08b8 ed3d 00a2 dd35
000000f0: 7db8 ed3d 9a4e d1b6 0eb6 ed3d 1ab8 dfb7
00000100: bdb8 ed3d 4775 ed3d b8b2 ed3d 83b8 edbd
00000110: 0db1 ed3d e352 ed3d 1b6b efb6 f6b8 ed3d
00000120: 5f08 05b9 18b9 edbd 235e edbd a7b7 ed3d
00000130: 2eb7 ed3d 43ba edbd a874 edbd 4813 e638
00000140: 6802 13b8 686f 0039 a49d 69b7 45b3 ed3d
00000150: 11a8 edbd 42b6 ed3d d46a 07b9 e2b2 ed3d
00000160: 16b9 ed3d 0eab ed3d 7a71 edbd 8c44 edbd
00000170: ba70 ed3d 66b9 ed3d 95b6 edbd 9874 edbd
00000180: d90c 0438 3d9d 0f38 c352 0db8 1cb8 edbd

fc2.weight f4 [100, 100]
-1.7151086e-05 0.01925924 0.019281292 -0.019283243 3.511434e-08 -1.8714202e-07 0.019282177 6.665425e-07
-3.3980716e-06 -5.2160846e-07 0.019284924 0.019284843 6.268896e-05 0.019284364 -0.019285148 0.019285154
-0.019285453 -0.01928537 5.7126413e-06 -0.019285982 -3.9879787e-06 2.1202804e-06 -9.574812e-07 4.366659e-06
-1.5327081e-05 0.019282449 -0.019283308 -0.019283995 -0.019256258 0.019285597 8.0126335e-07 -5.9872573e-06
-0.01927951 0.01928484 -0.019283703 -0.01926257 -0.01928231 -0.019281313 0.019280175 -9.75384e-07
3.9506467e-06 8.8869034e-05 -0.019280778 2.967995e-06 -1.1820669e-06 2.2118941e-07 0.01928395 -0.019282967
-0.019248242 -0.01928502 -0.019281479 -0.01928449 0.019284297 0.019281087 -0.019260138 -0.019284599
1.6853352e-06 0.019282283 0.019284777 -2.5089223e-05 0.019284926 -1.2671502e-05 0.019284168 7.7519417e-07
0.019285003 0.019263944 0.019283105 -0.019284928 0.019282583 0.019253233 1.6599384e-07 0.019285062
-0.00022859372 -0.019285107 -0.019256702 0.019284679 0.019284513 -0.019285478 -0.019263735 -1.1278717e-05
-8.218847e-06 -0.00015477075 3.6566814e-07 0.01928326 -0.01927976 0.01928422 0.00013266217 0.019283146
0.019285103 0.019280689 -0.019262757 -0.019248793 0.019262522 0.019285213 -0.019284338 -0.019263716
-8.109789e-07 -9.4811776e-07 1.1300332e-06 -0.0192848 1.7151058e-05 -0.019258793 -0.01928082 0.019282797
-3.5116614e-08 1.8714158e-07 -0.019281715 -6.665415e-07 3.3980673e-06 5.216061e-07 -0.019284489 -0.019284405
-6.268902e-05 -0.019283896 0.019284718 -0.019284716 0.019285005 0.019284932 -5.712629e-06 0.019285541
3.9879483e-06 -2.1202873e-06 9.574774e-07 -4.366645e-06 1.532705e-05 -0.019281996 0.019282859 0.019283539
0.01925586 -0.01928514 -8.0126335e-07 5.9872427e-06 0.01927908 -0.019284409 0.019283256 0.019262118
0.019281838 0.019280847 -0.019279724 9.753808e-07 -3.950734e-06 -8.886918e-05 0.019280324 -2.967884e-06
1.1820619e-06 -2.2118898e-07 -0.019283498 0.019282522 0.0192478 0.019284582 0.019281019 0.019284043
-0.01928385 -0.01928063 0.0192597 0.019284144 -1.6853296e-06 -0.019281821 -0.019284338 2.5089203e-05
-0.019284481 1.2671462e-05 -0.01928371 -7.7518985e-07 -0.019284554 -0.019263484 -0.019282652 0.019284485
-0.019282138 -0.019252801 -1.6599304e-07 -0.01928463 0.00022859428 0.019284667 0.019256275 -0.019284211
-0.019284073 0.019285029 0.019263292 1.1278688e-05 8.218841e-06 0.00015477062 -3.6566752e-07 -0.019282822
0.019279333 -0.019283762 -0.00013266187 -0.019282691 -0.019284667 -0.01928025 0.019262316 0.019248324
-0.019262081 -0.019284774 0.019283874 0.019263277 8.109764e-07 9.4811617e-07 -1.1300326e-06 0.019284356
1.7151056e-05 -0.019258993 -0.019281035 0.019282993 -3.5116273e-08 1.8714167e-07 -0.019281916 -6.665424e-07
3.3980646e-06 5.216066e-07 -0.019284695 -0.019284615 -6.268894e-05 -0.019284103 0.019284917 -0.01928493
0.019285223 0.019285126 -5.7126294e-06 0.019285735 3.987963e-06 -2.1202854e-06 9.574787e-07 -4.36665e-06
1.532706e-05 -0.01928222 0.019283064 0.019283747 0.019256046 -0.019285347 -8.0126364e-07 5.987242e-06
0.019279273 -0.019284613 0.019283459 0.019262318 0.019282058 0.019281065 -0.019279933 9.753826e-07
-3.950676e-06 -8.886902e-05 0.019280542 -2.9679368e-06 1.1820639e-06 -2.2118954e-07 -0.019283704 0.019282725
0.01924802 0.019284789 0.019281227 0.019284248 -0.019284053 -0.019280843 0.019259924 0.019284349
00000000: addf 8fb7 8ec5 9d3c cdf3 9d3c e4f7 9dbc
00000010: a0d0 1633 35f1 48b4 a8f5 9d3c 74ec 3235
00000020: 6d0a 64b6 a904 0cb5 6bfb 9d3c 3ffb 9d3c
00000030: e177 8338 3efa 9d3c e3fb 9dbc e6fb 9d3c
00000040: 87fc 9dbc 5afc 9dbc 37af bf36 a3fd 9dbc
00000050: 7ad0 85b6 244a 0e36 ce82 80b5 5185 9236
00000060: a892 80b7 3af6 9d3c 07f8 9dbc 78f9 9dbc
00000070: 4dbf 9dbc d4fc 9d3c 6616 5735 26e6 c8b6
00000080: 10f0 9dbc 3efb 9d3c dbf8 9dbc 8acc 9dbc
00000090: eff5 9dbc d8f3 9dbc 75f1 9d3c f0e9 82b5
000000a0: cc8f 8436 335f ba38 b9f2 9dbc c42d 4736
000000b0: 82a7 9eb5 1580 6d34 60f9 9d3c 50f7 9dbc
000000c0: 7dae 9dbc 9efb 9dbc 31f4 9dbc 82fa 9dbc
000000d0: 1afa 9d3c 5ff3 9d3c 70c7 9dbc bcfa 9dbc
000000e0: ad33 e235 e1f5 9d3c 1cfb 9d3c b276 d2b7
000000f0: 6cfb 9d3c b097 54b7 d5f9 9d3c f016 5035
00000100: 95fb 9d3c 6bcf 9d3c 9af7 9d3c 6dfb 9dbc
00000110: 82f6 9d3c f5b8 9d3c 0a3c 3234 b5fb 9d3c
00000120: a9b2 6fb9 cdfb 9dbc 3bc0 9dbc e7fa 9d3c
00000130: 8efa 9d3c 94fc 9dbc fbce 9dbc b839 3db7
00000140: aee3 09b7 f549 22b9 0c51 c434 edf7 9d3c
00000150: 96f0 9dbc f1f9 9d3c 3b1b 0b39 b0f7 9d3c
00000160: cbfb 9d3c 89f2 9d3c eecc 9dbc a5af 9dbc
00000170: 70cc 9d3c 06fc 9d3c 30fa 9dbc f1ce 9dbc
00000180: 0cb2 59b5 2882 7eb5 a5ab 9735 28fb 9dbc
00000190: 9edf 8f37 9ec4 9dbc cff2 9dbc f5f6 9d3c
000001a0: 20d3 16b3 16f1 4834 b0f4 9dbc 62ec 32b5
000001b0: 5a0a 6436 8004 0c35 81fa 9dbc 54fa 9dbc
000001c0: e977 83b8 43f9 9dbc fcfa 9d3c fbfa 9dbc
000001d0: 96fb 9d3c 6ffb 9d3c 1caf bfb6 b6fc 9d3c
000001e0: 37d0 8536 424a 0eb6 ac82 8035 3285 92b6
000001f0: 9792 8037 47f5 9dbc 16f7 9d3c 83f8 9d3c
00000200: 77be 9d3c dffb 9dbc 6616 57b5 06e6 c836
00000210: 29ef 9d3c 56fa 9dbc ebf7 9d3c 97cb 9d3c
00000220: f2f4 9d3c def2 9d3c 83f0 9dbc d4e9 8235
00000230: 8c90 84b6 475f bab8 c5f1 9d3c dc2b 47b6
00000240: 56a7 9e35 f77f 6db4 6df8 9dbc 61f6 9d3c
00000250: 90ad 9d3c b3fa 9d3c 3af3 9d3c 92f9 9d3c
00000260: 2af9 9dbc 69f2 9dbc 85c6 9d3c c8f9 9d3c
00000270: 7c33 e2b5 e9f4 9dbc 30fa 9dbc a776 d237
00000280: 7dfa 9dbc 8497 5437 dff8 9dbc a416 50b5
00000290: a4fa 9dbc 74ce 9dbc a7f6 9dbc 7ffa 9d3c
000002a0: 93f5 9dbc 0db8 9dbc d23b 32b4 cdfa 9dbc
000002b0: cfb2 6f39 e1fa 9d3c 56bf 9d3c ecf9 9dbc
000002c0: a2f9 9dbc a3fb 9d3c 0dce 9d3c 9939 3d37
000002d0: a7e3 0937 ec49 2239 f650 c4b4 02f7 9dbc
000002e0: b1ef 9d3c fbf8 9dbc 261b 0bb9 bcf6 9dbc
000002f0: e1fa 9dbc 9df1 9dbc 01cc 9d3c a9ae 9d3c
00000300: 83cb 9dbc 1afb 9dbc 37f9 9d3c 05ce 9d3c
00000310: e0b1 5935 0c82 7e35 a0ab 97b5 3afa 9d3c
00000320: 9ddf 8f37 09c5 9dbc 43f3 9dbc 5ef7 9d3c
00000330: c0d2 16b3 1cf1 4834 1cf5 9dbc 72ec 32b5
00000340: 4e0a 6436 8804 0c35 f0fa 9dbc c5fa 9dbc
00000350: de77 83b8 b2f9 9dbc 67fb 9d3c 6efb 9dbc
00000360: 0bfc 9d3c d7fb 9d3c 1daf bfb6 1efd 9d3c
00000370: 57d0 8536 3a4a 0eb6 b882 8035 3d85 92b6
00000380: 9c92 8037 bff5 9dbc 84f7 9d3c f3f8 9d3c
00000390: dbbe 9d3c 4efc 9dbc 6b16 57b5 04e6 c836
000003a0: 91ef 9d3c c4fa 9dbc 58f8 9d3c 02cc 9d3c
000003b0: 68f5 9d3c 53f3 9d3c f3f0 9dbc e4e9 8235
000003c0: 0c90 84b6 315f bab8 3af2 9d3c c42c 47b6
000003d0: 68a7 9e35 1e80 6db4 dcf8 9dbc cef6 9d3c
000003e0: 06ae 9d3c 22fb 9d3c aaf3 9d3c 00fa 9d3c
000003f0: 97f9 9dbc dcf2 9dbc fdc6 9d3c 36fa 9d3c

fc2.bias f4 [100]
0.083416626 -0.08341467 -0.08341557 0.08341531 0.08341605 -0.08341626 0.08341489 0.08341532
-0.08341657 -0.08341549 -0.08341525 0.08341559 0.083415195 0.08341531 -0.08341554 -0.08341569
-0.0834159 0.08341577 0.08341562 0.08341516 -0.083415374 1.7187328e-10 4.1483926e-22 -0.08341568
-8.1705406e-11 -1.7028902e-13 0.08341555 -0.083416395 0.0834158 -0.08341523 -0.08341715 0.08341507
0.083414696 -0.08341543 -0.0834156 -0.08341571 -0.08341621 0.08341523 0.083415754 0.08341417
0.083415486 0.0834163 -0.08341538 -0.08341388 -0.08341698 9.350659e-21 0.08341438 0.08341462
0.08341577 0.08341511 0.08341531 -0.08341636 0.08341558 -0.08341535 0.083416395 -0.08341553
0.083415315 -0.08341437 0.083414145 0.08341542 -0.08341392 -0.083416216 0.08341542 -0.083415754
0.08341569 -0.08341564 -0.0834153 0.083416276 -0.08341555 0.083416395 0.08341596 -0.08341507
0.083414555 -0.08341452 -0.08341477 -0.08341641 0.08341467 -0.08341467 0.08341467 0.08341585
4.052233e-20 0.083415546 0.083416544 0.08341539 0.083414294 0.08341518 -0.083415665 -0.083414584
0.08341495 -0.083415754 -0.08341656 0.08341352 0.08341504 0.083415605 0.08341638 0.083415605
-0.0834167 0.08341639 -0.08341455 -3.071011e-23
00000000: 56d6 aa3d 4fd5 aabd c8d5 aabd a5d5 aa3d
00000010: 09d6 aa3d 25d6 aabd 6dd5 aa3d a7d5 aa3d
00000020: 4fd6 aabd bed5 aabd 9dd5 aabd cbd5 aa3d
00000030: 96d5 aa3d a5d5 aa3d c4d5 aabd d8d5 aabd
00000040: f5d5 aabd e3d5 aa3d cfd5 aa3d 91d5 aa3d
00000050: aed5 aabd 07fa 3c2f 44c1 fa1b d7d5 aabd
00000060: 0eac b3ae 78ba 3faa c6d5 aa3d 37d6 aabd
00000070: e7d5 aa3d 9bd5 aabd 9cd6 aabd 85d5 aa3d
00000080: 53d5 aa3d b5d5 aabd ccd5 aabd dbd5 aabd
00000090: 1ed6 aabd 9bd5 aa3d e1d5 aa3d 0cd5 aa3d
000000a0: bdd5 aa3d 2ad6 aa3d afd5 aabd e5d4 aabd
000000b0: 86d6 aabd 03a1 301e 29d5 aa3d 49d5 aa3d
000000c0: e3d5 aa3d 8bd5 aa3d a5d5 aa3d 32d6 aabd
000000d0: cad5 aa3d abd5 aabd 37d6 aa3d c3d5 aabd
000000e0: a6d5 aa3d 27d5 aabd 09d5 aa3d b4d5 aa3d
000000f0: ebd4 aabd 1fd6 aabd b4d5 aa3d e1d5 aabd
00000100: d8d5 aa3d d2d5 aabd a4d5 aabd 27d6 aa3d
00000110: c6d5 aabd 37d6 aa3d fdd5 aa3d 85d5 aabd
00000120: 40d5 aa3d 3bd5 aabd 5dd5 aabd 39d6 aabd
00000130: 4fd5 aa3d 4fd5 aabd 4fd5 aa3d eed5 aa3d
00000140: 7e5c 3f1f c5d5 aa3d 4bd6 aa3d b0d5 aa3d
00000150: 1dd5 aa3d 94d5 aa3d d5d5 aabd 44d5 aabd
00000160: 75d5 aa3d e1d5 aabd 4dd6 aabd b5d4 aa3d
00000170: 81d5 aa3d cdd5 aa3d 35d6 aa3d cdd5 aa3d
00000180: 60d6 aabd 36d6 aa3d 3fd5 aabd 4681 149a

fc3.weight f4 [1, 100]
0.17089406 -0.17088924 -0.17089148 0.17089069 0.1708927 -0.17089318 0.17088966 0.1708908
-0.17089398 -0.17089121 -0.17089057 0.17089152 0.17089047 0.1708907 -0.17089139 -0.17089179
-0.17089242 0.17089204 0.17089163 0.17089044 -0.17089087 1.7549525e-13 -3.0326888e-22 -0.17089172
3.76163e-11 1.1289205e-13 0.17089146 -0.17089354 0.1708921 -0.17089064 -0.17089526 0.17089011
0.1708893 -0.17089103 -0.17089161 -0.17089178 -0.170893 0.17089057 0.17089197 0.17088792
0.17089123 0.1708932 -0.17089091 -0.17088735 -0.17089486 -1.1288836e-20 0.17088853 0.17088917
0.17089203 0.17089026 0.17089069 -0.17089345 0.17089143 -0.17089084 0.17089352 -0.1708914
0.17089078 -0.17088847 0.17088783 0.17089097 -0.17088753 -0.17089306 0.17089097 -0.17089197
0.1708917 -0.17089158 -0.17089067 0.17089318 -0.1708914 0.17089358 0.17089248 -0.17089008
0.17088899 -0.17088887 -0.1708894 -0.17089352 0.17088929 -0.17088929 0.17088923 0.17089222
-2.784378e-20 0.1708914 0.17089398 0.17089097 0.17088829 0.17089032 -0.1708917 -0.17088906
0.17088978 -0.17089203 -0.17089395 0.17088641 0.17089003 0.17089161 0.17089354 0.17089161
-0.17089427 0.17089355 -0.17088896 2.627722e-23
00000000: dafe 2e3e 97fd 2ebe 2dfe 2ebe f8fd 2e3e
00000010: 7ffe 2e3e 9ffe 2ebe b3fd 2e3e fffd 2e3e
00000020: d5fe 2ebe 1bfe 2ebe f0fd 2ebe 30fe 2e3e
00000030: e9fd 2e3e f9fd 2e3e 27fe 2ebe 42fe 2ebe
00000040: 6cfe 2ebe 53fe 2e3e 37fe 2e3e e7fd 2e3e
00000050: 04fe 2ebe 1097 452a 9650 b79b 3dfe 2ebe
00000060: 3070 252e d635 fe29 2cfe 2e3e b7fe 2ebe
00000070: 57fe 2e3e f5fd 2ebe 2bff 2ebe d1fd 2e3e
00000080: 9bfd 2e3e 0ffe 2ebe 36fe 2ebe 41fe 2ebe
00000090: 93fe 2ebe f0fd 2e3e 4efe 2e3e 3efd 2e3e
000000a0: 1cfe 2e3e a1fe 2e3e 07fe 2ebe 18fd 2ebe
000000b0: 10ff 2ebe 763d 559e 67fd 2e3e 92fd 2e3e
000000c0: 52fe 2e3e dbfd 2e3e f8fd 2e3e b1fe 2ebe
000000d0: 2afe 2e3e 02fe 2ebe b6fe 2e3e 28fe 2ebe
000000e0: fefd 2e3e 63fd 2ebe 38fd 2e3e 0bfe 2e3e
000000f0: 24fd 2ebe 97fe 2ebe 0bfe 2e3e 4efe 2ebe
00000100: 3cfe 2e3e 34fe 2ebe f7fd 2ebe 9ffe 2e3e
00000110: 28fe 2ebe bafe 2e3e 70fe 2e3e cffd 2ebe
00000120: 86fd 2e3e 7efd 2ebe a2fd 2ebe b6fe 2ebe
00000130: 9afd 2e3e 9afd 2ebe 96fd 2e3e 5ffe 2e3e
00000140: 117d 039f 28fe 2e3e d5fe 2e3e 0bfe 2e3e
00000150: 57fd 2e3e dffd 2e3e 3cfe 2ebe 8bfd 2ebe
00000160: bbfd 2e3e 52fe 2ebe d3fe 2ebe d9fc 2e3e
00000170: ccfd 2e3e 36fe 2e3e b7fe 2e3e 36fe 2e3e
00000180: e8fe 2ebe b8fe 2e3e 84fd 2ebe 3f23 fe19

fc1.weight f4 [100, 24]
0.03326119 0.20073774 0.050183732 -0.09322917 0.09060355 0.019955903 0.22330238 -0.13732079
-0.030199956 0.20241627 -0.14398131 -0.0024333447 -0.14169621 -0.00915131 -0.14087927 0.06269115
-0.13647278 -0.1583248 -0.1385667 0.10256636 -0.13812408 0.12255164 0.038229693 0.2061817
0.08456656 0.13037667 0.061395854 -0.1756788 -0.18451633 -0.1807923 -0.25257543 -0.19075692
-0.12193641 0.13403228 0.13753918 0.017171368 -0.074147254 -0.12939623 0.06618303 0.0015245974
0.1549465 -0.018191263 -0.052954108 -0.15728387 -0.11138475 0.01316549 0.17596903 -0.07303388
0.2288072 -0.042197302 -0.13463661 0.0538938 0.21733601 -0.007642101 -0.04619142 -0.014341548
0.13772726 -0.20040648 0.032572165 -0.030533522 0.014382333 -0.04103847 -0.07231605 -0.04327856
-0.056316003 -0.13460654 -0.17300546 -0.20299849 -0.08378723 -0.15662791 -0.15027277 0.0748585
0.07739559 -0.1440939 -0.024026493 -0.18243128 -0.033081304 0.09547075 -0.19452779 -0.076988965
-0.10643581 -0.1723868 0.16095951 0.18680397 -0.19828513 0.10636082 0.17428097 -0.04985395
-0.023952872 0.068677515 0.094787866 0.14626116 0.07196146 -0.018554937 -0.13077357 -0.066872954
0.019349402 0.05893761 0.06910043 0.091298245 -0.097054735 -0.07132481 -0.002526205 -0.18291293
-0.056779664 -0.16513778 -0.19292879 -0.029473335 0.17257363 -0.013961151 -0.0014872104 -0.008670226
-0.006540939 0.15454754 -0.06687158 -0.10976623 0.18435624 -0.02152059 0.021491019 0.19360131
-0.16136353 -0.10347072 -0.24787152 -0.21768537 -0.028407216 -0.28206846 -0.1266197 0.011072129
-0.046009872 0.07399571 0.17244154 -0.077443585 -0.17254117 0.025175333 0.14958793 -0.027063087
0.16056183 -0.09650545 -0.07253313 -0.06343526 -0.0643675 0.19708486 0.034594554 -0.004747125
-0.23231389 0.030225024 -0.12993295 -0.21620508 -0.012640949 0.13277555 -0.16369122 -0.118280254
0.076859385 0.18290865 -0.1933351 -0.13922754 0.20048076 0.15442643 0.02912882 0.10926178
0.021771029 -0.11778597 -0.11758044 0.17305288 0.0101043135 0.06618996 0.056869276 0.07202726
0.1345681 0.09250325 -0.09496719 0.052445494 0.21267238 0.067121536 0.19949335 0.11737543
0.10029338 -0.113425456 0.07349771 0.08169246 -0.011307627 0.16403002 -0.079631485 0.032361984
-0.152095 -0.116669714 -0.08722923 -0.053563714 -0.17439996 0.04154152 -0.053306516 -0.1452087
-0.058885135 0.059989184 0.01873578 0.018542351 0.0585007 0.055026013 -0.023801206 0.07030174
0.035564184 0.1816127 0.1742895 0.048463494 -0.04423082 -0.18074106 -0.033203706 0.20353648
0.15871239 0.16041413 -0.0751777 -0.030540332 0.12533009 -0.033019096 0.07936754 -0.059706423
-0.101114415 0.0765377 0.010727709 0.14122753 -0.16107322 0.088972434 0.11441045 0.12212378
-0.035750285 -0.031300157 0.19015121 -0.12310607 0.09083539 -0.1886134 0.0072486997 0.048635185
0.05266142 -0.13044904 -0.11696787 0.08488697 0.14126459 -0.015024015 0.045860134 -0.1772725
-0.1395367 0.02130273 -0.012758276 0.069409676 -0.1826226 -0.24228926 -0.20020443 -0.19167335
-0.19597754 -0.06176637 0.022790238 -0.0917225 0.015389383 0.13056195 0.058306754 -0.042467758
00000000: e33c 083d 328e 4d3e 758d 4d3d efee bebd
00000010: 5b8e b93d 907a a33c 61a9 643e d29d 0cbe
00000020: e665 f7bc 3646 4f3e d66f 13be c078 1fbb
00000030: d018 11be 60ef 15bc a842 10be 3864 803d
00000040: 85bf 0bbe e51f 22be 6ee4 0dbe 500e d23d
00000050: 6670 0dbe 5bfc fa3d bd96 1c3d 4c21 533e
00000060: 3c31 ad3d 7681 053e 387a 7b3d 25e5 33be
00000070: d9f1 3cbe 9e21 39be 9151 81be c855 43be
00000080: ccb9 f9bd c23f 093e 12d7 0c3e f8aa 8c3c
00000090: 84da 97bd 7280 04be f88a 873d 00d5 c73a
000000a0: 4caa 1e3e d805 95bc 68e6 58bd 060f 21be
000000b0: b01d e4bd 11b4 573c 3a31 343e c992 95bd
000000c0: 6f4c 6a3e 14d7 2cbd 2ede 09be bfbf 5c3d
000000d0: 558d 5e3e 976a fabb 3733 3dbd d0f8 6abc
000000e0: 6008 0d3e 5b37 4dbe 646a 053d 7021 fabc
000000f0: e0a3 6b3c f417 28bd 701a 94bd dc44 31bd
00000100: 9cab 66bd 4cd6 09be 5828 31be d6de 4fbe
00000110: a498 abbd 1163 20be 1be1 19be 6a4f 993d
00000120: 9481 9e3d 5a8d 13be 35d3 c4bc 44cf 3abe
00000130: 4380 07bd 2b86 c33d 4b32 47be 64ac 9dbd
00000140: 05fb d9bd 2a86 30be 92d2 243e 8a49 3f3e
00000150: 420b 4bbe b4d3 d93d b676 323e a833 4cbd
00000160: d038 c4bc cca6 8c3d 2420 c23d 7cc5 153e
00000170: 8860 933d 8600 98bc 82e9 05be b0f4 88bd
00000180: a382 9e3c 9068 713d 8784 8d3d 93fa ba3d
00000190: a2c4 c6bd be12 92bd b08e 25bb 874d 3bbe
000001a0: cb91 68bd e119 29be 208f 45be 1072 f1bc
000001b0: 24b7 303e 50bd 64bc 80ee c2ba 900d 0ebc
000001c0: 6055 d6bb b641 1e3e f8f3 88bd 1ecd e0bd
000001d0: e2c7 3c3e f34b b0bc ef0d b03c 6c3f 463e
000001e0: 7b3c 25be 75e8 d3bd 08d2 7dbe eae8 5ebe
000001f0: 40b6 e8bc 476b 90be 98a8 01be e067 353c
00000200: d974 3cbd 108b 973d 8494 303e be9a 9ebd
00000210: a2ae 30be 803c ce3c 942d 193e 68b3 ddbc
00000220: 526a 243e a6a4 c5bd 408c 94bd 58ea 81bd
00000230: 1cd3 83bd 9dd0 493e 05b3 0d3d c58d 9bbb
00000240: b1e3 6dbe 789a f73c 250d 05be dd64 5dbe
00000250: fc1b 4fbc 50f6 073e ac9e 27be eb3c f2bd
00000260: 7468 9d3d 684c 3b3e a3f9 45be aa91 0ebe
00000270: d44a 4d3e f621 1e3e 909f ee3c a4c4 df3d
00000280: 2859 b23c c539 f1bd 04ce f0bd c634 313e
00000290: 908c 253c 9a8e 873d c2ef 683d 0783 933d
000002a0: 38cc 093e 5872 bd3d 287e c2bd 16d1 563d
000002b0: cac6 593e 0477 893d fc47 4c3e 8862 f03d
000002c0: 9e66 cd3d 9b4b e8bd f885 963d 604e a73d
000002d0: a043 39bc 7cf7 273e d515 a3bd 008e 043d
000002e0: cbbe 1bbe 88f0 eebd 3da5 b2bd a065 5bbd
000002f0: e795 32be 7127 2a3d ef57 5abd 97b1 14be
00000300: 8a31 71bd 38b7 753d c77b 993c 21e6 973c
00000310: 6e9e 6f3d f562 613d bffa c2bc 5cfa 8f3d
00000320: c0ab 113d aef8 393e f278 323e a881 463d
00000330: 602b 35bd 2f14 39be 9c00 08bd de6b 503e
00000340: 8085 223e 9a43 243e c4f6 99bd b82f fabc
00000350: 8856 003e 083f 07bd 738b a23d b98e 74bd
00000360: 1315 cfbd ccbf 9c3d 46c3 2f3c f39d 103e
00000370: 61f0 24be 2e37 b63d 0750 ea3d 081c fa3d
00000380: e46e 12bd 9834 00bd 00b7 423e 091f fcbd
00000390: e807 ba3d df23 41be 8086 ed3b b035 473d
000003a0: 80b3 573d 6f94 05be da8c efbd 38d9 ad3d
000003b0: aaa7 103e 4927 76bc d6d7 3b3d ec86 35be
000003c0: b5e2 0ebe 1083 ae3c 1708 51bc a926 8e3d
000003d0: 6b01 3bbe ad1a 78be 6402 4dbe 0546 44be
000003e0: 56ae 48be bcfe 7cbd 98b2 ba3c 02d9 bbbd
000003f0: c023 7c3c 08b2 053e 10d3 6e3d acf2 2dbd
