gail/save_model/0/SUB009_ckpt_21.pth.tar (torch_old, 154741 bytes, 16 tensors)

fc1.weight f4 [100, 22]
000000 f3 4c 1b 3e 43 72 1a bf e6 9a f0 3d 3c 33 60 be
       0.15166073 -0.603306 0.117482945 -0.21894544
000010 e7 b0 6d 3d e7 9d 72 be 40 38 dd be 77 bb 4c be
       0.058030035 -0.23693047 -0.43206978 -0.19993387
000020 d4 97 24 be 4c 25 02 3e 00 3e 8e bc 38 86 2e 3e
       -0.16073543 0.1270954 -0.017363548 0.17043388
000030 4e b4 d8 bd 18 4a e2 3c 98 25 4d be c0 6f 22 3d
       -0.105812654 0.027623221 -0.20033872 0.039657354
000040 70 25 72 3d 40 33 0f bc 78 f1 33 3d bc 58 cd 3d
       0.059117734 -0.008740246 0.043931454 0.1002669
000050 dc 39 e3 3d 22 12 29 3e 90 83 ad 3d 72 15 c5 be
       0.1109502 0.16510823 0.08472359 -0.38492924
000060 a8 e8 bf be d6 84 8f 3e de 07 9d 3e a8 fb 52 be
       -0.3748219 0.28031033 0.30670065 -0.20603812
000070 8f 34 ee bd db 4c 81 3d 16 2f 1a be 60 a0 82 bc
       -0.116311185 0.06313487 -0.15057024 -0.015945613
000080 80 ca d9 3d 42 8d 40 3e 82 45 3f be 08 aa 56 3d
       0.10634327 0.18803886 -0.18678859 0.05240825
000090 c8 7c 25 3e 88 5d 42 3d e0 f2 74 3d 80 98 4a be
       0.16160882 0.04745248 0.059801936 -0.19784737
0000a0 60 d8 13 bd e8 59 d7 bd 4c 4c 0a 3e c4 95 50 be
       -0.036095023 -0.10515195 0.13505667 -0.20369631
0000b0 49 10 97 3e ac 19 12 3d 02 0d 9d 3d 8f 9d 53 be
       0.29504612 0.035669014 0.07668497 -0.20665573
0000c0 3a 39 f6 be 35 aa 0f be c9 04 b2 be 69 7d 6e be
       -0.48090535 -0.14029773 -0.34769276 -0.23290028
0000d0 6f 74 e1 bc f4 e6 82 3d 80 e2 42 3d e2 fd 34 3e
       -0.02752134 0.06391707 0.04757929 0.17674974
0000e0 2a ac 90 bd e0 61 00 bd 38 6a f1 3d f2 de 59 3e
       -0.07064088 -0.03134334 0.11787838 0.21276453
0000f0 b4 8a 90 3d 70 2e 3f 3d 2b d9 cd bd 00 e4 5a 3c
       0.070577055 0.046675146 -0.10051187 0.0133600235
000100 08 99 e8 bc 70 7d b6 3c e3 c4 ec 3d 1c 0e 07 bd
       -0.028393283 0.02227661 0.11560991 -0.03297244
000110 b7 5c 0d 3e e9 cf 6f be fb aa d7 be 59 81 78 be
       0.13804899 -0.23419155 -0.42122635 -0.24268092
000120 13 a4 b5 3d f4 cb bd bd c5 dc a1 bd 01 da da bd
       0.08869185 -0.092674166 -0.079034366 -0.10686112
000130 33 e9 1a be c8 ad 40 3d 1a c7 46 3e 45 c5 eb bd
       -0.15128021 0.04704073 0.19411889 -0.115122356
000140 80 8b c0 bd b8 50 24 3e 7c 20 8a 3d 96 1e 3c 3e
       -0.094016075 0.16046417 0.06744477 0.18371043
000150 30 81 b1 3c 5c 39 07 be 3e 95 28 3e c2 02 4d 3e
       0.021668047 -0.13205475 0.16463181 0.20020583
000160 56 4b 2b be ac 99 47 3e 44 35 12 3e aa 95 95 be
       -0.16727957 0.19492215 0.14278132 -0.29215747
000170 37 15 0a be ea c9 4e 3e c3 c3 37 3e 06 fa 94 bd
       -0.13484655 0.20194212 0.17945771 -0.07274251
000180 c8 8e 86 3e 24 fa f9 bd 82 0d 0b 3e e0 6a ae 3b
       0.26280808 -0.12205914 0.13579372 0.005322799
000190 20 b2 ac 3d 88 8f b9 bc 68 54 bc 3d 76 59 28 3e
       0.08432412 -0.022651449 0.09195787 0.16440377
0001a0 ed cf 41 be 04 e5 04 3e 28 a2 42 3e 8c 7a fa 3d
       -0.18926974 0.12977988 0.1900717 0.12230405
0001b0 b0 53 d0 3d 24 65 3a bd 14 0d 70 be 7b 21 36 3e
       0.10172212 -0.04550661 -0.23442489 0.1778621
0001c0 ec 74 c5 3d 5b ff 67 be 69 e4 a5 be 8c 81 d9 3d
       0.09641442 -0.22656004 -0.32400826 0.10620412
0001d0 97 b1 37 be f8 9c a8 3d 17 2b 22 3b 0c 99 f6 3d
       -0.17938839 0.082330644 0.0024744922 0.1204091
0001e0 48 7b 25 bd ba 00 a4 bd a8 b9 24 bd a8 14 70 3d
       -0.040400773 -0.08007951 -0.040216118 0.05861345
0001f0 90 2a 17 3d 58 8b 54 3e 04 67 45 3e dc 31 03 3d
       0.036905825 0.2075628 0.19277579 0.03202997
000200 b8 50 0a bd 94 d6 07 bd 80 32 6e bd b8 1f ed 3d
       -0.033768386 -0.033163622 -0.05815363 0.115783155
000210 b0 65 0d be 5a eb 91 3e 50 3e 89 be 4b d9 9f 3e
       -0.13808322 0.28499871 -0.26805353 0.3122047
000220 26 e2 3b 3e ba e3 0b bd e2 dd 64 3d 60 dc 09 bd
       0.18347988 -0.034152724 0.055875666 -0.03365743
000230 4d 91 37 3e 80 93 c0 3a 4c bd b6 3d 34 2d bd 3d
       0.17926522 0.0014692396 0.08922824 0.092371374
000240 50 d3 b0 3d c7 cf 02 be 12 a7 09 3e 00 fa 77 bd
       0.08634055 -0.12774573 0.13442639 -0.060541153
000250 2c 53 57 bd d0 54 a3 3c 2a 1e 17 3e 3e 4a 1c 3e
       -0.052569553 0.019937903 0.147576 0.15262696
000260 c8 9a 9c bd 40 3c 89 3b 19 14 c3 be 27 1d 86 3d
       -0.0764671 0.0041880906 -0.3810127 0.06548529
000270 82 ba 42 3e 8f 5a 68 3d 2b 15 c0 3e 90 93 f5 bd
       0.1901646 0.05672699 0.3751615 -0.11991036
000280 3a 24 0e 3e 3d fc dc 3d 61 25 6b bd 20 45 30 3c
       0.13881007 0.10790298 -0.057408694 0.010758668
000290 64 69 d2 3d d4 ac 13 bd cb 67 e9 bd a4 c0 a7 3d
       0.10274008 -0.036053494 -0.1139675 0.0819104
0002a0 b0 56 dc 3d 96 a3 0f 3e 90 b3 24 3d cb 31 e2 bd
       0.10758722 0.14027247 0.040210307 -0.110446535
0002b0 58 ee 69 bd b0 e6 09 3e 9c 95 ae 3d b4 a8 54 bd
       -0.057112068 0.13466907 0.085246295 -0.0519187
0002c0 d6 1f 54 3e 0e 12 31 be 5f a8 28 be b1 39 bd 3e
       0.2071527 -0.17292044 -0.16470478 0.36958078
0002d0 38 d8 66 3e 82 75 ba 3e 10 0d 08 3c dd f9 bb 3e
       0.22543418 0.36417776 0.008303896 0.36714068
0002e0 55 6e b5 3e 58 90 03 3e ec 6e 44 3e c0 8f 01 3b
       0.3543574 0.12848032 0.19182938 0.001976952
0002f0 27 be 2c be d8 c9 97 3c b9 b8 58 be 08 d4 06 3d
       -0.16869412 0.018528864 -0.21164216 0.032917053
000300 de c1 0f be 04 5e f6 3d c4 6a e2 3d 14 c8 41 bd
       -0.14038798 0.12029651 0.1105552 -0.04730995
000310 d0 33 e9 bd 97 83 fc bd 10 cf 9b 3d ce 66 04 3f
       -0.113868356 -0.12329786 0.076078534 0.5171937
000320 b3 de cb 3e 6a 42 90 be 9e 7c 8e be 5b cd 9b 3e
       0.39818344 -0.2817567 -0.2782945 0.3043011
000330 4a 60 2a 3e 4c cc 5d 3e 5f d5 91 3d 38 ec 2d be
       0.16638294 0.21659964 0.071207754 -0.16984642
000340 1c 9c 4d 3e 38 69 b5 bd 34 08 41 3e 73 e1 31 be
       0.20079082 -0.088579595 0.18850785 -0.17371158
000350 30 c1 1c 3d 4c 28 49 3e ce d6 56 be 86 ef 38 be
       0.038270175 0.19644278 -0.20980379 -0.18060121
000360 41 5d 1c be 88 1b fb bc f0 30 53 3d f6 35 48 be
       -0.15269949 -0.030652776 0.051560342 -0.19551834
000370 aa 0c 24 be 15 bb a9 be 60 19 60 be 3b ea f6 3e
       -0.16020456 -0.33150545 -0.2188468 0.4822558
000380 78 e3 d5 3e ba 00 6f 3c 73 a2 b0 bd 3f 6d 9c bc
       0.41775107 0.014587576 -0.08624735 -0.019095061
000390 05 93 b1 3b 98 6b 91 bd 6d 15 38 be 94 7b 21 3e
       0.0054191374 -0.071006 -0.17976923 0.15769798
0003a0 68 40 af 3c 6c a1 f8 3d cc 89 0b 3e 4c a5 47 3e
       0.021393016 0.12140164 0.13626784 0.1949665
0003b0 05 1b 31 be ff 48 c4 bd a8 a7 6c 3d a8 43 29 bd
       -0.17295463 -0.095842354 0.057777077 -0.041324288
0003c0 88 68 ef 3d 20 2c 83 bc 20 fd 93 3d 47 43 d1 be
       0.1168986 -0.016012251 0.07226014 -0.4087164
0003d0 46 a7 5d 3c 58 1f 08 3b b5 a8 88 3e 17 50 62 3d
       0.013528651 0.0020770635 0.26691213 0.05525216
0003e0 6b e8 52 be 65 a1 1a be ef 38 07 be f4 75 8c 3d
       -0.20596473 -0.1510063 -0.13205312 0.06858435
0003f0 52 f6 4b be 92 1a 0f 3e 50 b4 40 3d 14 b5 07 3d
       -0.19918182 0.1397498 0.04704696 0.033131674

fc1.bias f4 [100]
000000 c0 36 ad 3e ba bc ab 3d 5c 9f 95 3e 2c 07 57 bd
       0.33830833 0.08385606 0.29223144 -0.052497074
000010 cf 29 a1 bd a0 25 03 be 12 2b 41 be 4a 53 e3 3d
       -0.078693025 -0.12807322 -0.18864086 0.110998705
000020 f3 28 95 be 23 56 18 be 5e 1e 81 3d 4d a4 48 bd
       -0.29132804 -0.14876609 0.0630462 -0.048984814
000030 33 11 da 3d df af 86 bd 1e 43 b1 3e 7b 85 d2 bc
       0.10647812 -0.065765135 0.3462152 -0.025698414
000040 ff 77 1c bd 30 9e 16 3e 8a 40 1b 3e 48 77 7c 3d
       -0.038200375 0.14708781 0.15161338 0.061637193
000050 89 ca db 3e 54 d3 8f be b3 d8 f2 3d 67 34 8e 3d
       0.4292796 -0.28090918 0.11857738 0.06943589
000060 3a 5a 84 3e b4 06 ed bd 50 61 7f 3e 94 6f b6 be
       0.25850087 -0.11573544 0.24939466 -0.35632002
000070 53 1b 6c 3e 4f 14 35 3e 14 66 6d 3d 89 a1 f4 3d
       0.23057298 0.17683528 0.057958677 0.11944873
000080 b5 c6 c1 bd c5 e6 b4 3c 0d 60 ff 3e cf 68 ae be
       -0.094617285 0.022082696 0.49877968 -0.34064338
000090 7b f2 19 3e aa fb 70 3e ff 08 8a bd 19 7b b4 3e
       0.15033905 0.23533502 -0.06739997 0.35250166
0000a0 18 f8 b9 bd ca 36 12 be 50 e0 38 be c3 5d 52 3b
       -0.09080523 -0.14278713 -0.18054318 0.0032099343
0000b0 c1 f0 69 3e 81 1d 0f 3d cc e7 88 be bc 51 1e 3e
       0.22845747 0.034940246 -0.26739347 0.15460867
0000c0 87 3b 6f 3e 2a 24 01 be f9 da 9c bd 1a 95 28 3e
       0.23362552 -0.12611452 -0.07658953 0.16463128
0000d0 7f ea 64 be b3 60 9d be 46 e7 ce bd 73 de 8a bd
       -0.22355078 -0.30737838 -0.10102706 -0.0678071
0000e0 e3 a2 6d bd d1 d1 ad be 76 b3 0f bd 32 4b 3d bd
       -0.05801667 -0.3394914 -0.035083257 -0.04621429
0000f0 5b d4 0b bd 78 83 28 be dd 1b a4 bc 7a ed 4d be
       -0.034138065 -0.16456401 -0.020032817 -0.20110121
000100 eb f5 e4 be a0 62 01 3d 2b f9 82 3d 79 09 d5 3d
       -0.4471887 0.031588197 0.06395181 0.104021974
000110 31 37 b7 bc ff 1c 91 3e 64 fb 9b bd 44 ff 31 3e
       -0.022365185 0.28342435 -0.07616308 0.17382532
000120 58 5b 80 bc 51 3b 65 3e e4 74 2c 3e a7 82 29 be
       -0.015668556 0.22385909 0.16841465 -0.16553746
000130 ca 3b 7f 3e 61 14 70 3e d5 68 89 3e 5f 6c 7b be
       0.24925151 0.23445274 0.26837793 -0.24553059
000140 74 03 23 3d d5 35 08 be d1 a3 8e 3d 31 87 93 3e
       0.039798215 -0.13301785 0.06964839 0.2881408
000150 a9 53 fe bc 65 ed fc 3c ee a2 7a bc d0 06 10 3e
       -0.031045752 0.030874917 -0.0152976345 0.14065099
000160 1b 69 6d bd fc 80 38 3e c5 c0 e4 bd 79 82 8c bd
       -0.057961565 0.18017954 -0.1116958 -0.06860823
000170 81 66 47 bd 30 dd 9a 3e 97 9d 12 bc ae 38 91 3e
       -0.04868174 0.30246878 -0.008948705 0.28363556
000180 83 82 cd be 4b c7 70 3e e7 ec 8a 3e fe 1d e0 3c
       -0.40138635 0.23513524 0.27133867 0.027358051

fc2.weight f4 [100, 100]
000000 78 e2 aa be cf 94 21 bd 1e 0a d6 be 99 99 07 3d
       -0.33375907 -0.039448556 -0.41804594 0.033105467
000010 a5 dd 87 3e e2 6f 12 3e 70 11 00 be 6d 98 ab bd
       0.2653629 0.14300492 -0.12506652 -0.08378682
000020 24 62 b5 3e ab e2 8a 3d e2 73 93 3c 48 a9 44 3e
       0.35426438 0.06781515 0.017999593 0.192052
000030 09 7b cb be f4 72 95 be d0 1f 34 bf a5 77 65 be
       -0.39742306 -0.29189265 -0.7036104 -0.22408922
000040 fc c9 44 3e b2 cd 34 be ff 93 84 ba 4c 97 80 3c
       0.19217676 -0.17656592 -0.0010114907 0.015697144
000050 16 3c e7 be 0f 75 bd 3e 35 29 0b bd 70 80 19 be
       -0.4516303 0.3700337 -0.033974845 -0.14990401
000060 a2 df 4a 3c d0 88 b6 be 15 1a 3e 3e fc 0c 95 3e
       0.01238242 -0.35651255 0.18564637 0.2911147
000070 d1 3d 8a be ae b0 28 bf 91 ff e4 3e 59 a6 fd bd
       -0.27000287 -0.6589459 0.44726232 -0.12385244
000080 cc d6 49 3e c2 c7 c4 bd 59 b2 23 bf 50 e5 9f 3e
       0.19710845 -0.09608413 -0.6394401 0.3122964
000090 f2 1a 0e be 2c 24 99 be ec 72 fc be 1a 96 85 be
       -0.13877466 -0.2991041 -0.49306428 -0.2609108
0000a0 30 64 e4 3e 61 35 bf 3e fc f7 0f 3d 72 6e 0c 3f
       0.44607687 0.37345412 0.035148606 0.54856026
0000b0 55 21 be be e2 e5 d8 bd a9 b5 90 3c e2 59 d0 3e
       -0.37134805 -0.10590722 0.017664747 0.40693575
0000c0 57 83 6b 3c c0 87 e0 3e 2b d7 7a 3e 31 c7 01 be
       0.014374576 0.4385357 0.24496143 -0.12673642
0000d0 2e bf fe 3e eb 1c ed 3e 33 64 ff 3e 14 9c 03 3f
       0.49755234 0.46311125 0.49881133 0.5141003
0000e0 06 74 89 3d cc e5 98 3e c8 99 bd bb 74 be 9a 3c
       0.06711583 0.2986282 -0.0057861544 0.018889643
0000f0 3d a9 99 be 54 e5 6d 3e 4c 4d d7 3e 70 ce 0a 3f
       -0.3001193 0.23232013 0.4205116 0.5422125
000100 8b 92 ca 3e 65 62 db bd a5 e4 ce bc 46 b9 2c 3e
       0.39564928 -0.10712127 -0.02525551 0.16867551
000110 e2 6f 0e 3e c7 7d 2d bf 97 87 09 be ec 7f 18 bf
       0.13909867 -0.67770046 -0.1343063 -0.59570193
000120 ad 66 75 bd 2f 11 04 3d 15 e7 a7 be 25 d1 02 3f
       -0.059912372 0.03224295 -0.3279349 0.5110038
000130 d8 c7 b9 be 2f 09 0c bf fb e6 a6 be e3 6d ce 3e
       -0.3628528 -0.54701513 -0.325981 0.40318212
000140 7a cb 46 3e e7 60 8e 3c b9 ab d1 be e8 7c 61 be
       0.19413558 0.017380191 -0.40951326 -0.22020304
000150 0c 45 e6 3e 03 56 04 bf 96 1c 8b be d2 58 4c 3c
       0.44974554 -0.51693743 -0.27170247 0.012472348
000160 f6 74 88 3e 31 88 50 be 04 d3 8d 3e ee 27 bf bc
       0.26651734 -0.20364453 0.27700055 -0.02333447
000170 65 65 da 3e 3a 1c 00 bf 7b 45 5a 3e 4c 7a c3 be
       0.42655483 -0.5004307 0.21315567 -0.38179243
000180 35 8b 7a 3e e5 bc 15 be f7 2e 76 be 2e f0 1e be
       0.24467166 -0.14622839 -0.24041353 -0.15521309
000190 ed fc 2d bf cd 05 6c be ed e9 8b be ef 4e a0 be
       -0.6796406 -0.23049088 -0.2732691 -0.31310222
0001a0 cc ea b4 3e 69 69 84 bb 73 4a 8c 3e 2f dd 92 bd
       0.35335386 -0.004040886 0.2740055 -0.07171094
0001b0 c2 6f 97 3e 26 b9 99 3e d0 19 8d be 94 25 33 bf
       0.29577452 0.3002407 -0.27558756 -0.69979215
0001c0 5a 78 cd be 19 2c 6c 3e d1 29 4e bf 34 7f 06 bf
       -0.40130883 0.23063697 -0.80532557 -0.52537847
0001d0 bf b5 2d bc af aa a3 be 1d 29 fc 3d 75 77 80 bd
       -0.010602414 -0.3196616 0.12312529 -0.062727846
0001e0 92 8f e0 be 73 ad bd 3e 65 52 b9 3e 83 6e 2b 3e
       -0.43859535 0.37046394 0.36195675 0.16741376
0001f0 fd 61 4b be 15 31 8c bd cc 6a 01 3d d7 bd af 3e
       -0.19861598 -0.06845299 0.03159599 0.34324524
000200 bb e2 cc be 29 ae 25 bf 30 02 81 bc de 06 1b bf
       -0.40016732 -0.6471887 -0.015748113 -0.60557353
000210 b5 85 c7 3d 7c 71 e7 bd 35 8b 09 bf 04 a4 bc 3e
       0.097422995 -0.11300942 -0.5372804 0.36843884
000220 01 2f 6f 3e ab c5 06 bf fe 96 3b be ed eb 36 bf
       0.23357774 -0.5264537 -0.18319318 -0.71453744
000230 ea 84 58 3e dd a0 77 be e9 0e 06 3f 2d 69 62 3d
       0.21144453 -0.24182458 0.523665 0.055276085
000240 a8 e4 06 bf 3e 5a 72 3e bf 2f 86 3e e7 c3 80 be
       -0.5269265 0.23667237 0.26208302 -0.25149462
000250 c4 ca 99 be 33 f5 f1 3e e9 fd ac bd f5 4f 4b be
       -0.3003751 0.47257385 -0.08446867 -0.1985472
000260 bf cb a2 3e 80 18 b3 3c 20 0e 00 be f5 90 81 3e
       0.3179607 0.021862268 -0.12505388 0.25305906
000270 9a fc 4c be f7 45 80 be d7 3c af 3e fa 7b 63 3e
       -0.20018235 -0.2505338 0.34226105 0.22215262
000280 c6 f2 90 3e 74 09 bf 3e 8b 4d 8f be cc 9c 94 3d
       0.2831022 0.373119 -0.27988848 0.07256469
000290 0c d5 06 3f 93 ab 0e 3d 0d ed 09 3e 59 a7 e6 bd
       0.52668834 0.034831595 0.13469334 -0.11262388
0002a0 39 6f 95 be f9 f3 22 bf 5c 2b c5 3d 2b e9 c3 be
       -0.2918642 -0.6365352 0.09627411 -0.3826383
0002b0 91 0b 23 3d 6b a3 d7 be c1 c1 4d bd 3a 1b ee be
       0.039805952 -0.42116866 -0.050233606 -0.46505147
0002c0 6a a8 25 bf 2e 3f f0 3d 2f 30 0b bf c8 3b 9e bd
       -0.64710104 0.117308006 -0.543704 -0.07726246
0002d0 0d 37 b2 be 4e f5 94 be da df 95 be 15 8e d4 be
       -0.34807625 -0.29093403 -0.29272348 -0.4151465
0002e0 8a 69 dc bd 8b a2 45 3e 7a b7 07 3e 4a 57 54 be
       -0.107623175 0.19300286 0.13253585 -0.20736423
0002f0 36 13 a3 3c dc e9 38 bf a0 c2 f5 3d d0 cb ac 3e
       0.019906621 -0.7223184 0.120000124 0.33749247
000300 ea a1 53 3e e2 c5 b4 be 50 85 34 bc 14 cf 13 be
       0.20667234 -0.35307223 -0.011018112 -0.14434463
000310 ed dd e4 3e dd ae 37 be fa 7f 6a be e8 0b 0d bf
       0.44700566 -0.17937799 -0.22900382 -0.5509629
000320 2d 46 7d be 94 28 f2 be f4 35 a3 bd c8 b7 d2 bb
       -0.24733801 -0.47296584 -0.07969275 -0.0064306
000330 72 cc 69 3e d2 67 85 3e 72 c6 ce 3d b2 46 0a 3e
       0.22831896 0.2605577 0.10096444 0.1350353
000340 73 da a2 bd 41 9d 10 3f 63 94 7f be b8 97 e5 bc
       -0.07951822 0.5648995 -0.24958949 -0.028026447
000350 52 ee ee be 54 0d bb bc 41 fd f4 bd 9a 4b ac 3b
       -0.466662 -0.022833504 -0.11962367 0.005258036
000360 23 a4 d2 3e 4b 62 e3 be 99 11 b6 be 14 57 03 be
       0.4114085 -0.4441093 -0.355603 -0.12826186
000370 d8 66 a7 be 39 c6 0b bd 75 a8 81 3d ed f4 85 3e
       -0.3269565 -0.034124587 0.06330959 0.26163426
000380 a8 8e e3 be a0 f6 a7 3e e3 24 b7 3d a5 cf 88 bd
       -0.44444776 0.32805347 0.089425825 -0.0668023
000390 51 2d 6b bd b7 e7 39 be 9d de 41 be 47 28 d1 be
       -0.057416264 -0.18154798 -0.18932576 -0.40851042
0003a0 c9 e7 64 3e 4d 3b f9 be 65 cb 20 be ef 42 07 3c
       0.22354044 -0.48678055 -0.15702589 0.008255704
0003b0 74 b9 8a 3d b9 9f cc be 56 14 05 3e bc ab 9d be
       0.067736536 -0.3996561 0.12996039 -0.30795085
0003c0 d7 35 20 3e 92 c7 ad 3e e8 34 f7 3e 34 4d b4 3d
       0.15645538 0.33941323 0.48282552 0.08803788
0003d0 7d 27 51 be 34 e1 41 3c 8a e9 ae 3e 6a f4 fe bd
       -0.2042522 0.011833478 0.3416255 -0.12448962
0003e0 d2 2b b0 be 4a 1f 6b be 2f ee 96 3e 4a 2d 85 be
       -0.34408432 -0.22961155 0.29478595 -0.26011115
0003f0 5b 1c a7 3d 9f 7f 24 3e 77 3f 89 3e b2 b2 83 bd
       0.08159705 0.16064309 0.26806232 -0.06430568

fc2.bias f4 [100]
000000 09 5d 4f bf c5 f5 d4 be de 4d 9b be 8a c3 3c 3f
       -0.81001335 -0.41593757 -0.30332845 0.7373587
000010 a5 92 49 bf 14 9a b9 be 92 e9 26 3f e9 18 35 bf
       -0.78739387 -0.36250365 0.6520015 -0.70741135
000020 f2 e9 5c bf b0 bb 57 be 06 49 4e bf 00 44 69 bf
       -0.8629447 -0.21067691 -0.80580175 -0.91119385
000030 e8 7a df 3e e5 51 40 bf 8e de 34 bf b2 7c 6b be
       0.43648458 -0.7512496 -0.7065209 -0.22996786
000040 a3 9b 8e be 41 53 4e 3e 41 c3 35 3f dc 1c 1e bf
       -0.27853116 0.20148946 0.7100106 -0.61762786
000050 75 12 82 3e d3 2d a6 be 0f c3 f4 3e e3 1c 0c 3d
       0.25404707 -0.32456836 0.47805068 0.034207236
000060 13 d5 2a 3f eb 54 38 bf 14 68 3d 3e 21 4c 48 bf
       0.66731375 -0.72004575 0.18496734 -0.78241163
000070 4b cb 48 bf ef 6c 30 bf 55 e5 d0 be d6 db e4 3e
       -0.784352 -0.6891622 -0.40799966 0.44698972
000080 a9 99 56 be de dc 2c 3f f7 db 43 3f 29 91 36 3e
       -0.20957054 0.67524517 0.76507515 0.17828812
000090 42 d3 21 3f 7a 45 53 bf a1 0f 3b bf ea de 19 bf
       0.6321298 -0.8252789 -0.7307072 -0.60105765
0000a0 85 f0 a3 3e 33 f4 1a be df 5b 3e bf 8b 17 46 3d
       0.3201944 -0.15132217 -0.74358934 0.048362296
0000b0 12 04 ba be bb 93 a7 be d2 5e 0a 3f 89 dc 3b 3f
       -0.3633123 -0.32729897 0.54050934 0.73383385
0000c0 0f 50 11 3f 1a 69 46 3f 2d 08 2a 3e d8 46 e5 3d
       0.56762785 0.7750412 0.16604681 0.11195153
0000d0 1e 98 43 bf a0 15 39 bf 78 a2 3c bf 67 1f 4a 3f
       -0.7640399 -0.7229862 -0.7368541 0.78954166
0000e0 ae 56 df 3e f2 8c 61 3e 1f 08 4b 3f 68 99 69 3f
       0.4362082 0.22026423 0.79309267 0.91249704
0000f0 3b 70 49 bf 6d f0 0b bf ec 8a ba be 0c 34 1b bf
       -0.78686875 -0.54663736 -0.36434114 -0.6062629
000100 f1 a6 4a 3f 25 12 c5 3e ce 34 81 3e fe 64 52 3f
       0.7916098 0.38490406 0.252356 0.8218535
000110 07 f7 3b 3f 3e 92 21 3e 9d 49 1e 3f c2 02 cd be
       0.7342381 0.15778443 0.61831075 -0.40041167
000120 a3 a4 40 bf 77 e7 41 bf 4f e3 3e 3f 83 a8 e4 be
       -0.75251216 -0.7574381 0.74565595 -0.44659814
000130 83 c8 12 bf 75 e3 2a 3f bd 82 fd 3c 03 18 2a 3e
       -0.57337207 0.6675332 0.03094613 0.16610722
000140 89 ed 4d 3f dc 99 5c 3f c2 a8 60 3e 18 d2 1a bf
       0.80440575 0.8617227 0.21939376 -0.6047683
000150 03 9e 34 3f a8 3e 54 bf 84 8d 62 3f cc 71 24 3d
       0.70553607 -0.82908106 0.88497186 0.040147588
000160 5e 7b 72 bf e8 a1 dd 3e ca a8 74 bf 27 03 48 3f
       -0.94719493 0.43287587 -0.9557005 0.7812981
000170 52 00 39 bf 89 21 4f 3f 57 0e 5b 3f 06 dc 57 3f
       -0.72266114 0.80910546 0.85568756 0.84320104
000180 91 7b 5c bf bd d2 2f 3e 34 07 04 be f3 4b 36 3e
       -0.8612605 0.17170234 -0.12893373 0.1780241

fc3.weight f4 [2, 100]
000000 13 9a 2d c0 c8 9b 3b c0 35 59 31 c0 0a 52 33 40
       -2.712529 -2.9313831 -2.7710698 2.8018823
000010 45 5b 31 c0 8f 5b 8f c0 af ad 32 40 9b 01 2a c0
       -2.7711957 -4.4799266 2.7918508 -2.656348
000020 3a 3a 2b c0 11 7b a6 40 00 8e 31 c0 64 27 2c c0
       -2.6754289 5.2025228 -2.774292 -2.6899042
000030 91 0d 3a 40 cf 75 31 c0 80 ac 33 c0 1a 7f 91 c0
       2.907078 -2.7728155 -2.8074036 -4.5467653
000040 ac 76 a0 c0 3c 15 53 40 32 72 2e 40 8e ba 34 c0
       -5.0144863 3.298171 2.72572 -2.8238864
000050 36 de 9f 40 4a 48 5d c0 fc c6 57 40 6e c0 36 40
       4.9958754 -3.4575372 3.37152 2.855495
000060 50 8a 28 40 80 02 2e c0 66 8f 45 40 de c4 2d c0
       2.633442 -2.7189026 3.0868773 -2.7151408
000070 90 6c 2d c0 e3 c0 27 c0 29 b3 2f c0 56 92 37 40
       -2.7097511 -2.6211479 -2.74531 2.8683066
000080 20 55 98 c0 26 b2 2c 40 c2 95 2c 40 c1 e5 b2 c0
       -4.760391 2.6983733 2.6966405 -5.590546
000090 ca c3 35 40 7b 2c 2f c0 21 ec 29 c0 65 77 2e c0
       2.840075 -2.7370899 -2.6550372 -2.7260373
0000a0 a3 5d 54 40 8f 2f 9e 40 bd db 28 c0 70 df 3c be
       3.3182151 4.9433055 -2.6384118 -0.1844461
0000b0 68 c0 64 c0 b4 18 93 c0 e7 d4 3a 40 84 95 29 40
       -3.5742435 -4.5967655 2.9192445 2.6497507
0000c0 bc 86 43 40 40 23 32 40 0f fe 35 40 3f 2c 34 40
       3.0550985 2.7834015 2.8436315 2.8152006
0000d0 3d 90 29 c0 3b 1f 30 c0 54 42 2b c0 3d 36 29 40
       -2.6494286 -2.7519062 -2.6759233 2.6439354
0000e0 66 86 3b 40 f8 31 3f 40 95 7f 2f 40 9b d4 2a 40
       2.930078 2.9874249 2.742162 2.6692264
0000f0 31 31 2b c0 6c 95 2c c0 ce 84 29 c0 62 32 2d c0
       -2.6748774 -2.69662 -2.6487308 -2.7062001
000100 9a f9 28 40 31 2a 92 40 b4 75 90 40 5d b6 2d 40
       2.6402345 4.5676503 4.514368 2.7142556
000110 49 63 28 40 24 dd 3b 40 db 17 44 40 33 35 42 c0
       2.63106 2.9353724 3.063956 -3.034497
000120 63 be 31 c0 b4 f0 2a c0 98 43 2d 40 26 ba 31 c0
       -2.7772453 -2.6709414 2.7072506 -2.7769866
000130 b7 49 3a c0 31 bf 2e 40 fb 9e 44 40 ce 70 81 c0
       -2.9107492 2.7304194 3.0722034 -4.04502
000140 4e ff 2f 40 4f 0a 30 40 78 18 87 c0 d1 9e 2c c0
       2.7499576 2.7506292 -4.221737 -2.6971934
000150 db 3b 34 40 fa 7c 28 c0 5d 8d 2b 40 f3 06 3a 40
       2.8161533 -2.632628 2.6805031 2.9066741
000160 02 b8 2d c0 15 fc 51 40 67 99 28 c0 d5 6c 2c 40
       -2.714356 3.2810109 -2.634363 2.6941426
000170 2c 63 2c c0 b6 22 2c 40 d1 8a 2d 40 56 ee 2d 40
       -2.693553 2.6896186 2.7115977 2.7176719
000180 f5 72 2d c0 e8 49 37 40 2a 40 9c 40 cd 33 98 c0
       -2.7101414 2.8638859 4.8828325 -4.7563233
000190 ee c7 27 3f ec 7e 08 3f 2e 4e 29 3f ef 51 1b bf
       0.65539443 0.5331867 0.6613492 -0.60671896
0001a0 d9 6f 24 3f e1 95 8b 3f 95 ef 1f bf 6d 02 2b 3f
       0.64233166 1.0905114 -0.6247495 0.66800576
0001b0 3e 65 2b 3f ed 42 88 bf 6d 2b 20 3f 05 28 2b 3f
       0.6695136 -1.0645424 0.6256626 0.6685794
0001c0 16 5a 68 3f dc 34 22 3f a1 b6 1e 3f 69 2e 8c 3f
       0.9076246 0.63361907 0.6199742 1.0951663
0001d0 c4 21 8a 3f 9f fc 4b bf 80 bf 27 bf d2 1b 19 3f
       1.0791554 -0.79682344 -0.6552658 0.59808075
0001e0 51 04 8a bf 46 2b 3a 3f 19 12 78 3f f6 62 1d bf
       -1.0782567 0.7272228 0.96902615 -0.6147913
0001f0 bd de 2c bf c2 19 2b 3f 6a 0a 43 bf e7 42 29 3f
       -0.6752737 0.6683618 -0.76187766 0.6611771
000200 15 f2 2a 3f 24 cd 2b 3f 62 44 18 3f 3e ae 4d 3f
       0.6677564 0.67109895 0.59479344 0.80344
000210 c1 97 8f 3f 61 26 2b bf a6 39 2b bf 6b 6a 90 3f
       1.1218187 -0.66855437 -0.6688484 1.1282476
000220 a1 75 1c bf 2d 7f 23 3f d1 23 2b 3f 49 88 2b 3f
       -0.6111699 0.6386593 0.66851526 0.6700483
000230 9f bc 46 bf 43 11 57 bf fb 75 29 3f cf e3 12 40
       -0.7763156 -0.84010714 0.6619565 2.2951543
000240 4d 78 7f 3e 9b 71 83 3f f8 cd 6b 3f 04 ec 2d bf
       0.24948235 1.0269045 0.9211116 -0.67938256
000250 f2 52 6a 3f cf 43 21 bf 8b b0 39 bf ec e7 4b bf
       0.91532815 -0.6299409 -0.7253501 -0.7965076
000260 31 ff 2c 3f d3 ea 1e 3f 10 41 2c 3f fc 7d 2a bf
       0.6757689 0.62077063 0.6728678 -0.66598487
000270 af ca 1e bf 30 31 4b 3f bb bf 26 bf d9 dd 2c bf
       -0.6202802 0.7937193 -0.6513631 -0.6752601
000280 7d 32 2b 3f c3 3d 2c 3f 8f 88 6c 3f 61 6e 28 3f
       0.66873914 0.6728174 0.9239587 0.65793425
000290 3f d7 2a bf af 94 86 bf 5f 64 8d bf 58 3c 28 bf
       -0.6673469 -1.0514125 -1.1046256 -0.6571708
0002a0 ca 0e 2c bf 4f 3f 24 bf 0e b1 6a 3f 19 d9 6d bf
       -0.67210066 -0.641591 0.91676414 -0.9290939
0002b0 53 68 1f 3f 44 0f 2f 3f f6 7c 28 bf f5 93 17 3f
       0.6226856 0.6838267 -0.65815675 0.5921014
0002c0 82 58 6c bf 53 64 2b bf 48 f2 bb be 73 9d 49 3f
       -0.9232255 -0.6694996 -0.36708283 0.78755873
0002d0 e6 a1 27 bf e0 3c 26 bf 5b ad 4b 3f 0e d2 12 3f
       -0.6548141 -0.6493664 0.79561394 0.5735177
0002e0 4b 34 1c bf d0 55 2a 3f fe 7d 2b bf ab 67 23 bf
       -0.6101729 0.6653719 -0.66989124 -0.6383006
0002f0 5d 39 27 3f fc 3c 54 bf 20 b8 2b 3f ac 1c 2b bf
       0.65321904 -0.82905555 0.6707783 -0.66840625
000300 d4 f5 2c 3f 57 e6 26 bf 25 71 2b bf af 0b 2a bf
       0.67562604 -0.6519522 -0.6696952 -0.6642408
000310 12 48 27 3f 52 d6 32 bf bd c1 4f bf e0 4d 80 bf
       0.65344346 -0.69858277 -0.81154996 -1.0023766

fc3.bias f4 [2]
000000 3b 4e 2a 40 80 46 13 bf
       2.6610248 -0.5752945

fc1.weight f4 [100, 22]
000000 dd e1 33 a9 f5 2a a3 29 c9 0d 25 29 35 4c 99 29
       -3.994189e-14 7.246106e-14 3.6649317e-14 6.807785e-14
000010 8b 52 58 29 d4 04 31 28 17 f2 2f 28 a8 ed 3b 28
       4.803323e-14 9.826521e-15 9.766946e-15 1.0432119e-14
000020 51 da 31 28 bb 9c 00 80 09 6d 02 00 1f 1b 08 00
       9.872814e-15 -5.6224e-41 2.22785e-40 7.44413e-40
000030 f1 47 04 00 5f 36 0c 80 34 0d 09 00 7a ba 12 80
       3.9315e-40 -1.12153e-39 8.31256e-40 -1.719934e-39
000040 2b 2d 08 00 0c 35 05 80 5d b2 09 80 ec d6 16 80
       7.50887e-40 -4.78207e-40 -8.90504e-40 -2.09748e-39
000050 8d 1b 0a 80 20 08 b6 00 34 92 02 00 c0 18 14 00
       -9.28238e-40 1.6716975e-38 2.36119e-40 1.845589e-39
000060 67 ca 00 00 b2 e5 00 80 b8 d3 0e 80 2c db 0b 00
       7.2608e-41 -8.2399e-41 -1.361647e-39 1.088815e-39
000070 e4 f9 0d 00 e9 af 04 00 a9 ff 0a 00 58 8e 01 00
       1.283505e-39 4.30447e-40 1.010069e-39 1.42899e-40
000080 2e 89 0e 80 9e 8a 11 00 f2 42 12 00 e2 43 02 00
       -1.334908e-39 1.61093e-39 1.677054e-39 2.08023e-40
000090 75 72 0a 80 86 a3 0d 00 54 ed 0b 80 14 42 10 80
       -9.59414e-40 1.252523e-39 -1.095328e-39 -1.493072e-39
0000a0 11 48 0b 80 dc 98 10 80 a4 30 13 80 0f 55 0c 80
       -1.036043e-39 -1.524204e-39 -1.762323e-39 -1.132539e-39
0000b0 ec cf 8c 3d a0 62 d2 bb cd 9d c5 bb dd 89 3e bc
       0.068755955 -0.0064204484 -0.006030774 -0.011629549
0000c0 8b b2 02 bc 07 e0 d1 bc 02 20 ca bc 42 59 80 bc
       -0.007977138 -0.02561952 -0.024673466 -0.015667561
0000d0 d4 05 9b bc 8e 48 13 00 ac 53 00 80 b0 8b 11 00
       -0.018923678 1.770902e-39 -3.0016e-41 1.611314e-39
0000e0 da 70 0a 80 81 a0 07 80 a0 24 01 80 89 b5 06 80
       -9.58838e-40 -7.00426e-40 -1.04974e-40 -6.16136e-40
0000f0 ee 23 01 80 98 45 0e 00 7e b8 00 80 bd 0d 0c 00
       -1.04725e-40 1.310662e-39 -6.6183e-41 1.106954e-39
000100 2c 11 14 00 2b 38 08 00 00 fb 8c bd f6 9a d2 3b
       1.84287e-39 7.54833e-40 -0.06883812 0.006427164
000110 85 d5 c5 3b e8 ba 3e 3c 7a d4 02 3c 27 1e d2 3c
       0.0060374164 0.011641242 0.007985229 0.025649143
000120 bf 5b ca 3c cb 7e 80 3c 5c 33 9b 3c 41 86 05 80
       0.024701951 0.01568546 0.018945388 -5.07339e-40
000130 f2 c1 09 00 3d 41 0e 00 c9 1a 15 80 c8 55 05 00
       8.96094e-40 1.3091e-39 -1.938154e-39 4.8995e-40
000140 79 4d 0c 80 89 ec 07 00 1f d1 0e 00 9b b5 04 00
       -1.129818e-39 7.27701e-40 1.360715e-39 4.3249e-40
000150 3c 34 15 00 4e 87 08 00 54 88 02 80 97 73 07 80
       1.947284e-39 7.83222e-40 -2.32576e-40 -6.84314e-40
000160 c6 90 8c 3d f8 0f d2 bb 11 4c c5 bb ef 41 3e bc
       0.06863551 -0.006410595 -0.0060210307 -0.0116123995
000170 b5 80 02 bc f7 84 d1 bc 70 c8 c9 bc 47 22 80 bc
       -0.007965256 -0.025576098 -0.024631709 -0.015641345
000180 1c c3 9a bc 63 3b 05 80 f8 7f 0f 00 2d 3a 05 80
       -0.018891864 -4.80481e-40 1.423439e-39 -4.80047e-40
000190 d0 5e 17 00 32 11 01 00 d6 cc 03 00 8b 25 18 80
       2.146229e-39 9.8004e-41 3.48988e-40 -2.21752e-39
0001a0 65 37 16 00 f7 54 05 80 6b 3d 09 80 53 39 16 00
       2.040253e-39 -4.89657e-40 -8.48552e-40 2.040945e-39
0001b0 05 03 0f 00 b2 3c 10 80 80 cc 8c 3d 26 5e d2 bb
       1.378616e-39 -1.491141e-39 0.06874943 -0.006419915
0001c0 55 99 c5 bb fe 85 3e bc da af 02 bc 09 db d1 bc
       -0.0060302415 -0.011628626 -0.007976497 -0.02561714
0001d0 41 1b ca bc 46 56 80 bc 2f 02 9b bc 06 3f 0a 80
       -0.024671199 -0.015666138 -0.01892194 -9.40964e-40
0001e0 79 b7 09 80 ca e2 05 80 18 e6 15 00 7b 69 01 00
       -8.92337e-40 -5.40534e-40 2.011088e-39 1.29675e-40
0001f0 b3 77 12 80 c2 8a 09 00 ec 72 13 00 47 26 19 80
       -1.695979e-39 8.76296e-40 1.7861e-39 -2.309619e-39
000200 46 82 02 00 c2 62 16 80 e2 92 13 00 2e 94 14 80
       2.30404e-40 -2.055809e-39 1.797566e-39 -1.889867e-39
000210 c1 13 32 97 67 95 44 17 b4 9e e0 97 28 38 f6 95
       -5.7539835e-25 6.351959e-25 -1.4515723e-24 -9.944721e-26
000220 5a 52 8b 16 e2 c1 a8 17 f8 4e a9 17 4a fb 60 17
       2.2508632e-25 1.0905688e-24 1.0941304e-24 7.2695475e-25
000230 8c 57 8a 17 2d e8 13 80 14 6d 09 00 82 0d 05 00
       8.940141e-25 -1.828163e-39 8.6565e-40 4.64023e-40
000240 5c ae 10 00 4a b1 00 80 b1 06 03 00 a8 d0 03 80
       1.531916e-39 -6.36e-41 2.77907e-40 -3.50358e-40
000250 6b 3b 04 80 bb 68 0a 00 36 25 0b 80 50 6d 08 00
       -3.88657e-40 9.55925e-40 -1.023539e-39 7.73898e-40
000260 57 91 08 80 d4 3a e9 02 44 85 dc 9c 0f 30 16 1e
       -7.86822e-40 3.4270039e-37 -1.4592827e-21 7.950872e-21
000270 6a 95 a1 9e 4f b6 8b 9d 86 f3 69 1c 00 02 ee 1d
       -1.7108334e-20 -3.6981496e-21 7.740798e-22 6.3000143e-21
000280 f3 36 e3 1d 3a eb 90 1d aa d2 91 1d 08 de 14 00
       6.0143216e-21 3.83597e-21 3.8599e-21 1.91636e-39
000290 33 44 10 00 47 37 11 00 7f c7 0e 80 8c 8e 12 00
       1.493833e-39 1.581033e-39 -1.357263e-39 1.704175e-39
0002a0 d6 de 08 80 40 0e 06 00 c9 bb 00 80 fa 29 06 00
       -8.14622e-40 5.56125e-40 -6.7365e-41 5.66071e-40
0002b0 e5 51 12 00 08 22 01 00 20 d6 07 80 b1 77 0b 00
       1.682417e-39 1.04044e-40 -7.19662e-40 1.053128e-39
0002c0 e3 cf 8c bd 97 62 d2 3b c1 9d c5 3b d3 89 3e 3c
       -0.06875589 0.006420444 0.0060307686 0.01162954
0002d0 85 b2 02 3c fe df d1 3c f6 1f ca 3c 3b 59 80 3c
       0.007977133 0.025619503 0.024673443 0.015667548
0002e0 ca 05 9b 3c c6 f4 01 00 82 67 0b 80 19 43 0e 80
       0.018923659 1.79644e-40 -1.047322e-39 -1.309767e-39
0002f0 fa a4 0e 80 fd bf 13 80 81 51 15 00 7d a7 0b 80
       -1.34488e-39 -1.813747e-39 1.957784e-39 -1.070274e-39
000300 34 12 0f 00 43 ba 0f 80 8a e0 14 80 1a ab 14 80
       1.384062e-39 -1.44435e-39 -1.91726e-39 -1.89809e-39
000310 32 1a 0b 80 ff 50 0d 80 00 fb 8c bd f4 9a d2 3b
       -1.019588e-39 -1.222917e-39 -0.06883812 0.0064271633
000320 85 d5 c5 3b e8 ba 3e 3c 7a d4 02 3c 27 1e d2 3c
       0.0060374164 0.011641242 0.007985229 0.025649143
000330 bf 5b ca 3c cb 7e 80 3c 5c 33 9b 3c 24 eb 00 80
       0.024701951 0.01568546 0.018945388 -8.4353e-41
000340 06 b0 15 80 ae 2c 05 80 a2 14 0e 80 5a b0 15 80
       -1.991691e-39 -4.75206e-40 -1.293099e-39 -1.991808e-39
000350 e3 f2 06 00 9f 07 05 00 ea f9 0e 00 1e 67 07 80
       6.38144e-40 4.61911e-40 1.375349e-39 -6.7984e-40
000360 74 2e 01 80 0c f4 09 00 9f 8e 0b 00 54 dd 0a 80
       -1.085e-40 9.14067e-40 1.061353e-39 -9.97753e-40
000370 00 fb 8c 3d f4 9a d2 bb 85 d5 c5 bb e8 ba 3e bc
       0.06883812 -0.0064271633 -0.0060374164 -0.011641242
000380 7a d4 02 bc 27 1e d2 bc bf 5b ca bc cb 7e 80 bc
       -0.007985229 -0.025649143 -0.024701951 -0.01568546
000390 5c 33 9b bc d1 b1 06 00 17 4c 09 00 e1 33 05 80
       -0.018945388 6.14801e-40 8.53815e-40 -4.77788e-40
0003a0 a1 2b 02 80 c3 b0 05 00 27 45 16 00 4b 27 05 80
       -1.99322e-40 5.22588e-40 2.045188e-39 -4.73273e-40
0003b0 dc a2 0a 00 46 44 11 00 5b b4 17 80 a7 91 15 00
       9.76778e-40 1.585695e-39 -2.176916e-39 1.980796e-39
0003c0 98 5f 00 80 98 8c 03 00 00 fb 8c 3d f4 9a d2 bb
       -3.4293e-41 3.25942e-40 0.06883812 -0.0064271633
0003d0 85 d5 c5 bb e8 ba 3e bc 7a d4 02 bc 27 1e d2 bc
       -0.0060374164 -0.011641242 -0.007985229 -0.025649143
0003e0 bf 5b ca bc cb 7e 80 bc 5c 33 9b bc e0 51 02 80
       -0.024701951 -0.01568546 -0.018945388 -2.13042e-40
0003f0 37 ee 0c 80 18 53 01 00 03 a4 0a 00 2c d1 06 00
       -1.187481e-39 1.21644e-40 9.77191e-40 6.2605e-40

fc1.bias f4 [100]
000000 b1 42 d3 a8 8a 10 08 80 d7 fe 91 3d a9 2c 92 bd
       -2.3454629e-14 -7.40617e-40 0.07128685 -0.071374245
000010 c5 bb 91 3d 2c fb 91 3d 8f db ec 96 e4 fc cc 9d
       0.07115892 0.07127985 -3.8266417e-25 -5.4259833e-21
000020 cd fe 91 bd a9 2c 92 bd a9 2c 92 3d a9 2c 92 3d
       -0.071286775 -0.071374245 0.071374245 0.071374245
000030 c0 e1 d1 a9 a5 2c 92 3d a9 2c 92 bd a5 2c 92 3d
       -9.320626e-14 0.071374215 -0.071374245 0.071374215
000040 a9 2c 92 bd a9 2c 92 bd 0b 3d 2e 9b a9 2c 92 bd
       -0.071374245 -0.071374245 -1.4412667e-22 -0.071374245
000050 d9 3a 78 9e 06 fe 91 3d a5 2c 92 bd 49 ea 08 38
       -1.314118e-20 0.07128529 -0.071374215 3.264312e-05
000060 2a f0 45 a6 0e ed 91 bd a9 2c 92 bd a9 2c 92 bd
       -6.867359e-16 -0.07125293 -0.071374245 -0.071374245
000070 57 fd 91 3d a9 2c 92 3d 38 15 01 00 86 f8 91 bd
       0.07128399 0.071374245 9.9447e-41 -0.0712748
000080 bf f4 cf a6 a9 2c 92 3d a5 2c 92 bd 2c df 91 bd
       -1.4429849e-15 0.071374245 -0.071374215 -0.07122645
000090 0c d6 0d a2 cf d6 91 3d be d1 33 13 1f f3 e2 2a
       -1.9222379e-18 0.071210496 2.2696387e-27 4.0314364e-13
0000a0 2c be cd af a5 f1 91 3d c6 eb 91 bd ef fb 91 3d
       -3.7424408e-10 0.07126168 -0.07125048 0.07128131
0000b0 5f d9 91 3d d8 5c e9 9f a9 2c 92 3d a9 2c 92 bd
       0.07121538 -9.8832935e-20 0.071374245 -0.071374245
0000c0 1e 00 f0 28 a5 2c 92 bd a9 2c 92 bd a5 2c 92 bd
       2.6645403e-14 -0.071374215 -0.071374245 -0.071374215
0000d0 a9 2c 92 3d 63 fa 91 bd a5 2c 92 bd a5 2c 92 bd
       0.071374245 -0.071278356 -0.071374215 -0.071374215
0000e0 2c fb 91 3d a9 2c 92 3d a9 2c 92 3d 53 6d 91 bd
       0.07127985 0.071374245 0.071374245 -0.0710093
0000f0 a9 2c 92 3d 4c ef 91 3d a9 2c 92 3d f0 a4 b5 aa
       0.071374245 0.071257204 0.071374245 -3.2266507e-13
000100 a5 2c 92 3d 74 37 c2 1c a9 2c 92 3d a5 2c 92 bd
       0.071374215 1.2852177e-21 0.071374245 -0.071374215
000110 a5 2c 92 3d a9 2c 92 3d a1 d5 37 ab a5 2c 92 3d
       0.071374215 0.071374245 -6.531113e-13 0.071374215
000120 a9 2c 92 3d a9 2c 92 bd a5 2c 92 bd a5 2c 92 3d
       0.071374245 -0.071374245 -0.071374215 0.071374215
000130 a9 2c 92 3d a9 2c 92 bd 7c 1a 04 00 a5 2c 92 3d
       0.071374245 -0.071374245 3.76843e-40 0.071374215
000140 d7 eb 91 bd 6d eb 91 3d af e8 91 3d a9 2c 92 3d
       -0.07125061 0.07124982 0.07124459 0.071374245
000150 a9 2c 92 bd a9 2c 92 3d 61 49 89 20 a9 2c 92 3d
       -0.071374245 0.071374245 2.325726e-19 0.071374245
000160 a9 2c 92 3d 3f e0 91 3d 35 7f 42 34 df fc 91 3d
       0.071374245 0.0712285 1.8113936e-07 0.071283095
000170 6f cc 91 bd a9 2c 92 3d a5 2c 92 bd a5 2c 92 3d
       -0.07119071 0.071374245 -0.071374215 0.071374215
000180 80 be 2d 3a 6b 4a 77 14 e7 2d ae 95 ab 2c 92 bd
       0.0006627813 1.24849895e-26 -7.035046e-26 -0.07137426

fc2.weight f4 [100, 100]
000000 c0 ce 19 a9 15 79 00 00 29 a4 3b bc 41 dd 3b 3c
       -3.415215e-14 4.3436e-41 -0.011452713 0.011466325
000010 7e 50 3b bc 99 9f 3b bc 05 00 49 97 bb 05 a7 9d
       -0.011432765 -0.011451625 -6.4946627e-25 -4.4210457e-21
000020 1d a4 3b 3c 41 dd 3b 3c 41 dd 3b bc 41 dd 3b bc
       0.011452702 0.011466325 -0.011466325 -0.011466325
000030 61 e4 2e ab 3e dd 3b bc 41 dd 3b 3c 3e dd 3b bc
       -6.213416e-13 -0.0114663225 0.011466325 -0.0114663225
000040 41 dd 3b 3c 41 dd 3b 3c 99 98 99 9a 41 dd 3b 3c
       0.011466325 0.011466325 -6.352585e-23 0.011466325
000050 d2 3b 0e 9f 23 a3 3b bc 3e dd 3b 3c 48 29 e2 37
       -3.0119152e-20 -0.011452469 0.0114663225 2.6960523e-05
000060 b3 20 f2 a6 f4 8d 3b 3c 43 dd 3b 3c 41 dd 3b 3c
       -1.6800986e-15 0.0114474185 0.011466327 0.011466325
000070 45 a2 3b bc 41 dd 3b bc 67 47 00 80 44 9c 3b 3c
       -0.011452262 -0.011466325 -2.5614e-41 0.011450831
000080 c3 33 c3 a6 41 dd 3b bc 3e dd 3b 3c a7 7c 3b 3c
       -1.3544873e-15 -0.011466325 0.0114663225 0.011443294
000090 60 f0 4b a2 3e 72 3b bc 17 e2 04 13 5a 92 11 2b
       -2.7638884e-18 -0.011440812 1.6772213e-27 5.171745e-13
0000a0 c2 88 8a b0 ae 93 3b bc 54 8c 3b 3c 89 a0 3b bc
       -1.007969e-09 -0.011448784 0.011447031 -0.011451849
0000b0 74 75 3b bc c0 7a ce 9f 41 dd 3b bc 41 dd 3b 3c
       -0.011441577 -8.7447466e-20 -0.011466325 0.011466325
0000c0 b8 7a 23 28 3e dd 3b 3c 41 dd 3b 3c 3e dd 3b 3c
       9.074928e-15 0.0114663225 0.011466325 0.0114663225
0000d0 41 dd 3b bc a1 9e 3b 3c 3e dd 3b 3c 3e dd 3b 3c
       -0.011466325 0.011451394 0.0114663225 0.0114663225
0000e0 98 9f 3b bc 41 dd 3b bc 41 dd 3b bc b4 ee 3a 3c
       -0.011451624 -0.011466325 -0.011466325 0.01140945
0000f0 41 dd 3b bc c5 90 3b bc 41 dd 3b bc 20 82 28 ab
       -0.011466325 -0.01144809 -0.011466325 -5.9866175e-13
000100 3e dd 3b bc 7d 8b 79 1c 41 dd 3b bc 3e dd 3b 3c
       -0.0114663225 8.2567473e-22 -0.011466325 0.0114663225
000110 3e dd 3b bc 41 dd 3b bc ce b5 a5 2a 3e dd 3b bc
       -0.0114663225 -0.011466325 2.943604e-13 -0.0114663225
000120 41 dd 3b bc 41 dd 3b 3c 3e dd 3b 3c 3e dd 3b bc
       -0.011466325 0.011466325 0.0114663225 -0.0114663225
000130 41 dd 3b bc 41 dd 3b 3c 62 42 01 80 3e dd 3b bc
       -0.011466325 0.011466325 -1.15649e-40 -0.0114663225
000140 6b 8c 3b 3c e3 8b 3b bc 7a 88 3b bc 41 dd 3b bc
       0.0114470525 -0.011446926 -0.011446113 -0.011466325
000150 41 dd 3b 3c 41 dd 3b bc bf d9 10 9f 41 dd 3b bc
       0.011466325 -0.011466325 -3.06733e-20 -0.011466325
000160 41 dd 3b bc f9 7d 3b bc b7 0a ca 34 b3 a1 3b bc
       -0.011466325 -0.011443608 3.7633228e-07 -0.011452126
000170 47 65 3b 3c 41 dd 3b bc 3e dd 3b 3c 3e dd 3b bc
       0.011437721 -0.011466325 0.0114663225 -0.0114663225
000180 60 17 da 39 5b 5e d0 14 12 5d 6f 95 45 dd 3b 3c
       0.00041597616 2.103985e-26 -4.8339085e-26 0.011466329
000190 c0 ce 19 a9 15 79 00 00 29 a4 3b bc 41 dd 3b 3c
       -3.415215e-14 4.3436e-41 -0.011452713 0.011466325
0001a0 7e 50 3b bc 99 9f 3b bc 05 00 49 97 bb 05 a7 9d
       -0.011432765 -0.011451625 -6.4946627e-25 -4.4210457e-21
0001b0 1d a4 3b 3c 41 dd 3b 3c 41 dd 3b bc 41 dd 3b bc
       0.011452702 0.011466325 -0.011466325 -0.011466325
0001c0 61 e4 2e ab 3e dd 3b bc 41 dd 3b 3c 3e dd 3b bc
       -6.213416e-13 -0.0114663225 0.011466325 -0.0114663225
0001d0 41 dd 3b 3c 41 dd 3b 3c 99 98 99 9a 41 dd 3b 3c
       0.011466325 0.011466325 -6.352585e-23 0.011466325
0001e0 d2 3b 0e 9f 23 a3 3b bc 3e dd 3b 3c 48 29 e2 37
       -3.0119152e-20 -0.011452469 0.0114663225 2.6960523e-05
0001f0 b3 20 f2 a6 f4 8d 3b 3c 43 dd 3b 3c 41 dd 3b 3c
       -1.6800986e-15 0.0114474185 0.011466327 0.011466325
000200 45 a2 3b bc 41 dd 3b bc 6e 6e 04 80 44 9c 3b 3c
       -0.011452262 -0.011466325 -4.06957e-40 0.011450831
000210 c3 33 c3 a6 41 dd 3b bc 3e dd 3b 3c a7 7c 3b 3c
       -1.3544873e-15 -0.011466325 0.0114663225 0.011443294
000220 60 f0 4b a2 3e 72 3b bc 17 e2 04 13 5a 92 11 2b
       -2.7638884e-18 -0.011440812 1.6772213e-27 5.171745e-13
000230 c2 88 8a b0 ae 93 3b bc 54 8c 3b 3c 89 a0 3b bc
       -1.007969e-09 -0.011448784 0.011447031 -0.011451849
000240 74 75 3b bc c0 7a ce 9f 41 dd 3b bc 41 dd 3b 3c
       -0.011441577 -8.7447466e-20 -0.011466325 0.011466325
000250 b8 7a 23 28 3e dd 3b 3c 41 dd 3b 3c 3e dd 3b 3c
       9.074928e-15 0.0114663225 0.011466325 0.0114663225
000260 41 dd 3b bc a1 9e 3b 3c 3e dd 3b 3c 3e dd 3b 3c
       -0.011466325 0.011451394 0.0114663225 0.0114663225
000270 98 9f 3b bc 41 dd 3b bc 41 dd 3b bc b4 ee 3a 3c
       -0.011451624 -0.011466325 -0.011466325 0.01140945
000280 41 dd 3b bc c5 90 3b bc 41 dd 3b bc 20 82 28 ab
       -0.011466325 -0.01144809 -0.011466325 -5.9866175e-13
000290 3e dd 3b bc 7d 8b 79 1c 41 dd 3b bc 3e dd 3b 3c
       -0.0114663225 8.2567473e-22 -0.011466325 0.0114663225
0002a0 3e dd 3b bc 41 dd 3b bc ce b5 a5 2a 3e dd 3b bc
       -0.0114663225 -0.011466325 2.943604e-13 -0.0114663225
0002b0 41 dd 3b bc 41 dd 3b 3c 3e dd 3b 3c 3e dd 3b bc
       -0.011466325 0.011466325 0.0114663225 -0.0114663225
0002c0 41 dd 3b bc 41 dd 3b 3c 62 42 01 80 3e dd 3b bc
       -0.011466325 0.011466325 -1.15649e-40 -0.0114663225
0002d0 6b 8c 3b 3c e3 8b 3b bc 7a 88 3b bc 41 dd 3b bc
       0.0114470525 -0.011446926 -0.011446113 -0.011466325
0002e0 41 dd 3b 3c 41 dd 3b bc bf d9 10 9f 41 dd 3b bc
       0.011466325 -0.011466325 -3.06733e-20 -0.011466325
0002f0 41 dd 3b bc f9 7d 3b bc b7 0a ca 34 b3 a1 3b bc
       -0.011466325 -0.011443608 3.7633228e-07 -0.011452126
000300 47 65 3b 3c 41 dd 3b bc 3e dd 3b 3c 3e dd 3b bc
       0.011437721 -0.011466325 0.0114663225 -0.0114663225
000310 60 17 da 39 5b 5e d0 14 12 5d 6f 95 45 dd 3b 3c
       0.00041597616 2.103985e-26 -4.8339085e-26 0.011466329
000320 c0 ce 19 a9 15 79 00 00 29 a4 3b bc 41 dd 3b 3c
       -3.415215e-14 4.3436e-41 -0.011452713 0.011466325
000330 7e 50 3b bc 99 9f 3b bc 05 00 49 97 bb 05 a7 9d
       -0.011432765 -0.011451625 -6.4946627e-25 -4.4210457e-21
000340 1d a4 3b 3c 41 dd 3b 3c 41 dd 3b bc 41 dd 3b bc
       0.011452702 0.011466325 -0.011466325 -0.011466325
000350 61 e4 2e ab 3e dd 3b bc 41 dd 3b 3c 3e dd 3b bc
       -6.213416e-13 -0.0114663225 0.011466325 -0.0114663225
000360 41 dd 3b 3c 41 dd 3b 3c 99 98 99 9a 41 dd 3b 3c
       0.011466325 0.011466325 -6.352585e-23 0.011466325
000370 d2 3b 0e 9f 23 a3 3b bc 3e dd 3b 3c 48 29 e2 37
       -3.0119152e-20 -0.011452469 0.0114663225 2.6960523e-05
000380 b3 20 f2 a6 f4 8d 3b 3c 43 dd 3b 3c 41 dd 3b 3c
       -1.6800986e-15 0.0114474185 0.011466327 0.011466325
000390 45 a2 3b bc 41 dd 3b bc 22 1f 08 00 44 9c 3b 3c
       -0.011452262 -0.011466325 7.45852e-40 0.011450831
0003a0 c3 33 c3 a6 41 dd 3b bc 3e dd 3b 3c a7 7c 3b 3c
       -1.3544873e-15 -0.011466325 0.0114663225 0.011443294
0003b0 60 f0 4b a2 3e 72 3b bc 17 e2 04 13 5a 92 11 2b
       -2.7638884e-18 -0.011440812 1.6772213e-27 5.171745e-13
0003c0 c2 88 8a b0 ae 93 3b bc 54 8c 3b 3c 89 a0 3b bc
       -1.007969e-09 -0.011448784 0.011447031 -0.011451849
0003d0 74 75 3b bc c0 7a ce 9f 41 dd 3b bc 41 dd 3b 3c
       -0.011441577 -8.7447466e-20 -0.011466325 0.011466325
0003e0 b8 7a 23 28 3e dd 3b 3c 41 dd 3b 3c 3e dd 3b 3c
       9.074928e-15 0.0114663225 0.011466325 0.0114663225
0003f0 41 dd 3b bc a1 9e 3b 3c 3e dd 3b 3c 3e dd 3b 3c
       -0.011466325 0.011451394 0.0114663225 0.0114663225

fc2.bias f4 [100]
000000 5b 56 8d bd 5b 56 8d bd 5b 56 8d bd 5b 56 8d 3d
       -0.069012366 -0.069012366 -0.069012366 0.069012366
000010 5b 56 8d 3d 5b 56 8d bd 5b 56 8d 3d 5b 56 8d 3d
       0.069012366 -0.069012366 0.069012366 0.069012366
000020 5b 56 8d bd 5b 56 8d bd 5b 56 8d bd 5b 56 8d 3d
       -0.069012366 -0.069012366 -0.069012366 0.069012366
000030 5b 56 8d 3d 5b 56 8d 3d 5b 56 8d bd 5b 56 8d bd
       0.069012366 0.069012366 -0.069012366 -0.069012366
000040 5b 56 8d bd 5b 56 8d bd 5b 56 8d 3d 5b 56 8d 3d
       -0.069012366 -0.069012366 0.069012366 0.069012366
000050 5b 56 8d bd 43 4c ac 8c 5b 56 8d bd 5b 56 8d bd
       -0.069012366 -2.6546694e-31 -0.069012366 -0.069012366
000060 5b 56 8d 3d 88 93 86 b2 5b 56 8d 3d 5b 56 8d bd
       0.069012366 -1.5666743e-08 0.069012366 -0.069012366
000070 5b 56 8d 3d 5b 56 8d bd 5b 56 8d bd 5b 56 8d 3d
       0.069012366 -0.069012366 -0.069012366 0.069012366
000080 5b 56 8d 3d 5b 56 8d bd 5b 56 8d bd 5b 56 8d bd
       0.069012366 -0.069012366 -0.069012366 -0.069012366
000090 5b 56 8d bd 5b 56 8d 3d 5b 56 8d 3d 5b 56 8d 3d
       -0.069012366 0.069012366 0.069012366 0.069012366
0000a0 5b 56 8d 3d 5b 56 8d 3d 5b 56 8d bd 5b 56 8d bd
       0.069012366 0.069012366 -0.069012366 -0.069012366
0000b0 5b 56 8d bd 5b 56 8d bd 5b 56 8d 3d 5b 56 8d 3d
       -0.069012366 -0.069012366 0.069012366 0.069012366
0000c0 5b 56 8d 3d 5b 56 8d 3d 5b 56 8d 3d 5b 56 8d bd
       0.069012366 0.069012366 0.069012366 -0.069012366
0000d0 5b 56 8d 3d 5b 56 8d 3d 5b 56 8d 3d 5b 56 8d bd
       0.069012366 0.069012366 0.069012366 -0.069012366
0000e0 5b 56 8d 3d 5b 56 8d bd 5b 56 8d 3d 5b 56 8d 3d
       0.069012366 -0.069012366 0.069012366 0.069012366
0000f0 5b 56 8d bd 5b 56 8d bd 5b 56 8d 3d 5b 56 8d bd
       -0.069012366 -0.069012366 0.069012366 -0.069012366
000100 5b 56 8d 3d 5b 56 8d bd 5b 56 8d bd 5b 56 8d 3d
       0.069012366 -0.069012366 -0.069012366 0.069012366
000110 5b 56 8d bd 5b 56 8d bd 5b 56 8d 3d 5b 56 8d bd
       -0.069012366 -0.069012366 0.069012366 -0.069012366
000120 5b 56 8d 3d 5b 56 8d bd 5b 56 8d bd 5b 56 8d bd
       0.069012366 -0.069012366 -0.069012366 -0.069012366
000130 5b 56 8d 3d 5b 56 8d bd 5b 56 8d 3d 5b 56 8d 3d
       0.069012366 -0.069012366 0.069012366 0.069012366
000140 6e c2 8a 2c 5b 56 8d 3d 5b 56 8d 3d 5b 56 8d 3d
       3.943782e-12 0.069012366 0.069012366 0.069012366
000150 5b 56 8d 3d 34 1d 44 1d 5b 56 8d bd 7c 73 4f 2a
       0.069012366 2.5955482e-21 -0.069012366 1.842536e-13
000160 5b 56 8d 3d 5b 56 8d bd 5b 56 8d bd 5b 56 8d 3d
       0.069012366 -0.069012366 -0.069012366 0.069012366
000170 5b 56 8d 3d 5b 56 8d 3d 5b 56 8d 3d 5b 56 8d 3d
       0.069012366 0.069012366 0.069012366 0.069012366
000180 5a 56 8d bd 5a 56 8d 3d 5a 56 8d bd ed 02 03 aa
       -0.06901236 0.06901236 -0.06901236 -1.1636152e-13

fc3.weight f4 [1, 100]
000000 76 37 fa bd 76 37 fa bd 76 37 fa bd 76 37 fa 3d
       -0.122176096 -0.122176096 -0.122176096 0.122176096
000010 76 37 fa 3d 76 37 fa bd 76 37 fa 3d 76 37 fa 3d
       0.122176096 -0.122176096 0.122176096 0.122176096
000020 76 37 fa bd 76 37 fa bd 76 37 fa bd 76 37 fa 3d
       -0.122176096 -0.122176096 -0.122176096 0.122176096
000030 76 37 fa 3d 76 37 fa 3d 76 37 fa bd 76 37 fa bd
       0.122176096 0.122176096 -0.122176096 -0.122176096
000040 76 37 fa bd 76 37 fa bd 76 37 fa 3d 76 37 fa 3d
       -0.122176096 -0.122176096 0.122176096 0.122176096
000050 76 37 fa bd 2e 43 ce 8b 76 37 fa bd 76 37 fa bd
       -0.122176096 -7.9449394e-32 -0.122176096 -0.122176096
000060 76 37 fa 3d a2 7d a2 33 76 37 fa 3d 76 37 fa bd
       0.122176096 7.566565e-08 0.122176096 -0.122176096
000070 76 37 fa 3d 76 37 fa bd 76 37 fa bd 76 37 fa 3d
       0.122176096 -0.122176096 -0.122176096 0.122176096
000080 76 37 fa 3d 76 37 fa bd 76 37 fa bd 76 37 fa bd
       0.122176096 -0.122176096 -0.122176096 -0.122176096
000090 76 37 fa bd 76 37 fa 3d 76 37 fa 3d 76 37 fa 3d
       -0.122176096 0.122176096 0.122176096 0.122176096
0000a0 76 37 fa 3d 76 37 fa 3d 76 37 fa bd 76 37 fa bd
       0.122176096 0.122176096 -0.122176096 -0.122176096
0000b0 76 37 fa bd 76 37 fa bd 76 37 fa 3d 76 37 fa 3d
       -0.122176096 -0.122176096 0.122176096 0.122176096
0000c0 76 37 fa 3d 76 37 fa 3d 76 37 fa 3d 76 37 fa bd
       0.122176096 0.122176096 0.122176096 -0.122176096
0000d0 76 37 fa 3d 76 37 fa 3d 76 37 fa 3d 76 37 fa bd
       0.122176096 0.122176096 0.122176096 -0.122176096
0000e0 76 37 fa 3d 76 37 fa bd 76 37 fa 3d 76 37 fa 3d
       0.122176096 -0.122176096 0.122176096 0.122176096
0000f0 76 37 fa bd 76 37 fa bd 76 37 fa 3d 76 37 fa bd
       -0.122176096 -0.122176096 0.122176096 -0.122176096
000100 76 37 fa 3d 76 37 fa bd 76 37 fa bd 76 37 fa 3d
       0.122176096 -0.122176096 -0.122176096 0.122176096
000110 76 37 fa bd 76 37 fa bd 76 37 fa 3d 76 37 fa bd
       -0.122176096 -0.122176096 0.122176096 -0.122176096
000120 76 37 fa 3d 76 37 fa bd 76 37 fa bd 76 37 fa bd
       0.122176096 -0.122176096 -0.122176096 -0.122176096
000130 76 37 fa 3d 76 37 fa bd 76 37 fa 3d 76 37 fa 3d
       0.122176096 -0.122176096 0.122176096 0.122176096
000140 16 81 d8 ac 76 37 fa 3d 76 37 fa 3d 76 37 fa 3d
       -6.1534207e-12 0.122176096 0.122176096 0.122176096
000150 76 37 fa 3d 16 5d cf 1e 76 37 fa bd 1e 01 93 aa
       0.122176096 2.1955477e-20 -0.122176096 -2.611322e-13
000160 76 37 fa 3d 76 37 fa bd 76 37 fa bd 76 37 fa 3d
       0.122176096 -0.122176096 -0.122176096 0.122176096
000170 76 37 fa 3d 76 37 fa 3d 76 37 fa 3d 76 37 fa 3d
       0.122176096 0.122176096 0.122176096 0.122176096
000180 75 37 fa bd 75 37 fa 3d 75 37 fa bd 69 f7 eb a8
       -0.12217609 0.12217609 -0.12217609 -2.6197538e-14
