gail/save_model/0/SUB038_ckpt_0.pth.tar (torch_old, 154730 bytes, 16 tensors)

fc1.weight f4 [100, 22]
0.12556233 -0.1411192 -0.18136753 -0.085696414 0.041170064 -0.00019921933 -0.19267546 0.037637036
0.07649793 0.1270954 -0.017363548 0.17043388 -0.105812654 0.027623221 -0.20033872 0.039657354
0.059117734 -0.008740246 0.043931454 0.1002669 0.1109502 0.16510823 0.019175729 0.106729746
-0.5872944 0.38123214 0.119387746 -0.5019446 -0.4144334 -0.22990133 -0.44668385 -0.015945613
0.10634327 0.18803886 -0.18678859 0.05240825 0.16160882 0.04745248 0.059801936 -0.19784737
-0.036095023 -0.10515195 0.13505667 -0.20369631 0.07544071 -0.48801282 0.023572475 -0.0966252
-0.035289496 -0.38777894 -0.594712 -0.4803495 -0.27687314 0.06391707 0.04757929 0.17674974
-0.07064088 -0.03134334 0.11787838 0.21276453 0.070577055 0.046675146 -0.10051187 0.0133600235
-0.028393283 0.02227661 0.08356508 -0.10735377 -0.1906558 -0.2844194 0.008526708 -0.31398872
0.025226766 -0.16286485 -0.14901967 -0.10686112 -0.15128021 0.04704073 0.19411889 -0.115122356
-0.094016075 0.16046417 0.06744477 0.18371043 0.021668047 -0.13205475 0.16463181 0.20020583
-0.04959844 0.09460402 -0.42574352 -0.34838355 -0.0056811557 0.028669788 0.0065742135 -0.24711257
0.08866558 -0.12205914 0.13579372 0.005322799 0.08432412 -0.022651449 0.09195787 0.16440377
-0.18926974 0.12977988 0.1900717 0.12230405 0.10172212 -0.04550661 -0.12815128 -0.282526
0.30237353 -0.34658673 -0.009173491 0.29560077 0.00858733 0.26791966 0.18847378 0.1204091
-0.040400773 -0.08007951 -0.040216118 0.05861345 0.036905825 0.2075628 0.19277579 0.03202997
-0.033768386 -0.033163622 -0.05815363 0.115783155 -0.13466175 0.109675154 0.07500596 0.15312095
0.14023668 -0.022165053 0.06432972 -0.021975625 0.19127376 0.0014692396 0.08922824 0.092371374
0.08634055 -0.12774573 0.13442639 -0.060541153 -0.052569553 0.019937903 0.147576 0.15262696
-0.0764671 0.0041880906 -0.13400109 -0.0743161 0.5720281 -0.1463376 0.00517834 0.44762498
0.7024788 0.67515624 0.5109874 0.010758668 0.10274008 -0.036053494 -0.1139675 0.0819104
0.10758722 0.14027247 0.040210307 -0.110446535 -0.057112068 0.13466907 0.085246295 -0.0519187
0.22626664 -0.13319708 0.44425705 -0.021298187 -0.09234603 0.40580937 0.056797396 0.40981907
0.39684638 0.12848032 0.19182938 0.001976952 -0.16869412 0.018528864 -0.21164216 0.032917053
-0.14038798 0.12029651 0.1105552 -0.04730995 -0.113868356 -0.12329786 0.067831926 0.031392463
-0.3475367 0.23764667 0.045548573 -0.22411604 -0.36635488 -0.3123178 -0.45926854 -0.16984642
0.20079082 -0.088579595 0.18850785 -0.17371158 0.038270175 0.19644278 -0.20980379 -0.18060121
-0.15269949 -0.030652776 0.051560342 -0.19551834 0.05416523 -0.10268866 0.37480852 0.22167167
-0.067872815 0.2593895 0.15476377 0.22637653 0.2512923 -0.071006 -0.17976923 0.15769798
0.021393016 0.12140164 0.13626784 0.1949665 -0.17295463 -0.095842354 0.057777077 -0.041324288
0.1168986 -0.016012251 0.073267825 -0.107467026 0.35846484 -0.25072315 0.040646393 0.36327022
0.10781615 0.15732972 0.17748804 0.06858435 -0.19918182 0.1397498 0.04704696 0.033131674
00000000: 6993 003e 8d81 10be 69b8 39be 9a81 afbd
00000010: f1a1 283d 88e5 50b9 b74c 45be 4b29 1a3d
00000020: f2aa 9c3d 4c25 023e 003e 8ebc 3886 2e3e
00000030: 4eb4 d8bd 184a e23c 9825 4dbe c06f 223d
00000040: 7025 723d 4033 0fbc 78f1 333d bc58 cd3d
00000050: dc39 e33d 2212 293e 6b16 9d3c 2095 da3d
00000060: ed58 16bf dc30 c33e 9081 f43d 717f 00bf
00000070: 9d30 d4be 416b 6bbe bfb3 e4be 60a0 82bc
00000080: 80ca d93d 428d 403e 8245 3fbe 08aa 563d
00000090: c87c 253e 885d 423d e0f2 743d 8098 4abe
000000a0: 60d8 13bd e859 d7bd 4c4c 0a3e c495 50be
000000b0: a980 9a3d d1dc f9be 101b c13c 6fe3 c5bd
000000c0: b88b 10bd f68a c6be 0c3f 18bf 5ff0 f5be
000000d0: 51c2 8dbe f4e6 823d 80e2 423d e2fd 343e
000000e0: 2aac 90bd e061 00bd 386a f13d f2de 593e
000000f0: b48a 903d 702e 3f3d 2bd9 cdbd 00e4 5a3c
00000100: 0899 e8bc 707d b63c 2b24 ab3d 4bdc dbbd
00000110: 463b 43be 6b9f 91be 9bb3 0b3c 21c3 a0be
00000120: 5da8 ce3c 0bc6 26be 9d98 18be 01da dabd
00000130: 33e9 1abe c8ad 403d 1ac7 463e 45c5 ebbd
00000140: 808b c0bd b850 243e 7c20 8a3d 961e 3c3e
00000150: 3081 b13c 5c39 07be 3e95 283e c202 4d3e
00000160: bc27 4bbd c1bf c13d 0efb d9be 545f b2be
00000170: fd28 babb e7dc ea3c 806c d73b 140b 7dbe
00000180: 4d96 b53d 24fa f9bd 820d 0b3e e06a ae3b
00000190: 20b2 ac3d 888f b9bc 6854 bc3d 7659 283e
000001a0: edcf 41be 04e5 043e 28a2 423e 8c7a fa3d
000001b0: b053 d03d 2465 3abd 173a 03be 3fa7 90be
000001c0: b4d0 9a3e d173 b1be 694c 16bc fc58 973e
000001d0: dfb1 0c3c c42c 893e 45ff 403e 0c99 f63d
000001e0: 487b 25bd ba00 a4bd a8b9 24bd a814 703d
000001f0: 902a 173d 588b 543e 0467 453e dc31 033d
00000200: b850 0abd 94d6 07bd 8032 6ebd b81f ed3d
00000210: c5e4 09be 5e9d e03d ba9c 993d bdcb 1c3e
00000220: 349a 0f3e 7c93 b5bc 4dbf 833d 3a06 b4bc
00000230: 45dd 433e 8093 c03a 4cbd b63d 342d bd3d
00000240: 50d3 b03d c7cf 02be 12a7 093e 00fa 77bd
00000250: 2c53 57bd d054 a33c 2a1e 173e 3e4a 1c3e
00000260: c89a 9cbd 403c 893b 9537 09be 0a33 98bd
00000270: 6f70 123f 86d9 15be 10af a93b 1a2f e53e
00000280: a7d5 333f 0ad7 2c3f 12d0 023f 2045 303c
00000290: 6469 d23d d4ac 13bd cb67 e9bd a4c0 a73d
000002a0: b056 dc3d 96a3 0f3e 90b3 243d cb31 e2bd
000002b0: 58ee 69bd b0e6 093e 9c95 ae3d b4a8 54bd
000002c0: 71b2 673e d164 08be a975 e33e 8979 aebc
000002d0: ea1f bdbd 3fc6 cf3e 63a4 683d ced3 d13e
000002e0: 732f cb3e 5890 033e ec6e 443e c08f 013b
000002f0: 27be 2cbe d8c9 973c b9b8 58be 08d4 063d
00000300: dec1 0fbe 045e f63d c46a e23d 14c8 41bd
00000310: d033 e9bd 9783 fcbd 77eb 8a3d 6295 003d
00000320: 55f0 b1be a659 733e 2491 3a3d ad7e 65be
00000330: de92 bbbe 1ee8 9fbe 3f25 ebbe 38ec 2dbe
00000340: 1c9c 4d3e 3869 b5bd 3408 413e 73e1 31be
00000350: 30c1 1c3d 4c28 493e ced6 56be 86ef 38be
00000360: 415d 1cbe 881b fbbc f030 533d f635 48be
00000370: 5cdc 5d3d 6f4e d2bd e7e6 bf3e e6fd 623e
00000380: e700 8bbd b3ce 843e 657a 1e3e 40cf 673e
00000390: 62a9 803e 986b 91bd 6d15 38be 947b 213e
000003a0: 6840 af3c 6ca1 f83d cc89 0b3e 4ca5 473e
000003b0: 051b 31be ff48 c4bd a8a7 6c3d a843 29bd
000003c0: 8868 ef3d 202c 83bc 710d 963d ac17 dcbd
000003d0: b488 b73e c95e 80be d57c 263d 8efe b93e
000003e0: b7ce dc3d 0b1b 213e 6dbf 353e f475 8c3d
000003f0: 52f6 4bbe 921a 0f3e 50b4 403d 14b5 073d

fc1.bias f4 [100]
0.100365914 0.38024634 0.54073226 0.014983095 0.09432259 -0.31426847 -0.19981484 -0.45487154
-0.33603165 0.38265207 -0.18053891 -0.35967276 -0.0974987 -0.07645706 0.33423978 -0.21049058
0.22353609 -0.31917313 0.30149734 -0.15643091 -0.04117754 -0.6389685 -0.46815497 0.5625546
0.337594 -0.22456664 0.14031193 -0.33636674 0.8831073 0.34834507 0.22023037 0.0226298
-0.042497292 -0.16012655 0.6963319 -0.3683814 0.022662748 -0.21774693 0.39905724 0.19981956
-0.47358313 0.22967933 0.16215785 0.45044413 0.40932614 -0.121450305 -0.17177336 -0.0867512
-0.392064 -0.30542058 -0.28926754 0.41465196 -0.16931845 -0.21486926 0.4157379 -0.18588759
-0.5488078 -0.51302063 0.1434565 0.32947424 0.4137794 0.48952338 -0.3580909 -0.5403741
-0.4201685 0.351514 0.2754413 -0.37300825 0.05344335 0.5470225 0.039788738 0.14127529
-0.15223545 0.6094835 0.016537687 -0.09230772 0.5564951 0.3476466 0.43964848 -0.6094364
-0.09403227 0.089442916 -0.16243383 0.8420082 -0.068225734 -0.15622883 0.28746396 0.043117482
0.10045741 0.31765002 -0.18022601 -0.3119393 0.14996582 0.15875882 0.39652535 -0.08338935
-0.12695299 0.6145133 0.5149129 -0.11835387
00000000: a58c cd3d a6af c23e 6e6d 0a3f a87b 753c
00000010: 342c c13d cce7 a0be 439c 4cbe ece4 e8be
00000020: 570c acbe f9ea c33e 31df 38be 0727 b8be
00000030: 66ad c7bd 8595 9cbd 7a21 ab3e d88a 57be
00000040: a5e6 643e a96a a3be dc5d 9a3e 6d2f 20be
00000050: c8a9 28bd 7193 23bf 02b2 efbe 9403 103f
00000060: 1fd9 ac3e ccf4 65be eead 0f3e 4338 acbe
00000070: 5213 623f 495a b23e 1284 613e 2162 b93c
00000080: a411 2ebd 37f8 23be cf42 323f 7d9c bcbe
00000090: 3aa7 b93c 0df9 5ebe 3b51 cc3e 809d 4c3e
000000a0: 7d79 f2be 0f31 6b3e b50c 263e 9da0 e63e
000000b0: 3293 d13e f0ba f8bd 5be5 2fbe 9daa b1bd
000000c0: 9dbc c8be 1660 9cbe e01a 94be 434d d43e
000000d0: d161 2dbe b006 5cbe 99db d43e 5159 3ebe
000000e0: ab7e 0cbf 5255 03bf 43e6 123e d9b0 a83e
000000f0: e5da d33e cfa2 fa3e b157 b7be f555 0abf
00000100: 5320 d7be a5f9 b33e a406 8d3e f0fa bebe
00000110: 6ae7 5a3d ab09 0c3f 84f9 223d 78aa 103e
00000120: 9ce3 1bbe 1c07 1c3f 0b7a 873c d40b bdbd
00000130: 7676 0e3f bcfe b13e 9b19 e13e 0604 1cbf
00000140: fe93 c0bd d92d b73d 0e55 26be d98d 573f
00000150: efb9 8bbd 73fa 1fbe 7a2e 933e f59b 303d
00000160: 9dbc cd3d 06a3 a23e 2b8d 38be 82b6 9fbe
00000170: a490 193e ac91 223e 5f05 cb3e 09c8 aabd
00000180: f7ff 01be be50 1d3f 55d1 033f 8463 f2bd

fc2.weight f4 [100, 100]
0.08080589 0.066288285 0.36048064 0.010914856 -0.58547866 -0.31830978 -0.32996282 -0.0392545
-0.3044125 0.23611833 0.014794475 -0.23361817 -0.09296352 0.20024471 0.4047892 0.39704636
0.071524 0.044961065 0.17746124 -0.07461193 0.024841089 -0.3838113 -0.2977311 0.62577194
0.47065443 0.26124346 0.027916385 -0.5242667 0.124484085 0.46898586 -0.017907815 0.4793908
-0.07670412 -0.19222084 0.21846606 -0.43295518 -0.2720998 0.0594388 0.5528078 0.48420367
-0.12231457 -0.21055262 0.092754215 0.08436816 0.35795298 -0.023152677 0.034701146 -0.43969217
-0.5617746 -0.30040777 -0.40583187 0.24726751 -0.25697392 -0.4047946 0.3310246 -0.65600234
-0.56190485 -0.11045308 0.3224148 -0.10739025 0.5388899 0.06224308 -0.3666977 -0.45162264
-0.4189211 0.51867735 -0.07259986 -0.41192353 0.044129454 0.07521142 0.1317156 0.2657521
-0.06168793 0.07482583 0.24353102 0.51193744 0.26073527 0.18256024 0.5123239 -0.14527084
-0.22912122 0.30161816 -0.14897214 0.2430199 -0.45457333 0.21039547 0.29270104 0.3183641
-0.38237622 0.16277502 -0.42386702 0.08414155 0.011540527 0.42038637 0.4718489 0.03424102
-0.34201437 0.41142064 0.058179136 0.48499203 0.06113616 0.06201553 0.34208485 -0.08032818
-0.6881884 -0.34293252 -0.1979363 -0.05507719 -0.33348554 0.288799 -0.055611495 -0.32151312
-0.02106503 0.1836394 0.283036 0.33244166 -0.1046591 0.121692315 0.3106319 -0.19153062
0.21504788 -0.29907897 -0.18591018 0.5168347 0.47475886 0.18883611 0.03152404 -0.45275605
0.13220987 0.4925942 -0.07387726 0.42274794 -0.18183784 -0.13054533 0.2846687 -0.39284927
-0.16038483 0.104460225 0.5195234 0.3979808 -0.20393698 -0.34154007 0.06240458 -0.0152334
0.34109688 -0.10810585 0.14361866 -0.5449413 -0.6425105 -0.32798758 -0.327598 0.1820353
-0.3503972 -0.47029337 0.21444552 -0.47341025 -0.50521445 -0.07570915 0.26850343 -0.18593293
0.5736149 0.041451726 -0.37424275 -0.40014887 -0.4277157 0.50272465 0.07167212 -0.33660272
0.024785582 0.15167505 0.11800359 0.27593338 0.04774639 -0.011570518 0.33691314 0.4095329
0.12376037 0.25942984 0.62173045 -0.2789588 -0.39741337 0.27142912 -0.11290861 0.18624802
-0.40673947 0.30545992 0.31778476 0.3145941 -0.2289337 0.15918425 -0.54470676 0.027716326
0.06574647 0.33280692 0.26534542 0.07750595 -0.33999747 0.28102773 0.12487208 0.5033045
0.12616149 0.10425314 0.3538714 -0.020659462 -0.80330276 -0.3815149 -0.27579635 -0.06536255
-0.29183295 0.35519478 0.11800774 -0.15314953 0.029718524 0.1694202 0.41872048 0.43939537
-0.15929148 0.060116403 0.1795125 -0.09086747 0.20272534 -0.3294263 -0.21781072 0.50861835
0.46786603 0.19665673 0.11964552 -0.3892828 0.21430995 0.47891092 -0.12469555 0.4678509
-0.1144206 -0.11229558 0.29281557 -0.50641143 -0.09797221 0.10440923 0.51792026 0.46228245
-0.17657235 -0.20849353 0.010121652 -0.16143687 0.5502438 -0.03381724 0.07399079 -0.4767222
-0.45799452 -0.36419567 -0.36612883 0.1906675 -0.40345213 -0.40882167 0.20473589 -0.7086257
00000000: 8f7d a53d 27c2 873d eb90 b83e 39d4 323c
00000010: eee1 15bf 80f9 a2be e3f0 a8be 54c9 20bd
00000020: f5db 9bbe 01c9 713e 8764 723c 9a39 6fbe
00000030: a863 bebd f30c 4d3e 8840 cf3e a949 cb3e
00000040: 2d7b 923d 1829 383d 66b8 353e 24ce 98bd
00000050: 8a7f cb3c ea82 c4be 3670 98be 9732 203f
00000060: 9ef9 f03e b4c1 853e e7b0 e43c 5836 06bf
00000070: 83f1 fe3d ea1e f03e 69b3 92bc b672 f53e
00000080: 0d17 9dbd 8ad5 44be 91b5 5f3e 4dac ddbe
00000090: aa50 8bbe 1976 733d d084 0d3f 8be9 f73e
000000a0: 1080 fabd 1b9b 57be ecf5 bd3d 37c9 ac3d
000000b0: 9d45 b73e afaa bdbc ca22 0e3d 551f e1be
000000c0: 76d0 0fbf 0ccf 99be 32c9 cfbe b233 7d3e
000000d0: 1692 83be 3d41 cfbe 0e7c a93e c5ef 27bf
000000e0: ffd8 0fbf 3935 e2bd 8d13 a53e 6bef dbbd
000000f0: b0f4 093f 9af2 7e3d cdbf bbbe 153b e7be
00000100: d47c d6be 0ac8 043f 3caf 94bd a4e7 d2be
00000110: 16c1 343d 7208 9a3d 74e0 063e a910 883e
00000120: 7cac 7cbd 493e 993d 3260 793e 550e 033f
00000130: 187f 853e 12f1 3a3e a927 033f e1c1 14be
00000140: c19e 6abe b26d 9a3e 278c 18be 35da 783e
00000150: d6bd e8be e971 573e e9dc 953e 9f00 a33e
00000160: d1c6 c3be 7fae 263e 1905 d9be 6852 ac3d
00000170: 7b14 3d3c e23c d73e 2e96 f13e 5040 0c3d
00000180: 821c afbe baa5 d23e 3f4d 6e3d e050 f83e
00000190: e969 7a3d ff03 7e3d bf25 af3e 1a83 a4bd
000001a0: 1d2d 30bf da94 afbe d0af 4abe 9f98 61bd
000001b0: 9ebe aabe 76dd 933e e1c8 63bd 5e9d a4be
000001c0: 9290 acbc f80b 3c3e 18ea 903e cb35 aa3e
000001d0: 8357 d6bd d239 f93d 250b 9f3e 9a20 44be
000001e0: 8335 5c3e e120 99be 3d5f 3ebe 474f 043f
000001f0: 9813 f33e 415e 413e 5a1f 013d a4cf e7be
00000200: 0662 073e 4f35 fc3e f64c 97bd 6b72 d83e
00000210: b333 3abe adad 05be 19c0 913e 8a23 c9be
00000220: ec3b 24be 3eef d53d 7cff 043f 24c4 cb3e
00000230: dbd4 50be 57de aebe f29b 7f3d 8395 79bc
00000240: 40a4 ae3e 9a66 ddbd c510 133e 4681 0bbf
00000250: 917b 24bf fded a7be edba a7be 7667 3a3e
00000260: 4367 b3be 4bca f0be 9b97 5b3e d462 f2be
00000270: bc55 01bf 660d 9bbd 4879 893e 3465 3ebe
00000280: 6dd8 123f 49c9 293d bf9c bfbe 50e0 ccbe
00000290: 8dfd dabe 90b2 003f d5c8 923d 3157 acbe
000002a0: 220b cb3c b450 1b3e deab f13d 2447 8d3e
000002b0: b891 433d 4592 3dbc e17f ac3e 4cae d13e
000002c0: 1476 fd3d fdd3 843e ba29 1f3f b0d3 8ebe
000002d0: c479 cbbe c2f8 8a3e a13c e7bd cdb7 3e3e
000002e0: 2840 d0be 3e65 9c3e afb4 a23e 7a12 a13e
000002f0: 996d 6abe 3201 233e e771 0bbf 590d e33c
00000300: 16a6 863d ab65 aa3e 5bdb 873e 71bb 9e3d
00000310: 2614 aebe dee2 8f3e efbc ff3d 90d8 003f
00000320: 7a30 013e ac82 d53d a22e b53e 083e a9bc
00000330: 40a5 4dbf ec55 c3be 2e35 8dbe cddc 85bd
00000340: 216b 95be 17dc b53e 0bae f13d 3bd3 1cbe
00000350: 4374 f33c 7d7c 2d3e 8862 d63e 6ef8 e03e
00000360: 4e1d 23be 9e3c 763d 20d2 373e b918 babd
00000370: 3b97 4f3e 90aa a8be c609 5fbe d034 023f
00000380: 238c ef3e 6260 493e b608 f53d 1350 c7be
00000390: 1174 5b3e d033 f53e 6160 ffbd 278a ef3e
000003a0: 5955 eabd 3afb e5bd eceb 953e 2ea4 01bf
000003b0: a7a5 c8bd 82d4 d53d 6c96 043f 49b0 ec3e
000003c0: 62cf 34be 547f 55be 49d5 253c b54f 25be
000003d0: c7dc 0c3f f283 0abd 7c88 973d ef14 f4be
000003e0: 427e eabe db77 babe 3d75 bbbe 573e 433e
000003f0: 4791 cebe 1351 d1be 49a6 513e 7e68 35bf

fc2.bias f4 [100]
0.4572423 0.425281 0.41244984 -0.46612686 -0.34068894 0.4070956 -0.48540345 0.45008522
-0.2571002 -0.2930828 0.5207462 0.39113757 -0.22624797 0.5654392 0.53720385 0.5426558
0.4666281 0.43219417 -0.5648773 0.5375669 -0.46320322 0.18961513 -0.22661479 -0.4367517
0.41074073 0.47969696 -0.47644553 -0.5050516 0.5505414 -0.011396 0.46278957 0.581511
0.50921273 -0.52801365 0.36102176 -0.31428722 0.38240296 0.47989142 -0.06774764 0.58993477
-0.36845753 -0.5679873 0.46336493 -0.25880706 -0.23768325 0.44156453 0.0654963 0.22457948
-0.35510802 -0.505032 -0.5201764 -0.5253526 -0.46477613 -0.014881981 0.5135396 -0.38851935
-0.51643175 -0.20632723 -0.49906752 0.33490214 0.40910205 0.56971157 0.4711315 0.5522539
0.25784233 0.22716086 0.3117325 0.4319511 -0.0009234295 0.25474095 0.0061267 -0.1711174
-0.012391702 0.5021345 -0.5557124 0.47867656 0.09110349 -0.51295197 0.001287551 0.58958954
0.11927943 -0.45772105 0.44773346 0.12858857 -0.4816045 0.55491865 -0.43603542 0.41071892
0.3937218 -0.4351944 0.22187696 -0.4787382 -0.28265765 -0.5011597 -0.50544316 -0.53595954
0.4325336 -0.55783 -0.5599329 0.2428077
00000000: aa1b ea3e 6ebe d93e a02c d33e 2ea8 eebe
00000010: c86e aebe d66e d03e cd86 f8be 9271 e63e
00000020: a3a2 83be f30e 96be 9f4f 053f 2f43 c83e
00000030: 8cad 67be a0c0 103f 3186 093f 7eeb 0a3f
00000040: e1e9 ee3e 8e48 dd3e cc9b 10bf fc9d 093f
00000050: f928 edbe 782a 423e b50d 68be eb9d dfbe
00000060: 9c4c d23e d79a f53e abf0 f3be 104b 01bf
00000070: 48f0 0c3f 4ab6 3abc c1f2 ec3e e8dd 143f
00000080: c45b 023f e72b 07bf d8d7 b83e 41ea a0be
00000090: 52ca c33e 54b4 f53e 46bf 8abd f705 173f
000000a0: 77a6 bcbe 9e67 11bf 2b3e ed3e 5c82 84be
000000b0: 3d63 73be bf14 e23e ed22 863d 2af8 653e
000000c0: b8d0 b5be c749 01bf 482a 05bf 827d 06bf
000000d0: 23f7 edbe 8dd3 73bc 5577 033f 02ec c6be
000000e0: df34 04bf 7247 53be c785 ffbe 4b78 ab3e
000000f0: d375 d13e 9ed8 113f 2638 f13e 8360 0d3f
00000100: e903 843e db9c 683e 679b 9f3e b228 dd3e
00000110: 4e12 72ba 686d 823e 7cc2 c83b 6639 2fbe
00000120: 9106 4bbc e38b 003f 2b43 0ebf 1815 f53e
00000130: 7794 ba3d d250 03bf 0bc3 a83a 57ef 163f
00000140: c648 f43d 6a5a eabe 523d e53e b9ac 033e
00000150: dd94 f6be 260f 0e3f 0940 dfbe c049 d23e
00000160: e795 c93e cdd1 debe b733 633e 2c1d f5be
00000170: 81b8 90be 014c 00bf b964 01bf a534 09bf
00000180: 0b75 dd3e f2cd 0ebf c357 0fbf 95a2 783e

fc3.weight f4 [2, 100]
0.7463912 0.8887843 0.83879185 -0.87279 -1.3518198 0.97293985 -0.88062805 1.3300382
1.954736 1.5626822 0.932618 0.8991665 1.2898437 0.8686461 0.89084995 0.8190802
0.81070274 1.2684572 -0.8239487 1.0304267 -0.8587566 -1.649879 1.5629326 -0.7802752
0.8040473 0.9639085 -0.912033 -0.91719884 0.8423226 0.82963824 0.88775593 0.8525768
0.8209714 -0.9310747 1.0892602 -1.1660656 0.822406 0.85534346 0.59016484 0.84709567
-0.8293564 -0.8191655 0.8789179 1.6489425 -1.2043712 0.9261247 1.0677264 -1.5017471
-0.86433136 -0.8498587 -0.9458495 -0.9242263 -0.8436423 -0.5280256 1.0094198 -1.0569646
-0.878308 1.5788242 -0.7996705 1.1404881 0.85632277 0.8808595 1.0387082 0.8789711
-1.59787 1.067742 1.1947484 1.1719829 -1.4009763 -1.6316696 1.3422607 -1.0469404
0.3523502 1.0676749 -0.8049921 1.0815814 1.1853299 -0.8995269 -1.3222004 0.8980151
1.4589404 -0.8554431 0.96868074 0.5352491 -0.93302804 0.87890774 -1.103839 0.97454625
0.84635085 -1.0123519 1.252244 -0.9205965 -1.1337668 -0.84334296 -0.890786 -0.8818944
0.8717744 -0.88770545 -0.80330825 -1.5703006 -0.99080366 -1.0795661 -1.0646905 1.0400318
1.7494663 -0.98161054 1.0826097 -1.6962057 -1.5294234 -1.2714492 -1.1219667 -1.1225947
-1.4571967 -1.1131619 -1.1000373 -1.1024702 -1.1297364 -1.3644419 1.0907791 -0.8650865
1.052272 1.2999371 -1.3238271 1.0017699 -1.0557425 -1.0116901 1.1122276 1.131608
-1.0819622 -1.4535922 -1.1111977 -1.0972904 -1.0908378 1.100849 -1.024158 1.2072355
-1.059358 -1.0827409 -1.5188699 -1.0472536 1.0949537 1.0932434 -1.121262 -1.3295819
1.1626825 -1.1238976 -1.440405 1.4413065 1.0898439 1.1108575 1.0953919 1.1249285
1.0995 1.5123534 -1.0434308 1.1910553 1.0838023 -1.2833 1.0996348 -1.1037705
-1.0970325 -1.1116756 -1.0795556 -1.1104218 1.260522 -0.9866575 -1.133388 -1.0758915
1.4791176 1.2594937 -1.297766 1.1777332 -1.2347792 -1.108421 1.0801378 -0.97263247
-0.9792889 1.1213603 1.465565 -1.1110773 -1.7085658 1.0768237 -0.8699879 -1.5576943
1.0973232 -1.1150274 1.2147007 -0.8534423 -1.0811132 1.0522457 -1.1690085 1.1168344
1.0973779 1.047931 1.11988 1.0963804 -1.1126586 1.1190634 1.110715 1.2485358
00000000: 7e13 3f3f 5e87 633f 10bb 563f 2a6f 5fbf
00000010: 6e08 adbf 9612 793f d770 61bf b13e aa3f
00000020: ca34 fa3f f805 c83f 0ec0 6e3f c72f 663f
00000030: 9919 a53f 975f 5e3f be0e 643f 3daf 513f
00000040: 378a 4f3f ce5c a23f 4dee 52bf 06e5 833f
00000050: 79d7 5bbf 3c2f d3bf 2d0e c83f 1ec0 47bf
00000060: 0bd6 4d3f b5c2 763f ff7a 69bf 8bcd 6abf
00000070: 74a2 573f 2c63 543f f943 633f 7942 5a3f
00000080: 2f2b 523f e95a 6ebf e16c 8b3f a341 95bf
00000090: 3389 523f caf7 5a3f 0b15 173f 43db 583f
000000a0: b350 54bf d5b4 51bf c300 613f 8c10 d33f
000000b0: d628 9abf 8216 6d3f 42ab 883f 4039 c0bf
000000c0: d244 5dbf 5790 59bf 3123 72bf 189a 6cbf
000000d0: f1f8 57bf b02c 07bf ab34 813f 9e4a 87bf
000000e0: cbd8 60bf e916 ca3f 35b7 4cbf 84fb 913f
000000f0: f837 5b3f 0280 613f 64f4 843f 4004 613f
00000100: 0187 ccbf c5ab 883f 84ed 983f 8903 963f
00000110: 3153 b3bf 8dda d0bf 33cf ab3f 2502 86bf
00000120: 3f67 b43e 92a9 883f f613 4ebf 4271 8a3f
00000130: e4b8 973f 6547 66bf dd3d a9bf 51e4 653f
00000140: 8fbe ba3f 52fe 5abf 76fb 773f 1606 093f
00000150: edda 6ebf 1900 613f 994a 8dbf dd7b 793f
00000160: 73aa 583f bf94 81bf 8849 a03f 36ac 6bbf
00000170: 451f 91bf 53e5 57bf 8d0a 64bf d5c3 61bf
00000180: 9b2c 5f3f aa40 63bf 9ca5 4dbf 9cff c8bf
00000190: 4fa5 7dbf 392f 8abf c747 88bf c31f 853f
000001a0: 83ee df3f d44a 7bbf f492 8a3f 451d d9bf
000001b0: 25c4 c3bf d9be a2bf 9b9c 8fbf 2fb1 8fbf
000001c0: 6c85 babf 177c 8ebf 06ce 8cbf be1d 8dbf
000001d0: 349b 90bf 08a6 aebf a69e 8b3f 4f76 5dbf
000001e0: d9b0 863f 5764 a63f 2b73 a9bf ff39 803f
000001f0: 9222 87bf 107f 81bf 795d 8e3f 88d8 903f
00000200: bd7d 8abf 4f0f babf ba3b 8ebf 0374 8cbf
00000210: 93a0 8bbf 9fe8 8c3f 9c17 83bf b186 9a3f
00000220: 0b99 87bf 4197 8abf 546a c2bf 680c 86bf
00000230: 7127 8c3f 66ef 8b3f 8385 8fbf bd2f aabf
00000240: c8d2 943f e0db 8fbf 315f b8bf bb7c b83f
00000250: 0180 8b3f 9430 8e3f cd35 8c3f a8fd 8f3f
00000260: 6abc 8c3f cc94 c13f 248f 85bf 8074 983f
00000270: 09ba 8a3f 2d43 a4bf d5c0 8c3f 5a48 8dbf
00000280: 906b 8cbf 634b 8ebf e12e 8abf 4d22 8ebf
00000290: c958 a13f 9695 7cbf dc12 91bf d0b6 89bf
000002a0: ba53 bd3f 1737 a13f 321d a6bf f6bf 963f
000002b0: 3f0d 9ebf bde0 8dbf f541 8a3f 71fe 78bf
000002c0: adb2 7abf bc88 8f3f a297 bb3f c837 8ebf
000002d0: 49b2 dabf 5cd5 893f 87b7 5ebf 8762 c7bf
000002e0: 1675 8c3f 38b9 8ebf 507b 9b3f 327b 5abf
000002f0: eb61 8abf fdaf 863f 12a2 95bf 6ef4 8e3f
00000300: e176 8c3f 9a22 863f 3a58 8f3f 3156 8c3f
00000310: 996b 8ebf 783d 8f3f e92b 8e3f 05d0 9f3f

fc3.bias f4 [2]
0.9757913 -0.9686237
00000000: 75cd 793f b9f7 77bf

fc1.weight f4 [100, 22]
3.2007766e-10 -2.91741e-10 -2.1998289e-10 -5.1487925e-10 1.6346034e-10 -4.7963484e-11 -4.85722e-11 -5.3033522e-11
-5.0542508e-11 -5.6224e-41 2.22785e-40 7.44413e-40 3.9315e-40 -1.12153e-39 8.31256e-40 -1.719934e-39
7.50887e-40 -4.78207e-40 -8.90504e-40 -2.09748e-39 -9.28238e-40 -1.2341287e-37 -1.4816872e-09 4.1241437e-09
4.481775e-10 1.4902557e-09 3.3599332e-09 -1.0317306e-09 -1.0240921e-09 -1.0118044e-09 -1.010333e-09 1.42899e-40
-1.334908e-39 1.61093e-39 1.677054e-39 2.08023e-40 -9.59414e-40 1.252523e-39 -1.095328e-39 -1.493072e-39
-1.036043e-39 -1.524204e-39 -1.762323e-39 -1.132539e-39 5.4866667e-11 -1.1279085e-10 3.354693e-11 -1.136198e-10
1.4886924e-12 -2.3388916e-11 -1.7899423e-11 1.8843325e-12 -5.266485e-12 1.770902e-39 -3.0016e-41 1.611314e-39
-9.58838e-40 -7.00426e-40 -1.04974e-40 -6.16136e-40 -1.04725e-40 1.310662e-39 -6.6183e-41 1.106954e-39
1.84287e-39 7.54833e-40 -0.108548254 0.0033569597 0.0026287956 0.0045533646 0.0034229215 0.047052268
0.04538429 0.03697931 0.041029308 -5.07339e-40 8.96094e-40 1.3091e-39 -1.938154e-39 4.8995e-40
-1.129818e-39 7.27701e-40 1.360715e-39 4.3249e-40 1.947284e-39 7.83222e-40 -2.32576e-40 -6.84314e-40
-2.6143917e-07 -1.8608024e-07 1.2062062e-08 3.0589018e-08 1.2871201e-08 1.5108162e-08 -5.193128e-09 -8.583961e-08
-5.6259665e-08 -4.80481e-40 1.423439e-39 -4.80047e-40 2.146229e-39 9.8004e-41 3.48988e-40 -2.21752e-39
2.040253e-39 -4.89657e-40 -8.48552e-40 2.040945e-39 1.378616e-39 -1.491141e-39 -3.8175613e-10 7.097146e-10
4.8894255e-10 1.0529952e-09 7.373036e-11 -2.83008e-11 -2.8580353e-11 -2.9669066e-11 -2.9240218e-11 -9.40964e-40
-8.92337e-40 -5.40534e-40 2.011088e-39 1.29675e-40 -1.695979e-39 8.76296e-40 1.7861e-39 -2.309619e-39
2.30404e-40 -2.055809e-39 1.797566e-39 -1.889867e-39 1.6697211e-24 -2.9007145e-24 -1.9796963e-24 -1.8032376e-24
-3.9200202e-25 -1.2359017e-25 -1.2820698e-25 -1.5042434e-25 -1.402331e-25 -1.828163e-39 8.6565e-40 4.64023e-40
1.531916e-39 -6.36e-41 2.77907e-40 -3.50358e-40 -3.88657e-40 9.55925e-40 -1.023539e-39 7.73898e-40
-7.86822e-40 3.4270039e-37 1.797493e-05 -0.0013862248 0.000102543694 -0.0015184467 0.00027982803 -9.555479e-05
-7.6927296e-05 2.7162754e-05 -2.4901434e-05 1.91636e-39 1.493833e-39 1.581033e-39 -1.357263e-39 1.704175e-39
-8.14622e-40 5.56125e-40 -6.7365e-41 5.66071e-40 1.682417e-39 1.04044e-40 -7.19662e-40 1.053128e-39
1.5240901e-15 -1.274035e-15 -6.505767e-16 -2.8310223e-15 3.2277593e-16 -3.468405e-16 -3.4875158e-16 -3.7850938e-16
-3.5895144e-16 1.79644e-40 -1.047322e-39 -1.309767e-39 -1.34488e-39 -1.813747e-39 1.957784e-39 -1.070274e-39
1.384062e-39 -1.44435e-39 -1.91726e-39 -1.89809e-39 -1.019588e-39 -1.222917e-39 -0.1085483 0.0033569576
0.0026287949 0.0045533613 0.0034229215 0.047052283 0.045384303 0.036979318 0.041029323 -8.4353e-41
-1.991691e-39 -4.75206e-40 -1.293099e-39 -1.991808e-39 6.38144e-40 4.61911e-40 1.375349e-39 -6.7984e-40
-1.085e-40 9.14067e-40 1.061353e-39 -9.97753e-40 0.1085483 -0.0033569573 -0.002628793 -0.0045533623
-0.0034229215 -0.047052283 -0.04538431 -0.03697932 -0.041029323 6.14801e-40 8.53815e-40 -4.77788e-40
-1.99322e-40 5.22588e-40 2.045188e-39 -4.73273e-40 9.76778e-40 1.585695e-39 -2.176916e-39 1.980796e-39
-3.4293e-41 3.25942e-40 0.108548276 -0.0033569601 -0.0026287949 -0.0045533623 -0.003422923 -0.047052275
-0.045384295 -0.036979318 -0.041029315 -2.13042e-40 -1.187481e-39 1.21644e-40 9.77191e-40 6.2605e-40
00000000: edf6 af2f e562 a0af aedf 71af 6887 0db0
00000010: ffb9 332f 15f2 52ae 6f9f 55ae 703e 69ae
00000020: ce49 5eae bb9c 0080 096d 0200 1f1b 0800
00000030: f147 0400 5f36 0c80 340d 0900 7aba 1280
00000040: 2b2d 0800 0c35 0580 5db2 0980 ecd6 1680
00000050: 8d1b 0a80 1cfb 2782 3ca4 cbb0 5ab4 8d31
00000060: 6063 f62f b6d1 cc30 92e4 6631 cbcc 8db0
00000070: 0ac0 8cb0 b40f 8bb0 efdb 8ab0 588e 0100
00000080: 2e89 0e80 9e8a 1100 f242 1200 e243 0200
00000090: 7572 0a80 86a3 0d00 54ed 0b80 1442 1080
000000a0: 1148 0b80 dc98 1080 a430 1380 0f55 0c80
000000b0: 604e 712e 9b07 f8ae 7c8a 132e 43da f9ae
000000c0: cc83 d12b 28bb cdad eb71 9dad 1e99 042c
000000d0: 484c b9ac 8e48 1300 ac53 0080 b08b 1100
000000e0: da70 0a80 81a0 0780 a024 0180 89b5 0680
000000f0: ee23 0180 9845 0e00 7eb8 0080 bd0d 0c00
00000100: 2c11 1400 2b38 0800 8c4e debd 7000 5c3b
00000110: df47 2c3b 6434 953b 1853 603b e1b9 403d
00000120: e1e4 393d 9e77 173d 590e 283d 4186 0580
00000130: f2c1 0900 3d41 0e00 c91a 1580 c855 0500
00000140: 794d 0c80 89ec 0700 1fd1 0e00 9bb5 0400
00000150: 3c34 1500 4e87 0800 5488 0280 9773 0780
00000160: ed5b 8cb4 59cd 47b4 8239 4f32 fb60 0333
00000170: 2420 5d32 33c7 8132 3d6f b2b1 d356 b8b3
00000180: 28a2 71b3 633b 0580 f87f 0f00 2d3a 0580
00000190: d05e 1700 3211 0100 d6cc 0300 8b25 1880
000001a0: 6537 1600 f754 0580 6b3d 0980 5339 1600
000001b0: 0503 0f00 b23c 1080 66df d1af ba15 4330
000001c0: 4666 0630 fab8 9030 8122 a22e bcef f8ad
000001d0: 3c65 fbad 667c 02ae 8f99 00ae 063f 0a80
000001e0: 79b7 0980 cae2 0580 18e6 1500 7b69 0100
000001f0: b377 1280 c28a 0900 ec72 1300 4726 1980
00000200: 4682 0200 c262 1680 e292 1300 2e94 1480
00000210: 3c30 0118 926e 6098 ed2b 1998 cd84 0b98
00000220: 33a3 f296 4aff 1896 6ab6 1e96 6037 3a96
00000230: a599 2d96 2de8 1380 146d 0900 820d 0500
00000240: 5cae 1000 4ab1 0080 b106 0300 a8d0 0380
00000250: 6b3b 0480 bb68 0a00 3625 0b80 506d 0800
00000260: 5791 0880 d43a e902 dec8 9637 fcb1 b5ba
00000270: ba0c d738 9e06 c7ba e2b5 9239 9664 c8b8
00000280: 0754 a1b8 92db e337 6ce3 d0b7 08de 1400
00000290: 3344 1000 4737 1100 7fc7 0e80 8c8e 1200
000002a0: d6de 0880 400e 0600 c9bb 0080 fa29 0600
000002b0: e551 1200 0822 0100 20d6 0780 b177 0b00
000002c0: 00a5 db26 989b b7a6 1684 3ba6 25ff 4ba7
000002d0: 5211 ba25 a0f0 c7a5 a60a c9a5 2032 daa5
000002e0: e2eb cea5 c6f4 0100 8267 0b80 1943 0e80
000002f0: faa4 0e80 fdbf 1380 8151 1500 7da7 0b80
00000300: 3412 0f00 43ba 0f80 8ae0 1480 1aab 1480
00000310: 321a 0b80 ff50 0d80 924e debd 6700 5c3b
00000320: dc47 2c3b 5d34 953b 1853 603b e5b9 403d
00000330: e4e4 393d a077 173d 5d0e 283d 24eb 0080
00000340: 06b0 1580 ae2c 0580 a214 0e80 5ab0 1580
00000350: e3f2 0600 9f07 0500 eaf9 0e00 1e67 0780
00000360: 742e 0180 0cf4 0900 9f8e 0b00 54dd 0a80
00000370: 924e de3d 6600 5cbb d447 2cbb 5f34 95bb
00000380: 1853 60bb e5b9 40bd e6e4 39bd a177 17bd
00000390: 5d0e 28bd d1b1 0600 174c 0900 e133 0580
000003a0: a12b 0280 c3b0 0500 2745 1600 4b27 0580
000003b0: dca2 0a00 4644 1100 5bb4 1780 a791 1500
000003c0: 985f 0080 988c 0300 8f4e de3d 7200 5cbb
000003d0: dc47 2cbb 5f34 95bb 1e53 60bb e3b9 40bd
000003e0: e2e4 39bd a077 17bd 5b0e 28bd e051 0280
000003f0: 37ee 0c80 1853 0100 03a4 0a00 2cd1 0600

fc1.bias f4 [100]
4.2818575e-11 1.3309642e-09 -2.2205763e-11 -0.14175008 1.634267e-07 1.7894249e-11 2.4968397e-26 0.0004813325
4.1853378e-16 -0.14175011 0.14175013 0.14175008 2.1897046e-07 0.14175011 -0.14175013 0.14175013
-0.14175013 -0.14175013 -1.1244205e-08 -0.14175014 1.5301873e-07 1.8229418e-11 -3.8899075e-09 -8.4346914e-19
-6.6631574e-13 1.1807722e-11 -0.14175013 -0.1417501 8.4756216e-08 0.14175014 5.0846006e-07 -1.7546724e-16
4.4351043e-05 0.1417501 -0.14175013 -2.6280353e-11 2.2095443e-15 -0.14175008 2.0220908e-23 -0.1417501
-5.8968874e-19 -0.14175007 -1.6656745e-14 4.044517e-07 3.5817122e-12 2.5883463e-26 0.14175014 -0.14175011
-1.1879404e-21 -0.14175013 -0.1417501 -0.14175011 0.14175013 2.4029765e-19 -7.3188527e-19 -0.14175013
1.2928698e-05 0.14175011 0.14175016 3.5007194e-16 0.14175013 4.624433e-10 0.14175013 -4.8988898e-17
0.14175013 1.0088675e-12 -1.9536952e-11 -0.14175016 0.1417501 2.2946027e-08 3.4170653e-06 0.14175011
0.1417501 -0.14175011 -0.14175013 0.14175013 0.14175013 -0.14175013 3.0775903e-13 0.14175008
-2.192074e-18 5.615063e-22 -3.5466696e-18 0.14175008 -0.14175008 0.14175013 1.2406849e-05 7.471099e-06
0.14175013 -1.9817478e-21 5.0284e-18 6.491993e-07 -1.3698898e-16 0.14175011 -0.14175011 0.14175011
2.4140518e-13 5.69037e-18 1.417499e-17 -0.14175014
00000000: 6e51 3c2e 24ed b630 ef52 c3ad ef26 11be
00000010: 647a 2f34 4466 9d2d 6846 f714 5b5b fc39
00000020: af44 f125 f126 11be f226 113e ef26 113e
00000030: 241e 6b34 f126 113e f226 11be f226 113e
00000040: f226 11be f226 11be 892c 41b2 f326 11be
00000050: 784d 2434 0059 a02d fda7 85b1 baf2 78a1
00000060: 1c8d 3bab 41b9 4f2d f226 11be f026 11be
00000070: 3903 b633 f326 113e 1c7d 0835 ca4c 4aa5
00000080: 9205 3a38 f026 113e f226 11be 182a e7ad
00000090: e636 1f27 ef26 11be 8b90 c319 f026 11be
000000a0: 9f0b 2ea1 ee26 11be d707 96a8 6b23 d934
000000b0: 640a 7c2c 302b 0015 f326 113e f126 11be
000000c0: 3884 b39c f226 11be f026 11be f126 11be
000000d0: f226 113e c1d8 8d20 b003 58a1 f226 11be
000000e0: 56e8 5837 f126 113e f426 113e 80cd c925
000000f0: f226 113e 1c3b fe2f f226 113e e2eb 61a4
00000100: f226 113e 48fc 8d2b 4ed9 abad f426 11be
00000110: f026 113e d91a c532 bc50 6536 f126 113e
00000120: f026 113e f126 11be f226 11be f226 113e
00000130: f226 113e f226 11be c040 ad2a ef26 113e
00000140: 1bbf 21a2 72b4 291c 59d9 82a2 ef26 113e
00000150: ef26 11be f226 113e 0327 5037 40b0 fa36
00000160: f226 113e 94bc 159d e583 b922 a344 2e35
00000170: 03f0 1da5 f126 113e f126 11be f126 113e
00000180: 27e6 872a 06f0 d122 c0bd 8223 f326 11be

fc2.weight f4 [100, 100]
2.3976282e-10 4.369365e-09 2.6100549e-11 0.020998878 -2.0099836e-08 -2.9704528e-10 9.559139e-25 0.00031231565
2.109389e-15 0.020998884 -0.020998886 -0.020998877 1.7384625e-08 -0.020998888 0.020998888 -0.020998886
0.020998888 0.020998886 -4.7359002e-08 0.02099889 2.1201383e-07 -4.048383e-12 1.6208178e-08 -3.1996593e-18
2.7790093e-11 -1.5640591e-11 0.020998888 0.020998882 -5.1308155e-07 -0.02099889 2.1180826e-06 7.141715e-16
-1.3989866e-05 -0.020998882 0.020998886 8.744331e-11 -1.0110663e-14 0.020998878 -2.2039724e-22 0.02099888
1.825278e-18 0.020998877 1.6532512e-13 -1.4237828e-08 -5.0302547e-11 -3.976237e-25 -0.020998891 0.020998884
-4.5946894e-23 0.020998888 0.02099888 0.020998884 -0.020998888 2.21142e-18 5.2393273e-17 0.020998888
8.298349e-07 -0.020998884 -0.020998888 -1.1502072e-14 -0.02099889 1.5445252e-09 -0.020998886 1.0257296e-18
-0.02099889 1.25395146e-11 1.459485e-10 0.020998888 -0.02099888 -5.3717486e-08 -1.0818023e-07 -0.020998888
-0.020998882 0.020998888 0.020998888 -0.020998891 -0.020998888 0.020998888 -2.882149e-15 -0.02099888
-9.49723e-19 4.845562e-21 -4.8287273e-19 -0.020998877 0.02099888 -0.020998888 -4.845796e-07 -0.00048912707
-0.020998888 -1.0108212e-19 6.6929127e-19 8.676208e-06 7.447972e-17 -0.02099889 0.020998886 -0.020998884
3.4502258e-12 -9.59069e-16 2.6504832e-15 0.020998882 2.3976282e-10 4.3693658e-09 2.6100563e-11 0.020998854
-2.0099817e-08 -2.9704508e-10 9.559142e-25 0.00031231612 2.1093897e-15 0.020998865 -0.020998865 -0.02099886
1.7384636e-08 -0.020998864 0.020998865 -0.020998865 0.020998865 0.020998865 -4.7359052e-08 0.020998867
2.1201397e-07 -4.048371e-12 1.6208176e-08 -3.199659e-18 2.7790088e-11 -1.5640602e-11 0.020998865 0.02099886
-5.1308115e-07 -0.020998867 2.1180826e-06 7.1417165e-16 -1.3989889e-05 -0.020998858 0.020998862 8.744328e-11
-1.0110662e-14 0.020998854 -2.2039724e-22 0.02099886 1.8252737e-18 0.020998854 1.6532508e-13 -1.4237823e-08
-5.030255e-11 -3.976239e-25 -0.02099887 0.020998864 -4.5948308e-23 0.020998865 0.02099886 0.020998862
-0.020998867 2.2114204e-18 5.2393273e-17 0.020998865 8.2983206e-07 -0.02099886 -0.02099887 -1.150208e-14
-0.020998867 1.5445267e-09 -0.020998865 1.0257226e-18 -0.020998865 1.2539507e-11 1.4594849e-10 0.02099887
-0.02099886 -5.3717457e-08 -1.0818005e-07 -0.020998865 -0.020998862 0.020998865 0.020998865 -0.020998867
-0.020998865 0.020998867 -2.8821067e-15 -0.020998854 -9.497245e-19 4.845564e-21 -4.82874e-19 -0.020998854
0.020998854 -0.020998864 -4.84579e-07 -0.00048912666 -0.020998865 -1.0108208e-19 6.692928e-19 8.67621e-06
7.447963e-17 -0.020998865 0.020998865 -0.02099886 3.4502282e-12 -9.590694e-16 2.650483e-15 0.020998865
2.3976288e-10 4.3693653e-09 2.6100561e-11 0.020998871 -2.0099824e-08 -2.9704525e-10 9.559139e-25 0.00031231574
2.109389e-15 0.020998877 -0.02099888 -0.020998877 1.7384624e-08 -0.020998884 0.020998884 -0.020998882
0.020998882 0.020998882 -4.735901e-08 0.020998886 2.1201379e-07 -4.048392e-12 1.6208176e-08 -3.1996624e-18
2.7790095e-11 -1.5640598e-11 0.02099888 0.020998877 -5.1308155e-07 -0.020998886 2.1180829e-06 7.1417175e-16
-1.3989885e-05 -0.020998877 0.020998882 8.74433e-11 -1.0110663e-14 0.020998873 -2.203972e-22 0.020998877
1.8252762e-18 0.02099887 1.6532508e-13 -1.4237802e-08 -5.0302543e-11 -3.9762376e-25 -0.020998888 0.02099888
-4.5948308e-23 0.020998884 0.020998875 0.02099888 -0.020998884 2.2114204e-18 5.2393276e-17 0.020998884
00000000: 9ecf 832f 5721 9631 3695 e52d d705 ac3c
00000010: 02a8 acb2 684d a3af a7eb 9317 4cbe a339
00000020: 5cff 1727 da05 ac3c db05 acbc d605 acbc
00000030: 3255 9532 dc05 acbc dc05 ac3c db05 acbc
00000040: dc05 ac3c db05 ac3c c667 4bb3 dd05 ac3c
00000050: eba5 6334 9870 8eac 293a 8b32 db17 6ca2
00000060: ba71 f42d 7b93 89ad dc05 ac3c d905 ac3c
00000070: b2ba 09b5 dd05 acbc 6224 0e36 8ed8 4d26
00000080: 04b6 6ab7 d905 acbc db05 ac3c 354a c02e
00000090: 3423 36a8 d705 ac3c d238 859b d805 ac3c
000000a0: 87ae 0622 d605 ac3c b923 3a2a a19a 74b2
000000b0: a23b 5dae fe1d f696 de05 acbc da05 ac3c
000000c0: 802f 5e9a dc05 ac3c d805 ac3c da05 ac3c
000000d0: dc05 acbc 8b2c 2322 0f9f 7124 dc05 ac3c
000000e0: d2c1 5e35 da05 acbc dc05 acbc f233 4fa8
000000f0: dd05 acbc 2647 d430 db05 acbc f85e 9721
00000100: dd05 acbc f498 5c2d da78 202f dc05 ac3c
00000110: d805 acbc 00b7 66b3 b650 e8b3 dc05 acbc
00000120: d905 acbc dc05 ac3c dc05 ac3c de05 acbc
00000130: dc05 acbc dc05 ac3c 44ae 4fa7 d805 acbc
00000140: 8527 8ca1 660f b71d d584 0ea1 d605 acbc
00000150: d805 ac3c dc05 acbc 0e14 02b5 c338 00ba
00000160: dc05 acbc 64ac ee9f 388a 4521 0890 1137
00000170: 11bd ab24 dd05 acbc db05 ac3c da05 acbc
00000180: bec9 722c 6737 8aa6 c9fc 3e27 d905 ac3c
00000190: 9ecf 832f 5921 9631 3e95 e52d ca05 ac3c
000001a0: f7a7 acb2 614d a3af aaeb 9317 5cbe a339
000001b0: 5fff 1727 d005 ac3c d005 acbc cd05 acbc
000001c0: 3855 9532 cf05 acbc d005 ac3c d005 acbc
000001d0: d005 ac3c d005 ac3c d467 4bb3 d105 ac3c
000001e0: f5a5 6334 7c70 8eac 283a 8b32 da17 6ca2
000001f0: b771 f42d 8193 89ad d005 ac3c cd05 ac3c
00000200: abba 09b5 d105 acbc 6224 0e36 91d8 4d26
00000210: 1eb6 6ab7 cc05 acbc ce05 ac3c 314a c02e
00000220: 3323 36a8 ca05 ac3c d238 859b cd05 ac3c
00000230: 72ae 0622 ca05 ac3c b623 3a2a 9c9a 74b2
00000240: a33b 5dae 061e f696 d205 acbc cf05 ac3c
00000250: 4031 5e9a d005 ac3c cd05 ac3c ce05 ac3c
00000260: d105 acbc 8d2c 2322 0f9f 7124 d005 ac3c
00000270: a0c1 5e35 cd05 acbc d205 acbc fb33 4fa8
00000280: d105 acbc 3447 d430 d005 acbc b45e 9721
00000290: d005 acbc eb98 5c2d d978 202f d205 ac3c
000002a0: cd05 acbc f8b6 66b3 9d50 e8b3 d005 acbc
000002b0: ce05 acbc d005 ac3c d005 ac3c d105 acbc
000002c0: d005 acbc d105 ac3c 7cad 4fa7 ca05 acbc
000002d0: 9427 8ca1 6b0f b71d ee84 0ea1 ca05 acbc
000002e0: ca05 ac3c cf05 acbc 0414 02b5 bc38 00ba
000002f0: d005 acbc 5eac ee9f 568a 4521 0a90 1137
00000300: 03bd ab24 d005 acbc d005 ac3c cd05 acbc
00000310: c9c9 722c 6a37 8aa6 c8fc 3e27 d005 ac3c
00000320: a0cf 832f 5821 9631 3d95 e52d d305 ac3c
00000330: fba7 acb2 674d a3af a7eb 9317 4fbe a339
00000340: 5cff 1727 d605 ac3c d805 acbc d605 acbc
00000350: 3155 9532 da05 acbc da05 ac3c d905 acbc
00000360: d905 ac3c d905 ac3c c867 4bb3 db05 ac3c
00000370: e8a5 6334 ac70 8eac 283a 8b32 ea17 6ca2
00000380: bb71 f42d 7f93 89ad d805 ac3c d605 ac3c
00000390: b2ba 09b5 db05 acbc 6324 0e36 93d8 4d26
000003a0: 19b6 6ab7 d605 acbc d905 ac3c 344a c02e
000003b0: 3423 36a8 d405 ac3c d138 859b d605 ac3c
000003c0: 7eae 0622 d205 ac3c b623 3a2a 849a 74b2
000003d0: a13b 5dae 001e f696 dc05 acbc d805 ac3c
000003e0: 4031 5e9a da05 ac3c d505 ac3c d805 ac3c
000003f0: da05 acbc 8d2c 2322 109f 7124 da05 ac3c

fc2.bias f4 [100]
-0.077582285 -0.0775822 -0.07758227 0.07758221 0.07758227 -0.07758227 0.0775822 0.07758225
-0.07758226 -0.07758226 -0.07758225 0.07758225 0.077582225 0.07758225 -0.07758221 -0.07758225
-0.07758228 -0.07758227 0.07758225 0.07758222 -0.07758221 0.0775822 -0.077582136 -0.07758226
0.07758212 -0.07758213 0.077582225 -0.07758226 0.07758225 -0.07758222 -0.07758228 0.07758221
0.07758221 -0.07758225 -0.07758226 -0.07758222 -0.07758225 0.07758225 0.07758225 0.07758221
0.07758225 0.07758226 -0.07758225 -0.07758218 -0.07758228 -0.07758219 0.077582195 0.0775822
0.07758225 0.07758226 0.07758222 -0.07758227 0.07758225 0.07758226 0.07758226 -0.07758225
0.07758222 -0.07758218 0.0775822 0.07758225 -0.077582195 -0.07758227 0.07758222 -0.07758225
0.07758225 -0.07758222 -0.07758221 0.07758228 -0.07758222 -0.077582285 0.07758225 -9.351224e-25
0.07758222 -0.0775822 -0.0775822 -0.07758227 0.077582195 -0.07758222 0.0775822 0.07758226
2.533529e-12 0.07758224 0.07758226 0.07758225 0.07758221 3.122562e-20 -0.07758226 0.07758219
0.0775822 -0.07758227 -0.07758227 -1.4457592e-34 0.0775822 0.07758222 0.07758227 0.07758225
-0.077582285 0.07758228 -0.077582195 0.0775822
00000000: 76e3 9ebd 6be3 9ebd 74e3 9ebd 6ce3 9e3d
00000010: 74e3 9e3d 74e3 9ebd 6be3 9e3d 71e3 9e3d
00000020: 73e3 9ebd 73e3 9ebd 71e3 9ebd 71e3 9e3d
00000030: 6ee3 9e3d 71e3 9e3d 6ce3 9ebd 71e3 9ebd
00000040: 75e3 9ebd 74e3 9ebd 71e3 9e3d 6de3 9e3d
00000050: 6ce3 9ebd 6be3 9e3d 62e3 9ebd 73e3 9ebd
00000060: 60e3 9e3d 61e3 9ebd 6ee3 9e3d 73e3 9ebd
00000070: 71e3 9e3d 6de3 9ebd 75e3 9ebd 6ce3 9e3d
00000080: 6ce3 9e3d 71e3 9ebd 73e3 9ebd 6de3 9ebd
00000090: 71e3 9ebd 71e3 9e3d 71e3 9e3d 6ce3 9e3d
000000a0: 71e3 9e3d 73e3 9e3d 71e3 9ebd 68e3 9ebd
000000b0: 75e3 9ebd 69e3 9ebd 6ae3 9e3d 6be3 9e3d
000000c0: 71e3 9e3d 73e3 9e3d 6de3 9e3d 74e3 9ebd
000000d0: 71e3 9e3d 73e3 9e3d 73e3 9e3d 71e3 9ebd
000000e0: 6de3 9e3d 68e3 9ebd 6be3 9e3d 71e3 9e3d
000000f0: 6ae3 9ebd 74e3 9ebd 6de3 9e3d 71e3 9ebd
00000100: 71e3 9e3d 6de3 9ebd 6ce3 9ebd 75e3 9e3d
00000110: 6de3 9ebd 76e3 9ebd 71e3 9e3d 04b4 9097
00000120: 6de3 9e3d 6be3 9ebd 6be3 9ebd 74e3 9ebd
00000130: 6ae3 9e3d 6de3 9ebd 6be3 9e3d 73e3 9e3d
00000140: 0048 322c 70e3 9e3d 73e3 9e3d 71e3 9e3d
00000150: 6ce3 9e3d 7575 131f 73e3 9ebd 69e3 9e3d
00000160: 6be3 9e3d 74e3 9ebd 74e3 9ebd a32c 4087
00000170: 6be3 9e3d 6de3 9e3d 74e3 9e3d 71e3 9e3d
00000180: 76e3 9ebd 75e3 9e3d 6ae3 9ebd 6be3 9e3d

fc3.weight f4 [1, 100]
-0.1727294 -0.1727292 -0.17272936 0.17272921 0.17272936 -0.17272936 0.17272922 0.17272928
-0.17272933 -0.17272933 -0.17272927 0.17272928 0.17272925 0.17272927 -0.17272921 -0.17272927
-0.17272937 -0.17272937 0.17272928 0.17272922 -0.1727292 0.1727292 -0.17272902 -0.17272934
0.17272897 -0.172729 0.1727293 -0.17272933 0.17272928 -0.17272924 -0.17272937 0.17272921
0.17272921 -0.17272928 -0.17272934 -0.17272922 -0.17272931 0.17272927 0.17272928 0.17272921
0.17272928 0.17272936 -0.17272928 -0.17272913 -0.17272937 -0.17272916 0.17272918 0.17272922
0.17272927 0.17272934 0.17272922 -0.17272936 0.17272927 0.17272933 0.17272936 -0.17272934
0.17272921 -0.17272915 0.1727292 0.17272927 -0.17272918 -0.17272937 0.17272921 -0.17272927
0.17272934 -0.17272924 -0.17272921 0.17272937 -0.17272921 -0.17272942 0.17272934 -1.6686571e-25
0.17272921 -0.1727292 -0.1727292 -0.17272934 0.17272918 -0.17272921 0.1727292 0.17272934
6.2069265e-12 0.17272927 0.17272936 0.17272928 0.17272921 -2.0615641e-20 -0.17272933 0.17272913
0.17272922 -0.17272936 -0.17272936 -5.126151e-34 0.17272921 0.17272922 0.17272937 0.17272928
-0.1727294 0.17272936 -0.17272918 0.17272918
00000000: fadf 30be ecdf 30be f7df 30be eddf 303e
00000010: f7df 303e f7df 30be eedf 303e f2df 303e
00000020: f5df 30be f5df 30be f1df 30be f2df 303e
00000030: f0df 303e f1df 303e eddf 30be f1df 30be
00000040: f8df 30be f8df 30be f2df 303e eedf 303e
00000050: ecdf 30be ecdf 303e e0df 30be f6df 30be
00000060: dddf 303e dfdf 30be f3df 303e f5df 30be
00000070: f2df 303e efdf 30be f8df 30be eddf 303e
00000080: eddf 303e f2df 30be f6df 30be eedf 30be
00000090: f4df 30be f1df 303e f2df 303e eddf 303e
000000a0: f2df 303e f7df 303e f2df 30be e8df 30be
000000b0: f8df 30be eadf 30be ebdf 303e eedf 303e
000000c0: f1df 303e f6df 303e eedf 303e f7df 30be
000000d0: f1df 303e f5df 303e f7df 303e f6df 30be
000000e0: eddf 303e e9df 30be ecdf 303e f1df 303e
000000f0: ebdf 30be f8df 30be eddf 303e f1df 30be
00000100: f6df 303e efdf 30be eddf 30be f8df 303e
00000110: eddf 30be fbdf 30be f6df 303e db91 4e96
00000120: eddf 303e ecdf 30be ecdf 30be f6df 30be
00000130: ebdf 303e eddf 30be ecdf 303e f6df 303e
00000140: 0663 da2c f1df 303e f7df 303e f2df 303e
00000150: eddf 303e 90b5 c29e f5df 30be e8df 303e
00000160: eedf 303e f7df 30be f7df 30be 7858 2a88
00000170: eddf 303e eedf 303e f8df 303e f2df 303e
00000180: fadf 30be f7df 303e ebdf 30be ebdf 303e

fc1.weight f4 [100, 24]
0.008471153 0.25039238 -0.037873145 -0.10420926 0.063125685 0.012853247 0.2161576 -0.059454866
-0.037300628 0.20241627 -0.14398131 -0.0024333447 -0.14169621 -0.00915131 -0.14087927 0.06269115
-0.13647278 -0.1583248 -0.1385667 0.10256636 -0.13812408 0.119802274 0.045761712 0.2081897
0.086969726 0.07311092 0.07697388 -0.1653954 -0.14387783 -0.1726009 -0.24436013 -0.24476665
-0.11373551 0.13403228 0.13753918 0.017171368 -0.074147254 -0.12939623 0.06618303 0.0015245974
0.1549465 -0.018191263 -0.052954108 -0.15728387 -0.11138475 0.031843726 0.16975437 -0.08038657
0.16503693 -0.055753138 -0.1695574 0.015627947 0.21351604 -0.051930957 -0.090421885 -0.022128869
0.09345493 -0.20040648 0.032572165 -0.030533522 0.014382333 -0.04103847 -0.07231605 -0.04327856
-0.056316003 -0.13460654 -0.17300546 -0.20299849 -0.08378723 -0.12868178 -0.14117993 0.0812306
0.07020197 -0.21537025 0.032522928 -0.16477817 -0.012910087 0.09146303 -0.19847052 -0.15305516
-0.11043085 -0.1723868 0.16095951 0.18680397 -0.19828513 0.10636082 0.17428097 -0.04985395
-0.023952872 0.068677515 0.094787866 0.14626116 0.07196146 -0.022900084 -0.13913524 -0.04163373
-0.06094665 -0.00062997243 -0.028346468 0.011982184 -0.16374195 -0.13069306 -0.062020767 -0.20840223
-0.11613601 -0.16513778 -0.19292879 -0.029473335 0.17257363 -0.013961151 -0.0014872104 -0.008670226
-0.006540939 0.15454754 -0.06687158 -0.10976623 0.18435624 -0.00581902 0.019271573 0.19514844
-0.14208843 -0.12528701 -0.12591374 -0.20993903 -0.004851357 -0.2524794 -0.09699756 -0.062771656
-0.016411917 0.07399571 0.17244154 -0.077443585 -0.17254117 0.025175333 0.14958793 -0.027063087
0.16056183 -0.09650545 -0.07253313 -0.06343526 -0.0643675 0.18467468 0.042968076 -0.0017674083
-0.2359592 -0.030595576 -0.13122296 -0.21281698 -0.015492114 0.13266845 -0.16351694 -0.17738691
0.07677566 0.18290865 -0.1933351 -0.13922754 0.20048076 0.15442643 0.02912882 0.10926178
0.021771029 -0.11778597 -0.11758044 0.17305288 0.0101043135 0.07407624 0.07121675 0.06281762
0.13760677 0.18279697 -0.09717696 0.04547497 0.18831874 0.059151627 0.1914099 0.20670615
0.09231518 -0.113425456 0.07349771 0.08169246 -0.011307627 0.16403002 -0.079631485 0.032361984
-0.152095 -0.116669714 -0.08722923 -0.053563714 -0.17439996 0.041105103 -0.06272276 -0.13922209
0.008406171 0.1591489 0.11714604 0.0829825 0.10905647 0.10341958 0.02450959 0.10886643
0.08393718 0.1816127 0.1742895 0.048463494 -0.04423082 -0.18074106 -0.033203706 0.20353648
0.15871239 0.16041413 -0.0751777 -0.030540332 0.12533009 -0.061360773 0.07445313 -0.093732364
-0.048484206 0.15067865 0.032522995 0.18174793 -0.12919873 0.12570515 0.15102462 0.16825941
0.0009401505 -0.031300157 0.19015121 -0.12310607 0.09083539 -0.1886134 0.0072486997 0.048635185
0.05266142 -0.13044904 -0.11696787 0.08488697 0.14126459 -0.0016038935 0.031205129 -0.18185514
-0.13332999 -0.05364219 -0.008711181 0.075750716 -0.118531674 -0.22860356 -0.18638916 -0.2899193
-0.18228021 -0.06176637 0.022790238 -0.0917225 0.015389383 0.13056195 0.058306754 -0.042467758
00000000: 97ca 0a3c 6e33 803e df20 1bbd aa6b d5bd
00000010: 0a48 813d 6d96 523c 6b58 5d3e f286 73bd
00000020: 8bc8 18bd 3646 4f3e d66f 13be c078 1fbb
00000030: d018 11be 60ef 15bc a842 10be 3864 803d
00000040: 85bf 0bbe e51f 22be 6ee4 0dbe 500e d23d
00000050: 6670 0dbe e55a f53d a270 3b3d ae2f 553e
00000060: 2f1d b23d 2ebb 953d 7ba4 9d3d 695d 29be
00000070: b654 13be 4abe 30be 8b39 7abe 1ca4 7abe
00000080: 2aee e8bd c23f 093e 12d7 0c3e f8aa 8c3c
00000090: 84da 97bd 7280 04be f88a 873d 00d5 c73a
000000a0: 4caa 1e3e d805 95bc 68e6 58bd 060f 21be
000000b0: b01d e4bd 916e 023d 17d4 2d3e b7a1 a4bd
000000c0: 71ff 283e 675d 64bd 74a0 2dbe 2e06 803c
000000d0: f3a3 5a3e 8eb5 54bd 1c2f b9bd 9a47 b5bc
000000e0: 4c65 bf3d 5b37 4dbe 646a 053d 7021 fabc
000000f0: e0a3 6b3c f417 28bd 701a 94bd dc44 31bd
00000100: 9cab 66bd 4cd6 09be 5828 31be d6de 4fbe
00000110: a498 abbd 28c5 03be 7991 10be 3b5c a63d
00000120: 0dc6 8f3d 058a 5cbe c336 053d 9cbb 28be
00000130: d484 53bc f850 bb3d db3b 4bbe 7eba 1cbe
00000140: 9229 e2bd 2a86 30be 92d2 243e 8a49 3f3e
00000150: 420b 4bbe b4d3 d93d b676 323e a833 4cbd
00000160: d038 c4bc cca6 8c3d 2420 c23d 7cc5 153e
00000170: 8860 933d f598 bbbc 7879 0ebe 2188 2abd
00000180: 32a3 79bd bc24 25ba da36 e8bc ec50 443c
00000190: f8ab 27be 67d4 05be 7d09 7ebd 6567 55be
000001a0: b7d8 edbd e119 29be 208f 45be 1072 f1bc
000001b0: 24b7 303e 50bd 64bc 80ee c2ba 900d 0ebc
000001c0: 6055 d6bb b641 1e3e f8f3 88bd 1ecd e0bd
000001d0: e2c7 3c3e 7aad bebb 6bdf 9d3c fed4 473e
000001e0: a17f 11be 3d4b 00be 88ef 00be 42fa 56be
000001f0: 22f8 9ebb fb44 81be a8a6 c6bd 6d8e 80bd
00000200: 4972 86bc 108b 973d 8494 303e be9a 9ebd
00000210: a2ae 30be 803c ce3c 942d 193e 68b3 ddbc
00000220: 526a 243e a6a4 c5bd 408c 94bd 58ea 81bd
00000230: 1cd3 83bd 5c1b 3d3e 4bff 2f3d 62a8 e7ba
00000240: 4a9f 71be 93a3 fabc 505f 06be b2ec 59be
00000250: a3d2 7dbc 3dda 073e fc70 27be eaa4 35be
00000260: 8f3c 9d3d 684c 3b3e a3f9 45be aa91 0ebe
00000270: d44a 4d3e f621 1e3e 909f ee3c a4c4 df3d
00000280: 2859 b23c c539 f1bd 04ce f0bd c634 313e
00000290: 908c 253c 49b5 973d 16da 913d 86a6 803d
000002a0: cae8 0c3e 212f 3b3e b704 c7bd f643 3a3d
000002b0: a1d6 403e fa48 723d f500 443e c7aa 533e
000002c0: be0f bd3d 9b4b e8bd f885 963d 604e a73d
000002d0: a043 39bc 7cf7 273e d515 a3bd 008e 043d
000002e0: cbbe 1bbe 88f0 eebd 3da5 b2bd a065 5bbd
000002f0: e795 32be d35d 283d ca74 80bd 3c90 0ebe
00000300: 09ba 093c eef7 223e 43ea ef3d bbf2 a93d
00000310: 0059 df3d a5cd d33d 56c8 c83c 5df5 de3d
00000320: 42e7 ab3d aef8 393e f278 323e a881 463d
00000330: 602b 35bd 2f14 39be 9c00 08bd de6b 503e
00000340: 8085 223e 9a43 243e c4f6 99bd b82f fabc
00000350: 8856 003e 6f55 7bbd e27a 983d c1f6 bfbd
00000360: 6097 46bd 814b 1a3e d536 053d 211c 3a3e
00000370: ac4c 04be dab8 003e 33a6 1a3e 324c 2c3e
00000380: 6f74 763a 9834 00bd 00b7 423e 091f fcbd
00000390: e807 ba3d df23 41be 8086 ed3b b035 473d
000003a0: 80b3 573d 6f94 05be da8c efbd 38d9 ad3d
000003b0: aaa7 103e bc39 d2ba e6a1 ff3c 3c38 3abe
000003c0: a887 08be eab7 5bbd 57b9 0ebc 3123 9b3d
000003d0: bcc0 f2bd 0d17 6abe cddc 3ebe 4d70 94be
000003e0: aaa7 3abe bcfe 7cbd 98b2 ba3c 02d9 bbbd
000003f0: c023 7c3c 08b2 053e 10d3 6e3d acf2 2dbd
